result/model/0404 1135.pt (torch, 79133 bytes, 98 tensors)

input_conv.conv.weight f4 [4, 1, 3, 3]
0.11093378 0.34483728 0.46301654 -0.33502322 -0.17729133 -0.11685213 0.09876951 -0.008123042
0.023178937 -0.24223322 -0.33514443 -0.19561857 -0.15188003 -0.08846255 0.025875336 0.1646817
0.054967657 0.25565183 -0.09568127 -0.2053823 -0.23458973 0.35924953 0.11167696 -0.049202465
0.02233126 -0.4166145 -0.28696454 0.34946516 0.39345682 -0.12016386 -0.1322583 -0.29428372
0.3090471 0.1477012 -0.3244346 -0.36359373
00000000: 4031 e33d 838e b03e 8110 ed3e 2a88 abbe
00000010: dc8b 35be 2b50 efbd ab47 ca3d 8216 05bc
00000020: c1e1 bd3c fc0b 78be 0d98 abbe 3c50 48be
00000030: 7086 1bbe da2b b5bd 83f8 d33c 52a2 283e
00000040: c425 613d cce4 823e 8bf4 c3bd bd4f 52be
00000050: 4a38 70be 8eef b73e e4b6 e43d 8688 49bd
00000060: 0cf0 b63c 7f4e d5be 04ed 92be 19ed b23e
00000070: 2c73 c93e 7818 f6bd b86e 07be 5bac 96be
00000080: 6c3b 9e3e fc3e 173e 4b1c a6be f528 babe

input_conv.conv.bias f4 [4]
0.15353118 -0.22201724 0.09674568 0.2343453
00000000: 4737 1d3e 7d58 63be 9922 c63d 37f8 6f3e

input_conv.BN.weight f4 [4]
1.068646 0.9652483 0.9504658 0.9740797
00000000: 64c9 883f 831a 773f ba51 733f 4a5d 793f

input_conv.BN.bias f4 [4]
0.10270725 -0.13215101 -0.030269956 0.4339968
00000000: 2e58 d23d 9852 07be b3f8 f7bc d434 de3e

input_conv.BN.running_mean f4 [4]
0.16484495 -0.23931126 0.09270108 0.24747089
00000000: 1dcd 283e 030e 75be 10da bd3d 0269 7d3e

input_conv.BN.running_var f4 [4]
0.18359226 0.30527467 0.59090585 0.067431584
00000000: 9cff 3b3e f64c 9c3e 9b45 173f 9219 8a3d

block1.0.conv.weight f4 [8, 4, 3, 3]
0.07045303 0.096636854 -0.21234305 0.08431498 0.10802074 -0.0016087752 -0.023982378 -0.17210196
-0.0032138366 -0.18867606 -0.09636672 -0.053836305 0.22446515 0.19249101 0.042958744 -0.01959604
-0.048811845 0.11960608 0.068614915 -0.11777921 -0.23319747 0.0016156256 0.22275022 -0.052465953
0.04511229 0.18753198 0.100804865 -0.28831738 0.095552824 0.07463434 -0.32045165 0.04733097
0.25185385 -0.4322775 0.06961888 0.12131995 0.1159184 -0.000491356 0.15486005 -0.119867146
-0.097833134 -0.044875864 0.17105004 0.14104411 -0.0007005735 0.065807834 0.11744178 0.1713484
-0.16361865 -0.11095658 0.13616528 -0.027890455 -0.17281789 0.19460075 -0.10224539 0.24899316
0.13765775 -0.08619588 0.14800487 0.11641669 0.000302311 0.15449399 0.15370825 -0.11747873
-0.12885171 -0.085414544 0.18927526 0.32458833 0.25026762 0.12812512 0.39181855 0.0067238756
0.10423324 -0.13202459 -0.013571682 0.1911362 -0.07688386 0.011259007 0.10497019 0.105709694
-0.24359065 0.35743985 -0.063565195 -0.26140326 0.15206791 -0.19612134 -0.09395291 -0.061767273
-0.20655277 -0.26703364 0.3193292 -0.279438 -0.30850184 0.3078622 -0.2401957 0.12361785
0.107556894 -0.23225623 -0.07094302 0.09808874 0.11717927 0.13046777 -0.13990828 0.2594954
0.060769092 0.010212211 0.17460029 -0.20876718 -0.045323398 -0.048980422 -0.16137013 0.08169578
-0.31160462 -0.40609363 -0.0010170896 0.22575124 -0.24827999 -0.13484415 -0.068114184 0.1626821
-0.3207532 -0.13801745 -0.2609469 -0.32091165 -0.24771622 0.104109935 0.072071604 0.20817749
0.07030915 -0.11454027 -0.15978888 0.098811634 -0.14546299 -0.011044959 0.2749629 0.23285471
0.17279366 0.06235689 0.042800162 0.04638018 0.24382755 -0.020042043 -0.059937295 -0.024872843
0.010979498 0.23405884 0.17280978 -0.092000134 -0.29033014 -0.22362335 0.15447897 -0.015627982
-0.05339698 0.18907465 -0.07328473 -0.088822775 0.12634687 0.15728617 0.07913287 -0.20925097
0.015883962 -0.121598385 0.14035727 -0.091494046 -0.023608837 -0.051461197 -0.17091815 -0.19901869
-0.058246322 0.16415353 -0.118338495 0.051202867 -0.036381636 0.26617828 -0.11472942 -0.30681923
-0.10202981 0.029042957 0.27538562 -0.3114039 0.042808913 -0.09528985 -0.37645477 0.3125334
-0.2083226 -0.16347307 0.29994857 0.038407147 -0.18670346 0.08959795 -3.7871494e-05 -0.2516503
0.0720196 -0.15710507 0.17057313 0.010581491 -0.22112106 0.042411212 -0.15914638 -0.18337394
-0.09710264 0.087456785 0.023278883 0.027456414 0.01129562 0.044480678 0.10507377 -0.056158718
0.16878343 -0.050091237 -0.06046353 0.18373065 -0.25421005 0.007021228 0.16651683 0.13095278
-0.00795303 0.27619466 0.18919113 -0.03903543 -0.05782575 0.07302663 -0.11464238 -0.24555579
0.18999611 -0.105978854 -0.060563844 -0.3942771 0.0033192546 -0.14806907 -0.3554482 0.18287767
0.04159341 -0.06334498 -0.004941683 0.16569877 -0.28641284 0.054542795 0.029555814 -0.2041801
-0.10594864 0.07857905 0.31564113 -0.2577708 0.16966076 -0.12147535 0.08412139 0.06482591
-0.09251393 0.17741524 -0.18136501 0.052714992 0.12755927 0.08532238 0.10905477 0.34192184
00000000: ae49 903d 8be9 c53d 7570 59be 55ad ac3d
00000010: fa39 dd3d 8add d2ba b176 c4bc 7f3b 30be
00000020: 3b9f 52bb 4c34 41be ea5b c5bd 7583 5cbd
00000030: 31da 653e 5d1c 453e 82f5 2f3d e087 a0bc
00000040: eeee 47bd 08f4 f43d fa85 8c3d 3a36 f1bd
00000050: 51cb 6ebe 66c3 d33a a218 643e 8ae6 56bd
00000060: aac7 383d 6208 403e c872 ce3d 569e 93be
00000070: 33b1 c33d e4d9 983d 3d12 a4be 1fde 413d
00000080: fdf2 803e 7a53 ddbe 5894 8e3d 9876 f83d
00000090: a066 ed3d 58ce 00ba a293 1e3e e87c f5bd
000000a0: bd5c c8bd c1cf 37bd be27 2f3e de6d 103e
000000b0: b1a6 37ba 42c6 863d 5185 f03d f475 2f3e
000000c0: a68b 27be 343d e3bd e96e 0b3e 867a e4bc
000000d0: 2cf7 30be 6b45 473e 0866 d1bd 10f8 7e3e
000000e0: 27f6 0c3e 7787 b0bd 978e 173e e06b ee3d
000000f0: 7f7f 9e39 ac33 1e3e b265 1d3e b098 f0bd
00000100: b4f1 03be d2ed aebd 60d1 413e 7130 a63e
00000110: 1423 803e 3b33 033e 719c c83e f553 dc3b
00000120: 3d78 d53d 7431 07be c35b 5ebc 35b9 433e
00000130: 4975 9dbd b377 383c 9cfa d63d 537e d83d
00000140: d46f 79be 5b02 b73e 782e 82bd a6d6 85be
00000150: b1b7 1b3e 08d4 48be 626a c0bd aeff 7cbd
00000160: 9282 53be a2b8 88be 1e7f a33e 7f12 8fbe
00000170: f4f3 9dbe 1da0 9d3e ddf5 75be 5b2b fd3d
00000180: ca46 dc3d 94d4 6dbe 934a 91bd c0e2 c83d
00000190: affb ef3d 5899 053e 1e44 0fbe 95dc 843e
000001a0: 03e9 783d 1e51 273c 6bca 323e 10c7 55be
000001b0: 07a5 39bd b29f 48bd 363e 25be 1e50 a73d
000001c0: a48a 9fbe 81eb cfbe dd4f 85ba 552b 673e
000001d0: 1c3d 7ebe 9614 0abe 737f 8bbd 2396 263e
000001e0: c339 a4be 7254 0dbe d59a 85be 884e a4be
000001f0: 52a9 7dbe 9737 d53d 479a 933d 7b2c 553e
00000200: 3efe 8f3d 1794 eabd b29f 23be c15d ca3d
00000210: 40f4 14be eaf5 34bc f0c7 8c3e 7771 6e3e
00000220: d2f0 303e f069 7f3d 394f 2f3d 25f9 3d3d
00000230: eead 793e 362f a4bc cf80 75bd 22c2 cbbc
00000240: 5ae3 333c 1fad 6f3e 0cf5 303e 916a bcbd
00000250: 27a6 94be 85fd 64be bc2f 1e3e 4106 80bc
00000260: cbb6 5abd c99c 413e 4e16 96bd b7e8 b5bd
00000270: 1361 013e a00f 213e 6a10 a23d e345 56be
00000280: 151f 823c 9308 f9bd d1b9 0f3e 3b61 bbbd
00000290: 5267 c1bc fac8 52bd 2b05 2fbe 8ecb 4bbe
000002a0: b293 6ebd dd17 283e 745b f2bd 19ba 513d
000002b0: e904 15bd 8548 883e 42f7 eabd 6917 9dbe
000002c0: 01f5 d0bd 7feb ed3c 58ff 8c3e 5570 9fbe
000002d0: 6658 2f3d 5327 c3bd aebe c0be 6104 a03e
000002e0: 8552 55be 7c65 27be dc92 993e d050 1d3d
000002f0: 312f 3fbe 217f b73d 35d8 1eb8 4fd8 80be
00000300: 037f 933d 27e0 20be b9aa 2e3e fd5d 2d3c
00000310: 8f6d 62be 61b7 2d3d 45f7 22be 61c6 3bbe
00000320: c0dd c6bd 8b1c b33d 5bb3 be3c 46ec e03c
00000330: 4411 393c 5f31 363d eb30 d73d af06 66bd
00000340: 90d5 2c3e 782c 4dbd 9ba8 77bd e323 3c3e
00000350: d227 82be 5412 e63b 6383 2a3e 7c18 063e
00000360: 6d4d 02bc 6369 8d3e 52bb 413e 9de3 1fbd
00000370: b2da 6cbd fc8e 953d a0c9 eabd fa72 7bbe
00000380: 578e 423e 710b d9bd cb11 78bd b0de c9be
00000390: da87 593b 6b9f 17be 4efd b5be 4944 3b3e
000003a0: da5d 2a3d 03bb 81bd d7ed a1bb f0ac 293e
000003b0: b4a4 92be 4468 5f3d 091f f23c 9714 51be
000003c0: 9afb d8bd 0eee a03d b79b a13e 89fa 83be
000003d0: 8dbb 2d3e 11c8 f8bd d647 ac3d 72c3 843d
000003e0: f177 bdbd 57ac 353e c0b7 39be adeb 573d
000003f0: e69e 023e 80bd ae3d 1b58 df3d 6110 af3e

block1.0.conv.bias f4 [8]
0.1346892 -0.057758708 0.24390835 -0.42381066 0.24664412 -0.19833262 0.2581006 0.20608407
00000000: f7eb 093e 6594 6cbd 1cc3 793e b6fd d8be
00000010: 4790 7c3e b517 4bbe c325 843e b407 533e

block1.0.BN.weight f4 [8]
1.1283892 0.9669629 1.0423743 1.0094951 0.98219186 0.9767865 1.0551716 0.98146814
00000000: 0f6f 903f e18a 773f 856c 853f 2337 813f
00000010: ed70 7b3f ae0e 7a3f dd0f 873f 7f41 7b3f

block1.0.BN.bias f4 [8]
0.009459329 0.099790335 -0.1310613 0.0034322615 0.026603825 -0.018549299 0.11237666 -0.042136967
00000000: 4dfb 1a3c e05e cc3d ef34 06be cbef 603b
00000010: 44f0 d93c b3f4 97bc bc25 e63d d097 2cbd

block1.0.BN.running_mean f4 [8]
-0.06674671 1.4767759 0.3922407 -0.7446246 -0.19664349 -0.34755856 0.010678147 0.8880394
00000000: 80b2 88bd fe06 bd3f c6d3 c83e b89f 3ebf
00000010: e95c 49be 32f3 b1be 65f3 2e3c 8d56 633f

block1.0.BN.running_var f4 [8]
0.29692906 0.50826806 0.32397854 0.7060915 0.28715464 0.344324 0.31832382 1.4582657
00000000: 1607 983e db1d 023f 84e0 a53e 6ac2 343f
00000010: ef05 933e 3c4b b03e 57fb a23e 73a8 ba3f

block1.1.conv.weight f4 [16, 8, 3, 3]
-0.18756288 0.033966478 0.40116608 0.2717892 0.012981943 0.17865042 0.20531043 0.021737471
0.102764554 -0.15754053 -0.118155874 0.063663006 -0.09673815 -0.07566548 0.08306862 0.073489614
0.2776696 0.27666622 -0.20762476 -0.19795983 0.22771455 0.051107693 0.1818362 0.14074561
0.09921592 0.20219226 0.21247357 -0.14439751 0.015370018 0.09464056 -0.16082737 -0.11729566
0.099856436 -0.28784347 -0.09972773 0.069225624 -0.18508025 -0.10765188 -0.07625795 -0.16802196
-0.10603373 -0.20478866 0.027623748 0.05348196 -0.04730018 -0.15662038 -0.36700052 0.0068694935
-0.07602231 0.094397016 0.22781329 0.12647308 0.043035887 0.24101137 0.11441425 0.0497061
-0.030711241 0.016707478 -0.10778974 -0.12097254 -0.07834988 -0.00022724131 -0.119034365 0.20592538
0.06880405 0.07663304 0.12065039 0.0073758382 0.09022115 0.22976619 0.10889306 -0.13192254
-0.19624001 -0.03999236 0.0042914515 0.16520621 0.081849314 -0.26239988 0.088503286 -0.0893969
-0.046779957 -0.2795954 -0.16482538 -0.17811124 0.062674776 -0.056703623 0.19353342 -0.11838443
-0.25507694 -0.074498594 0.07032147 -0.12107163 -0.036884904 0.10010401 0.008897089 -0.13964336
0.21983054 0.1246975 -0.05117372 -0.1553326 -0.09399091 0.13527201 0.09167606 0.04360247
-0.0037078657 -0.059761535 -0.03497995 0.2449914 0.018678585 -0.20022337 -0.22859341 -0.1297666
-0.19702214 -0.21643153 0.14379302 0.16314156 0.13984495 0.037222225 0.080241986 0.19366917
0.17011878 -0.04040812 -0.10058803 0.22000062 0.13702647 0.0789616 -0.103201136 -0.051234752
-0.107834846 0.009296963 0.069751196 0.16523544 0.017723585 -0.17671475 0.004691272 0.14227414
0.06309845 -0.044354964 0.11433658 -0.12885523 -0.16152543 0.25857255 -0.010277255 -0.25350413
0.0068370234 0.2748648 0.18876387 0.047895975 0.013683448 -0.053645503 -0.077121794 -0.17443809
-0.23106004 -0.47187617 -0.30444917 -0.13837178 -0.060137525 -0.102115884 0.044542447 -0.0047565345
-0.26410475 -0.26383457 -0.20005095 0.022356087 -0.2190122 0.11521683 0.1403143 -0.05608504
-0.042088114 0.020000236 -0.009936349 -0.033226535 0.008454762 -0.0753002 -0.07273597 -0.05321752
0.037609953 -0.26536176 -0.04025214 -0.06140582 0.09575874 0.11440421 0.11149643 0.2193169
0.024894143 0.21948028 0.009068987 -0.028117862 -0.09831317 -0.0101202065 0.32450658 0.06167147
0.08926995 0.05704009 0.20237187 -0.11701698 -0.37008548 0.11064248 -0.028781572 0.058000866
-0.11873403 0.0660889 -0.063393414 0.15429698 0.04703175 -0.23060986 -0.3095032 -0.15215337
-0.06323323 -0.23733585 -0.06364646 0.09924223 0.097766206 0.019094415 -0.14823894 0.16347781
-0.11443666 -0.15507868 -0.11895793 0.08816263 0.06757034 -0.19168144 -0.028005527 0.0658231
-0.025678873 -0.24318622 -0.18681191 -0.040110618 -0.075214826 0.09770312 0.08962889 -0.016077586
0.21638826 0.09036033 -0.1345819 -0.15953587 -0.017986134 0.0076416754 -0.14133014 0.2121894
0.08464144 -0.22614582 -0.05958529 0.1400001 0.07768744 0.10624135 -0.15776186 -0.017647117
0.020406136 -0.007835965 -0.099828824 -0.12809266 -0.12572339 -0.23520657 -0.24966964 -0.13992743
00000000: 7c10 40be 6f20 0b3d a465 cd3e f427 8b3e
00000010: 37b2 543c 23f0 363e e63c 523e c812 b23c
00000020: 3976 d23d 4e52 21be b5fb f1bd c061 823d
00000030: a71e c6bd 81f6 9abd e11f aa3d b981 963d
00000040: b62a 8e3e 32a7 8d3e 969b 54be fbb5 4abe
00000050: 012e 693e 4d56 513d 4533 3a3e 9e1f 103e
00000060: b731 cb3d 7d0b 4f3e ac92 593e f1dc 13be
00000070: 87d2 7b3c e9d2 c13d eeaf 24be b538 f0bd
00000080: 8881 cc3d 3860 93be 0d3e ccbd 2ac6 8d3d
00000090: ad85 3dbe 9778 dcbd 212d 9cbd f30d 2cbe
000000a0: 3628 d9bd 1eb4 51be 334b e23c e60f 5b3d
000000b0: d5bd 41bd 1861 20be 7ee7 bbbe 7d19 e13b
000000c0: 96b1 9bbd 3953 c13d e347 693e 2982 013e
000000d0: 6646 303d afcb 763e 0552 ea3d a098 4b3d
000000e0: 2496 fbbc 1fde 883c dec0 dcbd 73c0 f7bd
000000f0: e775 a0bd a047 6eb9 4ac8 f3bd 1ade 523e
00000100: 23e9 8c3d c9f1 9c3d 8d17 f73d 04b1 f13b
00000110: dec5 b83d d447 6b3e 5303 df3d b416 07be
00000120: 24f3 48be 07cf 23bd 4e9f 8c3b d12b 293e
00000130: 9da0 a73d 4759 86be 3641 b53d b915 b7bd
00000140: 579c 3fbd 2127 8fbe fcc7 28be cb62 36be
00000150: a25b 803d 0f42 68bd a02d 463e 8973 f2bd
00000160: 7299 82be b892 98bd b404 903d 67f4 f7bd
00000170: a014 17bd 5503 cd3d 19c5 113c abfe 0ebe
00000180: 421b 613e 6761 ff3d 899b 51bd 820f 1fbe
00000190: 4e7e c0bd bf84 0a3e a8c0 bb3d 8198 323d
000001a0: aaff 72bb 83c8 74bd 2347 0fbd 07df 7a3e
000001b0: d503 993c 5b07 4dbe 6414 6abe 89e1 04be
000001c0: 2cc0 49be 3aa0 5dbe 7a3e 133e 950e 273e
000001d0: 8433 0f3e 5576 183d e955 a43d 3651 463e
000001e0: 9e33 2e3e fc82 25bd 1901 cebd d847 613e
000001f0: ab50 0c3e 9fb6 a13d 1e5b d3bd 88db 51bd
00000200: 84d8 dcbd 4a52 183c b7d9 8e3d 7b33 293e
00000210: 0d31 913c b6f4 34be 3eb9 993b 50b0 113e
00000220: c339 813d 8dad 35bd 4c29 ea3d a0f2 03be
00000230: ec66 25be 9f63 843e ef61 28bc 4bcb 81be
00000240: 1c09 e03b 14bb 8c3e 514b 413e 922e 443d
00000250: 8a30 603c 63bb 5bbd 08f2 9dbd e69f 32be
00000260: 019b 6cbe c199 f1be c3e0 9bbe 55b1 0dbe
00000270: c452 76bd 2222 d1bd 2472 363d b4dc 9bbb
00000280: bd38 87be 5315 87be 28da 4cbe 1d24 b73c
00000290: bc44 60be cdf6 eb3d 8dae 0f3e 6db9 65bd
000002a0: 9664 2cbd 89d7 a33c 11cc 22bc 8c18 08bd
000002b0: d885 0a3c fe36 9abd 99f6 94bd 9dfa 59bd
000002c0: e50c 1a3d 7fdd 87be 6edf 24bd ab84 7bbd
000002d0: 291d c43d c14c ea3d 3e58 e43d 9c94 603e
000002e0: cdee cb3c 70bf 603e 1796 143c 6e57 e6bc
000002f0: 6a58 c9bd 39cf 25bc ba25 a63e 399b 7c3d
00000300: 2ad3 b63d dfa2 693d 923a 4f3e 99a6 efbd
00000310: d87b bdbe 8698 e23d 55c7 ebbc 5192 6d3d
00000320: d42a f3bd 9e59 873d 68d4 81bd 0700 1e3e
00000330: 5da4 403d fe24 6cbe 3477 9ebe 18ce 1bbe
00000340: 6c80 81bd 2b08 73be 1359 82bd 833f cb3d
00000350: a639 c83d e46b 9c3c f3cb 17be ba66 273e
00000360: c55d eabd f2cc 1ebe 37a0 f3bd 9c8e b43d
00000370: 5262 8a3d 2448 44be d96b e5bc 43ce 863d
00000380: 805c d2bc cf05 79be 9f4b 3fbe 084b 24bd
00000390: 3b0a 9abd 9318 c83d 5a8f b73d 24b5 83bc
000003a0: e294 5d3e d60e b93d d6cf 09be 5f5d 23be
000003b0: a857 93bc 0567 fa3b d9b8 10be 2e48 593e
000003c0: 7e58 ad3d c592 67be b40f 74bd 305c 0f3e
000003d0: 981a 9f3d 1195 d93d 538c 21be b090 90bc
000003e0: c52a a73c 6b62 00bc 0e73 ccbd b92a 03be
000003f0: a2bd 00be fed9 70be 66a9 7fbe 2349 0fbe

block1.1.conv.bias f4 [16]
0.3103854 0.13473026 0.10626552 -0.052948684 0.05866536 -0.06170474 -0.1451858 0.03004092
-0.01741735 -0.065782435 0.12414467 0.15428631 -0.24967918 0.08647191 -0.037237354 0.08690732
00000000: d6ea 9e3e bbf6 093e bda1 d93d b8e0 58bd
00000010: 174b 703d 1cbe 7cbd 96ab 14be 6018 f63c
00000020: d5ae 8ebc f1b8 86bd 903f fe3d 3bfd 1d3e
00000030: e6ab 7fbe 2f18 b13d 3286 18bd 77fc b13d

block1.1.BN.weight f4 [16]
1.063481 0.95852965 1.0456719 0.96062964 1.0357276 0.8608775 1.0152076 0.92528296
1.1273841 0.97612894 1.1358323 0.8189189 1.0354806 0.9823908 1.0249255 1.136597
00000000: 2520 883f 3362 753f 94d8 853f d3eb 753f
00000010: b992 843f 7862 5c3f 53f2 813f 58df 6c3f
00000020: 1f4e 903f 96e3 793f f462 913f aba4 513f
00000030: a18a 843f f77d 7b3f c230 833f 037c 913f

block1.1.BN.bias f4 [16]
-0.09548293 -0.17451924 -0.08743503 -0.13222839 -0.10987893 -0.040895604 -0.18975894 -0.2524262
-0.1865998 -0.28262135 -0.06456852 -0.35820517 0.016054379 -0.121727176 0.10962264 -0.118372425
00000000: 8e8c c3bd 2cb5 32be 2311 b3bd e166 07be
00000010: 3408 e1bd 2682 27bd 2b50 42be 023e 81be
00000020: 0514 3fbe bfb3 90be 803c 84bd ab66 b7be
00000030: 7984 833c 194c f9bd d681 e03d 3e6d f2bd

block1.1.BN.running_mean f4 [16]
0.8671699 -0.23748715 -0.7662531 -0.96336246 -1.6369194 0.5491082 -0.8276493 0.62320334
-0.5272431 -1.3597412 -0.6145269 -0.4550401 0.30996928 -0.9556328 -0.9532393 -0.06380505
00000000: d9fe 5d3f d52f 73be 2a29 44bf ec9e 76bf
00000010: 9386 d1bf 5b92 0c3f d3e0 53bf 418a 1f3f
00000020: 67f9 06bf 000c aebf a351 1dbf 04fb e8be
00000030: 4bb4 9e3e 5aa4 74bf 7e07 74bf 39ac 82bd

block1.1.BN.running_var f4 [16]
1.9936669 0.6480797 1.2868749 1.3329786 2.2694666 0.70948833 0.623254 1.2949191
0.96374404 1.854459 0.94649965 1.0909863 1.2310255 0.8067844 1.1725067 0.8480783
00000000: 7a30 ff3f 8de8 253f 51b8 a43f 0b9f aa3f
00000010: f13e 1140 07a1 353f 938d 1f3f e9bf a53f
00000020: eeb7 763f ea5e ed3f cd4d 723f 70a5 8b3f
00000030: 3e92 9d3f 6c89 4e3f b314 963f a91b 593f

block1.2.conv.weight f4 [8, 16, 3, 3]
-0.03371346 -0.037656054 -0.013283158 -0.17785433 -0.022397239 0.13510354 -0.20613898 0.14795938
0.21926263 -0.04845572 -0.06450951 -0.13307998 0.06165413 0.074745186 0.17172095 -0.32264104
0.024608526 -0.048813935 0.22621956 0.1081226 0.07445039 -0.20967454 -0.23128912 -0.30457407
0.08154826 0.025654703 -0.1459108 -0.23656277 -0.15078595 -0.0796009 -0.12456041 -0.14600436
-0.09521505 -0.03578875 -0.18650489 -0.07743007 0.080484964 0.03193079 0.22091602 -0.09489207
-0.14576401 -0.19627081 0.027678266 -0.05675924 -0.06127788 0.06453876 0.18848446 0.25650147
0.11444979 0.053119604 0.15403683 -0.15508847 -0.24343596 -0.2717732 -0.012217613 -0.17807347
-0.18156862 -0.18152484 -0.16870958 -0.1650497 -0.13418852 -0.16857678 -0.15143818 -0.17412247
-0.10077005 -0.026722187 0.06423079 0.075663045 -0.008243838 -0.0057239565 -0.025063254 0.018784625
-0.012059245 0.020772092 -0.075992465 -0.014986748 -0.19516884 -0.24529918 0.1383388 0.07068516
0.0791881 -0.18627734 -0.069251165 -0.08815289 -0.17067298 -0.10434726 -0.079146504 -0.1489833
-0.26503086 -0.32048982 0.31565663 0.26647687 0.16006505 0.13498294 0.25507945 0.19259691
-0.094303474 0.018879415 -0.013532321 -0.003301155 0.04092111 -0.016428595 -0.03402423 0.048598316
0.041722536 0.15694778 0.14638308 0.09035748 -0.06826107 -0.045452937 0.056073215 -0.10122902
0.01069589 -0.031112561 -0.20781256 0.013797547 0.21188022 -0.043071046 0.12635861 0.2313602
-0.21665567 -0.10351978 -0.09228993 0.18042724 0.018750308 -0.093916886 -0.12671277 -0.056201536
0.06528198 0.041914888 -0.12060814 -0.029143807 0.07328129 -0.1295135 -0.09750782 -0.106814764
-0.105712034 0.029431157 -0.08965926 -0.0685173 0.037202552 -0.41521692 -0.41101208 -0.2295934
-0.038806356 -0.041043464 0.0065060654 -0.07342759 0.14091796 0.12805939 -0.4248991 -0.30366823
-0.14759888 0.044301786 0.026153605 -0.1644727 0.13439734 0.0075776973 -0.011325961 0.13061245
0.021080533 0.11672172 0.1451212 0.111797385 -0.0071886606 -0.20022425 -0.11315085 -0.17780556
0.01685763 0.0659149 -0.03813018 0.15747547 0.20297772 0.329731 -0.043505326 0.08598473
-0.13081849 0.14902617 0.1236234 0.1303513 -0.114563115 -0.023280889 0.06190018 -0.10256123
-0.05508801 -0.12978072 0.050473686 0.14317031 0.2517694 0.044199347 0.108304694 0.1234829
-0.22128263 -0.10055298 -0.20967647 0.07972888 -0.019938765 0.17235477 -0.30369166 -0.080661505
-0.119184636 -0.1303434 -0.021871876 -0.23018464 -0.31955656 0.0347884 -0.10113353 -0.014020474
0.013001322 0.039268143 -0.01367241 0.15586142 0.066302896 0.12340597 0.0792462 0.11012671
-0.16300227 0.15896508 -0.28560966 0.040904593 0.10263079 -0.15825747 -0.19582222 -0.010864956
0.005250348 0.012820587 -0.09176809 0.043656114 -0.13485548 0.015908351 -0.15438898 -0.40606594
-0.32693428 -0.2078874 0.047696628 0.15883926 0.052154634 -0.0628536 0.16906345 0.015759615
-0.09543388 0.085002854 0.09430788 0.042513452 0.12046048 0.034889676 -0.05173693 0.01982743
-0.003981434 -0.115527846 0.018506335 0.039011724 0.09592612 -0.23036459 -0.33326355 -0.023960663
00000000: 2017 0abd 3c3d 1abd 9aa1 59bc 721f 36be
00000010: 6a7a b7bc 9558 0a3e 1916 53be aa82 173e
00000020: 6286 603e 8179 46bd 901d 84bd 1e46 08be
00000030: 0b89 7c3d 0114 993d 9ed7 2f3e 3531 a5be
00000040: d297 c93c 1ff1 47bd 1aa6 673e 626f dd3d
00000050: 7279 983d ecb4 56be 0ed7 6cbe 22f1 9bbe
00000060: c602 a73d d029 d23c a469 15be 833d 72be
00000070: a267 1abe cc05 a3bd 8719 ffbd 2b82 15be
00000080: 1c00 c3bd 3997 12bd 23fb 3ebe a893 9ebd
00000090: 4dd5 a43d dcc9 023d cf37 623e c656 c2bd
000000a0: 2943 15be 37fb 48be 88bd e23c 607c 68bd
000000b0: 84fe 7abd e62c 843d 1202 413e 2954 833e
000000c0: a764 ea3d f193 593d d5bb 1d3e 83cf 1ebe
000000d0: 4747 79be db25 8bbe 622c 48bc e458 36be
000000e0: 20ed 39be a6e1 39be 34c2 2cbe ca02 29be
000000f0: b768 09be 649f 2cbe 9c12 1bbe 294d 32be
00000100: 8760 cebd 7de8 dabc 6f8b 833d 3af5 9a3d
00000110: 2a11 07bc 0790 bbbb 7451 cdbc 37e2 993c
00000120: 2494 45bc 3c2a aa3c f0a1 9bbd fa8a 75bc
00000130: 57da 47be b52f 7bbe b0a8 0d3e 62c3 903d
00000140: 5f2d a23d 7dbf 3ebe 8ed3 8dbd 8189 b4bd
00000150: e6c4 2ebe 04b4 d5bd 9017 a2bd 148f 18be
00000160: 20b2 87be 3e17 a4be bf9d a13e a86f 883e
00000170: 18e8 233e f838 0a3e c699 823e 2038 453e
00000180: 2e22 c1bd 01a9 9a3c abb6 5dbc 3158 58bb
00000190: e59c 273d 4395 86bc fe5c 0bbd 070f 473d
000001a0: 40e5 2a3d ebb6 203e 72e5 153e 580d b93d
000001b0: 76cc 8bbd dc2c 3abd 07ad 653d 2951 cfbd
000001c0: d03d 2f3c c5df febc d1cc 54be 1b0f 623c
000001d0: 21f7 583e 446b 30bd 2764 013e b0e9 6c3e
000001e0: fcda 5dbe 2e02 d4bd 8102 bdbd ebc1 383e
000001f0: 3f9a 993c 7f57 c0bd fec0 01be 9533 66bd
00000200: 8fb2 853d f2ae 2b3d 6701 f7bd febe eebc
00000210: 8014 963d 309f 04be 2eb2 c7bd b3c1 dabd
00000220: 8d7f d8bd 9c19 f13c 469f b7bd cc52 8cbd
00000230: b461 183d 5097 d4be 2d70 d2be 881a 6bbe
00000240: 6af3 1ebd 311d 28bd d530 d53b 3461 96bd
00000250: cc4c 103e 0022 033e 608c d9be 677a 9bbe
00000260: 2924 17be ca75 353d 1640 d63c 886b 28be
00000270: 759f 093e 554e f83b 8690 39bc 45bf 053e
00000280: 15b1 ac3c cc0b ef3d a79a 143e 07f6 e43d
00000290: db8e ebbb 9607 4dbe a2bb e7bd a912 36be
000002a0: 0319 8a3c 64fe 863d 642e 1cbd 4041 213e
000002b0: 64d9 4f3e 80d2 a83e a432 32bd c318 b03d
000002c0: 48f5 05be 519a 183e 442e fd3d d07a 053e
000002d0: 11a0 eabd 90b7 bebc 0b8b 7d3d 9f0b d2bd
000002e0: f7a3 61bd 3de5 04be 7fbd 4e3d 3d9b 123e
000002f0: ebe7 803e 600a 353d dace dd3d 9ae4 fc3d
00000300: ea97 62be b9ee cdbd 6eb5 56be e548 a33d
00000310: 9f56 a3bc c57d 303e 797d 9bbe dc31 a5bd
00000320: 1317 f4bd be78 05be a62c b3bc 86b5 6bbe
00000330: eb9c a3be 487e 0e3d 191f cfbd 21b6 65bc
00000340: 7f03 553c a2d7 203d 3e02 60bc 239a 1f3e
00000350: d0c9 873d 45bc fc3d d54b a23d 1d8a e13d
00000360: 11ea 26be bec7 223e 6e3b 92be 938b 273d
00000370: 1730 d23d 3f0e 22be 9f85 48be ee02 32bc
00000380: 1c0b ac3b 700d 523c e9f0 bbbd c1d0 323d
00000390: 8e17 0abe 3b52 823c 2518 1ebe e0e7 cfbe
000003a0: ee63 a7be 6fe0 54be 8a5d 433d c2a6 223e
000003b0: 19a0 553d 63b9 80bd f81e 2d3e 4f1a 813c
000003c0: d772 c3bd fa15 ae3d 7d24 c13d 9622 2e3d
000003d0: fcb3 f63d 7ae8 0e3d 1aea 53bd 226d a23c
000003e0: b076 82bb dd99 ecbd 999a 973c c2ca 1f3d
000003f0: ea74 c43d b2e4 6bbe 85a1 aabe 2749 c4bc

block1.2.conv.bias f4 [8]
0.04399131 -0.12284147 0.12149411 -0.06474794 0.07987529 -0.03510285 -0.045326237 -0.013041589
00000000: 3b30 343d 4f94 fbbd e7d1 f83d 919a 84bd
00000010: a895 a33d 02c8 0fbd 01a8 39bd 64ac 55bc

block1.2.BN.weight f4 [8]
0.8754566 0.99799204 1.1208172 1.0329309 1.1032361 0.96233964 0.9928246 0.99982244
00000000: ec1d 603f 687c 7f3f f076 8f3f 1437 843f
00000010: d736 8d3f e45b 763f c129 7e3f 5df4 7f3f

block1.2.BN.bias f4 [8]
-0.21624236 -0.01704473 0.04122424 -0.14499637 -0.10992299 0.15302989 -0.17862226 -0.21270028
00000000: a36e 5dbe 64a1 8bbc c0da 283d ee79 14be
00000010: 4e1f e1bd deb3 1c3e c1e8 36be 1ace 59be

block1.2.BN.running_mean f4 [8]
-1.4062374 -0.76517344 0.14781302 -0.36609447 0.057822865 -0.75693667 -0.4928899 0.4046889
00000000: 96ff b3bf 68e2 43bf 4c5c 173e bc70 bbbe
00000010: abd7 6c3d 9ac6 41bf 115c fcbe 6233 cf3e

block1.2.BN.running_var f4 [8]
2.6680427 1.3436439 2.6723123 1.3032639 2.0893495 1.1675755 1.0428125 1.8033516
00000000: 36c1 2a40 86fc ab3f 2a07 2b40 5ad1 a63f
00000010: e7b7 0540 1d73 953f e17a 853f 3ad4 e63f

block1.3.conv.weight f4 [4, 8, 3, 3]
0.0138615575 -0.0124315005 -0.13178271 -0.1794772 -0.0051665637 -0.031067204 0.028674617 -0.037337083
0.027353287 0.0984561 -0.035902873 0.25619414 -0.123548664 -0.22043517 0.1008241 0.05970255
-0.2157626 -0.087163255 -0.0032398603 -0.2585492 -0.27832785 -0.09415836 -0.17084263 0.03178825
-0.29521242 -0.16945735 0.13817948 0.2816104 0.23071112 0.025700077 0.07898347 -0.0016747096
-0.00850381 0.17199057 -0.093915954 0.172251 -0.039191015 0.050681293 -0.011125841 0.008232738
0.14322114 -0.06524101 0.26087886 0.33442232 0.1158959 0.026837198 0.15828663 0.018052561
-0.010803283 0.14483762 -0.1774347 -0.23774682 0.14972141 0.015635125 -0.030295279 -0.20663111
0.09939539 -0.05777831 -0.15158351 0.1680324 -0.096583396 -0.20431897 -0.010780516 0.24196178
-0.04412176 0.08764649 -0.020249713 -0.14873685 -0.15251385 0.2684822 0.017970195 -0.16076398
0.0038933738 -0.08969986 0.025144972 0.11779218 0.09605666 0.0951145 0.2700249 0.08905167
0.17371535 -0.081801586 -0.026782596 -0.15719333 -0.02093249 0.011510025 -0.4257285 0.18068081
0.3119528 0.15246433 -0.18737723 0.18423396 0.031547457 -0.1952122 0.10108023 0.13644978
-0.092185065 0.34563234 0.067599386 -0.23066324 0.11077322 -0.20280708 -0.08805139 0.051284745
0.060113512 0.17280555 -0.016806178 0.12718965 -0.020102968 -0.15288192 0.10050049 -0.12822758
-0.09812125 -0.18685459 0.15955876 0.20499322 0.12139478 -0.07648872 0.1632379 0.12096258
-0.15227239 0.14401153 -0.1840649 -0.123752944 -0.055789206 -0.06882696 -0.025182977 -0.08433796
0.17229357 -0.07050652 0.17467943 0.061863102 -0.028013462 -0.0017183882 0.12389199 -0.1512261
-0.0082332445 0.2593512 -0.04423814 0.13897721 0.19139677 -0.2811177 -0.13130401 0.104419306
-0.046302184 0.14928447 0.2182399 0.1140531 0.19862719 0.20409063 0.05897287 -0.030270254
-0.16207911 0.1392002 0.07380064 0.118778914 -0.13709033 -0.039832246 0.16206196 -0.0490722
-0.10531027 -0.015569058 0.08509083 -0.24873118 -0.09091553 0.23996624 0.017449666 -0.040130496
0.1527803 -0.0963682 -0.21656929 -0.00084657554 0.12127536 0.23056954 -0.12438209 -0.022402784
0.030520884 -0.0014833611 -0.0106633 0.058447637 0.23367463 -0.056730796 -0.082858205 0.26433578
-0.19663559 -0.27709734 0.38585126 0.14416166 -0.027056497 -0.22891776 -0.08055944 0.24617201
-0.086382374 0.04104148 0.0863027 0.069265924 0.060967226 0.21121548 -0.17895626 -0.014812261
0.0930481 -0.2507786 -0.11159033 0.1440405 -0.073117845 0.13632366 0.17746627 0.08694779
0.20205292 0.13328776 -0.24822266 -0.12733129 -0.0077395514 0.29578394 0.15904151 0.06110547
-0.09299746 -0.015928239 0.13315472 -0.16554217 -0.028607957 -0.2061033 0.011105114 0.23104344
0.06088137 0.048596215 -0.07265709 -0.15525953 0.03027859 0.086140245 -0.12762603 0.033522338
-0.04582116 -0.23152784 0.07500211 0.13318065 0.18328469 -0.24250579 -0.023633843 -0.044577323
-0.02689948 -0.026493806 -0.18106319 0.35183018 0.25331545 0.09477549 0.105019875 0.049745332
-0.27769172 0.04079457 -0.01694777 -0.17040178 -0.1617809 0.018700888 0.054119855 -0.1751112
00000000: 961b 633c 7ead 4bbc 0cf2 06be dfc8 37be
00000010: 474c a9bb a680 febc 08e7 ea3c c5ee 18bd
00000020: 0014 e03c 5aa3 c93d e40e 13bd e12b 833e
00000030: 1507 fdbd c2b9 61be de7c ce3d a98a 743d
00000040: dff0 5cbe a682 b2bd d653 54bb 9060 84be
00000050: fd80 8ebe 19d6 c0bd 5ff1 2ebe 6534 023d
00000060: 1526 97be 3a86 2dbe ec7e 0d3e 3d2f 903e
00000070: 893f 6c3e f888 d23c 16c2 a13d ee81 dbba
00000080: 9053 0bbc 4c1e 303e 0257 c0bd 9162 303e
00000090: c286 20bd 3097 4f3d 2949 36bc 9be2 063c
000000a0: 90a8 123e 149d 85bd ea91 853e 6739 ab3e
000000b0: d45a ed3d afd9 db3c e415 223e f7e2 933c
000000c0: 4100 31bc 5050 143e 71b1 35be e773 73be
000000d0: 9250 193e 3c15 803c ce2d f8bc 1b97 53be
000000e0: cf8f cb3d f3a8 6cbd b538 1bbe af10 2c3e
000000f0: 84cd c5bd fe38 51be c3a0 30bc d4c4 773e
00000100: 05b9 34bd 0180 b33d bae2 a5bc 794e 18be
00000110: 972c 1cbe 8076 893e 3b36 933c 509f 24be
00000120: f927 7f3b 8fb4 b7bd d4fc cd3c 073d f13d
00000130: 5bb9 c43d 64cb c23d b440 8a3e b960 b63d
00000140: 70e2 313e 9787 a7bd 2d67 dbbc 4af7 20be
00000150: 9d7a abbc 8b94 3c3c 16f9 d9be 6404 393e
00000160: 47b8 9f3e 9c1f 1c3e d1df 3fbe d4a7 3c3e
00000170: e837 013d b5e5 47be 2703 cf3d 7eb9 0b3e
00000180: 86cb bcbd b9f6 b03e 8c71 8a3d fc32 6cbe
00000190: 12dd e23d a9ac 4fbe 4a54 b4bd f40f 523d
000001a0: 9639 763d f0f3 303e 1cad 89bc 013e 023e
000001b0: fbae a4bc 148d 1cbe 33d3 cd3d 174e 03be
000001c0: cbf3 c8bd cf56 3fbe 5f63 233e bee9 513e
000001d0: d49d f83d 1ea6 9cbd d627 273e 3bbb f73d
000001e0: 4bed 1bbe c277 133e 827b 3cbe 2f72 fdbd
000001f0: 3983 64bd 26f5 8cbd 884c cebc 61b9 acbd
00000200: ba6d 303e b965 90bd 2adf 323e 2a64 7d3d
00000210: 7d7c e5bc 8a3b e1ba 15bb fd3d 04db 1abe
00000220: bbe4 06bc aec9 843e 0d33 35bd 0b50 0e3e
00000230: 84fd 433e a9ee 8fbe 8f74 06be cad9 d53d
00000240: 5ca7 3dbd 07de 183e 487a 5f3e ac94 e93d
00000250: ed64 4b3e 22fd 503e 898d 713d 53f9 f7bc
00000260: 11f8 25be 7f8a 0e3e ca24 973d 5c42 f33d
00000270: 6861 0cbe 2327 23bd 92f3 253e eeff 48bd
00000280: e9ac d7bd 5d15 7fbc 1a44 ae3d 63b3 7ebe
00000290: ec31 babd b6b9 753e 9af2 8e3c e05f 24bd
000002a0: 7072 1c3e b15c c5bd 57c4 5dbe b9ec 5dba
000002b0: 375f f83d 6c1a 6c3e 0abc febd 0b86 b7bc
000002c0: ef06 fa3c 576d c2ba 1fb5 2ebc ca66 6f3d
000002d0: 6748 6f3e 8d5e 68bd 90b1 a9bd 0557 873e
000002e0: d75a 49be b4df 8dbe 4c8e c53e 1d9f 133e
000002f0: 96a5 ddbc 6b69 6abe 59fc a4bd 8414 7c3e
00000300: 3ee9 b0bd 1c1b 283d 78bf b03d 4bdb 8d3d
00000310: c5b8 793d df48 583e 4f40 37be 20af 72bc
00000320: 0190 be3d 0d66 80be 7989 e4bd 5a7f 133e
00000330: cfbe 95bd 6e98 0b3e b8b9 353e af11 b23d
00000340: f6e6 4e3e 967c 083e 152e 7ebe 2263 02be
00000350: 109c fdbb fe70 973e c7db 223e bb49 7a3d
00000360: 7475 bebd f07b 82bc b659 083e e383 29be
00000370: 3c5b eabc be0c 53be 39f2 353c a796 6c3e
00000380: be5e 793d d30c 473d 3ecd 94bd 5bfc 1ebe
00000390: ce0a f83c 4c6a b03d 66b0 02be b84e 093d
000003a0: f8ae 3bbd a215 6dbe b59a 993d 8260 083e
000003b0: fbae 3b3e 7053 78be c39b c1bc b696 36bd
000003c0: 4c5c dcbc 8a09 d9bc a168 39be 1623 b43e
000003d0: 90b2 813e a719 c23d a914 d73d c3c1 4b3d
000003e0: 9c2d 8ebe 3518 273d 0dd6 8abc ce7d 2ebe
000003f0: e4a9 25be 9b32 993c c8ac 5d3d 5a50 33be

block1.3.conv.bias f4 [4]
0.16273552 0.13522772 0.09648076 -0.11180697
00000000: 24a4 263e 2379 0a3e b497 c53d 0dfb e4bd

block1.3.BN.weight f4 [4]
0.9945663 1.0322096 1.0284199 0.99475825
00000000: e69b 7e3f 721f 843f 43a3 833f 7aa8 7e3f

block1.3.BN.bias f4 [4]
-0.08346933 0.1656658 -0.021478584 -0.010937593
00000000: f8f1 aabd 4ca4 293e dbf3 afbc 9733 33bc

block1.3.BN.running_mean f4 [4]
0.02319064 0.47087416 0.7154603 -0.43341184
00000000: 4cfa bd3c 6b16 f13e 6828 373f 28e8 ddbe

block1.3.BN.running_var f4 [4]
0.78306025 0.63816214 0.6065019 0.5607238
00000000: a376 483f 985e 233f b543 1b3f 988b 0f3f

block2.0.conv.weight f4 [8, 4, 3, 3]
-0.43618092 -0.30598283 -0.015065627 0.081483126 -0.1773861 -0.09316498 0.0069684386 -0.042645793
0.05147322 -0.11244615 0.07183094 -0.2333942 -0.22437014 -0.24697271 -0.24730723 0.24377052
0.1409153 0.006851467 -0.056884833 -0.30222046 -0.06040464 -0.08635469 0.025035333 -0.021062192
-0.08577199 -0.14998016 0.1314103 0.1740371 0.010037235 -0.031940114 0.15813269 -0.16318588
0.07977369 -0.13358599 0.0011469149 -0.07790998 -0.07401507 0.28896812 0.17853147 -0.10352209
-0.038493946 0.012119008 0.08249207 -0.15716252 -0.13191518 0.24609765 -0.29130644 -0.036851104
0.07564107 -0.036367543 -0.17072952 0.17770329 0.17406672 0.15328774 0.18587835 0.054789
0.064959474 -0.00994135 -0.13817972 -0.25227284 -0.06315142 -0.386654 -0.021666015 0.110494316
0.1468569 0.1209937 0.23709252 0.10558043 -0.050958037 -0.18149532 -0.23603371 -0.2580942
0.19392616 0.0989193 0.15324245 -0.11199655 0.05238786 0.09833093 -0.18525551 -0.045542475
-0.10723795 0.22357586 0.23988907 -0.14971958 -0.11348027 -0.046968065 -0.1803644 -0.29044244
-0.25425994 -0.33889732 0.1256294 -0.06325169 0.08669591 0.17352536 -0.059330177 0.25443387
-0.3251019 -0.14222708 0.0070519377 0.11667197 0.17029515 0.10455461 -0.20052297 -0.2442077
-0.19507186 0.025872724 0.034993365 -0.012598462 0.0067770532 0.14177883 -0.11972666 0.055483345
-0.28620014 -0.37403342 0.08516092 -0.21479452 0.049784344 -0.22059695 0.06822734 0.20289925
0.017682541 -0.13110445 0.23024452 -0.1527443 0.09344878 0.33167124 0.23978671 0.21211247
0.0630028 -0.056073193 -0.03950617 -0.05108879 -0.1196812 0.03395669 0.094541945 -0.054774873
-0.08228302 0.11319131 -0.20902292 -0.0069510182 0.14835873 -0.18959579 -0.11988126 0.37210387
0.3224081 -0.08953428 -0.092797235 0.24423788 -0.2416996 -0.24364637 0.3575171 0.23441137
0.035026513 0.10210444 -0.1386921 -0.006126052 0.10299334 0.03085707 -0.16929017 -0.055243984
0.13442539 0.057288382 0.25193653 -0.045370348 -0.12605083 -0.03237316 -0.1244611 -0.1089243
-0.048684705 0.13839565 -0.15735519 0.0038098441 0.11755724 -0.17896785 -0.15401682 0.20272802
-0.03222876 0.071040116 0.19592406 -0.14915031 0.16319749 -0.12847765 0.143522 -0.012965446
-0.033538967 0.13217668 -0.043767896 -0.16979304 -0.0081194965 -0.0059341374 0.07502431 0.30294257
-0.12654975 0.09203133 0.10679278 -0.106952146 0.13610744 0.08459166 -0.019037908 -0.10671851
-0.14682026 -0.06859434 0.007972064 -0.320103 -0.40224957 -0.15786599 -0.45229715 -0.15118209
-0.044188906 0.24677818 0.2932403 0.17823276 -0.16813108 -0.11069262 -0.03527117 0.23326896
0.26711684 0.11855921 -0.17261045 0.12682447 -0.090408295 -0.17022803 -0.008142141 -0.17120077
0.24823457 -0.1137252 0.16631114 -0.09104712 0.20087461 0.103967674 -0.08422183 -0.09477016
-0.2966826 -0.18537292 -0.10233485 0.0244238 0.24552764 -0.15627167 0.0403567 0.0136437
-0.43016905 -0.33238655 0.07587614 0.11018327 0.055835646 0.27048665 -0.032664068 -0.120363094
-0.04501813 -0.13163897 -0.12251537 -0.17685816 -0.023299374 0.04206228 0.13506204 0.018681008
00000000: 1b53 dfbe c8a9 9cbe d2d5 76bc a0e0 a63d
00000010: b4a4 35be 48cd bebd 8057 e43b 5bad 2ebd
00000020: 95d5 523d 2b4a e6bd 1a1c 933d e4fe 6ebe
00000030: 49c1 65be 6ae6 7cbe 1b3e 7dbe fb9e 793e
00000040: 1a4c 103e 4582 e03b 1200 69bd a4bc 9abe
00000050: db6a 77bd bada b0bd e616 cd3c 9e8a acbc
00000060: 3aa9 afbd 6694 19be 6c90 063e c836 323e
00000070: 3773 243c a3d3 02bd 89ed 213e 331a 27be
00000080: 6360 a33d c4ca 08be 1454 963a 458f 9fbd
00000090: 3795 97bd a1f3 933e f4d0 363e 6403 d4bd
000000a0: d4ab 1dbd ce8e 463c 9af1 a83d 36ef 20be
000000b0: c614 07be 0601 7c3e 1e26 95be 2ff1 16bd
000000c0: b5e9 9a3d 22f6 14bd b8d3 2ebe daf7 353e
000000d0: 8c3e 323e 76f7 1c3e e556 3e3e 6e6a 603d
000000e0: 7909 853d 0be1 22bc fc7e 0dbe e829 81be
000000f0: 8855 81bd 83f7 c5be ed7c b1bc d84a e23d
00000100: a861 163e 8ccb f73d 62c8 723e 8d3a d83d
00000110: 60b9 50bd e9d9 39be d2b2 71be ec24 84be
00000120: 9494 463e 3496 ca3d 97eb 1c3e 725e e5bd
00000130: a794 563d ba61 c93d 9fb3 3dbe bf8a 3abd
00000140: 929f dbbd 12f1 643e 7ba5 753e 1750 19be
00000150: 5868 e8bd 9661 40bd 72b1 38be dfb4 94be
00000160: 5c2e 82be f383 adbe fea4 003e 1a8a 81bd
00000170: a08d b13d a2b0 313e 3304 73bd 2845 823e
00000180: c273 a6be faa3 11be f113 e73b b7f1 ee3d
00000190: da61 2e3e ba20 d63d e555 4dbe 9511 7abe
000001a0: ebc0 47be 09f3 d33c 3455 0f3d c869 4ebc
000001b0: 0b12 de3b 782e 113e 4033 f5bd 8142 633d
000001c0: d388 92be 4f81 bfbe d968 ae3d 18f3 5bbe
000001d0: abea 4b3d 2be4 61be c7ba 8b3d d2c4 4f3e
000001e0: fada 903c 3f40 06be 38c5 6b3e 0069 1cbe
000001f0: 1362 bf3d d0d0 a93e a68a 753e 0334 593e
00000200: 9d07 813d 01ad 65bd 39d1 21bd 7b42 51bd
00000210: 6b1b f5bd 2c16 0b3d 359f c13d 9e5b 60bd
00000220: 0084 a8bd d8d0 e73d 1b0a 56be 5ec5 e3bb
00000230: 5aeb 173e 6625 42be 4e84 f5bd 6684 be3e
00000240: ad12 a53e c05d b7bd 7a0c bebd 7f19 7a3e
00000250: 1a80 77be 6f7e 79be 7b0c b73e 8909 703e
00000260: f677 0f3d 221c d13d 4d05 0ebe 0cbd c8bb
00000270: 2cee d23d f7c7 fc3c 675a 2dbe 8447 62bd
00000280: cfa6 093e 39a7 6a3d d3fd 803e 42d6 39bd
00000290: 7813 01be b899 04bd 76e5 febd b413 dfbd
000002a0: 9d69 47bd 97b7 0d3e b821 21be 94ae 793b
000002b0: dac1 f03d 5943 37be 96b6 1dbe ef97 4f3e
000002c0: 4e02 04bd 7b7d 913d 51a0 483e dcba 18be
000002d0: 3e1d 273e a58f 03be 6ef7 123e 066d 54bc
000002e0: 2860 09bd 5359 073e f745 33bd 3ade 2dbe
000002f0: a307 05bc 2773 c2bb 58a6 993d 4a1b 9b3e
00000300: 4296 01be ec7a bc3d 2cb6 da3d ba09 dbbd
00000310: c05f 0b3e 643e ad3d 63f5 9bbc 3c8f dabd
00000320: 0d58 16be 307b 8cbd 439d 023c 8ae4 a3be
00000330: a8f3 cdbe 9fa7 21be 7e93 e7be 7acf 1abe
00000340: 6dff 34bd 6bb3 7c3e 9823 963e a682 363e
00000350: 8e2a 2cbe d0b2 e2bd 8178 10bd 0fde 6e3e
00000360: 8ac3 883e 2ccf f23d cbc0 30be 46de 013e
00000370: fc27 b9bd 4250 2ebe 9d66 05bc 414f 2fbe
00000380: 3431 7e3e c2e8 e8bd 784d 2a3e ea76 babd
00000390: 13b2 4d3e 01ed d43d 7f7c acbd dc16 c2bd
000003a0: c8e6 97be 66d2 3dbe ef94 d1bd 6c14 c83c
000003b0: 996b 7b3e ae05 20be 114d 253d d389 5f3c
000003c0: 1e3f dcbe 922e aabe f364 9b3d c4a7 e13d
000003d0: ebb3 643d 3a7d 8a3e c2ca 05bd ed80 f6bd
000003e0: ee64 38bd 5ecc 06be 57e9 fabd 4e1a 35be
000003f0: 54de bebc 7f49 2c3d b44d 0a3e ea08 993c

block2.0.conv.bias f4 [8]
0.17258002 0.06454931 -0.03866024 0.029411593 -0.100706264 0.10630357 -0.073342755 -0.11374283
00000000: d1b8 303e 6e32 843d 335a 1ebd 95f0 f03c
00000010: 163f cebd b0b5 d93d ba34 96bd 00f2 e8bd

block2.0.BN.weight f4 [8]
0.9984075 0.83013207 0.9631891 1.1365017 1.0175738 0.9571933 1.1145785 0.9783209
00000000: a297 7f3f 8983 543f 9093 763f e378 913f
00000010: dc3f 823f 9f0a 753f 82aa 8e3f 3d73 7a3f

block2.0.BN.bias f4 [8]
0.05723262 -0.041381873 0.16222054 -0.0008485656 -0.31598157 -0.121185884 0.05917826 -0.32932916
00000000: c06c 6a3d 0a80 29bd 241d 263e 4672 5eba
00000010: 56c8 a1be 4e30 f8bd e764 723d d59d a8be

block2.0.BN.running_mean f4 [8]
-0.7008886 -0.024054475 -0.42666742 0.14023617 0.030613776 -0.13822977 -0.4932239 0.18081957
00000000: 6f6d 33bf e40d c5bc 2774 dabe 129a 0f3e
00000010: bec9 fa3c 1b8c 0dbe d887 fcbe c428 393e

block2.0.BN.running_var f4 [8]
0.74515384 0.74002373 0.6773115 0.62419933 0.36243767 0.61164343 0.47512764 0.72983855
00000000: 67c2 3e3f 3272 3d3f 4964 2d3f 87cb 1f3f
00000010: 6e91 b93e aa94 1c3f ee43 f33e b3d6 3a3f

block2.1.conv.weight f4 [16, 8, 3, 3]
-0.16295442 0.019267112 0.035242762 0.0597178 0.05805656 0.034920048 0.18002822 -0.10987129
-0.03228983 0.15047996 0.10719336 0.04884273 0.2717006 0.20571057 0.11944437 0.08801428
0.12605435 0.13328917 0.095630445 0.12422945 0.11558938 -0.19110382 -0.17474318 0.0235235
-0.27388892 -0.22038473 -0.14537638 0.22757569 0.3156475 0.14931348 -0.12967335 0.02510679
0.031452604 -0.10608544 -0.115763895 -0.26064935 -0.056332834 0.09556148 0.060135037 0.13719642
0.13455151 0.24225467 0.010757372 0.028291596 0.04314991 0.24783614 -0.0029913858 -0.06068811
0.10909098 0.057932544 -0.088359654 0.2580497 0.0685881 0.097372495 0.15248916 0.19704783
0.06295143 0.14737713 0.29777157 0.2903486 0.19697921 0.04991452 0.03966747 0.020608248
0.010410811 0.24428082 0.009650776 -0.0026221469 0.26648396 0.27829483 0.19986889 0.10237175
-0.010628481 0.1461019 0.25590414 -0.037052196 0.075652435 0.11318348 -0.010597821 0.050928187
0.11924033 0.06260199 0.14277275 0.35304824 -0.11980009 -0.2546298 -0.035598125 -0.16115019
-0.14837573 0.05717316 0.115200795 0.24522676 0.31569734 0.21999845 -0.0035971967 -0.17469543
0.20124163 0.042492345 -0.09223903 -0.072319075 0.06817311 -0.093452476 -0.1541684 -0.06422631
-0.28945914 -0.26811096 -0.08936141 0.08723469 0.16717966 -0.026222711 0.0358692 -0.10604028
-0.12228481 -0.3653219 0.13856542 0.20654818 -0.018147662 0.25900868 0.1260084 0.05386271
-0.14484714 0.10819326 -0.087756865 -0.2877817 -0.23254955 -0.20217851 0.23903541 0.13740624
0.13086723 0.06896349 -0.07405294 -0.21852148 -0.061291452 -0.015594193 -0.23219395 0.1536833
0.116300575 0.0059732147 -0.15416875 -0.039360274 -0.01129186 -0.061533596 0.0933004 0.1628351
-0.0524946 0.18688956 0.12211726 0.11812608 0.2134127 0.26263976 -0.21566328 -0.023915652
-0.122969545 -0.061228532 0.024838097 -0.030780256 -0.09932039 0.03424225 -0.07929797 -0.11290202
-0.054570563 -0.008004502 -0.055688675 -0.16105048 -0.2845169 0.11331429 0.060111158 0.121027455
-0.10066216 -0.13600609 0.07757861 0.120551795 0.096437916 0.14492199 0.0070803836 -0.1412766
-0.22390796 -0.02134233 -0.014354214 0.20435911 -0.39637288 -0.38644367 0.05653269 -0.04236063
0.08240875 0.09143304 0.06816102 0.2505491 0.13908851 -0.010298969 0.008058459 0.010602882
-0.12482165 -0.05997073 -0.0017682276 0.12286264 0.14241475 0.27158007 -0.18331127 -0.07333442
-0.26248658 -0.38704106 -0.090070784 -0.1841793 -0.21849206 -0.08063047 0.032382127 0.0047025583
-0.031897355 -0.067803 -0.1336339 -0.031911913 -0.09856519 -0.22941768 0.014276823 0.043302447
-0.22026472 -0.21694027 -0.30409577 -0.44373804 -0.23140946 -0.24781409 0.04449663 0.01003073
-0.044632576 0.22418894 0.19400387 0.07832803 0.14868203 0.14798096 -0.024836548 0.12446755
0.022705806 -0.17382745 0.099419326 0.17500289 -0.031155696 0.0141830435 -0.039352726 0.07368902
-0.019476168 0.053866528 -0.13578795 -0.14134301 -0.045567214 0.008092905 0.4179017 0.15254387
0.21835446 -0.021249922 -0.11694273 -0.19384299 -0.25734895 -0.008357781 0.002832539 -0.0640591
00000000: 86dd 26be 10d6 9d3c b75a 103d a79a 743d
00000010: b7cc 6d3d 5308 0f3d 5159 383e 3304 e1bd
00000020: 5742 04bd 6b17 1a3e 3188 db3d 500f 483d
00000030: 571c 8b3e cba5 523e 409f f43d d540 b43d
00000040: 6414 013e f57c 083e e5d9 c33d 036c fe3d
00000050: 20ba ec3d b8b0 43be e0ef 32be 5bb4 c03c
00000060: 2b3b 8cbe 89ac 61be 8cdd 14be 9a09 693e
00000070: 8d9c a13e a2e5 183e 17c9 04be c1ac cd3c
00000080: 72d4 003d 5343 d9bd 9f15 edbd d573 85be
00000090: 42bd 66bd bdb5 c33d 2850 763d 387d 0c3e
000000a0: dfc7 093e 9c11 783e b03f 303c c7c3 e73c
000000b0: f6bd 303d c2c8 7d3e 200b 44bb 1894 78bd
000000c0: 176b df3d ad4a 6d3d e8f5 b4bd 171f 843e
000000d0: eb77 8c3d 3b6b c73d 1e26 1c3e e8c6 493e
000000e0: aeec 803d 08ea 163e 8475 983e 92a8 943e
000000f0: ebb4 493e 2b73 4c3d 5b7a 223d a1d2 a83c
00000100: 1b92 2a3c c024 7a3e 4a1e 1e3c 53d8 2bbb
00000110: 9670 883e a97c 8e3e 6eaa 4c3e 48a8 d13d
00000120: 1523 2ebc bd9b 153e de05 833e 0bc4 17bd
00000130: aaef 9a3d becc e73d 7ca2 2dbc 139a 503d
00000140: 4634 f43d 7935 803d 0533 123e bdc2 b43e
00000150: c059 f5bd d65e 82be 57cf 11bd 8e04 25be
00000160: cfef 17be 672e 6a3d 65ee eb3d b91c 7b3e
00000170: 15a3 a13e 4647 613e f2be 6bbb 5ce3 32be
00000180: 4912 4e3e 740c 2e3d d1e7 bcbd 061c 94bd
00000190: 589e 8b3d 0364 bfbd 52de 1dbe 1589 83bd
000001a0: fd33 94be d745 89be 1d03 b7bd 1aa8 b23d
000001b0: 2531 2b3e 03d1 d6bc 95eb 123d a52b d9bd
000001c0: 7570 fabd 790b bbbe 18e4 0d3e 5e81 533e
000001d0: 68aa 94bc c99c 843e 5908 013e 259f 5c3d
000001e0: cf52 14be 6e94 dd3d dfb9 b3bd 1f58 93be
000001f0: 7821 6ebe e207 4fbe b3c5 743e 39b4 0c3e
00000200: 0f02 063e bb3c 8d3d 11a9 97bd 18c4 5fbe
00000210: bf0c 7bbd c97e 7fbc 40c4 6dbe 285f 1d3e
00000220: ff2e ee3d f5ba c33b 6ade 1dbe 3d38 21bd
00000230: 7e01 39bc a70a 7cbd 4814 bf3d 3fbe 263e
00000240: 9404 57bd fa5f 3f3e 9d18 fa3d 16ec f13d
00000250: dc88 5a3e b878 863e d6d6 5cbe c2ea c3bc
00000260: 75d7 fbbd c5ca 7abd 4479 cb3c e026 fcbc
00000270: 7d68 cbbd 9a41 0c3d f966 a2bd 2d39 e7bd
00000280: 6285 5fbd 5125 03bc cf19 64bd 6bea 24be
00000290: 33ac 91be 5311 e83d 1e37 763d 3edd f73d
000002a0: f627 cebd 2e45 0bbe 89e1 9e3d dce3 f63d
000002b0: 3e81 c53d 6e66 143e 9002 e83b d0aa 10be
000002c0: 2148 65be 1cd6 aebc f02d 6bbc 8443 513e
000002d0: 63f1 cabe f2db c5be d28e 673d 5782 2dbd
000002e0: ebc5 a83d 3f41 bb3d 0198 8b3d f947 803e
000002f0: 386d 0e3e 02bd 28bc a007 043c b6b7 2d3c
00000300: 7ea2 ffbd dea3 75bd dfc3 e7ba 689f fb3d
00000310: 2cd5 113e 8b0c 8b3e f3b5 3bbe 5b30 96bd
00000320: a464 86be 3f2a c6be 0877 b8bd 8099 3cbe
00000330: 62bc 5fbe 9621 a5bd 1fa3 043d eb17 9a3b
00000340: cda6 02bd 4ddc 8abd 53d7 08be 11b6 02bd
00000350: 8cdc c9bd 78ec 6abe 56e9 693c e85d 313d
00000360: 138d 61be 9725 5ebe 71b2 9bbe a231 e3be
00000370: 9af6 6cbe fac2 7dbe 1942 363d ee57 243c
00000380: a6d0 36bd c991 653e f3a8 463e 726a a03d
00000390: 1a40 183e 5288 173e 0476 cbbc d8e8 fe3d
000003a0: 8701 ba3c d3ff 31be 5c9c cb3d f533 333e
000003b0: 3b3a ffbc ff5f 683c 5330 21bd 45ea 963d
000003c0: 7c8c 9fbc 26a3 5c3d ff0b 0bbe 39bc 10be
000003d0: b0a4 3abd 1b98 043c 36f7 d53e 7634 1c3e
000003e0: 5098 5f3e 5114 aebc ac7f efbd c77e 46be
000003f0: 3ec3 83be 13ef 08bc 1ea2 393b 6b31 83bd

block2.1.conv.bias f4 [16]
0.06988657 0.02242443 -0.04871681 0.058504183 0.14305049 0.025812192 0.040911756 -0.12053612
0.048229255 0.022672338 0.14259021 -0.010543933 0.17667048 -0.1044471 0.03903028 -0.17021449
00000000: b120 8f3d 70b3 b73c 478b 47bd 15a2 6f3d
00000010: d47b 123e 1774 d33c 1693 273d a4db f6bd
00000020: 0a8c 453d 57bb b93c 2b03 123e 76c0 2cbc
00000030: 1be9 343e 5ce8 d5bd 37de 1f3d b54c 2ebe

block2.1.BN.weight f4 [16]
0.9748639 0.99901944 1.0942228 1.0186788 1.0391307 1.0265479 0.91371024 1.0206633
1.0575889 0.9267273 0.89759177 1.0578668 1.0623244 1.0986216 0.9883064 0.8687873
00000000: ae90 793f bdbf 7f3f 7e0f 8c3f 1164 823f
00000010: 3c02 853f ec65 833f eae8 693f 18a5 823f
00000020: 135f 873f 003e 6d3f 93c8 653f 2e68 873f
00000030: 3ffa 873f a29f 8c3f a601 7d3f d868 5e3f

block2.1.BN.bias f4 [16]
-0.10710319 -0.24474922 -0.21931885 -0.16866669 -0.11572027 0.10996064 -0.2709459 -0.07064233
0.07651949 -0.117503956 -0.29135442 -0.013050553 -0.07702444 0.13988368 -0.018487979 -0.16622719
00000000: eb58 dbbd 8a9f 7abe 1f95 60be f6b6 2cbe
00000010: c0fe ecbd 0b33 e13d 6cb9 8abe edac 90bd
00000020: 40b6 9c3d eaa5 f0bd 682c 95be fdd1 55bc
00000030: fdbe 9dbd ab3d 0f3e 1a74 97bc 7637 2abe

block2.1.BN.running_mean f4 [16]
1.4657736 0.20002718 -0.726865 0.040458236 -0.1721361 -0.19952464 -0.4590645 -0.09239615
-0.28755194 -1.2761614 0.3788374 -1.342699 0.031099658 -1.254317 0.3692585 0.5759091
00000000: 789e bb3f edd3 4c3e d313 3abf 89b7 253d
00000010: 7244 30be 3050 4cbe 810a ebbe 313a bdbd
00000020: 023a 93be 4259 a3bf faf6 c13e 90dd abbf
00000030: b6c4 fe3c 768d a0bf 730f bd3e c76e 133f

block2.1.BN.running_var f4 [16]
1.1734357 0.66649413 0.95629364 0.621757 1.0911515 0.90060765 0.64774895 1.0903538
0.68658674 1.2424618 0.7172035 0.98844016 0.8510525 1.5141181 1.2582793 1.077034
00000000: 2433 963f 5c9f 2a3f a9cf 743f 772b 1f3f
00000010: daaa 8b3f 398e 663f e0d2 253f b790 8b3f
00000020: 26c4 2f3f fd08 9f3f a69a 373f 6a0a 7d3f
00000030: 94de 593f 9fce c13f 4c0f a13f 40dc 893f
