result/model/0404 1043.pt (torch, 79133 bytes, 98 tensors)

input_conv.conv.weight f4 [4, 1, 3, 3]
0.4183364 0.077639736 -0.14674298 0.05196935 0.25730973 0.31088284 -0.26982749 -0.25352934
-0.15150139 0.037481654 0.18174934 0.1460299 -0.13098857 -0.23245893 -0.23064356 0.24691391
0.36521837 0.3161179 0.20185208 0.08682587 -0.15257652 0.11942893 0.082644574 -0.16476768
0.39962453 -0.039711304 -0.10481098 0.22251426 0.066826746 -0.04342161 -0.24368267 -0.21730414
0.03121849 -0.24817266 -0.3221642 -0.5337465
00000000: 3030 d63e 9501 9f3d cb43 16be d0dd 543d
00000010: 1abe 833e 092c 9f3e d426 8abe 99ce 81be
00000020: 2e23 1bbe 5d86 193d 801c 3a3e dd88 153e
00000030: de21 06be b709 6ebe d32d 6cbe 00d7 7c3e
00000040: e7fd ba3e 35da a13e 50b2 4e3e c3d1 b13d
00000050: 053d 1cbe 2897 f43d 8f41 a93d dcb8 28be
00000060: 969b cc3e 52a8 22bd 24a7 d6bd c7da 633e
00000070: 76dc 883d dcda 31bd f387 79be fa84 5ebe
00000080: ebbd ff3c f920 7ebe b5f2 a4be 9ca3 08bf

input_conv.conv.bias f4 [4]
-0.17071345 -0.06703094 -0.015525222 -0.21308115
00000000: 82cf 2ebe 8447 89bd 805d 7ebc f231 5abe

input_conv.BN.weight f4 [4]
1.0233757 1.0277721 0.94265157 1.0093939
00000000: fafd 823f 098e 833f 9d51 713f d233 813f

input_conv.BN.bias f4 [4]
0.24921189 -0.10767239 0.17096436 -0.12633331
00000000: 6731 7f3e 5883 dcbd 4811 2f3e 855d 01be

input_conv.BN.running_mean f4 [4]
-0.16154388 -0.07333024 -0.014986196 -0.20054635
00000000: c26b 25be 2a2e 96bd a988 75bc 065c 4dbe

input_conv.BN.running_var f4 [4]
0.13346343 0.43920386 0.20685916 1.6091485
00000000: a3aa 083e 54df e03e e3d2 533e 94f8 cd3f

block1.0.conv.weight f4 [8, 4, 3, 3]
0.0011271387 0.1735506 0.085217535 0.04181655 0.16364348 0.11438315 -0.351546 -0.11848926
-0.30739665 0.30558366 0.37780276 0.0047594164 0.043133754 -0.11280216 0.020904066 -0.1934985
-0.033575926 0.047050904 0.032209277 0.014410887 0.0015919219 -0.15795067 0.048392754 0.087588765
-0.14609456 -0.27602413 0.0576062 -0.07040779 -0.11143163 0.13260828 0.10439578 0.06403545
0.06473616 -0.014692862 0.066499434 -0.22460032 -0.07249014 -0.28985578 -0.17792156 -0.32234767
-0.24670234 -0.03971306 -0.084227644 0.12453059 0.05659293 -0.019006133 0.18178502 0.23347595
-0.072268434 0.1925754 0.054676596 0.32985467 0.25292623 0.076573394 -0.061459124 -0.1765522
0.05714175 0.07490976 0.023804413 0.049970303 0.112189196 0.11097959 0.027101189 -0.20674211
-0.2022862 -0.019996293 -0.15883218 -0.20135751 -0.03391963 -0.033471923 0.046030056 0.3081043
0.092451334 -0.02979503 -0.29850358 0.046173565 -0.14202055 0.09245813 0.34574762 0.26051798
0.21552444 0.13795666 -0.09440837 -0.26079068 0.37851292 -0.033499964 -0.08349511 0.06620995
-0.15002725 -0.12685028 0.19572559 0.09157112 0.06282132 0.16433105 0.007488769 0.08469115
-0.019154234 -0.08959326 0.023622626 0.03350061 -0.12486861 -0.038728636 0.14472766 0.10698995
-0.004225717 0.077496186 -0.24377364 -0.040860206 0.14518028 -0.06435563 0.14850096 -0.13094224
0.12099715 -0.11483231 0.25000688 0.18774776 -0.23274818 0.14860292 0.29266816 0.1007201
0.18861243 -0.10995945 -0.1902514 0.24837191 0.124904856 -0.05558044 -0.3136106 -0.01790521
0.07124361 -0.13659039 -0.0031064684 -0.08385805 0.053706117 0.07771664 -0.22078559 -0.094781734
-0.038772844 -0.14441402 -0.053035222 0.09610236 0.120922886 -0.026273165 0.11304261 0.106266275
-0.14833112 -0.09361138 -0.019042637 0.10075769 -0.000486501 0.25284603 -0.10732099 0.033043955
0.11533969 -0.01754821 0.14118895 -0.010709053 -0.052138656 0.20759182 0.27449915 0.0417597
0.18460608 0.086703606 -0.33998355 -0.29615104 -0.23693311 -0.22790505 -0.09707658 -0.08658361
-0.19605601 0.11455103 0.055673398 0.069804065 -0.07421067 0.044958763 0.014703752 0.030614665
0.056229062 -0.19037277 -0.23666863 -0.22682689 0.12241981 0.15876244 -0.10752432 -0.2341948
0.14077216 0.09541535 -0.1885623 -0.08024439 0.17841958 0.044756666 0.18731953 0.056266733
-0.14118998 -0.09221552 -0.115233645 -0.26837403 0.05761115 0.1723955 0.08938561 0.25835815
0.16788442 -0.2350778 -0.21153463 -0.096014276 -0.22331247 -0.014405557 -0.121328026 0.1556939
-0.16825958 -0.18963835 0.1678686 -0.10735062 0.0526024 0.22065566 0.22069435 -0.006545279
0.1599926 0.10919069 0.06663068 0.33784574 -0.005854228 -0.13901217 -0.010652262 0.086870395
-0.0052929497 0.09642154 -0.17291711 -0.24219695 0.110793635 -0.18135878 0.16451968 -0.043240946
0.01551239 -0.06689715 0.156175 -0.16793406 -0.34317335 0.041588157 -0.13759473 -0.11347765
0.07153399 0.070947304 -0.24148525 0.23857197 0.19174038 0.35823977 0.020149563 0.19791324
0.124339335 0.018342061 -0.0022014997 0.16092877 -0.22262238 -0.19019143 -0.49676436 0.20391223
00000000: 80bc 933a 40b7 313e 8886 ae3d d547 2b3d
00000010: 2892 273e b741 ea3d d6fd b3be 7faa f2bd
00000020: 1863 9dbe 7675 9c3e 5d6f c13e e1f4 9b3b
00000030: 05ad 303d d204 e7bd 013f ab3c 7924 46be
00000040: e986 09bd 73b8 403d e0ed 033d a41b 6c3c
00000050: 09a8 d03a d2bd 21be 7b37 463d bd61 b33d
00000060: d099 15be 0953 8dbe 7bf4 6b3d f631 90bd
00000070: 4436 e4bd 77ca 073e 74cd d53d 0525 833d
00000080: 6494 843d 54ba 70bc db30 883d a0fd 65be
00000090: b675 94bd fa67 94be 1231 36be c10a a5be
000000a0: 8a9f 7cbe 29aa 22bd 8b7f acbd e509 ff3d
000000b0: fdcd 673d c0b2 9bbc da25 3a3e 5214 6f3e
000000c0: 7901 94bd 7c32 453e 91f4 5f3d b6e2 a83e
000000d0: 8c7f 813e 83d2 9c3d 90bc 7bbd 1aca 34be
000000e0: 780d 6a3d 4a6a 993d 7901 c33c a9ad 4c3d
000000f0: 73c3 e53d 4449 e33d 5003 de3c 34b4 53be
00000100: 1d24 4fbe 44cf a3bc e7a4 22be aa30 4ebe
00000110: 4fef 0abd db19 09bd 038a 3c3d d9bf 9d3e
00000120: 2057 bd3d b514 f4bc 76d5 98be 7e20 3d3d
00000130: d66d 11be b05a bd3d d505 b13e 9d62 853e
00000140: 70b2 5c3e 8344 0d3e 2d59 c1bd 5b86 85be
00000150: 72cc c13e 4237 09bd 7cff aabd 1599 873d
00000160: bea0 19be 0ae5 01be 4a6c 483e a489 bb3d
00000170: 77a8 803d 6646 283e 5964 f53b 8e72 ad3d
00000180: 57e9 9cbc ac7c b7bd 3d84 c13c f037 093d
00000190: 1dbb ffbd eba1 1ebd 7d33 143e 8c1d db3d
000001a0: e277 8abb 52b6 9e3d cc9f 79be 085d 27bd
000001b0: 24aa 143e e2cc 83bd a310 183e b915 06be
000001c0: 5bcd f73d 342d ebbd e700 803e f340 403e
000001d0: 8a55 6ebe 5d2b 183e 9ad8 953e 5746 ce3d
000001e0: 9e23 413e 6c32 e1bd 43d1 42be 3555 7e3e
000001f0: 1ece ff3d 51a8 63bd 9291 a0be f2ad 92bc
00000200: 2be8 913d 5ade 0bbe e495 4bbb c5bd abbd
00000210: f2fa 5b3d e729 9f3d 9e15 62be ed1c c2bd
00000220: 46d0 1ebd 45e1 13be 763b 59bd 50d1 c43d
00000230: 6ba6 f73d d23a d7bc e282 e73d 22a2 d93d
00000240: 1de4 17be 53b7 bfbd 4eff 9bbc 0c5a ce3d
00000250: 0f11 ffb9 0975 813e 1bcb dbbd 1959 073d
00000260: 3737 ec3d 44c1 8fbc d693 103e 0675 2fbc
00000270: 588f 55bd f392 543e 278b 8c3e 380c 2b3d
00000280: 6009 3d3e a991 b13d 5312 aebe 1ca1 97be
00000290: 989e 72be f15f 69be 16d0 c6bd bf52 b1bd
000002a0: e8c2 48be bb99 ea3d ca09 643d 6ff5 8e3d
000002b0: c4fb 97bd ae26 383d 01e8 703c 9bcb fa3c
000002c0: 7250 663d 14f1 42be 4359 72be 4f45 68be
000002d0: 3db7 fa3d 9f92 223e b635 dcbd c3d0 6fbe
000002e0: 9426 103e 1f69 c33d 7a16 41be 2c57 a4bd
000002f0: 9fb3 363e c452 373d b1d0 3f3e f277 663d
00000300: 1b94 10be 7edb bcbd 9eff ebbd 5268 89be
00000310: abf9 6b3d 7288 303e cd0f b73d 8547 843e
00000320: e5e9 2b3e 3cb8 70be 899c 58be 22a3 c4bd
00000330: 06ac 64be 4905 6cbc d47a f8bd 396e 1f3e
00000340: 3d4c 2cbe 8e30 42be bfe5 2b3e a4da dbbd
00000350: 9d75 573d 8ff3 613e b3fd 613e c879 d6bb
00000360: 1ad5 233e 5e9f df3d aa75 883d 1efa ac3e
00000370: d3d4 bfbb 3559 0ebe d386 2ebc 1be9 b13d
00000380: 7b70 adbb a878 c53d 2f11 31be 7a02 78be
00000390: c6e7 e23d 1eb6 39be d977 283e 6b1d 31bd
000003a0: ae27 7e3c 5f01 89bd 57ec 1f3e e8f6 2bbe
000003b0: 6bb4 afbe 5858 2a3d a2e5 0cbe f866 e8bd
000003c0: 6a80 923d d24c 913d e947 77be 364c 743e
000003d0: 9757 443e 346b b73e b210 a53c c5a9 4a3e
000003e0: 9fa5 fe3d 1742 963c 0947 10bb 83ca 243e
000003f0: 1ff7 63be 8bc1 42be e657 febe 5ece 503e

block1.0.conv.bias f4 [8]
0.36606306 0.045657076 -0.024351068 -0.0022719922 -0.16740862 -0.18411122 -0.035571188 -0.13119063
00000000: 9e6c bb3e ea02 3b3d e47b c7bc b4e5 14bb
00000010: 2a6d 2bbe a787 3cbe 18b3 11bd d656 06be

block1.0.BN.weight f4 [8]
0.86092895 1.0689111 0.8467062 0.9340484 1.1103513 1.0990622 1.0619098 1.0779752
00000000: d765 5c3f 14d2 883f bdc1 583f cc1d 6f3f
00000010: fe1f 8e3f 12ae 8c3f a9ec 873f 17fb 893f

block1.0.BN.bias f4 [8]
0.10790076 -0.008663719 -0.26096615 0.014642377 0.20117669 0.42283508 0.20083655 0.07725445
00000000: 13fb dc3d 45f2 0dbc 5b9d 85be 95e6 6f3c
00000010: 4301 4e3e d77d d83e 19a8 4d3e 9537 9e3d

block1.0.BN.running_mean f4 [8]
0.2677218 -0.23556106 0.5929445 0.25907308 -0.6758991 -0.26552203 0.34793726 -1.7767925
00000000: d512 893e eb36 71be 36cb 173f 3aa5 843e
00000010: b907 2dbf 81f2 87be d524 b23e f06d e3bf

block1.0.BN.running_var f4 [8]
0.36960807 0.51486725 0.8735744 0.2412235 0.47420636 0.48487577 0.6467184 1.5100615
00000000: 453d bd3e 57ce 033f 92a2 5f3f 4b03 773e
00000010: 2dcb f23e a341 f83e 568f 253f b249 c13f

block1.1.conv.weight f4 [16, 8, 3, 3]
-0.21980354 0.09528795 0.16726618 -0.00034281207 -0.004771261 0.003967163 0.040469322 -0.034391318
-0.07605371 0.26646245 0.08801799 0.14344756 0.12340551 0.038320336 0.033587303 -0.017236143
-0.10047455 0.06935787 0.068610765 0.10075447 -0.036102854 0.19542259 0.05558501 -0.033792228
-0.05113335 0.010739531 -0.103570886 0.010333185 0.14243111 0.21926701 -0.06740881 0.03756706
-0.11140539 0.12536617 0.06356174 -0.014107737 -0.018609993 -0.38361573 -0.4295303 -0.07380711
-0.17352557 -0.09953304 -0.036817778 -0.063524865 0.11948378 -0.61785823 0.00048197934 0.0017247869
-0.32256883 -0.13196056 -0.15548795 -0.3323284 -0.13821892 0.066166654 0.077570796 -0.038875546
-0.04961106 0.23684964 0.141843 0.04747606 -0.023905857 0.11969824 0.14616191 0.069111496
0.11139788 0.07773724 0.024951274 -0.009540516 0.16972917 -0.18534459 -0.16379388 -0.06703307
-0.11454162 0.029764697 -0.116679616 0.18328258 0.0016445456 -0.031041225 0.03282171 0.16279662
0.17840557 -0.24577565 -0.034177653 -0.25839907 -0.07889528 0.016660279 -0.0696622 -0.092694886
-0.02930681 -0.1655118 0.08186365 0.09877287 0.18733482 0.043579396 0.095860906 -0.13273734
-0.086550504 -0.03462435 -0.17866245 0.0901339 0.19096777 0.18418829 0.015144538 0.036407907
0.08180739 -0.07433105 0.085494064 0.0063007465 -0.41781324 -0.2506932 -0.13931632 -0.15584025
-0.0835201 -0.10533215 0.29220346 0.15886424 0.22442074 0.021363977 -0.0010473222 0.20383804
0.18370041 0.054395102 -0.119326584 0.16920225 -0.15398018 -0.07521138 -0.1966156 0.114487015
0.14429982 -0.23827839 -0.16357538 0.13718805 -0.033102244 -0.032318477 0.28725186 -0.09403333
0.014870209 0.1304168 -0.31634802 -0.1436238 -0.16813831 -0.05740817 -0.08697522 -0.024671864
0.055450987 0.055555787 0.004468166 0.01799709 0.037895676 0.11809087 -0.16719311 -0.06474826
0.13246718 0.20219481 0.0865179 -0.12754531 0.19838274 -0.065541625 -0.09171319 0.12812702
-0.13114512 -0.29005927 -0.004560843 0.098957375 -0.021549249 -0.06806614 -0.07694707 0.10463331
0.096655004 -0.030361982 -0.011662227 -0.07832853 0.12093791 0.09849384 0.14177768 0.02055818
-0.13515124 0.3200171 -0.05800111 -0.14293781 0.26003122 -0.04204967 -0.20695207 0.1730073
-0.16428187 -0.07055501 -0.052461743 -0.25347036 -0.19862539 0.041978396 0.08334315 -0.060786504
-0.117768854 -0.20047505 -0.00992381 -0.17230016 -0.21769229 0.2467525 -0.09653628 -0.25605536
0.08555186 -0.21587338 -0.2864881 -0.020273983 -0.09728693 0.09693978 0.06761602 0.22273166
0.029870933 0.09277632 -0.049208574 -0.08362507 -0.055705138 0.003810959 -0.22992156 -0.06503003
-0.1240467 -0.20995551 0.11997875 -0.022002975 -0.121422306 -0.174249 0.041259248 0.22669321
0.18451878 -0.0037435286 0.04500497 0.008573759 0.16480681 0.28726664 0.27736047 -0.20181693
-0.21933688 0.009835222 -0.02380388 -0.011173768 -0.02347917 0.014063213 0.14952658 0.11506317
-0.055321697 -0.06837612 0.0049986793 -0.13303192 -0.03725997 -0.17577547 -0.103241175 -0.0027712649
-0.09438654 0.12293484 -0.050009787 0.009569125 -0.036081005 0.1393822 0.31889138 0.06982522
00000000: 2e14 61be 5426 c33d d347 2b3e 75bb b3b9
00000010: 3d58 9cbb fafe 813b 29c3 253d e9dd 0cbd
00000020: 0cc2 9bbd c46d 883e c742 b43d ebe3 123e
00000030: 07bc fc3d c9f5 1c3d d792 093d d032 8dbc
00000040: 9ac5 cdbd 800b 8e3d cd83 8c3d 5c58 ce3d
00000050: 96e0 13bd dc1c 483e 1cad 633d b869 0abd
00000060: 3471 51bd dcf4 2f3c f91c d4bd 854c 293c
00000070: 76d9 113e 8887 603e a10d 8abd ebdf 193d
00000080: 8228 e4bd fd5f 003e a82c 823d 2324 67bc
00000090: fc73 98bc 4869 c4be 65eb dbbe 2f28 97bd
000000a0: b0b0 31be fad7 cbbd 3dce 16bd 5319 82bd
000000b0: e9b3 f43d f52b 1ebf 2cb2 fc39 3f12 e23a
000000c0: be27 a5be ab20 07be 3c38 1fbe f326 aabe
000000d0: 4389 0dbe 6282 873d 70dd 9e3d f73b 1fbd
000000e0: f834 4bbd b688 723e 4b3f 113e 4276 423d
000000f0: 37d6 c3bc 5a24 f53d 78ab 153e 548a 8d3d
00000100: 9224 e43d b434 9f3d 9d66 cc3c d34f 1cbc
00000110: 7ccd 2d3e f9ca 3dbe 95b9 27be a248 89bd
00000120: cc94 eabd 18d5 f33c b9f5 eebd 6eae 3b3e
00000130: cb8d d73a 2b4a febc 0f70 063d 28b4 263e
00000140: f3af 363e 9dac 7bbe defd 0bbd e24c 84be
00000150: d993 a1bd 237b 883c 0eab 8ebd d1d6 bdbd
00000160: d614 f0bc ed7b 29be 21a8 a73d 6e49 ca3d
00000170: b3d4 3f3e 4f80 323d b952 c43d 4cec 07be
00000180: 6441 b1bd 43d2 0dbd 4af3 36be 1f98 b83d
00000190: 0e8d 433e db9b 3c3e cc20 783c 7520 153d
000001a0: a28a a73d e13a 98bd 8317 af3d 7e76 ce3b
000001b0: 9eeb d5be dc5a 80be f0a8 0ebe 9694 1fbe
000001c0: 960c abbd 62b8 d7bd b19b 953e 4fad 223e
000001d0: 8dce 653e 8203 af3c 4d46 89ba ebba 503e
000001e0: f61b 3c3e 66cd 5e3d 7f61 f4bd 5b43 2d3e
000001f0: fbac 1dbe 6d08 9abd 9a55 49be 2b78 ea3d
00000200: 55c3 133e 40ff 73be 4e80 27be 067b 0c3e
00000210: 3896 07bd 6160 04bd ad12 933e 8c94 c0bd
00000220: 2da2 733c fb8b 053e 5ef8 a1be 1e12 13be
00000230: 732c 2cbe d424 6bbd 1020 b2bd a61c cabc
00000240: 9320 633d 778e 633d b169 923b a26e 933c
00000250: 7f38 1b3d a0d9 f13d ac34 2bbe bc9a 84bd
00000260: 7aa5 073e 280c 4f3e 4c30 b13d 3d9b 02be
00000270: d824 4b3e b03a 86bd 20d4 bbbd bb33 033e
00000280: e84a 06be a682 94be 2073 95bb 2aaa ca3d
00000290: 0d88 b0bc 4366 8bbd 6d96 9dbd fd49 d63d
000002a0: 0ff3 c53d b1b9 f8bc ed12 3fbc b56a a0bd
000002b0: 4cae f73d 23b7 c93d 2b2e 113e a169 a83c
000002c0: 1665 0abe 48d9 a33e 9292 6dbd 4a5e 12be
000002d0: d022 853e 463c 2cbd 3eeb 53be d328 313e
000002e0: 8239 28be 257f 90bd 20e2 56bd dec6 81be
000002f0: 7464 4bbe 8af1 2b3d d0af aa3d 45fb 78bd
00000300: cc30 f1bd 5549 4dbe 7a97 22bc 746f 30be
00000310: baea 5ebe b0ac 7c3e d0b4 c5bd b019 83be
00000320: d035 af3d e90d 5dbe 91ae 92be a015 a6bc
00000330: 5f3e c7bd 5d88 c63d 457a 8a3d c513 643e
00000340: e3b3 f43c 8301 be3d ee8e 49bd 9f43 abbd
00000350: 122b 64bd 48c1 793b 8f70 6bbe 772e 85bd
00000360: 320c febd 94fe 56be 6bb7 f53d 953f b4bc
00000370: 42ac f8bd 546e 32be 75ff 283d 4422 683e
00000380: 7ef2 3c3e fd55 75bb 2257 383d f478 0c3c
00000390: 1ec3 283e 9d14 933e 3102 8e3e 19a9 4ebe
000003a0: d999 60be e923 213c 5b00 c3bc 2e12 37bc
000003b0: 6357 c0bc 6469 663c 7f1d 193e 3da6 eb3d
000003c0: 0199 62bd c708 8cbd f6cb a33b 8539 08be
000003d0: e99d 18bd 7cfe 33be 1c70 d3bd 1c9e 35bb
000003e0: bb4d c1bd 43c5 fb3d 10d7 4cbd d2c7 1c3c
000003f0: adc9 13bd 35ba 0e3e bb45 a33e 8600 8f3d

block1.1.conv.bias f4 [16]
0.0005987378 0.07632765 0.20666914 0.066471964 -0.29197884 0.085543804 0.07454842 -0.13009517
0.07345038 -0.112637535 0.106497064 -0.00439445 0.07621225 0.07983407 -0.0715852 0.18438418
00000000: 9df4 1c3a ac51 9c3d 13a1 533e 7422 883d
00000010: 407e 95be 9731 af3d d8ac 983d ab37 05be
00000020: 276d 963d 82ae e6bd 221b da3d 52ff 8fbb
00000030: 2b15 9c3d 0b80 a33d 439b 92bd 35cf 3c3e

block1.1.BN.weight f4 [16]
0.97215796 0.9299474 0.92184454 0.81651145 1.0804808 1.0516108 0.9311279 0.90775347
1.1312379 1.17595 0.9915528 1.000798 1.0563047 1.1061728 0.9777854 0.96811664
00000000: 58df 783f 0811 6e3f 01fe 6b3f e506 513f
00000010: 324d 8a3f 2f9b 863f 665e 6e3f 8862 683f
00000020: 67cc 903f 8885 963f 68d6 7d3f 261a 803f
00000030: fe34 873f 1297 8d3f 2550 7a3f 7ed6 773f

block1.1.BN.bias f4 [16]
-0.16420417 -0.064318195 -0.08857261 -0.3449461 -0.16443111 -0.019270534 -0.080616154 -0.14204247
0.19008978 -0.05740451 -0.30228698 -0.23778678 -0.06918311 -0.16607828 -0.1941773 -0.20990191
00000000: 2325 28be 42b9 83bd 8e65 b5bd c69c b0be
00000010: a160 28be 3ddd 9dbc 151a a5bd 9573 11be
00000020: e5a6 423e fe20 6bbd 5cc5 9abe 617e 73be
00000030: e0af 8dbd 6d10 2abe 6ad6 46be 87f0 56be

block1.1.BN.running_mean f4 [16]
-0.8897357 -0.30707902 -0.6250685 0.6791329 -0.39151114 0.07001108 1.5868999 -0.020326382
0.30884346 -1.8957556 -1.4462792 -0.07223153 -0.1153724 0.49178997 0.21699831 -0.6631669
00000000: b8c5 63bf 7639 9dbe 7d04 20bf a7db 2d3f
00000010: 2674 c8be f861 8f3d 891f cb3f 8383 a6bc
00000020: bb20 9e3e 1fa8 f2bf ad1f b9bf 20ee 93bd
00000030: 5d48 ecbd e5cb fb3e ce34 5e3e 4ec5 29bf

block1.1.BN.running_var f4 [16]
1.8659799 1.1593016 1.1881845 0.93092227 0.69779336 0.62498003 1.106792 0.661123
1.0617301 1.2318885 1.0610785 0.5936866 0.93801713 0.82533336 0.73392445 0.5951414
00000000: 6ed8 ee3f ff63 943f 6e16 983f ec50 6e3f
00000010: 96a2 323f b1fe 1f3f 5cab 8d3f 5b3f 293f
00000020: c6e6 873f 86ae 9d3f 6cd1 873f d8fb 173f
00000030: e421 703f 0c49 533f 79e2 3b3f 305b 183f

block1.2.conv.weight f4 [8, 16, 3, 3]
0.06979222 0.061156128 -0.06311976 0.0936394 0.09682637 -0.04899563 -0.06572912 -0.030007372
-0.09044234 -0.09097667 -0.11264154 -0.037609905 0.17596453 0.17327853 0.25454825 -0.12487266
-0.2876189 -0.23182023 -0.035151813 -0.18150724 -0.24766277 -0.014722923 -0.017875768 -0.20169647
0.028088616 -0.031189576 -0.029379081 0.014944055 0.030234415 -0.0033746718 -0.0087985275 0.0048134774
0.16248594 0.15923057 0.18796878 0.1020836 -0.26709375 -0.22703445 0.08861498 0.038403466
-0.090991944 0.1075002 -0.08545995 -0.26059476 -0.04034455 0.021775754 -0.22439496 -0.2899453
0.09311861 0.06266853 -0.022395005 -0.085007735 -0.113081075 -0.17657328 -0.025869146 -0.08940974
-0.12488564 0.04406881 0.028643167 0.07201266 -0.17198259 -0.16816819 -0.16658074 0.26982877
0.075741984 0.03874093 0.23274156 0.13022214 0.14322945 -0.032410823 -0.12237959 -0.0762433
-0.06326441 0.07258388 0.12881489 -0.121122316 0.043627813 0.066301785 0.09160881 0.12869798
0.17771876 0.09308869 0.12727807 0.17872694 0.147016 0.043582786 -0.05398611 0.19703342
0.33937287 0.1382856 0.0855781 0.10503148 0.0366796 -0.10084979 0.012543604 -0.054020267
5.2365653e-05 -0.03294171 -0.06326835 -0.06566943 0.089235894 0.14433263 -0.00634057 -0.26128033
-0.24617486 0.15270245 -0.052901905 0.045510735 0.068847336 0.13089393 0.1068083 -0.033276804
-0.03448319 -0.11970363 0.10515384 0.040372614 -0.039774787 0.21834508 0.03718469 0.19806561
-0.29342777 -0.29757568 -0.104910865 0.18461187 0.16219826 0.05048802 0.17340715 0.10556025
0.015465844 0.098763205 0.060621023 0.13211887 -0.12153488 -0.17301844 -0.13593265 -0.018591642
0.048225343 0.15762314 -0.03864825 0.055495627 0.16467477 -0.32126078 -0.22358152 -0.29176304
-0.007097955 0.1302887 -0.06690709 -0.03721794 -0.048516978 -0.2067254 -0.11671459 0.05429478
-0.02301287 0.08254721 -0.006931554 0.118988626 -0.18882552 -0.17089167 -0.08547389 0.07786004
0.08317215 0.22038849 0.1782583 0.12968946 -0.096703574 0.0225934 0.07530963 -0.06550544
0.1989972 0.09209382 0.013145417 0.058023687 -0.021746593 -0.06400526 -0.03044758 -0.10426243
-0.056461114 0.018527212 0.03433891 0.121230565 0.09848627 0.07488154 0.0996813 -0.20131457
-0.014061405 -0.015539693 0.086604245 0.22433552 -0.07950462 -0.06401373 -0.034293048 0.071342275
0.1262832 0.18411638 0.18324713 -0.10572163 -0.106512636 0.058635 0.14880776 -0.023011096
0.1083841 -0.04986703 -0.18251136 0.14550823 0.044856288 0.054542046 0.101022445 0.033074625
0.0031748763 0.048602503 0.045825478 -0.032161735 0.09661178 0.22807103 0.06373048 0.17825557
0.0006453785 0.22438999 0.15656812 0.045351762 -0.10750874 -0.09422855 0.056249835 -0.12991765
-0.1207882 -0.45266747 0.024808764 0.09706122 -0.243739 0.123368785 0.17841008 0.011153583
0.10865491 -0.063797675 -0.13414226 0.15155095 0.092593774 -0.17368802 0.07595655 0.16732752
0.2527591 0.13251874 0.37163147 -0.036305662 0.08961788 0.0816088 -0.028480459 0.13197652
0.14337328 0.069758564 -0.04863155 0.049476717 0.30064306 0.07174461 0.18074478 0.16373612
00000000: 39ef 8e3d d97e 7a3d ef44 81bd 04c6 bf3d
00000010: e74c c63d a4af 48bd fd9c 86bd 05d2 f5bc
00000020: d539 b9bd fa51 babd 9cb0 e6bd d80c 1abd
00000030: 0c30 343e ed6f 313e 2654 823e 3dbd ffbd
00000040: c942 93be 4862 6dbe 59fb 0fbd 09dd 39be
00000050: 4f9b 7dbe 6a38 71bc 3470 92bc 8589 4ebe
00000060: 191a e63c 4881 ffbc 66ac f0bc e9d7 743c
00000070: 2aae f73c 9929 5dbb b327 10bc 60ba 9d3b
00000080: b762 263e 570d 233e e37a 403e 3511 d13d
00000090: 83c0 88be b87b 68be c57b b53d f44c 1d3d
000000a0: fc59 babd 1129 dc3d a005 afbd ad6c 85be
000000b0: 5440 25bd 1163 b23c cbc7 65be b673 94be
000000c0: f8b4 be3d 5c58 803d bb75 b7bc 8918 aebd
000000d0: 0d97 e7bd a0cf 34be 88eb d3bc 741c b7bd
000000e0: 0bc4 ffbd 7f81 343d 13a5 ea3c 607b 933d
000000f0: 341c 30be 4834 2cbe 2494 2abe ff26 8a3e
00000100: 9d1e 9b3d cfae 1e3d ce53 6e3e f458 053e
00000110: beaa 123e 36c1 04bd 27a2 fabd 7325 9cbd
00000120: c590 81bd dba6 943d 0de8 033e fa0e f8bd
00000130: 14b3 323d 3bc9 873d 669d bb3d 67c9 033e
00000140: e8fb 353e 48a5 be3d 2f55 023e 3204 373e
00000150: 5d8b 163e dd83 323d 8a20 5dbd 21c3 493e
00000160: 48c2 ad3e be9a 0d3e 9243 af3d bf1a d73d
00000170: 593d 163d 568a cebd b083 4d3c 5b44 5dbd
00000180: 31a3 5b38 e3ed 06bd d692 81bd b27d 86bd
00000190: 4fc1 b63d efcb 133e 8ec4 cfbb 89c6 85be
000001a0: 4315 7cbe 085e 1c3e abaf 58bd 7769 3a3d
000001b0: d5ff 8c3d 0f09 063e 4fbe da3d 424d 08bd
000001c0: 3f3e 0dbd 2d27 f5bd e55a d73d c15d 253d
000001d0: e3ea 22bd da95 5f3e f94e 183d b6d1 4a3e
000001e0: 2a3c 96be d75b 98be 82db d6bd e50a 3d3e
000001f0: 4d17 263e 87cc 4e3d a591 313e f92f d83d
00000200: 7464 7d3c 5d44 ca3d c04d 783d 2b4a 073e
00000210: 47e7 f8bd bf2b 31be ee31 0bbe 804d 98bc
00000220: f087 453d f667 213e a14d 1ebd 624f 633d
00000230: 81a0 283e 4b7c a4be 8ef2 64be f761 95be
00000240: f695 e8bb 676a 053e 9606 89bd d771 18bd
00000250: bdb9 46bd d3af 53be 0f08 efbd 3464 5e3d
00000260: 7d85 bcbc 830e a93d 1722 e3bb 4fb0 f33d
00000270: 7a5b 41be 3afe 2ebe ef0c afbd 1675 9f3d
00000280: 2956 aa3d 85ad 613e 5889 363e 50cd 043e
00000290: 860c c6bd cb15 b93c ef3b 9a3d b727 86bd
000002a0: ecc5 4b3e af9b bc3d e05f 573c 3faa 6d3d
000002b0: e925 b2bc 3115 83bd 346d f9bc 8a87 d5bd
000002c0: c543 67bd 61c6 973c f5a6 0c3d bb47 f83d
000002d0: 2bb3 c93d 7e5b 993d b625 cc3d 6825 4ebe
000002e0: cf61 66bc 329a 7ebc 915d b13d 36b8 653e
000002f0: 51d3 a2bd a119 83bd de76 0cbd e61b 923d
00000300: 6250 013e 0189 3c3e 23a5 3b3e 9584 d8bd
00000310: 4c23 dabd 412b 703d 1061 183e c481 bcbc
00000320: 7cf8 dd3d 5f41 4cbd 42e4 3abe 1c00 153e
00000330: 3abb 373d 7b67 5f3d dbe4 ce3d 4279 073d
00000340: 9611 503b 6b13 473d 7fb3 3b3d 06bc 03bd
00000350: 66dc c53d 748b 693e 2085 823d a188 363e
00000360: 9e2e 293a 7dc6 653e 6553 203e c5c2 393d
00000370: 8b2d dcbd e6fa c0bd 3a66 663d 2209 05be
00000380: ce5f f7bd 08c4 e7be c03b cb3c 08c8 c63d
00000390: b796 79be c6a8 fc3d 22b1 363e 85bd 363c
000003a0: 7786 de3d 5ba8 82bd 975c 09be 2c30 1b3e
000003b0: cea1 bd3d 46db 31be 1c8f 9b3d e857 2b3e
000003c0: a469 813e feb2 073e 7b46 be3e 3fb5 14bd
000003d0: 9489 b73d 8422 a73d da4f e9bc da24 073e
000003e0: 72d0 123e 94dd 8e3d e031 47bd 19a8 4a3d
000003f0: e3ed 993e d7ee 923d 2915 393e 71aa 273e

block1.2.conv.bias f4 [8]
-0.019563409 0.035675917 0.12589589 -0.06883033 0.0356241 -0.017315065 0.00595372 -0.03377195
00000000: 7143 a0bc e920 123d daea 003e ebf6 8cbd
00000010: 94ea 113d 53d8 8dbc 6c17 c33b 7554 0abd

block1.2.BN.weight f4 [8]
0.95403826 0.9380846 1.1045693 0.96887666 1.069179 1.0186878 0.8687582 1.11101
00000000: da3b 743f 5026 703f 8762 8d3f 4d08 783f
00000010: dcda 883f 5d64 823f f066 5e3f 9335 8e3f

block1.2.BN.bias f4 [8]
-0.17719975 -0.15623826 -0.081020035 -0.0072878976 -0.024515886 0.095474705 -0.29629615 -0.11921652
00000000: da73 35be ecfc 1fbe d5ed a5bd 51cf eebb
00000010: 8ad5 c8bc 3e88 c33d 21b4 97be ca27 f4bd

block1.2.BN.running_mean f4 [8]
-0.088507846 0.78586406 -1.1397376 0.053813968 -1.1221559 -1.4560827 0.7434595 -1.202704
00000000: 9a43 b5bd 632e 493f ece2 91bf 096c 5c3d
00000010: cea2 8fbf eb60 babf 5d53 3e3f 34f2 99bf

block1.2.BN.running_var f4 [8]
1.3993795 1.0562241 2.3170547 1.2170097 3.1292562 3.0448992 1.6632274 1.9665039
00000000: de1e b33f 5a32 873f a04a 1440 f9c6 9b3f
00000010: bc45 4840 a1df 4240 a3e4 d43f 66b6 fb3f

block1.3.conv.weight f4 [4, 8, 3, 3]
0.060937837 -0.103412874 -0.027030788 -0.083020456 0.0740291 0.09117914 -0.22056112 -0.11330377
-0.18443133 -0.020704214 0.071521334 0.19550379 -0.20233783 0.09244606 0.03808013 0.0026051493
0.15614568 0.06980973 0.18133777 0.07306308 -0.18775177 0.12858509 0.10942879 -0.23942892
0.22031099 0.03499044 0.1446524 0.012006881 -0.11012882 -0.15052047 0.061152223 0.15231688
0.060461845 0.21335566 0.14794496 -0.02171962 0.18156694 -0.079345554 0.020151597 -0.1072909
-0.1560516 -0.22222917 -0.07837797 0.035028707 0.018231278 -0.25083688 -0.24805969 -0.23540133
0.0066364175 0.26177675 0.054237127 -0.2059104 0.14738533 0.19238445 0.0027156177 -0.011601861
0.111871086 0.02604092 0.08888923 -0.1434391 0.1196003 -0.024289288 -0.06047528 -0.06927721
-0.09856843 0.20365345 0.11637946 0.042910393 0.27145356 -0.07308193 -0.038526066 0.20203276
0.0223117 -0.121329114 0.08035135 -0.014755778 -0.030624034 0.112240955 -0.32177302 -0.10621596
-0.32516438 0.2642187 -0.02867136 -0.1733553 0.087179646 -0.18802375 -0.21413048 0.038385324
-0.019516697 -0.012530913 -0.12157165 0.107801266 0.08737745 -0.118787386 -0.09406184 0.23392142
-0.09981441 -0.07220537 0.098724075 -0.031612363 0.1726601 0.12749334 -0.029567866 -0.02269742
-0.0701349 0.07285146 0.04818455 -0.0557993 -0.14316525 -0.03206899 0.06411912 -0.25529394
-0.12349269 0.012961751 -0.24769083 -0.2467462 -0.11913475 0.15980211 0.103853144 -0.09215996
-0.12882213 -0.13724063 -0.26507986 0.11912586 0.091462724 0.039139774 0.19876467 0.038188525
0.035139196 -0.0998834 -0.029463883 -0.08569505 -0.16426656 -0.30992636 -0.34269506 0.1244817
0.11361043 0.06781211 0.098765545 -0.014211343 -0.23067887 0.16762698 -0.39088485 -0.13732797
-0.18503493 -0.09440994 -0.23381941 0.048996374 0.17628986 0.075969115 0.010780536 -0.06879345
-0.08006585 0.15559843 0.086309224 -0.017586024 0.060472082 -0.075228095 -0.042887047 -0.0324052
-0.034493722 -0.12348986 0.08128821 0.17742297 0.3114631 0.07174764 0.018681033 0.2118581
-0.024359208 -0.3043831 -0.14044976 -0.0015162821 0.101587355 -0.0924141 0.27169558 0.13649233
-0.043978192 0.07998207 0.19996096 0.21314195 -0.32983598 0.016388273 0.05500937 -0.24161702
-0.14283803 0.09860833 -0.25241053 -0.22634003 -0.23097467 0.13273795 -0.065465875 -0.012690924
-0.18079521 -0.19051008 -0.0387472 0.08507346 0.019664235 0.27519885 -0.09474597 -0.0017916805
0.13595349 0.14958622 0.13803115 0.18948863 0.07432671 -0.15837961 0.017564228 -0.08060602
-0.20040213 -0.041814573 -0.07110927 -0.11831358 0.055559844 -0.054277297 0.049312163 -0.24801895
0.14999557 0.07082587 -0.0929813 0.15453427 -0.09404891 0.08610465 0.18277398 -0.18842089
-0.13536212 0.05835866 0.006834382 0.090507045 -0.11978308 -0.124747425 0.054169435 0.13985261
-0.16050437 -0.25983295 -0.017289467 -0.06989421 -0.14785932 -0.11059269 -0.06773081 0.04325174
0.0008762238 -0.12553056 -0.25630572 -0.41746044 -0.22757159 0.07343688 -0.11521154 -0.040941823
0.18843824 -0.10731706 0.09709072 0.06897711 -0.1292918 -0.17489104 -0.06331997 -0.10814949
00000000: f499 793d 21ca d3bd ac6f ddbc a106 aabd
00000010: 929c 973d 21bc ba3d c6da 61be cf0b e8bd
00000020: 91db 3cbe e29b a9bc c779 923d 2532 483e
00000030: a631 4fbe 5c54 bd3d e9f9 1b3d 27bb 2a3b
00000040: a7e4 1f3e 67f8 8e3d 9cb0 393e 19a2 953d
00000050: 0042 40be cfab 033e 341c e03d db2c 75be
00000060: 3499 613e 2352 0f3d c21f 143e 82b8 443c
00000070: 388b e1bd 0a22 1abe c17a 7a3d f5f8 1b3e
00000080: d7a6 773d e879 5a3e e27e 173e 58ed b1bc
00000090: afec 393e ec7f a2bd f614 a53c 55bb dbbd
000000a0: fecb 1fbe 0b90 63be a184 a0bd 437a 0f3d
000000b0: c359 953c b16d 80be 5c03 7ebe 0c0d 71be
000000c0: 4e76 d93b 9a07 863e c027 5e3d 2dda 52be
000000d0: 2eec 163e 6e00 453e 81f8 313b bb15 3ebc
000000e0: ab1c e53d c453 d53c 8e0b b63d b3e1 12be
000000f0: 01f1 f43d 54fa c6bc edb4 77bd 36e1 8dbd
00000100: 3fde c9bd 888a 503e 5b58 ee3d cfc2 2f3d
00000110: f6fb 8a3e fbab 95bd 82cd 1dbd ade1 4e3e
00000120: 07c7 b63c 667b f8bd 408f a43d 38c2 71bc
00000130: 41df fabc 96de e53d 6fbf a4be c187 d9bd
00000140: f27b a6be ac47 873e 33e0 eabc 0d84 31be
00000150: 3e8b b23d 4c89 40be 0545 5bbe ee39 1d3d
00000160: 7be1 9fbc 754e 4dbc 8ffa f8bd e9c6 dc3d
00000170: f3f2 b23d cd46 f3bd 7ea3 c0bd 1989 6f3e
00000180: 7f6b ccbd 69e0 93bd d92f ca3d f77b 01bd
00000190: cfcd 303e 9d8d 023e 4f38 f2bc f1ef b9bc
000001a0: e3a2 8fbd 2533 953d 2a5d 453d cf8d 64bd
000001b0: e999 12be c65a 03bd e350 833d e3b5 82be
000001c0: bce9 fcbd 865d 543c aaa2 7dbe 09ab 7cbe
000001d0: ebfc f3bd 2aa3 233e f5b0 d43d 5cbe bcbd
000001e0: f3e9 03be cf88 0cbe 8cb8 87be 42f8 f33d
000001f0: cf50 bb3d 0751 203d f788 4b3e 926b 1c3d
00000200: 1eee 0f3d ab8f ccbd 3e5e f1bc e380 afbd
00000210: 7e35 28be abae 9ebe ba75 afbe 43f0 fe3d
00000220: 96ac e83d 13e1 8a3d 9745 ca3d b1d6 68bc
00000230: 1537 6cbe 68a6 2b3e 0f22 c8be b49f 0cbe
00000240: cc79 3dbe 005a c1bd 5b6e 6fbe 6cb0 483d
00000250: 5485 343e b295 9b3d d8a0 303c 95e3 8cbd
00000260: 90f9 a3bd 3255 1f3e e4c2 b03d 9110 90bc
00000270: 93b1 773d 3011 9abd 54aa 2fbd 51bb 04bd
00000280: 4a49 0dbd 40e8 fcbd 6f7a a63d 5eae 353e
00000290: 1778 9f3e 6df0 923d f708 993c 54f1 583e
000002a0: f68c c7bc 1ad8 9bbe 10d2 0fbe fcbd c6ba
000002b0: 080d d03d 9b43 bdbd af1b 8b3e a5c4 0b3e
000002c0: 7a22 34bd a4cd a33d 91c2 4c3e e241 5a3e
000002d0: 43e0 a8be b340 863c 8151 613d 746a 77be
000002e0: 2244 12be 2af3 c93d f43b 81be aec5 67be
000002f0: a084 6cbe 75ec 073e f912 86bd 98ed 4fbc
00000300: 6122 39be 1315 43be 62b5 1ebd ff3a ae3d
00000310: e416 a13c dde6 8c3e 2d0a c2bd d2d6 eaba
00000320: 6437 0b3e 212d 193e 0a58 0d3e 4f09 423e
00000330: 9a38 983d 442e 22be dbe2 8f3c c514 a5bd
00000340: 3736 4dbe c245 2bbd bda1 91bd 644e f2bd
00000350: b892 633d df51 5ebd 8dfb 493d aef8 7dbe
00000360: 7098 193e 270d 913d fb6c bebd 3b3e 1e3e
00000370: b79c c0bd a257 b03d 1a29 3b3e 68f1 40be
00000380: 5e9c 0abe 7e09 6f3d f4f2 df3b c25b b93d
00000390: d550 f5bd 947b ffbd c5e0 5d3d 8635 0f3e
000003a0: 425b 24be d308 85be a4a2 8dbc b224 8fbd
000003b0: 6f68 17be 6c7e e2bd 73b6 8abd bd28 313d
000003c0: 62b2 653a 158b 00be 813a 83be 60bd d5be
000003d0: 8708 69be 1366 963d 07f4 ebbd 9db2 27bd
000003e0: f4f5 403e 0cc9 dbbd 80d7 c63d df43 8d3d
000003f0: 1265 04be a316 33be e7ad 81bd 7b7d ddbd

block1.3.conv.bias f4 [4]
-0.031600084 0.16810504 0.012187965 0.10564864
00000000: 176f 01bd ba23 2c3e 08b0 473c 505e d83d

block1.3.BN.weight f4 [4]
1.0111046 1.0716257 1.0250698 0.9260007
00000000: e06b 813f 082b 893f 7d35 833f 620e 6d3f

block1.3.BN.bias f4 [4]
-0.0142990695 0.0106884055 0.15376621 0.05735344
00000000: a546 6abc 6c1e 2f3c e474 1d3e 71eb 6a3d

block1.3.BN.running_mean f4 [4]
0.1553875 -0.76047415 -0.35517648 -0.90264857
00000000: e71d 1f3e 6fae 42bf b1d9 b5be fa13 67bf

block1.3.BN.running_var f4 [4]
0.72490937 0.6733198 1.0279021 0.82585764
00000000: a993 393f b05e 2c3f 4c92 833f 686b 533f

block2.0.conv.weight f4 [8, 4, 3, 3]
-0.29079664 -0.14523621 -0.1528006 -0.16935642 0.030865565 -0.14496808 0.2780318 0.18997233
-0.12213691 -0.39652446 0.043874774 -0.19982834 -0.030935824 0.09538241 0.024651945 0.018173266
0.0562443 0.17618161 -0.12518829 0.074816704 0.19424015 -0.009344157 -0.17092876 0.22351351
-0.04142969 0.113797404 0.04178945 0.048721462 -0.018728754 -0.35287333 0.15440291 0.0803373
-0.19516103 0.09316183 0.017196149 -0.21382177 -0.19341046 0.0428365 0.1264994 -0.11411214
0.10863859 0.24682474 0.14970784 0.14765568 0.12572648 0.11302913 -0.25191382 -0.242201
0.016983164 0.12550534 0.0113606565 0.15097134 0.19313446 0.13522577 -0.022768699 -0.04119591
-0.18512695 -0.03671482 -0.16858184 -0.06679976 0.26417953 0.17881466 0.16125922 -0.27598485
0.009796183 0.18095219 -0.123554796 0.0133577725 -0.025386719 0.038749635 -0.024303705 0.013027972
-0.010726104 -0.08097103 -0.088212274 -0.053039294 0.025322406 -0.20840675 -0.22618376 -0.020208513
0.20864472 -0.13910016 0.07852408 0.059350025 -0.42225084 -0.077560805 -0.23870443 0.10467301
0.113123894 0.21467057 -0.052658588 -0.015521076 0.22043668 -0.16849542 -0.18838103 -0.14090267
-0.18710329 -0.03262456 0.016736163 -0.061497256 -0.1176063 -0.37357455 -0.095602915 -0.023886062
-0.11889857 0.22278073 0.17279522 0.24549884 0.048863973 -0.0095534865 0.17050606 -0.2077867
-0.21928059 -0.003821912 0.13336207 0.22941945 0.11068603 0.25038093 0.17896235 0.037742946
0.039568707 0.16368078 -0.04038927 -0.13719425 -0.038149733 0.010848172 -0.28937146 -0.3223421
-0.1706131 0.13184611 -0.022602333 0.30096984 -0.0535593 0.08677634 -0.14574035 -0.042735655
-0.16828749 -0.04184363 0.12429046 -0.14747697 0.03627392 -0.31413186 -0.027853064 -0.040433936
0.12830092 0.07964865 -0.11904553 -0.039208274 -0.13561365 0.06158906 0.19572651 -0.25390345
-0.052008927 0.17974567 0.12457992 0.20732611 -0.03619242 0.2116776 0.18971658 0.087793745
0.3014211 0.24310607 0.19762684 0.05068054 -0.24291322 0.21667305 0.12916571 -0.12073788
0.1869564 0.13263167 -0.015923725 0.15512705 -0.20217787 -0.13297445 0.02091728 -0.03652974
0.030105997 0.19798133 -0.057271548 -0.31805575 0.1906247 0.0608885 0.25808355 -0.05524122
-0.38492107 -0.32064322 -0.029100128 -0.20068097 -0.027863204 -0.18610446 -0.2998861 -0.033041343
0.027976075 -0.11059314 -0.13674039 0.06949744 -0.10696817 -0.34255165 -0.069901906 -0.09587962
-0.3983897 -0.050912205 0.12543024 0.09529359 -0.16469371 -0.06802686 0.11691499 0.0015575801
-0.0023304943 0.06961376 0.07210201 0.16716842 0.054490976 -0.16839693 0.1203088 0.0824809
0.16249928 0.14162417 0.0059975698 0.16213253 0.09179571 0.05345796 -0.06578594 0.13104531
-0.022062464 -0.20708273 -0.2062887 -0.06288641 0.14729549 0.067309745 0.20837417 0.000507366
0.20477565 0.088780746 -0.039738066 0.13939913 0.1258244 0.04519922 -0.061173625 0.27831814
-0.2184716 -0.3495012 -0.14621836 0.14539818 0.0050244434 0.032968424 -0.20807385 0.100158244
0.12850271 0.08955217 -0.019072296 0.27772203 0.15185423 -0.110158764 0.08415037 0.22146079
00000000: 4ce3 94be cdb8 14be c377 1cbe c56b 2dbe
00000010: c8d9 fc3c 8372 14be 2f5a 8e3e 1b88 423e
00000020: eb22 fabd 4105 cbbe 09b6 333d cd9f 4cbe
00000030: 206d fdbc da57 c33d e0f2 c93c 1ae0 943c
00000040: 6c60 663d f468 343e 5c31 00be 8039 993d
00000050: e4e6 463e 3c18 19bc f307 2fbe bae0 643e
00000060: 2eb2 29bd 9d0e e93d 6a2b 2b3d 2890 473d
00000070: 0b6d 99bc d0ab b4be cc1b 1e3e e287 a43d
00000080: 4bd8 47be a1cb be3d f0de 8c3c 18f4 5abe
00000090: 640d 46be 5375 2f3d 0f89 013e a0b3 e9bd
000000a0: e97d de3d a0bf 7c3e 034d 193e 0d33 173e
000000b0: 71be 003e d17b e73d d9fa 80be 8a03 78be
000000c0: 4720 8b3c 7984 003e 0c22 3a3c 3b98 1a3e
000000d0: 0ac5 453e a078 0a3e 6c85 babc 0bbd 28bd
000000e0: eb91 3dbe 4762 16bd b8a0 2cbe 50ce 88bd
000000f0: 8a42 873e 311b 373e 2321 253e e34d 8dbe
00000100: 2b80 203c 884b 393e 4c0a fdbd 8fda 5a3c
00000110: cff7 cfbc f0b7 1e3d 9018 c7bc 4673 553c
00000120: 8abc 2fbc 24d4 a5bd a3a8 b4bd bb3f 59bd
00000130: ef70 cf3c 9468 55be b79c 67be 538c a5bc
00000140: f6a6 553e 4670 0ebe 3cd1 a03d 0319 733d
00000150: 4331 d8be 33d8 9ebd ef6e 74be ce5e d63d
00000160: 80ad e73d 9ad2 5b3e 88b0 57bd 1c4c 7ebc
00000170: 27ba 613e 108a 2cbe f5e6 40be ca48 10be
00000180: 0198 3fbe 55a1 05bd 471a 893c 8ce4 7bbd
00000190: 92db f0bd 2a45 bfbe 76cb c3bd b4ac c3bc
000001a0: 1881 f3bd a220 643e 3bf1 303e 0c64 7b3e
000001b0: 9725 483d 3a86 1cbc 2499 2e3e 09c6 54be
000001c0: 178b 60be 0b79 7abb 1190 083e efec 6a3e
000001d0: 5baf e23d ee31 803e e841 373e 5998 1a3d
000001e0: cc12 223d ef9b 273e 386f 25bd a67c 0cbe
000001f0: e542 1cbd 88bc 313c 7f28 94be 060a a5be
00000200: 33b5 2ebe ab02 073e 8728 b9bc b818 9a3e
00000210: ff60 5bbd cbb7 b13d f53c 15be 950b 2fbd
00000220: 8e53 2cbe 3a64 2bbd ff8b fe3d 3404 17be
00000230: f693 143d e4d5 a0be 1c2c e4bc 0e9e 25bd
00000240: 5161 033e d51e a33d 25ce f3bd db98 20bd
00000250: 4ede 0abe cf44 7c3d 886c 483e a2ff 81be
00000260: 5007 55bd 400f 383e c223 ff3d 4c4d 543e
00000270: 813e 14bd 03c2 583e 1045 423e 35cd b33d
00000280: de53 9a3e ccf0 783e b15e 4a3e 6696 4f3d
00000290: 3ebe 78be 8adf 5d3e 0444 043e 6c45 f7bd
000002a0: 8071 3f3e 99d0 073e 7972 82bc a0d9 1e3e
000002b0: b707 4fbe 742a 08be b75a ab3c 35a0 15bd
000002c0: daa0 f63c 9ebb 4a3e 9295 6abd 34d8 a2be
000002d0: 1f33 433e 3866 793d 8723 843e 9e44 62bd
000002e0: 6014 c5be 592b a4be 6463 eebc 507f 4dbe
000002f0: 6041 e4bc 2b92 3ebe ac8a 99be 5c56 07bd
00000300: 152e e53c a87e e2bd ac05 0cbe ac54 8e3d
00000310: 2112 dbbd ee62 afbe bb28 8fbd 895c c4bd
00000320: bcf9 cbbe 5189 50bd c970 003e 4929 c33d
00000330: 78a5 28be ab51 8bbd 2071 ef3d b727 cc3a
00000340: 35bb 18bb a991 8e3d 38aa 933d 332e 2b3e
00000350: ee31 5f3d 3f70 2cbe 7664 f63d bfeb a83d
00000360: 3666 263e ed05 113e 4387 c43b 1206 263e
00000370: 64ff bb3d bcf6 5a3d c7ba 86bd be30 063e
00000380: 57bc b4bc 7f0d 54be 583d 53be 97ca 80bd
00000390: a1d4 163e b1d9 893d 0a60 553e c200 053a
000003a0: b5b0 513e aed2 b53d 62c4 22bd a5be 0e3e
000003b0: 1dd8 003e d122 393d 3291 7abd b77f 8e3e
000003c0: 05b7 5fbe d2f1 b2be 44ba 15be 43e3 143e
000003d0: 16a4 a43b e609 073d 5011 55be c41f cd3d
000003e0: 3796 033e 2167 b73d 813d 9cbc 9531 8e3e
000003f0: ad7f 1b3e eb9a e1bd 0757 ac3d 9ec6 623e

block2.0.conv.bias f4 [8]
0.054647036 -0.16589874 0.0116962725 0.10710371 -0.13356593 -0.040608816 -0.044533864 -0.11338512
00000000: 92d5 5f3d 5ce1 29be b9a1 3f3c 3159 db3d
00000010: 82c5 08be 6e55 26bd 2469 36bd 7536 e8bd

block2.0.BN.weight f4 [8]
1.0287942 1.0041275 1.0912832 1.1260409 0.85775304 0.8913927 0.9303923 1.0815816
00000000: 87af 833f 4087 803f 2baf 8b3f 1c22 903f
00000010: b495 5b3f 5032 643f 312e 6e3f 4471 8a3f

block2.0.BN.bias f4 [8]
-0.15021032 -0.17303276 -0.021308083 0.08921942 -0.28178608 0.17450576 0.118611656 -0.1139791
00000000: bcd0 19be 802f 31be 4a8e aebc acb8 b63d
00000010: 4446 90be a3b1 323e abea f23d e06d e9bd

block2.0.BN.running_mean f4 [8]
-0.21286799 0.12839015 -0.57245404 -0.10567641 0.53653675 -0.76811904 0.39038837 -0.22923078
00000000: 11fa 59be b578 033e 598c 12bf e06c d8bd
00000010: 795a 093f 73a3 44bf fce0 c73e 79bb 6abe

block2.0.BN.running_var f4 [8]
0.40088326 0.6151721 0.58056104 0.30293244 0.69601625 0.7563306 0.42626977 0.3454724
00000000: 9240 cd3e eb7b 1d3f a69f 143f f619 9b3e
00000010: 1f2e 323f e29e 413f 0840 da3e c2e1 b03e

block2.1.conv.weight f4 [16, 8, 3, 3]
0.11540806 -0.04130651 -0.22904044 0.1816012 0.09600683 -0.049230218 -0.024767669 0.20694248
0.10227123 0.036041174 -0.08623425 -0.1237935 0.1498464 -0.05288739 0.14909562 -0.051533762
-0.090567745 0.00038537217 0.14265041 0.01640537 -0.12196848 0.25767237 0.24201418 0.30599725
-0.20265068 -0.130003 -0.11551676 0.16174197 -0.041163046 -0.12130038 -0.051276386 0.02938398
0.034353267 0.17599289 0.15391707 0.26609233 0.061496984 0.09720907 0.10415938 0.0870497
0.039668106 0.005175584 -0.041981295 -0.11989589 0.04762894 -0.033463463 0.11337274 0.10821611
0.09146324 -0.017099967 0.013221175 -0.15652701 -0.09762075 0.14505 -0.015534397 0.07570377
-0.085789695 -0.08346094 -0.20669788 -0.15868181 0.1875302 0.28265002 0.09851906 0.082897216
0.24796593 0.11251644 -0.20064726 0.16887467 -0.12278142 -0.19286314 0.2660711 0.10822533
0.06720403 -0.10864713 0.10531462 0.012413564 0.022927027 0.18911944 -0.134704 0.050862752
-0.01408159 -0.11523835 -0.27127463 -0.058546368 -0.20347773 -0.1109806 -0.24884559 0.16223101
0.12160952 0.062572755 0.13342205 0.05656952 0.0283236 -0.030972408 0.024117967 -0.03652045
-0.009203306 -0.18487331 -0.14321728 0.033852495 0.18773901 0.18205723 -0.01100984 0.20649406
0.10126529 0.23697793 0.11910325 -0.08140742 -0.012071862 0.24019867 0.1876092 -0.043874577
-0.1370703 0.04748477 0.07666503 0.043598823 0.005546385 -0.04905866 0.08343198 -0.020959958
0.037492614 0.082560115 -0.010950807 0.03236016 0.0134318955 0.18164745 -0.18658525 -0.14676669
-0.2979958 0.18943757 0.20322332 0.06584236 0.09887667 0.102487475 -0.0131744305 -0.101199515
0.28609616 0.20790246 -0.084729314 -0.08916842 0.16199565 -0.111474454 -0.18689814 0.119058974
0.12377766 0.050803024 -0.07913079 0.3800195 0.22481994 -0.024696467 0.11136965 0.0664341
-0.3240235 -0.10832564 0.072063126 -0.057844304 0.079800636 0.004846661 -0.12928367 0.14557487
0.04062411 -0.12949061 0.15165396 -0.054967754 -0.010587461 0.020209493 0.03904919 -0.11145861
0.014777398 -0.19785763 -0.11275658 0.21604145 0.2263303 0.18375026 0.05279813 -0.100185506
-0.38780844 0.12414058 -0.013489224 -0.17191976 -0.04546414 0.030154387 0.045796856 -0.0106574455
-0.16736284 -0.02816928 0.0911141 0.122166194 0.22229582 0.19411212 0.071027346 0.14759214
-0.2558405 -0.28529814 0.01443848 -0.21847782 -0.19421367 -0.08243867 -0.11308111 -0.13188575
0.06213464 -0.2325965 -0.26401424 -0.073288456 -0.032280676 0.012908068 0.015005917 -0.03185858
-0.03814339 0.04669277 -0.102578595 -0.11504319 0.10326277 0.022768691 0.020848902 -0.0629035
0.17044583 -0.013959874 0.04466721 -0.05477682 -0.033554852 -0.13248195 0.14042391 0.008940312
0.07961608 -0.26501277 0.02086698 0.10699781 0.13946909 0.08067223 0.11729514 0.2711968
0.29901686 0.31486863 0.20262912 0.07393457 0.2264751 0.04528881 0.089675464 0.12753004
-0.074802764 -0.28071207 -0.17962494 0.1398751 0.31948733 0.06116371 0.2341186 0.07717776
-0.023644663 0.11193255 0.035761256 -0.07084087 -0.08851443 -0.08927516 0.097639404 -0.12821805
00000000: 105b ec3d 0431 29bd 9489 6abe aaf5 393e
00000010: 3b9f c43d a0a5 49bd 91e5 cabc bbe8 533e
00000020: 9473 d13d e99f 133d 959b b0bd 7287 fdbd
00000030: 5671 193e 73a0 58bd 86ac 183e 1115 53bd
00000040: 957b b9bd c70b ca39 f312 123e 8e64 863c
00000050: 9cca f9bd a2ed 833e 91d2 773e acab 9c3e
00000060: a983 4fbe 821f 05be 0d94 ecbd b09f 253e
00000070: 959a 28bd 556c f8bd 3007 52bd acb6 f03c
00000080: 03b6 0c3d 7b37 343e 709c 1d3e 413d 883e
00000090: 43e4 7b3d 8d15 c73d 8351 d53d 1d47 b23d
000000a0: 067b 223d f297 a93b 94f4 2bbd fa8b f5bd
000000b0: 9016 433d fc10 09bd f82f e83d 68a0 dd3d
000000c0: 1451 bb3d 3b15 8cbc a19d 583c 9e48 20be
000000d0: 63ed c7bd fd87 143e fc83 7ebc 940a 9b3d
000000e0: 82b2 afbd 92ed aabd 9ca8 53be 7c7d 22be
000000f0: eb07 403e 81b7 903e 5cc4 c93d 04c6 a93d
00000100: c8ea 7d3e 056f e63d 7a76 4dbe 7bed 2c3e
00000110: d374 fbbd ea7d 45be 793a 883e 3ea5 dd3d
00000120: 44a2 893d 6382 debd 31af d73d 4362 4b3c
00000130: 76d1 bb3c 87a8 413e d8ef 09be 7655 503d
00000140: 78b6 66bc 1602 ecbd 82e4 8abe 51ce 6fbd
00000150: 775c 50be cc49 e3bd 61d1 7ebe e31f 263e
00000160: 690e f93d 2526 803d ca9f 083e 71b5 673d
00000170: e506 e83c d9b9 fdbc 0b93 c53c 7896 15bd
00000180: 77c9 16bc 6e4f 3dbe 8da7 12be eaa8 0a3d
00000190: a83e 403e 366d 3a3e 9e62 34bc 2e73 533e
000001a0: 2d64 cf3d 58aa 723e 68ec f33d efb8 a6bd
000001b0: 0fc9 45bc a4f6 753e a01c 403e d4b5 33bd
000001c0: 285c 0cbe 647f 423d 8e02 9d3d ae94 323d
000001d0: 73be b53b bcf1 48bd 63de aa3d 38b4 abbc
000001e0: db91 193d 4715 a93d 036b 33bc 168c 043d
000001f0: 7411 5c3c ca01 3a3e 3410 3fbe 024a 16be
00000200: e892 98be ecfb 413e c619 503e 5cd8 863d
00000210: da7f ca3d f4e4 d13d 91d9 57bc b141 cfbd
00000220: 327b 923e 62e4 543e 9086 adbd ef9d b6bd
00000230: 30e2 253e b84c e4bd 3a62 3fbe 31d5 f33d
00000240: 247f fd3d d516 503d 530f a2bd ea91 c23e
00000250: 3337 663e 3f50 cabc c515 e43d 9a0e 883d
00000260: 68e6 a5be d5d9 ddbd d595 933d 26ee 6cbd
00000270: 846e a33d bdd0 9e3b f062 04be 9411 153e
00000280: 7765 263d 3099 04be 2d4b 1b3e de25 61bd
00000290: 0877 2dbc 618e a53c 0bf2 1f3d 6944 e4bd
000002a0: e61c 723c 319b 4abe ecec e6bd f839 5d3e
000002b0: 21c3 673e 0729 3c3e da42 583d 0f2e cdbd
000002c0: d48e c6be 6b3d fe3d e801 5dbc bc0b 30be
000002d0: 9b38 3abd 5506 f73c 7c95 3b3d 919c 2ebc
000002e0: 2a61 2bbe 43c3 e6bc 079a ba3d 4532 fa3d
000002f0: 84a1 633e 54c5 463e c976 913d 6522 173e
00000300: 87fd 82be 9912 92be 608f 6c3c a6b8 5fbe
00000310: f3df 46be 9bd5 a8bd 1297 e7bd 0f0d 07be
00000320: e480 7e3d c72d 6ebe e02c 87be 4218 96bd
00000330: be38 04bd 5c7c 533c 61db 753c 247e 02bd
00000340: 3e3c 1cbd eb40 3f3d ba14 d2bd c49b ebbd
00000350: 6e7b d33d 6885 ba3c 51cb aa3c 8dd3 80bd
00000360: 5a89 2e3e f5b7 64bc f7f4 363d a95d 60bd
00000370: d070 09bd 59a9 07be 49cb 0f3e 637a 123c
00000380: c10d a33d c1af 87be 3bf1 aa3c ab21 db3d
00000390: fcd0 0e3e 7b37 a53d 6f38 f03d 4fda 8a3e
000003a0: bd18 993e 7636 a13e 027e 4f3e 026b 973d
000003b0: 17e9 673e c280 393d c5a7 b73d 3c97 023e
000003c0: 3132 99bd 7eb9 8fbe 9aef 37be 6b3b 0f3e
000003d0: d893 a33e cc86 7a3d c9bc 6f3e 600f 9e3d
000003e0: 74b2 c1bc e53c e53d 657a 123d 0515 91bd
000003f0: 0e47 b5bd e5d5 b6bd 2bf7 c73d 984b 03be

block2.1.conv.bias f4 [16]
-0.057557408 0.07627011 0.025987709 0.014722562 -0.09500878 0.18455578 -0.061939027 -0.11813193
0.27410543 -0.07508881 -0.08083629 -0.07633619 0.06237811 -0.10799426 0.08699276 -0.0013517123
00000000: 51c1 6bbd 8133 9c3d 2de4 d43c e736 713c
00000010: f793 c2bd 31fc 3c3e c7b3 7dbd 27ef f1bd
00000020: 8c57 8c3e 29c8 99bd 7f8d a5bd 2656 9cbd
00000030: 3080 7f3d 182c ddbd 4329 b23d f02b b1ba

block2.1.BN.weight f4 [16]
1.0440199 1.0511317 1.0846045 1.0103034 0.95419157 0.9727433 0.9651311 0.9428521
1.101583 0.8981353 0.9815523 0.9011968 1.0386022 1.0412111 0.9924395 1.0124371
00000000: 72a2 853f 7c8b 863f 52d4 8a3f 9f51 813f
00000010: e645 743f b405 793f d512 773f c15e 713f
00000020: ac00 8d3f 32ec 653f 0347 7b3f d5b4 663f
00000030: ebf0 843f 6846 853f 8410 7e3f 8a97 813f

block2.1.BN.bias f4 [16]
-0.115075864 -0.33504453 -0.06549247 -0.09177217 0.061025593 -0.040882807 -0.14127941 -0.19386369
-0.039509818 -0.15673232 -0.1988109 -0.06720391 0.056047425 -0.15639386 -0.13357146 -0.15378664
00000000: e5ac ebbd f58a abbe eb20 86bd 0cf3 bbbd
00000010: f9f5 793d bb74 27bd 8dab 10be 3484 46be
00000020: 0cd5 21bd 707e 20be 1695 4bbe 34a2 89bd
00000030: fc91 653d b625 20be f5c6 08be 3f7a 1dbe

block2.1.BN.running_mean f4 [16]
0.8074856 0.62349284 -0.48127598 0.51026094 -0.9162233 -0.11792981 -0.17100543 -0.75586
-0.9277706 0.0013191688 -0.04092145 -0.8400406 0.06258765 0.061898693 -0.2170429 -0.5659703
00000000: 60b7 4e3f 3a9d 1f3f ce69 f6be 76a0 023f
00000010: 9c8d 6abf 2f85 f1bd 0c1c 2fbe 0a80 41bf
00000020: 6082 6dbf f6e7 ac3a 409d 27bd e70c 57bf
00000030: f42d 803d 7c89 7d3d 7e40 5ebe 6ee3 10bf

block2.1.BN.running_var f4 [16]
1.1761818 0.5880939 0.87185144 1.4049209 2.0776293 0.6090774 1.2503445 0.9155188
1.21956 1.4523667 1.6942657 1.2956617 0.96573037 0.968888 0.7383448 1.3841059
00000000: 208d 963f 528d 163f a831 5f3f 73d4 b33f
00000010: e1f7 0440 7fec 1b3f 4a0b a03f 715f 6a3f
00000020: 8b1a 9c3f 27e7 b93f b3dd d83f 3ed8 a53f
00000030: 1b3a 773f 0b09 783f 2a04 3d3f 622a b13f
