result/model/0509 1027.pt (torch, 79133 bytes, 98 tensors)

input_conv.conv.weight f4 [4, 1, 3, 3]
0	0x3ea3d3ce	0.31997532
1	0x3ce47f6e	0.027892794
2	0xbe905597	-0.281903
3	0xbdcc9f91	-0.099913724
4	0x3e4f307b	0.20233338
5	0xbe944075	-0.28955427
6	0x3eae3330	0.34023428
7	0x3e38bde7	0.18041192
8	0xbea657dc	-0.32488906
9	0xbddcf459	-0.10788793
10	0x3e3d2226	0.18470058
11	0xbeb6263f	-0.35576054
12	0x3d87884a	0.06617792
13	0x3e05694f	0.13028453
14	0x3f2a2c89	0.66474205
15	0xbd6a8bce	-0.057262234
16	0xbc214835	-0.009843876
17	0x3d67f1ae	0.056626968
18	0xbdc7be2e	-0.09753071
19	0xbdd406cd	-0.1035286
20	0xbe7a9c1c	-0.24473614
21	0xbe780620	-0.24221087
22	0xbefb46ef	-0.49077556
23	0xbf116f0d	-0.56810075
24	0x3e9383a8	0.28811383
25	0x3de21b27	0.11040335
26	0xbe5c0f30	-0.21490169
27	0xbe4677f3	-0.19381694
28	0xbe98f79e	-0.29876417
29	0xbe8e4394	-0.27785933
30	0x3e9c10b7	0.30481502
31	0xbd881472	-0.06644525
32	0x3e1b1cf9	0.15147771
33	0x3ed05b3b	0.40694603
34	0x3e6dbc11	0.23216273
35	0x3d3dd587	0.046346214

input_conv.conv.bias f4 [4]
0	0x3e4529b1	0.19254185
1	0x3eed3e5d	0.46336642
2	0x3dda3f4b	0.106566034
3	0xbe36e5c3	-0.17861085

input_conv.BN.weight f4 [4]
0	0x3f80378f	1.0016955
1	0x3f7e9639	0.9944797
2	0x3f96f68b	1.1793989
3	0x3f576120	0.84132576

input_conv.BN.bias f4 [4]
0	0x3d24faf0	0.040278375
1	0x3c80297b	0.01564478
2	0xbdd0f36b	-0.10202678
3	0x3eb63b07	0.3559191

input_conv.BN.running_mean f4 [4]
0	0x3e43dbe6	0.19126853
1	0x3eec1c14	0.46115172
2	0x3dca7f89	0.09887607
3	0xbe4a4d10	-0.1975596

input_conv.BN.running_var f4 [4]
0	0x3dc42f14	0.09579292
1	0x3ea58c76	0.32333726
2	0x400a2135	2.1582768
3	0x3e33f3f8	0.17573535

block1.0.conv.weight f4 [8, 4, 3, 3]
0	0xbe62fed1	-0.22167517
1	0xbd71e2e7	-0.05905428
2	0x3db8128a	0.08987911
3	0xbe2e8376	-0.17042336
4	0x3cd3e83b	0.025867572
5	0x3e77553e	0.24153611
6	0xbdbf86be	-0.09351872
7	0x3db4f515	0.08835808
8	0xbdc26dd0	-0.09493601
9	0x3e2e7848	0.17038071
10	0x3d9df4b8	0.07712692
11	0x3e5b6700	0.2142601
12	0xbea00225	-0.31251636
13	0x3db30a34	0.087421805
14	0x3e720320	0.23634005
15	0xbe576858	-0.21035898
16	0xbe4d8a1e	-0.20072219
17	0x3e8d7aa9	0.27632645
18	0xbef75f0c	-0.48314703
19	0x3cd21a65	0.025647352
20	0xbc06539c	-0.008198645
21	0xbe77f658	-0.24215066
22	0xbd5577cb	-0.052116197
23	0x3b87d1f2	0.0041449005
24	0x3e790eda	0.24322072
25	0x3ec58e81	0.38585284
26	0x3e78e79e	0.24307105
27	0x3d88488e	0.06654464
28	0xbd938d21	-0.072046526
29	0x3dd2defd	0.10296438
30	0x3c56cfd6	0.013111075
31	0xbc384306	-0.011246448
32	0x3eb8ab64	0.3606826
33	0x3d169dd3	0.036771607
34	0x3ce14632	0.027499292
35	0xbdef09bc	-0.116717786
36	0x3df95638	0.12174648
37	0xbe66c142	-0.2253466
38	0xbea7cfeb	-0.32775816
39	0x3d80fd67	0.06298333
40	0xbf2dc046	-0.6787151
41	0xbeaa5e75	-0.3327519
42	0xbdc15dbd	-0.09441707
43	0xbf3898b1	-0.7210799
44	0xbdac2c5b	-0.08406898
45	0xbde1bc5a	-0.11022253
46	0x3bd45f0a	0.006481056
47	0x3bfc75b6	0.007704462
48	0x3dc4815f	0.09594988
49	0x3dff46c1	0.12464667
50	0x3e245fe7	0.16052209
51	0xbe17150a	-0.1475412
52	0x3dafc357	0.0858218
53	0x3e375510	0.17903543
54	0x3e702e01	0.23455049
55	0xbd2e13f2	-0.04249949
56	0xbe8a92ad	-0.2706503
57	0x3c923327	0.017846657
58	0x3e1b2bb4	0.1515339
59	0xbe0246fc	-0.12722391
60	0xbe020e24	-0.12700707
61	0x3dbeb1f6	0.09311287
62	0x3c30fc09	0.010802277
63	0x3d25bb1f	0.040461656
64	0x3dfb55f9	0.12272257
65	0x3d174b8f	0.036937293
66	0x3df732b4	0.12070218
67	0xbc26a105	-0.010170226
68	0x3db07196	0.08615415
69	0xbddab60f	-0.10679256
70	0xbdcd2ddb	-0.10018512
71	0xbd061c4d	-0.032741833
72	0xbcad267d	-0.021136517
73	0x3d751d73	0.059842538
74	0x3f2d4283	0.67679614
75	0x3cc75af5	0.024335364
76	0x3df398e8	0.11894399
77	0x3df41f79	0.119200654
78	0xbd405d52	-0.046963997
79	0xbbe89e42	-0.007098944
80	0xbdd338c3	-0.10313561
81	0x3e126443	0.1429606
82	0x3bb9324b	0.0056517473
83	0xbe3fdba9	-0.18736137
84	0xbe3c35ac	-0.18379849
85	0x3e6ac72c	0.2292754
86	0xbdd6f0d9	-0.10495157
87	0xbcfaa514	-0.030596294
88	0x3ce8b999	0.028408812
89	0xbdeea765	-0.11653022
90	0x3f041e3d	0.5160864
91	0x3de7deda	0.113218024
92	0xbd2da2ad	-0.042391468
93	0xbc2beac3	-0.010492983
94	0xbe499ab6	-0.19687924
95	0xbe7b0022	-0.2451177
96	0x3e12a365	0.14320143
97	0x3b4edcce	0.0031564715
98	0xbe0b7fcf	-0.13622974
99	0x3d3dbcd2	0.04632265
100	0xbe172cd5	-0.14763196
101	0x3db0e3f1	0.086372264
102	0xbe09a515	-0.1344188
103	0xbe0e3faf	-0.13891481
104	0x3ed3828a	0.4131053
105	0xbd55176d	-0.052024294
106	0xbe8917a2	-0.26775843
107	0xbd10cbf3	-0.03535075
108	0x3e2f25f4	0.17104322
109	0x3bf2c298	0.0074084513
110	0x3d220653	0.039556812
111	0x3df462a0	0.11932874
112	0x3e6b424b	0.22974508
113	0x3d2f0bc9	0.04273585
114	0x3e215fca	0.15759197
115	0x3e6ed721	0.23324253
116	0xbe792970	-0.24332213
117	0x3d174c95	0.03693827
118	0xbe2fb5d3	-0.17159204
119	0xbd17c63d	-0.03705429
120	0x3cac3c18	0.021024749
121	0xbdd2a10a	-0.10284622
122	0x3e5b4d6c	0.21416253
123	0xbdeeaa77	-0.11653607
124	0xbef4bd05	-0.4780046
125	0x3e35d5fe	0.17757413
126	0xbdb42bda	-0.087974265
127	0xbebb71d0	-0.3661027
128	0xbe99593a	-0.29950887
129	0xbd73f7cf	-0.0595625
130	0x3ced0957	0.028935118
131	0xbd1865e4	-0.037206545
132	0x3d80510b	0.06265458
133	0x3e84dc32	0.25949246
134	0x3da77f47	0.08178573
135	0x3c5329cc	0.012888383
136	0xbdb60fa1	-0.088897
137	0x3e290f6b	0.16509788
138	0xbd3ea019	-0.0465394
139	0xbe848152	-0.25879914
140	0xbea2c9bb	-0.31794533
141	0xbe87c669	-0.26518562
142	0xba9ce219	-0.0011969238
143	0xbe5f6398	-0.21815336
144	0xbe296a7a	-0.16544524
145	0x3d92f779	0.07176108
146	0xbe0b358e	-0.13594648
147	0xbe5838ab	-0.21115367
148	0x3df18736	0.117933676
149	0xbd245692	-0.040121622
150	0x3da4ef6f	0.08053481
151	0x3dd7c032	0.10534705
152	0x3da43885	0.08018593
153	0x3e49ba64	0.19700009
154	0x3f3cb5a4	0.7371466
155	0x3de1d230	0.11026418
156	0xbd8bc8aa	-0.06825383
157	0x3e16651e	0.1468701
158	0xbe4598f2	-0.19296625
159	0x3da4c27f	0.0804491
160	0x3d4c4d12	0.049878187
161	0x3dd43b87	0.103629164
162	0xbe6cacb4	-0.23112756
163	0xbe875a48	-0.26436067
164	0xbcaa013d	-0.020752544
165	0x3e9c11f0	0.30482435
166	0x3e65bac8	0.22434533
167	0xbce2c85f	-0.027683435
168	0x3e58c5ee	0.21169254
169	0x3e8aa686	0.27080172
170	0x3d4190da	0.04725728
171	0xbdd80ec0	-0.10549688
172	0x3e26d896	0.16293558
173	0x3eb623db	0.3557423
174	0xbdfe5a74	-0.12419596
175	0xbe382076	-0.17981133
176	0xbd9edd33	-0.07757034
177	0xbdde7616	-0.10862367
178	0x3de0e044	0.10980275
179	0xbab4b13b	-0.0013785729
180	0xbe27454f	-0.16335033
181	0xbea98f8b	-0.33117327
182	0xbec8732a	-0.39150363
183	0xbcde88c8	-0.027164832
184	0xbda0423c	-0.07825133
185	0x3e12a0da	0.14319173
186	0x3d27a7c0	0.040931463
187	0xbec6ab4f	-0.38802573
188	0x3cd7d782	0.02634788
189	0xbddfff17	-0.109373264
190	0xbe231868	-0.15927279
191	0xbd96a2ec	-0.07355294
192	0xbd8cc8d3	-0.06874242
193	0x3dee8ff4	0.11648551
194	0xbdd1b478	-0.102395
195	0x3d6ccd61	0.057813052
196	0xbd2f846c	-0.042850897
197	0x3e2c2e27	0.1681448
198	0x3e8afd28	0.27146268
199	0x3ea14fb2	0.31506115
200	0xbd13f19b	-0.036119085
201	0x3e112130	0.14172816
202	0xbdc4b112	-0.09604086
203	0xbe4733d8	-0.1945337
204	0x3d1dfc56	0.038570724
205	0xbe51a744	-0.20473963
206	0xbe80e1f1	-0.2517238
207	0x3e35240b	0.1768953
208	0x3e5925cc	0.21205825
209	0x3e678888	0.22610676
210	0x3e3dc5ab	0.18532436
211	0xbdb18e16	-0.08669679
212	0x3b5c6a8e	0.0033632847
213	0x3e2872ba	0.16450015
214	0xbd9bcccf	-0.076074235
215	0x3e53677b	0.20644943
216	0xbe023874	-0.12716848
217	0x3dd165a4	0.102244645
218	0x3d9416f3	0.0723094
219	0x3dcdc13d	0.10046623
220	0x3e420e90	0.18950868
221	0xbce5d037	-0.028053386
222	0x3c2fc09e	0.010727076
223	0xbdc4f7c0	-0.09617567
224	0xbdef8ab4	-0.116963774
225	0x3ea35703	0.31902322
226	0xbe2a7be4	-0.16648823
227	0xbe91cc61	-0.2847624
228	0x3e6a4402	0.22877505
229	0xbd4ec1c5	-0.05047776
230	0xbe177cda	-0.14793721
231	0x3e3d62f7	0.18494783
232	0xbd3a6dd3	-0.045514893
233	0xbe0e2ba4	-0.13883835
234	0x3e90edea	0.28306514
235	0x3e569e48	0.20958817
236	0x3e7d7069	0.24749912
237	0x3da2f186	0.07956223
238	0x3d9eb999	0.07750244
239	0x3e922575	0.28544202
240	0xbe9554d2	-0.29166275
241	0x3c987659	0.01861112
242	0xbdde650e	-0.108591184
243	0x3ec521b5	0.3850228
244	0x3d290a14	0.041269377
245	0x3d2d2cd0	0.042279065
246	0x3e9f49b3	0.31110916
247	0x3dbdf422	0.0927508
248	0xbe0f45b9	-0.13991441
249	0x3dbbab23	0.09163501
250	0xbdf9b654	-0.121929795
251	0xbd7d25ce	-0.06180363
252	0xbdceacbb	-0.100915395
253	0xbe5cfb44	-0.21580225
254	0xbeffd60a	-0.49967986
255	0x3c302946	0.010752028

block1.0.conv.bias f4 [8]
0	0xbd28b36c	-0.041186735
1	0xbce56a75	-0.028004864
2	0x3de66b38	0.11250919
3	0x3e64210b	0.2227823
4	0x3c8248d3	0.015903866
5	0xbd69aefa	-0.057051636
6	0x3da97dfe	0.08275984
7	0xbda8fd60	-0.082514524

block1.0.BN.weight f4 [8]
0	0x3f74d012	0.9562999
1	0x3f815a78	1.0105734
2	0x3f6b2722	0.91856587
3	0x3f733bbf	0.9501304
4	0x3f9040d5	1.1269785
5	0x3f6d89f5	0.9278863
6	0x3f9346d2	1.1505988
7	0x3f7be4da	0.98396075

block1.0.BN.bias f4 [8]
0	0xbe374bd9	-0.17900027
1	0xbcedc503	-0.029024607
2	0xbcc1d6e6	-0.023662042
3	0x3e689b80	0.22715569
4	0x3d84e5a8	0.06489116
5	0xbd8ebc31	-0.069694884
6	0xbe112be9	-0.14176907
7	0xbde26398	-0.11054152

block1.0.BN.running_mean f4 [8]
0	0x3ec2c552	0.38041168
1	0xbf820ade	-1.0159566
2	0x3ec630c3	0.38709077
3	0xbed4abfc	-0.41537464
4	0x3f585f8d	0.845208
5	0xbe3887b3	-0.18020515
6	0x3f65bc51	0.89740473
7	0xbf77bbc3	-0.96770877

block1.0.BN.running_var f4 [8]
0	0x3ed335c6	0.41251963
1	0x4002cbc9	2.043688
2	0x3ee440c8	0.44580674
3	0x3f728feb	0.9475085
4	0x3f8af4eb	1.0855993
5	0x3f0e7543	0.5564768
6	0x3f07ae0b	0.52999943
7	0x402908c4	2.64116

block1.1.conv.weight f4 [16, 8, 3, 3]
0	0xbe5dfed2	-0.21679237
1	0x3e10c8bd	0.14139076
2	0x3e7a76d9	0.244594
3	0xbdb7e02a	-0.08978303
4	0xbc5bb73d	-0.013410387
5	0x3ccb7dfd	0.02484035
6	0x3d02bf3f	0.031920668
7	0x3cd687fe	0.026187893
8	0x3d7e1336	0.06203004
9	0xbd6eb22d	-0.05827539
10	0x3d01aa0e	0.031656317
11	0xbca78718	-0.02045016
12	0xbd7b5f32	-0.061370082
13	0xbe874828	-0.26422238
14	0x3c782a28	0.01514677
15	0x3d2a6917	0.041604128
16	0xbe92bf09	-0.28661373
17	0x3cb737d0	0.02236548
18	0xbe0ee7dd	-0.13955636
19	0xbeb9a0e5	-0.36255565
20	0x3e380dfc	0.17974085
21	0x3da1e355	0.07904688
22	0xbe6eff7b	-0.23339646
23	0xbda0dbae	-0.078544006
24	0x3e156cee	0.14592335
25	0xbe3cc0a8	-0.18432868
26	0xbe25a882	-0.16177562
27	0xbe1e78d6	-0.15475783
28	0xbe369e5a	-0.17833844
29	0xbdab7d13	-0.083734654
30	0xbd196ac0	-0.03745532
31	0x3aa80ade	0.0012820621
32	0x3dcbffcf	0.09960901
33	0xbdd6b34a	-0.104834154
34	0x3a27b93b	0.0006398146
35	0x3e9eb526	0.3099758
36	0xbe525194	-0.20538932
37	0xbe35f748	-0.17770112
38	0x3e88cc40	0.2671833
39	0xbcbfebc5	-0.023427853
40	0xbc887f57	-0.016662283
41	0x3e3d9aff	0.18516158
42	0x3d596f28	0.053084522
43	0xbe128fa1	-0.14312603
44	0xbe13fb34	-0.14451295
45	0x3e1f4dc5	0.1555701
46	0xbe1ab318	-0.15107381
47	0xbe8a5fdc	-0.2702626
48	0x3d99b263	0.07504728
49	0xbddf9260	-0.10916591
50	0xbe056178	-0.13025463
51	0x3e64e2b3	0.22352104
52	0xbe2957d3	-0.16537409
53	0xbed465a6	-0.41483802
54	0x3e8bfaf3	0.27339897
55	0x3de68bcd	0.11257134
56	0xbe997d42	-0.29978377
57	0x3e442816	0.19155917
58	0xbe39249b	-0.1808037
59	0xbeb3df7c	-0.35131443
60	0x3db96208	0.09051901
61	0xbe0ef0e7	-0.13959084
62	0xbe9814b4	-0.29703295
63	0x3d09c270	0.033632696
64	0x3dfcb0d6	0.12338416
65	0x3d4a0fa2	0.049331315
66	0xbceef3e6	-0.029169034
67	0xbdf5717c	-0.11984536
68	0xbe19714c	-0.14984626
69	0xbdd65d24	-0.10466984
70	0x3e288da7	0.16460286
71	0x3d945d58	0.072443664
72	0xbd9568ab	-0.072953545
73	0xbe87925a	-0.26478845
74	0xbe009584	-0.12557036
75	0x3e0698cb	0.13144223
76	0x3e34b7c2	0.17648223
77	0x3e2ddbae	0.16978332
78	0xbd3d6d96	-0.046247087
79	0xbd90c436	-0.07068674
80	0xbc964f59	-0.018348383
81	0x3db0c864	0.086319715
82	0x3e651160	0.2236991
83	0x3e1b3fa2	0.15160993
84	0x3c912219	0.017716454
85	0x3e5e46eb	0.2170674
86	0x3e28f2c5	0.16498859
87	0x3e173464	0.14766079
88	0x3ecd7fc0	0.40136528
89	0x3d93076d	0.07179151
90	0x3e0688bd	0.13138099
91	0x3db44885	0.088028945
92	0x3d9c8f59	0.07644529
93	0xbd2f9cde	-0.04287421
94	0xbd83b09d	-0.06430171
95	0xba5b0aee	-0.00083558157
96	0xbeb0fbf0	-0.34567213
97	0xbe8c8b0b	-0.2744983
98	0xbd47f9cd	-0.048822213
99	0xbc2569ef	-0.010096057
100	0x3d7e22f6	0.06204506
101	0xbd7b38a8	-0.06133333
102	0x3db773b6	0.08957617
103	0x3d110677	0.035406556
104	0xbd4e7940	-0.0504086
105	0x3d0b8dbb	0.03407071
106	0xbdbd3e20	-0.09240365
107	0xbd9cae9b	-0.07650491
108	0xbd17c31e	-0.037051313
109	0xbdc245ee	-0.09485994
110	0xbe3abb5f	-0.18235539
111	0x3b8b8d84	0.0042588133
112	0xbe18b515	-0.14912827
113	0xbe6cb580	-0.23116112
114	0xbd990c0e	-0.074730024
115	0x3d7d923a	0.06190703
116	0x3dada95d	0.08479569
117	0xbdbbb5b8	-0.091655195
118	0xbd782c9c	-0.060589418
119	0x3da6362f	0.081158035
120	0x3da6d7e2	0.08146645
121	0xbbd435a6	-0.006476122
122	0xbe29b31f	-0.16572236
123	0xbd05a3f6	-0.03262707
124	0x3cddc49f	0.027071295
125	0x3e3755d6	0.17903838
126	0xbd22912f	-0.03968924
127	0x3e44c5dc	0.19216102
128	0x3e53526f	0.20636915
129	0xbd902e0d	-0.070400335
130	0x3e1dd1d4	0.15412074
131	0x3dc5fae8	0.09666997
132	0x3e6842ed	0.2268178
133	0x3ccd25fd	0.025042528
134	0xbdcd569f	-0.10026287
135	0x3e512c3e	0.20427033
136	0x3eb4d728	0.353204
137	0x3e67db41	0.22642232
138	0x3cc1eb25	0.023671696
139	0x3eba2bf5	0.36361662
140	0x3ea3d4bf	0.3199825
141	0x3ea236b6	0.31682366
142	0x3f2d5ca7	0.677195
143	0x3ec9be3a	0.39402944
144	0xbc1e1c3c	-0.009650286
145	0xbe0078fc	-0.12546152
146	0xbba7dd9c	-0.0051228534
147	0xbd3fd164	-0.04683055
148	0x3d5dfa3a	0.054193713
149	0xbd074610	-0.0330258
150	0xbec3b89f	-0.38226792
151	0xbe3cb809	-0.18429579
152	0x3d5298bd	0.051415194
153	0x3e8d22a8	0.27565503
154	0x3d36091d	0.044442285
155	0x3e35514b	0.17706792
156	0x3d44ea1f	0.048074838
157	0x3bf2c749	0.0074090105
158	0xbdb502ab	-0.088383995
159	0xbe583f38	-0.21117866
160	0xbf0eb0b2	-0.55738366
161	0xbec91cc2	-0.39279753
162	0x3e16abe6	0.14714012
163	0x3e1427f9	0.14468373
164	0x3eb1c32a	0.3471921
165	0xbe147846	-0.14499006
166	0x3d6f9d69	0.058499727
167	0xbd215508	-0.039387733
168	0xbe9ae0a4	-0.30249512
169	0xbe596df6	-0.21233353
170	0xbe8d5209	-0.2760165
171	0xbce16c49	-0.027517455
172	0x3d7456a2	0.059652932
173	0x3e0f6a25	0.14005335
174	0xbc52fb71	-0.012877331
175	0x3e0789db	0.13236181
176	0x3ce4db44	0.027936585
177	0xbd55b6d9	-0.05217633
178	0xbd390d4f	-0.045178708
179	0xbe06a791	-0.13149859
180	0x3e252497	0.16127239
181	0x3decf65a	0.11570425
182	0xbe1d0b05	-0.15336235
183	0x3da0e8d8	0.078569114
184	0x3deb4bff	0.114891045
185	0xbeaca450	-0.3371911
186	0xbd5475c6	-0.05187013
187	0xbe3d5058	-0.1848768
188	0xbee24aeb	-0.44197783
189	0x3e10b6b8	0.14132202
190	0xbdb03c35	-0.086052336
191	0xbe3b25c9	-0.18276133
192	0x3e76fd8a	0.24120155
193	0xbdb86184	-0.09002975
194	0xbe4a7140	-0.19769764
195	0xbe5eeb3a	-0.2176942
196	0xbe6d26ba	-0.23159304
197	0xbe02ba44	-0.12766367
198	0x3d5ca079	0.053863976
199	0xbd1211ec	-0.035661623
200	0x3e5b5353	0.21418504
201	0xbd8400bb	-0.06445452
202	0xbe1998bb	-0.14999668
203	0x3d55e23c	0.052217707
204	0x3dd2fb25	0.10301808
205	0xbcdaa936	-0.026692014
206	0x3e1db76a	0.15401998
207	0x3d31f270	0.043444097
208	0x3e15d4d6	0.14631972
209	0xbd840258	-0.064457595
210	0x3e051ec4	0.13000017
211	0x3e04f6a9	0.12984718
212	0x3dfc86e1	0.123304136
213	0xbdc3d5d0	-0.09562266
214	0x3d98d8f2	0.07463254
215	0xbbc9057e	-0.006134688
216	0x3cd26b37	0.02568589
217	0xbb8ca430	-0.0042920336
218	0xbd90f498	-0.070779026
219	0x3e27c03f	0.1638193
220	0x3dbb0ed7	0.0913369
221	0xbe04c41e	-0.12965438
222	0x3dab13d9	0.08353395
223	0x3e0bf60f	0.13668083
224	0xbd95082d	-0.0727695
225	0xbd9ffcde	-0.078119025
226	0xbdd9aa3b	-0.10628172
227	0xbec96d9e	-0.39341444
228	0xbd06ba3e	-0.03289246
229	0xbd81f77b	-0.06346031
230	0xbdcfcf8d	-0.10147009
231	0x3de2f6c7	0.11082225
232	0x3e15e772	0.1463907
233	0x3d6b3f7a	0.057433583
234	0x3e57ddef	0.21080755
235	0x3ed82995	0.42219225
236	0xbe03560c	-0.12825793
237	0x3d948410	0.072517514
238	0xbdd2557d	-0.10270212
239	0xbdfc9e5d	-0.12334893
240	0x3c2b491a	0.0104544405
241	0xbe3676fe	-0.1781883
242	0xbe274112	-0.16333416
243	0x3d01cce3	0.031689536
244	0x3df525aa	0.119700745
245	0xbdd9c8eb	-0.10634025
246	0xbe7611c2	-0.24030212
247	0xbd3849fb	-0.04499243
248	0xbe16ad56	-0.1471456
249	0x3c6a60ce	0.014305307
250	0xbdf85e4d	-0.121273614
251	0xbe950bc4	-0.2911054
252	0x3e0ec0e0	0.13940763
253	0x3e801101	0.25012973
254	0x3e7b4ca6	0.24540958
255	0xbc73587e	-0.014852641

block1.1.conv.bias f4 [16]
0	0x3e189bbd	0.1490316
1	0xb905c274	-0.00012756308
2	0x3e16d23c	0.14728636
3	0xbe369d43	-0.17833428
4	0xbdefc389	-0.11707217
5	0x3d8c258a	0.068430975
6	0xbd20ae04	-0.039228454
7	0xbd00670e	-0.03134828
8	0xbd214c7b	-0.039379578
9	0x3e4ceb66	0.20011672
10	0x3a89ce98	0.001051384
11	0x3d3b48e7	0.045723822
12	0xbcb73bea	-0.022367436
13	0xbebbf4cf	-0.36710212
14	0xbe8fcae4	-0.2808448
15	0x3d9660e0	0.07342696

block1.1.BN.weight f4 [16]
0	0x3f8fb8c4	1.1228261
1	0x3f811341	1.0084001
2	0x3f8025b3	1.0011505
3	0x3f73dd15	0.9525922
4	0x3f852c7d	1.0404202
5	0x3f92d785	1.1472021
6	0x3f517659	0.8182121
7	0x3f542187	0.8286366
8	0x3f7fb36e	0.9988316
9	0x3f4571f1	0.77126986
10	0x3f97fc66	1.1873901
11	0x3f88640e	1.0655534
12	0x3f803800	1.001709
13	0x3f6753e0	0.9036236
14	0x3f83603c	1.0263743
15	0x3f9a7818	1.20679

block1.1.BN.bias f4 [16]
0	0xbe3fc03d	-0.18725677
1	0xbdbcc497	-0.09217184
2	0x3e09f550	0.13472486
3	0xbed3ddb2	-0.41380078
4	0xbe8de902	-0.27716833
5	0x3d4d63ea	0.050144114
6	0xbd8f2a0c	-0.06990442
7	0xbd46db8a	-0.048549213
8	0xbd243266	-0.040087126
9	0xbeafadb1	-0.34312204
10	0xbe59e84c	-0.2128002
11	0xbe797513	-0.24361067
12	0x3ced6b3b	0.028981796
13	0xbdfd1a3f	-0.12358522
14	0xbe774601	-0.24147798
15	0x3e50623a	0.2034997

block1.1.BN.running_mean f4 [16]
0	0xbf511a20	-0.8168049
1	0x3fa0549b	1.252582
2	0xbf1398ae	-0.57654846
3	0x3e53b91a	0.2067608
4	0xbfa5457b	-1.2911829
5	0xbf301b3b	-0.6879155
6	0xbf315345	-0.69267684
7	0xbe26e3e0	-0.16297865
8	0xbf72a632	-0.94784844
9	0xbf1ba6ba	-0.6080128
10	0xbf848c0c	-1.0355239
11	0x3f8bdea4	1.092732
12	0xbf8eed58	-1.1166182
13	0xbfde8113	-1.738314
14	0xbf314029	-0.69238526
15	0xbf6a576d	-0.9153965

block1.1.BN.running_var f4 [16]
0	0x3f80d04c	1.0063567
1	0x4025a814	2.5883837
2	0x3fe55a8f	1.7918261
3	0x3f9b97b7	1.2155675
4	0x3fb12134	1.3838258
5	0x3feb46ce	1.8380983
6	0x3fc7ad72	1.5599806
7	0x3f3e78de	0.7440318
8	0x3fea6efc	1.831512
9	0x3f26b2fb	0.6511685
10	0x3fb7309f	1.4311713
11	0x3f87f1b4	1.0620637
12	0x40685f3f	3.6308134
13	0x3f225988	0.63417864
14	0x3f86b2de	1.0523336
15	0x407b0c38	3.9226208

block1.2.conv.weight f4 [8, 16, 3, 3]
0	0xbe701e9d	-0.23449178
1	0xbe1b83e9	-0.15187038
2	0xbdcdd250	-0.100498796
3	0xbd86c57a	-0.065806344
4	0xbc6e8889	-0.01455892
5	0x3c6b4c25	0.014361416
6	0xbdfb4744	-0.12269452
7	0xbe596dc0	-0.21233273
8	0xbe2e7691	-0.17037417
9	0x3d871a9f	0.065968744
10	0xbd23f9ca	-0.04003314
11	0xbd9869c3	-0.074420474
12	0x3e3756ef	0.17904256
13	0x3da3f332	0.0800537
14	0x3cad9f51	0.021194132
15	0x3e585b16	0.21128497
16	0xbbc765f8	-0.0060851537
17	0xbc900d6e	-0.017584529
18	0xbe4c09fe	-0.19925687
19	0x3db74e74	0.089505106
20	0x3e3c3282	0.18378642
21	0xbe635509	-0.22200407
22	0x3da1941d	0.078895785
23	0x3e69708b	0.22796838
24	0xbd7c70dc	-0.06163107
25	0x3e6d0b32	0.23148802
26	0x3d83052a	0.06397469
27	0xbe0068c2	-0.12539962
28	0xbd9613b0	-0.07327974
29	0xbdcdab76	-0.10042469
30	0x3dc0c3a1	0.09412313
31	0xbca5781e	-0.020198878
32	0x3d8017b3	0.0625452
33	0x3c093b4f	0.008375957
34	0xbe2afce0	-0.16698027
35	0xbdf1ae7d	-0.11800859
36	0x3e97b7bc	0.29632366
37	0xbb5f0478	-0.0034029763
38	0x3bbfd9ee	0.0058548367
39	0x3dd23cce	0.10265504
40	0x3d7efbab	0.062251728
41	0x3b8abbb5	0.004233802
42	0x3d2592b4	0.04042311
43	0xbe3d4abd	-0.18485542
44	0xbe832eae	-0.2562155
45	0xbdd4daa5	-0.10393266
46	0x3e09c2eb	0.13453262
47	0x3d9e1bd8	0.077201545
48	0xbe905d54	-0.28196204
49	0xbcc0a388	-0.023515478
50	0x3caed54e	0.021341946
51	0xbe787fde	-0.24267527
52	0x3c8ecd23	0.017431801
53	0x3d0c3bd2	0.034236737
54	0xbe05dde9	-0.13072933
55	0x3d756a28	0.05991569
56	0x3ce1b3de	0.027551588
57	0xbe3c201e	-0.18371627
58	0xbe96e869	-0.2947419
59	0xbe333f34	-0.17504579
60	0xbd2b6187	-0.041841056
61	0xbd880fdb	-0.06643649
62	0xbdbb7c9a	-0.09154625
63	0x3e289aca	0.16465297
64	0xbe297577	-0.16548716
65	0xbe6c1b9c	-0.23057407
66	0x3e58afb3	0.21160774
67	0xbc9f5e6a	-0.0194542
68	0x3b0ffed9	0.002197197
69	0x3dcbdc0c	0.0995408
70	0x3e2a775a	0.16647092
71	0x3e165b8b	0.14683358
72	0xbe0e2622	-0.13881734
73	0xbd038613	-0.032110285
74	0x3e1689c4	0.14700991
75	0x3e25d525	0.1619459
76	0x3e86ccce	0.2632813
77	0x3ead7278	0.33876395
78	0xbe263dac	-0.16234463
79	0xbe454fee	-0.19268772
80	0x3c5e8697	0.013581893
81	0xbda0f9fe	-0.07860182
82	0x3c2155af	0.009847089
83	0x3d97fa8f	0.07420837
84	0xbe1e9dd9	-0.15489902
85	0x3cc0cdaf	0.023535578
86	0xbd8dfcd0	-0.06932986
87	0xbda2d7ac	-0.079512924
88	0x3e253b03	0.16135792
89	0xbecb2f4d	-0.39684525
90	0xbe056170	-0.1302545
91	0xbe34b4d3	-0.17647104
92	0xbe0dd915	-0.13852341
93	0x3d60abb9	0.054851267
94	0xbde5f3f3	-0.1122817
95	0xbdcd2ba3	-0.10018089
96	0x3bf6022b	0.0075075827
97	0xbd3ee6b6	-0.04660674
98	0x3e45b889	0.19308676
99	0x3ccee9dc	0.025257997
100	0xbe6c561a	-0.2307972
101	0xbe71ba19	-0.23606147
102	0x3e55d4b7	0.20881926
103	0xbdb93002	-0.0904236
104	0xbe79c3ad	-0.2439105
105	0xbd82bf66	-0.063841626
106	0xbe93b1cd	-0.2884659
107	0xbe4bb8ff	-0.19894789
108	0xbc3a9791	-0.011388675
109	0x3e3c753f	0.18404101
110	0x3e766467	0.24061738
111	0x3ccc01ef	0.024903266
112	0x3e99a614	0.3000952
113	0x3e4ff167	0.20306931
114	0xbe0a95dc	-0.1353373
115	0xbdad343a	-0.08457227
116	0xbe229b0e	-0.15879461
117	0x3c8daef1	0.017295333
118	0x3c7e643f	0.01552683
119	0x3d63a884	0.05558063
120	0x3e485e7e	0.19567296
121	0x3d9d8dd7	0.076930694
122	0x3d2fae2a	0.042890705
123	0xbdef31a3	-0.11679389
124	0xbd7098a0	-0.058739305
125	0xbd34256d	-0.043981005
126	0xbbc82426	-0.006107825
127	0x3df57b04	0.11986354
128	0x3e252228	0.16126311
129	0xbe84c979	-0.2593496
130	0xbe6280d9	-0.22119464
131	0x3e0f05b6	0.13967022
132	0xbeaa40a8	-0.33252454
133	0xbf0612e8	-0.523726
134	0xbee02dfa	-0.43785077
135	0xbe00c62f	-0.12575601
136	0x3b031d52	0.002000649
137	0x3daa350c	0.08310899
138	0xbe920ad5	-0.2852389
139	0xbdb72c91	-0.08944047
140	0x3e5a1fd4	0.21301204
141	0xbebe5f54	-0.37182105
142	0xbe9a8b4e	-0.30184406
143	0xbe37abf0	-0.17936683
144	0xbdbb40c6	-0.09143214
145	0xbe937f95	-0.28808275
146	0xbe071feb	-0.1319577
147	0x3cfe40ce	0.03103676
148	0xbdb3e49c	-0.08783838
149	0xbe361df6	-0.17784867
150	0x3d43f1d4	0.047838047
151	0xbe0a0b13	-0.13480787
152	0x3e087549	0.1332599
153	0xbe005dc5	-0.1253577
154	0xbd93e5ff	-0.07221603
155	0x3d9a48c6	0.07533412
156	0xbed8c871	-0.42340425
157	0xbe1d3093	-0.15350561
158	0xbe41184e	-0.18856928
159	0xbea836c4	-0.32854283
160	0xbe327bf0	-0.17430091
161	0xbdcab732	-0.09898223
162	0x3e09e457	0.13466011
163	0x3e306a97	0.17228161
164	0x3e047ee0	0.12939024
165	0x3c9daa9c	0.019246392
166	0x3cd2caae	0.02573141
167	0xbe3191f9	-0.1734084
168	0xbdcf3289	-0.10117061
169	0xbda9c1af	-0.08288895
170	0xbd8256e4	-0.06364229
171	0xbdbb774f	-0.09153616
172	0xbe22a5e1	-0.1588359
173	0xbe14c9c3	-0.14530091
174	0x3e011f3b	0.1260957
175	0x3e22eabc	0.15909857
176	0x3d632548	0.055455476
177	0x3db7cb6d	0.08974347
178	0x3e51c5b4	0.20485574
179	0x3e0a7108	0.1351968
180	0xbdac5eec	-0.084165424
181	0x3de609ed	0.11232362
182	0x3e8b0602	0.2715302
183	0xbe8b4035	-0.27197424
184	0xbe572dfc	-0.21013635
185	0xbd84f569	-0.06492121
186	0xbe6ee9fa	-0.23331442
187	0xbdffb066	-0.12484817
188	0x3e0f3289	0.13984121
189	0xbcd77b0b	-0.026303789
190	0x3e9bdbd6	0.3044116
191	0x3ed86ce2	0.4227057
192	0xbe0babf1	-0.13639809
193	0x3e417b61	0.18894722
194	0x3e304e97	0.1721748
195	0xbcd837fd	-0.026393885
196	0x3aabe72b	0.0013115158
197	0xbe3ab8d5	-0.1823457
198	0xbe2fd657	-0.17171608
199	0x3d6a42b8	0.057192534
200	0xbd92af91	-0.07162393
201	0x3dc96b06	0.09834866
202	0xbe3927d5	-0.18081601
203	0xbe3736d3	-0.17892008
204	0x3d88957c	0.06669137
205	0xbdcacaa7	-0.09901934
206	0xbeae69ac	-0.34064996
207	0xbe1b7860	-0.15182638
208	0xbdced1e5	-0.10098628
209	0xbdb03c35	-0.086052336
210	0x3d17faa1	0.037104253
211	0xbd4f1309	-0.050555263
212	0xbc59d733	-0.013295936
213	0xbe4e583a	-0.20150843
214	0xbe144170	-0.14478087
215	0xbdfd4bd4	-0.12367979
216	0xbd11688d	-0.035500098
217	0xbe783c32	-0.24241713
218	0x3de61359	0.11234159
219	0x3e452630	0.19252849
220	0x3d869828	0.0657199
221	0x3e3839bc	0.17990774
222	0x3e018cbc	0.12651342
223	0x3db68015	0.089111485
224	0xbc5122e4	-0.012764666
225	0x3ce9834e	0.028504994
226	0xbbae442d	-0.005318186
227	0x3d5190b4	0.05116339
228	0x3d40a370	0.047030866
229	0xbde76743	-0.112989925
230	0xbe12bd5c	-0.14330047
231	0xbe062c87	-0.13102923
232	0xbe2fb67b	-0.17159455
233	0xbe963505	-0.29337326
234	0xbe1cf386	-0.15327272
235	0xbedd4bad	-0.432218
236	0xbe49c0a8	-0.19702399
237	0x3d882204	0.06647113
238	0xbe59ece3	-0.21281771
239	0x3e3bd354	0.18342334
240	0x3e3b5a73	0.18296222
241	0xbd196e63	-0.03745879
242	0x3e0ebcf8	0.13939273
243	0xbd6af452	-0.05736191
244	0xbea42fd8	-0.32067752
245	0xbea25462	-0.31705004
246	0x3e1eadf9	0.15496053
247	0xbbd4ccb0	-0.006494127
248	0xbdc8dea1	-0.09808088
249	0xbeb5b91b	-0.35492787
250	0xbe74bd8f	-0.23900436
251	0xbdd3cdbc	-0.10341975
252	0xbc44a155	-0.012001355
253	0x3e2a3072	0.16620043
254	0xbe2c4de7	-0.16826592
255	0xbd487540	-0.048939943

block1.2.conv.bias f4 [8]
0	0x3d192a62	0.037393935
1	0x3d8673ed	0.0656508
2	0x3d8bbecc	0.06823501
3	0x3e0914c3	0.13386826
4	0x3e0c53f0	0.13703895
5	0x3c4617ac	0.012090605
6	0xb976c238	-0.0002353274
7	0x3d686e62	0.056745894

block1.2.BN.weight f4 [8]
0	0x3f92e03a	1.1474679
1	0x3f88feb7	1.0702733
2	0x3f7f5168	0.9973359
3	0x3f7b6238	0.98196745
4	0x3f8a8ac5	1.0823599
5	0x3f82a3d5	1.0206248
6	0x3f6b68da	0.91956866
7	0x3f85952c	1.0436149

block1.2.BN.bias f4 [8]
0	0x3d3aab13	0.045573305
1	0xbe27356a	-0.1632897
2	0xbe207d87	-0.15672885
3	0xbe77cd83	-0.2419949
4	0xbe400a8a	-0.1875402
5	0xbe9afb20	-0.30269718
6	0xbccafe1d	-0.024779374
7	0xbe459e34	-0.19298631

block1.2.BN.running_mean f4 [8]
0	0xbfa92fa5	-1.3217665
1	0xbf8b5d07	-1.0887765
2	0xbf8c711d	-1.097202
3	0xbf60cbdb	-0.8781106
4	0x3f22b0b4	0.6355088
5	0x3d99571c	0.07487318
6	0xbd906a43	-0.07051518
7	0x3f75729f	0.9587802

block1.2.BN.running_var f4 [8]
0	0x402aebb5	2.6706364
1	0x40088c97	2.133581
2	0x40692b8c	3.643283
3	0x3fc718d0	1.5554447
4	0x3fa544a7	1.2911576
5	0x3fc3068a	1.523637
6	0x3ffbdfb9	1.967765
7	0x3f9447f0	1.1584454

block1.3.conv.weight f4 [4, 8, 3, 3]
0	0xbd5b840f	-0.053592738
1	0xbe268041	-0.16259862
2	0xbe7c8fa3	-0.24664168
3	0x3e790137	0.2431687
4	0x3e11c29d	0.14234395
5	0x3dac173d	0.0840287
6	0x3e523a29	0.20529999
7	0xbd683b2e	-0.056697063
8	0xbcd3f3df	-0.025873123
9	0x3db3db34	0.08782044
10	0x3d992216	0.074772045
11	0x3e76d9f6	0.24106583
12	0x3e867b47	0.26265928
13	0xbd3096c8	-0.043112546
14	0x3e7c37af	0.24630617
15	0x3bd0cbb6	0.0063719405
16	0xbe8300fa	-0.25586683
17	0x3cdba0f6	0.02681015
18	0x3e39a8a9	0.18130745
19	0xbd13b1e3	-0.036058318
20	0xbd929cdf	-0.07158827
21	0xbab1ce9a	-0.00135656
22	0xbe307fed	-0.172363
23	0xbcb0f3bd	-0.021600598
24	0xbe16eccf	-0.14738773
25	0xbe370b0f	-0.17875312
26	0xbdf933be	-0.12168072
27	0x3d9944ba	0.07483812
28	0xbc726550	-0.014794663
29	0x3d0a1f14	0.033721045
30	0x3d72bc6b	0.05926172
31	0x3d6b2660	0.057409644
32	0xbe433d9f	-0.19066475
33	0x3d50f0b8	0.051010817
34	0xbe3c22f6	-0.18372712
35	0xbf046c70	-0.5172796
36	0x3e449bfc	0.19200128
37	0x3e9b634b	0.30349192
38	0x3ea840c6	0.32861918
39	0x3c971ea7	0.018447233
40	0x3e33383b	0.17501919
41	0xbde2a6b6	-0.11066954
42	0xbe88b47e	-0.26700205
43	0x3dbc2c76	0.09188168
44	0xbe59941f	-0.2124791
45	0x3dec09b0	0.11525285
46	0xbdf0efaa	-0.11764462
47	0xbe09d957	-0.13461815
48	0xbe4e00e8	-0.20117533
49	0xbe2e3536	-0.17012486
50	0xbe5fe3fb	-0.21864311
51	0xbd5c43b1	-0.053775493
52	0x3e095710	0.13412118
53	0x3d821aa6	0.06352739
54	0xbd9f63ec	-0.077827305
55	0x3d055ea2	0.032560952
56	0xbd448c91	-0.047985617
57	0x3de895ef	0.113567226
58	0x3c958362	0.018251125
59	0xbe766d2c	-0.24065083
60	0x3d9fecca	0.07808836
61	0xbcf4097e	-0.029789682
62	0xbe4a49cc	-0.19754714
63	0x3d199d37	0.037503447
64	0x3ea89dd1	0.32932904
65	0x3def7674	0.11692515
66	0x3e32dc80	0.17466927
67	0x3e55d910	0.20883584
68	0xbe4b2a12	-0.19840267
69	0x3d5746de	0.05255782
70	0x3e331fa7	0.17492543
71	0xbe643dc7	-0.22289191
72	0x3e8bb104	0.2728349
73	0x3e77876a	0.2417275
74	0xbcd827ed	-0.026386226
75	0x3e0d1532	0.13777617
76	0xbd9363af	-0.071967475
77	0x3a40cae3	0.0007354451
78	0x3d9d6948	0.076860964
79	0xbea3d388	-0.31997323
80	0xbe8fbb45	-0.28072563
81	0x3d9b369e	0.07578777
82	0xbc1321cc	-0.008980226
83	0xbe8e1437	-0.27749798
84	0xbe2ee215	-0.17078431
85	0x3e28b0dd	0.16473718
86	0x3e30e557	0.17274986
87	0x3e3f63e7	0.18690453
88	0x3df8ffcc	0.121581644
89	0x3eaefd4d	0.34177628
90	0x3d1a85e3	0.03772534
91	0x3e64c1b4	0.22339517
92	0xbcb73fa5	-0.022369215
93	0x3e624cf0	0.22099662
94	0xbc3ef2d3	-0.0116545735
95	0xbd7eb438	-0.06218359
96	0xbe073e87	-0.13207446
97	0xbdc5565e	-0.09635614
98	0xbe58abe7	-0.21159326
99	0xbe014d06	-0.12627038
100	0xbd6d5277	-0.057939973
101	0xbe85df24	-0.26146805
102	0xbddcc16f	-0.10779082
103	0x3de3112b	0.11087259
104	0xbd87c0c7	-0.06628566
105	0xbe6c810d	-0.23096104
106	0x3db356e1	0.08756805
107	0x3e76d7d0	0.24105763
108	0x3c2bb146	0.010479277
109	0xbddb9c7c	-0.107232064
110	0xbe61be6c	-0.22045296
111	0x3e3d4b3b	0.1848573
112	0x3e24f25a	0.16108075
113	0xbc4eef2a	-0.012630263
114	0xbe8f7a96	-0.28023213
115	0xbd056182	-0.032563694
116	0xbdc1a696	-0.09455602
117	0xbdb592f6	-0.08865921
118	0x3d69197c	0.05690907
119	0x3e0bf805	0.1366883
120	0xbe2ebf19	-0.17065085
121	0x3d5db7d1	0.05413038
122	0x3ca92660	0.020648181
123	0xbe427b84	-0.1899243
124	0x3d02aa1b	0.031900506
125	0x3bacb392	0.00527043
126	0x3e67cccc	0.22636718
127	0x3d1cd3b8	0.03828785
128	0xbcdcf404	-0.026971824
129	0x3e8d4ecd	0.27599183
130	0xbb814648	-0.0039451458
131	0x3d1cd5bf	0.03828978
132	0x3e9cc6fd	0.30620566
133	0x3e7c18fa	0.24618903
134	0x3e40181a	0.18759194
135	0x3e8b5011	0.27209523
136	0x3e1bee49	0.15227617
137	0x3d65050b	0.055913012
138	0x3c9f4065	0.019439885
139	0x3d96a855	0.073563255
140	0xbc60a386	-0.013710862
141	0xbe17e315	-0.14832719
142	0xbe1e67c3	-0.1546927
143	0xbe579eea	-0.21056715
144	0xbcdf7444	-0.02727712
145	0xbe4ce427	-0.20008908
146	0x3c8eda4f	0.017438082
147	0xbd8889da	-0.06666918
148	0xbe5a3d5b	-0.21312468
149	0xbea6371f	-0.3246393
150	0xbbe9a522	-0.007130281
151	0x3e4225d3	0.18959741
152	0xbd29b772	-0.041434713
153	0xbeb8e5d0	-0.36112833
154	0xbe962118	-0.29322124
155	0x3ce2b5e0	0.027674615
156	0xbe6dbf40	-0.23217487
157	0xba9bcfc2	-0.0011887478
158	0xbdb56ff5	-0.08859245
159	0x3e1a8abc	0.15091985
160	0x3e2c22ed	0.16810198
161	0xbd5853fd	-0.052814472
162	0xbe1d0aab	-0.15336101
163	0xbda80879	-0.08204741
164	0xbd487c21	-0.048946504
165	0xbdc59d5a	-0.09649153
166	0x3db32744	0.08747724
167	0x3b66d45a	0.0035221786
168	0x3dc86716	0.09785287
169	0x3e7b06ef	0.24514364
170	0x3e9c447e	0.30521005
171	0x3e470a5a	0.19437543
172	0x3e7b8f5f	0.2456641
173	0x3e0c3c71	0.13694932
174	0x3e268353	0.16261034
175	0xbc8363e4	-0.016038842
176	0xbe58ab52	-0.21159104
177	0xbd3ead91	-0.046552245
178	0x3d4cc375	0.04999109
179	0xbe8b730a	-0.27236205
180	0xbe27a0d6	-0.16369948
181	0x3db0be84	0.08630088
182	0xbdd1a857	-0.102371864
183	0xbda046c1	-0.07825995
184	0xbd120e7c	-0.035658345
185	0x3b6ca5ea	0.0036109635
186	0xbe1b7668	-0.15181887
187	0xbd2656f9	-0.040610287
188	0x3e826ea8	0.2547505
189	0x3d396348	0.045260698
190	0x3ef607c5	0.48052803
191	0x3ec1a714	0.37822783
192	0xbddeb4b3	-0.108743094
193	0x3ddce765	0.107863225
194	0xbd29ccda	-0.041455127
195	0x3e0eee8b	0.13958184
196	0xbdfac1b5	-0.12243978
197	0xbe8610f1	-0.261848
198	0x3da68148	0.08130127
199	0xbc5efa3e	-0.013609467
200	0xbe132d72	-0.14372805
201	0xbdcc07af	-0.09962403
202	0x3cad3a4a	0.021145958
203	0x3dc7efbd	0.09762523
204	0x3d403c16	0.046932302
205	0xbe64e1b1	-0.2235172
206	0x3d3eda9a	0.046595193
207	0xbec6c2ba	-0.3882044
208	0x3e7d8e88	0.24761403
209	0x3ea27976	0.31733292
210	0xbcc350ef	-0.023842303
211	0xbd94e29f	-0.07269787
212	0xbc6bfaf6	-0.0144030955
213	0xbd63e977	-0.05564257
214	0xbdbf7698	-0.09348792
215	0xbe6efd76	-0.23338875
216	0xbeb3ac9f	-0.35092637
217	0xbeb1d768	-0.34734654
218	0x3e857369	0.26064613
219	0xbe2768c2	-0.16348556
220	0xbc16176b	-0.009160857
221	0x3e0a8d21	0.13530399
222	0xbd29367c	-0.041311726
223	0x3dd21838	0.102585256
224	0x3e36b1cd	0.17841263
225	0xbd43e964	-0.04783
226	0xbe941b88	-0.28927255
227	0xbe910e88	-0.283314
228	0x3e3799e5	0.179298
229	0xbd64e1a6	-0.055879258
230	0xbcab482d	-0.02090844
231	0x3cb5a932	0.022175405
232	0xbd8729fd	-0.065998055
233	0x3d4ed40f	0.050495204
234	0x3e5edf0d	0.21764775
235	0x3e888d19	0.2667015
236	0x3e95fb13	0.29293117
237	0x3c50e9e2	0.0127510745
238	0x3dfcffb3	0.12353458
239	0x3e168e33	0.14702682
240	0xbdf206c9	-0.118177004
241	0x3d057afd	0.032587994
242	0xbdbb2c64	-0.09139326
243	0x3e84d13b	0.2594088
244	0x3e998b67	0.29989168
245	0x3c8435bb	0.016138902
246	0x3cb16cb8	0.021658286
247	0xbb21277c	-0.0024590185
248	0x3d6c9717	0.057761278
249	0xbd17c244	-0.0370505
250	0x3d7465a2	0.059667237
251	0x3e97264a	0.295214
252	0xbe77bfad	-0.24194212
253	0xbec9e34f	-0.39431235
254	0xbea1858f	-0.3154721
255	0x3d8e8b88	0.06960207

block1.3.conv.bias f4 [4]
0	0x3ba569e7	0.005048025
1	0x3e4a9e6d	0.19786997
2	0x3d618b13	0.055064272
3	0xbdcf0684	-0.10108665

block1.3.BN.weight f4 [4]
0	0x3f667482	0.90021527
1	0x3f83ffe1	1.0312463
2	0x3f8eecd0	1.116602
3	0x3f7dc141	0.9912301

block1.3.BN.bias f4 [4]
0	0xbe9ff2e3	-0.31239995
1	0xbc57b481	-0.013165594
2	0xbd7a039d	-0.061038602
3	0x3dc9354a	0.09824617

block1.3.BN.running_mean f4 [4]
0	0x3dbef040	0.09323168
1	0x3f0e2f55	0.5554097
2	0xbece39bf	-0.40278432
3	0x3e3cc216	0.18433413

block1.3.BN.running_var f4 [4]
0	0x3f7d8750	0.99034595
1	0x3f509165	0.81471854
2	0x3f40ca38	0.7530856
3	0x3fbb72f8	1.4644461

block2.0.conv.weight f4 [8, 4, 3, 3]
0	0xbe87e126	-0.26538962
1	0xbf14fbd6	-0.5819677
2	0xbec7fc52	-0.39059693
3	0xb639dfa6	-2.7697329e-06
4	0xbe1dc2c6	-0.15406331
5	0xbe446e25	-0.19182642
6	0x3e31b7be	0.17355248
7	0x3e273900	0.16330338
8	0xbe10e191	-0.14148547
9	0x3d95f7d8	0.07322663
10	0x3c563059	0.01307305
11	0xbd3156ae	-0.043295555
12	0x3cedbe3c	0.029021375
13	0x3ec0d9e0	0.37666225
14	0x3ebc4d06	0.36777514
15	0xbc463bac	-0.012099188
16	0x3d205b6b	0.039149683
17	0x3d010feb	0.03150932
18	0xbe4f3d46	-0.20238218
19	0xbe06497d	-0.13113971
20	0xbe0656a9	-0.13118996
21	0xbcb64c53	-0.022253191
22	0xbce23f37	-0.027618034
23	0xbe8ed5db	-0.27897534
24	0xbd4ad454	-0.049518898
25	0x3e3c6aeb	0.18400161
26	0x3e018bac	0.12650937
27	0x3dba8358	0.09107083
28	0xbe206d84	-0.15666777
29	0xbe16427f	-0.14673804
30	0xbecd686d	-0.40118733
31	0xbe985d40	-0.29758644
32	0xbca868e0	-0.02055782
33	0xbe17844c	-0.14796561
34	0xbde1a62c	-0.11018023
35	0xbdbac82a	-0.091202095
36	0x3d99fc6d	0.075188495
37	0x3f14211c	0.5786302
38	0x3eee2957	0.46515915
39	0x3e2af24a	0.16693988
40	0x3dd27b03	0.10277369
41	0x3d83c51f	0.06434082
42	0x3dddb669	0.108258076
43	0x3c171f84	0.0092238225
44	0xbd681643	-0.056661855
45	0x3ce513de	0.027963575
46	0x3cce0120	0.02514702
47	0xbdb83587	-0.089945845
48	0xbde2a8de	-0.11067365
49	0x3e49eb1c	0.19718593
50	0x3e673fa5	0.22582872
51	0xbdea749e	-0.11448024
52	0xbaa2eb39	-0.0012429721
53	0xbe5c8ea5	-0.2153879
54	0x3e0d5943	0.13803582
55	0xbea88acb	-0.3291839
56	0xbe7c8a25	-0.24662073
57	0x3e67dcac	0.22642773
58	0x3ce1187c	0.027477495
59	0xbe631388	-0.2217542
60	0x3e8bf4e4	0.27335274
61	0xbe134779	-0.14382733
62	0xbe3ee86c	-0.1864335
63	0xbde1a534	-0.11017838
64	0xbd9d2a9e	-0.07674144
65	0xbe1f1266	-0.15534362
66	0xbd3e8a22	-0.046518452
67	0x3d95500a	0.07290657
68	0xbd1ec9c2	-0.03876663
69	0x3e28df0b	0.16491334
70	0x3d16a67e	0.036779873
71	0xbe305bed	-0.17222567
72	0xbdd3175c	-0.1030719
73	0xbe331b9a	-0.17490998
74	0xbd5113c0	-0.051044226
75	0x3e08181f	0.13290451
76	0xbd8b3806	-0.06797795
77	0xbd8873f3	-0.066627406
78	0x3daf8cb0	0.08571756
79	0x3ca40047	0.020019663
80	0xbcf1e2f9	-0.029527174
81	0x3ea24b74	0.3169819
82	0x3e36ac6f	0.17839216
83	0x3e0cee49	0.13762774
84	0x3dc907da	0.09815951
85	0xbda16419	-0.0788042
86	0x3b6613f3	0.0035107106
87	0x3e18c581	0.14919092
88	0xbe949d6f	-0.29026362
89	0xbeac6a84	-0.33675015
90	0xbea22829	-0.31671265
91	0x3df6ca20	0.12050271
92	0x3e45730f	0.19282173
93	0xbeaafb8e	-0.33395046
94	0xbd7338db	-0.059380393
95	0x3e5e7512	0.21724346
96	0xbe8e6ced	-0.2781748
97	0x3e04d2db	0.1297106
98	0x3e5000ce	0.20312807
99	0x3e262bdd	0.1622767
100	0xbc5b8ba2	-0.01339999
101	0x3e9d0907	0.3067095
102	0xbe3f0552	-0.18654373
103	0xbe26a7a8	-0.16274893
104	0xbe10ca78	-0.14139736
105	0x3da3075f	0.0796039
106	0x3de505e3	0.111827634
107	0xbd0871e4	-0.03331174
108	0xbe5606e9	-0.20901074
109	0xbe8571d2	-0.260634
110	0xbe454c5b	-0.19267409
111	0x3eb7ca15	0.35896364
112	0x3e4ab970	0.19797301
113	0x3e8c380b	0.27386507
114	0x3d97d98c	0.07414541
115	0xbc80536d	-0.01566478
116	0x3d9496d9	0.072553344
117	0xbdc09fc1	-0.09405471
118	0xbe220071	-0.15820481
119	0x3ccac5a9	0.024752455
120	0xbdc6c4ae	-0.097054824
121	0xbea178bc	-0.31537426
122	0x3d5ec216	0.054384314
123	0x3de91483	0.113808654
124	0xbe8b46f9	-0.27202585
125	0x3d6ff8eb	0.058586996
126	0xbdc16730	-0.094435096
127	0x3d7c3709	0.061575923
128	0x3e53e752	0.2069371
129	0xbe0eb353	-0.13935594
130	0x3dadc3f0	0.08484638
131	0xbd7edf46	-0.06222465
132	0xbe5372e6	-0.20649299
133	0x3d1a85f2	0.037725396
134	0x3e8463f1	0.258575
135	0xbe6df46a	-0.23237768
136	0xbed5fba5	-0.41793552
137	0x3cac62d3	0.021043217
138	0x3e4e838f	0.20167373
139	0xbdae3ab4	-0.085072905
140	0xbd837fd3	-0.06420865
141	0x3e08b57f	0.13350485
142	0xbe3db223	-0.18524985
143	0x3c8fde5c	0.017562084
144	0x3cb9ada6	0.02266581
145	0x3bad9845	0.005297693
146	0xbdd9eb0e	-0.10640536
147	0x3dda4db3	0.10659351
148	0x3e6e56bf	0.23275279
149	0x3dd20b00	0.10256004
150	0xbe2e2b41	-0.17008688
151	0xbdb1f981	-0.08690167
152	0xbe952a6f	-0.29133937
153	0x3e76d75c	0.2410559
154	0x3d954d2e	0.072901115
155	0x3e95c156	0.29249066
156	0x3e6c20d8	0.23059404
157	0x3e6c3cd0	0.23070073
158	0x3eb745de	0.35795492
159	0x3e070c3a	0.13188258
160	0x3cbd1d0b	0.023085138
161	0x3c2313a0	0.009953409
162	0x3db3e175	0.08783237
163	0xbe34433a	-0.1760377
164	0xbe503879	-0.20334043
165	0xbe068075	-0.1313494
166	0xbc88fb2b	-0.016721329
167	0xbe868da6	-0.26279944
168	0xbe99bacc	-0.30025327
169	0xbd93de16	-0.07220094
170	0xbcdde62a	-0.02708729
171	0x3e51ac1f	0.20475815
172	0x3e927fef	0.2861323
173	0xbdb34d3c	-0.08754966
174	0x3eb34e98	0.350209
175	0x3e046916	0.12930712
176	0xba1cc854	-0.0005980779
177	0x3cfb9255	0.030709425
178	0x3e855646	0.26042384
179	0x3d646c93	0.055767607
180	0xbe005a58	-0.12534463
181	0x3dd50354	0.104010254
182	0x3d5f0a1d	0.054453004
183	0xbde6e96f	-0.11274993
184	0xbe623779	-0.22091474
185	0xbd6089f8	-0.054819077
186	0xbcddc793	-0.027072703
187	0x3d3ef031	0.046615783
188	0xbd982923	-0.07429721
189	0x3c8af1f4	0.016961075
190	0xbe8f5067	-0.2799103
191	0xbeb0b39a	-0.34512025
192	0x3c99af3b	0.018760314
193	0xbded504e	-0.115875825
194	0xbd6a7b35	-0.057246406
195	0xbcef5e99	-0.029219912
196	0x3ea957cc	0.33074796
197	0x3e3c6145	0.1839648
198	0x3e27b856	0.16378912
199	0x3e7dc4b8	0.24782073
200	0xbd6de845	-0.058082838
201	0x3e307521	0.17232181
202	0x3dc50091	0.09619249
203	0xbe054d47	-0.1301776
204	0x3e9d1967	0.30683443
205	0x3c8b9ac0	0.017041564
206	0xbecc1f1f	-0.39867494
207	0x3d840971	0.06447113
208	0x3e2d608a	0.16931358
209	0xbd2725e0	-0.040807605
210	0x3d917066	0.071015164
211	0x3e1df8b7	0.15426908
212	0xbcf4fa62	-0.029904548
213	0x3e7b5867	0.24545442
214	0x3ec90e26	0.39268607
215	0x3d562321	0.052279595
216	0x3e9ce4a1	0.3064318
217	0x3be963b2	0.0071224803
218	0xbe8fbd9a	-0.28074342
219	0xbe3068c7	-0.1722747
220	0x3cc37b23	0.023862427
221	0xbe8b5b51	-0.27218106
222	0xbe3278b8	-0.17428863
223	0x3df2de12	0.11858763
224	0xbe856184	-0.2605096
225	0xbe0241d7	-0.12720428
226	0x3eaadfd6	0.33373898
227	0x3dce1bc5	0.1006389
228	0xbea96939	-0.3308809
229	0x3e4ed9b5	0.20200236
230	0xbd780700	-0.06055355
231	0xbbd0395f	-0.0063544954
232	0x3d82b32a	0.06381829
233	0xbe48cd01	-0.19609453
234	0x3e176160	0.1478324
235	0xbca3eab9	-0.020009385
236	0x3e60737b	0.21919052
237	0xbea53ae7	-0.322715
238	0xbd8452a5	-0.06461076
239	0xbe67c91f	-0.22635315
240	0xbea44ebf	-0.32091329
241	0x3dbe661e	0.09296821
242	0x3d31e803	0.043434154
243	0x3e7d0fda	0.24713078
244	0x3eb03269	0.3441346
245	0xbddd87c7	-0.10816913
246	0xbc93f26f	-0.018059937
247	0x3e0325fd	0.1280746
248	0xbe0b71ee	-0.1361768
249	0x3d7b8514	0.06140621
250	0xbe8072c2	-0.25087553
251	0xbd024dc2	-0.031812437
252	0xbeabebfb	-0.33578476
253	0xbe1eb38d	-0.1549818
254	0xbe9d06ba	-0.30669194
255	0xbd919694	-0.071087986

block2.0.conv.bias f4 [8]
0	0xbe4cb801	-0.19992067
1	0xbe5caa9b	-0.21549456
2	0x3e363124	0.17792183
3	0xbdf95b7f	-0.121756546
4	0x3d16d527	0.03682437
5	0x3d192f66	0.03739872
6	0x3d7beecb	0.061507028
7	0xbe415e5b	-0.1888365

block2.0.BN.weight f4 [8]
0	0x3f69b2a3	0.91288203
1	0x3f7b9980	0.982811
2	0x3f94dce7	1.1629914
3	0x3f87ec4b	1.0618986
4	0x3f64ba59	0.89346844
5	0x3f7bdc02	0.9838258
6	0x3f90adb8	1.1303015
7	0x3f85de70	1.0458508

block2.0.BN.bias f4 [8]
0	0xbbccd2c4	-0.006250711
1	0xbe49d5cb	-0.19710462
2	0xbdbf4e21	-0.09341074
3	0xbd837fa0	-0.06420827
4	0xbe269b0b	-0.16270082
5	0xbddea2b7	-0.10870879
6	0xbce150e3	-0.02750439
7	0xbd8c00f8	-0.06836122

block2.0.BN.running_mean f4 [8]
0	0xbf6e0a5d	-0.92984563
1	0xbe88c158	-0.2671001
2	0x3e403b39	0.18772592
3	0xbf0758ce	-0.5286988
4	0x3f38d310	0.72197056
5	0x3efa73b8	0.4891641
6	0xbe11c30c	-0.1423456
7	0xbe091138	-0.13385475

block2.0.BN.running_var f4 [8]
0	0x3f8f0252	1.1172583
1	0x3f4d1928	0.8011651
2	0x3f121d1b	0.5707566
3	0x3eedb2ac	0.46425378
4	0x3fc8374e	1.5641878
5	0x3f82c515	1.0216395
6	0x3ed8a176	0.42310685
7	0x3f3e5b84	0.7435839

block2.1.conv.weight f4 [16, 8, 3, 3]
0	0xbd983abf	-0.0743308
1	0xbdf1c45b	-0.1180503
2	0xbe162434	-0.14662248
3	0x3ddae52d	0.10688243
4	0xbd8bcea9	-0.06826527
5	0xbdd24307	-0.10266691
6	0xbd31210c	-0.043244407
7	0xbe729fa0	-0.23693705
8	0xbed0770f	-0.40715834
9	0xbdd0ed8c	-0.102015585
10	0xbea602eb	-0.324241
11	0xbb5660c2	-0.003271148
12	0xbe4842cd	-0.19556732
13	0xbea75637	-0.32682964
14	0xbcfcf264	-0.0308773
15	0xbdcd8e05	-0.10036854
16	0xbdabbb60	-0.08385348
17	0x3d2009d6	0.03907188
18	0xbc7060a7	-0.014671481
19	0xbe1857e0	-0.14877272
20	0xbe0b2ff6	-0.13592514
21	0xbd99a06d	-0.07501302
22	0xbd626d18	-0.05527982
23	0xbda612fc	-0.0810909
24	0xbecbf088	-0.39831948
25	0xbed2861b	-0.4111794
26	0xbeb2556f	-0.34830806
27	0x3dc9146a	0.09818347
28	0x3e84e1f9	0.25953653
29	0x3df4c710	0.11952031
30	0x3d661e92	0.056181498
31	0x3e79fac3	0.24412064
32	0x3daa6d96	0.08321683
33	0xbeadaf19	-0.3392265
34	0xbdec94fb	-0.11551853
35	0xbd829d49	-0.06377656
36	0x3e311624	0.17293602
37	0x3de6b05c	0.11264107
38	0x3e2dc769	0.169706
39	0x3e94e703	0.29082498
40	0x3d9c8095	0.076417126
41	0xbd283889	-0.04106954
42	0x3b543a13	0.0032383248
43	0xbe10e4c6	-0.1414977
44	0xbb89644b	-0.004192864
45	0x3e143c3f	0.14476107
46	0xbd73100c	-0.059341475
47	0xbd4fc67f	-0.05072641
48	0x3cda0e5d	0.026618177
49	0xbd6a5e28	-0.0572187
50	0xbe961e24	-0.2931987
51	0xbdb844b8	-0.08997482
52	0x3e0c470b	0.13698976
53	0x3dfeeaa1	0.12447096
54	0xbd45a3a7	-0.048251774
55	0xbd6bc7bf	-0.05756354
56	0xbe8fb292	-0.28065926
57	0x3def1423	0.11673763
58	0xbd995e5b	-0.074887
59	0xbe8fd9ab	-0.28095755
60	0x3e0cbd22	0.13744023
61	0xbcef0431	-0.029176803
62	0xbe824bf0	-0.2544856
63	0xbef71621	-0.4825907
64	0xbe996e45	-0.2996694
65	0xbe1b53e0	-0.15168715
66	0xbe5edfe9	-0.21765102
67	0x3d401416	0.046894155
68	0x3d8fb6ee	0.07017313
69	0xbd33c5a4	-0.043889657
70	0xbe0f9908	-0.1402322
71	0xbde332e5	-0.11093692
72	0x3d3b44ed	0.04572003
73	0x3d395f04	0.04525663
74	0x3e198d73	0.14995365
75	0xbda4a536	-0.08039324
76	0x3e53c542	0.20680717
77	0x3d82a5ce	0.06379281
78	0xbe2387c1	-0.15969755
79	0xbc090fd6	-0.008365592
80	0xbe798d44	-0.24370295
81	0x3e630413	0.22169523
82	0x3ed362ba	0.4128626
83	0x3e80397d	0.2504386
84	0x3bf64d5a	0.0075165452
85	0x3c85c330	0.016328424
86	0x3d87d01d	0.06631491
87	0xbe921042	-0.2852803
88	0xbe98115c	-0.29700744
89	0xbe971d96	-0.2951476
90	0x3db0f553	0.08640542
91	0x3d3be41b	0.045871835
92	0xbcb682b1	-0.022279115
93	0xbe19f648	-0.15035355
94	0xbdf6800e	-0.12036143
95	0xbea00a12	-0.31257683
96	0xbe691380	-0.22761345
97	0xbe3ec0ab	-0.18628184
98	0x3bf7fcaf	0.007567964
99	0xbdf373af	-0.11887299
100	0xbdca20fc	-0.098695725
101	0xbe7078ca	-0.23483577
102	0x3e448684	0.19191939
103	0x3e33c502	0.17555621
104	0x3da6867b	0.08131119
105	0xbd9beac3	-0.076131366
106	0x3dcf2501	0.1011448
107	0xbdb3e054	-0.087830216
108	0x3d8310bb	0.063996755
109	0x3a78b198	0.0009486913
110	0xbd33ef23	-0.04392923
111	0x3e6c503b	0.2307748
112	0x3de9d6f0	0.11417949
113	0xbd519754	-0.05116971
114	0xbc507126	-0.012722289
115	0x3c311bd4	0.010809857
116	0xbc45a838	-0.012064032
117	0x3e7f37dd	0.24923654
118	0x3e19154f	0.14949535
119	0xbdd2578b	-0.10270604
120	0x3dff9b42	0.12480785
121	0x3e491fbe	0.19641015
122	0x3e183da0	0.14867258
123	0xbe48ef9f	-0.19622658
124	0x3e0f6f92	0.14007404
125	0x3e24a7b7	0.16079603
126	0xbde3977b	-0.11112877
127	0x3e118fdc	0.14215034
128	0x3db417da	0.08793612
129	0xbe3137fc	-0.17306513
130	0xbe4a69f3	-0.19766979
131	0xbd892ca9	-0.066979714
132	0x3ddef07e	0.10885714
133	0xbe161907	-0.14657985
134	0xbea7b4ef	-0.3275523
135	0x3e362869	0.17788853
136	0x3e269c1b	0.16270487
137	0x3e39bfca	0.18139568
138	0xbcbf2564	-0.023333259
139	0x3d6c15f9	0.057638142
140	0x3e02a323	0.12757544
141	0x3e2b2884	0.16714674
142	0x3c8f10a6	0.017463993
143	0xbb109e86	-0.0022067144
144	0x3e26314f	0.16229747
145	0x3dc14739	0.09437413
146	0xbce7625f	-0.02824515
147	0x3e9ede00	0.31028748
148	0x3d8114a9	0.06302769
149	0x3d39ea6d	0.04538958
150	0xbe2dbdb9	-0.16966905
151	0xbe67e08a	-0.22644249
152	0xbe98bf37	-0.29833385
153	0xbdd84094	-0.10559192
154	0x3e26bb05	0.1628228
155	0xbe3f7c49	-0.18699755
156	0xbe1bcfaa	-0.15215936
157	0xbde7bfa6	-0.11315851
158	0xbe1ba19a	-0.15198365
159	0xbe7d2a96	-0.24723276
160	0xbd39da12	-0.045373984
161	0x3e07db26	0.13267192
162	0xbce28893	-0.027653014
163	0xbcf75cd8	-0.030195639
164	0x3d767324	0.0601684
165	0xbe5a3efb	-0.21313088
166	0xbe854c4e	-0.26034778
167	0xbd0a6ced	-0.033795286
168	0xbdc48673	-0.09595957
169	0xbe62624b	-0.22107808
170	0xbe3b550d	-0.18294163
171	0x3ecc5208	0.39906335
172	0x3dd322a9	0.10309345
173	0x3e0067aa	0.12539545
174	0x3d20b7e9	0.03923789
175	0x3d808b01	0.06276513
176	0x3e05333a	0.13007823
177	0x3e8acd09	0.27109554
178	0xbe1cbe84	-0.15307051
179	0xbd574330	-0.05255431
180	0xbd3d32b0	-0.046190917
181	0x3ba7c313	0.00511969
182	0x3d9f22df	0.07770323
183	0xbdd15f74	-0.10223284
184	0xbe4d3a9f	-0.20041893
185	0x3da73f67	0.0816639
186	0xbde8e006	-0.11370854
187	0x3d2814dd	0.04103552
188	0x3e9bf9b9	0.3046396
189	0xbd2c18a5	-0.04201569
190	0x3da6e6fb	0.08149525
191	0x3cb15ebc	0.021651618
192	0xbcb0fd8a	-0.021605272
193	0x3ddd8f57	0.108183555
194	0x3e3fcf0d	0.18731327
195	0x3d312d30	0.043255985
196	0x3e9cc03f	0.30615422
197	0x3e9a86cb	0.30180964
198	0x3e43c005	0.19116218
199	0x3dc5d16b	0.09659084
200	0x3e585408	0.21125805
201	0x3d561ee1	0.052275542
202	0xbcc33664	-0.023829646
203	0x3e693435	0.22773822
204	0xbea522a1	-0.32252982
205	0xbe9ca25d	-0.30592623
206	0xbe227c6b	-0.15867774
207	0x3dfafcbd	0.12255237
208	0x3e12c5aa	0.14333215
209	0x3d2b5d5f	0.041837092
210	0xbe358781	-0.17727472
211	0xbe3bd41a	-0.18342629
212	0x3cc20c28	0.023687437
213	0xbe0be5d9	-0.13661899
214	0x3d9a04e3	0.07520463
215	0x3e154ebc	0.14580816
216	0x3e80c726	0.25151938
217	0x3e3da7bf	0.18521021
218	0x3d92e705	0.0717297
219	0x3e186c71	0.14885117
220	0xbd1848fa	-0.03717897
221	0xbe8a2f99	-0.2698944
222	0xbd5f8deb	-0.054578703
223	0xbe86c955	-0.2632548
224	0xbe565063	-0.20929103
225	0xbd8b07c0	-0.067885876
226	0x3d6cfc3f	0.057857748
227	0x3deeadad	0.1165422
228	0x3e37bc6c	0.17942971
229	0x3cd64b06	0.02615882
230	0x3d0ddf52	0.034636803
231	0x3d9bf467	0.076149754
232	0x3bed3647	0.0072391364
233	0x3cc3c420	0.02389723
234	0x3d419a7f	0.04726648
235	0x3de36130	0.111025214
236	0x3d531d44	0.05154158
237	0xbecb6bec	-0.39730775
238	0xbe85d6d2	-0.26140457
239	0xbe1d03d0	-0.15333486
240	0xbee26e14	-0.44224608
241	0xbd9ff364	-0.07810095
242	0x3d2217a2	0.03957332
243	0xbdb9ff47	-0.090818934
244	0x3c6aa4e8	0.014321543
245	0x3e8193d8	0.25308108
246	0x3e9a182a	0.3009656
247	0x3c245e22	0.010032209
248	0x3e89a3fa	0.26882917
249	0xbe47a321	-0.19495822
250	0xbe2c5e43	-0.16832833
251	0xbda91d37	-0.082575254
252	0x3e07d26d	0.13263865
253	0x3dcde99e	0.100543246
254	0x3d5d311f	0.054001924
255	0xbc888574	-0.016665198

block2.1.conv.bias f4 [16]
0	0x3b156ec7	0.0022801624
1	0x3b124e0f	0.0022324359
2	0xbd819585	-0.06327347
3	0xbd6ce7d2	-0.05783827
4	0x3e3c15e6	0.18367729
5	0x3d61ed68	0.05515805
6	0xbdabb0d6	-0.08383338
7	0xbd7cd6fb	-0.06172846
8	0xbdf393bb	-0.11893412
9	0xbd7cbd82	-0.061704166
10	0x3db4ed66	0.08834343
11	0xbdec9f81	-0.115538605
12	0xbe0becdd	-0.13664575
13	0x3d7ea804	0.06217195
14	0xbcef752f	-0.029230682
15	0x3d32bee8	0.043639094

block2.1.BN.weight f4 [16]
0	0x3f91f659	1.1403304
1	0x3f5f5332	0.8723632
2	0x3f502acb	0.81315297
3	0x3f78016e	0.9687718
4	0x3f816bb1	1.011099
5	0x3f9e548b	1.236955
6	0x3f5465d8	0.829679
7	0x3f700c7f	0.9376907
8	0x3f7a9946	0.97890127
9	0x3f5f12d4	0.87138104
10	0x3f7cbdbd	0.9872702
11	0x3f6636eb	0.8992755
12	0x3f88f7ed	1.0700661
13	0x3f8514c2	1.039696
14	0x3f8f4f9b	1.1196169
15	0x3f7b4c5c	0.9816339

block2.1.BN.bias f4 [16]
0	0xbd79e86d	-0.061012674
1	0xbedeb52b	-0.43497595
2	0xbeb6a411	-0.35672048
3	0xbd61b970	-0.055108488
4	0x3e273366	0.163282
5	0xbc7de1fb	-0.0154957725
6	0xbe9862f1	-0.29762986
7	0xbe705cb8	-0.2347287
8	0x3b4fece9	0.0031726903
9	0xbe0991d3	-0.13434534
10	0xbe298bed	-0.16557284
11	0xbe931d55	-0.28733316
12	0xbe1844a7	-0.14869939
13	0xbea2ebde	-0.31820577
14	0x3d8bbb5e	0.06822847
15	0x3d004abe	0.03132128

block2.1.BN.running_mean f4 [16]
0	0xbfd83008	-1.6889658
1	0x3da8da5c	0.08244774
2	0x3d4fb784	0.050712124
3	0xbf55dec5	-0.83543044
4	0x3e6d235f	0.23158024
5	0xbf4e71fe	-0.8064269
6	0xbcfa3af3	-0.030545687
7	0x3f8b3cef	1.087797
8	0xbf0f0872	-0.5587226
9	0xbfab100e	-1.3364275
10	0xbf9a34ee	-1.2047403
11	0xbff91103	-1.9458317
12	0xbe3fb338	-0.1872071
13	0x3f34c9a5	0.70620185
14	0xbef27d53	-0.4736124
15	0xbfa0f57d	-1.2574917

block2.1.BN.running_var f4 [16]
0	0x3ffdce7a	1.9828637
1	0x3f575980	0.8412094
2	0x3f96adaa	1.1771748
3	0x3faa3c34	1.3299623
4	0x400cf6c3	2.2025611
5	0x3ff0e509	1.8819896
6	0x401eb43b	2.4797504
7	0x3ff6d153	1.9282631
8	0x3f8f04f5	1.1173388
9	0x407a77c0	3.913559
10	0x3fbcfa2e	1.4763849
11	0x40119b74	2.275113
12	0x3f941d81	1.1571504
13	0x3f9b14f2	1.2115767
14	0x3fdf060f	1.7423724
15	0x4027e757	2.6234949
