result/model/0513 1439.pt (torch, 79133 bytes, 98 tensors)

input_conv.conv.weight f4 [4, 1, 3, 3]
00000000: d7ad 6b3e 1507 edbd cbd5 e2be 6763 9cbd
00000010: 5384 f3bd fb59 63be 42b7 023e 25c8 e23d
00000020: b12e 1b3d 5ba7 963c e2d4 173f 73f3 1e3f
00000030: 64cf 223d 3077 aabd 5616 243e 02f8 dabc
00000040: 8e88 bdbd afdd 56be 2cdd a5be 7e72 fabe
00000050: 8aec aabd acb7 c2be eedb 01bd 7623 4b3e
00000060: 5002 603e 02d2 9c3b 7cc9 5fbe cfaf 3dbc
00000070: b2bc 5e3e 86ab 923e 43c3 ef3d 6c1f 0fbd
00000080: c3af a93d 3e4f fdbe bdd6 dbbe c547 08be
0.23015533 -0.115736164 -0.44303736 -0.07636147 -0.11890473 -0.22202294 0.1276522 0.11073331
0.037886325 0.018390348 0.5930921 0.62090224 0.039748564 -0.083235145 0.16024145 -0.026729587
-0.09254561 -0.20983003 -0.32395303 -0.48915476 -0.083458975 -0.38030756 -0.031703882 0.19837746
0.21875882 0.004785777 -0.21854204 -0.011577561 0.21751669 0.28646487 0.11707165 -0.034942076
0.08285477 -0.4947452 -0.4293727 -0.13308628

input_conv.conv.bias f4 [4]
00000000: 7b0f 813e bcb9 54be 945d 113e 0823 be3d
0.25207123 -0.20773977 0.14195853 0.092840254

input_conv.BN.weight f4 [4]
00000000: 422c 423f 3ff2 b73f 4070 613f fcaa 443f
0.7584878 1.4370803 0.88061905 0.768234

input_conv.BN.bias f4 [4]
00000000: c525 bfbd aeac cf3d 6c57 f13d 5381 413e
-0.09333376 0.10140358 0.117842525 0.1889699

input_conv.BN.running_mean f4 [4]
00000000: ee94 813e 709c 50be 6137 133e 91d2 e53d
0.25308937 -0.20372176 0.14376594 0.11221803

input_conv.BN.running_var f4 [4]
00000000: e0a9 853e 2b5e 803f 8ae5 933f 92c9 713e
0.26106167 1.0028738 1.1554425 0.23612049

block1.0.conv.weight f4 [8, 4, 3, 3]
00000000: c2d6 8bbd 861d 173e 4ddc 3f3e 5b0e 39be
00000010: ed6c 693c ab12 08bd ec73 c63d 3974 72bd
00000020: 64d7 a8bb 1765 eb3d abf7 83bc d9c9 3b3e
00000030: d20e 8dbe 231b 22be f3f7 3c3e b347 64be
00000040: 4b9d 3abe 07a1 373e 0222 89be 74ba 083e
00000050: 1f11 fb3d af58 95be fe1a f6bd 462e 9bbd
00000060: 925c 96be 5a82 f0bd 0305 a8bd 1679 04bd
00000070: 5933 3dbc baa7 ed3d 2d35 12be 676b 9dbd
00000080: 30c2 34bc ba26 333e 2ba1 bf3d 82e0 183e
00000090: d55d 59bd a371 19bd 8440 d73d 3993 0a3e
000000a0: 7010 f8bd 655c eabc 9edd 9bb9 8159 f93d
000000b0: 0d3c 0ebd 9e06 8f3e e8c3 2a3e b420 cc3d
000000c0: 11ac 9dbd b179 583d f05c 073e 9118 66be
000000d0: 723c 36be 11c4 6fbe fd68 e83d 6be1 353e
000000e0: efb9 39bd 8831 82bd 7111 4b3e b63e fd3d
000000f0: 35c2 0b3d 87d0 a93e 082b 953d fe05 d9bd
00000100: 97b1 b9bc 26db 0d3d 9798 36be 5701 a23d
00000110: a631 aa3d a29b d93d 57cd eb3e a24f 8a3e
00000120: 07a2 5b3d 70ad 36be 2beb 5e3d 1075 633d
00000130: 3aa8 4fbe 295a 86be 9c8f c63c c971 fcbd
00000140: a143 26be 6dd6 36be 3b4d d23d c275 963d
00000150: 7530 953d be86 3b3e 7826 0abe cf8e 22bc
00000160: e87c 713d 0855 1bbe 23dc dc3d 034c 7e3d
00000170: b2cf 6cbe 0c4c 3a3e 8a4f bfbd 717f 8bbe
00000180: 6e3e 693e ca79 3d3d e87f 093e 967c b5bc
00000190: 98b4 e6bd 8d61 a6be d3eb a33e 0f14 b43e
000001a0: d4d4 f63d f971 6f3e 5ed1 1a3e 44cb bf3d
000001b0: 758e 013e a917 b7bd 4248 763d 61b5 13be
000001c0: 1b4b a33d c928 f1bd 6769 77be 0a45 2c3d
000001d0: d6f4 5fbd b200 e2bc 3a3c 993d 47d8 1a3d
000001e0: 9a5c 073c d30a d53e 6196 a73e 02e2 91be
000001f0: 6b41 763d 77da 4f3d 52f4 0ebe 53d9 b7bd
00000200: e0de b2bd ac1e 5c3d dc09 b9bd 3c14 283d
00000210: 5bcf 823e 90f9 09be a048 053e 09fb 28be
00000220: 733c 7dbd ed84 b9be 9d3f ea3d 452f a8bd
00000230: e7e9 143c d78c 383e a27b db3c cf4f cb3b
00000240: 3c2e 17be dc0f edbb 18f0 ee3d e9c3 63be
00000250: b436 fc3d 4112 533d 3a30 113d 9c40 d13d
00000260: be6c a73d a475 b23e 22bf e13d 4dac 03be
00000270: db10 093e e5eb 45bc 141d 6fbe 53b8 c03e
00000280: f571 f2bb ea8a 29be 3475 253d 9b9a 8ebc
00000290: 2e1d 823d a3c3 9c3b 235d 01be 6076 fc3c
000002a0: 649d 61bd 0b7d 83bb eca2 2e3d 80a5 e63c
000002b0: 93b9 f73d cd1d 773d 1ba6 0cb9 6c4c 99bd
000002c0: d557 a03d 3463 ed3c 6f61 55be 32cd 37bd
000002d0: 44e5 283e 7259 bc3e 2e09 713e 8d5c 063e
000002e0: f4d7 b53d 8d0b 623e 2f58 d9bd 4afe d4ba
000002f0: 6a85 80be 8b49 803d 9d39 0f3d fc41 fc3d
00000300: 32b9 213e 0a42 43be b5f7 603b 597c 653e
00000310: f398 a5bd c326 26bb 7801 ecbd d288 edbc
00000320: 4fd2 fe3e 4eb2 033e c9aa 6f3e e271 e63d
00000330: a8aa 3fbd 02f7 5f3d 67ac 24bd 1384 fa3d
00000340: b501 66bd f584 2c3e 10e5 87be bdfb 16be
00000350: c0d0 863d 3c1f c83c bbb3 e33d 6f22 713e
00000360: d072 bfbd 8f32 32be 6c3f f4bd be91 a13d
00000370: 9782 d73d e10e 3abe 3fb8 7e3d 7b87 a03d
00000380: 3256 193d 24c9 90be d7fc 42be d961 283e
00000390: 8948 1bbc 3828 00bc c429 ea3e d5e3 113e
000003a0: 24de 013c a3b1 233d b6e0 1fbc cf2a 9cbd
000003b0: 332d 2abe db0a 4c3e dcee a7bd 6f9d 313e
000003c0: c8bb 46bd 3e34 1b3e f962 0d3e 9b7c fbbd
000003d0: 7daa 83bd 5572 2d3e 8128 e13d 1305 fdbd
000003e0: 9e2e 3ebd c72c c93d 1c66 a13a 7db6 023e
000003f0: 02eb 173e 5f41 a63d 1ad9 e4bd 7d65 bebd
-0.06828071 0.14757356 0.18736382 -0.18071882 0.014247161 -0.03322093 0.09690079 -0.05919287
-0.0051526297 0.11493891 -0.016109308 0.18338718 -0.2755037 -0.15830664 0.1845396 -0.22292976
-0.18224065 0.17932521 -0.26783758 0.13352376 0.12259125 -0.29169223 -0.12016867 -0.07577185
-0.293675 -0.117436126 -0.08204081 -0.03234204 -0.011547887 0.11604257 -0.14278097 -0.07686501
-0.011032626 0.17495242 0.09356912 0.14929393 -0.053068 -0.037461888 0.10510352 0.13532723
-0.1211251 -0.02860851 -0.00029729021 0.12175275 -0.034725238 0.27934736 0.16676295 0.09967175
-0.07698835 0.05285043 0.13219047 -0.22470309 -0.17796496 -0.23414637 0.1134815 0.17761771
-0.045343336 -0.063571036 0.19830872 0.12365477 0.034120757 0.33166906 0.07283598 -0.10596846
-0.02266769 0.034632824 -0.17831646 0.07910412 0.08310251 0.10625388 0.460551 0.2701388
0.05362132 -0.17839599 0.054423492 0.05553156 -0.20279017 -0.26240662 0.0242384 -0.1232639
-0.16236736 -0.17855234 0.10268637 0.07346679 0.07284633 0.18313119 -0.13491237 -0.009921744
0.05895701 -0.15169156 0.10784175 0.06208421 -0.23126104 0.18193072 -0.09341343 -0.27245668
0.22777721 0.046258725 0.13427699 -0.022154134 -0.11264914 -0.324963 0.32015857 0.35171553
0.120523125 0.23383321 0.1511893 0.09364942 0.12652 -0.0894006 0.060127504 -0.1442466
0.079733096 -0.11775357 -0.24161302 0.04205803 -0.054676853 -0.027588222 0.074821904 0.037803914
0.008261824 0.4160982 0.32731918 -0.28492743 0.06012098 0.050745454 -0.13960388 -0.08976998
-0.08733916 0.05374019 -0.09035084 0.041034922 0.25548825 -0.13474107 0.13015985 -0.16502012
-0.061825227 -0.36234227 0.114379145 -0.08212141 0.00908897 0.18022476 0.026792351 0.0062045823
-0.14763731 -0.0072345566 0.11666888 -0.22242703 0.12315121 0.05153108 0.035446383 0.102174014
0.08175038 0.34855378 0.11022784 -0.12858696 0.13385336 -0.012080167 -0.23350936 0.37640628
-0.0073988386 -0.16556898 0.040394977 -0.017407706 0.06353222 0.004784064 -0.12633185 0.030818164
-0.05508174 -0.004012709 0.042635843 0.028155088 0.12095942 0.060331155 -0.0001341332 -0.074852794
0.07829253 0.028977968 -0.20837949 -0.044873424 0.16493708 0.3678699 0.23538658 0.13121243
0.088790804 0.22074719 -0.10612523 -0.00162501 -0.25101787 0.06264027 0.034967054 0.12317273
0.15793303 -0.1906816 0.0034327332 0.22410716 -0.080858134 -0.0025352694 -0.11523718 -0.028995905
0.49769828 0.12860987 0.23404993 0.1125219 -0.04679361 0.054678924 -0.04020348 0.122322224
-0.05615397 0.16847594 -0.26541948 -0.14744468 0.06582785 0.024428956 0.11118265 0.23548292
-0.093480706 -0.17402099 -0.11926159 0.07889126 0.10522955 -0.18169738 0.06218743 0.07838341
0.037435718 -0.28278458 -0.19041763 0.16443576 -0.009477743 -0.007822089 0.4573499 0.14247067
0.007926498 0.03996433 -0.009758165 -0.076253526 -0.16618805 0.19926016 -0.08199856 0.17345212
-0.048518926 0.15156648 0.13807286 -0.12279626 -0.064290024 0.16938145 0.10994054 -0.123544835
-0.046431176 0.09822994 0.0012313756 0.12764926 0.14835742 0.08117937 -0.11174221 -0.09296701

block1.0.conv.bias f4 [8]
00000000: 56be 843e 03f4 f8bc 102b 463e 8231 23be
00000010: 8a5d 23be 3182 88bd 01bd 26be 5672 033e
0.25926465 -0.030389791 0.19352365 -0.15936854 -0.15953651 -0.06665457 -0.16283037 0.12836584

block1.0.BN.weight f4 [8]
00000000: c55a 913f 7c97 2a3f 68fd 4e3f 5396 7e3f
00000010: d7a0 913f 3074 543f 760a 9b3f ed42 583f
1.1355826 0.66637397 0.8085542 0.99448127 1.137721 0.8298979 1.2112567 0.8447712

block1.0.BN.bias f4 [8]
00000000: c32b 753d 9e50 8ebe d8bc 0dbd f4a8 f7bd
00000010: f858 0bbe 13f2 77be 6631 973d 0189 1dbe
0.059856188 -0.2779588 -0.034603924 -0.12092772 -0.13608158 -0.24213438 0.07382469 -0.15384294

block1.0.BN.running_mean f4 [8]
00000000: e209 50be fa63 623f d900 033f 4cf3 cc3d
00000010: aaf9 4b3e af03 7c3f be45 843e cd3c c6be
-0.2031627 0.884338 0.5117317 0.10007343 0.19919458 0.9844312 0.2583446 -0.38718262

block1.0.BN.running_var f4 [8]
00000000: b7b0 463e fa81 3d3f 02df 8b3e 4d67 663f
00000010: 2447 bd3e d78f e13e d4de 573e 674c 633f
0.19403349 0.74026453 0.2731858 0.90001374 0.36968338 0.44055054 0.21081096 0.88788456

block1.1.conv.weight f4 [16, 8, 3, 3]
00000000: 66a5 873d 1e54 f43d 63db 433b 9b95 113e
00000010: ae30 203e ce64 4cbd f673 5e3e f3ef 843e
00000020: 5035 3c3e 78b5 a73d f9f2 343e ca82 8e3d
00000030: a99e 6e3d ba93 6dbd 277e 90bd 9338 f53d
00000040: 21d0 283d c36c 15bb aa28 ffbd fc23 b1bd
00000050: e01f 19be a174 95ba 63d6 243e f038 8f3d
00000060: a671 1f3e 4024 5e3e 26fd 983d 6abd ff3d
00000070: e3b6 793e 6821 4b3e 9cb4 723d d88c 3b3e
00000080: 3ad6 ad3e 2fab af3d 7f90 e53d 27fd 8b3d
00000090: a776 833e 5165 323e 9e1f 823e b59c 01bd
000000a0: 240f d8bd cd20 953b 1957 87be b18f 1ebe
000000b0: 4ef3 3dbe cf72 1fbd 7e4b ae3d d895 d0bc
000000c0: 819b 233d 80be 1fbe 8d16 e53b dfbd 46be
000000d0: 1a5b 61be 57f4 8f3d 3752 d13d 9213 5abd
000000e0: 8f4e 16be b237 55bc d324 32bd 4b09 abbd
000000f0: b938 22be 4480 4c3d 3009 d0bc c5bd 3e3d
00000100: 1ee0 043d 082e 1bbd 1dcb c03d b536 2abd
00000110: 449e fa3c aaf3 98bc cb35 483e 0418 613e
00000120: a16f 3bbd 0240 d83d 15a3 40bd e573 0a3e
00000130: bbc0 b13e dae4 b93d 1b4a f8bd ad8d 483e
00000140: 2c5a f4bc e9b9 ce3b 7cc4 5a3d 7c83 07be
00000150: 943e 373c 869c 3bbe 868e debd 6a4d 80bd
00000160: 5c99 67bd 2f73 27be 939e b6bd cbf0 18be
00000170: a6a4 a5bd e29a 973c 4426 5d3d d1dc 6b3d
00000180: aedb 1d3e 8d59 2b3e ca5b f13d 109c 193c
00000190: 3244 233e 0e6a 1f3e a877 a3be b6e1 18be
000001a0: 39bc 4fbe c27f bebd 1755 093d 2bae 4b3d
000001b0: 0503 89bd 3dd5 893d f3ac d9bc bd03 0cbe
000001c0: e5b0 203d 20e1 7c3e 9f32 a8bd 3f65 cc3d
000001d0: 0a23 903e d912 d3bd fb9c b93d 0fc4 ab3d
000001e0: a3b4 0cbe 7c9c e1bb 7bd6 b13d 1f18 1b3e
000001f0: 1e4f d13d 1859 4ebd 67d3 a8be bd74 3ebe
00000200: 15e1 49bd b941 42bd dd14 36bc 40fb babb
00000210: 01a6 7c3d 52c9 a93e ce12 903e 7325 c23c
00000220: 25e8 7c3e d850 a43e 20a8 04bd 40bd f03d
00000230: 7a68 033e d31b fe3d 33b4 20be ccd1 f5bd
00000240: a8a4 e9bd da05 d93d d85c 8dbc 7174 bcbd
00000250: 5cd7 4b3e 753e 43bd fdfc 593d 0ce3 313e
00000260: e1c8 bcbc cdd5 473e 6cc8 1f3e 3981 0c3e
00000270: 3215 503d 24bc babd fcc0 073e b94c e6bc
00000280: cdf1 15bd 8337 483e af7c 82bd cb8f 9f3d
00000290: 234e 363e 7157 a0bd a354 7cbd 0360 723e
000002a0: f3d9 b03e 0224 503d 82f0 c83d d929 70be
000002b0: 7e86 82bc 167b 653e 038d 203d 7d3b 2c3e
000002c0: 9d30 393e acff 933c ee67 61bd ee3a d53d
000002d0: 4a0c 08be 285d ddbe aa2a 99be 6ea1 493d
000002e0: c94e 1ebd 36e6 e3bd f646 9a3b 2cbd 29be
000002f0: 3396 a13c 8381 f13d 70f0 f23d ff2b c7bd
00000300: 9583 b4bd a288 bdbd 7a13 55be d759 87bd
00000310: e930 6ebd 0525 4cbe 2ced 303e d90a 873e
00000320: 391f 62be 6f69 f8bd c30f 933e bfa8 a63d
00000330: 95fa 1fbe f7da 8b3d 7a37 e53d a340 863d
00000340: c86a 043e 525b 433d 5712 6abd 2830 c9bd
00000350: 2141 8ebd 1302 003d a3f5 fcbc c67f b2bd
00000360: aa57 ecbd 4d8d babd 5be5 503c 9bbb c7bd
00000370: 7d89 e4bd 92ca 293e 8b77 8bbc 6d7d 7a3e
00000380: 7651 853d 2113 c3be ec86 3dbd 4e10 703d
00000390: d647 d5bd c165 343d 3aef 893e bbb8 0fbe
000003a0: 2e40 a6bd 0e0c 503e 90f7 20be a67e 75be
000003b0: beaa b6bd 6131 04bd b14c 6abe f961 b03d
000003c0: d792 e13d 32cc 223d c742 0f3b 83d9 b9bd
000003d0: e0db 7d3b da29 2b3c e833 bcbd d389 47be
000003e0: 0d3c de3c 52fe 44be 9ee9 84be f25f 91be
000003f0: cf2e b03d 98b2 68bd e050 63be ec7c 813e
0.06623344 0.119301066 0.0029885403 0.14217226 0.1564357 -0.049900822 0.21723923 0.25964317
0.18379712 0.08188909 0.17670812 0.0695854 0.05825678 -0.05800221 -0.07055312 0.11973681
0.041214112 -0.0022800423 -0.12458928 -0.086494416 -0.14953566 -0.0011402556 0.16097407 0.06993282
0.15570697 0.21693516 0.07470159 0.124873 0.24386172 0.19836962 0.059254274 0.18315446
0.33952504 0.085775726 0.11209201 0.06835394 0.25676462 0.17421462 0.25414747 -0.031643588
-0.10549763 0.0045510293 -0.26433638 -0.15484501 -0.18549845 -0.03892785 0.08510493 -0.025462076
0.039943222 -0.15600014 0.0069912137 -0.19408368 -0.22007409 0.07029026 0.10220759 -0.05324132
-0.14678405 -0.013013767 -0.04349215 -0.08351382 -0.1584195 0.04992701 -0.025395006 0.046567697
0.032440297 -0.037885696 0.09413741 -0.04155608 0.030593045 -0.018670876 0.1955177 0.21981817
-0.045760754 0.105590835 -0.047030527 0.13520773 0.34717354 0.09076853 -0.121235095 0.19585295
-0.029828154 0.0063087833 0.05341004 -0.13233751 0.011184353 -0.18321428 -0.10867028 -0.062647656
-0.05654274 -0.16352533 -0.089169644 -0.14935605 -0.08088045 0.018506471 0.05399157 0.057583634
0.15415832 0.1673338 0.117850855 0.009375587 0.15943983 0.155678 -0.31927228 -0.14929852
-0.20286645 -0.093017116 0.033528414 0.049726646 -0.06690029 0.06730125 -0.026571726 -0.13673301
0.0392312 0.24695253 -0.0821278 0.09980249 0.28151733 -0.10306329 0.09063145 0.083870046
-0.13740782 -0.0068851095 0.08683487 0.1514592 0.102201685 -0.050377935 -0.32973787 -0.1859922
-0.04928692 -0.04742596 -0.011113373 -0.005706221 0.06168175 0.33161408 0.28139347 0.023699498
0.24697931 0.3209293 -0.0323869 0.117548466 0.12832823 0.12407651 -0.1569374 -0.12002906
-0.11408359 0.10596819 -0.017256185 -0.09201897 0.19906372 -0.047666986 0.053219784 0.17371768
-0.023045005 0.19515152 0.15603799 0.1372117 0.050801463 -0.09117916 0.13257211 -0.028112756
-0.036607552 0.19552426 -0.06371438 0.07791098 0.17803244 -0.07829178 -0.061604153 0.23669438
0.34541282 0.05081559 0.09811498 -0.23453464 -0.015933271 0.22410235 0.03919698 0.16819568
0.18084951 0.01806625 -0.055030756 0.104116306 -0.13285938 -0.43235135 -0.29915363 0.049226217
-0.038649354 -0.111278936 0.0047081662 -0.1657607 0.01972494 0.117922805 0.11862266 -0.097251885
-0.0881416 -0.09254576 -0.20808211 -0.066089325 -0.058152113 -0.19935997 0.17277974 0.26375464
-0.22082223 -0.12129485 0.28722963 0.081376545 -0.15622933 0.068288736 0.11192222 0.06555297
0.12931359 0.04769451 -0.057146396 -0.09823638 -0.06946016 0.031251978 -0.030878847 -0.08715777
-0.11540158 -0.09108982 0.012749995 -0.0975258 -0.11159036 0.1658118 -0.017024776 0.24461909
0.06509678 -0.38100532 -0.04627125 0.0586093 -0.10414092 0.044042353 0.26940328 -0.14035313
-0.0811771 0.20317098 -0.15719438 -0.23974094 -0.08919285 -0.032273654 -0.22880818 0.08612437
0.110143356 0.039745517 0.002185987 -0.0907469 0.0038735792 0.01044699 -0.09189588 -0.1948617
0.027128244 -0.1923764 -0.25959486 -0.28393513 0.08602678 -0.056810945 -0.2219882 0.2529062

block1.1.conv.bias f4 [16]
00000000: 8102 d7bb 0bf9 c73c bcbc cf3c c140 a83d
00000010: 0dee 28bc ae29 ce3d 6e89 1dbd a6ac d2bd
00000020: 0ddf 91be 3c4d ad3c 1012 ac3d d1e9 f9bd
00000030: b396 b83d c3ae c73d 2261 9e3d b388 f9ba
-0.006561578 0.024410745 0.02535855 0.08215476 -0.010310662 0.100665435 -0.03846114 -0.10286836
-0.28490487 0.021154992 0.08401883 -0.122028 0.090131186 0.0975013 0.0773337 -0.0019037932

block1.1.BN.weight f4 [16]
00000000: b9fd 563f d0bb 783f 962c 8e3f 5d47 823f
00000010: 4389 653f 8434 803f bbcc 923f d793 723f
00000020: c7ce 893f 62d6 793f 3b40 7a3f da31 863f
00000030: 5006 823f 008e 833f a930 8a3f bdcc 653f
0.839809 0.9716158 1.1107357 1.0178028 0.8966257 1.0016026 1.1468729 0.94756836
1.0766228 0.9759275 0.9775426 1.0483963 1.0158176 1.027771 1.07961 0.8976553

block1.1.BN.bias f4 [16]
00000000: df21 cebe 5dc9 19be 7207 9e3d b856 28bd
00000010: 9f2d 34be fa75 acbe 6274 cdbd e74b a83d
00000020: d4cb bdbb faef a8bd 6f68 5cbd 769a f1bd
00000030: 2f66 e4bc 5a64 63be e67b 5fbd 065b f8bd
-0.40260217 -0.1501822 0.07716264 -0.041098326 -0.17595528 -0.3368376 -0.10031964 0.08217602
-0.0057921205 -0.08248897 -0.053810533 -0.11797039 -0.027880756 -0.2220625 -0.054561518 -0.12126736

block1.1.BN.running_mean f4 [16]
00000000: 4cc2 813f e591 043f 2144 8d3e 346c 05bf
00000010: 9e4b 4e3f 99c9 55be 268f 99bf 4749 03bf
00000020: 3240 a9be 8f9c 05bf cf8c 49bf 6c64 29bf
00000030: 58d4 abbd eabe 15be 0cb5 9abe 93fa a1bf
1.013742 0.5178512 0.2759104 -0.5211823 0.8058413 -0.20877685 -1.199681 -0.5128369
-0.3305679 -0.52192014 -0.7873048 -0.66168857 -0.08390111 -0.14623609 -0.30216253 -1.2654594

block1.1.BN.running_var f4 [16]
00000000: 319c 933f 766e 0a3f c2d3 b83f 60f8 813f
00000010: 4d23 b33f f14b 253f 195a 0140 c5b6 833f
00000020: 3d55 de3f 34c9 003f cd02 c33f 4ee8 983f
00000030: 59e1 0140 7238 653f 02a7 ab3f 9336 e03f
1.1532041 0.540748 1.4439623 1.0153923 1.3995148 0.64569 2.0211241 1.0290152
1.7369763 0.5030701 1.523523 1.1945894 2.0293791 0.89539254 1.3410342 1.7516655

block1.2.conv.weight f4 [8, 16, 3, 3]
00000000: 0421 12be 3bbb 113c a759 14be 9ac6 9abd
00000010: b71c f23d e303 4b3c 8cbc 093d ceb8 bc3c
00000020: 1e0b b33d f3a7 abbe 9db8 26bd 983f 09be
00000030: 3b0d ea3d f3ae 3d3e e7c9 333e 72ea a4bd
00000040: a0fa e73b dd9a 483e 9a26 37be 5fe8 d5bc
00000050: 7a02 00be c41e 6dbe 1ad0 0fbe 5059 0bbe
00000060: f25d f3bd 3156 bcbb d20f 163d 330d 9c3d
00000070: 5c21 263e b742 4c3e 2f3f 95bd bffe 03bc
00000080: d16b 833d 59dc d3bd 0ef3 bfbe 253d 933d
00000090: 95fc 973d 386e 813d fc33 143e 2ea9 19be
000000a0: b551 30be 76ed 3ebd 2d3a 203d 91d4 2d3d
000000b0: 7d8f 1bbe 6b10 70be 7382 9f3d 19f3 1ebe
000000c0: 06aa 58be d86f a13c 12f7 033e 1d38 a9bd
000000d0: 95f1 dabd e063 6abe 7fe0 7bbe fda6 f2bc
000000e0: 225a 97bd abc2 a6be 1004 f9bd c6b7 293e
000000f0: 14e0 cc3c 22c0 893d a999 913e ef3b 1c3e
00000100: 752f ab3d 7b1f 773e 4f8b 46bd 9759 cabd
00000110: e029 7d3c e47d 23be 7f4e 00be 96ef e6bd
00000120: f6cc 393c cb93 efbd 6ec8 48be 8bbf f13c
00000130: 1f67 f8bd e268 1dbe 01a4 d4be b7ee 20be
00000140: c16a 1ebe df1a 7dbe 15df b5bd dd09 003c
00000150: fbb3 eabd 3666 a13d 6c40 343e 5be6 d4bd
00000160: 998c 3d3d af34 9dbd 3ea3 9e3c b704 71bd
00000170: dcf4 0cbd 30e3 1c3e 836f b83c b65a 51bc
00000180: 65a6 bebd e98e 6fbc f8f6 163e 4b41 7f3d
00000190: df85 24be e9a6 86bd 1e69 da3c 0a5f bfbc
000001a0: b191 fdbd 952a 853e eae7 c63d 1cc2 543b
000001b0: 5140 803d 5aa9 adbd f3c3 3bbd 86d2 f23d
000001c0: ca5c 133e 3323 d2bd 891b 103e 926b ea3c
000001d0: a53a 48bb d86d 5fbd 45e3 8fbe 898a 58be
000001e0: 740c 273e 5d8f 953c 1ecc bc3d f5b6 87be
000001f0: 25aa 34be 7a5a 373e 0690 3ebe bd1f a63c
00000200: 2001 ef3c 655e 55bd 33c0 363e 8d97 953d
00000210: ac1e f9bd de7c 4cbd 233c 8fbe 4778 06be
00000220: 254e 65be ff32 1fbe ab9a 023e 98b8 c6bd
00000230: d55e 1b3e 0ed3 3bbe e18e 59be 7043 0fbe
00000240: 1f04 cabd 0828 2d3e 7f03 c93c 34d7 053d
00000250: d03c 513e 3618 313d 4600 46bd f7f8 943b
00000260: b662 fb3d 7552 fabc 01d7 d1bd 6b04 73be
00000270: 09b5 01be 713d 1ebe 8f27 d83d f827 46be
00000280: 3cef 93bd b067 bb3e 8fb0 083e 5a48 40bd
00000290: 10a4 b8be df71 5ebd 3a54 05bd 530e 63be
000002a0: 63b0 0cbe 2c7d 98bc ef27 0f3e d132 483e
000002b0: 3e66 cabc 71a5 87be c828 a63d 6db1 00be
000002c0: ffa9 ecbd 8157 8abd 3a74 813d 03d2 5b3e
000002d0: 01da 48bd edf4 dfbd 4f7f c8bd 0047 38be
000002e0: f08a b4bc 7a05 08be b6f5 b43d e3cc 013e
000002f0: 3947 5e3e 9bda 683e a0b7 b7bc fc7b 6d3e
00000300: eeab b3bc 1881 57bd 9124 313e 0e7b 55bd
00000310: a8ea 0cbe 1120 053d aef1 59bd 3df2 c43c
00000320: 1956 92be dd2c 8fbd 8bc0 c3bd 8b26 73bd
00000330: a34e 49be c4de 1a3d 1fa9 7b3d 68ff 36bd
00000340: 8ef2 d4bd ee3b bb3d aaf8 653e c184 a73d
00000350: ff72 82b9 008c 233e b0ee 04bb f8d2 67be
00000360: 9afc b83d 9530 ad3d 6f34 1bbe 93b5 2d3e
00000370: 78b4 4f3d 3de7 8fbe 4194 bd3b 01c0 173d
00000380: 70c9 f1bd 0ae7 bcbc c576 d4bd 5205 673e
00000390: ed6d c2bd 3366 6cbe e4cd 8ebd 81c0 4abd
000003a0: 0518 e53d 024e 23ba 55b3 4d3d a0f7 333c
000003b0: 0d59 18be ecb3 3ebd 7f9c babd 62c9 3fbc
000003c0: 3fba 7b3d d9c0 bebd 42c4 58bd 071e 853d
000003d0: 7760 583d 03b9 b2bd 0675 8ebd 8c76 0dbe
000003e0: aa50 363d dd1d c7bb 4787 1f3d ad5e f63d
000003f0: dea3 28be 6ea7 38be 3016 6ebe 2438 38be
-0.14270407 0.008894737 -0.14487325 -0.075574115 0.11821883 0.012391063 0.033627078 0.02303734
0.08742355 -0.33526573 -0.040703405 -0.13403165 0.11428305 0.18523769 0.17557488 -0.080525294
0.0070794374 0.19590326 -0.17885819 -0.02611178 -0.12500945 -0.23156267 -0.14044228 -0.13608289
-0.11883153 -0.0057475795 0.03663618 0.07619705 0.16223663 0.19947325 -0.07287442 -0.008056342
0.06417049 -0.10344762 -0.37490124 0.07189397 0.07421223 0.06319851 0.14472955 -0.15005943
-0.17218669 -0.04661318 0.03911798 0.042439047 -0.15191455 -0.23443763 0.07788553 -0.15522422
-0.21158609 0.019706652 0.12887219 -0.08262656 -0.10690609 -0.22889662 -0.24597357 -0.029620642
-0.07390238 -0.32570395 -0.12158978 0.1657401 0.025009193 0.067260996 0.28437546 0.15257238
0.08358661 0.24133103 -0.0484727 -0.09880369 0.015451878 -0.15965992 -0.12529944 -0.11276166
0.01134037 -0.11698111 -0.19607708 0.02951028 -0.12129044 -0.15372041 -0.41531375 -0.15716062
-0.15470411 -0.24717282 -0.0888044 0.007814852 -0.1146011 0.07880823 0.176027 -0.10395499
0.046276662 -0.07676064 0.01936495 -0.058842387 -0.034413204 0.1532104 0.02251411 -0.012777975
-0.09309081 -0.014621475 0.14742649 0.062318128 -0.16066693 -0.06574804 0.026661452 -0.023360748
-0.12381304 0.2600905 0.09712203 0.003246433 0.062622674 -0.08479567 -0.04584117 0.118565604
0.14390865 -0.1026062 0.14073004 0.028615747 -0.0030552533 -0.054548115 -0.2810308 -0.21146597
0.16313344 0.018256838 0.0921862 -0.26506773 -0.1764303 0.17905608 -0.18609628 0.020278806
0.029175341 -0.052091975 0.17846756 0.07304297 -0.12164053 -0.04992377 -0.27975568 -0.1313182
-0.22393091 -0.15546797 0.12754314 -0.09703177 0.15172894 -0.1834223 -0.2124591 -0.13990569
-0.09864067 0.16909802 0.0245378 0.032675937 0.20433354 0.04323598 -0.048340105 0.0045462805
0.12274687 -0.030556897 -0.10246087 -0.23732154 -0.12666716 -0.15453126 0.1055442 -0.19351184
-0.07223365 0.36602545 0.13348602 -0.046944 -0.3606267 -0.054307815 -0.032551028 -0.22173433
-0.13739161 -0.018614374 0.13980077 0.19550635 -0.024706956 -0.2649341 0.08113247 -0.12567683
-0.11555862 -0.06754971 0.063209966 0.21466832 -0.04903603 -0.10935388 -0.09789907 -0.17995834
-0.022038907 -0.13283339 0.08835928 0.12675814 0.21706857 0.22739641 -0.022426426 0.23191828
-0.021932568 -0.052613348 0.17299105 -0.052119307 -0.1376139 0.032501284 -0.053209 0.02404129
-0.28581312 -0.06990979 -0.09558209 -0.05936293 -0.19658904 0.037810102 0.061440583 -0.044677168
-0.10397826 0.0914229 0.22458139 0.08179618 -0.0002488121 0.15971375 -0.002028387 -0.22639072
0.09032555 0.08456532 -0.1515672 0.16963796 0.050709218 -0.28106108 0.0057854955 0.037048344
-0.11805999 -0.023059387 -0.10374216 0.22560623 -0.09493623 -0.23085861 -0.06972864 -0.049499992
0.11186222 -0.00062295806 0.050219852 0.010984331 -0.1487772 -0.046558306 -0.091118805 -0.011705728
0.061456915 -0.093141265 -0.05292154 0.06499868 0.05282637 -0.087266944 -0.06955914 -0.13814753
0.04451052 -0.006076558 0.03894737 0.12029777 -0.1646876 -0.1803262 -0.23250651 -0.17990166

block1.2.conv.bias f4 [8]
00000000: 98ee 103e ebf0 c3bc a98d e93d 5137 663d
00000010: 5d7d fcbd 7756 243c 8d91 b9bb c0b5 1d3e
0.14153516 -0.02391859 0.11403973 0.056205098 -0.12328599 0.01003038 -0.005663103 0.15401363

block1.2.BN.weight f4 [8]
00000000: 6826 763f 3112 673f 3313 5c3f 6602 743f
00000010: 5580 833f 696c 873f 2310 773f 4cdb 9d3f
0.96152353 0.9026213 0.85966796 0.9531616 1.0273539 1.0579959 0.96509 1.2332549

block1.2.BN.bias f4 [8]
00000000: 5cc3 54be 95ad 90bd f667 40be af41 6bbe
00000010: 1c0e b0bd f233 92bc 3347 8fbd a166 003e
-0.20777649 -0.07064358 -0.18789658 -0.22974275 -0.08596441 -0.017847035 -0.06996002 0.1253915

block1.2.BN.running_mean f4 [8]
00000000: 86d5 b6bf 043c 9bbf 154f 403f 96f1 20bf
00000010: f596 acbf 4fa0 a2bf 6bc6 d6bf 7346 07c0
-1.4283912 -1.212769 0.7512067 -0.6286863 -1.3483568 -1.2705172 -1.6779302 -2.1136749

block1.2.BN.running_var f4 [8]
00000000: 5676 4740 d715 a43f e833 2540 c755 aa3f
00000010: 3633 f03f e2e6 2140 6ebb 853f bc39 4241
3.1165977 1.2819165 2.581293 1.3307427 1.8765628 2.529717 1.0447824 12.139095

block1.3.conv.weight f4 [4, 8, 3, 3]
00000000: a70a d8bd 1b5a 833e 8cdd ac3d 7d90 41be
00000010: f7ee df3d 9468 463d 1265 0cbe 4d7d 0dbe
00000020: 3c38 8dbe cf90 93bc 5e6b 213e 5786 7c3e
00000030: deb0 693d b7ba 07be 8b87 2b3e c7b2 e43d
00000040: 6015 66be 6a30 c63c 2418 2dbe 633f e2bd
00000050: 0de7 81bc 9c3c 62bc cdb8 423e 6cb8 913d
00000060: 4a05 4d3d 6121 6c3d c59f 013e 9075 b63d
00000070: e63b 03be 1049 973d e699 b4bc 74b7 893b
00000080: 9e5e 1ebe c05f c53d d454 c13d ac0a d5be
00000090: 65c6 773d 96bb c03d 6b62 7b3e ceec 3c3e
000000a0: 63da a83d 3219 4dbe 5296 ce3d dc43 04be
000000b0: 8eea 0abe 5db2 9abd a32e 8f3e 05c6 0ebe
000000c0: 1119 78bc aad3 283e dea1 e0bd c5cf 663e
000000d0: e78a 453e 6036 a0bd d332 4d3e 2598 b83c
000000e0: 7a1f 733e 044b 503e a92d 05be bdf7 4cba
000000f0: cc79 b13d d73f 07be 5110 213e 8a65 1d3e
00000100: 41c2 383e c1ec 733d 6bea 143e 84d1 113e
00000110: d80f 163e 20d9 5d3c 49cc 5a3e 9a54 0d3d
00000120: a2b6 143d 91ba f0bd 37dc 89bd a566 c73d
00000130: 03b4 803d 89f6 43bd e16e 333e c97a a4bd
00000140: eff1 4cbe f2c6 7b3d f9d2 b6bc b27f 77bd
00000150: 2402 09be eeda cf3c 9f9e 233e 8645 80be
00000160: 4255 d43d f088 4e3e a39d b9bd f150 c5bc
00000170: ff93 5cbe dd3f 27bd 1131 a2bd fc37 b6be
00000180: a1cf 1d3d 37b9 e73d c175 9ebe 5f1e 05bd
00000190: 0b10 ea3b 96ff 243d 3663 1fbe 13f7 d2bc
000001a0: 5c4c 01bc d8b1 0fbe 377a 15be 4ed8 5d3e
000001b0: 8a2b 3b3e 65da a53d 7850 163d 28e0 b7bd
000001c0: 8f55 cfbd 57e7 f23c e010 12be 439c 80be
000001d0: bfb6 063e d018 cebc 2eba ccbd c579 853e
000001e0: 388c 04be c5e1 143d 5a0f 3b3e 905a debd
000001f0: 477f f6bd 0b24 cdbd e975 573e db36 58bd
00000200: f7de 393e 4613 323e acaf c3bd d614 b83c
00000210: 6d51 2a3d 65e1 bebd 542a 2c3e f867 4abe
00000220: b359 e0bd de73 473e e791 bcbe ae67 b6be
00000230: b782 79be eca6 7ebe 7424 49be b4a2 54be
00000240: c5fb d93d 7f5c 08be 9564 f5bd 9d57 893e
00000250: fa07 c73d adc0 b9bd 120f 1a3c 74f9 a33d
00000260: 9b23 86bd 423e acbd ba98 0ebe e829 81be
00000270: 111f 42bd 9281 9b3d 6923 2a3e 85f3 233c
00000280: d016 45bd 83b3 8c3d bbda ebbd 87ae b3bc
00000290: 2509 bdbd 2511 4c3d 96da b53c f2b3 a5bd
000002a0: a90b 073e 4294 abbc 6c32 2dbd a533 913e
000002b0: 0ead a5bc b2e5 303e 4df4 ce3d de6e 67be
000002c0: 2406 58be f7d4 e23d aa34 f33d d466 b53d
000002d0: 7a40 17bd 0164 e03d b692 a13d 6b9e 3fbe
000002e0: 5ed1 043e 276e 823e a3d1 b9bd c651 b33c
000002f0: 1139 8d3e fcd9 17be de09 16be b079 0b3e
00000300: 1526 89be 8d2a 5bbe 3c02 8ebd 3991 42bd
00000310: 04d6 bbbd 8ea4 eebc 41af 4a3e 2135 d43d
00000320: 5130 33be 752a c83d db50 d6bc 9294 34bd
00000330: 780b 21be d0a2 2abe d97b 1ebe 7526 cebd
00000340: d61c b7be 04e7 a0bd d0cf b1bd d490 9cbe
00000350: ffdb 35bd b99a 4ebc e9f4 bf3d 72bf f33d
00000360: 851f 63be afde 48be d07a a1be 9611 8dba
00000370: 666e 943d 11c6 373d 4f7d 913d b078 4d3e
00000380: f02d 723e 214c 11be 9c48 963e 36b7 8a3d
00000390: 10b0 09bd 960e c3bb ecd2 38be c54a 8f3d
000003a0: 6d0a d5bd 490e 763d c015 88bb d53f 1a3e
000003b0: 4760 9dbd 52e3 413c 7647 80be 1a5c 1abe
000003c0: 527c b5bd b56e 8c3d c082 693d 32cd 423e
000003d0: 2c6c e73d 3c59 2c3e 6b3d aa3d 6fcd 663d
000003e0: d67b fdbd cb18 52be 4828 84be 2ebb 61bb
000003f0: 151a de3c ddf9 9a3e 202f 9b3d 1d31 23be
-0.10548907 0.25654683 0.08440694 -0.18902774 0.10934251 0.048439577 -0.1371043 -0.1381733
-0.27581966 -0.018013386 0.15763614 0.24660622 0.05705344 -0.1325482 0.16750924 0.111669116
-0.22469091 0.024193007 -0.1690374 -0.11047246 -0.015857244 -0.013808396 0.19015808 0.07115254
0.050053872 0.05764902 0.12658603 0.08909142 -0.12815818 0.073869824 -0.02204604 0.0042027775
-0.15465781 0.096374035 0.09440008 -0.41609704 0.06049194 0.09410779 0.24549262 0.18449709
0.08244779 -0.20029142 0.10087265 -0.12916511 -0.13566038 -0.07553551 0.27965268 -0.13942726
-0.015142695 0.16486993 -0.10968374 0.22540195 0.19291268 -0.07822871 0.20038919 0.022533486
0.23742476 0.20341116 -0.13005699 -0.00078188983 0.08665809 -0.13207947 0.1572888 0.15370765
0.18042852 0.059551958 0.14542548 0.1424008 0.14654481 0.013540536 0.21366991 0.03450451
0.036306985 -0.11754335 -0.06731456 0.09736375 0.062843345 -0.047842536 0.17522766 -0.08031232
-0.20014165 0.061469026 -0.022317396 -0.060424514 -0.13379723 0.025372948 0.15978478 -0.25053042
0.10367824 0.20169425 -0.0906327 -0.024086447 -0.21540831 -0.04083239 -0.07919515 -0.35589588
0.03852809 0.11314624 -0.30949214 -0.032499667 0.0071430258 0.04028281 -0.1556519 -0.02575258
-0.007891741 -0.14032686 -0.14597403 0.21664545 0.18278328 0.08098296 0.036697835 -0.08978301
-0.10123741 0.029651327 -0.1426425 -0.25119218 0.1315565 -0.025158316 -0.099964485 0.26069465
-0.12944114 0.036348123 0.18267575 -0.10857117 -0.12035995 -0.1001664 0.21041073 -0.05278669
0.1815146 0.17390165 -0.09554991 0.022470873 0.04158156 -0.09320334 0.16813022 -0.19766223
-0.10954609 0.19477794 -0.36830065 -0.35625976 -0.2436627 -0.24868363 -0.19642812 -0.20765191
0.10643724 -0.13316534 -0.11982075 0.26824656 0.09718318 -0.09069953 0.009403007 0.08006564
-0.0654976 -0.08410312 -0.13925448 -0.25227284 -0.04739291 0.07593073 0.1661507 0.01000679
-0.04811746 0.06870177 -0.11516329 -0.021933807 -0.0923026 0.049821038 0.022198956 -0.080909625
0.13188042 -0.020944718 -0.042284414 0.28359714 -0.02022412 0.17275122 0.101051904 -0.22600886
-0.21096092 0.11075776 0.11875279 0.088575035 -0.036926724 0.10956574 0.07889311 -0.18712775
0.12970492 0.25474665 -0.09073188 0.021889579 0.275826 -0.14829248 -0.14652202 0.13620639
-0.26786867 -0.2140295 -0.0693402 -0.047501776 -0.091716796 -0.0291312 0.19793417 0.10361696
-0.174989 0.09773723 -0.026161602 -0.044087 -0.15727031 -0.1666367 -0.15476932 -0.10065929
-0.35764188 -0.07856563 -0.08682215 -0.30579245 -0.044399258 -0.012610131 0.09372885 0.1190175
-0.22179992 -0.19616197 -0.3153901 -0.0010762687 0.07247619 0.044866625 0.07103979 0.2006557
0.23650336 -0.14189197 0.29352272 0.06773226 -0.033615172 -0.0059526665 -0.1804921 0.06996683
-0.10402379 0.060072217 -0.0041529834 0.15063412 -0.07684379 0.011833983 -0.2505452 -0.15074196
-0.08861603 0.06857053 0.05700946 0.19023588 0.11299929 0.16830915 0.08312496 0.05634826
-0.123771355 -0.2051727 -0.25811982 -0.0034443843 0.027112046 0.30268756 0.07577348 -0.15936704

block1.3.conv.bias f4 [4]
00000000: d464 3fbe 6212 4ebd 9d1e 03bc b086 d33d
-0.18690807 -0.0503105 -0.008002904 0.10328424

block1.3.BN.weight f4 [4]
00000000: 1ea6 853f cdd9 763f 91dd 7d3f 8e49 883f
1.044132 0.9642609 0.9916621 1.0647447

block1.3.BN.bias f4 [4]
00000000: c049 0a3c 1e61 e43d 0dc8 d1bb 1b28 da3c
0.008440435 0.11151336 -0.0064020217 0.026630452

block1.3.BN.running_mean f4 [4]
00000000: d61f 543f b882 8dbf 15b4 19bf 5f22 93be
0.8286108 -1.1055517 -0.6004041 -0.2873716

block1.3.BN.running_var f4 [4]
00000000: 71b2 4e3f 3115 7a3f ebb8 403f 3a03 033f
0.8074103 0.97688586 0.7528216 0.511768

block2.0.conv.weight f4 [8, 4, 3, 3]
00000000: 7628 d33e 54a2 92bd fe08 e03d faba 9a3e
00000010: 266b c7bc 7e20 d13e 9522 923e 4473 dd3d
00000020: d71c 0a3e ceeb 76bd 303a 973d 039e b23c
00000030: 86da 03bc 5b85 543d 3962 b6bb 59a9 7d3e
00000040: 5a9a 213d 670b 063e 16c4 413e d3d9 f6bd
00000050: 16de 02bd cf30 803d 9dce 14bd 4ccd ecbd
00000060: 83b9 2bbd 3fba 51be 2759 943d eebe 5c3d
00000070: 305e 0dbd bb1e 14be 626d c4bd 19ab aebc
00000080: c020 86be c183 16be 584c 3abd ee77 653c
00000090: ae35 73bd 7168 2bbe 74ee ab3e 371e 403c
000000a0: f1d5 043e bbc0 15bd 8c23 05be f058 cc3d
000000b0: a668 9dbd cbcd 003e 25cf 21be 3523 923e
000000c0: fc95 f8bd f458 0b3e 9a1d f33d 283d a9bd
000000d0: aeb2 fabd 8474 6a3e dff3 943e 75ce cd3d
000000e0: cb81 7f3d b91b 07bd 9a4e d43d f956 683d
000000f0: 46e9 09be 084e 5cbd c0ec ff3d c938 9b3d
00000100: 0f33 8a3e f2b0 38be bcb4 733e c600 6d3e
00000110: c7d3 42bd bb93 1fbe 2719 0ebe 2660 1dbe
00000120: 4a03 8ebe 4b23 b2bd d58a 08be 565b d4bd
00000130: 4fde 593b 40a5 203e 1cce 5bbd 2724 223c
00000140: 3d41 9d3e 641c 2ebc e045 e4bd 94cc c0be
00000150: ead1 853d 92ae 33bd 09aa 323d e83e 1a3e
00000160: 4064 873d c194 98bd 2872 0cbe 94b1 58be
00000170: 85b9 0fbe 90b9 2dbd c56b 4e3e c555 ae3e
00000180: 684e 86be 3b7b 8abe 00b8 033e 1a74 90be
00000190: 6332 71be c8e8 05bd e2bf 9ebe 670a 0abe
000001a0: 0258 803d 09fd 95be 2684 14be 7c6d cc3d
000001b0: c0a8 93be 0ba0 f9bc 60ab 05be f7d4 90bd
000001c0: 91c3 083e a524 f2bd 46b8 6c3d ba67 bebe
000001d0: 685b 4dbd 48a3 a93c 8365 4d3e e48f 813e
000001e0: 3676 243e 183c 9f3d fc95 fbbc c356 683e
000001f0: 5f89 863d 57bc 773c 2c6d 13be 5e8f 62be
00000200: b1b0 433d aaee d53c 166c d93d db2c 41bd
00000210: 1137 30bd 595c 4fbd c670 263e 2600 a73c
00000220: 6ef0 86be 60f8 2abe c5b4 b23d 5fb4 dbbd
00000230: fdb2 c13c d4dd cbbe ea08 a1be 911c 523b
00000240: 8db7 35be 1e3e 5abe 6f27 783d 4c2c 9a3d
00000250: 60c1 9bbd 6bc8 483e 6871 10bc 6f16 283e
00000260: 899f 5f3e 9c88 7abc 1c00 0abe f236 1f3e
00000270: 43ba 55be 5133 99be 849d a13d 211d de3d
00000280: d7c1 bdbd 5abe 49bd 7619 4d3e 3af1 463d
00000290: 97df 693e 4bb0 613d b8e9 c9bd cabe 5f3e
000002a0: 8889 d3bc 7223 84be a049 74bd ee7d febd
000002b0: 4249 533e e372 973d 2ef5 8a3e ccd9 eebd
000002c0: 9a96 fc3d 795c edbd 4e63 2cbe af59 3ebe
000002d0: 75d3 453d ab3b 203e a783 fbbd 395e ff3c
000002e0: 13b2 913c 6525 7cbe 7853 f13d 80ba cbbd
000002f0: c8aa 80be a21e 1a3d c9e8 c43c cde4 953d
00000300: 0c49 4f3e f1e2 e0bd b5fb 663d 9fbc 233d
00000310: 85d3 0bbd 1395 623e bb50 343e 1d7a cbbe
00000320: b3a3 78be 078c 993d 36c3 38be 6664 02be
00000330: c60f 24be b672 4d3d f5fe b33e 2817 453e
00000340: 6ce5 e7bd 44a0 ddbd 9ef5 9a3e 5d2d 1b3e
00000350: 8a13 6bbe 63b0 b63d 5f09 363e 9b7d 2f3d
00000360: 3af2 c43b 320a c6bd 64cb 80be 49f7 ea3c
00000370: 8b1b c93d a93b 47be ea7f a4bd 9b02 86be
00000380: fb79 b4be 90bd 7fbd 37aa dabb 1eaa 1c3e
00000390: 4104 e7bd 75c0 0ebe d35d 4f3e 5987 83be
000003a0: b019 05be a804 613e 8e1a ccbd bc39 7bbe
000003b0: 633b f5bd 95c5 c4bc de27 2bbe 8987 12be
000003c0: 895e 8f3e 5a99 9b3d 8f5b 2f3e bc68 8b3c
000003d0: ce69 f93d a828 b33d 2500 fabd a898 a0bc
000003e0: 4424 473e e2c6 c43d 199f 87bc e299 7dbe
000003f0: bdbf 7fbe e0cc 15be 45b6 b3bc 5c62 78be
0.41241807 -0.07159868 0.10939215 0.30220777 -0.024343085 0.40845102 0.2854201 0.10813001
0.13487564 -0.060283475 0.07384145 0.021803861 -0.0080477055 0.05188499 -0.0055659083 0.24771632
0.03945384 0.13090287 0.18922457 -0.120532654 -0.03195008 0.062593095 -0.036329854 -0.11562595
-0.041924965 -0.20481203 0.07243567 0.053893022 -0.034513652 -0.14464848 -0.095911756 -0.02132182
-0.2619686 -0.14698698 -0.045482963 0.014005644 -0.059377365 -0.1673906 0.33580363 0.011725954
0.12972237 -0.036560755 -0.13001841 0.09977901 -0.07685976 0.12578504 -0.15801676 0.28542486
-0.12137982 0.13608152 0.118708804 -0.08263618 -0.12241112 0.2289601 0.2909231 0.10049144
0.06237964 -0.032985423 0.103665546 0.05672357 -0.13467893 -0.053785354 0.12496328 0.0757919
0.2699208 -0.1803625 0.23799413 0.23144826 -0.047565248 -0.15583698 -0.13876782 -0.15368709
-0.27736884 -0.08698138 -0.1333421 -0.103689834 0.0033244079 0.15688038 -0.053663358 0.009896315
0.30713835 -0.010626886 -0.1114614 -0.3765608 0.065341786 -0.043867655 0.04361919 0.1506306
0.06610918 -0.074502476 -0.13715422 -0.2116149 -0.14035614 -0.042413294 0.20158298 0.34049812
-0.26231694 -0.27047142 0.12863159 -0.28213578 -0.23554377 -0.0326927 -0.3100577 -0.1348053
0.06266786 -0.29294613 -0.14503536 0.0998182 -0.28839684 -0.030471822 -0.13053656 -0.0707187
0.13355853 -0.11823396 0.057792924 -0.37188512 -0.050136 0.020707741 0.20058255 0.25305092
0.16060719 0.07775134 -0.030711167 0.22689347 0.0656917 0.015120587 -0.14397115 -0.22125003
0.047775928 0.02611478 0.10616319 -0.047161918 -0.043021265 -0.05062518 0.16253957 0.020385813
-0.26355308 -0.1669631 0.08725885 -0.107277624 0.023644919 -0.3981768 -0.31452113 0.0032060484
-0.177458 -0.21312758 0.06058448 0.0752798 -0.07605243 0.19607703 -0.008816101 0.16414808
0.21838202 -0.015291359 -0.13476604 0.15548304 -0.20871834 -0.29921964 0.07891372 0.108454
-0.09265488 -0.0492538 0.20029244 0.048569895 0.22839199 0.055099767 -0.098590314 0.21850124
-0.025822416 -0.25808293 -0.059640527 -0.12426363 0.20633414 0.0739496 0.27140182 -0.11662635
0.123334125 -0.115899034 -0.16834757 -0.18588899 0.048297364 0.15647762 -0.1228097 0.031172859
0.017785108 -0.2462364 0.117834985 -0.099476814 -0.25130296 0.03762687 0.024036782 0.07319031
0.20242709 -0.10980786 0.05639239 0.039974805 -0.034137268 0.2212718 0.17608921 -0.39741603
-0.24281196 0.07497411 -0.18043217 -0.12733611 -0.16021642 0.050158225 0.35155454 0.19247115
-0.113230556 -0.10821584 0.30265516 0.15154023 -0.22956672 0.08920362 0.17777012 0.042844396
0.006010321 -0.09669913 -0.25155175 0.028682368 0.098197065 -0.19456352 -0.0803221 -0.26173863
-0.35249314 -0.06243664 -0.006673123 0.1529927 -0.11280108 -0.13940604 0.20250635 -0.256892
-0.1299808 0.21974432 -0.099660024 -0.24533743 -0.11974218 -0.024019996 -0.16714427 -0.14309515
0.28001812 0.07597609 0.1712477 0.017017715 0.12178384 0.08747989 -0.12207059 -0.019604042
0.19447428 0.096082464 -0.016555356 -0.24765733 -0.24975486 -0.14628935 -0.021937499 -0.24256271

block2.0.conv.bias f4 [8]
00000000: 11ba 0bbd aa61 523d 65e1 14bd d5e6 2ebd
00000010: db3f 103e f607 d33d 7b6f 173e 468c 753e
-0.034112994 0.05136267 -0.036347765 -0.042700607 0.14086859 0.10304253 0.1478862 0.23979291

block2.0.BN.weight f4 [8]
00000000: b795 633f 89c4 803f da26 7f3f 7a67 953f
00000010: b58c 853f 0bf9 8e3f 718f 803f edd2 673f
0.8890032 1.0059978 0.9966866 1.1672204 1.0433565 1.1169752 1.0043775 0.9055622

block2.0.BN.bias f4 [8]
00000000: ab36 c6be b3af 9ebc 8dfa 773d e0ad b9bd
00000010: a33e 093d 3048 bf3c 1479 c7bd 6669 60be
-0.38713583 -0.01937089 0.06054168 -0.09066367 0.033507 0.023349851 -0.09739891 -0.21915206

block2.0.BN.running_mean f4 [8]
00000000: c561 e83e fda8 023f 10b8 59bf efcf d9be
00000010: 267d ff3d 11c0 753e 8aad bcbe c25d c3be
0.45387092 0.51039106 -0.8504648 -0.42541453 0.12475042 0.23999049 -0.3685115 -0.3815747

block2.0.BN.running_var f4 [8]
00000000: 9804 803f 6bcd 073f b4ad b53f 0fd0 053f
00000010: 7552 aa3e d811 053f b342 3d3f a413 2e3f
1.0001402 0.5304782 1.4193635 0.522706 0.33266035 0.5198035 0.739299 0.6799872

block2.1.conv.weight f4 [16, 8, 3, 3]
00000000: 0376 44bc 14f9 a43d 6073 1f3d 7c80 0ebe
00000010: dbbd 4a3e c34c 723e 2ad5 f0bd 437c 083e
00000020: 350b 263e 1a19 f13d eeb5 f93d ad92 303e
00000030: 3661 fc3d 6f14 97bd 910d 0a3e 6ef5 7dbd
00000040: a6d0 cd3c 6ee9 7f3e 0b2b 69be 887d 973c
00000050: 6fba 1e3c 29a8 30be bbf4 173e 3694 bb3d
00000060: 6459 19be 7ed9 07be 580c 2a3b 1095 7f3e
00000070: 7b20 7d3e e974 a23d d79d 3b3e 03c5 4a3d
00000080: 9f19 7b3d 2bac 2abc be78 aebc 4208 fbbc
00000090: 47a2 cf3c 39ec 5e3e 5459 2d3c 4552 133d
000000a0: 0b08 1b3e 89ec 28be e6c2 12bd ccd7 1e3e
000000b0: 8a63 a23d f744 89be 33ab 8e3e 5c66 093e
000000c0: fb3a 88be c739 693a 937b f1bb 0a7a edbe
000000d0: e687 00be 0537 423e ed6f 8d3e e931 5cbc
000000e0: 15f1 2b3e efbb 87bb d209 2dbe 42c5 f9bd
000000f0: 4ed5 393e 9013 10be 3495 d1bd a74b 2fbd
00000100: e57e a23b f5e7 163e 8e69 a0bb 3c97 9cbd
00000110: 624c 05be 015e 34bd 47cf 06be 15bb 17be
00000120: d8e5 ab39 da64 c5be 2684 97be 5d33 5dbc
00000130: 50f1 83be 284e 1abe 7e7a d6bd a12c 16be
00000140: 3467 81be fbbb 3cbe 8a1a 10be 8daa 71be
00000150: 5733 fcbd 7c80 e5bd 1b18 c6bb 38db 85bd
00000160: 93d9 b3ba 5cb5 103c 4902 3d3c 2eb0 333e
00000170: 07d7 c1bc 9915 6fbe 680e edbd 5458 5fbc
00000180: 71f8 3fbe cbd0 3fbd 2150 5d3d d647 b83d
00000190: 3edb 4b3e d1d2 1b3e 6868 d53d d2a4 323d
000001a0: 759d 203e 04d2 c3bd c48c 933e 35e4 543e
000001b0: c2d5 e73d d087 19be d852 5ebd e4bf c33d
000001c0: 481a a5ba b380 a3bc f75e dabd 6188 6abe
000001d0: 96df 80bd 300d 62bc 3f76 a4bd 89d6 c5bc
000001e0: 99d2 14bd c7af a03c ec8e 093e e371 1abe
000001f0: bfc5 07be da5f 933d 1747 8d3d 5446 fbbc
00000200: cebb bdbe c1b1 4e3e 3602 35be 4004 31be
00000210: 867a 833e 8676 223e 3893 e43d 6716 ff3d
00000220: 2dc4 303e 4581 7f3e bdef 003e d539 383e
00000230: 5569 383e 78ae cabd 2aba 58be 74dc 92bd
00000240: 2771 023e e6ac 983c 9c67 3abe ae82 8d3e
00000250: ca96 093d 3cf1 00be a36b 483d 74a5 113e
00000260: 0efe 393c 7fbe c3bd 4aa6 e13d e84b 753e
00000270: ff87 01bc 5ad1 18bb 2e46 f6bc 97c0 69be
00000280: b316 54be 4506 80be b78f 51be 4344 92bd
00000290: ca56 31be d691 0cbe 36e4 01bc 0999 de3d
000002a0: f769 f8bd 3d4d 81bd d50c b63e b36d b4bc
000002b0: d4f2 c63d 43a9 d8bd 2a56 a3bb 1f72 fe3d
000002c0: 06f3 b33d 51e8 8dbe c7c3 b13c 45f4 803d
000002d0: c083 143e fba7 f2bd 1130 4ebd bf2e febd
000002e0: f2c6 1c3e cb31 453c 305b b0be cfb6 1e3c
000002f0: bf5c 13bc 0f7f 1abe ad73 25be 617d 2a3e
00000300: e8f3 45be b6c5 f4bd a6db 323d 7b24 af3e
00000310: bcc5 833c 6283 56bc 6150 193e 547b 093e
00000320: 33c1 803c 77d5 d33c a358 333e 85dc 283e
00000330: 4089 29be 569f c0bc 0a7a afbd 12d2 b23e
00000340: 0bb6 4c3e ba30 1a3d 28bc 263e 346b c3ba
00000350: aa97 d23d 88ba 67bd 47bf d2bd ec1a bb3d
00000360: 5a2a 48bc a199 6cbe 2959 74bb 0125 1d3d
00000370: 91ee 86be feb5 eb3c 3112 183e a753 66be
00000380: bf3a afbd ee11 31bc 7ccf c13c 5585 403e
00000390: 8f7c 18bd 211f 243a fa0d 35be 008e b6bd
000003a0: 9092 3d3d c9e0 383e 4333 093d 58e8 4abe
000003b0: 08d1 35be 848b 833d e112 45bd 6c97 4b3c
000003c0: 30b4 62be abb4 a1bd 971b 60bd 586f 273d
000003d0: cea5 503e 966d 033e 4f3a 6bbc 478d 2fbe
000003e0: cc11 8d3d 2fe3 2fbe 02c6 963c ff9c a83e
000003f0: 77ea ba3a f542 703d 92c1 5a3e b50b 08bd
-0.011991027 0.080553204 0.03892839 -0.139162 0.19798987 0.23662095 -0.11759408 0.13328652
0.16215213 0.11772366 0.121929035 0.17243452 0.12323229 -0.07376944 0.13481738 -0.062001638
0.025123905 0.2499139 -0.22770326 0.018492475 0.009688004 -0.17251648 0.14839451 0.09159128
-0.14975506 -0.1326656 0.00259473 0.24959207 0.24719422 0.07932455 0.1832193 0.04950429
0.06130373 -0.010417025 -0.021297809 -0.030643586 0.025345935 0.217698 0.0105803795 0.03596713
0.15139787 -0.16496481 -0.0358304 0.15512007 0.07929142 -0.26810429 0.2786499 0.13417953
-0.266075 0.0008896854 -0.0073694675 -0.4638217 -0.12551841 0.18966301 0.27624455 -0.013439634
0.16791184 -0.0041422765 -0.16898277 -0.12195827 0.18147776 -0.14069963 -0.10233536 -0.042796757
0.0049589747 0.14736922 -0.0048953956 -0.07646033 -0.13017419 -0.04403496 -0.13165008 -0.1481746
0.0003278691 -0.38553506 -0.2959301 -0.0135010155 -0.25770044 -0.15068877 -0.10472582 -0.14665462
-0.2527405 -0.18431084 -0.14072624 -0.23600216 -0.1231448 -0.11206147 -0.006045354 -0.06535953
-0.0013721458 0.008832302 0.011536189 0.17547676 -0.023662103 -0.23348083 -0.115750134 -0.013631899
-0.18747117 -0.04682998 0.054031495 0.089980766 0.19907853 0.15217139 0.104203045 0.043614216
0.15685065 -0.09561542 0.28818333 0.20790179 0.11320068 -0.14993215 -0.054278225 0.095580846
-0.0012596333 -0.01995883 -0.10662644 -0.22903587 -0.06292646 -0.013797089 -0.08030366 -0.02415015
-0.036333654 0.019615067 0.13433427 -0.15082507 -0.13259028 0.071960166 0.06898325 -0.030673184
-0.37057346 0.20184995 -0.17676625 -0.17286777 0.25679415 0.15865526 0.11160892 0.12455445
0.17262335 0.24951656 0.12591453 0.17990811 0.18008931 -0.098965585 -0.21164766 -0.07170954
0.12738477 0.018637132 -0.18203586 0.27638763 0.03359107 -0.12592024 0.048930775 0.14223272
0.011352075 -0.095578186 0.11018045 0.23954737 -0.007905959 -0.0023318143 -0.030062761 -0.22827373
-0.20711784 -0.25004783 -0.20464979 -0.07141926 -0.17318264 -0.13727507 -0.007927945 0.10869033
-0.12129586 -0.0631356 0.35556665 -0.022024965 0.097142845 -0.10579159 -0.004984637 0.124241106
0.087865874 -0.27716306 0.0216998 0.06296591 0.14503384 -0.11848446 -0.05033881 -0.1241126
0.15310267 0.012035797 -0.3444457 0.00968714 -0.00899428 -0.15087532 -0.16157408 0.16649391
-0.19331324 -0.11951773 0.043666504 0.3420752 0.016085498 -0.013092848 0.14972068 0.13425952
0.015717125 0.025858624 0.17514281 0.16490372 -0.16556263 -0.023513477 -0.08568199 0.34925896
0.19991319 0.037644126 0.16282713 -0.0014909268 0.10282834 -0.056574374 -0.102903895 0.09135994
-0.012217129 -0.2310548 -0.003728459 0.038365368 -0.26353887 0.028773304 0.1485069 -0.22492848
-0.08556127 -0.010807497 0.023658507 0.18800862 -0.037228163 0.0006260742 -0.17681113 -0.08913803
0.04628235 0.18054499 0.033496153 -0.19815195 -0.1775552 0.06423095 -0.048113707 0.0124262385
-0.22139049 -0.07895788 -0.05471381 0.04087767 0.2037575 0.12834772 -0.014357164 -0.17143737
0.0688816 -0.17176507 0.018404964 0.3293228 0.001426055 0.058657605 0.21362904 -0.03321429

block2.1.conv.bias f4 [16]
00000000: 16cb bf3d e7f9 df3c ea30 02bc 7ffb d7bd
00000010: 1946 833d 907d b5bd c79f a1bd 6a59 00bc
00000020: 887e 83bc f466 2f3e 94ea b1bd 2f40 12bd
00000030: 8160 163e 056a 933c 20a5 143e fde0 ac3d
0.093649074 0.027340842 -0.007946232 -0.10546016 0.064098544 -0.0886184 -0.07891803 -0.007833818
-0.016051546 0.17129117 -0.0868732 -0.03570574 0.14685251 0.01799489 0.14516115 0.084413506

block2.1.BN.weight f4 [16]
00000000: 5a9d 773f 3ae3 6d3f 5037 8a3f 9b6a 793f
00000010: bba0 6f3f a31d 703f d760 7c3f 45e2 8f3f
00000020: 311c 803f 8f28 8a3f fa0b 623f 3a15 903f
00000030: 17ae 823f 1da7 7d3f fb14 863f 3298 403f
0.96724474 0.92924845 1.079813 0.9742829 0.9360463 0.9379522 0.98585266 1.1240927
1.0008603 1.0793628 0.88299525 1.1256478 1.0209378 0.9908312 1.0475153 0.7523223

block2.1.BN.bias f4 [16]
00000000: bea3 82bc 2224 063d c1e1 a6bd 651a 13be
00000010: 8716 58bd 2155 02be 974e 04bd 2f29 b8be
00000020: 00d4 e9bd 5d13 74be 40ed 39bd bdd3 51bd
00000030: 7c60 bdbd 036f c3bd 5159 6dbe 272e 3ebe
-0.015947219 0.032749303 -0.08148528 -0.14365537 -0.05275586 -0.12727787 -0.03230151 -0.3596892
-0.11417389 -0.23835512 -0.045392275 -0.05122732 -0.092469186 -0.09542658 -0.23178603 -0.18572293

block2.1.BN.running_mean f4 [16]
00000000: e356 053f 9ac0 debe 0e57 d9bd 3be1 06bf
00000010: b41e b73e 6204 02bf 0415 54bf 3cce 203f
00000020: a5d5 febf 477c 983f ae92 c7be a72d 73bf
00000030: 7027 82be e8c3 8cbe a8b6 48be 249e d53d
0.52085704 -0.43506318 -0.106123075 -0.52687424 0.35765612 -0.5078794 -0.8284457 0.6281469
-1.9908949 1.1912926 -0.38979095 -0.94991535 -0.25420713 -0.27493215 -0.19600928 0.104305536

block2.1.BN.running_var f4 [16]
00000000: b36b 893f e444 c53f 8196 433f aa4b 2a3f
00000010: 20ee 313f 3272 193f 95f9 383f 7116 1d3f
00000020: f811 993f ec74 0b3f 374f 1f3f e565 c03f
00000030: f14b 603f d9b1 133f e8d8 293f 613f de3f
1.0735992 1.5411649 0.76401526 0.66521704 0.69503975 0.59939873 0.7225583 0.6136237
1.1958609 0.54475284 0.6223025 1.5031096 0.8761588 0.5769325 0.663466 1.7363092
