result/model/0514 1104.pt (torch, 79197 bytes, 98 tensors)

input_conv.conv.weight f4 [4, 1, 3, 3]
00000000: 07c5 bd3e 675d 083d 228a eabd 15ed ed3d
00000010: d762 9e3e a537 ad3e ecea 86be 8440 87be
00000020: fc4d 2dbe e57a 1c3d 442a 363e 8aa9 1c3e
00000030: c52a 0fbe 9993 6ebe 194d 39be 7c27 753e
00000040: 5889 fa3e 1b46 a63e faf3 643e a58a dd3c
00000050: b30a 23be 00d4 2b3e 3012 233d 451c 53be
00000060: 9b3f d43e a295 31bd 5168 dabd 6359 6a3e
00000070: b8ec 803d 8580 86bd 0d2a 80be 2d48 88be
00000080: 47f8 5a3d 5375 52be 5a16 a8be 6029 12bf
0.37064382 0.0332922 -0.11452128 0.116174854 0.30934784 0.33831516 -0.26351106 -0.2641641
-0.1692428 0.03820314 0.1778956 0.15299049 -0.13981159 -0.23298492 -0.18095817 0.23940843
0.4893291 0.3247536 0.22358695 0.02704365 -0.1592205 0.1678009 0.039812267 -0.20616253
0.41454777 -0.04335559 -0.10664428 0.22885661 0.062951505 -0.06567482 -0.25032082 -0.26617566
0.053459432 -0.20552568 -0.32829553 -0.57094383

input_conv.conv.bias f4 [4]
00000000: cf7d 61be 60a7 b5bd 3b22 653d 9072 2abe
-0.22020648 -0.08869815 0.055940848 -0.16645265

input_conv.BN.weight f4 [4]
00000000: 1e96 8a3f 5d99 853f d505 653f 9d70 773f
1.0827062 1.0437428 0.89462024 0.9665621

input_conv.BN.bias f4 [4]
00000000: c21b a03e 2534 9abd 85ff 693e f1f1 34be
0.31271178 -0.07529477 0.22851379 -0.17670418

input_conv.BN.running_mean f4 [4]
00000000: 448c 56be 8545 bdbd 2bf3 5e3d de4f 1ebe
-0.20951945 -0.092417754 0.05443112 -0.15460154

input_conv.BN.running_var f4 [4]
00000000: 31f7 2c3e f767 343f e0e1 343e 5a03 d63f
0.16891171 0.7047114 0.1766429 1.6719773

block1.0.conv.weight f4 [8, 4, 3, 3]
00000000: 8bc4 37bb 43c7 423e 246d a83d 3797 b33c
00000010: 8806 1f3e 97ff 9e3d 292a d1be 2a75 1fbe
00000020: dec7 a0be 3b0c 923e 7a9a cf3e 803b de3c
00000030: 8d87 78bb cfe9 f2bd 25af e93c 48f4 79be
00000040: af10 04bd a6e6 9d3d d4b2 663b fe86 a5bb
00000050: fee2 23bc f46d 2ebe d2a6 db3c 322e db3d
00000060: 739a 0bbe 3afe 9cbe 7199 c53d 1bfc 24bd
00000070: b43f f6bd caa5 043e 21b9 2a3e 84f5 bb3d
00000080: 367b 723d 2f07 5c3c d289 553d 7d00 8abe
00000090: 26ed aabd 5d6a 98be 2292 29be 2a14 b8be
000000a0: 4620 95be 7c34 70bd 3b53 c0bd e201 2c3e
000000b0: 333e 673d 1d0d 5cbd bb5a 1b3e 1f50 5c3e
000000c0: 82fa 5bbd 4fbe 533e 5f5e 333d 4783 cf3e
000000d0: 5564 973e 9125 8a3d 80c9 69bd cf35 3fbe
000000e0: f007 663d 5a13 a43d 5992 723d 14ff 283d
000000f0: 9445 f23d d355 523e b666 c93d c874 2bbe
00000100: f43e 3bbe a69f a3bd bdfb 05be bead 54be
00000110: 5425 22bd 3b51 32bd 4a19 f03c d076 903e
00000120: 3e89 1f3d b729 c8bd a02a 9cbe 1214 1f3e
00000130: e2e1 f0bd 6677 8e3d 93ce c33e 2481 b23e
00000140: c376 6d3e fc5e 353e 1abb c1bd 8a9b 8cbe
00000150: cb29 d23e 2dad d3bc de6a d9bd 7915 a83d
00000160: 1b6b 0dbe 0c69 1fbe c567 443e dc05 c63d
00000170: 4dde 36bb afd6 de3d 3e77 a23c fbc1 0f3d
00000180: c9fb 28bd 9fbb 00be e0a4 633c 3409 43bc
00000190: 93c9 03be 894a 99bd 4e08 013e 63d7 003e
000001a0: 61b9 f43b c5da af3d 38f5 49be a123 c23c
000001b0: b950 273e cbb4 e4bc a5df 343e 0fdd c3bd
000001c0: baef cd3d 802c dfbd 7dfd 883e d3c9 493e
000001d0: aa26 86be 55db 623e 918a 8f3e 8aa3 be3d
000001e0: 5bac 793e 928a f4bd d593 45be 7bd2 883e
000001f0: ee75 c73d b69b 93bd 799c 9cbe f4d1 6abc
00000200: de84 823d 7350 26be 544a 94bc ea9b e7bd
00000210: 8d3d e33b cd2e b93d cb3e 75be 8d0a 48be
00000220: fb42 e8bd d454 2bbe c2a8 19be 5cd7 723d
00000230: 91ba f33d d1b0 8bbd 0c2a 1e3e c791 1f3e
00000240: aebb 2fbe dc4e d8bd ccee 44bd 586a 023e
00000250: 4d7d db3b a517 833e aa18 18be 4fdf 383b
00000260: cda8 1c3e 0b0c 8abd 9884 f43d cd91 3ebc
00000270: fdd7 aebd 2e82 513e 6dc3 9b3e 68a8 923b
00000280: e036 413e 2daf c53d fa85 b1be c739 a7be
00000290: 4255 86be d6b0 68be a253 bdbd 52c1 87bd
000002a0: f1ae 85be 717e 8d3d ed38 0c3d 402b b23d
000002b0: cb77 99bd bec4 be3c 13a2 d83c 936a cf3b
000002c0: 9f04 0a3c b054 21be 6218 82be ed9e 84be
000002d0: a0df 2c3e ef23 5b3e 5022 debd 48bc 99be
000002e0: 2330 f93d 17a3 743d 8053 4abe 0a2e 02be
000002f0: e6de 313e ba7f aa3c b574 5e3e 077f a13d
00000300: f167 46be 0ec2 f1bd 2bf0 f5bd 20b1 a3be
00000310: 1b26 2a3d c3a4 243e 0304 c83d 138f 8f3e
00000320: cf29 fe3d 631f 50be 9294 4abe 401e f4bd
00000330: 88e8 3bbe d74d a33c 1c3c d0bd bccc 213e
00000340: 1173 3dbe 8303 73be ba20 373e 7b7a 02be
00000350: f55a 9fbc 15b5 623e 15c0 4b3e 050b 91bd
00000360: ecea 7b3e 9203 233e 16a1 bf3d f0de b13e
00000370: 9c3e 93bd bd34 65be a58e 173d d11b 213e
00000380: 2ec7 a63b bc45 c63b 6a51 8abe 415a 9cbe
00000390: d918 853d 0d83 2cbe 0882 373e 9f98 93bd
000003a0: 9afb 603d 6006 423c 7783 423e 4c01 1ebe
000003b0: be15 9ebe 055c f43c 1259 25be 1ac2 e8bd
000003c0: 1149 ac3d 81b8 fd3c 6d74 95be 6395 1c3e
000003d0: 0d4d 2a3e 8660 c13e 147a 79bd 3781 143e
000003e0: 28d1 8a3d 3fda 0ebd e7dc 8ebd e208 943d
000003f0: 910a 93be c188 83be d4e7 10bf 0385 473e
-0.0028040733 0.19021325 0.08223942 0.02192269 0.15529835 0.07763594 -0.40852478 -0.15572038
-0.31402487 0.28524956 0.40547544 0.027127981 -0.0037922591 -0.11861002 0.028525898 -0.24409592
-0.032242473 0.07710008 0.0035201805 -0.0050514927 -0.01000285 -0.17034131 0.026812945 0.107021704
-0.13633136 -0.3066271 0.09648407 -0.04027949 -0.12023869 0.12953869 0.16672184 0.09177688
0.059199534 0.013429447 0.05213339 -0.26953498 -0.08346014 -0.2976865 -0.16559651 -0.35952884
-0.29126185 -0.058643803 -0.09390875 0.16797593 0.056455802 -0.053723443 0.1517133 0.21514939
-0.0537057 0.20678066 0.04379117 0.40529844 0.29568735 0.067454465 -0.05707693 -0.1867287
0.056159914 0.080115035 0.0592216 0.041258886 0.11829677 0.20540552 0.09834044 -0.16743767
-0.18285733 -0.07989435 -0.13084312 -0.20769402 -0.03958638 -0.0435345 0.029308934 0.28215647
0.038949244 -0.097735815 -0.3050127 0.15535 -0.11761834 0.06956367 0.3824354 0.3486415
0.23189835 0.17712015 -0.09459515 -0.27462417 0.4104751 -0.025839413 -0.106160864 0.082072206
-0.13810389 -0.15567416 0.1918021 0.09669086 -0.0027903498 0.108807914 0.01983225 0.035097104
-0.041255746 -0.12571572 0.01389429 -0.01190405 -0.12869863 -0.074849196 0.12600824 0.12582164
0.007468388 0.08586649 -0.1972245 0.02369863 0.16339387 -0.02791824 0.17663439 -0.09563648
0.1005549 -0.108971596 0.26755896 0.19705896 -0.26201373 0.22153981 0.28035405 0.09308536
0.24382155 -0.11940493 -0.19294675 0.26723084 0.0973929 -0.07207434 -0.3058813 -0.014332283
0.06372999 -0.16241626 -0.018101849 -0.11309035 0.0069348277 0.0904213 -0.23949735 -0.19535275
-0.113409005 -0.16731578 -0.15005782 0.059287414 0.11900819 -0.068208344 0.15445727 0.15582953
-0.17161438 -0.10561916 -0.048079297 0.1273588 0.0066982866 0.25603977 -0.14853159 0.0028209274
0.15298767 -0.06740578 0.11939353 -0.011631441 -0.0853729 0.20459816 0.30422536 0.004475642
0.1886859 0.09652553 -0.34672529 -0.32661268 -0.26236922 -0.22723708 -0.09244467 -0.0662867
-0.26110032 0.069088824 0.034233976 0.086996555 -0.07493552 0.023287173 0.02644447 0.0063298433
0.008423953 -0.15754962 -0.25409228 -0.259025 0.16882181 0.21400426 -0.10846388 -0.3002646
0.121673845 0.059725847 -0.19758415 -0.12712875 0.17370185 0.020812858 0.21724208 0.07885557
-0.19375588 -0.11804591 -0.12008699 -0.31971073 0.041540246 0.16078477 0.0976639 0.28038844
0.12410318 -0.20324473 -0.19783238 -0.11919832 -0.18350422 0.019934578 -0.10167715 0.15800756
-0.18500926 -0.23731808 0.17883578 -0.12742035 -0.019452551 0.2213939 0.19897492 -0.0708218
0.24601334 0.1591933 0.093568966 0.347404 -0.07189676 -0.223834 0.03700127 0.15733267
0.005089662 0.0060507935 -0.2701524 -0.30537608 0.0649888 -0.16846867 0.17920697 -0.072068445
0.054927446 0.01184234 0.18995462 -0.15430182 -0.30875963 0.029829035 -0.16147259 -0.11365147
0.08412374 0.030971767 -0.29190388 0.15291362 0.16630955 0.37768954 -0.06090744 0.14502417
0.06778175 -0.034876104 -0.069757275 0.07228257 -0.28719 -0.25690272 -0.5660374 0.19484334

block1.0.conv.bias f4 [8]
00000000: e1e7 963e e12f d13d 62c8 0bbe 203d 51bd
00000010: 7f32 15be 56a1 eebd 5965 f4bd c937 33be
0.29473785 0.1021421 -0.13650659 -0.051083684 -0.14570044 -0.11651866 -0.11933393 -0.17501749

block1.0.BN.weight f4 [8]
00000000: 751d 613f f922 8e3f bde4 5f3f cebf 6a3f
00000010: d443 903f 5745 8a3f d91e 7b3f 24b6 853f
0.8793557 1.1104423 0.874584 0.9169892 1.12707 1.0802411 0.98093945 1.044621

block1.0.BN.bias f4 [8]
00000000: ff5f 883d e2c8 6b3b 6171 6fbe 3781 ec3d
00000010: 898b 973e d036 023f cfc3 e23d a013 e73d
0.06658935 0.003597789 -0.23383094 0.11548083 0.29598644 0.5086489 0.11072504 0.1128304

block1.0.BN.running_mean f4 [8]
00000000: a224 433d f73d 42be 05f6 133f 3b1f 0b3e
00000010: ca90 6fbf 68da a7be 9c8b 393d 9c36 09c0
0.047642358 -0.1896895 0.5779727 0.13586132 -0.93580306 -0.32783818 0.045299158 -2.143958

block1.0.BN.running_var f4 [8]
00000000: 130c f03e 694e 173f 86bc 553f c3a9 d63e
00000010: 426f 1b3f d162 e33e 4935 0e3f 5c00 df3f
0.46884212 0.5910402 0.8349079 0.41926393 0.6071664 0.44411328 0.55550057 1.7421985

block1.1.conv.weight f4 [16, 8, 3, 3]
00000000: 1d87 52be ec25 b13d dbcc ff3d 5bc0 8cbd
00000010: 2509 37bd 5143 7bbd 94e1 973a edf4 24bd
00000020: 8fe0 c5bd fa44 8e3e 51d4 dc3d 3ae7 233e
00000030: 4300 fc3d cf41 bd3c dcdf ad3c 8e5d 78bd
00000040: d3ae 21be 83f0 023d 30a1 c23d 5851 863d
00000050: 2009 dabd 30e7 3c3e d08b d13c 1fe8 c1bd
00000060: d5a3 b6bd 44ef 063d c2fa c2bd 778a 9ebc
00000070: c22c 323e 33df 723e d716 8ebd 45e5 723d
00000080: df65 f4bd a505 9c3d 1171 ce3c d7b9 8dbd
00000090: a7f9 efbd 9040 e6be 79de f4be 3769 8abd
000000a0: 8109 29be ebfe 44bd ed22 afbd b685 9fbd
000000b0: 3b83 203e eae1 33bf b79f 103d 2b4b 7fbb
000000c0: 8544 93be bac3 2d3c 4174 ccbd 46c3 bcbe
000000d0: 2799 5ebd 449e f33d ca0e 513d 5743 84bd
000000e0: 59b3 25be 8b2e 933e 3764 5a3e 3739 b23c
000000f0: 090c 1b3d 3ee2 113e 06b0 803d 300f 0b3e
00000100: 40bb 413e 43e0 163e 5ece 933d c7c8 8a3c
00000110: dd2d 233e cbb0 41be fa49 10be b438 c3bd
00000120: 521b 00be 7939 7ebc a882 3ebe f376 323e
00000130: d80c 473c 57b4 8c3b dfd7 023d 9f21 333e
00000140: 420b 5c3e 47d7 7ebe 246a 68bd 04a7 95be
00000150: ab84 a4bd 1a08 d53c e1d9 1bbe 42b7 5cbe
00000160: 7824 80bd 6c9e 73be a609 d83d beea 2f3e
00000170: 02e0 623e b176 a03d a5a6 083e 4abc 14be
00000180: b6bb 33bc 847f 543c 66bf 40be 422e 2a3e
00000190: 1706 313e dd7d 5d3e 6c50 aa3d 71af 673d
000001a0: 34e7 143e 4e3e f4bd 022f 423d e999 983b
000001b0: 660d d0be dd08 75be c8c6 d8bd 1ff9 3bbe
000001c0: 68f7 04be aa6b 17be 7d6a 8d3e 1224 c53d
000001d0: bd8f 273e 7842 2c3d eb99 503c 8812 463e
000001e0: 2f5d 973e 8f1f f93d 148e f5bd 34eb 5a3e
000001f0: 2956 07be 797d 2bbb b59c 31be bfca 163e
00000200: 5523 073e 92c7 89be 47f0 53be c504 b03d
00000210: 8d8e abbd e0a1 bbbd f75a 7d3e 28a2 c7bd
00000220: 0ff6 bb3d 494b 5c3e c21a a7be 3d0e 01be
00000230: c046 10be 7c50 babd 1c7b 85bd c16b dfb9
00000240: 2257 a33d f457 c53d a2ff 383d 4e7e 773c
00000250: 694b 553d 24cb ff3d 5700 30be 0fd8 94bd
00000260: f1b7 e43d 3304 503e 2348 ca3d 9aca e8bd
00000270: 41fe 5c3e 19ab 40bd 6deb 95bd 7372 4e3e
00000280: afba dfbd 172d a2be 6fe7 5f3b 279d c73d
00000290: 14cd 8abc f4f6 acbd befc babd 954c 993d
000002a0: 4252 c53d ee0c f7bb ce14 7cbc 072f d5bd
000002b0: 45a6 2b3e 78ea 103e 3260 0d3e a3f1 733d
000002c0: bf8c bfbd 2a55 b43e 127e a53c 8f0b dcbd
000002d0: d879 853e efbf 5dbd 6d1a 80be 9072 3d3e
000002e0: 4fae 04be af7c c5bd fac4 cabd f377 aabe
000002f0: aea7 c9be 98c6 b7ba 803c fc3d d29f 19bc
00000300: d10b fdbd ce3e 37be 73e1 aaba cbda 28be
00000310: 1e6e 26be ba24 923e 222c 12be 95d7 87be
00000320: 0d25 ab3d 8534 8bbe edb6 a3be 3f57 5dbd
00000330: eb99 92bc 4270 2f3e bbd9 e63d b8ec 6c3e
00000340: 4e59 4d3d e3d3 f03d 861e 6ebd 1f28 c1bd
00000350: 8fc8 9ebd 39fd 8dbc 451b 8bbe 57c0 dbbd
00000360: e2e1 fabd 344a 99be 3ac3 d13d 41fe b6bc
00000370: 082e 30be 0b22 60be b526 0b3e 7849 643e
00000380: 84d5 1d3e 24ce 7ebc 0a98 c9bb 32b8 22bd
00000390: db1d 393e c327 923e 434b a73e d71e 75be
000003a0: 0818 8cbe afef f9bc def3 15bd 0461 94bc
000003b0: b882 1ebd 29ba 7b3d eedd 643e 68a9 393e
000003c0: 676c e6bc f982 e2bc 03d2 593d 3e0a a8bd
000003d0: c88d 36bc b554 71be 6e57 9fbd e208 0a3c
000003e0: 5918 1ebe b902 aa3d 4ffc babd ca65 50bd
000003f0: 3938 14bd cc72 f13d ce50 aa3e ccf8 863d
-0.20559354 0.08649811 0.12490245 -0.068726264 -0.044686455 -0.061343495 0.0011587613 -0.040272642
-0.09661972 0.27787 0.10782684 0.16006175 0.123047374 0.023102669 0.021224909 -0.060636096
-0.15789346 0.03196765 0.095034 0.06558484 -0.10646272 0.18447566 0.025579363 -0.09468102
-0.08917967 0.032943025 -0.095204845 -0.019353135 0.17399886 0.23717956 -0.0693795 0.05930068
-0.11933493 0.07618264 0.025200399 -0.06920212 -0.11717539 -0.44971132 -0.47825983 -0.067583494
-0.16507532 -0.04809467 -0.085515834 -0.07789175 0.1567506 -0.7026659 0.035308566 -0.0038954716
-0.28763214 0.010605747 -0.09983111 -0.36867732 -0.054345276 0.11895421 0.051039495 -0.064581566
-0.16181697 0.28746447 0.21327291 0.021755798 0.037853274 0.14246461 0.06283574 0.13580012
0.18919086 0.14733987 0.07217096 0.016941441 0.15935464 -0.18915097 -0.1409072 -0.095323
-0.12510422 -0.015516632 -0.18604529 0.17428188 0.012149058 0.004293959 0.031944152 0.17493294
0.2148867 -0.2488681 -0.05674185 -0.29228985 -0.08033117 0.02600484 -0.15219833 -0.21554282
-0.06256956 -0.23790902 0.10548715 0.17179391 0.22155765 0.078351386 0.1334482 -0.14524952
-0.010970047 0.012969855 -0.18823013 0.16619208 0.1728748 0.21630044 0.083161205 0.0565638
0.14541322 -0.11925946 0.04740811 0.0046570194 -0.40635222 -0.23929162 -0.105847895 -0.18356751
-0.12985003 -0.14787164 0.27620307 0.096260205 0.16363426 0.042055577 0.012732009 0.19343007
0.2956328 0.121642224 -0.1198999 0.21378785 -0.13216461 -0.0026167317 -0.17344935 0.14725779
0.13197072 -0.26910073 -0.20697127 0.0859466 -0.08376799 -0.091617346 0.24741732 -0.09747726
0.09177791 0.21513094 -0.32637602 -0.12603088 -0.14089489 -0.090973824 -0.06517622 -0.00042614157
0.07975604 0.09635916 0.045165665 0.015105797 0.05207387 0.12489918 -0.1718763 -0.072677724
0.111678965 0.20314102 0.0987704 -0.11366768 0.21581365 -0.04703817 -0.073202945 0.20160846
-0.10924279 -0.31675026 0.0034165045 0.09746771 -0.016943492 -0.0844554 -0.09130238 0.0748531
0.0963483 -0.007539383 -0.01538582 -0.104093604 0.16762646 0.14151943 0.13806227 0.059556615
-0.09353017 0.35221225 0.020201717 -0.10744392 0.26069522 -0.05413812 -0.2502016 0.18500733
-0.12957118 -0.09642922 -0.099008515 -0.3329464 -0.39385742 -0.0014020978 0.12316227 -0.009376483
-0.123557694 -0.17895052 -0.001303716 -0.16489713 -0.16252944 0.28543645 -0.14274648 -0.26531664
0.08356676 -0.27188507 -0.319755 -0.054038282 -0.01789566 0.17132667 0.112719975 0.23137176
0.050133996 0.11759164 -0.05813458 -0.094314806 -0.07753097 -0.01733266 -0.27169243 -0.10730045
-0.12250115 -0.29939425 0.10242315 -0.022338035 -0.1720506 -0.21887986 0.13588984 0.22293651
0.15413481 -0.015552077 -0.0061521577 -0.039726444 0.18077795 0.2854596 0.32674608 -0.23937546
-0.27362084 -0.030509798 -0.036609523 -0.018112667 -0.038698882 0.061456833 0.22350284 0.1813103
-0.028127862 -0.027650343 0.0531788 -0.082050785 -0.011142202 -0.2356747 -0.07780348 0.008424969
-0.15438975 0.083013006 -0.09130155 -0.050878324 -0.03618643 0.11789474 0.33264774 0.06590423

block1.1.conv.bias f4 [16]
00000000: a2b6 81bd 90ef 6f3d b737 543e 0929 67bc
00000010: 9676 9fbe 51ec 4c3e 47a3 ef3d 5192 23be
00000020: 3872 d53c fac8 a3bd eabc f43d 601d 133c
00000030: 27c5 4e3d 7d28 bd3d 34ab 2abd db45 583e
-0.063336626 0.058578074 0.20724379 -0.014108905 -0.3114516 0.20012023 0.117010646 -0.15973784
0.02605544 -0.079973176 0.11950095 0.0089791715 0.050480988 0.09236238 -0.04166718 0.21120398

block1.1.BN.weight f4 [16]
00000000: 399e 813f b99d 7b3f fdf8 663f f3fe 4b3f
00000010: ad5b 8b3f 8e00 8b3f 4e55 6a3f 3e19 6f3f
00000020: 7a8b 8e3f 9eb4 973f ffe3 7a3f d0ed 7f3f
00000030: 14a7 873f 499b 893f 5dd1 773f 15cb 6a3f
1.0126411 0.9828754 0.90223676 0.79685897 1.0887352 1.0859544 0.91536415 0.9339789
1.1136315 1.1851995 0.98004144 0.9997225 1.0597863 1.0750514 0.9680384 0.9171613

block1.1.BN.bias f4 [16]
00000000: 8f90 f9bd 3615 eabd 4def 7ebd d861 febe
00000010: 18f3 f9bd 720e aabd 38a4 44be dda9 38bd
00000020: 1490 153e c502 573d 08c5 a5be a6f4 18be
00000030: 9e59 803c c818 71be f42f 68be 0bbd 95be
-0.121857755 -0.11429827 -0.062239934 -0.49684024 -0.122045696 -0.083035365 -0.1920327 -0.04508387
0.14605743 0.052492876 -0.32376885 -0.14937076 0.015667733 -0.2354461 -0.22674543 -0.2924579

block1.1.BN.running_mean f4 [16]
00000000: c2d7 8ebf fbdb 3dbe 86c5 eebe 89bf 053f
00000010: c019 9fbf 9b17 ec3d 03c6 bf3f 5568 0abf
00000020: aa50 cd3e 1e0c 0dc0 c6b1 89bf dfa9 2fbe
00000030: e968 d2be 93a5 b33e dba0 bb3e f20a 84bf
-1.1159594 -0.18540947 -0.46635073 0.52245384 -1.2429733 0.1152794 1.4982303 -0.5406545
0.40100604 -2.2038646 -1.0757377 -0.17154644 -0.41095665 0.3508726 0.3664616 -1.031584

block1.1.BN.running_var f4 [16]
00000000: fc94 f23f 9452 d83f 347e e43f 811f 833f
00000010: 6d5f d73f 967f 6a3f 50ad 7d3f 7f59 a53f
00000020: 2e04 f33f e5c1 e23f b487 b43f 2dfc 5c3f
00000030: 54bb c53f 94d7 7f3f a1a8 963f 5d40 7c3f
1.8951716 1.6900201 1.7851014 1.0243989 1.6825997 0.9160093 0.9909258 1.2917937
1.898565 1.7715422 1.4103913 0.8632229 1.5447793 0.9993832 1.1770211 0.9853571

block1.2.conv.weight f4 [8, 16, 3, 3]
00000000: c41a 943d 6673 153d c8c5 50bd 29a2 0f3e
00000010: e720 f13d b210 73bd d39f 73bc 6eb0 1cbd
00000020: a273 47be 5197 d7bd 591d 09be 2490 34bd
00000030: 1c5b 3d3e 7641 3d3e 0e02 943e 26b5 2dbe
00000040: 2ca2 babe 5c30 7ebe a3b5 36bd bc87 2dbe
00000050: 97da 85be 0654 4bbd b61a 273c 682f 8abe
00000060: 10a2 373b 39e6 b9bb 46d6 4ebd 8c1c 583c
00000070: 2624 3b3d 6b9c d53c 37d2 753b 72da 403d
00000080: bdf6 5f3e 4147 133e 2156 733e bdc5 303e
00000090: dda4 9abe cf36 9fbe c35e 863d a6c9 39bd
000000a0: b1c0 28be fa49 a63d c26a 4dbe 73c7 89be
000000b0: c557 75bd 7b96 acbc 83ab 56be b146 afbe
000000c0: 6cd5 193e 0605 ec3d cc82 ad3c 4a21 45bd
000000d0: 59a4 13be 2a30 1abe 05fd c5bd 22d0 02be
000000e0: 888c 18be e0e6 613d bd0e 483d 5b12 a23d
000000f0: fb54 25be 1ee4 06be f07d 26be 2d38 953e
00000100: db3f 993d 6c16 603d 0b8c 213e 5af1 d33d
00000110: df00 253e 66ef 53ba e589 f5bd 26d2 c4bd
00000120: 406b 89bd 9b02 833d a24f 013e 2fd1 ddbd
00000130: 0033 1e3d 016c 603d 3d38 1e3e f217 2f3e
00000140: 02be 463e a004 0c3e da71 d73d 6e0b 483e
00000150: a127 173e 2bf0 283d 1725 74bd 9b8e 693e
00000160: 0fd7 c13e 1307 403e 6525 a13d 36c2 243e
00000170: ca44 fa3d 499a 26be 37e3 6e3c a3d6 82bd
00000180: 706d 10bd c980 49bd 95d4 72bd 4909 9dbd
00000190: d12a c33d bd4c 433e 2e25 0a3d 6847 50be
000001a0: 3d8a 3ebe c393 123e 6bfd 67bd c2c7 c13d
000001b0: ba3a f33d 2860 0d3e e97e a43d e774 9fbd
000001c0: 0600 9fbd f659 49be 3bf7 0a3c d377 0d3d
000001d0: bd29 8bbc c313 353e 1309 933a ae1c 403e
000001e0: cf31 bcbe d84a a9be 7b3f cbbd 398d 253e
000001f0: 1c04 623e 931c 223e 46a9 833e 9e21 093e
00000200: 887f 0dbd 3fd2 163e e5c2 d23d 4abb 0a3e
00000210: 24d7 eebd 1092 52be c623 2abe 080f 01bb
00000220: 98d4 203d a6a3 343e 60bc 03bd e255 e8bc
00000230: 7458 d53d 9df6 93be e143 f0bd 97c5 66be
00000240: ec09 f6bc 7643 e33d a36c 81bd fafa 91bd
00000250: 98ea 6ebd 5c99 5fbe 2231 e9bd 6d68 d73d
00000260: 997a 183d 56d8 073e 0426 12bc 4b6c c13d
00000270: 493f 7dbe 1f61 80be b9d5 0bbe 49b4 663c
00000280: 10f4 9e3d adef 7a3e aeed 3a3e 29c1 113e
00000290: 244f cabd 0df0 233d deff 723d f7a2 7abd
000002a0: cd2e 833e ad4c db3d 144d 9f3c 7e3d 933d
000002b0: 684b d33b 9d8b 7bbd 00f6 2dbe a0f7 47be
000002c0: 642e 12be 83a8 0dbd 1c3e 08bc 3ef5 a63d
000002d0: 0486 e93d 12ec 5a3d 467a 8fbb a377 29be
000002e0: 903b b6bc b1db 80bd c2be c13d 7b60 553e
000002f0: 628a ccbd ab37 4abc eb5d a4bb fb80 a73d
00000300: 7119 3a3e e56f 3e3e 883e 263e 7be2 e0bc
00000310: 2d8d fbbd 374d 873d d5a4 c93d 2f55 5abd
00000320: 3d2a 633e b451 f4bd e176 83be b5fa 523e
00000330: 8ba2 e83b 97ba aabb e31c d63d 7a73 a63c
00000340: deef 89bc f578 ae3b 520c 363d 7e9a 60bd
00000350: 08a8 603d 526a 7d3e 5191 6c3d 922f 183e
00000360: 6e97 863c 3529 723e 1fe9 f23d 27c3 cc3d
00000370: 441f bfbd 7bb3 f5bd 9d4d a93d 57db 0abe
00000380: 8fb6 febd e091 08bf 180e 2e3d 5679 c53d
00000390: 392a 95be a02d 3e3e 8713 433e 7e74 373c
000003a0: a79d 173e 32ba 9cbd 3179 cfbd 87a2 193e
000003b0: 2b38 d13d 5bb9 2bbe 2f43 bc3c 4037 383e
000003c0: a748 983e cf8a fc3d 3ef8 dd3e 9ea0 d5bd
000003d0: d5c2 ee3d f2a5 673d 1f22 bdbd 58cf 153e
000003e0: 014c e63d 2f84 683d 73fe 80bd 02e7 b23d
000003f0: c990 8d3e 8ba6 793d 4ea6 3b3e bb3f 6f3e
0.07231668 0.036487006 -0.05096987 0.14026703 0.11773854 -0.059342094 -0.014869648 -0.038254194
-0.19477704 -0.10526908 -0.13390101 -0.044082776 0.18491787 0.18482003 0.28907818 -0.16963634
-0.36451852 -0.24823135 -0.044606816 -0.1694631 -0.26143333 -0.049640678 0.0101992395 -0.26989293
0.002802018 -0.0056731966 -0.050497316 0.0131904 0.04568877 0.026075562 0.003750933 0.047083326
0.21871467 0.1438265 0.23763324 0.17262931 -0.30203906 -0.31096503 0.06561043 -0.045358323
-0.16479756 0.08119579 -0.20060256 -0.2690998 -0.059898157 -0.021067848 -0.20963864 -0.3423362
0.1502282 0.11524396 0.021180533 -0.04812745 -0.14418162 -0.15057436 -0.096674 -0.12774709
-0.14897358 0.05515182 0.04884218 0.07913657 -0.16145699 -0.13172957 -0.16258979 0.2914442
0.074828826 0.054708883 0.15776078 0.103487685 0.16113614 -0.00080846844 -0.11989192 -0.09610395
-0.067099094 0.06396981 0.12628034 -0.10830914 0.038622856 0.0547905 0.1545114 0.17098978
0.1940842 0.1367364 0.10519762 0.1953561 0.14761211 0.041244667 -0.059605684 0.22808306
0.3785939 0.18752699 0.078684606 0.1608971 0.12220152 -0.16269793 0.014580539 -0.06388595
-0.035260618 -0.049195085 -0.059284765 -0.07667787 0.09529651 0.19072242 0.033726864 -0.2033974
-0.18607421 0.14314179 -0.056638163 0.09461929 0.118764356 0.13806212 0.08032019 -0.07785969
-0.07763676 -0.19663224 0.008481796 0.0345381 -0.016987676 0.1768332 0.0011217914 0.1876094
-0.3675675 -0.33064914 -0.09924217 0.16167153 0.2207188 0.15831213 0.25715083 0.1339173
-0.03454545 0.1472864 0.102910794 0.13548008 -0.116621286 -0.20563531 -0.16615209 -0.0019692797
0.039265245 0.17640552 -0.03216207 -0.028361265 0.10417262 -0.28899089 -0.11731697 -0.22536312
-0.030034028 0.110968515 -0.06319549 -0.07127948 -0.058329195 -0.21835846 -0.113863245 0.105179645
0.037226293 0.1326612 -0.008920196 0.09444483 -0.24731173 -0.25074098 -0.13655747 0.014081069
0.07761395 0.24505492 0.1825473 0.14233841 -0.09878376 0.040023852 0.059326045 -0.06119057
0.25621644 0.10707984 0.019445933 0.07189463 0.006448198 -0.061412442 -0.16988373 -0.19528055
-0.14275509 -0.034584533 -0.008315589 0.08152245 0.114025146 0.05344779 -0.00437859 -0.16549544
-0.022245198 -0.06291903 0.09460212 0.20837586 -0.09987332 -0.012342374 -0.0050160787 0.08178898
0.18173768 0.18597372 0.16234791 -0.027451744 -0.122827865 0.066065244 0.09845892 -0.053303894
0.22184081 -0.11929646 -0.25676635 0.2060345 0.0070994548 -0.0052102315 0.104547285 0.020318735
-0.01683801 0.005324478 0.044445343 -0.054834835 0.054847747 0.24747589 0.057755772 0.14861897
0.01642963 0.23648532 0.118608706 0.0999816 -0.09332135 -0.11997124 0.08266757 -0.13560234
-0.12437164 -0.5334759 0.04249391 0.096422836 -0.29133776 0.18572092 0.19050418 0.0111972075
0.14806233 -0.076527014 -0.10130537 0.15003406 0.10215791 -0.16769926 0.022981254 0.17989826
0.2974293 0.12331163 0.43353456 -0.10431026 0.11658255 0.056554742 -0.09235024 0.14629877
0.11244965 0.056766685 -0.06298532 0.087354675 0.27649525 0.060949843 0.18325159 0.23364155

block1.2.conv.bias f4 [8]
00000000: 72ac ebbb 7ada c43d b2d5 143e 47f7 19be
00000010: 927f ea3d 1226 283d 0142 4cbd e64e 9bbc
-0.007192188 0.096119836 0.14534643 -0.15035735 0.11450113 0.04105193 -0.049867634 -0.01895852

block1.2.BN.weight f4 [8]
00000000: 48af 7a3f 12de 693f fdd0 8c3f 33ac 783f
00000010: 441f 8d3f 3179 883f 96aa 613f f72b 8b3f
0.9792371 0.9135448 1.1001278 0.97137755 1.1025167 1.0661985 0.8815092 1.0872792

block1.2.BN.bias f4 [8]
00000000: 381d 1bbd 6987 e1bd 53c1 5dbd 328b 1ebd
00000010: 4e60 94bc f1da fe3c e778 93be eb97 6abd
-0.037869662 -0.110121556 -0.054139446 -0.038706966 -0.018112328 0.031110259 -0.2880318 -0.057273787

block1.2.BN.running_mean f4 [8]
00000000: 1ff7 823d 6c5a 263f 2b81 82bf c1e4 803e
00000010: 1fea 7cbf 22c2 8ebf fcf0 a33e 1b26 64bf
0.06394791 0.6498172 -1.0195669 0.25174525 -0.9879474 -1.1152995 0.32019794 -0.89120644

block1.2.BN.running_var f4 [8]
00000000: f5f8 f83f eb79 993f a5df 2840 7d05 a33f
00000010: a081 9040 a861 3a40 736c ed3f 9a3c 1040
1.9450976 1.1990331 2.6386502 1.273605 4.5158234 2.9122105 1.8548721 2.2536988

block1.3.conv.weight f4 [4, 8, 3, 3]
00000000: 21a9 a33d 2261 e0bd 51f0 84bd 0a35 e7bd
00000010: f7f6 b93d f797 eb3d c9c1 96be af98 21be
00000020: 125b 65be cab4 f2bc d2bc 9b3d 2109 543e
00000030: 9d78 44be a2d6 0a3e f64c b43d cb27 653d
00000040: e7e1 553e c7b0 b43d d20e 3e3e edbe b43d
00000050: ced0 29be c45c 1d3e df5b fc3d 322c 7dbe
00000060: 5b53 643e 37fc 293d 4219 413e 1f1d 9dbc
00000070: 9802 0dbe 3b8a 5dbe 740f 753d 9926 283e
00000080: 2a45 a13c ae0d 7d3e b9cf 203e ddf2 e7bc
00000090: 447b 333e 31cf 1fbe 0715 16bd a77d d5bd
000000a0: 406f 18be 2588 75be 9018 3ebd 3af5 1c3d
000000b0: 1140 a33c 9032 a1be 2f73 9fbe cebb 88be
000000c0: 9d9d dfbb 5b21 613e 330b eeba 294a 8dbe
000000d0: b342 cb3d fac6 513e dc0d 6ebc 5e82 a4bb
000000e0: 8ba4 003e 85c9 aa3d ee99 0d3e 94a5 06be
000000f0: ca6e 203e 886a 34bc d32d a4bd bbdf 6cbd
00000100: dc2a cfbd 26c5 673e f383 e03d 6e61 443d
00000110: 1f7c 8c3e 01c5 91bc 77ad b73c 7373 303e
00000120: fcbc 903c a9cc 13be 8a0e d13d dda4 56bc
00000130: 4175 1cbd 7bb4 e13d 0847 c1be 7447 12be
00000140: dddd c2be dcc7 8d3e 8df4 45bd 694e 26be
00000150: 1a2b 043e 8887 6ebe b450 5bbe c9d9 643d
00000160: 63d1 52bd 130d 71bc f211 32be 4ae4 833d
00000170: 1fd5 953d 5083 1cbe 682c fcbd 39b6 5e3e
00000180: ce51 11be 18b8 a5bd 86e0 803d 2cb0 aebc
00000190: dda8 403e 808a 1d3e 6eb2 bcbc edd9 ffbc
000001a0: 6106 94bd c0f3 ad3d 3215 343d f2e5 bcbc
000001b0: 98fc 02be c43a ffbb a6f8 053e 38c6 55be
000001c0: 12c2 c9bd 4ae7 a93d caab 87be 0484 9cbe
000001d0: c23a 2ebe f645 353e f7a7 de3d 22a6 d1bd
000001e0: 08ef 01be 634d 27be fb64 a2be 6ba4 183e
000001f0: de0b e53d a88b e23c 26b5 5b3e 2b15 993d
00000200: 9bd9 913d b1c2 c9bd b28a c9bc f0d6 aabd
00000210: abad 7dbe 90f4 adbe cbb0 b1be 84c8 e23d
00000220: 98de d33d 5d27 bc3d 5d19 fe3d 9bbf 123d
00000230: 320d 3abe ba96 363e 2504 e7be 4f9f 2dbe
00000240: 5d44 2fbe c1e4 b1bd 4480 75be 37aa 2e3d
00000250: 8c61 183e 1a4f 4a3d 8cb0 79bc e34d 14be
00000260: c4b3 27be 716c 053e 6630 873d d4d3 b1bc
00000270: 126a 6b3d 4342 bebd 479c b8bc 9762 da3b
00000280: 8ed9 0abd 1de5 dbbd 61b3 a83d 94b2 643e
00000290: 749d b33e 40af 6f3d 7d7b a03c d41f 753e
000002a0: eb02 afbd 51d1 a5be fade d7bd 923f 7239
000002b0: 892a e13d d744 02be 850b 903e b86d 243e
000002c0: 94c3 11bd 05f8 a33d d1ef 483e 949c 7a3e
000002d0: 3aad e3be b04a 86bd 87fa 9e3d 9a79 91be
000002e0: 189e 16be 3adc 143e 926b a5be 9014 7bbe
000002f0: 36f6 8abe fbcc 3e3e 73ae d9bc 7075 2b3c
00000300: a2ae 44be 6b37 6bbe 5775 4abd 56ae 163e
00000310: f0d3 9e3c edff ab3e c033 27be 1a4f 04bc
00000320: 30d4 303e cb3c 183e f5bc 053e 7d1f 2c3e
00000330: 781b 9a3d f9f4 49be d98e 14bd efd7 b4bd
00000340: 0010 3abe 9eef 10bd 19d6 75bd 1a84 23be
00000350: 4c1c 383d ee89 b6bc a927 743d 8243 80be
00000360: 1ce6 ed3d bb24 773d 12ff e8bd 2bda f73d
00000370: b0e1 cfbd a62d 873d f8af 7b3e 02f4 14be
00000380: 890f 0abe 5909 423c 2914 7fbc bd59 743d
00000390: 650a 2fbe 67aa 07be 7951 b13d 9a24 053d
000003a0: 9785 58be e3f6 9cbe 968c d33a ae18 19bd
000003b0: 2772 40be b24d bbbd 0800 e3bc e3a0 1f3d
000003c0: a194 043b 4921 17be 182a aabe 5d39 efbe
000003d0: e5c0 81be 35ef a03d d638 a8bd 5d16 953c
000003e0: b110 7b3e 284c e7bd ab31 203e 37cf be3d
000003f0: c6cb 01be f655 55be 13e0 c6bd 2739 cabd
0.07991243 -0.109560266 -0.06491149 -0.11289413 0.09080308 0.11503594 -0.2944472 -0.157809
-0.22398022 -0.029627223 0.07604374 0.20706607 -0.19186635 0.13558438 0.08803742 0.055946153
0.20886956 0.0882278 0.18560341 0.08825479 -0.16583559 0.15367419 0.123222105 -0.2472389
0.22297423 0.041500296 0.18857291 -0.019178925 -0.1377052 -0.21634762 0.05982919 0.16420974
0.0196863 0.2471225 0.1570424 -0.028314048 0.17527491 -0.15606381 -0.036641147 -0.10424357
-0.14886189 -0.23977716 -0.046410143 0.038319804 0.01992801 -0.3148389 -0.31142566 -0.26705784
-0.006824209 0.2198538 -0.0018161297 -0.27595642 0.09924831 0.2048606 -0.0145296715 -0.005020424
0.12562768 0.08339218 0.13828251 -0.131491 0.15667263 -0.011011727 -0.08016553 -0.057830554
-0.10115597 0.226338 0.10962667 0.04794448 0.27438447 -0.017794134 0.022421582 0.1723154
0.01766824 -0.1443354 0.10207851 -0.01310083 -0.03819776 0.11020752 -0.37749505 -0.1428507
-0.38059893 0.27691543 -0.048328925 -0.16240849 0.12907067 -0.23293889 -0.21417505 0.05587176
-0.051469218 -0.01471259 -0.17389658 0.06440027 0.0731604 -0.15284467 -0.12313157 0.217492
-0.14191362 -0.08091754 0.062928244 -0.02132424 0.18814416 0.15384865 -0.0230343 -0.031231845
-0.07227779 0.08493757 0.043965526 -0.023058865 -0.1279167 -0.007788988 0.13083133 -0.20876396
-0.09851469 0.08296068 -0.26498252 -0.3056947 -0.17014602 0.17702469 0.108718805 -0.102367654
-0.1268884 -0.16338114 -0.31717667 0.1490647 0.11183904 0.027654484 0.21455821 0.074747406
0.07121583 -0.098515876 -0.024602268 -0.08341777 -0.2477328 -0.3397565 -0.34705195 0.110734016
0.10345191 0.091871955 0.124071814 0.03582726 -0.18169096 0.17830935 -0.4512035 -0.16955303
-0.17115922 -0.086862095 -0.2397471 0.0426428 0.14880961 0.049391843 -0.015239846 -0.14482836
-0.16377169 0.13029648 0.06601028 -0.021707453 0.057474203 -0.09289982 -0.022535456 0.006664585
-0.033898883 -0.10737059 0.08237339 0.22333747 0.35081065 0.05851674 0.019590134 0.23937923
-0.085454784 -0.32386258 -0.10540576 0.000231026 0.10994441 -0.12721573 0.2813379 0.1605748
-0.03558691 0.0800629 0.19622733 0.24473792 -0.444681 -0.06557214 0.07762628 -0.28413087
-0.14708745 0.14537135 -0.32308632 -0.24519563 -0.2714097 0.18632881 -0.026572442 0.010465011
-0.19207242 -0.22970359 -0.04942831 0.14714941 0.019388169 0.33593693 -0.16328335 -0.0080755
0.17268443 0.1486694 0.13060363 0.16808887 0.075247705 -0.19722356 -0.036269043 -0.088302486
-0.18170166 -0.035384767 -0.060018633 -0.15968361 0.04494886 -0.022282567 0.059608135 -0.25051504
0.116161555 0.060337763 -0.11376776 0.12102159 -0.10150468 0.066005036 0.24578846 -0.14546207
-0.13482489 0.011843049 -0.015568771 0.059655894 -0.17093809 -0.13248597 0.08658118 0.03250561
-0.2114471 -0.3065711 0.001613992 -0.037377052 -0.18793546 -0.091456786 -0.027709976 0.038971793
0.0020230191 -0.14758791 -0.3323524 -0.46723452 -0.2534248 0.07858125 -0.082139656 0.01819914
0.24518086 -0.112938225 0.15643947 0.09316867 -0.1267539 -0.20833573 -0.097107075 -0.09874182

block1.3.conv.bias f4 [4]
00000000: 9735 fdbc 260c 623e 8503 cd3d b7ed 723d
-0.030909343 0.22074947 0.10010437 0.059308734

block1.3.BN.weight f4 [4]
00000000: 603a 843f 306f 8a3f 48aa 813f 6de5 6a3f
1.0330315 1.0815182 1.0130091 0.91756326

block1.3.BN.bias f4 [4]
00000000: 4aad 453d ce3e ba3b e806 1e3e 453b cc3d
0.048260964 0.0056837564 0.15432322 0.09972242

block1.3.BN.running_mean f4 [4]
00000000: db8e 853d 25b8 5bbf 303c f2be 1781 82bf
0.06521388 -0.8582786 -0.47311544 -1.0195645

block1.3.BN.running_var f4 [4]
00000000: 248c 8f3f a2ed 853f 5902 cb3f ae0e 943f
1.1214643 1.0463145 1.5860091 1.156698

block2.0.conv.weight f4 [8, 4, 3, 3]
00000000: f21a 94be 6dfd 21be f3b7 0fbe b89a 03be
00000010: 0977 363d 4a95 2abe bb47 b33e e2ce 703e
00000020: bf15 1ebe 9c5a e6be 3f61 7d3d 4b2a 18be
00000030: 924f a2bd 151d 073e f3ae 6b3d d29f 9bbd
00000040: ef6e 513d 054c 493e cc19 f8bd 40f1 403d
00000050: c45c 443e 6ace 3bbd 9676 64be dca3 3a3e
00000060: c403 1fbd 0e28 053e 86c3 583d 7b9f da3d
00000070: 11b6 62bc bb20 dcbe dce1 303e 1c64 ca3d
00000080: 9fe5 39be e511 4b3d a016 8abd 29ec 5cbe
00000090: 7f05 7cbe f641 c13c 40a9 b53d 29db 0fbe
000000a0: a144 f63d cb19 6e3e 4b1e 0a3e f577 243e
000000b0: 17c8 d43d 1522 f33d f88c aabe dc14 94be
000000c0: f27c 2b3d 975b 193e 4c3d a53d db37 1c3e
000000d0: 680f 4f3e 1f26 093e 25b1 23bd 2498 9abd
000000e0: f2c2 52be 903c 38bd 7eb1 2dbe 232c 87bd
000000f0: c99d 9f3e 784c 803e 4965 373e 41c3 73be
00000100: 26a5 683c 08c1 233e c373 febc 433a f53c
00000110: 8bd1 cabd 7d1d c03d 86e9 87bc 1bbf 46bd
00000120: 78cc 78bd 97a2 65bd 0dc0 06be fb9e c5bd
00000130: a514 f13c b531 3fbe 75a5 b7be 1d8c b4bd
00000140: b93d 5a3e c74d 0cbe 7d9c df3d 78d6 e03d
00000150: 6e06 e6be b59f b7bd 1a15 88be fdc4 083e
00000160: b85d 043e 0b7d 603e 050f eabc 00ce 69bc
00000170: 7c54 7e3e de37 0cbe b05c 44be 3184 0fbe
00000180: ed47 34be ad7e eabc 7757 e83c f3b7 7ebd
00000190: c5f3 16be 1e54 d9be ec47 4dbd 0a67 e9bb
000001a0: 933f 05be 9647 3d3e 6a52 233e b28d 8a3e
000001b0: 39f1 ba3c c31b 12bc 9352 493e 076f 8fbe
000001c0: 8a86 56be 19ce 1f3c 9722 973d 77e1 703e
000001d0: 0255 a23d 7ae1 753e 8db7 4b3e 9ada 593d
000001e0: 1293 6b3c 692e 273e 61c3 68bd a603 25be
000001f0: 7c7f 0fbd 64d2 903d c376 b1be f14a b6be
00000200: 3b7d 6ebe 0025 323e af76 4f3c b0b4 983e
00000210: 5a7f 7cbd 6e81 d83d 4452 31be 89d7 a0bd
00000220: eb20 69be ce98 acbd ad61 183e 214d 30be
00000230: cf3e 0c3d 3e8e 9abe ea50 71bd f796 9fbd
00000240: d160 283e 9ebd 063e d331 c0bd cda8 eb3b
00000250: 31a2 07be 873e 073c 3718 663e 5e0f 95be
00000260: 92f7 00be e07a 3a3e 5ed3 0b3e 3d79 7b3e
00000270: 3552 83bd 2e9d 453e 1ed6 313e 0f42 513e
00000280: 1905 9e3e 33da 4b3e 855b 6c3e 86d4 783d
00000290: 38e5 8bbe 3444 413e 5d9c be3d 85db 1fbe
000002a0: 8286 383e 54c2 053e 5fa8 5c3b 3262 043e
000002b0: 10cb 64be a382 38be 65d7 043c 6b85 92bc
000002c0: 3df8 383d b236 163e 6c31 e2bd ad27 c3be
000002d0: 4f06 6c3e 0ed4 dd3d 1d90 a53e 78e6 11bd
000002e0: 46df c7be fdd0 a4be 0b4d 3dbc 0eca 75be
000002f0: 6b16 b1bc 08ab 40be d6b1 8cbe c2af 7fbd
00000300: 61b4 873b 1c4d 05be bc76 67be db6d 8c3d
00000310: 9cd3 96bd d1a0 c1be 2bf5 9e3b b33c acbc
00000320: 267f b8be 5e76 8cbd 815a b03d b13a 873d
00000330: 1fbb 3dbe 368f 8bbd 1454 203e edec 8a3b
00000340: 84c1 063d 2a9c 843d 874d 923c 41ee 343e
00000350: 1bf2 b53b 2dc6 61be 090d 123e 0936 633d
00000360: 4431 3e3e 0167 3e3e 6d79 833d 2713 223e
00000370: 4fac cc3d aa37 c53d 768c 99bd 8a8a 123e
00000380: a0e6 28bc 1246 8bbe 2737 85be ad3a a5bd
00000390: aa0e 3e3e 6acf 223d 6b94 0e3e 1894 5f3d
000003a0: 5c33 463e 37bc 2e3d c695 0ebd 5e43 173e
000003b0: 041e 0d3e d8d6 eb3c c5db 88bd 77e7 8a3e
000003c0: c350 84be 65ae d2be c1c6 33be 5dd3 343e
000003d0: ea24 433d 6a4d 543d 6414 3bbe e9c2 173e
000003e0: 9bf0 0c3e 494f b63d d371 493d 19e5 9d3e
000003f0: 406c 2b3e 4e5c b8bd 94db 1d3e ff37 8b3e
-0.28926808 -0.1581933 -0.14035015 -0.1285199 0.044547115 -0.16658512 0.35015664 0.2351642
-0.15437983 -0.44991004 0.06186032 -0.14859883 -0.07925333 0.13194688 0.05753989 -0.07598843
0.051131185 0.19657905 -0.12114295 0.047105074 0.19176012 -0.04585115 -0.22310862 0.1822657
-0.03882195 0.13003561 0.05292084 0.1067495 -0.013837353 -0.4299372 0.17273659 0.098823756
-0.18154 0.049577612 -0.067425966 -0.21574463 -0.24611472 0.023591023 0.088701725 -0.14048447
0.12024809 0.23252027 0.13488118 0.16061385 0.103897266 0.11871735 -0.33310676 -0.28922164
0.041867204 0.14976345 0.08068332 0.15255682 0.20220721 0.13393448 -0.03996386 -0.0754855
-0.20582178 -0.044979632 -0.16962239 -0.06600215 0.31175068 0.2505834 0.17909731 -0.23804952
0.014199531 0.15991604 -0.031061059 0.029935008 -0.099032484 0.093806244 -0.016590845 -0.048522096
-0.06074187 -0.05606326 -0.13159199 -0.09649464 0.02942879 -0.18671305 -0.3586842 -0.08815787
0.21312608 -0.13701545 0.1091852 0.10978407 -0.4492678 -0.089660086 -0.265786 0.13356395
0.12926376 0.219227 -0.028571615 -0.014270306 0.24836916 -0.13693187 -0.19175982 -0.14015271
-0.17605563 -0.028624857 0.028362019 -0.062187146 -0.14741428 -0.4244699 -0.05011742 -0.007122879
-0.13012533 0.18484339 0.15949407 0.2706123 0.022820102 -0.008917752 0.19660406 -0.28014395
-0.2094976 0.009753727 0.07379644 0.23523508 0.0792637 0.24011794 0.19894238 0.05318699
0.014378326 0.16326298 -0.056826953 -0.16114673 -0.035033688 0.07071379 -0.3466092 -0.3560405
-0.23289959 0.17396927 0.012662574 0.29825354 -0.06164489 0.10571562 -0.17316538 -0.0785361
-0.22766463 -0.08427583 0.1488101 -0.17216922 0.034239586 -0.30186647 -0.058915056 -0.07792466
0.16443183 0.1315827 -0.09384503 0.0071917535 -0.13245465 0.008254654 0.22470175 -0.29113287
-0.1259444 0.18210936 0.13654849 0.24557967 -0.06412164 0.1929824 0.17366835 0.20435356
0.30863264 0.19907455 0.23081787 0.060749553 -0.27323318 0.18873674 0.09307168 -0.15611084
0.1802006 0.13062412 0.0033669693 0.12928084 -0.22343087 -0.18018584 0.008107995 -0.017885884
0.045158613 0.14669302 -0.11044583 -0.38116208 0.23049282 0.10831462 0.32336512 -0.035620183
-0.39037532 -0.32190695 -0.011554013 -0.24002859 -0.021617135 -0.18815243 -0.27479428 -0.062423475
0.004141376 -0.13017696 -0.22603887 0.06856891 -0.0736458 -0.37818006 0.0048510036 -0.021025037
-0.36034507 -0.06858514 0.08611012 0.06602991 -0.18528412 -0.06814425 0.15657073 0.0042396695
0.032899395 0.064750984 0.017859234 0.17669012 0.005552543 -0.22048254 0.14262785 0.055471454
0.18573481 0.1859398 0.064196445 0.15827619 0.09993803 0.09629758 -0.07497494 0.14310661
-0.010308892 -0.27201897 -0.2601864 -0.08067832 0.18560281 0.039748587 0.13923804 0.054584593
0.1935553 0.042659964 -0.034810804 0.14771792 0.13780981 0.028788969 -0.06682543 0.2712972
-0.25842866 -0.41148677 -0.17556287 0.17658754 0.047642626 0.05183164 -0.18269497 0.14820446
0.13763659 0.08901841 0.049180817 0.3083885 0.16740513 -0.09001981 0.15415794 0.2719116

block2.0.conv.bias f4 [8]
00000000: d1b1 943d fc73 69be 74ab 573c c0bf fa3d
00000010: 9de8 c8bd a939 5e3b 1cc8 cfbc 17b9 cbbd
0.07260478 -0.22798151 0.013163436 0.12243605 -0.098099925 0.003390888 -0.025363974 -0.099474125

block2.0.BN.weight f4 [8]
00000000: a699 883f 6383 823f 7123 8f3f 6c78 943f
00000010: 07b8 523f ba0f 6d3f 0904 673f c0d7 843f
1.067189 1.0196346 1.1182691 1.159925 0.82312053 0.9260212 0.9024053 1.0378342

block2.0.BN.bias f4 [8]
00000000: 25fb 0abe 4927 febd e978 33bd 1de1 9b3d
00000010: 39f5 a3be c511 483e 27a0 c83d 4dd0 2ebe
-0.13572367 -0.12409837 -0.04381648 0.07611296 -0.32023028 0.19538029 0.09796172 -0.17071648

block2.0.BN.running_mean f4 [8]
00000000: 768f 87be c187 ae3d e39d 27bf 1a8e 77be
00000010: 2b59 fa3e e6f6 2fbf bdbc ed3e 7cfa 82be
-0.2647664 0.08521987 -0.6547529 -0.24175301 0.48896155 -0.6873611 0.46433058 -0.2558173

block2.0.BN.running_var f4 [8]
00000000: 81a5 c83e 174e 2d3f a319 3d3f 9ba0 b93e
00000010: 7a0e 363f ad19 1f3f 931c ee3e a054 bd3e
0.3918877 0.6769728 0.73867244 0.36255345 0.7111584 0.62148553 0.46506175 0.36978626

block2.1.conv.weight f4 [16, 8, 3, 3]
00000000: e787 e73d 685d c1b9 e18e 7ebe 8d9d 333e
00000010: d315 253e 2d20 4cbd b47e bbbd f2ee 523e
00000020: e8da b53d 9ed6 8e3d 8b2c 55bd 602b 4abe
00000030: acf4 273e fa4e 2dbd ea74 b03d 3728 f2bc
00000040: c2c6 b4bd 9e12 d2bb 12ad e53d 1415 a6bc
00000050: 73d7 03be cf30 af3e 8396 a33e e045 d33e
00000060: 76cb 0ebe 0a20 77bd afba 62bd bf49 423e
00000070: ef03 bdbd aa07 74be ae7c c73c 12d9 093e
00000080: a52b d53d 8471 583e add5 1d3e e81f 883e
00000090: 530a a33c c9ac bf3d 5fb2 013e eeb0 033e
000000a0: ba18 7e3d ea83 0c3c de4b 18bd 732c 19be
000000b0: 1351 c33c 699c 1dbd e93d c03d 783f 8d3d
000000c0: 72d6 bd3d 4ecd 54bd 9f91 14bd 9009 51be
000000d0: f45a 0bbe a19f e03d 9506 25bd b8a0 0a3e
000000e0: 6fd9 ca3c 468e 09be 852d 67be 9bff 18be
000000f0: 648d 533e 4813 803e 370f 743c c194 813d
00000100: f91f 653e eda5 0f3e f9fc 67be c1ce 303e
00000110: 4721 b5bd 4edb 5ebe a3e1 823e 4e0d 1e3e
00000120: f04a 083e 74b0 7ebd 5c4e d33d a5e8 7bbc
00000130: 34a2 01bd bd70 e43d 4ab1 24be 4f9e 893d
00000140: a751 5ebc 643b c3bd fe4a 79be ff81 3dbd
00000150: 6f6a 85be 0254 18be 093e 90be 6cdc 473e
00000160: 272e 373e 0c60 f43d fa30 b73d 7dd8 113d
00000170: 0bab 073d 7bfe 6b3c 821f b83d e7e8 db3c
00000180: 9b29 8f3d 06b2 0dbe d19b 0abe 8a67 1bbc
00000190: 8141 313e 120e 433e 31db 7dbd 4298 423e
000001a0: ab48 9c3d e1af 7b3e 1870 0f3e c530 a5bd
000001b0: 51ba 113d b484 8a3e 18b3 753e 6844 98bd
000001c0: 95a4 19be 4d56 933d 4956 a43d 5ced 063d
000001d0: ed8a 4f3c 8055 76bd ecaf 8a3d 1a8f 2bbd
000001e0: 97bb 2c3c ea15 7e3d 1323 813d b74c 2f3d
000001f0: ffb8 da3c 781c 8a3e 29d3 5fbe 4087 1cbe
00000200: dd85 8fbe 5f96 6f3e a391 833e 3602 c93d
00000210: 257e e43d f2cc 093e 9e48 de3c 97a9 24be
00000220: 9c35 903e e8b8 533e 73a3 e1bd c779 d4bd
00000230: be1d 443e c04a 6abe 82dd 5ebe 5d55 fe3d
00000240: 4adc 1b3e caf4 e33d 5a9c f4bc 7917 c23e
00000250: f513 553e 1c58 84bd 5d62 203e 8ab8 2c3b
00000260: d8d8 f0be 3513 14be e1f3 223d 0a46 98bd
00000270: c094 b03d 72a9 91bc 66dc 51be 8296 133e
00000280: 3fd8 143d 2048 24be 5a24 2d3e bb29 57bd
00000290: 1177 8fbc dbde f03c d041 b5bb efe5 36be
000002a0: eed3 ce3d ee76 3abe 2573 9dbd 9de9 823e
000002b0: e3e8 813e e809 603e 7ef5 ec3d e000 53bd
000002c0: b5cf bfbe 403b 0e3e 1efc 613d 2135 27be
000002d0: 3dcc d8bc a611 443d 119c 183d 4956 47bd
000002e0: 7a87 2bbe f31f 0bbc 4a29 b33d a6f5 0d3e
000002f0: 1a23 603e 6f8d 843e 24d7 a53d a25b 193e
00000300: b0a8 71be ab6b 99be f14b ac3d e10d 54be
00000310: b3d6 7fbe 5346 37be 009f a5bd 1c4f d8bd
00000320: 6b9d e73d 316d 8bbe ab5c 85be 75c6 52bd
00000330: 396c 83bd e868 b73c 5b86 5f3d 15c3 51bd
00000340: 5177 3dbd 97c4 4a3d 5209 f9bd cee3 0bbe
00000350: b596 033e 8916 943d 7332 e83d 6fec 4d3c
00000360: 9a83 213e 28af b43b 117b 883d fe4f 23bd
00000370: 28f0 81bd 9c5d 43be 0737 1a3e 4e05 57bd
00000380: 5996 183d 439b abbe 376a 393d cee3 ce3d
00000390: 8bf7 9f3d 17fb a13d 97b6 713d 71c6 7f3e
000003a0: 101e ac3e a911 a63e cdb4 5a3e c042 c13d
000003b0: 034c 5a3e 3adb 043e a29c 283e b72f 483e
000003c0: c341 0bbe 16ae b7be 2d69 6bbe b65c 333e
000003d0: e126 be3e 95b2 8f3d b293 5c3e 43e3 ed3d
000003e0: 6cdd 2bbd 7b49 9a3d d623 393d 4b5d b3bd
000003f0: 34e5 dbbd 6cae 17be 6c3b c53c e3d7 37be
0.11305218 -0.00036881422 -0.24859191 0.1754057 0.16121607 -0.049835373 -0.09155026 0.20598963
0.08879644 0.06974529 -0.052044433 -0.19743109 0.16401929 -0.042311646 0.086160496 -0.029560192
-0.088269725 -0.0064109107 0.11214651 -0.020273723 -0.12875156 0.34216926 0.3195077 0.41264248
-0.13944802 -0.06033329 -0.055353817 0.18973444 -0.09229266 -0.23831049 0.024351444 0.13461712
0.10408715 0.21137053 0.15413542 0.26586843 0.019902384 0.09359128 0.126657 0.12860462
0.0620353 0.008576373 -0.037181728 -0.14958362 0.02384237 -0.038479242 0.093868084 0.06896871
0.09269418 -0.051953606 -0.036271688 -0.20413804 -0.13608915 0.10967947 -0.04028948 0.13537872
0.024761884 -0.1343318 -0.22575958 -0.14941256 0.20659405 0.2501471 0.014896206 0.06327201
0.22375478 0.1402814 -0.22655095 0.1726637 -0.08844238 -0.21763346 0.25562772 0.15434763
0.13309836 -0.062179998 0.1031768 -0.015375291 -0.03164883 0.111543156 -0.16083255 0.06719648
-0.013569272 -0.09532812 -0.24345013 -0.046266552 -0.26057765 -0.14875796 -0.2817233 0.19517678
0.178887 0.11932382 0.089448884 0.03560685 0.033122104 0.014403935 0.08990385 0.026844455
0.069903575 -0.13837442 -0.13536002 -0.009485135 0.17310144 0.19048336 -0.061976615 0.19003394
0.07631048 0.24578811 0.14007604 -0.08065943 0.035578076 0.2705437 0.239941 -0.074349225
-0.1500419 0.07194195 0.0802427 0.032941207 0.0126674 -0.060140133 0.06771836 -0.04188452
0.010542772 0.062032618 0.06305518 0.04279777 0.026699541 0.26974845 -0.21857895 -0.15285969
-0.28031817 0.23397206 0.2569705 0.09814875 0.11156873 0.13457087 0.027134236 -0.16080318
0.281659 0.20676005 -0.110175036 -0.1037479 0.1915197 -0.22880077 -0.21764186 0.124186255
0.15220752 0.11130674 -0.02985971 0.37908533 0.20808394 -0.06462118 0.15662523 0.002635511
-0.4704044 -0.14460452 0.039783362 -0.07435234 0.08622122 -0.017780993 -0.20494232 0.14412883
0.03633904 -0.16043139 0.16908398 -0.05253003 -0.01751283 0.02940314 -0.005531527 -0.1786115
0.10099016 -0.1820943 -0.07687978 0.25568858 0.2537299 0.21878779 0.115702614 -0.051514506
-0.37463155 0.1388979 0.05517208 -0.16328861 -0.026464576 0.047868393 0.03725821 -0.048666272
-0.16750899 -0.008491504 0.0874811 0.13863239 0.2188839 0.25889155 0.080976754 0.14976361
-0.23599505 -0.29964957 0.08412922 -0.2070842 -0.24984245 -0.1789792 -0.080869675 -0.10561964
0.11309322 -0.27231744 -0.26047263 -0.051458795 -0.06417126 0.02238889 0.05457149 -0.051211435
-0.046256367 0.04950389 -0.12159981 -0.1366112 0.12850459 0.07230861 0.113377474 0.012568577
0.15772858 0.0055140443 0.06664098 -0.03987121 -0.06344634 -0.19078678 0.15060054 -0.052495293
0.037252758 -0.33516893 0.04526731 0.10102044 0.07810887 0.0790922 0.059012022 0.24978043
0.33616686 0.3243535 0.21358033 0.0943656 0.21318059 0.12974253 0.16466 0.19549452
-0.13599305 -0.35875005 -0.2298934 0.17515835 0.37139037 0.07016484 0.21540716 0.11615612
-0.04195921 0.075335465 0.04520019 -0.087580286 -0.107370764 -0.1481263 0.024076186 -0.17953448

block2.1.conv.bias f4 [16]
00000000: 9167 48bd d98d a83d 2288 88bc bb4c 1f3d
00000010: 87f6 d4bd d5f8 373e 6576 3fbd e015 f8bd
00000020: e292 9c3e f429 2d3c 5be7 eabd d34f d9bd
00000030: 5849 be3d 2f82 e0bd 5afc aa3d 2cd9 75bd
-0.048926894 0.0823018 -0.016666476 0.038891535 -0.10398584 0.17966016 -0.04674377 -0.12113547
0.30580813 0.010569084 -0.11469909 -0.106109284 0.09291333 -0.109623305 0.083489135 -0.060021564

block2.1.BN.weight f4 [16]
00000000: 5452 843f 9cc9 893f 1a52 893f f168 853f
00000010: e5a6 803f d4ad 7e3f 19d2 743f fb65 6b3f
00000020: 2ea1 8c3f 1131 613f 54cd 773f e0f0 553f
00000030: b2de 843f 9277 813f fb6a 843f dd85 813f
1.0337625 1.0764651 1.072818 1.042265 1.0050932 0.9948399 0.95633084 0.91952485
1.0986688 0.87965494 0.9679768 0.8357067 1.0380461 1.0114615 1.0345148 1.0118977

block2.1.BN.bias f4 [16]
00000000: 77f6 23be fc40 bbbe 1311 0fbe 2f74 12be
00000010: 2e1f b03d 2a31 bfbd fbd8 51be 5625 72be
00000020: 1b99 0cbe cf6a 68be bdc9 a6be ca44 15be
00000030: 988f b03c 6a85 7cbe 73f1 d2bd d9f1 40be
-0.16011988 -0.36573017 -0.13971357 -0.14302133 0.08599697 -0.09335549 -0.20492928 -0.23647055
-0.1373028 -0.22696994 -0.3257579 -0.14577022 0.021552846 -0.24660268 -0.10299959 -0.18842258

block2.1.BN.running_mean f4 [16]
00000000: 2cc9 613f 35c9 383f 2adc a0be 30d0 a53e
00000010: 050f a7be 36b5 a1be 78cc 80be ed90 3fbf
00000020: 0b47 5cbf c311 a5be 844e f63e 0ac6 28bf
00000030: f1b0 24be e18c a93e b9ab 9dbe 03d1 b3be
0.8819759 0.7218202 -0.31417972 0.32385397 -0.32628646 -0.31583565 -0.25155997 -0.74830514
-0.860459 -0.32240114 0.48106778 -0.65927184 -0.16083123 0.33115295 -0.30795076 -0.351204

block2.1.BN.running_var f4 [16]
00000000: 88de 843f 7e35 3b3f 44a6 953f 78b2 e33f
00000010: 0fc2 d43f 3865 4c3f 0cc5 b93f 8909 933f
00000020: fca4 9e3f b50d a63f 6647 ee3f 6d6f b73f
00000030: de11 ba3f 0153 853f 94b4 483f d299 de3f
1.0380411 0.731285 1.1691365 1.7788839 1.6621722 0.7984195 1.4513259 1.1487285
1.2394099 1.2972933 1.8615539 1.433088 1.4536703 1.0415956 0.7840054 1.7390692
