result/model/0514 1030.pt (torch, 79197 bytes, 98 tensors)

input_conv.conv.weight f4 [4, 1, 3, 3]
00000000: fc25 c73e 6413 333d 3992 f2bd a3e5 383e
00000010: a767 b63e 43a9 c23e e7dd 9abe 2d1f 8bbe
00000020: 4a7c 66be 8dd8 7939 d6d2 413e fa1e b13d
00000030: 5b4c f4bd 7b51 9abe 3fa5 03be f1d1 693e
00000040: 6257 213f e520 e53e 2e83 933e 8c18 9e3d
00000050: 2c40 82be 881e 573e c895 053d 2b73 55be
00000060: 5a16 df3e e87a c8bd 1ce3 1abe d1c5 993e
00000070: f089 a43d 29eb a6bd da05 bfbe c5b1 8dbe
00000080: 8617 69bd 2164 92be 6864 e6be ef37 d0be
0.38896167 0.043719664 -0.11844296 0.1805635 0.35625955 0.3801976 -0.30247423 -0.27172223
-0.2250835 0.00023827162 0.18928084 0.086484864 -0.11928626 -0.3014029 -0.12856005 0.22833993
0.6302396 0.4475166 0.2881102 0.07719526 -0.25439584 0.2100774 0.032613546 -0.20844714
0.4357174 -0.097890675 -0.15125698 0.30033734 0.08034122 -0.08150322 -0.37309152 -0.2767469
-0.0569072 -0.28592017 -0.4499848 -0.40667674

input_conv.conv.bias f4 [4]
00000000: 213d 52be 6ff9 16be 545c 58bd 4004 54be
-0.20531131 -0.14743589 -0.052822426 -0.20704746

input_conv.BN.weight f4 [4]
00000000: cd27 933f 8c69 863f 2fb9 4c3f 0b47 803f
1.1496521 1.050096 0.7997007 1.002168

input_conv.BN.bias f4 [4]
00000000: e1a8 673e e1f1 f8bd 5f5d b53e 5065 8bbe
0.22623016 -0.1215551 0.354228 -0.27225733

input_conv.BN.running_mean f4 [4]
00000000: b666 4abe e1af 2bbe 80b4 62bd 25db 36be
-0.19765744 -0.16766311 -0.05534792 -0.17857035

input_conv.BN.running_var f4 [4]
00000000: 2ca1 763e 87b9 773f 165b 4f3e da40 0e40
0.2408492 0.9676747 0.2024959 2.2227082

block1.0.conv.weight f4 [8, 4, 3, 3]
00000000: 984a 2e3d f8d1 4c3e 9787 f93d 69d4 373d
00000010: 3e81 373e f70c cd3d 9b12 05bf bf6e f8bc
00000020: 9ab3 eebe 416c 723e 305e f03e fffa 923d
00000030: cc76 13be 82ff 07be 66dd ef3b 90d4 8ebe
00000040: 59bb 213d 2851 4a3e 4ec2 bf3d cdde 053d
00000050: b924 15bd 8647 65be abc1 2f3d e6b3 cf3d
00000060: efb8 13be 49e0 8fbe 916d 343e b703 2bbe
00000070: d07a 1abe 000a 6e3e 5673 1b3e cb4f 9d3d
00000080: 94df fe3d 1433 d23c 83c8 fc3a 9507 99be
00000090: 398c 30be 6853 a1be 24b7 33be f5aa d0be
000000a0: 2281 c0be 5314 d5bd 25a2 8fbd b2f7 273e
000000b0: 8cf4 ea3c 2942 90bd 8780 2b3e 8727 8b3e
000000c0: 43b4 efbb 7fe7 653e c8c5 773c 4dbd 143f
000000d0: 2f76 bc3e 9de9 143c 424b 5c3c e70b 61be
000000e0: cb88 1c3e b856 c33c 052c 5e3c 69a3 c13d
000000f0: 7841 163e 1bfe 493e 94f6 c93d c136 45be
00000100: 6c54 5ebe b8cc 36be d3b1 19be d9f1 53be
00000110: 7557 dcbc c2d3 21bd 8176 4e3d f0e0 953e
00000120: 73b8 b73d 6a6d b5bd ec70 d2be 7140 4d3d
00000130: 0d76 1abe d88f 933d 180f 003f 27a7 c03e
00000140: adbd a63e de7a 4b3e 93be d1bd a7ec a8be
00000150: 4e3e e73e 4bf5 213d 9085 a4bd b969 603d
00000160: a3ad ffbd e2b2 fcbd 4ada ae3e 5b23 073d
00000170: 0464 a83d 70da 453e c4c4 ae3c 25e0 433d
00000180: 532e bcbd 0db5 ccbd e714 c2bd ade3 83bd
00000190: 70ad 1c3d f572 013e 2a43 ff3d bb77 6a3e
000001a0: b821 7b3d a967 b0bd 4929 abbe b0c3 59bd
000001b0: 78fb 6e3e ad91 17bb 3635 c03d 9956 47be
000001c0: 5036 633d 18cd 3ebe ac15 c83e 062d 343e
000001d0: b59a b5be 1ed3 983e d859 a53e ed21 a53d
000001e0: 6761 b73e c79f cfbd 76d4 31be e29e b83e
000001f0: 5d39 c33d eca6 b8bd 31f6 b9be 4f41 eb3c
00000200: 05fb 563d 5ee3 85be 49f0 c338 3cb7 39be
00000210: 07c0 2e3d d39d 273d c3ac 60be ed7f dbbd
00000220: 0829 d7bd 35e1 8dbe 6693 1dbe 1f56 903d
00000230: b47c 113e de07 03be 28d7 013e ae09 6f3e
00000240: a513 51be ef28 40be 57cc 50bd 6fce 323e
00000250: be7d 913d 61a2 713e 0f25 71be 0cc8 f4bc
00000260: 3722 8b3e 2e95 eebd 4e82 e73d 2bcb 5c3c
00000270: 27f3 09be 88f4 773e 1d5c b73e 067e 873c
00000280: 649d 633e 5a03 1c3e d581 e8be 647a c3be
00000290: 24af 99be 4909 23be 167d a5bd 50e4 3ebd
000002a0: 3e24 b4be 64ed c7bc 2b6b 743c ea5c a73d
000002b0: e82e 8ebd d1bf eb3c 484c 9a3d abfb afb9
000002c0: 35df b33c 4f16 22be 81a2 c5be 3bdc c4be
000002d0: 9843 3c3e 2af5 693e aff2 0dbe 6a49 90be
000002e0: cca1 063e 8c90 563d 3d26 66be a3c0 13be
000002f0: df77 6e3e 7270 a7bc ee41 753e 2ce5 9b3d
00000300: 3394 9fbe f2ce 1ebe a7b5 06be d82a a2be
00000310: 7e9b c03d 4342 3a3e ed54 c43d 949b c93e
00000320: 96c5 523e 4f24 38be 6421 69be 3e79 a9bd
00000330: 62c5 67be 5b40 95bc 14a4 00be 5c45 f63d
00000340: 7a8e 43be fd12 b9be a50f 9a3e 5de2 f2bd
00000350: eff2 eebd ea93 c93e 7e2b 8c3e b181 89bd
00000360: 4e0c 6d3e a6e5 763e 8b94 d83d 6005 853e
00000370: 7239 ecbd ef48 cfbe 1b44 833c f752 183e
00000380: 4796 cebd 3a2a 0abb 8360 afbe bf03 f4be
00000390: 493f 533d 5027 71be 360a f13d d61b 30bd
000003a0: 3ce5 213d 1fc9 143d 21c6 9c3e 02cf 4bbe
000003b0: a857 7bbe 7916 643d 8fec 08be 4ba5 47bd
000003c0: 7452 8ebc 616e b7bd 7274 bbbe ae06 263e
000003d0: 9185 8a3e e1fc 163f 0384 56bd a1d1 173e
000003e0: ea0b 1f3e a777 a43c a9b7 85bd 6212 d6bc
000003f0: 6c9f bdbe a40c b0be ed5c 38bf 4102 893e
0.042551607 0.20001972 0.12184065 0.044880304 0.17920396 0.100122385 -0.51981515 -0.030326245
-0.466214 0.23674108 0.4694686 0.0717678 -0.14400786 -0.13281062 0.007320094 -0.27896547
0.03948531 0.19757521 0.093632326 0.032683183 -0.036411975 -0.22390565 0.042909306 0.10141735
-0.14426015 -0.28100803 0.17619921 -0.16700636 -0.15085912 0.23246002 0.15180716 0.07681235
0.12444988 0.025659122 0.0019285831 -0.29888597 -0.1724099 -0.31508946 -0.17550331 -0.4075543
-0.3759852 -0.10404267 -0.070133485 0.16403082 0.028681062 -0.07043869 0.16748248 0.27178594
-0.00731519 0.2245159 0.015122838 0.5810135 0.36808917 0.009088901 0.013445677 -0.21977197
0.15286557 0.023845062 0.0135603 0.09454996 0.14673412 0.1972584 0.09861484 -0.19259168
-0.21711892 -0.17851532 -0.15009241 -0.20697726 -0.026897172 -0.03950859 0.050405983 0.29273176
0.08970728 -0.0885876 -0.41101778 0.050110284 -0.15084095 0.072051704 0.5002303 0.37627527
0.32566586 0.19871089 -0.10241427 -0.3299305 0.45164722 0.03954057 -0.080332875 0.054788325
-0.124842905 -0.12338807 0.34150916 0.032992702 0.082222015 0.19321609 0.02133406 0.047821183
-0.09188523 -0.0999547 -0.09476643 -0.0643991 0.03825134 0.12641509 0.124639824 0.22897236
0.061311454 -0.086135216 -0.33429936 -0.053165138 0.23338115 -0.00231276 0.09385149 -0.19466628
0.05547172 -0.18632925 0.39079034 0.175953 -0.35469595 0.2984857 0.32295108 0.080631115
0.358165 -0.10137897 -0.17366204 0.36058718 0.095324256 -0.09016213 -0.36320642 0.028717665
0.052485485 -0.2615003 9.343081e-05 -0.18136305 0.0426636 0.040921997 -0.21940903 -0.10717759
-0.10505873 -0.27710882 -0.1538826 0.07047676 0.14207727 -0.1279597 0.12679732 0.23343536
-0.2041765 -0.18765615 -0.050976124 0.1746156 0.071040615 0.23597099 -0.23549293 -0.029880546
0.2717454 -0.116495475 0.113041505 0.013476173 -0.13471662 0.24214375 0.35812464 0.016539585
0.22228009 0.15235654 -0.45411554 -0.38179314 -0.30016434 -0.15921511 -0.08080499 -0.046604455
-0.351839 -0.024405189 0.014918129 0.08172019 -0.069425404 0.028777989 0.07534081 -0.00033566108
0.02195702 -0.15828823 -0.38600543 -0.38449273 0.1838516 0.22847429 -0.13862108 -0.2818101
0.13147658 0.052383944 -0.22475524 -0.14428954 0.23287915 -0.02043936 0.23950931 0.076120704
-0.31167755 -0.15508631 -0.13155232 -0.31673312 0.09404658 0.1818934 0.09586511 0.3937651
0.20583186 -0.179826 -0.22766644 -0.08275078 -0.2263389 -0.018219164 -0.12562591 0.12024948
-0.19097319 -0.361473 0.3009006 -0.118595816 -0.1166743 0.39370662 0.27376932 -0.0671419
0.23149225 0.24111041 0.10575207 0.25980663 -0.11534394 -0.4048533 0.016023686 0.14875399
-0.10087257 -0.0021082298 -0.3425332 -0.47659108 0.051574025 -0.23550153 0.11769526 -0.042995296
0.039525256 0.036324617 0.3061991 -0.19903186 -0.24545157 0.055685494 -0.1337149 -0.04874162
-0.017373301 -0.089566 -0.36612278 0.16213486 0.27055028 0.5897961 -0.05237199 0.14826061
0.15531889 0.020076586 -0.06529171 -0.026131812 -0.37035692 -0.34384644 -0.72016793 0.26759532

block1.0.conv.bias f4 [8]
00000000: b6cf 7c3e c954 cf3d 4331 2a3e 9e55 0e3e
00000010: cbb5 31be e5e9 0bbd a186 a3bd 2ea7 2e3e
0.2468861 0.10123593 0.16620354 0.13899848 -0.17354505 -0.034158606 -0.07984663 0.17055961

block1.0.BN.weight f4 [8]
00000000: 1212 603f 76bf 8a3f 508c 663f 0218 793f
00000010: 762c 8f3f 6ebe 8a3f f26d 7f3f 0cff 853f
0.87527573 1.0839679 0.9005785 0.9730226 1.1185443 1.0839365 0.9977714 1.0468459

block1.0.BN.bias f4 [8]
00000000: 8eb9 0f3e 9561 173d 01f4 90be 9132 053e
00000010: e732 ac3e 7cad 163f 0eb6 003e 3bad a43d
0.14035627 0.036958296 -0.2831116 0.13007571 0.33632585 0.58858466 0.12569448 0.080408536

block1.0.BN.running_mean f4 [8]
00000000: 72a5 673d c340 59be 0452 8d3f bcab 073e
00000010: 5f64 a1bf ffed 45be c849 a8be 5d91 04c0
0.056554265 -0.21216111 1.1040654 0.13249105 -1.2608756 -0.1932907 -0.3286879 -2.0713723

block1.0.BN.running_var f4 [8]
00000000: d45a 123f 95d8 3a3f dbf4 9c3f 8f94 083f
00000010: fca3 833f 2fac 143f 6b67 c33f 088b 2740
0.5716984 0.7298673 1.2262224 0.5335168 1.0284419 0.5807523 1.5265936 2.6178608

block1.1.conv.weight f4 [16, 8, 3, 3]
00000000: fca7 78be 4339 303e e0b3 713e 348e e4bd
00000010: 3e30 79be db55 4b3c d0db cd39 41ec 2fbd
00000020: b4e6 e7bd 1856 bb3e 9e0a da3d a790 663e
00000030: 744a c23d e1f3 34bd 8951 573d 6e3e 7bbc
00000040: 6ba4 43be 758e a33c c1af 1e3e 8675 e03d
00000050: e249 b3bd b54a 6a3e 8ac8 0c3e cf2b 9d3c
00000060: b16a 64be 48d6 d5bc aea6 ecbb 1e2c 393d
00000070: 66ac a73e b58f 8d3e 5121 bebd eaa6 da3d
00000080: b459 93bd 9b59 9a3d a961 d93c b10b 5b3c
00000090: 85b5 b4be 4297 09bf 5a7f 2cbf 9bd3 b03a
000000a0: 1ffd 613d 74eb 5d3d 6d6b 06be 8345 8b3c
000000b0: 570f 3a3e e8c5 45bf b982 f4bb b7c6 9fbd
000000c0: dab4 26be 6d2c d9bd be8e d8bc 4635 5cbe
000000d0: aee1 1bbe e793 9b3c 92d4 f1bc 9dc8 7cbe
000000e0: f451 e1bd 44f1 393e 2cb1 043e 0697 923e
000000f0: e329 92bd c097 c93d ac2d 9d3d 3dc9 a83e
00000100: 330b a63e 5b4d 9b3e 8907 1e3e 5e03 8f3d
00000110: 2707 be3d f15c d53b 0b4f 02be cf9a e2bd
00000120: c679 5fbd 6d08 0f3d 49e8 35be 3fed 843e
00000130: bc22 993d de45 ad3d 9be3 283c fe3b 5d3e
00000140: 1c16 683e d5d1 7abe 0575 c0bd 21ba c8be
00000150: e1d3 e9bb 00b8 2f3e cda0 8fbe 749a fcbd
00000160: 3ae5 0a3d c35a 69be ba41 603d 0a0e 253e
00000170: f6cd b23e 2ff3 cdbd d768 833e 60d0 5ebd
00000180: 4566 d7bc 9531 143d 74aa b4be de33 783e
00000190: 990d 433d 6c02 553d 6281 3e3e 10af c13b
000001a0: c9b0 313e 62fc c1bd 159c 553d 50d1 1e3a
000001b0: cacb f5be 3fe9 c1be 24dc 173d f3a8 80be
000001c0: f26d 91be 6d0e 56be 3e80 c63e dd7d 113e
000001d0: fc1b 703e e766 213e c461 ebbc 1784 293e
000001e0: 715c a43e dae2 803d 0f7c afbd 1425 8d3e
000001f0: d718 26be b77d 3dbd 0e83 04be f60c 143e
00000200: e241 a43d 787e a2be e45b 9dbe 6222 473d
00000210: 3ae2 b7bd 7594 4cbd 5188 a53e 43d0 88be
00000220: 2cd7 08bd d80f 8f3e a2c7 c2be 2b2a 6ebe
00000230: ab59 19be 19ec 21bd 6a07 923d ad20 a53e
00000240: fcf1 a63d ee34 d13b 5401 bc3c ef63 0a3d
00000250: e87b 413e 022a b93e 750d 8cbe 0414 2bbe
00000260: 9a76 943d 15c8 863e d272 2a3e 2b5f ddbd
00000270: 24f7 823e 7bfe 09be f74b eebd b377 953e
00000280: b421 33be 502a cdbe 26a8 e2bc be41 493e
00000290: 3394 3d3c 5546 c83c a945 843b c8d9 c93d
000002a0: c162 3d3e 03d8 bfbc e5d3 32bc aaef d8bd
000002b0: 1fe2 373e f833 183e 2b2e 8d3e e226 893d
000002c0: 48fe d9bc 8790 f33e ed78 bbbd 00d4 76be
000002d0: 2f32 693e 18d2 e2bd 41d3 8dbe 6d93 7a3e
000002e0: 99ce 4ebd ce08 b7bd 575c 4cbe 8aaa c9be
000002f0: 5e10 b4be eb3e f23c b47f 453e 43bf 953c
00000300: 98e4 853c 9236 81bd ece7 e1b9 5520 82be
00000310: f980 89be bc31 7e3e 816d 78be 922f c1be
00000320: 9a85 f0ba 45a9 9fbe 2ba1 babe 9f74 1abe
00000330: e62b 273d d698 783e 45de e13d 81ee 383e
00000340: 41af c2bd 58cc a2bc 53a1 8a3d a94f 23bd
00000350: 36f4 5fbd 2653 753c e4d5 9dbe a4f4 c0bd
00000360: 689e 7bbe abe1 3bbd 7cc9 853e 2461 4c3d
00000370: adde 7abd b10f 2fbe a0e8 483e 3bb7 393e
00000380: 60db 413e 3d87 873d 168f db3d f815 a63d
00000390: bf7b 523e 6028 ce3e 12b6 e13e 49be 8dbe
000003a0: 60ae 9cbe 2b32 f5bd babf f1bd fa9e 24be
000003b0: dcd0 21bc 111e 28bc 4fdd af3d 9bce 403e
000003c0: 25ff afbd 02b4 9cbd 15ab de3d 301b 2bbe
000003d0: 6e12 09be 5f6e 4dbe 1121 debd b6ec 33bc
000003e0: 926b 4fbe 8896 0a3d dffa d0bd 759d eebc
000003f0: cef6 04bd 6062 643e b457 a43e a75e ef3d
-0.24282831 0.17209344 0.23603773 -0.111599356 -0.24334809 0.012410606 0.0003926442 -0.04294992
-0.113233 0.36589122 0.10646556 0.22516118 0.09486857 -0.044177894 0.052567992 -0.015334709
-0.19105689 0.01996539 0.15496732 0.10959916 -0.087543264 0.22880061 0.13748375 0.019185929
-0.22306325 -0.026103154 -0.007222018 0.04520809 0.32748717 0.27648702 -0.09283698 0.106763676
-0.07194844 0.07536622 0.026535826 0.013369487 -0.35294738 -0.53746426 -0.67381823 0.0013490798
0.055173036 0.054179624 -0.13126917 0.01700092 0.18169914 -0.77255106 -0.0074618724 -0.07801574
-0.16279927 -0.10604177 -0.026435252 -0.21504697 -0.15222809 0.018991424 -0.029520307 -0.24685903
-0.110019594 0.18158442 0.1295821 0.28630847 -0.071368955 0.09843397 0.07674727 0.32966033
0.3243042 0.30332455 0.15432562 0.06983064 0.09278708 0.0065113236 -0.12725465 -0.11064684
-0.05455949 0.034920145 -0.17764391 0.25962254 0.07477328 0.08460592 0.010308172 0.21604916
0.22664684 -0.24494107 -0.0939732 -0.39204505 -0.0071358536 0.17160034 -0.2805237 -0.12334147
0.033910014 -0.22788529 0.05475018 0.16118637 0.3492276 -0.10056149 0.25665924 -0.05439794
-0.026293883 0.036180098 -0.35286295 0.24238536 0.04762039 0.052004263 0.18604043 0.0059107617
0.17352594 -0.09471966 0.052150805 0.00060584117 -0.4800704 -0.37873265 0.037075177 -0.25128898
-0.28404194 -0.2090394 0.38769716 0.1420817 0.23448175 0.1576191 -0.028733142 0.16554295
0.32101777 0.062932685 -0.08568584 0.2756735 -0.16220413 -0.04626247 -0.12940618 0.14458069
0.08020379 -0.31737113 -0.3073417 0.048616774 -0.08978696 -0.049946267 0.32330564 -0.2672139
-0.03340833 0.27941775 -0.38042933 -0.23258273 -0.14975612 -0.0395318 0.0713032 0.32251492
0.081516236 0.0063844835 0.022949852 0.03378671 0.18894923 0.36164862 -0.27354017 -0.16706854
0.07249184 0.26324525 0.16645363 -0.108091675 0.25579178 -0.13475983 -0.11635583 0.29192886
-0.17493325 -0.40071344 -0.02766807 0.19653985 0.011570978 0.0244476 0.0040366245 0.098559916
0.18494703 -0.023418432 -0.010914777 -0.10592587 0.17957352 0.14863575 0.27574286 0.066968694
-0.026610509 0.47571203 -0.09153924 -0.24104309 0.2277305 -0.110752285 -0.27700236 0.24470301
-0.050489996 -0.08937226 -0.199571 -0.39387923 -0.35168737 0.029571017 0.19286996 0.018279677
0.016344354 -0.063092366 -0.0004308814 -0.25415292 -0.2685621 0.2482366 -0.24260522 -0.37731606
-0.0018350363 -0.3118383 -0.36451086 -0.1508355 0.04081335 0.24277052 0.11028723 0.18059732
-0.09506083 -0.01987283 0.067690514 -0.03987089 -0.054676257 0.014973437 -0.30827248 -0.094216615
-0.24572146 -0.04586951 0.26130283 0.049897328 -0.061247516 -0.1709583 0.1961999 0.18136303
0.18931341 0.066175915 0.10720651 0.08109659 0.20555018 0.4026518 0.4408422 -0.2768424
-0.30601788 -0.119724594 -0.11804147 -0.1607627 -0.009876456 -0.010261075 0.08587133 0.18828814
-0.08593587 -0.07651521 0.10872475 -0.1670959 -0.13385937 -0.20061634 -0.10846151 -0.010981729
-0.20255879 0.033834964 -0.102041 -0.029127816 -0.032461934 0.22303152 0.32098162 0.116879754

block1.1.conv.bias f4 [16]
00000000: 37bd 16be a01c 6b3e 7476 733e 46f5 933e
00000010: d129 47bd 45ad 573e ac98 3d3e ed4f 76be
00000020: 6bb7 263e d9fa 2fbe 614e a13e 2e79 2cbd
00000030: 022c 1e3e 27d1 f6bd b520 b6bd 25b9 fbbc
-0.14720617 0.22960138 0.23775655 0.28898066 -0.048623864 0.21062191 0.18515271 -0.24053927
0.16280906 -0.17185535 0.3150511 -0.042107753 0.15446475 -0.120516114 -0.08892957 -0.030727932

block1.1.BN.weight f4 [16]
00000000: ade4 773f a182 753f 28c0 513f bd00 513f
00000010: 711c 903f c16c 7c3f 04d0 783f 0f14 763f
00000020: efba 873f 87a4 9d3f 4323 813f 1b7b 883f
00000030: d36d 8a3f 2065 863f 4348 7d3f 274e 873f
0.96833307 0.9590245 0.8193383 0.8164175 1.125868 0.98603445 0.97192407 0.96124357
1.0603923 1.2315835 1.0088886 1.0662569 1.0814766 1.0499611 0.9893839 1.0570725

block1.1.BN.bias f4 [16]
00000000: 2968 a5bd af64 7ebe ecf0 54be e283 05bf
00000010: efc6 76be cc7c 88be bbab b2be 746f c5bd
00000020: 3764 3c3e 051e 283e 9a12 bebe 9e64 adbe
00000030: 1198 56be 295c 68be 2f6c 9cbe 39f2 89be
-0.080765076 -0.24843095 -0.2079503 -0.5215436 -0.24099325 -0.26657712 -0.34896645 -0.096403986
0.18397604 0.16417702 -0.37123567 -0.33865827 -0.20956446 -0.22691406 -0.30551288 -0.26942614

block1.1.BN.running_mean f4 [16]
00000000: fd61 81bf eba2 5e3d f726 debe 6ae5 733f
00000010: 04b9 76bf bd80 a33e 73c2 fe3f 8efa 6fbf
00000020: 0c9f 833f 2946 29c0 28e7 94bf 0fbd cabe
00000030: b92f 35bf c296 613f 1811 553e d084 8ebf
-1.0108029 0.05435459 -0.43389103 0.95271933 -0.9637606 0.31934157 1.9903091 -0.9374169
1.0282912 -2.6449072 -1.1633043 -0.39597365 -0.70775944 0.88120663 0.20807302 -1.1134281

block1.1.BN.running_var f4 [16]
00000000: 8a08 2b40 3742 0440 57e7 3640 f277 f53f
00000010: 25dd 1840 77a1 8c3f 2a34 bc3f 9f96 0640
00000020: 7873 2f40 c26d 3d40 843f 1840 2144 0440
00000030: 999d 1340 f3bd d13f aee8 a13f daf9 873f
2.6723962 2.0665414 2.8578699 1.917723 2.3884976 1.0986775 1.4703419 2.1029432
2.7414227 2.959824 2.3788767 2.0666583 2.306494 1.6386093 1.2649133 1.0623124

block1.2.conv.weight f4 [8, 16, 3, 3]
00000000: 9684 c03d 6a40 313e b0ba 02be a3cb 0b3e
00000010: 8a46 3b3e 11d5 62bd ad9e 1dbe 29b1 fbbd
00000020: 4f3a 8ebe 401a 58be e840 3cbe 1d40 c13d
00000030: f09e 3b3e 9b5a 413e 218d c73e c7df 56be
00000040: e8a8 c1be e4f9 abbe d9c4 91bc 7640 37be
00000050: 5240 c2be 163e 3abd f53d 9abd 216b a7be
00000060: 2ca5 22be 4d5d fbbd ab6d 223d 9822 cdbd
00000070: 015c 99bc 8aed ffbc 4739 f3bd ba97 8b3c
00000080: 0bb1 9d3e 5d0b e83d ce66 433e 4ae1 303e
00000090: 843b f2be ec8b bfbe bcf5 753c e5e2 94bd
000000a0: 0ab9 a1be eee0 90be fbc7 9cbe 3135 e0be
000000b0: fcb4 44be b70b bf3d 0454 41be fe56 81be
000000c0: 089f 033e 9fa5 5f3d 6e05 343d 005f 06bc
000000d0: 241f b7be 8640 2abe 0c08 43be 4cc9 08be
000000e0: c0fe 4cbe 0698 ee3d 51c4 9c3e 4a4a 523e
000000f0: 5c71 57be fe56 f1bd dac8 c1be a574 953e
00000100: 1077 c73d 475f b23d 8370 a13e 8f0b 323d
00000110: 7a24 593d 9f35 2c3d 4d57 143c fe72 6cbd
00000120: 8b84 f9bd ae34 363e 4f04 883e d159 73bd
00000130: 9aa7 993d c4c4 773d 2fb2 1b3e c1cd 283e
00000140: 5aac 883e 3f3c 193e 4ad0 193e 9e56 663e
00000150: 576d a43d 8f3a 0c3e 60e4 bd3b 22fd 103e
00000160: 7c44 c43e c676 e13d 54bd 743d ad44 5b3e
00000170: 500d 6d3c f9e4 1abe cf0d 1c3d b45f c2bd
00000180: 782d e4bc 7028 09be a4f6 10bc f4b7 95bd
00000190: 35d2 3d3e 8d9f 823e 06bb 0fbc e15e a9be
000001a0: cbae 88be 0c45 703e cf2a 65bd b4fc a33d
000001b0: 9e5d 193d 911f 143d 6af3 613d 5522 afbd
000001c0: d04e 8dbd 24be 8abe 4f6e 993d 9bee 6d3e
000001d0: d5e4 3f3e 45f1 a53d ceeb 81bd 9c57 6d3e
000001e0: c765 02bf 683c 9cbe c1ec 17bd 1c9a 203d
000001f0: efc6 313e 19d9 303e 2103 b03e 6df7 543e
00000200: 7d30 68bd 8a1c 153e 28f3 183e 92df e6bb
00000210: c319 6cbe 4f5e 0abf 8290 88be a3a6 4ebd
00000220: d504 4b3e 7cff 5e3e 7781 a8be 2538 763d
00000230: a974 d63d 23da c0be 7867 703e 2a1d f5bd
00000240: a093 20bd 7557 d23d 8a96 21be d61e eabd
00000250: 6fac 993c b8bb 5dbe 261e 7dbd 951e a63d
00000260: 7a52 273c ed6e 8a3d a449 bbbd 9164 073e
00000270: bd07 a2be 0ead 9abe 77cf 21be e033 d53d
00000280: f5d3 133e 1a45 a13e 6745 333e dea7 533e
00000290: a15f 2c3b a3a8 523d 59be e43d c171 6cbd
000002a0: 0d77 493e 6795 a03d 763f 8fbc 4b4b 163c
000002b0: 89a1 a0bd 5a97 f0bd 4fd7 4ebe 71c1 81be
000002c0: 0602 7cbe 4075 ac3c 4e52 bd3d ba32 f63d
000002d0: 4f21 0e3d 4095 043e a9ab 2a3e f3bb adbe
000002e0: 01f4 023e b7c4 96bd 4778 f23d f5b6 c03e
000002f0: f650 82bd f87b 1fbe 82a2 eebb 21a1 623d
00000300: 12f6 583e 0476 863e 498a 953e 59d4 86bd
00000310: 3f8a f1bd a402 4c3d 4f58 6e3e 4a2f 813c
00000320: a525 a23e 044a cbbd 6ff0 a5be 3516 563e
00000330: 97b3 1d3d b009 983d 008a 343e 2500 f03d
00000340: 55f7 80bd 5349 c3bc 22de ca3c feeb dfbd
00000350: 45c9 323d 5a08 9c3d 1617 a2bc e027 863e
00000360: 70ee 97bc 9d12 8c3e e9ae 363e a755 d8bc
00000370: 21a5 f7bd 9f93 f3bd 18ee 583c 731f 4cbe
00000380: 8c70 56be 32bc 3cbf aba9 09bd 7808 063e
00000390: c95e a7be 7a24 573e cfd5 143e b5e3 5d3d
000003a0: 963e 893e 8f99 1fbd 8ff7 323e 0949 373e
000003b0: 1b74 c33d 02a2 67be 0e07 57bd 9bc7 843e
000003c0: 7e86 963e fc98 d93d eb9d 083f 282d 5fbe
000003d0: 16b5 913e ec62 f33d ef1e 36be 1fae f83d
000003e0: 3ec1 023e 9660 0e3e 7148 be3c 79f9 d53d
000003f0: 17df 8d3e e179 99bd 19e5 6c3e d45f 0b3e
0.09400289 0.17309728 -0.12766528 0.136519 0.18288627 -0.055378977 -0.15392561 -0.1228965
-0.2777886 -0.21103764 -0.18384135 0.09436057 0.18322349 0.1888222 0.3897486 -0.20983802
-0.37824178 -0.3358909 -0.01779406 -0.17895684 -0.37939698 -0.045469366 -0.075313486 -0.3269892
-0.1588332 -0.12273655 0.03965537 -0.10016364 -0.018720629 -0.031241197 -0.11876159 0.017040122
0.30799136 0.113302924 0.19082186 0.17273441 -0.47311032 -0.3741144 0.015012201 -0.07269839
-0.31586486 -0.28296608 -0.30621323 -0.43790582 -0.19209665 0.09328406 -0.18879706 -0.25261682
0.12853634 0.054601308 0.04395049 -0.008201361 -0.35765946 -0.16626176 -0.19046038 -0.13358039
-0.20019054 0.1165009 0.30618528 0.20536152 -0.21039337 -0.117841706 -0.3784855 0.29190555
0.09739506 0.08709579 0.31531152 0.043468054 0.053013302 0.042043325 0.009054017 -0.057726853
-0.12183484 0.17793533 0.26565787 -0.059411827 0.075026706 0.060490385 0.1520469 0.16484739
0.26693994 0.14964388 0.15020862 0.2249398 0.080286674 0.13694213 0.0057950467 0.14159063
0.383335 0.11008982 0.05975087 0.21412916 0.014468506 -0.15126409 0.038099106 -0.0949091
-0.027853712 -0.13394332 -0.008847866 -0.07310477 0.18537219 0.25512353 -0.008772617 -0.330802
-0.26695856 0.2346384 -0.05594903 0.08007184 0.037442796 0.036162917 0.05516378 -0.0855147
-0.06899798 -0.2709819 0.07491743 0.23235552 0.18739636 0.08102659 -0.06343804 0.23177952
-0.5093655 -0.30514836 -0.03709102 0.03920947 0.17361043 0.17270316 0.34377387 0.2079751
-0.056686867 0.14561668 0.14936507 -0.0070456946 -0.23056702 -0.54050153 -0.2667275 -0.050451886
0.19826062 0.21777147 -0.32911274 0.060112137 0.1047147 -0.37666425 0.2347697 -0.11968453
-0.039203286 0.10270587 -0.15780082 -0.11431663 0.01875898 -0.2165364 -0.06179633 0.08111302
0.010212535 0.06759439 -0.09144905 0.13221957 -0.3164653 -0.30210155 -0.15801798 0.10410285
0.14436324 0.31498033 0.17506944 0.20669505 0.0026302116 0.051430356 0.111691184 -0.05772567
0.1967432 0.07840996 -0.017486315 0.009173225 -0.078433104 -0.11747618 -0.20199321 -0.25342897
-0.24610147 0.021052003 0.09244214 0.12021394 0.034699734 0.1294756 0.16667046 -0.33932456
0.12788393 -0.07361739 0.11839347 0.37639585 -0.06363098 -0.15574634 -0.007282556 0.055329446
0.21187618 0.26261914 0.29207066 -0.06583471 -0.117939465 0.049807206 0.23275875 0.01576962
0.31669345 -0.09926227 -0.3241 0.20906909 0.03850135 0.07423723 0.17630768 0.117187776
-0.06297175 -0.023838675 0.024764124 -0.10933684 0.043648977 0.076187804 -0.019786399 0.26202297
-0.018546313 0.2735795 0.1784016 -0.02640803 -0.12092043 -0.11893391 0.01324036 -0.19933872
-0.2094137 -0.73724663 -0.033609074 0.13089168 -0.32689503 0.21010008 0.14534687 0.054172236
0.26805562 -0.038964804 0.17477249 0.17898954 0.0954363 -0.22620395 -0.052496962 0.25933537
0.29399484 0.106248826 0.53365964 -0.2179457 0.2845847 0.11884102 -0.17785238 0.12142586
0.12769029 0.13904032 0.023227902 0.10447974 0.27709267 -0.0749395 0.23134269 0.13610774

block1.2.conv.bias f4 [8]
00000000: f385 25be 6483 6bbd 96a1 ff3d 64dc cebd
00000010: b23d 2c3e 8348 6abe 88d2 2c3d ffd1 49be
-0.16164379 -0.05749835 0.12481992 -0.1010063 0.1682041 -0.22879224 0.042192966 -0.19709013

block1.2.BN.weight f4 [8]
00000000: fb8a 803f 2cc7 613f 4111 8d3f fcef 703f
00000010: 4222 923f 8766 943f 732d 603f 79de 8c3f
1.0042413 0.8819454 1.102089 0.9411619 1.1416705 1.1593789 0.8756935 1.1005393

block1.2.BN.bias f4 [8]
00000000: 1b6f a5bd e653 a53c dc11 8ebd d3a5 15be
00000010: 7555 243d 19e4 febc f618 aabe f51f 79bd
-0.08077832 0.020181607 -0.06937 -0.14614038 0.04012056 -0.031114625 -0.3322217 -0.060821492

block1.2.BN.running_mean f4 [8]
00000000: 33f4 d4bd d6f0 0e3e e67a 50bf 8a37 8a3e
00000010: 5ab0 c9be d74a e5bf fea2 d8bd 87e5 8bbf
-0.1039814 0.13959059 -0.8143753 0.26995498 -0.39392358 -1.7913464 -0.10577963 -1.0929421

block1.2.BN.running_var f4 [8]
00000000: 773a 3640 3c20 ce3f 88f0 7d40 e17a b23f
00000010: 8321 b640 df8b 9840 00cf 4140 cadd 1b40
2.8473184 1.6103587 3.9678059 1.394375 5.691591 4.767074 3.0282593 2.435412

block1.3.conv.weight f4 [4, 8, 3, 3]
00000000: ebdf 3ebb d1d1 e1bd 0a5d f3bd 6275 c53c
00000010: c077 723e 1306 403e da92 a1be 657a 38be
00000020: 70d7 81be 6d66 acbc 5533 cd3d 66d0 973e
00000030: 2c2e 34be 374e 173e 62e3 3b3d b4e0 0f3d
00000040: 97a7 713e dbb5 523e e49a 3d3e 71a2 8d3d
00000050: 02e0 9bbe 38f6 6f3e 402f 1e3e bd91 6dbe
00000060: 45d5 573e 5264 7b3d ec1d 823e f11a cbbd
00000070: 3311 14be 891e 8dbe 01b2 5e3d f9ce 8e3e
00000080: 26b0 ce3d f593 803e a176 5f3e f030 c0bd
00000090: 2257 b83e 3d5f a8bd 64c4 35bd 6bf8 c7bd
000000a0: a51e 29be 92a3 83be 2188 2ebe 68b8 05be
000000b0: 1848 d93a 3c1e bcbe afad a0be 8c20 00bf
000000c0: 4e5e c7bb d523 743e 84bc 23be 84e7 acbe
000000d0: 99a5 b93e ad49 153e 005d 9b3d 33a8 373c
000000e0: 1c37 913d 55b2 a43d 0c08 273e df46 35be
000000f0: 9b20 e33d 3679 eebc 3458 bdbd 5d55 ab3d
00000100: cda3 21be f1ea 803e 63cc b23d 4046 ff3d
00000110: 87bb b53e f1a7 26be 4c4a b83d ae5d 2e3e
00000120: 2c1f debd a625 6dbe 3d57 1c3e 4b0f b7bd
00000130: 9790 48bd 4aee df3d 5873 ccbe 1e5d 2abe
00000140: 91bf 16bf e264 9a3e f906 dbbd e70f dbbd
00000150: b8cf 8f3d def3 a3be d29e a8be d956 ac3d
00000160: 3873 9c3b b90d 4f3d e2a5 a9bd 2210 ec3d
00000170: f0a5 df3d befd 9abc a237 0abe 1dbc 823e
00000180: 8424 8bbe 3460 0fbe b5cd 913d c062 01be
00000190: 252d 1c3e 436a 303e 4fea 613c d1a1 b7bd
000001a0: 0994 cbbd 5796 2e3e e7c0 823d 4921 91ba
000001b0: 54cf 59be 2c33 9abc dae0 3d3e b50c 88be
000001c0: e269 15be c607 ec3d 2137 36be 1217 c5be
000001d0: 561c f7bd 9125 9b3e 6802 133e 8e91 fabd
000001e0: 581d 1abe 9e38 85be 4bc0 c2be e8f0 563e
000001f0: 848c cf3d a290 4dbc 9612 673e ed25 af3d
00000200: a106 863d d440 edbd 6fdb a1bd 8903 fcbd
00000210: 1e93 89be 5195 f3be f420 ebbe 0097 343e
00000220: ff1f ce3d bd32 0f3e 8261 3b3e bc6b 543c
00000230: 0c82 d4bd 403a 8b3e 90ba 18bf d525 44be
00000240: 4df1 62be 1218 32be d84c 16be 66b4 d83d
00000250: c880 053e 025c be3c 8349 38be c6a0 82be
00000260: 3dd8 a7be a2ba 013e a107 033d 5a5c 96bd
00000270: 6854 253e dbb9 f6bd a58b 57bc 04a5 b7bd
00000280: c634 4cbd 1d9b ebbd 2ee6 9e3d fa9d 923e
00000290: 756d d03e 1385 f53d 2713 033d 59c7 633e
000002a0: 280b 02bd 973f f9be 195c 47be e373 3bbc
000002b0: 56f4 ac3d a194 1fbe f1d2 a93e 9379 393e
000002c0: adbe 07be 47ed bf3d 9ed4 973e 7140 913e
000002d0: 6d89 2bbf 78f7 f0bd 3f49 ea3d 075b 3fbe
000002e0: 7139 46be 3e1f 943d a134 62be dd92 c3be
000002f0: ee55 d1be 51ea 2c3e da37 a6bd c759 0cbc
00000300: 50ae 6dbe b123 95be 6b7e a4bd 6cd1 113e
00000310: 6546 d03c 6cef d83e 7e9d 22be fc07 553d
00000320: 7a3a 9a3e 49b2 0d3e e70b 363e 5329 403e
00000330: 565e 5f3e f208 4cbe 3eca ee3b 250d 0bbe
00000340: f3e3 21be c294 5cbd 7125 be3b a630 21be
00000350: 5dbf 213b d9be 1cba 9263 38bc 0688 b1be
00000360: 48be 353e 547e b83d 6196 21be 166b 013e
00000370: 71ba e9bd 1761 3a3d 36c5 813e 5c84 1bbe
00000380: 200c 0ebe f85f bdbd 3454 1d3d 7d40 3a3e
00000390: 284d 08be 15c8 debc b602 7a3e cb28 243d
000003a0: 0bd1 9ebe 07e9 01bf 5391 0e3d 3703 f1bd
000003b0: eb17 2abe 29be 28be 808e c2bd bd8d f23c
000003c0: 2fb4 94bd 2556 d3bd 286b b1be 5f28 14bf
000003d0: 5a93 8cbe ef36 d13d 0369 2abe 8cb2 6e3c
000003e0: 088a a73e 4894 4ebe 4ff7 193d d1bc 133e
000003f0: c1d8 3ebd 3067 8cbe 577c 78bd c4a8 22bd
-0.0029125165 -0.110263474 -0.1188298 0.024103824 0.23678493 0.18752317 -0.3155735 -0.1801544
-0.25359678 -0.021044934 0.100195564 0.29651183 -0.17595738 0.1477593 0.045871146 0.035126403
0.23599087 0.20577185 0.18516117 0.06915749 -0.30444342 0.23433769 0.15447712 -0.23200126
0.2107745 0.06137497 0.25413454 -0.09917248 -0.14459686 -0.2756236 0.054368977 0.27892283
0.100921914 0.25112882 0.21822597 -0.09384334 0.36003977 -0.0822129 -0.044376746 -0.09764179
-0.16515596 -0.25710732 -0.17044117 -0.13058627 0.0016577272 -0.36741817 -0.3138251 -0.5004966
-0.00608424 0.23841794 -0.15989882 -0.33770382 0.36259153 0.14578886 0.07586098 0.011209535
0.070905894 0.08041827 0.16311663 -0.17702816 0.110902034 -0.029110532 -0.09245339 0.08365891
-0.15785141 0.25179246 0.0873039 0.12464571 0.35494635 -0.16275002 0.08998546 0.17027923
-0.10845789 -0.23158893 0.15267654 -0.08938464 -0.048966017 0.10934122 -0.3993175 -0.16637084
-0.5888606 0.30155092 -0.10694689 -0.106963925 0.07022041 -0.32021993 -0.3293367 0.084150024
0.0047744773 0.050550196 -0.08283593 0.115265146 0.10920322 -0.018919822 -0.13497785 0.25534144
-0.27176297 -0.14001542 0.07119314 -0.12635326 0.15251596 0.17228036 0.013788774 -0.08966411
-0.09940345 0.17049538 0.063844495 -0.0011072542 -0.21270496 -0.018823229 0.18542805 -0.26572195
-0.14591172 0.1152492 -0.17794468 -0.38494164 -0.120659515 0.30302098 0.14356387 -0.122347936
-0.15050256 -0.26019758 -0.38037333 0.20990336 0.10134223 -0.01254669 0.22565684 0.08552156
0.06544233 -0.115846306 -0.07903182 -0.12305362 -0.26870054 -0.47574857 -0.4592358 0.17635727
0.100646965 0.13984199 0.18298915 0.012965139 -0.10376367 0.2719288 -0.5965967 -0.19155057
-0.22162361 -0.17391995 -0.14677751 0.10581283 0.13037407 0.023237232 -0.17996792 -0.25513285
-0.32782164 0.12668851 0.031989697 -0.073418334 0.1614548 -0.12047168 -0.013155852 -0.08967021
-0.049855016 -0.11504195 0.07758747 0.28636152 0.4070851 0.119882725 0.032000687 0.22244014
-0.03174892 -0.48681328 -0.19468726 -0.011441204 0.08445041 -0.15584041 0.33168748 0.18112783
-0.13256331 0.09371429 0.29654402 0.28369477 -0.6700657 -0.11765951 0.11439752 -0.18687068
-0.1935785 0.072325215 -0.22090389 -0.38197985 -0.40885872 0.1688626 -0.081161216 -0.008566326
-0.23211026 -0.29128793 -0.08031925 0.14240044 0.025424192 0.42370164 -0.15880391 0.052009568
0.3012274 0.13837542 0.17777978 0.18765764 0.2181333 -0.19925287 0.0072872927 -0.13579233
-0.15809612 -0.053852804 0.005802803 -0.15741214 0.0024680712 -0.0005979366 -0.011254208 -0.3467409
0.17748368 0.0900847 -0.15780021 0.12638506 -0.11412514 0.04550275 0.25345773 -0.1518721
-0.13871813 -0.0924682 0.03841038 0.18188663 -0.13310683 -0.027195016 0.24415097 0.040077966
-0.31018862 -0.50746197 0.03480656 -0.11768191 -0.16610686 -0.1647879 -0.09499836 0.029608602
-0.0726093 -0.10319165 -0.34652066 -0.578741 -0.2745617 0.10215556 -0.16641621 0.014568936
0.32722497 -0.20173752 0.037589367 0.14427496 -0.04659343 -0.27422476 -0.060665455 -0.03971173

block1.3.conv.bias f4 [4]
00000000: 245e 9abd 4e2d f93d 28a1 d23c 61c0 a83b
-0.07537487 0.12166844 0.02571161 0.0051498865

block1.3.BN.weight f4 [4]
00000000: f63c 843f 975b 8b3f 4b71 873f d8c4 683f
1.0331104 1.0887326 1.0581449 0.9092536

block1.3.BN.bias f4 [4]
00000000: 825c 4abd 27ca 5b3d 2a98 053e 548e 913d
-0.04940463 0.053659584 0.13046327 0.07107225

block1.3.BN.running_mean f4 [4]
00000000: d52f 5e3d 207a 99bf 344a 85bf b02d 8fbf
0.054244835 -1.1990395 -1.041327 -1.1185818

block1.3.BN.running_var f4 [4]
00000000: 819d df3f 396e b43f 0594 2240 8f55 c23f
1.7469941 1.4096137 2.5402844 1.518236

block2.0.conv.weight f4 [8, 4, 3, 3]
00000000: 75c7 debe 85a9 7cbe 6d84 2abe 73a6 69be
00000010: bae4 e23c f548 35be efdd 973e 066b 6b3e
00000020: de57 85bd 8633 1bbf bcc0 ed3d 53dc 23be
00000030: bbd5 ffbd cf3e 553e e9ed 733d 3be8 db3d
00000040: 785c 943d 6bf1 133e 57a4 72be 0bad f93d
00000050: 4ca9 8d3e 15ad b9bd 4dbf 96be 2f3a 123e
00000060: 3a64 e6bd 0110 8a3c e501 a13d f544 cb3d
00000070: b3d1 94bd 75fc e6be 5090 9f3e 41d8 103e
00000080: 4fd9 93be 8b10 3b3d 07f5 c4bd 8803 79be
00000090: 3c24 bcbe ad8f 6e3d 9012 0a3d 9eec 0dbe
000000a0: a188 413e ef7b 8f3e 16c2 203e a2ad 513e
000000b0: 254f c73d 1b2b 1d3e ec41 c8be 9606 acbe
000000c0: b90d 983c 4539 323e 81c2 c0bc 4299 c43d
000000d0: d7a8 8d3e 9957 303d 7c6b eabd 0f25 10be
000000e0: 5f01 f4bd 5bf4 72bd 7161 4fbe d017 c1bd
000000f0: 854c c23e 7524 b63e 0141 103e 282b b3be
00000100: f84f b7bd d506 593e dd63 4fbd c04a aa3c
00000110: aeaa 4ebe b915 813e 2720 3dbd 006e 3dbe
00000120: e41f 87bd 5613 d6bd e4eb 1fbe d9ac 9dbd
00000130: 7fe8 82bd 09c2 85be 4d02 79be eabe 19be
00000140: 5901 9c3e dce6 62be 4ddd 353e 5ec4 fd3d
00000150: 9b4a f2be 8003 41bd c0e7 93be e006 323e
00000160: 26c4 973e 6db4 963e 0cf5 24be 799b 493d
00000170: 7c86 853e c2c0 2cbe e0ab 69be 1a4e 99be
00000180: e575 63be 7e7b 51ba 74b7 583d ec8b 8ebd
00000190: 783b 7dbe 73f2 fbbe 2958 d6bd 9b65 bdbd
000001a0: 8c26 97bc a906 2a3e 0a10 e23d 50a1 b13e
000001b0: 3027 ea3d baae 1a3c 8999 2a3e 6dc2 b0be
000001c0: 86ee 80be d3b1 803c 6066 bf3d 9ef5 803e
000001d0: 5923 db3d b21d 943e 2c06 6b3e d485 1b3d
000001e0: a2d1 b73c c5d3 5c3e 6c8d c5bb 9af0 32be
000001f0: d9ec aebd 2ebe 8f3d 6b69 fbbe 5356 f2be
00000200: 0437 6abe be7e 643e ad1a be3c 3ed0 ae3e
00000210: ce95 26bd b597 da3d 80c5 68be c4cf 44be
00000220: 1240 56be 69ed fabd 5d3c 3b3c 2898 67be
00000230: 2a92 1a3c 4a49 a9be 40a4 3abd 6aab 75be
00000240: 661c 193e 5653 803e 25dc 9abd 8180 4dbd
00000250: 4ebd 44be 483c 31bd b7fd 433e ef5e c0be
00000260: d0c4 1cbe e264 823e 4627 243e da04 ce3e
00000270: 2975 4dbe 06e9 1f3e 2384 973e 144e 543e
00000280: 3a02 e63e 1188 dd3d 24c1 ae3e 6ee1 d13d
00000290: cf37 9bbe f78c d73d 0205 673d 048e 18be
000002a0: 8cb9 783e 6add 3f3e 4ad0 cc3d 57ca 6c3e
000002b0: ad04 b4bd 6753 7cbe a532 c8ba 012b d63c
000002c0: 3bf9 293d 96fc 263e 6361 9ebd 9207 bfbe
000002d0: eb29 5c3e 0ed0 9c3d d03d a33e 11af 4f3d
000002e0: 2530 07bf c4fb bbbe 1f7a bbbb 1c5f c7be
000002f0: 69f2 ddbd ac77 50be fb76 e2be ded8 5ebd
00000300: 06b2 33bc 77b5 53be 4a05 20be 8d7c 803c
00000310: bd60 e6bd 4246 a3be 9f70 12bd 010b 7fbd
00000320: a06a efbe fc8a bdbd 1847 853d 4686 ee3d
00000330: cff5 27be d947 c4bd 48c6 983e d920 5bbb
00000340: 36c6 273d 66f0 0e3e badb c43d 55dd 553e
00000350: 35ff d63d b080 afbe 920f 0f3e 012e 2f3d
00000360: f0f4 5f3e 46ec 803e b16b cb3d 3777 203e
00000370: 6282 633e 8c77 593e 8b0a 37be 4e35 d13d
00000380: 4d15 533d 6d7e a7be 8b09 92be 4875 efbd
00000390: 4c8a cd3d ee96 9d3d f579 033e 5c73 823d
000003a0: 4c01 803e 6a1d 4d3e 1db5 75bc f557 323e
000003b0: f3f7 143e 6ca5 9c3d 6778 c93c 4c17 8b3e
000003c0: 3f7f 8bbe 5e36 f1be 5dae 89be 890b c43e
000003d0: c27b 293d 14b6 113e f332 21be b394 9e3d
000003e0: 20db 853e 2357 cbbc 30b4 17bd 7394 c83e
000003f0: c557 fb3d 4396 5ebc 0c42 cb3d 491c c93e
-0.4351155 -0.24674042 -0.16652079 -0.22817402 0.027696956 -0.17703612 0.2966151 0.22990045
-0.065109 -0.60625494 0.11609027 -0.16002016 -0.12491938 0.20824741 0.05955306 0.10737654
0.072441995 0.14447562 -0.23695503 0.121912085 0.27668226 -0.09066216 -0.29442826 0.14280008
-0.112495854 0.016853334 0.078616895 0.09925262 -0.072665595 -0.45114484 0.3116479 0.14144994
-0.2887673 0.045670073 -0.09617048 -0.24317753 -0.36746395 0.05824249 0.03370911 -0.13859794
0.18899776 0.2802424 0.15699038 0.20476392 0.097318925 0.15348475 -0.39112794 -0.33598775
0.018561231 0.17404659 -0.023530247 0.09599544 0.27667877 0.04305229 -0.11446282 -0.14076637
-0.11914324 -0.059315067 -0.20252015 -0.0942837 0.37949005 0.3557469 0.14087297 -0.34993863
-0.089508 0.21194012 -0.050632346 0.020787597 -0.20182297 0.25211886 -0.04617324 -0.18498993
-0.065978795 -0.10452907 -0.15617329 -0.07698984 -0.06392001 -0.261246 -0.24317284 -0.15014234
0.30469778 -0.22158378 0.17760201 0.1239097 -0.47322544 -0.04712248 -0.2888775 0.17385435
0.29641837 0.2943453 -0.16109103 0.049220536 0.26079166 -0.16870406 -0.22819471 -0.299424
-0.22212942 -0.0007991119 0.05290933 -0.06960282 -0.24729717 -0.49208412 -0.10466034 -0.09247895
-0.018450998 0.16604103 0.110382155 0.34693384 0.11433256 0.009441072 0.16660132 -0.34523335
-0.2518198 0.015709793 0.09345698 0.2518739 0.107001014 0.28928906 0.22951573 0.037969425
0.022438828 0.21565159 -0.0060288217 -0.17474595 -0.08541269 0.07018696 -0.49103865 -0.47331485
-0.2287255 0.22313973 0.02320608 0.3414325 -0.04067021 0.10673467 -0.2273159 -0.19219881
-0.20922878 -0.12252314 0.011427966 -0.22616637 0.009434262 -0.33063728 -0.045566797 -0.2399117
0.1495224 0.2506358 -0.075615205 -0.05017138 -0.19212839 -0.04327038 0.19139753 -0.3757243
-0.15309453 0.25467592 0.16030607 0.40238076 -0.20064224 0.15616235 0.29593 0.2073291
0.44923574 0.10816968 0.3413173 0.102480754 -0.30316016 0.10524934 0.05640126 -0.14897925
0.2428953 0.18736807 0.100006655 0.23124062 -0.08789954 -0.2464119 -0.0015273882 0.026143553
0.04149745 0.16307291 -0.07733419 -0.37310463 0.21500365 0.07656871 0.31883097 0.050704066
-0.5280784 -0.3671552 -0.005721345 -0.3893975 -0.10837252 -0.20358151 -0.442314 -0.05440604
-0.010967737 -0.20674692 -0.15627018 0.01568439 -0.1124892 -0.3188954 -0.035751935 -0.062266354
-0.46761036 -0.09255025 0.06507701 0.116467044 -0.16402362 -0.09584016 0.29838777 -0.0033436327
0.040960513 0.13958892 0.09612222 0.20885213 0.10497896 -0.34277868 0.13970783 0.042768482
0.2187078 0.25180262 0.0993265 0.15670477 0.22217706 0.2123701 -0.17875116 0.10215245
0.051533986 -0.32713643 -0.28522906 -0.116922915 0.10036144 0.07694803 0.12839492 0.06369659
0.2500099 0.20030752 -0.014996794 0.17416365 0.1454771 0.07648739 0.024593545 0.27166212
-0.2724552 -0.4711179 -0.2689084 0.3829005 0.04137779 0.14229614 -0.15742092 0.07743206
0.26143742 -0.024821823 -0.037037075 0.39175758 0.122726 -0.01358563 0.09924707 0.39279392

block2.0.conv.bias f4 [8]
00000000: 1f09 ef3d e464 ecbd 3293 753e d726 7b3b
00000010: 46cf f1bd d1a2 51be 224e 59be 9f75 e8bb
0.116716616 -0.11542681 0.23981932 0.003832271 -0.118071124 -0.20472266 -0.21221212 -0.0070940997

block2.0.BN.weight f4 [8]
00000000: 5722 8f3f b41d 803f 3cc9 9a3f 91d7 913f
00000010: 622f 583f 0c3c 763f ce80 5d3f 47b1 883f
1.1182355 1.0009065 1.2092662 1.1393911 0.844473 0.96185374 0.86524665 1.0679101

block2.0.BN.bias f4 [8]
00000000: f775 38bd 6a59 5ebd 3f19 09bd fd7b 053e
00000010: 65a5 a4be 2ca9 983e db31 bcbc 0234 11be
-0.045034375 -0.05428449 -0.033471342 0.13035579 -0.32157436 0.29816568 -0.022972992 -0.14179996

block2.0.BN.running_mean f4 [8]
00000000: dc38 f2be fd20 63bc f393 05bf 709c 0cbf
00000010: 2b46 453f b817 91bf 2ea7 f03e 239c dabd
-0.47309005 -0.0138628455 -0.5217888 -0.54926205 0.7706019 -1.1335363 0.47002548 -0.10674312

block2.0.BN.running_var f4 [8]
00000000: 3747 553f 33ea 823f 5f11 893f f8c6 1d3f
00000010: 0ea1 993f a12f 8c3f cf0a 463f 6ea3 0f3f
0.8331179 1.0227722 1.0708426 0.6163173 1.2002275 1.0952035 0.7736024 0.5610875

block2.1.conv.weight f4 [16, 8, 3, 3]
00000000: 684c a63e b462 f2bc c2ad 8bbe 23c4 843e
00000010: e4a4 a43d 5988 04bd be89 88be b0dd 833c
00000020: 3a40 663c b092 063e 163d e1bc 5a20 79be
00000030: 8ba4 fc3c 393e 55bd db78 1e3e 36d3 34be
00000040: dcbd 1bbe 3c9c 483d b6f0 493e 3b7b 03bd
00000050: 4776 bcbe 036f 9a3e cbd7 c73e b66b d33e
00000060: 1c1e bd3c b52c ffbc 48de 283c fb35 123e
00000070: 7482 28be 52ad 3bbe 3d32 963c 1231 4e3e
00000080: 955f 7f3e 4176 753e 9a10 823e e054 dd3e
00000090: 821e 9f3c 6381 fb3d c402 8e3d 2897 3a3e
000000a0: ab16 0a3e 2625 b8ba 8f14 b4bd 3e0e 40be
000000b0: 20a4 03be 1a2c 6d3e 10ba 6d3e 597f 3a3e
000000c0: 2ea4 bb3d 9100 f3bd 0a26 8ebe 773d 6bbe
000000d0: f651 68be 128a 5a3d 2393 443d b555 363e
000000e0: 822b 18bc 1cf5 573c dc76 6cbe f86d debe
000000f0: 6a7b b63e 63aa b83e 06e5 8a3d 53d5 813d
00000100: a083 673e 48b8 183e f4d9 ddbd 225f 183e
00000110: 6a70 15be c87d 6ebe dd91 583e 0cb6 b33d
00000120: f3ad 813e ddf5 21be 645d 04be 444c 3b3e
00000130: edf2 d5bc cc5e a03e 549c 70be fa89 3a3b
00000140: 9eef 3b3d f931 babd 9b61 79be 233d 89bd
00000150: 6915 e6bd 8db1 62be eeda bfbe 5cac 8a3e
00000160: 1ff2 163e 4f42 e43d 704f 523e 103c 3b3e
00000170: 3dda 063e 81fc 67be a1cd 313e 0b74 053e
00000180: b352 11bd 953b a5be 5627 cabe febf 66bc
00000190: 9513 803e 81aa 803e 30f6 743d f476 9e3e
000001a0: 1886 283c a43c 8b3e 6f5e 0a3d 6de6 1ebe
000001b0: faf3 293e 6bda a23e 0d20 493e 7f45 55be
000001c0: ea26 973d 249b d63d 08cb 903d 97e3 243e
000001d0: 20eb 043d c019 cfbd 5fff 0bbd bb10 c93c
000001e0: 9b50 11be 0714 c9bd 253b 023e ceed b23d
000001f0: b0ab cbba b340 b63e 32cf 5dbe cb30 90be
00000200: fb41 aabe 4ba0 803e 2712 a03e a91f c63d
00000210: 2151 f63d 5c14 df3d 8916 28bd b964 75be
00000220: cc10 703e cc81 4d3e 389b ddbd 3bf3 54be
00000230: 1626 753d c271 bbbe 601e adbe 9f64 603e
00000240: 90a1 9c3e cc09 a53b ed51 313e a2a8 dd3e
00000250: 57f8 453e e8c4 583d c06a 333e fb6a a63c
00000260: 9c01 91be 37e5 cfbd 5f3d 253d ee32 07bd
00000270: 603d 023e f3f6 a63c 51ac 53be 3e03 3d3e
00000280: 66a0 a43d 2397 85be d285 1c3e 7553 02be
00000290: 43e4 aa3c f99d 993d 90a0 4f3d ba16 82be
000002a0: 89d3 2f3e ed2f bbbe 7781 f3be 3981 b93e
000002b0: 44e3 863e b646 2c3e 915a 2e3e ef62 12be
000002c0: 9690 dbbe d258 b73d b95a d03c c1f3 90be
000002d0: 0a55 83bd eef8 de3c 2a60 4abd 635c a5bd
000002e0: 3eb6 8ebe 61c9 823e f403 30bd e64b b839
000002f0: 55cd be3e d5dc 803d 2eb4 423d ede3 9b3d
00000300: 9d2e 87be 5040 d4bd e5af cc3e 37c2 cdbe
00000310: 2e2c 01bf 5adc 34bd 6625 07be dcd9 0fbe
00000320: 4c7b 263e e4c0 abbe 5af6 97be d610 0abe
00000330: 5a96 44bc 5d9f f83d 1d2b 153d 2d0b b5bb
00000340: bbba 89bd 88f5 053c 0ce2 debc 6d34 3dbe
00000350: e793 083e d798 7e3d a214 b5bc 52e1 d93d
00000360: 8cf1 043e f640 2abe 0546 f33c 25dc da3c
00000370: f414 83be 09b7 90be ec71 c23e 8f01 513d
00000380: 5bb7 5c3e ef7b edbe e3a6 803d b5de 613e
00000390: 76f3 013e a3ed 013e 85ec ea3d ee8c bb3e
000003a0: fee3 ea3e f55d 8f3e af0c 543e cebc 263d
000003b0: f9ba 153e ce8d ec3d b8cc 363e f8b3 4d3e
000003c0: 36e0 50be 2297 bcbe bf62 7fbe f42c 853d
000003d0: 42c7 cd3e 9c07 f23d b95b a83e 3666 403d
000003e0: caef e1bd 5827 9a3d f356 df3c 52eb 413b
000003f0: 4584 15be 673d 8bbe eb83 273d 5833 c3bd
0.32480168 -0.029588081 -0.27281004 0.2593089 0.08039263 -0.032356594 -0.2666759 0.01609692
0.014053399 0.13141894 -0.027494948 -0.24328747 0.030840179 -0.052061293 0.1547579 -0.17658696
-0.15209144 0.04897712 0.1972073 -0.032099944 -0.36808988 0.3016282 0.39031824 0.41293114
0.023085646 -0.031149248 0.010306902 0.14278404 -0.16456014 -0.18327835 0.018334502 0.20135906
0.24938805 0.23970892 0.2540329 0.43228817 0.019423727 0.12280538 0.06934121 0.18221724
0.1348521 -0.0014049157 -0.08792984 -0.18755433 -0.12855577 0.23161355 0.23215508 0.18212642
0.09162174 -0.118653424 -0.27763397 -0.22972666 -0.22687516 0.05335433 0.047991883 0.17806132
-0.009287717 0.013180997 -0.23092216 -0.43443274 0.35641032 0.36067495 0.06781964 0.063395165
0.22608805 0.14914048 -0.10832587 0.1488004 -0.14593664 -0.23290169 0.21149392 0.08774957
0.25328025 -0.15816446 -0.1292625 0.18290812 -0.026116813 0.31322324 -0.23497134 0.0028463588
0.045882814 -0.09091563 -0.2435364 -0.06701114 -0.112345524 -0.22138043 -0.37471718 0.27084625
0.147408 0.1114546 0.20538116 0.18284631 0.13169189 -0.22654916 0.17363597 0.13032548
-0.03547926 -0.3227202 -0.39483136 -0.01408386 0.2501494 0.25130084 0.059805095 0.3095013
0.010285877 0.27194703 0.033781465 -0.15517588 0.16596976 0.31807265 0.19641133 -0.20827292
0.07380469 0.104788095 0.07069975 0.16102444 0.032450795 -0.10112333 -0.034179088 0.02454411
-0.14190905 -0.09818273 0.12717874 0.08736764 -0.0015538838 0.35596237 -0.2166107 -0.28162226
-0.33253464 0.25122294 0.3126385 0.096740074 0.12027193 0.10892555 -0.041037116 -0.23964204
0.23443907 0.20069045 -0.10820621 -0.2079591 0.059850775 -0.36610228 -0.33812237 0.21913384
0.30592012 0.0050365683 0.17316408 0.4329272 0.19333015 0.05292216 0.1752119 0.020314684
-0.2832154 -0.10151141 0.04034173 -0.033007555 0.12718725 0.020381426 -0.20671202 0.18458268
0.08038406 -0.2609187 0.15285423 -0.12727149 0.020860797 0.07500834 0.050690234 -0.25407964
0.17170538 -0.36560002 -0.4755971 0.36231402 0.26345265 0.16823849 0.17026736 -0.14295553
-0.42883748 0.08952488 0.025433885 -0.2831097 -0.06412704 0.027218308 -0.049408115 -0.08074262
-0.27873415 0.25544265 -0.04297252 0.00035151764 0.3726603 0.0629212 0.047535114 0.07611833
-0.2640275 -0.10363829 0.39977947 -0.40187237 -0.5045804 -0.044155456 -0.1319786 -0.1404795
0.16257972 -0.335456 -0.2968014 -0.13482985 -0.011998737 0.12139771 0.03641807 -0.005525014
-0.06725069 0.008176215 -0.027207397 -0.1847703 0.1333767 0.06215748 -0.022104565 0.106386796
0.12982768 -0.16626343 0.029696474 0.026716301 -0.25601923 -0.28264645 0.3797754 0.051026877
0.2155432 -0.46383616 0.06281831 0.22057612 0.12690529 0.12688307 0.11470894 0.36630958
0.4587707 0.2800137 0.20707963 0.040707402 0.14622106 0.115504846 0.17851532 0.20088184
-0.2039803 -0.36834055 -0.24940012 0.06502715 0.40191084 0.118178576 0.3288248 0.046972476
-0.11032064 0.075270355 0.02726314 0.0029589725 -0.14601238 -0.27195284 0.04089729 -0.095312774

block2.1.conv.bias f4 [16]
00000000: 06a4 203e 1a42 7f3e c529 5dbd 0f21 be3c
00000010: 2ef1 0dbe 9b3d 2e3e 4256 e3bd ed74 d0bd
00000020: ac9b b43e 1de0 67bd e456 ccbd 67ad 52bc
00000030: 5c11 9a3e 8342 f8bd d9ee 4dbc 4ec0 1cb9
0.1568757 0.2492756 -0.053994913 0.023209123 -0.13861534 0.17015688 -0.11100437 -0.10178552
0.35275018 -0.056610215 -0.099775106 -0.012858725 0.3009137 -0.12122061 -0.012569153 -0.00014948958

block2.1.BN.weight f4 [16]
00000000: 7185 7e3f e806 903f ce60 8a3f cc4e 803f
00000010: 1655 7d3f b69b 773f 9794 693f 5d7f 683f
00000020: 6349 8b3f b5c1 4e3f b313 863f 2e08 423f
00000030: 6902 8b3f 9615 8b3f 5d13 8c3f abe3 8a3f
0.99422365 1.1252108 1.0810792 1.0024047 0.98957956 0.9672197 0.91242355 0.9081934
1.0881771 0.80764323 1.0474762 0.7579373 1.086011 1.0865963 1.0943409 1.0850729

block2.1.BN.bias f4 [16]
00000000: 9f63 c1be d0cb 12bf f651 2bbe b98b 66be
00000010: 18b8 8e3d 97d8 11be 82df b1be 5303 aebe
00000020: 1847 c6bd e5d9 9cbe ad22 a6be 5738 3fbe
00000030: c8f9 24be 5690 27be 20c6 e3bd 9095 b7be
-0.37771317 -0.57342243 -0.16730484 -0.22514237 0.06968707 -0.14242779 -0.34740835 -0.3398691
-0.09681529 -0.3063499 -0.3244833 -0.18673836 -0.16110909 -0.16363654 -0.11121774 -0.35856295

block2.1.BN.running_mean f4 [16]
00000000: f78c a73f 18bc 3f3f 5ac5 01bf 0fb9 143f
00000010: c434 01bf 4b71 86bf 3ede 573f 314c 5abf
00000020: 93b6 9bbf f7e5 233f 32c8 e83e 7151 92bf
00000030: 6bb6 45be 8010 83be 3b15 1cbf 6258 6bbd
1.3089894 0.74896383 -0.5069176 0.58094877 -0.5047114 -1.0503324 0.8432349 -0.8527251
-1.2165092 0.64022774 0.45465237 -1.1431104 -0.19307868 -0.25598526 -0.60969895 -0.057457335

block2.1.BN.running_var f4 [16]
00000000: e020 d73f faa5 883f 5490 b93f 5efd 0b40
00000010: e59a f63f 490c a83f b3e0 2f40 5f0d d53f
00000020: a5d8 f83f 95ab f33f f151 fd3f d7f8 2e40
00000030: 7255 2740 febe d73f cf70 cd3f 8037 af3f
1.6806908 1.0675652 1.449717 2.1873393 1.926602 1.3128749 2.7480896 1.6644706
1.9441115 1.9036738 1.9790632 2.733938 2.6145902 1.6855161 1.6050051 1.3688812
