result/model/0514 1012.pt (torch, 79197 bytes, 98 tensors)

input_conv.conv.weight f4 [4, 1, 3, 3]
0	0x3ed6d8c3	0.4196225
1	0x3d03cf85	0.032180328
2	0xbdeccee6	-0.115629
3	0x3e0518cb	0.12997739
4	0x3e9fa86d	0.31183186
5	0x3ea56aa2	0.32307917
6	0xbe8ea010	-0.27856493
7	0xbe8c5bf1	-0.27413896
8	0xbe4c66a6	-0.19961032
9	0x3d46e60f	0.048559245
10	0x3e67d60d	0.22640248
11	0x3de376fd	0.111066796
12	0xbdd72caa	-0.10506566
13	0xbe7b5242	-0.24543098
14	0xbe2c409e	-0.16821525
15	0x3e548dc0	0.20757198
16	0x3f045322	0.5168935
17	0x3eda1909	0.42597225
18	0x3e6ad3e4	0.22932392
19	0x3d0bcf91	0.034133498
20	0xbe5c43e8	-0.21510279
21	0x3e70f786	0.23531923
22	0x3d8215eb	0.06351837
23	0xbe59a0e9	-0.21252789
24	0x3ec3dbe6	0.38253707
25	0xbd4adb68	-0.04952565
26	0xbdfabd91	-0.12243188
27	0x3e5be0c4	0.2147246
28	0x3dbd05fd	0.09229658
29	0xbd8486b6	-0.064710066
30	0xbe8f362c	-0.27971017
31	0xbeb200cb	-0.3476623
32	0x3d47043c	0.048588023
33	0xbe64cc86	-0.22343644
34	0xbf04c842	-0.5186807
35	0xbee58df5	-0.44834867

input_conv.conv.bias f4 [4]
0	0xbe951f4f	-0.2912545
1	0x3bff612f	0.0077935676
2	0x3d9c3d7d	0.076289155
3	0xbe7fcb48	-0.2497989

input_conv.BN.weight f4 [4]
0	0x3f898b4b	1.0745634
1	0x3f8762bd	1.0577008
2	0x3f5f4828	0.87219477
3	0x3f740fb0	0.9533644

input_conv.BN.bias f4 [4]
0	0x3eaee393	0.34158
1	0xbce922f2	-0.028459046
2	0x3e864eb6	0.26231927
3	0xbead77de	-0.33880514

input_conv.BN.running_mean f4 [4]
0	0xbe927e89	-0.28612164
1	0xbb942b33	-0.0045217513
2	0x3d8f7d38	0.070063055
3	0xbe69fd23	-0.2285047

input_conv.BN.running_var f4 [4]
0	0x3e302c4a	0.17204395
1	0x3f6b62a7	0.91947407
2	0x3e42ec61	0.19035484
3	0x4005f04b	2.0927913

block1.0.conv.weight f4 [8, 4, 3, 3]
0	0xbb2b6ce7	-0.002615744
1	0x3e42a442	0.19007972
2	0x3e0e7df5	0.13915236
3	0x3d897984	0.067126304
4	0x3e65a1f3	0.2242506
5	0x3df4e19e	0.119570956
6	0xbed4df98	-0.41576838
7	0xbde5efe2	-0.11227395
8	0xbeaa4f45	-0.33263603
9	0x3e9764a1	0.2956896
10	0x3ed674e1	0.41886047
11	0x3d2945fc	0.041326508
12	0xbd54bdec	-0.051938936
13	0xbe173bd7	-0.14768921
14	0x3c5b5982	0.01338804
15	0xbe8dbebf	-0.2768459
16	0xbd0a8cca	-0.033825673
17	0x3ddaacef	0.10677516
18	0x3c6390c1	0.0138894925
19	0x3c9af458	0.01891534
20	0xbd12ddab	-0.03585593
21	0xbe0d714c	-0.1381275
22	0x3db2ba33	0.08726921
23	0x3e0722fa	0.13196936
24	0xbde1e7e2	-0.11030556
25	0xbe9e48a4	-0.30914795
26	0x3e12e5f1	0.14345528
27	0xbd8b939a	-0.06815262
28	0xbe1230c5	-0.14276417
29	0x3e3f66d8	0.18691576
30	0x3e25232d	0.161267
31	0x3d80d51b	0.06290647
32	0x3d2cd164	0.042191878
33	0x3cce4632	0.025179956
34	0x3d5bc125	0.053650994
35	0xbeadb0e6	-0.33924025
36	0xbdaa1f8d	-0.08306799
37	0xbe90ae3d	-0.28257933
38	0xbe091bb8	-0.1338948
39	0xbed019e2	-0.40644747
40	0xbe8e9d9a	-0.27854615
41	0xbd259ea9	-0.040434513
42	0xbd3dc42b	-0.04632966
43	0x3e17a6bb	0.14809696
44	0x3c40af98	0.011760615
45	0xbd9179d9	-0.07103319
46	0x3e27a41b	0.16371195
47	0x3e6dfc57	0.23240791
48	0xbb77755e	-0.0037759165
49	0x3e567261	0.2094207
50	0xbb7debf5	-0.0038745378
51	0x3ee4b4d0	0.446692
52	0x3ea6c80a	0.32574493
53	0x3d73dfa7	0.059539463
54	0xbd1503f6	-0.03638073
55	0xbe85a4c1	-0.2610226
56	0x3db373e7	0.08762341
57	0x3d7e9a7e	0.062159054
58	0x3ce540f9	0.027985083
59	0x3c1c11ea	0.009525755
60	0x3e0c301b	0.13690226
61	0x3e8d10a3	0.27551755
62	0x3dbf2f72	0.09335221
63	0xbe5e6c01	-0.21720888
64	0xbe83cfed	-0.25744572
65	0xbe266a53	-0.16251497
66	0xbe199fcb	-0.15002362
67	0xbe5270b3	-0.20550804
68	0xbd6b0def	-0.057386335
69	0xbd3a9f42	-0.045562036
70	0x3d8fc4b9	0.07019944
71	0x3e8bfafe	0.2733993
72	0x3dac8dbc	0.08425471
73	0xbe3ab109	-0.18231596
74	0xbea0b92d	-0.31391278
75	0x3e47e5f4	0.19521314
76	0xbdd57720	-0.10423112
77	0x3da1f664	0.079083234
78	0x3eae9a52	0.34102112
79	0x3eaa8432	0.33303982
80	0x3e900704	0.28130352
81	0x3e3ebfd2	0.18627861
82	0xbe0f65f7	-0.1400374
83	0xbea3b14a	-0.31971198
84	0x3eec38a7	0.46136972
85	0x3cb1cd59	0.021704363
86	0xbd31d09b	-0.043411832
87	0x3da126d0	0.07868731
88	0xbe015eba	-0.12633792
89	0xbe0ddb67	-0.13853227
90	0x3e9cb35a	0.30605584
91	0x3da5be14	0.08092895
92	0x3d96437d	0.07337091
93	0x3d97ff27	0.07421713
94	0x3dd24377	0.10266774
95	0x3d13a28f	0.0360437
96	0xbd0a9877	-0.033836808
97	0xbb9615c7	-0.004580233
98	0xbc0487a2	-0.008088978
99	0xbd578f6c	-0.052627012
100	0xbe1cc85b	-0.15310805
101	0xbdb0f902	-0.086412445
102	0x3db4da1f	0.08830666
103	0x3e2282aa	0.15870157
104	0x3c640049	0.013916084
105	0x3d86ba8b	0.06578549
106	0xbe1a669f	-0.1507821
107	0x3d252258	0.040315956
108	0x3e5cc0fd	0.21557994
109	0xbc11cf0e	-0.008899463
110	0x3e27e0ee	0.16394398
111	0xbdf5d178	-0.120028436
112	0x3d8a848a	0.06763561
113	0xbe0f9c23	-0.14024405
114	0x3e9253b7	0.28579494
115	0x3e1ceebb	0.15325443
116	0xbea62093	-0.32446727
117	0x3e5dabbf	0.21647547
118	0x3e9728ed	0.2952341
119	0x3e01e0f1	0.12683465
120	0x3e8cc8ac	0.2749685
121	0xbe0d7cb0	-0.13817096
122	0xbe6dc02a	-0.23217836
123	0x3e8a6728	0.27031827
124	0x3d853fb6	0.065062925
125	0xbe245e3c	-0.16051573
126	0xbea9157c	-0.33024204
127	0x3c00a569	0.007851937
128	0x3d655456	0.055988632
129	0xbe697d7e	-0.22801778
130	0xbd647021	-0.055770997
131	0xbdc2941e	-0.09500907
132	0xbcdfb30f	-0.027307061
133	0x3e00d5ea	0.12581602
134	0xbe3b08b9	-0.18265046
135	0xbdb440c7	-0.08801418
136	0xbe0dc988	-0.1384641
137	0xbe45e1b4	-0.1932438
138	0xbe6ebddd	-0.23314615
139	0xbd86fce2	-0.06591202
140	0x3cb6d6dc	0.02231925
141	0xbd68818c	-0.05676417
142	0x3df49ee5	0.11944369
143	0x3e1e9623	0.1548696
144	0xbe44cb62	-0.1921821
145	0xbe04ed64	-0.12981182
146	0xbdba1fbf	-0.09088086
147	0x3e16e178	0.14734447
148	0x3d3a0a01	0.045419697
149	0x3e8e8332	0.2783447
150	0xbe256507	-0.1615182
151	0x3b750e22	0.0037392457
152	0x3e101edc	0.14074272
153	0xbde26894	-0.11055103
154	0x3e027f02	0.12743762
155	0xbcf4b22e	-0.029870119
156	0xbd884da4	-0.06655434
157	0x3e7835ba	0.24239245
158	0x3e926168	0.2858994
159	0x3cbf0eaf	0.023322431
160	0x3e3a4957	0.1819204
161	0x3d075418	0.033039182
162	0xbed19cb4	-0.40939867
163	0xbeb6a011	-0.35668996
164	0xbe9bf667	-0.30461428
165	0xbe6b5b9e	-0.22984168
166	0xbd989d25	-0.07451848
167	0xbd4369f9	-0.047708485
168	0xbe675897	-0.22592388
169	0x3dd32c69	0.10311205
170	0x3a6c43a6	0.0009012766
171	0x3d90bca2	0.07067229
172	0xbdfc32fd	-0.12314413
173	0xbc6c650b	-0.014428387
174	0x3d836434	0.064155966
175	0x3c7d0feb	0.01544569
176	0x3ca7a231	0.020463081
177	0xbe402bc6	-0.18766698
178	0xbead9e65	-0.33909908
179	0xbeb61df8	-0.3556974
180	0x3e26bdd8	0.16283357
181	0x3e5e817e	0.21729085
182	0xbdc84361	-0.097784765
183	0xbe8e655b	-0.27811703
184	0x3dedd9c1	0.11613799
185	0x3db1d05b	0.08682319
186	0xbe6bd4b3	-0.23030357
187	0xbe06346d	-0.13105936
188	0x3e472f71	0.19451691
189	0x3c0b5037	0.008503011
190	0x3e833149	0.2562354
191	0x3ddf4dda	0.10903521
192	0xbe87ade7	-0.26499864
193	0xbda646ec	-0.08118996
194	0xbdcc9a40	-0.09990358
195	0xbec3b79a	-0.38226014
196	0x3d045cb0	0.032314956
197	0x3e1355fe	0.14388272
198	0x3e20bd92	0.15697315
199	0x3e8ffbb3	0.2812172
200	0x3e11940a	0.14216629
201	0xbe5624e3	-0.20912509
202	0xbe815511	-0.25260213
203	0xbd8d3f50	-0.068968415
204	0xbe56dec4	-0.20983416
205	0xbd215000	-0.039382935
206	0xbdfd7910	-0.123766065
207	0x3e263055	0.16229375
208	0xbe5fe986	-0.21866426
209	0xbe71ba37	-0.23606192
210	0x3e547b86	0.20750245
211	0xbe216b46	-0.15763578
212	0xbd10bb3d	-0.035334814
213	0x3e8e430b	0.27785525
214	0x3e5bb5a9	0.21456017
215	0xbd712001	-0.058868412
216	0x3e873dbb	0.26414284
217	0x3e55944c	0.20857352
218	0x3dc0e117	0.094179325
219	0x3eaaa5ce	0.33329624
220	0xbd2c6830	-0.04209155
221	0xbe46f5de	-0.19429728
222	0xbbc9c372	-0.006157332
223	0x3ddb4b8f	0.10707771
224	0xbdfb350a	-0.12265976
225	0x3db50bde	0.08840154
226	0xbe830853	-0.25592288
227	0xbec0c570	-0.37650633
228	0xbc04fa70	-0.00811635
229	0xbe8d1e5b	-0.27562222
230	0x3db03a1a	0.08604832
231	0xbdf0ea55	-0.11763445
232	0xbc858709	-0.016299741
233	0xbd771c6e	-0.060329847
234	0x3e4fc726	0.20290813
235	0xbde10f6f	-0.10989272
236	0xbe99e39f	-0.30056474
237	0x3d2fd774	0.04293008
238	0xbdee0c06	-0.11623387
239	0xbdc27c18	-0.09496325
240	0x3dd44aa0	0.10365796
241	0x3d821379	0.0635137
242	0xbebda5ae	-0.37040466
243	0x3e238d07	0.15971766
244	0x3e65132b	0.22370593
245	0x3edccb7d	0.43124
246	0xbdbe8e75	-0.09304515
247	0x3e247ca1	0.16063167
248	0x3e109f69	0.1412331
249	0xbd48013f	-0.048829313
250	0xbbfe87d5	-0.0077676573
251	0x3e1b2629	0.15151276
252	0xbe921e0c	-0.2853855
253	0xbe8b1b02	-0.27169043
254	0xbf29afea	-0.6628405
255	0x3e6efbf3	0.23338298

block1.0.conv.bias f4 [8]
0	0x3e8f3595	0.27970567
1	0xbb0c605e	-0.0021419744
2	0x3de87406	0.11350255
3	0xbe169349	-0.14704622
4	0xbdc0312e	-0.0938438
5	0xbda19ff2	-0.07891835
6	0xbdadf3cf	-0.084937684
7	0xbe1be315	-0.15223344

block1.0.BN.weight f4 [8]
0	0x3f6743d0	0.9033785
1	0x3f9119b7	1.1335973
2	0x3f6401ad	0.8906506
3	0x3f7922b1	0.9731856
4	0x3f8b5458	1.0885115
5	0x3f8c5162	1.0962336
6	0x3f71893a	0.94350016
7	0x3f78ec28	0.97235346

block1.0.BN.bias f4 [8]
0	0x3d1527f4	0.036415055
1	0x3d4220c2	0.04739452
2	0xbe45c19a	-0.19312134
3	0x3e16dbb3	0.14732246
4	0x3e8a84ef	0.27054545
5	0x3f05d406	0.5227665
6	0x3e7459c3	0.23862366
7	0x3e55adbe	0.20867059

block1.0.BN.running_mean f4 [8]
0	0x3e7ec388	0.24879277
1	0xbe7a88fb	-0.24466316
2	0x3f9164c1	1.1358873
3	0xbe164087	-0.14673053
4	0xbf79a14b	-0.9751174
5	0xbeb93734	-0.3617493
6	0xbde1cfc0	-0.11025953
7	0xc0078674	-2.1175814

block1.0.BN.running_var f4 [8]
0	0x3f006ffd	0.5017088
1	0x3f43eeb6	0.7653612
2	0x3faeef87	1.3666848
3	0x3eca2b6a	0.39486247
4	0x3f2b8fb5	0.67016155
5	0x3f2151fc	0.63015723
6	0x3f8f93ed	1.1217018
7	0x40054bfa	2.0827622

block1.1.conv.weight f4 [16, 8, 3, 3]
0	0xbe200182	-0.15625575
1	0x3e0e8134	0.13916475
2	0x3e055202	0.13019565
3	0xbd14d69f	-0.03633749
4	0x3b5fb53b	0.0034135121
5	0xbcc77fe4	-0.024352975
6	0x3d2deebb	0.042464
7	0xbdc47c01	-0.09593964
8	0xbe37f566	-0.17964706
9	0x3e880932	0.26569515
10	0x3d8d818e	0.06909476
11	0x3e014eef	0.12627767
12	0x3de67e7e	0.11254595
13	0x3c9331e4	0.017968126
14	0xbc24b52d	-0.010052961
15	0xbd684d77	-0.0567145
16	0xbe2f1edd	-0.17101617
17	0xbd42fdfd	-0.047605503
18	0x3e010a62	0.12601617
19	0x3e1b739e	0.15180823
20	0xbb582320	-0.003297992
21	0x3e83a570	0.25712156
22	0x3e14634c	0.14491004
23	0xbb49f738	-0.003081752
24	0xbe036cb8	-0.12834442
25	0x3db96e51	0.09054244
26	0xbdc645d8	-0.096812904
27	0x3d8fbb6e	0.07018171
28	0x3e668e6a	0.22515264
29	0x3e7b1ac8	0.24521935
30	0xbb854d4f	-0.004068054
31	0x3d963f28	0.07336265
32	0xbe145ecf	-0.14489292
33	0x3d8aef22	0.06783892
34	0x3cc09cee	0.02351233
35	0xbd95c593	-0.07313075
36	0xbe11ecb2	-0.14250448
37	0xbf11dcb8	-0.56977415
38	0xbf1f4c15	-0.62225467
39	0xbcbee279	-0.02330135
40	0xbdc78286	-0.09741692
41	0x3cd1aaac	0.025594078
42	0x3d2882bc	0.041140303
43	0xbd57087d	-0.05249833
44	0x3df58375	0.11987964
45	0xbf282b09	-0.65690666
46	0x3e00a521	0.12562992
47	0x3db45513	0.08805289
48	0xbecb43a0	-0.3970003
49	0xbd8a050f	-0.06739246
50	0xbe3ce1b6	-0.18445477
51	0xbed796db	-0.4210728
52	0xbe0c20f8	-0.13684452
53	0xbbd012b5	-0.0063498863
54	0x3e14963b	0.14510433
55	0xbd4c0270	-0.049807012
56	0xbdb45c19	-0.08806629
57	0x3e9f7a8c	0.31148183
58	0x3e415710	0.18880868
59	0x3d51d2e7	0.051226523
60	0x3d94b8a0	0.07261777
61	0x3e185466	0.14875945
62	0x3e12a5f6	0.14321122
63	0x3e0c0a0b	0.13675706
64	0x3e4346e0	0.19070005
65	0x3e03b4aa	0.12861887
66	0x3d2d137a	0.042254902
67	0x3cc0eb37	0.02354966
68	0x3e042e2e	0.12908241
69	0xbe11ac92	-0.14225987
70	0xbdd44394	-0.10364452
71	0xbddbe819	-0.107376285
72	0xbe00062f	-0.12502359
73	0x3d09c4f7	0.033635106
74	0xbe0126de	-0.12612483
75	0x3e331b29	0.1749083
76	0x3d5a66e6	0.053320788
77	0x3dbfa393	0.09357371
78	0x3d730a25	0.059335846
79	0x3e7aea8e	0.24503538
80	0x3e97d947	0.29657957
81	0xbe94e672	-0.29082066
82	0xbe0e83ad	-0.13917418
83	0xbeb6b349	-0.3568366
84	0xbc86cf9d	-0.01645642
85	0x3d63c35d	0.055606235
86	0xbe3d842e	-0.18507454
87	0xbe71c3d7	-0.23609863
88	0xbe165b39	-0.14683236
89	0xbe809142	-0.25110823
90	0x3e098f46	0.1343356
91	0x3e213300	0.15742111
92	0x3e92abc8	0.28646684
93	0x3dc42a65	0.095783986
94	0x3e044177	0.12915598
95	0xbe0ff5dd	-0.14058633
96	0x3d90eb01	0.070760734
97	0x3d23f16d	0.040025163
98	0xbe6eaae6	-0.2330738
99	0x3e6c1c5d	0.23057695
100	0x3e32f741	0.17477132
101	0x3e299ff3	0.16564922
102	0xbc5dd2e9	-0.013539054
103	0xbc3d3f7b	-0.011550779
104	0x3e20a963	0.15689616
105	0xbde1fbb9	-0.110343404
106	0x3d8b08fd	0.06788824
107	0x3cd3d0a0	0.025856316
108	0xbed48126	-0.41504782
109	0xbe433f8e	-0.19067213
110	0xbb8a1dbe	-0.0042149713
111	0xbe3fc868	-0.18728793
112	0xbe264285	-0.16236313
113	0xbe504f5d	-0.20342775
114	0x3e97cb99	0.2964752
115	0x3db8a465	0.09015731
116	0x3e42dca3	0.19029479
117	0xbc866240	-0.016404271
118	0xbd47a14d	-0.048737813
119	0x3e125887	0.14291583
120	0x3e7564d9	0.23964252
121	0x3d29c6b2	0.041449256
122	0xbdf5faf6	-0.120107576
123	0x3ec4244f	0.3830895
124	0xbd81e059	-0.06341619
125	0xbd4f564a	-0.0506194
126	0xbe732357	-0.2374395
127	0x3d8df01a	0.06930561
128	0x3dd1c7f5	0.10243217
129	0xbe91a7ec	-0.28448427
130	0xbe4af855	-0.19821294
131	0x3df1f7a9	0.118148156
132	0xbce3c896	-0.027805608
133	0xbd051883	-0.03249408
134	0x3e9d881b	0.30767903
135	0xbd90421f	-0.070438616
136	0x3d8b0ba9	0.067893334
137	0x3e4e4ac8	0.20145714
138	0xbeb6cca4	-0.35703003
139	0xbe4a1ad0	-0.1973679
140	0xbe431a7d	-0.19053073
141	0xbdd481f7	-0.10376351
142	0xbd8322f5	-0.06403152
143	0x3dcba4b2	0.099435225
144	0x3e0e5cff	0.13902663
145	0x3d958a77	0.07301801
146	0xba723425	-0.00092393375
147	0x3d961dac	0.07329878
148	0x3d80bc3f	0.06285905
149	0x3e2d4c3c	0.16923612
150	0xbe0dcc39	-0.13847436
151	0xbdc614ae	-0.09671913
152	0x3d930777	0.07179158
153	0x3e61c7f0	0.22048926
154	0x3dfc697b	0.12324806
155	0xbdf638ea	-0.12022574
156	0x3e66b096	0.225283
157	0xbd603645	-0.054739255
158	0xbde0e5ae	-0.10981308
159	0x3e18bd94	0.14916068
160	0xbe3b752f	-0.1830642
161	0xbebdea2a	-0.37092716
162	0x3cd26bfd	0.025686258
163	0x3e366618	0.17812383
164	0x3d32b1dd	0.043626655
165	0xbdca3eb0	-0.09875238
166	0xbdb18480	-0.086678505
167	0x3dfbb851	0.12291015
168	0x3d862c44	0.06551412
169	0x3bbdacca	0.0057884203
170	0x3d58f387	0.05296662
171	0xbd7d9032	-0.061905093
172	0x3e4b29bf	0.19840144
173	0x3de57dad	0.112056114
174	0x3e7db854	0.24777347
175	0x3e0e364a	0.13887897
176	0xbe052f60	-0.13006353
177	0x3ed1967c	0.40935123
178	0xbbb9c1d5	-0.0056688585
179	0xbe3b68ea	-0.1830174
180	0x3e8ba7a0	0.27276325
181	0xbdb11160	-0.08645892
182	0xbe7e613f	-0.24841784
183	0x3e90406c	0.2817415
184	0xbe08a647	-0.1334468
185	0xbd7cb0c3	-0.06169201
186	0xbda4432f	-0.08020627
187	0xbec44e8c	-0.38341177
188	0xbebf852f	-0.374063
189	0x3dbbb585	0.091654815
190	0x3e0b9189	0.13629736
191	0xbdda5a07	-0.106617026
192	0xbdbefd65	-0.09325675
193	0xbe0b7c0c	-0.13621539
194	0xbcb7893d	-0.022404307
195	0xbe29ddee	-0.16588566
196	0xbe564456	-0.20924506
197	0x3e8a32b8	0.2699182
198	0xbe1994e8	-0.1499821
199	0xbea6c32f	-0.32570788
200	0x3d8a80ca	0.06762846
201	0xbe4eb481	-0.20186044
202	0xbe9b8965	-0.3037826
203	0xbd0653db	-0.032794815
204	0x3dc9dde8	0.098567784
205	0x3e459ced	0.19298144
206	0x3ddcd526	0.10782842
207	0x3e74e19c	0.23914188
208	0x3cdcd040	0.02695477
209	0x3d58a537	0.052891936
210	0x3d193e26	0.037412785
211	0xbd5f9226	-0.054582737
212	0xbdb37515	-0.08762566
213	0xbd6ee357	-0.058322277
214	0xbe8c6706	-0.2742235
215	0xbdd54e6c	-0.104153484
216	0xbdb0e13a	-0.086367086
217	0xbe7d127d	-0.24714084
218	0x3ccbfe67	0.024901582
219	0xbb9e1bf9	-0.004825112
220	0xbe408357	-0.18800102
221	0xbe467d0b	-0.19383638
222	0x3db0aacf	0.08626329
223	0x3e5af498	0.21382368
224	0x3df7cec3	0.120999835
225	0x3ca43cd4	0.020048536
226	0x3d780dd4	0.060560063
227	0x3d5eeb97	0.054423895
228	0x3db1c7b0	0.086806655
229	0x3e8cdfb7	0.2751443
230	0x3ecda58f	0.40165374
231	0xbe9c8b1f	-0.3057489
232	0xbe933b32	-0.287561
233	0x3c3b0e12	0.011416929
234	0x3c6984ca	0.014252851
235	0xbc0d07b0	-0.00860779
236	0x3b901651	0.0043971916
237	0xbc830806	-0.015995037
238	0x3e11a25e	0.14222094
239	0x3e0dcee8	0.1384846
240	0xbe05f0f4	-0.13080198
241	0xbdd4d733	-0.103926085
242	0x3d3cfa33	0.046137046
243	0xbe2400fd	-0.16016002
244	0xbdd0a71b	-0.10188123
245	0xbe95c7ac	-0.292539
246	0xbe262afc	-0.16227335
247	0xbda5563f	-0.08073091
248	0xbe5fab19	-0.21842612
249	0x3dd8a1e7	0.105777554
250	0xbe18367a	-0.14864531
251	0xbd84b02a	-0.06478913
252	0xbc8fb8de	-0.017544206
253	0x3e1ac5ab	0.15114467
254	0x3eb04977	0.3443105
255	0x3d967f5b	0.0734851

block1.1.conv.bias f4 [16]
0	0xbda16744	-0.078810245
1	0x3df8f4b3	0.12156048
2	0x3db9130e	0.090368375
3	0x3d0ab096	0.03385981
4	0xbea86915	-0.3289267
5	0xbca7a88d	-0.020466113
6	0x3da721f3	0.08160772
7	0xbe170e17	-0.14751469
8	0x3dd59aa5	0.10429887
9	0xbdc21029	-0.094757386
10	0xbde96d7e	-0.11397837
11	0xbbe51933	-0.0069915294
12	0x3bc06a68	0.0058720596
13	0x3de19c80	0.11016178
14	0xbd9827f1	-0.07429493
15	0x3e717176	0.23578438

block1.1.BN.weight f4 [16]
0	0x3f6ffc79	0.9374462
1	0x3f764a73	0.9620735
2	0x3f59df45	0.8510631
3	0x3f57fbfe	0.84368885
4	0x3f9085d6	1.1290843
5	0x3f8437ca	1.0329525
6	0x3f6c5726	0.9232048
7	0x3f742d2c	0.95381427
8	0x3f8c253d	1.0948864
9	0x3f9d3e50	1.2284641
10	0x3f76b0aa	0.9636332
11	0x3f7359bd	0.95058805
12	0x3f8bbf08	1.0917673
13	0x3f8d6262	1.1045649
14	0x3f84c621	1.0372964
15	0x3f81f205	1.0151983

block1.1.BN.bias f4 [16]
0	0xbe645fc2	-0.22302154
1	0xbddae462	-0.10688092
2	0xbe0e4271	-0.13892533
3	0xbefc46cb	-0.4927276
4	0xbe3f6666	-0.18691406
5	0xbe284c27	-0.164353
6	0xbe7da177	-0.24768625
7	0xbb3a0a6e	-0.0028387564
8	0x3e3be411	0.18348719
9	0xbd99b3b8	-0.07504982
10	0xbeadeda2	-0.33970362
11	0xbe8e4a7d	-0.27791205
12	0xbc8099eb	-0.015698394
13	0xbe768006	-0.24072275
14	0xbe541ce0	-0.2071414
15	0xbe3693cb	-0.17829816

block1.1.BN.running_mean f4 [16]
0	0xbf714684	-0.94248223
1	0xbe2f78b7	-0.17135893
2	0xbeca1453	-0.3946863
3	0x3e08324b	0.13300435
4	0xbf58b9d4	-0.8465855
5	0x3e7a9c00	0.24473572
6	0x3ffa76ce	1.9567506
7	0xbf639660	-0.8890133
8	0x3f7c5c82	0.98578656
9	0xc010a5be	-2.260116
10	0xbfb98b61	-1.449566
11	0x3e4ef30d	0.20209904
12	0xbf06a2c1	-0.5259209
13	0x3f0aaa84	0.54166436
14	0x3f16723f	0.58768076
15	0xbf82d960	-1.0222588

block1.1.BN.running_var f4 [16]
0	0x4023b37b	2.5578296
1	0x400b947b	2.1809375
2	0x40180bea	2.3757272
3	0x3fd6210d	1.6728836
4	0x3fb3bd6a	1.404218
5	0x3f820ed4	1.0160775
6	0x3fb9a543	1.4503559
7	0x3ff3acc6	1.9037101
8	0x3fffc02d	1.9980522
9	0x4004a5eb	2.0726268
10	0x3fb4aefd	1.4115902
11	0x3f89d9af	1.0769557
12	0x40047b19	2.0700133
13	0x3f9ad6a1	1.209675
14	0x3f72927e	0.9475478
15	0x3f9700c1	1.1797105

block1.2.conv.weight f4 [8, 16, 3, 3]
0	0x3cc8c4e4	0.024507947
1	0x3c4e09a3	0.01257554
2	0xbe017573	-0.1264246
3	0x3e2beab7	0.16788755
4	0x3de8dcbc	0.11370227
5	0xbd998d2a	-0.07497628
6	0xbd196d99	-0.037458036
7	0xbd3dc076	-0.046326123
8	0xbe0b5473	-0.13606434
9	0xbdb06b84	-0.08614257
10	0xbd32cab3	-0.04365034
11	0x3d6eb5a7	0.058278706
12	0x3e1c3807	0.15255748
13	0x3e2f1e9d	0.17101522
14	0x3e9968a1	0.29962638
15	0xbe751b1c	-0.23936123
16	0xbecfe64f	-0.406054
17	0xbe9b7dd6	-0.30369443
18	0xbd94a1bf	-0.07257413
19	0xbe2f6bac	-0.17130917
20	0xbe9f99f3	-0.3117214
21	0xbd9fa5ba	-0.07795282
22	0x3c44ba5e	0.012007324
23	0xbe3c4b64	-0.18388134
24	0xbd575f97	-0.052581396
25	0xbc27c351	-0.010239438
26	0x3ccf7f3f	0.02532923
27	0xbd73f3ac	-0.059558555
28	0xbc4e095e	-0.0125754755
29	0xbd0e4c1c	-0.034740552
30	0xbe034769	-0.1282021
31	0x3d172a8d	0.036905814
32	0x3e64f71a	0.22359887
33	0x3db05bc8	0.08611256
34	0x3e627c31	0.22117688
35	0x3e17d74c	0.14828223
36	0xbeebad50	-0.46030664
37	0xbe9c47fc	-0.3052367
38	0x3d903e52	0.07043137
39	0xbdff36fd	-0.1246166
40	0xbe78b86d	-0.24289103
41	0xbc930785	-0.017947922
42	0xbe5d7869	-0.21627964
43	0xbea7217b	-0.3264273
44	0xbdbadfb6	-0.09124701
45	0x3d8a5829	0.067550965
46	0xbe518f29	-0.20464768
47	0xbea1a779	-0.31573084
48	0x3dc96d52	0.09835304
49	0x3d96ab7e	0.07356928
50	0xbdad41fa	-0.0845985
51	0xbe1142c1	-0.14185621
52	0xbe382897	-0.17984234
53	0xbe08c2df	-0.13355587
54	0xbe250a08	-0.16117108
55	0xbe31813f	-0.1733446
56	0xbe63fbee	-0.22264072
57	0x3cffb7c6	0.03121556
58	0x3dc5dd2d	0.096613266
59	0x3dd1384a	0.102158144
60	0xbe7392a3	-0.23786406
61	0xbdea820d	-0.114505865
62	0xbe3b2944	-0.1827746
63	0x3e98ba8e	0.2982983
64	0x3dc357c9	0.09538228
65	0xbcb811da	-0.02246945
66	0x3e8e29ab	0.27766165
67	0x3e2db09f	0.16961907
68	0x3e2b0933	0.16702728
69	0x3dbd1696	0.092328236
70	0xbd28aeaf	-0.041182216
71	0xbe046f44	-0.1293307
72	0xbd87f879	-0.06639189
73	0x3d81b3c5	0.063331164
74	0x3dea0202	0.11426164
75	0xbdaba81b	-0.08381673
76	0x3d8dc7eb	0.06922897
77	0x3ddde590	0.10834801
78	0x3e3c68b7	0.1839932
79	0x3e45e991	0.1932738
80	0x3e5cd7b9	0.21566667
81	0x3e29ef47	0.16595183
82	0x3e3df8fe	0.18552014
83	0x3e871b16	0.26387852
84	0x3e0b037c	0.13575548
85	0x3c1dfb6d	0.009642464
86	0xbe22b538	-0.15889442
87	0x3ea79e78	0.3273809
88	0x3ed77a5b	0.42085537
89	0x3e59b6f3	0.21261196
90	0x3dad9b44	0.0847688
91	0x3e218b0f	0.15775703
92	0x3e32814d	0.17432137
93	0xbdc7e36c	-0.09760174
94	0x3d358609	0.04431728
95	0xbcd5b5dd	-0.026087696
96	0x3b2ffed1	0.0026854763
97	0xbd2b4c92	-0.04182107
98	0xbd512046	-0.05105617
99	0x3c708f4b	0.014682601
100	0xbcbce54e	-0.02305856
101	0x3e2fcd28	0.17168105
102	0x3d74d085	0.059769172
103	0xbe700904	-0.23440939
104	0xbec02792	-0.3753019
105	0x3e3fcd72	0.18730715
106	0xbd8c1a32	-0.06840934
107	0xbcb02d1a	-0.021505881
108	0x3dd79e57	0.10528248
109	0x3e0038e7	0.12521707
110	0x3c4f25b2	0.012643265
111	0xbdb9d185	-0.09073166
112	0xbdd56ff7	-0.10421746
113	0xbe32b0e0	-0.17450285
114	0x3d0acefc	0.033888802
115	0x3df6ca60	0.12050319
116	0x3d7adcfc	0.061245903
117	0x3e58a81b	0.21157877
118	0x3d8b0a52	0.06789078
119	0x3e6200e7	0.22070657
120	0xbeb3ddee	-0.35130256
121	0xbe8a1456	-0.2696864
122	0xbd7ae7c0	-0.06125617
123	0x3d62f322	0.05540765
124	0x3e2df004	0.1698609
125	0x3e3a0659	0.18166484
126	0x3e9d24e5	0.3069221
127	0x3d5754a3	0.05257095
128	0xbe0e969a	-0.13924637
129	0x3e173c0d	0.14769001
130	0x3d48f39c	0.04906045
131	0x3d899c67	0.067192845
132	0xbdf49ccf	-0.11943971
133	0xbe6da613	-0.23207884
134	0xbe05c802	-0.13064578
135	0xbd8ad7d7	-0.067794494
136	0x3e2160f9	0.15759648
137	0x3e92e11d	0.28687373
138	0xbe6f5a45	-0.23374279
139	0xbdfb306b	-0.12265094
140	0x3d8f97f3	0.07011404
141	0xbe9f9c02	-0.31173712
142	0xbe3df90a	-0.18552032
143	0xbebb7452	-0.36612183
144	0xbd3605a3	-0.04443897
145	0x3db477a8	0.08811885
146	0xbddc5e5a	-0.10760184
147	0xbd7878d1	-0.060662095
148	0xbc2de989	-0.010614761
149	0xbe418ada	-0.18900624
150	0xbe0b8e3a	-0.13628474
151	0x3da542cd	0.08069382
152	0x3c89f9d8	0.016842768
153	0x3e098b8e	0.13432142
154	0xbd0f4a40	-0.03498292
155	0x3ba33cfd	0.0049816356
156	0xbe314e14	-0.1731494
157	0xbe75b14b	-0.23993413
158	0xbe28963b	-0.16463558
159	0xbc1d09ab	-0.009584825
160	0x3de670a1	0.11251951
161	0x3ea74ca0	0.32675648
162	0x3e0aebea	0.13566557
163	0x3e437734	0.19088441
164	0xbc8ac9d1	-0.016941937
165	0xbc27e110	-0.01024653
166	0x3e12711d	0.14300962
167	0xbda942e5	-0.08264712
168	0x3e468e1f	0.19390152
169	0x3dbee962	0.09321858
170	0xbda926b5	-0.08259336
171	0x3da0349e	0.07822536
172	0x3db5b415	0.088722385
173	0x3c120883	0.008913162
174	0xbe450084	-0.19238478
175	0xbe8a75b9	-0.2704294
176	0xbe50f563	-0.20406108
177	0x3d8ff62a	0.07029374
178	0x3d5db02e	0.054123096
179	0x3e31962b	0.17342441
180	0x3cb46608	0.022021309
181	0xbac8d392	-0.0015321842
182	0xbccfc694	-0.025363244
183	0xbe871e95	-0.2639052
184	0x3d96fb86	0.07372193
185	0xbdb716d3	-0.089399
186	0x3dec1a8f	0.11528503
187	0x3e9577ce	0.29192966
188	0xbe2ee95e	-0.1708121
189	0xbc2336b6	-0.009961775
190	0x3bed8386	0.007248345
191	0x3cdfb8b6	0.027309757
192	0x3e2f7397	0.17133938
193	0x3e43f56f	0.19136594
194	0x3e1a611c	0.15076107
195	0xbd118b92	-0.035533495
196	0xbdb841fa	-0.08996959
197	0x3e0bbc12	0.13645962
198	0x3e0a3982	0.134985
199	0xbd0b882a	-0.034065403
200	0x3e4f2677	0.20229517
201	0xbe0b36db	-0.13595144
202	0xbe81c6be	-0.2534694
203	0x3e536df8	0.20647418
204	0x3d297948	0.04137543
205	0x3d7f20c9	0.062287126
206	0x3e08546e	0.13313457
207	0x3dbcb1b3	0.09213581
208	0xbd828f66	-0.06375007
209	0xbdb34def	-0.08755099
210	0x3dfba52c	0.122873634
211	0xbcdd0d0b	-0.026983758
212	0x3d0239fa	0.031793572
213	0x3eac9e59	0.3371456
214	0x3d0a305b	0.03373752
215	0x3dda34c9	0.10654599
216	0x3d1466fd	0.03623103
217	0x3e77036b	0.24122398
218	0x3e06423d	0.13111205
219	0x3d662cb3	0.056194972
220	0xbe169e60	-0.14708853
221	0xbe2dae7b	-0.1696109
222	0x3d6a8ce8	0.057263285
223	0xbe225894	-0.15854102
224	0xbdb33f41	-0.08752299
225	0xbf1160c4	-0.5678828
226	0xbd40204e	-0.04690581
227	0x39d432a1	0.00040473512
228	0xbe06ad37	-0.13152014
229	0x3e6092bc	0.21930975
230	0x3e12d939	0.14340676
231	0x3e04a3af	0.12953065
232	0x3d873f96	0.06603925
233	0xbe01ee77	-0.12688623
234	0xbdfc64de	-0.123239264
235	0x3e057cbc	0.13035864
236	0x3d817ba1	0.063224085
237	0xbe54150f	-0.20711158
238	0xba7621a2	-0.0009389167
239	0x3e6857d1	0.2268975
240	0x3e858975	0.26081434
241	0x3dbc290c	0.091875166
242	0x3ef386e2	0.47563845
243	0xbda59dac	-0.08086714
244	0x3e23475c	0.1594519
245	0x3da20d0a	0.07912643
246	0xbd5b1713	-0.053488802
247	0x3e3b4c45	0.18290813
248	0x3e0eea60	0.13956594
249	0x3e101fe0	0.1407466
250	0x3d1be052	0.038055725
251	0x3db6cf80	0.08926296
252	0x3eca25e2	0.39482027
253	0x3c4f300b	0.012645732
254	0x3e7c66f7	0.24648653
255	0x3e8378b6	0.25678033

block1.2.conv.bias f4 [8]
0	0xbdea936c	-0.114539
1	0x3d16113b	0.036637526
2	0x3e1291c8	0.14313424
3	0xbd8a9e57	-0.06768482
4	0x3d1058e8	0.035241038
5	0xbe07a18a	-0.13245216
6	0xbddb5ba3	-0.10710838
7	0x3c626217	0.013817332

block1.2.BN.weight f4 [8]
0	0x3f84b882	1.0368807
1	0x3f714f5c	0.9426172
2	0x3f8604fa	1.0470269
3	0x3f71f78c	0.9451835
4	0x3f8976eb	1.0739416
5	0x3f8ae232	1.0850279
6	0x3f64175f	0.8909816
7	0x3f90a408	1.1300058

block1.2.BN.bias f4 [8]
0	0xbdb30903	-0.08741953
1	0xbe2f2a61	-0.1710601
2	0x3b0fdcf9	0.0021951778
3	0xbba780dc	-0.005111797
4	0x3db2578f	0.08708107
5	0x3ac99ec7	0.0015382402
6	0xbe881749	-0.26580265
7	0xbdea003c	-0.11425826

block1.2.BN.running_mean f4 [8]
0	0xbe89497e	-0.26813883
1	0x3e54f3e6	0.20796165
2	0xbf861694	-1.047564
3	0x3f1da4fe	0.61579883
4	0xbf35de48	-0.710423
5	0xbfcf6683	-1.6203159
6	0xbdf0ec5d	-0.11763833
7	0xbf571991	-0.84023386

block1.2.BN.running_var f4 [8]
0	0x402f6eda	2.7411408
1	0x3f9524d3	1.1651863
2	0x40549428	3.3215427
3	0x3faeb680	1.3649445
4	0x40948bec	4.6420803
5	0x406a3cae	3.6599536
6	0x4022db68	2.5446415
7	0x4021d615	2.5286915

block1.3.conv.weight f4 [4, 8, 3, 3]
0	0x3dfe02b9	0.12402863
1	0xbdf33816	-0.11875932
2	0xbcc5b4d9	-0.024134086
3	0xbdc1671f	-0.09443497
4	0x3df5421d	0.11975501
5	0x3e2d1a7f	0.16904639
6	0xbec7cf8d	-0.39025536
7	0xbe3fb30a	-0.18720642
8	0xbe6ff859	-0.23434581
9	0xbdf26977	-0.11836522
10	0x3db92c6b	0.09041675
11	0x3e932f6a	0.28747112
12	0xbe6670b7	-0.22503935
13	0x3e186fb6	0.14886364
14	0x3d88cbcc	0.06679496
15	0x3cc7cc40	0.024389386
16	0x3e645e41	0.2230158
17	0x3e0aaa22	0.13541463
18	0x3e302140	0.17200184
19	0x3dc5f745	0.096663035
20	0xbe36aaaf	-0.17838548
21	0x3e04abcc	0.1295616
22	0x3de35bca	0.11101492
23	0xbe82be6c	-0.25535905
24	0x3e96cded	0.29453984
25	0x3d0876b0	0.033316314
26	0x3e009069	0.12555088
27	0x3ca9528f	0.02066925
28	0xbe27bd50	-0.1638081
29	0xbe62b5b0	-0.22139621
30	0x3d83577f	0.06413173
31	0x3e0f58d8	0.13998735
32	0x3cb4e8dd	0.022083694
33	0x3e74ed44	0.23918635
34	0x3e25e8fa	0.16202155
35	0xbd98dbad	-0.07463775
36	0x3e7a33d5	0.24433835
37	0xbd882245	-0.066471614
38	0x3c9cf8a8	0.019161537
39	0xbe13c614	-0.1443103
40	0xbe1b7826	-0.15182552
41	0xbe6a3b93	-0.22874288
42	0xbe341109	-0.17584623
43	0xbc88de9d	-0.016707713
44	0x3d012f00	0.031538963
45	0xbeae869b	-0.3408707
46	0xbea1831e	-0.31545347
47	0xbecd6b8d	-0.40121117
48	0x3c31bda9	0.010848441
49	0x3e92861e	0.28617948
50	0xbd388caa	-0.045056023
51	0xbe3529f3	-0.17691784
52	0x3e265766	0.16244277
53	0x3d9701fa	0.07373424
54	0x3bffd17d	0.0078069554
55	0x3cb83444	0.02248586
56	0x3e20446f	0.15651105
57	0x3e140b60	0.14457464
58	0x3e140f7a	0.14459029
59	0xbde32793	-0.110915326
60	0x3e3f8186	0.18701753
61	0xbd622f60	-0.05522096
62	0xbe067fc1	-0.13134672
63	0x3a48f0a7	0.00076652545
64	0xbdce84a5	-0.10083894
65	0x3e8343dc	0.2563771
66	0x3dcb1e25	0.09917859
67	0x3da60b16	0.08107583
68	0x3eabd8ef	0.33563945
69	0xbd634557	-0.05548605
70	0x3c595133	0.013263988
71	0x3e3b7a6d	0.1830842
72	0x3cfd3b3e	0.030912038
73	0xbe237d46	-0.15965757
74	0x3d85c52e	0.0653175
75	0xbcf213b6	-0.029550415
76	0xbcb95849	-0.022625105
77	0x3dd5df05	0.10442928
78	0xbee55ee8	-0.4479897
79	0xbe0da17f	-0.13831137
80	0xbefac5ed	-0.4897913
81	0x3e9ee3e1	0.31033233
82	0xbd986867	-0.07441788
83	0xbe39562d	-0.1809928
84	0x3d3c0668	0.045904547
85	0xbe9a7699	-0.30168608
86	0xbe87cd78	-0.26523948
87	0x3b96c801	0.004601479
88	0xba778729	-0.00094424427
89	0xbd4b7985	-0.049676437
90	0xbe07f325	-0.13276346
91	0x3dfa75c1	0.12229491
92	0x3dbb3642	0.09141208
93	0xbe07b4f7	-0.13252626
94	0xbe088e6d	-0.13335581
95	0x3e5755b3	0.21028785
96	0xbe007d17	-0.12547718
97	0x3b80c310	0.0039295033
98	0x3d93f655	0.072247185
99	0xbd9b2165	-0.07574729
100	0x3e40d3e2	0.18830827
101	0x3e4c8eb9	0.1997632
102	0x3c5f64ea	0.0136349
103	0x3ac38086	0.0014915622
104	0xbdd87136	-0.10568468
105	0x3d821f25	0.063535966
106	0x3db4ebe4	0.08834055
107	0x3d2ddbf3	0.042446088
108	0xbe3e05da	-0.1855692
109	0xbda3483a	-0.079727605
110	0x3e0d9808	0.13827527
111	0xbe72c159	-0.23706569
112	0xbe13fe66	-0.14452514
113	0x3d21d374	0.039508298
114	0xbe860ae6	-0.2618019
115	0xbe8c9328	-0.2745602
116	0xbd729881	-0.05922747
117	0x3e70e18a	0.23523536
118	0x3dfed224	0.12442425
119	0xbdadedec	-0.084926456
120	0xbdd10ae2	-0.10207154
121	0xbe56d0de	-0.20978114
122	0xbeb9bcdb	-0.36276898
123	0x3e0b32d5	0.1359361
124	0x3da3492a	0.07972939
125	0x3cf733eb	0.030176124
126	0x3e5ff943	0.2187243
127	0x3dbcd6bd	0.092206456
128	0x3da9d696	0.08292882
129	0xbe2edcfb	-0.17076485
130	0xbdce0a23	-0.10060527
131	0xbdf85cf7	-0.12127107
132	0xbe5c191a	-0.2149395
133	0xbea86d38	-0.32895827
134	0xbebfae58	-0.374377
135	0x3e05fc0a	0.13084427
136	0x3d8e2190	0.06939995
137	0x3d991b53	0.07475915
138	0x3e540e60	0.20708609
139	0x3c53960b	0.012914191
140	0xbe54adbe	-0.20769402
141	0x3e615b10	0.22007394
142	0xbef3fb6a	-0.4765275
143	0xbddac09b	-0.10681268
144	0xbe7bde08	-0.24596417
145	0xbe1f4950	-0.1555531
146	0xbe4cb133	-0.19989471
147	0x3d6526f6	0.05594536
148	0x3e354d67	0.17705308
149	0x3d878065	0.06616286
150	0x3d089d62	0.033353217
151	0xbe1aadcc	-0.15105361
152	0xbe4dbb64	-0.20091015
153	0x3e1e9801	0.15487672
154	0x3cc622d9	0.024186539
155	0xbdbbe91d	-0.09175322
156	0x3d7bd156	0.061478935
157	0xbe16d3ec	-0.1472928
158	0xbdbf3068	-0.09335405
159	0x3ca14bbd	0.019689435
160	0x3c00e09c	0.007866051
161	0xbe2196f7	-0.15780245
162	0xbd445d1c	-0.04794036
163	0x3e5560a1	0.20837642
164	0x3eb95760	0.36199474
165	0x3d4b3781	0.04961348
166	0x3d0e02ce	0.034670644
167	0x3e8a22f0	0.2697978
168	0xbd8bf2a1	-0.06833387
169	0xbeb5b3f7	-0.35488865
170	0xbdb42262	-0.087956205
171	0x3cde4be5	0.027135799
172	0x3dc5da45	0.09660772
173	0xbe1264bf	-0.14296244
174	0x3e9e8705	0.30962387
175	0x3df5f31a	0.120092586
176	0xbe0bbe2d	-0.13646765
177	0x3cc64a7d	0.02420544
178	0x3e84ef9d	0.2596406
179	0x3e817f61	0.25292495
180	0xbefff402	-0.4999085
181	0xbd80812d	-0.06274638
182	0x3e054e4c	0.13018149
183	0xbddaca00	-0.1068306
184	0xbdc7a428	-0.09748107
185	0x3e28d392	0.16486958
186	0xbe9fdf6d	-0.31225148
187	0xbe9c5e80	-0.30540848
188	0xbead9bbf	-0.33907887
189	0x3e4cfa23	0.20017295
190	0xbd298392	-0.04138524
191	0x3d2f2f33	0.042769622
192	0xbe43c5ff	-0.19118498
193	0xbe8058fd	-0.25067893
194	0xbd749097	-0.059708204
195	0x3e3265c5	0.17421634
196	0x3d81dc31	0.06340826
197	0x3eb59d86	0.35471743
198	0xbdfffeae	-0.12499748
199	0x3d4c071d	0.04981147
200	0x3e5d0db8	0.21587265
201	0x3df13ae7	0.11778813
202	0x3e2b0395	0.16700585
203	0x3e626b5d	0.22111268
204	0x3e00fe2f	0.12596963
205	0xbe04d9ec	-0.12973756
206	0x3c1d07e0	0.009584397
207	0xbe6a3ec8	-0.22875512
208	0xbe7331ce	-0.23749468
209	0x3cbf5e68	0.023360446
210	0xbcaaac25	-0.020834038
211	0xbe022523	-0.12709479
212	0x3d30d87b	0.043175202
213	0x3d452c9b	0.048138242
214	0x3d9854db	0.0743806
215	0xbe99c0e4	-0.30029976
216	0x3e196751	0.14980818
217	0x3da55cfd	0.08074377
218	0xbe244f4c	-0.16045874
219	0x3e27a74c	0.16372412
220	0xbe0018ff	-0.12509535
221	0x3d75b990	0.05999142
222	0x3e829cb7	0.2551019
223	0xbe2ae0f3	-0.16687374
224	0xbe320d2b	-0.17387836
225	0xbc9a22a4	-0.018815346
226	0x3d1c6585	0.038182754
227	0x3d28cc58	0.041210502
228	0xbe73fde3	-0.23827319
229	0xbdc4226a	-0.095768765
230	0x3e359085	0.17730911
231	0x3d7806f4	0.060553506
232	0xbe4ff24d	-0.20307274
233	0xbe86e84e	-0.2634911
234	0x3ca5815e	0.020203289
235	0xbdc537ec	-0.09629807
236	0xbe88af6f	-0.26696345
237	0xbdcbbaf4	-0.09947768
238	0xbd912f60	-0.07089114
239	0x3e05dca9	0.13072456
240	0xbd213dbd	-0.03936552
241	0xbdc5756a	-0.096415356
242	0xbe9797fe	-0.29608148
243	0xbf03ddbf	-0.5151023
244	0xbe399950	-0.1812489
245	0x3d9b46b9	0.07581849
246	0xbe064bfb	-0.13114922
247	0x3c94cdee	0.018164601
248	0x3e9cada2	0.3060122
249	0xbdd6700d	-0.10470591
250	0x3de2d9c2	0.1107669
251	0x3d9c9fa4	0.076476365
252	0xbe0a09e2	-0.13480332
253	0xbe91790f	-0.28412673
254	0xbe0fbde5	-0.14037283
255	0xbd83f136	-0.06442492

block1.3.conv.bias f4 [4]
0	0xbd887376	-0.066626474
1	0x3e9a7d37	0.30173656
2	0xbbd31658	-0.0064418726
3	0x3e194a7f	0.14969824

block1.3.BN.weight f4 [4]
0	0x3f84310c	1.0327468
1	0x3f83f15f	1.0308036
2	0x3f882649	1.0636684
3	0x3f77c3c9	0.9678312

block1.3.BN.bias f4 [4]
0	0xbc7cac46	-0.015421933
1	0xbd9f9a34	-0.07793084
2	0x3da61a4c	0.081104845
3	0x3dcd3e1c	0.10021612

block1.3.BN.running_mean f4 [4]
0	0x3c5d01e5	0.013489221
1	0xbf61eba3	-0.8825018
2	0xbf17f29a	-0.59354556
3	0xbf5955ab	-0.84896344

block1.3.BN.running_var f4 [4]
0	0x3f9e567b	1.2370142
1	0x3f9290d6	1.145045
2	0x3fe46d56	1.7845867
3	0x3f7e4965	0.9933074

block2.0.conv.weight f4 [8, 4, 3, 3]
0	0xbeb39c8c	-0.35080373
1	0xbe26577d	-0.16244312
2	0xbe0055f2	-0.12532786
3	0xbe374e77	-0.17901026
4	0x3cb563de	0.022142347
5	0xbe3e0fe9	-0.18560757
6	0x3ea5a6b5	0.3235375
7	0x3e6bd7df	0.23031567
8	0xbdc9af10	-0.09847844
9	0xbf033b2c	-0.51262164
10	0x3d38a58d	0.045079757
11	0xbe3c8536	-0.18410191
12	0xbd1b4bae	-0.03791397
13	0x3e310fff	0.17291258
14	0x3d05f2e4	0.03270234
15	0x3d2dd514	0.042439535
16	0x3dcf7240	0.10129213
17	0x3e33d2ab	0.17560832
18	0xbe004bea	-0.12528959
19	0x3dcc2149	0.09967286
20	0x3e4f92ed	0.20270891
21	0xbd2699bd	-0.04067396
22	0xbe7f09c4	-0.24906069
23	0x3e3697cc	0.17831343
24	0x3d4e8368	0.050418288
25	0x3df24fef	0.118316524
26	0x3dadc313	0.08484473
27	0x3d5f86f6	0.05457207
28	0xbba69a6a	-0.0050843256
29	0xbee0de31	-0.4391952
30	0x3e1145dc	0.14186805
31	0x3e11aa66	0.14225158
32	0xbe91ef1a	-0.28502733
33	0x3d2f4ecf	0.042799767
34	0x3cdc05c3	0.026858216
35	0xbed29b0b	-0.41133913
36	0xbea3e1f1	-0.32008317
37	0x3cd0a907	0.025471224
38	0x3df22b71	0.11824692
39	0xbe29cabe	-0.16581246
40	0x3e13e59e	0.14443061
41	0x3e5eb311	0.21747996
42	0x3e33df9b	0.17565767
43	0x3e39c5df	0.18141888
44	0x3d7e561a	0.06209383
45	0x3e19e8d9	0.1503023
46	0xbead3dc1	-0.33836177
47	0xbe9d8db7	-0.30772182
48	0x3db57dc6	0.0886188
49	0x3e07e5c9	0.1327125
50	0x3dfdfa4a	0.124012545
51	0x3d8e545f	0.06949686
52	0x3e223341	0.15839864
53	0x3e0c919c	0.1372742
54	0xbdb97bce	-0.09056817
55	0xbdfd9e8f	-0.12383758
56	0xbe85b15c	-0.26111877
57	0xbcad5881	-0.021160366
58	0xbe16c4db	-0.14723532
59	0xbdc0d28c	-0.09415159
60	0x3ea56fe7	0.32311937
61	0x3e9d9aeb	0.30782256
62	0x3e21d957	0.15805565
63	0xbe86e0a8	-0.26343274
64	0x3d443e15	0.04791077
65	0x3e60efa2	0.21966413
66	0x3cc4962d	0.02399739
67	0x3e001256	0.12506995
68	0xbdd6fc1a	-0.10497303
69	0x3e3ab466	0.18232879
70	0x3d051ff8	0.03250119
71	0xbdfa90c6	-0.122346446
72	0xbd92fa16	-0.07176606
73	0xbdb93234	-0.090427786
74	0xbe1ac28d	-0.15113278
75	0xbd3a849d	-0.045536626
76	0x3d3d26ce	0.046179585
77	0xbe48e286	-0.19617662
78	0xbec8e30f	-0.39235732
79	0xbd387cc1	-0.04504085
80	0x3e9843fd	0.2973937
81	0xbe3d3c54	-0.18480045
82	0x3df0f2d6	0.11765067
83	0x3dde8c9e	0.10866664
84	0xbecb2f6c	-0.39684618
85	0xbd4358ea	-0.047692217
86	0xbea7deef	-0.32787272
87	0x3e1ae9f6	0.15128312
88	0x3e1f7b8c	0.15574473
89	0x3e5551c3	0.20831971
90	0xbd619b85	-0.055079956
91	0x3c4fe268	0.012688257
92	0x3e1198a8	0.1421839
93	0xbe2552f2	-0.16144922
94	0xbe4001d2	-0.18750694
95	0xbe4cdfeb	-0.20007293
96	0xbe7677d2	-0.24069145
97	0xbda91f90	-0.08257973
98	0x3d14a515	0.036290247
99	0xbd7b2e60	-0.061323524
100	0xbe4f2e13	-0.2023242
101	0xbef3c559	-0.47611502
102	0xbd412bc2	-0.04716087
103	0xbd7b9a4f	-0.061426457
104	0xbe30c8f2	-0.17264155
105	0x3e60e5df	0.21962689
106	0x3e4b44da	0.19850484
107	0x3e8b255f	0.2717695
108	0x3d875676	0.06608288
109	0xbd40aebb	-0.047041636
110	0x3e3478b9	0.17624177
111	0xbe93a9c3	-0.28840455
112	0xbe8a885a	-0.27057153
113	0x3cc0752e	0.023493376
114	0x3dd50adb	0.10402461
115	0x3e80b440	0.2513752
116	0x3da7de25	0.081966676
117	0x3e7d73e5	0.24751242
118	0x3e44e1fe	0.19226834
119	0x3c55984b	0.013036798
120	0x3d777b27	0.06042018
121	0x3e2cd974	0.16879827
122	0xbd8492da	-0.06473322
123	0xbe274e68	-0.16338503
124	0xbd12b03e	-0.03581261
125	0x3d99dbff	0.07512664
126	0xbee9f99a	-0.45698243
127	0xbed0b874	-0.40765727
128	0xbe4aae4c	-0.19793051
129	0x3e5731b2	0.21015051
130	0x3cd44f3f	0.025916694
131	0x3ea70143	0.3261815
132	0xbc72d365	-0.014820908
133	0x3e20f576	0.15718636
134	0xbdf2ecad	-0.118615486
135	0xbd84cc0a	-0.0648423
136	0xbe61258f	-0.21986984
137	0xbd8cf63a	-0.068829015
138	0x3e1e9451	0.15486266
139	0xbe1659a6	-0.14682636
140	0xbc2ccc6e	-0.010546787
141	0xbeb0c213	-0.34523067
142	0x3c22b180	0.009930015
143	0xbe00bbef	-0.12571691
144	0x3e38de91	0.18053652
145	0x3e0a9722	0.13534215
146	0xbd9822f3	-0.07428541
147	0x3d2a9193	0.041642737
148	0xbe06da85	-0.13169296
149	0xbc27e6a8	-0.010247864
150	0x3e4e863f	0.20168398
151	0xbea5563f	-0.32292363
152	0xbe5ec803	-0.21755986
153	0x3e5daa46	0.21646985
154	0x3e108d15	0.14116319
155	0x3e9aee3e	0.3025989
156	0xbd71c88f	-0.05902916
157	0x3e4d10b4	0.20025903
158	0x3e6cf8a6	0.23141727
159	0x3e27c81d	0.16384931
160	0x3e966b0b	0.29378542
161	0x3dda9315	0.10672585
162	0x3e951fc4	0.29125798
163	0x3c67cfb1	0.014148639
164	0xbe9d0719	-0.30669478
165	0x3e28df89	0.16491522
166	0x3d26e903	0.04074956
167	0xbe3031d4	-0.17206508
168	0x3e4582ef	0.19288228
169	0x3e390209	0.18067183
170	0x3db60b56	0.08888881
171	0x3e07a08a	0.13244835
172	0xbe4f59b5	-0.20249064
173	0xbe308371	-0.17237641
174	0x3e1254a5	0.14290102
175	0x3dc13171	0.09433258
176	0x3dca6fa1	0.09884573
177	0x3e00b72c	0.12569875
178	0xbdf5e91a	-0.12007351
179	0xbedaa1ce	-0.42701572
180	0x3e34138b	0.1758558
181	0x3d105532	0.0352375
182	0x3e81df05	0.25365463
183	0xb9d57893	-0.0004071636
184	0xbf039352	-0.5139667
185	0xbed1322d	-0.40858594
186	0xbc1370d5	-0.008999069
187	0xbeae35a2	-0.34025294
188	0x3a55ca3f	0.0008155442
189	0xbe1fe88b	-0.15616052
190	0xbe89e5af	-0.26933047
191	0xbd38c056	-0.0451053
192	0xbd7ccd23	-0.06171907
193	0xbe224dfb	-0.1585006
194	0xbe886c45	-0.26645103
195	0x3c86031a	0.0163589
196	0xbe1e4296	-0.15455088
197	0xbed1a0ff	-0.40943143
198	0x3b38869c	0.0028156405
199	0xbd2a78ac	-0.041618988
200	0xbec8e4cf	-0.39237067
201	0xbda8b2d7	-0.08237236
202	0x3deb8876	0.11500637
203	0x3d739046	0.05946376
204	0xbe0f9c59	-0.14024486
205	0x3c83ae5a	0.016074348
206	0x3e730a3b	0.23734371
207	0xbd3440db	-0.044007163
208	0x3d85bae4	0.06529787
209	0x3dffe616	0.12495057
210	0x3d01317f	0.031541344
211	0x3e21776b	0.1576821
212	0x3d3477a6	0.04405942
213	0xbea15d76	-0.31516618
214	0x3e08149d	0.13289113
215	0x3d167260	0.03673017
216	0x3e693e47	0.22777663
217	0x3e33633c	0.17518324
218	0x3d196b97	0.03745612
219	0x3e497b8f	0.1967604
220	0x3dc3a07d	0.09552095
221	0x3d44f140	0.048081636
222	0xbe002928	-0.125157
223	0x3e1f86b3	0.15578727
224	0x3c6084a3	0.013703498
225	0xbe943c3d	-0.28952208
226	0xbe5a1b44	-0.21299464
227	0xbde7595d	-0.112963416
228	0x3e0b45ca	0.13600841
229	0x3e002510	0.12514138
230	0x3e4d9b5c	0.20078796
231	0x3b667bff	0.0035169122
232	0x3e20890f	0.15677284
233	0xbcd09754	-0.025462784
234	0xbd30fc85	-0.04320957
235	0x3e1b1aeb	0.15146987
236	0x3e206886	0.15664873
237	0x3c4482da	0.011994088
238	0xbd468113	-0.04846294
239	0x3eaf6e29	0.34263733
240	0xbe99b14e	-0.30018085
241	0xbedcebd9	-0.43148687
242	0xbe75db62	-0.24009469
243	0x3e5e359d	0.2170014
244	0xbcc54389	-0.024080055
245	0x3c9b142f	0.018930523
246	0xbe4d11b6	-0.20026287
247	0x3ddcd7de	0.10783361
248	0x3e4715bd	0.19441886
249	0x3e25234a	0.16126743
250	0x3c47d2ed	0.012196285
251	0x3e885a0b	0.26631197
252	0x3e3b3dff	0.18285368
253	0xbdddc37e	-0.10828303
254	0x3ce59db4	0.0280293
255	0x3ea8b4fe	0.32950586

block2.0.conv.bias f4 [8]
0	0x3e2701bb	0.16309254
1	0xbe8611cd	-0.26185456
2	0x3e03cc39	0.12870874
3	0xbbb4ef36	-0.00552168
4	0xbdfd33a9	-0.12363369
5	0xbda53e38	-0.08068508
6	0x3d21d237	0.039507117
7	0xbd563c5f	-0.052303668

block2.0.BN.weight f4 [8]
0	0x3f8c7a9e	1.097492
1	0x3f8002bf	1.0000838
2	0x3f913bcf	1.1346377
3	0x3f91b357	1.1382855
4	0x3f566b98	0.83757925
5	0x3f5d5108	0.8645177
6	0x3f72185e	0.9456843
7	0x3f834c57	1.0257672

block2.0.BN.bias f4 [8]
0	0xbe53d4e0	-0.20686674
1	0xbe15bb61	-0.1462226
2	0xbdcc6b38	-0.09981388
3	0x3d40e83f	0.047096487
4	0xbea4c0f8	-0.32178473
5	0x3e820782	0.25396353
6	0xbd8223af	-0.06354462
7	0xbe6eda90	-0.23325562

block2.0.BN.running_mean f4 [8]
0	0xbe6c5379	-0.23078717
1	0x3d576dbf	0.052594896
2	0xbf26d73f	-0.6517219
3	0xbec0436c	-0.3755144
4	0x3ee09c05	0.43869033
5	0xbf5cf511	-0.8631144
6	0x3eeae90f	0.45880935
7	0xbee2cc28	-0.44296384

block2.0.BN.running_var f4 [8]
0	0x3f10635d	0.56401616
1	0x3f33e1ae	0.70266235
2	0x3f66b4b4	0.9011948
3	0x3efe83b7	0.49709865
4	0x3f43db88	0.76506853
5	0x3f626cde	0.8844737
6	0x3f129e1c	0.57272506
7	0x3ee9e922	0.4568568

block2.1.conv.weight f4 [16, 8, 3, 3]
0	0x3e7cd362	0.24690011
1	0xbb4f1c2e	-0.003160249
2	0xbe43ddd2	-0.19127586
3	0x3eaf33fe	0.34219354
4	0x3e3ef0ca	0.18646541
5	0xbd50781e	-0.050895803
6	0xbc0ab175	-0.008465161
7	0x3e4592cd	0.19294281
8	0x3db8a49a	0.0901577
9	0x3cf81e36	0.030287843
10	0xbce21d3a	-0.027601827
11	0xbe5663d1	-0.20936514
12	0x3e311fdf	0.17297314
13	0xbd7d79a8	-0.0618836
14	0x3dbe2d83	0.092860244
15	0x3cec149b	0.02881842
16	0xbdd35e09	-0.1032067
17	0x3bc95f78	0.006145414
18	0x3dd90d28	0.105982125
19	0xbd2e78f5	-0.042595822
20	0xbe1c4882	-0.15262035
21	0x3e9a3f32	0.3012634
22	0x3eb0f379	0.34560755
23	0x3f000efc	0.50022864
24	0xbd322140	-0.04348874
25	0x3c6aae71	0.014323817
26	0x3c9cd518	0.01914458
27	0x3e634d85	0.2219754
28	0xbde0c679	-0.10975356
29	0xbe4f0983	-0.20218472
30	0xbcc3a38c	-0.023881696
31	0x3e01ec43	0.12687783
32	0x3de14f83	0.11001494
33	0x3e8fe4b6	0.2810418
34	0x3e474d36	0.19463047
35	0x3e7ab629	0.24483551
36	0x3dc4b7bb	0.09605356
37	0x3d69dea6	0.0570971
38	0x3da42de1	0.08016563
39	0x3e625e2e	0.22106239
40	0x3d3e3acb	0.046442788
41	0xbd0ba0f9	-0.034089062
42	0x3ce6fa85	0.028195629
43	0xbe34eb44	-0.17667872
44	0xbcc04683	-0.023471123
45	0x3d8fa726	0.07014303
46	0x3dc07143	0.09396603
47	0x3d4dc343	0.050235044
48	0x3e098500	0.13429642
49	0xbd69600a	-0.056976356
50	0xbd81332b	-0.06308588
51	0xbe44fd85	-0.19237335
52	0xbe168880	-0.14700508
53	0x3e1ea023	0.15490775
54	0xbd094070	-0.033508718
55	0x3de9552f	0.113932006
56	0x3d394071	0.04522747
57	0xbdcbbe73	-0.09948435
58	0xbe90f115	-0.2830893
59	0xbe1f3a2b	-0.15549533
60	0x3e99f2d1	0.30068067
61	0x3e811f3a	0.25219136
62	0x3e004eaf	0.12530015
63	0x3e0994c3	0.13435654
64	0x3e3a12f8	0.18171299
65	0x3de5392c	0.11192545
66	0xbe7b330e	-0.24531195
67	0x3dae192c	0.08500895
68	0xbe4a3b6d	-0.19749232
69	0xbe6460cc	-0.2230255
70	0x3ea69227	0.3253338
71	0x3d4cac26	0.04996886
72	0x3d8a25b9	0.06745476
73	0xbe1c8fc8	-0.15289223
74	0x3b38d501	0.0028203132
75	0xbc7ab6e3	-0.015302393
76	0xbd1aa2e1	-0.03775299
77	0x3e78bbe2	0.24290422
78	0xbe856435	-0.26053014
79	0x3ba872af	0.0051406245
80	0x3da2c904	0.07948497
81	0xbe1738ea	-0.14767805
82	0xbea66b5f	-0.32503793
83	0x3cbec463	0.023287004
84	0xbe87592e	-0.26435226
85	0xbe68a48e	-0.22719023
86	0xbe6c5cac	-0.23082227
87	0x3e5a7364	0.2133308
88	0x3e31d978	0.17368114
89	0x3d8927ed	0.06697068
90	0x3d774745	0.060370702
91	0xbb7b6b1d	-0.0038363405
92	0x3d360876	0.044441663
93	0xbdade336	-0.08490603
94	0x3b28538e	0.0025684568
95	0xbbe34c0f	-0.006936557
96	0xbae6f67d	-0.0017621067
97	0xbe590b7c	-0.21195787
98	0xbddf815e	-0.10913347
99	0x3d452726	0.048133038
100	0x3e48f63f	0.19625185
101	0x3e54773a	0.20748606
102	0x3c627071	0.013820753
103	0x3e74d93f	0.23910998
104	0x3dc9c5d8	0.09852189
105	0x3e68fe5a	0.22753277
106	0x3e00de5c	0.12584823
107	0xbe15bd82	-0.14623073
108	0x3dfaf91a	0.122545436
109	0x3e99a5c5	0.30009285
110	0x3ea02a7f	0.31282422
111	0xbd63d7bd	-0.055625666
112	0xbe2f2fde	-0.17108104
113	0x3df95f21	0.121763475
114	0x3d871b40	0.065969944
115	0x3dbdc751	0.09266532
116	0x3e2183e6	0.15772972
117	0xbd43648c	-0.04770331
118	0x3d38b1e7	0.045091536
119	0xbd5351e2	-0.05159176
120	0xbd0bbc7f	-0.03411531
121	0xbcf9f492	-0.030512128
122	0x3e1001e8	0.14063227
123	0xbcab1e3f	-0.020888446
124	0xbd55221c	-0.052034482
125	0x3e651100	0.22369766
126	0xbe3ca544	-0.18422419
127	0xbe2b2454	-0.16713077
128	0xbebe3476	-0.371494
129	0x3e6fd68d	0.23421688
130	0x3e7e6d38	0.24846351
131	0x3b8adb86	0.004237595
132	0x3e1b385e	0.15158221
133	0x3e22b965	0.15891035
134	0xbbc01dd5	-0.0058629313
135	0xbdfc21e6	-0.12311153
136	0x3ea011c1	0.31263545
137	0x3e4084fd	0.18800731
138	0xbe4cb109	-0.19989409
139	0xbe0b7605	-0.1361924
140	0x3e41a5c4	0.18910891
141	0xbe2d701a	-0.16937295
142	0xbe7c408d	-0.24633999
143	0x3e4aa5a2	0.19789746
144	0x3de5f4d8	0.11228341
145	0x3ce66fbc	0.028129451
146	0xbc00267d	-0.007821676
147	0x3ed42738	0.41436172
148	0x3e80271c	0.25029838
149	0xbd1dc719	-0.038519952
150	0x3e24ae6a	0.16082159
151	0x3c5ef508	0.013608225
152	0xbf0198f1	-0.50623995
153	0xbe33b8db	-0.17550986
154	0x3df54241	0.119755276
155	0xbd4a0c56	-0.04932817
156	0x3daacdc0	0.08340025
157	0x3daba94f	0.083819024
158	0xbe4b0bed	-0.19828768
159	0x3e3fa695	0.1871589
160	0x3d81e3e0	0.06342292
161	0xbe70ef94	-0.23528892
162	0x3e5a3251	0.21308257
163	0xba24b416	-0.00062829384
164	0x3db1d129	0.08682472
165	0x3ceaed29	0.02867754
166	0x3c2c5c93	0.010520118
167	0xbe8747b5	-0.26421896
168	0x3d82061c	0.063488215
169	0xbe4e6baf	-0.20158266
170	0xbdf76e2f	-0.12081563
171	0x3e7825e0	0.24233198
172	0x3e8ffc64	0.28122246
173	0x3e17c02e	0.14819404
174	0x3dd63693	0.10459628
175	0xbd9507ec	-0.072769016
176	0xbedd9883	-0.4328042
177	0x3e4bae87	0.19890796
178	0x3b820fff	0.003969192
179	0xbe7967e5	-0.24356039
180	0x3c306793	0.0107668815
181	0x3d8bbcb5	0.068231024
182	0x3d860fb1	0.06545962
183	0xbdf07212	-0.11740507
184	0xbe38552d	-0.18001242
185	0x3de0ea09	0.10982139
186	0xbe327536	-0.17427525
187	0x3d5e9a5d	0.05434643
188	0x3e6dd163	0.23224406
189	0x3e4a2072	0.1973894
190	0xbcd94b05	-0.02652503
191	0xbd783397	-0.060596075
192	0xbe23563b	-0.15950863
193	0xbe63fd99	-0.22264709
194	0x3e439b18	0.19102132
195	0xbea00359	-0.31252554
196	0xbebeef32	-0.37291867
197	0xbe73da1c	-0.23813671
198	0xbd39563f	-0.045248266
199	0xbe2459a6	-0.16049823
200	0x3da0241e	0.07819389
201	0xbe4cb71b	-0.19991724
202	0xbead0dac	-0.33799493
203	0xbbfea008	-0.007770542
204	0xbdddb0ee	-0.10824762
205	0xbde9a8f2	-0.11409177
206	0xbdb83037	-0.08993571
207	0xbb83f8e9	-0.004027475
208	0xbdb49513	-0.08817496
209	0xbd645004	-0.05574037
210	0xbdf1da83	-0.11809256
211	0xbe3a23f4	-0.18177778
212	0x3ce12166	0.027481746
213	0xbc3d9f1f	-0.011573582
214	0x3dbdc9a1	0.09266973
215	0x3d428927	0.04749408
216	0x3ddebf54	0.10876337
217	0xbcfdcc2c	-0.030981146
218	0x3df432e7	0.11923771
219	0xbda2be77	-0.079464845
220	0xbde55f70	-0.11199844
221	0xbe4f1c50	-0.20225644
222	0x3e6070c5	0.21918018
223	0x3c37b475	0.011212458
224	0x3d4d8fb0	0.05018586
225	0xbe8d8550	-0.27640772
226	0x3d24a3e5	0.040195365
227	0x3df6c3d2	0.120490685
228	0x3db30742	0.08741619
229	0x3d153596	0.036428057
230	0x3d41f168	0.047349364
231	0x3e9039b8	0.28169036
232	0x3ea78ef6	0.32726258
233	0x3ea3736a	0.3192399
234	0x3e82daf1	0.25557664
235	0x3dc718d7	0.09721535
236	0x3e6f4223	0.23365073
237	0x3e0a4c03	0.13505559
238	0x3e5bdaaf	0.2147014
239	0x3e73f306	0.23823175
240	0xbe6eef61	-0.23333503
241	0xbeb5ea89	-0.355305
242	0xbe8429e5	-0.25813213
243	0x3e754d64	0.23955303
244	0x3ecf1b45	0.40450493
245	0x3e088be6	0.13334617
246	0x3e990a0c	0.29890478
247	0x3dc6a93c	0.09700248
248	0xbd67b586	-0.0565696
249	0x3e15872a	0.14602342
250	0x3cfc4567	0.030794812
251	0xbd45f3c3	-0.048328172
252	0xbd92a4c5	-0.071603335
253	0xbe215e33	-0.1575859
254	0x3dd06f54	0.10177484
255	0xbe35bc64	-0.17747647

block2.1.conv.bias f4 [16]
0	0xbdd032e2	-0.10165955
1	0x3d929acb	0.07158431
2	0x3e339391	0.17536761
3	0x3d1dd948	0.038537294
4	0xbdc0c15a	-0.09411879
5	0x3e270693	0.16311102
6	0xbde1267d	-0.10993669
7	0xbda8c8b6	-0.082414076
8	0x3ea2264a	0.31669837
9	0x3d84825a	0.06470175
10	0x3cd9561c	0.026530318
11	0xbcadfe46	-0.021239411
12	0x3def3f17	0.11681955
13	0xbdf1de09	-0.11809928
14	0x3d5918c5	0.053002138
15	0x3c504bf6	0.012713423

block2.1.BN.weight f4 [16]
0	0x3f7f0d3d	0.99629575
1	0x3f8e1e1e	1.1102941
2	0x3f8e7ae8	1.1131258
3	0x3f818085	1.0117346
4	0x3f870b37	1.0550297
5	0x3f66ae44	0.9010966
6	0x3f706d4f	0.9391679
7	0x3f7f1d1d	0.996538
8	0x3f8a05d1	1.0783025
9	0x3f5587f6	0.83410585
10	0x3f724715	0.9463971
11	0x3f56e348	0.83940554
12	0x3f8a9b59	1.0828658
13	0x3f831725	1.0241438
14	0x3f8f0901	1.1174623
15	0x3f803c6e	1.0018442

block2.1.BN.bias f4 [16]
0	0xbe9fe345	-0.3122808
1	0xbedcef5d	-0.4315137
2	0xbe26bc82	-0.16282848
3	0xbe26bfac	-0.16284055
4	0x3d87c0f4	0.066286
5	0xbdd11fef	-0.10211169
6	0xbdbdcb1a	-0.09267254
7	0xbe303308	-0.17206967
8	0xbd91007f	-0.07080173
9	0xbea01b0d	-0.31270638
10	0xbeb6389a	-0.3559006
11	0xbe735027	-0.23761044
12	0x3c796345	0.015221422
13	0xbea172a4	-0.31532776
14	0xbcb6531b	-0.022256425
15	0xbe8e5c47	-0.27804777

block2.1.BN.running_mean f4 [16]
0	0x3f8b596d	1.0886666
1	0x3edc7fe3	0.4306632
2	0xbf0c935c	-0.5491235
3	0x3ee479ec	0.4462427
4	0xbc2d2acf	-0.010569288
5	0xbf39f2c5	-0.7263606
6	0x3e013da7	0.12621175
7	0xbecc7dae	-0.39939636
8	0xbf2504b8	-0.64460325
9	0xbd015860	-0.03157842
10	0x3f1bdd09	0.6088415
11	0xbf63014a	-0.8867384
12	0xbe4422a5	-0.19153841
13	0x3f0e9c62	0.5570737
14	0xbf40271f	-0.75059694
15	0xbe9cb080	-0.3060341

block2.1.BN.running_var f4 [16]
0	0x3facb112	1.3491538
1	0x3f3530d1	0.7077761
2	0x3f8f1ada	1.118007
3	0x3fe80e8e	1.8129442
4	0x3fd85e2e	1.6903741
5	0x3f5c97d0	0.8616915
6	0x3facb121	1.3491555
7	0x3f99d4c5	1.2018057
8	0x3fd8ff87	1.6952981
9	0x3f7f5db1	0.99752337
10	0x3ff7d3b6	1.9361484
11	0x3faea710	1.3644733
12	0x3fd90a19	1.6956207
13	0x3f8daafa	1.1067803
14	0x3f68b252	0.90897095
15	0x3fcec875	1.6154925
