result/model/0517 1811.pt (torch, 79197 bytes, 98 tensors)

input_conv.conv.weight f4 [4, 1, 3, 3]
000000 74 60 9b be c6 f8 52 3e c4 b5 be be 77 db 8d bd
       -0.30347025 0.20602712 -0.3724805 -0.06926625
000010 8e 2e 60 3d 8e 72 53 bc c7 71 81 bd 14 01 a9 3d
       0.054731898 -0.01290573 -0.063205294 0.08252159
000020 6e c7 ac 3e e3 78 8e 3c fe aa 87 bd f6 a5 cd 3d
       0.33745903 0.017391628 -0.06624411 0.1004142
000030 b1 d8 ed 3d fe de 18 3e 81 65 c0 bd 4b 52 28 3e
       0.11613596 0.14928815 -0.0939436 0.16437642
000040 e6 d1 0a 3f 3b d6 8a 3e 16 91 9e 3c ff c9 97 be
       0.5422653 0.2711657 0.019356292 -0.29646298
000050 1a d4 9d 3d 34 9e 07 3e 75 ec 5b be 1e f6 c3 be
       0.07706471 0.13243943 -0.2147692 -0.3827371
000060 af 19 7c 3d f5 6b d9 bd 7c bd 8e be dc 76 a0 be
       0.06154793 -0.10616294 -0.2787894 -0.31340683
000070 1d ff b6 bd 18 fa 97 3c 6f 79 7a bd ca 13 23 3e
       -0.08935378 0.018551871 -0.061150964 0.15925518
000080 9c 45 98 3e a3 ea cb be 67 c1 5f 3e 92 28 39 3e
       0.29740608 -0.3982745 0.21851121 0.18081883

input_conv.conv.bias f4 [4]
000000 7d f2 05 3d 3e cf 2a bd 08 4a 93 bc 8e 99 52 be
       0.032701958 -0.041701548 -0.017979637 -0.20566389

input_conv.BN.weight f4 [4]
000000 fe 57 6f 3f 84 e5 86 3f 0b 97 81 3f e8 85 80 3f
       0.9349364 1.0538793 1.012422 1.0040865

input_conv.BN.bias f4 [4]
000000 ae 86 67 3e 0c 1d 2c bd 89 5c 84 3c f0 c6 ee bc
       0.2260997 -0.04201989 0.016157405 -0.029147595

input_conv.BN.running_mean f4 [4]
000000 b9 89 b3 3c 60 fe 1b bd a0 b8 e7 bc 45 49 56 be
       0.021916257 -0.038084388 -0.028286278 -0.20926388

input_conv.BN.running_var f4 [4]
000000 1f 04 6a 3d b9 9f ad 3f 3e 3e 74 3f 8c 29 af 3d
       0.057132836 1.3564368 0.95407474 0.08552846

block1.0.conv.weight f4 [8, 4, 3, 3]
000000 3d 3b a5 3d ff 22 f6 bd 9a 0d 83 3d a4 fd d5 3d
       0.080679394 -0.12018394 0.06399079 0.10448769
000010 ae ce 4c bd 82 81 cc 3b 39 24 0a 3e c2 da 2b 3c
       -0.050001793 0.0062410245 0.1349038 0.010489168
000020 7a 79 1a be 59 76 6d 3e 3d 56 cb 3c 30 2b a8 3c
       -0.15085402 0.23189677 0.024821395 0.020528406
000030 82 f4 7e bd 4f e5 8b bd 57 9c 83 be 84 04 43 3e
       -0.0622449 -0.068308465 -0.25705215 0.19044691
000040 a1 c0 3f bd 17 ac 28 3d eb 5e 41 be b6 41 9e 3d
       -0.046814565 0.041179743 -0.18883865 0.07727377
000050 f8 53 20 3e 09 5b 43 bd dc a4 bf 3d 23 4d 88 3e
       0.15657032 -0.04769424 0.09357616 0.2662135
000060 76 cd 55 be 56 cb 3e be d2 72 24 3e 3d 29 34 3d
       -0.20879158 -0.18632254 0.16059425 0.04398464
000070 d8 02 2a be b7 40 29 bc 74 c5 df 3d 36 1b 12 bd
       -0.16602647 -0.010330371 0.10926333 -0.03567048
000080 39 4e 5b be 87 5f a3 bc 63 b8 6c bc 10 50 f1 bc
       -0.21416558 -0.019943012 -0.014448258 -0.029457122
000090 2b bc 36 3d 9f 28 60 3d fa d8 82 be 02 fd a6 bd
       0.044613045 0.05472624 -0.25556165 -0.08153726
0000a0 e3 cb 30 bd f1 e1 a9 bc eb 3e c5 bd 91 b9 3f be
       -0.04316319 -0.02073762 -0.09631141 -0.18723132
0000b0 53 48 bf bd e1 34 bd bb 8d ca 1a 3d 41 7a 99 3d
       -0.093399666 -0.005774126 0.037790824 0.07494021
0000c0 c6 e4 5a 3e 6b 0f f5 3d 82 65 6c bd 60 76 c2 3d
       0.21376333 0.11965831 -0.057713993 0.094952345
0000d0 6f d6 41 be e3 af 90 be eb 9f 41 3e 10 f1 00 3e
       -0.18929456 -0.2825919 0.1890866 0.12591958
0000e0 4d 71 39 3e 24 af fd bd ae 8d 2b bd b3 f3 1e bd
       0.18109627 -0.12386921 -0.041883163 -0.03880663
0000f0 ab b1 2f be 2c c0 b3 3c cc f3 d4 bd d8 41 21 bd
       -0.17157619 0.02194222 -0.10398063 -0.039369434
000100 00 95 ec bd e6 04 9a 3d 3a 98 ed bd b7 1f f0 3c
       -0.11551857 0.075204656 -0.116013005 0.029311998
000110 14 0d 36 be e8 18 50 be 32 74 21 be 90 0e 84 bd
       -0.17778426 -0.20322001 -0.15766981 -0.0644809
000120 23 a5 76 bd 1b da 81 be b2 b6 89 bd f2 4a 8f bc
       -0.06021608 -0.25361714 -0.067242995 -0.017491791
000130 59 b4 62 3d 41 8e 1d 3e 9c fc 71 3e e3 08 e5 3d
       0.055347774 0.15386297 0.23631519 0.11183336
000140 26 56 02 3e 58 cb ae 3d 00 a6 fc bc b3 b8 88 3d
       0.12728176 0.085348785 -0.030840874 0.066758536
000150 72 eb d8 3d 91 d6 92 bd ae c1 09 3d fe 4c 0a 3e
       0.10591783 -0.071698315 0.033631973 0.13505933
000160 f1 3d c5 bd 9b 6b 3b be 1e cf 57 be 9e 89 c6 bd
       -0.09630955 -0.18302767 -0.21075103 -0.09694217
000170 c6 2e df bb 3c 89 32 be fe 94 46 be 1b 8b 68 be
       -0.0068109958 -0.17435163 -0.19392774 -0.22709315
000180 21 28 ef bd 1a 2b 2d bd 60 79 29 be 7e bd 3d bd
       -0.11677576 -0.042277433 -0.16550207 -0.046323292
000190 1c 66 1e be e8 e7 08 3e 64 67 e4 3d 23 d7 d3 bd
       -0.15468639 0.13369715 0.11152533 -0.103437684
0001a0 18 b5 f0 bd 86 ed f6 3c df 4d 3e 3b af a4 86 bd
       -0.11753291 0.030142557 0.0029038114 -0.0657438
0001b0 06 01 b7 bd 9f 1d 56 be e2 f1 15 be cf 17 f3 3d
       -0.08935742 -0.20909737 -0.14643052 0.118697755
0001c0 4c a3 d9 bd 88 58 0c be 38 f1 0a 3e 8f 4a 02 be
       -0.106268495 -0.13705647 0.1356858 -0.12723754
0001d0 32 38 ee bd 78 5a 36 3d 8c f8 a0 bd 2a 4e 40 3e
       -0.11631812 0.04451987 -0.078599066 0.18779817
0001e0 b9 a1 3b be 5c 9c 3a be d1 f5 a7 bc ff 87 06 3c
       -0.18323411 -0.18223709 -0.020502957 0.008211135
0001f0 53 cb b1 3d a0 27 36 3e a2 ca 92 3d 41 96 9f bd
       0.08681359 0.17788553 0.071675554 -0.077923305
000200 1d d7 13 3a 6b 09 06 be e3 3a c5 bd c8 27 73 3d
       0.00056396594 -0.1308953 -0.096303724 0.05936411
000210 40 eb 4f 3e 96 db 99 bd f6 c4 8f 3d b2 72 2c be
       0.20304585 -0.07512586 0.07019989 -0.16840628
000220 4c fa 40 be 9c 86 46 3e 25 32 59 3d f5 a7 39 3e
       -0.1884548 0.19387287 0.053026337 0.18130477
000230 9f d9 df 3d f6 0b b5 bd 6b 83 fe bd ad 50 c1 bd
       0.1093018 -0.08840172 -0.1242741 -0.09439216
000240 ea a1 03 3d ad 0c c7 bd 9e 92 98 bd 94 41 e1 3c
       0.032136835 -0.097192146 -0.0744984 0.02749709
000250 ce d0 a4 bd 2c 13 f3 3d 02 1a 70 be 13 96 0f 3c
       -0.08047639 0.11868891 -0.23447421 0.008763808
000260 8d eb 16 3e 97 8d 86 3d 6f a8 a6 3e 0e 53 07 3d
       0.14738293 0.06569975 0.3255038 0.03303819
000270 d3 c0 ec 3c a0 67 41 3e 04 52 61 3d 4c 56 5e 3c
       0.02890054 0.18887186 0.055009857 0.0135703795
000280 1e 18 ee 3d 77 13 86 bd 2b e8 05 be 00 2e 38 be
       0.11625694 -0.065466814 -0.13076846 -0.17986298
000290 05 8e a8 3d b1 c1 64 3e 97 58 21 bd 4b 77 ab 3d
       0.08230213 0.22339512 -0.039391126 0.08372363
0002a0 bd 99 21 3e 8c be 34 3e d0 4a c9 3e aa d9 18 3e
       0.15781303 0.17650813 0.3931489 0.14926782
0002b0 14 f0 66 3d cd 84 1d bd b6 d3 1f bd 21 d2 0c 3e
       0.0563813 -0.038456727 -0.039020263 0.13752033
0002c0 3e 67 d7 bd 2b aa 0c bd 55 0e 98 3d 45 ba 68 3e
       -0.10517739 -0.034341972 0.074246086 0.22727306
0002d0 8c 90 42 3e b6 15 3b 3e 58 3d 8c 3d c4 b2 d7 bd
       0.19000453 0.18270001 0.06847638 -0.10532144
0002e0 26 1b 0e be 4c 56 19 be 8f 5c 46 3d f1 f2 c4 3d
       -0.13877544 -0.14974326 0.048428115 0.0961665
0002f0 79 80 3b be a4 b3 03 be b0 10 9f bc 3c 17 10 3e
       -0.18310727 -0.12861496 -0.019417137 0.14071363
000300 6a 2e 73 bd 0c 33 a5 bd eb 1c 92 bc e5 d4 e2 3d
       -0.059370436 -0.08066377 -0.017836055 0.11075763
000310 d4 cd a6 3c fc 0f 55 be 00 48 9a 3d 57 4c 2d be
       0.020361818 -0.20806879 0.07533264 -0.16923653
000320 ca e9 12 3e 20 8b 3a bd f5 da 65 3b 91 d8 0b 3e
       0.14346996 -0.045542836 0.0035073136 0.13656832
000330 09 5a cd 3d 4f cf ee bd b5 db 4d 3e 4c 43 8b 3e
       0.100269385 -0.11660635 0.20103343 0.2719978
000340 4d 05 9a 3e 9f 33 cc 3d 9f 9d f1 3d c3 cf b8 3d
       0.3008217 0.099707834 0.11797642 0.090240024
000350 39 d8 5e bd 26 32 6c 3e bd fa 88 3d 79 c4 9f bb
       -0.054405425 0.23066005 0.066884495 -0.0048757163
000360 cf 29 20 bd 7e a4 1e bd cd 63 55 3e d0 8f 3e be
       -0.03910237 -0.03873109 0.20838852 -0.18609548
000370 b0 d3 6c bd 33 14 61 be 58 ab a9 3d 94 e7 bb 3d
       -0.05781907 -0.21980362 0.08284634 0.091750294
000380 51 95 0d 3d a1 93 fa bd 9e 9d 0f be 1d 66 3e 3e
       0.034566227 -0.12235189 -0.1402497 0.1859364
000390 04 49 2d be 86 a1 4e be 16 70 36 3e 53 3d b7 3d
       -0.16922385 -0.20178804 0.17816195 0.089472435
0003a0 39 53 2a be 25 f6 b8 bd af 7e 84 bd b8 56 c6 3b
       -0.1663331 -0.09031323 -0.064694755 0.006052818
0003b0 8e 3e 2d be 90 6a bf bd b3 69 7b 3d ac 53 8f bd
       -0.16918394 -0.09346497 0.0613801 -0.06998381
0003c0 1f ee 29 be c5 c6 16 be b6 2b cc bc 0e f3 1c be
       -0.16594742 -0.14724262 -0.024923187 -0.15327093
0003d0 38 78 68 3d 0f 79 0e 3e a2 b8 ed bd de 5e 08 3e
       0.056755275 0.13913368 -0.116074815 0.13317439
0003e0 72 d2 22 bd 90 74 67 3d 85 53 ac bd f3 35 06 be
       -0.039751478 0.056507647 -0.084143676 -0.13106517
0003f0 52 02 60 be f4 c3 90 bd 4a 13 94 bd 06 59 02 3d
       -0.21875885 -0.07068625 -0.072302416 0.03182318

block1.0.conv.bias f4 [8]
000000 d5 f8 17 be d6 17 25 bd ab c3 c8 bd be 3b e8 3c
       -0.14841016 -0.040305935 -0.09802946 0.0283488
000010 6c 47 fb 3d fd 41 31 be 2b 91 2f be 1f 3a 54 3d
       0.12269482 -0.17310329 -0.17145221 0.05181324

block1.0.BN.weight f4 [8]
000000 21 5a 6f 3f 7c f8 86 3f 5d ee 7f 3f ed 2a 89 3f
       0.934969 1.0544581 0.9997309 1.0716225
000010 bb 82 6a 3f ff 08 83 3f f2 bc 7d 3f 60 22 85 3f
       0.9160573 1.023712 0.9911643 1.0401115

block1.0.BN.bias f4 [8]
000000 0d 40 54 bd c1 d5 3c 3d c8 26 18 3b cf b2 16 3e
       -0.051818896 0.04610229 0.0023216475 0.14716648
000010 07 32 df bd 10 41 ab bd 2d 84 20 3e df a3 2f bd
       -0.10898214 -0.08362019 0.15675421 -0.04288089

block1.0.BN.running_mean f4 [8]
000000 bc 10 39 be e0 bf 6b bf 44 b6 0f bf 53 a9 02 bf
       -0.1807279 -0.92089653 -0.5613749 -0.5103962
000010 e8 fd 7b 3f eb d0 e6 3e 81 9c 62 bf 18 db 42 bf
       0.98434305 0.45081267 -0.88520056 -0.7611556

block1.0.BN.running_var f4 [8]
000000 59 67 9b 3e db 9d 08 3f cf b9 90 3e 63 36 14 3e
       0.30352286 0.5336587 0.2826676 0.14473872
000010 e0 cc 9d 3e b6 d1 3c 3f 6a c6 47 3e aa 5e c3 3e
       0.3082037 0.73757493 0.19509283 0.3815816

block1.1.conv.weight f4 [16, 8, 3, 3]
000000 87 a1 3a 3e 7d 5b 14 3e d2 bd 60 bd 33 86 0c bd
       0.1822568 0.14488025 -0.054868527 -0.03430767
000010 b3 97 8f bc aa 53 ee bb 54 33 88 bd 45 98 bb bd
       -0.01752839 -0.007273157 -0.06650415 -0.091599025
000020 33 f5 13 be 06 46 a2 3a e6 f3 84 3d 3e 65 0e bc
       -0.14449005 0.0012380488 0.064918324 -0.00869113
000030 84 26 5b bc f2 7f 64 3c ce 1b 02 3e 63 c4 f4 bc
       -0.013375882 0.01394652 0.12705919 -0.0298788
000040 6d 83 44 bc 0b 6a 39 3d 47 05 97 3c e1 59 a8 bd
       -0.011994225 0.045267146 0.018435134 -0.08220268
000050 0a f8 69 3c 55 cb 83 bd 19 5d 08 be 59 a3 a0 3d
       0.0142803285 -0.06435267 -0.13316764 0.07843656
000060 04 fb 25 bd 80 c4 8a 3d 5c 0c 8c b8 9f 94 7a be
       -0.04052259 0.06775761 -6.678022e-05 -0.24470757
000070 99 d4 09 be 80 0a d6 3d 60 de 0f bd dc a2 58 bc
       -0.13460006 0.104512215 -0.035124183 -0.013222422
000080 89 a5 82 3d 61 8a ff 3d 3c 96 cf 3d 1a 4e de 3d
       0.063792296 0.124775656 0.10136077 0.108547404
000090 f6 1d 41 bd 14 30 84 be bb a8 f0 bd 2d 4b 0b be
       -0.047147714 -0.2581793 -0.11750933 -0.13602896
0000a0 b8 1e 3c be 32 f0 9e bd b9 66 30 be 5e 30 03 bd
       -0.18371093 -0.07760657 -0.17226686 -0.03202855
0000b0 dd 1c 33 bd 23 3e 19 bd 54 46 04 bd 1e 49 9c 3d
       -0.043728698 -0.037412774 -0.032293633 0.076311335
0000c0 d5 e3 b3 be 4f 89 d6 bd 0e 3f bd bc e2 91 95 be
       -0.3513476 -0.10475408 -0.023101356 -0.29212862
0000d0 2c 2f 85 be 2e b1 32 3e fc c5 1d 3d 73 77 ca bd
       -0.26012552 0.17450401 0.03851889 -0.098860644
0000e0 c6 11 78 3d 79 34 0b 3d 18 d0 f8 3b 43 cb c6 bb
       0.060563825 0.03398559 0.007593166 -0.006066711
0000f0 60 37 25 bd c6 9c 81 3c 09 81 03 3d 56 1e 36 be
       -0.040336013 0.015821826 0.03210548 -0.1778501
000100 8f 40 56 3c 4a 55 e0 bd eb 96 b4 bd 08 bf de bd
       0.013076915 -0.109537676 -0.08817848 -0.1087628
000110 af 55 91 bd 60 ef 25 3d 64 36 ad 3d 7f 46 31 3e
       -0.07096421 0.04051149 0.0845764 0.17312048
000120 cf 11 82 3c 97 6b b4 3d cd 8f 05 3e 2b 96 37 be
       0.015877632 0.08809584 0.13043137 -0.17928378
000130 80 f8 50 be 14 52 22 be d4 ca bd 3d a6 d8 d4 3d
       -0.20407295 -0.15851623 0.09267202 0.10392885
000140 76 c0 d0 3d f7 74 d7 bc 00 42 9e bd 65 6a 10 bd
       0.10192959 -0.02630089 -0.07727432 -0.035257716
000150 1d 5b 99 3d f6 9a 86 3c 3c 8c 41 3e 33 76 46 3e
       0.074880816 0.016431313 0.18901151 0.19381027
000160 75 fc 7f 3e 48 33 d1 3e a4 2e 05 be 30 12 96 3d
       0.24998648 0.40859437 -0.13006073 0.07327688
000170 d5 81 03 3e c5 79 ad 3c 54 b8 bf 3d 09 a4 09 3e
       0.12842496 0.021176228 0.0936133 0.1344148
000180 e1 c5 fd 3d ad 33 b5 bc 4a dc 48 bd 05 74 d9 3d
       0.12391258 -0.022119367 -0.04903821 0.10617832
000190 49 b7 11 3e b6 3a 44 3e 01 28 c6 3d 1d 0e a0 bd
       0.14230074 0.19163021 0.09675599 -0.07815192
0001a0 16 df 38 3d 4c 62 a5 bd bb cd 9f bd 7a 31 79 bd
       0.045134626 -0.08075389 -0.07802912 -0.0608382
0001b0 75 87 ac 3d 37 cb c7 bc 9e 5c 5f 3d a6 b8 f1 3d
       0.08424274 -0.024388893 0.054531686 0.11802797
0001c0 3b 8c 52 3b 2d f1 a6 bb ac 2e 72 3d eb e8 aa 3c
       0.003212704 -0.0050946684 0.05912654 0.020863017
0001d0 92 ea 11 be b2 50 42 3d 59 68 b9 3d 47 b4 97 bd
       -0.14249638 0.04744024 0.09053106 -0.07407432
0001e0 13 93 e2 3c 70 66 fc 3c 67 9a 91 bd b6 0a 1c 3e
       0.027658021 0.030810565 -0.07109528 0.15238461
0001f0 27 87 8b 3d e6 2d c1 bd a3 99 9a 3d ba 33 e8 bd
       0.06812888 -0.094325826 0.07548835 -0.11337991
000200 01 92 05 bd 6b 9e cd 3a e8 fa ff bc 8d ea 2b 3d
       -0.032609943 0.0015687471 -0.031247571 0.041971732
000210 78 d2 ff 3c 6f a5 7f 3c 32 db e9 bc 30 11 17 3d
       0.031228289 0.015603407 -0.028546903 0.036881626
000220 c2 94 45 be 70 80 90 be 14 65 1a be 8f 98 2b 3c
       -0.19295028 -0.2822299 -0.1507762 0.0104733845
000230 78 83 02 3e 87 8d 81 bd 6e c7 b4 3d 63 3c da 3d
       0.12745464 -0.06325822 0.08827101 0.10656049
000240 78 fc 04 bd 93 0e 53 3c 49 4d c6 3d b7 85 05 be
       -0.032467335 0.012881893 0.0968271 -0.1303929
000250 4f db 59 bb 06 30 05 3e 05 6d 19 bc 7e 72 3d 3e
       -0.003324229 0.130066 -0.009364371 0.18500707
000260 a9 b0 31 3d 8f 9c 2d bc b9 1e a9 3d e9 8d d5 3d
       0.043381367 -0.0105964085 0.08257813 0.10427458
000270 cf 9c 59 bd a9 fd b4 bb 26 22 45 3e 80 d7 15 3e
       -0.05312806 -0.0055234027 0.19251308 0.14632988
000280 1c 00 31 3e 0d 5e f0 3c 3a 10 11 bc 6c 5d c2 3d
       0.17285198 0.029341722 -0.008853966 0.09490475
000290 c4 5b 85 bd 3e 2a 98 3c 2d 27 c1 bd 0d d7 53 be
       -0.065116435 0.01857483 -0.094313 -0.20687504
0002a0 58 bc 48 bc a3 3d f0 3b bc 50 83 bd cf 79 f0 3d
       -0.012251936 0.0073315664 -0.06411883 0.11741983
0002b0 c1 ee 1b 3e b1 a2 1c 3d 0f f4 5c bd 66 4c 0a be
       0.15227796 0.038241092 -0.05394369 -0.13505706
0002c0 5f 1c 77 be a0 2c 5d 3c 05 2b 17 3e e2 c6 89 3d
       -0.24131916 0.013499409 0.14762504 0.06727387
0002d0 aa bd 0e be 74 90 a6 3d 9c c9 e0 3a fd b4 c9 3b
       -0.13939539 0.08133021 0.0017149928 0.0061556087
0002e0 0a 68 e4 3c 8a cb 98 3d b9 79 e1 3c 09 24 a3 bd
       0.027881641 0.07460697 0.027523862 -0.079658575
0002f0 ee 0c 92 bc 36 81 46 be 25 de c7 3c 91 15 9e bd
       -0.017828431 -0.19385228 0.024397919 -0.07718957
000300 c4 06 c5 bd 03 b8 e2 bb 26 6e 28 3d 1b 9a 26 bd
       -0.09620431 -0.0069189086 0.04112067 -0.04067431
000310 23 0c 73 be e2 d0 86 3d e0 75 8a 3d 9f a0 6b be
       -0.23735099 0.0658281 0.06760764 -0.23010491
000320 6d 41 e3 bd a3 b4 59 3e 3e 9a f4 3d db 7a 1c 3d
       -0.11096463 0.21260314 0.11943482 0.0382031
000330 80 1a 2e bd e2 62 d8 3c 89 80 a6 bc 06 41 5e 3e
       -0.04250574 0.026414338 -0.020324962 0.21704492
000340 c3 a9 c8 3d 54 a4 95 3c b9 79 e8 bd 55 3a 87 3b
       0.097980045 0.018266834 -0.11351342 0.0041268268
000350 ed 11 b1 bd 28 ca 99 bd 3d 45 e8 3d ef 53 4d 3d
       -0.08645997 -0.07509261 0.11341331 0.050128873
000360 f5 0f a8 3d c8 31 11 3e ef 9b 86 3d b7 6f 14 bd
       0.082061686 0.14179146 0.06572711 -0.036239352
000370 43 6e b2 bd 1f 23 f8 bd 34 ae 89 3d a5 b5 93 3c
       -0.08712437 -0.12116074 0.0672268 0.01803095
000380 27 1c 42 be 09 48 25 bd 45 ee 5c bd 65 5f 87 3d
       -0.18956052 -0.0403519 -0.05393817 0.06609992
000390 81 1d 9d b9 22 12 8f bc 44 91 9c 3c d9 6d b4 bd
       -0.00029967356 -0.017464701 0.019112237 -0.08810014
0003a0 d6 c0 7f bd 38 15 13 3d b4 bc f4 bc f0 2d d3 bd
       -0.062439762 0.035908908 -0.029875137 -0.10311496
0003b0 07 04 d8 3c e0 34 fc bd 4a 9c 37 bd 52 55 fc bd
       0.026369108 -0.123147726 -0.044826783 -0.12320961
0003c0 8f 90 e7 bd f4 d7 c0 bd 49 99 94 3d 74 84 de 3d
       -0.11306869 -0.0941619 0.07255799 0.10865107
0003d0 0d 6d 48 be 71 8c 47 be 48 27 6d bc 31 69 38 3d
       -0.1957285 -0.19487168 -0.014474697 0.045022193
0003e0 ed c7 61 3d cb e5 81 be bc 02 0e bd ab 2c 77 3a
       0.055122305 -0.2537063 -0.034670576 0.00094289583
0003f0 c7 80 93 bd e3 73 46 bd 22 75 16 bc 01 b4 a5 bd
       -0.07202297 -0.048450362 -0.0091832 -0.08090974

block1.1.conv.bias f4 [16]
000000 7f 6d 2f 3e f5 75 9d 3d dc bf ea 3c 4d db a0 bd
       0.17131613 0.07688514 0.028655939 -0.07854328
000010 b3 42 12 bb 6e 24 e5 3c 32 60 ef 3d a7 45 b9 3c
       -0.0022317588 0.027971473 0.1168827 0.02261622
000020 98 18 b5 3c 19 55 b2 3c f9 f5 a5 3d 90 3a 3a 3a
       0.022106454 0.021769093 0.08103556 0.00071040634
000030 60 f6 57 bd 92 8c 98 3d 4c 4f 41 3d 75 01 17 3e
       -0.052725196 0.07448687 0.047194764 0.1474665

block1.1.BN.weight f4 [16]
000000 ef 78 90 3f 23 b6 5c 3f 4e 5c 7d 3f d2 77 85 3f
       1.1286906 0.8621542 0.9896897 1.0427191
000010 88 5c 80 3f e6 b7 77 3f f0 ef 6c 3f 4e 6e 74 3f
       1.0028238 0.9676498 0.92553616 0.9548081
000020 38 14 87 3f 6b 7b 62 3f e0 97 8b 3f cd 5d 83 3f
       1.0553045 0.8846957 1.0905724 1.0263001
000030 e0 a2 75 3f 7a f3 81 3f 00 26 86 3f 95 4a 89 3f
       0.9595165 1.0152428 1.0480347 1.0725886

block1.1.BN.bias f4 [16]
000000 25 17 aa bc bb 52 80 be 50 79 fc bd 52 41 cf bd
       -0.02076299 -0.25063118 -0.12327826 -0.10119881
000010 3c 4a 18 be 6e 3e 29 be 53 66 99 bd d8 8d 0d be
       -0.14872068 -0.16527721 -0.0749022 -0.1382364
000020 e1 d6 4d bd 8b e9 83 be 22 b0 47 bd 22 96 99 bd
       -0.050253753 -0.25764117 -0.048751958 -0.07499339
000030 6b 33 e1 bd dd e2 28 3c ff 4e 19 be 57 b6 9c bd
       -0.10996135 0.010307995 -0.14971541 -0.07651966

block1.1.BN.running_mean f4 [16]
000000 57 65 f9 be b0 64 47 3f 14 95 45 3e 5f f0 f5 be
       -0.4871013 0.7788801 0.1929515 -0.4803495
000010 55 1c d7 3e 40 ad 34 3f 56 8f 45 3f d0 f6 6a bf
       0.42013803 0.7057686 0.7717184 -0.91782856
000020 a8 53 63 bf e6 ef 0d 3f fc 8e 9a be 4c a5 04 bf
       -0.88799524 0.5544418 -0.30187213 -0.51814723
000030 03 fa 8b be da 4e b0 be 25 7b 2e 3f 07 80 13 3e
       -0.2733918 -0.3443516 0.68156654 0.14404307

block1.1.BN.running_var f4 [16]
000000 b2 82 90 3f 1a a1 1e 3f b5 2b ed 3e aa 3a e0 3e
       1.1289885 0.6196457 0.46322408 0.43794757
000010 c7 55 e1 3e 20 b1 b1 3e 72 4a b4 3e e3 cc 2a 3f
       0.44010755 0.34705448 0.35213047 0.6671888
000020 cf a6 21 3f 0a f7 90 3e 89 ae 0e 3f 86 1c 21 3f
       0.63145155 0.28313476 0.5573507 0.6293415
000030 a9 51 a6 3e 96 0e b8 3e c3 2e 1e 3f 5c 9e 51 3e
       0.32484177 0.35948628 0.617901 0.20470566

block1.2.conv.weight f4 [8, 16, 3, 3]
000000 a4 0d 24 3d 93 ea 03 3e 04 19 32 3e a2 b1 b1 bb
       0.04005207 0.12882452 0.17392355 -0.005422787
000010 92 b3 c7 3d 5f 77 91 3d 7a 1d 5f bd 76 39 08 3c
       0.09751047 0.07102846 -0.05447147 0.008314481
000020 41 11 7b 3d 5c 6b 41 bd fb 97 b1 bd a0 d5 e8 bd
       0.06129575 -0.047221527 -0.08671566 -0.11368871
000030 1a c6 2f be 8f 8e 8e 3c d7 54 27 3d a7 66 ab bd
       -0.17165413 0.017401962 0.040852394 -0.08369189
000040 22 03 a2 3c 9f fb 5f bc 84 96 a2 3d 83 60 aa bd
       0.019776884 -0.013670831 0.07938865 -0.083191894
000050 87 5b 48 3d b1 33 10 bd ac bc 10 be 10 a6 d0 bd
       0.048915412 -0.035205547 -0.14134473 -0.10187924
000060 69 04 2c 3e 0a fe a6 bc 97 b1 45 3e f8 14 5d 3d
       0.16798557 -0.020384807 0.19306026 0.053975075
000070 c2 9c 0d 3e 70 d3 97 3d f9 37 81 3d 52 97 64 bc
       0.1382933 0.074133754 0.06309504 -0.013952093
000080 60 a9 e3 3c f9 1c b9 bc f4 54 c7 bc 65 22 b2 bd
       0.027790725 -0.022596823 -0.024332501 -0.086979665
000090 e3 f7 c2 3b 7d db 60 bb 62 8b 30 3e f6 63 c1 3d
       0.0059499606 -0.0034310513 0.1724067 0.09442894
0000a0 03 8a d8 3d 34 0c 48 3e c4 74 ac bd ba 2f 1f bd
       0.10573199 0.19535905 -0.08420709 -0.038863875
0000b0 ec 09 fd 3d ec 24 cd 3d 21 87 00 be 0e cb 29 be
       0.12355408 0.10016808 -0.12551548 -0.16581365
0000c0 c7 8d 5e bd a8 09 a0 bd eb 54 dd bb 17 62 39 be
       -0.05433443 -0.07814342 -0.006754508 -0.18103825
0000d0 5f 07 c1 bd 7e fc 1a bd 10 3b 22 3d d0 4f 99 bd
       -0.09425234 -0.03783845 0.039607108 -0.07485926
0000e0 0b 3b d6 bd 8f f6 cb 3c 6f b4 92 3c 9d cd e4 3c
       -0.1046048 0.024897842 0.017908303 0.027930075
0000f0 d5 cf 8e 3c 30 88 78 bd 3c 00 cf bd 1f 52 0e 3d
       0.017433086 -0.060676754 -0.101074666 0.034746286
000100 5e 06 c0 bc 6d 26 1e be c9 13 84 3c 02 0c f2 bd
       -0.023440536 -0.15444346 0.016122716 -0.118186966
000110 d5 1d 18 be f0 f8 e6 bb 23 c8 de bd 03 f3 08 bd
       -0.1485513 -0.0070487186 -0.10878017 -0.03343488
000120 74 93 12 3c 05 f7 92 bd be ac 60 bd f8 47 01 3d
       0.008946288 -0.071760215 -0.05485224 0.031562775
000130 a0 12 91 bd 90 a1 de 3c b7 90 36 be e2 09 51 be
       -0.070836306 0.027176648 -0.17828642 -0.20413926
000140 8a 2a 95 bd 7e 65 9e 3c 57 da 8c 3c 7c 5f 9c bd
       -0.07283504 0.019335505 0.017193956 -0.076354
000150 d8 ea bd bc 35 11 89 bc 42 63 78 bd 48 4f 39 be
       -0.023183271 -0.016731838 -0.060641535 -0.1809665
000160 08 81 23 be 65 62 37 bb 4a c1 d5 3d 9e 88 2b 3e
       -0.1596719 -0.0027982232 0.104372576 0.16751334
000170 aa 4b d6 3d 2f 7d bb 3b 50 6c e3 3d 1d 41 de 3d
       0.104636505 0.00572171 0.11104643 0.10852263
000180 04 57 8f bd c3 d4 30 bc e9 b0 11 3b 45 82 92 3d
       -0.06999019 -0.010792914 0.002223069 0.07153753
000190 e8 e5 9c 3d e0 ed 83 b9 e5 a9 6e 3d 80 7f 45 bd
       0.07661039 -0.00025163498 0.058267493 -0.048217297
0001a0 71 70 98 bd 46 d2 fd bd e7 f5 49 3d 8a b8 a1 3c
       -0.074433215 -0.12393622 0.049306776 0.019741315
0001b0 9b b4 a4 bc 6d fc 13 be 94 c6 cf bc 1e bd 0f 3e
       -0.02010565 -0.14451762 -0.025363244 0.14036986
0001c0 15 dc de bb 00 a1 66 bb f2 8c 4f 3e 2f 8b 9f 3c
       -0.006801138 -0.0035191178 0.2026861 0.019475548
0001d0 ff bc de bb cd a5 2a 3e 80 79 39 3e 76 7a b8 bc
       -0.0067974324 0.1666481 0.18112755 -0.022519331
0001e0 a9 7e a2 3d 88 98 20 3e 58 a9 33 3d 55 a9 be bd
       0.07934315 0.15683186 0.04386267 -0.09309641
0001f0 f3 5c 48 bc 33 42 2f bd 1d bd 5d be 96 e0 89 bd
       -0.012229192 -0.042787742 -0.21654172 -0.067322895
000200 12 76 b0 bb 34 df 0b be c2 6f 39 bd 4f 95 b0 bd
       -0.005385169 -0.13659364 -0.045272596 -0.08622228
000210 5d 58 de 3c 04 48 b8 3c ce 91 e0 bd 37 1a 3b be
       0.027141744 0.022495277 -0.1096531 -0.18271719
000220 c8 94 24 bc 23 c6 7b 3c 4d 27 0b be 95 e5 4b bc
       -0.010045238 0.015367064 -0.13589211 -0.012444873
000230 d3 47 bb 3d a0 f8 de bd 45 e9 f5 bb 27 c3 9c bc
       0.09144559 -0.10887265 -0.0075046145 -0.019136025
000240 8d 0f 81 be 63 2b 02 bd ef ce 7a be 3e 33 0c be
       -0.25207177 -0.031779658 -0.24493001 -0.13691422
000250 d2 40 44 bd 77 61 93 bd 42 82 4f be f2 a8 37 3c
       -0.04791338 -0.07196324 -0.20264533 0.011209713
000260 9f 45 fa bd fc 6c 47 3c 5a 71 a2 3d 20 61 b6 bd
       -0.122203104 0.01217198 0.07931776 -0.08905244
000270 31 1c c7 3d d4 63 57 bd 36 1e b1 bc 94 01 a7 3d
       0.09722174 -0.052585438 -0.021620851 0.08154598
000280 65 11 3e bd a7 d3 49 3c 7b 68 68 bd b9 eb db 3d
       -0.046403307 0.012318528 -0.056740265 0.1073832
000290 d6 31 f2 3d 7d b4 e7 bc 0c 7e 14 3e 67 f3 d9 3d
       0.11825912 -0.028284306 0.14501208 0.106421284
0002a0 7f 9f ce 3c c2 3c 05 3e 1c 37 29 3b c2 63 93 3d
       0.025222538 0.13011459 0.0025820201 0.07196762
0002b0 29 62 c0 bc 43 f8 1c 3d 0b 12 f0 3c e1 cf 27 3d
       -0.023484306 0.0383227 0.029305479 0.040969733
0002c0 fd 76 1f be 16 0d 61 3e 09 ad 4d 3e fe bc b2 3b
       -0.15572734 0.21977648 0.20085539 0.0054546585
0002d0 08 7a 03 be 5d f5 39 be c2 4c af bd b5 04 56 3d
       -0.1283952 -0.18160005 -0.08559562 0.052250583
0002e0 b6 50 94 bd 44 38 b0 3d e8 56 f0 bd ee a9 1b be
       -0.07241957 0.08604482 -0.11735326 -0.15201542
0002f0 e6 0a df bd 53 f0 f4 3d fa 81 f7 3d bf 49 1a 3d
       -0.108907506 0.11959901 0.12085338 0.037667986
000300 23 b5 32 3d 52 2e e0 3a d2 83 37 3c 52 1c 64 bd
       0.043629777 0.0017103648 0.011200862 -0.05569107
000310 09 ed 62 bc 2e 88 82 bd cc 16 e9 bd aa 26 85 bb
       -0.013850459 -0.063736305 -0.11381301 -0.004063447
000320 80 cd 01 be a5 63 b6 3d 20 07 50 bb ed 64 29 3c
       -0.12676048 0.089057244 -0.0031742528 0.010339004
000330 5b 81 12 3e 76 81 f7 3d 76 e9 e2 3d 5b 36 af b9
       0.14307158 0.120852396 0.110796854 -0.000334191
000340 1b cb 40 be 7c 5f 95 bd e7 f1 31 3d 13 4e a9 bd
       -0.18827479 -0.07293603 0.043443587 -0.082668446
000350 77 4a 86 bc e7 5e 1a 3e 5a 9c 21 3e 55 a9 d1 3d
       -0.01639293 0.15075265 0.157823 0.10237376
000360 84 98 83 be 67 7a 3d be 74 62 42 be 01 dd 7d bd
       -0.25702298 -0.18503724 -0.1898287 -0.061978344
000370 8e 53 05 bd ab e1 8f bd ba da 5f bd 62 0b 40 3d
       -0.032550387 -0.070254646 -0.054651953 0.046885855
000380 27 05 b7 3d a3 a5 d2 bc d0 5e 5d bd 42 7c 82 bd
       0.089365296 -0.025713747 -0.0540455 -0.063713565
000390 82 f6 70 bd 29 b8 73 bd 43 33 a7 3d 92 dd 09 be
       -0.05882884 -0.0595018 0.08164074 -0.13463429
0003a0 d6 65 13 3d c7 88 00 3e b5 fd ca bd 0d e0 21 be
       0.03598579 0.12552176 -0.09911672 -0.15808125
0003b0 95 a7 b7 be ba ef 84 bd aa 18 34 3d 63 3c 89 bd
       -0.35870042 -0.06491037 0.043968834 -0.06700971
0003c0 db 2d 9f bd 2c a2 b5 3c f7 27 61 bc 32 e6 d7 bd
       -0.07772418 0.022172056 -0.0137424385 -0.10541953
0003d0 11 8f 1a be f7 c1 bb bd fe da 1c 3e 74 e0 af 3d
       -0.15093638 -0.09167855 0.15317914 0.08587733
0003e0 7a 98 1d bd 7e 58 01 3e ed 18 d1 3d a2 cc 1f bd
       -0.03847549 0.12631413 0.10209832 -0.039013512
0003f0 0b 35 76 3c a4 79 5c 3d e7 ba 26 be 9b f4 8b 3b
       0.015027295 0.053826943 -0.16282235 0.0042711026

block1.2.conv.bias f4 [8]
000000 32 ff 34 bc 28 25 66 3d 01 01 d4 bb 46 cf 99 3d
       -0.011047171 0.05618778 -0.0064698462 0.075102374
000010 5f d5 92 3c e2 44 a1 bb 44 b2 37 3d f7 e1 61 3d
       0.017924009 -0.0049215415 0.04484774 0.055147137

block1.2.BN.weight f4 [8]
000000 1e 91 72 3f 2f fb 82 3f 7a a6 74 3f 23 0f 7d 3f
       0.9475268 1.0232905 0.95566523 0.9885122
000010 80 e8 86 3f 50 4f 79 3f d6 bb 86 3f f5 78 80 3f
       1.0539703 0.97386646 1.0526073 1.0036913

block1.2.BN.bias f4 [8]
000000 76 96 f4 bc 56 39 c7 bd 4e a8 be bd be 7e b9 3d
       -0.029856902 -0.09727733 -0.09309445 0.09057377
000010 67 a4 eb 3d 45 53 c3 bd 45 5d 2d bc 13 89 b4 bd
       0.11505967 -0.09537367 -0.010581319 -0.08815207

block1.2.BN.running_mean f4 [8]
000000 59 d8 92 be a8 e9 2e bf 50 24 b3 3e 72 d8 89 bf
       -0.28680685 -0.6832528 0.34988642 -1.0769179
000010 c9 a5 f8 be 40 b4 43 3f fd bf 3b 3e e7 2b b0 3f
       -0.48563984 0.76446915 0.18334956 1.3763398

block1.2.BN.running_var f4 [8]
000000 c4 d9 93 3f d2 e3 39 3f 03 42 16 3f a5 4d 2f 3f
       1.1550832 0.7261325 0.58694476 0.6847785
000010 b3 77 a0 3f 4c b1 8e 3f 4b 2f 58 3f c9 10 0e 3f
       1.2536529 1.1147857 0.84447163 0.5549436

block1.3.conv.weight f4 [4, 8, 3, 3]
000000 42 f6 27 bd d0 86 bf bd ee 9d 4a be 3b 3a e2 3d
       -0.041006334 -0.09351885 -0.19786808 0.11046263
000010 75 8a b9 3b 56 53 03 3e 08 b1 66 3d ac 80 5a bd
       0.0056622573 0.12824759 0.056321174 -0.053345367
000020 3d 3c 7c bb c1 f6 77 3d 81 11 d7 3d 1a c4 8c 3d
       -0.0038488053 0.060538057 0.105013855 0.06873341
000030 12 3d 5b bd 6e f9 c2 3d 90 ed d8 bd 42 17 16 3e
       -0.053525038 0.09520231 -0.105921865 0.1465731
000040 fb 96 16 bd 2a 2f 15 be 77 c9 c0 bd 6f f3 c3 bd
       -0.03676508 -0.14568773 -0.09413426 -0.09567916
000050 50 cb 05 bc b8 a1 10 be b1 bc 93 3d 85 d0 cf 3d
       -0.008166149 -0.14124191 0.072137244 0.10147194
000060 dc 64 f0 3d ef 8b 1f 3d e3 d6 7c bd 9e 45 30 3e
       0.117379874 0.03895181 -0.06172837 0.17214057
000070 52 ca 59 bc ca e4 6e 3d da 17 1d 3e b2 e4 9b bd
       -0.013292866 0.05832366 0.1534113 -0.076119795
000080 4d 2f 6e bd 00 c8 78 3e 0f 82 78 bc 25 2e 65 3d
       -0.05815058 0.24295044 -0.015167727 0.05595221
000090 40 8e e1 bd d5 d5 18 be 55 1d cc bd 6d 22 cd bd
       -0.1101346 -0.1492532 -0.09966532 -0.10016332
0000a0 ac c0 07 be 78 ed c9 bd 35 34 17 be d0 ab 17 be
       -0.13257092 -0.09859747 -0.14766009 -0.14811635
0000b0 ba e6 3d be 38 da 3c bd ef d9 02 bd e9 40 17 3d
       -0.18545046 -0.046106547 -0.03194612 0.036927138
0000c0 5a c3 4f 3e 65 dc 3d 3d a5 18 d6 3d 15 45 84 3d
       0.20289364 0.046352763 0.10453919 0.06458489
0000d0 e2 d5 36 3e 62 b3 b5 3d ef a1 cf bd 30 c9 e3 bc
       0.17855027 0.08872105 -0.10138308 -0.027805895
0000e0 41 ca e6 bd 74 22 1d 3d 03 75 ea bd ea 95 c3 3d
       -0.112690456 0.038362935 -0.114480995 0.09550078
0000f0 a4 05 59 3d 64 83 a5 3d 6d 3b e0 3d 98 86 66 bd
       0.052983895 0.080817014 0.109488346 -0.056280702
000100 14 d7 0f 3e c7 82 52 3e 37 be 23 be dc 06 27 bd
       0.1404689 0.205577 -0.1599053 -0.040778026
000110 62 06 18 be 58 12 52 bc 20 41 88 3d fb 79 fd bd
       -0.14846185 -0.012821756 0.066530466 -0.123767816
000120 ed c3 cc 3d 7f 2a 35 3e c0 1d bb 3d 1d c4 25 bc
       0.099983074 0.17691992 0.09136534 -0.010117558
000130 00 6b f6 3c c8 19 77 3b 4b 97 de 3d fc 6f b6 3d
       0.030080318 0.0037704576 0.108687006 0.08908078
000140 c0 e4 eb bd 09 a9 06 be a1 64 24 3d e8 31 f9 bd
       -0.1151824 -0.1315042 0.04013503 -0.12167722
000150 00 58 29 3e b1 30 6c 3d 38 c2 1a 3e a6 09 e3 bd
       0.16537476 0.057663623 0.15113151 -0.11085825
000160 13 a2 96 3d f4 9a 26 be 40 44 12 be 39 6c bb 3c
       0.07355132 -0.16270047 -0.14283848 0.022878753
000170 d3 b9 8f bd 31 35 14 be a5 d5 82 bc 71 45 07 be
       -0.07017865 -0.14473416 -0.015971014 -0.13210084
000180 06 49 b7 bd 1a 4c 91 bd 27 39 fb 3d 3f 39 a6 3d
       -0.08949475 -0.07094593 0.1226676 0.081163876
000190 5b 0d 22 3d 63 5a a6 bd 1b 59 0d 3e 15 4a 65 3d
       0.039563518 -0.08122709 0.13803522 0.055978853
0001a0 cd aa 56 3e 01 cf b0 3b 1f 47 74 bd f7 42 11 3e
       0.20963593 0.0053957705 -0.05963814 0.14185701
0001b0 43 2c 95 bc 55 28 9f 3c c4 42 01 3e 54 9b ef bd
       -0.018209582 0.019428411 0.12623125 -0.11699548
0001c0 36 05 ae 3d 95 8d d6 3c 8b 1e be 3d 39 90 81 3d
       0.08497088 0.026190558 0.09283169 0.063263364
0001d0 6f dd 16 3e ad be 03 bd 15 2c 60 3c 1f 4f a1 bd
       0.14732908 -0.032164264 0.013682385 -0.07876419
0001e0 6a dd ea 3a 83 ae 05 3e c4 df 20 3e ed 17 d2 3d
       0.001791877 0.13054852 0.1571036 0.1025847
0001f0 75 d7 db 3d f4 fb 1c 3e a4 38 3d 3d 1d 70 97 bd
       0.107344545 0.15330487 0.046196595 -0.07394431
000200 d0 0b b9 bd 5b 78 8a bd c3 aa a0 bd 65 20 6f 3d
       -0.09035456 -0.06761237 -0.0784507 0.058380503
000210 4e a0 95 bd 33 89 08 be 64 1a bf 3d 28 4e 79 bc
       -0.07305966 -0.13333587 0.093312055 -0.015216388
000220 8c 59 db bc 6a c6 22 3e 27 b3 50 be 7b 95 6f bd
       -0.026776098 0.15896001 -0.20380841 -0.058492165
000230 99 96 7e bd a7 43 64 3d 09 30 04 3e 9a 35 bc 3d
       -0.06215534 0.05572858 0.12908949 0.09189911
000240 cd 1a 7f 3d cb 74 d1 bd 33 89 17 be b4 dd 66 3b
       0.06228142 -0.102273546 -0.14798431 0.003522736
000250 a4 b6 39 bc cc d0 bd 3d ee fd 0a bd b0 25 11 be
       -0.011335049 0.092683405 -0.033933572 -0.14174533
000260 b9 95 59 be 2e cd 07 3e 07 f8 9e bc d6 5e 51 be
       -0.21248521 0.13261864 -0.019405378 -0.20446333
000270 55 02 2f 3e b2 f2 9e 3d ec 14 9a 3d 47 0e 5a bd
       0.17090733 0.07761134 0.07523522 -0.053236272
000280 11 c2 08 3e f1 e6 71 3d 2d 07 ba 3d f7 b3 24 3d
       0.1335528 0.059058134 0.090834 0.04021069
000290 02 d3 6a 3d a5 5d 6e 3d 30 c6 d5 3d 3f a3 1b be
       0.05733014 0.058194775 0.10438192 -0.15198992
0002a0 0e 8d ef 3d e7 dd 4d 3d 67 0f 1c be c5 a4 0a be
       0.11696826 0.05026045 -0.1524025 -0.13539417
0002b0 e7 85 64 be 69 8e 60 be 0f 1c 77 3d 6e de 96 3d
       -0.22316705 -0.21929325 0.060329493 0.07366644
0002c0 3f 28 64 3c 4e ad cf 3c 8a 3d 61 bd db d3 c0 3d
       0.013925611 0.025351193 -0.05499033 0.09415408
0002d0 03 52 01 be 7a d8 d1 bd aa 6a 6a 3c e7 c3 d2 bd
       -0.12628941 -0.10246368 0.014307657 -0.10291272
0002e0 a5 8d da bd 88 f2 33 bb b1 bf 2f 3e 51 00 1c 3e
       -0.10671548 -0.0027457792 0.17162968 0.15234496
0002f0 f9 8a 17 bd 93 1b 87 bd 1b c2 45 3d 07 df 07 3e
       -0.03699777 -0.06597056 0.048280817 0.13268672
000300 c0 f0 77 3d b2 a2 a3 bd c9 3e c2 bd 77 48 63 be
       0.06053233 -0.07990016 -0.094846316 -0.22195612
000310 fc 38 00 be d3 d7 a6 3b 12 08 05 bd 50 a8 eb 3d
       -0.12521738 0.005091646 -0.0324784 0.115067124
000320 27 f9 40 3e 97 18 a1 3d db 84 ca bd 94 cf ee 3d
       0.18845044 0.07866018 -0.098886214 0.11660686
000330 5c 07 b9 3d 8d d4 37 bd 1f cb 94 bd 03 17 17 be
       0.09034607 -0.04488044 -0.07265305 -0.14754872
000340 24 b9 8f 3d 4c e5 08 3e 3d 99 1e be 07 da db bd
       0.07017735 0.1336872 -0.15488143 -0.10734945
000350 a2 b6 46 ba 9d c1 49 be e4 5d 01 be 8e 7d be bd
       -0.0007580315 -0.19702764 -0.12633473 -0.093012914
000360 93 4e c3 3d 17 ed 24 bd cf c8 e3 3c 07 87 c3 bd
       0.09536471 -0.04026517 0.027805714 -0.09547239
000370 f2 f1 56 be b1 8c 00 be 87 85 f4 3c d0 6b 16 3d
       -0.20990732 -0.1255367 0.029848827 0.03672391
000380 31 2b 94 3d f2 8f 2b bc aa 1d 6f 3e 5b 47 87 3d
       0.072348006 -0.010471331 0.2335116 0.06605407
000390 98 67 b4 bd 26 7a 0d bd 26 02 11 3e 6b 9a 99 3d
       -0.088088214 -0.034540318 0.14160976 0.07500156
0003a0 ee ff f2 3c 00 99 d5 3d 0e 24 22 3d a3 7b 37 be
       0.029663052 0.10429573 0.039585166 -0.17918257
0003b0 e8 61 32 be b6 0c 03 3e e5 77 ca 39 e4 59 49 bc
       -0.17420161 0.12797818 0.0003861777 -0.012289498
0003c0 15 c6 b9 3d 89 d8 19 bd 71 62 c4 3c 1e 46 f2 39
       0.09070984 -0.03756002 0.023972722 0.00046210078
0003d0 37 c5 90 bb b2 ca 12 be d0 e0 ec 3c c0 f1 33 3e
       -0.004418041 -0.14335135 0.028915793 0.17572689
0003e0 25 63 a8 3d 29 6a 8b 3b 80 a5 b2 3c 94 df 92 bd
       0.08222035 0.0042545986 0.021807432 -0.071715504
0003f0 60 35 38 be be ad 61 bd b2 85 06 be 11 af 03 be
       -0.17989111 -0.055097334 -0.13136938 -0.12859751

block1.3.conv.bias f4 [4]
000000 6f b0 1a be 72 c8 f5 3d 26 14 a3 3d 58 6b 72 bc
       -0.15106367 0.120011225 0.079628274 -0.014796101

block1.3.BN.weight f4 [4]
000000 91 a4 75 3f 7f 30 69 3f 25 55 82 3f e1 b2 86 3f
       0.95954233 0.91089624 1.0182234 1.052334

block1.3.BN.bias f4 [4]
000000 21 67 82 bd b8 86 4e be f1 ec 13 be b9 5b 15 bd
       -0.063673265 -0.20168579 -0.14445855 -0.036464427

block1.3.BN.running_mean f4 [4]
000000 05 7e 98 be cd 74 17 3f 3b 33 94 be d9 9a 44 be
       -0.29783645 0.591626 -0.28945336 -0.19199695

block1.3.BN.running_var f4 [4]
000000 37 d9 01 3f b7 14 ce 3e 30 63 ba 3e 1b ad be 3e
       0.5072207 0.4025018 0.364038 0.37241444

block2.0.conv.weight f4 [8, 4, 3, 3]
000000 fc 47 79 3d cb ff d7 3d 4c dd a4 be 88 b1 09 3e
       0.060859665 0.105468355 -0.32200086 0.13446629
000010 3a 14 be 3d 09 3b 3a be 6d d2 ca 3b 27 b1 f2 3c
       0.09281202 -0.18186583 0.0061896355 0.029625488
000020 1e 18 37 be 5f eb 69 bd 2b 9d da bd e8 85 af bd
       -0.17880294 -0.057109233 -0.10674509 -0.085704625
000030 39 01 97 3d 62 93 dd bd 4c e6 04 be d6 7f aa 3c
       0.0737328 -0.10819127 -0.12978476 0.02081291
000040 d7 1d 44 be db f4 3d be 73 39 55 3e d6 a4 37 3d
       -0.19152008 -0.18550436 0.20822696 0.044834934
000050 95 37 03 be 6e 1d 0b 3e 87 50 18 be 86 48 74 3d
       -0.12814172 0.13585445 -0.14874469 0.059639476
000060 10 e4 57 bc 59 2e e8 bd 36 9d 9c 3d c9 02 87 be
       -0.013176933 -0.11336965 0.07647173 -0.26369312
000070 0d ad d4 bd 59 73 c1 bd 0f 7b 90 3c 00 62 f4 bd
       -0.10384569 -0.09445829 0.017636804 -0.119327545
000080 62 f7 8e 3d 34 b5 1e 3e 6b ed 2c be 34 4a 58 bc
       0.06980778 0.15498811 -0.16887443 -0.013201285
000090 e9 9d 63 3d b6 7b e2 3d e9 51 43 3e bd 34 d1 bc
       0.055570517 0.11058752 0.19074215 -0.025537843
0000a0 7b 31 e0 3b cd 43 69 bd b0 5c 10 3d 8f c6 08 3d
       0.006841836 -0.056949425 0.035244644 0.033392485
0000b0 32 83 83 bd 30 81 69 3d 25 c9 fb bc 2a 9f ce 3d
       -0.06421508 0.05700797 -0.030735562 0.10088952
0000c0 dd f9 60 be 32 f2 ed 3d bc 04 dd 3d 3b 0d 27 3d
       -0.21970315 0.11618461 0.10791919 0.040784102
0000d0 ad 12 16 3e be 2b 32 bc 97 e5 3a be 7f 52 17 bd
       0.14655562 -0.010874687 -0.18251644 -0.03694391
0000e0 da c7 39 be c8 b9 b3 be d7 89 95 be 8e b1 0b be
       -0.18142644 -0.35102677 -0.29206726 -0.1364195
0000f0 6f 79 ad bd 86 57 3b bd 4d 19 9c 3b 54 08 55 3b
       -0.08470427 -0.045737766 0.0047637583 0.0032506185
000100 a7 bb 0f bd 0a b5 49 3e 16 00 9f bd 15 78 22 3e
       -0.03509107 0.19697967 -0.07763688 0.1586612
000110 44 1b 75 3e 08 6e f3 3c e8 e7 0a 3c e0 79 db bd
       0.23936182 0.029715553 0.008478142 -0.10716605
000120 41 93 eb bd 88 8d 16 be ba e4 39 3e e7 1d 2f 3e
       -0.11502696 -0.14702427 0.18153659 0.1710125
000130 51 8c e2 3d b3 60 f7 3d 12 aa f1 3d 2a 2f 72 bd
       0.110619195 0.12078991 0.118000165 -0.05912701
000140 b5 c2 8b bd 78 e9 94 3d e2 57 d8 bd 01 e0 39 be
       -0.06824247 0.07271093 -0.10563637 -0.18151857
000150 01 e4 0e 3e 58 89 98 bd fb 29 2b 3e d2 09 73 bc
       0.13954164 -0.07448071 0.16715233 -0.014833884
000160 ea 91 3f be 31 0c 6e be e7 9b 93 3d 67 2a 64 bd
       -0.18708006 -0.23246838 0.072074704 -0.0557045
000170 ca 41 27 bc 52 d5 4f bc bc 60 23 be ac 92 66 be
       -0.010208556 -0.012685137 -0.1595487 -0.22516888
000180 ed ab e5 bd 95 de 1d be 7a 54 1e be 74 a5 2a be
       -0.11214433 -0.1541694 -0.15461913 -0.16664678
000190 1a 59 68 be f9 75 fb bd 3b ba f4 bb 17 23 41 bd
       -0.2269024 -0.12278361 -0.0074684895 -0.047152605
0001a0 94 83 a1 3d e2 af 52 bd 61 c5 84 be 09 e7 1c be
       0.07886425 -0.051437266 -0.25931838 -0.15322508
0001b0 c3 2f ba 3d 48 56 e0 3d ba 0e 3b bd 5b 8d 6a be
       0.09091141 0.10953957 -0.04566834 -0.22905485
0001c0 b2 56 a0 bd d9 99 cf 3c 2c d1 8a bd 76 ee 27 be
       -0.07829036 0.025341915 -0.067781776 -0.1639956
0001d0 fb 4d ef 3d fd 59 0f be 2c 5f 93 bd 24 a3 04 be
       0.116847955 -0.13999172 -0.07195887 -0.12952858
0001e0 7b 26 a2 3c c9 50 a9 bb 64 3e 67 3d d0 0e a4 3d
       0.01979374 -0.005167101 0.056455985 0.08010638
0001f0 7c ad 30 bb 4f 6e 72 3e cf 24 74 bc 73 4b db 3d
       -0.0026958873 0.23674892 -0.014901354 0.1070775
000200 42 0a 1c 3e a3 39 66 be c6 97 38 be e3 14 99 bd
       0.15238288 -0.22482924 -0.18026647 -0.07474687
000210 83 12 4c 3d 30 a0 28 be 8d af 14 bd 77 5c df 3d
       0.04982234 -0.16467357 -0.03630023 0.10906308
000220 1e 44 1b 3e 8e fd ad 3b 39 53 f9 3c 7c 4c c4 3d
       0.15162703 0.005309767 0.030435191 0.09584901
000230 ee 1f f4 bc 4a 08 87 be 44 c9 a4 bd dc 74 1b 3e
       -0.029800382 -0.26373512 -0.08046201 0.15181297
000240 56 0a 61 bd 88 73 06 bd 7a 06 13 3e fd d1 8b bd
       -0.054941498 -0.032825023 0.1435794 -0.068271615
000250 7f bc 15 3e 84 9a 0c 3d 4f cc 4a be 47 8c 45 be
       0.14622687 0.034327045 -0.198045 -0.19291793
000260 a3 5e bf 3c ad 60 a5 bd 4f 56 f7 bd f0 b0 38 be
       0.023360556 -0.0807508 -0.12077009 -0.18036246
000270 a6 e2 04 3e 6f fd 5d 3c d5 fc 2d be dc 3a 44 3e
       0.12977085 0.013549193 -0.16990979 0.19163078
000280 4a 07 6b 3e eb fa aa bc 7d 3d 92 3d d7 98 0f be
       0.22952 -0.0208716 0.07140634 -0.14023148
000290 3c 63 b0 3d b1 d3 c8 3d a2 fa b3 3d c6 54 30 3e
       0.086126775 0.09806002 0.08788039 0.17219839
0002a0 6c ee 1c be b2 3f 0c 3d 7e 72 47 3e 3c 17 2b be
       -0.15325326 0.034240432 0.19477269 -0.16708082
0002b0 be e8 91 be 5c 77 a7 bd 23 77 b6 3d 8a 94 88 3d
       -0.2849788 -0.08177063 0.08909442 0.066689566
0002c0 47 03 8b 3d 62 e2 17 be 9d 47 0d 3e b3 22 0c 3e
       0.067877345 -0.14832452 0.1379685 0.13685112
0002d0 a5 6c 4f 3d 61 36 da 3d e0 30 1e bd ad 85 26 bc
       0.05064072 0.10654903 -0.03862083 -0.010163707
0002e0 60 45 71 3d 9b d2 80 3c 4c 63 8a 3e b2 43 29 3e
       0.05890405 0.015725425 0.27028883 0.1652973
0002f0 d5 8b 8d 3d 39 fa 97 3d 25 01 98 3e 2c 75 23 3e
       0.069114365 0.07420773 0.29688373 0.15962666
000300 e3 26 b0 bd ec 57 21 be a2 9f 5b bd f0 f3 bc bb
       -0.08601167 -0.15756196 -0.053619035 -0.0057663843
000310 5e cc 87 bd 3f 58 89 3d 06 32 a5 bd 24 7d c1 3b
       -0.06630777 0.06706285 -0.08066182 0.0059048105
000320 ff 8a 61 3d 12 a1 23 be 3d e4 29 bd 4b 3a 7b bc
       0.055064198 -0.15979412 -0.04147743 -0.015333722
000330 f3 81 a7 bd 3f 80 64 3d 0a ed 12 3e bd 68 4f bd
       -0.08179083 0.055786368 0.14348236 -0.050636996
000340 bd 1f a1 bd 81 7c 0d be 95 10 8b 3e da b7 71 3d
       -0.07867382 -0.13817026 0.2716109 0.059013225
000350 39 cc ee 3d cd f9 64 3d df a0 78 3d 2c 72 5b bd
       0.11660046 0.05590229 0.060700294 -0.05357568
000360 2f 1e d7 3d 5d 19 37 3d ec df ed bc eb ff 4a 3e
       0.10503804 0.044701923 -0.029037438 0.19824187
000370 21 f9 e5 3d bd ff dd 3c 84 74 40 be a7 e6 d0 bd
       0.11229158 0.027099485 -0.18794447 -0.102002434
000380 6d 0b 1d bd d5 ea 56 3e 6b 19 54 3e 46 32 b4 bd
       -0.038340975 0.20988019 0.20712821 -0.087986514
000390 98 3d f8 bb d9 ed a3 3d 07 a1 2e 3d 1a a5 21 bd
       -0.007575702 0.0800435 0.042634036 -0.039464094
0003a0 5b 08 99 3d bc b4 b5 bc 9d c3 c1 3d 3b cb 8e 3d
       0.07472297 -0.022180907 0.094611384 0.06972357
0003b0 a2 dc f0 3d 88 fe 78 3e 34 1c a2 3d c8 47 34 3e
       0.11760832 0.24315846 0.079155356 0.17605507
0003c0 a9 28 d3 3d 61 b0 4a bc ff 75 dc bd 8c f5 4c bc
       0.1031049 -0.012371154 -0.107646935 -0.012509715
0003d0 44 f2 a1 bd 3d 84 28 be 57 60 2f 3e 9a 67 ad bd
       -0.079075366 -0.16456695 0.17126594 -0.08467026
0003e0 a8 ca 6e be d2 b1 7b 3d 95 51 a4 bb 5e 62 d8 3d
       -0.23319495 0.06144888 -0.005014608 0.10565637
0003f0 a4 e6 52 3d 28 9e f7 3c ac 62 10 be d8 e7 79 bd
       0.051489487 0.030226782 -0.1410014 -0.06101212

block2.0.conv.bias f4 [8]
000000 8e b8 6d 3d 85 40 dd 3c 7a de 84 bd e4 bb 36 bd
       0.058037333 0.027008304 -0.064877465 -0.04461278
000010 e4 b7 72 3d f5 9f 1d be 85 27 b4 3d 18 8a 17 be
       0.059257403 -0.1539305 0.087966 -0.14798772

block2.0.BN.weight f4 [8]
000000 66 9f 87 3f 41 36 6f 3f 26 bc 72 3f 91 f2 85 3f
       1.059552 0.9344216 0.9481834 1.046465
000010 a1 68 87 3f 70 73 60 3f 5f eb 7c 3f c4 48 84 3f
       1.0578805 0.87676144 0.9879665 1.0334706

block2.0.BN.bias f4 [8]
000000 62 85 bf 3d a8 45 04 be 46 5b 3b be d0 3e 3c bd
       0.09351613 -0.12917197 -0.18296537 -0.04595834
000010 a5 c6 8e bc 6d 7e 28 be c1 2f 48 bc aa 4d 3f be
       -0.017428705 -0.16454478 -0.012218417 -0.1868197

block2.0.BN.running_mean f4 [8]
000000 d4 d0 b6 be 4d 48 1f bc 99 51 1d bf 63 56 24 be
       -0.35706198 -0.009721828 -0.61452633 -0.16048579
000010 0f 91 0e 3d 82 f2 31 3e 6c 9a b9 3e b3 68 9f be
       0.034806307 0.17377666 0.36250627 -0.31134567

block2.0.BN.running_var f4 [8]
000000 d8 24 ab 3e 9e 42 a3 3e 12 43 c9 3e f0 20 49 3e
       0.33426547 0.31886762 0.39308983 0.19641471
000010 ea 1a 6e 3e 33 31 c1 3e d9 f5 55 3e 8e c8 44 3e
       0.23252454 0.3773285 0.20894565 0.1921713

block2.1.conv.weight f4 [16, 8, 3, 3]
000000 d6 3d 05 be cd 3f b0 bd 42 c8 5a be b0 d0 3c 3e
       -0.1301187 -0.08605919 -0.21365455 0.18438983
000010 a7 b2 2c 3e 63 60 84 3d 6a 50 b9 bd f6 31 9d bd
       0.16865025 0.06463697 -0.09048541 -0.07675545
000020 d5 be ab bd ea d9 1c 3d 03 ce 01 3e 0e e8 db 3d
       -0.08386008 0.038293757 0.12676243 0.1073762
000030 16 96 b4 bd df e9 3a bd 19 47 72 3c 80 63 85 3d
       -0.08817689 -0.045633193 0.014787459 0.06513119
000040 84 ef 94 3d 37 6a bd 3d 40 c1 17 be 0e a6 b5 3b
       0.072722465 0.092487745 -0.14819813 0.005543477
000050 47 fe ef bd e4 a4 07 3e e0 c7 d3 3d a8 20 79 bc
       -0.117184214 0.13246495 0.103408575 -0.01520554
000060 e4 a2 00 be 3a 2f 98 bd 85 2c 3b be 84 6b 9b 3d
       -0.12562138 -0.07430883 -0.18278702 0.07588866
000070 80 0c f4 3d 31 c1 58 3e 05 e2 04 bd d0 4c b6 bd
       0.11916447 0.21167447 -0.03244211 -0.089013696
000080 54 21 a1 3c 92 73 e2 3d da a9 67 3e 7c 98 cc 3d
       0.019669212 0.110571995 0.22623387 0.099900216
000090 66 5e 2f bb 11 56 08 be 2a 82 66 3c cd 07 93 bd
       -0.0026759147 -0.13314082 0.0140691195 -0.07179222
0000a0 86 01 c3 3c 8f bc 86 3d 14 09 33 bd 1c 5f 72 be
       0.023804437 0.065789334 -0.04370983 -0.23669094
0000b0 03 aa d5 bd 90 4e d5 3c 1e 70 b2 3c b7 fa 37 bd
       -0.10432818 0.026038438 0.021781977 -0.044916835
0000c0 4d 83 00 3c de d3 2e be 92 63 50 be 27 e6 b9 3d
       0.007843805 -0.17073008 -0.20350483 0.09077101
0000d0 21 31 2b 3e 81 af 72 3d 4b 56 4c be 59 8e ba ba
       0.1671796 0.059249405 -0.19954793 -0.0014233097
0000e0 ce dc 13 3e cd 96 36 be dd 88 44 bd d7 a7 df 3c
       0.14439699 -0.17830963 -0.047982085 0.027301712
0000f0 e6 8b 0d 3c 46 ed 2d bb 17 68 73 bb b7 6b 03 be
       0.008639311 -0.002653913 -0.00371409 -0.12834059
000100 b6 5c 89 bc 1d bc fb 3a 8e 29 04 be 68 3d c4 bd
       -0.01676784 0.0019205842 -0.12906477 -0.09582025
000110 d0 db 36 3e 84 b9 e4 bd 1c 26 92 bd 95 72 43 3e
       0.1785729 -0.11168197 -0.07136175 0.19086678
000120 f2 1e db 3d 43 39 4f 3e 10 8d 90 3e 31 23 98 bd
       0.10699262 0.20236687 0.28232622 -0.07428587
000130 1b 84 0d 3e 31 b7 e2 3d 03 b2 86 3a f5 81 02 be
       0.13819925 0.11070097 0.001027644 -0.12744887
000140 82 f1 b3 bd a6 ec 56 3d ea c1 10 3d de b7 0a 3e
       -0.08786298 0.05247178 0.03534118 0.13546702
000150 4a de 0b 3e fb d7 b0 3c 7e 53 23 bd 8b 86 a9 3d
       0.13659015 0.021587363 -0.039874546 0.08277615
000160 81 ff 6a 3c 36 f2 04 bd 49 75 e9 3d ef 4e ff 3d
       0.014343143 -0.032457553 0.113993235 0.12466227
000170 64 1b 43 bd f5 dc 16 bd 90 b1 5c 3d a5 81 5d be
       -0.047633544 -0.036831815 0.053880274 -0.21631487
000180 67 24 94 bd 5a c6 1f be a7 8b 18 be 29 d8 19 be
       -0.07233506 -0.15603009 -0.14897023 -0.15023865
000190 98 2c 6a be b7 ed 29 3c e1 74 9a 3d be f0 1f 3d
       -0.22868574 0.010371617 0.07541824 0.03904795
0001a0 0c c3 1d bd 00 77 a4 3d 5a a3 b1 3d ca c1 03 3d
       -0.03851609 0.0803051 0.08673735 0.032167234
0001b0 2c 9c 5a 3c 96 d6 13 3e 6e 20 ab bd 8c 72 64 3e
       0.013342898 0.14437327 -0.08355795 0.22309321
0001c0 eb a3 12 3e 0d f7 47 3e 1e df 75 3e ff 07 20 3d
       0.14320342 0.19527836 0.24010894 0.039070126
0001d0 90 7e a0 3d 69 de 8c bd 1c 64 f6 bb ef b1 00 bc
       0.0783664 -0.06878359 -0.007519258 -0.007854923
0001e0 8f 09 b7 3d e6 36 fb 3d 32 eb dc bd b2 00 b7 bd
       0.0893737 0.122663304 -0.107870474 -0.089356795
0001f0 37 6f af 3d 7a 0f d5 3c 4a a8 06 3d 00 e9 2b 3e
       0.085661344 0.026008356 0.032875337 0.16788101
000200 83 43 5c bd 62 1f eb bd f2 f5 ce 3d 46 63 9d 3d
       -0.05377532 -0.11480595 0.10105504 0.076849505
000210 68 0d ca bd 2d a1 13 3d cf 56 5a 3d 60 e8 1c 3d
       -0.09865838 0.03604238 0.053305443 0.038307548
000220 c5 4f e6 bc 0d 0c cc 3d 07 47 8a bc ed b5 ff 3d
       -0.028114209 0.09963236 -0.016879572 0.124858715
000230 24 d2 b2 bc e0 a2 92 be 52 7e 7e 3d 58 07 32 3e
       -0.021828718 -0.2863989 0.062132187 0.17385614
000240 a9 84 b4 bc 23 b1 c9 3d 82 34 f2 bd 76 38 de bd
       -0.022035914 0.09848239 -0.11826421 -0.10850613
000250 47 d0 60 bd 65 4a b3 bd 45 f4 2a be 2d da 94 bc
       -0.05488613 -0.08754424 -0.16694744 -0.01817044
000260 72 65 70 3e 14 fd 84 bc 68 b1 59 3e 78 e8 49 3d
       0.23476198 -0.016233958 0.21259081 0.049293965
000270 84 b9 cd 3c 2f 70 d4 bd e6 9b 57 be ea bc ab bd
       0.025112875 -0.1037296 -0.21055564 -0.08385642
000280 0e b2 05 be 0a b4 02 be b7 50 b7 bc bf f1 ad 3c
       -0.13056204 -0.12763992 -0.022377355 0.021233438
000290 3a 84 d0 bd 48 3b 8f bd b8 f3 ed bd a6 f3 b4 3d
       -0.1018147 -0.06993729 -0.11618751 0.08835535
0002a0 58 2a f9 bd 74 22 11 3e d6 1d 23 3e ea 77 6c bd
       -0.121662796 0.14173299 0.1592935 -0.057731546
0002b0 99 59 83 bd 9e 04 11 3e 94 fb e6 bd b6 85 33 be
       -0.06413574 0.14161918 -0.112784535 -0.17531475
0002c0 aa 7c 99 3a 11 99 b9 bd 9e c4 61 be c6 1b 3e be
       0.0011710126 -0.09062398 -0.2204766 -0.18565282
0002d0 48 95 4e be 66 2c c9 3d 93 67 3a bd 4f f8 bf bd
       -0.20174134 0.098229215 -0.045508932 -0.09373533
0002e0 49 87 8a bd 1d d6 8f bd 16 a8 0b bc c5 89 fe bd
       -0.06764085 -0.07023261 -0.0085239615 -0.12428621
0002f0 e8 f9 8a bd 08 5a 75 bc b9 7e 41 bd 74 62 01 3e
       -0.06785947 -0.014975078 -0.047239993 0.12635213
000300 a7 b8 47 3d 08 68 dd bc a3 14 1e be 55 7e 0d bc
       0.048760083 -0.027027145 -0.1543756 -0.008636077
000310 db 1b e3 3d cb f2 3e 3c 89 d3 a9 bd 8c 1b e6 bd
       0.110892974 0.011654566 -0.082923 -0.11235723
000320 16 01 41 3d ea 16 75 bb 27 77 3c 3d 28 4c 12 bd
       0.047120176 -0.003739769 0.04601207 -0.03571716
000330 dd f7 40 bd 0b e5 22 bd 6c 1c 7b bc f8 1d 73 bd
       -0.04711138 -0.039769214 -0.0153266005 -0.059354752
000340 95 93 83 be b6 b0 06 bd b3 04 ea bc 41 fe 46 be
       -0.25698534 -0.03288337 -0.028566694 -0.19432928
000350 12 ec ec bd a8 d6 87 3d 12 13 08 3e be ef c3 3d
       -0.11568464 0.06632739 0.13288525 0.095672116
000360 9f 41 89 bd 3f 40 a3 bd 20 28 05 3d 18 6f 57 3d
       -0.06701969 -0.07971238 0.03250897 0.05259618
000370 a8 a7 97 3d 0b 8c 01 bd 00 c5 e5 3c ad b6 e7 3d
       0.07405025 -0.031627696 0.028048038 0.113141395
000380 33 d7 e7 3d 75 9a 37 3e 14 88 b3 bc 99 07 fe bc
       0.11320343 0.17930014 -0.021915473 -0.031009482
000390 81 62 e7 3d d2 5f 62 3d 46 65 79 bd e2 c0 15 be
       0.11298085 0.055267163 -0.060887598 -0.1462436
0003a0 e5 1b 46 be 3e 40 73 ba 35 68 21 be a2 4c 19 ba
       -0.19346578 -0.0009279287 -0.15762408 -0.0005847906
0003b0 86 55 7b be 96 be 5f 3c e7 25 97 bd 5b d9 23 be
       -0.24544343 0.013656279 -0.07380276 -0.16000883
0003c0 f4 2d 4f 3e 3e 50 02 3e b2 b7 0a 3e 89 fb ac bd
       0.20232373 0.12725922 0.13546637 -0.08446414
0003d0 9c 5e 24 bd 8a d0 52 3e 5c 80 6a 3d 35 38 d3 3d
       -0.04012929 0.20587364 0.05725132 0.10313455
0003e0 a0 78 20 3d 2f f7 b3 bc 57 df 33 be f0 d2 b7 bd
       0.039177537 -0.021968452 -0.17565666 -0.0897578
0003f0 f9 ec a6 bd 1e 33 70 3d 93 6e 35 3e ac 56 93 3d
       -0.08150668 0.0586425 0.17717962 0.07194266

block2.1.conv.bias f4 [16]
000000 c9 64 39 bd bd ef 92 3d 17 b6 b4 3d 07 62 f5 3b
       -0.04526213 0.07174633 0.088237934 0.0074884924
000010 a5 b1 a2 bd 99 8e d3 3c e5 98 06 3e d6 3c a8 3d
       -0.07944039 0.025824832 0.13144262 0.082147285
000020 96 ad 0a 3e de 9b 65 bd 59 53 1d 3d fe 4f 33 3c
       0.1354278 -0.05605685 0.038409565 0.010944365
000030 da 95 ee bc b4 d5 f6 bd a5 c4 4a bd 71 9f 40 3d
       -0.02912419 -0.120524794 -0.04950394 0.047027055
