result/model/0517 1220.pt (torch, 79197 bytes, 98 tensors)

input_conv.conv.weight f4 [4, 1, 3, 3]
000000 36 2e 00 3e 65 4e 84 be 3c 10 cc bd 9e fc e9 3e
       0.12517628 -0.2584106 -0.09964034 0.45700544
000010 5f 95 25 3e 75 e1 81 be 4a ea 56 bd 4b 5f 94 3e
       0.16170262 -0.25367323 -0.05246953 0.28978953
000020 73 c5 43 be d5 19 92 be 49 0a c7 be 55 17 7c be
       -0.1911829 -0.28535333 -0.38875034 -0.24618275
000030 90 64 77 bd 6d 63 3e 3e ee 34 7c 3d 07 84 86 3e
       -0.06039864 0.18592615 0.061573915 0.26272604
000040 14 e4 b4 3e 65 9a cb 3e d0 07 8b be 91 cc 9a 3d
       0.3533026 0.3976623 -0.27154398 0.07558549
000050 2d 7a 93 3e ae e8 3b be 70 5f e1 bb c6 e2 93 3d
       0.2880415 -0.18350479 -0.006877832 0.07220988
000060 b0 5b 82 bd b5 30 65 be 24 ce 88 3d 96 7d 40 3e
       -0.06365144 -0.22381862 0.06679943 0.18797907
000070 0f 70 8d bd 19 05 a9 3e b2 6a 5a bc 64 58 31 be
       -0.06906139 0.33011702 -0.013331102 -0.17318875
000080 42 b1 73 be 1f fe 3f be 89 31 bd be 92 39 73 be
       -0.23798087 -0.18749283 -0.36951855 -0.2375243

input_conv.conv.bias f4 [4]
000000 5c db b1 bb 75 a8 e2 bd 34 6f 99 bd 8a 95 98 be
       -0.005427761 -0.11067287 -0.074919134 -0.2980159

input_conv.BN.weight f4 [4]
000000 c5 1c 7f 3f 7c a6 88 3f fc b6 61 3f ad 6e 81 3f
       0.99653274 1.0675807 0.88169837 1.01119

input_conv.BN.bias f4 [4]
000000 53 ff 7d bd 73 b7 2c 3e 49 22 6c 3e 91 34 28 be
       -0.062011074 0.16866855 0.23059954 -0.16426302

input_conv.BN.running_mean f4 [4]
000000 42 b1 fe bb 36 01 03 be a6 e7 97 bd ad 1e 94 be
       -0.0077725956 -0.1279343 -0.0741723 -0.28929654

input_conv.BN.running_var f4 [4]
000000 81 70 dd 3d 69 6b 4d 3e a8 b5 d3 3d 6d 97 1c 3f
       0.10812474 0.20060505 0.103373826 0.6116856

block1.0.conv.weight f4 [8, 4, 3, 3]
000000 5d e4 39 be 0e 32 71 be 3e 09 07 3d e3 e4 01 be
       -0.1815352 -0.2355425 0.0329678 -0.1268497
000010 9b 86 93 3d 6e 59 b9 3b d9 51 ed 3d 89 4d 88 3e
       0.07203408 0.005656413 0.11587877 0.26621655
000020 1d 96 69 bc 69 86 a9 bd a0 34 ad be d9 c3 b7 3d
       -0.014256981 -0.0827759 -0.33829212 0.08972902
000030 2f 2c b7 3d 5d ef f9 bb 6f 47 b7 3d c9 c9 0c 3e
       0.08943974 -0.0076274113 0.08949172 0.1374885
000040 49 4c 27 be 9f 2d 21 be 3d eb 27 3e 2f f1 54 3e
       -0.16337694 -0.1574006 0.1639833 0.20795129
000050 9e b5 c8 bd 3b 4d 6b bd cf 4b 40 3e a4 8d a4 3e
       -0.09800266 -0.0574467 0.18778919 0.32139313
000060 4d 33 ad bd 04 7a 94 3d ad 5f b7 3e db 8f 99 bc
       -0.084570505 0.07249835 0.35815182 -0.018745353
000070 98 c2 3b 3e c4 48 e5 3d e1 76 24 3e ea 49 81 3e
       0.1833595 0.111955196 0.16060974 0.25251704
000080 a0 d4 ca 3d 45 a8 0c be 61 b4 b7 bc 45 55 84 bd
       0.09903836 -0.13736065 -0.022424879 -0.06461576
000090 f2 5a 3c be 3d ba 79 bd 61 57 86 3e 3b 25 55 be
       -0.18394068 -0.060968626 0.2623854 -0.20814984
0000a0 02 e0 0d be 4e b5 58 3e ed ad 86 bd 18 e5 6b bd
       -0.13854983 0.21162912 -0.065761425 -0.057591528
0000b0 8b 74 67 3d 79 57 34 bd c3 60 85 3e 1b 30 7b bd
       0.05650763 -0.044028733 0.26050386 -0.061325174
0000c0 2d b2 fe 3d bd a3 64 3e 76 55 ad bc 06 25 42 3d
       0.12436328 0.22328086 -0.021158915 0.04739859
0000d0 6f ef 9b 3c 10 ef 6d be d9 eb a0 3d 36 e0 aa bd
       0.01903507 -0.23235726 0.07857484 -0.08343546
0000e0 97 8a 13 be b5 6c ae 3d d6 20 df bd b1 59 87 bd
       -0.14408337 0.08516828 -0.10894935 -0.06608904
0000f0 c7 67 bd 3c d5 a6 85 bd 61 f4 59 3e ee 51 5a be
       0.023120774 -0.06525961 0.2128463 -0.21320316
000100 9d 76 23 be 3d 36 85 be 0f 0f a1 3d b2 ef 3a bd
       -0.15963216 -0.26017943 0.078642 -0.045638748
000110 50 8d 16 3e 9c 22 40 be 8d e7 4e 3e e2 5b 74 3d
       0.14702344 -0.18763202 0.20205517 0.05965794
000120 54 39 3f bd 05 24 89 bd 60 94 95 3e e3 96 ac bd
       -0.04668553 -0.06696323 0.29214764 -0.08427217
000130 8c 32 d2 bd 07 58 dc bc c3 22 99 be 28 f6 b4 bd
       -0.10263547 -0.026897443 -0.29909334 -0.08836013
000140 f1 29 e4 3d 3d 89 02 3b 1b 91 7f 3d 31 78 8c 3e
       0.11140812 0.0019918226 0.062394243 0.2743545
000150 0b 58 4c be 79 f7 b8 bd 10 8b be 3d a4 9c c6 bc
       -0.1995546 -0.09031577 0.09303868 -0.024244614
000160 ba 59 53 3e 0a a2 51 3e 45 a1 52 3d a7 2e da bd
       0.20639697 0.20471969 0.05142333 -0.106534295
000170 aa 5a 7f be da a2 0a bc 81 9a 00 bd 60 59 c7 bd
       -0.2493693 -0.008461678 -0.031397346 -0.09733844
000180 a1 2f 6a 3c b2 62 e5 3d af 15 50 3e de ca b5 3d
       0.014293582 0.11200465 0.20320772 0.088765845
000190 ff 67 70 bb e8 40 7a 3e 6c f5 86 3d 34 b0 ed bd
       -0.003668308 0.24438822 0.06589779 -0.11605874
0001a0 a1 b1 63 bd b0 22 59 3d 5c 64 00 3e 0f fe 6a 3d
       -0.055589322 0.053011596 0.12538284 0.057371195
0001b0 42 a0 41 3e 7b d1 1b bd 89 bb 0e 3d 1f 8e 33 be
       0.1890879 -0.038041573 0.034846816 -0.17534684
0001c0 28 df 2a be aa 54 e9 bd 22 d8 14 be 6f 2a 9a be
       -0.1668669 -0.113931015 -0.14535573 -0.301105
0001d0 25 03 00 be a1 28 0f be 30 66 7f be 3b ea f8 bd
       -0.125012 -0.13980342 -0.24941325 -0.12154051
0001e0 53 e4 54 be e7 8d 9c 3d 8f d2 f6 3d 03 b3 39 be
       -0.20790224 0.07644253 0.120518796 -0.18134694
0001f0 6d 67 10 3e 61 da 16 3d 99 3d 7b be 2e 2a 13 bd
       0.14101954 0.036829356 -0.24535216 -0.035928898
000200 ef 93 96 3c 6a 95 1f be d4 15 cd bd 9a 55 01 be
       0.018381087 -0.1558434 -0.10013929 -0.1263031
000210 8d f2 84 be 11 af a1 bd ce ed b5 bd 24 12 20 3e
       -0.25966302 -0.078947194 -0.08883248 0.1563192
000220 01 06 9c bc c2 18 02 3d 13 12 2b 3e 60 d4 de 3c
       -0.019045832 0.031761892 0.16706114 0.027200878
000230 50 59 45 be 66 eb 82 bc 28 1f 50 be b1 31 7b be
       -0.19272351 -0.015981387 -0.20324385 -0.24530675
000240 d9 94 0a be fa d3 47 be ef a8 93 be 41 21 b8 bd
       -0.13533343 -0.19514456 -0.28839824 -0.08990718
000250 cf 92 05 be 45 2b 8d 3d 04 02 6a 3e 06 dd fe bd
       -0.13044284 0.06893019 0.22852331 -0.124445006
000260 4f 5b 46 3e b2 20 6f 3e fd 71 3b 3e 8d da 7b 3d
       0.19370769 0.23352316 0.18305202 0.061487723
000270 3c 26 0f be a4 33 fc 3d d9 4a 93 3b ae 67 31 3e
       -0.13979429 0.12314537 0.0044950065 0.17324707
000280 dc 9a b6 bd cd 8e 6e 3c a6 33 07 be b1 ad 56 3e
       -0.08916256 0.014560414 -0.13203296 0.20964696
000290 06 a0 05 3e 14 29 1e 3e 8b 04 09 3e 75 2e 72 be
       0.13049325 0.15445358 0.1338064 -0.23650534
0002a0 e5 78 27 bd 08 16 45 be 4f b5 5e 3d 31 d3 20 3e
       -0.04088678 -0.19246686 0.054372128 0.15705563
0002b0 08 56 2e 3e 57 64 5c be 2b 96 02 3d 90 cc a0 3d
       0.17025006 -0.21522652 0.031881493 0.07851517
0002c0 fb b8 d0 be c5 16 48 3e ac e5 fa 3d c3 2d d4 bd
       -0.4076613 0.19539936 0.12250838 -0.10360291
0002d0 a1 e1 96 3e a1 bc cf 3d e1 05 8d 3c 1d 24 6e bd
       0.29469016 0.101434 0.017214717 -0.05813991
0002e0 29 d6 0b be 80 64 7c bc 61 08 07 3e d3 d6 60 be
       -0.13655914 -0.01540482 0.1318679 -0.21956949
0002f0 83 b5 48 bd 17 a0 e6 3d 87 0e f3 bd a5 45 78 3c
       -0.049001228 0.112610035 -0.11868005 0.015153323
000300 e3 a4 d2 be c7 9a 5e bd dd df 61 3d dd df 72 be
       -0.41141424 -0.054346826 0.055145133 -0.2371821
000310 b0 d3 1b be 17 36 40 3e 49 94 aa 3d d2 47 a2 be
       -0.15217471 0.18770634 0.083290644 -0.3169542
000320 7a 24 52 be f5 4f 04 be 41 ad b9 3d ed f3 16 be
       -0.20521727 -0.12921126 0.09066249 -0.14741488
000330 3b 75 b8 3d 11 6c 10 3e f0 4e b6 3d 64 6b f7 bd
       0.09006735 0.14103724 0.08901775 -0.1208103
000340 57 81 44 bd c4 e7 02 3d e9 b6 e9 3c 39 4f 1b 3e
       -0.04797491 0.03195931 0.028529601 0.1516694
000350 22 16 10 bd 06 fd 13 3e 1b 68 c0 3d 4a 08 db bc
       -0.035177357 0.1445199 0.093948565 -0.026737351
000360 de f7 09 3e 59 9f 67 be 7d 5b 3d 3d b5 e5 6c 3d
       0.1347346 -0.2261938 0.04622983 0.057836253
000370 5c fb 16 3d 50 f9 c2 3d d3 0a 87 3d e2 18 f9 3c
       0.03686081 0.09520209 0.065938614 0.030407373
000380 9c f9 c8 bd 68 9a 96 3d b4 d6 83 3e 46 ab ec 3c
       -0.09813234 0.073536694 0.25749743 0.028890263
000390 08 25 3f 3e f4 f8 e2 3d 75 bf 5e be 8a a3 d6 bc
       0.1866647 0.1108264 -0.21752723 -0.026201028
0003a0 3a 22 ef bd f7 fd a2 be 69 90 3b 3e 7d ee 50 be
       -0.1167645 -0.31834385 0.18316807 -0.20403476
0003b0 91 8b 2b 3e f8 75 91 be f1 57 7d be 1e ff ce 3c
       0.16752459 -0.28410316 -0.24740578 0.025268134
0003c0 54 03 5f be 4a 4c 4e be b4 55 6d 3e 8b 04 79 3e
       -0.21778613 -0.2014629 0.23177224 0.2431814
0003d0 6b 68 c6 3e 90 09 82 3e 18 4d e7 bd 3b 57 b1 3d
       0.3875154 0.2539792 -0.11294001 0.08659216
0003e0 63 af 04 bc 16 ba 0d bd cd e9 5a 3d c4 78 3b 3c
       -0.008098456 -0.034601294 0.053445626 0.011442367
0003f0 f4 68 1c 3e 9e 75 d5 bd f8 78 85 3e 03 55 24 be
       0.15274411 -0.10422824 0.26068854 -0.16048054

block1.0.conv.bias f4 [8]
000000 a0 be ee bd 87 a4 70 3e 96 67 39 be 56 71 e2 3d
       -0.116574526 0.23500262 -0.18105921 0.11056773
000010 11 44 97 bb 21 2c 80 bc 4f 45 35 bd 8b 8a 51 be
       -0.0046162684 -0.015646042 -0.04425555 -0.20463006

block1.0.BN.weight f4 [8]
000000 61 2d 7a 3f eb 7b 44 3f 58 22 8c 3f bd 51 82 3f
       0.9772549 0.76751584 1.0947981 1.0181195
000010 89 59 7f 3f f6 82 82 3f f3 9e 91 3f 53 27 74 3f
       0.99745995 1.0196216 1.1376632 0.95372504

block1.0.BN.bias f4 [8]
000000 59 f0 b9 3c 9b ca 38 be 73 ea 9a bd ca 9d 94 bd
       0.022697615 -0.18046038 -0.07564249 -0.072566584
000010 27 09 be bd 99 53 03 be d9 ad f9 3d e4 87 bf be
       -0.092790894 -0.12824859 0.12191362 -0.37408364

block1.0.BN.running_mean f4 [8]
000000 43 b3 0b 3f b6 03 39 3e 11 c7 78 3d 2b 3c c1 bf
       0.54570407 0.18067822 0.06073672 -1.5096487
000010 e4 c6 09 3e 23 87 f8 be 19 79 0c 3d 5b 05 9a bf
       0.13454777 -0.485406 0.034295175 -1.2032884

block1.0.BN.running_var f4 [8]
000000 22 a1 4f 3f 6e 83 c2 3e c0 8a ca 3e 4b f5 2f 3f
       0.81105244 0.37990898 0.39558983 0.6873366
000010 45 ac 66 3e af 45 0f 3f 30 52 de 3e 6d 26 a7 3e
       0.22526653 0.55965704 0.4342208 0.32646504

block1.1.conv.weight f4 [16, 8, 3, 3]
000000 4c 60 80 3e af 0b 2f be c5 20 c7 bc 43 e4 17 3e
       0.2507347 -0.170943 -0.024307618 0.14833169
000010 9e 57 aa 3d 33 1b 9f bd a6 c3 f9 bd 9c 45 07 3e
       0.08317493 -0.0776886 -0.1219552 0.13210148
000020 14 09 90 be 97 17 9b 3d 2a da 00 3e 48 dd 74 bd
       -0.28131926 0.07572859 0.12583223 -0.059781343
000030 4d 17 a9 be d6 1b 15 be 3c 7d 9f 3d 1a 4c a4 bd
       -0.3302559 -0.145614 0.077875584 -0.08022328
000040 c3 f1 57 be 75 8d 5a 3e 23 02 2e 3c e4 00 ab bb
       -0.21088319 0.21343024 0.010620627 -0.005218612
000050 b5 28 a1 3d 69 a8 33 3e 95 36 66 3d 95 36 ae 3b
       0.078690924 0.17544712 0.056204397 0.0053165653
000060 a5 1d b2 bd 2b 9e 87 b9 3a f8 62 3e 65 2c f5 3c
       -0.086970605 -0.0002586705 0.22165003 0.029928396
000070 a4 22 0a 3e 28 67 54 3e 30 9b ed bd 5b 53 40 bc
       0.13489777 0.20742476 -0.11601865 -0.0117386235
000080 7a 7c 55 3d 97 ad 35 3d b2 12 9e bd 74 19 5a 3d
       0.052120663 0.044355 -0.077184096 0.05324693
000090 ef ec b3 bd ff 90 13 be 06 32 35 bd 8e 19 25 be
       -0.08785426 -0.1441078 -0.04423716 -0.1612303
0000a0 d8 60 a6 bd 7c 55 54 be d1 d1 52 be 6b 77 90 be
       -0.0812394 -0.20735735 -0.20587851 -0.2821611
0000b0 ff 96 6c 3a c0 11 ac 3d bc d4 15 3d 01 9c 5a bd
       0.0009025186 0.08401823 0.036579832 -0.053371433
0000c0 9b 10 73 be f2 47 fb bc 0b dd 05 be 60 ef 89 be
       -0.23736803 -0.030673955 -0.13072602 -0.2694044
0000d0 3a 7e 39 3c 6f 64 a9 3e 8a 54 3e 3d 1d 1b 38 3d
       0.011321599 0.33084437 0.04646734 0.044947732
0000e0 f5 41 5a 3d 14 e4 5f bc df 5d 3d be 86 d2 40 be
       0.053285558 -0.013665218 -0.1849284 -0.18830308
0000f0 2c 14 4f be 9d 57 34 bd 80 b7 48 be e5 c2 16 bd
       -0.20222539 -0.044028867 -0.1960125 -0.03680696
000100 ce ce bc 3d 29 c4 52 3e 9b 5b 1a 3e 98 a1 9a ba
       0.09219132 0.20582642 0.15074007 -0.0011797426
000110 ce 62 62 3d 64 bf a9 3d 2c 82 3b 3d 2e 57 c3 3c
       0.05527001 0.08288458 0.04577844 0.023845281
000120 0e 64 2a be 87 f5 e7 bd d5 bb ef 3d eb a3 92 be
       -0.1663973 -0.113261275 0.11705748 -0.28640684
000130 25 c5 12 be eb e3 94 3c 27 6c c6 be 88 2a 66 bd
       -0.14333017 0.018175086 -0.3875439 -0.056192905
000140 a9 a7 21 3d 41 fd b6 3b cb 11 9c 3d 41 bf 29 3e
       0.039466534 0.0055843894 0.07620581 0.16576864
000150 23 38 ba 3d 70 fd 2f ba cb 66 68 bd ea a9 06 3e
       0.090927385 -0.00067134853 -0.056738656 0.13150755
000160 79 78 12 3e 4a d7 e3 bd eb 5b 34 bd 98 ba b6 bd
       0.14303769 -0.111250475 -0.044032972 -0.08922309
000170 4e 1c a8 bd 3c 3e 85 be 8c aa 40 3c b1 2b 00 be
       -0.08208524 -0.26024044 0.011759412 -0.12516667
000180 74 c0 f5 bd ea 4e 2c 3d 16 0b 35 be df ac 7d be
       -0.11999598 0.042067446 -0.1768001 -0.24772976
000190 1a 1a 6b be ce 16 ab be b0 95 62 bc 1c e6 58 be
       -0.22959176 -0.33415836 -0.013829634 -0.2118153
0001a0 00 41 0c bd 19 ae 98 bd 7a df ae bd 62 e2 4e 3e
       -0.034241676 -0.074550815 -0.085387185 0.20203546
0001b0 12 47 bc bb 09 8f 55 3c fd 53 15 be 2c 0b 1f be
       -0.005745777 0.0130345905 -0.1458282 -0.15531605
0001c0 4a 12 14 be c1 bb bb be b2 10 64 3d 3a 6f ff bd
       -0.14460102 -0.36666682 0.055679984 -0.12472387
0001d0 ed 28 e8 bc 84 2f 18 3e 13 43 11 bd 4a ba f0 bd
       -0.028339827 0.14861876 -0.035464358 -0.11754282
0001e0 72 d7 28 be f8 c3 c3 bd e6 67 ec 3d 0f 32 bd 3d
       -0.16488436 -0.095588624 0.115432546 0.092380635
0001f0 36 43 d7 bd 7e 4c bf 3c 5e 30 85 3d dd e4 00 3d
       -0.10510866 0.023351904 0.06503366 0.03146826
000200 ef 2a 6c 3e 15 03 84 bc 64 7e 32 3d ab 30 de 3d
       0.23063253 -0.01611475 0.043577567 0.108491264
000210 b0 72 9b be d7 79 23 be d8 cf fd bd 4b c9 ee 3d
       -0.30360937 -0.15964447 -0.12393159 0.11659487
000220 0b c8 c6 bd 03 8a 1b bd 3d 20 16 3e 9d d4 a8 3d
       -0.09706124 -0.037973415 0.14660735 0.08243678
000230 bc 03 e7 3d e4 f3 b5 3d a8 95 ce 3d 74 7e 16 3d
       0.11280009 0.08884409 0.100871384 0.03674169
000240 fe c3 8b 3e 10 f5 24 3d e4 2b 63 3e 91 8c 1a bd
       0.27297968 0.040272772 0.22184712 -0.03773171
000250 d5 18 7f bd 7e 5a d3 3d 5a f5 79 be 00 3a e1 bd
       -0.06227954 0.103199944 -0.2441 -0.10997391
000260 67 1d ac 3d 7d 79 56 bd 09 c7 b4 bd 5b 0f 54 bc
       0.084040456 -0.052361954 -0.088270254 -0.012943114
000270 f7 3e 51 bc 03 87 fa 3d 18 f4 b8 bd 38 94 6f 3d
       -0.01277136 0.12232783 -0.09030932 0.05849096
000280 a3 26 f5 bd e4 89 05 be b3 3b 94 bd f9 97 e0 bd
       -0.1197026 -0.13040882 -0.07237949 -0.109664865
000290 e4 ba 16 be 54 34 db bd b2 db 1f bd 44 e7 7f bd
       -0.1471973 -0.1070334 -0.039027877 -0.06247641
0002a0 bf 8e 92 3c b9 89 c4 3d 3d a3 fb 3d 1c b0 9d 3e
       0.017890332 0.09596581 0.122869946 0.30798423
0002b0 ef b8 0a 3e 68 a8 8d bd c3 dc 83 3e bc 82 dd 3d
       0.13547109 -0.069168866 0.25754365 0.10815951
0002c0 90 f7 d8 3d 9d 12 bc bc 82 b0 a7 3d 0a e7 a4 3d
       0.10594094 -0.022958094 0.08187963 0.0805188
0002d0 ad ca bd bc 6a 39 61 3c a3 8c b1 3d 1e 80 9f 3d
       -0.023167932 0.013746599 0.086694025 0.07788108
0002e0 a3 79 da 3d 77 c3 cc 3d 4c 4a e6 3d 14 fd 49 bd
       0.106677316 0.099982195 0.1124464 -0.04931362
0002f0 1b 87 e7 bd 84 79 7a 3d d5 66 89 be 2e 06 c2 3d
       -0.11305066 0.061151043 -0.26836267 0.09473835
000300 c3 df e6 bd 05 9a dd be 95 df 1b be fc 3b aa 3d
       -0.11273148 -0.4328157 -0.15222009 0.08312222
000310 1e 2d a0 bd 5f 72 b8 bd 47 66 dd bd ab d8 86 bc
       -0.078211054 -0.090061896 -0.108105235 -0.016460737
000320 67 36 fb 3d 14 cf 8f 3e 47 95 23 3e 3d 06 e5 3c
       0.12266236 0.28087676 0.15974914 0.027957076
000330 34 51 69 be 3d c4 de bd d9 d2 a0 be c9 c4 fe 3c
       -0.22784883 -0.10877273 -0.31410864 0.031099694
000340 08 7b a6 3d e8 b3 4d be e5 80 2f be 39 52 8f bd
       0.08128935 -0.2008816 -0.17139013 -0.069981046
000350 eb 2d 8e 3d 17 07 0d 3e 87 9f 9e bd 2c bf 07 3e
       0.06942352 0.13772236 -0.07745271 0.1325652
000360 bc 7c b0 3d 98 c8 0c bc 8c f3 80 3d ba ef b9 3d
       0.08617541 -0.008592747 0.06296453 0.09078927
000370 0a 21 c4 3d 87 94 fa 3c 61 1e d8 bd 36 22 97 bd
       0.09576614 0.030588401 -0.10552669 -0.07379572
000380 22 2b 04 be 25 fe 37 3e 05 12 44 bc f6 39 39 3d
       -0.12907079 0.17968042 -0.011967187 0.04522129
000390 c0 ba ae bd 60 3b 2b bd 7e b6 02 3e 25 88 04 3d
       -0.085317135 -0.04180467 0.12764928 0.0323564
0003a0 93 05 ad bd e8 21 2b be b8 13 46 3e d1 f8 4c 3e
       -0.08448329 -0.16712153 0.1934346 0.20016791
0003b0 56 c9 81 3c a9 ac 5b be 57 6f 1f 3e 0a 6c 90 3e
       0.015843075 -0.21452583 0.15569817 0.28207427
0003c0 8b f8 6c be cd d3 6b be f2 6d fa 3d 49 88 84 3d
       -0.23141687 -0.23030014 0.12228002 0.06471307
0003d0 ad 99 ae bd 83 e7 8e bc 18 d5 9a 3d 2a f9 00 3d
       -0.08525405 -0.017444378 0.07560176 0.03148762
0003e0 12 97 d7 bc 62 92 57 3e ec 67 9a 3c bd ef 57 bd
       -0.026317153 0.21051934 0.018848382 -0.052718867
0003f0 3f d6 05 be 23 c8 a5 3d e3 c8 61 3e bf eb b6 bd
       -0.1307001 0.08094814 0.22049288 -0.08931684

block1.1.conv.bias f4 [16]
000000 ef 73 0e 3d 65 3b f0 3d e9 62 bf 3d d2 36 16 3e
       0.03477853 0.117300786 0.093450375 0.1466935
000010 88 6a 2f bd 14 20 25 be 6b 07 0f be 15 9d 4d bd
       -0.042826205 -0.16125518 -0.13967673 -0.050198633
000020 f9 18 ab 3d 2f eb 6e bc 4d 04 1e 3e 86 95 ee bb
       0.083543725 -0.014582439 0.15431328 -0.007281008
000030 b9 13 96 bb 8f d6 4d be ba 9b 1c 3d 90 f9 8f bd
       -0.004579988 -0.20101379 0.03823445 -0.07030022

block1.1.BN.weight f4 [16]
000000 22 bf 80 3f cc c4 80 3f ce 97 87 3f 74 08 63 3f
       1.0058329 1.0060058 1.0593202 0.88684773
000010 f1 a4 94 3f c4 51 98 3f 6f c0 74 3f 2e ea 73 3f
       1.1612836 1.1899953 0.9560613 0.95279205
000020 c4 4e 82 3f 05 51 8b 3f 6a 7f 86 3f 59 f6 78 3f
       1.0180287 1.08841 1.0507634 0.97250897
000030 ae b0 74 3f 0d e1 76 3f 04 8d 50 3f a0 e1 68 3f
       0.9558209 0.9643715 0.8146517 0.90969276

block1.1.BN.bias f4 [16]
000000 2a ef 4b be a3 1c 27 be ab e5 ba bd 91 1f 05 be
       -0.19915453 -0.16319518 -0.09125837 -0.13000323
000010 b6 44 60 bd e6 c3 e1 bd 6f 24 97 be 1b 5b 24 be
       -0.054753028 -0.11023693 -0.29519984 -0.16050379
000020 7d 19 4e bd d3 a6 93 bd af 39 ec 3d 88 95 3f be
       -0.050317276 -0.072095536 0.1153444 -0.18709385
000030 ba 30 c7 3c 1e 61 86 be d4 f8 bf be e3 db 5b be
       0.024315227 -0.2624597 -0.37494528 -0.21470599

block1.1.BN.running_mean f4 [16]
000000 e8 cf ea be 83 75 84 bf 6d 37 b6 3d fe 0d 69 3e
       -0.45861745 -1.0348362 0.088972904 0.22759244
000010 91 08 ff 3e 5f 32 a4 bf 00 26 75 bd 72 fd 91 be
       0.49811223 -1.2827872 -0.059850693 -0.28513676
000020 bf fb 03 3f be e1 15 be 9f 0c b7 be 81 59 35 bf
       0.5155601 -0.14636895 -0.35751817 -0.708397
000030 6e e3 45 bf 60 9b eb 3e 5c ee 1e 3e e6 30 23 bf
       -0.77300155 0.4601698 0.15520614 -0.6374649

block1.1.BN.running_var f4 [16]
000000 10 50 28 3f 35 e1 86 3f ca 48 06 3f 4e b0 c9 3e
       0.65747166 1.0537478 0.5245482 0.39392322
000010 d1 31 3f 3f a9 32 34 3f 9b 1c 05 3f 94 09 ec 3e
       0.7468539 0.703898 0.51996773 0.46101058
000020 94 5f 30 3f 33 d9 11 3f ef f3 ab 3e a6 ad 0d 3f
       0.6889584 0.56972045 0.33584544 0.5534309
000030 08 3f f3 3e 67 d5 45 3f e3 81 16 3f 0b 2e c2 3e
       0.47509027 0.7727875 0.5879194 0.37925753

block1.2.conv.weight f4 [8, 16, 3, 3]
000000 dd 0f ea 3c a6 cf 20 3e e6 2f e8 3d 28 52 e3 bd
       0.028572017 0.15704212 0.11337261 -0.110996544
000010 ec b7 e5 3b dd 49 e6 bb c7 18 8f 3d c0 04 05 bd
       0.0070104506 -0.007027848 0.06987148 -0.032475233
000020 33 5b cd bd 46 cf 7a 3e 1f d6 67 3e a6 ff 19 3d
       -0.100271605 0.24493131 0.22640274 0.03759732
000030 a9 84 13 3e 33 9f 12 3e 2c 2c 38 3d 2b 91 ad bd
       0.14406075 0.14318542 0.044964 -0.08474954
000040 bc c9 c3 3b d0 40 ce 3d da 26 8e 3d 8a d7 37 3e
       0.0059749763 0.10070956 0.06941004 0.17953315
000050 8a 13 0b bc 29 ab 8f be bb 06 47 3d c3 b0 5f be
       -0.008488545 -0.28060272 0.048590403 -0.21844773
000060 8f 39 a6 be f1 ce 19 be ee 4a 1e 3d c4 01 d8 3c
       -0.3246579 -0.15020348 0.038645677 0.02636803
000070 d0 4a da bc 38 51 7d be b9 fa 2c bd 9b 5f 09 3e
       -0.026647002 -0.24738014 -0.042231295 0.13415377
000080 8f f6 16 be 3d bd c5 3c b9 15 8a bd d4 9d 2d 3e
       -0.14742492 0.024138087 -0.067424245 0.16954738
000090 06 26 4d be 33 bd fe bc 0b 81 46 be fa 43 85 bc
       -0.20034036 -0.031096077 -0.19385163 -0.016267765
0000a0 73 25 0d 3d 26 1b 25 be 72 61 b9 3d ea d6 18 3e
       0.034459542 -0.16123638 0.09051789 0.14925733
0000b0 99 43 b3 bc dd 08 2d 3e fc 9c 3c 3e 9c 07 df bd
       -0.021882819 0.16897912 0.1841926 -0.10890123
0000c0 98 2d ae 3d 0a db f3 bc 7d 7e 09 bc a9 56 64 be
       0.0850479 -0.029767532 -0.008391974 -0.22298683
0000d0 6c 7b bf be f2 d3 31 be 88 bb 6d bc 6e 1a 7e bd
       -0.3739885 -0.17366007 -0.014510043 -0.062036924
0000e0 af f2 00 3e 8e eb 0b 3d cb 33 a4 3c 86 a8 1b be
       0.12592576 0.03416019 0.020044228 -0.15201005
0000f0 70 b1 3c bd c8 0f 86 be a5 ad 2d be 9d db 06 3e
       -0.046067655 -0.26183915 -0.16960771 0.13169713
000100 22 db 9e 3d 69 d7 b1 bd bd c8 b3 3d 9c bd 45 3e
       0.0775664 -0.08683664 0.08778522 0.19310611
000110 fb fe 66 be 12 c6 c9 3d 80 01 b6 3d da 68 06 be
       -0.22558205 0.09852232 0.08887005 -0.13125935
000120 ce 1a ff bd 8e 92 8d bd 16 5f a0 3c 9d 2f d0 3d
       -0.124562845 -0.06912719 0.01957659 0.101653315
000130 b2 55 41 be 1c 69 0d 3e 21 5c 08 be 56 80 73 bd
       -0.18880346 0.13809627 -0.13316394 -0.059448563
000140 e3 0f d6 3d 41 0c 35 be a6 3c f1 bb cc 08 f7 3d
       0.10452249 -0.17680456 -0.007361966 0.12062225
000150 15 91 55 3c 30 7b e2 3d 2c 2f 30 3e 92 e9 5d 3d
       0.0130350785 0.110586524 0.17205495 0.054177828
000160 51 6c 07 be 62 b7 6c 3d 06 70 21 3e 25 91 c3 bc
       -0.13224913 0.057792075 0.1576539 -0.023872921
000170 74 83 6b 3d c3 2d 7a 3d b4 c9 cd 3d fe 89 44 be
       0.05749841 0.061078798 0.100482374 -0.19193265
000180 2e 8f 86 bd 3c 5b f9 3d f6 ff 59 3d dc 7a 8b 3e
       -0.06570278 0.12175605 0.05322262 0.27242172
000190 88 e0 99 3c 5a a9 83 be d9 11 e0 3c 45 b0 42 3d
       0.018783823 -0.25715142 0.02735226 0.047531385
0001a0 01 e1 b0 bb ca f9 65 bd 6b 72 ec 3d e3 cd 62 3d
       -0.0053979163 -0.05614642 0.11545261 0.05537213
0001b0 c2 21 18 bb 5c 7a ed bd 00 1c e5 3d ab 9b 7e 3c
       -0.002321348 -0.11595604 0.11186981 0.015540044
0001c0 3f 7e 2e bd 19 73 49 3d bd 7d 0c 3e 67 3f 16 bd
       -0.042600866 0.04918203 0.1371984 -0.03668156
0001d0 c0 d0 2e be bf 64 ea 3d fe 5a 80 3d 0d 82 3f 3d
       -0.1707182 0.11444997 0.062673554 0.046754885
0001e0 5e dc 7d bd 4b fa 96 3c c2 bb 15 3d 37 2b 38 3c
       -0.061977737 0.018429896 0.036556013 0.011240772
0001f0 f3 56 cc 3d 11 a7 85 3e 7a c3 b9 3d 5e c3 2a 3d
       0.09977522 0.26104024 0.09070487 0.041690223
000200 fc f0 41 be 8d 43 88 3d 03 09 0c be 5c 0e b5 3b
       -0.18939584 0.06653509 -0.13675313 0.0055253934
000210 9b 42 c2 bd 52 07 3e bc 83 23 f4 3c cc e4 b9 bd
       -0.0948536 -0.011598425 0.02980209 -0.09076843
000220 c3 6c 2e bd a5 85 cb 3d 68 5e f6 bd c4 67 30 bd
       -0.042584192 0.099376 -0.12029725 -0.04306771
000230 8f 62 08 3d 1e 22 54 3d 94 0c ca bd c2 96 04 be
       0.033297118 0.05179035 -0.0986568 -0.12948135
000240 f0 d7 a2 3c db 6a 6b bd 57 3f 72 3d e0 ed 59 3e
       0.019878358 -0.057474952 0.059142437 0.21282148
000250 4e 4e f8 3d 04 c8 91 ba 74 9d d6 3c 70 bf c0 be
       0.121243104 -0.0011122231 0.026198126 -0.37646055
000260 90 fb 3e be 5f 92 15 bd 61 63 b4 bd 20 89 cd bd
       -0.18650651 -0.036516543 -0.088080175 -0.1003592
000270 e1 a5 5b bd 78 92 73 bd 94 23 cd bd a3 7a a1 3d
       -0.05362499 -0.059465855 -0.100165516 0.07884719
000280 e7 e2 dd bb d1 d4 46 bd a8 2b 0f be 88 ff 3a bd
       -0.0067714336 -0.0485428 -0.13981497 -0.04565385
000290 df a5 34 3e 4e ad 00 3e 7a 70 e6 3d b8 8d fc bc
       0.176414 0.1256611 0.11251922 -0.030829296
0002a0 f0 b3 8c be ec 2f 38 bd 5e 33 13 3e 0d 89 29 bd
       -0.2748103 -0.044967577 0.14375064 -0.041390467
0002b0 35 06 83 bd eb 76 97 3d 75 7c bb bc da 84 14 3d
       -0.06397668 0.07395729 -0.022886494 0.03625951
0002c0 a6 45 b4 bd e6 37 0c 3e 28 33 c6 3d c4 a2 43 ba
       -0.08802347 0.13693199 0.09677726 -0.00074629136
0002d0 49 e1 5a 3e 1e 50 bb bc da 27 03 3d d3 b5 3f ba
       0.21375002 -0.022865351 0.032020427 -0.00073131657
0002e0 e8 12 2d bd 0a e2 f7 bc b3 f6 19 3e a2 0d 1d bc
       -0.04225436 -0.030259151 0.15035515 -0.00958577
0002f0 34 31 c0 3d 7a bd 92 bd 64 a6 dd 3d 9f b8 05 3e
       0.09384385 -0.07165046 0.10822752 0.13058709
000300 a0 03 60 be 59 c5 01 be f6 62 e1 bd 20 cc d3 bc
       -0.21876383 -0.12672938 -0.110052034 -0.02585417
000310 dd 83 54 be ef 43 8e be 0e 4b bb bb ed f1 c5 bb
       -0.20753427 -0.27786204 -0.0057157343 -0.0060408027
000320 1c 5c b6 3d 9c 1c d6 3c 6c 0f 05 be 71 9e 8c bd
       0.08904287 0.026136689 -0.12994164 -0.06866158
000330 38 49 ed bd 41 07 3c be 5a 69 6c bd 33 09 67 bd
       -0.11586231 -0.18362142 -0.05771766 -0.056405257
000340 15 03 cb bc 2e 40 b2 3d b7 b3 f0 3d fe 17 d9 3d
       -0.024781743 0.087036476 0.11753028 0.10600279
000350 57 07 5e 3c b5 92 31 be d3 d5 ea bc a0 40 f7 3d
       0.013551555 -0.1734112 -0.028666412 0.12072873
000360 21 57 6e 3d 26 0d 30 bd 56 2b 78 be 71 a9 4d be
       0.05818856 -0.04298129 -0.24235281 -0.20084168
000370 92 2d 84 39 e8 d2 99 3d ae 65 d4 bd ad 81 68 ba
       0.00025210954 0.0751093 -0.10370956 -0.0008869421
000380 23 b0 24 bd 06 34 27 be ad 31 81 3d a4 6e a0 3b
       -0.04020704 -0.16328439 0.06308303 0.004896002
000390 ea 33 03 3e ee af 33 3d c6 54 00 bd 81 4c 82 3e
       0.12812772 0.04386895 -0.031330846 0.25448993
0003a0 1e b0 8c 3e 8a cb 2c 3d e0 ea 47 3d 72 15 4b be
       0.27478117 0.042186297 0.04880798 -0.198324
0003b0 d8 e2 45 be 88 df 5a be 5e 5e 64 be 1b cc 86 3d
       -0.19324815 -0.21374333 -0.22301623 0.06581899
0003c0 47 0d 30 3e 3c 89 33 3e 75 d9 49 3e 0e a8 84 bd
       0.17192565 0.1753282 0.1971186 -0.064773664
0003d0 0f 63 20 bd 4a ff 4e be ce ae 49 be c1 f6 f0 bb
       -0.03915697 -0.20214573 -0.19695589 -0.007353634
0003e0 3b 9f e4 3c dd c2 51 bd 47 35 2f bc e3 c9 4d 3d
       0.027907958 -0.051211227 -0.010693855 0.050241362
0003f0 87 4d 46 3d 24 8b b9 3d 32 15 8b bc c5 b1 7b bd
       0.04841378 0.09059742 -0.01697788 -0.06144883

block1.2.conv.bias f4 [8]
000000 ca 4a 19 be 3b 68 43 bd ed 4d 9d bd 11 31 be 3c
       -0.14969936 -0.047706824 -0.07680879 0.023216756
000010 8c 7c b0 3d d8 64 ae 3c 2b 32 ae 3d 0a f7 81 bd
       0.086175054 0.02128832 0.085056625 -0.06345947

block1.2.BN.weight f4 [8]
000000 4e 13 83 3f 91 a6 79 3f 3f af 7c 3f 56 1a 82 3f
       1.0240266 0.97519785 0.98704904 1.0164287
000010 fa f0 7d 3f bd d6 86 3f 28 46 85 3f 1f 80 72 3f
       0.99195826 1.0534283 1.0412035 0.9472675

block1.2.BN.bias f4 [8]
000000 bd e0 5b 3e 01 03 c9 bc 79 ed 2d be 25 3f c1 bd
       0.2147245 -0.024537565 -0.1698512 -0.09435872
000010 00 8c 2f be 29 e2 d6 bd 57 49 38 be 94 c3 13 be
       -0.1714325 -0.104923554 -0.17996727 -0.14430076

block1.2.BN.running_mean f4 [8]
000000 45 12 bc be 2f 1a 5e bf d1 13 ac bf 42 de c4 bd
       -0.3673269 -0.86758703 -1.3443547 -0.09612705
000010 0f 55 22 be 77 0a 3d bf 6d e5 a2 3e 8f 14 3f bf
       -0.1585276 -0.73844093 0.31815663 -0.74640745

block1.2.BN.running_var f4 [8]
000000 98 a5 9e 3f bf 07 ee 3f 8a f0 5f 3f b2 14 db 3f
       1.2394285 1.8596114 0.8747641 1.7115691
000010 40 62 57 3f a8 e8 d9 3f 4c 4d 9e 3f 93 33 01 40
       0.8413429 1.7024126 1.2367339 2.0187728

block1.3.conv.weight f4 [4, 8, 3, 3]
000000 38 c0 95 bc 06 c4 35 3e f5 48 5c bc 7e 70 05 3e
       -0.018280134 0.17750558 -0.013445129 0.13031194
000010 0c b7 11 3d c9 dc 6a be a0 82 8b 3d b6 2c 5f 3e
       0.035574958 -0.22935785 0.06812024 0.217944
000020 89 ff e0 3d 9b 58 c9 3d 2a b3 f9 3c 29 db 9f bc
       0.109862395 0.09831353 0.03048094 -0.019513683
000030 d3 43 85 bc 82 27 be 3d 37 9e bd bd b3 0d 3e be
       -0.016267693 0.09284879 -0.09258693 -0.18559913
000040 67 fc 36 be 76 e4 7b be 7e a0 0d 3e 4c 7f 1d 3e
       -0.17869721 -0.2459887 0.13830754 0.15380591
000050 79 33 82 be 7a a4 95 3d 25 5b 4c be f2 e0 2b 3e
       -0.25429896 0.07306762 -0.19956644 0.16785029
000060 26 23 6f bd 57 d9 0f be 1b 7b a9 3d 53 e8 5a 3e
       -0.05838313 -0.14047752 0.08275434 0.21377687
000070 88 15 6c 3e f0 ce 48 3d a3 fd b8 bd f9 e2 8d 3d
       0.23055089 0.049025476 -0.09032752 0.06928057
000080 86 3f ef bc f2 15 1a be 56 87 42 3d 5d b6 43 bd
       -0.029205095 -0.15047434 0.047492348 -0.047781337
000090 08 b7 e9 3d 98 9f 64 bd 99 01 33 3e 6a ef 02 3e
       0.114118636 -0.055816263 0.17481078 0.12786642
0000a0 1f 76 2b be 9d 2d 28 bd 92 61 5f 3d 3a a7 5a 3d
       -0.16744278 -0.041059125 0.05453641 0.053382136
0000b0 2f c8 03 3c 6f a7 86 be 18 1d 59 bd bd 33 14 be
       0.008043333 -0.26299617 -0.05300626 -0.14472862
0000c0 c1 be 2d 3d 0b f0 3d be 4f 9d 60 3d 05 52 15 be
       0.042418245 -0.185486 0.05483752 -0.14582069
0000d0 10 fb 31 be b6 7f fe 3d 56 66 a2 3e 0d aa 90 3e
       -0.17380929 0.12426703 0.317187 0.28254738
0000e0 de 71 14 3c 4e 45 bc 3d bf de 81 bd 89 e3 40 bd
       0.009060351 0.09192906 -0.063413136 -0.047091994
0000f0 18 e9 1d 3d ac cb 10 3c c5 0d 1a be 47 29 a1 3d
       0.038552374 0.008837622 -0.15044315 0.07869201
000100 37 09 92 3d c0 60 f6 3d b5 b7 83 3d 8e 0d 40 3e
       0.07130664 0.12030172 0.06431524 0.1875517
000110 6d fa 0c be 48 53 81 be 31 06 b1 bd 57 22 c8 bd
       -0.13767405 -0.2525885 -0.08643759 -0.09772175
000120 cd d2 bb bd bb b1 12 bd 8f db 20 3e cf 99 c4 3c
       -0.091710664 -0.03581403 0.15708755 0.023999123
000130 15 05 c6 3c 5d d4 d2 3d 85 32 42 3e 12 44 0d 3e
       0.024172345 0.10294411 0.18964584 0.13795498
000140 19 06 97 bd ec 9f d3 be d7 f0 05 be 77 dd 22 be
       -0.0737421 -0.41332948 -0.13080154 -0.15904795
000150 7f 82 07 be d6 8b a3 bd f3 a7 88 be f0 07 fa bc
       -0.13233374 -0.07985656 -0.26690635 -0.030521363
000160 c5 7d 86 bd c5 08 c6 bd 48 6e 42 3c 25 88 c8 3d
       -0.065669574 -0.096696414 0.011867113 0.097915925
000170 9e 13 9c bd 82 0d 05 be 4c 5b 5f 3d a7 26 8c 3e
       -0.07620929 -0.12993434 0.054530427 0.2737324
000180 d5 b9 1f be 30 b4 a8 be 06 a6 2c 3e a1 28 a9 ba
       -0.15598233 -0.32949972 0.16860208 -0.0012905785
000190 f2 7a 33 be 12 dc f4 bd 0e d1 02 3e 02 bf 9f 3c
       -0.17527369 -0.119560376 0.1277506 0.01950026
0001a0 e3 fe 6c be b5 fb 97 bd 44 d2 8e bd 61 f4 4c bc
       -0.23144107 -0.07421056 -0.06973699 -0.012509436
0001b0 42 ad 4a be 4d 7e 60 be ff 42 24 bd 9f dd e4 3c
       -0.19792655 -0.2192318 -0.040102955 0.027937708
0001c0 24 c9 16 3e 9f 16 40 3e f6 89 06 be 1c 89 70 bd
       0.14725167 0.1875863 -0.13138565 -0.058724508
0001d0 c7 15 19 bb e0 ae de 3d 45 6f e5 3d 5b f7 12 be
       -0.0023358928 0.108731985 0.112028636 -0.14352171
0001e0 57 b2 00 3d b3 e9 09 3d 0b bd 01 bd ca 8f 51 be
       0.031420078 0.03367014 -0.031674426 -0.20465007
0001f0 f8 f8 e0 bd 82 74 75 3c 64 49 89 3d 59 14 ad bd
       -0.10984987 0.014981391 0.06703451 -0.08451147
000200 51 dd 24 3e 8a ab a6 bd 53 5b 26 be 24 62 8a be
       0.1610005 -0.08138187 -0.16245775 -0.27028
000210 ac 2a 47 be a6 81 50 3d 30 c5 c3 3d 58 92 25 be
       -0.19449872 0.050904892 0.09559095 -0.16169107
000220 67 74 8b bd 25 3b 50 bc ed 83 6b 3d 7d d4 4c bc
       -0.06809311 -0.012709414 0.05749886 -0.012501833
000230 6b 1f c0 bd 12 b1 b6 3c bf 67 25 3e 55 eb 3d bd
       -0.093809925 0.02230123 0.16152857 -0.04636701
000240 b3 f5 51 3e ad be f2 3c 01 d9 97 be f2 39 cc bd
       0.20503883 0.029631937 -0.29657748 -0.0997199
000250 10 ff 1b 3e 30 2b 60 3d e6 1f 89 3d f0 b0 11 be
       0.15234017 0.054728687 0.06695537 -0.14227653
000260 e1 57 5b 3e 61 24 57 3d 3c 64 70 3d c7 93 d4 bc
       0.21420242 0.052524928 0.05868934 -0.025949372
000270 9c cc 19 bd b8 5d af 3d e4 db d1 3c 95 6c d3 3c
       -0.037548646 0.08562797 0.025617547 0.025808612
000280 82 3b 9e bb 6e dd 1e bb 92 ea 90 be 19 d5 d4 bc
       -0.004828871 -0.002424087 -0.28303963 -0.02598052
000290 8b 3c a1 bc a6 79 22 bd 4d 29 e0 bb 61 df 30 3d
       -0.01968219 -0.039666794 -0.006840861 0.04318178
0002a0 2d 28 5b 3e 69 d1 91 bc 79 3a 33 3e e1 d2 e5 bd
       0.21402045 -0.01780005 0.17502774 -0.112218626
0002b0 1b 60 26 be 8a 26 37 be 78 af c3 bd 15 95 75 3d
       -0.16247599 -0.17885795 -0.095549524 0.05995663
0002c0 42 a0 ad 3d 4b 51 1d be 1c a5 01 be 18 38 6e be
       0.084778324 -0.15363042 -0.1266064 -0.23263586
0002d0 87 4f 29 be 10 d4 01 3e 0e 6e 41 3e 50 44 06 3e
       -0.16534244 0.12678552 0.18889639 0.13111997
0002e0 09 dc 10 bd e9 2d 22 3e 0b 26 08 3e fa 39 03 3e
       -0.035366092 0.15837826 0.13295762 0.12815085
0002f0 7a 60 43 bd a3 57 80 bd d8 6f 60 be 37 be d5 bd
       -0.04769943 -0.062667154 -0.21917665 -0.10436671
000300 9d 1e 72 3d cd bd 8e bd d7 a4 2a 3e 79 6f ae 3d
       0.059111226 -0.069697954 0.16664444 0.085173555
000310 d8 72 1b bd c4 30 2b 3e 04 00 12 be 2c 3f c1 3d
       -0.03795132 0.16717821 -0.14257818 0.09435877
000320 ab b9 a5 3c 89 41 19 3e 91 0e 88 be 29 c1 18 3e
       0.020230135 0.14966406 -0.26573613 0.14917435
000330 7d 18 fb 3d 36 f6 95 bd 08 60 46 3c 2e 41 95 bd
       0.1226053 -0.07322352 0.012107857 -0.07287823
000340 b6 7d bf bd d2 29 1d be 26 7a e9 bd 8c 45 88 be
       -0.09350149 -0.15347984 -0.11400251 -0.2661556
000350 d0 c7 57 be 52 cb 0c 3e ce 91 8d be a9 f9 9e be
       -0.21072316 0.13749436 -0.27650303 -0.3104985
000360 9b 3f cd 3d b8 07 b1 bd b2 4b 28 be 5a 34 b1 3d
       0.100218974 -0.0864405 -0.16435125 0.086525634
000370 a3 6d 29 3d 85 97 1d be ab f3 b3 be 92 6a 49 be
       0.041364323 -0.15389831 -0.3514684 -0.1966956
000380 a2 e9 94 bd 21 d0 e5 bd 5b 5d 1c 3c cd 34 41 be
       -0.072711244 -0.11221338 0.009543742 -0.18867798
000390 c7 87 c5 3d 55 ac 89 bd 4b ff 6b bc 1a 57 bf bd
       0.09645038 -0.06722323 -0.014404128 -0.09342785
0003a0 d0 52 9a 3d 53 50 cd bd 63 c1 a6 3d 61 75 a7 bd
       0.075353265 -0.10025086 0.08142354 -0.08176685
0003b0 bb a6 bb bd c8 6a a6 3c a7 a9 31 3d 54 54 0f 3c
       -0.09162661 0.02031459 0.043374684 0.008748133
0003c0 bf b6 19 3e 90 27 a9 3d f6 e9 e1 3c 1f a8 42 be
       0.15011118 0.08259499 0.027577382 -0.19009446
0003d0 0a b1 72 bd af c1 b9 3d 36 5e d0 bd 77 c4 ca 3d
       -0.05925087 0.09070145 -0.10174219 0.09900754
0003e0 bf 80 5a 3e 63 0d 88 bd ab 12 ec 3d 42 1b b1 3d
       0.21338175 -0.06643178 0.11526998 0.08647777
0003f0 f3 61 2c be 25 b3 4a be 41 2f 5d 3e 50 a2 6a 3e
       -0.1683424 -0.197949 0.21600057 0.2291348

block1.3.conv.bias f4 [4]
000000 c7 98 f5 3d 03 fd c0 3d db fe a5 3d ca 34 51 3c
       0.119920306 0.09423258 0.081052504 0.012768934

block1.3.BN.weight f4 [4]
000000 0b 9e 80 3f ff d8 70 3f 51 d4 91 3f a4 3f 74 3f
       1.0048231 0.9408111 1.1392919 0.9540961

block1.3.BN.bias f4 [4]
000000 44 ea b8 bd 10 f8 18 be 4e f1 34 bd bc 0c e2 3c
       -0.090290576 -0.14938378 -0.04417544 0.027593963

block1.3.BN.running_mean f4 [4]
000000 34 f9 47 3e 79 6e 2f bf bf c5 9b be f0 c5 4e bf
       0.19528657 -0.6852794 -0.30424306 -0.8077078

block1.3.BN.running_var f4 [4]
000000 27 b2 37 3f 7c 0e e9 3e 46 98 de 3e 49 7c 1c 3f
       0.71756214 0.45518863 0.4347555 0.61127144

block2.0.conv.weight f4 [8, 4, 3, 3]
000000 7c c2 d4 bd 7c 5e 02 3e 97 06 4b 3e 4d 29 4a be
       -0.103886575 0.12731355 0.19826733 -0.19742317
000010 36 ab 90 3d 0f 5a 49 3e b9 82 cd bd e1 a9 01 be
       0.07063906 0.19663261 -0.10034699 -0.1266246
000020 13 c5 24 3e c6 e2 9c 3d 68 e9 cf 3d 95 43 ca 3d
       0.16090803 0.07660441 0.101519406 0.098761715
000030 94 eb c2 3d 68 cd f7 bd 3c 4e c1 3d 9e 36 a1 3e
       0.09517589 -0.12099725 0.0943875 0.31486982
000040 23 c8 fd 3d 3b be 0c be 9a 6b 37 3c f2 bd 8a 3d
       0.12391689 -0.13744442 0.011195088 0.067745104
000050 f8 34 e6 bd c4 12 7a 3e 38 b3 57 3e 49 67 a1 bd
       -0.11240572 0.24421221 0.2106446 -0.07881028
000060 53 1a c6 bd 69 f4 66 3e 0a de 47 3e 22 3e 5b 3c
       -0.0967299 0.22554173 0.19518295 0.013381513
000070 1b 73 cf bd ae 3b 1e be 74 f9 50 3e e2 97 56 3e
       -0.101293765 -0.15452453 0.20407659 0.20956376
000080 f9 9b 1d 3c 81 70 0d be e6 e3 a6 3d 6e bb 1f bd
       0.009619706 -0.13812448 0.08148937 -0.038997106
000090 c3 5a 9d 3e 2f 00 70 3e 47 dc 47 bd 92 ad 2c be
       0.30733308 0.2343757 -0.048794057 -0.16863087
0000a0 ed 41 53 3e 08 45 41 be b5 d4 aa bd 74 78 29 bd
       0.20630617 -0.1887399 -0.08341352 -0.04137464
0000b0 9e cf 8f bd 5a a4 7b 3c 04 78 5f be db 32 88 3b
       -0.07022022 0.015359009 -0.21823126 0.004156453
0000c0 db 8a a5 bb 72 2b 34 3c 53 2a 8d 3d 70 5a 0e be
       -0.0050519533 0.010996686 0.06892838 -0.13901687
0000d0 d7 43 40 be 55 b8 95 3d 6a 51 21 be 68 0d 5a 3e
       -0.18775879 0.07310549 -0.15753713 0.21294177
0000e0 46 45 81 3e b5 d7 0d be a9 e0 1d be 92 c1 c4 bc
       0.25248164 -0.13851817 -0.15417732 -0.024018083
0000f0 35 35 0c 3e c2 34 b9 bd 50 38 41 be 06 73 57 3d
       0.13692172 -0.09043266 -0.18869138 0.05259993
000100 c2 0b cd bd 02 ec 83 3d 22 75 76 bb b9 5a 59 3e
       -0.10012008 0.06441499 -0.0037606438 0.21226014
000110 8f ec 59 be 94 8f 84 3d cf 68 60 3e ef 3e f7 bc
       -0.21281646 0.06472698 0.21914981 -0.030181376
000120 eb 86 25 3d a8 b0 a1 3e 33 67 f4 3d d0 2f 14 3e
       0.04041187 0.3158009 0.11933746 0.14471364
000130 73 8b 46 bd 5a 89 23 3c 8c c5 01 3d 34 2f 0d be
       -0.048472833 0.009981478 0.031682536 -0.13787538
000140 6e b0 07 be 97 1e c4 bc 81 07 14 be b9 81 97 bd
       -0.13250896 -0.023940368 -0.14455988 -0.073977895
000150 6c f6 84 bd c3 e4 4a be 5d 6b 15 bd ae c7 9d be
       -0.06492314 -0.19813828 -0.036479343 -0.30816406
000160 ca ca a6 be 00 33 d0 be d2 ef 08 3e 3f 4d 49 be
       -0.3257659 -0.4066391 0.13372734 -0.19658373
000170 97 cc d0 3d c8 3d fc 3c 09 24 3d be ca 10 3e 3e
       0.101952724 0.030791178 -0.18470778 0.18561092
000180 c8 b9 51 3e 95 c3 ce 3c ec d5 fd 3d 89 07 86 bc
       0.20481026 0.025239745 0.12394318 -0.016361015
000190 13 71 fc bc a2 0a ad bd 73 4b 5d 3e 4e 0d c5 3d
       -0.030815637 -0.08449294 0.21610813 0.09621678
0001a0 e7 6e f4 3d a7 be 33 3e 32 da 4a 3d f7 3b e7 bd
       0.119352154 0.17553197 0.049524494 -0.11290734
0001b0 52 bc 21 be 1d aa 25 be 98 48 af bd cf 3c 1d bd
       -0.15794495 -0.16178174 -0.08558768 -0.03838807
0001c0 f1 5f cd 3b e3 c4 bd 3c 6f e6 16 be be 68 07 be
       0.0062675406 0.023165172 -0.14736341 -0.1322355
0001d0 8f 52 3d 3e eb 71 51 3e 5d d8 b2 3e ff f9 23 3e
       0.18488525 0.20453613 0.34930697 0.16013335
0001e0 a9 90 8f bd 74 0a d0 3d 76 21 41 3e b5 b0 3b be
       -0.070100136 0.10158244 0.1886042 -0.18329127
0001f0 99 77 41 be 01 91 13 3e 5d c9 27 be 3b 0b 0e 3d
       -0.18893279 0.14410783 -0.16385408 0.03467868
000200 78 20 2b 3e 07 95 36 3d c2 46 ec bd a4 62 f5 bd
       0.16711605 0.044575717 -0.115369335 -0.11981705
000210 98 e1 e4 3d a6 64 ba 3d 8e ac 8f bd b8 e3 86 3e
       0.11175841 0.091012284 -0.07015334 0.2634561
000220 73 fb 21 3e 47 50 fe 3d 78 fc 4f be f6 a3 e8 bd
       0.15818577 0.124176554 -0.20311153 -0.11359398
000230 2d 03 22 3e fc 60 6c be e0 36 cd 3c 0b 2e 76 be
       0.15821524 -0.23083872 0.02505058 -0.24041001
000240 b3 4f 57 3d 1c c8 19 be 6d c3 a5 3c 77 c9 de 3c
       0.05256624 -0.15017742 0.020234788 0.027195675
000250 8a 95 81 be 96 6f ff bd 27 2b 81 3c ff 0a 60 be
       -0.25309402 -0.12472455 0.015767647 -0.21879195
000260 d4 0f 4f be b8 d6 e8 3a b3 b1 e2 3a 7a a5 0b 3e
       -0.20220882 0.0017764186 0.001729539 0.13637343
000270 0b b4 b2 bc 73 f7 7f 3e e7 ce b5 3e 2a 05 83 3c
       -0.021814367 0.24996738 0.35509416 0.015993673
000280 7f 66 bf bd 2e ef f9 3d aa a1 bc bc 4a 6c 9a 3d
       -0.093457215 0.12203823 -0.023026306 0.07540186
000290 0e 58 1f be bf 6a 36 be 3b 20 49 be e5 16 06 be
       -0.15560934 -0.17814158 -0.19641201 -0.13094671
0002a0 3f 10 03 be c9 9e c6 bc f5 2d 16 be af 4c 73 3d
       -0.12799166 -0.024245637 -0.14665969 0.059399303
0002b0 d5 74 6e 3c 3f 74 12 be aa 7d 64 bd 86 e5 82 3e
       0.014554222 -0.14302157 -0.055783905 0.25565737
0002c0 43 d8 2a 3e 91 6e 8a be e2 a6 28 3e 3b 79 89 3d
       0.1668406 -0.2703748 0.1646991 0.06712576
0002d0 40 1e 9e be 99 b6 29 bd 11 69 1a 3e 94 ad 96 bd
       -0.30882454 -0.041433904 0.15079142 -0.07357326
0002e0 74 a1 3a 3e 94 9f f5 3d dc aa b4 bc fb b2 4a 3e
       0.18225652 0.11993328 -0.022054128 0.19794838
0002f0 b0 c7 83 3a b3 f5 8e bd 36 ca b8 bd 2e 69 51 3d
       0.0010054018 -0.06980457 -0.09022944 0.051125698
000300 d9 11 90 bc 7a 1a 03 3d 12 0d 14 be 56 2a 82 be
       -0.017586635 0.032007672 -0.14458111 -0.25422925
000310 23 1d 9b be 3c d0 42 be 84 01 d7 3d 92 c5 07 3e
       -0.30295667 -0.19024748 0.10498336 0.13258961
000320 ea 8c d6 bd 7d 23 88 be 5b f7 78 3d f9 9a 7b bc
       -0.10476096 -0.26589575 0.06078277 -0.015356773
000330 e4 40 03 be de 36 1b be cc 74 72 bd 92 5e 25 3e
       -0.12817723 -0.15157649 -0.059193417 0.16149357
000340 07 7b ac b9 8c 8b 3a 3e 88 6f 64 be 72 26 ee bd
       -0.0003289806 0.18217295 -0.22308171 -0.116284266
000350 9a 4f 0b 3e b1 e8 d2 3d 36 35 a4 bd 9f 1f 8f be
       0.13604584 0.102982886 -0.08017962 -0.27953812
000360 b9 26 68 bd 9b 36 ef 3d 6e fe 80 3e 7c cc 1a 3e
       -0.056677554 0.11680337 0.25194114 0.15117067
000370 3b 7d e3 3d 12 cb 99 bd 1f dc a9 bd f8 d2 80 bd
       0.1110787 -0.07509436 -0.08293938 -0.06290239
000380 7f f2 18 be df 95 a5 3c 48 de be 3d 33 57 0f be
       -0.14936255 0.020213066 0.093197405 -0.13998108
000390 1b 8e 96 3d c1 1c 6b 3c f6 ad 29 be 82 fa 23 bd
       0.07351323 0.014350117 -0.16570267 -0.040033825
0003a0 c7 3e 51 bd 9f 33 21 be 7b 09 5c 3e a6 94 9d 3e
       -0.05108526 -0.15742348 0.21487992 0.30777472
0003b0 61 00 c6 bd 93 62 05 bd b5 dd 4a bd 7a 73 11 bc
       -0.09668041 -0.03256471 -0.049527843 -0.008877629
0003c0 e0 22 9c be 68 15 a2 be b5 28 03 be a8 51 89 be
       -0.30495358 -0.31656957 -0.12808497 -0.2682011
0003d0 ee c0 8f 3c bb 74 8b bc a2 20 c0 bd d8 d4 9e bd
       0.01754805 -0.017023435 -0.09381224 -0.077554405
0003e0 88 31 37 bb 25 be 1f be 36 bc c1 3d 92 50 7e be
       -0.0027953107 -0.15599878 0.094597265 -0.24835423
0003f0 8f 7c f8 bd ae 5b 0b be 35 08 80 be 57 30 70 be
       -0.12133133 -0.13609192 -0.2500626 -0.2345594

block2.0.conv.bias f4 [8]
000000 1e 87 cc 3d a5 4c 82 bc 98 6b 7c bd d2 0b 3d be
       0.09986709 -0.015905688 -0.061626047 -0.1846154
000010 67 08 e7 bd cc 27 80 3d bb c4 90 3d f8 83 27 be
       -0.112808995 0.06257591 0.07068773 -0.16358936

block2.0.BN.weight f4 [8]
000000 9c 74 7f 3f 0e ae 82 3f 03 a1 5d 3f ea cb 82 3f
       0.99787307 1.0209367 0.8657381 1.021848
000010 1d a2 6e 3f 9e 3b 79 3f 3b 6b 81 3f 8e 47 93 3f
       0.93216115 0.97356594 1.0110849 1.1506212

block2.0.BN.bias f4 [8]
000000 64 13 65 be 9f 8b 40 3c 24 9f 84 bd 58 b1 a7 bd
       -0.22370678 0.011752038 -0.06475666 -0.081881225
000010 18 3d 99 be 41 2c df bd 22 df dd 3d 3b ec 32 3d
       -0.29929423 -0.10897113 0.10833575 0.04368232

block2.0.BN.running_mean f4 [8]
000000 fe da 2b 3f 3c 10 84 bd b1 cd ab bd 0a 36 2d be
       0.6713103 -0.06448409 -0.08388842 -0.16915146
000010 f3 ec de be 85 9a bf be d4 cc c3 be d1 e5 e8 be
       -0.43540153 -0.37422577 -0.3824221 -0.45487836

block2.0.BN.running_var f4 [8]
000000 de 77 da 3e c9 82 8d 3e d9 2d d9 3e 50 b6 a4 3e
       0.42669576 0.27638844 0.4241779 0.32170343
000010 78 c6 e7 3e 7f 4f be 3e 33 cb ac 3e ab 80 c6 3e
       0.45268607 0.37170026 0.3374878 0.3877004

block2.1.conv.weight f4 [16, 8, 3, 3]
000000 08 23 a5 bc e0 6b 12 bd 63 13 83 3e 47 3b 8a be
       -0.020158306 -0.03574741 0.25600728 -0.2699835
000010 64 a3 91 bd ce 9a 3c 3c f5 2f 1f be 76 5f 85 3d
       -0.071112424 0.011511518 -0.15545638 0.06512348
000020 fc 85 05 bd 3b ab 9f 3c 0b cd 14 3d 8b 6a a6 3d
       -0.03259848 0.019490829 0.036328357 0.0812579
000030 ba 98 14 3e 9b fc 9d 3d 21 ec 8f bc ed bc d1 3d
       0.14511386 0.07714196 -0.01756865 0.10241113
000040 35 3f 87 bc 1e 2e 92 3d 5d c5 81 3c 57 15 48 3e
       -0.016509632 0.071377024 0.01584118 0.1953939
000050 44 e6 1c 3e 4f 59 d1 bd 32 88 1f be e7 54 e0 3d
       0.15322214 -0.102221124 -0.15579298 0.10953694
000060 17 5e e2 3d a6 1d e3 bb cb 45 a4 3d 3b 0b 1d be
       0.110531025 -0.0069310246 0.080211245 -0.15336315
000070 e0 3f 06 3d 0b 33 c4 bd 73 0e 19 be dc 23 77 3d
       0.03277576 -0.09580048 -0.14946918 0.060336933
000080 b3 cd ee 3c d3 f2 87 be db e4 42 be b1 b2 2f be
       0.02915082 -0.26552448 -0.19032614 -0.17158009
000090 d5 35 12 3e fb 47 34 3d 4a ab 62 3c a8 cb ca bc
       0.14278348 0.04401396 0.013834784 -0.024755314
0000a0 5a 2f 41 bd 5c f4 17 bd 0f fd 24 3d a9 a1 30 3d
       -0.0471643 -0.037098274 0.040280398 0.04312292
0000b0 1f d2 91 3b 3e 24 16 be 89 94 4a bc 32 48 26 be
       0.004450097 -0.14662263 -0.012364515 -0.16238478
0000c0 05 21 e7 bb 9a 04 64 bd 5a d5 81 3d 5c 9e 07 be
       -0.007053497 -0.05566845 0.06339522 -0.13244003
0000d0 a7 60 53 3c c0 1d 06 be 99 8a 9b 3d 31 af eb 3c
       0.012901462 -0.13097286 0.07594795 0.028770061
0000e0 23 bd dd 3d fd 00 c3 3d f4 7f c2 bd 48 d9 11 3e
       0.108270906 0.09521673 -0.09497061 0.14243042
0000f0 d3 7a da 3d f7 3d a9 bd 16 17 8a bd 69 84 af 3c
       0.10667958 -0.08263772 -0.067426845 0.021425443
000100 39 a0 35 be 8b 01 ac bd 92 ef 58 be d9 f3 ca bd
       -0.17736901 -0.08398732 -0.21185139 -0.099097915
000110 eb ee 7e 3c 2a 88 a6 3e cf 4c bb 3e 88 2d cc 3e
       0.015559892 0.3252576 0.36582038 0.39878488
000120 12 84 40 be a5 6a 99 be b2 f6 d9 bd e4 1d 30 3d
       -0.18800381 -0.29964176 -0.106427565 0.042997256
000130 f4 53 8e bd 95 78 d7 3c b1 a5 16 be 9b 90 da 3d
       -0.069496065 0.026302615 -0.14711644 0.106721126
000140 1d 6b 1e 3e 18 29 36 3e 8a 8e 46 3d 61 13 74 bd
       0.15470548 0.17789114 0.04847578 -0.059588794
000150 d9 70 c8 bd 96 89 db bd d6 c6 8e be 95 a0 48 3d
       -0.09787149 -0.10719602 -0.27886075 0.048981268
000160 99 da 84 bd db 36 1a 3d 66 86 e9 bc c7 5d c8 bd
       -0.06487007 0.03764997 -0.028506469 -0.097835116
000170 78 64 03 3d 2f 90 61 bd cc 0d 87 bd f9 d1 58 be
       0.032078236 -0.055069145 -0.065944284 -0.21173848
000180 9a 38 0b bd de 1d ea 3c 8d 10 95 be cf fc 04 bd
       -0.033989526 0.028578695 -0.2911419 -0.03246766
000190 d0 4d 13 be 7a 27 38 be 1a 09 bc bb ef 9c 07 3e
       -0.14385152 -0.17983809 -0.0057383897 0.13243459
0001a0 1d a6 80 3d 2e d0 c9 bd 12 78 30 3c d8 9d b5 3d
       0.062816836 -0.0985416 0.0107708145 0.08867997
0001b0 49 52 15 3e 6f 97 4f bd f9 e6 1d bd 19 80 59 be
       0.1458217 -0.050681528 -0.03855035 -0.21240272
0001c0 ab d3 d4 bd d5 79 ae be cb 41 f8 3d 95 57 65 3d
       -0.10391935 -0.34077325 0.12121924 0.055991728
0001d0 ca c0 0e 3e e0 21 79 3b 64 e3 95 bb 86 72 81 3d
       0.1394073 0.0038014576 -0.004574226 0.06320672
0001e0 41 53 b4 bd f1 b0 ca bc d3 fd d0 bd 2d 3e 08 be
       -0.08804942 -0.024742575 -0.10204663 -0.13304968
0001f0 bc 21 8b bd 90 37 e2 bd 8b aa 6e bd 88 2d fe 3d
       -0.06793544 -0.11045754 -0.05826811 0.12411028
000200 e6 e9 28 3c 06 21 9b bd af c3 6e be f3 48 ff bd
       0.010309672 -0.07574658 -0.23316835 -0.12465086
000210 ee 79 87 be 68 7e 4b be 9a 7f d7 bd 8e ca 91 3e
       -0.26460212 -0.19872439 -0.10522385 0.2847485
000220 33 6c 74 3d dd 49 95 3d ba 36 29 3e 37 3c 63 be
       0.0596735 0.07289479 0.16524783 -0.22190939
000230 2d 21 25 bd 82 7b 47 3e b8 65 9f 3b 01 12 50 3d
       -0.040314842 0.19480708 0.0048644207 0.05079842
000240 2a 3a 9c 3d 2e b4 a0 bd 7d f8 2c 3e a0 7d 6a bd
       0.076282814 -0.078468665 0.16891666 -0.05724871
000250 7b eb b4 bd 4d c3 2e 3d 61 3a d9 be 3a 9a 7d be
       -0.08833977 0.042666722 -0.42427352 -0.24765864
000260 6c 66 41 3d 1d 56 c0 bd 84 72 13 bd 54 b3 0e be
       0.047216818 -0.09391425 -0.035997882 -0.13935596
000270 34 43 5c be 23 0b 45 3d 18 35 41 3d 2e 74 9f be
       -0.21510011 0.048106324 0.047169775 -0.31143326
000280 79 2a e3 bd 5e 2c 9c bd 4c 45 1a 3d 4b 1a 8a be
       -0.110920854 -0.0762565 0.037663743 -0.26973185
000290 e6 d4 3b 3d db b2 cb bb 72 0a 74 bd 5b 1c 44 3e
       0.045857333 -0.0062163896 -0.059580274 0.19151442
0002a0 06 30 8e 3d ac 3c e9 bd d1 ed 36 bd e9 13 1b bd
       0.069427535 -0.11388525 -0.044660393 -0.037860785
0002b0 c6 51 18 be d6 5d 24 be 3e 82 93 be d5 23 e8 bb
       -0.14874944 -0.1605142 -0.28810304 -0.0070843496
0002c0 e8 05 1c be d5 5c 8f bd 6f 4e 33 be 5e ea 52 be
       -0.15236628 -0.07000128 -0.17510389 -0.20597216
0002d0 b5 06 4b be a5 7c 8d 3e ac 35 6d bd 22 4d c4 bd
       -0.19826777 0.2763416 -0.057912514 -0.095850244
0002e0 dc 2e 12 bd 86 72 2c 3d dd a4 02 b9 05 45 c9 3c
       -0.03568922 0.042101406 -0.00012459182 0.024569044
0002f0 1f d8 17 bd a3 49 a4 bc 39 01 31 3e 01 1e 1e be
       -0.037071344 -0.020054644 0.17285623 -0.15441133
000300 5d 6b 6a be 2d e4 94 bc 56 ca bb bd 8d 95 88 3d
       -0.22892518 -0.018175209 -0.09169452 0.066691495
000310 80 8b d3 3d c0 be 20 bd 27 bc 61 be ce 84 1a be
       0.10329342 -0.039244413 -0.2204443 -0.15089723
000320 05 7a 23 be de a8 1b be 47 59 c0 3d 6c 2a 17 bd
       -0.15964516 -0.15201136 0.09392028 -0.03690569
000330 37 87 9f be 30 40 81 bd f0 61 4d be 90 0c a4 bd
       -0.31157848 -0.06311071 -0.20056891 -0.080102086
000340 de d3 9b 3d 97 40 ec 3d 7a 44 d4 bc 7e 2e 19 3d
       0.0760877 0.11535757 -0.025911558 0.037397854
000350 36 1e 76 3c 01 e1 10 3d 0d 0c 52 bd 55 60 03 be
       0.015021851 0.03537083 -0.051281024 -0.12829717
000360 9d d4 0c 3c 3b ea 2f be fb 61 d4 3d 7d 1c 06 bd
       0.008595613 -0.17179196 0.10370251 -0.032742012
000370 59 07 6f be 6c 74 d7 3d ac 18 98 bc 60 e8 99 bd
       -0.23342647 0.105202526 -0.018566452 -0.07515025
000380 ac 12 47 be 59 06 64 be af e9 1b bd 8f 41 c3 bc
       -0.19440717 -0.22268046 -0.038064655 -0.023834972
000390 74 8c 99 3d d5 20 4e be d5 8e d3 bd 8f 62 b7 3d
       0.074974924 -0.20129712 -0.103299774 0.089543454
0003a0 80 0d 0c be 81 ae 4c 3c 33 23 00 be 83 84 b1 bd
       -0.13677025 0.012492777 -0.12513427 -0.08667853
0003b0 51 cb 28 bd 93 3b 16 be ce 4c 40 be 34 92 89 bd
       -0.041209523 -0.14671163 -0.18779299 -0.06717339
0003c0 6a 21 95 3d c1 25 2d 3b 47 68 3c 3e 7e 46 68 3e
       0.07281764 0.0026420208 0.18399154 0.2268314
0003d0 52 13 18 3e b4 f3 89 be 74 99 8c bb 7c 0a e6 3d
       0.1485112 -0.26943743 -0.004290754 0.112324685
0003e0 50 9d 56 bd 67 d0 7b bc da c8 17 bd 44 22 66 bc
       -0.05239612 -0.015369511 -0.03705678 -0.0140462555
0003f0 f6 b6 22 3e cc fd 5d bd 71 e0 2a bd bf 7b 98 3d
       0.15890107 -0.054197118 -0.04171795 0.07445478

block2.1.conv.bias f4 [16]
000000 9d 52 e1 bd fa 0b 80 3c 26 b1 82 3d da 49 9e bc
       -0.11002085 0.01563071 0.06381445 -0.019322325
000010 6f bb 11 3c c9 f0 9d 3c 00 80 1f be b8 e7 34 bd
       0.008894785 0.019279854 -0.15576172 -0.044166297
000020 65 d7 9a 3d 0f c6 f0 3c a1 4d 3c bd f8 49 22 3e
       0.075606145 0.029391317 -0.04597247 0.1584853
000030 57 d6 68 bd d2 8e 11 be 17 10 1c be 69 0a 27 bd
       -0.056845035 -0.14214638 -0.15240513 -0.040781412
