result/model/0517 1622.pt (torch, 79197 bytes, 98 tensors)

input_conv.conv.weight f4 [4, 1, 3, 3]
0.082767405 -0.24359266 0.51301503 -0.019198218 0.0013707415 0.1581365 -0.10332887 -0.013699737
-0.22664212 -0.35003302 -0.111105755 -0.23449835 -0.08685759 0.4123174 0.0014380928 0.12595318
0.015908118 -0.0429722 0.042817578 -0.38976625 -0.21263646 0.12397065 0.4843226 0.19569668
-0.013826936 0.15886542 0.24487792 0.1692418 0.10746589 0.10465614 0.14050825 0.027205253
-0.16355853 -0.115429826 -0.42394486 -0.27167106
00000000: f581 a93d 5b70 79be f454 033f 9545 9dbc
00000010: 74aa b33a 89ee 213e 169e d3bd dd74 60bc
00000020: df14 68be 8737 b3be 6a8b e3bd 5620 70be
00000030: 64e2 b1bd 441b d33e 637e bc3a dff9 003e
00000040: be51 823c 9e03 30bd 7c61 2f3d 718f c7be
00000050: 5fbd 59be 53e4 fd3d 22f9 f73e b664 483e
00000060: 5f8a 62bc 9ead 223e 47c1 7a3e b94d 2d3e
00000070: 1417 dc3d f555 d63d 65e1 0f3e 8ddd de3c
00000080: e37b 27be 7966 ecbd 4d0f d9be 7818 8bbe

input_conv.conv.bias f4 [4]
0.11395899 0.4841397 0.039244175 0.3568119
00000000: 5563 e93d 29e1 f73e 80be 203d 0db0 b63e

input_conv.BN.weight f4 [4]
1.0333824 0.77749056 1.0106665 1.0329353
00000000: e045 843f 9f09 473f 855d 813f 3937 843f

input_conv.BN.bias f4 [4]
0.16470118 -0.2953698 0.04884195 0.005807435
00000000: 6da7 283e b63a 97be 7f0e 483d 4c4c be3b

input_conv.BN.running_mean f4 [4]
0.121658884 0.4718181 0.03725276 0.36603114
00000000: 4b28 f93d 2492 f13e 5a96 183d 6f68 bb3e

input_conv.BN.running_var f4 [4]
0.056635886 0.08721881 0.42453873 0.20817655
00000000: 08fb 673d c79f b23d 245d d93e 3c2c 553e

block1.0.conv.weight f4 [8, 4, 3, 3]
-0.0367128 -0.030124016 0.090811916 -0.004899305 -0.15921274 -0.25603738 -0.3019018 -0.17701937
-0.15779835 -0.21258634 -0.17712237 -0.15887739 -0.21629518 -0.058394328 0.03255172 0.09065643
0.12256792 -0.009961278 -0.01762732 -0.056138586 -0.034360774 -0.1992225 0.12419229 -0.04222309
0.09570926 -0.058289994 0.10783817 0.17751819 0.013974565 0.20419008 0.03628634 -0.008563698
-0.082133144 -0.21006061 -0.24204457 -0.28082216 -0.25802475 0.07749117 -0.2743107 -0.045669146
0.2299242 0.13567674 0.12832333 0.25505927 -0.07505953 -0.060579672 0.026420377 -0.10937806
-0.10674921 -0.0827495 -0.050353903 -0.03741265 0.107028104 -0.07967839 -0.14925969 -0.020879958
-0.11175145 0.10397379 0.012904479 -0.046605688 0.024392005 -0.13335863 0.12255231 -0.13036346
-0.26929516 -0.06987173 -0.057134528 -0.19169816 -0.09914462 -0.101490684 -0.14625849 0.16479896
0.037779264 0.29178682 0.113054365 -0.13836524 0.16746894 0.13882492 0.003976333 0.026722208
0.119046 0.2567489 0.21174772 0.056191895 0.2593331 -0.028741261 -0.068654 -0.101384744
-0.040275645 -0.33159447 0.12506764 -0.03335941 -0.0052949344 0.15392847 0.1837557 0.098099396
0.064491354 0.11189943 0.044571355 -0.17876777 -0.07074936 -0.059177943 -0.1868737 -0.09800294
-0.162482 -0.07512614 -0.1688365 0.024465935 0.10411898 0.03818691 -0.075178996 -0.12754482
-0.15650451 -0.049320426 -0.09377065 0.04770559 -0.1857553 0.01727123 0.12561285 0.107701644
-0.19387081 -0.15747319 0.07890674 0.13985695 -0.09914883 -0.11661897 -0.122608624 0.14938721
0.2645176 -0.039127875 0.020404465 0.200829 -0.15531968 0.20108509 0.24098805 -0.09156326
-0.16027911 0.013808434 -0.20912859 0.11803052 0.0075298874 0.09703603 0.051497675 -0.07562795
0.25869063 -0.012998908 -0.09250235 -0.042734172 0.24774104 -0.08940788 -0.10203587 0.03625971
0.14466394 0.12496221 -0.09908558 0.11456179 -0.07336241 -0.0074763224 -0.09546878 -0.061702903
0.012944132 -0.07546878 -0.030766232 0.20816633 0.17893279 -0.08565058 0.1985944 0.100363605
-0.21572956 -0.13761024 -0.12539415 0.19931623 -0.20129521 -0.12962137 0.060254473 -0.071384676
-0.0649035 0.065742634 0.17850956 0.012971726 -0.06752567 -0.17987189 0.069675796 -0.14432961
-0.044761892 0.16068009 -0.08550815 0.152913 -0.025933098 0.017940732 -0.033897758 0.14638646
-0.04446485 -0.09365336 -0.022461025 0.21973877 0.06731685 -0.17976266 -0.51575106 -0.058119785
-0.05693806 -0.3479189 -0.28965306 -0.077638954 -0.14793995 0.09971098 -0.121638194 -0.06524583
-0.2321185 -0.10000698 0.06175814 -0.10964194 -0.09970128 0.082337916 -0.016164731 0.106696
0.060411498 0.15147789 0.26372847 -0.07589505 0.10965772 0.07166437 -0.3094261 0.016848821
-0.070961475 -0.12089986 -0.09578281 -0.15042228 -0.05484388 -0.09475934 -0.0837602 0.07036682
-0.1685223 -0.08676339 -0.08335411 0.15707213 0.027655572 -0.25368267 0.0454164 0.14234757
-0.14891672 0.058837555 0.1379978 0.21485911 -0.009815894 -0.14761314 0.22230381 0.077091865
-0.005744817 0.15780874 0.016073702 -0.12911555 -0.07278609 0.18051979 -0.07277661 0.007959192
00000000: 2960 16bd a4c6 f6bc 99fb b93d 598a a0bb
00000010: aa08 23be 5517 83be df92 9abe 9144 35be
00000020: e495 21be 3cb0 59be 915f 35be c1b0 22be
00000030: 7c7c 5dbe e42e 6fbd f454 053d 14aa b93d
00000040: e404 fb3d a134 23bc 2b67 90bc 93f1 65bd
00000050: e2bd 0cbd fc00 4cbe 8758 fe3d 1ef2 2cbd
00000060: 3703 c43d 7dc1 6ebd 42da dc3d 54c7 353e
00000070: 93f5 643c 3417 513e fca0 143d c14e 0cbc
00000080: 6c35 a8bd 211a 57be 88da 77be ecc7 8fbe
00000090: d21b 84be b1b3 9e3d 7472 8cbe 920f 3bbd
000000a0: 4071 6b3e d8ee 0a3e 3167 033e 2197 823e
000000b0: d0b8 99bd 6422 78bd 8c6f d83c 9b01 e0bd
000000c0: 549f dabd 9278 a9bd e53f 4ebd 023e 19bd
000000d0: 8d31 db3d 6c2e a3bd 88d7 18be 720c abbc
000000e0: f2dd e4bd 36f0 d43d 4f6d 533c 9be5 3ebd
000000f0: bed1 c73c 2a8f 08be b5fc fa3d 007e 05be
00000100: 0ee1 89be e918 8fbd e505 6abd 864c 44be
00000110: 560c cbbd 59da cfbd c9c4 15be 0fc1 283e
00000120: 6ebe 1a3d 1565 953e 0c89 e73d 9eaf 0dbe
00000130: fa7c 2b3e 1f28 0e3e e64b 823b 88e8 da3c
00000140: 64ce f33d 9874 833e 65d4 583e 7929 663d
00000150: 4fc7 843e cb72 ebbc 789a 8cbd cea2 cfbd
00000160: 13f8 24bd c0c6 a9be bb11 003e e0a3 08bd
00000170: 2181 adbb 6d9f 1d3e 742a 3c3e 56e8 c83d
00000180: 0b14 843d 872b e53d 7490 363d e60e 37be
00000190: 0ae5 90bd 9264 72bd d25b 3fbe c4b5 c8bd
000001a0: ae61 26be bcdb 99bd 7ae3 2cbe c96c c83c
000001b0: 553c d53d e169 1c3d 72f7 99bd 1c9b 02be
000001c0: b842 20be 3704 4abd d40a c0bd f066 433d
000001d0: a336 3ebe 657c 8d3c a8a0 003e ae92 dc3d
000001e0: 1286 46be a740 21be db99 a13d a936 0f3e
000001f0: 8b0e cbbd edd5 eebd 3b1a fbbd f6f8 183e
00000200: da6e 873e 8d44 20bd 4427 a73c 1ea6 4d3e
00000210: 1f0c 1fbe 40e9 4d3e 92c5 763e 8585 bbbd
00000220: 3520 24be c53c 623c ce25 56be fcb9 f13d
00000230: 46bd f63b d3ba c63d 3aef 523d d4e2 9abd
00000240: 1973 843e 5ff9 54bc df71 bdbd 070a 2fbd
00000250: d4af 7d3e 7b1b b7bd 2ff8 d0bd 1085 143d
00000260: c922 143e 30ec ff3d 61ed cabd 5f9f ea3d
00000270: 083f 96bd f0fb f4bb 2385 c3bd 2fbc 7cbd
00000280: a013 543c 608f 9abd 7709 fcbc 8e29 553e
00000290: 283a 373e 9269 afbd 555c 4b3e 6f8b cd3d
000002a0: 36e8 5cbe b3e9 0cbe 5367 00be 8e19 4c3e
000002b0: 5520 4ebe 77bb 04be 65cd 763d 2132 92bd
000002c0: 20ec 84bd 13a4 863d 36cb 363e 5d87 543c
000002d0: e64a 8abd 5630 38be 2fb2 8e3d 24cb 13be
000002e0: 3f58 37bd 5289 243e e61e afbd 3a95 1c3e
000002f0: a671 d4bc 71f8 923c 60d8 0abd 55e6 153e
00000300: c620 36bd 55cd bfbd 2f00 b8bc 3303 613e
00000310: 6bdd 893d b413 38be 4308 04bf 030f 6ebd
00000320: e237 69bd 6d22 b2be 684d 94be 2c01 9fbd
00000330: 927d 17be 4535 cc3d 721d f9bd 9b9f 85bd
00000340: 79b0 6dbe 76d0 ccbd 1af6 7c3d f48b e0bd
00000350: 2f30 ccbd c8a0 a83d e66b 84bc 6f83 da3d
00000360: 0c72 773d 051d 1b3e 6b07 873e dd6e 9bbd
00000370: 3a94 e03d c5c4 923d 196d 9ebe 8a06 8a3c
00000380: 4054 91bd 599a f7bd c729 c4bd 4c08 1abe
00000390: faa3 60bd 2f11 c2bd 788a abbd 7b1c 903d
000003a0: 1c91 2cbe 01b1 b1bd 8fb5 aabd 84d7 203e
000003b0: f08d e23c b2e2 81be 8c06 3a3d 90c3 113e
000003c0: a07d 18be a6ff 703d 4c4f 0d3e 0704 5c3e
000003d0: d8d2 20bc e627 17be 9ca3 633e 57e2 9d3d
000003e0: 053f bcbb 9d98 213e ffac 833c de36 04be
000003f0: e010 95bd 2eda 383e e70b 95bd 4567 023c

block1.0.conv.bias f4 [8]
-0.0038333796 -0.26979014 0.11278242 0.21024044 -0.102797575 -0.012673077 -0.14146273 -0.20760012
00000000: 7039 7bbb ef21 8abe 78fa e63d 4549 573e
00000010: 8987 d2bd bda2 4fbc 9bdb 10be 2095 54be

block1.0.BN.weight f4 [8]
0.9020855 1.1815987 0.83841956 0.9906164 1.0559984 0.94812316 1.000352 0.9855039
00000000: 13ef 663f a03e 973f aaa2 563f 0999 7d3f
00000010: f52a 873f 33b8 723f 890b 803f fc49 7c3f

block1.0.BN.bias f4 [8]
-0.2223738 -0.058002047 -0.3201379 -0.15437174 -0.10765836 -0.06934306 0.17953917 0.09804361
00000000: f5b5 63be 8e93 6dbd 1de9 a3be a013 1ebe
00000010: fc7b dcbd bc03 8ebd 1ed9 373e 17cb c83d

block1.0.BN.running_mean f4 [8]
-1.2151954 -0.8226919 0.6752707 0.056826882 0.23965456 -1.1467878 0.11693392 -0.23594043
00000000: 868b 9bbf f09b 52bf 8ade 2c3f 4ec3 683d
00000010: 0168 753e f1c9 92bf 0d7b ef3d 5e9a 71be

block1.0.BN.running_var f4 [8]
0.8087963 0.3148451 1.8472873 0.1957062 0.33746895 1.3633876 0.3791853 0.14242336
00000000: 460d 4f3f 6033 a13e e973 ec3f 3567 483e
00000010: bbc8 ac3e 7c83 ae3f 9324 c23e 6ed7 113e

block1.1.conv.weight f4 [16, 8, 3, 3]
-0.019828523 0.09218273 -0.014218083 -0.014098528 0.054793496 -0.001864507 0.059335288 0.20087785
-0.037984647 -0.27473626 -0.18550514 -0.24902448 0.123148546 -0.04961141 -0.14044656 0.0996505
0.15983066 0.16147618 -0.072923 0.031501103 -0.021857498 0.03038943 0.073193826 -0.065763295
-0.02311175 0.05198387 0.033984784 -0.005347495 0.21508409 0.020495001 0.11999969 0.032514792
0.06970209 0.18020107 0.11739354 0.01779357 -0.013531186 0.01661885 0.07561593 -0.24184951
-0.24205288 -0.11656228 -0.10261054 -0.16856715 -0.11640028 -0.17027257 -0.18553764 -0.07788245
0.08741632 0.11981858 0.15289335 0.034870125 0.1883922 0.13190919 -0.11537123 0.06482124
0.042229258 -0.06967238 0.03633545 -0.14342222 -0.13769177 0.048095733 -0.009037058 -0.16969854
-0.14909093 0.116963744 -0.016444162 0.032452162 -0.09701004 0.18435824 0.09912035 -0.0021999904
0.16845876 0.08237788 0.07781065 -0.042338245 -0.0613009 -0.10153204 0.022223992 -0.00053744146
0.031742986 0.17566669 0.30057737 0.27535793 -0.037308976 -0.019525087 -0.11912204 -0.107040845
-0.1893988 -0.19073027 -0.054882992 0.09638564 -0.08797441 0.08775088 0.09252122 0.08696067
0.17652538 -0.015025869 0.08199129 -0.047508217 -0.12734415 -0.20275618 -0.09452649 -0.024350932
0.008900164 0.083638564 0.13753317 0.059903167 0.18353418 -0.0056734774 -0.090430155 0.060681444
0.10035365 -0.0538001 -0.16391493 -0.19216235 -0.15945461 0.02553225 0.059456907 0.052422676
0.07916844 0.04193191 0.0021595187 0.05132091 0.054727625 -0.090825036 0.08137813 -0.09449603
-0.082032345 -0.10850368 -0.007573504 -0.029900325 0.02934108 -0.11536407 -0.11179896 -0.012633393
0.15065204 0.118357964 -0.10630038 0.024478514 -0.034363765 0.033498604 -0.16126284 -0.056755137
-0.04145115 0.18571536 0.08992778 -0.1341614 -0.014051959 0.015871905 0.04711202 -0.15552236
-0.1639874 -0.25264412 0.006205705 0.019241702 -0.054208737 0.002276572 -0.08212744 -0.08251015
-0.0914866 -0.19126828 -0.015974583 0.09562784 -0.0110213095 0.023949608 0.08065994 0.11048075
0.040283922 -0.1285503 -0.10904778 0.056581512 0.1158781 -0.18630108 -0.042865228 0.13546541
-0.022582315 0.01866052 0.054482345 0.034016512 0.01809227 -0.07415171 -0.011217005 0.13424286
0.11284758 0.086431466 0.20197096 0.2718587 0.22988196 -0.0044437787 0.06607191 0.028412478
-0.007518639 -0.11013014 0.0029629064 -0.14599831 -0.16594028 -0.25702667 0.14055151 0.06818551
-0.19024299 0.10696024 -0.02239724 -0.25178707 0.10732359 0.24482985 0.106647216 -0.26079428
-0.10512509 -0.34670246 -0.019686963 0.12880252 0.11391526 -0.0386586 0.15621847 0.29204234
0.17839965 -0.055632465 0.060579784 0.09375709 0.16524133 -0.055025615 0.085875235 -0.19167826
-0.10490902 0.02251523 -0.022633519 0.108754985 -0.13782988 -0.04865779 0.18153267 -0.18703188
-0.24655305 0.1084942 -0.24982837 0.011750144 0.013651288 0.019022992 0.061031125 -0.018677687
0.09801549 0.12021132 -0.07291988 0.052791018 0.20960706 0.1492421 0.050336104 0.15991145
0.07196319 0.030049538 -0.09319217 -0.07780263 -0.047335252 0.16240934 0.25143483 -0.04724234
00000000: 6d6f a2bc 4dca bc3d f6f2 68bc 83fd 66bc
00000010: 256f 603d 7962 f4ba 8f09 733d ecb2 4d3e
00000020: ca95 1bbd 3baa 8cbe 0ff5 3dbe 4600 7fbe
00000030: 4e35 fc3d 5535 4bbd 39d1 0fbe 9015 cc3d
00000040: a6aa 233e 035a 253e a758 95bd 4d07 013d
00000050: 7f0e b3bc 41f3 f83c a5e6 953d e8ae 86bd
00000060: da54 bdbc 0aed 543d a133 0b3d 0a3a afbb
00000070: 013f 5c3e 22e5 a73c 66c2 f53d 3b2e 053d
00000080: f8bf 8e3d a186 383e 066c f03d d2c3 913c
00000090: e8b1 5dbc 4124 883c 86dc 9a3d 66a7 77be
000000a0: b6dc 77be 34b8 eebd 7a25 d2bd de9c 2cbe
000000b0: 4563 eebd ef5b 2ebe 94fd 3dbe d580 9fbd
000000c0: 5407 b33d 7263 f53d 1390 1c3e fad3 0e3d
000000d0: e3e9 403e 3413 073e c047 ecbd 00c1 843d
000000e0: 96f8 2c3d 65b0 8ebd 7bd4 143d 46dd 12be
000000f0: 12ff 0cbe 0800 453d 2b10 14bc 74c5 2dbe
00000100: 4bab 18be b08a ef3d e8b5 86bc 8fec 043d
00000110: 33ad c6bd 68c8 3c3e 9cff ca3d b72d 10bb
00000120: 7480 2c3e bcb5 a83d 315b 9f3d de6a 2dbd
00000130: a716 7bbd 08f0 cfbd 170f b63c 16e3 0cba
00000140: ef04 023d f8e1 333e 47e5 993e b7fb 8c3e
00000150: 4cd1 18bd 13f3 9fbc 42f6 f3bd 3b38 dbbd
00000160: c2f1 41be cc4e 43be fdcc 60bd d665 c53d
00000170: ed2b b4bd bcb6 b33d c47b bd3d 7018 b23d
00000180: 12c3 343e 102f 76bc 0deb a73d fa97 42bd
00000190: 8166 02be 519f 4fbe 1b97 c1bd 9b7b c7bc
000001a0: fed1 113c b24a ab3d 7fd5 0c3e 065d 753d
000001b0: 62f0 3b3e 94e8 b9bb 7233 b9bd 1b8d 783d
000001c0: 3786 cd3d 7e5d 5cbd 51d9 27be 35c6 44be
000001d0: 1248 23be 0229 d13c 1689 733d 29b9 563d
000001e0: 1023 a23d cbc0 2b3d b686 0d3b e035 523d
000001f0: 132a 603d 7a02 babd 94a9 a63d 2287 c1bd
00000200: 9300 a8bd 2d37 debd 282b f8bb 87f1 f4bc
00000210: b45c f03c ff43 ecbd daf6 e4bd 4afc 4ebc
00000220: 8744 1a3e a965 f23d 03b4 d9bd 2a87 c83c
00000230: 05c1 0cbd d535 093d 1622 25be 1378 68bd
00000240: aec8 29bd 2b2c 3e3e 0e2c b83d 9b61 09be
00000250: 303a 66bc cc05 823c 89f8 403d 4141 1fbe
00000260: 50ec 27be 925a 81be 3a59 cb3b c6a0 9d3c
00000270: fb09 5ebd 8a32 153b 6e32 a8bd 15fb a8bd
00000280: 545d bbbd d5db 43be 21dd 82bc 87d8 c33d
00000290: b992 34bc f831 c43c 0a31 a53d bb43 e23d
000002a0: c100 253d b1a2 03be 7154 dfbd 04c2 673d
000002b0: 7f51 ed3d b6c5 3ebe 7393 2fbd 72b7 0a3e
000002c0: 8cfe b8bc f2dd 983c e128 5f3d e654 0b3d
000002d0: 3d36 943c dadc 97bd 87c7 37bc f676 093e
000002e0: a21c e73d fb02 b13d 7ad1 4e3e 1031 8b3e
000002f0: 2d66 6b3e 1e9d 91bb b650 873d 49c1 e83c
00000300: ea5e f6bb e98b e1bd 522d 423b 9580 15be
00000310: 40ec 29be 0099 83be bcec 0f3e d8a4 8b3d
00000320: 0fcf 42be f80d db3d 6b7a b7bc 3cea 80be
00000330: 78cc db3d adb4 7a3e db69 da3d d486 85be
00000340: d34b d7bd fc82 b1be 8e46 a1bc cfe4 033e
00000350: 674c e93d 7b58 1ebd bcf7 1f3e 9386 953e
00000360: 66ae 363e dede 63bd 8222 783d b803 c03d
00000370: 0635 293e 8a62 61bd 5bdf af3d 4e47 44be
00000380: 8ada d6bd dc71 b83c ee69 b9bc efba de3d
00000390: 4723 0dbe 644d 47bd b3e3 393e 4985 3fbe
000003a0: 6778 7cbe 3532 de3d 02d3 7fbe ad83 403c
000003b0: a7a9 5f3c 1bd6 9b3c c6fb 793d f301 99bc
000003c0: 58bc c83d 5a31 f63d 0557 95bd 653b 583d
000003d0: 3ca3 563e ecd2 183e 3b2d 4e3d d4bf 233e
000003e0: 7061 933d 732a f63c 89db bebd fc56 9fbd
000003f0: 9ce2 41bd a24e 263e 11bc 803e 2f81 41bd

block1.1.conv.bias f4 [16]
0.12788707 0.1904066 -0.19350752 0.09896965 -0.08119907 0.09431245 -0.08288524 0.08651835
-0.0017765827 -0.17148599 0.15125176 -0.10801066 -0.03888348 0.060522735 0.03842171 -0.03129792
00000000: d4f4 023e f3f9 423e d626 46be 9ab0 ca3d
00000010: b34b a6bd e326 c13d bdbf a9bd 8830 b13d
00000020: 39dc e8ba 069a 2fbe bee1 1a3e b134 ddbd
00000030: 4944 1fbd b0e6 773d 1560 1d3d 3f32 00bd

block1.1.BN.weight f4 [16]
1.0226799 1.0428126 0.9991448 0.8907397 0.9305944 0.9765987 0.95894 1.0571897
1.0745281 1.0166779 0.98097956 0.79010296 1.154662 1.0197761 1.0227193 0.97699714
00000000: 2de7 823f e27a 853f f4c7 7f3f 8407 643f
00000010: 6f3b 6e3f 5f02 7a3f 187d 753f fe51 873f
00000020: 238a 893f 8022 823f 7a21 7b3f 3044 4a3f
00000030: f7cb 933f 0688 823f 77e8 823f 7c1c 7a3f

block1.1.BN.bias f4 [16]
-0.13191213 -0.27058223 -0.11191055 -0.3439994 -0.01520595 -0.11822101 -0.22084413 -0.0039990684
0.05936434 -0.062193207 -0.09374125 -0.31677863 -0.2647393 -0.050080616 -0.12476915 -0.041350454
00000000: f913 07be c189 8abe 5c31 e5bd b020 b0be
00000010: 6022 79bc db1d f2bd f724 62be 9e0a 83bb
00000020: 0628 733d 4ebe 7ebd 6afb bfbd cf30 a2be
00000030: e98b 87be 5521 4dbd f886 ffbd 185f 29bd

block1.1.BN.running_mean f4 [16]
-0.11571713 0.09693661 -0.21382287 0.87624836 -1.2372737 -0.18417646 -0.54525214 -0.99389374
-0.33143783 -0.7883743 -0.28849328 1.163548 -0.56649417 0.40471116 0.05177261 -0.1904589
00000000: 1afd ecbd b486 c63d 62f4 5abe d051 603f
00000010: fc5e 9ebf c198 3cbe a595 0bbf d26f 7ebf
00000020: 38b2 a9be e6d2 49bf 64b5 93be 24ef 943f
00000030: c305 11bf 4d36 cf3e 840f 543d a807 43be

block1.1.BN.running_var f4 [16]
0.8594528 0.506589 0.79817975 0.36348686 1.3340642 0.7624684 0.80753815 0.7221544
0.57082134 0.7837314 0.5506985 0.77568895 0.53236866 0.5599725 0.45630196 1.1746131
00000000: 1905 5c3f d1af 013f 8255 4c3f f31a ba3e
00000010: 9ec2 aa3f 2131 433f d2ba 4e3f 1cdf 383f
00000020: 5921 123f 9fa2 483f 94fa 0c3f 8d93 463f
00000030: 5049 083f 5c5a 0f3f 69a0 e93e b959 963f

block1.2.conv.weight f4 [8, 16, 3, 3]
-0.103946194 -0.01876261 -0.08181123 -0.119765125 0.041850675 -0.069541134 -0.15019308 0.07299079
0.06328873 -0.05588914 -0.11446137 -0.08810047 -0.021812666 0.02076321 0.08504117 0.010937711
0.017386856 0.024239281 0.21539223 0.21769422 0.1660739 0.075821236 0.028645184 -0.16736183
-0.089554705 -0.16191365 -0.21935454 -0.13456467 -0.2548861 -0.25867105 -0.04541418 0.102307744
0.08965466 -0.01141242 0.1395715 -0.04537849 0.013472289 -0.05578857 0.012790101 0.07006745
-0.049447373 -0.06301301 -0.111097015 -0.102499254 -0.20794068 0.10694081 0.23236047 0.11071037
-0.031291634 -0.079768434 0.12039501 0.06938081 -0.04133321 0.12581357 0.12954558 0.12009188
-0.10923094 -0.10610994 -0.095427886 -0.17705446 -0.14440829 -0.058901664 -0.2454682 -0.008712618
-0.114276655 -0.12031253 -0.054237414 -0.20262177 -0.17452276 -0.058085557 0.10719501 0.053721838
-0.1752276 0.14074975 0.16497783 -0.11893933 -0.04745368 -0.022205846 -0.11522832 -0.112009704
0.066346176 0.14049107 0.15676625 -0.094456665 -0.1401728 -0.04653035 -0.15717553 -0.014394701
-0.010934855 -0.03458451 -0.060867466 -0.027622482 -0.13478172 0.0075410856 0.1639284 -0.003784788
0.0746807 0.16607977 0.13058074 -0.024727523 -0.16081265 -0.17741774 0.13506554 0.012325342
-0.08367309 -0.0763578 -0.110119015 -0.25151923 0.15363899 0.14734806 0.15350296 0.07349216
0.08903821 0.08527495 0.12507474 0.020523757 -0.11198227 -0.11421683 -0.13706808 -0.2624199
0.024837872 0.06615572 0.040714648 -0.032272153 -0.016523354 -0.15075958 -0.009125959 0.055168957
-0.02374882 -0.077376775 0.09248266 0.030657515 -0.07802087 -0.007922682 0.091115944 0.042828795
0.08461093 -0.0009242195 -0.023705695 -0.23004936 -0.15807472 -0.10676542 -0.13200268 -0.09586682
-0.17399168 -0.11590534 0.093529195 -0.11342367 -0.048478577 0.097572066 -0.18155558 -0.094440274
-0.1579959 -0.10392839 -0.024725044 -0.15989152 0.047386523 0.08670877 0.17697738 -0.27536708
-0.13937445 0.18657827 -0.030388584 -0.07761909 0.04255098 -0.10926255 -0.04826571 -0.04119465
0.11495064 -0.016090237 0.03395442 -0.08420542 0.041202575 0.13888441 -0.14935762 -0.16053995
-0.20115238 0.058040082 0.06960491 0.03275278 0.031691298 0.046503287 0.1638565 0.096367374
-0.020290688 0.075716265 -0.065200925 -0.08525159 0.08807017 -0.26815316 -0.16364266 -0.16136497
0.05795676 -0.1411131 -0.004934538 -0.047411393 -0.13329194 -0.07665009 -0.009675859 0.058406383
0.17452042 0.06719239 0.070054024 0.11375365 -0.14457428 -0.05676343 0.0062418724 0.16247723
0.18119718 0.13572451 -0.06780757 -0.019269133 0.08945278 -0.22600846 -0.26872867 0.0011462779
0.082332715 -0.09489297 -0.15566222 0.065284684 -0.042785183 -0.1346714 -0.06895885 -0.1199151
-0.018199129 -0.1432935 -0.018625295 0.25089008 -0.16504014 -0.19695537 -0.098539956 -0.208136
-0.11273802 -0.1005914 0.08439801 0.097254895 0.16428052 -0.02837653 -0.0762428 0.018307427
0.089555256 0.06777708 0.13136894 -0.024276407 -0.07864153 0.09195888 -0.012316136 0.056691356
-0.070497096 0.014359576 0.015851345 0.035076965 0.040325537 0.031437345 -0.12949936 -0.19141468
00000000: bee1 d4bd 0cb4 99bc a58c a7bd 6b47 f5bd
00000010: 9d6b 2b3d 956b 8ebd 37cc 19be 327c 953d
00000020: 869d 813d 03ec 64bd b96a eabd 056e b4bd
00000030: 7ab0 b2bc 9b17 aa3c 112a ae3d 1634 333c
00000040: e16e 8e3c 7591 c63c c88f 5c3e 3ceb 5e3e
00000050: 470f 2a3e 2a48 9b3d 4ea9 ea3c e660 2bbe
00000060: 7568 b7bd b1cc 25be 7a9e 60be 52cb 09be
00000070: 6e80 82be 8870 84be 3804 3abd b986 d13d
00000080: dd9c b73d 29fb 3abc d5eb 0e3e ccde 39bd
00000090: e0ba 5c3c 8e82 64bd 928d 513c 867f 8f3d
000000a0: 5489 4abd f70c 81bd d586 e3bd 21eb d1bd
000000b0: 67ee 54be c903 db3d e7ef 6d3e 1ebc e23d
000000c0: a82b 00bd a25d a3bd a991 f63d 8717 8e3d
000000d0: 034d 29bd 46d5 003e 99a7 043e bbf2 f53d
000000e0: 79b4 dfbd 2b50 d9bd b26f c3bd c44d 35be
000000f0: c4df 13be df42 71bd 045c 7bbe 5ebf 0ebc
00000100: e109 eabd 6a66 f6bd 0d28 5ebd 157c 4fbe
00000110: 18b6 32be 1feb 6dbd 0f89 db3d 6e0b 5c3d
00000120: dd6e 33be b420 103e f3ef 283e 7796 f3bd
00000130: ca5e 42bd 09e9 b5bc d3fc ebbd 5865 e5bd
00000140: 81e0 873d e4dc 0f3e 5587 203e 7f72 c1bd
00000150: 7589 0fbe 9c96 3ebd 9ff2 20be c1d7 6bbc
00000160: 1b28 33bc 7da8 0dbd 2a50 79bd 8b48 e2bc
00000170: 3804 0abe 361b f73b d9dc 273e 350a 78bb
00000180: 32f2 983d d110 2a3e f5b6 053e 6091 cabc
00000190: 12ac 24be ffac 35be 9f4e 0a3e 3bf0 493c
000001a0: cc5c abbd 7a61 9cbd 1486 e1bd 21c7 80be
000001b0: 8a53 1d3e 69e2 163e e12f 1d3e 0f83 963d
000001c0: aa59 b63d a2a4 ae3d 9813 003e 7021 a83c
000001d0: f656 e5bd 83ea e9bd 935b 0cbe e75b 86be
000001e0: cb78 cb3c a67c 873d 67c4 263d ce2f 04bd
000001f0: fc5b 87bc b860 1abe 0c85 15bc d8f8 613d
00000200: e38c c2bc b777 9ebd 8d67 bd3d 7825 fb3c
00000210: 68c9 9fbd 23ce 01bc ff9a ba3d 3f6d 2f3d
00000220: 7f48 ad3d 5247 72ba 7232 c2bc 0f92 6bbe
00000230: 57de 21be d4a7 dabd b62b 07be d355 c4bd
00000240: e02a 32be c75f edbd 3c8c bf3d ab4a e8bd
00000250: 7991 46bd ddd3 c73d b5e9 39be e769 c1bd
00000260: adc9 21be 68d8 d4bd 2d8c cabc 9aba 23be
00000270: 5f18 423d 5e94 b13d 8f39 353e eafc 8cbe
00000280: 2db8 0ebe 600e 3f3e 7bf1 f8bc c2f6 9ebd
00000290: f049 2e3d 0bc5 dfbd 44b2 45bd b9bb 28bd
000002a0: 3e6b eb3d accf 83bc ca13 0b3d e473 acbd
000002b0: 08c4 283d b737 0e3e 34f1 18be 9664 24be
000002c0: e4fa 4dbe 70bb 6d3d 058d 8e3d c727 063d
000002d0: bcce 013d 3b7a 3e3d 00ca 273e 425c c53d
000002e0: a838 a6bc 2111 9b3d 1088 85bd 6398 aebd
000002f0: 225e b43d 5f4b 89be f191 27be dc3c 25be
00000300: 1164 6d3d f47f 10be e8b1 a1bb 7332 42bd
00000310: af7d 08be b9fa 9cbd 7e87 1ebc 883b 6f3d
00000320: 7bb5 323e 2a9c 893d 7c78 8f3d acf7 e83d
00000330: 480b 14be c580 68bd 9f88 cc3b 6e60 263e
00000340: c18b 393e 5efb 0a3e b2de 8abd 4dda 9dbc
00000350: 0533 b73d c36e 67be ce96 89be b43e 963a
00000360: 0e9e a83d 3f57 c2bd eb65 1fbe fab3 853d
00000370: 843f 2fbd 4de7 09be 4c3a 8dbd 0c96 f5bd
00000380: 5716 95bc 88bb 12be 1394 98bc aa74 803e
00000390: 4800 29be abae 49be 51cf c9bd 9b21 55be
000003a0: 31e3 e6bd dd02 cebd ddd8 ac3d 932d c73d
000003b0: 2739 283e e675 e8bc 2f25 9cbd 75f9 953c
000003c0: bf68 b73d b6ce 8a3d 9485 063e 51df c6bc
000003d0: cf0e a1bd f054 bc3d 9ec9 49bc 3235 683d
000003e0: c860 90bd 6d44 6b3c aeda 813c ddac 0f3d
000003f0: 642c 253d 72c4 003d 7b9b 04be 3602 44be

block1.2.conv.bias f4 [8]
-0.075004846 0.051211584 0.077478535 -0.041436538 0.01707189 -0.08788918 -0.058250323 0.0984248
00000000: 249c 99bd 3dc3 513d 11ad 9e3d 5cb9 29bd
00000010: 59da 8b3c 3eff b3bd e497 6ebd f192 c93d

block1.2.BN.weight f4 [8]
1.0636991 0.96284115 0.93142235 0.9407464 0.96698034 1.1495428 1.01079 1.0118033
00000000: 4b27 883f c27c 763f b271 6e3f c2d4 703f
00000010: 068c 773f 3824 933f 9161 813f c582 813f

block1.2.BN.bias f4 [8]
-0.12948437 -0.18978041 -0.20590028 -0.14809567 -0.044809867 -0.13673459 -0.13151245 -0.20032427
00000000: 8d97 04be cc55 42be 86d7 52be 64a6 17be
00000010: 8d8a 37bd 2704 0cbe 33ab 06be ce21 4dbe

block1.2.BN.running_mean f4 [8]
-1.0253775 -0.8180559 -1.0965275 0.3070785 -0.64330643 -0.075970694 0.79707444 -1.2192562
00000000: 923f 83bf 1d6c 51bf 035b 8cbf 6539 9d3e
00000010: bbaf 24bf 8696 9bbd 120d 4c3f 9610 9cbf

block1.2.BN.running_var f4 [8]
1.1351918 0.64353514 1.8575776 1.2808723 1.2794732 0.940821 1.5144391 1.0058398
00000000: f74d 913f b8be 243f 1ac5 ed3f a0f3 a33f
00000010: c7c5 a33f a5d9 703f 24d9 c13f 5cbf 803f

block1.3.conv.weight f4 [4, 8, 3, 3]
-0.048964538 -0.12381231 -0.38982075 0.039524324 -0.068888366 -0.24553953 0.022781322 -0.17575957
-0.12783389 0.10044176 0.18802221 0.17667766 -0.012604213 -0.23878105 0.014540466 -0.04327771
-0.06156695 0.1787836 0.15618947 0.030248037 -0.054458283 -0.032986365 -0.11576222 -0.031711828
0.101459324 0.1928101 -0.039096754 0.123505704 0.1238631 0.023270499 -0.09373835 -0.07999818
-0.0014404061 -0.2232463 -0.084412634 -0.10149445 0.05158132 -0.10325845 0.13218044 0.119109266
-0.07887842 -0.1155476 0.077984065 0.14152169 0.18005931 -0.12955688 0.10919978 -0.14731544
0.11917583 0.14248693 -0.023033729 -0.20550367 0.047763683 0.18571258 0.105621874 -0.009902736
-0.08279448 0.094079636 -0.0018969326 -0.010888372 0.0074021914 0.060081467 0.076119855 0.08107162
0.22913991 0.18355687 0.13832809 0.020564603 0.11312753 -0.1280823 0.038682505 -0.00944687
-0.21035068 -0.08766597 0.1374392 -0.03511781 0.07265838 -0.02490857 0.004973506 -0.1793956
-0.13583829 -0.16462533 -0.015519206 0.007289364 -0.10953481 0.11606939 0.11133083 -0.25262395
-0.05045291 0.06545435 -0.057319153 -0.0728294 0.0006106192 -0.016218739 -0.07152626 0.05014544
-0.0061483197 0.07692524 0.16088949 0.0654707 0.06858349 0.12463354 -0.29599705 -0.08727446
-0.036035918 -0.065557346 0.081426725 0.10842646 0.15160364 0.097945005 0.09891781 0.048286296
-0.15789013 0.19635136 -0.091075785 -0.13765454 -0.037694745 0.03535723 -0.18253241 -0.15406716
0.054577775 -0.03222061 -0.04355092 0.09831556 0.0557269 -0.08468345 -0.022491826 0.009442229
0.07474946 0.08591657 -0.16995202 -0.3408811 -0.20316914 -0.17918938 -0.47406304 0.06731779
0.045502245 -0.05891576 -0.13404071 -0.011011049 0.077719584 -0.18987133 -0.02153518 -0.07153308
0.1936908 0.13739699 0.16457717 -0.03276661 -0.078993894 0.019280976 -0.010866619 0.16921373
0.016098125 -0.04624354 -0.012909851 0.11994152 -0.10819 -0.22069393 0.00029021932 -0.042121895
-0.030825129 -0.15165891 -0.06289809 0.009637838 -0.08622171 -0.076631546 0.08354138 -0.034217
-0.027851474 0.077316605 0.118621394 0.10023552 0.062893495 0.0041751475 -0.1237333 -0.0016986866
0.042984862 0.10498303 -0.06300589 -0.17467709 -0.053997263 -0.14183196 0.009331438 -0.19466947
-0.23509137 -0.19957261 -0.018150365 -0.11076948 -0.09075938 0.1671648 -0.044992864 -0.07825904
0.22675711 0.03673489 -0.19315045 0.15400533 -0.08191558 -0.006992837 -0.11036782 -0.13198355
-0.094278105 -0.051830083 -0.12420459 -0.12303334 -0.12766908 -0.17962928 -0.24389008 -0.0025612745
-0.10082643 0.02943448 0.034361158 0.056000005 -0.010190775 0.26411483 0.32406527 0.08439689
0.030126713 0.15449741 -0.038505998 0.04327574 -0.10905127 -0.20748207 0.15209876 0.087960035
0.035048828 0.023307968 -0.12668139 -0.13078073 0.07122031 0.08484279 0.068409674 0.03693071
0.04142341 0.077132426 0.1488407 -0.03596425 -0.10331275 0.1299073 0.11139676 0.013397045
-0.032085788 -0.33831096 -0.29499057 -0.015514229 -0.0679165 -0.21649753 -0.10673627 -0.06707045
0.14262311 0.029726071 -0.15629154 -0.11930014 0.15574564 0.055677727 0.0019238915 0.0024915037
00000000: 0a8f 48bd 4f91 fdbd 9696 c7be 42e4 213d
00000010: 5815 8dbd b76e 7bbe e59f ba3c 51fa 33be
00000020: e3e6 02be 69b4 cd3d e588 403e fdea 343e
00000030: e781 4ebc 0583 74be 223b 6e3c f843 31bd
00000040: a02d 7cbd 0c13 373e 22f0 1f3e bbca f73c
00000050: a60f 5fbd b61c 07bd be14 edbd 43e4 01bd
00000060: e8c9 cf3d 0370 453e eb23 20bd 8ff0 fc3d
00000070: f0ab fd3d c6a1 be3c e4f9 bfbd 16d6 a3bd
00000080: 02cc bcba ae9a 64be 88e0 acbd 52dc cfbd
00000090: ef46 533d 2b79 d3bd 4f5a 073e 8fef f33d
000000a0: 028b a1bd 38a4 ecbd 1cb6 9f3d 10eb 103e
000000b0: 7861 383e 8faa 04be 22a4 df3d dcd9 16be
000000c0: 7512 f43d 18e8 113e 3bb1 bcbc 8e6f 52be
000000d0: daa3 433d 702b 3e3e 4850 d83d 163f 22bc
000000e0: 2790 a9bd d3ac c03d 7fa2 f8ba 2465 32bc
000000f0: 158e f23b fc17 763d bae4 9b3d e108 a63d
00000100: a7a3 6a3e 55f6 3b3e e1a5 0d3e 1977 a83c
00000110: 68af e73d 0228 03be 8c71 1e3d 0bc7 1abc
00000120: 2b66 57be 378a b3bd ddbc 0c3e b1d7 0fbd
00000130: ebcd 943d 0f0d ccbc cbf8 a23b 7bb3 37be
00000140: 3119 0bbe 8b93 28be 4544 7ebc 9edb ee3b
00000150: c953 e0bd cab5 ed3d 6b01 e43d ed57 81be
00000160: b6a7 4ebd ee0c 863d 7dc7 6abd 9527 95bd
00000170: f611 203a 29dd 84bc 5c7c 92bd 4e65 4d3d
00000180: d877 c9bb fb8a 9d3d 37c0 243e 8115 863d
00000190: 8075 8c3d df3f ff3d ed8c 97be f4bc b2bd
000001a0: 669a 13bd ee42 86bd 0ec3 a63d b10e de3d
000001b0: fc3d 1b3e 6497 c83d 6c95 ca3d dac7 453d
000001c0: f3ad 21be 5510 493e f185 babd 50f5 0cbe
000001d0: ce65 1abd bed2 103d c7e9 3abe c8c3 1dbe
000001e0: f28c 5f3d c2f9 03bd 7362 32bd ab59 c93d
000001f0: e441 643d 846e adbd c740 b8bc 94b3 1a3c
00000200: 3f16 993d 07f5 af3d e707 2ebe f887 aebe
00000210: 920b 50be 6c7d 37be 64b8 f2be e9dd 893d
00000220: 9060 3a3d a751 71bd f841 09be b067 34bc
00000230: 722b 9f3d a16d 42be 8c6a b0bc ef7f 92bd
00000240: e256 463e ccb1 0c3e eb86 283e 4836 06bd
00000250: 8dc7 a1bd 23f3 9d3c e709 32bc 5d46 2d3e
00000260: 37e0 833c de69 3dbd d783 53bc e6a3 f53d
00000270: b892 ddbd 97fd 61be 9428 9839 0288 2cbd
00000280: fb84 fcbc 794c 1bbe b7d0 80bd 06e8 1d3c
00000290: 0295 b0bd 00f1 9cbd be17 ab3d 2027 0cbd
000002a0: c628 e4bc 2b58 9e3d c6ef f23d 4848 cd3d
000002b0: 4ece 803d adcf 883b e267 fdbd 77a6 deba
000002c0: e510 303d 5801 d73d 3b09 81bd 8dde 32be
000002d0: 3c2c 5dbd 663c 11be e3e2 183c 6f57 47be
000002e0: cbbb 70be c35c 4cbe 13b0 94bc 1cdb e2bd
000002f0: 0ee0 b9bd 402d 2b3e 704a 38bd 4746 a0bd
00000300: 0433 683e 5377 163d 3bc9 45be 93b3 1d3e
00000310: 5bc3 a7bd 2b24 e5bb 8608 e2bd b226 07be
00000320: e114 c1bd c84b 54bd fa5e febd e7f8 fbbd
00000330: afbb 02be bdf0 37be 52be 79be 0edb 27bb
00000340: 167e cebd 9420 f13c 49be 0c3d 4360 653d
00000350: 35f7 26bc 0f3a 873e e2eb a53e 47d8 ac3d
00000360: 4ccc f63c 9234 1e3e 77b8 1dbd e741 313d
00000370: 4656 dfbd 2e76 54be c7bf 1b3e 6424 b43d
00000380: 5c8f 0f3d 5af0 be3c c4b8 01be 62eb 05be
00000390: f4db 913d 0fc2 ad3d 5f1a 8c3d a844 173d
000003a0: 98ab 293d 9bf7 9d3d b269 183e 404f 13bd
000003b0: a395 d3bd 6b06 053e fc23 e43d 487f 5b3c
000003c0: 636c 03bd 1837 adbe 0109 97be 652f 7ebc
000003d0: ce17 8bbd 87b1 5dbe 8c98 dabd 3b5c 89bd
000003e0: cb0b 123e 1784 f33c e40a 20be a253 f4bd
000003f0: c97b 1f3e 540e 643d 162b fc3a 7f48 233b

block1.3.conv.bias f4 [4]
0.044113588 0.054108493 -0.07732791 -0.101217374
00000000: 73b0 343d dea0 5d3d 185e 9ebd 0e4b cfbd

block1.3.BN.weight f4 [4]
0.9502968 0.97669107 0.9225391 1.1879467
00000000: a746 733f 6d08 7a3f 862b 6c3f a30e 983f

block1.3.BN.bias f4 [4]
-0.1627068 0.22845618 0.00054604857 0.127646
00000000: 9d9c 26be 6bf0 693e b324 0f3a a2b5 023e

block1.3.BN.running_mean f4 [4]
0.1770507 -0.63407695 -0.55426854 -0.58683276
00000000: c74c 353e de52 22bf 8be4 0dbf ac3a 16bf

block1.3.BN.running_var f4 [4]
0.39406976 1.3049979 2.0494876 1.1597526
00000000: 83c3 c93e 2c0a a73f ce2a 0340 c672 943f

block2.0.conv.weight f4 [8, 4, 3, 3]
0.14716734 0.051386688 0.030184783 -0.15944856 0.2571556 0.07267796 0.0195931 0.09803066
0.20511061 -0.023928985 -0.005471594 -0.19551681 -0.10268547 0.03530954 -0.09314276 -0.2915996
-0.3518072 -0.063743256 0.16937883 0.06886458 0.022227269 -0.071433686 -0.12194229 -0.33971718
-0.22505216 -1.0203651e-05 -0.007871597 -0.08936313 0.10458996 0.12302785 0.019882977 -0.2230969
0.17650422 -0.11090347 -0.17802416 -0.26176804 -0.17778897 -0.046828885 -0.29022643 0.15813443
0.06698658 -0.037767425 0.23180549 -0.14614521 0.09600166 0.13447297 -0.016410816 -0.10966201
0.29221812 -0.0057732677 0.049495205 0.020826729 0.10107308 0.05202163 -0.013392636 0.10719511
-0.09004293 -0.16853543 -0.029541211 0.033614565 0.12265132 -0.065291435 0.15893576 0.18335891
0.3537647 0.29620764 0.013373801 0.092138335 0.06801955 -0.11470719 -0.044462986 0.024200184
0.12940548 0.46143618 0.32113177 0.015207292 0.042552512 -0.14509785 0.026397081 0.030784106
0.01469238 -0.04101473 0.030908218 -0.12283039 0.018053956 0.06323608 -0.09296623 0.09837708
0.016316798 -0.14898214 0.006104485 0.06926282 0.10334104 -0.03660154 0.07132126 -0.284696
-0.091823556 -0.33923417 -0.21136211 0.031691875 0.26181367 0.072720334 0.09168085 -0.07488198
0.11023589 0.14053327 0.05625114 -0.14298044 -0.11081685 -0.038903814 -0.18411545 -0.09168233
0.013164603 -0.12379314 -0.08501798 -0.17130758 -0.014990638 -0.12834634 -0.055009324 0.09351784
-0.25040895 -0.065287575 0.053526606 0.15353619 -0.15415694 -0.19414449 0.07609567 -0.057381734
0.16610731 0.08360977 -0.06361282 0.037500884 0.25089312 0.112985775 0.23403554 0.20338862
0.13921084 0.017652627 0.26690668 -0.094690315 -0.013153823 0.298105 -0.07256454 -0.07249311
-0.057978947 -0.0911103 -0.22216225 -0.17162047 -0.2786793 -0.073154874 0.19106296 0.088312134
-0.09163248 0.12239222 -0.029613813 -0.18907163 -0.13179395 0.19794285 -0.094131455 -0.17116918
0.24487455 0.20378591 0.12413121 -0.04950923 -0.027503278 0.018594855 0.1198669 0.16105996
-0.27384424 0.15602908 0.088519685 -0.12169538 -0.102898985 -0.11991808 -0.05694954 -0.06417753
0.081729196 -0.02781226 0.1585439 0.04987734 -0.035254925 0.03340584 0.13181295 0.045281824
0.07031119 0.21205027 -0.23630951 -0.13110182 -0.09616536 -0.10978991 0.11377463 -0.21917173
-0.10374574 0.026345873 0.024884736 -0.036036417 0.047093675 -0.18857335 -0.20416534 -0.2267585
-0.26435956 0.0949563 0.059001736 0.117068976 -0.0068499586 -0.046488788 -0.0985319 -0.14753087
-0.18191649 -0.027522923 0.21419242 0.14490011 0.057822604 -0.1356174 -0.22556143 -0.42256287
0.07346755 -0.014402441 0.18429977 -0.080281824 -0.17218502 -0.016983392 0.085007355 -0.20949598
0.061148886 -0.060693134 0.16696025 -0.029146368 -0.14759795 -0.15173563 -0.21198319 0.28717917
0.14936781 -0.027074227 0.020988246 -0.12250109 -0.17290667 -0.005620209 -0.010491614 0.26691508
0.07887836 0.14653039 0.038081117 -0.18754402 0.067077525 -0.17511243 -0.090669766 0.26819247
0.3046539 -0.35276178 -0.26108313 -0.15719336 -0.26135752 0.014887525 -0.20179199 -0.17300235
00000000: 09b3 163e d97a 523d 1446 f73c 7c46 23be
00000010: e6a9 833e 2fd8 943d b581 a03c 4cc4 c83d
00000020: 8408 523e b806 c4bc 0f4b b3bb 8f35 48be
00000030: c24c d2bd bca0 103d a2c1 bebd 8b4c 95be
00000040: 1320 b4be d38b 82bd a571 2d3e df08 8d3d
00000050: f615 b63c d34b 92bd e1bc f9bd 69ef adbe
00000060: 1374 66be 5930 2bb7 dff7 00bc 0404 b7bd
00000070: 4333 d63d 07f6 fb3d a0e1 a23c 8473 64be
00000080: 86bd 343e 5c21 e3bd f74b 36be 7606 86be
00000090: 500e 36be a5cf 3fbd 8f98 94be feed 213e
000000a0: 4330 893d 04b2 1abd 6b5e 6d3e 17a7 15be
000000b0: 859c c43d 48b3 093e fa6f 86bc 7a96 e0bd
000000c0: 9d9d 953e ae2d bdbb 7cbb 4a3d d19c aa3c
000000d0: 67ff ce3d a214 553d c96c 5bbc 1c89 db3d
000000e0: 6d68 b8bd 8d94 2cbe 6900 f2bc 6daf 093d
000000f0: 9e30 fb3d 84b7 85bd 0ec0 223e 70c2 3b3e
00000100: a620 b53e 87a8 973e c91d 5b3c 06b3 bc3d
00000110: d54d 8b3d 9aeb eabd d21e 36bd 773f c63c
00000120: df82 043e 5d41 ec3e 626b a43e 0128 793c
00000130: 8b4b 2e3d 8894 14be b13e d83c f32e fc3c
00000140: 4fb8 703c 10ff 27bd 3b33 fd3c 808e fbbd
00000150: e4e5 933c eb81 813d 1465 bebd ec79 c93d
00000160: ceaa 853c c68e 18be 2208 c83b aad9 8d3d
00000170: 78a4 d33d 7feb 15bd e110 923d adc3 91be
00000180: fd0d bcbd 1ab0 adbe 4f6f 58be 57cf 013d
00000190: 710c 863e 66ee 943d 2bc3 bb3d b95b 99bd
000001a0: 5bc3 e13d f4e7 0f3e 9867 663d 7769 12be
000001b0: f2f3 e2bd 9b59 1fbd c388 3cbe f2c3 bbbd
000001c0: 59b0 573c 4287 fdbd e81d aebd 416b 2fbe
000001d0: 4b9b 75bc 396d 03be 7551 61bd 4886 bf3d
000001e0: 9a35 80be 7eb5 85bd b73e 5b3d 9738 1d3e
000001f0: 51db 1dbe d0cd 46be 0cd8 9b3d 1c09 6bbd
00000200: 0918 2a3e 993b ab3d 7047 82bd 879a 193d
00000210: 1075 803e 1665 e73d 03a7 6f3e 1b45 503e
00000220: 498d 0e3e 3e9c 903c fea7 883e ffec c1bd
00000230: 2283 57bc 38a1 983e b89c 94bd 4577 94bd
00000240: 557b 6dbd 0998 babd 807e 63be 47bd 2fbe
00000250: 0eaf 8ebe 39d2 95bd 02a6 433e fedc b43d
00000260: cfa9 bbbd c6a8 fa3d ab98 f2bc fe9b 41be
00000270: fef4 06be 88b1 4a3e fec7 c0bd f946 2fbe
00000280: 65c0 7a3e 41ad 503e 8138 fe3d 31ca 4abd
00000290: 8e4e e1bc 3d54 983c c77c f53d e7ec 243e
000002a0: 5035 8cbe 16c6 1f3e cf49 b53d 6d3b f9bd
000002b0: b4bc d2bd 9c97 f5bd ec43 69bd 826f 83bd
000002c0: a361 a73d 89d6 e3bc 5559 223e 2f4c 4c3d
000002d0: 7867 10bd 90d4 083d f9f9 063e 6f79 393d
000002e0: 50ff 8f3d b523 593e 1ffb 71be 8e3f 06be
000002f0: 58f2 c4bd 88d9 e0bd ac02 e93d 8e6e 60be
00000300: a678 d4bd 4dd3 d73c 13db cb3c ec9a 13bd
00000310: 4ce5 403d 5f19 41be b810 51be 6133 68be
00000320: 235a 87be 7378 c23d ceab 713d dcc1 ef3d
00000330: 9e75 e0bb 076b 3ebd 18cb c9bd 5512 17be
00000340: 5148 3abe c177 e1bc 4255 5b3e b260 143e
00000350: 65d7 6c3d 4adf 0abe 93f9 66be 295a d8be
00000360: 2876 963d 37f8 6bbc 14b9 3c3e cc6a a4bd
00000370: 4551 30be c120 8bbc 5618 ae3d 1d86 56be
00000380: 4177 7a3d 5d99 78bd a1f7 2a3e 5dc4 eebc
00000390: eb23 17be 9660 1bbe 1f12 59be 2609 933e
000003a0: e0f3 183e c5ca ddbc 8bef ab3c dae1 fabd
000003b0: 720e 31be bb29 b8bb 05e5 2bbc 18a9 883e
000003c0: fa8a a13d 100c 163e f2fa 1b3d 8a0b 40be
000003d0: f15f 893d ac50 33be 12b1 b9bd 8650 893e
000003e0: 99fb 9b3e 319d b4be b0ac 85be 4cf7 20be
000003f0: a7d0 85be ceea 733c 8fa2 4ebe 8727 31be

block2.0.conv.bias f4 [8]
0.10496494 -0.1287375 0.2540403 0.034605317 -0.16670297 0.09151582 0.048374083 0.049681004
00000000: dcf7 d63d c3d3 03be 9211 823e 4ebe 0d3d
00000010: 2fb4 2abe a56c bb3d e723 463d 4f7e 4b3d

block2.0.BN.weight f4 [8]
0.95665497 0.9517702 0.9561012 0.81487656 0.89968556 1.0759386 1.1970427 0.92327833
00000000: 57e7 743f 36a7 733f 0cc3 743f c09b 503f
00000010: cb51 663f 5bb8 893f b238 993f f85b 6c3f

block2.0.BN.bias f4 [8]
-0.06865367 -0.14327344 0.01147344 -0.17748055 -0.077472955 -0.0921964 0.02275683 -0.20019443
00000000: 4c9a 8cbd 46b6 12be 18fb 3b3c 76bd 35be
00000010: 24aa 9ebd 77d1 bcbd 886c ba3c c5ff 4cbe

block2.0.BN.running_mean f4 [8]
-0.6056551 0.53002113 0.43873847 0.12544844 -0.26063427 -0.6364966 -0.20941627 -0.96728843
00000000: 360c 1bbf 77af 073f 54a2 e03e 8e75 003e
00000010: db71 85be 71f1 22bf 3871 56be 37a0 77bf

block2.0.BN.running_var f4 [8]
0.5242934 0.27473056 0.29432577 0.31693974 0.22233829 0.3224662 0.2080728 0.2618495
00000000: 1838 063f 7ca9 8c3e deb1 963e ed45 a23e
00000010: a6ac 633e 4a1a a53e 0911 553e 2311 863e

block2.1.conv.weight f4 [16, 8, 3, 3]
0.08233918 -0.018178092 0.1465495 -0.18826835 -0.13576326 -0.026997969 -0.0789828 -0.24858147
-0.19052872 -0.10463732 -0.081998885 -0.09656117 0.10625141 0.09977506 -0.030775974 0.05763382
0.10292676 -0.050134357 0.20616764 0.03271187 0.11333138 -0.14200854 0.03901667 -0.016691048
-0.17052303 -0.018583152 0.024993097 -0.1317359 -0.017167896 -0.11455393 0.0047142035 0.11580891
0.05106171 -0.1365211 -0.14389883 -0.048779078 -0.1263043 0.07685117 0.16192313 -0.22167195
-0.18255055 0.015145534 -0.08812713 0.0009541042 -0.008505764 0.17644344 0.2403762 0.14357792
-0.07151487 0.035444856 -0.08849783 -0.10501827 -0.069115005 -0.09210352 0.15172644 0.21107155
0.061631486 -0.07373299 -0.118825264 -0.13064528 -0.047378313 0.1398505 0.29402772 -0.06455729
-0.116624124 -0.07791374 0.04360164 0.006366392 0.13014153 -0.11984732 0.09429456 0.0095634535
-0.09756198 -0.04691585 -0.18992324 -0.107728995 -0.19988653 -0.19889326 -0.11875167 -0.0719422
-0.06138028 0.18646461 -0.01797654 0.22876237 0.0037059982 0.038453177 0.038996015 0.01131287
0.1262619 0.15810528 0.025000708 0.07709407 0.0104384255 0.0728993 -0.11132125 0.1061372
0.002973136 0.015320126 -0.079436116 -0.03471491 -0.07619885 0.09333242 0.15906529 -0.11063254
-0.029276347 0.10934666 0.0687359 0.18594764 0.028654948 0.027189583 -0.0068663466 0.039224803
-0.029134102 0.023700966 -0.023944916 -0.06159265 0.05852861 -0.2005208 -0.17225516 -0.1331994
-0.23404655 -0.15945858 -0.24678901 0.01777098 0.05672237 -0.07724007 0.18442883 0.026811006
-0.09797346 -0.06161891 -0.07815227 -0.28066313 0.15305413 -0.00012983904 0.012660138 -0.22061479
0.15250143 0.1078654 0.08006146 -0.12238419 -0.20964924 -0.2402164 -0.3188675 -0.3982398
0.042078502 -0.04398536 0.011880754 -0.2145754 -0.13810615 -0.17237405 -0.29141155 -0.079064935
-0.06699327 -0.13734989 -0.1749078 -0.23890482 0.06529034 -0.02324215 -0.048300624 0.107707195
0.09076672 0.13645458 0.05750084 -0.046265367 0.18949485 -0.1445265 -0.12836926 0.014963529
-0.07551834 -0.12368976 -0.05789016 -0.023540119 0.1152884 -0.015030382 0.12528192 0.02863966
-0.04506748 0.13172658 -0.039438207 -0.087950066 -0.11459841 0.14773351 0.14264125 -0.12679683
0.031098736 0.140673 -0.04614681 0.21213312 0.18026076 -0.018051028 0.16423926 0.16525225
-0.07663509 -0.15903936 -0.05557702 -0.29518744 -0.20298679 -0.16415665 0.11943136 0.2216988
0.12017475 -0.20853195 0.008975195 -0.091576755 -0.061029848 -0.004970989 -0.009189052 -0.06515422
-0.048840165 -0.047572922 0.08250624 -0.14180464 -0.04173625 0.01858572 -0.049273524 -0.14096831
-0.053695455 0.044100005 -0.015310229 0.10733815 0.16348742 0.12867859 0.026182178 0.22868907
0.29356897 0.18210052 0.06386567 0.13510877 -0.03325405 -0.055363968 0.085434645 -0.15205598
-0.18972181 -0.037896316 -0.0418734 -0.10328839 -0.20517136 -0.104313605 0.04046954 -0.19030616
0.07065863 0.1921096 0.078303516 -0.016845463 0.06243761 -0.110135436 0.0750979 0.054322615
0.013753522 0.05247215 0.110572584 0.010562007 -0.06020247 -0.07387348 0.088784486 0.069128774
00000000: 72a1 a83d 39ea 94bc 1211 163e 6bc9 40be
00000010: 8605 0bbe d82a ddbc bcc1 a1bd 248c 7ebe
00000020: f619 43be 174c d6bd 08ef a7bd ddc1 c5bd
00000030: 579a d93d de56 cc3d e51d fcbc 7111 6c3d
00000040: 44cb d23d af59 4dbd 9c1d 533e e2fc 053d
00000050: 481a e83d b06a 11be f2cf 1f3d aabb 88bc
00000060: 979d 2ebe b23b 98bc 53be cc3c c7e5 06be
00000070: b0a3 8cbc 409b eabd 9b79 9a3b 392d ed3d
00000080: 1526 513d 30cc 0bbe 375a 13be 92cc 47bd
00000090: ea55 01be 2564 9d3d 2dcf 253e f9fd 62be
000000a0: 88ee 3abe f924 783c ff7b b4bd d91c 7a3a
000000b0: c35b 0bbc 97ad 343e 2e25 763e 1706 133e
000000c0: 6376 92bd a02e 113d 5a3e b5bd d213 d7bd
000000d0: 2b8c 8dbd c5a0 bcbd 2d5e 1b3e 2423 583e
000000e0: 4c71 7c3d 5201 97bd a95a f3bd e0c7 05be
000000f0: c30f 42bd f834 0f3e cd8a 963e 9d36 84bd
00000100: a1d8 eebd 3d91 9fbd a297 323d 2b9d d03b
00000110: d243 053e 8372 f5bd 821d c13d 08b0 1c3c
00000120: 93ce c7bd d62a 40bd 3d7b 42be 05a1 dcbd
00000130: 0eaf 4cbe adaa 4bbe 1334 f3bd 6f56 93bd
00000140: e369 7bbd 94f0 3e3e 8943 93bc af40 6a3e
00000150: 55e0 723b 1481 1d3d 49ba 1f3d 9e59 393c
00000160: cd4a 013e 5ae6 213e 49ce cc3c 7fe3 9d3d
00000170: ee05 2b3c 3a4c 953d 65fc e3bd 765e d93d
00000180: f2d8 423b 4401 7b3c 67af a2bd 3931 0ebd
00000190: 250e 9cbd 1125 bf3d 03e2 223e 5093 e2bd
000001a0: f3d4 efbc 24f1 df3d 68c5 8c3d 0f69 3e3e
000001b0: c8bd ea3c b0bc de3c 17ff e0bb 30aa 203d
000001c0: a4aa eebc 8728 c23c 2128 c4bc 9348 7cbd
000001d0: b2bb 6f3d 5355 4dbe a863 30be 6c65 08be
000001e0: e6a9 6fbe 1c49 23be 42b6 7cbe 7294 913c
000001f0: b755 683d 0b30 9ebd e9da 3c3e c1a2 db3c
00000200: 4fa6 c8bd 1c64 7cbd 4c0e a0bd 14b3 8fbe
00000210: 39ba 1c3e 6725 08b9 786c 4f3c d8e8 61be
00000220: 5629 1c3e 89e8 dc3d 43f7 a33d 90a4 fabd
00000230: 4aae 56be 4afb 75be 9a42 a3be 16e6 cbbe
00000240: 825a 2c3d fe29 34bd 7ea7 423c a7b9 5bbe
00000250: b36b 0dbe d382 30be e533 95be ccec a1bd
00000260: c433 89bd 73a5 0cbe 081b 33be 77a3 74be
00000270: f1b6 853d 5266 bebc e0d6 45bd 9795 dc3d
00000280: e7e3 b93d c0ba 0b3e 0086 6b3d c180 3dbd
00000290: f00a 423e c1fe 13be 3b73 03be 9729 753c
000002a0: 5ca9 9abd 0f51 fdbd 3b1e 6dbd 35d7 c0bc
000002b0: 531c ec3d fe41 76bc e749 003e b89d ea3c
000002c0: ae98 38bd 55e3 063e f589 21bd 2a1f b4bd
000002d0: 92b2 eabd 7447 173e 8c10 123e 07d7 01be
000002e0: c7c2 fe3c 950c 103e 7004 3dbd 6d39 593e
000002f0: 4796 383e c0df 93bc 562e 283e e337 293e
00000300: dcf2 9cbd 37db 22be bba4 63bd cf22 97be
00000310: c5db 4fbe ae18 28be 6e98 f43d 0305 633e
00000320: 2e1e f63d 6689 55be b20c 133c 988c bbbd
00000330: 6ffa 79bd aee3 a2bb ad8d 16bc 936f 85bd
00000340: a00c 48bd d3db 42bd 08f9 a83d 3c35 11be
00000350: a1f3 2abd 1441 983c 09d3 49bd ff59 10be
00000360: c4ef 5bbd 35a2 343d c1d7 7abc 1bd4 db3d
00000370: 3f69 273e 52c4 033e 027c d63c 782d 6a3e
00000380: ac4e 963e 8f78 3a3e 01cc 823d f459 0a3e
00000390: 6635 08bd 54c5 62bd 5cf8 ae3d 90b4 1bbe
000003a0: 6f46 42be 2b39 1bbd 7183 2bbd dd88 d3bd
000003b0: 7118 52be 5fa2 d5bd 63c3 253d 9edf 42be
000003c0: 79b5 903d 61b8 443e 985d a03d 7fff 89bc
000003d0: 94be 7f3d b08e e1bd eecc 993d 6481 5e3d
000003e0: 7456 613c 0aed 563d e173 e23d 450c 2d3c
000003f0: dd96 76bd fb4a 97bd a4d4 b53d 6393 8d3d

block2.1.conv.bias f4 [16]
-0.015758172 -0.13579148 0.1487271 0.13211498 0.0034503038 -0.028394165 0.08280516 0.1059007
0.008526632 0.04715146 -0.069330774 -0.09563973 0.039963134 -0.039576985 0.061655153 -0.111160256
00000000: 4817 81bc ec0c 0bbe eb4b 183e 2649 073e
00000010: 7e1e 623b e19a e8bc c095 a93d 77e2 d83d
00000020: 49b3 0b3c e421 413d 4bfd 8dbd c3de c3bd
00000030: 62b0 233d 7a1b 22bd 1d8a 7c3d fda7 e3bd

block2.1.BN.weight f4 [16]
1.1593827 0.92776084 1.0315373 0.9830238 1.0448203 0.9923937 0.9126648 0.87907326
1.0026131 1.00162 1.0004705 0.9647329 0.83497643 1.0244058 1.047936 0.9512088
00000000: a766 943f bc81 6d3f 6a09 843f 73a7 7b3f
00000010: acbc 853f 830d 7e3f 66a4 693f f20a 613f
00000020: a055 803f 1635 803f 6b0f 803f bcf8 763f
00000030: 04c1 553f bb1f 833f c422 863f 6b82 733f

block2.1.BN.bias f4 [16]
-0.052164454 -0.109520845 -0.028297208 -0.29841015 -0.09555164 -0.10576281 -0.19115403 -0.20384867
-0.044984955 -0.016490497 -0.17488258 -0.1730876 -0.16996168 0.010384596 -0.026343625 -0.23068161
00000000: 65aa 55bd 774c e0bd 8ccf e7bc 37c9 98be
00000010: 94b0 c3bd 2c9a d8bd e2bd 43be b5bd 50be
00000020: 2542 38bd 1417 87bc 6b14 33be e03d 31be
00000030: 6f0a 2ebe 2724 2a3c 96ce d7bc cd37 6cbe

block2.1.BN.running_mean f4 [16]
-0.17688447 -0.9547486 -0.4595193 0.83567804 0.23821887 0.34906211 0.69179344 0.5045162
-1.1901636 -0.075191125 -0.027602201 0.19652879 -1.1967273 -0.40217516 -1.2337854 1.4655776
00000000: 3421 35be 676a 74bf 1d46 ebbe ffee 553f
00000010: a6ef 733e 45b8 b23e 6019 313f f927 013f
00000020: 4857 98bf cefd 99bd 031e e2bc d83e 493e
00000030: 5c2e 99bf e7e9 cdbe aeec 9dbf 0c98 bb3f

block2.1.BN.running_var f4 [16]
0.8138381 2.314358 1.7608081 0.968916 0.8457608 0.80172765 0.86612433 0.7755756
1.6752322 0.50652987 1.0368165 0.9501659 2.7856429 1.8978055 2.2402802 2.1064434
00000000: b257 503f 711e 1440 2962 e13f e10a 783f
00000010: c883 583f 063e 4d3f 53ba 5d3f 1f8c 463f
00000020: 026e d63f f1ab 013f 67b6 843f 133e 733f
00000030: f947 3240 4aeb f23f c060 0f40 f8cf 0640
