result/model/0518 1129.pt (torch, 79197 bytes, 98 tensors)

input_conv.conv.weight f4 [4, 1, 3, 3]
-0.11129004 -0.21750176 0.42096198 0.01592711 -0.060835168 0.41584525 -0.039657608 0.26913902
0.016170597 0.29892573 -0.07156042 -0.28765193 0.1928288 -0.08821652 0.12980862 -0.11014384
-0.32196313 -0.38977686 0.25074774 -0.13624087 0.077025816 -0.25229743 -0.37710032 -0.23678306
-0.19757614 -0.098383375 0.014673874 -0.13918515 -0.16788776 -0.07076439 0.2622177 0.4361194
0.092593014 -0.05520868 -0.056424983 0.012278599
00000000: 08ec e3bd c8b8 5ebe 5488 d73e 9279 823c
00000010: 4c2e 79bd abe9 d43e 0470 22bd 97cc 893e
00000020: 3378 843c cb0c 993e 458e 92bd 1d47 93be
00000030: ea74 453e ddaa b4bd 8dec 043e 1893 e1bd
00000040: 5ad8 a4be d590 c7be 0262 803e ba82 0bbe
00000050: b6bf 9d3d 212d 81be 4b13 c1be 4277 72be
00000060: 6651 4abe 397d c9bd b06a 703c 8d86 0ebe
00000070: c5ea 2bbe ecec 90bd 6641 863e 0b4b df3e
00000080: 68a1 bd3d 7f22 62bd e21d 67bd 2d2c 493c

input_conv.conv.bias f4 [4]
-0.16415054 0.29313123 0.03516144 0.26663244
00000000: 1417 28be 4c15 963e 7105 103d 0c84 883e

input_conv.BN.weight f4 [4]
0.9552507 0.9386647 0.9815776 1.1353678
00000000: 4f8b 743f 544c 703f ab48 7b3f bb53 913f

input_conv.BN.bias f4 [4]
0.07675445 -0.12343663 -0.15667687 0.10433125
00000000: 7031 9d3d 58cc fcbd e76f 20be 9fab d53d

input_conv.BN.running_mean f4 [4]
-0.038404748 0.1810731 -0.13493805 0.32354724
00000000: 4c4e 1dbd 3a6b 393e 332d 0abe fca7 a53e

input_conv.BN.running_var f4 [4]
0.021541076 0.018474495 0.03760249 0.005089282
00000000: e976 b03c d357 973c 1205 1a3d fec3 a63b

block1.0.conv.weight f4 [8, 4, 3, 3]
0.14358631 0.09295098 0.20841523 0.027033933 0.134071 -0.11950272 0.10374135 -0.120896064
0.06391942 0.105336875 -0.083723195 0.14096236 -0.043431092 0.04577579 0.05058211 0.0122766895
0.18870978 0.09952836 -0.0077109253 -0.03184979 0.115272716 0.030789852 0.11111288 0.03989818
-0.05731549 0.14642483 0.115515135 -0.19681333 0.13349944 -0.007515145 0.16332406 0.15934625
-0.1293469 0.23368406 -0.04407221 -0.18189736 -0.101599105 -0.027710907 0.072966196 -0.04824073
0.21706246 0.04074231 -0.07769784 0.092829645 -0.117351905 0.16324486 0.28545088 0.08276325
0.06090185 0.16220994 -0.15190096 0.00047957173 0.25845397 0.013577999 0.19255872 0.46406347
0.15332013 -0.0057141515 0.3070682 0.08638757 -0.11947809 0.18604459 -0.14467658 0.099381335
0.16775325 0.22147028 -0.14327307 -0.1281231 0.09959991 -0.017880054 0.1313259 -0.024459008
0.080577604 0.28677937 -0.074011035 0.08678438 0.24209873 -0.10655775 -0.02999813 -0.04319147
-0.15460162 -0.07892174 -0.29077166 -0.11158789 0.04469757 -0.01549905 0.014873816 0.16730352
-0.15096806 -0.11442334 0.016948735 -0.14077985 -0.07451032 -0.03159892 -0.1431965 -0.014796656
0.09186487 0.30476582 0.07596745 0.0061938027 0.057011522 -0.15456037 0.020121882 0.24307987
0.1628484 -0.14743595 -0.10536024 -0.16498943 -0.45844653 -0.18697524 0.09118168 -0.15560777
0.067656174 -0.07578254 -0.2649823 -0.0910141 0.013435394 -0.09403598 -0.033060104 0.105852045
-0.15021661 -0.16021737 -0.14107212 -0.0454259 -0.07397137 -0.13050401 0.030144358 -0.011889851
0.077828415 -0.17723577 -0.2890203 -0.14872073 0.014155467 0.13527158 -0.06234235 -0.15899418
-0.04665289 -0.19239622 0.078904666 0.067979194 0.062980615 -0.12016506 -0.092031956 0.05793966
0.1515834 0.018091394 -0.12258373 0.17999165 -0.2524606 -0.025299622 -0.11237923 -0.2386668
-0.19914597 0.0836969 0.13932665 0.06648981 -0.18130149 -0.12737451 0.13457052 -0.20851871
-0.0761401 -0.011577131 0.0023504822 -0.14550202 -0.1991976 0.17862917 0.004758314 0.13783029
-0.2849194 -0.01835214 -0.14443152 0.04178762 0.1793653 -0.13993102 0.2639609 -0.017671144
-0.20396766 -0.016596373 0.20510304 -0.14296943 -0.04158613 0.15239005 0.2707759 -0.09189622
0.1647908 0.023141257 -0.001817187 -0.26010218 -0.14680573 0.04729794 -0.0650951 -0.16902293
0.053718172 -0.12838173 -0.0875128 0.04678309 0.1684444 0.16770752 -0.112506896 -0.058656663
0.0065486585 -0.0835294 0.0015460494 0.045067765 0.041384153 -0.1899201 0.19773045 -0.2581972
-0.11209987 0.18209372 -0.09109689 0.050369702 -0.13462181 0.13375874 -0.13338782 -0.23721014
-0.2338977 0.019695394 0.022997545 0.04212269 0.10359499 0.19675937 -0.08193988 -0.026634641
0.008492576 0.32635328 -0.0026780271 0.12202227 0.059204616 -0.18472338 0.08593046 0.00924301
-0.19450893 -0.028423628 0.33728623 0.2182511 0.11271629 0.08891348 -0.04256762 0.062766716
-0.05162123 -0.22325332 -0.119537845 -0.22487338 -0.012607398 -0.08774598 -0.12845245 -0.12063714
0.101597674 0.094018206 0.040485058 -0.034357376 -0.13779101 -0.24441645 -0.14246164 -0.016998325
00000000: 4a08 133e 155d be3d cd6a 553e 4476 dd3c
00000010: e949 093e d8bd f4bd 5876 d43d 5b98 f7bd
00000020: 2fe8 823d dcba d73d 1177 abbd 7058 103e
00000030: cde4 31bd 657f 3b3d 302f 4f3d 2b24 493c
00000040: 233d 413e 86d5 cb3d eeab fcbb ed74 02bd
00000050: 1a14 ec3d 003b fc3c 268f e33d 466c 233d
00000060: a6c3 6abd 64f0 153e 3393 ec3d 6f89 49be
00000070: 14b4 083e 9b41 f6bb 6c3e 273e aa2b 233e
00000080: 8473 04be e04a 6f3e 1085 34bd 4d43 3abe
00000090: 3113 d0bd fc01 e3bc 4d6f 953d 1298 45bd
000000a0: 9f45 5e3e 69e1 263d 0c20 9fbd 781d be3d
000000b0: 3256 f0bd a929 273e 9e26 923e c77f a93d
000000c0: 3874 793d 5d1a 263e ed8b 1bbe 076f fb39
000000d0: 1454 843e 4176 5e3c 1d2e 453e ba99 ed3e
000000e0: f4ff 1c3e c73d bbbb 0b38 9d3e f7eb b03d
000000f0: eeb0 f4bd 7982 3e3e 1926 14be 7188 cb3d
00000100: 82c7 2b3e 1bc9 623e 2db6 12be b432 03be
00000110: 0afb cb3d 3179 92bc 4c7a 063e 425e c8bc
00000120: df05 a53d bfd4 923e 1993 97bd 02bc b13d
00000130: bbe8 773e f33a dabd a3be f5bc 8ae9 30bd
00000140: e34f 1ebe b9a1 a1bd 06e0 94be 3188 e4bd
00000150: cd14 373d baef 7dbc 4eb1 733c 9d51 2b3e
00000160: 5f97 1abe c956 eabd 13d8 8a3c 9828 10be
00000170: de98 98bd de6d 01bd 1aa2 12be ac6d 72bc
00000180: a623 bc3d 440a 9c3e d394 9b3d 62f5 ca3b
00000190: ea84 693d 1345 1ebe a5d6 a43c eee9 783e
000001a0: bbc1 263e 73f9 16be 1cc7 d7bd fdf2 28be
000001b0: 81b9 eabe 7076 3fbe 76bd ba3d a557 1fbe
000001c0: 528f 8a3d e033 9bbd c3ab 87be 9a65 babd
000001d0: 2020 5c3c f095 c0bd 086a 07bd f5c8 d83d
000001e0: 62d2 19be 0610 24be 3675 10be 8210 3abd
000001f0: 4d7e 97bd d8a2 05be 4df1 f63c a6cd 42bc
00000200: 8164 9f3d 4b7d 35be 78fa 93be 3f4a 18be
00000210: 55ec 673c a284 0a3e b15a 7fbd 5fcf 22be
00000220: 1a17 3fbd 8403 45be c598 a13d ad38 8b3d
00000230: fbfb 803d 1919 f6bd 407b bcbd 2352 6d3d
00000240: ae38 1b3e 6734 943c 2e0d fbbd bb4f 383e
00000250: 8442 81be 2741 cfbc 1527 e6bd 1265 74be
00000260: ecec 4bbe 4869 ab3d a5ab 0e3e cf2b 883d
00000270: 19a7 39be 776e 02be dbcc 093e ee85 55be
00000280: 57ef 9bbd 02ae 3dbc 8c0a 1a3b 7bfe 14be
00000290: 75fa 4bbe 91ea 363e a2eb 9b3b 6223 0d3e
000002a0: f5e0 91be 3a57 96bc dbe5 13be 7f29 2b3d
000002b0: 8aab 373e 144a 0fbe e225 873e 13c3 90bc
000002c0: e6dc 50be 1ef5 87bc 8806 523e 9466 12be
000002d0: 3856 2abd 230c 1c3e 24a3 8a3e 1634 bcbd
000002e0: ebbe 283e bc92 bd3c ad2e eeba 1d2c 85be
000002f0: 3e54 16be 7cbb 413d 9450 85bd 5914 2dbe
00000300: 9607 5c3d 8076 03be e939 b3bd a09f 3f3d
00000310: b07c 2c3e 85bb 2b3e 046a e6bd f841 70bd
00000320: 2196 d63b 7611 abbd cfa4 ca3a fa98 383d
00000330: 6e82 293d 6a7a 42be da79 4a3e 6c32 84be
00000340: 9e94 e5bd c776 3a3e 0291 babd 7650 4e3d
00000350: 4dda 09be 0df8 083e d196 08be 37e7 72be
00000360: e182 6fbe 3c58 a13c 5965 bc3c d788 2c3d
00000370: 9c29 d43d 4a7b 493e 19d0 a7bd e430 dabc
00000380: 7224 0b3c c717 a73e d781 2fbb d0e6 f93d
00000390: 8a80 723d 2028 3dbe 4ffc af3d fe6f 173c
000003a0: 592d 47be abd8 e8bc c8b0 ac3e 377d 5f3e
000003b0: ccd7 e63d 4518 b63d 625b 2ebd d68b 803d
000003c0: c870 53bd 859c 64be 42d0 f4bd 3545 66be
000003d0: 438f 4ebc 2ab4 b3bd 0a89 03be 9b10 f7bd
000003e0: 7112 d03d 9e8c c03d a9d3 253d 52ba 0cbd
000003f0: 1619 0dbe 4e48 7abe 77e1 11be 1240 8bbc

block1.0.conv.bias f4 [8]
0.17263253 0.18364358 -0.021368006 -0.06663958 0.14388637 -0.16522725 -0.17512988 0.2697883
00000000: 95c6 303e 100d 3c3e f50b afbc 557a 88bd
00000010: f356 133e 5531 29be 3f55 33be b121 8a3e

block1.0.BN.weight f4 [8]
0.95847285 0.92914623 1.0515594 0.97075385 1.0752659 0.97599965 1.0621359 1.0322978
00000000: 7a5e 753f 87dc 6d3f 8099 863f 5383 783f
00000010: 50a2 893f 1ddb 793f 12f4 873f 5622 843f

block1.0.BN.bias f4 [8]
-0.08898434 -0.19845495 -0.061823886 -0.08224435 0.22612284 -0.061722573 -0.09277354 -0.033563334
00000000: 6c3d b6bd c637 4bbe 0b3b 7dbd ba6f a8bd
00000010: bf8c 673e cfd0 7cbd 0e00 bebd b579 09bd

block1.0.BN.running_mean f4 [8]
0.909611 1.1914645 -0.03384093 -1.2884772 -0.29314554 -0.53179204 -0.21276195 0.5570694
00000000: 44dc 683f e981 983f c99c 0abd d2ec a4bf
00000010: 2c17 96be 8623 08bf 45de 59be 1a9c 0e3f

block1.0.BN.running_var f4 [8]
0.13382614 0.24873696 0.20755674 0.7241791 0.24295914 0.28192753 0.32661924 0.10567482
00000000: b809 093e e7b4 7e3e c189 543e cd63 393f
00000010: 48ca 783e ce58 903e a33a a73e 0a6c d83d

block1.1.conv.weight f4 [16, 8, 3, 3]
-0.18847582 -0.06905055 -0.118745364 -0.1552185 -0.14505365 -0.056937713 0.017467486 -0.033959612
-0.018700812 0.13594481 -0.06649603 -0.0382588 0.07215158 -0.22597253 -0.050826836 0.18002592
0.040070813 -0.022608738 0.087292746 0.016942685 -0.19953538 0.18922104 0.19825684 0.17822033
-0.25504795 -0.15660371 -0.10311536 0.007390475 0.053474315 0.0039236415 -0.042385057 0.12318921
-0.02414116 0.0016451575 -0.0634926 0.05728603 -0.34985688 -0.22265176 -0.00288214 0.07399601
-0.0496342 0.1751635 -0.057596322 -0.09599431 0.038526043 -0.017097589 -0.15732159 0.08141582
-0.052401785 -0.091877155 -0.018315403 0.1859748 -0.11905898 0.08343478 -0.22950487 -0.24286869
-0.20162185 -0.061684348 -0.11099205 -0.1120889 -0.12316392 0.0030708539 0.16119644 0.0586334
0.09103174 0.18702413 0.0529441 0.040244106 0.019386876 0.041639116 0.08376909 0.19407728
0.07085976 -0.03352446 0.019346518 0.13502598 -0.10812173 -0.066459395 0.18775928 -0.06281573
-0.057982806 -0.13907465 0.024078678 -0.06938069 -0.05215101 -0.082749106 0.15411578 -0.27063826
-0.09061624 0.09057784 0.24890226 0.093573906 0.19500403 0.00610604 -0.1637086 -0.010071342
-0.057101205 -0.11453436 -0.038343985 0.1448228 -0.0761513 0.010203214 0.02575399 0.024892816
-0.00905428 -0.118997075 -0.101202324 -0.13867995 0.05411511 0.18237607 0.008479329 0.13253011
0.16557093 0.03172213 0.09203792 -0.09979885 0.092068166 0.06484499 0.06268315 0.23215544
0.04250907 -0.084021255 -0.047803912 0.07448988 -0.058443155 -0.12561195 -0.13447648 -0.22334787
0.035117865 -0.30888206 -0.23981643 -0.11444045 -0.060994085 -0.11250177 -0.077631585 -0.30687058
-0.2330466 0.09653586 -0.18074465 -0.08241787 0.19142698 -0.006963415 0.10725266 -0.02639077
-0.08661479 -0.051856525 0.09773004 -0.16323672 -0.09302002 -0.059294354 -0.15196685 0.047696833
0.20308664 -0.0063335523 0.22354923 0.21105644 -0.17425053 -0.075862855 -0.11236236 -0.10769148
-0.21553877 -0.15987453 0.079358935 0.123433866 -0.102341786 -0.009059239 0.10856406 0.18907872
-0.18513824 -0.16560368 0.0606106 0.0027185273 -0.029463774 -0.1026981 -0.207753 -0.0083840005
-0.042385846 -0.0023482537 -0.08107909 -0.11156731 0.042394288 0.21247941 0.028202487 -0.13010454
0.029279545 -0.096130304 -0.10239439 -0.18478517 -0.08009036 -0.11475159 -0.18861121 0.0017949111
0.10493075 -0.06160656 -0.3348547 0.049916297 0.1548945 -0.052874155 -0.10927803 -0.037303083
0.00787431 -0.06877992 0.0308533 0.045943726 -0.10300192 0.047240574 -0.23774119 -0.24122842
0.084556684 0.01239668 -0.07205462 0.031697866 0.02643599 -0.11740589 -0.1251795 -0.04412132
-0.04301951 0.072087 -0.17414877 -0.033231974 -0.23248073 0.016573347 -0.13635266 -0.131191
0.04749803 -0.19634145 -0.13606402 -0.21251522 -0.08078249 0.076235406 0.17820159 0.07949304
0.1067985 0.17273644 0.0837394 0.1251395 0.08830452 0.09572069 -0.030288782 -0.021807868
0.07287938 -0.24046269 -0.019782398 -0.050999302 0.032329265 0.19886215 0.037775934 0.09142243
0.0063885003 0.13544093 -0.022365049 -0.031850666 -0.22798355 0.20442872 0.1582935 -0.13821283
00000000: ceff 40be 606a 8dbd c530 f3bd 99f1 1ebe
00000010: f288 14be 8537 69bd f917 8f3c 3c19 0bbd
00000020: 7232 99bc 1e35 0b3e 122f 88bd 42b5 1cbd
00000030: 35c4 933d 5865 67be cd2f 50bd b758 383e
00000040: 4b21 243d f635 b9bc 8ac6 b23d 63cb 8a3c
00000050: 0153 4cbe 29c3 413e d703 4b3e 647f 363e
00000060: a595 82be b95c 20be 252e d3bd cc2b f23b
00000070: e207 5b3d e491 803b f49b 2dbd a04a fc3d
00000080: afc3 c5bc 53a2 d73a 6908 82bd c2a4 6a3d
00000090: 7120 b3be d3fe 63be 49e2 3cbb 388b 973d
000000a0: 3b4d 4bbd 0f5e 333e 1fea 6bbd aa98 c4bd
000000b0: 7ccd 1d3d 3e10 8cbc e918 21be 56bd a63d
000000c0: 41a3 56bd 172a bcbd 2f0a 96bc 2e70 3e3e
000000d0: 32d5 f3bd dbdf aa3d 5303 6bbe 92b2 78be
000000e0: f575 4ebe baa8 7cbd cd4f e3bd dd8e e5bd
000000f0: 5e3d fcbd 6140 493b ae10 253e 9329 703d
00000100: d96e ba3d 4183 3f3e eadb 583d 01d7 243d
00000110: 3ad1 9e3c c78d 2a3d 218f ab3d 32bc 463e
00000120: ec1e 913d f250 09bd 977c 9e3c 4044 0a3e
00000130: ed6e ddbd dd1b 88bd f843 403e 89a5 80bd
00000140: 617f 6dbd 9669 0ebe a640 c53c 7717 8ebd
00000150: 4c9c 55bd 5d78 a9bd 87d0 1d3e 1991 8abe
00000160: 0295 b9bd e080 b93d 3ce0 7e3e ada3 bf3d
00000170: 23af 473e 2d15 c83b 3aa3 27be 4502 25bc
00000180: f4e2 69bd fe90 eabd 950e 1dbd 6e4c 143e
00000190: 36f5 9bbd 622b 273c 08fa d23c 05ec cb3c
000001a0: 6758 14bc bdb4 f3bd 2a43 cfbd 1e02 0ebe
000001b0: cea7 5d3d cbc0 3a3e e2ec 0a3c f9b5 073e
000001c0: 6d8b 293e 10ef 013d 617e bc3d 5763 ccbd
000001d0: 3c8e bc3d 73cd 843d 0660 803d 28ba 6d3e
000001e0: fe1d 2e3d 5613 acbd 09ce 43bd 268e 983d
000001f0: 1762 6fbd 6ba0 00be 34b4 09be 4eb5 64be
00000200: c0d7 0f3d ca25 9ebe 7092 75be c15f eabd
00000210: efd4 79bd 5467 e6bd 4ffd 9ebd 241e 9dbe
00000220: c5a3 6ebe 98b4 c53d 2015 39be b3ca a8bd
00000230: 6f05 443e 5c2d e4bb 48a7 db3d 7531 d8bc
00000240: 1863 b1bd 8267 54bd b026 c83d 8727 27be
00000250: 4881 bebd a3de 72bd 339d 1bbe c15d 433d
00000260: f2f5 4f3e b089 cfbb 17ea 643e 2e1f 583e
00000270: bb6e 32be fc5d 9bbd 3d1e e6bd 5a8d dcbd
00000280: 32b6 5cbe 26b6 23be f086 a23d e5ca fc3d
00000290: 9298 d1bd 346d 14bc d556 de3d da9d 413e
000002a0: e194 3dbe 0394 29be d242 783d 5229 323b
000002b0: 035e f1bc 6253 d2bd 34bd 54be 0c5d 09bc
000002c0: c89c 2dbd 29e5 19bb cb0c a6bd 677d e4bd
000002d0: a2a5 2d3d 3494 593e e708 e73c 203a 05be
000002e0: a8db ef3c f7df c4bd 26b4 d1bd 5338 3dbe
000002f0: 6a06 a4bd e202 ebbd 4c23 41be 3943 eb3a
00000300: efe5 d63d 2957 7cbd 1372 abbe 0875 4c3d
00000310: aa9c 1e3e 9292 58bd 29cd dfbd 1ecb 18bd
00000320: 4003 013c 7ddc 8cbd 0fc0 fc3c 7d2f 3c3d
00000330: acf2 d2bd 557f 413d 6d72 73be 9504 77be
00000340: 0e2c ad3d 721b 4b3c 5f91 93bd 9fd5 013d
00000350: 4a90 d83c 8072 f0bd 0e2f 00be 8fb8 34bd
00000360: 3a35 30bd 59a2 933d 0e54 32be 401e 08bd
00000370: 6e0f 6ebe d4c4 873c 08a0 0bbe ef56 06be
00000380: 4b8d 423d bc0d 49be 5e54 0bbe 979d 59be
00000390: 4a71 a5bd 4f21 9c3d 7a7a 363e 3fcd a23d
000003a0: 2cb9 da3d d2e1 303e 907f ab3d 9224 003e
000003b0: 00d9 b43d 3609 c43d 2e20 f8bc 6aa6 b2bc
000003c0: c941 953d da3b 76be b20e a2bc a5e4 50bd
000003d0: b16b 043d 85a2 4b3e f0ba 1a3d af3b bb3d
000003e0: a056 d13b 07b1 0a3e e836 b7bc d875 02bd
000003f0: 8574 69be c355 513e b117 223e aa87 0dbe

block1.1.conv.bias f4 [16]
-0.016088217 -0.14494462 -0.0022695137 0.10101142 0.006585836 0.06563051 0.060946334 -0.10146182
-0.04639374 0.13011546 0.054584023 0.063889615 0.13629653 -0.06661664 -0.06833374 -0.00026213424
00000000: 70cb 83bc 5d6c 14be 1fbc 14bb 13df ce3d
00000010: ffcd d73b 4a69 863d dda2 793d 37cb cfbd
00000020: 5d07 3ebd fd3c 053e 7f93 5f3d 8fd8 823d
00000030: 5191 0b3e 4e6e 88bd 8ff2 8bbd 106f 89b9

block1.1.BN.weight f4 [16]
1.0398524 0.9778052 0.9777983 1.0811461 1.0236878 0.85394984 1.0733128 1.0561192
1.0829728 1.0987797 0.9585749 0.8490643 1.0314151 0.9296586 0.9242905 0.97381544
00000000: e219 853f 7151 7a3f fd50 7a3f ff62 8a3f
00000010: 3408 833f 759c 5a3f 5062 893f ea2e 873f
00000020: da9e 8a3f d0a4 8c3f 2a65 753f 475c 593f
00000030: 6905 843f 1bfe 6d3f 4d9e 6c3f f84b 793f

block1.1.BN.bias f4 [16]
0.11722824 -0.116705626 0.00029723757 0.009019309 0.057594508 -0.23161252 -0.13298382 -0.093112804
-0.03779816 -0.14153156 -0.11867101 -0.21855949 -0.1361145 -0.08814942 -0.16091758 -0.14385007
00000000: 5c15 f03d 5c03 efbd 8dd6 9b39 b9c5 133c
00000010: 38e8 6b3d d52b 6dbe e92c 08be edb1 bebd
00000020: 3ed2 1abd a6ed 10be c909 f3bd 0fce 5fbe
00000030: 9961 0bbe af87 b4bd 94c7 24be 6f4d 13be

block1.1.BN.running_mean f4 [16]
-0.55932146 -0.49810603 -0.90292686 0.082206555 -0.17692345 -0.7366741 0.42451322 -0.27136523
-0.90811276 -0.6163184 -0.92760235 1.0594224 0.8913497 -0.8353392 -0.6515723 -1.0143182
00000000: b12f 0fbf c107 ffbe 3726 67bf e95b a83d
00000010: 6c2b 35be ac96 3cbf cc59 d93e 62f0 8abe
00000020: 147a 68bf 0bc7 1dbf 5977 6dbf 279b 873f
00000030: 7e2f 643f cad8 55bf 71cd 26bf 2ed5 81bf

block1.1.BN.running_var f4 [16]
0.5521209 0.8862907 0.32565114 0.43614846 0.5705796 0.9758898 0.32040846 0.5677882
2.4385753 0.38491845 0.37288514 0.39796686 0.45682895 0.5514697 0.3161791 0.35714653
00000000: cc57 0d3f f3e3 623f bfbb a63e da4e df3e
00000010: 8111 123f ead3 793f 940c a43e 915a 113f
00000020: 9e11 1c40 0814 c53e cdea be3e 50c2 cb3e
00000030: 7ce5 e93e 1e2d 0d3f 3ae2 a13e e9db b63e

block1.2.conv.weight f4 [8, 16, 3, 3]
0.21804176 0.22410049 0.19874033 0.13065931 0.16180752 0.056319278 -0.056612376 0.12541877
0.07769642 -0.2122831 -0.27257928 -0.12775171 -0.068433605 0.10243027 -0.01325271 -0.11918197
-0.04438956 0.017194161 -0.09134863 -0.016041938 -0.002504543 -0.059097197 0.048973665 0.037774917
0.00929634 0.07286742 0.06190491 -0.070023194 -0.043504704 -0.017852927 -0.056354363 -0.037976272
0.050859943 0.073938005 0.028420469 0.063406475 -0.16231927 -0.19281726 0.0130131375 -0.036131855
-0.038558017 -0.042114023 0.03665647 0.138415 0.042255428 -0.11802709 -0.044412464 -0.0022414764
-0.036317766 0.00539009 0.033183213 0.02909076 0.12189499 0.0051319245 -0.01770237 -0.14025034
-0.017005296 -0.10625263 -0.20838884 -0.1935655 0.13544206 0.110578634 0.10535738 -0.15635623
-0.256034 -0.24101739 -0.15116061 -0.21302114 -0.06669769 -0.074806884 -0.21450648 -0.08298091
0.035198644 -0.04515552 -0.03405319 0.023280073 0.09486237 0.22507474 -0.09595966 0.048487097
0.12425377 0.120909415 0.20533003 0.18516828 -0.03503675 0.013537485 0.062151246 -0.11050598
0.009937951 -0.089243814 -0.09023198 0.03358038 -0.022762898 -0.0008670923 -0.006911067 0.15003152
-0.012147664 0.05700935 0.13459462 -0.010896505 -0.13261569 -0.12983163 0.054750066 0.13167025
-0.01262888 0.048130136 -0.0908186 -0.13681902 0.042167008 0.15032552 -0.03147085 -0.011194767
0.071622744 0.022781502 0.014632942 0.1263025 0.094076484 -0.0813709 -0.23778352 0.09011134
-0.068074785 -0.16360839 -0.005490562 0.07974361 0.010602018 0.096725695 0.15300825 0.103505485
-0.103771895 0.11118026 -0.024335552 -0.017777503 0.13370554 0.058616985 0.10935327 -0.07934488
-0.09573409 -0.09784596 0.11507464 0.066855095 0.09554169 0.11305092 0.19646199 0.15639302
0.01615393 0.07501784 0.05695463 0.029955443 0.092555806 0.059742797 -0.14671165 -0.16329415
-0.19706914 0.20014293 0.08143375 0.20266624 -0.19230393 0.042848967 0.2158666 -0.21769446
-0.014377814 0.002017299 0.048480473 0.1952221 -0.014994451 -0.13784572 -0.060219713 0.026384015
-0.18611656 -0.13510065 0.02155292 -0.15537103 -0.25202984 -0.12113271 0.1650719 -0.04448284
-0.050627135 0.02855222 0.074874766 -0.032785658 0.21803117 0.002933048 0.07920423 0.043863438
0.08707683 -0.00376866 -0.13558945 0.019974072 -0.07893509 0.08550944 -0.09730565 0.088033155
-0.08921267 -0.16949837 -0.05937956 -0.07697059 -0.0417743 -0.08963452 -0.05012293 -0.04984086
-0.03625211 0.17853376 0.27268395 0.1026678 -0.14098659 0.0841697 0.08170713 -0.042053685
-0.022329496 0.078176126 0.059725545 0.03495398 -0.08359846 0.11826661 0.08679526 0.11943356
-0.02585031 -0.0762182 -0.009143779 -0.090124 0.027319789 0.043730628 0.0021167854 0.18115196
0.011928225 0.054657727 0.11761262 -0.09620658 0.091682665 -0.046997376 -0.07369921 -0.1419965
-0.12871529 -0.18027672 0.13573493 0.16206498 0.0091601685 0.08186342 0.060893383 0.090725005
-0.07388298 -0.10804029 -0.22143766 -0.056644972 -0.14206544 -0.2746408 -0.028527832 -0.04930726
0.0023213807 -0.028941123 0.09369541 0.08197084 -0.21571761 -0.1519617 -0.12587097 0.09054775
00000000: 5746 5f3e 997a 653e 9682 4b3e 8ecb 053e
00000010: dfb0 253e 0baf 663d 61e2 67bd c76d 003e
00000020: 4d1f 9f3d be60 59be 838f 8bbe 58d1 02be
00000030: eb26 8cbd f6c6 d13d e521 59bc ad15 f4bd
00000040: d4d1 35bd c5da 8c3c fe14 bbbd 626a 83bc
00000050: 4223 24bb e70f 72bd 9c98 483d dfb9 1a3d
00000060: ad4f 183c 843b 953d 0190 7d3d 5268 8fbd
00000070: fd31 32bd 4d40 92bc d5d3 66bd 028d 1bbd
00000080: 8452 503d cf6c 973d 0bd2 e83c 41db 813d
00000090: 0637 26be e371 45be 0e35 553c fffe 13bd
000000a0: 03ef 1dbd c17f 2cbd 1825 163d a9bc 0d3e
000000b0: 0714 2d3d 30b8 f1bd d8e9 35bd bce5 12bb
000000c0: f0c1 14bd 5a9f b03b 1feb 073d bf4f ee3c
000000d0: 15a4 f93d b429 a83b 9004 91bc c99d 0fbe
000000e0: b14e 8bbc fb9a d9bd e263 55be 0936 46be
000000f0: 53b1 0a3e 0d77 e23d 9cc5 d73d d91b 20be
00000100: e316 83be 43cd 76be d9c9 1abe 3722 5abe
00000110: cc98 88bd 5a34 99bd 96a7 5bbe e5f1 a9bd
00000120: 742c 103d fff4 38bd 5c7b 0bbd dab5 be3c
00000130: 3447 c23d fe79 663e 8086 c4bd 689a 463d
00000140: c378 fe3d 5b9f f73d 0942 523e c19c 3d3e
00000150: b282 0fbd 54cc 5d3c 4e92 7e3d f650 e2bd
00000160: cad2 223c 76c5 b6bd 8bcb b8bd 958b 093d
00000170: 4279 babc 944d 63ba 3b76 e2bb dda1 193e
00000180: ff06 47bc a382 693d 2cd3 093e 4187 32bc
00000190: 68cc 07be 95f2 04be 9b41 603d 91d4 063e
000001a0: 5de9 4ebc 1b24 453d 1aff b9bd 491a 0cbe
000001b0: 50b7 2c3d efee 193e 94e7 00bd 426a 37bc
000001c0: f2ae 923d 46a0 ba3c 02bf 6f3c 7155 013e
000001d0: 2cab c03d c9a5 a6bd 867d 73be 4b8c b83d
000001e0: cb6a 8bbd f588 27be 2cea b3bb 9e50 a33d
000001f0: 16b4 2d3c 1f18 c63d 32ae 1c3e affa d33d
00000200: 5c86 d4bd 7ab2 e33d 5a5b c7bc 20a2 91bc
00000210: 1bea 083e 5d18 703d 9bf4 df3d 927f a2bd
00000220: 3c10 c4bd 7663 c8bd 41ac eb3d 53eb 883d
00000230: 5dab c33d 3e87 e73d 552d 493e 7e25 203e
00000240: 3f55 843c f4a2 993d 4249 693d 1e65 f53c
00000250: e68d bd3d ddb4 743d 943b 16be 9536 27be
00000260: 7ecc 49be 45f2 4c3e bdc6 a63d bd87 4f3e
00000270: 52eb 44be 6682 2f3d 220c 5d3e 4ceb 5ebe
00000280: ec90 6bbc a934 043b 7693 463d 4de8 473e
00000290: 49ab 75bc 6e27 0dbe f2a8 76bd 4a23 d83c
000002a0: 5795 3ebe d357 0abe c08f b03c 9519 1fbe
000002b0: 0e0a 81be 6d14 f8bd 9c08 293e a333 36bd
000002c0: 665e 4fbd 58e6 e93c f157 993d 414a 06bd
000002d0: 9043 5f3e 6138 403b d435 a23d 26aa 333d
000002e0: 5655 b23d 9ffb 76bb f6d7 0abe aaa0 a33c
000002f0: b8a8 a1bd 931f af3d 2f48 c7bd ba4a b43d
00000300: 22b5 b6bd fb90 2dbe fb37 73bd c2a2 9dbd
00000310: 871b 2bbd 4e92 b7bd b44d 4dbd ee25 4cbd
00000320: 187d 14bd 8ed1 363e 3b9d 8b3e 7f43 d23d
00000330: ca5e 10be 2a61 ac3d 1156 a73d 7c40 2cbd
00000340: 59ec b6bc ce1a a03d c6a2 743d e82b 0f3d
00000350: ab35 abbd c435 f23d b7c1 b13d 9599 f43d
00000360: 08c4 d3bc 4a18 9cbd cacf 15bc ef92 b8bd
00000370: c0cd df3c e31e 333d c4b9 0a3b e67f 393e
00000380: 9a6e 433c c8e0 5f3d e3de f03d f507 c5bd
00000390: 1fc4 bb3d 5280 40bd 9def 96bd 8867 11be
000003a0: f1cd 03be 769a 38be 19fe 0a3e 5df4 253e
000003b0: 8814 163c 02a8 a73d 576b 793d 08ce b93d
000003c0: f64f 97bd 3a44 ddbd 8ec0 62be 8f04 68bd
000003d0: 9a79 11be b89d 8cbe 33b3 e9bc 69f6 49bd
000003e0: 4e22 183b ef15 edbc 61e3 bf3d 54e0 a73d
000003f0: 14e5 5cbe d99b 1bbe 52e4 00be 1971 b93d

block1.2.conv.bias f4 [8]
-0.0119392965 0.14874667 0.08230634 -0.022965368 -0.010209749 -0.029719926 -0.08739503 0.040731102
00000000: 0a9d 43bc 0c51 183e 3a90 a83d de21 bcbc
00000010: cb46 27bc 3477 f3bc 2afc b2bd a8d5 263d

block1.2.BN.weight f4 [8]
0.9151103 1.0902523 1.1361856 1.0047268 1.019402 0.9045497 0.99289685 0.9668185
00000000: ab44 6a3f 638d 8b3f 886e 913f e39a 803f
00000010: c47b 823f 9290 673f 7d2e 7e3f 6b81 773f

block1.2.BN.bias f4 [8]
0.01322752 -0.10222553 0.065217145 -0.2810503 -0.07822007 -0.011358247 -0.13919303 -0.23990892
00000000: 3db8 583c 9e5b d1bd 9190 853d d3e5 8fbe
00000010: d831 a0bd f117 3abc 9e88 0ebe afaa 75be

block1.2.BN.running_mean f4 [8]
-0.00045474604 0.29415035 -1.4625629 0.22197802 0.114710934 -0.4134131 0.30953655 -0.65215135
00000000: fb6a eeb9 e09a 963e 4335 bbbf 354e 633e
00000010: 91ed ea3d e2aa d3be 937b 9e3e 64f3 26bf

block1.2.BN.running_var f4 [8]
2.308465 0.8499677 0.9508863 1.0268885 1.0278064 1.8042883 0.795044 1.4826827
00000000: e4bd 1340 7c97 593f 496d 733f 1571 833f
00000010: 298f 833f ebf2 e63f 0188 4b3f 8cc8 bd3f

block1.3.conv.weight f4 [4, 8, 3, 3]
-0.17961138 -0.0933126 0.048214875 -0.09897645 -0.018483376 0.0054696356 0.03251923 0.108143725
0.082840085 -0.045338195 0.11778548 0.2167121 0.18752673 -0.05202807 0.18937325 0.13321714
-0.14012015 -0.043246165 0.08996706 0.25266364 -0.13037308 -0.04773708 0.12556736 -0.08673388
-0.07810378 -0.07081719 -0.10563571 -0.22340514 -0.07088306 -0.22433405 0.21497078 0.14144208
0.04839786 0.009892773 0.08996487 -0.13613875 0.22850713 0.076183334 0.06325266 0.15905096
-0.010451669 0.14708741 -0.021351704 -0.09283228 -0.022590643 -0.11297687 -0.0880222 0.07835058
-0.07101769 -0.016655631 -0.115200154 0.08554736 -0.051455453 0.13666108 -0.043234922 0.18938822
0.26801935 0.035972923 0.18500239 -0.06265243 -0.15193367 -0.06030998 0.08843281 -0.19210386
0.12225283 -0.12431117 -0.11606101 0.06427441 0.054989476 0.10937784 0.15802252 0.033291
-0.14412795 -0.2481793 -0.19225089 -0.021913791 0.025359793 0.016008375 -0.09836879 -0.050753213
0.101203755 0.19623496 0.08682587 0.15905584 0.027047636 -0.10968444 -0.02249602 0.007968461
0.12707967 -0.13728422 -0.16833796 0.03189432 -0.30081567 0.021613898 0.16880557 -0.12442922
0.09497554 0.26350224 0.10964537 -0.037614245 0.14019884 -0.06811771 0.047240242 0.25086933
0.038286325 -0.11374507 -0.029557446 -0.06474083 -0.027769381 0.029460879 -0.16520114 -0.10016941
0.1621234 -0.07538759 -0.14319192 0.003323559 -0.0043990267 -0.17542896 -0.1389472 0.025499374
-0.11611312 -0.16741903 0.025245981 -0.1509863 -0.08687966 -0.15948081 0.051525023 -0.026570583
0.028724115 -0.049946304 -0.029428277 -0.16794245 0.049959183 -0.19054903 0.12699383 0.01307257
0.20346515 0.17649712 -0.073239215 0.09023503 0.03431743 -0.09196021 -0.042183038 0.12214371
0.0014915026 0.18931489 0.13454317 0.032918327 0.030263418 0.0021161162 -0.045320988 -0.0066604866
0.08710056 -0.24839415 -0.1292581 -0.27346882 -0.13184252 0.101486176 -0.12999184 0.13462943
0.023553247 -0.039275706 -0.22101234 -0.054803956 0.24195309 0.041473974 0.061845656 0.18689343
-0.027085979 -0.028196005 -0.0028239866 -0.1560619 -0.06763766 -0.15341593 0.0016382849 0.06181105
-0.08068233 0.061930396 0.13714986 0.19554017 -0.35607275 -0.34673032 -0.13082692 -0.1368339
-0.006317511 0.10306663 -0.043899953 -0.07511661 -0.034462716 -0.047893934 -0.028463151 -0.13953389
0.0023096232 0.07171117 0.036807593 -0.035006262 0.18347141 0.1906716 0.1652416 -0.020957414
-0.13405332 0.18839382 0.08189988 0.0075473217 0.02691309 -0.040827602 -0.18802588 0.090969145
-0.044686567 0.16215368 0.15528019 -0.027556067 0.12834015 0.17792034 0.16944015 0.05587096
0.22919296 0.081663504 0.09038742 0.15304337 -0.084479384 -0.16151744 0.19596195 0.16183488
0.02485112 -0.08947543 -0.00054607657 -0.10944339 0.0059759496 0.037247945 -0.16271739 0.23940298
0.13608153 0.11454021 -0.018359732 -0.026125317 0.13014393 -0.037201922 0.14299166 0.10989982
0.012119304 -0.1745831 -0.1032341 -0.09776068 0.023746623 -0.040117368 -0.015824476 0.08654375
-0.0759581 0.19062644 0.26589456 0.08840087 0.02774851 0.032217644 0.0050525125 -0.073216215
00000000: 0cec 37be ad1a bfbd f67c 453d 2ab4 cabd
00000010: 736a 97bc a13a b33b e232 053d 757a dd3d
00000020: 10a8 a93d 8bb4 39bd 8439 f13d c7e9 5d3e
00000030: 0207 403e 631b 55bd 10eb 413e 136a 083e
00000040: a87b 0fbe e422 31bd a640 b83d 215d 813e
00000050: 8580 05be f587 43bd bb94 003e 88a1 b1bd
00000060: e0f4 9fbd 9a08 91bd 8957 d8bd 51c4 64be
00000070: 232b 91bd d3b7 65be 4d21 5c3e 31d6 103e
00000080: d63c 463d 4c15 223c 803f b83d f567 0bbe
00000090: c6fd 693e 0206 9c3d 9c8a 813d 41de 223e
000000a0: 7a3d 2bbc 159e 163e c5e9 aebc da1e bebd
000000b0: 0310 b9bc 6b60 e7bd fc44 b4bd 4576 a03d
000000c0: b971 91bd 6471 88bc 0fee ebbd 7433 af3d
000000d0: f4c2 52bd e2f0 0b3e 1a17 31bd fcee 413e
000000e0: d539 893e 5858 133d 4471 3d3e eb4f 80bd
000000f0: 8094 1bbe 9907 77bd 431c b53d e0b6 44be
00000100: b15f fa3d db96 febd 65b1 edbd 4da2 833d
00000110: a53c 613d 7d01 e03d a8d0 213e 255c 083d
00000120: 4796 13be b722 7ebe 6bdd 44be 8d84 b3bc
00000130: 57bf cf3c ff23 833c 9375 c9bd 9ae2 4fbd
00000140: ea43 cf3d d1f1 483e c3d1 b13d 89df 223e
00000150: 0193 dd3c 3ca2 e0bd 9349 b8bc 268e 023c
00000160: 2c21 023e 3c94 0cbe c960 2cbe 9ea3 023d
00000170: 8304 9abe a10f b13c 5edb 2c3e bfd4 febd
00000180: 8982 c23d c4e9 863e c08d e03d 6511 1abd
00000190: 4990 0f3e 4c81 8bbd fc7e 413d f271 803e
000001a0: 1fd2 1c3d 2df3 e8bd 7522 f2bc d796 84bd
000001b0: 9d7c e3bc f157 f13c 7d2a 29be 9f25 cdbd
000001c0: ad03 263e cf64 9abd e7a0 12be 11d0 593b
000001d0: b625 90bb a6a3 33be 2d48 0ebe 10e4 d03c
000001e0: b7cc edbd e56f 2bbe a9d0 ce3c 279c 1abe
000001f0: f7ed b1bd f04e 23be e70b 533d 8daa d9bc
00000200: d64e eb3c 7f94 4cbd 9213 f1bc 1bf9 2bbe
00000210: 00a2 4c3d 491f 43be ac0a 023e 552e 563c
00000220: 2b59 503e a9bb 343e 71fe 95bd 25cd b83d
00000230: 6f90 0c3d a255 bcbd 1fc8 2cbd 7b26 fa3d
00000240: 867e c33a c3db 413e afc5 093e 5ed5 063d
00000250: fdea f73c 8aae 0a3b 80a2 39bd 3640 dabb
00000260: c761 b23d 095b 7ebe 3c5c 04be 1b04 8cbe
00000270: ba01 07be fcd7 cf3d 951c 05be 4cdc 093e
00000280: bdf2 c03c 90df 20bd 0f51 62be 1d7a 60bd
00000290: 8dc2 773e 9de0 293d df51 7d3d fe60 3f3e
000002a0: 6ae3 ddbc 4ffb e6bc a212 39bb b1ce 1fbe
000002b0: 9d85 8abd 1119 1dbe b8bb d63a 952d 7d3d
000002c0: c73c a5bd baaa 7d3d 0371 0c3e af3b 483e
000002d0: 2b4f b6be a386 b1be 7ef7 05be 301e 0cbe
000002e0: 2003 cfbb 9914 d33d 70d0 33bd bdd6 99bd
000002f0: c728 0dbd 6e2c 44bd 8e2b e9bc f9e1 0ebe
00000300: 0c5d 173b 4edd 923d 8fc3 163d ba62 0fbd
00000310: eedf 3b3e 6a3f 433e 1835 293e e2ae abbc
00000320: 4645 09be 4fea 403e 20bb a73d 864f f73b
00000330: d778 dc3c d83a 27bd db89 40be 084e ba3d
00000340: 4309 37bd 9d0b 263e c501 1f3e 43bd e1bc
00000350: 9a6b 033e c030 363e b881 2d3e f3d8 643d
00000360: 8fb1 6a3e 323f a73d 0a1d b93d 67b7 1c3e
00000370: 8703 adbd d464 25be 40aa 483e 0bb8 253e
00000380: 9394 cb3c e53e b7bd 9426 0fba db23 e0bd
00000390: e6d1 c33b 4d91 183d 639f 26be 0e26 753e
000003a0: f558 0b3e 0f94 ea3d 2667 96bc c304 d6bc
000003b0: 7344 053e 0b61 18bd 686c 123e 2813 e13d
000003c0: 0c90 463c eac5 32be 666c d3bd c036 c8bd
000003d0: 4788 c23c 1c52 24bd 55a2 81bc d93d b13d
000003e0: ec8f 9bbd 9433 433e 5523 883e 840b b53d
000003f0: d850 e33c a6f6 033d 8c8f a53b 62f2 95bd

block1.3.conv.bias f4 [4]
-0.12737252 0.05552989 0.052084703 0.021270849
00000000: f16d 02be 4f73 633d c556 553d 3440 ae3c

block1.3.BN.weight f4 [4]
1.1187303 0.9754027 1.0566397 0.89356935
00000000: 8e32 8f3f feb3 793f f83f 873f f6c0 643f

block1.3.BN.bias f4 [4]
0.03322227 -0.021377008 0.07750153 0.09089023
00000000: 1314 083d d61e afbc 1fb9 9e3d a824 ba3d

block1.3.BN.running_mean f4 [4]
0.21686319 -0.38057253 0.036673192 0.8227742
00000000: 6211 5e3e 67da c2be a136 163d 54a1 523f

block1.3.BN.running_var f4 [4]
0.5430979 0.8581058 0.60488826 0.43914506
00000000: 7708 0b3f d2ac 5b3f f5d9 1a3f 9fd7 e03e

block2.0.conv.weight f4 [8, 4, 3, 3]
-0.1993453 -0.28967246 -0.30148965 0.007044412 0.14064349 -0.040198468 0.23040368 0.03072087
0.15544616 -0.23216167 0.09189118 -0.13100484 -0.24794008 -0.10081893 -0.0871444 0.075436614
-0.14165951 -0.22694184 -0.13467696 -0.02598297 -0.09160548 0.24982722 0.096717864 -0.016993888
0.23156941 0.041271627 -0.07094622 0.063678324 0.10162237 -0.060164552 -0.1296307 0.011880901
-0.10520671 -0.019999094 0.06336619 0.099607326 -0.02243011 0.056833923 0.059305515 0.017993277
0.2368659 0.1851636 0.18206832 0.31707656 -0.13638225 0.14630127 0.16813709 0.111712806
0.15997674 0.030025214 -0.029119806 0.091900125 0.043924537 -0.11458137 -3.6270147e-05 0.04455137
0.11519491 0.02083538 -0.0061294604 0.071075596 -0.029547367 0.15663116 0.084648944 -0.3394433
-0.20412396 -0.29830697 -0.07042495 0.053433005 -0.07699509 -0.053507384 0.050129354 0.033344377
-0.07357533 -0.15641578 0.03994951 0.17425768 0.020862494 -0.1289542 0.16223365 0.07491273
-0.06292212 0.047745172 -0.13384004 -0.04733138 0.07495002 0.022337357 -0.11221354 0.15419446
-0.07451405 -0.07775421 -0.22089832 -0.14315914 -0.048865825 0.018731568 0.063490756 0.046268247
-0.010779205 0.20232268 0.35774025 0.20861678 0.036944196 0.083381265 -0.08466002 -0.13877085
-0.110925674 -0.21505675 -0.17227896 0.01559324 -0.058900405 -0.029156169 0.113908194 -0.07690009
0.0073071374 0.03932132 -0.1863107 -0.021551771 0.07388985 0.034259662 -0.058278967 0.038727306
0.013559906 0.1262261 0.029349862 0.038158394 0.15283866 -0.05672483 0.20091067 0.2216521
0.09004831 0.060771085 0.09667965 0.3803696 -0.024793047 0.1734481 0.09335837 -0.0011535344
0.107965924 0.031175336 -0.16379634 0.167237 0.09014626 -0.016314294 0.22373398 0.2231768
-0.41724804 -0.35089788 -0.32660094 -0.058377195 -0.11202408 -0.06827514 -0.027930385 0.0043115066
-0.027947532 -0.14756307 -0.15719019 -0.14689447 -0.1720446 -0.10291311 -0.2750455 0.07378567
-0.16633983 0.0173619 0.1132801 0.025592424 0.013910491 0.14382355 0.057860207 0.12482081
0.07156983 -0.30684564 -0.0036281392 -0.18297137 0.10623816 0.037774198 0.07580983 0.12938438
0.043397997 -0.22168338 0.071448386 0.030129494 -0.18039493 -0.07257936 0.09868924 -0.08281262
-0.0072809244 -0.10432256 -0.18505228 -0.07860508 -0.15838817 -0.19323643 0.35095817 0.21012501
-0.13685074 0.0054415516 0.11937883 -0.13747106 0.18451919 0.034068316 0.056228545 0.16306932
-0.25358394 0.13360971 -0.1132698 -0.13044474 -0.1717536 -0.03588507 0.0072687874 -0.16155732
0.21187375 -0.027870571 0.039184075 0.023828438 0.0131919235 -0.17691216 -0.058308516 -0.069870085
-0.18346249 -0.30849046 0.033250514 0.17989795 -0.019705439 -0.07886209 -0.39555952 -0.15353748
0.028695002 -0.12519418 -0.1764637 -0.08785699 -0.020869086 -0.14287467 -0.22944415 -0.0662236
-0.053005084 -0.1398769 -0.20164706 -0.11026318 0.045102403 0.025557399 -0.17595589 0.044561956
0.21891247 0.25589633 0.1651927 0.018269308 0.17737707 -0.0034207264 -0.058401246 0.14766464
-0.07362934 -0.17946863 0.17667145 0.1260394 0.06683202 -0.114097305 0.17840934 0.06676516
00000000: 2d21 4cbe f34f 94be da5c 9abe d0d4 e63b
00000010: d904 103e 26a7 24bd f1ee 6b3e 55aa fb3c
00000020: 472d 1f3e cabb 6dbe 7131 bc3d 2226 06be
00000030: 01e4 7dbe 287a cebd c378 b2bd 837e 9a3d
00000040: 310f 11be 7163 68be c2e8 09be 3dda d4bc
00000050: a79b bbbd b5d2 7f3e 0414 c63d c436 8bbc
00000060: 8820 6d3e 700c 293d 404c 91bd c869 823d
00000070: 641f d03d 1b6f 76bd e9bd 04be 1ca8 423c
00000080: 9e76 d7bd 24d5 a3bc 22c6 813d edfe cb3d
00000090: 5abf b7bc b0ca 683d 57ea 723d a366 933c
000000a0: f98c 723e 879b 3d3e 1e70 3a3e dc57 a23e
000000b0: caa7 0bbe 00d0 153e 212c 2c3e afc9 e43d
000000c0: f1d0 233e 70f7 f53c a98c eebc 2236 bc3d
000000d0: 37ea 333d a3a9 eabd c620 18b8 7f7b 363d
000000e0: 4feb eb3d f5ae aa3c a4d9 c8bb 1590 913d
000000f0: 520d f2bc eb63 203e 6d5c ad3d 83cb adbe
00000100: df05 51be b1bb 98be f53a 90bd 91dc 5a3d
00000110: 9aaf 9dbd 8f2a 5bbd 7054 4d3d 1d94 083d
00000120: aaae 96bd 752b 20be 19a2 233d 9b70 323e
00000130: d2e7 aa3c 920c 04be 9420 263e d86b 993d
00000140: 50dd 80bd 7190 433d 5d0d 09be 8dde 41bd
00000150: 657f 993d d5fc b63c 36d0 e5bd 27e5 1d3e
00000160: d29a 98bd 993d 9fbd 2b33 62be 4f98 12be
00000170: 8827 48bd f272 993c 7107 823d c683 3d3d
00000180: 439b 30bc ad2d 4f3e bb29 b73e a39f 553e
00000190: cc52 173d ccc3 aa3d 3c62 adbd f219 0ebe
000001a0: 002d e3bd d637 5cbe e569 30be ca7a 7f3c
000001b0: 8d41 71bd ebd8 eebc b348 e93d cb7d 9dbd
000001c0: b670 ef3b 640f 213d 3bc8 3ebe 578d b0bc
000001d0: 9053 973d dc53 0c3d edb5 6ebd 86a0 1e3d
000001e0: 5e2a 5e3c 6a41 013e 1f6f f03c fa4b 1c3d
000001f0: bd81 1c3e 4c58 68bd 87bb 4d3e c5f8 623e
00000200: 406b b83d 1aeb 783d fbff c53d cebf c23e
00000210: ca1a cbbc 619c 313e ac32 bf3d 3132 97ba
00000220: 3d1d dd3d 6b63 ff3c 3aba 27be 2d40 2b3e
00000230: 9a9e b83d 8ea5 85bc 851a 653e 7688 643e
00000240: 89a1 d5be e3a8 b3be 3d38 a7be ed1c 6fbd
00000250: e16c e5bd d6d3 8bbd 43ce e4bc 8a47 8d3b
00000260: 39f2 e4bc c61a 17be 77f6 20be 816b 16be
00000270: 762c 30be 1cc4 d2bd c4d2 8cbe f11c 973d
00000280: fd54 2abe 8b3a 8e3c 66ff e73d 34a7 d13c
00000290: d4e8 633c 7b46 133e d3fe 6c3d 0ea2 ff3d
000002a0: 3493 923d df1a 9dbe 13c6 6dbb d95c 3bbe
000002b0: 6493 d93d 1eb9 1a3d 2f42 9b3d 577d 043e
000002c0: 19c2 313d f800 63be 8853 923d 21d2 f63c
000002d0: 73b9 38be 7da4 94bd 961d ca3d aa99 a9bd
000002e0: d294 eebb 11a7 d5bd 587e 3dbe b3fb a0bd
000002f0: 8230 22be c5df 45be cab0 b33e 032b 573e
00000300: 9a22 0cbe 0b4f b23b e37c f43d 37c5 0cbe
00000310: 99f2 3c3e 388b 0b3d e74f 663d a5fb 263e
00000320: c1d5 81be fcd0 083e fff9 e7bd 4e93 05be
00000330: 2de0 2fbe 39fc 12bd 022f ee3b 486f 25be
00000340: 6ff5 583e d350 e4bc 7b7f 203d db33 c33c
00000350: f022 583c 7628 35be e9d4 6ebd 0c18 8fbd
00000360: 97dd 3bbe 76f2 9dbe b131 083d 2b37 383e
00000370: 4d6d a1bc 7382 a1bd c786 cabe ee38 1dbe
00000380: c811 eb3c e732 00be e6b2 34be 5eee b3bd
00000390: a5f5 aabc bd4d 12be 68f3 6abe 3da0 87bd
000003a0: dc1b 59bd e43b 0fbe 917c 4ebe aad1 e1bd
000003b0: 4cbd 383d c05d d13c c82d 34be 9986 363d
000003c0: 972a 603e d804 833e 4628 293e 84a9 953c
000003d0: 56a2 353e 442e 60bb 2536 6fbd 6635 173e
000003e0: fbca 96bd a0c6 37be 5ce9 343e 7910 013e
000003f0: 3adf 883d d9ab e9bd f0b0 363e 2cbc 883d

block2.0.conv.bias f4 [8]
-0.10086345 0.034908243 0.13524796 0.121944696 0.12891825 -0.06219719 0.016863344 -0.212032
00000000: 7f91 cebd f2fb 0e3d 717e 0a3e 24be f93d
00000010: 2503 043e 7bc2 7ebd ff24 8a3c eb1e 59be

block2.0.BN.weight f4 [8]
1.005352 1.0890216 0.9504148 0.89764255 1.106383 1.0055434 0.9111002 0.9758278
00000000: 60af 803f 0f65 8b3f 624e 733f e7cb 653f
00000010: f59d 8d3f a5b5 803f dd3d 693f dacf 793f

block2.0.BN.bias f4 [8]
-0.011554315 -0.12348138 -0.32918715 -0.24868521 0.04260392 -0.12358871 -0.1279382 -0.034281924
00000000: 4f4e 3dbc cee3 fcbd 388b a8be 56a7 7ebe
00000010: 7381 2e3d 141c fdbd 3b02 03be 346b 0cbd

block2.0.BN.running_mean f4 [8]
-0.44349626 0.47257438 0.06674733 1.0013579 -0.68016464 -0.44280326 -0.49070844 -1.3892161
00000000: f111 e3be 45f5 f13e d3b2 883d 7f2c 803f
00000010: 451f 2ebf 1cb7 e2be 233e fbbe d5d1 b1bf

block2.0.BN.running_var f4 [8]
0.39306486 0.5089721 0.27477327 0.4794982 0.78341085 0.31100488 0.3495153 0.5581515
00000000: cc3f c93e ff4b 023f 15af 8c3e ca80 f53e
00000010: 9d8d 483f 083c 9f3e abf3 b23e 04e3 0e3f

block2.1.conv.weight f4 [16, 8, 3, 3]
0.055903614 0.025658956 0.009943911 -0.2126036 -0.030105127 -0.06744941 -0.20558985 -0.25674924
-0.13356899 -0.14415586 -0.14599386 -0.1269972 -0.1899282 -0.08510048 0.023135858 -0.03559554
-0.22298194 -0.0035069392 0.19051647 0.2952633 0.21454157 -0.0005509276 -0.031247275 0.047650624
-0.08479028 0.071435794 0.063628115 0.15590253 0.19643751 0.19879633 0.1488269 0.100295655
0.24716787 -0.13438466 0.059279118 0.041308723 0.042220004 0.040632736 -0.06948654 0.12334622
0.1318626 -0.077008516 0.16862585 0.09606462 0.0030758688 -0.092377186 0.047332566 0.0757061
0.12003889 0.13082796 0.07788938 0.08279049 0.11858703 0.04219227 0.163816 0.20620081
0.077363074 0.002918625 0.17062634 -0.004834158 -0.078903 0.0045023253 -0.11881941 -0.06835473
-0.0917915 0.10750436 0.08791902 -0.014575438 -0.07539736 0.15834165 0.023725763 -0.0059240274
-0.07066489 0.0034209946 0.04613317 0.21202049 0.0046849684 -0.11510239 -0.22684959 -0.17063314
-0.079816304 0.065663464 0.041209634 -0.008728345 0.20513757 0.024876202 -0.07879721 -0.07519918
-0.11457231 0.12254693 0.0740871 -0.011805727 0.003944673 0.14108592 -0.12761919 -0.031818427
0.013075577 -0.04112222 0.17844895 -0.08653891 -0.108229384 0.025652027 -0.018135244 -0.16396655
-0.110122316 -0.11301446 0.115109816 -0.033880558 -0.1546446 -0.021000583 -0.042728685 0.24747442
0.10432744 0.16667382 -0.05880415 -0.16739525 -0.02012038 0.031772703 -0.011379235 0.1785888
0.1828504 0.13851276 0.2746062 -0.012886466 -0.07443743 -0.18787496 0.15895015 0.14075229
0.04581242 -0.008075101 -0.019603714 0.04938689 -0.030204872 -0.028261939 -0.033581696 0.17108305
-0.039688997 -0.09727399 0.050731856 0.07633088 -0.083673716 -0.06809443 -0.13052626 -0.26929545
-0.067080684 0.14801043 0.06621903 0.00240451 0.194916 0.13255899 -0.015246022 -0.10157046
-0.034960527 -0.1677775 1.2615835e-05 0.11778281 -0.19366299 0.064162366 0.014593781 -0.09180949
-0.07023941 0.07671659 0.23648244 -0.15690295 0.07345672 -0.03415555 -0.10158522 -0.0067271735
-0.19394685 -0.25402078 0.07681425 -0.0423196 0.06358546 0.08772592 -0.06702837 0.060636237
-0.02302107 -0.11445965 -0.08494984 0.08146895 0.11049532 0.2927652 0.28397033 0.27626368
0.30563357 0.20337628 -0.1706812 -0.11945157 -0.02843207 -0.18942389 -0.009966225 -0.06669329
-0.09485588 0.005502048 0.07584014 -0.09896589 0.17952694 -0.06900026 -0.014339614 0.11110931
0.15635975 0.14205967 0.03084398 0.13023761 0.0023946222 0.070405565 0.05471881 -0.0015093483
0.12010612 -0.045963436 0.03446688 -0.08499065 -0.11179592 -0.030147316 -0.16561304 -0.021576002
-0.055055715 0.06315974 0.0027505478 -0.035199728 -0.12896845 -0.16729634 -0.14900081 -0.06702168
-0.12552774 -0.08373789 0.00752635 0.018870639 -0.12104502 -0.041368797 -0.06026413 -0.10834066
-0.09403221 0.008871839 0.18412267 0.17827956 0.08448864 -0.030440753 0.044531345 0.10495874
-0.24645656 -0.20871939 0.015352204 0.10054128 0.18436527 0.14892194 0.06890714 -0.10525072
0.12405949 -0.14020969 -0.06529207 -0.07322052 0.01009181 0.057813995 -0.044515457 -0.00045256154
00000000: 30fb 643d bb32 d23c c9eb 223c c2b4 59be
00000010: 079f f6bc eb22 8abd 2586 52be a374 83be
00000020: 4fc6 08be 989d 13be 6a7f 15be 8e0b 02be
00000030: 8a7c 42be 2949 aebd 6987 bd3c a1cc 11bd
00000040: 6155 64be add4 65bb c016 433e c02c 973e
00000050: c9b0 5b3e 206c 10ba 49fa ffbc 4d2d 433d
00000060: 87a6 adbd ee4c 923d 754f 823d eaa4 1f3e
00000070: ea26 493e 4491 4b3e 1466 183e cf67 cd3d
00000080: 9319 7d3e 229c 09be a9ce 723d 5633 293d
00000090: e2ee 2c3d 836e 263d f64e 8ebd f19c fc3d
000000a0: fd06 073e a4b6 9dbd 41ac 2c3e 87bd c43d
000000b0: 8494 493b 4030 bdbd cbdf 413d cd0b 9b3d
000000c0: f3d6 f53d c4f7 053e 7884 9f3d 0f8e a93d
000000d0: c2dd f23d cdd1 2c3d 62bf 273e 4e26 533e
000000e0: 8870 9e3d 6746 3f3b acb8 2e3e db67 9ebb
000000f0: e597 a1bd 3e88 933b 9757 f3bd 91fd 8bbd
00000100: 2ffd bbbd 3f2b dc3d e30e b43d d1cd 6ebc
00000110: ee69 9abd 5024 223e 885c c23c 581e c2bb
00000120: c1b8 90bd c432 603b 23f6 3c3d e61b 593e
00000130: 5d84 993b cdba ebbd 424b 68be 74ba 2ebe
00000140: bb76 a3bd 917a 863d 6fcb 283d 5501 0fbc
00000150: 950f 523e 2dc9 cb3c 6e60 a1bd 0702 9abd
00000160: e3a4 eabd e3f9 fa3d faba 973d cf6c 41bc
00000170: 5142 813b d478 103e 9bae 02be 0a54 02bd
00000180: f23a 563c c66f 28bd 52bb 363e 503b b1bd
00000190: 5ea7 ddbd 3324 d23c 5d90 94bc d9e6 27be
000001a0: cf87 e1bd 2074 e7bd b2be eb3d 57c6 0abd
000001b0: 275b 1ebe 6a09 acbc 4604 2fbd ef69 7d3e
000001c0: a0a9 d53d 8bac 2a3e 9fdc 70bd a969 2bbe
000001d0: 7fd3 a4bc 1824 023d f96f 3abc fbdf 363e
000001e0: 233d 3b3e 4ad6 0d3e 2f99 8c3e c221 53bc
000001f0: a772 98bd 4b62 40be d4c3 223e 5e21 103e
00000200: cea5 3b3d 6e4d 04bc f897 a0bc e849 4a3d
00000210: 3570 f7bc 9585 e7bc f68c 09bd 6530 2f3e
00000220: ee90 22bd 9637 c7bd 35cc 4f3d 5d53 9c3d
00000230: 205d abbd 1875 8bbd ada8 05be 18e1 89be
00000240: 9961 89bd 0c90 173e d89d 873d fc94 1d3b
00000250: 0f98 473e 8bbd 073e 73ca 79bc 2c04 d0bd
00000260: c532 0fbd ddcd 2bbe 99a8 5337 1d38 f13d
00000270: 974f 46be 8f67 833d c11a 6f3c 9d06 bcbd
00000280: aed9 8fbd 961d 9d3d 7428 723e 2bab 20be
00000290: 7a70 963d b1e6 0bbd e90b d0bd 9f6f dcbb
000002a0: 019a 46be 030f 82be ca50 9d3d 5157 2dbd
000002b0: 1839 823d a6a9 b33d 2c46 89bd b45d 783d
000002c0: af96 bcbc d269 eabd 2ffa adbd 31d9 a63d
000002d0: 5f4b e23d 52e5 953e 8f64 913e 6f72 8d3e
000002e0: 017c 9c3e df41 503e 0dc7 2ebe 06a3 f4bd
000002f0: 5fea e8bc 56f8 41be 6149 23bc 7e96 88bd
00000300: cd43 c2bd 864a b43b 1352 9b3d a1ae cabd
00000310: e9d5 373e 0250 8dbd b3f0 6abc 478d e33d
00000320: c51c 203e 1778 113e 84ac fc3c 025d 053e
00000330: 18ef 1c3b cb30 903d d520 603d 53d5 c5ba
00000340: 33fa f53d 2844 3cbd 252d 0d3d 940f aebd
00000350: 42f5 e4bd 81f7 f6bc 7796 29be 28c0 b0bc
00000360: 1a82 61bd e559 813d 8942 343b 972d 10bd
00000370: 4e10 04be bb4f 2bbe ab93 18be aa42 89bd
00000380: 588a 00be c57e abbd 9a9f f63b 9996 9a3c
00000390: 74e6 f7bd 5472 29bd 85d7 76bd b5e1 ddbd
000003a0: f693 c0bd 315b 113c a78a 3c3e eb8e 363e
000003b0: 6108 ad3d e35e f9bc 8066 363d 9cf4 d63d
000003c0: 1c5f 7cbe 89ba 55be d087 7b3c 96e8 cd3d
000003d0: 40ca 3c3e fe7e 183e 301f 8d3d b18d d7bd
000003e0: e712 fe3d 2193 0fbe d9b7 85bd a4f4 95bd
000003f0: 1e58 253c 5ece 6c3d d755 36bd c845 edb9

block2.1.conv.bias f4 [16]
-0.09604514 -0.12175909 -0.031176955 -0.07168754 0.007222089 -0.07728537 -0.03813136 -0.0977278
-0.062901415 0.045507647 0.14087427 0.03608656 0.07587704 -0.059799884 0.12505488 0.050446615
00000000: 50b3 c4bd d45c f9bd d066 ffbc ebd0 92bd
00000010: 46a7 ec3b cb47 9ebd a12f 1cbd 8325 c8bd
00000020: 75d2 80bd 3a66 3a3d 5841 103e 80cf 133d
00000030: 6c65 9b3d b9f0 74bd 630e 003e 1ca1 4e3d

block2.1.BN.weight f4 [16]
0.9379824 1.0452579 0.8534552 0.95928484 1.0726036 0.94549495 1.0980649 0.88618994
1.011272 1.0159037 1.0480896 0.9144093 0.96960634 0.9222012 1.0283823 1.0332764
00000000: 9d1f 703f 03cb 853f 0a7c 5a3f b193 753f
00000010: 134b 893f f50b 723f 648d 8c3f 58dd 623f
00000020: 5c71 813f 2209 823f cd27 863f ba16 6a3f
00000030: 1f38 783f 6115 6c3f 08a2 833f 6742 843f

block2.1.BN.bias f4 [16]
-0.14784692 -0.082735874 -0.15100177 -0.19453655 -0.2133291 -0.25977266 -0.07564699 -0.12579007
-0.040437307 -0.09283774 -0.16577587 -0.23714034 -0.13498704 -0.22095163 -0.050001446 -0.08634556
00000000: 2f65 17be 6d71 a9bd 35a0 1abe 9734 47be
00000010: f272 5abe ec00 85be cfec 9abd 1dcf 00be
00000020: 97a1 25bd b721 bebd 26c1 29be ebd4 72be
00000030: 0b3a 0abe 2541 62be 51ce 4cbd f1d5 b0bd

block2.1.BN.running_mean f4 [16]
0.27720165 -0.10815774 0.4367754 0.0077710086 0.68100035 0.4010146 -0.4742989 -0.13277045
0.423922 0.24005094 -0.35778114 0.43674597 0.4298589 0.48518524 -0.04989739 -0.11038685
00000000: 60ed 8d3e ce81 ddbd 06a1 df3e f2a3 fe3b
00000010: 0a56 2e3f c951 cd3e 4ed7 f2be faf4 07be
00000020: 4e0c d93e eacf 753e 172f b7be 2b9d df3e
00000030: 7716 dc3e 336a f83e 3561 4cbd 8012 e2bd

block2.1.BN.running_var f4 [16]
0.80650634 0.24127822 0.96181375 0.47103104 0.35640803 0.3209452 0.35059184 0.5753294
1.9645224 0.64500463 0.51087946 0.80326957 0.48041648 0.34204778 0.5577699 0.9472815
00000000: 3377 4e3f a311 773e 6d39 763f fb2a f13e
00000010: 1d7b b63e ee52 a43e c680 b33e ca48 133f
00000020: 7875 fb3f 061f 253f ffc8 023f 13a3 4d3f
00000030: 26f9 f53e e320 af3e 02ca 0e3f 0a81 723f
