result/model/0518 1554.pt (torch, 79197 bytes, 98 tensors)

input_conv.conv.weight f4 [4, 1, 3, 3]
000000 b2 96 13 3f 88 4b aa 3d 19 66 85 3c 49 82 ec bc
       0.5765182 0.08315188 0.016284036 -0.028870719
000010 17 8a 01 3e a1 c8 41 be a7 7a 51 be 22 16 05 be
       0.12650333 -0.1892419 -0.20456944 -0.12996724
000020 99 59 b1 3d c7 ac 1d be 6a cc 68 3d 67 3b b5 be
       0.086596675 -0.1539794 0.05683557 -0.35396883
000030 90 6f f1 3e 89 e0 87 3d cd 0b a4 bd 71 fb 8e 3e
       0.47155428 0.066346236 -0.08010063 0.2792621
000040 c7 07 fd bd 34 73 b4 3d 22 fe a6 3e 83 c1 14 3e
       -0.12354999 0.08811036 0.32615763 0.14526944
000050 e3 03 d9 bd 25 dd 4e be 46 76 ee bd 8d 1c c1 bc
       -0.105964445 -0.20201547 -0.116436526 -0.023573184
000060 4d 27 98 bd c9 9a 94 3e 0c 22 ae 3e f9 b5 6f 3e
       -0.07429371 0.29024342 0.3401035 0.23409261
000070 97 dd 72 3e 17 5e 6f 3e 8b 08 c4 3e 5d c7 cc bd
       0.23717342 0.23375736 0.38287768 -0.09998963
000080 9c 70 1b be 32 33 6c be d5 69 2a 3e 22 9d 7a be
       -0.15179676 -0.23066404 0.16641934 -0.24474004

input_conv.conv.bias f4 [4]
000000 e6 9d b4 bc 25 6f da 3d 4a d3 79 bc 19 d7 be 3e
       -0.022047948 0.106657304 -0.015248129 0.3727348

input_conv.BN.weight f4 [4]
000000 60 03 95 3f bb 64 72 3f 6d f8 82 3f 0a 75 60 3f
       1.1641655 0.9468495 1.0232064 0.8767859

input_conv.BN.bias f4 [4]
000000 71 8d 12 3e 4a ab c9 3e 80 16 7d 3d 98 c9 56 bc
       0.14311768 0.39388496 0.061789036 -0.013109587

input_conv.BN.running_mean f4 [4]
000000 2e 0c 1b 3d e0 1f 19 3e 5b eb aa 3d e3 ce ee 3e
       0.037853412 0.14953566 0.08345672 0.46642217

input_conv.BN.running_var f4 [4]
000000 62 02 d9 3b ce 08 ba 3b e8 ad 54 3c 01 13 5a 3c
       0.0066225985 0.005677319 0.012980916 0.013310195

block1.0.conv.weight f4 [8, 4, 3, 3]
000000 8f 7a 85 bd 97 ec 9a 3e 66 cd 19 3e 57 5b 50 3d
       -0.06517517 0.3025863 0.1501976 0.05086836
000010 3c e7 42 3d 54 83 a8 3d bd 1e cf bc 8f 16 3d be
       0.047583804 0.08228174 -0.025283212 -0.18465637
000020 f0 a8 b6 bd aa bb 4d 3e 96 25 8d 3d 9c ff 9a 3d
       -0.08918941 0.2009112 0.068919346 0.07568285
000030 e8 90 ae bd 60 ce 59 be b4 d3 dc 3d 92 cd 51 3e
       -0.085237324 -0.21270132 0.10782567 0.20488575
000040 79 97 5b be 09 1f f6 3d 01 7e 6c 3e 10 e8 23 3d
       -0.21444501 0.12017638 0.23094942 0.040016234
000050 3f 84 24 3e f1 0f 43 bd b9 e4 22 3d 6d fc 26 be
       0.16066073 -0.047622625 0.03976891 -0.1630723
000060 b5 4d 4f be 4e d6 19 be 45 37 0a be a7 18 d8 3d
       -0.20244487 -0.15023157 -0.13497646 0.10551577
000070 8b da 6a 3e d6 53 30 3c cd 64 fc 3d 65 e5 20 bc
       0.2293493 0.010762176 0.12323914 -0.009820317
000080 87 a3 c3 bc f7 42 10 3d 6d 8e 36 be 98 c3 5d 3b
       -0.023881687 0.035220113 -0.17827769 0.0033838507
000090 fe 6a a0 3d 3b 65 9e bd d0 8e bd 3a 62 59 cf 3d
       0.07832907 -0.07734152 0.0014462117 0.1012447
0000a0 27 de b4 bb f6 90 fb 3b 06 c5 5c bd 61 dd ee bd
       -0.0055196467 0.007677193 -0.053898834 -0.116633184
0000b0 ee 0f 37 be 83 ba c7 3c a8 89 4a 3e 53 da 74 3d
       -0.1787717 0.024380928 0.19779074 0.059778523
0000c0 dd 28 cb 3d 4f cb 91 3c fb 64 a8 bc 82 f6 53 3e
       0.099199034 0.01779714 -0.020555964 0.20699504
0000d0 1d 27 d3 3d e6 b5 dc bc 38 49 5b 3e 15 87 40 be
       0.10310195 -0.026942205 0.2141465 -0.1880153
0000e0 da 5d 1a be 72 15 a8 3e b1 29 26 be 84 62 9c 3d
       -0.15074864 0.3282886 -0.16226842 0.07635978
0000f0 e0 7c af 3e 9f b3 15 bc 68 f4 a4 3d 78 3f 08 3e
       0.3427496 -0.009137063 0.08054429 0.13305461
000100 e0 a2 2c 3b 65 52 fa bc 04 5e 7d 3e 08 05 15 bd
       0.0026342198 -0.030556867 0.24742895 -0.03638175
000110 98 2e 12 be b1 55 74 3e fb 2f 70 3e 25 b2 c5 bd
       -0.14275587 0.23860814 0.23455803 -0.09653119
000120 4e e5 6b be 0e b8 f3 bc b3 92 b3 3d 30 bf d4 bc
       -0.23036692 -0.02975085 0.08768215 -0.025970072
000130 52 77 68 3e 05 d6 b8 3d c3 da c8 3d 9c 9d 86 3d
       0.22701767 0.09025196 0.098073505 0.0657303
000140 65 01 17 be 3b fb a0 be c5 dc 42 3d e6 a6 cb 3d
       -0.14746626 -0.31441674 0.047573823 0.09943943
000150 48 de d9 3c 8a 36 20 3e 8f 95 94 bd ab 00 92 3d
       0.02659525 0.15645805 -0.072550885 0.07129034
000160 3d 4f e5 bd 37 b3 79 be 93 e5 ba bb 34 11 64 3b
       -0.11196754 -0.24384771 -0.005703637 0.0034800293
000170 74 df c0 bd 87 8d 01 3e 86 ce 58 3d 88 bb 12 be
       -0.0941762 0.12651645 0.05293133 -0.1432935
000180 dc ca 89 3e 8d ac 8d 3d 9e ff 01 be 37 c9 3c be
       0.26912582 0.06917677 -0.12695166 -0.18436132
000190 5a 28 40 3e 9b ed 02 3e 46 21 37 3c 2f 19 80 3e
       0.18765393 0.12785952 0.011177367 0.25019214
0001a0 70 10 18 3e 91 0e fa bd 7f 47 20 bc 7d 03 a4 3d
       0.1485002 -0.122098096 -0.009782671 0.08008478
0001b0 ac 2b b2 3d 55 9e 7e 3e a9 17 02 be ea 6b 57 be
       0.08699736 0.24865086 -0.12704338 -0.2103726
0001c0 ae 47 b8 3d 7a 62 0b bd 44 e5 cf bd 83 21 03 bd
       0.08998047 -0.03402946 -0.10151151 -0.03201438
0001d0 f6 d1 5b 3e 6a a7 10 3d 01 c0 49 3e d5 ba 2a 3c
       0.21466812 0.03531591 0.1970215 0.010420521
0001e0 1e 11 19 be 3f b9 80 3c 1c b3 10 3e b7 2f 4e be
       -0.14947936 0.015713332 0.14130825 -0.2013539
0001f0 9e af 05 be 7e 47 05 be d6 93 13 3e de d4 4f 3e
       -0.13055274 -0.13015553 0.14411864 0.20296046
000200 81 35 1a be 1f d9 48 be c9 ce 16 3e 18 2e 2d 3e
       -0.15059473 -0.19614075 0.1472732 0.16912115
000210 6d 84 ab bd 6f 88 20 bd df 88 6b 3e 6e 7e 17 bd
       -0.083748676 -0.039192613 0.23001431 -0.036985807
000220 a1 fe 17 bb f5 c9 d9 bd e0 36 b8 3c 4b 6d 3e bd
       -0.0023192542 -0.10634223 0.022487104 -0.04649095
000230 c2 2c 4a bd 39 e5 6e bd fa 76 a8 3d 10 fc f9 bd
       -0.04935909 -0.058324073 0.08225818 -0.1220628
000240 cf c7 21 3e ec c3 54 bc b6 88 12 be 69 38 16 bd
       0.15798877 -0.012986165 -0.14309964 -0.03667489
000250 ea 60 d3 bd c0 e9 78 be 70 6c ba bd 55 c6 ca bd
       -0.10321219 -0.24307919 -0.09102714 -0.0990111
000260 5e 0d 31 3e ce 32 23 3e b4 b5 2d 3e 77 a1 d2 3d
       0.17290255 0.15937349 0.16963845 0.10284703
000270 be 84 97 bd 84 02 16 be 2e 87 b8 bd c3 e6 17 be
       -0.073983654 -0.14649397 -0.090101585 -0.14834122
000280 74 aa 0a 3e f3 e5 88 3e 0b 05 4e 3d 00 01 25 be
       0.13541585 0.26737937 0.050297778 -0.16113663
000290 9a 84 65 bd b1 e5 25 3e dd 90 d1 bb b7 0d 0f 3d
       -0.05603466 0.16200902 -0.006395443 0.03492519
0002a0 46 0e 0b 3e 9a 4b 0f 3e d5 3b 9f 3d 8d 75 24 3e
       0.13579664 0.13993683 0.07775084 0.16060467
0002b0 59 4e 56 bd 76 0d a8 be bb cb 87 be c2 87 40 be
       -0.052320812 -0.3282277 -0.26522622 -0.18801787
0002c0 9e cc c9 bd 16 6e 85 bd d4 40 23 bd 2a a3 83 39
       -0.09853481 -0.06515138 -0.039856747 0.00025107834
0002d0 c9 11 61 be 21 e0 45 3e ae db 9f 3d f3 a9 28 be
       -0.21979441 0.1932378 0.078055725 -0.1647108
0002e0 9c ff 24 3e 9a 0b 1e be 88 1d 52 bc 9f fd a2 3d
       0.16113132 -0.15434113 -0.012824424 0.07958531
0002f0 80 31 c3 bd 01 77 08 bd 2f 7b 45 3e 9d 98 16 be
       -0.09530926 -0.033316616 0.19285272 -0.14706655
000300 0d 85 c5 bd 48 2f 29 3e 97 1f d6 3d 25 43 7a 3e
       -0.09644518 0.16521943 0.10455244 0.24439676
000310 36 b0 72 3e e8 1f 36 3e 93 20 b3 3d 2a 4f 89 3d
       0.23700032 0.17785609 0.087464474 0.067045525
000320 f4 ef 2d be c9 19 37 3e 86 f7 00 be 1b 13 5d be
       -0.16986066 0.1788093 -0.12594423 -0.2158932
000330 70 c2 97 bc 6d 7c 7f bd 01 64 9e bd d4 60 36 be
       -0.018525332 -0.06237452 -0.07733918 -0.17810374
000340 df 73 92 3c 2c 37 ed bd 1b 77 29 be af 4a 94 3d
       0.017877517 -0.11582789 -0.16549341 0.07240807
000350 c9 bf ba bd 54 df 0b bd f1 93 0f 3d 7d b6 93 be
       -0.09118611 -0.03414853 0.035053197 -0.28850165
000360 b6 0a 5f bd 87 ca be bd 82 b2 33 3b 04 b1 b1 3d
       -0.054453574 -0.09315973 0.0027419631 0.08676341
000370 13 dc cb bd 0e b3 fb bd cd 6c 8f 3d 9a 37 aa be
       -0.09954085 -0.12290011 0.07003174 -0.33245546
000380 cb 50 a6 be 35 da 52 3e 45 1a 19 3d 93 ea a9 bd
       -0.32483515 0.20591052 0.03737857 -0.082966946
000390 a5 de 95 3d d0 6a c4 bd 45 dc 34 be 12 1e 46 bc
       0.07317857 -0.09590685 -0.17662151 -0.01209213
0003a0 c8 ce 4d 3d 77 ea 2a be b2 a0 09 3c c0 4d 41 3e
       0.05024603 -0.16691004 0.008400129 0.18877316
0003b0 68 f9 43 3e ee 25 03 be 1e ee e8 3c c6 88 8c 3e
       0.1913811 -0.12807438 0.028433856 0.274481
0003c0 c4 bb 87 bc 20 7d bf 3d c4 e3 fc bc c4 01 9e bb
       -0.016569026 0.093500376 -0.030870326 -0.004821988
0003d0 2d 5c 22 be f7 d0 1a be a7 45 d4 3d 75 22 61 be
       -0.15855475 -0.15118776 0.10364848 -0.219858
0003e0 11 8a 1d be 7d ae 6f bc f1 de d3 bd 7b b8 7b be
       -0.153847 -0.014629004 -0.10345257 -0.24582092
0003f0 cc 7f 8d be 9a 27 95 be 07 f6 43 be e6 ae 0b 3e
       -0.27636564 -0.29131776 -0.1913682 0.13640937

block1.0.conv.bias f4 [8]
000000 7d d4 e8 3d 29 b4 bb 3d 72 94 a8 bc 9a ef cb 3d
       0.11368654 0.09165222 -0.020578597 0.0995781
000010 47 b3 16 3c 9b e6 fd 3d b6 20 42 bd a7 b7 d0 bd
       0.0091980165 0.123975 -0.047394477 -0.10191279

block1.0.BN.weight f4 [8]
000000 d1 b1 88 3f 2c f7 7f 3f b0 7b 5c 3f 0a 3a 85 3f
       1.0679265 0.9998653 0.8612623 1.0408337
000010 0a 07 8a 3f 1e b8 60 3f 84 ae 76 3f 0c 2c 81 3f
       1.0783398 0.8778094 0.9636004 1.0091567

block1.0.BN.bias f4 [8]
000000 10 ff bf 3d 68 e6 05 be 26 6a ec bd cf bd 40 be
       0.09374821 -0.13076174 -0.11543684 -0.18822406
000010 68 4f 3c be 64 3c 14 3e 99 b8 90 bd 76 2a ab bd
       -0.18389666 0.14476162 -0.07066459 -0.08357708

block1.0.BN.running_mean f4 [8]
000000 ee c4 0d 3f 38 ca 77 3f 6b cb 1f 3e b2 70 22 3e
       0.55378616 0.96792936 0.15604942 0.15863302
000010 1b 91 70 be c5 ec c1 3d 70 aa 69 bf aa 5c 32 bf
       -0.23492853 0.09468988 -0.9127569 -0.69672644

block1.0.BN.running_var f4 [8]
000000 ca ed 2c 3f 88 e9 aa 3f cf c1 95 3e 4e d8 64 3e
       0.6755034 1.3352518 0.29249427 0.22348139
000010 ac 31 a9 3e 1a df cd 3e 97 86 9f 3f 65 eb 95 3f
       0.3304571 0.40209275 1.2462949 1.1712462

block1.1.conv.weight f4 [16, 8, 3, 3]
000000 d9 9f e1 3d 19 85 91 be 8b 01 86 bd 5d c3 cd bd
       0.11016817 -0.28421858 -0.06543263 -0.10047028
000010 30 b4 5b be a8 3a 04 bd f2 56 e3 bd 32 d7 b6 bd
       -0.21455455 -0.0322825 -0.11100568 -0.08927764
000020 fe e0 04 be 65 59 be 3d 31 bc d8 bd 21 f0 0b be
       -0.12976453 0.092943944 -0.1058277 -0.1366582
000030 51 f1 36 3c e9 5e e7 bd 36 c1 ce 3c 7d 34 f2 bc
       0.011165933 -0.112973996 0.025238615 -0.029566044
000040 fc ae 2a be 9f c7 e8 bd 3a 64 91 be 3f 45 d1 bc
       -0.16668314 -0.113662 -0.2839678 -0.025545714
000050 82 54 cd 3d ec cb 3d be d6 7a 1e bd 93 b7 36 bc
       0.10025884 -0.18534821 -0.038691364 -0.011152166
000060 7d 3f d4 3d 11 1d ce 3d 1c 3d 04 3e 62 6c d5 3a
       0.10363672 0.10064138 0.12913936 0.0016282911
000070 de 8c bc bd 6e 69 0e be 26 10 4d 3d 1d 52 c5 bd
       -0.09206556 -0.13907406 0.05006423 -0.096348025
000080 0c 96 cc 3b f7 4d 9f 3b 9c 0a 49 3d 96 69 4a 3d
       0.006243473 0.004861589 0.049082384 0.0494171
000090 8b bd c4 3d 98 cd a8 3d 10 76 54 be b1 39 14 be
       0.09606465 0.08242339 -0.20748162 -0.14475133
0000a0 6c 3e cb bd f0 09 7f be 88 c5 a7 3d 82 06 33 3e
       -0.099240154 -0.24906135 0.08191973 0.17482951
0000b0 e3 0f 13 3e 9e 95 5f bd c5 cb 53 be cd 5a 55 be
       0.14361529 -0.054586045 -0.206832 -0.20835419
0000c0 ca ab f4 bd 01 b5 a9 3d 8d 01 c0 3b d0 32 12 be
       -0.11946829 0.08286477 0.00585956 -0.14277196
0000d0 98 14 98 ba fc b2 29 be 1a 8f f1 bd 2b 7f 80 3c
       -0.0011602817 -0.16572183 -0.117948726 0.015685638
0000e0 02 28 95 bd 6e 48 42 3d b1 5b bc 3c f0 65 c7 ba
       -0.072830215 0.047432356 0.02299294 -0.0015212875
0000f0 81 31 ae 3d 33 7f f4 3d 1b a3 c4 bc 14 be 49 3a
       0.08505536 0.11938324 -0.024003556 0.00076958654
000100 a0 14 1f 3d 6f 73 94 3c f6 6f 91 3c 60 e6 06 3e
       0.03883803 0.01812145 0.017753582 0.13173819
000110 b5 eb 14 bd db bd 8a 3d c4 92 8e bd 6e 46 0d be
       -0.0363576 0.06774493 -0.06961587 -0.13796398
000120 13 26 5f bc 57 0b 29 3e b5 a9 1e 3e 35 e5 80 3c
       -0.013619917 0.16508232 0.15494426 0.015734294
000130 81 0e 37 bd 7c c8 32 3e aa c1 4e be da f7 a8 be
       -0.044691566 0.17459291 -0.20191064 -0.33001596
000140 a9 54 a0 be e4 e7 9c 3d 74 62 93 3d c5 2b 2b 3e
       -0.3131459 0.07661417 0.07196513 0.16715916
000150 4b e5 b9 3d ff 2f 9d 3d b4 90 06 3e 29 ba f7 bc
       0.09076937 0.0767517 0.13141137 -0.030240135
000160 ef 8f 65 3d b7 50 8c 3d 94 02 39 3e 26 a3 cc 3d
       0.05604547 0.06851333 0.1806739 0.099920556
000170 e0 3c e0 3d 65 51 72 3d 15 2e 17 be d4 e8 d9 bc
       0.10949111 0.059159655 -0.14763673 -0.026600279
000180 7d a1 9f 3d c5 be 16 be 61 de f9 bd e5 fa 93 bc
       0.07794473 -0.1472121 -0.122006185 -0.018063972
000190 1b 5b f6 3d f6 54 26 bc 08 ca b0 bd e7 e6 83 bd
       0.12029096 -0.010152092 -0.086322844 -0.064405255
0001a0 b3 4e 19 bd 03 4f 8e bd f0 39 ae bd d7 e4 c1 3d
       -0.03742857 -0.06948664 -0.085071445 0.09467476
0001b0 ca 84 10 3d 36 e3 ef bd 1c 9a 03 bd 78 04 4b 3d
       0.035282888 -0.11713259 -0.032129392 0.04956481
0001c0 64 29 40 be 6c 48 44 3d 15 47 b5 be c1 6b fd bd
       -0.1876579 0.04792063 -0.35405794 -0.12374068
0001d0 f3 d8 17 bd 33 0b d9 3c f6 23 26 bd 23 8d 21 bd
       -0.037072133 0.026494598 -0.04056164 -0.03944124
0001e0 5d 0c f2 3d 04 0f dd 3c 3b ba c6 bd c5 e3 a0 3d
       0.11818764 0.0269847 -0.097034894 0.078559436
0001f0 2b 5f 20 3d 33 7b f0 bd 38 78 bd 3d c1 3d fb 3c
       0.03915326 -0.117422484 0.092514455 0.030669095
000200 3f d4 82 3b f6 c1 8e bd 07 64 cd bd 9a 30 35 3d
       0.003992587 -0.06970589 -0.10028844 0.044235803
000210 5c 22 b2 bd 9f 55 71 3d 9d 9b 87 bc 45 1f e0 bc
       -0.0869796 0.058919545 -0.016553694 -0.02735866
000220 a1 51 04 bc d5 df 34 be 2e 9a 7b 3e cf 7e 9e 3d
       -0.0080761025 -0.1766351 0.24570534 0.077390306
000230 e8 59 9c bd 32 99 d3 bd 23 0d 1e bd 7d d6 67 bc
       -0.07634336 -0.10331954 -0.038586747 -0.014150259
000240 0d 8c a0 bd 4b c2 a5 3d 45 21 39 3c 5d d5 f6 bd
       -0.078392126 0.08093699 0.011299436 -0.120524146
000250 e3 3e 6b 3e 84 29 e2 bc d9 1b 83 be e9 00 89 3d
       0.22973208 -0.027607687 -0.25607184 0.06689627
000260 8b 0c da bd 26 8b c1 bd 9d d1 74 3d b9 39 e3 3d
       -0.10646924 -0.094503686 0.059770215 0.11094994
000270 2c c3 06 be 42 40 43 3e 89 fa 33 bc db 52 07 3e
       -0.1316039 0.19067481 -0.010985025 0.132152
000280 13 ca 2a 3e 2b 4d 47 3e cf 03 58 bb 00 49 f5 bb
       0.16678648 0.19463031 -0.0032961254 -0.007485509
000290 2c 1b 01 3e 3b da 74 bd c8 0e a9 3d d1 c1 a4 3d
       0.12608021 -0.059778433 0.082547724 0.0804478
0002a0 90 2d 3c 3d 77 27 3e bd 4f 53 d5 bd 8e 9b 32 3e
       0.04594189 -0.046424355 -0.104162805 0.17442152
0002b0 85 06 05 3d 56 93 38 be 11 f5 06 3e 09 6d 35 3d
       0.03247692 -0.18024954 0.13179423 0.044293437
0002c0 04 ac 22 bd 8c 97 a1 bc bd c0 7f be 15 af c8 3c
       -0.039714828 -0.019725583 -0.24975868 0.024497548
0002d0 03 33 22 3d 06 a2 d1 bd ac 6b be bd 37 ec 63 bd
       0.03959943 -0.10235982 -0.092978805 -0.055645194
0002e0 53 06 10 be 95 9d a5 3d 9b a7 1a 3e 99 2d 2a 3c
       -0.14064912 0.08086697 0.15102999 0.010386848
0002f0 52 46 ad 3d 27 ff 2d be ce d7 d9 bd 5c af 6f 3d
       0.08460678 -0.16991864 -0.106368646 0.058516845
000300 94 72 99 3d 9c b6 e2 bb 42 cf 32 3e db 20 7d 3d
       0.07492557 -0.0069187414 0.17461875 0.06179891
000310 e2 39 06 3e 9f 7c 7f 3e a5 91 ce 3d 9f 64 38 bd
       0.13108018 0.24949883 0.10086373 -0.045017835
000320 6c fc 5a bd 5e 54 a4 bc a6 4b f3 bd 65 f3 55 bd
       -0.053463385 -0.02005976 -0.11879663 -0.052234072
000330 0b 9d b7 bd b3 a3 9e be 4b 11 5c be 63 05 52 3e
       -0.089655004 -0.30984268 -0.21490972 0.20509867
000340 20 0b 2b 3e 17 1c 00 3e e9 33 03 3e 68 ab 63 3c
       0.16703463 0.12510715 0.12812771 0.013895847
000350 af 46 ce bc c7 d0 06 3e d4 a7 0f 3e 85 b6 1b bd
       -0.025180189 0.1316558 0.14028865 -0.03801586
000360 f0 ba 89 3d 37 a0 7e 3d 8d e9 0d 3d 5d 94 bd 3c
       0.067251086 0.06216451 0.03464656 0.023142034
000370 53 94 0e 3e 7f 3d 1c 3c f9 81 12 3c f9 b1 9e bc
       0.13923769 0.009536146 0.008942121 -0.019371973
000380 fc 22 0c be 8e bc 83 be 47 a5 0b be ff 20 e3 bd
       -0.1368522 -0.25729793 -0.13637267 -0.11090278
000390 94 87 09 bd 24 2e ce bd f8 8c 28 be a6 8a 0b bd
       -0.033576563 -0.100673944 -0.16460025 -0.034067772
0003a0 c1 8a 07 bd 55 32 92 bd f9 f2 b6 3d d0 ba 35 3e
       -0.03309131 -0.07138506 0.08933062 0.17747045
0003b0 6f e2 57 3c 37 8e b2 3d 53 ce 30 be e0 0b b1 bd
       0.013176545 0.087185316 -0.17266206 -0.08644843
0003c0 7c 69 0f 3e 1e 93 4f be 00 d3 7d bb 48 14 01 3d
       0.14005083 -0.20270965 -0.0038730502 0.031513482
0003d0 74 c5 25 bd 0f 2b e9 bd 81 f7 b4 3d 5e 6c 00 3e
       -0.04047151 -0.11385166 0.0883627 0.12541339
0003e0 ea d2 6a 3e 3b fd e4 bd 01 55 f1 3c 33 f0 34 3e
       0.2293202 -0.111811124 0.029459478 0.17669754
0003f0 bc 83 3d be d3 fb 0a be 57 4c 41 be 71 da 86 3e
       -0.18507284 -0.13572626 -0.18876778 0.26338533

block1.1.conv.bias f4 [16]
000000 35 aa ff 3d 26 b6 69 3d 90 5c b0 bb 8f a3 2a 3d
       0.12483636 0.057058476 -0.005382128 0.041659888
000010 df 85 82 bd b7 09 03 be 39 fa 99 3d aa 40 3e 3c
       -0.0637319 -0.12796675 0.07518429 0.011612097
000020 0f 81 7c 3d 97 d4 ad 3d 32 87 84 bd ce 09 18 be
       0.061646517 0.08487814 -0.06471099 -0.1484749
000030 b4 74 11 3b 42 57 e2 3d 82 ed f4 bc 8b 25 39 bd
       0.0022194805 0.11051799 -0.029898409 -0.04520182

block1.1.BN.weight f4 [16]
000000 3c 2c 8c 3f 37 0d 5b 3f 27 c6 7d 3f 04 18 87 3f
       1.0950999 0.8556704 0.9913048 1.0554204
000010 4a f5 7a 3f 65 0b 6a 3f bb ce 79 3f bc 3e 82 3f
       0.9803053 0.91423637 0.9758107 1.0175395
000020 09 4d 93 3f 13 72 78 3f 6e 0a 8b 3f 40 1e 76 3f
       1.1507884 0.97049063 1.0862558 0.9613991
000030 8f 47 85 3f 6c 70 73 3f 4a 1d 75 3f 3b 2d 71 3f
       1.0412463 0.9509342 0.95747817 0.9420964

block1.1.BN.bias f4 [16]
000000 65 d5 d8 3d 44 3b 1e be 7b ac ce bd 02 98 86 be
       0.10587577 -0.15452296 -0.10091492 -0.26287848
000010 06 1f 42 3d 5f 18 b4 be d8 d1 c9 be 9c a7 4a be
       0.047392868 -0.35174844 -0.3941791 -0.197905
000020 9c 5e a8 bd 55 fd dc bd 0d c2 ff bd 95 4e eb bd
       -0.0822117 -0.10790507 -0.12488184 -0.11489598
000030 6f 2f 74 bd 97 d8 9f bd 81 0a 3f be 08 58 ce bd
       -0.05961555 -0.07804983 -0.1865635 -0.100753844

block1.1.BN.running_mean f4 [16]
000000 74 66 54 bf c0 53 01 be 32 da 88 3e e3 7d 61 3e
       -0.8296883 -0.12629604 0.2672897 0.22020678
000010 7f f6 00 bf 72 ae ec 3e 57 c8 83 3f aa ce 22 bd
       -0.50376123 0.4622684 1.0295514 -0.03974787
000020 9c a7 24 3e 68 93 2c bf 26 6f 0c 3e f5 fd ba bf
       0.16079563 -0.67412424 0.13714275 -1.4608752
000030 23 c6 8a bf 51 9d a7 3d c9 b9 97 3e 19 20 17 3f
       -1.0841717 0.081843026 0.2963393 0.5903335

block1.1.BN.running_var f4 [16]
000000 e7 ec 7d 3f d6 c7 bc 3e 4d ad 0d 3f 79 7c 22 3f
       0.9918961 0.36871213 0.5534256 0.6347118
000010 a0 f5 cb 3e b3 be f9 3e 2a fd ee 3e dc c1 aa 3e
       0.39835835 0.48778304 0.46677524 0.33351028
000020 5b 4a 09 3f 32 67 ac 3f 2b 9d 3e 3f fb 36 d5 3e
       0.5362908 1.3468993 0.7445857 0.4164351
000030 b4 80 d8 3f 1d 28 95 3f 08 f4 1b 3f 47 28 ff 3e
       1.6914277 1.1652867 0.6091924 0.49835417

block1.2.conv.weight f4 [8, 16, 3, 3]
000000 15 78 03 3e 13 c4 8d 3d 72 56 e6 3d f1 57 cc 3d
       0.12838776 0.06922164 0.11246957 0.09977711
000010 de 03 03 bc eb a6 67 bd f3 7f ee 3a 0f 48 af bd
       -0.0079965275 -0.05655567 0.0018196091 -0.08558666
000020 c5 c9 22 be 97 aa e5 3d 6d aa 4d bd 0f 6b 10 3d
       -0.15897281 0.11214178 -0.05021136 0.03525835
000030 aa 98 50 3d 21 78 2a 3e 09 cd 92 3d c5 54 14 bd
       0.05092684 0.16647388 0.071680136 -0.036213655
000040 10 9c ef bd 34 28 a5 bd 20 de 33 3d c1 de 26 3d
       -0.116996884 -0.08064309 0.043913007 0.04073978
000050 7f 2a c2 3c 86 3c 59 3a fb b4 12 bd 5b 08 c1 3d
       0.023701904 0.0008286912 -0.035817128 0.09425422
000060 99 58 b2 bd 0d f5 2b bd af 29 6f 3d 4b c2 fd 3c
       -0.08708305 -0.041981746 0.058389362 0.030976435
000070 91 92 1d be 93 7f 38 be 38 bf 6b 3c a6 a6 95 bd
       -0.15387942 -0.18017416 0.014388852 -0.07307176
000080 27 75 67 3d 91 68 5a be ee 32 6b be 08 a1 ac bd
       0.05650821 -0.21328951 -0.22968647 -0.08429152
000090 24 ac 30 3d 41 2c 00 3e 75 95 03 bd 6e 13 66 3d
       0.043132916 0.12516882 -0.032124955 0.056170873
0000a0 ec 59 5c 3c 51 6a 99 bd 8b c7 31 3e 6c 89 6b bc
       0.013449173 -0.07490981 0.17361276 -0.014376026
0000b0 de 7e 14 be 2a 16 18 3e 59 7b 41 be 5b e1 08 be
       -0.14501521 0.14852205 -0.1889471 -0.13367216
0000c0 68 cd 0c 3e 88 d5 8a 3c 88 05 17 3c 87 7b 93 3e
       0.13750231 0.016947523 0.009217627 0.2880518
0000d0 37 3c 2d 3e 42 eb 9b 3d bf 71 26 3e 02 bc fa 3d
       0.16917501 0.07613231 0.16254328 0.12242891
0000e0 7b 3e 60 be 82 a1 74 3d 89 3b 51 3d 17 63 be bd
       -0.21898834 0.05972434 0.051082168 -0.09296244
0000f0 00 0c d9 3d 39 97 eb bd bd 8c 20 be 65 fe ab 3e
       0.10597992 -0.11503453 -0.15678687 0.33592525
000100 a2 8e 96 bd 70 e3 b5 be 0f e6 10 3e a4 8b 85 bd
       -0.07351424 -0.35525084 0.1415026 -0.06520775
000110 b7 f4 27 be 4b be e0 3d b1 e1 2a be 3f 04 6a be
       -0.16401945 0.109737955 -0.16687657 -0.22853182
000120 29 4b e2 3c d4 9e d6 3d cc e4 96 bd a2 59 b1 bc
       0.02762373 0.10479513 -0.07367858 -0.021649186
000130 1c de 2d bd f8 49 e3 3c 24 82 22 3e 33 db ef 3c
       -0.042448148 0.027745232 0.15869957 0.029279327
000140 9a 44 0c 3d ff 29 42 bd 32 ee e9 39 9f 08 ff 3d
       0.03424511 -0.04740333 0.00044618692 0.12452816
000150 d6 9b 1d 3d 72 31 8c 3c 77 48 06 3e 6a 26 ed 3d
       0.038478695 0.017113421 0.1311358 0.115795925
000160 fe 6e 27 3e e3 6b 10 3e 1f b1 c5 3d 99 74 21 3d
       0.16350934 0.14103656 0.09652924 0.039417837
000170 a1 f0 18 3e b3 ff 2b 3d 83 fa 77 3c 61 f4 9b 3d
       0.14935543 0.0419919 0.01513541 0.07614971
000180 8b c3 07 3d b3 97 c2 3a ce 6c 14 bd 19 58 00 be
       0.03314547 0.0014846235 -0.036236577 -0.12533607
000190 4d f8 97 3a 03 74 5b 3c c4 20 97 bd 97 a5 10 3d
       0.0011594385 0.013394359 -0.073792964 0.03531417
0001a0 7e a2 01 3e de 30 49 bd c1 ad 2a 3e 9b 4c 83 bc
       0.12659642 -0.04911887 0.16667844 -0.01602774
0001b0 d2 95 14 3d 3f 79 22 bd cd 31 ca 3a d3 4b 75 3c
       0.036275692 -0.03966641 0.0015426219 0.014971691
0001c0 02 25 3f bd 97 41 26 bd 0f af 7a bd 75 87 89 bd
       -0.046666153 -0.040589895 -0.061202105 -0.067152895
0001d0 43 fe 83 bd 9c d1 cf bc 53 7f 99 be 54 22 19 be
       -0.06444981 -0.025368504 -0.29979953 -0.14954501
0001e0 57 a4 b4 3d e7 05 ec bd a8 e0 05 be 0f e3 90 bd
       0.08820408 -0.11524563 -0.13073981 -0.07074558
0001f0 bd 94 d7 bd cd 09 23 bb e7 94 eb bd 79 b4 b4 3c
       -0.105264165 -0.0024877668 -0.1150301 0.022058712
000200 15 60 d8 3d 13 42 9e 3d 00 13 c7 3d 72 52 39 3d
       0.10565201 0.077274464 0.09720421 0.04524464
000210 4e fb bc 3d 71 eb 76 bd 3f 1c 9a 3c f0 85 57 3e
       0.0922762 -0.06028313 0.018812297 0.21047187
000220 9a a4 18 3d f5 4e 92 3d cc 85 16 3d 53 01 53 3c
       0.03726635 0.07143966 0.036748692 0.012878734
000230 ed b0 a0 bd ae 33 9c 3d d4 5d 27 be 68 21 80 bd
       -0.07846246 0.076270446 -0.16344386 -0.06256372
000240 ec ab 27 3e 5b 16 5e 3e 50 9c e2 bc 79 64 bb 3d
       0.16374177 0.21688215 -0.027662426 0.09150023
000250 47 f8 2d bb ca 6d bb bd 50 34 9d 3d 44 ac 98 bd
       -0.002654569 -0.091518 0.076759934 -0.07454732
000260 87 ed 82 be 6b eb 0b be a7 67 c7 bd e6 23 3b bb
       -0.25571844 -0.13664024 -0.09736567 -0.0028555333
000270 b6 df 8e bd 9f f2 a6 bd b5 c1 b1 3d b5 b4 01 3c
       -0.06976263 -0.08151745 0.08679525 0.007916619
000280 76 61 3f bd 48 ba 04 be 3a 27 3f 3d 22 dc b4 bd
       -0.046723805 -0.12961686 0.04666827 -0.088310495
000290 43 24 b0 bd a8 f4 5d 3d 72 fb d5 3c c1 bc 6b 3d
       -0.086006664 0.0541884 0.026120875 0.057553057
0002a0 b1 b7 a0 3e fe f1 b6 3e 7b 3d 91 3d e9 9f 9c 3d
       0.31390145 0.357315 0.070918046 0.07647688
0002b0 ac b1 e4 bc f7 93 b6 3c 75 9c 25 bd 44 9d cd bd
       -0.027916752 0.022287352 -0.040432412 -0.10039762
0002c0 90 23 11 3e ef 2c c1 3d 9e 84 1f 3d 05 73 f7 3c
       0.14173722 0.094323985 0.038944833 0.030206213
0002d0 40 ca c5 bb c8 07 8f 3d ce 3b 9b bb d0 26 f0 3d
       -0.006036073 0.06983906 -0.004737354 0.11726153
0002e0 38 ad 9b 3c e4 af 86 bd 63 01 b5 bd 8f 61 45 bd
       0.019003496 -0.06576517 -0.08838155 -0.048188742
0002f0 c3 00 e9 3c 4f 03 94 bd aa 92 f9 bc 17 e0 ee 3c
       0.028442746 -0.072271936 -0.030465443 0.029159589
000300 2f e8 46 bd cd 14 91 bd 8d 0d 14 be ec 65 16 bd
       -0.04856127 -0.070840456 -0.14458294 -0.036718294
000310 54 07 06 3d 01 9d 09 3e 04 35 3d be 20 f8 c6 bd
       0.032721832 0.13438798 -0.18477255 -0.09715295
000320 46 7f 93 3b 38 2f 19 be 40 82 4d bc 03 32 c2 3d
       0.004501256 -0.14959419 -0.012543261 0.09482195
000330 ed 03 3d bb d0 21 50 3d 8d 52 18 3e 9f f8 2a be
       -0.0028841451 0.050813496 0.1487524 -0.16696404
000340 f4 29 d9 bd 15 68 83 bd ee c2 3a be 3e fb 42 be
       -0.10603705 -0.064163364 -0.18238422 -0.19041154
000350 bf 07 c4 bd 26 1e ad 3c 06 c4 4a 3e 7f aa b5 3d
       -0.0957179 0.02113254 0.1980134 0.0887041
000360 64 37 64 3d 1d 42 1e 3e 76 61 18 3e 33 72 bb bd
       0.055716887 0.15454908 0.14880928 -0.09152641
000370 23 3a 87 3c 0d c7 ad bd 16 5d 5f be b5 8f 5e bd
       0.016507214 -0.084852315 -0.21812853 -0.05433627
000380 6a 96 46 be b3 94 dd bd 9a 84 d4 bd 0e 9a 8d bc
       -0.19393316 -0.10819378 -0.10376854 -0.017285373
000390 d2 5d 30 be 1b 3c 76 be f9 9a 6b bd 77 48 c9 bd
       -0.1722329 -0.24046366 -0.05752084 -0.09828275
0003a0 89 3c 1f be cf 64 94 b8 fe ba d8 3c d7 48 a4 bc
       -0.15550436 -7.075967e-05 0.026456352 -0.020054264
0003b0 f5 3c 3a bd bb 55 70 be c5 ae 4f be 57 c7 b7 bc
       -0.04546829 -0.23470204 -0.20281513 -0.02243392
0003c0 af 46 a2 bc 0a 60 fa 3d fc 6a 12 3e 0e eb 54 3d
       -0.019809095 0.12225349 0.14298624 0.051981978
0003d0 bf 44 8f 3c 75 ee d9 bd ad 94 c6 3d c1 e3 9e ba
       0.017488835 -0.10641185 0.096963264 -0.0012122319
0003e0 3a a6 76 bd a7 ff 1b 3d 35 f4 da 3c 5c 98 8a 3d
       -0.06021712 0.038085606 0.026727775 0.067673415
0003f0 87 53 8f 3d ea a3 f7 3c 55 ae 96 3d 13 e9 44 bd
       0.069983535 0.030229528 0.0735747 -0.04807384

block1.2.conv.bias f4 [8]
000000 9a b4 05 3d cc 62 d9 bb 3d c1 18 bd 80 15 39 3d
       0.03264294 -0.006634092 -0.03729366 0.04518652
000010 98 8f 10 3c f0 c7 88 bd d2 9e 6f bc 34 29 44 3d
       0.008823298 -0.0667876 -0.014625268 0.047890857

block1.2.BN.weight f4 [8]
000000 ba 15 7f 3f be 59 90 3f ca 67 84 3f 57 aa 7e 3f
       0.9964253 1.1277387 1.0344174 0.9947867
000010 a9 3b 81 3f 58 20 76 3f be b4 7c 3f 08 b1 64 3f
       1.0096332 0.961431 0.9871329 0.8933263

block1.2.BN.bias f4 [8]
000000 b7 d3 d1 be 1c 7d 40 be 82 25 16 be 21 f1 43 bd
       -0.40981838 -0.18797725 -0.14662746 -0.04783738
000010 28 bd c9 bd 1b 0a 2e be bb 67 07 be d7 5e 09 be
       -0.09850532 -0.16996042 -0.13223164 -0.13415085

block1.2.BN.running_mean f4 [8]
000000 ca 98 60 3e 8e b1 55 bf a0 0d 23 3f cc f2 ab be
       0.21933284 -0.8347405 0.63692665 -0.33583677
000010 10 c6 29 bf c6 5c 4c bf 30 95 cb be 77 54 5f 3f
       -0.66317844 -0.7982906 -0.3976226 0.8723826

block1.2.BN.running_var f4 [8]
000000 e4 55 4c 3f de 42 ab 3f d7 2e 69 3f 7b 24 a2 3f
       0.7981856 1.3379781 0.91087097 1.2667383
000010 7d e3 90 3f 84 ea 81 3f d8 6b 1e 3f db 6a a6 3f
       1.1319424 1.0149693 0.61883307 1.300136

block1.3.conv.weight f4 [4, 8, 3, 3]
000000 31 3b 85 3e eb e2 60 3d 17 7b 90 bd 97 bf 43 3e
       0.26021722 0.054903906 -0.070547275 0.19116054
000010 6a 9c 45 bd 64 bc ef bc 74 8d a9 3d 92 3f 3a 3a
       -0.04824487 -0.029264636 0.08278933 0.00071048096
000020 33 aa 8d be b6 b1 0f bb 97 d6 2b 3e 84 b7 6c bd
       -0.27668914 -0.0021925992 0.16781078 -0.0577922
000030 a0 3a 22 3d 24 5e 82 3d b3 aa 73 be 80 c2 97 be
       0.03960669 0.06365612 -0.23795585 -0.2964058
000040 fc f8 5b be a0 a8 70 be 3e 7f 8a 3e cb ed 0b 3e
       -0.21481699 -0.23501825 0.27050203 0.1366493
000050 ef 9f 98 bd 4e f3 ef bb ad cb 21 be 55 48 06 be
       -0.0745238 -0.0073227054 -0.15800352 -0.1311353
000060 da bb b8 bd a2 b6 7e be 6f de d7 bd 20 da ea bd
       -0.09020205 -0.24874356 -0.10540473 -0.11467385
000070 e7 b7 31 3d a3 97 aa 3c 81 d5 81 bd df 77 03 bd
       0.043388274 0.02082426 -0.06339551 -0.03209674
000080 60 67 0f bd 18 d6 69 3d 3e 08 1d bd 23 7b 9b 3c
       -0.035010695 0.05708894 -0.03833794 0.018979615
000090 16 1e c6 3d 13 58 b0 3d a4 94 37 3e f5 d4 8c bd
       0.09673707 0.08610549 0.17927796 -0.06876556
0000a0 20 93 e7 3d 3c 75 91 3d 93 dc 86 bc a7 83 7c bd
       0.11307359 0.07102439 -0.0164626 -0.06164899
0000b0 24 31 d8 bc e0 e3 b5 3d b1 11 02 be 3d ae 28 bd
       -0.02639062 0.08881354 -0.12702061 -0.04118179
0000c0 28 b7 18 be 97 e9 51 be 6e 3c 46 3d 87 14 1b be
       -0.14913619 -0.20499264 0.048397474 -0.1514455
0000d0 d3 9a 16 3c e3 7f ac bc 29 b4 11 be b7 e5 52 3d
       0.009192186 -0.021057075 -0.14228882 0.051488604
0000e0 41 02 60 bd dd 26 bb 3c b1 c5 50 3c a6 68 2f bd
       -0.05468965 0.02284568 0.012742446 -0.04282441
0000f0 dd dc c5 bd 0d 1f 0b bd c4 03 c8 bd e1 29 32 3a
       -0.09661267 -0.03396516 -0.09766343 0.00067964016
000100 e0 7b 13 be 76 6e b9 3b bb 4f db bd a0 08 82 bd
       -0.14402723 0.00565892 -0.10708567 -0.06349301
000110 d0 ee b5 bd c8 82 18 bc d3 1a ae bc 22 d8 c3 bc
       -0.088834405 -0.009308524 -0.021253025 -0.023906771
000120 c7 a2 83 bc 0a 7e 56 bb 5e 94 3f 3e ef c4 84 3d
       -0.01606883 -0.0032728934 0.18708941 0.064828746
000130 93 96 ae bd 2f 53 49 bd 1a 4e 31 3e b0 8c 43 3c
       -0.085248135 -0.049151596 0.1731495 0.011935398
000140 90 72 35 3c 6d 20 88 3d 56 75 04 be d3 2a 79 be
       0.011074677 0.0664681 -0.12935385 -0.24332742
000150 95 b2 0f 3e 1a 8b d8 3d 73 9d f8 bc 7f 20 9e be
       0.14032967 0.105734065 -0.030348515 -0.30884168
000160 11 6c b3 be 25 32 9a be 95 fe 1a be da ee 85 3d
       -0.35043386 -0.30116382 -0.15136178 0.06539698
000170 4e b9 36 3d dc d8 75 3d 26 de 0f 3e 32 96 df 3d
       0.044610314 0.060021266 0.14049587 0.10917319
000180 33 6a f6 bd 9b 07 60 3e 13 82 27 3e 72 a5 af bd
       -0.12031975 0.21877901 0.16358213 -0.08576478
000190 0d aa 1f 3e f4 63 d0 3d 49 9c 6b be ce 4a 83 bd
       0.15592213 0.101753145 -0.23008837 -0.06410752
0001a0 f9 8a 43 be 8f 2a 16 3c 1d 23 4a bd 22 33 9e 3d
       -0.19095983 0.00916542 -0.049349893 0.077245966
0001b0 2f 8e 53 3d 48 b9 25 be 36 7e 0a be 4a a0 40 3e
       0.05164927 -0.1618396 -0.13524708 0.18811145
0001c0 51 32 71 3d b1 61 87 bd 5e dc 55 3d 77 6c 08 3d
       0.058885876 -0.0661043 0.05221211 0.033306565
0001d0 da c7 3e 3e aa a7 a4 3c 57 92 3c bc 09 43 09 3e
       0.18630925 0.02009948 -0.0115094995 0.13404478
0001e0 71 39 d2 bc c7 f8 01 3e 26 88 80 3d 28 2f 75 bd
       -0.025662156 0.12692557 0.06275968 -0.059859425
0001f0 ee f9 8d 3c b1 17 6f 3d 41 1c c1 3c db b2 bd bd
       0.01733109 0.058372203 0.023573043 -0.092626296
000200 d2 78 8f bd ca 34 4d 3c fa 37 30 be cb e4 4c be
       -0.070054665 0.012524793 -0.17208853 -0.20009153
000210 ee 34 1f bd dd 1e 05 bd da 32 1a be 40 c2 98 bd
       -0.038868837 -0.032500137 -0.15058461 -0.07458925
000220 f9 13 15 bc a5 96 94 3d 2b 32 54 be 38 0c 29 be
       -0.009099 0.07255296 -0.20722263 -0.16508567
000230 b4 04 97 bd e3 e4 24 be 96 b0 51 3d 1e e3 16 bd
       -0.07373944 -0.16102938 0.051193796 -0.03683769
000240 ed e9 26 bd 83 1c a6 bd b6 25 4b 3d 59 6f f8 3d
       -0.040750433 -0.08110907 0.04959651 0.12130613
000250 bd 0c 07 3e c0 3b 23 3c 5a 5b a7 3d fc 3e 2e 3e
       0.13188453 0.009962976 0.08171721 0.17016214
000260 df ca 82 bd 88 64 55 be 8c a9 88 be 3a 94 b1 bd
       -0.06386351 -0.20839131 -0.26691854 -0.0867085
000270 9d 36 a4 3d f2 b0 f6 bd cb eb 1d be 13 b5 88 3c
       0.08018229 -0.120454684 -0.15421979 0.016687905
000280 0c 5f cb bc 65 b5 2e bd 5c a9 2f bb fb 63 09 3e
       -0.024825595 -0.04265346 -0.0026803827 0.13417046
000290 cd 7d 47 3e 9e 04 1c be e3 ff 1c bd a8 b4 8d bd
       0.19481583 -0.15236136 -0.03832997 -0.06919223
0002a0 6a 92 3b bd 29 4f 6c bb 24 ca 38 3d de 9c 98 bd
       -0.04579393 -0.0036057925 0.04511465 -0.07451795
0002b0 42 63 63 bb ad 98 9f 3c 74 a7 03 3e 07 d3 f8 3d
       -0.0034696613 0.019481981 0.12856847 0.12149625
0002c0 fb 92 66 3d 2c a1 97 3d a1 88 55 3e 1b 75 20 3e
       0.056292515 0.07403788 0.20852901 0.15669672
0002d0 ed 1d ba 3d 91 17 23 be 8c 0c 03 be 85 87 ff 3d
       0.09087739 -0.15926959 -0.12797755 0.1247702
0002e0 0e a0 eb 3d db ac 91 3d 61 8e 57 bd d0 4e c5 bb
       0.115051374 0.07113048 -0.052626017 -0.006021358
0002f0 88 f3 a0 bc 6a 13 47 3e 60 c5 0d 3e bc ba 17 3e
       -0.019647375 0.19441 0.13844824 0.14817327
000300 31 5e c7 3d 37 39 16 3e 08 94 7a bd ea f7 b7 3d
       0.097347625 0.14670263 -0.06117633 0.08982833
000310 42 84 85 bd ea 0e eb bd ef 49 57 3d c4 e4 b4 bc
       -0.06519367 -0.11477454 0.052560743 -0.02208174
000320 2c ad 16 be 9b 77 08 bd ac 3f 97 3d 20 6f a6 3c
       -0.14714497 -0.03331719 0.07385191 0.02031666
000330 7a 40 8b be b3 a6 8b be 19 d3 55 be 5a ec 5a 3c
       -0.2719763 -0.2727562 -0.20881309 0.013362015
000340 3a 7e 5b 3d dd 10 e2 bd 94 6b 8f 3d 48 83 67 3b
       0.053587176 -0.11038373 0.07002941 0.0035326052
000350 a9 50 24 3e 00 98 ae bd 99 2c 83 bd 6c 07 e1 bc
       0.16046394 -0.085250854 -0.06404991 -0.02746936
000360 1b b6 f2 3d 1c a4 17 be 29 7f d0 bd 6a 10 d3 3d
       0.1185114 -0.14808697 -0.10180504 0.10305865
000370 c3 b6 01 be eb 98 4f bd 37 58 38 3c 73 c7 3c be
       -0.12667374 -0.050682943 0.011251501 -0.18435459
000380 f0 3f a7 bd da 2a 1b 3e 93 37 f6 3d 11 7d a3 bd
       -0.08166492 0.15153065 0.12022319 -0.07982839
000390 34 0e da 3d 3e a9 f1 3d 68 fa 75 3d 0a 19 13 3e
       0.1064724 0.117998585 0.06005326 0.1436502
0003a0 df 7c ae bd 4e 07 a9 bb 9e 93 4c 3d a8 22 0e bc
       -0.08519911 -0.0051583415 0.049945466 -0.008675255
0003b0 8a d4 9e 3c 6c 33 12 be 67 08 22 be 11 0e 22 bd
       0.019388456 -0.14277428 -0.15823518 -0.039564196
0003c0 09 a9 73 bd eb 4a ec 3c 7c c5 91 bc 68 c0 6d bd
       -0.059487376 0.028844317 -0.017794363 -0.05804482
0003d0 e8 75 52 3e 35 9f 16 3e 9c 29 88 3d 0b 99 cf 3c
       0.2055279 0.1470917 0.06648561 0.025341531
0003e0 3a ec 22 3e 96 48 e2 3b e0 59 46 3d 38 3d 39 3e
       0.15910426 0.0069056256 0.048425555 0.1808976
0003f0 25 fa ab 3d ff 5f 41 3e 38 e0 42 3e 10 2d 9e bd
       0.08397321 0.18884276 0.19030845 -0.07723439

block1.3.conv.bias f4 [4]
000000 45 6b 2f 3e bc 0f 05 be 47 66 89 bd b3 74 51 bd
       0.17130764 -0.12994283 -0.06708961 -0.051136684

block1.3.BN.weight f4 [4]
000000 04 e7 8b 3f b3 8e 83 3f a2 a6 69 3f 05 18 87 3f
       1.0929875 1.0277923 0.91269886 1.0554205

block1.3.BN.bias f4 [4]
000000 fb 20 63 3d 3c 5b ce bc d8 99 fd bb 9a 98 04 be
       0.055451375 -0.025189988 -0.007739287 -0.12948838

block1.3.BN.running_mean f4 [4]
000000 65 1e cb be 01 7f cb be 9c 9c a5 3c 9a 12 cd be
       -0.39671627 -0.39745334 0.020216279 -0.40053254

block1.3.BN.running_var f4 [4]
000000 39 3f 28 3f 1f d9 0d 3f a0 41 6e 3f b8 8e 1d 3f
       0.6572147 0.55409425 0.93068886 0.61545897

block2.0.conv.weight f4 [8, 4, 3, 3]
000000 ab 4b 66 3e ae 29 9d 3e 45 f9 63 3e 15 10 7a 3e
       0.22489803 0.30695862 0.22263058 0.24420197
000010 9b ef d1 3d 88 e8 fb 3c 84 b5 67 3e 6c 58 53 bd
       0.10250779 0.030750528 0.22627836 -0.051597998
000020 90 12 1a bd 40 dd f6 bd 96 ba 2a be f1 be f4 3d
       -0.03761536 -0.12053919 -0.1667274 0.11950482
000030 22 d6 6e be c9 cd a7 bd da 4a 98 be d5 b3 84 bd
       -0.23323873 -0.08193547 -0.29744607 -0.06479613
000040 c9 48 de 3d 49 44 84 3e 4c 97 19 3e 0f bb 2f 3e
       0.108537264 0.25833347 0.14999121 0.17161201
000050 04 cf 0b 3e 4b 17 a6 ba 75 eb 59 3e 94 e8 01 3e
       0.13653189 -0.0012671737 0.21281226 0.12686378
000060 8f d5 19 be 48 da 71 bd 25 ed 00 bc 49 03 6e 3d
       -0.15022872 -0.05904606 -0.00786904 0.0581086
000070 41 5e 09 3e 3e da 97 3c 97 15 c6 3d d3 06 35 3e
       0.13414861 0.018536683 0.09672087 0.17678384
000080 09 56 14 3e 26 7b e8 3d b9 df 04 3c 96 9e b1 bd
       0.14485945 0.11351614 0.00810998 -0.08672826
000090 57 cc ff bd bb dd 3c 3e d0 25 9e 3e d1 56 e2 bc
       -0.124901466 0.18443958 0.30888224 -0.027629288
0000a0 14 0b 38 bc bb c9 5e bd 69 36 f8 bc 88 97 0e bd
       -0.01123311 -0.054391604 -0.030299382 -0.03481248
0000b0 b1 70 a0 bd 8f ac 5b be fd ea 23 3c ac d4 83 3d
       -0.07833994 -0.21452545 0.010004756 0.06437048
0000c0 2e bc 27 be e0 d3 30 3e b9 65 3a bd e3 5a 1c bc
       -0.16380379 0.17268324 -0.045507167 -0.009543153
0000d0 7c d5 25 3e d3 72 9b 3d 87 fb 41 3d 30 ce 27 be
       0.16194719 0.0759026 0.047359016 -0.16387248
0000e0 7a 3a 1a bd 55 73 68 3e e0 c1 07 3e 89 ae 4f be
       -0.037653424 0.22700246 0.13257551 -0.20281424
0000f0 24 9c db bd 8d ac 07 be c5 f2 be 3d d4 99 19 be
       -0.10723141 -0.13249417 0.09323648 -0.15000087
000100 4a 94 f7 3c 9f 7c cb 3d ed 7b 6e be 53 40 3b 3d
       0.030222077 0.09935879 -0.23289461 0.04571564
000110 f3 d7 05 3e e8 e5 50 be e6 b5 e6 3d ae f3 3d 3e
       0.1307066 -0.20400202 0.11265163 0.18549988
000120 c7 88 cb 3d 56 dc 02 3d 1c 49 ba 3d c8 fe 82 ba
       0.099381976 0.03194841 0.09095976 -0.0009994144
000130 97 d6 94 3e b0 e3 31 bc a8 25 46 be 24 09 49 3d
       0.2906997 -0.010857508 -0.19350302 0.049080983
000140 c8 12 d3 bd f1 24 44 3c e4 ae 74 3e f9 77 a5 3e
       -0.103063166 0.011971698 0.2389484 0.32318094
000150 29 7e 0d 3e 81 6b ca bd 56 b5 b3 bd e1 d6 85 39
       0.13817658 -0.09883786 -0.087748215 0.00025527834
000160 71 b2 0b 3e fb b5 94 3d ca 56 31 3d ec 06 d2 3d
       0.13642289 0.072612725 0.04329566 0.102552265
000170 0f 5f 32 ba cc ed e9 3d 71 48 ba bd 5d b2 cc 3b
       -0.0006804326 0.11422309 -0.09095848 0.0062468485
000180 7a fc e7 3c d0 7e d9 3d a1 9b dc 3d ce 71 db 3b
       0.028318632 0.10619891 0.10771871 0.006696916
000190 02 e5 99 3e 51 77 f9 3d 76 75 4f bc 41 75 31 3e
       0.30057532 0.12180961 -0.012662282 0.17329885
0001a0 74 48 5c 3e ad f3 7d be c8 52 ee bd 1d e0 88 3d
       0.21512014 -0.24799986 -0.11636883 0.06683371
0001b0 d0 12 01 be 29 fa 85 be 8e 14 87 be 33 12 0f be
       -0.12604833 -0.2616742 -0.2638287 -0.13971786
0001c0 1a a9 53 be 3d bb 1a be 27 74 18 3e a8 73 0b 3e
       -0.20669976 -0.15110488 0.14888059 0.13618338
0001d0 7f a1 57 be 2a 83 e9 3d 5d 36 87 3e c2 61 45 3d
       -0.210577 0.11401971 0.26408663 0.048188932
0001e0 72 72 d9 bb 35 19 a0 3e 5e 20 31 bd d2 3c 98 bd
       -0.0066359574 0.3126923 -0.04324376 -0.074334756
0001f0 e5 cf 0e 3c 8d 14 96 3c 54 c8 e1 bd e5 29 d6 bd
       0.008716558 0.018320346 -0.11024538 -0.104572095
000200 48 b6 5a bd c0 ad 70 3e 77 f1 c6 3b 72 35 a4 3c
       -0.053396493 0.2350378 0.0060712653 0.020045016
000210 f4 4d 66 bc 0b 41 30 3e 7d 20 c5 3d bf 48 77 3e
       -0.014056671 0.17212312 0.09625337 0.24148844
000220 19 b9 cb 3d d6 db 23 3e 81 a6 1c bd d0 6f 90 3c
       0.09947414 0.1600183 -0.038244728 0.017631441
000230 95 35 c9 bc 1f a8 74 3e 68 02 7b 3c 1b 97 34 3e
       -0.024561683 0.23892258 0.015320398 0.17635767
000240 5d 01 05 be 09 4b 7d 3b d9 41 9c be e2 f3 3a be
       -0.12988801 0.003864946 -0.30518988 -0.18257096
000250 73 e3 90 be 91 fb 6c be a8 d7 2e be 15 ae 42 be
       -0.2829853 -0.2314284 -0.17074454 -0.1901172
000260 ed 5b 84 be 98 3d 2f bd e0 41 e7 3d 50 b6 33 3e
       -0.25851384 -0.04278335 0.112918615 0.17550015
000270 fe 02 0b be c0 28 7b b8 fd 18 f1 3b 73 d4 4b be
       -0.1357536 -5.9881015e-05 0.007357715 -0.19905262
000280 7b c3 3e be aa 4e 70 bd cc f4 6c bd f6 f4 21 bd
       -0.18629257 -0.05866877 -0.057850644 -0.039540254
000290 d2 ce 02 be 59 c8 c1 bd 13 dc 3d 3e fc 4c cc 3c
       -0.12774208 -0.094620414 0.18540983 0.024939053
0002a0 57 1e 1a 3e b8 7b 02 3e 0f 10 4c 3e 9a 5e b9 bd
       0.15050636 0.12742507 0.19928001 -0.09051247
0002b0 6e 1e 89 bc db c3 5c 3e a5 30 2c 3e 28 96 9e 3d
       -0.016738143 0.21559088 0.16815431 0.07743484
0002c0 22 64 bf 3d de 9c 3f be 1a 22 16 3a 1c 2d e4 bd
       0.09345271 -0.18712184 0.00057271274 -0.111414164
0002d0 bf 19 18 be 8c c8 55 b9 9f 2a 29 3e 87 11 1e be
       -0.14853571 -0.00020387972 0.16520165 -0.15436374
0002e0 65 0b 02 3e e8 7a 5e 3d ba 9f 9f 3d 94 e4 08 bd
       0.12699659 0.05431643 0.07794137 -0.033421114
0002f0 94 f5 e0 3d f7 e7 0c 3d 17 da 8b 3c 4d d2 2c be
       0.1098434 0.034400906 0.017071767 -0.16877098
000300 29 9a 85 be db 2b 21 be 36 0e cc 3b 32 46 74 be
       -0.26094177 -0.15739386 0.00622728 -0.23854902
000310 ba 9c 0b 3d db 6a 1b be e8 ba 3c be 26 f5 78 bd
       0.034085013 -0.15177481 -0.18430674 -0.060780667
000320 90 43 19 be 38 87 9c bc a0 5d 85 ba 09 02 8e be
       -0.1496718 -0.019107446 -0.0010174997 -0.27735928
000330 9c e9 7b be 06 a9 54 be 3b 6d 66 be 0f 9c 79 bd
       -0.24600834 -0.20767602 -0.22502606 -0.060939845
000340 48 35 75 3d 71 3e 1d 3e cd 6a 47 3d 73 7e 29 be
       0.059865266 0.15355851 0.048685838 -0.16552143
000350 b1 8d 93 bd 8b 4a 92 bd b9 93 3f be 00 3d 58 be
       -0.0720476 -0.07143124 -0.18708695 -0.2111702
000360 36 53 e0 bb a2 9c 9f bd 03 1e 0f be f3 05 9f 3d
       -0.006845857 -0.07793547 -0.13976292 0.077648066
000370 76 78 84 bd 78 b7 ae bc c1 23 2b bd 83 9e 03 be
       -0.064682886 -0.02132772 -0.041782144 -0.12853436
000380 ef c5 f2 bd fe 93 b1 3c 94 91 c0 3d 52 1d 36 bd
       -0.11854159 0.021677013 0.09402767 -0.044461556
000390 c8 1f d5 3c 83 0d 0d bb fc dc 1d be f5 15 14 3e
       0.026016131 -0.0021522946 -0.1541633 0.14461501
0003a0 ff 73 22 3e ed 26 7c 3e d3 ea ce bd ad 08 27 be
       0.15864561 0.24624224 -0.10103383 -0.16311903
0003b0 51 e1 43 be 5d fe 5e 3e 1f b6 16 3e 32 c8 8d 3e
       -0.1912892 0.2177672 0.14717911 0.276918
0003c0 4c 62 53 3d ee 0d cb bd 9a 2f 2a be a3 c9 0e 3c
       0.051607415 -0.09914766 -0.16619721 0.008715066
0003d0 77 37 fe bd 7a 2e fe 3d c1 79 33 bd b0 a6 01 3e
       -0.12412923 0.124112085 -0.043817285 0.12661242
0003e0 bc 9f 21 be 0d 36 8e be 49 3a 8f 3c af 9a 96 3d
       -0.1578359 -0.27775612 0.017483847 0.07353722
0003f0 c9 c7 d2 3d c0 7b d2 bd 2e cd 12 be 7e 87 36 bd
       0.10292012 -0.1027751 -0.14336082 -0.04456281

block2.0.conv.bias f4 [8]
000000 b2 9f 04 3c 87 72 36 bd 9c 54 c8 3d 8c a3 42 be
       0.008094715 -0.044542816 0.09781763 -0.190077
000010 a6 c8 21 be 00 3a bb 3d 64 36 e8 bd 94 50 6e 3d
       -0.15799198 0.09141922 -0.11338499 0.058182314

block2.0.BN.weight f4 [8]
000000 4a 3c 8a 3f 96 4c 77 3f 8a 66 6c 3f 1b bd 78 3f
       1.0799649 0.96601236 0.9234396 0.9716355
000010 ed bc 8b 3f 3f 14 78 3f a2 66 87 3f ca 7d 73 3f
       1.091703 0.96905893 1.0578196 0.95113814

block2.0.BN.bias f4 [8]
000000 cc 13 79 3d bb f5 b8 bd a2 dc 03 be 28 f8 67 be
       0.060809895 -0.09031244 -0.12877133 -0.22653258
000010 fc 98 c0 bd e6 40 ce bd 8b 25 42 bd 5f 2a 84 be
       -0.094041795 -0.10070972 -0.047399085 -0.25813577

block2.0.BN.running_mean f4 [8]
000000 7e 6b 29 3f a2 39 6e bc 2a 40 3a 3f 06 30 a9 bd
       0.66179645 -0.014540108 0.72754157 -0.08261113
000010 74 98 5e bf 62 30 28 bf 97 d6 5e be 8d 5b 41 3e
       -0.86951375 -0.65698826 -0.21761547 0.1888258

block2.0.BN.running_var f4 [8]
000000 04 74 04 3f 34 78 f6 3d 43 62 5c 3e 6b db 99 3e
       0.51739526 0.12034646 0.21521859 0.30050215
000010 92 e7 0b 3f c4 ef 22 3f 11 6d 19 3e 68 e6 8a 3e
       0.54650223 0.63647103 0.14983012 0.2712891

block2.1.conv.weight f4 [16, 8, 3, 3]
000000 11 79 9d be 33 0c 8c be f6 de a3 bd 52 2a 49 3d
       -0.3075643 -0.27353057 -0.08001511 0.049112625
000010 64 63 e0 3c a2 7f 23 bd e4 eb 9e 3c 9d f3 d1 bd
       0.027391143 -0.039916642 0.01939959 -0.10251544
000020 2c ff e4 bd 09 14 d2 3d fc a2 51 3e 50 5a c9 3b
       -0.11181483 0.10257728 0.2047233 0.0061447993
000030 f1 34 9f 3d 7a 49 97 3d 1b 95 18 3d b0 39 58 3b
       0.0777377 0.073870614 0.037251573 0.0032993369
000040 a9 0d a3 bd b1 29 15 3e 71 33 55 bd 85 59 0b 3e
       -0.0796159 0.14566685 -0.05205101 0.13608368
000050 4f 5b 6c 3e fe 34 8f bd d0 64 00 bc 39 df 53 bd
       0.23081706 -0.06992529 -0.007836536 -0.051726554
000060 cc 98 65 3d f6 af 73 bd 50 ff c9 bb cd 01 83 3d
       0.05605392 -0.05949398 -0.006164469 0.06396828
000070 cb 9c 3b 3e 9e bd 1b 3e f5 7a ee bd e1 fb 31 bb
       0.1832153 0.15209052 -0.11644546 -0.0027158188
000080 bb 29 d1 bd 7f bc 2c be 2f 74 81 bd 07 e9 37 be
       -0.102130376 -0.1686878 -0.063209884 -0.17959987
000090 98 90 04 3e dc ee 12 3e c2 03 2c 3e d7 a1 1b 3d
       0.12945783 0.1434893 0.16798308 0.03799614
0000a0 78 b8 a5 bd ac 13 9f ba aa a0 38 be 16 1f cd bc
       -0.08091825 -0.00121366 -0.18030038 -0.025039237
0000b0 53 cc 02 be ea a5 85 bc c8 d5 c9 bd 41 d0 6d bc
       -0.12773256 -0.016314466 -0.09855229 -0.014514984
0000c0 3d d7 2e be 23 f3 3c be dc 06 89 bd 3d aa 22 bd
       -0.17074294 -0.18452124 -0.066907614 -0.039713133
0000d0 3f 2a be bd 28 f9 22 bd b5 c0 61 bd 99 a0 89 bd
       -0.092854016 -0.039788395 -0.05511542 -0.06720085
0000e0 ac 87 6b 3d 13 0a c5 3d 07 6e b4 ba ec bd 6f bb
       0.057502434 0.09621062 -0.0013765701 -0.0036581708
0000f0 39 8f 8e 3d 8a 48 b5 bd 89 72 af 3d 07 80 89 be
       0.06960911 -0.08851726 0.08566768 -0.2685549
000100 6c ea a3 bd a0 f2 71 3c 95 63 82 be f7 b0 69 bd
       -0.08003697 0.014767319 -0.254666 -0.057053532
000110 32 98 68 be cc ea 36 be e8 40 a1 be b1 48 80 bd
       -0.22714308 -0.17863005 -0.31494832 -0.06263865
000120 5b 73 79 3b 63 ff 7b bc 37 24 27 be c4 17 4c bd
       0.0038063142 -0.015380713 -0.16322409 -0.049827352
000130 33 bd 2e 3e cb 97 12 3e bb 1e bc 3d ec 20 0c 3e
       0.17064361 0.14315717 0.09185549 0.13684434
000140 38 59 35 3e b8 db 32 be 5b 29 7a be 70 77 0f be
       0.17709816 -0.17466629 -0.24429838 -0.14010406
000150 bd 06 29 be 08 24 86 be 18 0e 9f 3b ed f7 bd 3c
       -0.16506477 -0.26199365 0.004853975 0.02318951
000160 8a 1a 85 bb ea 94 2a 3e 8f 40 39 3d a8 07 f4 3c
       -0.0040620016 0.16658369 0.045227583 0.029788807
000170 6e c7 86 bd 62 60 f1 bc 45 21 fa bd 3a b7 68 bd
       -0.06581007 -0.029464904 -0.12213377 -0.056815363
000180 c1 61 0b 3e 35 a8 3e bb cd 5b d9 3c 8c bd 32 3e
       0.13611509 -0.0029091958 0.026533032 0.17455119
000190 8b be 6c 3e 23 fb 54 3e ea 77 18 be 0e 31 96 bd
       0.23119561 0.20798926 -0.14889494 -0.07333575
0001a0 b4 a5 b2 3d e1 37 8a bd 19 d1 0a be 54 e3 6c be
       0.087230116 -0.06748939 -0.13556327 -0.23133594
0001b0 49 f4 1b be c4 af 17 3e 91 cf 1c 3e 47 09 ca 3c
       -0.15229906 0.14813143 0.15313555 0.024662627
0001c0 57 bd ce bc 44 44 52 3d 6b 57 2b 3d e2 99 15 3d
       -0.025236769 0.051334634 0.041831415 0.036523707
0001d0 ef 34 fa 3d 2a 3d 8b 3c 3f b4 12 3e b1 06 68 3d
       0.122171275 0.016996939 0.14326571 0.056647006
0001e0 14 e8 3c be e1 59 05 be 07 49 f0 39 f1 e7 a7 3c
       -0.18447906 -0.13022567 0.00045830777 0.02049634
0001f0 c3 22 9b bd c2 cc 24 39 c4 fa 6b bc d0 21 d9 bd
       -0.0757499 0.00015716537 -0.014403049 -0.10602152
000200 16 1f e1 3b df 41 9d be 35 91 0b be 18 94 d2 bb
       0.006870161 -0.30714318 -0.13629611 -0.0064263456
000210 8d 7a fd bc b6 f5 48 3c db f8 06 be cf a0 5f bc
       -0.030942226 0.012265613 -0.13180868 -0.01364918
000220 51 a8 35 bd 0b 3f f2 bd 1f ca af bc 7d f3 16 3e
       -0.044349972 -0.11828431 -0.021458684 0.14741321
000230 2b 59 46 bd 0f 21 b1 bd 93 79 dc bd 45 9f 35 be
       -0.04842488 -0.086488836 -0.10765376 -0.17736538
000240 2d 5a ac bd 55 f3 46 be 17 11 27 be db bb 2b bd
       -0.08415637 -0.19428761 -0.16315113 -0.0419272
000250 d0 b6 29 be ea 70 be bd e5 87 0e be e1 ea 42 be
       -0.16573644 -0.092988804 -0.13919027 -0.19034912
000260 dd 2e 7f bd 44 82 46 bd cd b3 96 bc 79 a0 14 be
       -0.06230055 -0.048464075 -0.018396283 -0.1451434
000270 96 ab d6 bc 3c d9 ce bd 10 8a 82 be 83 e6 7d 3d
       -0.026204865 -0.10100028 -0.25495958 0.06198741
000280 32 6a 91 bd cb 1d 6e be b7 e3 0b 3e ad 69 fc 3d
       -0.07100333 -0.23253553 0.13661085 0.123248436
000290 f2 e1 cf bd 49 5a a8 3a 77 87 99 3d d8 9d c2 bd
       -0.101505175 0.001284429 0.07496541 -0.095027626
0002a0 aa b7 d2 3d 2e b0 06 3e 49 2f 52 3a f8 34 b0 3e
       0.102889374 0.13153145 0.00080179103 0.34415412
0002b0 db f1 61 3e 25 e9 44 bd 52 2d 03 3e 7f 34 f0 bd
       0.22064917 -0.048073906 0.12810257 -0.11728763
0002c0 06 9f b3 bc e0 8c b1 bd e8 b1 6a be a2 df 0c be
       -0.021926414 -0.08669448 -0.22919428 -0.13757184
0002d0 ee 81 25 be 1c cc a6 bd 0a 46 69 bc a2 2f 0e be
       -0.16162845 -0.081443995 -0.01423789 -0.13885358
0002e0 82 95 1d 3c 27 5e 4f bc 3e 45 a9 bd b1 89 d8 bd
       0.009618165 -0.012656725 -0.0826516 -0.105731376
0002f0 b9 0f 92 3d 94 2d 9f bd ff eb 99 3d ce 76 f0 3c
       0.07131905 -0.07772365 0.07515716 0.029353525
000300 49 17 cd 3b 79 97 80 3e ab fd 03 3e c7 07 28 3e
       0.0062588793 0.25115564 0.12889735 0.16409217
000310 8f 7c b3 3c 87 75 18 3e 67 d5 c5 bd 09 e1 2f be
       0.02190998 0.14888583 -0.09659844 -0.17175688
000320 49 25 1b be 74 78 53 3d 0c f1 a8 3c a7 f4 c0 bd
       -0.15150942 0.051628545 0.020622753 -0.09421664
000330 92 af fd 3c e1 32 2f be ae 61 18 bd b9 29 40 3e
       0.030967508 -0.17109253 -0.03720253 0.18765916
000340 fe b1 8a 3d b5 7d 76 3d 43 cc 07 3e 34 0d 45 bd
       0.067722306 0.060178477 0.13261513 -0.048108295
000350 7d 8f 6a 3d bb 87 9b bc f1 19 be bb 5e 59 c5 bc
       0.057265747 -0.01898562 -0.0058014323 -0.024090465
000360 17 21 34 3d d0 c3 58 bd e6 8e 04 3e 5d fb 49 3d
       0.04397687 -0.052921116 0.12945136 0.049311984
000370 3b ac be 3a 40 c7 35 3e 92 2d ef bd 3a 24 41 be
       0.0014547178 0.17751789 -0.11678614 -0.18861476
000380 a5 22 ed 3b 31 65 28 be 7a 5e fb 3c 98 6b e9 ba
       0.007236796 -0.16444851 0.030684698 -0.0017808555
000390 99 f5 e6 bd 1c a0 c3 bc 29 7f 19 be d8 7d 1b be
       -0.11277313 -0.023880057 -0.14989914 -0.15184724
0003a0 70 50 55 be 81 29 5d be 06 39 3a be 1c 18 af bc
       -0.20831466 -0.21597864 -0.18185815 -0.021373801
0003b0 b0 fb 2d 3d 0e 64 b4 be 29 32 0e be 6f e8 08 3e
       0.042476356 -0.35232586 -0.13886322 0.13369916
0003c0 02 ea ce 3b 10 e5 85 bc 43 8f 83 bd 7f 13 72 3c
       0.006314517 -0.016344577 -0.064238094 0.014775156
0003d0 2f fe cb 3d a2 ab ec 3d 28 7d 9b bc 37 90 f5 bd
       0.09960591 0.11556174 -0.018980578 -0.119903974
0003e0 41 86 69 3d b4 2e 7b bd 94 19 11 bd 32 17 95 3d
       0.0570128 -0.061323836 -0.035424784 0.07279815
0003f0 14 40 9f 3d 4b 3b 71 3e 2f 20 6f 3e a1 6d 16 be
       0.07775894 0.23557775 0.23352121 -0.14690258

block2.1.conv.bias f4 [16]
000000 69 bc 78 3d a2 02 9a 3c 70 40 16 bc 43 38 b6 3c
       0.060726557 0.018800084 -0.009170637 0.022243625
000010 7c 0d 48 3d 9c 36 37 3c 55 ce 09 3d 0f 2d 96 3c
       0.048840985 0.0111824535 0.03364404 0.018332032
000020 94 b5 07 3d 1c be 5e bd 51 55 a2 bb 19 91 51 3d
       0.03313215 -0.05438052 -0.004954018 0.051163767
000030 2d 45 6c bb fa ba ea 3c 3a 12 15 3d 45 24 89 bd
       -0.0036051974 0.02865361 0.036394335 -0.06696371
