result/model/0518 1054.pt (torch, 79197 bytes, 98 tensors)

input_conv.conv.weight f4 [4, 1, 3, 3]
-0.041203704 -0.10075805 0.07425065 -0.31144246 -0.31599778 -0.33173218 0.32851627 0.09377112
0.280861 -0.080034405 0.058178015 -0.26578426 -0.05107417 0.22145602 -0.11994301 -0.20199762
0.12125045 0.35091788 0.0770901 0.31166023 -0.0132898735 0.044789433 0.2575367 0.17270716
-0.023189764 -0.24214709 -0.28346303 -0.039273653 -0.37897444 0.026067916 0.2517185 -0.16739483
-0.115423955 0.22369269 -0.2017874 0.05642325
00000000: 37c5 28bd 3d5a cebd ba10 983d 6375 9fbe
00000010: 76ca a1be cdd8 a9be 4933 a83e 130b c03d
00000020: 03cd 8f3e 14e9 a3bd 124c 6e3d e014 88be
00000030: 2633 51bd 5ec5 623e aea4 f5bd 77d8 4ebe
00000040: 2852 f83d 82ab b33e 6ae1 9d3d ee91 9f3e
00000050: c5bd 59bc 2075 373d dadb 833e 25da 303e
00000060: 76f8 bdbc 68f5 77be 1122 91be 69dd 20bd
00000070: f008 c2be 628c d53c 3fe1 803e 8d69 2bbe
00000080: 6563 ecbd b20f 653e 5ba1 4ebe 111c 673d

input_conv.conv.bias f4 [4]
-0.47388464 0.17484485 -0.01710119 -0.21218988
00000000: 02a1 f2be 870a 333e cb17 8cbc 4e48 59be

input_conv.BN.weight f4 [4]
0.9967918 0.8037009 1.232905 0.81794655
00000000: bf2d 7f3f 58bf 4d3f d5cf 9d3f f264 513f

input_conv.BN.bias f4 [4]
-0.16997056 0.11508862 0.046808053 0.27933186
00000000: c30c 2ebe 95b3 eb3d cdb9 3f3d 9604 8f3e

input_conv.BN.running_mean f4 [4]
-0.53502697 0.17954619 0.03923512 -0.27397227
00000000: 87f7 08bf f5da 373e 01b5 203d 1846 8cbe

input_conv.BN.running_var f4 [4]
0.0056380923 0.0012886246 0.0052234614 0.0064084628
00000000: bfbf b83b 11e7 a83a 9229 ab3b 15fe d13b

block1.0.conv.weight f4 [8, 4, 3, 3]
-0.06748281 0.16450304 0.27402613 0.025864841 -0.22451386 -0.13543084 -0.11703292 -0.10923422
-0.05652383 -0.1408995 0.09519559 -0.32556635 0.1887178 -0.104530826 -0.18230191 -0.029231414
0.18440582 -0.22980562 -0.015300236 -0.011597707 -0.1554638 -0.19370599 -0.07430552 0.043202437
-0.12863287 0.031661395 -0.09847346 -0.10303682 0.13545509 -0.029455556 -0.115755446 -0.0032279505
0.0206858 -0.16185799 -0.040201534 -0.038522597 -0.18078722 -0.09645284 -0.18836504 0.03030254
-0.020491099 -0.08282992 -0.05566385 -0.019883167 0.13610327 -0.11578243 -0.01881715 -0.07402685
0.019641332 -0.11344489 0.14884019 0.1023852 -0.0218996 0.07658851 -0.10986174 -0.055946577
0.14331177 -0.16067708 -0.17812409 -0.102502905 -0.2439176 -0.4077356 -0.16189246 -0.11110109
-0.2217925 -0.13149339 0.21949391 0.1891371 0.20419344 0.030934984 -0.03066167 0.11368336
0.20846252 0.041077748 -0.19395547 -0.0997564 -0.21565828 -0.0846988 0.14122617 0.035768766
-0.2046957 -0.13493414 0.028710349 -0.12000202 -0.00058637134 0.04887321 -0.18714106 0.24852292
-0.03563392 0.040469274 -0.23138632 0.06494742 0.3205281 -0.17027366 -0.051671334 0.012240826
0.1728759 0.15278003 0.1451149 -0.105312645 -0.06352734 -0.09460205 0.12839842 -0.086201884
-0.04435376 -0.036691003 -0.16704373 0.021688476 0.04534623 -0.02869303 0.0977116 -0.118638895
0.05604612 -0.119786724 -0.022442745 -0.16559982 -0.22165018 -0.01125422 0.10863217 0.11485231
-0.11348196 -0.046716187 -0.081118666 0.056452475 0.06517691 0.2042768 0.27561727 0.2276703
0.27691805 -0.13603726 -0.08843417 0.06561915 -0.09429362 -0.059177898 0.1580212 0.11354173
-0.009953367 0.048375234 0.20770824 0.26401472 -0.11158509 -0.073568545 0.05942701 -0.20120074
-0.044998486 0.12741715 -0.07605648 0.023214972 0.07433228 -0.06189702 -0.3143842 -0.1522253
-0.1341577 0.029123865 -0.037276737 0.022927096 -0.136348 0.1418341 0.11006841 -0.08947827
-0.0013069648 0.22010335 -0.04646167 -0.22830606 0.041620906 -0.10726112 -0.27120087 -0.28075486
0.25361416 -0.22274283 -0.059586313 0.008875664 0.014059003 0.027286353 -0.14441477 -0.09668679
-0.23750208 -0.0008842637 -0.07329854 -0.07899225 0.24244134 0.06660774 -0.1287543 0.19295399
-0.1751794 -0.10373051 -0.05174513 -0.10658251 0.17542982 -0.017649943 -0.16715972 0.07223209
0.07560364 0.115810156 -0.13987263 0.03235871 -0.15758918 -0.26283324 -0.14527805 -0.037393376
0.22453333 -0.16682325 -0.09384371 0.30868536 0.06054074 0.21265392 -0.0806665 -0.14773531
-0.13485472 -0.20280355 -0.029486232 0.017432114 0.15353079 0.061630372 -0.02098001 0.21095276
0.025037628 0.052309964 0.20843756 -0.0121783 -0.036634818 0.23184896 0.10208518 0.079158075
-0.04959148 -0.059631515 0.1109977 0.007455339 -0.13620175 0.121823154 0.03856168 -0.08512973
0.08893826 0.11250449 0.13323739 -0.12879577 -0.010163325 -0.014549609 -0.09713616 0.09110788
0.0576573 0.35082892 0.41065365 -0.12462946 0.021912301 0.2506464 -0.038739532 0.06852805
-0.002067155 -0.1631982 -0.29039696 -0.09818431 0.30210927 0.19795583 0.04743203 -0.005762587
00000000: 6d34 8abd 7c73 283e 274d 8c3e 81e2 d33c
00000010: f6e6 65be 62ae 0abe f5ae efbd 31b6 dfbd
00000020: 8885 67bd f547 10be e8f5 c23d a2b0 a6be
00000030: 3d3f 413e 4214 d6bd 5aad 3abe b876 efbc
00000040: e1d4 3c3e 2a52 6bbe d7ad 7abc 4f04 3ebc
00000050: e731 1fbe dd5a 46be 7e2d 98bd 0af5 303d
00000060: 56b8 03be 61af 013d 74ac c9bd f804 d3bd
00000070: bdb4 0a3e c74c f1bc 3111 edbd 068c 53bb
00000080: 4475 a93c 1abe 25be 5daa 24bd dfc9 1dbd
00000090: 4920 39be 1189 c5bd c4e2 40be 083d f83c
000000a0: f3dc a7bc bca2 a9bd c7ff 63bd 06e2 a2bc
000000b0: a85e 0b3e 571f edbd 6c26 9abc 649b 97bd
000000c0: dce6 a03c cb55 e8bd 9069 183e 55af d13d
000000d0: ca66 b3bc 70da 9c3d 31ff e0bd 3d28 65bd
000000e0: 52c0 123e 8888 24be 2966 36be 0bed d1bd
000000f0: 89c5 79be b8c2 d0be 23c7 25be f888 e3bd
00000100: 931d 63be 34a6 06be 03c3 603e 28ad 413e
00000110: 1618 513e 5d6b fd3c 2f2e fbbc d2d2 e83d
00000120: 3377 553e 2441 283d 439c 46be 154d ccbd
00000130: 86d5 5cbe 9176 adbd 989d 103e 4582 123d
00000140: c09b 51be 2d2c 0abe f731 eb3c 9ec3 f5bd
00000150: b7b6 19ba 462f 483d e8a1 3fbe cb7c 7e3e
00000160: e0f4 11bd 1cc3 253d 89f0 6cbe 2703 853d
00000170: 421c a43e 385c 2ebe 52a5 53bd bf8d 483c
00000180: 6106 313e 5e72 1c3e 0099 143e 28ae d7bd
00000190: 9f1a 82bd b8be c1bd e07a 033e 9d8a b0bd
000001a0: 4aac 35bd 4e49 16bd 830d 2bbe 08ac b13c
000001b0: f8bc 393d a50d ebbc 051d c83d f3f8 f2bd
000001c0: 9e90 653d be52 f5bd d9d9 b7bc 0093 29be
000001d0: 44f8 62be 9f63 38bc 8b7a de3d b037 eb3d
000001e0: 3b69 e8bd 7959 3fbd 8b21 a6bd b63a 673d
000001f0: 797b 853d f02d 513e b51d 8d3e 6722 693e
00000200: 34c8 8d3e 5a4d 0bbe f91c b5bd 5563 863d
00000210: 031d c1bd 8664 72bd 4fd0 213e 9188 e83d
00000220: 7213 23bc 1c25 463d 78b1 543e f02c 873e
00000230: b986 e4bd 1bab 96bd bd69 733d 9107 4ebe
00000240: 5550 38bd a479 023e 80c3 9bbd 532d be3c
00000250: 863b 983d bb87 7dbd f7f6 a0be f3e0 1bbe
00000260: a360 09be 2c95 ee3c 7eaf 18bd 9bd1 bb3c
00000270: cf9e 0bbe f53c 113e 8c6b e13d 6240 b7bd
00000280: 764e abba c662 613e 984e 3ebd 10c9 69be
00000290: af7a 2a3d b8ab dbbd d7da 8abe 1abf 8fbe
000002a0: b7d9 813e b216 64be c710 74bd 3c6b 113c
000002b0: bc57 663c a187 df3c 77e1 13be b903 c6bd
000002c0: bf33 73be efcd 67ba 8c1d 96bd b0c6 a1bd
000002d0: 8b42 783e a469 883d 2bd8 03be bb95 453e
000002e0: 3b62 33be a970 d4bd b4f2 53bd ee47 dabd
000002f0: e0a3 333e 9d96 90bc eb2b 2bbe 6bee 933d
00000300: 15d6 9a3d e02d ed3d c53a 0fbe 918a 043d
00000310: 0f5f 21be 1492 86be c5c3 14be cc29 19bd
00000320: 11ec 653e b7d3 2abe 2231 c0bd 020c 9e3e
00000330: 91f9 773d f3c1 593e 7a34 a5bd ed47 17be
00000340: 5b17 0abe bcab 4fbe 1c8d f1bc cbcd 8e3c
00000350: 2d37 1d3e 2170 7c3d 45de abbc 0004 583e
00000360: b61b cd3c f942 563d a870 553e 7e87 47bc
00000370: 640e 16bd d069 6d3e 0912 d13d a11d a23d
00000380: 7020 4bbd 2d40 74bd c352 e33d eb4b f43b
00000390: 7978 0bbe 6b7e f93d daf2 1d3d 7f58 aebd
000003a0: 4325 b63d c168 e63d 626f 083e 0ae3 03be
000003b0: 1384 26bc 7c61 6ebc 53ef c6bd c596 ba3d
000003c0: 102a 6c3d d99f b33e 3241 d23e bb3d ffbd
000003d0: 6d81 b33c ba54 803e 58ad 1ebd 6f58 8c3d
000003e0: 1b79 07bb 6e1d 27be e9ae 94be db14 c9bd
000003f0: 11ae 9a3e efb4 4a3e 1748 423d 15d4 bcbb

block1.0.conv.bias f4 [8]
0.09974014 0.21598697 0.06496554 0.14942434 -0.054010317 0.19632429 0.067385465 0.20337296
00000000: 8f44 cc3d b02b 5d3e a70c 853d b202 193e
00000010: ec39 5dbd 3c09 493e 6401 8a3d 0041 503e

block1.0.BN.weight f4 [8]
0.9271266 1.0727967 1.012289 1.0243762 0.94979614 0.9720411 0.9664996 1.0340801
00000000: 2b58 6d3f 6751 893f b092 813f c21e 833f
00000010: d725 733f afd7 783f 856c 773f bd5c 843f

block1.0.BN.bias f4 [8]
-0.103456184 0.074360766 -0.08181181 -0.05650792 0.043312676 -0.20118517 -0.10806552 -0.08815879
00000000: d6e0 d3bd 754a 983d f38c a7bd d974 67bd
00000010: a268 313d 7c03 4ebe 7551 ddbd 988c b4bd

block1.0.BN.running_mean f4 [8]
-0.9882408 -0.7552465 -0.16145304 0.7722978 -1.2135649 0.15244325 0.767535 0.93892086
00000000: 59fd 7cbf d657 41bf f253 25be 4fb5 453f
00000010: 1856 9bbf 151a 1c3e 2c7d 443f 1e5d 703f

block1.0.BN.running_var f4 [8]
0.4581193 1.6018465 0.47246528 0.5725348 0.43237573 0.2039886 0.76648104 0.44194132
00000000: 9d8e ea3e 4e09 cd3f f8e6 f13e a491 123f
00000010: 5a60 dd3e 63e2 503e 1a38 443f 2246 e23e

block1.1.conv.weight f4 [16, 8, 3, 3]
0.18969892 0.10307988 -0.09388422 0.12179709 -0.05280978 0.089783385 0.12854864 0.043664396
0.14727774 0.018829232 0.09801976 -0.036958188 0.040911242 0.015499598 -0.046791937 0.18502344
0.13952816 -0.058332294 -0.07878313 -0.076096304 0.030681135 -0.088558406 0.061019734 0.1051423
-0.09242255 0.13383877 0.06921609 -0.061470047 0.07125312 0.14483461 0.0795794 0.017857023
0.15881568 -0.021891907 0.004853105 0.060782306 0.10075222 0.20031369 0.02969779 0.08578757
0.0037732702 0.015974687 -0.024811491 0.117760755 -0.09535423 -0.0971394 -0.3093457 -0.058594387
-0.028925996 -0.03174491 0.09561873 -0.095871136 -0.0075165406 0.03690817 -0.080974 -0.012751254
0.11090449 -0.015910944 -0.06514184 -0.041139066 0.029666057 -0.007903169 0.03071655 0.22217025
0.45865974 0.3328276 0.0016688234 0.12465732 0.12560777 -0.04040741 -0.13170637 0.20307347
-0.20350777 -0.12072529 0.04833466 -0.042490926 -0.14291121 0.09201003 -0.07813963 -0.23377286
0.03739868 0.1798574 0.17037627 0.08623372 0.07359308 0.15109509 0.16077305 -0.12110219
0.04380639 0.15015976 0.07001282 0.20753291 -0.13934225 0.042848207 -0.055684343 -0.11724867
0.0017801786 -0.11018151 -0.1844608 0.17222933 -0.02840624 -0.037457116 0.05601208 0.063871644
-0.10639873 -0.16826285 -0.19287394 -0.15544133 -0.0036343748 0.03621909 -0.20924503 0.18774539
0.21042448 -0.08715236 0.055016026 0.082771204 0.05019531 -0.022549786 0.12758714 -0.053115226
0.06963304 -0.069379784 -0.07711307 0.13576765 -0.17257275 0.08087721 0.17710543 0.042124722
-0.034180395 0.089339495 0.10762908 0.08664449 -0.023415878 -0.039267257 0.108390674 -0.07946524
-0.2827407 -0.14580448 -0.10481779 -0.09476274 -0.20030154 -0.06640356 -0.015374829 -0.09771198
-0.20851453 -0.014472745 0.031180276 0.13428372 0.1036513 -0.046011273 0.16003908 -0.14452538
-0.03927675 -0.15521322 0.0037416415 -0.10165621 -0.26986685 -0.019236453 -0.04633294 -0.20567463
0.06218499 0.069179416 -0.0612092 0.11363635 -0.056168597 -0.049153313 -0.09293458 0.049192533
-0.01952455 0.002906963 -0.07280742 -0.22105229 -0.15705355 -0.10785925 -0.154572 -0.01909688
-0.020274384 -0.13318144 -0.26004553 -0.19376583 0.1328481 -0.01263279 0.16409911 -0.063527465
-0.11004194 -0.19744277 -0.108055055 -0.20160395 -0.059233356 0.18102674 0.18936346 0.03433544
-0.03375079 0.06605926 0.19381212 0.23186202 -0.10084175 0.072221525 0.08037732 0.16689359
0.04075102 -0.00997068 0.0029311206 0.04272657 -0.03805327 -0.19776793 -0.26034218 0.09995337
-0.19978791 -0.05651207 0.12319458 -0.03584905 -0.07976906 0.040578645 0.1878172 -0.06598677
0.04274932 -0.116429344 -0.1206989 0.062208463 -0.107242465 -0.14108703 0.12593047 0.07162511
-0.081450604 0.02521233 0.07682237 0.21274474 -0.055058803 -0.23768201 -0.18515946 -0.043008544
-0.0060410947 0.024526503 0.19560684 0.011453638 0.058740523 0.030768264 0.05383413 -0.0873674
-0.12666847 -6.735382e-06 0.0017165602 -0.10827439 -0.15927291 0.08290691 -0.055925258 -0.061434772
0.020129764 0.041783135 -0.16619876 0.018252132 0.1624626 0.14353639 -0.025911763 -0.045890164
00000000: 6f40 423e 8b1b d33d 5f46 c0bd c170 f93d
00000010: 114f 58bd 5ae0 b73d 41a2 033e 70d9 323d
00000020: facf 163e c33f 9a3c 95be c83d 7861 17bd
00000030: 8c92 273d 07f2 7d3c e7a8 3fbd c976 3d3e
00000040: 78e0 0e3e d8ed 6ebd 0d59 a1bd 61d8 9bbd
00000050: 0157 fb3c 1c5e b5bd d4ef 793d d954 d73d
00000060: 0948 bdbd 080d 093e 2ac1 8d3d 04c8 7bbd
00000070: 28ed 913d 864f 143e 86fa a23d e448 923c
00000080: 94a0 223e a856 b3bc cc06 9f3b def6 783d
00000090: 2e57 ce3d 081f 4d3e c848 f33c 65b1 af3d
000000a0: f848 773b 59dd 823c 7841 cbbc 8d2c f13d
000000b0: 1449 c3bd 06f1 c6bd 8f62 9ebe ab00 70bd
000000c0: 36f6 ecbc f306 02bd c1d3 c33d 1658 c4bd
000000d0: 504d f6bb 052d 173d b2d5 a5bd a3ea 50bc
000000e0: e521 e33d ab57 82bc 1669 85bd 7081 28bd
000000f0: 3b06 f33c 4b7c 01bc 46a1 fb3c 9980 633e
00000100: 73d5 ea3e 6168 aa3e 6cbc da3a 564c ff3d
00000110: 539f 003e 3e82 25bd 09de 06be 7ef2 4f3e
00000120: 5764 50be d23e f7bd 90fa 453d f70a 2ebd
00000130: 5157 12be c16f bc3d ac07 a0bd 2762 6fbe
00000140: 5c2f 193d 8a2c 383e 1e77 2e3e 4e9b b03d
00000150: f8b7 963d acb8 1a3e b1a1 243e 6d04 f8bd
00000160: 546e 333d 7bc3 193e e262 8f3d 8283 543e
00000170: bcaf 0ebe 9a81 2f3d 4415 64bd 1220 f0bd
00000180: e254 e93a d8a6 e1bd 4be3 3cbe e35c 303e
00000190: 34b4 e8bc a26c 19bd ec6c 653d 23cf 823d
000001a0: 94e7 d9bd 194d 2cbe bf80 45be 032c 1fbe
000001b0: b12e 6ebb 785a 143d 5444 56be 5440 403e
000001c0: 8479 573e f07c b2bd 7c58 613d f383 a93d
000001d0: 9999 4d3d 54ba b8bc 34a6 023e 5a8f 59bd
000001e0: c49b 8e3d fd16 8ebd 75ed 9dbd ad06 0b3e
000001f0: e9b6 30be f3a2 a53d 205b 353e f98a 2c3d
00000200: be00 0cbd a0f7 b63d a36c dc3d ab72 b13d
00000210: a8d2 bfbc b4d6 20bd eefb dd3d acbe a2bd
00000220: 64c3 90be c54d 15be b6aa d6bd f812 c2bd
00000230: d91b 4dbe 97fe 87bd b5e6 7bbc 381d c8bd
00000240: d584 55be 181f 6dbc c76d ff3c ac81 093e
00000250: 2247 d43d 5176 3cbd 49e1 233e 76fe 13be
00000260: a8e0 20bd 37f0 1ebe 5436 753b 2231 d0bd
00000270: fd2b 8abe c495 9dbc 9cc7 3dbd 5f9c 52be
00000280: b0b5 7e3d f0ad 8d3d 80b6 7abd 2dba e83d
00000290: 0b11 66bd fc54 49bd 7c54 bebd 1c7e 493d
000002a0: f3f1 9fbc bf82 3e3b 0e1c 95bd 885b 62be
000002b0: a5d2 20be 4fe5 dcbd 1f48 1ebe 0f71 9cbc
000002c0: 7716 a6bc b760 08be b024 85be 8d6a 46be
000002d0: 5509 083e c3f9 4ebc 9909 283e b01a 82bd
000002e0: ab5d e1bd 702e 4abe f84b ddbd 4471 4ebe
000002f0: ad9e 72bd 135f 393e 7fe8 413e 51a3 0c3d
00000300: 453e 0abd 144a 873d af76 463e 3d6d 6d3e
00000310: 1f86 cebd e1e8 933d dd9c a43d 27e6 2a3e
00000320: 8bea 263d 105c 23bc 0b18 403b 0e02 2f3d
00000330: bfdd 1bbd ad83 4abe 924b 85be 5ab4 cc3d
00000340: 3495 4cbe 3379 67bd 714d fc3d 74d6 12bd
00000350: f65d a3bd cb35 263d 2753 403e 1224 87bd
00000360: e919 2f3d 8272 eebd fc30 f7bd 4dce 7e3d
00000370: f0a1 dbbd 1e79 10be ebf3 003e 30b0 923d
00000380: 93cf a6bd 178a ce3c 0c55 9d3d c2d9 593e
00000390: 5785 61bd ea62 73be 719a 3dbe ba29 30bd
000003a0: 60f4 c5bb ceeb c83c 294d 483e 0aa8 3b3c
000003b0: e799 703d ba0d fc3c 2d81 5c3d aeed b2bd
000003c0: 61b5 01be 7e00 e2b6 34fe e03a f7be ddbd
000003d0: 7018 23be 19cb a93d e211 65bd 07a3 7bbd
000003e0: 2de7 a43c cb24 2b3d 0230 2abe 7f85 953c
000003f0: 995c 263e 34fb 123e e844 d4bc 53f7 3bbd

block1.1.conv.bias f4 [16]
0.07690872 -0.066240065 -0.1808313 -0.11103784 -0.0287178 0.026268424 0.06097374 -0.017686617
-0.03993565 0.1475704 -0.0076979874 0.018949017 0.064700745 -0.10398734 0.07034486 0.12499375
00000000: 5282 9d3d dfa8 87bd d72b 39be cf67 e3bd
00000010: 9741 ebbc e130 d73c 9abf 793d 86e3 90bc
00000020: 9093 23bd b21c 173e 663f fcbb f83a 9b3c
00000030: d381 843d 51f7 d4bd f710 903d b9fc ff3d

block1.1.BN.weight f4 [16]
0.9419028 1.0512025 1.0888946 0.92059165 0.9670601 1.0187938 0.9320227 1.0917611
1.073795 1.1010721 0.9655072 0.9250124 1.0225484 0.873347 1.0060724 1.0036427
00000000: 8b20 713f ce8d 863f e660 8b3f e5ab 6b3f
00000010: 4091 773f d667 823f 0a99 6e3f d4be 8b3f
00000020: 1d72 893f eeef 8c3f 7b2b 773f 9dcd 6c3f
00000030: dee2 823f ab93 5f3f fbc6 803f 5d77 803f

block1.1.BN.bias f4 [16]
-0.16517244 -0.0014300025 0.014570069 -0.11816418 -0.20837198 -0.27368352 -0.22507846 -0.13480473
-0.14785263 0.026337095 -0.32992676 -0.11070257 -0.09832213 -0.13665389 -0.13979413 -0.10225511
00000000: f722 29be ec6e bbba 4cb7 6e3c 1000 f2bd
00000010: 775f 55be 3f20 8cbe f87a 66be 400a 0abe
00000020: ae66 17be e4c0 d73c 29ec a8be 07b8 e2bd
00000030: 1d5d c9bd ffee 0bbe 3126 0fbe 216b d1bd

block1.1.BN.running_mean f4 [16]
1.1735977 -0.22540508 -1.075006 -1.1399841 -1.5440421 -0.7993334 0.6320889 -0.8228133
-0.28552082 -0.8625713 0.6500539 -1.5545186 0.69397116 0.06638414 -0.4687093 0.44641474
00000000: 7338 963f 97d0 66be cc99 89bf 00eb 91bf
00000010: 2ca3 c5bf 1da1 4cbf 94d0 213f e4a3 52bf
00000020: c92f 92be 79d1 5cbf ef69 263f 77fa c6bf
00000030: 18a8 313f 68f4 873d aafa efbe 7990 e43e

block1.1.BN.running_var f4 [16]
0.8235221 0.2831232 0.4417774 0.79149234 0.41808352 0.66419196 0.5161297 0.5466193
0.5310146 1.9396446 0.35546485 0.43431106 0.6505288 0.8676627 0.47333738 0.5568776
00000000: 58d2 523f 86f5 903e a630 e23e 3e9f 4a3f
00000010: 0b0f d63e 7c08 2a3f 1321 043f 3eef 0b3f
00000020: 93f0 073f 4646 f83f 7dff b53e 055e de3e
00000030: 0e89 263f 251f 5e3f 4759 f23e 888f 0e3f

block1.2.conv.weight f4 [8, 16, 3, 3]
0.12375887 0.043875746 0.037108023 0.041427962 -0.1085257 -0.1316615 0.08563132 -0.080830924
-0.10711452 -0.041549694 0.09150505 0.06386437 0.043916397 0.052326776 0.06891103 0.13315278
-0.029553391 0.1646413 -0.023979472 0.02602841 0.07538083 -0.023525568 0.19734535 0.12001485
0.14845736 0.049743883 0.032843295 -0.03395447 0.022595335 -0.051042147 -0.063216105 -0.01789169
-0.020191098 -0.056569636 -0.08423678 0.12281552 -0.113325395 -0.19377583 0.048404075 -0.10896288
-0.2002665 -0.19869 -0.07294792 -0.2740295 -0.16333678 0.08998665 -0.008132987 0.13289432
-0.08203681 0.04593673 0.17679471 0.09840312 0.1369578 0.29969195 0.01946835 0.15165524
0.053234655 0.0066324305 0.06259793 -0.010527702 0.0369649 0.109799005 0.07252844 0.072413005
0.05952765 0.1761323 0.041965075 -0.041080132 0.060676597 0.18622392 0.07294076 0.06676599
-0.2749944 -0.26532486 -0.056340802 -0.23417334 -0.21459845 0.058316104 -0.027018575 -0.0040475004
0.19014832 0.117381565 0.077703655 0.008716755 0.05872716 0.13366026 0.005324868 -0.03576517
0.0071529183 -0.037735395 0.02329149 0.07839426 -0.013953088 -0.050058138 0.035179533 -0.081805155
-0.04101073 0.19296208 0.09199677 -0.31120896 -0.17254096 -0.12630843 -0.29987517 -0.16670081
-0.053350464 -0.07015627 -0.010484475 -0.072310254 -0.035389476 0.06151062 0.079978146 -0.032466587
-0.06714852 0.059037756 -0.008508486 0.14886974 0.1921526 0.08077053 0.14154805 0.023442589
-0.0041204453 0.0723734 0.05656808 -0.02513541 -0.0078197 0.06657669 0.020992577 -0.11407793
-0.24989764 0.060832962 0.026416779 -0.058577973 0.19380721 0.28519747 0.06439881 0.026041972
0.08926102 0.22352347 0.13036731 0.18675315 0.15108234 0.12899055 0.01885933 -0.0033045495
-0.121662244 -0.105776794 -0.0682878 -0.24980907 -0.15861134 -0.1721619 -0.18842793 -0.31262866
-0.20201504 -0.013296795 0.0320519 -0.07008932 -0.049627952 0.00031558092 0.030055776 -0.054663327
0.12330115 0.13028696 -0.048092365 -0.036121402 -0.088192955 0.1494665 0.17942712 0.15561374
0.054485187 -0.09018422 0.051683836 0.15286049 0.06897543 0.056088235 0.033473637 0.069776304
-0.05999072 -0.014486931 0.07718961 -0.007839477 -0.022643102 0.06600546 -0.0013845916 0.09586554
0.1942941 0.116860725 -0.0293975 0.1353907 0.11156182 -0.10704911 -0.02750342 -0.00015416692
-0.03457361 0.10402728 0.095390365 0.13266866 0.020194305 0.1154705 -0.0048261024 -0.043381188
0.071778156 0.14437582 0.044616442 0.002899258 0.10796336 -0.005830381 -0.05853426 -0.14441764
-0.09979248 0.06826741 -0.06997101 -0.03956679 0.17855345 0.059224244 -0.09352641 0.26286152
-0.2702109 -0.40617266 -0.22996408 -0.023568902 -0.1790427 -0.110493824 -0.091610946 -0.13371742
-0.011643605 0.18747072 0.04888471 0.014819595 0.04457695 -0.070847325 -0.081767075 -0.024893846
-0.07286605 -0.0446879 -0.037873756 0.12466453 0.11480407 -0.0059048496 0.045283303 0.101750925
-0.21414414 -0.099679954 0.026272781 0.07275669 0.038046207 -0.03261044 0.13348044 0.24210566
0.24554157 0.13678238 0.12372516 0.07227237 -0.041412707 -0.04955359 0.043672774 0.02705501
00000000: 4a75 fd3d 0eb7 333d 95fe 173d 5eb0 293d
00000010: b942 debd 46d2 06be 795f af3d af8a a5bd
00000020: dc5e dbbd 0330 2abd 0067 bb3d 53cb 823d
00000030: aee1 333d 9a54 563d 3a21 8d3d 3459 083e
00000040: f419 f2bc bb97 283e 9970 c4bc 8839 d53c
00000050: 4461 9a3d b1b8 c0bc e614 4a3e 58ca f53d
00000060: 3505 183e 3ec0 4b3d b186 063d d813 0bbd
00000070: da19 b93c 9211 51bd 7277 81bd 9891 92bc
00000080: cd67 a5bc 90b5 67bd 5584 acbd b486 fb3d
00000090: 2517 e8bd 2c6d 46be 5a43 463d ee27 dfbd
000000a0: a912 4dbe 6475 4bbe b865 95bd 984d 8cbe
000000b0: c241 27be ec4a b83d 3840 05bc 7315 083e
000000c0: ea02 a8bd 2728 3c3d ac09 353e 9387 c93d
000000d0: aa3e 0c3e 3971 993e 177c 9f3c 834b 1b3e
000000e0: 950c 5a3d dc54 d93b 5833 803d 627c 2cbc
000000f0: 8268 173d 4dde e03d ca89 943d 454d 943d
00000100: 44d3 733d 075c 343e 92e3 2b3d a443 28bd
00000110: 0688 783d 7cb1 3e3e f761 953d 9bbc 883d
00000120: 11cc 8cbe a9d8 87be 9dc5 66bd 23cb 6fbe
00000130: b2bf 5bbe dedc 6e3d 0f56 ddbc e5a0 84bb
00000140: 3eb6 423e bf65 f03d 1823 9f3d b8d0 0e3c
00000150: e48b 703d 3cde 083e 3b7c ae3b 807e 12bd
00000160: 0763 ea3b 6e90 1abd cbcd be3c 2b8d a03d
00000170: 7e9b 64bc c309 4dbd 6a18 103d 7689 a7bd
00000180: defa 27bd da97 453e cd68 bc3d c856 9fbe
00000190: 94ae 30be ff56 01be 3d89 99be 9eb3 2abe
000001a0: 0486 5abd 17ae 8fbd 13c7 2bbc 6617 94bd
000001b0: 8ef4 10bd 8ff2 7b3d 95cb a33d affb 04bd
000001c0: 2a85 89bd 93d1 713d 2d67 0bbc 4f71 183e
000001d0: a7c3 443e 056b a53d f9f1 103e ac0a c03c
000001e0: cd04 87bb 8138 943d eeb3 673d c6e8 cdbc
000001f0: 331e 00bc 5c59 883d a0f8 ab3c b1a1 e9bd
00000200: 2be5 7fbe fc2b 793d 0068 d83c 75ef 6fbd
00000210: 6675 463e 6705 923e 86e3 833d f955 d53c
00000220: 7bce b63d 56e3 643e 027f 053e 383c 3f3e
00000230: 54b5 1a3e 1916 043e e27e 9a3c 2491 58bb
00000240: 0e2a f9bd 81a1 d8bd 79da 8bbd f3cd 7fbe
00000250: 036b 22be 364b 30be 40f3 40be dd10 a0be
00000260: 08dd 4ebe cdda 59bc da48 033d fd8a 8fbd
00000270: ae46 4bbd 8e74 a539 8837 f63c a7e6 5fbd
00000280: 5085 fc3d f269 053e 80fc 44bd 09f4 13bd
00000290: 829e b4bd bf0d 193e bebb 373e 3559 1f3e
000002a0: dc2b 5f3d 81b2 b8bd 6eb2 533d 7687 1c3e
000002b0: fe42 8d3d c7bc 653d a71b 093d e1e6 8e3d
000002c0: d4b8 75bd 985a 6dbc 9615 9e3d 2671 00bc
000002d0: 077e b9bc df2d 873d 2f7b b5ba 2755 c43d
000002e0: 08f5 463e ad54 ef3d 07d3 f0bc dca3 0a3e
000002f0: 867a e43d 903c dbbd da4e e1bc dea7 21b9
00000300: 0f9d 0dbd 410c d53d 065c c33d 4bda 073e
00000310: 876e a53c cc7b ec3d 4824 9ebb 79b0 31bd
00000320: 6d00 933d 41d7 133e bbbf 363d 7a01 3e3b
00000330: e51b dd3d c80c bfbb 9fc1 6fbd 38e2 13be
00000340: 0060 ccbd c9cf 8b3d f64c 8fbd c910 22bd
00000350: b7d6 363e 1f95 723d c68a bfbd c995 863e
00000360: 1559 8abe ddf5 cfbe b47b 6bbe 9213 c1bc
00000370: f856 37be 964a e2bd 859e bbbd 38ed 08be
00000380: d2c4 3ebc 53f8 3f3e 553b 483d e3cd 723c
00000390: 5296 363d 6718 91bd 7f75 a7bd 2eee cbbc
000003a0: cc3a 95bd a90a 37bd 8321 1bbd 1e50 ff3d
000003b0: 651e eb3d 787d c1bb fc7a 393d ca62 d03d
000003c0: 9a48 5bbe 0125 ccbd 043a d73c 7601 953d
000003d0: 57d6 1b3d 8692 05bd 19af 083e 8cea 773e
000003e0: 406f 7b3e ae10 0c3e 9e63 fd3d 8903 943d
000003f0: 5fa0 29bd b5f8 4abd 39e2 323d 78a2 dd3c

block1.2.conv.bias f4 [8]
-0.03703394 0.076330595 0.05621347 -0.07578773 0.061705813 0.0034109307 -0.10928605 0.0063249925
00000000: e7b0 17bd 3753 9c3d 1840 663d 9936 9bbd
00000010: 3cbf 7c3d ec89 5f3b 5dd1 dfbd e241 cf3b

block1.2.BN.weight f4 [8]
0.91330725 0.899834 0.9392094 0.96475935 0.94430935 1.2150449 0.8574784 1.0387301
00000000: 81ce 693f 855b 663f 0770 703f 78fa 763f
00000010: 42be 713f 9786 9b3f b483 5b3f 1cf5 843f

block1.2.BN.bias f4 [8]
-0.23480621 0.034918632 -0.118113495 -0.1823212 -0.01756881 0.09426148 -0.25320393 -0.25493553
00000000: 0a71 70be d706 0f3d 7de5 f1bd 69b2 3abe
00000010: 77ec 8fbc 2a0c c13d f2a3 81be e986 82be

block1.2.BN.running_mean f4 [8]
0.6657063 -0.056938626 0.76667976 -1.1586803 -0.05686978 -2.2802117 1.0259488 0.022394385
00000000: ba6b 2a3f 7a38 69bd 2045 443f a34f 94bf
00000010: 49f0 68bd fdee 11c0 4a52 833f 6e74 b73c

block1.2.BN.running_var f4 [8]
1.5636579 1.5362437 0.75170666 1.3022687 1.0537683 2.3544989 1.5084236 1.638799
00000000: f125 c83f a2a3 c43f d96f 403f beb0 a63f
00000010: e1e1 863f 1cb0 1640 0614 c13f 2ac4 d13f

block1.3.conv.weight f4 [4, 8, 3, 3]
-0.029465204 0.001020326 0.1718519 -0.023213178 0.022129523 -0.003446 -0.049994092 -0.09283561
-0.106852934 -0.057810243 -0.20477328 -0.09052905 -0.20802636 0.012480154 0.10666519 -0.017422454
0.016916383 0.020611268 0.1347925 -0.017989833 0.06258831 0.08491613 0.06521704 0.06516286
-0.013785958 -0.015921164 -0.122752815 0.29338157 0.018660298 0.22847901 0.1520036 -0.10488877
0.040153757 0.09840714 -0.10416948 -0.12851521 0.18344368 -0.05152841 0.1574413 0.19671817
-0.14388515 -0.069354616 0.1936272 0.09186293 0.12399418 -0.14216822 -0.07601214 0.07472242
-0.29305688 -0.01859519 -0.1302601 0.019740691 0.005865961 0.104918756 0.2781556 0.07675031
0.11596738 0.101215236 -0.023847833 -0.012940703 -0.0013906405 -0.19802453 -0.100496404 0.07950317
0.07846765 -0.15547203 0.08571569 0.12640837 -0.023464125 0.016244497 0.1678273 -0.021133607
0.019953137 -0.11542667 -0.021518333 -0.13771954 0.033169143 0.037433628 -0.14066927 0.075116456
0.035352513 0.06491491 -0.005228058 0.04422989 0.03009862 -0.067638755 -0.17931935 0.10889112
-0.057285793 -0.1711993 0.13040118 -0.19813791 0.08289577 0.10474335 -0.07694628 0.05417282
-0.05117086 -0.20321392 0.19099937 -0.12853852 0.024638537 -0.23922092 -0.1341113 -0.020340541
-0.15733011 0.021237481 0.12887642 -0.06495788 0.039259948 0.16405179 0.080440074 0.038252022
0.052368894 -0.044590976 0.02923914 -0.09317309 -0.09314441 0.07956194 -0.2478301 -0.26771125
-0.005456812 -0.33753297 -0.2676831 0.056641772 -0.18235385 -0.28700078 -0.116280876 -0.010330592
0.013865515 0.13179791 -0.10590919 -0.04485723 -0.099859186 -0.12868178 0.03925668 0.18541557
-0.028523097 4.1926924e-05 0.2859348 0.13207038 -0.015871389 0.23411247 0.10065677 -0.12137855
0.06412329 0.1802393 -0.09610857 0.23389292 0.28433427 0.14122394 0.13295786 0.08629394
0.1742865 0.13511617 -0.25232047 -0.16662067 -0.13097002 -0.12741902 0.07403652 0.038336713
0.016087808 0.0008354563 -0.07273436 0.15874062 0.028712114 0.098457955 0.12419461 0.07256909
-0.23106226 -0.087237135 -0.11458048 -0.1339788 -0.09257115 -0.15456152 -0.15690622 0.0027334841
-0.13808776 -0.1321987 0.12880193 0.14906465 -0.08761011 -0.09641174 -0.07390024 0.02903553
-0.030557467 0.11433808 -0.046203326 -0.2122374 -0.09985617 -0.023072569 -0.13331978 -0.087911785
0.10438706 0.0823276 0.02903903 -0.0017030286 0.06091004 -0.056061853 0.006716606 -0.028479096
-0.03303335 -0.12454324 0.03045141 -0.05506478 -0.10638705 0.09014216 -0.024482423 0.10828818
0.049679533 -0.045770176 -0.090752885 -0.027419552 0.021195037 -0.043575354 0.07363036 0.13321376
0.1486578 0.18695165 -0.09174047 -0.025932826 -0.015370318 -0.08759076 -0.116393685 0.081957564
-0.035468023 0.1284773 0.023295317 -0.009239859 0.11146986 -0.042238284 -0.05868228 -0.0519305
-0.11124254 -0.11964874 0.12171719 -0.1596136 -0.16351877 0.15466514 0.03530016 -0.11014781
0.103679866 -0.15030941 -0.10058726 -0.1289063 0.07759739 -0.053292047 -0.1276449 -0.04624546
-0.026851814 -0.021666192 0.030633274 -0.005660449 -0.2502543 0.022941794 -0.017094672 -0.24074127
00000000: 0361 f1bc 76bc 853a f2f9 2f3e 9029 bebc
00000010: f948 b53c 49d6 61bb 9bc6 4cbd 9920 bebd
00000020: b6d5 dabd 6fca 6cbd 16b0 51be 4b67 b9bd
00000030: dd04 55be 8f79 4c3c 4773 da3d 89b9 8ebc
00000040: 3a94 8a3c f6d8 a83c 0c07 0a3e 6a5f 93bc
00000050: 4d2e 803d 82e8 ad3d 8390 853d 1b74 853d
00000060: 80de 61bc 1a6d 82bc d465 fbbd 1c36 963e
00000070: 7bdd 983c 67f6 693e d5a6 1b3e eccf d6bd
00000080: 4478 243d af89 c93d cf56 d5bd 7e99 03be
00000090: a9d8 3b3e 740f 53bd 4b38 213e 7d70 493e
000000a0: a156 13be cb09 8ebd 3546 463e a222 bc3d
000000b0: a9f0 fd3d 8c94 11be 41ac 9bbd 1108 993d
000000c0: 8d0b 96be f154 98bc e762 05be 3bb7 a13c
000000d0: 3f37 c03b a5df d63d 696a 8e3e 442f 9d3d
000000e0: 4e80 ed3d ef49 cf3d 885c c3bc 3e05 54bc
000000f0: 2746 b6ba f1c6 4abe 0fd1 cdbd 8fd2 a23d
00000100: a6b3 a03d 0f34 1fbe b58b af3d 3271 013e
00000110: d637 c0bc 2e13 853c ebda 2b3e 6320 adbc
00000120: c374 a33c d164 ecbd 3747 b0bc 5a06 0dbe
00000130: 5edc 073d 0154 193d 9b0b 10be a8d6 993d
00000140: cccd 103d 1cf2 843d 2150 abbb 672a 353d
00000150: 6291 f63c 3086 8abd 7e9f 37be 4f02 df3d
00000160: 82a4 6abd df4e 2fbe e387 053e aae4 4abe
00000170: 42c5 a93d ae83 d63d 0396 9dbd 52e4 5d3d
00000180: 8998 51bd 4f17 50be 5795 433e 9a9f 03be
00000190: c2d6 c93c 54f6 74be 7954 09be 35a1 a6bc
000001a0: 251b 21be 3afa ad3c 2ef8 033e a308 85bd
000001b0: 0acf 203d 31fd 273e c4bd a43d 27ae 1c3d
000001c0: c480 563d 07a5 36bd ec86 ef3c 88d1 bebd
000001d0: 7fc2 bebd 5ff1 a23d 2cc7 7dbe 7311 89be
000001e0: 0fcf b2bb 1fd1 acbe c20d 89be 3401 683d
000001f0: f8ba 3abe c4f1 92be ab24 eebd a541 29bc
00000200: 2f2c 633c 08f6 063e ebe6 d8bd 37bc 37bd
00000210: f982 ccbd 28c5 03be 9dcb 203d 94dd 3d3e
00000220: 45a9 e9bc b1da 2f38 0c66 923e 753d 073e
00000230: b704 82bc 2ebb 6f3e 2325 ce3d 5195 f8bd
00000240: 1253 833d a790 383e 92d4 c4bd a081 6f3e
00000250: 4394 913e 029d 103e 1b26 083e e1ba b03d
00000260: 2978 323e e55b 0a3e 2630 81be 9c9e 2abe
00000270: 011d 06be 227a 02be 76a0 973d f506 1d3d
00000280: 94ca 833c 8602 5b3a c1f5 94bd e78c 223e
00000290: ab35 eb3c 53a4 c93d be59 fe3d 1a9f 943d
000002a0: 969b 6cbe 62a9 b2bd 2ca9 eabd bd31 09be
000002b0: f195 bdbd 6045 1ebe 06ac 20be 4124 333b
000002c0: e166 0dbe 195f 07be a7e4 033e 67a4 183e
000002d0: ee6c b3bd 8573 c5bd 0259 97bd ebdb ed3c
000002e0: a753 fabc 152a ea3d b33f 3dbd c354 59be
000002f0: 6481 ccbd af02 bdbc fb84 08be 180b b4bd
00000300: e2c8 d53d 5f9b a83d 43e3 ed3c 2838 dfba
00000310: ce7c 793d 1da1 65bd fa16 dc3b fe4c e9bc
00000320: fa4d 07bd 8710 ffbd 3c75 f93c 9b8b 61bd
00000330: 74e1 d9bd 749c b83d 5d8f c8bc 31c6 dd3d
00000340: c47c 4b3d 8279 3bbd a6dc b9bd f89e e0bc
00000350: 37a1 ad3c 127c 32bd 84cb 963d 3069 083e
00000360: c039 183e 4170 3f3e 6de2 bbbd 1471 d4bc
00000370: c9d3 7bbc c962 b3bd d05f eebd 5ed9 a73d
00000380: eb46 11bd 8e8f 033e d2d5 be3c c762 17bc
00000390: 4f4a e43d 0d02 2dbd d55c 70bd 13b5 54bd
000003a0: 21d3 e3bd 660a f5bd dd46 f93d bf71 23be
000003b0: 7771 27be 8a60 1e3e e796 103d 2d95 e1bd
000003c0: 1c56 d43d b6ea 19be b200 cebd 0300 04be
000003d0: 61eb 9e3d c348 5abd 58b5 02be e16b 3dbd
000003e0: 56f8 dbbc 4c7d b1bc a2f2 fa3c 4a7b b9bb
000003f0: 5521 80be 6ef0 bb3c 200a 8cbc e184 76be

block1.3.conv.bias f4 [4]
0.058766276 0.05063263 -0.04826473 0.036923885
00000000: e8b4 703d 2964 4f3d 3db1 45bd 803d 173d

block1.3.BN.weight f4 [4]
1.0023755 1.1074741 0.8959947 1.0066999
00000000: d74d 803f b6c1 8d3f e95f 653f 8bdb 803f

block1.3.BN.bias f4 [4]
-0.006328309 0.15358181 -0.20683676 -0.14213052
00000000: b45d cfbb 8d44 1d3e 04cd 53be aa8a 11be

block1.3.BN.running_mean f4 [4]
0.19458771 -0.8438877 -0.24049562 -0.55721325
00000000: 0042 473e 0609 58bf 7c44 76be 87a5 0ebf

block1.3.BN.running_var f4 [4]
0.5367907 0.7564663 0.50013 0.26936522
00000000: 1e6b 093f c7a7 413f 8508 003f 3dea 893e

block2.0.conv.weight f4 [8, 4, 3, 3]
-0.23728266 -0.13983408 -0.17220895 -0.027381914 0.13396637 -0.24248977 -0.014563548 0.04369518
0.004315023 0.10765591 -0.068557695 0.0345708 0.15710841 0.23977801 0.1246442 0.2673854
0.14345124 0.25032648 -0.16003248 -0.04357524 -0.1530591 -0.017379778 0.15754746 0.18387143
-0.14295876 -0.11789394 0.17359972 -0.03392227 -0.074282065 0.13388717 -0.03661488 -0.060618002
0.1337482 -0.1028679 -0.17731906 0.07128527 -0.011477871 0.0011665641 0.20399658 0.040840585
-0.010993663 0.07534232 -0.020092567 0.21161833 0.02625203 -0.10004888 0.0136199435 0.20771632
-0.046606757 0.108503625 0.11325159 -0.14996752 0.21348017 0.09828937 -0.057897747 0.023581164
-0.096302405 0.10913666 -0.038781602 -0.10259559 0.18823886 0.21748227 0.2579233 -0.13600159
-0.08214038 0.22123827 -0.21586001 -0.046160996 0.0815508 0.14582962 -0.10757293 0.14105128
-0.007819857 -0.04007512 0.03298788 0.07513447 -0.16916119 -0.13697489 -0.059000984 -0.24775408
-0.062603705 -0.034624506 0.120683596 0.13084474 -0.22192858 0.22020185 -0.16662802 -0.23573035
-0.03605335 0.16240476 -0.30720228 -0.14601906 0.044520423 -0.34362367 -0.13944359 -0.029985923
0.07699819 0.025697354 -0.07000492 0.010771523 0.2198375 0.088651955 -0.22891493 0.2381541
-0.090238556 0.11313777 0.21829319 -0.003534473 -0.060065817 -0.3342581 -0.28428313 0.05734968
-0.030340958 0.095614195 -0.09759729 0.012573415 0.13145576 -0.16731764 -0.0023905616 0.15819992
0.067891985 -0.028938968 -0.045788746 -0.1965878 -0.14672051 0.18921667 -0.09107023 -0.13868348
-0.10135038 -0.057682358 -0.1284164 -0.17687884 0.03464546 0.13345164 0.10402189 -0.34857312
-0.17295474 0.029014036 -0.021787725 -0.028097989 0.25056872 0.11651087 0.14746872 0.23305276
0.13160436 -0.24822243 -0.22740513 0.096465096 -0.09749799 -0.11230721 0.24241742 -6.1197265e-05
-0.13281117 -0.20843007 -0.22026776 -0.18703674 -0.11659516 0.13257447 0.1252527 0.10176486
0.14810163 0.024094477 0.16648945 -0.20216803 -0.031128112 -0.023668317 0.038165662 -0.22029686
0.09683097 0.17838743 -0.14668438 -0.040860582 -0.20923713 -0.08992748 -0.06534127 0.048105817
-0.13531359 0.13137074 0.19626305 0.15443674 0.2805841 0.13337097 -0.1505257 0.14040215
-0.078683175 -0.12862098 0.1412948 0.0025886367 -0.026415545 0.120807864 0.25728524 -0.13133676
0.04133241 0.027473146 0.01968145 0.13073586 -0.13912886 -0.02536933 -0.06553646 -0.028498694
-0.025072785 -0.105659105 -0.24799713 -0.11866826 0.20826559 0.06547671 0.04407125 0.28343534
0.029934464 0.12976328 0.22838981 0.07098246 -0.13126053 0.24064475 -0.09203323 -0.10387937
-0.05468445 0.19159831 -0.1420224 -0.07843628 0.15397318 0.0008754538 0.05661644 0.060859885
0.0889066 -0.20946926 -0.34190804 -0.26158056 0.01194179 0.010973575 -0.04877248 -0.10668387
-0.22477849 -0.09379686 -0.0571371 -0.27359167 0.071780644 -0.06250701 0.023082169 0.09796845
0.08803934 -0.21826231 -0.22326016 -0.015636371 -0.3752968 0.09167125 0.18537672 -0.03274032
-0.113678195 -0.002001979 0.0406136 0.19332545 -0.48408255 -0.20710821 -0.072863996 -0.13317338
00000000: 3afa 72be aa30 0fbe 8b57 30be 0950 e0bc
00000010: 7b2e 093e 3d4f 78be f39b 6ebc b8f9 323d
00000020: 0965 8d3b b47a dc3d fa67 8cbd 1c9a 0d3d
00000030: 07e1 203e 5e88 753e 7545 ff3d bde6 883e
00000040: e2e4 123e cb2a 803e 8edf 23be f37b 32bd
00000050: 86bb 1cbe 0960 8ebc 1f54 213e cb48 3c3e
00000060: c863 12be 6172 f1bd 20c4 313e 14f2 0abd
00000070: 3221 98bd b819 093e 7cf9 15bd 954a 78bd
00000080: 4af5 083e 68ac d2bd 2193 35be 03fe 913d
00000090: ae0d 3cbc 65e7 983a 7be4 503e 7548 273d
000000a0: c41e 34bc 134d 9a3d 2b99 a4bc 7ab2 583e
000000b0: 7f0e d73c 6de6 ccbd 2f26 5f3c 96b3 543e
000000c0: bae6 3ebd 2637 de3d 73f0 e73d 1691 19be
000000d0: 8c9a 5a3e f04b c93d 3026 6dbd 492d c13c
000000e0: 323a c5bd 0b83 df3d 75d9 1ebd a31d d2bd
000000f0: b0c1 403e acb3 5e3e 860e 843e 0044 0bbe
00000100: 3739 a8bd 498c 623e 680a 5dbe 5013 3dbd
00000110: 1b04 a73d 5c54 153e 324f dcbd bf6f 103e
00000120: dc1e 00bc cf25 24bd 4d1e 073d 1ae0 993d
00000130: 9738 2dbe 2543 0cbe 04ab 71bd 3fb3 7dbe
00000140: 5f36 80bd 6dd2 0dbd f628 f73d 2afc 053e
00000150: 3f41 63be 987c 613e 89a0 2abe 4c63 71be
00000160: adac 13bd 6f4d 263e 9e49 9dbe 0586 15be
00000170: 0c5b 363d 71ef afbe 4dca 0ebe 0aa5 f5bc
00000180: 3ab1 9d3d 4283 d23c bd5e 8fbd 0b7b 303c
00000190: 151d 613e 288f b53d ad68 6abe abde 733e
000001a0: fece b8bd c6b4 e73d 4088 5f3e 9ea2 67bb
000001b0: 9307 76bd e123 abbe 8f8d 91be 80e7 6a3d
000001c0: 9a8d f8bc 60d1 c33d 17e1 c7bd ba00 4e3c
000001d0: 579c 063e 5155 2bbe f8aa 1cbb 29ff 213e
000001e0: f40a 8b3d 6a11 edbc fb8c 3bbd 504e 49be
000001f0: e73d 16be 04c2 413e 0783 babd 0b03 0ebe
00000200: ca90 cfbd 5644 6cbd 977f 03be ba1f 35be
00000210: 66e8 0d3d 8ca7 083e 6e09 d53d 2d78 b2be
00000220: 0c1b 31be d8ae ed3c 2c7c b2bc c12d e6bc
00000230: 8b4a 803e 409d ee3d 0a02 173e 62a5 6e3e
00000240: 4bc3 063e 052e 7ebe e4dc 68be 7e8f c53d
00000250: 07ad c7bd 5301 e6bd 463c 783e 0857 80b8
00000260: a7ff 07be b16e 55be df8d 61be 8f86 3fbe
00000270: 71c9 eebd 9ac1 073e 3e42 003e 186a d03d
00000280: f4a7 173e c861 c53c 367c 2a3e 2305 4fbe
00000290: 6200 ffbc 0fe4 c1bc 9953 1c3d 8095 61be
000002a0: 514f c63d 32ab 363e 6e34 16be 6d5d 27bd
000002b0: 4242 56be e62b b8bd a5d1 85bd 9b0a 453d
000002c0: a58f 0abe 0d86 063e 2ef9 483e aa24 1e3e
000002d0: b8a8 8f3e 6692 083e 6923 1abe 95c5 0f3e
000002e0: a524 a1bd 38b5 03be 96af 103e 1ea6 293b
000002f0: 6a65 d8bc 1d6a f73d e4ba 833e 257d 06be
00000300: 2c4c 293d 5d0f e13c fe3a a13c 9fdf 053e
00000310: cc77 0ebe 57d3 cfbc fb37 86bd 1876 e9bc
00000320: 7165 cdbc cd63 d8bd f6f2 7dbe 5808 f3bd
00000330: 9343 553e a718 863d 0e84 343d 701e 913e
00000340: 1f39 f53c aae0 043e 05df 693e 415f 913d
00000350: 2969 06be 946b 763e eb7b bcbd b5be d4bd
00000360: cdfc 5fbd 5932 443e 526e 11be 33a3 a0bd
00000370: 25ab 1d3e b67e 653a a4e6 673d 3748 793d
00000380: aa14 b63d 1c7f 56be 920e afbe e3ed 85be
00000390: 7fa7 433c 82ca 333c a7c5 47bd 137d dabd
000003a0: 552c 66be 9118 c0bd 9708 6abd 3514 8cbe
000003b0: bb01 933d ad03 80bd d116 bd3c afa3 c83d
000003c0: f84d b43d 2880 5fbe 509e 64be d917 80bc
000003d0: e726 c0be 23be bb3d 65d3 3d3e b71a 06bd
000003e0: 1dd0 e8bd a233 03bb 725a 263d 1bf7 453e
000003f0: abd9 f7be 2d14 54be b839 95bd 9a5e 08be

block2.0.conv.bias f4 [8]
-0.12273196 0.05645338 0.048601057 0.21375239 -0.15729254 -0.03549645 -0.011489017 -0.14884068
00000000: e55a fbbd a93b 673d e711 473d e8e1 5a3e
00000010: 4c11 21be ba64 11bd 6e3c 3cbc b169 18be

block2.0.BN.weight f4 [8]
1.118401 0.8011519 0.9327503 1.0717477 1.0559891 0.9607956 1.0540427 0.9715166
00000000: c427 8f3f 4a18 4d3f b9c8 6e3f 072f 893f
00000010: a72a 873f b3f6 753f dfea 863f 50b5 783f

block2.0.BN.bias f4 [8]
0.02872432 -0.2688159 -0.03747654 -0.1907376 0.14409427 -0.1364682 0.026745219 0.13925117
00000000: 444f eb3c 3da2 89be 0081 19bd b850 43be
00000010: 738d 133e 52be 0bbe ca18 db3c dc97 0e3e

block2.0.BN.running_mean f4 [8]
0.23880276 0.5922544 -0.24986656 -0.08729187 -0.42450303 0.36092255 -0.6956368 -0.46155548
00000000: b688 743e fc9d 173f 05dd 7fbe 14c6 b2bd
00000010: 7658 d9be d7ca b83e 4115 32bf 0051 ecbe

block2.0.BN.running_var f4 [8]
0.55038923 0.5662085 0.65828764 0.47942042 0.35689312 0.5498106 0.6263285 0.7000135
00000000: 4fe6 0c3f 0af3 103f 8a85 283f 9876 f53e
00000010: b2ba b63e 63c0 0c3f 1157 203f 1634 333f

block2.1.conv.weight f4 [16, 8, 3, 3]
0.12594342 -0.03081071 0.012097788 -0.20970729 0.11302007 -0.07375496 0.05870843 0.14401348
0.11154106 0.12269318 -0.07911804 -0.12844028 -0.015420668 0.062574685 0.08922204 0.10180407
0.113128856 0.09689076 0.06222345 0.11562403 -0.03231074 -0.23963687 -0.21102369 -0.08056702
-0.19292915 -0.15625805 -0.040216718 0.13345213 0.022547653 0.116093 -0.041649 0.08662748
-0.022054786 -0.12753807 -0.084010765 -0.03677816 -0.1538616 0.06396159 0.07263722 0.071632475
0.023627762 0.1843451 0.025081277 0.18867405 0.19918549 0.03954359 0.21722534 0.20823544
0.031617723 0.11466396 0.1233083 0.0910883 0.097610615 0.19442238 0.012232287 -0.12935722
-0.12534836 0.057326183 0.064925104 -0.023699047 0.08686674 0.10056837 0.14423913 0.13969372
0.21459688 0.1520491 0.08186461 0.11937412 -0.006000332 0.06201996 0.08877065 0.12769377
0.072490476 0.12550533 0.050578088 0.24612561 0.161881 0.053360455 0.05807424 0.16172615
0.047172125 0.055170514 0.069416024 0.036300093 0.08132733 0.12471681 0.003482845 0.21128826
0.013679443 0.16847534 -0.0394748 0.13503334 0.021813812 0.0053109988 -0.049705658 0.02888047
0.016624993 -0.12784359 -0.074671246 -0.23492554 0.028563727 -0.09482949 -0.049399402 0.03669569
-0.051262945 -0.050223906 -0.008482358 -0.06248467 -0.36470282 0.006787194 -0.3290984 -0.11332427
0.15030807 -0.12667488 -0.124860585 0.062437836 -0.30514288 -0.05771209 0.044485837 -0.022382304
-0.04207682 0.13537009 -0.0311628 -0.03189402 0.15487763 0.08019591 0.13310106 0.08556846
0.079509534 0.26920006 -0.03142916 0.14201243 0.28287712 0.088157594 -0.050282743 0.10129238
0.14316031 0.115493394 0.054614887 0.09853901 0.082776085 -0.053119354 0.101489745 0.21700104
-0.07582127 0.028754972 -0.24639487 0.010655265 -0.06813167 -0.11352147 0.075004 0.1445276
-0.17984529 0.01580945 0.13032646 -0.16657205 0.15434292 0.15461662 0.012665592 0.20829636
0.1658359 -0.031274732 0.0072883046 -0.10663733 -0.04501403 -1.408457e-06 -0.14881139 0.17005332
0.028068563 -0.13023017 0.18154685 -0.13200979 -0.09134667 -0.1824949 -0.105962716 -0.07920602
-0.105515726 -0.04934685 -0.07927242 -0.0063228286 0.0017736936 0.037377585 0.07216416 -0.104941286
-0.008978367 -0.14863989 -0.102362 0.01182388 -0.041674312 -0.117190085 0.0043871063 0.01528616
-0.04030322 -0.10948135 -0.1498012 -0.13202487 -0.046462826 -0.21584138 -0.043263674 -0.21994573
-0.11403883 0.028696394 -0.017911142 0.05725378 -0.06307121 -0.05546224 -0.062754 -0.10984378
-0.107673295 -0.04733547 0.1399838 0.065487884 -0.038213298 0.27597257 0.15907812 0.1378791
0.18151838 0.02838178 0.09515051 -0.0016345688 0.05044813 -0.06864024 -0.061227407 0.092380255
-0.023348283 0.014234167 0.008932344 -0.04135762 0.0010969475 -0.06025617 -0.058732357 -0.10411183
-0.1890436 -0.24762177 -0.11243749 0.028935028 -0.07446794 -0.07757011 -0.0472977 0.12480911
0.2622588 0.31719917 0.4111883 -0.1247194 0.20655654 -0.23555116 -0.118802816 0.15148579
-0.15904391 0.15900487 0.20459954 -0.051071618 -0.081427306 -0.002163197 -0.18739945 -0.029073488
00000000: 50f7 003e be66 fcbc cd35 463c 82bd 56be
00000010: 1177 e73d d70c 97bd 4078 703d 4578 133e
00000020: a46f e43d 9046 fb3d a408 a2bd d985 03be
00000030: f8a6 7cbc 2827 803d 0bba b63d a77e d03d
00000040: 1ab0 e73d aa6e c63d 04de 7e3d 4bcc ec3d
00000050: 4458 04bd 5e63 75be 9816 58be 5200 a5bd
00000060: 388f 45be 1c02 20be 49ba 24bd ada7 083e
00000070: dbb5 b83c 2bc2 ed3d 2498 2abd c069 b13d
00000080: 3dac b4bc 5799 02be d60d acbd b2a4 16bd
00000090: e58d 1dbe 4bfe 823d d3c2 943d 0cb4 923d
000000a0: 028f c13c f6c4 3c3e 4077 cd3c c533 413e
000000b0: 48f7 4b3e 76f8 213d 5270 5e3e ac3b 553e
000000c0: 9681 013d f0d4 ea3d 1089 fc3d 818c ba3d
000000d0: 13e8 c73d a916 473e ee69 483c 3876 04be
000000e0: 525b 00be dcce 6a3d 74f7 843d 8124 c2bc
000000f0: 30e7 b13d caf6 cd3d 6cb3 133e df0b 0f3e
00000100: 49bf 5b3e c2b2 1b3e a2a8 a73d 6b7a f43d
00000110: 6f9e c4bb a408 7e3d 63cd b53d 28c2 023e
00000120: e375 943d 7884 003e f82a 4f3d 5a08 7c3e
00000130: 22c4 253e 7e90 5a3d 41df 6d3d 8a9b 253e
00000140: 8f37 413d 7afa 613d fd29 8e3d 68af 143d
00000150: f18e a63d 876b ff3d 7140 643b f35b 583e
00000160: be1f 603c cd84 2c3e 54b0 21bd 2e46 0a3e
00000170: e1b2 b23c e307 ae3b 2998 4bbd bc96 ec3c
00000180: 2331 883c 6ee9 02be 3ded 98bd 5290 70be
00000190: 7afe e93c f735 c2bd 0757 4abd 384e 163d
000001a0: 18f9 51bd 95b7 4dbd 97f9 0abc edef 7fbd
000001b0: 54ba babe 1c67 de3b 967f a8be 8e16 e8bd
000001c0: 5cea 193e 0fb7 01be e8b6 ffbd d1be 7f3d
000001d0: b03b 9cbe 8363 6cbd c836 363d 185b b7bc
000001e0: be58 2cbd 759e 0a3e 2149 ffbc 4ea3 02bd
000001f0: 3e98 1e3e c13d a43d a54b 083e 843e af3d
00000200: e5d5 a23d 97d4 893e ddbb 00bd b56b 113e
00000210: 45d5 903e f88b b43d 47f5 4dbd 6172 cf3d
00000220: 9e98 123e cd87 ec3d dcb3 5f3d d2ce c93d
00000230: 8286 a93d ae93 59bd dbd9 cf3d 8535 5e3e
00000240: 2f48 9bbd 8c8f eb3c f04e 7cbe 6c93 2e3c
00000250: 9e88 8bbd f27d e8bd b29b 993d 0bff 133e
00000260: 5d29 38be d282 813c 4d74 053e dd91 2abe
00000270: 120c 1e3e d253 1e3e 5883 4f3c a44b 553e
00000280: e3d0 293e ef19 00bd bbd2 ee3b ac64 dabd
00000290: a260 38bd 370a bdb5 0362 18be 7522 2e3e
000002a0: 0bf0 e53c 0f5b 05be 6be7 393e 932d 07be
000002b0: f713 bbbd f1df 3abe fb02 d9bd c436 a2bd
000002c0: a118 d8bd ec1f 4abd 9459 a2bd bb2f cfbb
000002d0: 487b e83a 3d19 193d ceca 933d 75eb d6bd
000002e0: 001a 13bc 0e35 18be 2ba3 d1bd f2b8 413c
000002f0: afb2 2abd 5b01 f0bd b7c1 8f3b cd72 7a3c
00000300: fd14 25bd c237 e0bd 7c65 19be 8731 07be
00000310: ce4f 3ebd 8605 5dbe 4035 31bd 7439 61be
00000320: 318d e9bd b314 eb3c 63ba 92bc f182 6a3d
00000330: 7b2b 81bd 602c 63bd 2b85 80bd c7f5 e0bd
00000340: d183 dcbd d6e2 41bd ea57 0f3e 831e 863d
00000350: 8c85 1cbd 474c 8d3e 60e5 223e 2e30 0d3e
00000360: f4df 393e e880 e83c 45de c23d 073f d6ba
00000370: b3a2 4e3d 4193 8cbd 97c9 7abd dc31 bd3d
00000380: e644 bfbc 6c36 693c f758 123c 9c66 29bd
00000390: 73c7 8f3a 2ccf 76bd 5791 70bd 9538 d5bd
000003a0: a594 41be 9090 7dbe a045 e6bd 2709 ed3c
000003b0: a682 98bd 14dd 9ebd 3cbb 41bd eb9b ff3d
000003c0: c946 863e ee67 a23e 4687 d23e e36c ffbd
000003d0: 8f83 533e 5334 71be e44e f3bd 171f 1b3e
000003e0: 68dc 22be 2cd2 223e 8b82 513e 7930 51bd
000003f0: 5cc3 a6bd 6cc4 0dbb a4e5 3fbe 862b eebc

block2.1.conv.bias f4 [16]
-0.013411441 0.018546 -0.0026833941 -0.060638905 0.09200597 0.17114972 -0.048680518 -0.16096573
0.022377657 -0.21146448 0.015093289 0.026870862 -0.14531292 0.08300875 3.5864014e-05 0.008645693
00000000: a9bb 5bbc c8ed 973c e2db 2fbb 8060 78bd
00000010: a06d bc3d df41 2f3e 3965 47bd 33d4 24be
00000020: 5951 b73c 258a 58be d849 773c 4820 dc3c
00000030: e9cc 14be 7e00 aa3d b16c 1638 aaa6 0d3c

block2.1.BN.weight f4 [16]
0.90896946 0.95495266 1.0032358 0.9892115 1.0568525 0.980382 1.0039772 1.1580691
1.029499 0.97799 1.0864395 1.0405213 0.95929736 1.0195014 0.9237507 0.9005275
00000000: 39b2 683f c777 743f 086a 803f f73c 7d3f
00000010: f146 873f 51fa 7a3f 5382 803f 9c3b 943f
00000020: a0c6 833f 8d5d 7a3f 7310 8b3f cd2f 853f
00000030: 8394 753f 067f 823f ed7a 6c3f f888 663f

block2.1.BN.bias f4 [16]
-0.28895807 -0.15376669 -0.19326682 -0.0774472 -0.03781713 -0.16729483 -0.1911166 0.023388043
-0.09693288 0.0006070162 -0.14090316 -0.19192488 -0.1135724 -0.052901845 -0.011820129 -0.13098882
00000000: 50f2 93be 0475 1dbe bde7 45be a39c 9ebd
00000010: 23e6 1abd 564f 2bbe 12b4 43be 4898 bf3c
00000020: bf84 c6bd 2b20 1f3a eb48 10be f587 44be
00000030: a598 e8bd 9baf 58bd 37a9 41bc ef21 06be

block2.1.BN.running_mean f4 [16]
1.1003563 0.80236053 -0.64581764 -0.06575965 1.2216171 0.92175776 1.0765455 -1.0213125
-0.30123228 -1.3915212 -1.0968268 -0.7630199 -1.3878795 1.2364095 -0.9311334 0.24915896
00000000: 7ad8 8c3f 8067 4d3f 4e54 25bf ffac 86bd
00000010: f35d 9c3f 51f8 6b3f 3ecc 893f 5eba 82bf
00000020: 1e3b 9abe 5e1d b2bf d264 8cbf 4655 43bf
00000030: 09a6 b1bf ab42 9e3f c25e 6ebf 8723 7f3e

block2.1.BN.running_var f4 [16]
0.49445605 0.5578955 0.32792535 0.4202968 0.7771368 0.48425218 0.41481867 0.51028883
0.37717792 0.5641872 0.7848493 0.45166245 0.35712793 1.1675892 0.59563017 0.5331558
00000000: 5829 fd3e 3dd2 0e3f d5e5 a73e 2431 d73e
00000010: 70f2 463f e7ef f73e 1d63 d43e 4aa2 023f
00000020: 771d c13e 936e 103f e2eb 483f 4d40 e73e
00000030: 79d9 b63e 9073 953f 387b 183f e67c 083f
