result/model/0518 1628.pt (torch, 79197 bytes, 98 tensors)

input_conv.conv.weight f4 [4, 1, 3, 3]
-0.13187067 -0.26183483 -0.13857119 -0.14009647 -0.35294655 -0.41384438 0.29907647 -0.21855466
0.2214227 -0.03349142 -0.27784562 -0.16605818 0.15212056 0.34772676 0.20816158 -0.1268445
0.08186646 0.1684296 0.06051934 -0.17446691 -0.24311504 0.15162198 0.15945901 -0.3860741
0.19650912 -0.009248765 0.042929426 -0.0295892 0.42663565 0.016160743 0.0041636233 -0.0021482988
0.041776456 -0.17711753 -0.3044321 0.17274256
00000000: 1b09 07be 370f 86be 9be5 0dbe 7375 0fbe
00000010: 69b5 b4be 69e3 d3be 8d20 993e cbcc 5fbe
00000020: a2bc 623e 4d2e 09bd c841 8ebe 280b 2abe
00000030: 7ec5 1b3e 3e09 b23e 4f28 553e 86e3 01be
00000040: 9aa9 a73d cf78 2c3e 21e3 773d 74a7 32be
00000050: 26f3 78be cb42 1b3e 3949 233e 81ab c5be
00000060: b039 493e 2288 17bc c4d6 2f3d 0d65 f2bc
00000070: fd6f da3e 8963 843c 016f 883b 79ca 0cbb
00000080: ca1d 2b3d 4c5e 35be 86de 9bbe 6de3 303e

input_conv.conv.bias f4 [4]
-0.1224559 0.119775236 -0.242646 -0.07531564
00000000: 29ca fabd b84c f53d 3178 78be 163f 9abd

input_conv.BN.weight f4 [4]
0.98487484 1.0446078 0.88090485 0.9941373
00000000: c220 7c3f b5b5 853f fb82 613f c87f 7e3f

input_conv.BN.bias f4 [4]
-0.19610682 -0.07425972 -0.02767455 0.31362876
00000000: 3ad0 48be 7b15 98bd bdb5 e2bc f393 a03e

input_conv.BN.running_mean f4 [4]
-0.3227773 0.18129179 -0.2789216 -0.04804038
00000000: 1143 a5be 8ea4 393e d0ce 8ebe fdc5 44bd

input_conv.BN.running_var f4 [4]
0.05286839 0.0068600923 0.004059369 0.0023900198
00000000: 868c 583d a0ca e03b 7504 853b e1a1 1c3b

block1.0.conv.weight f4 [8, 4, 3, 3]
0.14829299 0.06733547 -0.090922914 0.37316012 0.29624036 0.14524616 -0.08459551 0.108020194
-0.29071048 -0.17849286 0.0792954 -0.06942812 0.08765047 0.09718959 -0.008239792 -0.09803345
-0.08443595 0.026482107 -0.015671441 -0.14449368 0.08321535 -0.23799632 -0.09566226 -0.18172501
0.03880673 -0.27084297 -0.08017203 -0.19196938 0.16360372 0.12642047 -0.14394459 0.06632806
-0.005152408 -0.13561976 -0.17330429 -0.031319346 0.008967137 0.03210049 0.05564266 0.07203539
0.03842664 0.051233403 0.007491589 0.107047655 -0.044194557 -0.26411796 0.28523508 0.16481535
0.060511902 0.20369148 0.15480705 0.11724168 0.22802301 0.23071969 -0.0316474 -0.02179678
0.2477882 -0.09666295 -0.119001456 0.11794486 -0.0785935 -0.013985302 0.01441758 0.0067775757
-0.047296267 -0.008823729 0.108023785 0.037988026 -0.078906484 -0.21972641 -0.115460806 -0.27041134
-0.22894812 -0.12629819 -0.010241056 -0.016570369 -0.20020106 0.00978718 0.07717431 0.18861148
0.20502813 -0.1292204 -0.083014645 -0.10325061 0.18764922 -0.07331189 -0.14503847 0.08898338
-0.17060605 -0.19332875 -0.0041665426 0.1590331 0.0333829 0.16813566 -0.11528301 -0.10416939
0.23897615 0.28544232 0.0379129 -0.2162558 -0.3079306 -0.143853 -0.056764495 -0.14050344
0.13670227 0.054212213 0.16981752 0.06369027 0.033060845 0.09056967 -0.14061987 -0.06527742
-0.18801916 -0.096147984 -0.063325234 0.06061371 -0.09499844 0.109490134 -0.14100102 0.11468785
0.2994329 -0.06455472 -0.33032647 -0.21302393 -0.29968047 -0.13772787 0.039035928 -0.17625168
-0.32414412 0.034290403 0.13473596 0.10744055 -0.097102076 -0.08243141 -0.041779574 -0.072128646
-0.017256364 0.119771995 0.09054914 0.19871287 -0.09145119 -0.058244042 -0.08987218 -0.1801595
-0.1553151 0.01141035 -0.14332223 -0.011630814 -0.06403668 0.22145881 -0.064541176 -0.08463997
0.13035393 0.23855329 -0.069482505 0.16423471 0.034733046 -0.14682925 -0.057935033 0.21255153
-0.069891766 0.19427358 0.111255825 0.20888361 0.15340658 0.11543081 0.26943317 0.09208984
-0.010628162 0.013155275 0.12144815 -0.35392246 -0.19556648 0.044463385 -0.09100194 -0.1472235
0.038576625 -0.1220969 -0.03948679 0.15963402 0.09383402 0.32620332 0.050807092 0.12155299
0.055844195 0.07779251 -0.043555137 0.13736333 -0.016915752 -0.036582824 0.091120645 0.21082969
-0.17400597 0.0018893352 0.022924818 0.018877458 0.022555731 0.03932346 0.030455682 -0.10220756
-0.34931657 0.018996414 0.023768393 -0.102051176 0.062203966 -0.23582166 -0.110521674 -0.008598157
-0.24771945 -0.16862203 -0.20937221 -0.21134162 -0.028100178 0.115669265 0.07411846 0.25464198
0.15528908 0.22536664 0.1735737 0.073908724 -0.18335679 -0.2081435 -0.28121826 -0.2665908
-0.15619461 0.05448731 -0.278075 -0.15536132 -0.13434544 0.09219384 -0.033356715 0.06465213
-0.036304407 0.04049446 0.16048215 0.09642155 -0.08504798 0.12594771 -0.1330634 -0.087356195
-0.06980861 -0.048755005 -0.119011894 -0.17568989 0.104641415 0.12310095 -0.048472423 0.03782686
-0.008018549 -0.0070315837 0.29358274 -0.16983217 -0.063595295 -0.018771851 -0.022531502 -0.09461818
00000000: 1eda 173e 2ee7 893d cb35 babd d80e bf3e
00000010: d1ac 973e 69bb 143e 6940 adbd b139 dd3d
00000020: 01d8 94be d5c6 36be a065 a23d 5530 8ebd
00000030: 1782 b33d 560b c73d 3100 07bc c3c5 c8bd
00000040: c1ec acbd 01f1 d83c 6561 80bc 27f6 13be
00000050: cf6c aa3d 4fb5 73be 93ea c3bd 1f16 3abe
00000060: cef3 1e3d eeab 8abe 3c31 a4bd 9f93 44be
00000070: bc87 273e 5e74 013e 3666 13be 02d7 873d
00000080: 88d5 a8bb e8df 0abe ae76 31be b748 00bd
00000090: e6ea 123c ce7b 033d 8fe9 633d 4a87 933d
000000a0: 4165 1d3d 1eda 513d 017c f53b cd3b db3d
000000b0: 5a05 35bd 783a 87be 550a 923e 5bc5 283e
000000c0: 54db 773d 8094 503e bd85 1e3e 681c f03d
000000d0: dd7e 693e c841 6c3e b4a0 01bd 298f b2bc
000000e0: 31bc 7d3e 3af7 c5bd 09b7 f3bd 138d f13d
000000f0: a1f5 a0bd 9c22 65bc b737 6c3c 6d16 de3b
00000100: bbb9 41bd 6791 10bc 933b dd3d 5599 1b3d
00000110: b999 a1bd f6ff 60be b776 ecbd 5b73 8abe
00000120: 6071 6abe 5054 01be 1aca 27bc 95be 87bc
00000130: 8201 4dbe 695a 203c 910d 9e3d 5e23 413e
00000140: e5f2 513e 5a52 04be 9503 aabd 0e75 d3bd
00000150: 1e27 403e 8b24 96bd f784 14be eb3c b63d
00000160: 5ab3 2ebe f9f7 45be 7e87 88bb 93d9 223e
00000170: 82bc 083d c12b 2c3e 8019 ecbd c356 d5bd
00000180: 2ab6 743e 7f25 923e 8f4a 1b3d 2972 5dbe
00000190: 14a9 9dbe 334e 13be e381 68bd 22e0 0fbe
000001a0: aefb 0b3e a00d 5e3d a5e4 2d3e 0b70 823d
000001b0: cf6a 073d 977c b93d a8fe 0fbe 2bb0 85bd
000001c0: 1888 40be 3ce9 c4bd a9b0 81bd 1546 783d
000001d0: 8b8e c2bd 5d3c e03d 9262 10be 77e1 ea3d
000001e0: 454f 993e 4435 84bd 8d20 a9be f222 5abe
000001f0: b86f 99be 8908 0dbe 23e4 1f3d 527b 34be
00000200: 38f6 a5be 1874 0c3d 39f8 093e cb09 dc3d
00000210: 74dd c6bd cdd1 a8bd 0f21 2bbd 2fb8 93bd
00000220: 385d 8dbc 054b f53d d471 b93d 637b 4b3e
00000230: c34a bbbd 4e91 6ebd e80e b8bd bb7b 38be
00000240: ec0a 1fbe 7af2 3a3c 10c3 12be 2b8f 3ebc
00000250: aa25 83bd 19c6 623e 2a2e 84bd b857 adbd
00000260: 807b 053e 5047 743e d84c 8ebd 252d 283e
00000270: 3d44 0e3d 685a 16be 494d 6dbd 1ca7 593e
00000280: 6a23 8fbd a7ef 463e 18da e33d 96e5 553e
00000290: 9d16 1d3e fd66 ec3d 25f3 893e 9999 bc3d
000002a0: be21 2ebc 3989 573c cfb9 f83d 5335 b5be
000002b0: 9442 48be 3d1f 363d 3a5f babd c2c1 16be
000002c0: 8602 1e3d f10d fabd e6bc 21bd 1a77 233e
000002d0: 0d2c c03d 1f04 a73e 191b 503d c6f0 f83d
000002e0: e2bc 643d ae51 9f3d df66 32bd f9a8 0c3e
000002f0: e792 8abc dfd7 15bd 769d ba3d bde3 573e
00000300: 9f2e 32be 92a3 f73a d4cc bb3c e6a4 9a3c
00000310: ccc6 b83c a311 213d 327e f93c 3252 d1bd
00000320: 9fd9 b2be 5e9e 9b3c efb5 c23c 3500 d1bd
00000330: 96c9 7e3d 3c7b 71be 3059 e2bd 49df 0cbc
00000340: 2baa 7dbe 41ab 2cbe ab65 56be f069 58be
00000350: 5832 e6bc 02e4 ec3d 6bcb 973d 6f60 823e
00000360: 1a04 1f3e 83c6 663e 4ebd 313e 755d 973d
00000370: e2c1 3bbe 9223 55be d7fb 8fbe 977e 88be
00000380: 7bf1 1fbe 162e 5f3d d95f 8ebe 0a17 1fbe
00000390: da91 09be 20d0 bc3d 0da1 08bd 5668 843d
000003a0: eeb3 14bd 85dd 253d 6f55 243e a978 c53d
000003b0: a32d aebd 70f8 003e c641 08be cee7 b2bd
000003c0: d1f7 8ebd 54b3 47bd 82bc f3bd 0de8 33be
000003d0: 3d4e d63d 5a1c fc3d 058b 46bd 56f0 1a3d
000003e0: 3b60 03bc 3369 e6bb 7a50 963e 7ce8 2dbe
000003f0: 403e 82bd 6dc7 99bc fc93 b8bc 2dc7 c1bd

block1.0.conv.bias f4 [8]
0.005597992 0.11830868 0.03108686 0.1043981 0.08927574 0.17319685 -0.050180346 0.12822743
00000000: 5c6f b73b d24b f23d dfa9 fe3c acce d53d
00000010: 33d6 b63d 845a 313e e889 4dbd 0d4e 033e

block1.0.BN.weight f4 [8]
0.9989384 0.95465505 1.0177134 0.9800725 0.94934744 1.0804787 0.958661 1.0593462
00000000: 6dba 7f3f 4664 743f 6f44 823f 08e6 7a3f
00000010: 6f08 733f 204d 8a3f cf6a 753f a898 873f

block1.0.BN.bias f4 [8]
-0.14576022 -0.06948255 0.018511236 0.09754222 -0.012447544 -0.0032531468 0.13563144 -0.10927954
00000000: 2b42 15be de4c 8ebd e0a4 973c 37c4 c73d
00000010: c9f0 4bbc bf32 55bb f8e2 0a3e f4cd dfbd

block1.0.BN.running_mean f4 [8]
-0.5074124 0.35614443 -0.36108255 -0.60343087 0.20861624 -0.16524598 -0.374891 0.7403281
00000000: c7e5 01bf 9058 b63e d0df b8be 727a 1abf
00000010: 7f9f 553e 3e36 29be b7f1 bfbe 2486 3d3f

block1.0.BN.running_var f4 [8]
0.3579133 0.35464606 0.78140223 0.26744628 0.4267165 0.34352058 0.11482977 0.56540674
00000000: 6940 b73e 2b94 b53e fa09 483f b8ee 883e
00000010: 967a da3e eee1 af3e df2b eb3d 7fbe 103f

block1.1.conv.weight f4 [16, 8, 3, 3]
0.04858801 0.03848371 0.11703389 -0.028054228 -0.048036765 0.21494016 0.033486497 0.14774409
0.15000154 -0.053960178 0.01212384 -0.23030572 -0.18012327 -0.043708265 -0.17957288 0.01941406
-0.04852528 0.12551889 -0.15684342 -0.13100463 -0.16091718 -0.1255318 -0.1211705 -0.06315323
0.037162274 -0.16654354 -0.078907445 0.13092992 0.17456393 0.11463553 0.20977575 0.01885287
-0.26503295 0.026023336 -0.058441825 -0.12435064 0.05747969 -0.16154447 0.18586728 0.16025159
-0.037402608 0.08410522 -0.10015574 -0.18975052 -0.012505325 -0.0049388106 -0.14643344 0.066114835
-0.1323943 -0.06410671 0.07774289 -0.04329196 0.19766861 0.042279515 0.014857313 -0.056656003
-0.052834935 0.054434005 0.0843423 0.15465453 -0.080660045 0.07692353 0.06857607 0.057623185
0.04559531 0.10552726 -0.10662136 -0.24259517 -0.07696829 0.3185006 -0.026099214 0.06871526
0.14800002 -0.031231424 -0.08660311 0.18169527 0.108416066 -0.01177916 0.039528593 0.26805973
0.20126775 0.09978479 0.15851964 0.003933122 0.06611861 0.050016183 -0.041958395 0.2562051
0.10752048 -0.04613341 -0.17204495 -0.11313312 -0.09334036 0.10809688 0.13493872 0.18851447
-0.03670333 -0.036427636 -0.065095805 0.0068285526 0.01643632 -0.109674096 0.043030407 0.07684875
0.116650835 -0.0664881 -0.19430363 -0.12237197 0.08294201 -0.022567822 0.17498028 -0.03245072
-0.10684998 0.108881764 -0.07362531 -0.13981935 -0.081661426 0.0043349704 -0.24301901 -0.07298956
-0.05310932 -0.19069254 -0.1717241 0.11917852 0.07637375 -0.17638515 -0.058628976 -0.100194305
-0.039039426 0.06768369 -0.1247662 -0.034792397 -0.107851684 0.088081144 0.3788006 -0.121588856
-0.1875578 -0.37315375 -0.21545663 0.030221147 -0.087315 -0.06338821 -0.022076447 -0.105057776
0.17721674 0.050014433 0.038357615 0.28381866 0.1724291 0.1891388 -0.107921936 -0.26366267
-0.089339264 0.086380124 0.09414393 -0.077108786 -0.004624245 0.2095933 0.05642974 0.081017435
0.07707167 0.10926621 0.0033317006 0.08841744 0.21775745 -0.022759253 -0.09449458 -0.074469104
-0.037967782 0.00041080997 0.12764277 -0.07368661 0.05697515 0.15554316 -0.16081952 0.048758388
0.2156424 -0.25999245 -0.15667386 -0.18148308 0.04186674 0.06721413 0.1799486 0.122481786
0.035307508 0.16526341 0.058443647 0.081587516 -0.014525764 0.041805744 -0.089705914 -0.11025001
-0.030270848 -0.044518795 0.080606356 0.056026418 -0.06360501 0.106216386 -0.023220256 0.024307942
-0.26544684 0.09848956 0.18803027 0.06097843 0.19616154 0.011259349 0.21645479 0.004322038
0.13040864 -0.11454458 0.19679302 0.034712646 -0.089081116 0.19108023 -0.06002728 -0.080499016
0.15640637 0.18964215 -0.0068405783 0.041643992 -0.08928924 -0.0643685 -0.1436397 -0.10898023
-0.016805528 0.37151417 0.171202 0.043868728 0.21428914 0.014295979 -0.1663941 0.28322154
0.038011372 -0.15701722 0.14189357 0.039900538 0.19354147 0.1152374 0.19374849 0.03285367
0.1162955 0.096502155 0.13913472 0.026958259 -0.034962285 0.1057211 -0.12646423 0.14269315
0.2104459 0.04413088 0.14498208 0.20502673 -0.028653339 0.022842813 0.069100425 -0.07425378
00000000: 3904 473d 18a1 1d3d 77af ef3d fbd1 e5bc
00000010: 33c2 44bd 4619 5c3e 2329 093d 3a4a 173e
00000020: 019a 193e 5905 5dbd 12a3 463c 43d5 6bbe
00000030: 3c72 38be 7007 33bd f4e1 37be 3c0a 9f3c
00000040: 72c2 46bd 0688 003e 909b 20be 1426 06be
00000050: 79c7 24be 688b 00be 3d28 f8bd 7b56 81bd
00000060: 7837 183d 648a 2abe 3a9a a1bd 7e12 063e
00000070: e3c0 323e 08c6 ea3d 74cf 563e 5671 9a3c
00000080: 66b2 87be e42e d53c b260 6fbd 8cab febd
00000090: d36f 6b3d ea6b 25be fe53 3e3e fe18 243e
000000a0: 7a33 19bd 5c3f ac3d 741e cdbd f64d 42be
000000b0: 22e3 4cbc bfd5 a1bb a6f2 15be 3767 873d
000000c0: 5f92 07be 614a 83bd aa37 9f3d e952 31bd
000000d0: a469 4a3e 492d 2d3d 166c 733c 2010 68bd
000000e0: 7269 58bd 31f6 5e3d a8bb ac3d c25d 1e3e
000000f0: 1831 a5bd 158a 9d3d 9c71 8c3d 4a06 6c3d
00000100: 26c2 3a3d ad1e d83d 4d5c dabd de6a 78be
00000110: 8da1 9dbd 8312 a33e 05ce d5bc 96ba 8c3d
00000120: 518d 173e 0bd9 ffbc f95c b1bd 530e 3a3e
00000130: 3e09 de3d 61fd 40bc bce8 213d 203f 893e
00000140: 2219 4e3e f85b cc3d f952 223e 6be1 803b
00000150: 3269 873d c5dd 4c3d 91dc 2bbd 512d 833e
00000160: b333 dc3d 63f6 3cbd 8d2c 30be 56b2 e7bd
00000170: 3b29 bfbd e661 dd3d 602d 0a3e f009 413e
00000180: 3b56 16bd 2535 15bd f350 85bd 0dc2 df3b
00000190: 76a5 863c d09c e0bd a740 303d e162 9d3d
000001a0: a2e6 ee3d ea2a 88bd 88f7 46be 289e fabd
000001b0: 80dd a93d 27e0 b8bc 082e 333e 0ceb 04bd
000001c0: 2ad4 dabd 67fd de3d dec8 96bd ce2c 0fbe
000001d0: 1b3e a7bd 5e0c 8e3b fad9 78be 8d7b 95bd
000001e0: 2989 59bd e844 43be 71d8 2fbe de13 f43d
000001f0: d769 9c3d 4f9e 34be f024 70bd ac32 cdbd
00000200: cee7 1fbd bf9d 8a3d 6c85 ffbd 7982 0ebd
00000210: 58e1 dcbd e363 b43d 27f2 c13e 9403 f9bd
00000220: 270f 40be 020e bfbe aaa0 5cbe 5792 f73c
00000230: 35d2 b2bd aed1 81bd aad9 b4bc 8828 d7bd
00000240: 4e78 353e efdb 4c3d e01c 1d3d ae50 913e
00000250: 4191 303e 9aad 413e 2d06 ddbd cbfe 86be
00000260: 81f7 b6bd 10e8 b03d 88ce c03d 36eb 9dbd
00000270: fb86 97bb a09f 563e df22 673d 78ec a53d
00000280: c0d7 9d3d f6c6 df3d a958 5a3b 3414 b53d
00000290: cffb 5e3e 9d71 babc 6086 c1bd 4283 98bd
000002a0: 1b84 1bbd fb61 d739 c9b4 023e 01e9 96bd
000002b0: c65e 693d b546 1f3e dfad 24be e0b6 473d
000002c0: 5cd1 5c3e bb1d 85be 1d6f 20be b3d6 39be
000002d0: 757c 2b3d 90a7 893d 7244 383e bbd7 fa3d
000002e0: 9b9e 103d d03a 293e 9b62 6f3d 5b17 a73d
000002f0: 78fd 6dbc 803c 2b3d bcb7 b7bd c2ca e1bd
00000300: 92fa f7bc 5759 36bd f214 a53d f57b 653d
00000310: 5843 82bd fa87 d93d 6838 bebc 7321 c73c
00000320: a6e8 87be e5b4 c93d 028b 403e 85c4 793d
00000330: 92de 483e 2279 383c 53a6 5d3e e29f 8d3b
00000340: d889 053e 5996 eabd 1c84 493e d92e 0e3d
00000350: 2970 b6bd 89aa 433e 2adf 75bd abdc a4bd
00000360: fe28 203e 8d31 423e ee26 e0bb e492 2a3d
00000370: 47dd b6bd a2d3 83bd 4916 13be 0731 dfbd
00000380: bfab 89bc 1b37 be3e 944f 2f3e b2af 333d
00000390: 9d6e 5b3e af39 6a3c 3763 2abe 6a02 913e
000003a0: d0b1 1b3d 1fc9 20be 8c4c 113e bf6e 233d
000003b0: bc2f 463e 9601 ec3d 0166 463e 9291 063d
000003c0: 562c ee3d eca2 c53d 5579 0e3e 91d7 dc3c
000003d0: 9d34 0fbd 4e84 d83d d77f 01be 271e 123e
000003e0: 217f 573e 95c2 343d 2f76 143e 87f2 513e
000003f0: 68ba eabc da20 bb3c 8684 8d3d 5e12 98bd

block1.1.conv.bias f4 [16]
0.010694513 -0.006335138 -0.04046649 0.26155043 -0.10557091 0.073822856 -0.1640355 -0.11721042
0.08725363 0.18661569 -0.2046103 0.014769888 -0.06288397 0.03729853 -0.08366576 -0.014771435
00000000: 0a38 2f3c fd96 cfbb 31c0 25bd f0e9 853e
00000010: 9035 d8bd 7030 973d ecf8 27be 040c f0bd
00000020: 08b2 b23d 2f18 3f3e 5d85 51be 66fd 713c
00000030: 50c9 80bd 58c6 183d f458 abbd e403 72bc

block1.1.BN.weight f4 [16]
0.9650486 1.0568514 0.9901915 1.0135024 1.0780295 1.0375342 1.0290112 1.0052975
1.0212815 0.9887733 0.8370863 0.98113126 1.0233675 1.0680892 0.9267711 1.1231297
00000000: 6d0d 773f e846 873f 317d 7d3f 72ba 813f
00000010: dffc 893f eccd 843f a4b6 833f 97ad 803f
00000020: 5ab9 823f 3f20 7d3f 4a4b 563f 6b2b 7b3f
00000030: b5fd 823f 26b7 883f df40 6d3f b7c2 8f3f

block1.1.BN.bias f4 [16]
0.03825291 -0.040585216 -0.14707509 -0.35999018 0.016027657 -0.0919437 -0.16546372 -0.062594816
-0.26397026 -0.11002394 -0.22378415 -0.12610795 -0.19185328 -0.10551923 -0.03742382 -0.002247307
00000000: 15af 1c3d af3c 26bd da9a 16be a250 b8be
00000010: 6f4c 833c fb4c bcbd 526f 29be b631 80bd
00000020: 1c27 87be 3b54 e1bd ac27 65be 7122 01be
00000030: 3075 44be 771a d8bd b849 19bd 8e47 13bb

block1.1.BN.running_mean f4 [16]
-0.09710463 -0.432269 0.73977816 1.5166531 0.58932483 0.65119857 -1.3611267 -1.2680418
0.29841074 0.4296755 0.027547903 0.90481126 -0.6178033 -0.9094163 -0.79099184 0.10244484
00000000: cbde c6bd 5d52 ddbe 1a62 3d3f b021 c23f
00000010: fedd 163f f3b4 263f 6639 aebf 324f a2bf
00000020: 4bc9 983e 6dfe db3e 24ac e13c b6a1 673f
00000030: 5b28 1ebf 82cf 68bf 717e 4abf 9ace d13d

block1.1.BN.running_var f4 [16]
0.27129886 0.46150538 0.5893536 0.38309947 0.5604937 0.7761093 0.3687495 0.78301704
0.29476574 1.1119483 0.33901903 0.8013 0.568236 0.44507474 0.96384794 0.54032016
00000000: afe7 8a3e 6f4a ec3e e1df 163f 9d25 c43e
00000010: 847c 0f3f 19af 463f bccc bc3e ce73 483f
00000020: 89eb 963e 5254 8e3f e793 ad3e ff21 4d3f
00000030: ea77 113f d6e0 e33e bdbe 763f 6c52 0a3f

block1.2.conv.weight f4 [8, 16, 3, 3]
-0.1617582 -0.017348802 0.2056883 -0.049693875 0.047987185 0.05040131 0.11017112 0.14103612
-0.050949108 0.020195145 -0.08956718 -0.06921772 0.036361296 0.08361385 0.0048569883 -0.029583255
-0.011380819 -0.036772374 0.0813014 0.07299133 0.004752615 0.05104061 -0.058901727 -0.06143302
-0.24520376 -0.20138888 -0.21094704 -0.034354106 0.013890265 -0.06718798 -0.11236014 -0.009621128
0.03649004 -0.28721082 -0.067262955 0.07168312 -0.06627136 0.0766753 0.093724184 -0.18254828
-0.087693125 -0.10920486 -0.14443235 0.078669444 0.23869754 -0.23169382 -0.26174155 -0.06575191
-0.21662462 -0.1592698 -0.093751825 0.05215355 0.08883714 0.22839853 -0.00690106 -0.14195648
0.04155496 -0.0013599948 -0.06498901 -0.122814886 0.04971832 -0.102129176 -0.22783269 0.034529448
-0.16901934 -0.11692245 0.05104767 -0.046478722 -0.15235178 0.061552837 -0.21169227 -0.23164205
-0.038226515 0.13883728 0.015475049 -0.093140945 0.02102619 -0.054179534 -0.094085686 -0.02089851
-0.04563242 -0.0057487125 0.033838917 0.113732465 -0.24264534 -0.13416885 -0.0282049 -0.14002308
-0.02982716 -0.11426871 0.057858396 -0.0018202295 -0.048131607 -0.016916579 0.14328982 0.108759396
0.0027179725 0.16274899 0.15363203 0.008210305 -0.140352 -0.10987163 -0.13667478 -0.049080152
-0.018944772 -0.072718866 -0.1927703 0.008821298 0.24671477 0.095209114 0.04997951 0.11479468
0.08647908 0.113074824 -0.06696382 0.008314752 0.03857939 0.045222223 -0.024416624 0.18971889
0.19809274 -0.00022979922 0.059367526 -0.17614394 -0.1732915 -0.25144657 0.022859832 -0.08384724
-0.06788005 -0.10428037 -0.016997185 0.13169765 -0.14589171 -0.11428338 -0.07082398 0.087664045
-0.015637 -0.18460442 0.05861527 0.15305151 -0.07284501 0.033602852 -0.088666186 -0.14006732
-0.08516363 -0.17564423 0.0350588 0.0607937 0.04399491 -0.019155268 -0.0075636567 0.105948016
-0.11228841 -0.17464104 0.093165025 0.21645889 -0.16377194 0.062432107 0.07411364 0.04018166
-0.08538399 -0.037999544 -0.18534406 -0.11506755 0.18944992 -0.17840676 -0.1823622 -0.06886746
-0.074309975 -0.062055692 0.031565618 -0.05972827 -0.18917301 -0.07920821 0.00937044 -0.15270808
0.04067062 -0.09427262 -0.13035269 -0.06294596 -0.0065408484 -0.101432145 -0.16237819 -0.15063912
-0.07250108 -0.31769067 0.035969306 0.005215182 -0.0049800253 -0.05556984 -0.17696205 -0.05363438
-0.07811177 -0.056466848 0.003780425 -0.14443542 -0.007099398 -0.014154113 -0.123044915 -0.08773041
0.043828517 -0.2152051 -0.21358314 -0.008532408 0.014071188 -0.028243287 -0.17424439 0.013520901
-0.021630513 0.05452407 0.12352382 -0.0867807 0.018422037 0.026955955 -0.07003158 -0.21304506
-0.0010362491 0.08094919 0.096998304 -0.060632963 0.07248863 0.041503172 -0.10778802 0.10696022
0.2512031 0.006942448 -0.086082585 0.03657009 0.091546 0.0391549 0.014862648 -0.060986314
-0.13944305 -0.102337256 0.17158234 0.012065081 0.14505894 0.02399708 -0.06846867 0.0071424847
0.072690256 -0.024383353 -0.0722867 -0.015717959 0.20088424 0.024896426 0.011144818 0.16764536
0.025265455 -0.018350989 0.1769975 0.07762191 0.103706345 0.15017596 0.08950288 -0.05295384
00000000: f1a3 25be 131f 8ebc f49f 523e ce8b 4bbd
00000010: 368e 443d 9b71 4e3d 65a1 e13d c66b 103e
00000020: 03b0 50bd 4a70 a53c ff6e b7bd 05c2 8dbd
00000030: 95ef 143d bd3d ab3d 5f27 9f3b 9558 f2bc
00000040: 9d76 3abc a19e 16bd 5981 a63d 7a7c 953d
00000050: d3bb 9b3b f50f 513d f042 71bd 31a1 7bbd
00000060: b216 7bbe e338 4ebe 8002 58be e4b6 0cbd
00000070: fe93 633c da99 89bd 131d e6bd f0a1 1dbc
00000080: 9576 153d 4c0d 93be 29c1 89bd 9ace 923d
00000090: 47b9 87bd f107 9d3d 77f2 bf3d f0ed 3abe
000000a0: 7498 b3bd cca6 dfbd 13e6 13be 721d a13d
000000b0: 216d 743e 2541 6dbe fd02 86be f0a8 86bd
000000c0: d8d2 5dbe 9f17 23be f500 c0bd f69e 553d
000000d0: 3ff0 b53d 4ee1 693e 4a22 e2bb 0a5d 11be
000000e0: 8935 2a3d da41 b2ba f518 85bd 5f86 fbbd
000000f0: 70a5 4b3d 1a29 d1bd f94c 69be c06e 0d3d
00000100: 6813 2dbe 0a75 efbd 5d17 513d 7960 3ebd
00000110: 1b02 1cbe d41e 7c3d dcc5 58be 9333 6dbe
00000120: 6893 1cbd 5c2b 0e3e 0f8b 7d3c aec0 bebd
00000130: 1e3f ac3c 5ceb 5dbd ffaf c0bd 5a33 abbc
00000140: 0fe9 3abd b25f bcbb ad9a 0a3d 91ec e83d
00000150: 0578 78be 8f63 09be f60d e7bc 3662 0fbe
00000160: 1758 f4bc b705 eabd edfc 6c3d c494 eeba
00000170: a625 45bd a394 8abc 91ba 123e 3fbd de3d
00000180: 0320 323b aca7 263e b751 1d3e 8484 063c
00000190: 6fb8 0fbe 6104 e1bd 79f4 0bbe 4508 49bd
000001a0: 1132 9bbc a1ed 94bd 9465 45be 3587 103c
000001b0: cca2 7c3e fffc c23d 51b7 4c3d 7919 eb3d
000001c0: f21b b13d c693 e73d 5424 89bd 993a 083c
000001d0: 6c05 1e3d f03a 393d 5f05 c8bc ab45 423e
000001e0: d3d8 4a3e 42f6 70b9 5d2b 733d 145f 34be
000001f0: 5473 31be 9bbd 80be 8b44 bb3c 1ab8 abbd
00000200: b204 8bbd f290 d5bd ae3d 8bbc c0db 063e
00000210: a364 15be 680d eabd 2a0c 91bd 3589 b33d
00000220: 2a19 80bc f108 3dbe 9116 703d 89b9 1c3e
00000230: c42f 95bd 25a3 093d 9e96 b5bd cf6d 0fbe
00000240: 456a aebd 15dc 33be d199 0f3d d102 793d
00000250: 0234 343d 82eb 9cbc 8dd8 f7bb 46fb d83d
00000260: 77f7 e5bd 1ad5 32be 4ecd be3d 66a7 5d3e
00000270: d5b3 27be cfb8 7f3d e4c8 973d 8695 243d
00000280: cddd aebd 69a5 1bbd d5ca 3dbe 89a8 ebbd
00000290: 29ff 413e 43b0 36be 28bd 3abe 620a 8dbd
000002a0: d42f 98bd 1c2e 7ebd f34a 013d a1a5 74bd
000002b0: 92b6 41be ea37 a2bd 7986 193c 825f 1cbe
000002c0: 3c96 263d 0112 c1bd 2d7b 05be d0e9 80bd
000002d0: 9d54 d6bb a8bb cfbd 7846 26be 2441 1abe
000002e0: 727b 94bd 5aa8 a2be 8d54 133d 1ee4 aa3b
000002f0: 7b2f a3bb 339d 63bd 8a35 35be b9af 5bbd
00000300: 10f9 9fbd c849 67bd 02c1 773b e1e6 13be
00000310: 11a2 e8bb a7e6 67bc f9fe fbbd 00ac b3bd
00000320: 8885 333d ba5e 5cbe 8ab5 5abe 83cb 0bbc
00000330: d78a 663c 775e e7bc 1f6d 32be c586 5d3c
00000340: 7932 b1bc a254 5f3d 0efa fc3d 14ba b1bd
00000350: d0e9 963c bcd2 dc3c b86c 8fbd 7c28 5abe
00000360: c0d2 87ba b0c8 a53d 0ca7 c63d 455a 78bd
00000370: eb74 943d 3bff 293d f7bf dcbd f60d db3d
00000380: b19d 803e 7a7d e33b 114c b0bd 85ca 153d
00000390: 787c bb3d e360 203d 7782 733c c9cc 79bd
000003a0: 29ca 0ebe 3296 d1bd 48b3 2f3e 9eac 453c
000003b0: 558a 143e 8695 c43c 4d39 8cbd 810b ea3b
000003c0: a1de 943d 99bf c7bc 0d0b 94bd f3c2 80bc
000003d0: 99b4 4d3e 97f3 cb3c c198 363c 3aab 2b3e
000003e0: 80f9 ce3c d054 96bc d53e 353e 3cf8 9e3d
000003f0: fe63 d43d bac7 193e 494d b73d 20e6 58bd

block1.2.conv.bias f4 [8]
-0.1009157 0.0011448571 0.06981122 -0.033285998 -0.1153696 0.16584186 0.12922455 -0.04330936
00000000: e4ac cebd 080f 963a 2ff9 8e3d e656 08bd
00000010: e646 ecbd 73d2 293e 7153 043e 2865 31bd

block1.2.BN.weight f4 [8]
1.0900778 1.0411688 0.9276194 1.0149075 0.93602026 1.0299543 0.93283856 0.9839422
00000000: ab87 8b3f 0545 853f 7778 6d3f 7de8 813f
00000010: 069f 6f3f 8bd5 833f 82ce 6e3f a3e3 7b3f

block1.2.BN.bias f4 [8]
-0.1763956 -0.20372488 -0.13176368 0.0057491357 -0.047978792 -0.12658381 -0.29359788 -0.14841871
00000000: 0ca1 34be 419d 50be 0fed 06be 3f63 bc3b
00000010: 6985 44bd 309f 01be 7652 96be 13fb 17be

block1.2.BN.running_mean f4 [8]
-1.4206759 -1.2415724 0.33595204 0.18976298 -1.0634066 -0.48665497 -0.7823735 -0.88619375
00000000: b5d8 b5bf d8eb 9ebf e801 ac3e 3a51 423e
00000010: b51d 88bf d72a f9be a149 48bf 98dd 62bf

block1.2.BN.running_var f4 [8]
1.3086625 1.4944317 1.5642581 2.1705506 1.0760036 1.0082003 0.888966 0.9851403
00000000: 4182 a73f 8a49 bf3f 9c39 c83f 4dea 0a40
00000010: 7cba 893f b50c 813f 4793 633f 2832 7c3f

block1.3.conv.weight f4 [4, 8, 3, 3]
-0.13952482 -0.023764974 0.09855094 -0.16951938 -0.15312335 -0.037551988 -0.17194606 -0.20205338
0.06888554 -0.22559676 0.13486135 -0.3154983 0.061484043 0.13679598 0.05763323 -0.17046098
0.030016582 -0.0029106573 0.20697595 0.06227242 0.033931818 0.2755967 0.08053309 -0.031491753
-0.028373433 0.21524368 0.11800359 -0.003530415 0.07148052 0.10445737 -0.13322705 -0.21638712
-0.16938816 -0.11181389 -0.22322647 -0.16605096 -0.085646674 0.09807105 0.040081047 0.11530442
0.17322764 0.13104503 0.08106473 0.16936854 0.16858086 0.10697806 0.04113085 -0.008235793
-0.15390302 -0.097655445 -0.08089352 -0.07206248 0.10979236 0.1220831 -0.16642189 0.014961294
-0.006628925 -0.07061245 -0.050936364 -0.017867975 0.030119408 -0.040874485 -0.098868534 0.08613192
-0.011640406 -0.051153075 0.027384529 0.11293883 -0.043967977 -0.03256988 0.19478743 0.011540944
0.024728432 0.007581434 0.09785084 0.10151273 -0.037551895 -0.07851965 0.15283476 0.037766058
-0.07720528 0.13870804 -0.015174412 -0.0773328 0.13136724 0.1843282 -0.028253928 0.16304208
0.18705337 -0.018831728 -0.13412279 -0.057305396 -0.030153107 0.012568811 0.06791515 0.20022456
-0.036763277 -0.040521894 0.067607954 0.02908818 -0.039389633 -0.04348892 -0.05182789 -0.18927354
-0.17225678 0.20195623 -0.014508698 -0.0766377 0.18771352 -0.025341315 0.063099094 0.07782796
0.002854835 -0.1052643 0.13937844 0.067374974 -0.10854708 0.19897301 0.08628691 0.030629022
-0.21579729 -0.31974286 -0.19617519 0.12716284 -0.17896487 0.024501745 -0.15960474 -0.022076402
0.16419542 0.1001886 0.011079127 0.17598884 -0.10022413 0.05131872 -0.047109246 -0.008151669
-0.2589961 -0.36484838 0.22260115 0.14643876 -0.087365575 0.038557164 0.012277074 0.07208144
0.28940865 0.3017472 0.21023713 -0.03359027 -0.0555963 -0.14806744 -0.12534332 -0.01825914
0.018161783 -0.083840124 -0.09029304 -0.0336529 -0.0039235456 -0.15751672 -0.26183218 0.027710708
0.02312393 -0.13507125 -0.0035141953 -0.028525248 0.114737086 0.043699197 0.011151175 0.099945374
-0.08385947 0.012274051 0.025077216 0.20645086 0.29785225 0.15536429 0.09932248 0.07465661
-0.048346575 0.060883094 -0.13294213 0.0016850637 0.028057942 0.0017138015 0.13486305 -0.09854867
-0.07735331 -0.021936662 0.0011966191 -0.058092523 0.020081786 -0.08343914 -0.31294093 -0.30297434
-0.025747007 0.019078033 -0.044912174 0.10344371 -0.1568294 -0.21506447 0.075657055 0.24339853
0.05248365 -0.025628237 0.05789086 -0.21524164 0.056079514 0.19363336 -0.048238207 -0.084256545
-0.0006678067 0.009380197 0.20493613 0.0595965 0.13304052 0.15342817 -0.10336098 0.027875518
-0.10451957 0.04548191 0.20694366 -0.14497901 0.0013195595 0.15380847 0.14195055 0.09505788
0.28889367 -0.05593263 0.16910407 0.011869396 0.14371541 0.24308507 0.23874539 -0.04124454
-0.1058176 0.0605659 -0.08417199 0.04280947 0.16832902 -0.13335928 0.09043089 0.14297213
-0.22373205 -0.119111545 -0.05466852 0.049653415 -0.16866006 -0.14845064 0.097977266 -0.13962507
-0.020763777 -0.09984022 -0.05405957 -0.06529745 -0.06823403 -0.20796877 -0.12844293 0.08172795
00000000: 98df 0ebe c3ae c2bc 13d5 c93d 7d96 2dbe
00000010: 5ecc 1cbe 1dd0 19bd a112 30be 15e7 4ebe
00000020: dd13 8d3d d602 67be 1819 0a3e fe88 a1be
00000030: b1d6 7b3d 3f14 0c3e d210 6c3d 538d 2ebe
00000040: 56e5 f53c bac0 3ebb 81f1 533e 5d11 7f3d
00000050: 17fc 0a3d 031b 8d3e 88ee a43d 7ffd 00bd
00000060: 676f e8bc d768 5c3e deab f13d 895e 67bb
00000070: 6164 923d bfed d53d ac6c 08be 9694 5dbe
00000080: 1774 2dbe aefe e4bd 7b95 64be 4309 2abe
00000090: 8667 afbd 7ad9 c83d 062c 243d b924 ec3d
000000a0: 9662 313e ab30 063e 4405 a63d f26e 2d3e
000000b0: 76a0 2c3e 5017 db3d d278 283d 6bef 06bc
000000c0: c198 1dbe 94ff c7bd 80ab a5bd 7e95 93bd
000000d0: d1da e03d b406 fa3d 806a 2abe 3720 753c
000000e0: 7437 d9bb 439d 90bd a6a2 50bd dc5f 92bc
000000f0: fabc f63c 016c 27bd 967b cabd ef65 b03d
00000100: 67b7 3ebc e385 51bd 8555 e03c 794c e73d
00000110: c417 34bd ff67 05bd 5b76 473e 3a16 3d3c
00000120: 4893 ca3c ae6d f83b 0566 c83d e8e5 cf3d
00000130: 04d0 19bd e9ce a0bd b780 1c3e 95b0 1a3d
00000140: cd1d 9ebd 7b09 0e3e 199e 78bc a960 9ebd
00000150: 2285 063e 88c0 3c3e c874 e7bc 81f4 263e
00000160: eb8a 3f3e ff44 9abc 7c57 09be 10b9 6abd
00000170: a603 f7bc 6aed 4d3c 1917 8b3d ab07 4d3e
00000180: 1795 16bd 49fa 25bd 0a76 8a3d 564a ee3c
00000190: 0657 21bd 7021 32bd 7b49 54bd ecd0 41be
000001a0: 1564 30be 9dcd 4e3e e4b5 6dbc 3af4 9cbd
000001b0: f937 403e 9798 cfbc 193a 813d 4464 9f3d
000001c0: 2f18 3b3b cf94 d7bd 39b9 0e3e e4fb 893d
000001d0: ee4d debd 95bf 4b3e 31b7 b03d b7e9 fa3c
000001e0: f7f9 5cbe 56b5 a3be 26e2 48be fa36 023e
000001f0: 9142 37be e2b7 c83c 6d6f 23be 92d9 b4bc
00000200: d822 283e ae2f cd3d 3a85 353c 6b36 343e
00000210: 4f42 cdbd 9433 523d a0f5 40bd 948e 05bc
00000220: 239b 84be 68cd babe 8ef1 633e 0bf4 153e
00000230: b9ec b2bd 1eee 1d3d c825 493c 6f9f 933d
00000240: 5f2d 943e 9c7e 9a3e 6748 573e f395 09bd
00000250: f2b8 63bd fe9e 17be 005a 00be 3194 95bc
00000260: 05c8 943c 5fb4 abbd 8feb b8bd a0d7 09bd
00000270: 1691 80bb 104c 21be de0e 86be 9101 e33c
00000280: 656e bd3c 1e50 0abe 6a4e 66bb c8ad e9bc
00000290: 47fb ea3d eefd 323d 6bb3 363c 29b0 cc3d
000002a0: 84be abbd 1a19 493c bc6e cd3c db67 533e
000002b0: 1780 983e d117 1f3e 9669 cb3d 91e5 983d
000002c0: 0f07 46bd 8d60 793d fb21 08be 5bdd dc3a
000002d0: c5d9 e53c a3a1 e03a 8a19 0a3e e3d3 c9bd
000002e0: 6a6b 9ebd 84b4 b3bc e0d7 9c3a 6df2 6dbd
000002f0: 8f82 a43c 24e2 aabd cb39 a0be 741f 9bbe
00000300: 63eb d2bc 8949 9c3c d4f5 37bd 4cda d33d
00000310: e397 20be dc39 5cbe 16f2 9a3d 773d 793e
00000320: 19f9 563d 4ff2 d1bc f71e 6d3d 4e68 5cbe
00000330: a2b3 653d d347 463e 6d95 45bd b28e acbd
00000340: c00f 2fba 66af 193c c7da 513e 761b 743d
00000350: c63b 083e 461c 1d3e ecae d3bd 335b e43c
00000360: 5b0e d6bd 3d4b 3a3d 0ae9 533e 6175 14be
00000370: 12f5 ac3a f87f 1d3e 7c5b 113e b5ad c23d
00000380: dfe9 933e 9d19 65bd 9e29 2d3e db77 423c
00000390: 222a 133e 4beb 783e ac79 743e 09f0 28bd
000003a0: e6b6 d8bd f313 783d 5d62 acbd fc58 2f3d
000003b0: 715e 2c3e 568f 08be d533 b93d 4967 123e
000003c0: 041a 65be c1f0 f3bd 19ec 5fbd 6161 4b3d
000003d0: 39b5 2cbe 7203 18be 4ea8 c83d e0f9 0ebe
000003e0: cc18 aabc 0779 ccbd 916d 5dbd abba 85bd
000003f0: 48be 8bbd c4f5 54be 8b86 03be fc60 a73d

block1.3.conv.bias f4 [4]
0.13705258 -0.009270487 0.18278939 -0.0030398674
00000000: 8357 0c3e 3ee3 17bc 242d 3b3e 8338 47bb

block1.3.BN.weight f4 [4]
0.9134371 0.9968204 0.95368737 1.1326823
00000000: 04d7 693f 9f2f 7f3f db24 743f bcfb 903f

block1.3.BN.bias f4 [4]
-0.1212938 -0.036149442 -0.045121852 -0.032263964
00000000: e268 f8bd 7011 14bd b1d1 38bd 3827 04bd

block1.3.BN.running_mean f4 [4]
0.15595292 0.040796 0.30674374 0.18605186
00000000: 1fb2 1f3e b519 273d 840d 9d3e 6184 3e3e

block1.3.BN.running_var f4 [4]
0.60773796 0.6602634 0.63436526 0.65872484
00000000: b794 1b3f 0607 293f c365 223f 31a2 283f

block2.0.conv.weight f4 [8, 4, 3, 3]
-0.04493266 -0.20155936 -0.011364121 -0.13528834 0.00019891177 0.0125447055 -0.24610488 -0.015147753
0.21438368 -0.2918958 -0.17897248 -0.064782724 -0.21422257 -0.10581784 0.14020912 -0.08297102
-0.3077799 -0.03438035 -0.018454205 -0.21289484 -0.20536576 0.1447488 -0.12190183 0.056979496
-0.03929802 0.13017379 -0.036658697 0.15543088 0.17245829 -0.09323451 0.09469728 0.12015431
0.0853085 -0.20143808 -0.16447094 -0.08098928 -0.08660724 0.083397865 -0.19849741 0.08781093
0.2591199 0.019174926 -0.046410885 0.011198991 -0.12440051 -0.32497656 -0.10259864 -0.08326431
0.057448562 -0.015325028 0.1773161 0.11989074 0.23591125 0.25243354 0.13232233 -0.10458443
0.113396026 -0.15916029 0.1457305 -0.17375684 0.1558087 0.09376036 0.21378285 0.026526233
0.15579699 0.031965286 0.051126752 0.19558774 0.23443025 0.21158975 -0.159845 -0.14691558
0.07128223 0.045493823 0.11129627 -0.12423526 -0.06565704 0.15044312 -0.24819957 -0.2136133
0.11454672 -0.2389567 -0.14959885 -0.13770564 -0.03878449 -0.04339084 0.03744638 0.042965066
-0.31144333 -0.037625883 0.0851843 -0.031967707 0.13255253 -0.20245793 -0.06826305 -0.05987478
0.076516114 -0.10123696 0.08114307 0.3399577 0.11776694 -0.1081857 0.17155384 0.099466875
0.08223591 0.21747784 -0.076588735 0.097406425 -0.07849886 0.09129696 0.028361723 0.08584397
-0.07801911 -0.07960051 0.021044036 0.15846191 0.19744678 -0.16361526 -0.15541744 -0.121537454
0.10343647 0.07223392 -0.17788155 0.08669791 -0.04218491 0.08091992 0.071871825 0.17729053
0.1610117 -0.18865408 -0.07716732 0.17227978 -0.0867128 0.10517828 -0.15378438 -0.15139408
-0.10069703 -0.23635297 -0.110976845 0.07811423 -0.10385741 0.23016347 0.2634067 0.36689323
0.070634596 0.056961115 -0.12373241 0.08342746 -0.02586957 0.18011744 0.029156202 -0.07231824
0.2694282 0.19136274 -0.29758886 -0.21127136 0.2012199 0.037479673 0.16294199 0.15030833
-0.2551487 -0.07364281 -0.03135006 0.13516456 -0.006332945 -0.25903752 -0.13186021 0.06045358
0.07899443 -0.11181545 0.022788074 0.3134832 0.11024955 -0.036177393 -0.115240954 -0.111761786
-0.17476222 -0.048762217 -0.087218076 -0.18157256 0.11877845 0.20035946 -0.11833907 -0.014222031
0.002216508 -0.04910439 0.13736628 -0.042257667 0.19679934 0.13234945 0.078987665 -0.09328871
-0.16672623 -0.20520589 -0.019775609 -0.26162422 0.087319694 0.1359225 -0.21890342 -0.23612289
-0.09851642 0.17760205 0.007041049 0.1546732 0.1621473 -0.16100039 -0.07462182 0.19943042
-0.08465724 -0.14997089 0.13702102 0.07574763 -0.16151594 0.13923135 0.25550175 -0.10818217
0.07003577 -0.018677872 -0.0077978857 -0.03191676 0.15037659 -0.13385133 0.028661339 0.031615634
-0.1847702 -0.011609174 0.004052602 -0.024079548 -0.16348477 -0.1180273 -0.14514029 -0.09742015
-0.047848005 0.012090932 -0.15179428 0.20776124 0.46527112 -0.038794458 0.089974046 0.2891768
0.071456894 0.08081827 0.02415258 -0.043218862 -0.16613835 -0.27966714 0.106217556 -0.27902907
-0.20355636 0.13700047 0.10148698 -0.15047604 -0.24370939 -0.12136188 -0.10108892 0.08966926
00000000: 4f0b 38bd 9465 4ebe 9430 3abc 0789 0abe
00000010: f992 5039 4f88 4d3c eb02 7cbe 482e 78bc
00000020: 6587 5b3e 5e73 95be 9044 37be ceac 84bd
00000030: 295d 5bbe 06b7 d8bd fb92 0f3e b6ec a9bd
00000040: 5495 9dbe 69d2 0cbd 462d 97bc 1b01 5abe
00000050: 674b 52be 0839 143e aba7 f9bd 5563 693d
00000060: f6f6 20bd 474c 053e 6e27 16bd 4629 1f3e
00000070: e898 303e bcf1 bebd a6f0 c13d 7613 f63d
00000080: 39b6 ae3d c945 4ebe 126b 28be b5dd a5bd
00000090: 235f b1bd 80cc aa3d e842 4bbe 38d6 b33d
000000a0: 5dab 843e bc14 9d3c 5719 3ebd f97b 373c
000000b0: b2c5 febd 5463 a6be 3c1f d2bd 7b86 aabd
000000c0: 2f4f 6b3d d415 7bbc 5a92 353e 4789 f53d
000000d0: b892 713e f83e 813e 817f 073e 5d30 d6bd
000000e0: 2d3c e83d eafa 22be 603a 153e 50ed 31be
000000f0: 518c 1f3e 6e05 c03d e4e9 5a3e 8b4d d93c
00000100: 3f89 1f3e 08ee 023d 496a 513d 2748 483e
00000110: 7c0e 703e fcaa 583e 68ae 23be 0a71 16be
00000120: 6bfc 913d bb57 3a3d 4cef e33d 0e6f febd
00000130: 3377 86bd c30d 1a3e 0728 7ebe 72bd 5abe
00000140: 7997 ea3d 11b1 74be 7130 19be b502 0dbe
00000150: 7cdc 1ebd 98ba 31bd 6061 193d 23fc 2f3d
00000160: 8075 9fbe 991d 1abd 1b75 ae3d 92f0 02bd
00000170: dabb 073e 2251 4fbe 7fcd 8bbd 423f 75bd
00000180: 7bb4 9c3d 5355 cfbd 562e a63d f00e ae3e
00000190: cb2f f13d 7790 ddbd cfab 2f3e 4ab5 cb3d
000001a0: 4d6b a83d 83b2 5e3e 8eda 9cbd 057d c73d
000001b0: 03c4 a0bd e7f9 ba3d d856 e83c f7ce af3d
000001c0: 7cc8 9fbd 9805 a3bd 8b64 ac3c d743 223e
000001d0: 7d2f 4a3e c28a 27be c025 1fbe a1e8 f8bd
000001e0: 80d6 d33d 61ef 933d 9526 36be ad8e b13d
000001f0: 16ca 2cbd 58b9 a53d 8931 933d a68b 353e
00000200: 40e0 243e 892e 41be e609 9ebd 1c6a 303e
00000210: 7b96 b1bd b667 d73d a779 1dbe 0d07 1bbe
00000220: 3f3a cebd 8306 72be d447 e3bd 5afa 9f3d
00000230: 32b3 d4bd f9af 6b3e 3edd 863e 6ed9 bb3e
00000240: dfa8 903d 0f50 693d 6b67 fdbd 04dc aa3d
00000250: 6cec d3bc b570 383e fdd8 ee3c 961b 94bd
00000260: 7ef2 893e 98f4 433e 915d 98be 8557 58be
00000270: 970c 4e3e 4984 193d 44da 263e 6dea 193e
00000280: daa2 82be 0bd2 96bd ec68 00bd 9468 0a3e
00000290: 9884 cfbb 91a0 84be 5d06 07be 2c9e 773d
000002a0: d5c7 a13d 80ff e4bd 0eae ba3c df80 a03e
000002b0: 84ca e13d bf2e 14bd 7303 ecbd 5de3 e4bd
000002c0: def4 32be e4ba 47bd 649f b2bd 28ee 39be
000002d0: 1e42 f33d 082b 4d3e c15b f2bd 8603 69bc
000002e0: d542 113b af21 49bd bfa9 0c3e 6016 2dbd
000002f0: c485 493e 9d86 073e 49c4 a13d 270e bfbd
00000300: 48ba 2abe 7e21 52be 7500 a2bc 9cf3 85be
00000310: abd4 b23d 452f 0b3e 3828 60be 33ca 71be
00000320: fac2 c9bd 50dd 353e 9ab8 e63b a762 1e3e
00000330: f109 263e 49dd 24be 53d3 98bd 7d37 4c3e
00000340: c660 adbd f891 19be 3d4f 0c3e 9321 9b3d
00000350: 6f64 25be aa92 0e3e 20d1 823e 9d8e ddbd
00000360: ea6e 8f3d 5602 99bc 6885 ffbb 26bb 02bd
00000370: 52fc 193e 5310 09be 2fcb ea3c 657f 013d
00000380: 6634 3dbe 6834 3ebc b1cb 843b 7942 c5bc
00000390: 8d68 27be 4cb8 f1bd a89f 14be 3784 c7bd
000003a0: 45fc 43bd 0b19 463c f66f 1bbe 5dbf 543e
000003b0: 0438 ee3e f0e6 1ebd 5044 b83d fb0e 943e
000003c0: fe57 923d 0d84 a53d a2db c53c 4306 31bd
000003d0: 2c20 2abe 8830 8fbe 9788 d93d e6dc 8ebe
000003e0: 1471 50be da49 0c3e 68d8 cf3d 6416 1abe
000003f0: f48e 79be 948c f8bd b507 cfbd 84a4 b73d

block2.0.conv.bias f4 [8]
0.055906642 -0.08078703 0.117236584 -0.061826292 -0.10664049 -0.10052439 -0.029739339 -0.012516821
00000000: 5dfe 643d ac73 a5bd bc19 f03d 913d 7dbd
00000010: 5466 dabd bbdf cdbd ea9f f3bc 5a13 4dbc

block2.0.BN.weight f4 [8]
1.033028 0.9128365 0.92865527 0.991019 1.0686024 0.97236174 0.97395897 1.0918428
00000000: 433a 843f a7af 693f 5abc 6d3f 6cb3 7d3f
00000010: f7c7 883f b3ec 783f 6055 793f 81c1 8b3f

block2.0.BN.bias f4 [8]
-0.13392273 -0.1977431 -0.32520112 -0.16132993 0.020609478 -0.093569376 -0.037360944 0.053526126
00000000: 0a23 09be 2b7d 4abe c380 a6be ac33 25be
00000010: 35d5 a83c 4da1 bfbd ca07 19bd 363e 5b3d

block2.0.BN.running_mean f4 [8]
-0.48534083 0.37730244 0.12969443 0.07373436 -0.20617889 -0.045886513 -0.25768247 0.10997413
00000000: 987e f8be c92d c13e 9ece 043e 0a02 973d
00000010: 8f20 53be 7ff3 3bbd f5ee 83be 1e3a e13d

block2.0.BN.running_var f4 [8]
0.56036806 0.3286856 0.3362179 0.4012289 0.32950604 0.28561267 0.9044108 0.21254611
00000000: 4874 0f3f 7b49 a83e c124 ac3e e06d cd3e
00000010: 04b5 a83e d33b 923e 7787 673f b0a5 593e

block2.1.conv.weight f4 [16, 8, 3, 3]
0.12611811 0.06731055 0.18526565 0.13948344 0.037573922 0.017043898 0.07215312 -0.0089358045
0.16615309 -0.06872141 -0.014287073 -0.099434406 -0.108164825 -0.06639489 0.035941284 0.21447621
-0.014388621 0.047062933 0.08150176 0.052622486 0.1419287 0.0466431 0.033694476 0.04609855
0.37226155 0.19820999 0.16462302 0.1252178 0.05468004 -0.029444642 0.118310206 -0.009225397
-0.06366522 0.10858545 0.24796446 0.1920995 0.058805104 0.23234396 0.13913319 -0.096671484
0.012651294 -0.07762043 0.012073729 -0.036015917 0.08541424 -0.09183934 -0.13027732 -0.01641093
-0.040565025 -0.054953113 -0.0031408125 0.37488908 -0.08949221 0.10765701 -0.020035736 -0.0753852
0.029961944 -0.11110124 -0.0043549314 -0.0031650523 -0.049080104 -0.15397361 -0.021306977 0.21385196
0.2396338 0.15390554 0.015047574 0.0033075872 -0.045352504 -0.11988753 0.07348343 -0.1619292
0.14115092 0.03452741 -0.065913595 0.06480844 -0.040442634 -0.10088947 -0.008155555 -0.105784
-0.07972938 0.0682512 0.062288422 -0.034174073 -0.032352895 -0.11015306 0.023882238 0.08860509
0.06480254 0.0819825 -0.03361056 -0.30547118 -0.09421033 0.11740982 -0.1533749 -0.1286322
-0.013677343 0.19426142 0.13742825 -0.16533652 0.039122626 0.059397727 -0.04467817 0.18427745
0.14203228 0.097005725 0.12310392 0.16434658 0.09036268 0.11666696 -0.012454954 0.0695632
0.13718286 0.108217925 -0.10802842 0.11434811 0.06569779 0.12846968 -0.03128027 -0.23361963
0.07405588 0.024920087 -0.060165733 -0.0036071534 -0.071432315 -0.00801219 0.052045066 0.1566252
0.24885964 0.18645796 -0.0665022 0.21019094 -0.0068070726 -0.156195 0.026509138 -0.28884014
-0.021984631 0.13241388 -0.108889155 0.04643132 0.02152584 -0.15370235 0.14913663 0.16060801
-0.19835165 -0.08146728 -0.1640733 0.11695707 0.092625074 0.006388652 0.13515306 0.21527335
0.13919912 -0.10188025 0.071055144 -0.13013893 0.2385363 0.22238761 0.11043735 0.17487346
0.13085762 0.12937745 -0.21999472 -0.04388583 -0.17765336 -0.006085754 -0.08149895 -0.19495134
-0.08965623 0.054668553 0.0063920845 -0.16823517 -0.17997734 -0.19678982 0.12504035 0.15420753
0.12645432 -0.03126605 -0.035086203 -0.13238491 -0.13656487 0.1904504 0.06663559 0.1109166
0.2212294 0.052534357 0.15212354 0.16093062 -0.02291983 -0.09169149 -0.13943349 -0.23991884
-0.049707755 0.042647935 -0.039565183 -0.03225558 0.030213686 -0.11509557 -0.08444371 0.04475903
-0.099251255 0.07069092 -0.056437716 -0.0043211635 0.15416221 -0.018874425 0.023847494 -0.12445142
0.0531051 0.16939382 -0.08803981 -0.15429851 -0.16495763 0.077341676 0.10655926 0.043339793
-0.007171811 0.1139174 -0.060188066 -0.09587836 0.051231697 0.005041439 -0.40448645 -0.19322854
-0.07938819 0.083492175 0.013143959 0.08533154 -0.057388183 0.13752148 0.11821096 -0.20071128
-0.0011903278 -0.049729772 0.061002474 0.065174714 -0.06974086 -0.00554679 -0.12663834 -0.018033428
-0.21725012 -0.23276499 -0.118336886 0.082520075 0.24941534 0.29089233 -0.025302596 -0.031222617
0.011389003 -0.04876975 -0.07687907 0.010003343 0.08047906 -0.16442215 -0.07978212 0.17359053
00000000: 1b25 013e 1dda 893d 47b6 3d3e bfd4 0e3e
00000010: 1de7 193d a59f 8b3c 04c5 933d 7b67 12bc
00000020: 0924 2a3e d0bd 8cbd 5414 6abc 44a4 cbbd
00000030: 8585 ddbd 0bfa 87bd 2b37 133d a79f 5b3e
00000040: 40be 6bbc 10c5 403d 65ea a63d ad8a 573d
00000050: c255 113e d60c 3f3d 3803 0a3d d5d1 3c3d
00000060: 1199 be3e 8ff7 4a3e f092 283e 1839 003e
00000070: 2df8 5f3d e435 f1bc 9f4c f23d 1f26 17bc
00000080: e962 82bd 0c62 de3d 65ea 7d3e bbb5 443e
00000090: 9fdd 703d 93eb 6d3e ee78 0e3e b3fb c5bd
000000a0: 5f47 4f3c 76f7 9ebd e4d0 453c 6d85 13bd
000000b0: a9ed ae3d 4416 bcbd 6b67 05be 3770 86bc
000000c0: 8327 26bd 8416 61bd 17d6 4dbb 76f1 bf3e
000000d0: b147 b7bd 477b dc3d fc21 a4bc 8e63 9abd
000000e0: c072 f53c 0c89 e3bd d0b3 8ebb c46c 4fbb
000000f0: 3808 49bd 42ab 1dbe f88b aebc 02fc 5a3e
00000100: 9062 753e 6a99 1d3e 1a8a 763c 1bc4 583b
00000110: 8cc3 39bd 9887 f5bd 7b7e 963d c5d0 25be
00000120: de89 103e 9d6c 0d3d b5fd 86bd 4aba 843d
00000130: 2da7 25bd 239f cebd e19e 05bc 48a5 d8bd
00000140: 2849 a3bd 49c7 8b3d 2522 7f3d 1dfa 0bbd
00000150: 7884 04bd ed97 e1bd afa4 c33c 9676 b53d
00000160: 32b7 843d 71e6 a73d 3aab 09bd b866 9cbe
00000170: 58f1 c0bd 8f74 f03d 4f0e 1dbe 29b8 03be
00000180: ef16 60bc 77ec 463e feb9 0c3e fa4d 29be
00000190: 0c3f 203d 084b 733d 7500 37bd 3ab3 3c3e
000001a0: e970 113e f0aa c63d e81d fc3d 784a 283e
000001b0: 1210 b93d 16ef ee3d dd0f 4cbc 2777 8e3d
000001c0: aa79 0c3e 5ca1 dd3d 013e ddbd 582f ea3d
000001d0: 908c 863d 8e8d 033e be1f 00bd fc39 6fbe
000001e0: 9caa 973d 3625 cc3c 5870 76bd fe65 6cbb
000001f0: 1b4b 92bd 9045 03bc 352d 553d 5b62 203e
00000200: 10d5 7e3e d6ee 3e3e 4e32 88bd 4b3c 573e
00000210: dd0d dfbb 95f1 1fbe b129 d93c dbe2 93be
00000220: 1d19 b4bc 8197 073e 4701 dfbd c52e 3e3d
00000230: f556 b03c 2664 1dbe 46b7 183e 6d76 243e
00000240: b21c 4bbe 51d8 a6bd d502 28be 3087 ef3d
00000250: 37b2 bd3d e657 d13b 9065 0a3e 9e70 5c3e
00000260: 378a 0e3e 98a6 d0bd 5c85 913d 2443 05be
00000270: dc42 743e 94b9 633e fa2c e23d 0712 333e
00000280: 8aff 053e 867b 043e 4c46 61be a1c1 33bd
00000290: c3ea 35be 016b c7bb ece8 a6bd 53a1 47be
000002a0: af9d b7bd 22ec 5f3d b174 d13b d745 2cbe
000002b0: fb4b 38be 4583 49be 940a 003e 94e8 1d3e
000002c0: 3e7d 013e d410 00bd 8db6 0fbd e98f 07be
000002d0: a9d7 0bbe 6e05 433e 3d78 883d 3e28 e33d
000002e0: f689 623e 442e 573d 46c6 1b3e ffca 243e
000002f0: 5ec2 bbbc bfc8 bbbd a7c7 0ebe 49ad 75be
00000300: 5c9a 4bbd 9aaf 2e3d 1a0f 22bd 6d1e 04bd
00000310: b182 f73c 3ab7 ebbd d3f0 acbd 3f55 373d
00000320: 3e44 cbbd 67c6 903d 3c2b 67bd 8c98 8dbb
00000330: b3dc 1d3e 8a9e 9abc d25b c33c 63e0 febd
00000340: bc84 593d 9375 2d3e 374e b4bd 6e00 1ebe
00000350: a7ea 28be 5065 9e3d be3b da3d 1185 313d
00000360: 8301 ebbb 874d e93d c387 76bd e05b c4bd
00000370: 54d8 513d a832 a53b d918 cfbe b4dd 45be
00000380: 4696 a2bd f2fd aa3d c359 573c 4dc2 ae3d
00000390: df0f 6bbd 6ed2 0c3e 9618 f23d 4287 4dbe
000003a0: c604 9cba 72b1 4bbd bbdd 793d 527a 853d
000003b0: 4cd4 8ebd d9c1 b5bb 7bad 01be d7ba 93bc
000003c0: d176 5ebe f259 6ebe 9c5a f2bd 4900 a93d
000003d0: bc66 7f3e d7ef 943e 6447 cfbc 93c6 ffbc
000003e0: f198 3a3c cac2 47bd c672 9dbd 10e5 233c
000003f0: 35d2 a43d 485e 28be cf64 a3bd b7c1 313e

block2.1.conv.bias f4 [16]
-0.17487086 0.1643201 -0.034989398 0.07765881 0.06303246 0.060088657 0.03460302 -0.05865509
0.032540098 -0.009961728 0.04237769 -0.14929132 -0.14948937 0.07053877 0.03583784 0.19671288
00000000: 5911 33be 8743 283e 0b51 0fbd 950b 9f3d
00000010: 2a17 813d 861f 763d e5bb 0d3d 5240 70bd
00000020: c448 053d 8436 23bc 3b94 2d3d d3df 18be
00000030: be13 19be a176 903d b3ca 123d 1a6f 493e

block2.1.BN.weight f4 [16]
0.88021386 0.8819567 0.90822345 1.1112622 1.0807673 1.0766238 1.0687605 0.9667989
0.975967 1.0763552 0.9666389 0.8878264 1.0286199 1.0576202 0.8536168 1.0035157
00000000: b255 613f eac7 613f 5581 683f d73d 8e3f
00000010: 9556 8a3f cfce 893f 25cd 883f 2280 773f
00000020: f9d8 793f 02c6 893f a675 773f 9748 633f
00000030: d1a9 833f 1960 873f a186 5a3f 3473 803f

block2.1.BN.bias f4 [16]
-0.26565206 -0.37946376 -0.25079235 -0.25244838 0.1029633 -0.0023384937 -0.26525843 -0.121385776
-0.22449633 0.06361257 -0.20175752 -0.11064029 -0.12387022 -0.27131182 -0.3088719 0.06573768
00000000: 8c03 88be 1349 c2be db67 80be ea40 81be
00000010: 6cde d23d 6a41 19bb f4cf 87be 1b99 f8bd
00000020: 5ee2 65be 4f47 823d 8699 4ebe 6097 e2bd
00000030: abaf fdbd 62e9 8abe 7524 9ebe 7aa1 863d

block2.1.BN.running_mean f4 [16]
0.6261207 0.6224499 0.12548313 -0.117847666 -0.23412159 -0.33750257 0.36335135 -0.3766428
0.087816566 -0.44211975 0.03878252 -0.08343721 -0.6746652 -0.1842478 -0.41215798 0.07053702
00000000: 7249 203f e058 1f3f a67e 003e 1e5a f1bd
00000010: 92bd 6fbe 23cd acbe 3009 ba3e 53d7 c0be
00000020: 2cd9 b33d 855d e2be 6bda 1e3d 21e1 aabd
00000030: dcb6 2cbf 75ab 3cbe 5f06 d3be b775 903d

block2.1.BN.running_var f4 [16]
0.7726818 0.96189535 0.4139201 0.777445 0.8032283 1.0912433 0.8129529 0.6568817
0.7608742 0.8120152 0.7059839 0.49240363 0.58547217 0.87752885 1.0073794 0.703053
00000000: 79ce 453f c63e 763f 56ed d33e a306 473f
00000010: 5fa0 4d3f dcad 8b3f ae1d 503f 6629 283f
00000020: a7c8 423f 3ae0 4f3f 5cbb 343f 541c fc3e
00000030: 81e1 153f bba5 603f cff1 803f 48fb 333f
