result/model/0518 1611.pt (torch, 79197 bytes, 98 tensors)

input_conv.conv.weight f4 [4, 1, 3, 3]
-0.15990411 0.010671182 0.02945484 -0.25275514 -0.3931491 -0.13561647 -0.35022438 -0.16353308
0.3573143 0.084396504 -0.40030426 -0.20345291 -0.10655109 -0.23205452 -0.18038525 0.2942337
-0.20170714 -0.093611084 -0.15711936 -0.17709142 0.037215304 0.03985385 -0.28419206 -0.3587131
-0.00036292686 0.28628606 0.10649695 0.24010305 0.27536663 0.023870833 -0.111448765 0.41504344
0.15177102 0.0811689 -0.08196456 -0.1709028
00000000: e7bd 23be 2ed6 2e3c 474b f13c 1f69 81be
00000010: d74a c9be 0bdf 0abe 9c50 b3be 3775 27be
00000020: e6f1 b63e 13d8 ac3d aef4 ccbe f655 50be
00000030: 7537 dabd b39f 6dbe e9b6 38be cda5 963e
00000040: 518c 4ebe 2bb7 bfbd e6e3 20be 7457 35be
00000050: 136f 183d ca3d 233d 9f81 91be 3ea9 b7be
00000060: 3847 beb9 1694 923e 131b da3d 93dd 753e
00000070: dbfc 8c3e c48c c33c 403f e4bd 9380 d43e
00000080: dd69 1b3e e13b a63d 09dd a7bd 2501 2fbe

input_conv.conv.bias f4 [4]
-0.18955258 0.086721696 -0.12892115 -0.22370198
00000000: 121a 42be 259b b13d e803 04be 2212 65be

input_conv.BN.weight f4 [4]
0.9565327 0.9437432 0.88644147 1.1048374
00000000: 54df 743f 2899 713f d4ed 623f 506b 8d3f

input_conv.BN.bias f4 [4]
-0.17125866 -0.25571638 -0.0068296185 0.23300952
00000000: 6e5e 2fbe 42ed 82be feca dfbb 0c9a 6e3e

input_conv.BN.running_mean f4 [4]
-0.37246296 -0.0936432 -0.21886516 -0.080101244
00000000: 77b3 bebe 02c8 bfbd 301e 60be 1f0c a4bd

input_conv.BN.running_var f4 [4]
0.04572861 0.04372287 0.0110545885 0.02746724
00000000: ec4d 3b3d c116 333d 4e1e 353c fa02 e13c

block1.0.conv.weight f4 [8, 4, 3, 3]
-0.09018257 -0.09433198 0.029922137 0.026708696 0.21283488 0.12598188 -0.119803324 0.093689814
0.04014019 -0.14912201 -0.16705352 0.08132462 -0.114201844 0.09013862 -0.11129974 0.005452811
0.038892 -0.08045498 -0.04654999 -0.11611191 0.05893843 -0.09754013 -0.13171826 -0.032654263
0.014387778 0.006987556 -0.26815706 0.26387545 0.06467799 -0.08745169 -0.26275694 0.056782406
0.02021796 -0.46588367 -0.33361903 0.15988947 0.044361535 0.07106683 0.14539811 -0.16937627
-0.13542385 0.1665578 -0.046114307 0.09793675 -0.068126366 -0.05576292 -0.2094557 -0.17480108
0.060808502 0.111066245 -0.047591597 0.14115499 0.024196267 0.13473676 -0.16031429 0.10484025
0.014114486 0.07773398 -0.1472996 0.076818235 0.05349313 0.046813328 -0.011092279 -0.1707474
0.089140244 0.1278232 0.04629662 0.22577445 -0.008765123 -0.017628789 0.2950372 -0.1741091
-0.07709208 0.03990801 0.2688336 -0.031795245 0.22161825 0.19276746 -0.021915263 0.23697752
0.092872575 0.32598048 0.37495652 0.13307513 0.18293822 0.13814798 -0.29827356 0.032032046
0.15942803 -0.14787835 0.10194373 0.20224103 -0.10903858 -0.05234803 -0.229689 -0.12083471
0.01659376 -0.017999398 -0.05930416 0.001224052 0.0518309 0.09210321 0.026351344 -0.043365758
-0.06120132 0.034156866 -0.15912962 0.1863789 -0.02881191 0.24236396 0.03939978 -0.01814725
-0.18820281 0.021394843 0.03620393 -0.2888415 -0.23892602 0.07220021 0.09140808 0.03731378
-0.003975892 -0.10607577 0.020651137 -0.09493794 -0.29754966 0.14485659 0.05203763 -0.10786521
-0.038011886 0.083403796 -0.09536525 0.03547541 -0.085377544 -0.25519964 -0.15589711 -0.12955025
-0.023907337 0.11703903 -0.2369088 -0.18543828 0.13392794 -0.1252043 0.2864486 0.10317718
0.13926718 -0.09309025 -0.13593529 -0.09061526 -0.057506848 0.022611387 -0.12934445 0.11829788
0.22536257 0.10296974 -0.1771793 0.13684528 0.10280016 -0.039595347 -0.016010623 -0.1314053
0.12694366 -0.17961757 0.112818114 -0.11030101 0.2756643 0.13422574 -0.18273278 0.029892568
0.075085975 0.0061034234 0.06318218 -0.08938109 0.31427187 0.18963468 -0.04352665 0.024120327
0.20382492 -0.24277748 -0.020504428 0.03549116 -0.051331263 0.007942469 0.09745697 0.24556951
0.33235314 0.18155482 -0.15093555 0.056368392 -0.14885436 0.028427273 0.04390484 0.19250146
0.19013204 0.22104071 0.23118323 0.023348533 0.06822503 0.07018739 -0.0074751643 0.07322093
-0.06210953 -0.08921492 0.08370149 0.22421813 0.14437944 0.2365677 0.27240148 -0.12928344
0.036657374 0.21821915 0.12718748 0.15673351 -0.08163451 0.051361263 0.014757889 -0.03420604
-0.21704262 -0.20776705 0.020319397 0.1376234 0.112086795 0.2933734 -0.09614771 -0.16042517
-0.041850433 -0.13915071 0.029269945 0.0047561084 0.22934406 0.33488727 0.040127188 0.097635776
0.038023293 -0.07199429 -0.13418052 -0.0011567542 0.16854464 0.13170026 0.041199427 0.096361764
-0.1833075 -0.088478364 0.06462188 0.06663233 -0.09035172 -0.19035178 0.019046012 -0.096629694
-0.052286047 0.14054757 0.139348 -0.07749941 -0.11928659 -0.25149828 -0.028075818 -0.0116354115
00000000: a4b1 b8bd 2031 c1bd 451f f53c 32cc da3c
00000010: 63f1 593e 6501 013e 725b f5bd 72e0 bf3d
00000020: 0a6a 243d 71b3 18be 1410 2bbe 868d a63d
00000030: a8e2 e9bd 999a b83d 1ef1 e3bd 7ead b23b
00000040: 384d 1f3d 95c5 a4bd 34ab 3ebd 15cc edbd
00000050: 6c69 713d 1fc3 c7bd 27e1 06be 7ac0 05bd
00000060: b7ba 6b3c def7 e43b e24b 89be af1a 873e
00000070: e575 843d df19 b3bd 1488 86be ab94 683d
00000080: 23a0 a53c 4e88 eebe 1dd0 aabe 11ba 233e
00000090: 71b4 353d 7c8b 913d 3ee3 143e f970 2dbe
000000a0: 8dac 0abe 218e 2a3e 5be2 3cbd 1093 c83d
000000b0: d685 8bbd a967 64bd 8e7b 56be 0eff 32be
000000c0: 5612 793d b376 e33d 68ef 42bd ef8a 103e
000000d0: 4037 c63c 6ff8 093e 6e29 24be 7cb6 d63d
000000e0: 7240 673c fe32 9f3d b5d5 16be e152 9d3d
000000f0: 9d1b 5b3d 55bf 3f3d 64bc 35bc 68d8 2ebe
00000100: 298f b63d 16e4 023e 86a1 3d3d 6b31 673e
00000110: 979b 0fbc 406a 90bc 1e0f 973e a849 32be
00000120: 74e2 9dbd 9576 233d 8fa4 893e bb3b 02bd
00000130: e5ef 623e d564 453e a387 b3bc 3caa 723e
00000140: fa33 be3d eae6 a63e 4dfa bf3e d944 083e
00000150: 2854 3b3e aa76 0d3e 50b7 98be 0934 033d
00000160: 1a41 233e 6c6d 17be e0c7 d03d 4618 4f3e
00000170: 9e4f dfbd e36a 56bd 9833 6bbe 3078 f7bd
00000180: a3ef 873c 7973 93bc ebe8 72bd 5f70 a03a
00000190: a34c 543d 9ca0 bc3d c6de d73c 4ba0 31bd
000001a0: 3cae 7abd 12e8 0b3d e0f2 22be 1cda 3e3e
000001b0: f406 ecbc 422e 783e aa61 213d 8ba9 94bc
000001c0: 3db8 40be 3d44 af3c 924a 143d 08e3 93be
000001d0: 06a9 74be b4dd 933d 2934 bb3d 56d6 183d
000001e0: 3348 82bb 413e d9bd 932c a93c d36e c2bd
000001f0: 6e58 98be 4955 143e 6925 553d 6fe8 dcbd
00000200: 5ab2 1bbd 9ccf aa3d db4e c3bd aa4e 113d
00000210: 6cda aebd 87a9 82be 7ea3 1fbe d2a8 04be
00000220: 52d9 c3bc 29b2 ef3d 3898 72be 88e3 3dbe
00000230: 6824 093e 8e35 00be 64a9 923e 8f4e d33d
00000240: 0e9c 0e3e 1aa6 bebd 9f32 0bbe 7e94 b9bd
00000250: 4d8c 6bbd 843b b93c df72 04be 2946 f23d
00000260: 72c5 663e cde1 d23d 7e6e 35be 2b21 0c3e
00000270: e488 d23d bb2e 22bd b628 83bc 1c8f 06be
00000280: 85fd 013e abed 37be 2f0d e73d 7fe5 e1bd
00000290: df23 8d3e 7972 093e 4d1e 3bbe 42e1 f43c
000002a0: adc6 993d 3aff c73b a965 813d 6f0d b7bd
000002b0: 3ee8 a03e 982f 423e 0049 32bd fe97 c53c
000002c0: 7bb7 503e a99a 78be e7f8 a7bc 2e5f 113d
000002d0: bb40 52bd 2121 023c 8597 c73d 9376 7b3e
000002e0: 312a aa3e 82e9 393e d98e 1abe 8be2 663d
000002f0: 476d 18be 50e0 e83c 90d5 333d 1a1f 453e
00000300: f9b1 423e 7f58 623e 4cbb 6c3e 6c45 bf3c
00000310: 91b9 8b3d 68be 8f3d 39f2 f4bb dbf4 953d
00000320: 9066 7ebd 50b6 b6bd b06b ab3d 7099 653e
00000330: 34d8 133e ce3e 723e 3578 8b3e e162 04be
00000340: 0b26 163d d774 5f3e 6f3d 023e c07e 203e
00000350: fe2f a7bd 3060 523d 13cb 713c a21b 0cbd
00000360: 6c40 5ebe e3c0 54be dd74 a63c 26ed 0c3e
00000370: c38d e53d 0a35 963e 17e9 c4bd 7f46 24be
00000380: 5c6b 2bbd 867d 0ebe 86c7 ef3c 21d9 9b3b
00000390: 2bd9 6a3e 5876 ab3e 685c 243d 44f5 c73d
000003a0: 50be 1b3d be71 93bd 9e66 09be 3b9e 97ba
000003b0: f796 2c3e 6fdc 063e bbc0 283d 5159 c53d
000003c0: f6b4 3bbe 2534 b5bd 7a58 843d 8876 883d
000003d0: 530a b9bd 94eb 42be 6206 9c3c cae5 c5bd
000003e0: e529 56bd b4eb 0f3e 3eb1 0e3e 03b8 9ebd
000003f0: 874c f4bd 62c4 80be 42ff e5bc 74a2 3ebc

block1.0.conv.bias f4 [8]
0.035396498 -0.16645566 0.07730039 -0.1867292 -0.17358989 0.08646919 -0.118408665 -0.08258997
00000000: ebfb 103d 5a73 2abe ab4f 9e3d f035 3fbe
00000010: 8cc1 31be c216 b13d 3e80 f2bd ee24 a9bd

block1.0.BN.weight f4 [8]
0.85394263 0.88817835 0.92788744 1.1519777 0.9986936 0.9951997 1.0843182 1.0415174
00000000: fc9b 5a3f a85f 633f 088a 6d3f 0174 933f
00000010: 62aa 7f3f 68c5 7e3f f0ca 8a3f 7150 853f

block1.0.BN.bias f4 [8]
0.06941497 0.025480928 -0.027594754 0.10456374 0.013393956 -0.1506424 0.01271018 0.23533268
00000000: 7029 8e3d 61bd d03c 650e e2bc 8425 d63d
00000010: 5372 5b3c 0042 1abe 5c3e 503c 0dfb 703e

block1.0.BN.running_mean f4 [8]
-0.6324641 0.1705876 0.598247 -0.6608678 0.23350346 1.1929291 -0.06598039 -0.5137804
00000000: 2be9 21bf 84ae 2e3e b726 193f a22e 29bf
00000010: 881b 6f3e e7b1 983f ba20 87bd 1d87 03bf

block1.0.BN.running_var f4 [8]
0.23077475 0.1323607 0.14302683 0.18042025 0.14411414 0.22776729 0.14270376 0.10793678
00000000: 3750 6c3e 9089 073e a075 123e 16c0 383e
00000010: a892 133e d43b 693e ef20 123e f50d dd3d

block1.1.conv.weight f4 [16, 8, 3, 3]
-0.33414277 -0.14401956 -0.23800361 -0.2376278 -0.14174394 0.05533646 0.06193289 -0.13559906
-0.19578928 -0.088025555 0.06698009 -0.019778637 -0.065187864 -0.112400524 0.15711543 -0.07426543
-0.08897782 0.025681544 -0.09185089 0.18426605 0.1487685 -0.04109147 0.14572255 0.023645928
-0.28265482 -0.15262456 0.11369625 -0.10897308 0.104058586 -0.05502492 0.076796055 0.0031335787
0.075065784 0.10151801 0.1397231 0.15138423 -0.013749548 -0.021862242 -0.1282417 -0.11583579
-0.13621797 0.01937445 -0.21823108 -0.031438388 0.118152484 -0.06439543 -0.0229871 -0.062413435
-0.1442435 -0.07255942 -0.12148277 -0.20566913 0.099912144 0.16096021 -0.0014919476 0.13939202
0.060418867 0.09037657 -0.057845037 0.03259454 -0.05741347 0.028983474 0.11928073 -0.10650436
-0.19224638 -0.2360429 0.19989483 0.013084801 0.047570206 0.12483474 0.022316774 0.13721466
0.0056390865 -0.019229366 0.022208339 -0.011000122 -0.071742974 -4.7463003e-05 -0.07477377 -0.018714927
0.17968002 -0.23169355 -0.060240228 -0.081767164 -0.22274593 -0.15181307 -0.14799823 -0.35422507
-0.23671813 -0.1898587 0.02736838 0.019913577 0.06613006 -0.04048647 -0.0019397652 -0.14950842
0.0065118605 -0.029519942 0.0067173024 0.030653538 -0.0061166305 -0.116115995 -0.22033374 -0.24728239
-0.46996367 -0.13019913 -0.16274662 -0.27345833 0.07773312 -0.054611057 0.091197304 0.028232833
-0.040518988 0.1407933 -0.036827438 -0.20216821 -0.1288807 -0.16899009 -0.029457515 0.0610341
-0.10190462 -0.025529077 -0.12010045 -0.21613674 -0.045526735 -0.05069006 0.14573587 0.057402425
-0.0462447 0.08423942 -0.08798989 -0.15372886 0.13692944 0.031653147 0.011292892 -0.08366029
0.03887577 -0.045079324 0.14598684 -0.0792068 -0.16248369 0.15435483 -0.07855745 -0.0770982
0.16016941 -0.06895205 -0.1579469 -0.14180309 -0.0004079069 0.09847219 -0.14955238 -0.049550977
0.095200226 0.021102741 0.027126202 0.052844603 0.08611638 -0.056934293 0.10528037 -0.061104964
0.09551331 -0.055390984 0.094795376 -0.08552281 0.0641751 -0.052023355 0.0012737856 0.106030785
-0.09436739 -0.16498017 0.074179485 0.14771904 0.24463905 0.1504307 0.15561473 0.043666355
0.014212469 -0.17734878 -0.21406482 -0.26043865 -0.17892647 0.009355948 0.13023561 -0.20415361
0.052048 0.0771514 -0.031225072 -0.044848517 -0.020714188 -0.10360129 0.11839293 0.057153676
0.03499993 0.046717584 -0.07653216 -0.15747806 -0.04222301 0.2297835 -0.18790372 0.063800454
0.030343095 -0.19504118 -0.027251912 -0.08643254 -0.31115562 0.11403047 0.13230936 0.18013762
0.04022256 0.020676719 -0.008454478 -0.1607464 -0.11602577 -0.037821315 -0.12361071 -0.031300694
0.17252648 0.11616399 0.06531852 -0.113483466 -0.11618082 -0.110362604 0.041043244 0.014925021
-0.013562484 0.070641704 0.089930475 -0.13373494 -0.008150486 0.118090406 -0.058229916 -0.055767003
0.16869327 0.033579912 0.08848767 0.14221053 0.089967236 0.06756568 -0.26237398 -0.12360196
0.047119275 -0.28651497 -0.16691515 0.0033894004 -0.13071434 -0.20001888 -0.029133944 0.015044531
0.04731285 0.013941385 0.10131322 0.06614357 0.064260475 0.025577584 -0.24548973 0.1558624
00000000: c314 abbe dd79 13be 38b7 73be b454 73be
00000010: 5325 11be 7ca8 623d 58ad 7d3d 7bda 0abe
00000020: fc7c 48be be46 b4bd dc2c 893d cf06 a2bc
00000030: 3781 85bd 3f32 e6bd dee2 203e 7918 98bd
00000040: 013a b6bd 1a62 d23c 521c bcbd 3db0 3c3e
00000050: c556 183e 874f 28bd 4b38 153e 1bb5 c13c
00000060: 22b8 90be 9d49 1cbe 94d9 e83d 472d dfbd
00000070: ab1c d53d cf61 61bd 4047 9d3d ba5c 4d3b
00000080: 17bc 993d ade8 cf3d 9313 0f3e 7804 1b3e
00000090: c945 61bc 7218 b3bc cb51 03be 513b edbd
000000a0: b97c 0bbe 2bb7 9e3c f877 5fbe 8ac5 00bd
000000b0: eef9 f13d c0e1 83bd 714f bcbc 3ba5 7fbd
000000c0: 91b4 13be 089a 94bd f5cb f8bd ee9a 52be
000000d0: bd9e cc3d c1d2 243e 748d c3ba c8bc 0e3e
000000e0: c679 773d 5a17 b93d ebee 6cbd da81 053d
000000f0: 632a 6bbd c06e ed3c 7549 f43d f51e dabd
00000100: 3cdc 44be 3bb5 71be 3bb1 4c3e a261 563c
00000110: fad8 423d 5ba9 ff3d abd1 b63c 0082 0c3e
00000120: 16c8 b83b e786 9dbc 43ee b53c db39 34bc
00000130: fbed 92bd 0313 47b8 fe22 99bd 0c50 99bc
00000140: 0afe 373e 1341 6dbe 75be 76bd 8b75 a7bd
00000150: 8217 64be e374 1bbe d98c 17be fd5c b5be
00000160: 3d66 72be 526a 42be a733 e03c cc21 a33c
00000170: 326f 873d 24d5 25bd b83f feba bc18 19be
00000180: 7261 d53b ced3 f1bc d11c dc3b 211d fb3c
00000190: 046e c8bb 39ce edbd 2b9f 61be 9837 7dbe
000001a0: 149f f0be ec52 05be 0da7 26be bb02 8cbe
000001b0: 8b32 9f3d d8af 5fbd a7c5 ba3d 8b48 e73c
000001c0: 3df7 25bd 1e2c 103e 5ed8 16bd 2f05 4fbe
000001d0: 4df9 03be bd0b 2dbe e350 f1bc e4fe 793d
000001e0: 5fb3 d0bd 5b22 d1bc 3af7 f5bd f352 5dbe
000001f0: 3e7a 3abd 61a0 4fbd c93b 153e ce1e 6b3d
00000200: 156b 3dbd b885 ac3d 0b34 b4bd 196b 1dbe
00000210: 3b37 0c3e bba6 013d d205 393c 1656 abbd
00000220: 333c 1f3d 19a5 38bd 937d 153e 2d37 a2bd
00000230: 2062 26be 310f 1e3e bae2 a0bd a9e5 9dbd
00000240: 7303 243e bb36 8dbd d5bc 21be d434 11be
00000250: 56dc d5b9 caab c93d 4224 19be f7f5 4abd
00000260: 56f8 c23d a8df ac3c c537 de3c 9573 583d
00000270: c95d b03d ef33 69bd 3c9d d73d 3349 7abd
00000280: 7b9c c33d a8e1 62bd 1424 c23d 9526 afbd
00000290: 3c6e 833d 7116 55bd 27f5 a63a ab26 d93d
000002a0: b143 c1bd 90f0 28be 6aeb 973d a943 173e
000002b0: a982 7a3e 810a 1a3e 7859 1f3e 7edb 323d
000002c0: 6adb 683c eb9a 35be cf33 5bbe 3758 85be
000002d0: 8038 37be b149 193c 7c5c 053e a50d 51be
000002e0: 4930 553d 8e01 9e3d b9cb ffbc 14b3 37bd
000002f0: cdb0 a9bc ea2c d4bd fe77 f23d f919 6a3d
00000300: 165c 0f3d f05a 3f3d e5bc 9cbd ee41 21be
00000310: 09f2 2cbd 5e4c 6b3e d569 40be d0a9 823d
00000320: 1592 f83c e0b8 47be 673f dfbc 8b03 b1bd
00000330: ca4f 9fbe cf88 e93d 1b7c 073e ff75 383e
00000340: 69c0 243d 3962 a93c a784 0abc b49a 24be
00000350: eb9e edbd 86ea 1abd 9d27 fdbd 2835 00bd
00000360: c8aa 303e 63e7 ed3d b7c5 853d 056a e8bd
00000370: 36f0 edbd ca05 e2bd f61c 283d 1388 743c
00000380: 2e35 5ebc 99ac 903d 782d b83d d0f1 08be
00000390: 9e89 05bc 62d9 f13d 7e82 6ebd f16b 64bd
000003a0: eebd 2c3e 178b 093d 0639 b53d a39f 113e
000003b0: be40 b83d e05f 8a3d e255 86be 0623 fdbd
000003c0: 2400 413d 17b2 92be ceeb 2abe b420 5e3b
000003d0: fbd9 05be c0d1 4cbe 4faa eebc 567d 763c
000003e0: 1ecb 413d 686a 643c 4e7d cf3d 4876 873d
000003f0: ff9a 833d 1588 d13c a961 7bbe 659a 1f3e

block1.1.conv.bias f4 [16]
0.007876366 0.0008707123 -0.120471284 -0.102515385 -0.09801359 -0.05641246 -0.081192434 -0.02018132
0.01871035 -0.08586788 -0.018172028 0.17362481 0.09833846 -0.07077335 0.084789954 0.09665005
00000000: e00b 013c 8340 643a a6b9 f6bd 96f3 d1bd
00000010: 59bb c8bd c010 67bd 3848 a6bd 4c53 a5bc
00000020: 7346 993c 80db afbd 81dd 94bc b4ca 313e
00000030: ad65 c93d 9ef1 90bd 5ba6 ad3d 76f0 c53d

block1.1.BN.weight f4 [16]
0.9416817 0.94262123 0.98223215 1.1064421 1.0980335 0.9285716 0.8106205 1.0521084
0.8664319 1.0966896 0.95706886 0.98640645 1.0878459 1.042876 0.84545857 1.0498132
00000000: 0d12 713f a04f 713f 9173 7b3f e59f 8d3f
00000010: 5d8c 8c3f deb6 6d3f d384 4f3f 7dab 863f
00000020: 7bce 5d3f 5360 8c3f 7702 753f 2285 7c3f
00000030: 893e 8b3f f67c 853f f96f 583f 4760 863f

block1.1.BN.bias f4 [16]
-0.22102773 -0.08405026 -0.30692357 -0.15575115 -0.07935869 -0.20902672 -0.12087546 -0.08387317
-0.24880481 -0.019651288 -0.24195251 -0.2293525 -0.20171961 -0.24786663 -0.16635655 -5.4997607e-05
00000000: 1855 62be 8b22 acbd 1625 9dbe 3b7d 1fbe
00000010: cf86 a2bd 1a0b 56be 8e8d f7bd b2c5 abbd
00000020: b0c6 7ebe bdfb a0bc 66c2 77be 62db 6abe
00000030: 968f 4ebe c0d0 7dbe 5f59 2abe 3bad 66b8

block1.1.BN.running_mean f4 [16]
-0.4667041 -1.7754047 -0.43382236 -0.59199667 -1.4921454 -0.3713111 -0.99121404 0.30025303
0.99308026 -1.3139877 -0.5646428 -0.66704214 -0.1723668 -1.3652486 0.81314653 0.5357161
00000000: d7f3 eebe 7640 e3bf f71d debe 188d 17bf
00000010: 9ffe bebf 7d1c bebe 34c0 7dbf c4ba 993e
00000020: 823a 7e3f c030 a8bf 6e8c 10bf 46c3 2abf
00000030: ec80 30be 77c0 aebf 5f2a 503f b124 093f

block1.1.BN.running_var f4 [16]
0.6512756 2.87426 0.3893134 0.68006593 1.222331 0.5695286 1.3233801 1.058818
1.3448184 0.44627503 0.45711008 0.5210385 0.5710533 1.2208544 0.47635508 0.85622245
00000000: ffb9 263f e0f3 3740 1654 c73e cd18 2e3f
00000010: 5875 9c3f a0cc 113f 8564 a93f 5987 873f
00000020: 0223 ac3f 297e e43e 550a ea3e c762 053f
00000030: 8d30 123f f544 9c3f d0e4 f33e 6531 5b3f

block1.2.conv.weight f4 [8, 16, 3, 3]
-0.20414487 -0.09597654 0.035005394 -0.1392303 0.009958769 0.056371734 -0.036170315 0.0032227177
-0.060633276 -0.1469685 -0.12754162 -0.09955864 -0.13770117 -0.1296144 -0.0745439 -0.08251619
-0.00096388336 -0.064197406 0.0712895 0.051317126 -0.16503169 0.12319884 0.22543253 0.06497857
0.117510565 0.08149043 0.02207372 -0.12601943 0.008028739 0.2209945 -0.026427424 -0.115220815
0.06815072 0.16621503 -0.037124075 -0.1406577 -0.07894973 -0.05574328 -0.021856371 -0.102785215
0.043726422 0.059235986 0.0011039368 0.00419493 0.061824836 0.25232923 0.046730705 -0.017925147
0.2197461 0.10067687 0.026777118 -0.019152949 -0.06824918 -0.061280657 -0.0069785817 -0.053697616
-0.0077450373 0.03701751 0.0013190333 -0.1257723 -0.21076779 -0.19393964 -0.088729486 -0.15430337
0.12203433 0.2299019 0.060179573 0.036599446 0.1300407 0.1194284 0.0099220965 -0.028700424
0.02398489 0.13408266 -0.034567468 -0.020431168 -0.12369991 -0.15298086 -0.14413007 -0.08832234
-0.16217276 -0.182669 -0.35151982 -0.15453753 -0.20185934 -0.098441415 -0.021110076 -0.1315899
-0.10884113 0.114257134 0.03279484 0.10541462 0.06210918 -0.044114485 0.10638193 0.014138111
-0.074283086 0.07070471 0.023310658 -0.13309696 -0.06045413 -0.029719342 -0.032073777 0.053814873
0.12434779 0.02021692 -0.051954627 -0.10649045 -0.04509812 -0.019648574 0.23789659 0.005686325
-0.0039890553 0.06844318 -0.13961592 -0.11117656 -0.01716059 -0.15423995 -0.23043896 -0.13784294
-0.15102473 -0.21291268 -0.16288307 -0.080304645 -0.111268036 0.06333971 0.03584196 0.06009558
0.13307692 -0.029784175 -0.07100199 -0.0055648405 -0.07406773 -0.091996625 -0.05979625 0.16755363
0.16957623 0.088176005 -0.016257383 0.01755796 -0.19615719 0.015434044 -0.023098143 -0.19422446
0.23721197 0.20261322 0.057303056 0.0019727 -0.05637783 0.07737809 -0.026152711 -0.13248548
-0.09640306 0.057985686 0.08943738 -0.07307654 0.02583732 -0.014641614 -0.15054542 0.114180595
-0.003944067 -0.113751724 0.08939713 0.027424745 0.044248287 0.17391849 0.13049915 0.04412493
-0.018516332 0.12293391 0.2274998 0.015639517 -0.15623333 -0.0870164 0.023374926 0.022624329
0.021257164 -0.017665686 -0.16915388 -0.08764869 0.1040975 0.09828676 0.079868436 0.1520659
-0.06269633 -0.18128742 0.027371507 0.023988623 -0.07778018 0.005795751 -0.23553549 0.012209754
-0.08080667 -0.13685931 0.019025678 0.06903315 0.04219238 0.123623036 -0.02074217 0.0453792
0.07626299 0.086751014 0.12083776 -0.011683551 0.130067 0.10260615 0.020924876 -0.09039187
-0.09104185 -0.0888308 0.020413868 -0.112670235 0.03772133 0.051122714 0.060281716 0.12094735
0.0014035411 -0.008682283 0.119948864 -0.06636033 -0.053497024 0.03053128 0.06008837 0.07120162
0.067270525 0.26300433 0.24655145 0.1807718 -0.00043070997 0.07889764 -0.04949091 0.003552309
-0.108703814 -0.19757381 0.06737607 0.010933879 0.00031095074 -0.12409349 -0.058691308 0.062228806
0.22591555 0.09811334 0.011628928 -0.01934419 0.06829027 0.13101384 -0.21815582 -0.14285602
0.032662597 0.16031983 0.14669658 0.23423955 0.14389697 -0.099148594 -0.17160757 0.1545603
00000000: 5a0b 51be 598f c4bd d161 0f3d 6392 0ebe
00000010: 1b2a 233c 0ce6 663d 5327 14bd 3b34 533b
00000020: 995a 78bd e97e 16be 459a 02be 66e5 cbbd
00000030: 8901 0dbe a3b9 04be 79aa 98bd 40fe a8bd
00000040: 1ead 7cba ee79 83bd 3b00 923d e831 523d
00000050: 11fe 28be ac4f fc3d c9d7 663e 7c13 853d
00000060: 61a9 f03d 74e4 a63d f2d3 b43c 3d0b 01be
00000070: f98a 033c 624c 623e 537e d8bc e4f8 ebbd
00000080: 9b92 8b3d 4634 2a3e 6a0f 18bd 9208 10be
00000090: 65b0 a1bd 1153 64bd 220c b3bc 0e81 d2bd
000000a0: 7a1a 333d 6fa1 723d f9b1 903a a075 893b
000000b0: 0a3c 7d3d 4c31 813e b268 3f3d c2d7 92bc
000000c0: 1f05 613e ad2f ce3d b05b db3c a5e6 9cbc
000000d0: 3ac6 8bbd 6d01 7bbd 96ac e4bb 08f2 5bbd
000000e0: 15ca fdbb ac9f 173d 6ae3 ac3a 74ca 00be
000000f0: 83d3 57be 1d98 46be ceb7 b5bd b401 1ebe
00000100: 23ed f93d 676b 6b3e db7e 763d 4de9 153d
00000110: 6429 053e e196 f43d 4a90 223c 271d ebbc
00000120: f67b c43c f74c 093e 9e96 0dbd 445f a7bc
00000130: 6156 fdbd 04a7 1cbe d596 13be 58e2 b4bd
00000140: 9e10 26be 950d 3bbe 68fa b3be 163f 1ebe
00000150: 37b4 4ebe a79b c9bd 0aef acbc 81bf 06be
00000160: 19e8 debd a5ff e93d e253 063d 9fe3 d73d
00000170: 3266 7e3d 64b1 34bd c5de d93d 89a3 673c
00000180: bb21 98bd a2cd 903d fef5 be3c 924a 08be
00000190: c09e 77bd fa75 f3bc cb5f 03bd fc6c 5c3d
000001a0: 0eaa fe3d f49d a53c 60ce 54bd aa17 dabd
000001b0: ceb8 38bd 0cf6 a0bc 2a9b 733e 5a54 ba3b
000001c0: 9fb6 82bb f02b 8c3d 7af7 0ebe 89b0 e3bd
000001d0: 5e94 8cbc 14f1 1dbe 31f8 6bbe b326 0dbe
000001e0: 3aa6 1abe c805 5abe d2ca 26be c376 a4bd
000001f0: 7fe0 e3bd 40b8 813d 05cf 123d c826 763d
00000200: 5145 083e f1fd f3bc 7e69 91bd 4459 b6bb
00000210: d2b0 97bd ba68 bcbd eaec 74bd 2e93 2b3e
00000220: 64a5 2d3e 9f95 b43d 342e 85bc b6d5 8f3c
00000230: 6edd 48be 13df 7c3c 5138 bdbc c7e2 46be
00000240: b2e7 723e d779 4f3e 9cb6 6a3d 6a48 013b
00000250: 71ec 66bd 6778 9e3d 363e d6bc 46aa 07be
00000260: f86e c5bd 6682 6d3d f22a b73d 27a9 95bd
00000270: caa8 d33c 61e3 6fbc 9428 1abe 84d7 e93d
00000280: 3b3d 81bb aaf6 e8bd d815 b73d dca9 e03c
00000290: b13d 353d b017 323e 92a1 053e 58bc 343d
000002a0: 90af 97bc c6c4 fb3d b5f5 683e 721e 803c
000002b0: a1fb 1fbe a835 b2bd c67c bf3c a856 b93c
000002c0: 8123 ae3c a1b7 90bc ad36 2dbe 2881 b3bd
000002d0: 1231 d53d 924a c93d 1092 a33d 2ab7 1b3e
000002e0: ef66 80bd 69a3 39be 363a e03c ca83 c43c
000002f0: 374b 9fbd 49ea bd3b 3730 71be 6c0b 483c
00000300: f87d a5bd d924 0cbe bddb 9b3c 4161 8d3d
00000310: ebd1 2c3d 132e fd3d 7ceb a9bc 8adf 393d
00000320: c52f 9c3d 84aa b13d ca79 f73d 5d6c 3fbc
00000330: 4930 053e 2c23 d23d a56a ab3c 5f1f b9bd
00000340: 2674 babd ecec b5bd fc3a a73c a7bf e6bd
00000350: ae81 1a3d 0d66 513d f6e9 763d 3fb3 f73d
00000360: 06f7 b73a 2240 0ebc c0a7 f53d ede7 87bd
00000370: b21f 5bbd bc1c fa3c 391f 763d 28d2 913d
00000380: 21c5 893d 81a8 863e fc77 7c3e 3e1c 393e
00000390: ead0 e1b9 1695 a13d fbb6 4abd dbcd 683b
000003a0: 1ba0 debd ca50 4abe 77fc 893d 0324 333c
000003b0: 1a07 a339 ba24 febd 4c66 70bd a2e3 7e3d
000003c0: 6856 673e a6ef c83d 4287 3e3c b577 9ebc
000003d0: c5db 8b3d 7e28 063e 3d64 5fbe d948 12be
000003e0: 37c9 053d e22a 243e a137 163e 7edc 6f3e
000003f0: ba59 133e 6b0e cbbd e5b9 2fbe 0e45 1e3e

block1.2.conv.bias f4 [8]
0.06125745 -0.128707 0.13148555 -0.018765032 0.0704373 -0.09213526 0.020712618 -0.18247598
00000000: 18e9 7a3d c5cb 03be 26a4 063e 20b9 99bc
00000010: 6e41 903d 69b1 bcbd 82ad a93c fcda 3abe

block1.2.BN.weight f4 [8]
1.047375 0.97122496 0.8800423 0.9873598 0.9945007 0.9724545 1.090255 1.0340482
00000000: 6210 863f 33a2 783f 744a 613f 9dc3 7c3f
00000010: 9997 7e3f c7f2 783f 7a8d 8b3f b15b 843f

block1.2.BN.bias f4 [8]
0.033194784 0.12043269 -0.18745287 0.014984042 -0.08608127 -0.376205 -0.1074577 0.0158463
00000000: 41f7 073d 6aa5 f63d a5f3 3fbe a17f 753c
00000010: 604b b0bd f19d c0be c812 dcbd 1ad0 813c

block1.2.BN.running_mean f4 [8]
-0.9979676 0.79104346 0.6811704 -0.88412386 -0.59598446 0.0028686621 -1.5600693 -0.2947776
00000000: ce7a 7fbf d381 4a3f 2f61 2e3f f155 62bf
00000010: 7092 18bf 2a00 3c3b 5ab0 c7bf 17ed 96be

block1.2.BN.running_var f4 [8]
1.7015866 1.9739269 1.6067294 1.213751 2.4443796 1.3824941 2.1632016 1.8674078
00000000: 97cd d93f a3a9 fc3f 4fa9 cd3f 315c 9b3f
00000010: b770 1c40 91f5 b03f e571 0a40 3807 ef3f

block1.3.conv.weight f4 [4, 8, 3, 3]
-0.0058573927 0.102391735 0.025669815 -0.017221345 -0.08276862 0.08978059 0.10122824 -0.10279615
-0.16081306 0.16223267 0.1804686 0.08721545 -0.12633073 -0.06060385 -0.057636008 -0.07930691
0.11796623 0.12551878 -0.07507985 0.009410413 -0.08258177 -0.104820654 -0.039307427 -0.046430834
-0.18334086 -0.20098518 -0.015696272 -0.12212089 -0.18893462 -0.025889304 -0.10665606 -0.21781802
0.130151 0.007137827 0.046498127 0.21268678 0.26128206 0.19291854 -0.02226163 0.08793402
-0.106997535 0.088378645 0.18063048 -0.04520813 -0.028777404 0.050477892 0.04678277 0.14702435
-0.27237922 -0.11642967 0.017861865 0.14708003 0.14970636 0.033030994 -0.13852786 -0.100687034
-0.1593643 -0.16575986 -0.13650903 -0.046468478 -0.040902406 0.028782047 0.11322001 -0.21376571
-0.26659194 0.01586611 -0.037800174 -0.020288482 -0.086451165 0.07894702 0.122080915 0.13144167
-0.009626814 0.22664313 0.08035937 0.007940921 0.04017686 -0.18145846 0.13017936 0.06652502
-0.019705879 0.1262165 0.07408242 0.13800612 0.07393668 0.077549286 0.18904346 -0.10706071
-0.16580601 -0.16869842 -0.10401686 -0.26338822 -0.015897611 -0.0479333 0.044038657 -0.16236228
-0.06798846 -0.03965066 -0.12814726 -0.06637972 -0.11542401 0.040850922 0.011105266 -0.07595124
-0.030697664 -0.119867966 0.17191407 0.14528115 0.1381908 -0.005938793 -0.071073584 -0.034131084
-0.109586194 -0.08138018 -0.01643215 0.06112428 -0.09163528 0.015765617 0.040935025 0.19697332
0.004940208 -0.03331737 0.03918044 0.21395664 0.08133429 0.17121021 0.06662002 0.013370425
0.24910939 0.12561202 0.15194815 0.14351948 0.2760221 0.36004403 0.25103375 -0.13446176
0.050609965 0.033908736 -0.040856104 -0.03938813 0.09460795 0.22481282 -0.04749747 0.05156067
0.1925797 0.051581997 -0.047439598 0.2727684 0.24887848 0.032132614 0.06669893 -0.084787
-0.100805216 0.13798158 -0.015619351 0.102958694 -0.106857814 -0.0684626 -0.1946347 -0.15784025
-0.23096304 -0.16838194 0.008346528 -0.027144007 0.082069054 0.104638614 -0.09213011 -0.09658749
0.07753258 0.07121406 -0.24322689 -0.015798975 -0.048333623 -0.057509772 0.0028912227 -0.13402067
-0.015660524 0.024510236 0.01688098 -0.14918008 -0.061993714 -0.1447791 -0.14110337 -0.15798518
-0.19825822 -0.07602615 -0.14719126 -0.03665586 -0.035350945 0.1056082 0.17536432 0.017918248
-0.007556393 0.21126474 0.15620768 -0.034898736 0.039146647 0.14420095 -0.02254028 -0.09740877
-0.18239233 0.1258403 0.047361236 0.06257217 0.17385375 0.12147417 0.12626684 0.19534062
0.22104427 -0.040258896 0.038627274 0.11528888 -0.1445778 -0.06397484 -0.026713913 -0.032769814
0.24111417 0.117306516 0.17560188 0.13530736 0.07179248 -0.03675854 -0.17416216 -0.022921383
-0.20752013 0.013337772 -0.09019232 -0.0403705 0.071362205 0.18746388 -0.04598639 0.15302016
0.06522219 -0.07775308 -0.035024256 -0.0713316 0.09746547 -0.16758698 -0.20636627 -0.09112131
-0.0074995286 -0.06644414 0.026293071 0.1427092 -0.1232992 -0.08128559 -0.07057105 -0.10414894
-0.011443048 0.3018989 0.13815631 0.107422024 -0.11678137 -0.16105987 -0.03681491 0.1455455
00000000: 5fef bfbb c2b2 d13d 8149 d23c c713 8dbc
00000010: 9882 a9bd e3de b73d c050 cf3d ca86 d2bd
00000020: 2eac 24be 5220 263e c3cc 383e 049e b23d
00000030: d85c 01be be3b 78bd bc13 6cbd a96b a2bd
00000040: 4798 f13d ff87 003e 77c3 99bd 222e 1a3c
00000050: a220 a9bd 36ac d6bd d300 21bd 422e 3ebd
00000060: b5bd 3bbe 0fcf 4dbe 7895 80bc 841a fabd
00000070: 1478 41be ce15 d4bc 7e6e dabd b00b 5fbe
00000080: 4e46 053e 6fe4 e93b d274 3e3d 90ca 593e
00000090: c3c6 853e 708c 453e 065e b6bc c016 b43d
000000a0: 8621 dbbd ddff b43d 32f7 383e 292c 39bd
000000b0: 97be ebbc e8c1 4e3d 4a9f 3f3d 8d8d 163e
000000c0: 4a75 8bbe ae72 eebd 0c53 923c 269c 163e
000000d0: a04c 193e 824b 073d 3fda 0dbe 0135 cebd
000000e0: 6530 23be f4bc 29be 06c9 0bbe bb55 3ebd
000000f0: 4889 27bd 54c8 eb3c e5df e73d 66e5 5abe
00000100: bd7e 88be a5f9 813c 5bd4 1abd 0834 a6bc
00000110: 4f0d b1bd faae a13d 8f05 fa3d a598 063e
00000120: c9b9 1dbc 2315 683e 7493 a43d a31a 023c
00000130: 7e90 243d 3fd0 39be bd4d 053e 453e 883d
00000140: 396e a1bc e63e 013e 86b8 973d 7a51 0d3e
00000150: 1d6c 973d 29d2 9e3d 9c94 413e a542 dbbd
00000160: 0dc9 29be 47bf 2cbe cb06 d5bd d2da 86be
00000170: b53b 82bc b555 44bd e161 343d 4c42 26be
00000180: 893d 8bbd bb68 22bd 0939 03be 17f2 87bd
00000190: 6c63 ecbd 4c53 273d ddf2 353c 538c 9bbd
000001a0: ab79 fbbc 567d f5bd 3e0a 303e 95c4 143e
000001b0: e481 0d3e 359a c2bb 078f 91bd 09cd 0bbd
000001c0: ba6e e0bd a7aa a6bd b79c 86bc 745d 7a3d
000001d0: 47ab bbbd e526 813c 7cab 273d 60b3 493e
000001e0: 78e1 a13b cb77 08bd ab7b 203d 7317 5b3e
000001f0: 9892 a63d bb51 2f3e 1470 883d a10f 5b3c
00000200: 8816 7f3e 70a0 003e 4c98 1b3e c5f6 123e
00000210: c552 8d3e b157 b83e 7f87 803e 58b0 09be
00000220: 654c 4f3d e3e3 0a3d bb58 27bd 7355 21bd
00000230: d0c1 c13d 5535 663e b58c 42bd 4831 533d
00000240: 9d33 453e a547 533d 0650 42bd 4da8 8b3e
00000250: 00da 7e3e 7d9d 033d 7399 883d cfa4 adbd
00000260: f772 cebd 0b4b 0d3e 4ee8 7fbc 02dc d23d
00000270: 45d8 dabd 1f36 8cbd 524e 47be e0a0 21be
00000280: 9381 6cbe 516c 2cbe e0bf 083c 1c5d debc
00000290: d213 a83d c54c d63d b6ae bcbd a9cf c5bd
000002a0: 67c9 9e3d add8 913d 7810 79be da6c 81bc
000002b0: 7af9 45bd 5e8f 6bbd ab7a 3d3b b73c 09be
000002c0: 804a 80bc b1c9 c83c fb49 8a3c aac2 18be
000002d0: 1fed 7dbd f940 14be 677d 10be dec6 21be
000002e0: 3404 4bbe 99b3 9bbd 4eb9 16be 7424 16bd
000002f0: 27cc 10bd 1d49 d83d b492 333e 4ac9 923c
00000300: 9e9b f7bb c955 583e e8f4 1f3e faf1 0ebd
00000310: 3c58 203d 6aa9 133e 65a6 b8bc 407e c7bd
00000320: 0ec5 3abe 48dc 003e dbfd 413d d625 803d
00000330: b806 323e 73c7 f83d 184c 013e 5f07 483e
00000340: 6e59 623e 83e6 24bd a237 1e3d 941c ec3d
00000350: 340c 14be 3e05 83bd 23d7 dabc a439 06bd
00000360: a2e6 763e 663e f03d fbd0 333e 038e 0a3e
00000370: f007 933d 1f90 16bd 9157 32be a0c5 bbbc
00000380: 2880 54be ac86 5a3c c0b6 b8bd 8a5b 25bd
00000390: 5926 923d 88f6 3f3e 3a5c 3cbd 51b1 1c3e
000003a0: 3693 853d 023d 9fbd 9875 0fbd 4d16 92bd
000003b0: fa9b c73d ec9b 2bbe ae51 53be cf9d babd
000003c0: 9bbe f5bb de13 88bd 9164 d73c 5c22 123e
000003d0: 4a84 fcbd 0f79 a6bd 8e87 90bd 0a4c d5bd
000003e0: 9f7b 3bbc 7e92 9a3e d978 0d3e 1400 dc3d
000003f0: 122b efbd e1ec 24be 3bcb 16bd e109 153e

block1.3.conv.bias f4 [4]
0.12386234 -0.0042341677 -0.015569859 0.26982665
00000000: 8aab fd3d c6be 8abb b918 7fbc b826 8a3e

block1.3.BN.weight f4 [4]
1.0314947 0.9576093 1.0467023 1.0148128
00000000: 0508 843f e225 753f 57fa 853f 63e5 813f

block1.3.BN.bias f4 [4]
-0.013126533 -0.07702919 -0.07547577 0.0023230931
00000000: ab10 57bc 7bc1 9dbd 0a93 9abd 093f 183b

block1.3.BN.running_mean f4 [4]
-0.1714028 0.73618656 -0.20550866 0.5850723
00000000: 3784 2fbe b976 3c3f dd70 52be 4cc7 153f

block1.3.BN.running_var f4 [4]
0.33016765 0.593194 1.0760294 0.5927462
00000000: bc0b a93e 90db 173f 55bb 893f 37be 173f

block2.0.conv.weight f4 [8, 4, 3, 3]
0.092439525 0.027438467 -0.14370383 0.23586828 -0.17074311 -0.0051815305 -0.1531837 -0.08816716
0.015608627 0.19239838 -0.21196519 0.01802401 0.1895126 0.16989326 -0.16916578 0.17014071
0.056454927 -0.11346387 0.256502 -0.03997675 -0.1377105 -0.035972122 0.06977605 -0.27219945
0.22195016 0.14677145 -0.0027976863 0.16106467 -0.12281114 -0.1302585 0.109946325 -0.06581072
-0.20821394 0.0040183286 0.05903981 0.14191397 0.078184664 -0.1836934 -0.0443458 -0.0924608
-0.20294979 -0.26330644 -0.14170203 -0.1749388 0.1225233 0.115626015 -0.09997762 -0.16637553
0.044456623 0.092962906 -0.088561505 0.097112365 -0.04425007 0.14193173 -0.012054212 0.044902865
0.1745055 0.21765883 -0.09266837 0.12090726 0.2868161 -0.047422666 0.27599886 -0.16578703
0.00086749747 -0.18166263 -0.12933224 -0.10791846 -0.06673102 -0.25678018 -0.116085865 0.16904247
0.013590858 0.12854315 0.080322854 0.16440932 0.10833858 0.040800903 -0.063465685 0.15445301
-0.15680104 0.034731828 -0.043651372 -0.17544898 0.002663094 0.17001316 -0.028818697 0.28016043
0.07235307 -0.003075152 0.12073816 0.045459148 -0.16339786 0.008019884 0.050975025 0.20056298
0.029360754 0.17001161 0.2992164 0.20162755 0.09997388 0.017325561 0.11248932 0.19627479
0.038543742 -0.09922546 0.016282871 0.15186256 -0.07357937 -0.2869247 -0.12948352 0.059827995
0.19345067 0.013113881 0.002053493 -0.19134697 0.020148957 -0.08244962 0.0947352 0.107301325
-0.14198852 0.07247762 -0.04821532 -0.047895357 -0.29625285 -0.2781046 0.16095127 -0.108386576
-0.13959034 0.21794173 0.1943584 0.014090827 -0.25221476 -0.14548847 -0.24161087 -0.0015839839
-0.057819206 -0.058995016 0.10716912 -0.14932881 -0.15412909 -0.077470034 0.018892676 0.15115507
0.12661254 0.2658115 0.18117778 -0.3447702 -0.20018747 -0.08812952 0.048866812 0.0101890545
-0.0861223 -0.034040093 -0.049606808 0.062228203 0.03521952 -0.22811568 -0.28046075 0.24480984
-0.013323265 0.19732553 -0.09029497 0.052971803 -0.11295747 0.013076565 0.036801696 0.10502099
0.005530075 0.08491624 -0.021017069 -0.17768481 -0.068328656 0.25241145 0.0712014 -0.14164251
0.08193244 -0.12265235 0.07626682 -0.052570447 0.23749016 0.058867928 -0.11442485 0.17129885
-0.004553672 0.15217663 0.15199423 0.10664578 0.1860963 -0.13754094 0.056662876 0.07552011
0.023959279 0.09568313 -0.011881736 -0.080882 0.09031255 0.20533969 0.027621903 0.039823424
0.056638625 0.044452652 0.041665632 -0.07598701 -0.070475206 -0.16936481 -0.12202704 0.048204947
0.16766389 0.09182234 0.029435521 0.059348334 -0.00970333 -0.3295024 -0.19040439 -0.044160355
0.011032224 -0.12889759 -0.0639361 -0.06089351 0.014904264 0.085702464 0.042358205 0.023002362
-0.0451571 -0.11847612 0.17221723 0.0713941 -0.109221146 0.1306827 0.073495194 0.026627524
-0.12367686 0.020777889 -0.041438807 -0.22806053 -0.42985418 0.16218287 0.02921841 0.0377864
0.17789839 0.09229126 -0.039281424 -0.19802107 -0.12996799 -0.32872367 -0.0727992 -0.18650211
-0.26695955 -0.00847517 -0.03061168 -0.25420386 -0.08757586 0.01241486 -0.04184126 -0.092869006
00000000: ef50 bd3d a3c6 e03c 1927 13be 7487 713e
00000010: 48d7 2ebe d4c9 a9bb 30dc 1cbe fc90 b4bd
00000020: 54bb 7f3c 1504 453e 670d 59be 17a7 933c
00000030: 970f 423e 80f8 2d3e cb39 2dbe 5e39 2e3e
00000040: 483d 673d bf5f e8bd 3b54 833e a9be 23bd
00000050: fb03 0dbe 8157 13bd bfe6 8e3d ba5d 8bbe
00000060: e746 633e 414b 163e 6359 37bb 23ee 243e
00000070: 6884 fbbd 7c62 05be 8a2b e13d c5c7 86bd
00000080: 0936 55be 2fac 833b bad3 713d e551 113e
00000090: 481f a03d 1f1a 3cbe f1a3 35bd 175c bdbd
000000a0: 12d2 4fbe 1ad0 86be 561a 11be 2823 33be
000000b0: 7fed fa3d 55cd ec3d 11c1 ccbd 595e 2abe
000000c0: 2618 363d 5663 be3d bc5f b5bd d9e2 c63d
000000d0: 903f 35bd 8d56 113e 087f 45bc 11ec 373d
000000e0: 92b1 323e f5e1 5e3e eac8 bdbd 3a9e f73d
000000f0: 8fd9 923e 453e 42bd b94f 8d3e 13c4 29be
00000100: c568 633a c505 3abe ac6f 04be 5b04 ddbd
00000110: 46aa 88bd b178 83be 6dbe edbd 7819 2d3e
00000120: 31ac 5e3c d1a0 033e 4f80 a43d eb5a 283e
00000130: 9ee0 dd3d d91e 273d 4cfa 81bd ee28 1e3e
00000140: 7490 20be f642 0e3d c8cb 32bd e6a8 33be
00000150: 4e87 2e3b ee17 2e3e 3015 ecbc 3071 8f3e
00000160: d92d 943d 7d88 49bb 9245 f73d 5f33 3a3d
00000170: c551 27be d565 033c 30cb 503d 6260 4d3e
00000180: f785 f03c 8617 2e3e e432 993e 7477 4e3e
00000190: 1bbf cc3d 56ee 8d3c cd60 e63d 42fc 483e
000001a0: 0be0 1d3d b836 cbbd a863 853c dc81 1b3e
000001b0: c8b0 96bd cbe7 92be 5497 04be 330e 753d
000001c0: ef17 463e 9bdb 563c e593 063b 76f0 43be
000001d0: 6d0f a53c 59db a8bd 8704 c23d ccc0 db3d
000001e0: 7065 11be 256f 943d 6d7d 45bd ec2d 44bd
000001f0: 74ae 97be ba63 8ebe 69d0 243e c8f9 ddbd
00000200: c5f0 0ebe 1e2c 5f3e e305 473e 36dd 663c
00000210: 4b22 81be eefa 14be d768 77be ae9d cfba
00000220: d5d3 6cbd c2a4 71bd 7c7b db3d a7e9 18be
00000230: 04d4 1dbe 9ca8 9ebd d0c4 9a3c 65c8 1a3e
00000240: b8a6 013e 7218 883e ab86 393e b885 b0be
00000250: f2fd 4cbe 407d b4bd 9128 483d feef 263c
00000260: e360 b0bd a06d 0bbd 8230 4bbd 00e3 7e3d
00000270: 5842 103d 2897 69be 8d98 8fbe 6eaf 7a3e
00000280: d349 5abc b40f 4a3e 92ec b8bd f6f8 583d
00000290: 3f56 e7bd 173f 563c 60bd 163d 3f15 d73d
000002a0: a235 b53b 91e8 ad3d fd2b acbc 02f3 35be
000002b0: e5ef 8bbd 133c 813e 0ad2 913d bc0a 11be
000002c0: 32cc a73d 2831 fbbd c731 9c3d 1c54 57bd
000002d0: 9f30 733e 7f1f 713d 9357 eabd f768 2f3e
000002e0: f836 95bb 31d4 1b3e 60a4 1b3e 1a69 da3d
000002f0: 0790 3e3e 88d7 0cbe 5517 683d 4aaa 9a3d
00000300: 4046 c43c 84f5 c33d 9dab 42bc 76a5 a5bd
00000310: c9f5 b83d 9144 523e 5447 e23c e31d 233d
00000320: e7fd 673d fc13 363d 95a9 2a3d 149f 9bbd
00000330: 4e55 90bd f86d 2dbe 50e9 f9bd 8d72 453d
00000340: 15b0 2b3e 5a0d bc3d c322 f13c 3d17 733d
00000350: b7fa 1ebc 8ab4 a8be 5ef9 42be 7de1 34bd
00000360: 80c0 343c bbfd 03be eef0 82bd 796b 79bd
00000370: 0431 743c c684 af3d cc7f 2d3d 736f bc3c
00000380: a7f6 38bd 9ca3 f2bd b759 303e 1237 923d
00000390: 56af dfbd b0d1 053e a684 963d f721 da3c
000003a0: 4b4a fdbd 6436 aa3c bdbb 29bd b388 69be
000003b0: d915 dcbe 4413 263e 725b ef3c eac5 1a3d
000003c0: ff2a 363e 3303 bd3d 8fe5 20bd 09c6 4abe
000003d0: 5416 05be 784e a8be bf17 95bd 69fa 3ebe
000003e0: ecae 88be 70db 0abc 59c5 fabc 0227 82be
000003f0: f95a b3bd b267 4b3c be61 2bbd 1b32 bebd

block2.0.conv.bias f4 [8]
-0.003475156 0.20066625 -0.076660894 -0.018606497 0.20050852 0.015345652 -0.035571568 -0.068391316
00000000: 71bf 63bb 747b 4d3e 6300 9dbd a76c 98bc
00000010: 1b52 4d3e 546c 7b3c 7eb3 11bd bf10 8cbd

block2.0.BN.weight f4 [8]
0.9845263 1.0312088 0.97430426 0.9790138 1.0100315 0.9907388 1.1517267 0.96183074
00000000: ea09 7c3f a6fe 833f 016c 793f a6a0 7a3f
00000010: b648 813f 0fa1 7d3f c86b 933f 8a3a 763f

block2.0.BN.bias f4 [8]
-0.0031175278 0.14332569 -0.22712067 -0.19381563 -0.2299342 -0.12753557 0.04881609 0.19062456
00000000: 704f 4cbb f8c3 123e 5292 68be 9b77 46be
00000010: df73 6bbe af98 02be 61f3 473d 1633 433e

block2.0.BN.running_mean f4 [8]
0.09246814 -0.067285754 0.72807723 -0.55613697 0.14147885 0.3199163 -0.63491225 -0.30156073
00000000: f05f bd3d 1dcd 89bd 4563 3a3f fe5e 0ebf
00000010: d5df 103e 12cc a33e 9c89 22bf 2b66 9abe

block2.0.BN.running_var f4 [8]
0.21760274 0.43812907 0.60241383 0.41996324 0.19870399 0.44181764 1.1119326 0.3561769
00000000: 41d3 5e3e 7452 e03e cb37 1a3f 6c05 d73e
00000010: 0f79 4b3e ec35 e23e cf53 8e3f d25c b63e

block2.1.conv.weight f4 [16, 8, 3, 3]
-0.0065513444 0.104096554 0.08571951 -0.09238451 0.059278376 0.17762166 0.06951875 0.046258237
-0.10084667 0.08771906 -0.114460066 -0.07400768 -0.1204051 -0.25193658 0.16494691 -0.058287684
-0.27369282 0.14575261 -0.10526461 -0.18772726 -0.13269906 -0.06489499 0.025248189 -0.10023423
0.22591674 0.13412265 0.19713481 -0.1324042 -0.30972204 -0.1772133 -0.09432936 0.07034094
-0.18094626 -0.045099728 -0.024551995 -0.11044712 0.22378613 0.12520099 0.059115592 0.11950297
0.021923212 -0.029317046 0.068203926 -0.013000388 -0.056277085 -0.03859047 0.13650376 0.10952786
0.029970864 -0.014625521 0.05181629 0.09037052 0.053430878 -0.044228245 -0.1383297 -0.29458448
-0.22703794 -0.18759464 -0.21269457 0.111229576 0.0750803 -0.08113481 0.0689761 0.28086957
0.18317343 -0.08462554 0.035888582 0.07216566 -0.17333192 0.028020093 0.09749846 -0.0025183896
0.25965187 0.04813602 0.049293373 -0.01570756 0.07064072 0.001953664 -0.2812908 -0.22740886
0.090508685 -0.2674521 -0.15161954 -0.265888 -0.12958531 -0.06553647 -0.08367734 -0.042270362
0.09610983 -0.17429389 0.04414957 0.10465263 0.2114057 -0.092242695 -0.13462606 -0.12079998
-0.1839685 -0.012880434 0.00052082236 0.101377495 -0.08746408 -0.060904518 0.015605359 -0.07248558
-0.029474776 0.09611238 0.08175093 0.14817812 0.072389826 -0.071389385 0.1272083 -0.15330176
-0.08620771 -0.025614128 0.10751765 -0.03573036 0.057489008 -0.19696978 -0.052517805 -0.068349265
0.0021214888 -0.064281344 -0.0038874848 -0.16057481 -0.17169914 0.028553411 -0.17589101 -0.20575131
-0.31633064 -0.03950849 -0.08922008 0.07083335 0.05639222 -0.092498384 0.061703913 -0.03306993
0.11531605 0.11555604 -0.04243428 -0.21474388 -0.15905167 0.12990308 -0.004497671 0.20276141
-0.068034165 0.04885158 -0.007170852 0.05149276 0.089237496 -0.051292233 0.033856675 0.11305664
0.043187693 0.02735644 -0.14102933 0.033277903 0.07148752 -0.029303694 0.0072704777 0.1269528
0.0890549 -0.09061256 0.05510486 0.036198027 0.06655371 -0.045840614 -0.0051619317 -0.12512478
-0.034254503 -0.11853341 -0.06625243 0.08994865 0.21081507 0.07659709 0.08323182 0.19298396
-0.004981358 0.06387662 0.17289697 0.05380773 0.10585011 0.25811985 0.21238157 0.09521848
0.0010681688 0.06478677 0.17486574 0.15197913 0.13387758 0.029466871 0.065385334 0.20767611
-0.2002468 0.08993191 0.18344563 -0.15286534 -0.09663603 0.16244072 0.1829703 -0.08012391
-0.052808274 -0.12006675 -0.2866876 -0.21812765 0.10757691 0.12232011 0.035133786 0.018113641
-0.005449194 -0.21445847 -0.05990148 0.007011435 -0.0932844 0.051275298 0.079921626 -0.09722152
-0.04101172 0.021566292 -0.089923374 0.1578982 0.1949182 0.12968756 -0.014107817 -0.04258279
0.059998997 0.06093967 -0.15820791 -0.216193 0.13203658 -0.022154521 0.18777741 0.18027769
-0.063751206 -0.06351324 -0.28411865 -0.12790266 0.06752954 -0.18704827 -0.15147781 -0.21954179
-0.12052272 0.06855984 0.13044383 -0.02310856 0.114325546 -0.08822763 0.07254502 -0.03501583
-0.19647348 0.14548653 0.06184651 0.06336079 0.1808063 0.1382864 0.21724525 -0.113054134
00000000: a9ac d6bb 9330 d53d b68d af3d 1734 bdbd
00000010: e2cd 723d 74e2 353e d95f 8e3d 4779 3d3d
00000020: b388 cebd 0da6 b33d 0a6a eabd 5791 97bd
00000030: f396 f6bd d5fd 80be d8e7 283e 11bf 6ebd
00000040: 7721 8cbe 2c40 153e f994 d7bd 933b 40be
00000050: 43e2 07be aae7 84bd 4ad5 ce3c 9b47 cdbd
00000060: b856 673e 7357 093e b5dd 493e f794 07be
00000070: e393 9ebe 6777 35be c02f c1bd e90e 903d
00000080: fa49 39be 7eba 38bd 4421 c9bc 1a32 e2bd
00000090: 3128 653e b034 003e 3123 723d f9bd f43d
000000a0: 4f98 b33c 4d2a f0bc 80ae 8b3d 94ff 54bc
000000b0: cd82 66bd 0a11 1ebd a4c7 0b3e 2550 e03d
000000c0: 7585 f53c e29f 6fbc 513d 543d 2e14 b93d
000000d0: 56da 5a3d ad28 35bd 4da6 0dbe c7d3 96be
000000e0: a27c 68be cf18 40be 9bcc 59be 55cc e33d
000000f0: b3c3 993d 022a a6bd 5743 8d3d 23ce 8f3e
00000100: d191 3b3e 2850 adbd e8ff 123d 97cb 933d
00000110: ec7d 31be 658a e53c 46ad c73d 910b 25bb
00000120: 17f1 843e 462a 453d d9e7 493d 24ad 80bc
00000130: 15ac 903d 0b09 003b 5905 90be dedd 68be
00000140: 9e5c b93d 7bef 88be 2742 1bbe 7922 88be
00000150: 03b2 04be fc37 86bd 065f abbd b023 2dbd
00000160: 3bd5 c43d 197a 32be 2ed6 343d 1e54 d63d
00000170: bc7a 583e bde9 bcbd 6adb 09be fb65 f7bd
00000180: 3d62 3cbe 7508 53bc cc87 083a 019f cf3d
00000190: 5e20 b3bd 0477 79bd 9fad 7f3c 5273 94bd
000001a0: 1675 f1bc 91d6 c43d 086d a73d 01bc 173e
000001b0: 1e41 943d 9934 92bd e542 023e 23fb 1cbe
000001c0: ab8d b0bd b8d4 d1bc 3732 dc3d ff59 12bd
000001d0: 9879 6b3d 72b2 49be e91c 57bd b3fa 8bbd
000001e0: ad08 0b3b f0a5 83bd 2cc5 7ebb b96d 24be
000001f0: e6d1 2fbe d8e8 e93c c61c 34be 79b0 52be
00000200: 17f6 a1be a8d3 21bd 04b9 b6bd 1311 913d
00000210: 87fb 663d cb6f bdbd 3ebd 7c3d 5674 07bd
00000220: d22a ec3d a5a8 ec3d 91cf 2dbd d2e5 5bbe
00000230: 71de 22be 5005 053e 3361 93bb b0a0 4f3e
00000240: 7f55 8bbd 9818 483d 77f9 eabb 13ea 523d
00000250: 26c2 b63d ce17 52bd 4cad 0a3d 3d8a e73d
00000260: 94e5 303d 9d1a e03c fe69 10be 694e 083d
00000270: 0d68 923d 4d0e f0bc 303d ee3b eaff 013e
00000280: 6a62 b63d 1493 b9bd a2b5 613d 6244 143d
00000290: 504d 883d 5ec3 3bbd 6c25 a9bb b620 00be
000002a0: 734e 0cbd a5c1 f2bd 5baf 87bd ff36 b83d
000002b0: e8df 573e efde 9c3d 7275 aa3d 969d 453e
000002c0: a93a a3bb bfd1 823d e70b 313e 7f65 5c3d
000002d0: f1c7 d83d 4928 843e 8e7a 593e e801 c33d
000002e0: cc01 8c3a edae 843d 0110 333e 6ba0 1b3e
000002f0: 3417 093e 8264 f13c bfe8 853d 0ca9 543e
00000300: 7f0d 4dbe 392e b83d 2cd9 3b3e bb88 1cbe
00000310: 1ce9 c5bd dc56 263e 915c 3b3e 0118 a4bd
00000320: 7d4d 58bd 8ee5 f5bd b8c8 92be db5c 5fbe
00000330: 4851 dc3d f782 fa3d 72e8 0f3d 0f63 943c
00000340: 278f b2bb 009b 5bbe 415b 75bd 2ec0 e53b
00000350: e40b bfbd 0c06 523d f3ad a33d 141c c7bd
00000360: e8fb 27bd cbab b03c bf29 b8bd 11b0 213e
00000370: a398 473e d1cc 043e 7924 67bc 4b6b 2ebd
00000380: 82c1 753d e09b 793d 4101 22be b361 5dbe
00000390: 9934 073e 667d b5bc b948 403e b79a 383e
000003a0: fe8f 82bd 3b13 82bd 0078 91be eaf8 02be
000003b0: ed4c 8a3d 9589 3fbe 001d 1bbe 90cf 60be
000003c0: 9ed4 f6bd 1a69 8c3d 1193 053e 2a4e bdbc
000003d0: 8323 ea3d b0b0 b4bd 7c92 943d c26c 0fbd
000003e0: 5830 49be 6cfa 143e c452 7d3d 4dc3 813d
000003f0: 4925 393e f39a 0d3e 8a75 5e3e ed88 e7bd

block2.1.conv.bias f4 [16]
0.059290703 0.048263535 0.056166023 -0.016487936 -0.08418549 -0.018313028 -0.023001112 0.06463767
0.10051953 0.065812156 0.10188611 -0.01613807 -0.019127887 0.016287882 0.112340935 0.0039760475
00000000: cfda 723d fcaf 453d 580e 663d b511 87bc
00000010: 7169 acbd 3405 96bc d46c bcbc c160 843d
00000020: 2fdd cd3d 86c8 863d aaa9 d03d fc33 84bc
00000030: 16b2 9cbc 2a6e 853c 0113 e63d 8149 823b

block2.1.BN.weight f4 [16]
1.0163225 1.0448378 0.9687587 1.0190136 1.0423043 1.0323251 1.0420403 0.943984
0.9408791 0.9877967 1.1132166 0.93131214 1.0714731 0.98363024 1.0493419 1.0469106
00000000: db16 823f 3fbd 853f 9200 783f 0a6f 823f
00000010: 3a6a 853f 3b23 843f 9461 853f efa8 713f
00000020: 74dd 703f 3fe0 7c3f e27d 8e3f 796a 6e3f
00000030: 0826 893f 31cf 7b3f d650 863f 2b01 863f

block2.1.BN.bias f4 [16]
0.025441825 0.07329244 -0.18000913 -0.28653184 -0.1459312 -0.06710985 -0.07606401 -0.3118618
-0.28258544 -0.022453003 0.104900666 -0.17421937 -0.031431846 -0.04400994 -0.1694078 -0.010565425
00000000: 606b d03c 591a 963d 5054 38be 4db4 92be
00000010: fd6e 15be e470 89bd 73c7 9bbd 5aac 9fbe
00000020: 0aaf 90be 5cef b7bc 29d6 d63d 9066 32be
00000030: aebe 00bd c443 34bd 3d79 2dbe 9b1a 2dbc

block2.1.BN.running_mean f4 [16]
-0.26694247 -0.94181615 0.39612812 -0.13055675 -1.6804018 -0.4230414 0.12747175 0.48051462
0.67256993 0.41535133 0.12825458 0.37760788 0.14814231 -0.15011069 0.80989206 0.0432716
00000000: afac 88be dd1a 71bf 4ed1 ca3e abb0 05be
00000010: 6817 d7bf e298 d8be f487 023e 0306 f63e
00000020: 8b2d 2c3f eea8 d43e 2b55 033e d255 c13e
00000030: 9eb2 173e 9eb6 19be 1655 4f3f 903d 313d

block2.1.BN.running_var f4 [16]
0.8794058 0.52417916 0.3495784 0.31489456 0.80208665 1.2915773 0.7643361 0.7993416
0.5331725 0.52036756 0.7496486 0.42886406 0.4539416 0.8857642 0.63229483 0.8289873
00000000: bd20 613f 9b30 063f f1fb b23e dc39 a13e
00000010: 8d55 4d3f 6852 a53f 88ab 433f a7a1 4c3f
00000020: fe7d 083f cf36 053f f8e8 3f3f 1294 db3e
00000030: 096b e83e 71c1 623f 13de 213f 8338 543f
