result/model/0518 1146.pt (torch, 79197 bytes, 98 tensors)

input_conv.conv.weight f4 [4, 1, 3, 3]
0	0x3e3a0131	0.18164517
1	0xbdf93575	-0.12168399
2	0xbe85d189	-0.26136425
3	0x3eb7af66	0.35876006
4	0xbe162bb6	-0.14665112
5	0x3e944161	0.2895613
6	0x3e281853	0.16415529
7	0xbe9c6d57	-0.3055217
8	0xbe8fe781	-0.2810631
9	0xbea1b9a0	-0.31586933
10	0x3e5c983f	0.21542452
11	0x3ee3be59	0.4448116
12	0x3dbc1fea	0.091857746
13	0xbe9b7518	-0.30362773
14	0x3e20d12f	0.15704797
15	0x3e0fcf60	0.14043951
16	0xbeafc139	-0.34327105
17	0xbe0384fc	-0.12843698
18	0x3e69248b	0.22767846
19	0x3e47ff75	0.19531043
20	0x3c2955b1	0.010335372
21	0xbe230904	-0.15921408
22	0xbea78977	-0.32722065
23	0xbcaf2d72	-0.021383975
24	0xbd8ed87c	-0.06974885
25	0x3dd3336e	0.10312544
26	0xbec8e4fc	-0.392372
27	0x3dee0271	0.116215594
28	0xbe9f365e	-0.31096166
29	0x3e308be9	0.17240871
30	0x3e8a8191	0.27051976
31	0xbe47416e	-0.19458553
32	0x3d3e291d	0.046425927
33	0x3ec41c84	0.38303006
34	0xbe0ed582	-0.13948634
35	0xbe91cb93	-0.28475627

input_conv.conv.bias f4 [4]
0	0xbe1f8845	-0.15579326
1	0x3e87f309	0.2655261
2	0xbebb9c8f	-0.36642882
3	0x3e486827	0.19570981

input_conv.BN.weight f4 [4]
0	0x3f88f364	1.0699277
1	0x3f75dc70	0.96039486
2	0x3f85e3e6	1.0460174
3	0x3f3f53b4	0.74737096

input_conv.BN.bias f4 [4]
0	0x3f1a7d88	0.60347795
1	0x3eca292e	0.39484543
2	0xbd758445	-0.059940595
3	0x3e98b721	0.29827216

input_conv.BN.running_mean f4 [4]
0	0xbe339760	-0.17538214
1	0x3e84e6cd	0.25957337
2	0xbee22900	-0.44171906
3	0x3e53344c	0.20625418

input_conv.BN.running_var f4 [4]
0	0x3b46677f	0.003027409
1	0x3b16bffb	0.0023002613
2	0x3c187e61	0.009307475
3	0x3b1f58ec	0.0024314476

block1.0.conv.weight f4 [8, 4, 3, 3]
0	0x3e85bd59	0.26121023
1	0x3e5a4e25	0.21318872
2	0x3e21f307	0.15815364
3	0xbd23e807	-0.0400162
4	0xbdc2d290	-0.09512818
5	0xbe7dac5d	-0.24772783
6	0xbe0bfe9a	-0.13671342
7	0xbe4fe23e	-0.20301148
8	0x3dd6255d	0.10456345
9	0xbe08d30d	-0.1336176
10	0x3de7100e	0.11282359
11	0x3dc4c278	0.096074045
12	0xbe109d79	-0.14122571
13	0xbd34a5d7	-0.04410347
14	0xbd899798	-0.06718367
15	0x3d8285f6	0.06373207
16	0xbe5b2727	-0.21401654
17	0x3b95a566	0.004566836
18	0xbde2ef01	-0.110807426
19	0xbd734970	-0.059396207
20	0xbd9bd11f	-0.07608246
21	0xbe3c6547	-0.18398009
22	0x3df02662	0.11726071
23	0x3d5e7297	0.0543085
24	0xbcbe717d	-0.023247475
25	0xbdd35667	-0.10319214
26	0x3e0a579a	0.1350998
27	0xbd820992	-0.06349482
28	0xbded81f6	-0.11597054
29	0x3d0da18d	0.034577895
30	0xbda7a5b7	-0.081859045
31	0xbe047f26	-0.12939128
32	0xbdd120ba	-0.1021132
33	0x3e7db0bc	0.2477445
34	0x3de10c8f	0.109887235
35	0x3e2ae43d	0.16688628
36	0xbc95de8b	-0.018294593
37	0xbcc81728	-0.024425104
38	0x3c518803	0.012788775
39	0xbbcabde2	-0.0061871866
40	0xbdb7d63b	-0.08976408
41	0xbe0dcc78	-0.1384753
42	0xbda5aade	-0.08089231
43	0xbdc1421a	-0.09436436
44	0xbe3fe4a5	-0.18739565
45	0xbcef1e5b	-0.02918928
46	0x3e0f41d0	0.13989949
47	0xbd8aff08	-0.067869246
48	0xbc45cd80	-0.012072921
49	0x3e6bce29	0.23027863
50	0xbda53cc2	-0.08068229
51	0x3da58736	0.0808243
52	0x3e6e4463	0.23268275
53	0x3eaa106f	0.33215663
54	0x3dc46c0a	0.09590919
55	0x3e50c98f	0.20389389
56	0xbc710090	-0.014709607
57	0xbe20e430	-0.15712047
58	0xbe0ad4f4	-0.13557798
59	0xbd9fbfbb	-0.078002416
60	0x3d32eb33	0.043681335
61	0x3d4d2d80	0.05009222
62	0xbe255278	-0.1614474
63	0xbd922c85	-0.07137398
64	0x3bfce24d	0.007717407
65	0xbea29de1	-0.31761077
66	0x3d992f97	0.0747978
67	0xbe13cd6b	-0.1443383
68	0xbea38e8a	-0.31944686
69	0x3d64bb1b	0.0558425
70	0xbcfc8034	-0.03082285
71	0xbde56293	-0.11200442
72	0xbdbb203f	-0.0913701
73	0xbed346a5	-0.41264835
74	0x3ca19554	0.019724526
75	0xbdcf88cb	-0.10133513
76	0xbe871909	-0.26386288
77	0x3e120293	0.14258794
78	0xbcb607c8	-0.022220507
79	0x3e7c767c	0.24654573
80	0x3e6d54f7	0.23176943
81	0xbcc3e3bb	-0.023912301
82	0xbdf0b5e6	-0.117534444
83	0xbe06cc7e	-0.13163945
84	0xbcfc3495	-0.030786792
85	0x3d757456	0.0599254
86	0x3df7bf72	0.12097062
87	0x3e20cb56	0.15702567
88	0x3ce8373b	0.028346648
89	0xbd599cde	-0.053128116
90	0x3e5dd28e	0.21662351
91	0x3d97825c	0.07397911
92	0xbe8265c6	-0.25468272
93	0xbe5be5b7	-0.21474348
94	0xbe1f5885	-0.15561111
95	0xbe74487e	-0.23855779
96	0xbd0e817f	-0.034791466
97	0xbdd32abf	-0.103108875
98	0xbc29047d	-0.0103160115
99	0x3bb79e69	0.0056036008
100	0xbe6528cc	-0.22378844
101	0xbd4f22d1	-0.050570313
102	0xbd845d39	-0.06463093
103	0xbe01198b	-0.126074
104	0x3c9245fb	0.017855635
105	0xba5559d5	-0.0008138691
106	0x3c8e6fdf	0.017387329
107	0xbc5ab5fc	-0.0133490525
108	0xbe6a7b73	-0.22898655
109	0x3c6141c7	0.013748593
110	0x3e5ac8c0	0.21365643
111	0x3e8ef370	0.27920103
112	0xbc8d9768	-0.01728411
113	0xbdf2bfab	-0.11852964
114	0x3e3b5921	0.18295719
115	0x3e76fa06	0.24118814
116	0x3d730116	0.059327208
117	0xbd467398	-0.048450083
118	0x3dd343ca	0.10315664
119	0x3e42f358	0.19038141
120	0xbd68da1c	-0.05684863
121	0xbe19e58c	-0.15028971
122	0x3db27fe6	0.08715801
123	0xbdee51a6	-0.11636667
124	0xbe8a6245	-0.270281
125	0x3e13644e	0.14393732
126	0xbe1caf69	-0.15301289
127	0xbba5001e	-0.0050354144
128	0x3dd18d0c	0.10231981
129	0x3d7c83d1	0.061649147
130	0x3dd89275	0.105748095
131	0x3e1d9e64	0.15392452
132	0x3ddeab14	0.10872474
133	0xbd754831	-0.0598833
134	0x3cf20e4a	0.02954783
135	0x3d995e7c	0.074887246
136	0xbcc7e2aa	-0.024400074
137	0xbe0c30c2	-0.13690475
138	0x3e4a4cf8	0.19755924
139	0x3e84270d	0.25811043
140	0xbd36392f	-0.04448813
141	0xbd11be30	-0.035581768
142	0xbd48ed74	-0.049054578
143	0xbc4d9176	-0.012546888
144	0xbd732015	-0.059356768
145	0x3e64e01e	0.22351119
146	0x3e8e1274	0.27748454
147	0xbdb7b3c3	-0.08969834
148	0xbe22fa2d	-0.15915747
149	0x3e1e3e9a	0.15453568
150	0xbca51936	-0.020153623
151	0x3e8541f8	0.26026893
152	0x3e41a93b	0.18912213
153	0x3b96f777	0.004607137
154	0xbe009271	-0.12555863
155	0xbe01cf0f	-0.12676643
156	0x3dbf43a6	0.09339075
157	0x3dbece3b	0.09316679
158	0x3daed19d	0.08536074
159	0x3d8ec536	0.06971209
160	0x3e0c54e5	0.1370426
161	0x3ddc0bbd	0.107444264
162	0x3e4dce97	0.20098339
163	0xbe05deb5	-0.13073237
164	0xbb7aad5d	-0.0038250305
165	0x3e667863	0.22506861
166	0xbdbb6f27	-0.0915206
167	0xbe005a89	-0.12534536
168	0xbd1fa6e2	-0.03897751
169	0xbe2fef88	-0.17181218
170	0xbe942acc	-0.289389
171	0x3dba4192	0.09094538
172	0x3df7d911	0.12101949
173	0x3da433ca	0.080176905
174	0x3c7d322e	0.015453858
175	0xbddbacab	-0.10726293
176	0x3e2eae95	0.17058785
177	0xbcee7f65	-0.02911348
178	0x3db6a0a8	0.089173615
179	0x3d012f19	0.031539056
180	0xbe750e3c	-0.23931211
181	0x3e353850	0.17697263
182	0xbc8eed2d	-0.017447079
183	0xbd16b703	-0.036795627
184	0x3db65914	0.08903709
185	0x3d4207cc	0.047370717
186	0x3e00dc03	0.12583928
187	0xbd251a98	-0.040308565
188	0xbd31a6cc	-0.04337196
189	0x3e82d248	0.25551057
190	0xbc2f605d	-0.010704127
191	0x3dc70640	0.09717989
192	0x3e742344	0.23841578
193	0x3c2d0d94	0.010562319
194	0x3e546445	0.20741375
195	0x3e26154c	0.16219062
196	0xbda38f00	-0.079862595
197	0x3dd50a99	0.10402412
198	0xbe12053a	-0.14259806
199	0xbe9cba0f	-0.306107
200	0xbdeb6cda	-0.11495371
201	0xbda353ec	-0.07974991
202	0xbe00fc86	-0.1259633
203	0x3e73a81d	0.23794599
204	0x3e57cc0f	0.21073936
205	0x3e3520e3	0.17688327
206	0x3e27e32e	0.16395256
207	0x3d50716f	0.05088943
208	0x3db1e651	0.086865075
209	0x3cb9162e	0.022593584
210	0xbdcc6cb2	-0.099816695
211	0xbe1f74d4	-0.1557191
212	0x3d9a1d57	0.075251274
213	0x3c97e7eb	0.018543204
214	0xbd65b2fc	-0.056078896
215	0xbe383a7f	-0.17991064
216	0x3cf24477	0.029573662
217	0xbdd634f2	-0.10459317
218	0x3d96a44f	0.07355558
219	0xbd9b789b	-0.07591363
220	0x3c95e433	0.01829729
221	0xbe275dee	-0.16344425
222	0x3e1e46b0	0.15456653
223	0xbca40e30	-0.020026296
224	0x3d02f4c9	0.031971727
225	0x3e985c7b	0.29758057
226	0x3e795b9f	0.24351357
227	0x3d5981ad	0.053102184
228	0xbb302926	-0.0026879995
229	0x3d9758d0	0.073899865
230	0xbd8a68d7	-0.06758278
231	0xbb52b95e	-0.0032153944
232	0x3d127e09	0.035764728
233	0x3e6b90ce	0.23004457
234	0xbe81b592	-0.2533384
235	0x3d849cf1	0.06475247
236	0xbd94bb15	-0.072622456
237	0x3c7ae434	0.015313197
238	0xbdba435e	-0.090948805
239	0xbdde3f1a	-0.108518794
240	0xbdc2aa26	-0.095051095
241	0x3e19e66d	0.15029307
242	0x3e8b3e0c	0.27195776
243	0x3e2149b4	0.15750772
244	0x3d372354	0.044711426
245	0x3dce3dae	0.10070358
246	0x3e2fced4	0.17168742
247	0xbddf2c66	-0.1089714
248	0x3d0f3a02	0.03496743
249	0x3e37f7ee	0.17965671
250	0xbdaff3a7	-0.08591395
251	0xbe44c41a	-0.19215432
252	0xbe625891	-0.22104098
253	0x3deb7cc0	0.114984035
254	0xbdd9dd63	-0.10637929
255	0x3e054361	0.13013984

block1.0.conv.bias f4 [8]
0	0xbe18865c	-0.14895004
1	0x3e3a24d1	0.18178107
2	0x3da4b5bd	0.08042476
3	0x3e390285	0.18067367
4	0xbe913dbf	-0.2836742
5	0xbe03310c	-0.12811679
6	0xbe2f2bfd	-0.17106624
7	0xbe02ef87	-0.12786685

block1.0.BN.weight f4 [8]
0	0x3f7f591c	0.99745345
1	0x3f80ce80	1.0063019
2	0x3f8081d9	1.0039626
3	0x3f828af1	1.0198652
4	0x3f74d642	0.9563943
5	0x3f837af8	1.0271902
6	0x3f6d86d4	0.92783856
7	0x3f8cb152	1.0991614

block1.0.BN.bias f4 [8]
0	0x3dd910d0	0.1059891
1	0xbe702198	-0.23450315
2	0xbe9a5fb0	-0.3015113
3	0x3e13c10f	0.14429115
4	0x3d85daa2	0.065358415
5	0xbe083865	-0.13302763
6	0x3c12da5d	0.008963195
7	0x3bc40f0b	0.0059832386

block1.0.BN.running_mean f4 [8]
0	0xbf0978cb	-0.5369994
1	0xbee22e55	-0.44175974
2	0xbf5c60d7	-0.86085266
3	0x3f8e14d5	1.1100107
4	0x3f878a99	1.0589172
5	0x3f3e83c2	0.74419796
6	0x3f3c9804	0.7366946
7	0xbe41bd17	-0.18919788

block1.0.BN.running_var f4 [8]
0	0x3e2b485e	0.16726825
1	0x3f376315	0.7163556
2	0x3f0d2549	0.5513502
3	0x3eff6c86	0.49887484
4	0x3f0d2a42	0.55142605
5	0x3ee0aadd	0.43880358
6	0x3ee4f19c	0.44715583
7	0x3f02b6fc	0.5106046

block1.1.conv.weight f4 [16, 8, 3, 3]
0	0x3c84d672	0.016215537
1	0xbd63e4dd	-0.055638183
2	0x3e102a4c	0.14078635
3	0x3db500ad	0.088380195
4	0xbeaec72b	-0.34136328
5	0xbe41f199	-0.18939818
6	0xbdb028bc	-0.086015195
7	0xbe53babb	-0.20676701
8	0xbe24c4b8	-0.16090667
9	0x3e9531d8	0.2913959
10	0xbe0ef395	-0.13960107
11	0xbde87cfe	-0.11351965
12	0x3d158b0a	0.03650955
13	0xbdd76638	-0.105175436
14	0xbd9c209b	-0.076234065
15	0x3bd238bc	0.0064154547
16	0x39d8e4c9	0.0004136919
17	0xbe0464ed	-0.12929125
18	0x3eb25381	0.34829333
19	0x3e2fe2eb	0.17176406
20	0xbe288843	-0.1645823
21	0x3d44008a	0.047852077
22	0xbd43d453	-0.04780991
23	0xbdbb9704	-0.09159663
24	0x3e01fd6f	0.12694333
25	0x3d81aeec	0.06332192
26	0xbd491e8d	-0.0491014
27	0x3e0585f4	0.1303938
28	0x3cf9e361	0.03050393
29	0xbe0b3590	-0.13594651
30	0x3dfb6c3f	0.12276506
31	0xbdc60e30	-0.09670675
32	0x3e10881b	0.1411442
33	0x3dae7684	0.08518699
34	0xbc9e6aa9	-0.019337969
35	0xbd02d0ce	-0.031937413
36	0x3d99bc7f	0.07506656
37	0x3e84a20b	0.2590488
38	0x3de87d77	0.113520555
39	0xbe65bf62	-0.22436288
40	0xbd35b390	-0.044360697
41	0xbe3b072f	-0.18264459
42	0xbe187792	-0.14889362
43	0xbe01dc92	-0.12681797
44	0xbcbb4adf	-0.02286285
45	0x3e227bc0	0.1586752
46	0xbdd05227	-0.10171919
47	0x3dfa0eb8	0.12209839
48	0x3d766c0f	0.060161646
49	0x3dab0846	0.083511874
50	0x3dafe0ff	0.085878365
51	0xbd8b0689	-0.06788356
52	0xbe5a3ea5	-0.2131296
53	0xbdbdd14a	-0.09268434
54	0xbc83eafc	-0.01610326
55	0x3de4135d	0.11136506
56	0x3deba87d	0.11506746
57	0xbcc152f3	-0.023599124
58	0xbd65e700	-0.056128502
59	0xbd3f7460	-0.046741843
60	0xbe0c8785	-0.13723572
61	0x3d721802	0.059104927
62	0xbd15c99d	-0.036569227
63	0xbc0ea84a	-0.008707115
64	0xbd996127	-0.074892335
65	0xbd0a404b	-0.03375272
66	0xbe34bcbe	-0.17650124
67	0xbddd97d4	-0.108199745
68	0xbe1fcdbe	-0.15605828
69	0x3dbd21d1	0.092349656
70	0x3cf45fa6	0.029830765
71	0xbd503dce	-0.05084019
72	0x3e15c03f	0.14624117
73	0x3e3120b4	0.17297632
74	0x3deb7ecf	0.11498796
75	0x3db4d689	0.08829982
76	0xbe0a9c7e	-0.1353626
77	0xbdb20fde	-0.08694433
78	0xbe369bcc	-0.1783287
79	0xbe7229c8	-0.23648751
80	0xbe0c4773	-0.1369913
81	0xbdf0650a	-0.11738022
82	0xbcf9dd62	-0.030501071
83	0x3ce3cf91	0.027808936
84	0xbd85bafc	-0.06529805
85	0xbdf200b8	-0.11816543
86	0xbe1a69f4	-0.1507948
87	0x3e32760b	0.17427842
88	0xbb66f325	-0.003524014
89	0xbd7edcc5	-0.06222226
90	0x3e0d5cbe	0.1380491
91	0xbd8e6e8a	-0.069546774
92	0xbe83bce2	-0.25730044
93	0xbd82848c	-0.063729376
94	0xbdedf531	-0.11619032
95	0xbcd36b93	-0.025808131
96	0xbd365747	-0.044516828
97	0xbd43bb61	-0.04778612
98	0xbd80461d	-0.06263373
99	0x3d355d00	0.044278145
100	0x3dca6842	0.09883167
101	0x3d6e71de	0.05821406
102	0x3da73031	0.08163489
103	0xbcb06644	-0.021533139
104	0xbe094dc1	-0.13408567
105	0x3e27931a	0.16364709
106	0xbda2761b	-0.07932683
107	0x3dfd3133	0.123629
108	0x3e52f5f8	0.20601642
109	0xbcda8a60	-0.02667731
110	0xbd1470cc	-0.036240384
111	0x3d829adf	0.063771956
112	0xbdd1e18f	-0.102481
113	0xbdd3ad35	-0.10335771
114	0xbd64e709	-0.055884395
115	0xbc68bbc6	-0.014204925
116	0xbde2bd85	-0.11071304
117	0x3cf90fc8	0.030403033
118	0x3d2427d3	0.04007704
119	0x3d89f602	0.067363754
120	0xbdf1ce08	-0.118068755
121	0xbd7e38ad	-0.06206577
122	0xbd134c23	-0.03596128
123	0xbd70afea	-0.058761515
124	0x3e4b3bec	0.19847077
125	0x3e0aaaf1	0.13541771
126	0x3bc8c586	0.0061270623
127	0x3e3bee45	0.18352611
128	0x3e316cfb	0.17326729
129	0x3e49e6d5	0.19716962
130	0xbd21ac86	-0.03947117
131	0x3ce0f8e0	0.027462423
132	0x3e5e5473	0.21711902
133	0x3d80f833	0.0629734
134	0xbdffae47	-0.12484413
135	0x3dd346a3	0.10316207
136	0xbddf1053	-0.108917855
137	0xbd1f99af	-0.038964923
138	0x3e497c20	0.19676256
139	0x3d03c30f	0.032168444
140	0xbdeaf6eb	-0.11472877
141	0x3dfd3c6b	0.123650394
142	0xbe8f33c8	-0.27969193
143	0xbd801372	-0.06253709
144	0x3e4f39b7	0.2023686
145	0x3e528d04	0.20561606
146	0x3e1d28f6	0.15347657
147	0x3dc776fd	0.09739492
148	0x3de12b5a	0.10994597
149	0xbba363ba	-0.0049862536
150	0x3d1f6239	0.03891203
151	0xbdf3f34d	-0.1191164
152	0x3ca666ad	0.020312632
153	0xbd9f3b05	-0.07774929
154	0x3cf1890c	0.029484294
155	0xbdf1dbf3	-0.1180953
156	0x3dcf4f32	0.10122527
157	0x3e28a573	0.16469364
158	0x3cd07ed3	0.0254511
159	0xbdbd0ad0	-0.09230578
160	0x3dc2048c	0.094735235
161	0x3d1134b8	0.035450667
162	0x3ccf770c	0.02532532
163	0x3e494846	0.19656476
164	0x3ceda3f4	0.029008843
165	0x3da1507f	0.078766815
166	0x3e1a2a41	0.15055181
167	0xbd397664	-0.04527892
168	0x3d886d74	0.066615015
169	0xbd537687	-0.05162671
170	0xbc90002c	-0.017578207
171	0x3d5f4fb3	0.054519366
172	0xbdc19c4f	-0.094536416
173	0xbdbbbb91	-0.09166635
174	0x3d0afaf9	0.033930752
175	0x3d2479be	0.040155165
176	0xbe90d2f2	-0.28285939
177	0x3e08fd31	0.13377835
178	0x3d861830	0.06547582
179	0x3d63aad8	0.05558285
180	0xbe01ec30	-0.12687755
181	0xbea1efb8	-0.31628203
182	0xbd03b41f	-0.0321542
183	0xbe18fed3	-0.14940958
184	0xbe2e2200	-0.17005157
185	0xbe6cb0c5	-0.23114307
186	0xbca00d18	-0.019537494
187	0xbe137640	-0.14400578
188	0xbdd3246a	-0.1030968
189	0x3df93786	0.121687934
190	0x3d07d228	0.033159405
191	0x3cb92931	0.02260265
192	0xbc4e0ae9	-0.012575843
193	0x3d422ddc	0.047407016
194	0xbe21b2bc	-0.15790838
195	0x3c874b98	0.016515538
196	0xbdc9c3df	-0.098518126
197	0xbe1d30e1	-0.15350677
198	0x3e53d8aa	0.2068812
199	0x3cdcf182	0.026970629
200	0x3d501847	0.050804403
201	0xbc97f111	-0.018547567
202	0x3c21c143	0.009872737
203	0xbdfce039	-0.123474546
204	0x3ca781ef	0.0204477
205	0x3d391e78	0.045195073
206	0xbe3887ab	-0.18020503
207	0x3e122b69	0.14274372
208	0xbdbfc29e	-0.09363292
209	0x3d84d63d	0.06486175
210	0xbd1e9cf7	-0.038723912
211	0xbe259105	-0.16168602
212	0x3b15449c	0.002277649
213	0x3e230b13	0.15922193
214	0x3d03c8ef	0.032174047
215	0x3da72d75	0.08162967
216	0xbbd90106	-0.0066224365
217	0xbe04f8b6	-0.129855
218	0xbe0daeb1	-0.1383617
219	0xb913ba3e	-0.00014088393
220	0x3dc2cc81	0.09511662
221	0x3db1372a	0.086531
222	0xbcc2f06b	-0.02379628
223	0xbd76782f	-0.06017321
224	0xbdc4fabb	-0.096181355
225	0x3e113752	0.1418126
226	0x3e07e096	0.13269266
227	0x3d2ce76e	0.042212896
228	0xbdb00838	-0.085953176
229	0xbe348068	-0.17627108
230	0xbd94c17c	-0.07263467
231	0x3d0817e6	0.033225916
232	0xbda67504	-0.08127788
233	0xbd709311	-0.058734003
234	0x3dbf52f7	0.09341996
235	0xbca6ec33	-0.0203763
236	0x3df69d10	0.12041676
237	0x3c384a29	0.01124815
238	0xbd1570a6	-0.036484383
239	0x3d29bb46	0.041438363
240	0xbc95acae	-0.018270817
241	0xbd3bd2a5	-0.045855183
242	0x3d8e57a6	0.06950311
243	0xbd9768ce	-0.07393037
244	0xbdf95ce6	-0.12175922
245	0x3c7297fe	0.014806746
246	0x3e488713	0.19582777
247	0x3e469a29	0.19394745
248	0x3c8222bd	0.015885705
249	0xbd72b2ff	-0.059252735
250	0x3d86116e	0.06546293
251	0x3defa3ed	0.11701188
252	0xbe4225c3	-0.18959717
253	0xbe813b27	-0.25240442
254	0xbe9fed87	-0.31235906
255	0x3e12d063	0.14337306

block1.1.conv.bias f4 [16]
0	0xbdaede8b	-0.085385405
1	0x3cf189e0	0.02948469
2	0x3d8ee316	0.06976907
3	0xbd324bc3	-0.043529283
4	0x3daa643a	0.08319898
5	0x3dbdb4f2	0.09263028
6	0xbde295a8	-0.11063701
7	0x3c48646c	0.012230974
8	0xbe0bc839	-0.13650598
9	0xbdd4e5ad	-0.1039537
10	0x3d770bbc	0.060313925
11	0x3d0a5c9a	0.033779718
12	0x3d26ba5e	0.040705077
13	0xbd15c321	-0.036563043
14	0x3dc81b47	0.09770828
15	0xbda22c9b	-0.07918664

block1.1.BN.weight f4 [16]
0	0x3f8c92cd	1.09823
1	0x3f8807da	1.0627396
2	0x3f58b280	0.8464737
3	0x3f80431f	1.0020484
4	0x3f7da5cf	0.9908113
5	0x3f85d858	1.0456648
6	0x3f7afb18	0.9803939
7	0x3f8baffd	1.0913082
8	0x3f7d674c	0.98985744
9	0x3f6514bd	0.8948477
10	0x3f72e931	0.9488707
11	0x3f85d470	1.0455456
12	0x3f7af0da	0.9802376
13	0x3f7c3309	0.98515373
14	0x3f7cc87f	0.9874343
15	0x3f8b3085	1.0874182

block1.1.BN.bias f4 [16]
0	0x3c69634b	0.014244865
1	0xbd254061	-0.0403446
2	0xbe71a573	-0.2359827
3	0xbd765554	-0.06013997
4	0xbd244775	-0.04010721
5	0x3ab0089b	0.0013430299
6	0xbe4c48e1	-0.19949676
7	0xbda96c13	-0.08272567
8	0xbe0084ab	-0.12550609
9	0xbe581dc1	-0.211051
10	0x3da5dc00	0.08098602
11	0xbdca7eef	-0.09887492
12	0xbe5f2a10	-0.2179339
13	0xba0ec504	-0.0005446228
14	0xbe41ebb1	-0.18937565
15	0xbd3c0797	-0.045905676

block1.1.BN.running_mean f4 [16]
0	0xbf1df660	-0.61704063
1	0x3d6ce924	0.057839528
2	0xbd7de822	-0.061988957
3	0xbf35830a	-0.70903075
4	0xbf1719af	-0.59023565
5	0xbef7e2a9	-0.48415115
6	0x3d54da40	0.051965952
7	0xbf96a79a	-1.1769898
8	0x3ef72e9a	0.48277742
9	0x3eb1b2d1	0.3470674
10	0xbfe90cb8	-1.8207006
11	0xbecf4c15	-0.40487733
12	0x3ec65162	0.38733965
13	0xbf40cc0b	-0.75311345
14	0xbe77268b	-0.24135797
15	0xbef568b3	-0.47931442

block1.1.BN.running_var f4 [16]
0	0x3eec2711	0.46123555
1	0x3f01f343	0.5076181
2	0x3f3e922d	0.74441797
3	0x3f675f93	0.9038021
4	0x3f552c9f	0.8327121
5	0x3f735529	0.9505182
6	0x3f19afcc	0.6003387
7	0x3f908676	1.1291034
8	0x3f55dcca	0.8354002
9	0x3e9e020b	0.30860934
10	0x4015b105	2.3389294
11	0x3efd2958	0.49445605
12	0x3f3aef00	0.73020935
13	0x3f590e20	0.8478718
14	0x3f53a39a	0.8267151
15	0x3f26f8fc	0.6522367

block1.2.conv.weight f4 [8, 16, 3, 3]
0	0xbd3e6062	-0.046478637
1	0xbe388361	-0.18018867
2	0xbe2761a9	-0.16345848
3	0x3e2387ef	0.15969823
4	0x3e295d61	0.16539527
5	0x3d008294	0.03137453
6	0xbd958359	-0.07300443
7	0xbd4aa322	-0.04947198
8	0xbd941f2a	-0.072325066
9	0x3e1c7ee0	0.15282774
10	0x3df67ded	0.12035737
11	0xbb97f303	-0.0046371236
12	0x3d50befe	0.050963394
13	0x3df3cd07	0.1190434
14	0x3e352637	0.17690359
15	0x3c5cd7e7	0.0134792095
16	0xbdd1d26a	-0.102452114
17	0x3ba7ee77	0.005124863
18	0xbc542e41	-0.012950481
19	0x3d1c1114	0.038102224
20	0x3cef6dba	0.029227126
21	0xbe0615e6	-0.13094291
22	0x3d0fee7f	0.035139557
23	0xbc903b99	-0.017606543
24	0xbe7c94c6	-0.24666128
25	0x3c8dd810	0.01731494
26	0xbd25b66b	-0.04045717
27	0xbe26c5ba	-0.16286364
28	0xbe34e226	-0.17664394
29	0xbe4b3109	-0.19842924
30	0xbaf74ead	-0.0018868052
31	0x3d10319a	0.035203554
32	0xbd04eff6	-0.032455407
33	0x3d4d34c9	0.050099168
34	0x3db3ad6b	0.08773311
35	0x3df68966	0.120379254
36	0xbd2f1901	-0.042748455
37	0x3dbad5ba	0.09122796
38	0x3e17a688	0.1480962
39	0xbb49e471	-0.0030806328
40	0x3d7155eb	0.05891983
41	0xbd8d8d66	-0.06911735
42	0xbd3cae3a	-0.046064593
43	0x3cd93620	0.026515067
44	0xbd5d73a0	-0.054065347
45	0xbd80639e	-0.062690005
46	0x3e1a3e97	0.15062939
47	0xbd8b35d9	-0.0679738
48	0x3e078bef	0.13236974
49	0x3d209d9e	0.039212815
50	0x3d9e0f2c	0.077177376
51	0x3d29e19c	0.041474923
52	0xbe13a0db	-0.1441683
53	0xbdaaefdb	-0.0834653
54	0x3de599bf	0.11210965
55	0xbdbe0afa	-0.09279437
56	0x3d8dee6a	0.069302395
57	0xbdb6ad08	-0.08919722
58	0xbd89949f	-0.067178
59	0x3de297a6	0.11064081
60	0xbdc60c74	-0.09670344
61	0xbe247afc	-0.1606254
62	0xbe9bb12b	-0.30408606
63	0xbdd6c89c	-0.10487482
64	0xbe03f5fa	-0.12886801
65	0x3de9ca57	0.114155464
66	0x3e5e689f	0.21719597
67	0x3d13e4bd	0.036106814
68	0x3e8ce655	0.2751948
69	0x3e35904b	0.17730825
70	0x3d7b6594	0.06137617
71	0x3dd46acb	0.10371932
72	0x3e2a8eb4	0.16656
73	0x3e25dd12	0.16197613
74	0x3e118d75	0.14214118
75	0x3d99f5a4	0.07517555
76	0xbda766cc	-0.08173904
77	0xbe297533	-0.16548614
78	0x3e1789a4	0.147986
79	0xbdcb3a40	-0.0992322
80	0xbe405089	-0.18780722
81	0xbddd22b6	-0.10797636
82	0x3c86ab51	0.016439112
83	0x3c4b86c6	0.012422269
84	0xbd6b4c01	-0.05744553
85	0x3bd57363	0.0065139993
86	0x3d7dfda3	0.062009465
87	0xbd028635	-0.03186627
88	0xbd4550f6	-0.048172913
89	0xbe346675	-0.1761721
90	0xbe49d8c6	-0.19711599
91	0xbdb7079d	-0.08936999
92	0x3e0b9cd5	0.13634045
93	0xbd2231f2	-0.039598413
94	0xbd746ca6	-0.059673928
95	0x3dc60767	0.09669381
96	0xbe585b43	-0.21128564
97	0xbe6eb4b3	-0.23311119
98	0xbd7452de	-0.05964934
99	0xbd36a092	-0.044586726
100	0xbc956c2f	-0.018240063
101	0x3e0b79fc	0.13620752
102	0xbd94c231	-0.072636016
103	0xbdc7282d	-0.0972446
104	0xbd8f305d	-0.069916464
105	0xbea0c04c	-0.3139671
106	0xbe735047	-0.23761092
107	0x3e057615	0.13033326
108	0xbdde8415	-0.108650364
109	0xbdfc1d0d	-0.123102285
110	0xbd3b471c	-0.045722112
111	0xbdc46520	-0.095896006
112	0xbdf31b4a	-0.11870439
113	0xbda4bb1a	-0.08043499
114	0xbe2a41a2	-0.166266
115	0xbd0edf89	-0.03488115
116	0x3de7a17f	0.113101
117	0x3d59da9e	0.053187005
118	0x3e15417a	0.14575759
119	0x3d99ecdf	0.07515883
120	0xbc259312	-0.010105865
121	0x3cb3172d	0.021861637
122	0x3e3f5c6f	0.18687604
123	0xbe6bbd46	-0.23021421
124	0xbdc08660	-0.0940063
125	0xbceb4918	-0.028721377
126	0xbd163224	-0.03666891
127	0xbd29814b	-0.04138307
128	0x3df3d4ff	0.1190586
129	0x3b8655e4	0.0040995944
130	0xbdce347a	-0.10068603
131	0x3cf2cc27	0.029638363
132	0xbbb8f58d	-0.0056445063
133	0x3dae9588	0.085246146
134	0x3d92c2b4	0.07166043
135	0xbe66875d	-0.22512574
136	0xbe4216e5	-0.18954046
137	0xbae4ad8c	-0.001744674
138	0xbd3326cb	-0.043738168
139	0x3da6d027	0.08145171
140	0xbcbfa5bc	-0.023394458
141	0xbce35541	-0.027750613
142	0x3d827fb2	0.06372012
143	0xbd817c71	-0.063225634
144	0x3ce13d69	0.027495103
145	0xbd746029	-0.059662018
146	0xbdb69c34	-0.08916512
147	0xbd7277de	-0.059196346
148	0xbdc2bb78	-0.09508413
149	0x3d9ead9f	0.07747959
150	0xbdf28912	-0.1184255
151	0xbe45a90c	-0.19302768
152	0x3db0ace7	0.086267285
153	0xbd942c94	-0.07235065
154	0xbe14931b	-0.14509241
155	0xbe954762	-0.29156023
156	0xbe0d1580	-0.13777733
157	0xbcb414be	-0.021982547
158	0xbd29007b	-0.041260224
159	0xbe3114af	-0.17293046
160	0x3d076a82	0.03306056
161	0x3e073331	0.13203122
162	0xbbb7fd57	-0.0056149173
163	0x3dec0030	0.11523473
164	0x3d7022a8	0.0586268
165	0xbcfd78d1	-0.030941399
166	0x3e1475dd	0.14498086
167	0xbd3fce37	-0.04682752
168	0xbdda588a	-0.10661419
169	0xbd5c8611	-0.053838793
170	0xbd13340b	-0.035938304
171	0x3e0414e7	0.12898599
172	0x3e1c2c3a	0.15251246
173	0x3e052543	0.13002495
174	0x3e24d7d3	0.16097955
175	0x3d80af3e	0.06283425
176	0xbca0ad29	-0.01961382
177	0x3d5ba2cc	0.053622052
178	0x3e4e607e	0.20153996
179	0x3d891e8b	0.06695279
180	0xbd35c277	-0.04437491
181	0xbe1d0396	-0.15333399
182	0xbe48038a	-0.195326
183	0xbe2bae3f	-0.16765688
184	0xbe0f5fa6	-0.1400133
185	0xbe058901	-0.13040544
186	0xbe497625	-0.19673975
187	0xbc921bd9	-0.017835544
188	0xbd303549	-0.043019567
189	0x3e2ea1d5	0.17053922
190	0x3e0e573e	0.13900468
191	0x3e45cc31	0.19316174
192	0xbcb9f6aa	-0.022700626
193	0x3d71baf5	0.059016187
194	0x3d13ca15	0.036081392
195	0xbda97157	-0.08273571
196	0xbd085927	-0.033288147
197	0xbd032084	-0.03201343
198	0xbe9ed6d7	-0.31023285
199	0xbdaedfe9	-0.08538801
200	0x3dd8683b	0.105667554
201	0xbe564edd	-0.20928521
202	0xbeb2bb96	-0.34908742
203	0xbd88b9d8	-0.06676072
204	0xbe511aea	-0.20420423
205	0xbe638120	-0.22217226
206	0xbd88d71a	-0.06681652
207	0x3dc99bac	0.09844145
208	0x3d8bdfdf	0.068298094
209	0x3e10833b	0.1411256
210	0x3d943ae8	0.07237798
211	0xbc990b1b	-0.018682053
212	0x3e6098dc	0.21933311
213	0xbca6b461	-0.020349683
214	0xbca0b4ce	-0.019617464
215	0x3d890301	0.06690026
216	0x3c6fcf71	0.01463686
217	0xbc5d6276	-0.013512244
218	0xbd606700	-0.05478573
219	0xbcea4b12	-0.02860025
220	0xbd54dcbf	-0.051968332
221	0x3cd12c4c	0.025533818
222	0xbd2a93b3	-0.041644763
223	0x3d8be652	0.068310395
224	0x3cafc345	0.021455416
225	0x3c4d5f35	0.012534906
226	0xbd393834	-0.045219615
227	0xbd8d7444	-0.069069415
228	0xbd669747	-0.056296613
229	0xbdb7e2ed	-0.089788295
230	0xbc097c5e	-0.008391468
231	0x3caef150	0.021355301
232	0x3e2c588d	0.16830654
233	0x3dc0e13b	0.09417959
234	0xbe2dabc4	-0.16960055
235	0x3dfa099e	0.122088656
236	0x3d14a37f	0.036288735
237	0x3dfda10d	0.123842336
238	0x3d8c3402	0.06845857
239	0x3de520b3	0.111878775
240	0x3d1d7070	0.038437307
241	0x3d43775f	0.047721263
242	0x3de16ecf	0.11007463
243	0xbd556733	-0.05210037
244	0xbde152a7	-0.11002093
245	0xbde9f73d	-0.1142411
246	0x3e0c7b6d	0.13718958
247	0x3e00f749	0.12594332
248	0x3db57358	0.08859891
249	0x3e35f4b7	0.17769133
250	0x3dfc78de	0.12327741
251	0x3adfbde9	0.0017070147
252	0x3d4ed9ef	0.050500806
253	0x3d9379fc	0.07201001
254	0xbdf9434e	-0.121710405
255	0xbd0e7801	-0.034782413

block1.2.conv.bias f4 [8]
0	0x3cc9a9f0	0.024617165
1	0xbd70d14a	-0.058793344
2	0xbbae48ec	-0.0053187516
3	0x3ca0cdef	0.019629447
4	0x3e129093	0.14312963
5	0xbdd87095	-0.10568348
6	0xbdce3414	-0.10068527
7	0x3db7d508	0.08976179

block1.2.BN.weight f4 [8]
0	0x3f89e7b8	1.077384
1	0x3f84b0bc	1.0366435
2	0x3f5c39e6	0.86025846
3	0x3f7c527c	0.9856336
4	0x3f7a649c	0.9780977
5	0x3f816f89	1.0112163
6	0x3f7e55af	0.9934949
7	0x3f8b650d	1.0890213

block1.2.BN.bias f4 [8]
0	0xbdf67d23	-0.12035587
1	0x3dcb55f1	0.099285014
2	0xbdbd710f	-0.0925008
3	0xbd26499a	-0.040597536
4	0xbe152946	-0.14566526
5	0xbdc14b7b	-0.09438225
6	0xbc250692	-0.010072367
7	0x3e1ff705	0.15621574

block1.2.BN.running_mean f4 [8]
0	0xbf16c9d1	-0.589017
1	0xbe8b2456	-0.2717616
2	0xbf03753c	-0.5135076
3	0xc00b3021	-2.1748126
4	0xbfb8c735	-1.4435793
5	0xbfb22077	-1.3916157
6	0xc00ee149	-2.2325003
7	0xbf47512b	-0.7785823

block1.2.BN.running_var f4 [8]
0	0x3f16c14c	0.588887
1	0x40012e78	2.0184612
2	0x3fa95977	1.3230428
3	0x3fc28e4b	1.5199674
4	0x3f887537	1.0660771
5	0x3f7415ed	0.95345956
6	0x3f6fb154	0.93629956
7	0x3f9f0b34	1.2425294

block1.3.conv.weight f4 [4, 8, 3, 3]
0	0x3b540e26	0.0032357066
1	0xbd349675	-0.0440888
2	0x3dd41dfe	0.10357283
3	0xbd96be74	-0.07360545
4	0xbc81faa8	-0.015866593
5	0xbe220512	-0.15822247
6	0x3e9151bf	0.2838268
7	0xbc064aaa	-0.008196512
8	0x3e0609a5	0.13089617
9	0x3df13eae	0.11779533
10	0xbe3ac7a9	-0.18240227
11	0xbcc60279	-0.0241711
12	0x3dde2c47	0.10848289
13	0xbc6f085c	-0.014589395
14	0xbe1e8d1c	-0.15483516
15	0x3e077e0e	0.1323168
16	0x3d3fab10	0.046793997
17	0x3d604fdd	0.054763664
18	0xbc117f93	-0.008880514
19	0x3dad3e39	0.08459134
20	0x3d561525	0.05226626
21	0x3d097c35	0.03356572
22	0xbc9a3bd7	-0.018827362
23	0x3da70861	0.08155895
24	0x3e6ba8d9	0.23013629
25	0x3e354ac1	0.17704298
26	0xbd48a0f0	-0.048981607
27	0xbcc38598	-0.023867413
28	0xbc8bb775	-0.017055253
29	0xbcb920f7	-0.022598727
30	0x3de2b29b	0.110692225
31	0x3e6d877e	0.23196217
32	0x3e7ba162	0.24573281
33	0x3db0dbf7	0.08635705
34	0x3d4d30b9	0.050095294
35	0x3be58b76	0.0070051504
36	0x3e2cb51b	0.16865961
37	0xbda105a4	-0.07862404
38	0x3e656237	0.22400747
39	0x3d9f81ad	0.077884056
40	0xbe18a4bd	-0.14906593
41	0x3e42d58e	0.19026777
42	0xbd945df5	-0.072444834
43	0xbdff077c	-0.124525994
44	0x3d6408ca	0.055672444
45	0xbc7a5118	-0.015278123
46	0x3ddcacc2	0.107751384
47	0xbe8e6736	-0.2781312
48	0xbdb63108	-0.08896071
49	0xbd5cdd50	-0.053921998
50	0xbe675e22	-0.22594503
51	0xbdcb4cdd	-0.0992677
52	0xbd500e5c	-0.050794944
53	0xbeb1f4df	-0.34757134
54	0x3d173b54	0.036921814
55	0xbd972ef9	-0.07382006
56	0xbd307a54	-0.04308541
57	0xbdcd6d61	-0.10030628
58	0xbd4c6e43	-0.04990984
59	0xbd32e97b	-0.043679696
60	0xbe0e52fb	-0.13898842
61	0xbd0909a4	-0.03345646
62	0xbc747cd1	-0.014922337
63	0xbe9023cb	-0.28152308
64	0xbd441a5f	-0.047876712
65	0xbd65faa7	-0.056147244
66	0xbdf34e5e	-0.11880182
67	0x3dd19e5e	0.10235284
68	0xbdaad198	-0.08340758
69	0xbe401e58	-0.18761575
70	0x3e4251fd	0.18976589
71	0x3bc2656c	0.0059325006
72	0xbe0569f4	-0.13028699
73	0x3bc8c5f5	0.006127114
74	0xbd8b8bee	-0.06813799
75	0x3d365238	0.044512004
76	0xbe821b7f	-0.25411603
77	0xbecff344	-0.40615284
78	0x3e102246	0.14075574
79	0x3de1f356	0.11032741
80	0x3e1a4157	0.15063988
81	0xbd147742	-0.036246546
82	0xbd8b90f8	-0.0681476
83	0x3d44a356	0.04800733
84	0x3d2951a7	0.041337635
85	0xbd5001be	-0.05078291
86	0xbddcd25d	-0.10782311
87	0x3d14913b	0.036271315
88	0xbe5a8e1f	-0.21343277
89	0xbe3bceeb	-0.18340652
90	0xbe1479b6	-0.14499554
91	0xbdd3121f	-0.10306191
92	0xbd37867b	-0.044805985
93	0xbe1d5e9e	-0.15368125
94	0x3d7ef54d	0.062245656
95	0xbc440eb6	-0.011966398
96	0xbd832e93	-0.06405368
97	0xbd3e9288	-0.04652646
98	0x3dff2ef1	0.12460125
99	0x3e3db3d9	0.18525638
100	0xbc34a689	-0.011026033
101	0x3b0082a7	0.0019609125
102	0x3e3c6872	0.18399218
103	0x3d21ad3c	0.03947185
104	0xbd12f18b	-0.035874885
105	0xbd76d0f3	-0.060257863
106	0x3d07b855	0.033134777
107	0xbe248dac	-0.16069669
108	0x3e34e031	0.17663647
109	0x3e1ac275	0.15113242
110	0x3d44f1f4	0.048082307
111	0x3a474211	0.0007601092
112	0x3da88615	0.08228699
113	0xbe1c1e17	-0.15245853
114	0x3da31876	0.0796365
115	0xbcde136b	-0.027108869
116	0x3ce0fefe	0.02746534
117	0x3d04a8b5	0.032387454
118	0x3dc53104	0.096284896
119	0x3e2c9841	0.16854955
120	0x3e1d291b	0.15347712
121	0xbde73f6f	-0.11291396
122	0x3da681a6	0.08130197
123	0x3d8ac16e	0.06775175
124	0xbde1c22f	-0.11023366
125	0x3c8df453	0.017328417
126	0xbbddee7a	-0.0067728134
127	0xbdbd9d53	-0.09258523
128	0x3a20a437	0.00061279855
129	0x3e17ec91	0.14836337
130	0xbc298048	-0.010345526
131	0xbd812e74	-0.06307688
132	0x3e03137f	0.12800406
133	0x3df82a19	0.121174045
134	0xbc9d3806	-0.019191753
135	0xbdd0aeb4	-0.10189572
136	0xbe97fbcf	-0.29684302
137	0xbe3f4e25	-0.18682154
138	0xbda51b99	-0.080619045
139	0xbb6726ef	-0.003527101
140	0x3d80e3bf	0.06293439
141	0x3e1d104a	0.15338245
142	0x3e027add	0.12742181
143	0x3e61f86e	0.22067425
144	0x3d9a9dfb	0.07549664
145	0xbd06e3b2	-0.03293199
146	0xbde00e9d	-0.10940287
147	0xbe04630b	-0.12928407
148	0x3983ba5e	0.00025125121
149	0x3d8bd43e	0.06827591
150	0xbd9c3cc9	-0.07628781
151	0x3d9af521	0.07566286
152	0x3d21227a	0.03933952
153	0x3d9efe64	0.07763365
154	0x3e1ce8d0	0.15323186
155	0x3d28a0d1	0.04116899
156	0x3dfd5b02	0.12370874
157	0x3dc44875	0.095841326
158	0xbcd32872	-0.025776122
159	0x3d05085d	0.03247868
160	0xbe122f63	-0.14275889
161	0x3d06a696	0.032873712
162	0x3da4931b	0.08035871
163	0x3cc93cb4	0.024565078
164	0xbbe3248f	-0.0069318484
165	0x3df96df7	0.12179177
166	0xbd0d7ba9	-0.03454176
167	0x3dd206fa	0.10255237
168	0x3e684826	0.22683772
169	0xbdad966b	-0.084759556
170	0x3d3e567f	0.046469208
171	0xbd8ecc4c	-0.0697256
172	0xbcd01a0d	-0.025403047
173	0xbe2bdd36	-0.16783604
174	0x3d9862c7	0.07440715
175	0x3dcef87b	0.10105988
176	0xbdaccfed	-0.08438096
177	0xbd90faa3	-0.07079055
178	0x3d5d64ee	0.054051332
179	0xbc54ce9d	-0.012988714
180	0x3d94f433	0.0727314
181	0x3db6a379	0.08917899
182	0xbe53b45e	-0.20674273
183	0x3ea4e655	0.3220698
184	0x3d07df1e	0.033171766
185	0xba6d6b05	-0.00090567797
186	0x3db8759c	0.09006807
187	0x3b7daf3e	0.0038709189
188	0xbd779d63	-0.06045283
189	0xbe381074	-0.17975026
190	0xbe600fec	-0.21881074
191	0xbd77c935	-0.06049462
192	0x3e2d91b2	0.1695011
193	0xbd60bb2b	-0.054865997
194	0xbd475763	-0.048667323
195	0x3e48ffad	0.19628783
196	0x3da98875	0.0827798
197	0x3db625db	0.08893939
198	0xbe94244c	-0.28933942
199	0xbe8f8757	-0.28032944
200	0xbe84864f	-0.2588372
201	0xbe3bd6f5	-0.18343718
202	0xbd8ab1b4	-0.067721754
203	0xbdb4c147	-0.08825927
204	0x3e112207	0.14173137
205	0xbd25998c	-0.040429637
206	0xbda4fa14	-0.08055511
207	0x3e1968ab	0.14981334
208	0x3df12fab	0.1177667
209	0xbe1a51c8	-0.1507026
210	0x3db08ae5	0.08620242
211	0xbdfcf141	-0.12350703
212	0xbda81fbd	-0.082091786
213	0x3e129e20	0.14318132
214	0xbe65deba	-0.22448245
215	0xbdadd077	-0.08487027
216	0xbe244bc5	-0.16044529
217	0x3c21e232	0.009880589
218	0x3ddbab46	0.10726027
219	0xbd09dd5e	-0.033658378
220	0xbda383a3	-0.07984092
221	0xbda63abd	-0.08116672
222	0xbdf22b4c	-0.118246645
223	0xbe18b416	-0.14912447
224	0x3db99f1d	0.090635516
225	0xbd2ca391	-0.042148177
226	0xbeaa47d9	-0.3325794
227	0xbea29a37	-0.31758282
228	0xbe5a2d1f	-0.21306275
229	0xbe64fba5	-0.2236162
230	0xbd89c0b9	-0.06726212
231	0x3dd6de17	0.10491579
232	0xbd8712fd	-0.065954186
233	0xbbba9412	-0.005693921
234	0x3e196786	0.14980897
235	0xbd89c5b5	-0.06727163
236	0xbb8d3713	-0.004309544
237	0x3d488483	0.048954498
238	0xbe2ee6d6	-0.17080244
239	0xbc516242	-0.012779774
240	0x3c367ac7	0.011137671
241	0x3c2b35f7	0.010449878
242	0x3d2d8559	0.0423635
243	0x3de6a127	0.11261206
244	0xbdaf8f85	-0.08572296
245	0x3d0b9e55	0.034086544
246	0x3e103477	0.14082514
247	0xbe613d5c	-0.21996063
248	0xbe40e89a	-0.1883873
249	0x3dec777a	0.11546226
250	0xbe164f95	-0.14678796
251	0xbcde3208	-0.027123466
252	0xbd3476d3	-0.044058632
253	0xbd81d06f	-0.06338584
254	0x3d371e87	0.044706848
255	0xbe2aa404	-0.1666413

block1.3.conv.bias f4 [4]
0	0xbe136bb2	-0.14396551
1	0xbd2711e8	-0.04078856
2	0x3da6997b	0.08134743
3	0xbc847d2d	-0.01617297

block1.3.BN.weight f4 [4]
0	0x3f83712e	1.0268915
1	0x3f7d9a6b	0.9906375
2	0x3f7087e0	0.9395733
3	0x3f8a2b8a	1.0794537

block1.3.BN.bias f4 [4]
0	0x3bc4fc21	0.0060115014
1	0xbde4badf	-0.11168455
2	0xbe277c99	-0.16356124
3	0xbd1b8a7a	-0.03797386

block1.3.BN.running_mean f4 [4]
0	0xbea715fd	-0.32633963
1	0xbe6107c6	-0.21975622
2	0xbdc6abe0	-0.09700751
3	0xbf3376b1	-0.70102984

block1.3.BN.running_var f4 [4]
0	0x3ef90f4d	0.48644486
1	0x3ef2ed69	0.47446755
2	0x3edd5311	0.43227437
3	0x3f10320b	0.5632636

block2.0.conv.weight f4 [8, 4, 3, 3]
0	0xbd9bc321	-0.07605577
1	0x3e3e9159	0.18610133
2	0xbd086d8d	-0.0333076
3	0x3d9f0139	0.07763905
4	0x3e586165	0.21130903
5	0x3e68b72f	0.22726129
6	0xbbe2bd85	-0.006919565
7	0xbe651ad4	-0.22373515
8	0xbe66e353	-0.22547655
9	0x3d7e0092	0.062012263
10	0x3c527a63	0.012846562
11	0xbdb1a380	-0.08673763
12	0x3e23b40f	0.15986656
13	0x3cf4d7c2	0.029888038
14	0x3d4579a3	0.048211705
15	0x3dcac7e6	0.09901409
16	0xbd164044	-0.036682382
17	0x3dbe0e42	0.09280063
18	0x3ea371c6	0.3192274
19	0x3e058446	0.1303874
20	0x3ddad838	0.10685772
21	0x3e17260c	0.14760607
22	0xbe080a79	-0.13285245
23	0xbe2f53a0	-0.17121744
24	0xbc52b140	-0.0128596425
25	0xbe01ae6e	-0.12664196
26	0xbeb4fea7	-0.35350534
27	0xbe624961	-0.22098304
28	0xbe573e4c	-0.21019858
29	0x3da5ba9e	0.08092235
30	0xbcdbf84a	-0.026851792
31	0x3e0c211b	0.13684504
32	0x3d3ad87e	0.04561662
33	0xbdb878bb	-0.090074025
34	0xbd40815a	-0.04699836
35	0xbdad8b7e	-0.08473872
36	0x3d863508	0.06553084
37	0xbdfd9045	-0.12381033
38	0xbd8512b9	-0.06497712
39	0xbd288396	-0.041141115
40	0xbe0e2650	-0.13881803
41	0xbd7f88dd	-0.062386382
42	0x3e81fb5c	0.25387084
43	0x3e16ee6a	0.14739385
44	0x3d4fd2db	0.050738197
45	0xbc556bc3	-0.013026181
46	0x3e187f12	0.14892223
47	0x3e6393ae	0.22224304
48	0x3d486b02	0.048930176
49	0x3d941380	0.07230282
50	0x3d3d351e	0.046193235
51	0xbe10926f	-0.1411836
52	0xbe4fea3b	-0.20304196
53	0x3e069a73	0.13144855
54	0x3dc6f4e9	0.09714682
55	0x3e4177e2	0.18893388
56	0xbdb8d52a	-0.09025033
57	0xbe0ea29b	-0.13929217
58	0x3df40281	0.1191454
59	0x3b04b5d2	0.0020249975
60	0xbb18975a	-0.0023283572
61	0x3e70ecb9	0.23527803
62	0x3e00ab2c	0.12565297
63	0x3e66c0ea	0.22534528
64	0xbd3e7e08	-0.04650691
65	0x3cf24ceb	0.029577693
66	0x3e4a22ff	0.19739912
67	0xbe411cca	-0.18858638
68	0xbbe05943	-0.0068465783
69	0x3dd5ef50	0.10446036
70	0x3d77d1e9	0.06050292
71	0xbdde2aca	-0.10848005
72	0xbd29aa9e	-0.04142248
73	0xbe5841b5	-0.21118815
74	0xbe6d5290	-0.23176026
75	0x3e4e4b7f	0.20145987
76	0x3c422445	0.011849468
77	0x3dcbebd8	0.09957093
78	0x3d108faf	0.035293277
79	0x39f62013	0.00046944674
80	0xbd8fe8aa	-0.07026799
81	0xbc3664fe	-0.011132477
82	0xbce55d04	-0.027998455
83	0x3e26030e	0.16212103
84	0x3d2f0e14	0.042738035
85	0xbde0720d	-0.109592535
86	0x3d4be381	0.04977751
87	0x3e0f1a6a	0.1397492
88	0xbe99a7c7	-0.30010816
89	0xbe54365e	-0.20723864
90	0x3d8dcff4	0.069244295
91	0x3d8d4b70	0.06899154
92	0x3d374d6b	0.044751566
93	0xbe3d5d79	-0.18492688
94	0x3c045749	0.008077451
95	0x3d8fc0b4	0.07019177
96	0xbcb65594	-0.022257604
97	0xbce64be6	-0.028112363
98	0x3d770843	0.060310613
99	0xbc214c09	-0.009844788
100	0xbd10dbe0	-0.03536594
101	0xbe8eb344	-0.27871144
102	0x3e4d44a1	0.20045711
103	0x3e1298ef	0.14316152
104	0xbe8c8335	-0.27443853
105	0xbc5f43ec	-0.013627034
106	0x3e53b7f3	0.2067564
107	0xbe93244d	-0.28738633
108	0xbe27fd97	-0.1640533
109	0xbd7ee367	-0.062228587
110	0xbde0a0dc	-0.109681815
111	0xbdf5bd4d	-0.11998997
112	0xbe070e7f	-0.13189124
113	0x3db3ecb9	0.08785386
114	0xbe95b9cc	-0.29243314
115	0x3db1b839	0.08677716
116	0x3e5e786c	0.21725625
117	0xbe56130f	-0.20905708
118	0xbd0bb7a4	-0.03411068
119	0xbe4d0a9a	-0.20023575
120	0xbe4130e8	-0.18866313
121	0xbe3481ef	-0.1762769
122	0xbb624e0c	-0.0034531383
123	0xbeb51956	-0.35370892
124	0xbe31dfb7	-0.17370497
125	0x3c2fc99b	0.010729219
126	0xbda6bd1b	-0.08141538
127	0xbcf43ece	-0.029815104
128	0xbda8ba68	-0.08238679
129	0x3d5b8368	0.053592116
130	0xbce2ba3e	-0.027676698
131	0xbe919fba	-0.28442174
132	0xbdadac0f	-0.08480083
133	0xbe52edf1	-0.2059858
134	0x3c8f5e33	0.017500972
135	0x3c80ecae	0.015737858
136	0x3dcf53fc	0.101234406
137	0x3e718322	0.2358518
138	0x3e08e560	0.1336875
139	0x3d6456c7	0.05574682
140	0x3e13c744	0.14431483
141	0x3c13f1ba	0.0090298
142	0xbdc22fb7	-0.09481757
143	0xbcf7283f	-0.030170558
144	0xbd3ee703	-0.04660703
145	0xbe462c03	-0.19352727
146	0x3e1adf89	0.15124334
147	0xbdcbc733	-0.099501036
148	0xbdb43028	-0.087982476
149	0x3e139fd2	0.14416435
150	0xbe854034	-0.26025546
151	0xbeb8a874	-0.3606602
152	0xbe754ea7	-0.23955785
153	0x3d07d68a	0.033163585
154	0xbd9aa369	-0.07550699
155	0x3d0a499a	0.0337616
156	0x3e2d3b33	0.16917114
157	0x3d61e0a7	0.055145886
158	0x3d4245ac	0.047429726
159	0xbe0d5907	-0.13803492
160	0xbcf05567	-0.029337598
161	0xbe0758f5	-0.13217528
162	0xbca00585	-0.019533882
163	0xbc95eb69	-0.018300729
164	0xbe127984	-0.14304167
165	0x3c6b0a50	0.01434572
166	0x3ded23ad	0.1157907
167	0x3dc50812	0.0962068
168	0xbe1750cc	-0.14776915
169	0xbe1e2e31	-0.15447308
170	0xbe2ca311	-0.1685908
171	0xbe19eba5	-0.15031298
172	0xbdaa903b	-0.08328291
173	0xbe4d26bd	-0.20034309
174	0xbe6f0f37	-0.23345648
175	0xbd70448b	-0.058659118
176	0xbde67041	-0.112518795
177	0xbdedc97a	-0.11610694
178	0xbda0d060	-0.078522444
179	0xbe148048	-0.1450206
180	0xbe028c59	-0.12748851
181	0xbe9b9424	-0.3038646
182	0xbd591a79	-0.053003762
183	0xbd10e277	-0.035372224
184	0x3dd094cd	0.101846315
185	0xbde92254	-0.11383501
186	0x3d5e3006	0.054245017
187	0xbdd3c00a	-0.10339363
188	0x3e391461	0.1807418
189	0x3abf1612	0.0014578721
190	0x3e5d12ad	0.21589155
191	0x3e45b593	0.19307546
192	0x3e48a641	0.19594671
193	0x3e4eb7d0	0.20187306
194	0x3d90302c	0.07040438
195	0xbe64c478	-0.22340572
196	0xbd74c9f1	-0.0597629
197	0x3cae21d6	0.021256369
198	0x3dc24692	0.094861165
199	0x3d6d521a	0.057939626
200	0x3e4355f5	0.19075759
201	0xbd72c6c9	-0.059271608
202	0xbd892584	-0.06696609
203	0xbde58a68	-0.112080395
204	0xbe015279	-0.12629117
205	0x3d12436e	0.035708837
206	0x3c4cf30c	0.012509119
207	0x3e5559fd	0.20835109
208	0xbe1685c6	-0.14699468
209	0x3e2b3232	0.16718367
210	0xbe00bc68	-0.12571871
211	0xbda8ca4b	-0.08241709
212	0x3e4be7f3	0.199127
213	0x3e2426d1	0.16030432
214	0x3dc7280a	0.09724434
215	0xbd4b5002	-0.04963685
216	0x3e518c7a	0.20463744
217	0x3e5d1f95	0.21594079
218	0x3e5792e7	0.21052133
219	0xbcb25220	-0.021767676
220	0xbde53332	-0.11191405
221	0x3d813898	0.063096225
222	0x3dc64037	0.09680217
223	0xbac534ff	-0.0015045701
224	0x3de7bc5c	0.113152236
225	0x3e12a63c	0.14321226
226	0xbd783d1f	-0.060605165
227	0x3e70e9dd	0.23526712
228	0x3cb92869	0.022602277
229	0x3d9a3e8c	0.07531461
230	0x3c1f2d9c	0.009715464
231	0xbe9e21c5	-0.3088514
232	0x3dd2915f	0.102816336
233	0xbe21d72c	-0.15804738
234	0x3e0e0b68	0.13871539
235	0xbe33ef5a	-0.17571774
236	0xbd8fbd01	-0.070184715
237	0x3e3899d0	0.18027425
238	0xbe2a2222	-0.16614583
239	0x3d0caf6e	0.03434699
240	0x3e6d62dd	0.23182245
241	0xbe21bd97	-0.15794979
242	0xbd3ffc68	-0.046871573
243	0x3b81b037	0.003957774
244	0x3d1cec88	0.03831151
245	0xbcd4d804	-0.02598191
246	0xbdb41dbf	-0.08794736
247	0x3d914f29	0.07095177
248	0xbda01bdc	-0.07817814
249	0x3d2fede8	0.042951494
250	0x3e51c973	0.20487003
251	0x3dee0a0b	0.11623009
252	0xbc96455e	-0.018343624
253	0x3de9cf3f	0.11416482
254	0xbe069cd9	-0.1314577
255	0x3d8823c3	0.06647446

block2.0.conv.bias f4 [8]
0	0xbdcae738	-0.09907383
1	0x3c11a72a	0.008889953
2	0xbd9aa8fa	-0.07551761
3	0x3df56d4b	0.119837366
4	0x3c9288f9	0.01788758
5	0xbd9622d3	-0.07330861
6	0x3be9b672	0.007132345
7	0x3b46ffa7	0.0030364783

block2.0.BN.weight f4 [8]
0	0x3f870780	1.0549164
1	0x3f6fd02f	0.9367704
2	0x3f866e21	1.0502359
3	0x3f86135e	1.047466
4	0x3f7695e5	0.9632247
5	0x3f6cd49b	0.9251191
6	0x3f8ee654	1.116404
7	0x3f6b6aeb	0.9196002

block2.0.BN.bias f4 [8]
0	0x3c0ee4b8	0.008721523
1	0xbe72c4bd	-0.23707862
2	0xbc8642f9	-0.016389357
3	0xbe067b1c	-0.131329
4	0xbe0e8271	-0.13916947
5	0xbe6b13a8	-0.22956717
6	0x3d9912dc	0.074743
7	0xbe0b6791	-0.13613726

block2.0.BN.running_mean f4 [8]
0	0xbdea82ec	-0.114507526
1	0x3ed32cc6	0.41245097
2	0xbebe3996	-0.3715331
3	0xbefdea05	-0.49592605
4	0xbf80bd46	-1.0057762
5	0x3e25a5f6	0.1617659
6	0x3ee7576c	0.45183885
7	0x3df6aef4	0.120450884

block2.0.BN.running_var f4 [8]
0	0x3e61f415	0.22065766
1	0x3e32c954	0.17459613
2	0x3eab03c2	0.33401304
3	0x3ea112d1	0.31459668
4	0x3f18de43	0.59714144
5	0x3e5cefa9	0.21575798
6	0x3e8dd608	0.27702355
7	0x3eca8983	0.39558038

block2.1.conv.weight f4 [16, 8, 3, 3]
0	0x3b7d156d	0.0038617507
1	0x3daf8aad	0.08571372
2	0xbd1fc249	-0.039003644
3	0xbda97189	-0.08273608
4	0x3d76c7a7	0.060248997
5	0xbd6faf6f	-0.058516916
6	0x3dd17b86	0.10228638
7	0x3e8ec406	0.2788393
8	0x3e17ac7f	0.14811896
9	0xbd58133a	-0.05275271
10	0x3d61cdaa	0.055127777
11	0x3d90bc7f	0.07067203
12	0x3d088556	0.033330284
13	0x3ca2fb97	0.019895358
14	0xbe218868	-0.15774691
15	0x3dc4677f	0.09590053
16	0x3d7582d1	0.05993921
17	0xbcfa4ca1	-0.030554118
18	0xbd2752f9	-0.040850613
19	0x3d1daa17	0.03849229
20	0xbe3bcbb1	-0.18339421
21	0x3de318cc	0.11088714
22	0x3d8756e7	0.06608372
23	0xbd5abc8c	-0.05340247
24	0x3e882a32	0.26594692
25	0x3e331865	0.17489775
26	0x3e3fd565	0.18733747
27	0xbe02a82d	-0.12759466
28	0xbd406521	-0.046971444
29	0x3e38d533	0.18050079
30	0xbe04ef1e	-0.12981841
31	0xbdd03cae	-0.10167824
32	0x3ea7413d	0.3266696
33	0xbd37fd9a	-0.044919588
34	0x3d4fa12e	0.050690822
35	0x3e253fe4	0.16137654
36	0xbd625a0d	-0.05526166
37	0x3d1eb5f2	0.038747735
38	0xbbb75f20	-0.0055960566
39	0x3d1c6f8a	0.03819231
40	0x3dbb19dd	0.091357924
41	0xbd5b2cde	-0.053509586
42	0x3e2d85ea	0.16945615
43	0x3e3f216f	0.18665098
44	0x3df8cda8	0.12148601
45	0xbc9dfd57	-0.01928584
46	0xbe182d81	-0.14861108
47	0xbd477545	-0.04869582
48	0xbcecf5e7	-0.02892585
49	0xbd0151aa	-0.03157202
50	0x3c52bd59	0.012862527
51	0x3daa6901	0.08320809
52	0xbde10fe6	-0.109893605
53	0x3dfabef2	0.12243451
54	0xbdb2e7a5	-0.08735589
55	0x3e187b20	0.14890718
56	0x3ea0dda4	0.31419098
57	0x3ce1d74c	0.027568482
58	0xbd885efc	-0.06658742
59	0x3e3322c4	0.17493731
60	0xbd9d7a3f	-0.07689332
61	0x3e026b8d	0.1273634
62	0x3d270639	0.04077742
63	0x3d8a2ead	0.06747184
64	0xbda557cf	-0.08073389
65	0xbe46056c	-0.19338006
66	0x3ce7ff8b	0.028320095
67	0xbda38a58	-0.07985371
68	0xbe0a63b8	-0.13514602
69	0xbd96083c	-0.07325789
70	0x3e01fc25	0.12693842
71	0x3d423f75	0.0474238
72	0x3e336cb3	0.17521934
73	0x3cb6db4b	0.022321364
74	0xbd9e6f94	-0.077361256
75	0x3d15269c	0.036413774
76	0x3d1ce95b	0.038308483
77	0x3d22380c	0.03960423
78	0x3d39986e	0.045311384
79	0x3ddaf7f0	0.106918216
80	0x3e0e7e92	0.1391547
81	0xbca78b6f	-0.02045223
82	0xbea5dfa0	-0.32397175
83	0xbe05f96e	-0.13083431
84	0xbe0ba73c	-0.13638014
85	0xbe04ae2c	-0.12957066
86	0xbda2c736	-0.07948153
87	0x3d59f2f8	0.05321023
88	0xbb9db2d0	-0.004812576
89	0x3d961936	0.07329027
90	0xbdb6865c	-0.08912346
91	0x3d9d7b95	0.07689587
92	0xbdec86ab	-0.115491234
93	0x3e157ddb	0.14598791
94	0x3d037f43	0.032103788
95	0xbd208ae5	-0.03919496
96	0xbc3073c6	-0.01076979
97	0x3e174b07	0.14774714
98	0xbb2d5e67	-0.0026453973
99	0x3df64051	0.12023986
100	0x3d88b76d	0.06675611
101	0x3dc8155c	0.09769699
102	0xbe098395	-0.13429101
103	0x3e32894d	0.17435189
104	0x3dfc48c6	0.12318568
105	0xbea3461c	-0.31889427
106	0xbe5e83df	-0.21729992
107	0xbd6baa6a	-0.057535566
108	0xbc637b15	-0.0138843255
109	0x3c7e58b6	0.01552408
110	0x3d00637c	0.031344876
111	0x3e11e85f	0.14248799
112	0x3d42f622	0.04759801
113	0x3d308843	0.0430987
114	0x3e93b1bc	0.28846538
115	0x3dd0c998	0.10194701
116	0x3e7f1848	0.24911606
117	0x3da25b7c	0.079276055
118	0xbdff822c	-0.12476
119	0xbda07303	-0.07834437
120	0x3cc0f008	0.023551956
121	0x3cd95a3c	0.026532285
122	0xbe502b40	-0.20328999
123	0xba4f84d0	-0.0007916214
124	0xbd3b69a1	-0.045755032
125	0xbe02b655	-0.12764867
126	0xbe80af5a	-0.25133783
127	0xbddf2685	-0.10896019
128	0xbe3d2f95	-0.18475182
129	0x3d4a87b2	0.049445815
130	0x3d36a885	0.044594306
131	0xbd099afc	-0.03359507
132	0x3dd3f3ad	0.10349212
133	0x3e37a3b3	0.1793354
134	0xbc95400f	-0.018219022
135	0x3da6fddc	0.081538886
136	0x3d26adad	0.040692974
137	0x3d973ba1	0.0738442
138	0xbe316bc7	-0.1732627
139	0xbe1b406c	-0.15161294
140	0x3d8ce66c	0.06879887
141	0xbe76c142	-0.2409716
142	0xbe10c655	-0.14138158
143	0x3dd2f75c	0.10301086
144	0x3cede041	0.029037597
145	0x3c0b6742	0.008508505
146	0xbcfd02b4	-0.030885078
147	0xbe6e7e43	-0.23290353
148	0xbda0f133	-0.07858505
149	0xbcce0d79	-0.025152909
150	0xbe878e5f	-0.26475808
151	0xbd090f1e	-0.033461682
152	0xbdd13029	-0.10214264
153	0xbe938ed9	-0.28819922
154	0xbc9d3902	-0.019192223
155	0xbeae2cca	-0.34018546
156	0xbe5571c3	-0.20844178
157	0xbd023c9f	-0.031796094
158	0xbe34c5be	-0.17653558
159	0xbdd73cb6	-0.105096266
160	0x3d564c49	0.052318845
161	0x3cb4d7d2	0.022075567
162	0x3d6b5ec6	0.05746343
163	0x3e37547d	0.17903323
164	0x3e3ed742	0.18636802
165	0xbca6f986	-0.020382654
166	0xbdbbaa7b	-0.09163376
167	0x3cd7f96f	0.026364056
168	0xbe39cb09	-0.18143858
169	0xbd831b97	-0.06401747
170	0xbdb575f4	-0.088603884
171	0xbc60ceea	-0.013721207
172	0x3dbeb310	0.09311497
173	0xbe99e806	-0.30059832
174	0x3dd69bc7	0.10478931
175	0x3c31f344	0.010861222
176	0x3d393098	0.04521236
177	0x3da5cb9a	0.080954745
178	0x3ceb6a12	0.028737102
179	0xbdd43338	-0.10361332
180	0x3de207f6	0.11036675
181	0xbdf505ce	-0.11963998
182	0x3cc4b8bd	0.024013871
183	0x3c09fcbb	0.008422072
184	0xbe05cb77	-0.13065897
185	0xbdda9974	-0.106738
186	0xbd805a19	-0.06267185
187	0x3c3f327e	0.011669753
188	0xbdbe5394	-0.09293285
189	0xbe2d7ad1	-0.16941382
190	0x3d6570e1	0.056015853
191	0xbe34c8fc	-0.17654794
192	0xbe9d6fed	-0.30749455
193	0x3cc401d5	0.023926655
194	0xbe01c64e	-0.12673303
195	0xbe301eba	-0.17199221
196	0xbda45cbd	-0.08025501
197	0xbd5e6f65	-0.054305453
198	0x3e2e8397	0.17042385
199	0x3daa0602	0.08301927
200	0x3dd67214	0.104709774
201	0x3e0a4920	0.13504457
202	0xbdacc389	-0.08435733
203	0xbcaf3aed	-0.021390403
204	0xbe10c155	-0.1413625
205	0xbe0519db	-0.12998144
206	0x3d56324a	0.052294053
207	0xbd10e402	-0.035373695
208	0xbd7bf689	-0.06151441
209	0xbe0b992c	-0.13632649
210	0x3daa51a6	0.083163545
211	0x3e0eb3b7	0.13935743
212	0x3ddd929f	0.108189814
213	0xbe3f5c64	-0.18687588
214	0x3d830120	0.06396699
215	0xbd705b7c	-0.058680996
216	0xbd191b7a	-0.03737972
217	0xbdbbc02a	-0.09167512
218	0xbd74e661	-0.05979002
219	0x3d15e19c	0.03659211
220	0x3d80de8b	0.06292447
221	0x3de82bca	0.11336477
222	0x3c2ce980	0.010553718
223	0x3ca0a029	0.01960762
224	0x3dd8ec62	0.105919614
225	0xbd3caca8	-0.046063095
226	0xbc90776d	-0.017635072
227	0x3c331ed2	0.010932641
228	0xbbc2f4d8	-0.005949598
229	0x3d28ecc6	0.04124143
230	0x3de3cbb5	0.111228384
231	0x3d93c021	0.0721438
232	0x3db0ada2	0.08626868
233	0xbd9ad134	-0.075594336
234	0xbe179df2	-0.14806345
235	0xbd3ee0b4	-0.046601012
236	0xbd44285d	-0.047890056
237	0x3d62c565	0.05536403
238	0xbdb7c99a	-0.08973999
239	0xbc582492	-0.013192313
240	0xbe789e97	-0.24279247
241	0xbdb4315f	-0.08798479
242	0xbe2e5f8e	-0.17028639
243	0x3dd8666b	0.1056641
244	0x3e013ba1	0.12620403
245	0x3e10b930	0.14133143
246	0x3e375a12	0.17905453
247	0x3d849378	0.0647344
248	0x3bd7e804	0.0065889377
249	0x3e6efd17	0.23338734
250	0x3e27abb8	0.16374099
251	0x3e2b56bc	0.16732305
252	0xbc07e43a	-0.00829416
253	0x3c62b87f	0.013837933
254	0x3dbc5fa7	0.09197932
255	0x3cce5156	0.025185268

block2.1.conv.bias f4 [16]
0	0x3baf4748	0.0053490736
1	0x3bea0fa2	0.007142977
2	0x3d91cfed	0.07119737
3	0xbd78e870	-0.060768545
4	0x3da00932	0.07814254
5	0xbd80be5d	-0.06286309
6	0x3d8c3b82	0.06847288
7	0xbd143598	-0.036183923
8	0x3d95d818	0.07316607
9	0x3ce1b56a	0.027552325
10	0xbdb4dd58	-0.088312805
11	0xbd89a129	-0.06720192
12	0xbb599cf9	-0.0033205135
13	0x3d6a9ab7	0.057276454
14	0x3dc9b0d9	0.09848184
15	0x3db60925	0.08888463

block2.1.BN.weight f4 [16]
0	0x3f902804	1.1262212
1	0x3f71a1fa	0.9438778
2	0x3f6996b4	0.9124558
3	0x3f89c896	1.0764339
4	0x3f68bd6b	0.9091403
5	0x3f6b9eff	0.92039484
6	0x3f820ac7	1.0159539
7	0x3f87f750	1.0622349
8	0x3f7bac11	0.9830943
9	0x3f697cba	0.9120594
10	0x3f87309f	1.0561713
11	0x3f75df06	0.9604343
12	0x3f7623f6	0.9614862
13	0x3f8453af	1.0338038
14	0x3f90eb87	1.1321877
15	0x3f770ecf	0.9650697

block2.1.BN.bias f4 [16]
0	0x3d398c06	0.045299552
1	0xbd1dfe0c	-0.038572356
2	0xbe3ad553	-0.18245439
3	0xbe6e1797	-0.23251186
4	0xbdb9bbcd	-0.09069023
5	0xbe44fdbb	-0.19237415
6	0xbdb45f7a	-0.08807273
7	0xbd76a02f	-0.060211357
8	0x3cd13a84	0.025540598
9	0xbe5234ee	-0.20528004
10	0xbd315aef	-0.04329961
11	0xbddfef65	-0.10934333
12	0xbe32e780	-0.17471123
13	0xbe32b087	-0.17450152
14	0xbdc3193b	-0.09526297
15	0xbd0f3e6e	-0.034971647

block2.1.BN.running_mean f4 [16]
0	0x3f55e3e5	0.83550864
1	0x3c1d93f6	0.009617796
2	0xbf542f72	-0.82884896
3	0xbeef3074	-0.46716654
4	0xbe8800a0	-0.26562977
5	0xbefdf37b	-0.49599823
6	0x3ede17f1	0.4337764
7	0x3c7d7228	0.0154691115
8	0xbf1d2511	-0.61384684
9	0x3cb02fec	0.021507226
10	0xbee124c1	-0.43973354
11	0xbe88ca66	-0.26716918
12	0x3f181722	0.594103
13	0xbf1c37be	-0.61022556
14	0xbf11c55c	-0.5694177
15	0xbf1d4700	-0.6143646

block2.1.BN.running_var f4 [16]
0	0x3f03e8a2	0.51526845
1	0x3f790f1c	0.9728868
2	0x3f3c3548	0.735188
3	0x3f40e6a7	0.7535195
4	0x3f996c3d	1.1986157
5	0x3f5d8223	0.865267
6	0x3f769365	0.96318656
7	0x3f303a1e	0.6883868
8	0x3f62e60b	0.8863227
9	0x3f4733a3	0.77813166
10	0x3ed405cb	0.4141067
11	0x3f0925a1	0.5357304
12	0x3ef9cc64	0.4878875
13	0x3f0a2e19	0.5397659
14	0x3f3804d0	0.71882343
15	0x3f1eb8f1	0.6200095
