result/model/0518 1204.pt (torch, 79197 bytes, 98 tensors)

input_conv.conv.weight f4 [4, 1, 3, 3]
-0.14085527 -0.18922164 -0.08899761 0.032482438 0.2341105 0.04309489 0.19064255 0.25998738
0.14077418 -0.09475831 0.03068776 0.34588525 -0.081223816 -0.20036013 -0.26542068 -0.15566207
-0.036075156 0.19725858 -0.12933013 -0.11120032 -0.2272898 -0.2971742 -0.1944973 -0.15829536
0.45798457 -0.14522152 -0.2084844 -0.25425655 -0.16337381 0.043194406 -0.13741921 -0.1625614
-0.17921631 -0.066634685 0.06932398 0.14946488
00000000: 5d3c 10be 51c3 41be 6144 b6bd 4e0c 053d
00000010: aaba 6f3e 4484 303d cd37 433e 111d 853e
00000020: 1b27 103e a510 c2bd e664 fb3c df17 b13e
00000030: ac58 a6bd 352b 4dbe 38e5 87be e165 1fbe
00000040: 8bc3 13bd 27fe 493e 1e6f 04be febc e3bd
00000050: a8be 68be 3727 98be 4d2a 47be 2e18 22be
00000060: f47c ea3e f3b4 14be ef7c 55be ea2d 82be
00000070: 774b 27be 9eec 303d 9fb7 0cbe 7f76 26be
00000080: 7b84 37be c477 88bd bbf9 8d3d 520d 193e

input_conv.conv.bias f4 [4]
-0.14164521 0.009380117 0.15559904 -0.024547491
00000000: 710b 11be 10af 193c 5b55 1f3e d217 c9bc

input_conv.BN.weight f4 [4]
1.2491633 0.7685979 0.84553754 0.9597728
00000000: 95e4 9f3f d5c2 443f 2675 583f acb3 753f

input_conv.BN.bias f4 [4]
0.037340518 0.14545819 -0.06972826 -0.23882054
00000000: 5ff2 183d fef2 143e b1cd 8ebd 5f8d 74be

input_conv.BN.running_mean f4 [4]
-0.05817404 -0.03724005 -0.026050283 -0.15066053
00000000: e747 6ebd 0689 18bd 6767 d5bc c146 1abe

input_conv.BN.running_var f4 [4]
0.011217491 0.00403474 0.04154649 0.020069137
00000000: 91c9 373c da35 843b a72c 2a3d 0868 a43c

block1.0.conv.weight f4 [8, 4, 3, 3]
-0.2519746 -0.17456359 -0.004343245 -0.11576386 -0.24228907 -0.12741841 -0.09952805 0.12539573
-0.02914102 0.0052443948 0.074167304 0.07409784 0.19633089 0.052345052 0.059559725 0.044959873
-0.38821658 -0.18189923 0.116102435 0.007947214 0.13249435 0.12877196 -0.068565756 -0.033229362
-0.16053021 0.026397316 0.006795509 -0.14254096 -0.16334644 -0.0135744875 -0.009770113 -0.13990447
-0.07263139 0.017769733 -0.21721028 0.023381498 -0.076202415 0.18699487 0.22529343 -0.15617879
0.092456505 0.030084642 0.016797977 0.029430307 0.27044952 0.18669654 -0.0014496353 0.08104423
0.027536724 -0.06940579 -0.065868914 0.04023471 0.21427855 0.011366914 0.09131578 0.09754356
0.13072605 0.11131736 -0.25284812 0.15404063 0.09767546 0.045084234 -0.061507583 -0.010518348
0.20228516 0.16771314 -0.13564764 -0.12842971 -0.27207014 -0.010062318 0.06414742 0.05363712
0.19372664 -0.22563992 -0.25564367 -0.08940857 -0.075881824 0.11067541 -0.12053013 0.13058679
0.09909425 0.008125975 0.11077826 0.009324677 -0.2607637 0.15424658 -0.19212395 0.00084858795
0.06407597 0.12599257 0.12712762 -0.13177185 -0.12037376 -0.24035464 -0.19556521 0.01132155
0.12902102 0.18165666 0.21716931 -0.15914643 -0.13929223 0.06852061 -0.2291349 -0.04035676
-0.24704733 0.0565374 0.18806338 -0.10479149 -0.21979922 -0.118793234 0.05620465 -0.1807726
-0.19034654 0.11645882 0.14035907 0.10711247 0.16091575 0.22452609 -0.095969304 -0.045101553
0.16265886 0.092482746 -0.10444436 -0.04444825 -0.13796727 -0.10556087 -0.117183484 -0.11688929
-0.073285274 0.03546564 -0.12314474 0.011857905 -0.011197815 -0.22765611 -0.30685908 -0.0473207
-0.1285427 -0.19051443 -0.016051194 0.06228027 0.15909 -0.052724093 -0.06611553 -0.17609027
0.28314534 0.14548635 -0.12098732 0.19669145 -0.12959349 -0.27867213 0.08452051 -0.04473192
-0.12144037 0.10906242 -0.016765969 0.06245208 -0.121472135 -0.114436924 0.12220668 0.08126641
0.0045250147 -0.08329574 0.052660156 -0.017359305 0.08740747 0.0086637195 -0.13947763 0.122944705
-0.054196656 0.15512393 -0.09056461 0.05109273 0.084248796 -0.02611264 0.1975244 -0.069266304
-0.080591746 0.015563441 0.008393972 0.036497135 0.051143736 0.20393571 0.32133374 -0.029844053
-0.16335343 0.11847646 -0.026512166 -0.20355852 -0.07669838 0.06299501 0.11981613 -0.18210615
0.08840842 0.124300234 -0.10809285 -0.06992784 0.041593704 0.016599651 -0.049940724 -0.17435429
0.033641364 0.07897156 -0.038323343 -0.04748143 0.012107194 -0.06340863 0.18176138 -0.038533542
-0.028259462 -0.22316474 0.14395484 -0.05292183 -0.0806135 0.14474571 0.15761092 0.14816688
-0.15285753 -0.044665996 0.043152593 0.15056604 0.099232085 -0.11923334 -0.15434156 -0.092814766
0.023528546 0.044391736 0.05021503 -0.23112504 0.14367706 0.12213261 0.023608051 -0.058056302
-0.11242868 -0.28661862 0.048827708 0.08120215 -0.14195971 0.18114175 -0.24564421 0.04017419
-0.1203756 -0.027309224 -0.05487987 0.27405685 0.14412421 -0.016033368 0.2751686 0.27600762
-0.047484774 -0.17130925 -0.20911625 -0.2624917 -0.092041545 0.19554532 0.119767174 -0.19292176
00000000: d102 81be ccc0 32be c851 8ebb 9a15 edbd
00000010: a01a 78be f979 02be 5dd5 cbbd bd67 003e
00000020: 26b9 eebc 2cd9 ab3b 07e5 973d 9cc0 973d
00000030: f70a 493e c467 563d e6f4 733d d827 383d
00000040: 53c4 c6be cb43 3abe 1dc7 ed3d 0835 023c
00000050: 99ac 073e ccdc 033e 346c 8cbd 831b 08bd
00000060: 0862 24be 2f3f d83c dcac de3b 42f6 11be
00000070: 4a44 27be 8767 5ebc d312 20bc 1e43 0fbe
00000080: c4bf 94bd d591 913c 5f6c 5ebe 8e8a bf3c
00000090: 0310 9cbd 957b 3f3e 52b3 663e 55ed 1fbe
000000a0: d659 bd3d 1174 f63c e99b 893c d417 f13c
000000b0: 5c78 8a3e 612d 3f3e b001 beba 84fa a53d
000000c0: b294 e13c 9f24 8ebd 48e6 86bd 27cd 243d
000000d0: d66b 5b3e 4b3c 3a3c c503 bb3d ebc4 c73d
000000e0: 0ddd 053e 5bfa e33d 4f75 81be d4bc 1d3e
000000f0: 120a c83d 3faa 383d 60ef 7bbd 2655 2cbc
00000100: d723 4f3e febc 2b3e 37e7 0abe 1483 03be
00000110: c74c 8bbe 6cdc 24bc b95f 833d 99b2 5b3d
00000120: 4760 463e 270e 67be bae3 82be d71b b7bd
00000130: ee67 9bbd caa9 e23d 80d8 f6bd 8bb8 053e
00000140: edf1 ca3d cf22 053c b6df e23d 88c6 183c
00000150: d282 85be d1f2 1d3e 24bc 44be c673 5e3a
00000160: 433a 833d 3204 013e be2d 023e 33ef 06be
00000170: 8586 f6bd 871f 76be 3f42 48be 067e 393c
00000180: 161e 043e 3404 3a3e a261 5e3e 48f7 22be
00000190: 9fa2 0ebe 8954 8c3d 57a2 6abe 214d 25bd
000001a0: faf9 7cbe c393 673d b093 403e ec9c d6bd
000001b0: 0c13 61be de49 f3bd d936 663d 741c 39be
000001c0: 34ea 42be f681 ee3d 4aba 0f3e c85d db3d
000001d0: 19c7 243e 2bea 653e 8e8b c4bd 68bc 38bd
000001e0: 0b90 263e 9867 bd3d ede6 d5bd 5e0f 36bd
000001f0: 4b47 0dbe 4c30 d8bd e5fd efbd a763 efbd
00000200: 9716 96bd 6b44 113d 4f33 fcbd a947 423c
00000210: 0a77 37bc af1e 69be a21c 9dbe 5ad3 41bd
00000220: b3a0 03be 3716 43be cb7d 83bc 9919 7f3d
00000230: 7de8 223e 38f5 57bd 9467 87bd 0251 34be
00000240: 6df8 903e 60fa 143e 33c8 f7bd 7c69 493e
00000250: 28b4 04be 1dae 8ebe 1719 ad3d d138 37bd
00000260: bbb5 f8bd 1e5c df3d c958 89bc c1cd 7f3d
00000270: 62c6 f8bd e85d eabd 7f47 fa3d 016f a63d
00000280: 9346 943b f596 aabd 2db2 573d 1a35 8ebc
00000290: b002 b33d 46f2 0d3c 39d3 0ebe 6fca fb3d
000002a0: 50fd 5dbd cfd8 1e3e f079 b9bd 9c46 513d
000002b0: a28a ac3d 2dea d5bc d643 4a3e 7edb 8dbd
000002c0: 490d a5bd cefd 7e3c df86 093c 057e 153d
000002d0: 187c 513d 86d4 503e db85 a43e 847b f4bc
000002e0: 1f46 27be c9a3 f23d 0b30 d9bc a571 50be
000002f0: 0a14 9dbd 8703 813d 2962 f53d 097a 3abe
00000300: 790f b53d 1f91 fe3d c95f ddbd 5436 8fbd
00000310: 295e 2a3d fefb 873c a58e 4cbd ee89 32be
00000320: 87cb 093d d7bb a13d f0f8 1cbd e37b 42bd
00000330: 415d 463c 62dc 81bd a81f 3a3e 59d5 1dbd
00000340: 6380 e7bc 4c85 64be e668 133e 90c4 58bd
00000350: b118 a5bd 3838 143e c264 213e 0fb9 173e
00000360: af86 1cbe b1f3 36bd c6c0 303d fc2d 1a3e
00000370: 313a cb3d 9c30 f4bd b70b 1ebe ab15 bebd
00000380: f0be c03c 1cd4 353d 46ae 4d3d 0bac 6cbe
00000390: 1420 133e a920 fa3d ac65 c13c 72cc 6dbd
000003a0: 0241 e6bd adbf 92be 90ff 473d 504d a63d
000003b0: e35d 11be 397d 393e 288a 7bbe b18d 243d
000003c0: 7c87 f6bd 98b7 dfbc b7c9 60bd 2e51 8c3e
000003d0: 4c95 133e 6958 83bc e6e2 8c3e df50 8d3e
000003e0: 657f 42bd b16b 2fbe 9222 56be 5065 86be
000003f0: 4780 bcbd 083d 483e 7e48 f53d 488d 45be

block1.0.conv.bias f4 [8]
-0.09589464 -0.08686412 0.07445841 0.2801672 0.13399525 0.1173326 -0.19395621 0.108269185
00000000: 6964 c4bd d1e5 b1bd a77d 983d 1372 8f3e
00000010: 0d36 093e 134c f03d 759c 46be 3cbc dd3d

block1.0.BN.weight f4 [8]
0.93408954 0.98097384 0.9864059 1.1089748 1.0811558 1.0696929 0.91701686 0.87690675
00000000: 7e20 6f3f 1a21 7b3f 1985 7c3f e3f2 8d3f
00000010: 5063 8a3f b2eb 883f 9ec1 6a3f f67c 603f

block1.0.BN.bias f4 [8]
-0.09825969 -0.29707187 0.031308454 -0.07709085 -0.053858187 0.07629051 -0.09349563 0.08243576
00000000: 603c c9bd ce19 98be 4b3d 003d cfe1 9dbd
00000010: 679a 5cbd 333e 9c3d a37a bfbd 14d4 a83d

block1.0.BN.running_mean f4 [8]
-0.90646374 0.62093145 -0.2742881 -0.31943482 0.2741165 0.35702562 -0.49363738 -0.03738573
00000000: 020e 68bf 5df5 1e3f 7d6f 8cbe f68c a3be
00000010: ff58 8c3e 10cc b63e 0abe fcbe c721 19bd

block1.0.BN.running_var f4 [8]
0.6102339 0.25508317 0.09328671 0.19882241 0.1475248 0.22368516 0.10215929 0.16489442
00000000: 4a38 1c3f 439a 823e 1a0d bf3d 1a98 4b3e
00000010: be10 173e b90d 653e e438 d13d 15da 283e

block1.1.conv.weight f4 [16, 8, 3, 3]
-0.07738384 -0.045834947 -0.11380902 -0.042006478 -0.025983738 0.10298612 0.16224638 0.06685666
0.061778452 -0.13969244 -0.18769732 -0.012236038 0.15282899 0.018918948 0.087098114 0.08734079
0.23496184 0.12320667 0.043244746 -0.060953863 0.040891197 0.10901575 0.14333867 0.18578753
-0.094278365 -0.13348159 -0.014391421 0.12803406 -0.12073568 0.048786685 0.06946263 0.008302313
-0.07368719 0.1298682 0.13701512 0.087432146 0.06313053 0.065897726 0.01601527 -0.12687631
0.03201236 0.16122755 -0.08981456 -0.3733185 -0.061586373 -0.025067251 -0.08254805 -0.024892442
0.01950505 -0.1573375 -0.10874533 0.12334673 -0.20525445 -0.43741027 0.03238829 -0.18969768
0.01383926 -0.20207681 0.018893633 0.05475916 0.09074302 0.13192426 -0.029445574 -0.116110295
0.037085082 0.20818217 -0.06928067 -0.13597454 -0.022694148 -0.048287 0.073883094 0.14183494
-0.06415165 0.19522414 0.17333286 0.10983684 0.070413806 -0.09275475 0.098831974 0.17123581
0.09302076 0.063615024 -0.12773924 -0.0866914 0.16903245 -0.027357528 -0.04396495 0.04071631
0.20481297 0.18028781 0.10789769 0.027186727 0.119832374 0.12817726 -0.010395872 -0.13263431
0.08687073 -0.1162487 -0.09412864 -0.22159268 0.076040976 0.09660716 -0.09075731 0.05213386
-0.20495601 0.1277627 -0.10789465 -0.10455651 -0.22410709 -0.14425404 0.002543851 0.03662882
-0.22995384 0.23955289 -0.01681737 -0.017961264 0.17816287 -0.11161713 -0.18902616 -0.15529191
0.03630257 -0.09231967 -0.029986281 0.063536175 -0.02617007 0.13912 0.027779162 -0.085143976
-0.018535363 -0.20905727 0.055929177 0.11271586 0.0041502733 0.10339843 0.087549895 0.1342249
0.059836548 0.05324011 0.0069670617 0.13616058 -0.04589219 0.10742541 -0.024835857 -0.12880148
0.28815165 0.13417119 -0.060630944 0.031331055 -0.16736998 -0.027808167 -0.11209467 0.020036465
-0.036936417 0.12051597 0.08929698 -0.08982377 0.09031311 -0.106579594 -0.17597923 -0.119676895
-0.031414617 -0.089905664 0.05667112 -0.28242674 -0.30562368 -0.20459148 -0.025484698 -0.019196384
0.052750595 0.07279043 -0.12534884 0.23939769 0.086068526 -0.12260375 -0.059971657 -0.11110528
0.11097591 -0.100802 0.0832093 0.022943366 -0.21540119 -0.2767725 0.06842159 0.014569018
0.044371948 0.15103114 -0.24852741 0.0041839043 -0.061353173 0.15826888 -0.086617716 0.06989315
0.10663946 0.19531451 0.17637308 -0.06698732 -0.11571731 0.07897331 -0.1312135 -0.013704763
0.0937041 0.049632903 0.124660335 0.13505624 0.14871775 0.21396221 0.17883769 0.039738324
0.011804226 0.052927934 -0.010371433 0.050136566 -0.080111906 -0.009235362 0.015486599 -0.039455537
-0.05474421 -0.10667669 -0.056047723 0.10134949 0.011674558 -0.006429036 -0.05107294 -0.0439286
-0.15541312 0.025962127 0.075126864 0.17109735 0.091978826 0.060653668 -0.017456422 0.106012106
-0.03603762 -0.061201684 -0.10085038 0.10733383 0.16986124 -0.040596135 -0.09491698 0.2809932
0.14010058 -0.003897333 0.10103478 -0.18424083 -0.10165634 0.20526302 0.063895516 0.06212496
0.20397267 -0.10204009 0.064526394 0.016497422 -0.23103216 -0.13025182 0.12252402 -0.09487015
00000000: 6b7b 9ebd 6dbd 3bbd b414 e9bd fc0e 2cbd
00000010: d9db d4bc 63ea d23d ea23 263e 25ec 883d
00000020: 670b 7d3d 890b 0fbe ba33 40be aa79 48bc
00000030: 347f 1c3e e9fb 9a3c 7f60 b23d badf b23d
00000040: d699 703e c753 fc3d 6721 313d c2aa 79bd
00000050: 877d 273d a643 df3d 5fc7 123e 163f 3e3e
00000060: 0415 c1bd 66af 08be ffc9 6bbc 5c1b 033e
00000070: 4544 f7bd 8cd4 473d 6c42 8e3d 6d06 083c
00000080: 4fe9 96bd 2bfc 043e b14d 0c3e a00f b33d
00000090: 944a 813d 63f5 863d 7532 833c ddeb 01be
000000a0: 641f 033d d618 253e b2f0 b7bd 9a23 bfbe
000000b0: fe41 7cbd d659 cdbc f40e a9bd 3ceb cbbc
000000c0: 0ec9 9f3c 151d 21be dfb5 debd 369d fc3d
000000d0: 392e 52be 3df4 dfbe 95a9 043d 1c40 42be
000000e0: 10be 623c 39ed 4ebe d2c6 9a3c 244b 603d
000000f0: 7ad7 b93d 2717 073e d837 f1bc 3ccb edbd
00000100: 87e6 173d b52d 553e 06e3 8dbd e93c 0bbe
00000110: 14e9 b9bc 97c8 45bd 0550 973d 2e3d 113e
00000120: f161 83bd d6e8 473e 2b7e 313e 23f2 e03d
00000130: 1d35 903d 34f6 bdbd 6b68 ca3d 7158 2f3e
00000140: ab81 be3d 9848 823d 13ce 02be 438b b1bd
00000150: d816 2d3e e51c e0bc 9714 34bd 25c6 263d
00000160: 7eba 513e 5e9d 383e 77f9 dc3d b3b6 de3c
00000170: ad6a f53d e640 033e 7353 2abc 4ad1 07be
00000180: 48e9 b13d cc13 eebd 84c6 c0bd 31e9 62be
00000190: 5fbb 9b3d fad9 c53d f8de b9bd 508a 553d
000001a0: fddf 51be 3ad4 023e dff7 dcbd b921 d6bd
000001b0: 547c 65be 55b7 13be bdb6 263b 1a08 163d
000001c0: 0579 6bbe 5a4d 753e 95c4 89bc 8023 93bc
000001d0: 5470 363e 8697 e4bd 1390 41be d804 1fbe
000001e0: 01b2 143d 1812 bdbd caa5 f5bc 411f 823d
000001f0: 9d62 d6bc 7975 0e3e 2091 e33c f75f aebd
00000200: 79d7 97bc 1c13 56be fe15 653d 93d7 e63d
00000210: 04ff 873b 8ec2 d33d 5c4d b33d 4172 093e
00000220: 2b17 753d 4d12 5a3d f34b e43b ae6d 0b3e
00000230: 73f9 3bbd da01 dc3d 9174 cbbc 89e4 03be
00000240: 9d88 933e 2c64 093e 2758 78bd fe54 003d
00000250: 0963 2bbe f4cd e3bc e491 e5bd 8323 a43c
00000260: a44a 17bd 14d1 f63d 56e1 b63d 86f5 b7bd
00000270: 14f6 b83d 6746 dabd e633 34be 2919 f5bd
00000280: 9dac 00bd 7620 b8bd fa1f 683d 3d9a 90be
00000290: b57a 9cbe 6e80 51be 49c5 d0bc bc41 9dbc
000002a0: 0211 583d 2613 953d 725b 00be ab24 753e
000002b0: b244 b03d ad17 fbbd d7a4 75bd 2a8b e3bd
000002c0: 5747 e33d 4771 cebd a369 aa3d baf3 bb3c
000002d0: 2192 5cbe 20b5 8dbe 9e20 8c3d e4b2 6e3c
000002e0: 5cbf 353d e8a7 1a3e f87d 7ebe 2219 893b
000002f0: 774d 7bbd 3d11 223e a164 b1bd 2424 8f3d
00000300: ca65 da3d 8700 483e 259b 343e a630 89bd
00000310: 32fd ecbd c2bc a13d d55c 06be f189 60bc
00000320: efe7 bf3d df4b 4b3d eb4d ff3d 2f4c 0a3e
00000330: 7749 183e e918 5b3e 3a21 373e a7c4 223d
00000340: 8366 413c f6ca 583d f1ec 29bc 005c 4d3d
00000350: b611 a4bd ea4f 17bc 81bb 7d3c 219c 21bd
00000360: 773b 60bd 4f79 dabd 4c92 65bd 5290 cf3d
00000370: a546 3f3c aaaa d2bb dc31 51bd 7aee 33bd
00000380: 9e24 1fbe 87ae d43c 1ddc 993d 2534 2f3e
00000390: 655f bc3d fb6f 783d c500 8fbc e01c d93d
000003a0: 2f9c 13bd 9eae 7abd a58a cebd d7d1 db3d
000003b0: 1bf0 2d3e 2248 26bd d563 c2bd 57de 8f3e
000003c0: 8776 0f3e 666a 7fbb 53eb ce3d a1a9 3cbe
000003d0: 3331 d0bd 7830 523e a7db 823d be76 7e3d
000003e0: 36de 503e 65fa d0bd 6a26 843d 9a25 873c
000003f0: b293 6cbe bc60 05be e0ed fa3d 484b c2bd

block1.1.conv.bias f4 [16]
0.03952231 -0.009647877 -0.015494043 -0.03437235 0.04243526 -0.18756461 0.03629692 0.0755328
-0.05130975 -0.066709004 0.101927124 -0.0795946 0.28792518 0.009447073 -0.09529797 0.10279706
00000000: 25e2 213d 2112 1ebc bada 7dbc 05ca 0cbd
00000010: 98d0 2d3d f010 40be 14ac 143d f1b0 9a3d
00000020: 2c2a 52bd bb9e 88bd 2bbf d03d 7e02 a3bd
00000030: ee6a 933e e5c7 1a3c 952b c3bd 4487 d23d

block1.1.BN.weight f4 [16]
1.0397819 1.0415711 1.0487123 0.96310186 0.9960398 1.0355586 0.99512243 1.0286475
0.92625785 1.068468 1.0060815 1.0254653 0.97944415 1.1024334 0.9119981 0.9739126
00000000: 9317 853f 3452 853f 343c 863f d88d 763f
00000010: 77fc 7e3f 2f8d 843f 58c0 7e3f b9aa 833f
00000020: 3c1f 6d3f 8fc3 883f 47c7 803f 7242 833f
00000030: dabc 7a3f 8a1c 8d3f b578 693f 5652 793f

block1.1.BN.bias f4 [16]
0.07022819 -0.010285468 -0.08110132 -0.09176204 -0.08991324 -0.212101 -0.024847122 -0.14749926
-0.13883154 -0.058414735 -0.028376872 -0.070231274 0.030267382 -0.09154251 -0.08572284 -0.18278505
00000000: ccd3 8f3d 6184 28bc 7318 a6bd bded bbbd
00000010: 6f24 b8bd 0131 59be 318c cbbc 0c0a 17be
00000020: db29 0ebe 4a44 6fbd 9d76 e8bc 6ad5 8fbd
00000030: 4df3 f73c a47a bbbd 758f afbd 012c 3bbe

block1.1.BN.running_mean f4 [16]
-0.025551073 0.109899215 -0.04385918 -0.29560965 -0.5164857 0.2568377 -0.21817228 -0.44128725
-0.3248213 -0.4028893 -0.07078535 -0.4494752 0.00925956 -0.19201902 -0.16342352 -0.031671755
00000000: 7c50 d1bc d712 e13d afa5 33bd 265a 97be
00000010: 6838 04bf 3b80 833e 8e68 5fbe 67f0 e1be
00000020: fa4e a6be 8247 cebe e9f7 90bd 9d21 e6be
00000030: 69b5 173c a2a0 44be 7f58 27be 3eba 01bd

block1.1.BN.running_var f4 [16]
0.42920467 0.51775545 0.52795684 0.5584364 0.6577388 0.4026445 0.3669132 0.85795474
0.76838404 0.5832453 0.5653267 0.61959344 0.5332563 0.5875722 0.517353 0.3108307
00000000: b7c0 db3e 9f8b 043f 2e28 073f b0f5 0e3f
00000010: 9261 283f 6b27 ce3e 0cdc bb3e eca2 5b3f
00000020: d1b4 443f 904f 153f 40b9 103f ad9d 1e3f
00000030: 7c83 083f 226b 163f 3f71 043f 3425 9f3e

block1.2.conv.weight f4 [8, 16, 3, 3]
0.16972817 -0.04166839 -0.15120482 0.10989272 0.088314734 0.031654194 -0.08763268 -0.058199227
0.15692285 0.10836376 -0.018495597 -0.1958938 -0.08740077 0.03263426 0.09381132 0.011617422
0.19866183 0.08728136 -0.1905219 -0.035722554 -0.10169334 0.16160977 0.183646 -0.14733644
0.0026332827 0.0558226 0.0084374435 0.08550149 0.049021482 -0.008084932 -0.12253416 -0.017826516
-0.032826975 -0.01980885 -0.07049077 0.10136936 -0.07521429 0.086643845 -0.02172148 -0.0104459245
-0.07998787 -0.12577374 -0.03124531 -0.18853328 -0.2099605 0.073103234 0.045859754 -0.21399745
-0.06178126 -0.086720064 -0.24490258 0.07773221 0.06684078 -0.19190238 0.042192187 0.03060879
-0.08540185 0.051298786 0.101992436 0.066905916 -0.22814782 -0.031514484 -0.13424473 -0.216348
-0.14507672 -0.25562868 -0.029332943 -0.31998014 -0.092756584 0.081401825 -0.19290648 -0.051407043
0.1868072 0.16028011 -0.036564533 0.14840521 -0.095541626 -0.10840519 0.0950823 -0.0685204
-0.09750339 0.17591758 0.106499955 -0.15153246 -0.18894185 -0.27011028 -0.061120126 0.063518725
-0.023065642 0.003997533 -0.028612463 -0.21012682 -0.091209166 0.1951216 -0.26078978 -0.1320755
0.23821095 0.07908353 0.0118613 0.06673786 0.021585954 0.03565396 0.0057836417 0.047336824
-0.10573097 0.003593925 0.07398662 0.088111 -0.09246659 -0.16059726 -0.11006406 -0.07780198
-0.14045279 -0.14140558 0.14277898 -0.07544484 0.01724091 -0.14552802 -0.037680164 0.03063829
-0.05971174 0.043693528 0.004920427 -0.06421455 0.023119777 -0.15405427 -0.013276712 0.014687624
-0.04480634 0.049307123 0.17638247 -0.018535748 -0.04582105 0.03854314 -0.027570195 0.024066972
-0.1072514 -0.1576092 0.111971445 -0.028133586 -0.039295364 -0.029801117 -0.15461937 -0.018365758
-0.1283646 -0.002129054 -0.15461488 -0.086691946 0.03393164 -0.0523235 -0.09688081 0.07747314
0.089483716 -0.016528403 -0.11868495 -0.14823648 0.05218257 -0.23533632 -0.14022948 0.08523036
-0.031274565 -0.107190244 -0.020933498 -0.053845413 -0.028541403 0.044817362 0.15191147 0.15148601
-0.15557535 -0.15657838 -0.096613675 -0.16828509 -0.10023695 -0.022842662 -0.04998247 -0.07308033
-0.10767094 -0.07134141 -0.094941996 -0.1155356 -0.10894183 0.018961124 -0.05131376 0.041333217
0.121057756 0.20280594 -0.02814291 0.16572718 0.3494811 0.07737316 -0.049811613 -0.099885024
-0.009727312 0.004776477 -0.04084128 -0.031370457 -0.13071887 -0.17781986 0.20498961 0.06121052
-0.101567835 -0.08078165 -0.044261746 -0.077783644 0.027337978 0.06563541 0.15805258 -0.15207505
-0.12945043 0.038417254 -0.0724668 -0.0055478127 0.011594044 -0.0623959 -0.091625825 0.07000636
-0.033326473 -0.18279974 -0.051598184 0.041115284 0.047046576 -0.011350781 -0.0776419 0.084009685
-0.091368385 -0.20139438 -0.14978176 -0.05544399 -0.038226023 0.116922885 -0.07881697 -0.09726235
-0.11319029 -0.037813585 0.017796481 -0.10175576 -0.17273009 -0.104275696 -0.080125496 -0.022816597
-0.076968156 -0.11157363 -0.17324361 -0.029491028 -0.08316089 0.077645145 -0.2806124 -0.26042542
-0.19223723 0.18073551 0.06380237 0.05195546 -0.25926003 -0.2301391 -0.20143756 -0.10532998
00000000: 39cd 2d3e 79ac 2abd 70d5 1abe 6f0f e13d
00000010: 5bde b43d d4a7 013d c378 b3bd 5062 6ebd
00000020: 62b0 203e d2ed dd3d 1484 97bc 6298 48be
00000030: 2dff b2bd 80ab 053d 2620 c03d 0057 3e3c
00000040: 026e 4b3e 92c0 b23d 2c18 43be d051 12bd
00000050: 9944 d0bd 087d 253e b20d 3c3e 5ddf 16be
00000060: 2793 2c3b 3da6 643d 343d 0a3c 681b af3d
00000070: c0ca 483d aa76 04bc 31f3 fabd ea08 92bc
00000080: 9475 06bd 2b46 a2bc 775d 90bd bd9a cf3d
00000090: f309 9abd 5472 b13d 3ff1 b1bc 6225 2bbc
000000a0: aed0 a3bd d5ca 00be 2af6 ffbc de0e 41be
000000b0: e3ff 56be 26b7 953d 70d7 3b3d 2622 5bbe
000000c0: 590e 7dbd 4a9a b1bd bec7 7abe 1132 9f3d
000000d0: d2e3 883d 0f82 44be b7d1 2c3d 49bf fa3c
000000e0: 2ae7 aebd ad1e 523d 69e1 d03d f805 893d
000000f0: 959f 69be 5515 01bd 7377 09be 558a 5dbe
00000100: fe8e 14be c3e1 82be a44b f0bc 70d4 a3be
00000110: 2af7 bdbd 00b6 a63d 4789 45be 3190 52bd
00000120: 634a 3f3e 7820 243e b1c4 15bd 89f7 173e
00000130: 54ab c3bd 8a03 debd 82ba c23d 6c54 8cbd
00000140: dbaf c7bd bd23 343e a61c da3d 532b 1bbe
00000150: f979 41be e54b 8abe 1959 7abd 1b16 823d
00000160: 28f4 bcbc bdfd 823b af64 eabc 7c2b 57be
00000170: dfcb babd f5cd 473e 3d86 85be cd3e 07be
00000180: 92ed 733e 8cf6 a13d e655 423c dcad 883d
00000190: 07d5 b03c e309 123d b484 bd3b 42e4 413d
000001a0: 7b89 d8bd 0e88 6b3b 4c86 973d 8a73 b43d
000001b0: 205f bdbd 9c73 24be 4469 e1bd a556 9fbd
000001c0: dbd2 0fbe a0cc 10be a734 123e d382 9abd
000001d0: cf3c 8d3c 4c05 15be 8456 1abd 27fd fa3c
000001e0: 4c94 74bd fcf7 323d 893b a13b eb82 83bd
000001f0: b065 bd3c 67c0 1dbe 9186 59bc 5ca4 703c
00000200: da86 37bd 44f6 493d 9b9d 343e 48d8 97bc
00000210: daae 3bbd 69df 1d3d e4da e1bc 1928 c53c
00000220: 9fa6 dbbd 4e64 21be 4951 e53d 6878 e6bc
00000230: 2df4 20bd 7921 f4bc 8a54 1ebe c973 96bc
00000240: 0272 03be 9987 0bbb 5d53 1ebe 8c8b b1bd
00000250: e7fb 0a3d 2b51 56bd 7269 c6bd 3daa 9e3d
00000260: 3d43 b73d 9366 87bc 1811 f3bd 4ecb 17be
00000270: 64bd 553d 01fc 70be 5198 0fbe 418d ae3d
00000280: c219 00bd 8f86 dbbd ba7c abbc 028d 5cbd
00000290: a9cf e9bc 6992 373d ae8e 1b3e 261f 1b3e
000002a0: 254f 1fbe 1556 20be 64dd c5bd ed52 2cbe
000002b0: 0849 cdbd 8920 bbbc 6bba 4cbd 24ab 95bd
000002c0: 9582 dcbd 721b 92bd f370 c2bd ee9d ecbd
000002d0: e51c dfbd 5c54 9b3c 612e 52bd 054d 293d
000002e0: 21ed f73d 5cac 4f3e f68b e6bc 63b4 293e
000002f0: 30ef b23e d275 9e3d 4307 4cbd 8590 ccbd
00000300: 4e5f 1fbc fe83 9c3b 3049 27bd 4f7e 00bd
00000310: 2bdb 05be 6916 36be cce8 513e e2b7 7a3d
00000320: cc02 d0bd da70 a5bd ce4b 35bd 084d 9fbd
00000330: e5f3 df3c dc6b 863d 89d8 213e 90b9 1bbe
00000340: a78e 04be 695b 1d3d 7969 94bd 6dca b5bb
00000350: f2f4 3d3c d892 7fbd 52a6 bbbd 7f5f 8f3d
00000360: 5781 08bd db2f 3bbe 9e58 53bd 8068 283d
00000370: e9b3 403d a0f8 39bc b702 9fbd 450d ac3d
00000380: 591f bbbd 543a 4ebe 6460 19be 3d19 63bd
00000390: e492 1cbd 4475 ef3d cb6a a1bd 7c31 c7bd
000003a0: 50d0 e7bd 6be2 1abd edc9 913c 5365 d0bd
000003b0: 28e0 30be 7f8e d5bd d618 a4bd dfe9 babc
000003c0: 7ba1 9dbd b780 e4bd c666 31be 2b97 f1bc
000003d0: 4250 aabd 6b04 9f3d 6eac 8fbe 7b56 85be
000003e0: d6d9 44be bb12 393e d1aa 823d 40cf 543d
000003f0: bbbd 84be 96a9 6bbe a645 4ebe 3fb7 d7bd

block1.2.conv.bias f4 [8]
0.05626525 0.0038437962 -0.04912116 0.035474032 -0.07553243 -0.08326913 -0.11097745 -0.19087839
00000000: 6476 663d 33e8 7b3b 4533 49bd 384d 113d
00000010: bfb0 9abd 0189 aabd 2548 e3bd a075 43be

block1.2.BN.weight f4 [8]
1.0440905 1.0539262 1.0989305 1.0243026 0.9052516 1.0064803 0.87757564 1.0282093
00000000: c2a4 853f 0ee7 863f c1a9 8c3f 591c 833f
00000010: 92be 673f 59d4 803f cca8 603f 5d9c 833f

block1.2.BN.bias f4 [8]
0.12450068 -0.04497592 0.040379055 0.12311776 -0.18484083 -0.016535414 -0.29492363 -0.0053100763
00000000: 36fa fe3d ac38 38bd 8264 253d 2a25 fc3d
00000010: ea46 3dbe 4775 87bc 3b00 97be 2600 aebb

block1.2.BN.running_mean f4 [8]
-1.0786548 -1.3858027 -0.8734164 -0.11340571 0.5218309 0.070586495 -1.3407307 -1.331767
00000000: 5c11 8abf fc61 b1bf 3898 5fbf 4141 e8bd
00000010: b696 053f a78f 903d 109d abbf 5777 aabf

block1.2.BN.running_var f4 [8]
0.94772273 1.1162648 2.2195637 1.0462136 1.1443111 1.0727346 0.95158774 0.5900951
00000000: f59d 723f c4e1 8e3f 550d 0e40 54ea 853f
00000010: c978 923f 5e4f 893f 419b 733f 7910 173f

block1.3.conv.weight f4 [4, 8, 3, 3]
0.010219726 0.0232895 -0.097723216 -0.050403856 0.040639047 -0.18931028 0.06810562 -0.042794283
-0.10515514 -0.1868602 -0.19779707 -0.021355223 0.16536324 -0.024306038 0.047614656 0.16277497
0.031854507 0.16094248 0.10422926 -0.059555046 -0.3098408 0.15937798 0.01146709 -0.12124138
0.047877003 -0.021873804 -0.018637689 -0.2264911 -0.18427269 -0.15122247 -0.092933536 0.12714557
0.08940153 -0.12895812 0.162857 0.024050992 -0.043085955 -0.27104473 -0.059333332 0.11105043
-0.06159604 0.01128927 -0.13263628 -0.17108615 0.03197094 -0.012915914 -0.05979367 -0.12487902
-0.036837373 -0.101202324 0.04340333 -0.01633808 0.022742137 0.20270957 0.22198953 0.141975
0.1972099 0.20693249 0.119337566 0.032946117 -0.04015299 0.022023285 -0.10578622 -0.062260833
-0.0470306 -0.0045725224 -0.14237465 0.04793918 0.017849557 0.086040266 0.16853566 -0.025959011
-0.03229955 -0.14161122 0.2272097 0.17722683 0.067912795 0.018565191 0.015455246 -0.26735926
-0.23823361 0.16571419 0.084520355 0.067360684 -0.009454961 -0.08457973 -0.17692418 0.2084098
0.017569473 -0.30792218 -0.01887717 -0.1052775 -0.03971302 -0.06642616 -0.1202558 -0.055937152
0.13474008 -0.12224343 -0.15598397 -0.087183505 -0.08105098 -0.2810532 0.03981522 -0.11223241
0.02983567 0.06513737 -0.11260527 0.13647972 -0.03505014 -0.071305685 0.04904836 -0.013702238
-0.03023939 -0.013589919 -0.028910985 -0.17511514 -0.086599424 0.15351768 -0.08403289 -0.21523191
0.19759831 0.001264688 -0.0032752294 0.119222045 -0.06521636 0.08409696 -0.017418751 -0.11065208
0.0025465412 0.05381201 -0.03353759 -0.009319062 -0.07933434 0.07880815 -0.077788934 0.055159606
0.0024388812 -0.03777547 0.09950869 -0.06343569 -0.19179055 -0.18660772 -0.3481553 -0.015566959
-0.037588924 0.11749475 -0.013404912 0.12453282 0.039076727 0.09682023 -0.022948205 -0.080209024
-0.0052806726 -0.147136 -0.14133652 -0.00458509 0.07967542 -0.067469776 -0.12865132 0.09612365
-0.12681367 0.007342581 0.28599918 0.109604694 0.09166401 0.22688183 0.097964436 0.09715522
0.02683432 0.19534232 0.17435522 -0.07562749 -0.06777593 -0.06883442 -0.001602318 0.02019127
0.050352212 -0.10422435 0.050137475 -0.007203087 -0.010658963 -0.03845748 0.012425592 -0.052398868
-0.112312496 -0.03550732 -0.1469373 -0.0944448 -0.07574964 0.1639611 0.16604523 0.16448627
-0.13679779 -0.1709206 -0.12081708 -0.11532415 -0.06293217 -0.06696164 -0.0770388 -0.050860424
0.16806462 0.039137676 -0.047940597 -0.03853433 0.02226155 -0.028098827 -0.11621636 0.036972456
-0.08044678 -0.18840575 -0.033816524 0.03945461 -0.22389275 0.26818597 0.1746671 -0.007236933
0.012111542 -0.18871118 -0.27998987 0.11970365 0.09377022 -0.18875916 0.21406068 0.13002037
-0.103209734 0.086118214 0.07694464 -0.05692808 -0.07529628 -0.14180131 -0.217928 -0.029177887
-0.08002399 -0.004796744 0.1197637 -0.008797293 -0.11611799 -0.03226694 -0.1597869 0.022665761
0.16918622 0.056711745 0.00060164806 0.2429049 0.015910756 0.01051605 -0.12028477 -0.24076746
-0.06446037 -0.043390006 -0.1371479 -0.019142702 -0.15836608 -0.0324618 -0.12122542 -0.21192753
00000000: a370 273c 9fc9 be3c 1c23 c8bd 4674 4ebd
00000010: 2175 263d 8eda 41be f67a 8b3d 0f49 2fbd
00000020: 945b d7bd 4858 3fbe 518b 4abe 26f1 aebc
00000030: fb54 293e 751d c7bc 9607 433d 7bae 263e
00000040: df79 023d 1bce 243e 2676 d53d feef 73bd
00000050: 74a3 9ebe fb33 233e 76e0 3b3c 674d f8bd
00000060: ad1a 443d b130 b3bc 11ae 98bc 48ed 67be
00000070: fbb1 3cbe 10da 1abe f053 bebd 7332 023e
00000080: 2618 b73d 990d 04be fcc3 263e 9606 c53c
00000090: e67a 30bd 60c6 8abe 8207 73bd 686e e33d
000000a0: 214c 7cbd a1f6 383c ced1 07be 3531 2fbe
000000b0: f6f3 023d 459d 53bc 35ea 74bd 92c0 ffbd
000000c0: c9e2 16bd 2a43 cfbd b1c7 313d 70d7 85bc
000000d0: b84d ba3c 1993 4f3e 3951 633e e561 113e
000000e0: 64f1 493e 1ce6 533e 4167 f43d 82f2 063d
000000f0: 7677 24bd 2d6a b43c 72a6 d8bd 3705 7fbd
00000100: 29a3 40bd 19d5 95bb a9ca 11be e05b 443d
00000110: 3c39 923c e135 b03d 9d94 2c3e fea7 d4bc
00000120: 884c 04bd 8802 11be a9a9 683e f37a 353e
00000130: dd15 8b3d 0716 983c 0038 7d3c 50e3 88be
00000140: 83f3 73be fbb0 293e 0219 ad3d 66f4 893d
00000150: fbe8 1abc 2338 adbd 9d2b 35be 6169 553e
00000160: dbed 8f3c faa7 9dbe 4ba4 9abc bb9b d7bd
00000170: 1faa 22bd 700a 88bd ac48 f6bd 5b1e 65bd
00000180: 4ef9 093e c35a fabd 43ba 1fbe 448d b2bd
00000190: 0efe a5bd 34e6 8fbe 4915 233d 1bda e5bd
000001a0: ef69 f43c be66 853d 989d e6bd 57c1 0b3e
000001b0: bc90 0fbd b708 92bd efe6 483d 5a7f 60bc
000001c0: 99b8 f7bc 40a8 5ebc bbd6 ecbc 6251 33be
000001d0: 0a5b b1bd bd33 1d3e 7019 acbd c165 5cbe
000001e0: 3657 4a3e e3c3 a53a 3ba5 56bb b02a f43d
000001f0: 2890 85bd 073b ac3d c5b1 8ebc 8f9d e2bd
00000200: dfe3 263b fb69 5c3d b65e 09bd fbae 18bc
00000210: 0b7a a2bd 2b66 a13d ce4f 9fbd 0aef 613d
00000220: a3d5 1f3b 74ba 1abd 36cb cb3d 92ea 81bd
00000230: be64 44be 1816 3fbe 6941 b2be 8f0c 7fbc
00000240: d8f6 19bd 16a1 f03d 47a0 5bbc 100b ff3d
00000250: eb0e 203d af49 c63d e0fd bbbc a144 a4bd
00000260: 7e09 adbb d2aa 16be 85ba 10be 863e 96bb
00000270: de2c a33d 982d 8abd 2cbd 03be 7adc c43d
00000280: 71db 01be 099a f03b 7c6e 923e 6d78 e03d
00000290: 57ba bb3d b653 683e 94a1 c83d 51f9 c63d
000002a0: a6d3 db3c d107 483e 2d8a 323e 96e2 9abd
000002b0: 1bce 8abd 0ff9 8cbd df04 d2ba 2a68 a53c
000002c0: 1f3e 4e3d 9373 d5bd f45c 4d3d e007 ecbb
000002d0: eea2 2ebc 9785 1dbd b694 4b3c 32a0 56bd
000002e0: 1804 e6bd 2070 11bd bb76 16be 466c c1bd
000002f0: a122 9bbd 6be5 273e c307 2a3e 176f 283e
00000300: b814 0cbe cf05 2fbe f26e f7bd 112f ecbd
00000310: 95e2 80bd 2f23 89bd 85c6 9dbd 0553 50bd
00000320: 2219 2c3e d44e 203d 5c5d 44bd 2cd6 1dbd
00000330: db5d b63c 832f e6bc d802 eebd 6e70 173d
00000340: 48c1 a4bd 70ed 40be 3283 0abd 289b 213d
00000350: 2444 65be ac4f 893e efdb 323e cb23 edbb
00000360: 7d6f 463c 813d 41be d55a 8fbe 3027 f53d
00000370: 9a0a c03d 154a 41be b932 5b3e 0f24 053e
00000380: a05f d3bd bf5e b03d 2795 9d3d 6b2d 69bd
00000390: f034 9abd 5d34 11be 8528 5fbe 7706 efbc
000003a0: 9ee3 a3bd 012e 9dbb ac46 f53d 8522 10bc
000003b0: 45cf edbd 572a 04bd 2d9f 23be 8cad b93c
000003c0: 273f 2d3e 934a 683d ebb7 1d3a 10bc 783e
000003d0: 4657 823c 834b 2c3c dd57 f6bd bf8b 76be
000003e0: cc03 84bd b8b9 31bd 8070 0cbe 28d1 9cbc
000003f0: b82a 22be aaf6 04bd 0845 f8bd 8803 59be

block1.3.conv.bias f4 [4]
-0.10941916 0.011348325 0.09885096 0.08027056
00000000: 2717 e0bd 53ee 393c 5f72 ca3d e464 a43d

block1.3.BN.weight f4 [4]
1.016627 1.0317317 0.94775283 0.990104
00000000: d520 823f c90f 843f ee9f 723f 7577 7d3f

block1.3.BN.bias f4 [4]
0.22294581 -0.09056832 -0.021436766 0.21243921
00000000: e84b 643e e27b b9bd 289c afbc aa89 593e

block1.3.BN.running_mean f4 [4]
-0.44430098 -0.74343204 0.32853186 -0.46361494
00000000: 6b7b e3be 9051 3ebf 5435 a83e f05e edbe

block1.3.BN.running_var f4 [4]
0.4802975 0.33641538 0.689533 0.6695538
00000000: 8ee9 f53e a33e ac3e 3c85 303f e167 2b3f

block2.0.conv.weight f4 [8, 4, 3, 3]
-0.13482219 0.0168449 0.17104802 0.20353705 -0.050549503 -0.007802179 0.28075317 0.1655153
-0.06017995 -0.18518975 0.2127128 0.04458564 -0.081124425 0.22825328 0.12943709 -0.25884315
0.10912957 -0.00543554 0.0064215693 -0.0049028057 0.016227547 0.011626206 0.027556598 -0.089203164
0.017811354 0.11020955 0.06550102 0.13840869 0.08021625 -0.10953653 -0.06544555 0.24711849
0.10584063 -0.1799037 -0.108554736 -0.01480213 0.039422948 0.10415717 -0.1336567 -0.0028118845
0.055873733 0.020808462 0.1267871 0.014537044 -0.14017598 0.1550445 0.024011403 -0.08469631
0.009512495 0.16785061 0.074030794 0.14649068 0.25857148 0.33095667 -0.39978462 -0.3246946
0.04825181 0.091232896 -0.10064532 -0.1479706 0.029598739 -0.13278228 -0.045841925 0.009321619
0.07616905 0.02887674 0.04664251 0.050391696 -0.08234818 -0.15099946 -0.15796696 -0.28491995
-0.004208642 0.1814958 0.03417865 0.21511665 0.16576944 -0.25359857 0.21928856 0.05864304
0.20288417 -0.40885106 0.013529015 0.21067607 0.068717614 -0.1567146 0.10067989 -0.033623494
0.10526235 -0.0071358914 0.04111314 -0.063172534 0.14805564 0.15223956 -0.10948362 -0.13497965
-0.04909376 -0.1523291 -0.11327256 0.109653175 -0.030179631 -0.18499447 -0.005540715 -0.0035718037
-0.08547549 0.11938127 -0.07671822 -0.02164586 0.25636595 0.18559594 -0.0049141715 0.0915583
0.049724467 0.06991423 -0.17179371 0.00945662 0.062530935 -0.1699405 0.018077644 0.14366516
-0.09268832 0.017162496 0.11966553 0.05308648 0.16475429 -0.15503916 -0.20654191 0.063627645
-0.06165743 -0.31773713 -0.19199735 0.06468667 -0.2734304 -0.17150694 0.0808132 0.15188786
0.20971784 0.21980104 -0.06846603 0.12585211 -0.08958026 0.1964879 0.13264231 0.050955113
-0.11605235 -0.061028615 -0.0019360557 -0.0001343354 -0.13414167 -0.14910482 0.06460968 0.15637194
0.057410542 0.1403032 0.12860933 0.042381726 -0.13782313 -0.13426521 0.13286752 0.18506771
-0.27209616 0.2786292 0.26314098 0.11464455 0.04969769 0.081911966 0.009300929 -0.08169719
0.11514579 0.011275805 -0.05166106 0.014262974 0.18504676 0.060804956 -0.081570275 0.104090974
0.0018109054 -0.12648082 -0.16861522 -0.1756649 -0.042951606 0.09361557 -0.08945249 0.13995846
-0.06196265 0.034925885 0.18720067 -0.14041983 -0.062327176 -0.054788847 -0.095904745 -0.18245262
0.28505236 0.14713793 -0.098802775 -0.043737877 -0.032278974 -0.28778857 -0.07418631 -0.21464162
0.07511694 0.016901309 -0.044741526 -0.085459374 -0.11274925 -0.06419189 0.060619324 0.26294017
0.08473753 0.29396537 0.025458803 0.12618043 -0.041892122 0.09738881 -0.009800229 -0.2658241
0.09955222 0.04243839 0.13375483 0.09070997 -0.08896316 -0.059941504 0.030147072 -0.29657954
-0.2614643 -0.036178164 0.10343391 0.031886276 0.02921097 -0.08085453 -0.13136606 0.09752954
-0.13455018 -0.21417758 -0.19438542 -0.0882105 -0.08636389 0.0097740255 0.014744411 0.13838236
0.04408581 0.15623876 0.09146697 0.045406986 -0.1318492 -0.011906787 0.09462114 -0.03639889
-0.172175 0.31957301 0.20806183 -0.05969028 -0.19018663 -0.3440063 -0.3681085 0.032846607
00000000: d40e 0abe 51fe 893c 3627 2f3e 046c 503e
00000010: ff0c 4fbd 6ca9 ffbb e1be 8f3e d87c 293e
00000020: 407f 76bd 62a2 3dbe 62d1 593e 6f9f 363d
00000030: 9024 a6bd 3abb 693e 288b 043e 1787 84be
00000040: 537f df3d 9d1c b2bb 076c d23b b7a7 a0bb
00000050: a2ef 843c d87b 3e3c 60be e13c 26b0 b6bd
00000060: 1ee9 913c 8bb5 e13d 6625 863d 02bb 0d3e
00000070: 6b48 a43d b054 e0bd 5108 86bd a10c 7d3e
00000080: f9c2 d83d ad38 38be f251 debd a284 72bc
00000090: f579 213d 5b50 d53d 4ddd 08be 9847 38bb
000000a0: dbdb 643d 8276 aa3c 7ad4 013e c82c 6e3c
000000b0: 4b8a 0fbe fcc3 1e3e 90b3 c43c 4275 adbd
000000c0: 4cda 1b3c 08e1 2b3e 759d 973d a701 163e
000000d0: 7b63 843e 2773 a93e 92b0 ccbe 5f3e a6be
000000e0: b1a3 453d 50d8 ba3d 221f cebd 9b85 17be
000000f0: 0e79 f23c 14f8 07be bec4 3bbd b4b9 183c
00000100: 85fe 9b3d ea8e ec3c 370c 3f3d 8667 4e3d
00000110: 2aa6 a8bd 9a9f 1abe 17c2 21be 07e1 91be
00000120: a6e8 89bb 09da 393e e9fe 0b3d 8a47 5c3e
00000130: 77bf 293e acd7 81be 2e8d 603e af33 703d
00000140: dec0 4f3e ed54 d1be cda8 5d3c 78bb 573e
00000150: d2bb 8c3d cb79 20be 4231 ce3d cab8 09bd
00000160: c993 d73d 32d4 e9bb 4066 283d 9a60 81bd
00000170: e69b 173e b0e4 1b3e f338 e0bd 1b38 0abe
00000180: 8a16 49bd 29fc 1bbe 72fb e7bd d891 e03d
00000190: 463b f7bc 316f 3dbe e38e b5bb ec14 6abb
000001a0: c60d afbd 2b7e f43d 711e 9dbd a952 b1bc
000001b0: 6642 833e dd0c 3e3e 0f07 a1bb eb82 bb3d
000001c0: e2ab 4b3d 312f 8f3d b1ea 2fbe f0ef 1a3c
000001d0: 3810 803d e204 2ebe 9117 943c f61c 133e
000001e0: 60d3 bdbd 5d98 8c3c 3413 f53d 3571 593d
000001f0: 59b5 283e 96c2 1ebe b97f 53be 364f 823d
00000200: 808c 7cbd 71ae a2be f49a 44be 727a 843d
00000210: 12ff 8bbe 849f 2fbe 6481 a53d 7e88 1b3e
00000220: 46c0 563e 8613 613e eb37 8cbd 60df 003e
00000230: db75 b7bd 2034 493e 63d3 073e 4fb6 503d
00000240: dbac edbd 24f9 79bd 40c3 fdba 62dc 0cb9
00000250: 6f5c 09be efae 18be 1452 843d f71f 203e
00000260: 5127 6b3d a4ab 0f3e 2ab2 033e 7698 2d3d
00000270: 8221 0dbe d27c 09be 6c0e 083e 6482 3d3e
00000280: 3050 8bbe 7da8 8e3e 6aba 863e c3ca ea3d
00000290: ce8f 4b3d 76c1 a73d ec62 183c db50 a7bd
000002a0: 8ed1 eb3d 27be 383c 8c9a 53bd 40af 693c
000002b0: e67c 3d3e 9e0e 793d 510e a7bd a62d d53d
000002c0: e75b ed3a 3084 01be 78a9 2cbe 80e1 33be
000002d0: 06ee 2fbd 85b9 bf3d de32 b7bd 4551 0f3e
000002e0: 8ccc 7dbd 720e 0f3d 88b1 3f3e 37ca 0fbe
000002f0: c84a 7fbd 456a 60bd b569 c4bd dcd4 3abe
00000300: 62f2 913e 53ab 163e 1c59 cabd 7d26 33bd
00000310: f536 04bd 0659 93be feee 97bd 03cb 5bbe
00000320: e9d6 993d 9d74 8a3c e442 37bd 5305 afbd
00000330: 14e9 e6bd 0a77 83bd f84b 783d 18a0 863e
00000340: df8a ad3d a182 963e fb8e d03c 7135 013e
00000350: 1397 2bbd c973 c73d 2491 20bc 191a 88be
00000360: 09e2 cb3d e1d3 2d3d 07f7 083e 26c6 b93d
00000370: 5132 b6bd 3985 75bd fef6 f63c 46d9 97be
00000380: a6de 85be 8e2f 14bd 28d5 d33d 2f9b 023d
00000390: d84b ef3c 0f97 a5bd d384 06be 91bd c73d
000003a0: 86c7 09be 5e51 5bbe f90c 47be b5a7 b4bd
000003b0: 8ddf b0bd 3c23 203c 8b92 713c 1bb4 0d3e
000003c0: 5393 343d 0efd 1f3e 0953 bb3d adfc 393d
000003d0: 7a03 07be af14 43bc bac8 c13d 0117 15bd
000003e0: a54e 30be 139f a33e 290e 553e cc7d 74bd
000003f0: 49c0 42be 9821 b0be b878 bcbe 2a8a 063d

block2.0.conv.bias f4 [8]
0.14936407 -0.20379223 0.14170392 0.17449565 0.18903689 -0.05909047 -0.05290072 0.00885118
00000000: e5f2 183e e9ae 50be d51a 113e fdae 323e
00000010: e392 413e d908 72bd 6dae 58bd 8a04 113c

block2.0.BN.weight f4 [8]
1.0770807 0.9988011 0.9619811 1.0003026 0.99708414 1.0086144 1.0654474 0.9662624
00000000: c8dd 893f 6eb1 7f3f 6544 763f ea09 803f
00000010: e840 7f3f 471a 813f 9560 883f f95c 773f

block2.0.BN.bias f4 [8]
-0.11365465 -0.055803943 -0.03748459 0.019262455 0.2161331 0.021035472 -0.0134225385 -0.035326514
00000000: c5c3 e8bd ad92 64bd 7189 19bd 4ccc 9d3c
00000010: ff51 5d3e 9552 ac3c 35ea 5bbc 89b2 10bd

block2.0.BN.running_mean f4 [8]
0.6054395 -0.36514804 0.31864196 0.5828 0.30142736 -0.001489209 -0.17566077 -1.2830427
00000000: 15fe 1a3f aff4 babe 0a25 a33e 6132 153f
00000010: b054 9a3e 9031 c3ba 6be0 33be be3a a4bf

block2.0.BN.running_var f4 [8]
0.17523056 0.5220512 0.1853601 0.32888615 0.17405017 0.23118986 0.3008761 0.34584257
00000000: a46f 333e 26a5 053f 0acf 3d3e c463 a83e
00000010: 353a 323e 09bd 6c3e 6f0c 9a3e 4712 b13e

block2.1.conv.weight f4 [16, 8, 3, 3]
0.28685188 -0.029317485 -0.008531873 -0.180807 -0.31461504 -0.13795474 -0.024049923 -0.019225713
0.09684525 0.08668046 0.07638769 0.06463701 0.15713467 0.14983398 0.07969419 0.14176333
0.06002605 0.028282274 0.047894463 0.13826284 0.0072203074 -0.10499456 -0.023820935 -0.16415708
-0.16572161 -0.062001605 -0.15552522 0.22406721 -0.023179661 0.049773164 0.05848409 -0.050306536
0.09205293 -0.1874115 0.14185171 -0.06592492 -0.023205198 0.09102355 0.053040557 0.025613971
0.11469112 -0.07895721 0.037142735 -0.09517022 -0.0427121 0.23210217 0.13222758 0.057441793
-0.07268526 -0.12940544 -0.07849403 -0.049432494 -0.20435499 -0.05802092 0.15583476 0.18962099
0.11533415 -0.053997003 0.010667675 -0.008801336 0.006453253 -0.24040404 -0.18928961 -0.36653838
-0.15680163 0.010832517 0.04156712 -0.13794824 -0.028515045 0.052091576 -0.08366601 -0.02816228
-0.021470321 -0.19361357 -0.11615289 -0.058460925 -0.13716654 0.1068348 0.07307425 -0.063937224
-0.132904 -0.2056805 -0.005309928 -0.19432458 0.14970484 0.042741466 0.09660519 0.116190106
0.19432935 0.14937878 -0.32452765 -0.33666855 -0.15589948 0.1465641 0.14778177 0.13364637
0.056859978 -0.08924139 -0.0124129625 -0.24952012 -0.085599825 0.14960082 0.020343926 0.055455882
-0.048653536 0.05696253 0.15754798 0.18040614 -0.20902263 -0.09432039 -0.30383316 0.11855252
0.009152415 -0.00047125222 -0.14529116 -0.25052464 -0.19729115 -0.07232916 -0.3022822 -0.27892575
-0.07296479 0.058948357 0.0742582 -0.09540869 -0.15057375 -0.059474856 -0.02512061 0.019171052
0.018451309 0.119230956 -2.1429601e-05 -0.036498815 -0.0068254992 0.15636328 0.045775965 -0.054824438
0.12204328 -0.038624432 0.15930717 0.005116661 0.023503048 -0.02289103 0.03679746 -0.09033073
-0.15529555 0.06332927 -0.05150539 -0.017670488 0.08032038 -0.04231665 -0.034600068 -0.14483698
0.009145269 0.22867994 0.13505359 0.102640614 -0.056284044 0.053956766 0.16455406 -0.018160863
0.0005237618 0.054797906 -0.14929664 -0.16147943 -0.022141492 0.046634473 -0.03291392 0.16599831
-0.04540325 0.077912815 0.10959361 0.097505614 0.086113326 0.08985155 0.083000496 0.028423285
0.15169038 -0.08021028 0.0052199545 -0.0020949203 -0.01738135 0.0526748 0.1385001 0.16212061
-0.07499092 -0.008274395 -0.015984615 -0.097106144 -0.041942794 0.22236557 0.15129337 0.077301614
-0.029929535 -0.18427263 -0.24872017 0.045163825 -0.012663626 -0.22245003 -0.108887374 -0.09419689
-0.059714444 -0.15714043 -0.24317484 -0.08249422 -0.072664805 0.02789276 -0.19396281 -0.09506182
-0.16064456 -0.27061498 0.08549537 -0.0038568475 -0.15428713 0.11820602 -0.01471091 -0.050073523
-0.09613197 -0.030060127 -0.025318442 0.024261937 0.1147431 0.005795853 -0.28065163 -0.21282348
0.08680339 0.15779042 0.0064269165 0.08873272 0.11087961 -0.0146874385 -0.026591657 0.10465549
0.14144543 -0.1760158 -0.21794172 0.21905957 0.069194324 -0.15619454 -0.13336278 -0.010047665
-0.17451893 -0.17229436 0.045191895 -0.22438423 -0.15682937 -0.33219817 -0.07537541 0.10490033
-0.10202745 0.054663688 0.21379112 0.18129247 0.050309308 0.12006792 0.025678227 0.024836475
00000000: 40de 923e 392b f0bc 45c9 0bbc 7825 39be
00000010: 3915 a1be 0244 0dbe 5804 c5bc 3e7f 9dbc
00000020: cd56 c63d 8685 b13d 2671 9c3d 6960 843d
00000030: e9e7 203e 146e 193e b536 a33d 682a 113e
00000040: e0dd 753d 3ab0 e73c fc2c 443d c694 0d3e
00000050: 5498 ec3b 6307 d7bd 1f24 c3bc cb18 28be
00000060: edb2 29be 65f5 7dbd 0142 1fbe e071 653e
00000070: 46e3 bdbc f2de 4b3d 038d 6f3d 3a0e 4ebd
00000080: 3f86 bc3d cde8 3fbe 9341 113e a503 87bd
00000090: d418 bebc 8e6a ba3d 0e41 593d 64d4 d13c
000000a0: 2ee3 ea3d 51b4 a1bd fb22 183d 9be8 c2bd
000000b0: e2f2 2ebd 31ac 6d3e ab66 073e 1648 6b3d
000000c0: 02dc 94bd dc82 04be 7ac1 a0bd ba79 4abd
000000d0: 6f42 51be 58a7 6dbd 2693 1f3e 012c 423e
000000e0: 5034 ec3d f62b 5dbd 79c7 2e3c 7b33 10bc
000000f0: cf75 d33b 7a2c 76be 23d5 41be ebaa bbbe
00000100: 9b90 20be df7a 313c 4942 2a3d 4e42 0dbe
00000110: 6298 e9bc fa5d 553d 1659 abbd 95b4 e6bc
00000120: 87e2 afbc a342 46be 91e1 edbd b974 6fbd
00000130: 6375 0cbe 34cc da3d f4a7 953d 85f1 82bd
00000140: fc17 08be e99d 52be e8fe adbb 06fd 46be
00000150: 3a4c 193e ad11 2f3d f1d8 c53d 14f5 ed3d
00000160: 46fe 463e c0f6 183e 7d28 a6be d25f acbe
00000170: 1da4 1fbe e614 163e 1b54 173e 98da 083e
00000180: 02e6 683d 31c4 b6bd bd5f 4bbc 3482 7fbe
00000190: f64e afbd f530 193e 4ea8 a63c b525 633d
000001a0: ee48 47bd 8b51 693d 4254 213e 63bc 383e
000001b0: 070a 56be 0c2b c1bd 0590 9bbe aacb f23d
000001c0: 03f4 153c 6712 f7b9 35c7 14be c444 80be
000001d0: b106 4abe 5021 94bd bcc4 9abe 5bcf 8ebe
000001e0: 906e 95bd d573 713d af14 983d a265 c3bd
000001f0: 0130 1abe e89b 73bd bdc9 cdbc 9c0c 9d3c
00000200: 3327 973c 5c2f f43d b8c3 b3b7 c87f 15bd
00000210: 70a8 dfbb b21d 203e 947f 3b3d 978f 60bd
00000220: d4f1 f93d a734 1ebd 6b21 233e aaa9 a73b
00000230: 7789 c03c f885 bbbc efb8 163d 51ff b8bd
00000240: cc05 1fbe c7b2 813d 51f7 52bd b3c1 90bc
00000250: 037f a43d 3954 2dbd cdb8 0dbd 2550 14be
00000260: 0ad6 153c 132b 6a3e 7d4b 0a3e 3e35 d23d
00000270: 198a 66bd c501 5d3d dc80 283e 17c6 94bc
00000280: 0f4d 093a c573 603d 38e1 18be dd5a 25be
00000290: 1362 b5bc ca03 3f3d bfd0 06bd 76fb 293e
000002a0: c2f8 39bd c190 9f3d 9d72 e03d 06b1 c73d
000002b0: 2f5c b03d 1704 b83d 2afc a93d f3d7 e83c
000002c0: b954 1b3e 4a45 a4bd 270c ab3b ee4a 09bb
000002d0: 5563 8ebc 88c1 573d f8d2 0d3e f202 263e
000002e0: d794 99bd 5491 07bc 2bf2 82bc 96df c6bd
000002f0: 35cc 2bbd cdb3 633e a6ec 1a3e 4f50 9e3d
00000300: c92e f5bc f7b1 3cbe 80b0 7ebe b4fd 383d
00000310: 197b 4fbc f1c9 63be 5800 dfbd 4dea c0bd
00000320: 2297 74bd 6ce9 20be d302 79be bbf2 a8bd
00000330: 49d1 94bd 5b7f e43c 309e 46be c5af c2bd
00000340: 0280 24be 0c8e 8abe 3218 af3d 2ac3 7cbb
00000350: 72fd 1dbe ff15 f23d 0706 71bc e519 4dbd
00000360: d7e0 c4bd a840 f6bc 9f68 cfbc f8c0 c63c
00000370: 6efe ea3d 24eb bd3b 92b1 8fbe 66ee 59be
00000380: fac5 b13d d093 213e e298 d23b 80b9 b53d
00000390: d914 e33d 95a3 70bc bfd6 d9bc 9e55 d63d
000003a0: 12d7 103e 7c3d 34be 1d2c 5fbe 2751 603e
000003b0: c1b5 8d3d 76f1 1fbe 4190 08be f69e 24bc
000003c0: 17b5 32be ef6d 30be 231b 393d fbc4 65be
000003d0: e197 20be e115 aabe 6c5e 9abd fcd5 d63d
000003e0: c5f3 d0bd 08e7 5f3d 0fec 5a3e bca4 393e
000003f0: 2211 4e3d 2be6 f53d 255b d23c dd75 cb3c

block2.1.conv.bias f4 [16]
-0.07490353 0.030556215 -0.090500385 0.006175129 0.120384976 0.013793698 -0.06647149 0.12207965
0.039575305 -0.03149524 -0.05295979 -0.12483704 -0.10347154 0.07444891 0.02309643 -0.11463096
00000000: 0667 99bd 0751 fa3c 4458 b9bd bd58 ca3b
00000010: 668c f63d f6fe 613c 3422 88bd e504 fa3d
00000020: b719 223d 2701 01bd 5dec 58bd 90aa ffbd
00000030: e3e8 d3bd ac78 983d b934 bd3c a3c3 eabd

block2.1.BN.weight f4 [16]
1.0707289 0.9737489 0.8814334 0.9885772 0.95447165 1.1184039 1.0008099 1.0288599
1.0365245 0.9179968 0.96066546 0.9741721 1.0708916 1.0351774 1.0850093 0.95066094
00000000: a50d 893f 9c47 793f 9fa5 613f 6513 7d3f
00000010: 4158 743f dc27 8f3f 8a1a 803f aeb1 833f
00000020: d6ac 843f d701 6b3f 2cee 753f 5863 793f
00000030: fa12 893f b180 843f 96e1 8a3f 845e 733f

block2.1.BN.bias f4 [16]
-0.1429944 -0.22939157 -0.22765614 0.14378488 -0.16159613 -0.14278345 -0.21576506 -0.029297505
-0.081420556 -0.17496021 -0.19775753 -0.27238286 0.03486901 0.02518259 -0.053715922 -0.18327104
00000000: 206d 12be a0e5 6abe b11e 69be 583c 133e
00000010: 7579 25be d335 12be 84f1 5cbe 5201 f0bc
00000020: d2bf a6bd c528 33be f380 4abe c475 8bbe
00000030: cfd2 0e3d b84b ce3c 3a05 5cbd 67ab 3bbe

block2.1.BN.running_mean f4 [16]
-0.24452811 -0.77884245 -0.38345233 -0.42783868 -0.70807076 -0.2239939 0.2611305 -0.29338413
0.18458253 -0.16312459 -0.83229005 -0.38951355 -0.85375094 -0.76768357 -0.4401553 -0.9140465
00000000: 9465 7abe 3862 47bf dd53 c4be ac0d dbbe
00000010: 2044 35bf a85e 65be e6b2 853e 7236 96be
00000020: 3403 3d3e 220a 27be f610 55bf 526e c7be
00000030: 6c8f 5abf e986 44bf 095c e1be f4fe 69bf

block2.1.BN.running_var f4 [16]
0.6434878 0.7880598 0.5303697 0.8360127 0.9073489 0.7222523 0.3566125 0.7883817
0.66104656 0.43747503 0.9633579 0.5874275 0.6575233 0.51985085 0.9466868 0.95917726
00000000: 9ebb 243f 49be 493f 4fc6 073f ee04 563f
00000010: 0448 683f 87e5 383f ea95 b63e 62d3 493f
00000020: 593a 293f bafc df3e a09e 763f a661 163f
00000030: 7253 283f f214 053f 115a 723f a48c 753f
