result/model/0518 1112.pt (torch, 79197 bytes, 98 tensors)

input_conv.conv.weight f4 [4, 1, 3, 3]
0.15480542 -0.051193208 0.495107 -0.1315532 0.124108456 0.00506908 0.03923657 -0.044816695
-0.27605125 -0.07935291 -0.034979004 -0.13034678 0.49931815 0.17973767 -0.10100302 -0.15362851
0.047309868 0.16303517 -0.16904823 -0.14866313 -0.37730372 -0.15174723 -0.0014659242 0.44751137
-0.052358165 -0.047867868 -0.07564546 -0.2852976 -0.3078874 0.17410137 -0.06459835 -0.1250393
0.41204867 0.27008662 -0.20418638 0.19380355
00000000: 5085 1e3e f8af 51bd aa7e fd3e e2b5 06be
00000010: 932c fe3d 861a a63b 87b6 203d b691 37bd
00000020: 9756 8dbe c783 a2bd 2546 0fbd a079 05be
00000030: a1a6 ff3e 270d 383e acda cebd cb50 1dbe
00000040: fec7 413d b1f2 263e fb1a 2dbe 263b 18be
00000050: f42d c1be a063 1bbe 4124 c0ba 3620 e53e
00000060: 8475 56bd 1911 44bd 02ec 9abd 8712 92be
00000070: 6ba3 9dbe a147 323e 244c 84bd 4d0a 00be
00000080: 0bf8 d23e cb48 8a3e 3c16 51be 7074 463e

input_conv.conv.bias f4 [4]
0.36237678 0.11827168 0.21365398 -0.06552408
00000000: 7389 b93e 6c38 f23d 1cc8 5a3e 7d31 86bd

input_conv.BN.weight f4 [4]
1.0095959 1.0051339 1.1952797 0.7617247
00000000: 703a 813f 3aa8 803f edfe 983f 6400 433f

input_conv.BN.bias f4 [4]
0.25068626 0.29520503 -0.06461074 0.13397376
00000000: f359 803e 1d25 973e a352 84bd 6b30 093e

input_conv.BN.running_mean f4 [4]
0.42009813 0.18819216 0.11119331 -0.05544851
00000000: 1a17 d73e 72b5 403e 51b9 e33d fa1d 63bd

input_conv.BN.running_var f4 [4]
0.0054239514 0.007042796 0.013649524 0.0034820177
00000000: 67bb b13b 41c7 e63b 41a2 5f3c 9032 643b

block1.0.conv.weight f4 [8, 4, 3, 3]
-0.09740698 0.10714962 0.27827588 -0.14384381 -0.13985993 0.031204458 -0.05324693 -0.08005625
-0.11376373 0.1388351 -0.01638423 -0.083718285 -0.020687047 -0.22529535 -0.06751978 0.23392318
0.2664174 0.20942694 0.17245997 0.13864577 -0.180103 0.16764548 -0.096009016 0.0017344897
0.06395986 0.053950973 -0.28089556 0.05807589 -0.15503716 0.039172914 -0.12903717 0.058581296
0.09640921 0.059798013 0.08232924 -0.052989226 0.0557255 0.09310798 -0.13710807 0.064732395
-0.061328176 -0.283433 0.029996578 -0.10271429 -0.11825363 -0.14959382 -0.12173628 -0.19522364
-0.011727375 0.11186862 -0.0061300257 0.03444372 -0.13697463 -0.063065566 -0.059882436 -0.38347626
-0.22703034 0.079568684 -0.22727475 -0.015556867 0.11674002 0.093312934 -0.2527871 0.1679232
-0.1322903 0.005479317 0.14010756 -0.08270171 0.16890638 0.20032318 0.2461828 0.10577259
-0.0051713283 0.1067992 0.12808922 -0.17996398 0.07152356 0.0688301 0.06323352 0.3066986
-0.11302955 -0.10947161 -0.092754066 0.09913346 0.03133715 -0.04139273 -0.16648659 -0.007965637
0.100080796 -0.009976539 0.049896397 -0.13519141 -0.17416312 -0.13991937 -0.06753874 -0.19261132
-0.05701748 -0.2929892 0.0941387 0.2739623 -0.013055441 -0.010681991 0.26235798 -0.018979227
0.171797 0.12341359 -0.2080587 -0.14861241 0.121491715 0.0028989087 0.036178034 -0.16127887
0.058701158 0.054279543 -0.11112712 -0.051879436 0.27817136 -0.05904253 0.003099049 0.33505446
-0.009703962 -0.047208384 0.26618934 -0.10826941 -0.035170168 0.010737897 0.032087207 -0.08075313
-0.17644452 -0.10930116 -0.07009313 -0.27785796 0.14672092 0.11648157 0.23770365 0.07510941
-0.012129017 -0.06669334 -0.066049516 -0.068439126 0.07616823 -0.1793356 0.04452908 0.13474154
0.02106012 0.19940622 0.14826538 0.10183552 0.03181309 -0.042444788 0.060866337 0.08581351
-0.049873218 -0.17887206 -0.07499148 -0.09284868 0.11464856 0.09197909 -0.16165759 0.1997825
0.22981787 0.16812803 0.26887047 0.25698283 0.03524172 -0.08680699 0.012071375 0.008354164
-0.049544852 0.1501765 -0.14001726 -0.060371794 0.13761902 -0.20976311 0.07170047 0.09753912
0.032227237 0.121579625 -0.10935794 -0.09458528 0.3210422 -0.010197268 -0.26112223 -0.039149255
0.056598745 -0.058484487 -0.12751299 -0.13556914 0.005337609 0.113851555 0.20125368 -0.085522175
-0.20271483 0.04388669 0.106981054 -0.23481005 0.15184727 -0.08859287 -0.008831343 -0.0036590442
0.015420648 0.086886615 -0.19269341 -0.18322988 0.1252761 0.08434873 -0.019522745 0.12853926
-0.28920725 0.010438796 -0.101109624 -0.1354851 -0.09318759 -0.109328866 0.08141976 0.0484135
-0.050618123 0.19539002 0.06479537 0.009454222 0.057661746 -0.022481568 -0.20428692 -0.10388168
-0.018863428 -0.035365663 0.15858294 0.06369537 -0.07684228 0.15844464 0.27525753 -0.17712423
-0.07865443 0.30759716 0.060832433 0.049064096 0.2555315 -0.25529116 -0.14067492 -0.030704884
0.101397425 0.11594196 -0.001211461 -0.037811555 0.037586574 -0.095510535 -0.12554052 -0.13840269
-0.07937528 0.045569915 0.19890116 -0.17405252 -0.04276702 0.14010274 0.032080054 -0.05742352
00000000: 507d c7bd 4371 db3d 2d7a 8e3e cb4b 13be
00000010: 7137 0fbe 7ea0 ff3c 7419 5abd 88f4 a3bd
00000020: f5fc e8bd ca2a 0e3e 3938 86bc 7e74 abbd
00000030: e277 a9bc d3b3 66be cf47 8abd 8f89 6f3e
00000040: dd67 883e 0474 563e 5999 303e 28f9 0d3e
00000050: ec6c 38be 42ab 2b3e 60a0 c4bd d157 e33a
00000060: 63fd 823d b2fb 5c3d 8bd1 8fbe fce0 6d3d
00000070: 10c2 1ebe c773 203d 5222 04be f1f2 6f3d
00000080: 3172 c53d c3ee 743d 3c9c a83d 3b0b 59bd
00000090: 6c40 643d 66af be3d 0f66 0cbe 6b92 843d
000000a0: 4133 7bbd 211e 91be 62bb f53c df5b d2bd
000000b0: f62e f2bd 1f2f 19be df50 f9bd b5e8 47be
000000c0: 2d24 40bc 601b e53d 62de c8bb dc14 0d3d
000000d0: 1443 0cbe 8528 81bd 4947 75bd 0057 c4be
000000e0: a47a 68be e8f4 a23d b6ba 68be 3be2 7ebc
000000f0: 6415 ef3d da1a bf3d 506d 81be 0ff4 2b3e
00000100: 1c77 07be d88b b33b 5b78 0f3e 845f a9bd
00000110: cbf5 2c3e 8521 4d3e 5817 7c3e 4d9f d83d
00000120: 3f74 a9bb 8ab9 da3d d229 033e 7a48 38be
00000130: f27a 923d ccf6 8c3d 9380 813d 9907 9d3e
00000140: 097c e7bd a732 e0bd d8f5 bdbd 7c06 cb3d
00000150: 625b 003d 6c8b 29bd 767b 2abe 4e82 02bc
00000160: 29f7 cc3d a374 23bc 2a60 4c3d 9e6f 0abe
00000170: d157 32be 0647 0fbe c051 8abd e73b 45be
00000180: 298b 69bd ae02 96be cacb c03d c944 8c3e
00000190: 7de6 55bc 8503 2fbc c953 863e 537a 9bbc
000001a0: 8eeb 2f3e 44c0 fc3d 570d 55be da2d 18be
000001b0: a6d0 f83d 9efb 3d3b 6b2f 143d 4a26 25be
000001c0: a070 703d 3a54 5e3d 9e96 e3bd 887f 54bd
000001d0: 7a6c 8e3e 94d6 71bd 6a19 4b3b 428c ab3e
000001e0: 5efd 1ebc 945d 41bd f849 883e 5abc ddbd
000001f0: 980e 10bd 01ee 2f3c e06d 033d e661 a5bd
00000200: dfad 34be 49d9 dfbd fd8c 8fbd 6643 8ebe
00000210: 023e 163e e48d ee3d 9668 733e f6d2 993d
00000220: c9b8 46bc 8596 88bd f844 87bd d029 8cbd
00000230: 17fe 9b3d c0a3 37be 2064 363d b0f9 093e
00000240: 4686 ac3c 2531 4c3e e1d2 173e 248f d03d
00000250: 714e 023d 96da 2dbd fb4e 793d febe af3d
00000260: dc47 4cbd 3d2a 37be 2295 99bd 7327 bebd
00000270: ddcc ea3d 885f bc3d 9189 25be c993 4c3e
00000280: 6055 6b3e c129 2c3e 64a9 893e 4193 833e
00000290: 9f59 103d ddc7 b1bd 04c7 453c e7df 083c
000002a0: 8bef 4abd dec7 193e af60 0fbe 6a48 77bd
000002b0: 00ec 0c3e 24cc 56be b2d7 923d 97c2 c73d
000002c0: b500 043d bdfe f83d 0ef7 dfbd edb5 c1bd
000002d0: a55f a43e 7112 27bc d0b1 85be f85a 20bd
000002e0: 16d4 673d 6e8d 6fbd c492 02be a3d2 0abe
000002f0: 1ce7 ae3b 012b e93d 7215 4e3e 4026 afbd
00000300: 7a94 4fbe 88c2 333d e218 db3d 0c72 70be
00000310: da7d 1b3e 2e70 b5bd 56b1 10bc 93cc 6fbb
00000320: e3a6 7c3c 9cf1 b13d 6c51 45be 9da0 3bbe
00000330: 6148 003e 07bf ac3d 2aee 9fbc cc9f 033e
00000340: f912 94be 7c07 2b3c 9012 cfbd 9bbc 0abe
00000350: 23d9 bebd d0e7 dfbd 67bf a63d 3c4d 463d
00000360: f354 4fbd 5214 483e 6fb3 843d e2e5 1a3c
00000370: b92e 6c3d 442b b8bc 9730 51be ebbf d4bd
00000380: 7a87 9abc 96db 10bd 9163 223e b872 823d
00000390: 7c5f 9dbd 503f 223e 8eee 8c3e 0e60 35be
000003a0: 9315 a1bd 607d 9d3e 6e2b 793d 6ff7 483d
000003b0: 06d5 823e 86b5 82be 160d 10be cf88 fbbc
000003c0: 74a9 cf3d fa72 ed3d e3c9 9eba 4ae0 1abd
000003d0: 61f4 193d 079b c3bd b28d 00be 6fb9 0dbe
000003e0: 828f a2bd 85a7 3a3d bfac 4b3e d33a 32be
000003f0: 792c 2fbd 1877 0f3e 6066 033d ed34 6bbd

block1.0.conv.bias f4 [8]
-0.06583545 0.01701016 0.12906879 0.01168818 0.091311894 -0.28486046 -0.022923835 0.0043653585
00000000: bdd4 86bd e458 8b3c 9c2a 043e c87f 3f3c
00000010: bb01 bb3d 3bd9 91be c4ca bbbc 480b 8f3b

block1.0.BN.weight f4 [8]
0.9987649 0.9871635 1.0197697 1.0328134 0.92819643 1.1694075 0.9005163 0.99578846
00000000: 0eaf 7f3f bfb6 7c3f d087 823f 3b33 843f
00000010: 489e 6d3f 25af 953f 3c88 663f feeb 7e3f

block1.0.BN.bias f4 [8]
0.18111902 0.09650564 0.06176408 0.09518896 -0.19573233 0.15602545 -0.14660501 -0.20997353
00000000: 4477 393e c0a4 c53d 55fc 7c3d 6ef2 c23d
00000010: 0e6e 48be 23c5 1f3e a01f 16be 4d03 57be

block1.0.BN.running_mean f4 [8]
0.09376268 -0.71994406 0.07830456 0.28059164 0.9004303 -0.76956457 0.19816759 1.0453801
00000000: a606 c03d 414e 38bf 245e a03d b5a9 8f3e
00000010: 9a82 663f 2f02 45bf 72ec 4a3e 04cf 853f

block1.0.BN.running_var f4 [8]
0.1278465 0.39774263 0.6914617 0.3968802 0.37097 0.30979422 0.25453916 0.3025264
00000000: 31ea 023e eca4 cb3e a203 313f e233 cb3e
00000010: c8ef bd3e 599d 9e3e f552 823e bee4 9a3e

block1.1.conv.weight f4 [16, 8, 3, 3]
-0.2690774 -0.29615682 -0.08898405 -0.017117139 -0.2181999 -0.09854182 0.14717153 -0.11069141
-0.23334573 -0.040432923 0.09211777 -0.04805864 0.0705339 -0.027474837 0.039010257 0.20170002
0.008248014 0.112341434 -0.094838716 -0.21994668 -0.24236307 -0.049619667 -0.17159969 -0.020679891
0.108789206 0.027374392 -0.010118844 0.07370644 0.041273057 -0.08803678 0.16807453 0.1053246
-0.03340091 -0.021815695 0.10439546 0.12071743 -0.10938313 -0.009855 0.079207435 -0.106250055
-0.099904746 -0.0013123899 -0.15218766 -0.10414483 -0.07638537 -0.23675925 0.036829248 0.063585244
-0.13134857 0.10740814 -0.052522033 0.04484673 0.05974036 0.17953856 0.031984545 0.12125555
0.09126354 0.076439604 0.021239296 0.13449727 -0.026650308 -0.13481583 0.21243468 -0.017607847
0.009837063 0.008300769 -0.15644398 -0.13196582 0.050627016 -0.057857167 -0.13970545 0.17801772
0.16351268 0.21900482 0.11556919 -0.038424842 -0.10886473 -0.22762655 -0.041851167 -0.091974825
-0.15084693 -0.15753862 -0.02218879 0.12846836 0.016590154 0.17446429 0.16890927 0.0028188308
0.059779916 -0.17546976 -0.0011773224 -0.0984887 -0.06334161 -0.03466029 -0.11398088 -0.13308619
0.14075267 -0.037944242 -0.25853592 -0.11939001 0.10308176 0.052396346 -0.09991272 -0.135018
-0.087298736 -0.110577695 -0.21482128 -0.18147524 0.20905145 -0.03184927 -0.121174745 0.027671218
-0.024024801 -0.29057157 -0.04871507 -0.070426084 -0.22147417 -0.11461521 0.003612266 0.004194924
0.10394778 0.09953806 0.14297989 -0.0837183 -0.06667653 0.008637043 0.14610481 0.17963639
-0.01092636 0.07303282 0.057377562 0.021416122 -0.098513536 0.091175325 -0.023644393 0.079576746
0.08661282 0.094220206 -0.020335937 -0.007546052 0.014916659 0.09066054 -0.10437325 0.0060487567
-0.20939228 0.035218325 0.04024473 -0.096336305 -0.2673046 -0.035943847 -0.020394051 -0.17852132
-0.08696841 -0.036775086 -0.011579469 -0.0870861 0.040157516 -0.10584744 -0.06924976 0.0065321806
-0.08264269 -0.21687998 -0.030919747 0.056246467 0.12762913 0.05260002 0.083979264 0.14890096
0.14741373 0.09599064 0.036106285 -0.046097636 0.20474605 0.19749452 -0.20614204 -0.09268027
0.11151868 -0.05586449 0.05377805 0.08595967 -0.108059205 0.08481049 0.041912287 -0.21817121
-0.016939197 -0.10760978 0.0569732 -0.11930776 0.0012902995 0.011085513 -0.15962252 -0.13693331
0.02943853 0.1466298 -0.09193792 -0.18840016 0.0134511115 0.13777505 -0.09449639 0.09328455
0.041688286 -0.23412037 -0.06157788 -0.048447717 0.041658387 0.24864642 -0.06660331 -0.052280966
0.20398416 0.18865442 -0.076688506 -0.121826604 -0.18593118 0.028086167 0.08720632 -0.004185305
0.03934424 0.14977224 0.27912164 -0.010374383 -0.011045389 0.15436044 0.012089943 -0.024989668
-0.029056339 0.11913784 0.07018834 -0.10610464 0.1042344 -0.039792124 -0.28599945 0.30846292
0.09870288 -0.2396389 -0.14124782 -0.15719652 0.15095034 0.097096555 0.1610679 0.0802978
0.12180527 0.04221001 0.024707459 -0.04715826 0.10100597 -0.11824274 0.18176782 0.16815476
0.118824944 0.0013833923 0.11054396 -0.019480702 -0.1525373 -0.053029962 0.11936337 -0.13268152
00000000: 83c4 89be dea1 97be 453d b6bd 3e39 8cbc
00000010: cb6f 5fbe 4bd0 c9bd 22b4 163e 2eb2 e2bd
00000020: 2ff2 6ebe fe9c 25bd 3ea8 bc3d 23d9 44bd
00000030: 1474 903d e912 e1bc 38c9 1f3d 738a 4e3e
00000040: ae22 073c 4413 e63d cd3a c2bd b439 61be
00000050: 062e 78be fe3d 4bbd d4b7 2fbe e068 a9bc
00000060: e0cc de3d 4340 e03c 82c9 25bc 67f3 963d
00000070: f00d 293d a14c b4bd bb1b 2c3e 6db4 d73d
00000080: 65cf 08bd d4b6 b2bc 49cd d53d b33a f73d
00000090: 4304 e0bd de76 21bc 8237 a23d a199 d9bd
000000a0: dc9a ccbd 7f04 acba 15d7 1bbe e249 d5bd
000000b0: ef6f 9cbd 0471 72be 44da 163d fb38 823d
000000c0: 3d80 06be cdf8 db3d 5821 57bd 34b1 373d
000000d0: 4fb2 743d f5d8 373e 3a02 033d d454 f83d
000000e0: 61e8 ba3d 5e8c 9c3d 08fe ad3c a7b9 093e
000000f0: bf51 dabc 290d 0abe 7a88 593e 553e 90bc
00000100: a22b 213c f3ff 073c da32 20be 0c22 07be
00000110: 465e 4f3d a3fb 6cbd f20e 0fbe 474a 363e
00000120: de6f 273e cd42 603e 8aaf ec3d 5e63 1dbd
00000130: 79f4 debd ef16 69be 216c 2bbd 4c5d bcbd
00000140: 9e77 1abe ce51 21be 44c5 b5bc 368d 033e
00000150: 13e8 873c c4a6 323e 8df6 2c3e 22bc 383b
00000160: c9db 743d 58ae 33be 6250 9aba 72b4 c9bd
00000170: 3fb9 81bd f3f7 0dbd cf6e e9bd bf47 08be
00000180: 7821 103e 6c6b 1bbd d25e 84be c082 f4bd
00000190: 881c d33d 8d9d 563d 0a9f ccbd 2942 0abe
000001a0: aec9 b2bd 8f76 e2bd 1cfa 5bbe a5d4 39be
000001b0: 9511 563e 6174 02bd 772a f8bd c0ae e23c
000001c0: a9cf c4bc ccc5 94be 7489 47bd 8d3b 90bd
000001d0: 20ca 62be 61bb eabd c4bb 6c3b 9375 893b
000001e0: 93e2 d43d 9cda cb3d 5269 123e 8074 abbd
000001f0: b48d 88bd 6282 0d3c 809c 153e 9af2 373e
00000200: 7a04 33bc 3b92 953d bc04 6b3d dd70 af3c
00000210: 77c1 c9bd 21ba ba3d e3b1 c1bc 22f9 a23d
00000220: 1062 b13d 86f6 c03d 8d97 a6bc df44 f7bb
00000230: 0165 743c 3cac b93d a4c1 d5bd a634 c63b
00000240: ee6a 56be 1741 103d a8d7 243d f84b c5bd
00000250: 26dc 88be db39 13bd 6d11 a7bc 4bce 36be
00000260: 7e1c b2bd 79a1 16bd d0b7 3dbc 325a b2bd
00000270: 357c 243d 8bc6 d8bd d1d2 8dbd e70b d63b
00000280: 9240 a9bd c915 5ebe 694b fdbc b262 663d
00000290: 36b1 023e 1e73 573d 52fd ab3d 7e79 183e
000002a0: a0f3 163e be96 c43d 2fe4 133d e0d0 3cbd
000002b0: f3a8 513e 013c 4a3e e616 53be 27cf bdbd
000002c0: e863 e43d 2ad2 64bd 5f46 5c3d a00b b03d
000002d0: 254e ddbd 1fb1 ad3d 38ac 2b3d 4668 5fbe
000002e0: 12c4 8abc 8462 dcbd bb5c 693d a057 f4bd
000002f0: 441f a93a 03a0 353c 1674 23be 3f38 0cbe
00000300: 1229 f13c 1f26 163e f349 bcbd f9eb 40be
00000310: 0d62 5c3c e714 0d3e 5387 c1bd f80b bf3d
00000320: 56c1 2a3d 40bd 6fbe 1639 7cbd 1d71 46bd
00000330: fca1 2a3d 2b9d 7e3e 5167 88bd 9124 56bd
00000340: 39e1 503e a02e 413e dd0e 9dbd 3a80 f9bd
00000350: be64 3ebe f614 e63c 3a99 b23d e224 89bb
00000360: 6d27 213d e55d 193e 08e9 8e3e 51f9 29bc
00000370: b8f7 34bc aa10 1e3e e514 463c 22b7 ccbc
00000380: 8f07 eebc 8afe f33d e8be 8f3d 644d d9bd
00000390: d878 d53d 11fd 22bd 856e 92be daee 9d3e
000003a0: bc24 ca3d e663 75be 45a3 10be 20f8 20be
000003b0: ba92 1a3e 8fda c63d fcee 243e 2c73 a43d
000003c0: 0b75 f93d 67e4 2c3d 4c67 ca3c 0529 41bd
000003d0: 38dc ce3d 4029 f2bd 5821 3a3e c330 2c3e
000003e0: 7e5a f33d f152 b53a df64 e23d fe95 9fbc
000003f0: bd32 1cbe f235 59bd c874 f43d aadd 07be

block1.1.conv.bias f4 [16]
-0.06539879 0.035616644 -0.08271242 0.016557101 0.047958914 0.027111648 -0.04165947 0.055034872
-0.19735873 -0.030582756 -0.0062275007 0.043286197 0.052339822 0.06988078 -0.087151885 -0.015196572
00000000: cdef 85bd c2e2 113d 2165 a9bd c2a2 873c
00000010: 9170 443d 3f19 de3c 1fa3 2abd 3f6c 613d
00000020: 6818 4abe b088 fabc 1010 ccbb de4c 313d
00000030: 4862 563d a81d 8f3d b07c b2bd 0bfb 78bc

block1.1.BN.weight f4 [16]
1.074479 0.9091181 1.0495541 0.946258 1.0090151 1.0333846 0.995238 0.96423507
0.99922794 0.99071854 1.0572374 1.0579189 0.99077016 0.9940517 0.9959592 1.0259249
00000000: 8788 893f f7bb 683f ca57 863f f73d 723f
00000010: 6827 813f f245 843f ebc7 7e3f 1cd8 763f
00000020: 67cd 7f3f bb9f 7d3f 8e53 873f e369 873f
00000030: 1da3 7d3f 2c7a 7e3f 2ff7 7e3f 8251 833f

block1.1.BN.bias f4 [16]
-0.06845212 -0.09446218 -0.01498634 -0.28782016 -0.1429729 -0.031230962 -0.11938831 -0.27819115
-0.2931106 -0.075756714 -0.068089865 -0.14412846 -0.17474183 -0.19811262 -0.2017599 0.12163994
00000000: a030 8cbd 6375 c1bd 4489 75bc 2a5d 93be
00000010: 7d67 12be 13d8 ffbc dc81 f4bd 126f 8ebe
00000020: 9812 96be 5626 9bbd b372 8bbd 6996 13be
00000030: 86ef 32be 09de 4abe 269a 4ebe 5c1e f93d

block1.1.BN.running_mean f4 [16]
-0.57952166 -0.5402897 -0.43707833 1.1207916 0.012751747 -0.075827874 -0.29105335 0.42113036
0.7494107 0.6160801 -0.18288057 -0.26039493 0.27959204 0.22823927 -0.8821237 -0.84782404
00000000: 885b 14bf 6d50 0abf bbc8 dfbe 1976 8f3f
00000010: b4ec 503c a54b 9bbd f204 95be 669e d73e
00000020: 61d9 3f3f 6db7 1d3f 0b45 3bbe 7c52 85be
00000030: b026 8f3e 8eb7 693e dcd2 61bf ff0a 59bf

block1.1.BN.running_var f4 [16]
0.79035527 1.1425111 0.5349632 1.0401733 0.8457502 0.94336885 0.5168139 0.8758135
1.0698872 0.5247551 0.6642015 0.66556907 0.36029497 0.4433662 0.63073975 0.6368301
00000000: b954 4a3f ce3d 923f 59f3 083f 6624 853f
00000010: 1683 583f 9f80 713f ea4d 043f 5035 603f
00000020: 10f2 883f 5a56 063f 1c09 2a3f bc62 2a3f
00000030: 9578 b83e e500 e33e 2978 213f 4c07 233f

block1.2.conv.weight f4 [8, 16, 3, 3]
-0.14001061 0.06693307 -0.104546025 -0.07043825 -0.09992778 -0.1286738 0.136618 0.043878406
-0.050959732 0.19163653 0.06779941 0.038963158 -0.04639839 0.06919915 0.126032 0.0532227
0.08855089 0.108578525 0.043672964 0.100810684 0.05141999 0.012160555 -0.010518522 -0.16736017
0.22150351 -0.09218005 -0.16825795 0.041577447 0.070538774 0.114883296 0.10894825 0.0015653395
-0.16086262 0.20714271 -0.002692539 0.026099367 -0.037191026 -0.09802962 -0.04417437 0.14646724
0.0005412667 -0.03649884 0.13300747 0.048971124 0.10982594 0.02741354 -0.18634877 -0.21056162
-0.07579525 -0.0027816743 -0.06535141 0.024985975 -0.13462968 -0.1526905 0.07287613 0.06930376
0.13807434 0.216177 0.030203579 0.14117259 0.15737343 -0.026540937 0.1297619 -0.16194499
0.13655826 0.05365929 0.013322757 0.051389433 0.07149291 0.11027971 0.042806584 -0.06322425
0.04004531 0.21343912 0.18508133 -0.06175585 -0.021170372 0.015802622 0.1404844 0.09969071
-0.0034716078 -0.09437025 -0.11532321 -0.19341794 0.050684627 0.19869055 -0.031437315 -0.039802402
0.11775196 0.10739693 0.16472033 -0.025260085 -0.031662755 0.05665893 0.031711616 -0.034250453
-0.022619644 -0.08069119 -0.058989786 -0.13955472 -0.10852729 0.05186117 0.18431461 0.062810265
-0.065222815 0.20681602 0.11708505 0.046059225 0.117771976 0.022672534 0.1756671 0.014532033
-0.05672723 -0.096489035 0.078667805 -0.106173754 -0.14529306 0.10227247 0.11278335 0.18014683
0.08945699 -0.14630105 -0.07738073 0.00814594 -0.080821626 -0.13181801 -0.11682387 -0.10913089
-0.27460048 0.09631109 -0.03990051 -0.31289652 0.06746252 0.070813544 0.028399767 -0.12989835
-0.014743698 0.06827436 -0.005920695 -0.09368385 0.09331549 0.19087912 -0.07398415 -0.119514786
-0.14216669 -0.04186104 0.17916314 -0.07733748 0.005455866 0.0059227394 -0.056509357 -0.14951345
0.14286733 -0.21727963 -0.0850315 0.062501684 0.076654136 0.20217119 0.17810124 0.012283564
0.076105885 -0.016632585 0.17630415 0.079949714 0.005556531 -0.0841064 -0.14437227 -0.07897887
0.09040504 0.028248178 -0.11779959 -0.112655 -0.14066845 -0.06805902 -0.09308667 -0.11361656
0.035114635 -0.1164696 -0.026117949 0.020465555 -0.041948028 0.05124403 0.16587563 0.049742073
-0.0035064162 0.12021878 -0.25424492 -0.29844454 0.14062503 0.053862892 0.02059657 -0.12370835
0.07158085 -0.060430095 -0.019053925 -0.20801309 -0.085978225 0.122334376 -0.030346166 0.10907901
0.07499001 -0.10338776 0.0704149 -0.014444423 -0.02278086 0.066916965 0.13597564 -0.16579524
-0.13156463 -0.014319939 -0.011594903 -0.11839264 -0.1265412 0.022692844 0.009881243 -0.1250683
-0.08770704 -0.049387276 0.035123684 -0.23471394 -0.24946092 0.07796785 0.06734166 -0.043960366
-0.044152897 0.09517732 0.15610188 -0.032355305 -0.025294747 -0.030136282 -0.04253247 0.020300362
-0.047369983 0.029639471 0.12777545 0.06944064 0.06514989 -0.045809634 -0.09108485 -0.16153285
0.031519495 -0.04732621 -0.10632004 0.02259702 0.10753574 0.035853364 -0.06610313 -0.08826997
-0.14958453 -0.07572385 -0.35398537 -0.25719717 -0.04007823 0.025170868 0.23890503 0.0021538504
00000000: f15e 0fbe 3514 893d 3a1c d6bd ee41 90bd
00000010: f0a6 ccbd 11c3 03be 97e5 0b3e d8b9 333d
00000020: 27bb 50bd 5e3c 443e 6bda 8a3d d597 1f3d
00000030: 3d0c 3ebd 49b8 8d3d 880e 013e 0c00 5a3d
00000040: 2b5a b53d 6b5e de3d 6ce2 323d d575 ce3d
00000050: c49d 523d 113d 473c e155 2cbc 7760 2bbe
00000060: d1d1 623e e5c8 bcbd d04b 2cbe 1d4d 2a3d
00000070: a276 903d ef47 eb3d 4320 df3d 142c cd3a
00000080: 2cb9 24be 381d 543e 4f75 30bb 57ce d53c
00000090: 9e55 18bd c1c3 c8bd 2ff0 34bd 82fb 153e
000000a0: cbe3 0d3a cf7f 15bd 1c33 083e f295 483d
000000b0: 6cec e03d 5c92 e03c 36d2 3ebe 779d 57be
000000c0: 8a3a 9bbd c04c 36bb f6d6 85bd 63af cc3c
000000d0: 5ddc 09be e65a 1cbe 1540 953d 21ef 8d3d
000000e0: 5c63 0d3e 815d 5d3e 7f6d f73c 8c8f 103e
000000f0: 8026 213e 616c d9bc 4ee0 043e e8d4 25be
00000100: eed5 0b3e d8c9 5b3d b147 5a3c ba7d 523d
00000110: e06a 923d 54da e13d f555 2f3d b77b 81bd
00000120: 8d06 243d c98f 5a3e f685 3d3e b4f3 7cbd
00000130: 7d6d adbc 8074 813c 24db 0f3e a52a cc3d
00000140: ea83 63bb 3145 c1bd 932e ecbd 5a0f 46be
00000150: af9a 4f3d 8975 4b3e 6ac4 00bd d807 23bd
00000160: f127 f13d ecf2 db3d 72ac 283e 3dee cebc
00000170: ceb0 01bd 3213 683d 0ae4 013d 344a 0cbd
00000180: d54c b9bc 6c41 a5bd 469f 71bd 6fe7 0ebe
00000190: 8e43 debd 616c 543d f8bc 3c3e aba2 803d
000001a0: 8a93 85bd 94c7 533e 49ca ef3d 99a8 3c3d
000001b0: 6f32 f13d c0bb b93c 14e2 333e c417 6e3c
000001c0: d05a 68bd 0b9c c5bd 961c a13d a071 d9bd
000001d0: b4c7 14be 3b74 d13d f5fa e63d 6978 383e
000001e0: 3a35 b73d f1cf 15be ca79 9ebd 8c76 053c
000001f0: cf85 a5bd 4dfb 06be 5a41 efbd 0480 dfbd
00000200: 6f98 8cbe c03e c53d b86e 23bd f933 a0be
00000210: ca29 8a3d b106 913d a1a6 e83c 1304 05be
00000220: 8d8f 71bc 6dd3 8b3d 6402 c2bb 51dd bfbd
00000230: 311c bf3d d175 433e 0185 97bd 2bc4 f4bd
00000240: 2594 11be 7b76 2bbd 8b76 373e 1d63 9ebd
00000250: 1fc7 b23b 8a13 c23b 5b76 67bd 0e1a 19be
00000260: d04b 123e 8d7e 5ebe ff24 aebd e200 803d
00000270: d8fc 9c3d f705 4f3e 2c60 363e 0041 493c
00000280: 67dd 9b3d 0f41 88bc 1389 343e adbc a33d
00000290: 8f13 b63b fa3f acbd 53d6 13be acbf a1bd
000002a0: 4726 b93d b968 e73c e940 f1bd aab7 e6bd
000002b0: 640b 10be 8762 8bbd 39a4 bebd cdaf e8bd
000002c0: 5dd4 0f3d 9d87 eebd 4ff5 d5bc 61a7 a73c
000002d0: b2d1 2bbd 43e5 513d 4ddb 293e 58be 4b3d
000002e0: e7cb 65bb 4435 f63d 642c 82be b9cd 98be
000002f0: 0200 103e 569f 5c3d 23ba a83c ce5a fdbd
00000300: fb98 923d 8c85 77bd fa16 9cbc 6201 55be
00000310: 5a15 b0bd 728a fa3d 8698 f8bc d164 df3d
00000320: 5d94 993d f6bc d3bd b035 903d 4da8 6cbc
00000330: ed9e babc c30b 893d 333d 0b3e 3ac6 29be
00000340: e1b8 06be 2d9e 6abc 8cf8 3dbc d777 f2bd
00000350: 0494 01be 58e6 b93c f0e4 213c e811 00be
00000360: c09f b3bd 504a 4abd dadd 0f3d da58 70be
00000370: af72 7fbe 9cad 9f3d 6dea 893d c90f 34bd
00000380: abd9 34bd 54ec c23d 2cd9 1f3e ff86 04bd
00000390: ee36 cfbc 5de0 f6bc 8736 2ebd f24c a63c
000003a0: 0707 42bd 7ace f23c 91d7 023e e536 8e3d
000003b0: 4e6d 853d e2a2 3bbd b28a babd de68 25be
000003c0: 961a 013d 21d9 41bd 52be d9bd 631d b93c
000003d0: b33b dc3d fada 123d 1461 87bd e3c6 b4bd
000003e0: b02c 19be 1b15 9bbd 923d b5be 59af 83be
000003f0: 1229 24bd 2333 ce3c 85a3 743e 9d27 0d3b

block1.2.conv.bias f4 [8]
0.04873658 0.098069504 -0.01251346 -0.049262065 -0.018917307 -0.11871317 -0.020288372 0.036243152
00000000: 02a0 473d aad8 c83d 4105 4dbc 05c7 49bd
00000010: 78f8 9abc e41f f3bd cd33 a6bc b373 143d

block1.2.BN.weight f4 [8]
0.9317956 1.0687046 0.993017 0.8463508 1.0261987 1.0099679 1.1649337 0.8520697
00000000: 288a 6e3f 50cb 883f 5d36 7e3f 72aa 583f
00000010: 7b5a 833f a146 813f 8c1c 953f 3d21 5a3f

block1.2.BN.bias f4 [8]
-0.30856135 0.004025319 -0.24021673 -0.12404127 0.17938249 -0.0051573487 0.3161663 -0.2438691
00000000: c1fb 9dbe d3e6 833b 60fb 75be 5909 febd
00000010: 0bb0 373e fafe a8bb 8de0 a13e d2b8 79be

block1.2.BN.running_mean f4 [8]
0.38227347 0.030658672 0.7932993 0.5958338 -0.5063153 -0.71500546 -0.7196046 1.3748689
00000000: 59b9 c33e e527 fb3c aa15 4b3f 9088 183f
00000010: e19d 01bf 990a 37bf 0238 38bf b4fb af3f

block1.2.BN.running_var f4 [8]
1.2247461 2.1623583 0.7392361 2.9191656 2.4561963 1.2148503 1.6697006 1.2008083
00000000: 7bc4 9c3f 1464 0a40 943e 3d3f 9cd3 3a40
00000010: 5232 1d40 3780 9b3f c0b8 d53f 16b4 993f

block1.3.conv.weight f4 [4, 8, 3, 3]
-0.15903072 0.12996164 -0.060824193 -0.09064877 -0.048874624 -0.1404819 0.051219452 0.09336374
0.17116006 0.23757878 -0.016647883 0.028566482 0.08881209 -0.0437206 -0.023855671 0.03727003
0.05965093 0.036976986 0.17086673 -0.08709354 0.057084214 0.3146895 0.072948754 -0.026090097
0.097771 0.08800336 -0.0025593652 0.08072657 0.057824846 -0.04528209 -0.06687851 -0.09869504
0.093662106 -0.20284884 -0.102909245 -0.048099875 0.10478682 0.014216054 0.07252207 0.099540204
0.13059264 0.027171152 0.05824462 0.14586881 -0.03245885 0.030099478 -0.123811625 -0.019674532
-0.052485645 -0.11389659 -0.18936907 0.059558716 -0.13319513 0.07985607 0.17747943 0.1392457
0.08869445 0.16135108 0.21002321 0.005029664 0.18216288 0.08005637 0.080939695 -0.051621214
-0.09599735 -0.22481878 0.003101125 -0.13231578 -0.1215825 0.09294196 -0.050182424 -0.011408346
0.080475315 0.03836029 -0.13956232 -0.12498466 -0.015524368 -0.014638347 0.014180689 0.12409255
-0.122214735 0.17946601 0.17655276 0.20412952 0.104713134 -0.059165522 0.18292592 -0.039386027
0.04928651 0.08486902 -0.08748508 0.055384405 0.071239546 -0.18901323 0.06784343 0.13717975
0.08531598 -0.09426336 0.1953817 0.015452737 -0.050170053 0.024323743 -0.08841301 0.0042144847
0.03212169 -0.03682678 0.07451181 -0.08021895 -0.16469553 -0.07022519 -0.1482129 -0.08121543
-0.10352634 -0.024177026 -0.17812623 -0.053126376 0.028810272 0.14525168 0.12551105 0.021852745
-0.017617656 0.06333947 -0.14043474 -0.09109336 -0.07502412 -0.298273 -0.40189013 -0.24034168
-0.30420268 -0.14170912 -0.012087824 -0.13343425 -0.036555458 -0.07164633 0.11466192 0.12205198
0.0028262453 0.12063834 0.07582192 -0.039199784 0.022564644 0.05896268 0.07968926 0.022065666
-0.0034943323 0.11961453 0.059447747 0.15392123 0.16180702 0.048966277 0.21748364 0.03489297
0.2752913 -0.12430894 -0.008302461 -0.0009916851 -0.31832814 -0.34362197 -0.13609485 0.035990126
0.03104847 -0.09780448 0.26031584 -0.06675228 0.06364404 0.12548563 -0.0844172 -0.051542323
-0.10677068 -0.01930204 0.08027329 -0.017778102 0.12945117 -0.031760935 0.09189315 0.1475363
0.13021691 0.18779863 -0.039952386 0.002903552 0.01216139 -0.1375403 0.21437718 0.0388916
0.04983165 0.15863739 -0.22777657 -0.16784042 0.17700322 -0.023375759 0.12387636 0.20096621
-0.069076456 -0.17941795 0.17534928 -0.07734128 0.012064441 -0.03179467 0.101967685 0.051017776
0.28957018 0.08939692 -0.0805864 -0.08065907 0.12961408 -0.11750228 0.17935152 0.06988326
0.09815502 0.042697914 0.015755905 0.09357398 0.02792658 0.071773805 0.076663606 -0.14218366
-0.14986074 -0.15038209 -0.12569018 0.19836617 0.017615357 -0.17895408 -0.01706407 -0.19854924
0.01305948 -0.26801044 -0.07104333 -0.085244924 0.049717184 0.102790624 0.16159202 -0.07078722
0.05685249 0.18448015 -0.03743436 -0.2176607 0.06552972 0.1453102 -0.056313787 0.06660597
-0.16638476 -0.12402439 -0.09542293 0.07305131 -0.18201007 -0.2405905 0.032752737 -0.05425845
-0.1140046 -0.06504198 -0.09490857 -0.27342042 -0.2021286 0.10719077 0.036741726 -0.055598944
00000000: f3d8 22be aa14 053e ca22 79bd 10a6 b9bd
00000010: c230 48bd 7dda 0fbe 7dcb 513d 7d35 bf3d
00000020: 9544 2f3e da47 733e 2461 88bc 4104 ea3c
00000030: 1de3 b53d 5f14 33bd f86c c3bc 75a8 183d
00000040: 8954 743d 2e75 173d b0f7 2e3e 195e b2bd
00000050: 23d1 693d fb1e a13e 2866 953d e6ba d5bc
00000060: 293c c83d 1b3b b43d 06bb 27bb f953 a53d
00000070: bfd9 6c3d b679 39bd 9af7 88bd a020 cabd
00000080: ebd1 bf3d 9bb7 4fbe 15c2 d2bd 6004 45bd
00000090: 799a d63d 74ea 683c 7386 943d bcdb cb3d
000000a0: 14ba 053e 0996 de3c e991 6e3d a25e 153e
000000b0: 92f3 04bd 2e93 f63c f390 fdbd 7c2c a1bc
000000c0: 30fb 56bd 9e42 e9bd f7e9 41be d7f3 733d
000000d0: 4e64 08be 948b a33d 2bbd 353e 6d96 0e3e
000000e0: 70a5 b53d 3839 253e 5310 573e e1cf a43b
000000f0: e888 3a3e 98f4 a33d b6c3 a53d c470 53bd
00000100: 429a c4bd e536 66be 3e3c 4b3b ca7d 07be
00000110: 3f00 f9bd 5b58 be3d 168c 4dbd 12ea 3abc
00000120: 3ed0 a43d ae1f 1d3d 6de9 0ebe f5f7 ffbd
00000130: eb59 7ebc add5 6fbc 1f56 683c 3c24 fe3d
00000140: b84b fabd f0c5 373e 3fca 343e 5407 513e
00000150: d773 d63d 8c57 72bd ef50 3b3e 3e53 21bd
00000160: a7e0 493d cfcf ad3d 612b b3bd c2da 623d
00000170: 0ae6 913d af8c 41be 7ff1 8a3d d978 0c3e
00000180: 25ba ae3d 260d c1bd 2412 483e 7a2d 7d3c
00000190: 1d7f 4dbd 9642 c73c e111 b5bd a919 8a3b
000001a0: 0992 033d add7 16bd a699 983d d549 a4bd
000001b0: f2a5 28be 39d2 8fbd 1fc5 17be 4654 a6bd
000001c0: 9e05 d4bd e60e c6bc b966 36be 0b9b 59bd
000001d0: 8503 ec3c dbbc 143e f885 003e 8704 b33c
000001e0: e752 90bc 20b8 813d 20ce 0fbe 288f babd
000001f0: 3fa6 99bd 3db7 98be 8bc4 cdbe 211c 76be
00000200: 74c0 9bbe 321c 11be 020c 46bc fda2 08be
00000210: 2dbb 15bd 50bb 92bd ded3 ea3d 63f6 f93d
00000220: 8738 393b 3c11 f73d 8648 9b3d f48f 20bd
00000230: 7dd9 b83c da82 713d 1f34 a33d 0ec3 b43c
00000240: 2b01 65bb 76f8 f43d 7b7f 733d 879d 1d3e
00000250: bdb0 253e dd90 483d 08b4 5e3e eeeb 0e3d
00000260: fbf2 8c3e af95 febd 0c07 08bc 6efb 81ba
00000270: e8fb a2be 38ef afbe 735c 0bbe 626a 133d
00000280: 5c59 fe3c b74d c8bd 1e48 853e 6bb5 88bd
00000290: ce57 823d 4e7f 003e ede2 acbd 0b1e 53bd
000002a0: 96aa dabd 501f 9ebc 5366 a43d 62a3 91bc
000002b0: d98e 043e c117 02bd 7a32 bc3d c113 173e
000002c0: 9557 053e 494e 403e 1da5 23bd 8549 3e3b
000002d0: 9140 473c 5dd7 0cbe b185 5b3e cc4c 1f3d
000002e0: 461c 4c3d d771 223e 433e 69be 5cde 2bbe
000002f0: 5540 353e 857e bfbc e4b2 fd3d 16ca 4d3e
00000300: f577 8dbd 57b9 37be c38e 333e 1b65 9ebd
00000310: efa9 453c 213b 02bd 6fd4 d03d 04f8 503d
00000320: 8b42 943e bb15 b73d 7c0a a5bd 9530 a5bd
00000330: 8eb9 043e 09a5 f0bd eda7 373e f41e 8f3d
00000340: 8005 c93d 02e4 2e3d 8712 813c b7a3 bf3d
00000350: 48c6 e43c 25fe 923d cf01 9d3d 9898 11be
00000360: 1875 19be c3fd 19be edb4 00be 8020 4b3e
00000370: 154e 903c bd3f 37be f3c9 8bbc 7e50 4bbe
00000380: 6ef7 553c aa38 89be 2a7f 91bd e494 aebd
00000390: 3fa4 4b3d e483 d23d 6178 253e e4f8 90bd
000003a0: 28de 683d 5de8 3c3e c554 19bd 72e2 5ebe
000003b0: 7234 863d 32cc 143e 49a9 66bd b668 883d
000003c0: c460 2abe 8000 febd 196d c3bd ed9b 953d
000003d0: d960 3abe 5b5d 76be bc27 063d 1c3e 5ebd
000003e0: 3e7b e9bd bb34 85bd 6d5f c2bd c3fd 8bbe
000003f0: cdfa 4ebe d686 db3d 7e7e 163d b8bb 63bd

block1.3.conv.bias f4 [4]
0.0011952576 0.008386527 0.10041973 0.04687852
00000000: 31aa 9c3a a567 093c dca8 cd3d b103 403d

block1.3.BN.weight f4 [4]
0.90934044 1.0548366 1.0263748 1.0417043
00000000: 89ca 683f e304 873f 4060 833f 9156 853f

block1.3.BN.bias f4 [4]
-0.059529513 -0.09877212 -0.04995313 -0.0006630122
00000000: 38d5 73bd 0a49 cabd a79b 4cbd ffcd 2dba

block1.3.BN.running_mean f4 [4]
0.96963286 -0.78827864 0.68542534 0.21772496
00000000: dc39 783f a1cc 49bf 0978 2f3f 4bf3 5e3e

block1.3.BN.running_var f4 [4]
0.9788988 0.5666036 0.9195509 0.70460254
00000000: 1d99 7a3f ef0c 113f b067 6b3f d560 343f

block2.0.conv.weight f4 [8, 4, 3, 3]
0.20557387 -0.061875727 -0.13849351 0.08254809 -0.042495035 0.03755882 -0.1412488 -0.060438268
-0.04144453 -0.22765274 0.030704658 -0.055820677 -0.19315955 -0.022247894 0.0047552777 0.11150869
0.08062857 -0.025319597 -0.17310312 0.0104722995 -0.22308305 -0.14434563 0.0016564947 -0.07356563
-0.020825587 0.22377618 0.057560105 0.12639326 0.21978684 0.06518996 -0.036236607 0.03297525
0.068932034 -0.12536228 -0.28898832 -0.47642317 0.07954104 -0.14106876 0.04064914 -0.087920964
-0.033408534 -0.08496854 -0.08204712 0.10334702 0.1036781 -0.06259522 -0.031767234 -0.11340377
-0.1683778 0.1420471 0.09315509 0.100415915 0.065507025 0.16210806 0.081878796 0.1826422
0.2536699 -0.18405128 0.0804295 -0.020402657 -0.3421931 -0.2249188 -0.07737611 -0.18157229
0.13008057 0.08501211 -0.19625099 -0.040533803 0.12964527 0.030576963 0.01959821 0.054874662
0.03201327 -0.25050357 -0.24131972 0.080078594 -0.08578924 -0.13465524 0.27475387 -0.075245306
0.10186125 0.08172514 0.3110739 0.44933558 0.110628754 -0.1738431 0.13832188 -0.043007955
-0.030312063 0.030920306 0.097638026 -0.1465704 -0.10454488 0.09726263 -0.010101208 -0.11379194
0.016145725 0.03292183 0.042002756 -0.039022543 -0.20027892 0.015478473 0.07736341 0.07676403
-0.06871926 0.09378655 -0.008581341 0.15142903 0.14391045 -0.093994 0.08698704 -0.086435445
-0.2815461 -0.1443732 -0.22038956 -0.016130777 -0.1284698 -0.2994805 -0.069928676 0.017035313
0.10440981 0.1376579 0.18600927 -0.038664196 0.12173997 0.06256337 0.21775022 0.07368477
-0.18192734 0.10977217 -0.20081353 -0.057467893 0.16390249 0.019752905 -0.033529393 0.106078185
0.1433794 0.17763622 0.12133463 -0.083362035 0.051435336 0.2059588 0.024698606 0.2588523
-0.07055178 -0.058722936 0.0743375 0.11919361 -0.042892247 0.0552492 0.24581064 0.18197337
0.11772813 0.14358293 0.10811876 -0.13266043 0.042803615 -0.0007026841 -0.0027806454 0.008826379
0.00073588255 0.2039106 -0.22565182 -0.06672366 0.18916433 0.09361403 -0.16436099 -0.06480422
-0.1926065 0.017582139 -0.20349953 0.08858118 0.014079835 0.15110998 -0.1916009 -0.04227597
0.12908524 0.06537491 0.3008844 0.13918005 -0.030419253 0.29801866 -0.24076656 0.10801061
0.07165026 -0.053036008 0.020805879 0.23154207 0.044047046 -0.0664624 0.021809712 0.038802877
-0.1122496 0.059562974 0.20660396 0.09924277 -0.012784123 0.26339576 -0.072165735 0.084869154
0.3737813 0.05473 0.015081031 0.29285827 -0.008075449 -0.15223229 0.2099337 -0.14482251
-0.045071248 -0.05774245 0.055608414 0.028534265 0.07417759 -0.021442793 -0.060190905 -0.017154083
-0.11058236 0.0067866123 -0.056472607 0.015507074 0.1110093 0.027019832 -0.01615663 0.1594684
0.18819769 -0.096144676 0.14037082 0.16223098 -0.118339136 -0.102699764 -0.09913862 -0.087680526
-0.21799868 0.041379273 0.14599046 0.042317145 -0.022774134 0.10895195 0.016822165 -0.14004983
-0.094036914 0.010260937 -0.15283129 -0.12013805 -0.28458986 -0.3421515 0.08868061 -0.19182849
-0.024585918 0.048757195 0.08934653 0.30955207 0.0033428266 -0.07878933 -0.03537654 -0.1390431
00000000: f581 523e 6771 7dbd 3ed1 0dbe f90e a93d
00000010: 460f 2ebd 47d7 193d 87a3 10be 1e8e 77bd
00000020: bdc1 29bd cd1d 69be 5688 fb3c 39a4 64bd
00000030: 9ecb 45be 3741 b6bc 29d2 9b3b ab5e e43d
00000040: 9720 a53d 0b6b cfbc f241 31be 0294 2b3c
00000050: e26f 64be 57cf 13be bd1e d93a 94a9 96bd
00000060: 6c9a aabc 9525 653e 25c4 6b3d 3c6d 013e
00000070: cd0f 613e 5082 853d d66c 14bd 0e11 073d
00000080: 3d2c 8d3d f85e 00be 47f6 93be bded f3be
00000090: 6ae6 a23d 5474 10be b67f 263d e80f b4bd
000000a0: 63d7 08bd fc03 aebd 5208 a8bd 9aa7 d33d
000000b0: 2f55 d43d ec31 80bd 5c1e 02bd 3c40 e8bd
000000c0: 3b6b 2cbe cc74 113e 19c8 be3d dca6 cd3d
000000d0: 8c28 863d a8ff 253e 12b0 a73d 8f06 3b3e
000000e0: 05e1 813e f077 3cbe 39b8 a43d 7923 a7bc
000000f0: ef33 afbe 1d51 66be 5e77 9ebd 16ee 39be
00000100: d733 053e d41a ae3d 05f6 48be c606 26bd
00000110: bbc1 043e 8a7c fa3c 6d8c a03c 41c4 603d
00000120: 5920 033d 0142 80be 841c 77be 3f00 a43d
00000130: 45b2 afbd 10e3 09be 8aac 8c3e 361a 9abd
00000140: a29c d03d 835f a73d 1445 9f3e 500f e63e
00000150: 5491 e23d ed03 32be 40a4 0d3e 1c29 30bd
00000160: 0151 f8bc 954c fd3c 72f6 c73d 8d16 16be
00000170: a01b d6bd a131 c73d 8a7f 25bc c00b e9bd
00000180: 0a44 843c 0ad9 063d 150b 2c3d 1ad6 1fbd
00000190: eb15 4dbe 6c99 7d3c b570 9e3d 7636 9d3d
000001a0: afbc 8cbd 2a13 c03d c198 0cbc 3610 1b3e
000001b0: 435d 133e ed7f c0bd 4326 b23d 1105 b1bd
000001c0: cf26 90be 91d6 13be cdad 61be b124 84bc
000001d0: 968d 03be 8255 99be c436 8fbd a48d 8b3c
000001e0: cfd4 d53d 31f6 0c3e 3779 3e3e 595e 1ebd
000001f0: ce52 f93d 3921 803d eaf9 5e3e 0ae8 963d
00000200: 294b 3abe 3bd0 e03d 10a2 4dbe 7463 6bbd
00000210: 0ed6 273e d8d0 a13c 1e56 09bd 853f d93d
00000220: 0dd2 123e 45e6 353e 4a7e f83d b7b9 aabd
00000230: dcad 523d dde6 523e bb54 ca3c 4a88 843e
00000240: 747d 90bd 7687 70bd 423e 983d c81b f43d
00000250: c8af 2fbd fc4c 623d c9b5 7b3e 3a57 3a3e
00000260: 721b f13d 6707 133e 5e6d dd3d 23d8 07be
00000270: d852 2f3d 5534 38ba 7d3b 36bb 849c 103c
00000280: 3ee8 403a f1cd 503e 4511 67be 6aa6 88bd
00000290: 4bb4 413e b6b8 bf3d 3f4e 28be 13b8 84bd
000002a0: a33a 45be 6b08 903c 2e62 50be 0d6a b53d
000002b0: 1caf 663c 93bc 1a3e 0733 44be 9129 2dbd
000002c0: ec2e 043e 48e3 853d 850d 9a3e 3785 0e3e
000002d0: cc31 f9bc e795 983e 828b 76be ab34 dd3d
000002e0: 5fbd 923d 493c 59bd 1771 aa3c 5d19 6d3e
000002f0: ad6a 343d 701d 88bd 48aa b23c c4ef 1e3d
00000300: 1ee3 e5bd 4ef8 733d fd8f 533e cb3f cb3d
00000310: 8074 51bc cfdb 863e a1cb 93bd e1cf ad3d
00000320: 4360 bf3e 912c 603d 6e16 773c 85f1 953e
00000330: e34e 04bc c8e2 1bbe dcf8 563e 5a4c 14be
00000340: a19c 38bd 5983 6cbd a6c5 633d b1c0 e93c
00000350: 6cea 973d cca8 afbc bd8a 76bd b886 8cbc
00000360: 0179 e2bd 3b62 de3b d24f 67bd 6211 7e3c
00000370: d858 e33d b258 dd3c e95a 84bc af4b 233e
00000380: e5b6 403e 80e7 c4bd 5ebd 0f3e e11f 263e
00000390: ca5b f2bd 4154 d2bd 3009 cbbd d991 b3bd
000003a0: 0c3b 5fbe 507d 293d 867e 153e be54 2d3d
000003b0: d290 babc 3322 df3d a3ce 893c 3969 0fbe
000003c0: 6d96 c0bd 7d1d 283c ce7f 1cbe f00a f6bd
000003d0: c3b5 91be 7b2e afbe 2e9e b53d b06e 44be
000003e0: 6868 c9bc a0b5 473d 50fb b63d 9c7d 9e3e
000003f0: 5313 5b3b 4d5c a1bd fee6 10bd 5061 0ebe

block2.0.conv.bias f4 [8]
0.20483673 0.15117885 -0.047741782 0.16255191 -0.010610009 -0.068072595 -0.04019874 0.073303066
00000000: b8c0 513e a1ce 1a3e e38c 43bd 0274 263e
00000010: 9ad5 2dbc a569 8bbd 6fa7 24bd eb1f 963d

block2.0.BN.weight f4 [8]
1.0153556 0.9750343 1.027338 1.0635452 0.9107067 0.91859585 1.040533 0.99242204
00000000: 2cf7 813f d99b 793f d07f 833f 4022 883f
00000010: 1324 693f 1929 6b3f 2f30 853f 5f0f 7e3f

block2.0.BN.bias f4 [8]
-0.07139271 -0.16805589 -0.14301014 -0.10409563 -0.17789844 -0.09456446 -0.041402426 -0.18340698
00000000: 5736 92bd d816 2cbe 4071 12be 1730 d5bd
00000010: 022b 36be 03ab c1bd 9795 29bd 0acf 3bbe

block2.0.BN.running_mean f4 [8]
-0.20377706 0.12605515 0.17264895 0.3836339 0.3454127 0.45269507 -0.25113153 -0.70379114
00000000: efaa 50be 9a14 013e e3ca 303e aa6b c43e
00000010: efd9 b03e a6c7 e73e 5094 80be a82b 34bf

block2.0.BN.running_var f4 [8]
0.25572821 0.23744634 0.3867178 0.45174798 0.3079015 0.60296607 0.22173259 0.6059261
00000000: cfee 823e 2225 733e e0ff c53e 834b e73e
00000010: 44a5 9d3e fc5b 1a3f de0d 633e f91d 1b3f

block2.1.conv.weight f4 [16, 8, 3, 3]
0.07610764 0.23395903 -0.05149138 0.12458236 -0.0063845157 0.03010953 -0.020743268 0.11026359
0.2718605 0.14428172 0.0779637 0.06653201 0.18232103 0.0029356123 0.10076961 0.12665726
0.13493548 0.07834065 -0.03953335 0.19193853 0.036829878 0.022740832 0.10853083 0.12011008
0.09081705 -0.10229151 0.101233564 0.17765377 0.08866051 0.08842338 0.063657135 -0.08643569
0.10231959 0.14691998 0.0100392895 0.07197831 0.049196538 0.015820498 -0.011434542 0.18101661
0.1509583 -0.14977829 0.20786609 0.1861711 0.15040468 0.162989 0.039131723 0.1585439
0.10554854 0.10280021 0.09683237 0.052761532 0.14123072 0.17754772 0.039326258 0.0039970735
0.11500236 -0.11217413 -0.14102523 0.06098702 -0.19107118 -0.04618217 -0.0948758 0.053517822
-0.25009263 -0.14126454 0.23695537 -0.039729856 -0.0067473133 0.17172356 -0.017917644 0.15982619
-0.2581843 0.011219184 -0.06430734 -0.012793584 0.15695691 0.16451764 -0.0048674974 -0.073271744
-0.14643766 -0.0631951 -0.06229975 -0.14025524 -0.12968147 -0.04087389 -0.19083203 0.0280244
0.1124136 -0.21982464 -0.13101402 -0.22625841 -0.08742014 0.004936094 -0.09734848 -0.0056940443
0.30242017 0.10940361 0.08476853 -0.006756971 -0.0702734 -0.039227508 -0.021430844 -0.020758318
-0.008508903 -0.108766854 -0.19419421 -0.06281459 0.12084584 0.149548 -0.03285293 0.09018762
-0.124050215 -0.22316352 0.014800282 -0.16516967 -0.041500457 -0.14804505 -0.12588379 -0.108714834
0.14102459 -0.17711845 -0.0020036942 0.13132884 0.054070294 0.050477102 -0.027078899 -0.08177576
-0.042512096 0.018803716 -0.031986784 -0.16223107 -0.26819533 -0.19829088 -0.040688053 0.18190674
0.034992483 0.06418749 -0.018193755 -0.07450915 0.02146475 -0.036941297 -0.04690267 0.14656313
0.14332373 0.03844202 0.1278781 0.036736082 0.057398144 -0.019326495 -0.0476965 -0.054479174
-0.015637502 0.0019713237 -0.021762121 -0.33736664 -0.0071284915 0.023863818 0.025360513 -0.0063825925
0.15429476 0.16430329 -0.08963585 -0.2895371 -0.23133366 0.034762345 -0.040479954 -0.15840967
0.1005104 -0.107323065 -0.18587206 0.034088206 0.13112882 0.088992685 -0.06734484 -0.12147641
-0.029350385 0.14452606 0.015522716 0.0467088 0.024254072 0.029631387 0.25585946 -0.10683887
0.0129433805 0.2873483 0.10674471 0.14322063 0.16077617 0.09442892 0.0418429 -0.05069909
0.035896204 0.16460475 0.09455575 0.12851423 0.030557191 -0.100797005 0.10543686 -0.009557861
-0.07580728 0.03402458 -0.071129926 -0.036037657 0.054969836 -0.08306658 -0.12436898 0.25948936
0.27167076 0.25504568 0.13286108 0.06456444 0.10538027 0.05964939 0.14374208 0.013215796
0.070389256 0.10421497 0.23681262 -0.16934259 0.04000996 0.011155916 0.13353245 0.013819583
0.051248495 -0.19367376 -0.05091924 -0.11669756 -0.28215104 -0.18087912 -0.1495455 -0.18717091
-0.17906938 -0.13045625 0.09256674 0.09836163 0.028673885 -0.1383317 -0.1552961 -0.26382768
-0.24813527 -0.13042931 -0.14085674 0.040089913 -0.10634239 -0.11189596 0.052398715 0.03522727
-0.005916093 0.015482732 0.026946014 0.03576894 0.033525486 -0.09281656 0.061636083 -0.061168887
00000000: 53de 9b3d f592 6f3e a0e8 52bd 0925 ff3d
00000010: 3335 d1bb 43a8 f63c c9ed a9bc e1d1 e13d
00000020: 4d31 8b3e 96be 133e 6fab 9f3d ef41 883d
00000030: 5db2 3a3e 6763 403b 4c60 ce3d 71b2 013e
00000040: 872c 0a3e 1071 a03d b9ed 21bd 898b 443e
00000050: edda 163d fb4a ba3c 6945 de3d 46fc f53d
00000060: 4afe b93d 367e d1bd 8b53 cf3d dfea 353e
00000070: a493 b53d 5117 b53d ac5e 823d 3205 b1bd
00000080: ef8c d13d 3172 163e d57b 243c 5d69 933d
00000090: 4f82 493d fd99 813c f257 3bbc 6b5c 393e
000000a0: d094 1a3e 7b5f 19be d9da 543e a3a3 3e3e
000000b0: af03 1a3e 97e6 263e 9648 203d 5559 223e
000000c0: d529 d83d eb88 d23d 0d50 c63d 7a1c 583d
000000d0: c99e 103e 12cf 353e 9214 213d e2f9 823b
000000e0: 5b86 eb3d 8dbb e5bd eb68 10be 87cd 793d
000000f0: 2aa8 43be 8429 3dbd 3e4e c2bd 8135 5b3d
00000100: 240c 80be a7a7 10be 6ea4 723e c6bb 22bd
00000110: 9118 ddbb 4dd8 2f3e 06c8 92bc 7aa9 233e
00000120: bc30 84be abd0 373c 91b3 83bd 2e9c 51bc
00000130: 50b9 203e 5077 283e 877f 9fbb 7f0f 96bd
00000140: c1f3 15be 6f6c 81bd 062e 7fbd 129f 0fbe
00000150: 38cb 04be 616b 27bd 7969 43be 6d93 e53c
00000160: 1a39 e63d b619 61be 8a28 06be 49b0 67be
00000170: 5509 b3bd f5be a13b a45e c7bd 1b95 babb
00000180: d1d6 9a3e 000f e03d 209b ad3d 9569 ddbb
00000190: 80eb 8fbd 06ad 20bd bd8f afbc 590d aabc
000001a0: ed68 0bbc 28c1 debd d9da 46be f0a4 80bd
000001b0: 067e f73d 1c23 193e cb90 06bd 49b4 b83d
000001c0: 0a0e febd fa84 64be e27c 723c 3d22 29be
000001d0: 62fc 29bd 1f99 17be aee7 00be e2a5 debd
000001e0: c068 103e 8a5e 35be 6950 03bb 117b 063e
000001f0: d078 5d3d 14c1 4e3d 91d4 ddbc 0d7a a7bd
00000200: 2a21 2ebd 400a 9a3c 9304 03bd e71f 26be
00000210: e650 89be c40c 4bbe 84a8 26bd c345 3a3e
00000220: 4754 0f3d bb74 833d 120b 95bc 4198 98bd
00000230: d8d6 af3c c24f 17bd 041d 40bd a514 163e
00000240: 75c3 123e 6175 1d3d 7af2 023e 9378 163d
00000250: 511a 6b3d 9952 9ebc 685d 43bd 8e25 5fbd
00000260: 381a 80bc 5331 013b 7a46 b2bc 52bb acbe
00000270: 1f96 e9bb 0e7e c33c dac0 cf3c 1125 d1bb
00000280: 72ff 1d3e 1f3f 283e 0093 b7bd 353e 94be
00000290: bbe2 6cbe f662 0e3d 4fce 25bd 2536 22be
000002a0: 66d8 cd3d 32cc dbbd 3f55 3ebe 13a0 0b3d
000002b0: a246 063e cc41 b63d 17ec 89bd a0c8 f8bd
000002c0: 3870 f0bc a4fe 133e fd52 7e3c ba51 3f3d
000002d0: 7ab0 c63c 86bd f23c 0300 833e 56ce dabd
000002e0: 7910 543c 511f 933e f89c da3d 6ea8 123e
000002f0: 82a2 243e f363 c13d 7663 2b3d d9a9 4fbd
00000300: e607 133d 268e 283e 72a6 c13d 3c99 033e
00000310: 1353 fa3c a96e cebd 48ef d73d 9398 1cbc
00000320: d940 9bbd 5c5d 0b3d 91ac 91bd 399c 13bd
00000330: 0d28 613d d01e aabd 2ab5 febd cadb 843e
00000340: 6e18 8b3e 5995 823e bc0c 083e 5c3a 843d
00000350: 9cd1 d73d eb52 743d 2031 133e 1187 583c
00000360: 3e28 903d a86e d53d 027f 723e 2568 2dbe
00000370: 7ce1 233d 4ec7 363c bbbc 083e 886b 623c
00000380: f1e9 513d 6a52 46be b190 50bd 21ff eebd
00000390: 1a76 90be 6038 39be 7522 19be bba9 3fbe
000003a0: f75d 37be 5396 05be a293 bd3d d371 c93d
000003b0: 7fe5 ea3c d3a6 0dbe f105 1fbe 6c14 87be
000003c0: 2c17 7ebe 438f 05be c03c 10be 5235 243d
000003d0: 0aca d9bd b629 e5bd 09a0 563d 784a 103d
000003e0: c9db c1bb 49ab 7d3c e3bd dc3c 7482 123d
000003f0: 0552 093d 9c16 bebd 1e76 7c3d 3a8c 7abd

block2.1.conv.bias f4 [16]
-0.088545546 0.09893501 0.063771546 0.045006666 0.09500698 0.114195466 0.06613245 0.079873666
-0.07622065 0.10756058 0.03225759 -0.014203797 0.059211444 -0.09455295 0.11173581 -0.01684508
00000000: 5e57 b5bd 709e ca3d a89a 823d e958 383d
00000010: 0593 c23d 50df e93d 7370 873d ce94 a33d
00000020: 9219 9cbd b948 dc3d 8920 043d 0bb7 68bc
00000030: b387 723d faa4 c1bd bfd5 e43d b1fe 89bc

block2.1.BN.weight f4 [16]
0.86993706 1.056499 0.8499916 1.0460486 0.90298766 0.9161853 1.0813433 0.9881716
1.095052 0.87369287 1.0144664 0.8623006 0.95337635 0.9932306 1.1496404 1.1526124
00000000: 32b4 5e3f 5c3b 873f 0d99 593f ece4 853f
00000010: 332a 673f 1f8b 6a3f 7569 8a3f d0f8 7c3f
00000020: aa2a 8c3f 56aa 5f3f 09da 813f bbbf 5c3f
00000030: 7910 743f 5c44 7e3f 6b27 933f ce88 933f

block2.1.BN.bias f4 [16]
-0.09998611 -0.056862235 -0.2992603 -0.0044839554 -0.33453742 -0.20147267 0.017486671 -0.21940231
-0.085102715 -0.17949052 -0.021017501 -0.044161756 -0.20443554 0.015699178 -0.04968939 -0.1257481
00000000: 85c5 ccbd 60e8 68bd a538 99be 25ee 92bb
00000010: 7d48 abbe da4e 4ebe 3540 8f3c 00ab 60be
00000020: 554a aebd 5dcc 37be e52c acbc f5e2 34bd
00000030: 8d57 51be 909b 803c 1a87 4bbd 1cc4 00be

block2.1.BN.running_mean f4 [16]
1.1220882 -0.64169556 0.42886955 -0.79182374 0.58426255 0.9229686 0.14314163 0.9246268
-0.9276448 0.029209904 -0.8056002 0.10894941 1.65405 -0.6519461 0.0369214 -0.09066936
00000000: 96a0 8f3f 2946 24bf ca94 db3e f6b4 4abf
00000010: 3b92 153f ac47 6c3f b893 123e 58b4 6c3f
00000020: 217a 6dbf 9c49 ef3c d13b 4ebf de20 df3d
00000030: e9b7 d33f f1e5 26bf e53a 173d dbb0 b9bd

block2.1.BN.running_var f4 [16]
1.5934553 0.501094 0.51998615 1.0926431 0.68901527 0.71419066 0.46543318 0.503369
0.46848875 0.5157588 0.5473812 1.0851376 0.5208383 1.6318073 0.58726734 0.43661535
00000000: 58f6 cb3f b247 003f d01d 053f bbdb 8b3f
00000010: 4e63 303f 33d5 363f 424d ee3e cadc 003f
00000020: c2dd ef3e c508 043f 2d21 0c3f cae5 8a3f
00000030: a955 053f 10df d03f 2757 163f 0c8c df3e
