result/model/0518 1519.pt (torch, 79197 bytes, 98 tensors)

input_conv.conv.weight f4 [4, 1, 3, 3]
0	0x3df1dffb	0.11810299
1	0x3d1f8807	0.038948085
2	0x3e55023f	0.20801638
3	0x3eaa2cc9	0.33237293
4	0xbd671b1c	-0.056422338
5	0xbe927458	-0.28604388
6	0xbe845835	-0.25848547
7	0x3d846d7d	0.06466196
8	0xbdc2310d	-0.09482012
9	0x3e3ec932	0.18631437
10	0xbe5e07dd	-0.21682687
11	0x3ee0ceaf	0.43907687
12	0xbccbac5d	-0.024862463
13	0xbe4821e8	-0.19544184
14	0x3e879047	0.26477262
15	0xbeb8c335	-0.3608643
16	0x3e03cb7c	0.12870592
17	0x3c7053c9	0.014668413
18	0x3e2409a3	0.16019301
19	0x3f137b91	0.5761042
20	0xbd63cb95	-0.055614073
21	0x3e89d6f1	0.269218
22	0x3e5a94e7	0.21345864
23	0x3e71d7c5	0.23617466
24	0xbe681050	-0.22662473
25	0xbeb3e85a	-0.35138208
26	0x3cb146e8	0.021640256
27	0xbd3b812e	-0.045777492
28	0x3df42ed4	0.11922994
29	0xbecedc17	-0.4040229
30	0x3eb7643a	0.35818654
31	0xbea22c72	-0.31674534
32	0xbe2a9e50	-0.16661954
33	0x3c173ed1	0.009231285
34	0xbe71bf60	-0.2360816
35	0x3c767e8c	0.01504482

input_conv.conv.bias f4 [4]
0	0xbd1aff40	-0.03784108
1	0x3e855dc5	0.26048103
2	0x3e5de745	0.21670254
3	0xbeb111e9	-0.34583977

input_conv.BN.weight f4 [4]
0	0x3f54879a	0.8301941
1	0x3f79c106	0.97560155
2	0x3f8ab29b	1.0835756
3	0x3f8cacf2	1.0990279

input_conv.BN.bias f4 [4]
0	0x3e20f48f	0.15718292
1	0x3e3fd8ab	0.18734996
2	0xbcc19ff0	-0.023635834
3	0x3debebec	0.11519608

input_conv.BN.running_mean f4 [4]
0	0xbcccfb10	-0.02502206
1	0x3e9acacb	0.30232844
2	0x3ebb6003	0.3659669
3	0xbeebfebc	-0.46092784

input_conv.BN.running_var f4 [4]
0	0x3ab60c15	0.0013889099
1	0x3b9a2422	0.0047040144
2	0x3cf9eefc	0.030509464
3	0x3c99bde3	0.018767303

block1.0.conv.weight f4 [8, 4, 3, 3]
0	0xbd0ce613	-0.034399103
1	0x3c14873d	0.009065446
2	0xbe709e68	-0.23497927
3	0x3e029888	0.12753499
4	0x3da2ac3a	0.07943006
5	0xbea106d4	-0.31450522
6	0x3e8a7f32	0.27050167
7	0xbd18f42f	-0.037342247
8	0x3e06a137	0.13147436
9	0xbdc622f6	-0.09674637
10	0xbe07c30e	-0.13258001
11	0xbde57cf1	-0.11205471
12	0xbe094c52	-0.1340802
13	0xbd9ad67c	-0.07560441
14	0xbddedc49	-0.1088186
15	0x3e551d3b	0.20811932
16	0x3e3bce13	0.1834033
17	0x3d8ff2bb	0.07028719
18	0xbe185ea7	-0.14879857
19	0xbe1c1384	-0.1524182
20	0x3d3d3fb7	0.04620334
21	0xbe0cf2fb	-0.13764565
22	0x3dc676e7	0.096906476
23	0x3dc7e0c5	0.09759668
24	0xbc2c6c1f	-0.010523825
25	0x3e0c19b4	0.1368168
26	0x3e3b6fb6	0.18304333
27	0x3ed64873	0.4185215
28	0x3d946261	0.07245327
29	0x3da80aed	0.08205209
30	0x3d81227b	0.06305405
31	0x3e00f079	0.12591733
32	0x3d3ad672	0.045614667
33	0xbc3bf615	-0.011472245
34	0x3db463fa	0.088081315
35	0x3d0afdcb	0.033933442
36	0xbd9bde57	-0.07610767
37	0xbd5c49bd	-0.05378126
38	0x3dc41e38	0.09576076
39	0xbb20e2ce	-0.0024549249
40	0x3da5fafe	0.081045136
41	0x3d054b2a	0.032542385
42	0xbde7c97f	-0.11317729
43	0xbdab2eab	-0.083585106
44	0xbe255241	-0.16144659
45	0x3d2daa3f	0.042398687
46	0xbe18ba0d	-0.14914723
47	0x3bb03d2a	0.005378385
48	0x3d6b8256	0.057497345
49	0x3dcee0e5	0.10101489
50	0x3e22a6fe	0.15884015
51	0xbdc318e5	-0.09526233
52	0xbdc57c7d	-0.09642885
53	0x3e46749d	0.19380422
54	0x3d32776f	0.043570932
55	0x3dcb994c	0.099413484
56	0x3e008ed9	0.12554492
57	0xbdfe0bbd	-0.12404583
58	0xbd88dc13	-0.06682601
59	0x3e9d53b6	0.3072793
60	0xbe8421cc	-0.25807035
61	0xbe692cf0	-0.22771049
62	0xbd8d0925	-0.0688651
63	0x3e0553d5	0.1302026
64	0x3de604a1	0.11231352
65	0x3e284697	0.16433178
66	0x3dc09cc8	0.09404904
67	0xbdeb29d4	-0.114825875
68	0xbe637066	-0.22210845
69	0x3de257b1	0.11051882
70	0xbdb2fe3a	-0.08739896
71	0xbea187d2	-0.31548935
72	0xbd4d6c94	-0.050152376
73	0xbe4540a2	-0.19262937
74	0x3d2ba115	0.041901667
75	0x3d9e58dd	0.07731793
76	0xbda81361	-0.08206821
77	0x3e386b19	0.18009605
78	0xbde37d6c	-0.11107907
79	0xbe14b9bd	-0.14523979
80	0x3c71e922	0.014765056
81	0x3de81580	0.11332226
82	0x3e86b494	0.26309645
83	0x3d1ca97d	0.038247574
84	0xbe91d9c1	-0.28486446
85	0x3dae2507	0.08503156
86	0x3c34ff31	0.0110471705
87	0xbd3689b4	-0.044564918
88	0xbd951866	-0.07280044
89	0x3d856b68	0.06514627
90	0xbe1b8882	-0.15188792
91	0x3d679250	0.05653602
92	0xbc6f4580	-0.014603972
93	0x3b070586	0.0020602657
94	0xbd49dcb2	-0.049282737
95	0x3d963cba	0.073358014
96	0x3e3eef4a	0.18645969
97	0xbcf605d5	-0.030032078
98	0xbbe5be41	-0.0070112054
99	0x3e0f4f2c	0.13995045
100	0x3e911eaa	0.28343707
101	0x3dbad280	0.09122181
102	0x3e158dde	0.146049
103	0x3e0d4904	0.13797385
104	0x3d892cda	0.06698008
105	0x3cc6bab5	0.02425895
106	0xbd940f7f	-0.07229518
107	0xbe487574	-0.19576055
108	0x3e1b4af8	0.15165317
109	0x3d36541c	0.044513807
110	0xbe0510b7	-0.12994657
111	0x3e21c752	0.15798691
112	0x3d3094f7	0.043110814
113	0x3e055dea	0.13024107
114	0x3d95164c	0.072796434
115	0x3d5cdcd0	0.05392152
116	0xbe107e2e	-0.14110634
117	0x3c7e0e9c	0.015506413
118	0xbca6ff75	-0.020385483
119	0xbdc9471a	-0.09828015
120	0x3e609719	0.21932639
121	0x3e111f32	0.14172056
122	0x3e1f5cf3	0.15562801
123	0xbc9ab193	-0.018883502
124	0x3dbba3a2	0.0916207
125	0x3e49eb04	0.19718558
126	0xbd9fe6bf	-0.07807683
127	0xbe2ceb9a	-0.1688675
128	0xbe4803ef	-0.1953275
129	0x3e197eff	0.14989851
130	0x3d742849	0.05960873
131	0xbe215f71	-0.15759064
132	0xbe338a0e	-0.17533132
133	0xbcf8376c	-0.030299865
134	0x3ce1f059	0.027580427
135	0xbeaae416	-0.3337714
136	0xbdb8a73b	-0.09016272
137	0x3ca3c2b9	0.019990312
138	0xbe772fb5	-0.24139293
139	0xbdb00f7c	-0.085967034
140	0x3d9365af	0.07197129
141	0xbb9a65fa	-0.0047118636
142	0xbcc0c80f	-0.023532895
143	0x3ca63890	0.020290643
144	0x3cf1c1e0	0.029511392
145	0xbe098328	-0.13428938
146	0x3d4aea0a	0.049539603
147	0xbd4a7c74	-0.049435094
148	0xbdaa55b6	-0.08317129
149	0x3b49fea9	0.0030821955
150	0x3e98f202	0.29872137
151	0x3e147b38	0.14500129
152	0x3dc27a2e	0.0949596
153	0x3e448f42	0.19195274
154	0x3df08958	0.11744946
155	0x3e294102	0.16528705
156	0xbd105310	-0.035235465
157	0xbc1d6dc0	-0.009608686
158	0x3de7ffdb	0.113280974
159	0xbe0d3455	-0.13789494
160	0xbe12a807	-0.1432191
161	0x3d84ef86	0.06490998
162	0xbe20b7e3	-0.15695147
163	0x3e3b01e8	0.18262446
164	0x3e05e4b5	0.13075526
165	0x3e052ad1	0.13004614
166	0x3e46d88c	0.19418544
167	0x3e67e04f	0.2264416
168	0x3c1e3670	0.009656534
169	0x3cda7e50	0.026671559
170	0x3a337c45	0.00068468257
171	0x3be11b9d	0.006869747
172	0x3e612f13	0.21990614
173	0xba82ee99	-0.000998932
174	0xbd7f6d90	-0.062360346
175	0xbe093863	-0.13400416
176	0xbe19b54a	-0.15010563
177	0x3b1e21d3	0.0024129048
178	0x3e2cca98	0.16874158
179	0xbd2c8a33	-0.042123985
180	0xbe2fd99a	-0.17172852
181	0xbe1d8821	-0.1538396
182	0x3d019b46	0.03164222
183	0xbe0c2ada	-0.13688222
184	0xbd8294bc	-0.06376025
185	0x3e61607d	0.22009464
186	0x3e19053b	0.14943402
187	0xbb5da7f6	-0.0033822036
188	0x3e2722cd	0.16321869
189	0xbe3c12e3	-0.1836658
190	0x3bc03d2c	0.0058666673
191	0x3d78b783	0.060721885
192	0x3e12c53b	0.1433305
193	0x3e66bbeb	0.22532623
194	0x3df84820	0.12123132
195	0x3d626ce3	0.055279624
196	0xbddf279e	-0.10896228
197	0xbd2a842d	-0.04162996
198	0xbe6e8012	-0.23291042
199	0xbe2789a1	-0.16361095
200	0x3d87c396	0.06629102
201	0xbe75dfa1	-0.24011089
202	0x3e1ca4e3	0.15297274
203	0x3e5238bf	0.2052946
204	0xbcdd4bc9	-0.027013676
205	0x3dcdb14c	0.10043582
206	0xbdb1722d	-0.086643554
207	0x3e49e167	0.1971489
208	0xbc0aa697	-0.00846257
209	0xb750261b	-1.2406638e-05
210	0x3cb697ca	0.022289176
211	0x3e24f0d8	0.161075
212	0x3e255c59	0.16148509
213	0xbeabb8d6	-0.33539456
214	0xbdb7991e	-0.08964752
215	0xbe25a69c	-0.16176838
216	0xbbc65ec4	-0.0060537774
217	0x3d485ae3	0.0489148
218	0x3dc8c3d3	0.098029755
219	0xbd5f41af	-0.054506
220	0x3e37836e	0.1792123
221	0xbd994b1b	-0.07485028
222	0x3e091b02	0.13389209
223	0xbd44e0f9	-0.048066113
224	0xbd25f65a	-0.040518142
225	0x3df63462	0.1202171
226	0xbdc503c7	-0.09619861
227	0x3dc3c954	0.09559885
228	0x3d9fd3b2	0.078040496
229	0x3dd44dc8	0.10366398
230	0xbea26fd3	-0.3172594
231	0xbd4304ae	-0.047611885
232	0x3bf39bc9	0.0074343425
233	0xbeb2d5ad	-0.34928647
234	0x3d61576f	0.055015024
235	0xbda9c835	-0.082901396
236	0x3e253272	0.16132525
237	0x3e69a9a4	0.22818619
238	0x3d35fc7e	0.04443025
239	0xbcd506c5	-0.026004205
240	0x3d943249	0.07236154
241	0x3e0dd8ae	0.13852188
242	0xbe9ea060	-0.3098173
243	0xbdcac531	-0.099008925
244	0x3d72c6ab	0.059271496
245	0x3de31043	0.11087086
246	0xbd38398b	-0.044976752
247	0x3d86b19f	0.06576847
248	0x3e3f577d	0.18685718
249	0xbbf7948b	-0.0075555495
250	0x3d9d0be7	0.07668286
251	0x3eadf034	0.33972323
252	0x3d8f1c07	0.06987768
253	0xbd926459	-0.07148046
254	0x3c878733	0.01654396
255	0xbe958d9a	-0.29209596

block1.0.conv.bias f4 [8]
0	0x3da9a141	0.0828271
1	0x3d16c0cf	0.03680497
2	0x3d058e74	0.032606557
3	0x3dc810ad	0.09768806
4	0x3df86cde	0.1213014
5	0x3dc56254	0.09637895
6	0xbe6551dd	-0.2239451
7	0xbe165fab	-0.14684932

block1.0.BN.weight f4 [8]
0	0x3f72f9a3	0.94912165
1	0x3f91ddde	1.1395833
2	0x3f6360b0	0.8881941
3	0x3f5ea92f	0.86976904
4	0x3f704f01	0.9387055
5	0x3f95359a	1.1656983
6	0x3f7a262c	0.97714496
7	0x3f7fa8bf	0.9986686

block1.0.BN.bias f4 [8]
0	0xbe90be37	-0.28270122
1	0x3cf9688b	0.030445358
2	0xbdb03ea4	-0.08605698
3	0xbe3bd7fc	-0.1834411
4	0xbdc110b6	-0.094270155
5	0x3defe994	0.11714473
6	0x3c2aad15	0.010417243
7	0xbdbbe7b8	-0.09175056

block1.0.BN.running_mean f4 [8]
0	0x3f07df6f	0.5307531
1	0xbe0fef04	-0.14056021
2	0x3ed06979	0.4070547
3	0x3df069c0	0.1173892
4	0x3f805190	1.0024891
5	0x3e306172	0.17224672
6	0x3e572b70	0.21012664
7	0x3d0662e0	0.03280914

block1.0.BN.running_var f4 [8]
0	0x3f086e09	0.532929
1	0x3e9e6c6b	0.3094209
2	0x3e640ff8	0.22271717
3	0x3ed5b0c9	0.4173644
4	0x3f7e4b0a	0.9933325
5	0x3e8d3bdb	0.2758473
6	0x3ef9676d	0.4871172
7	0x3f6554f1	0.89582735

block1.1.conv.weight f4 [16, 8, 3, 3]
0	0x3e04d977	0.12973581
1	0xbc8fd360	-0.017556846
2	0x3cdb6680	0.026782274
3	0xbdb0b82c	-0.08628878
4	0xbe2a52c1	-0.1663313
5	0xbe7d5fbc	-0.24743551
6	0x3dbe4d81	0.092921264
7	0x3e669db9	0.22521104
8	0x3bf039ac	0.007331094
9	0x3e4f2cdf	0.2023196
10	0x3e0e96e1	0.13924743
11	0x3e16ecc7	0.14738761
12	0xbd9b44b3	-0.07581463
13	0x3c871570	0.016489714
14	0x3d63a484	0.055576816
15	0xbdbbcb4d	-0.09169636
16	0xbd54dcd7	-0.05196842
17	0xbdb17653	-0.08665147
18	0x3ce58830	0.02801904
19	0x3e2c9a90	0.16855836
20	0xbbbaa56f	-0.0056959908
21	0x3c86f2d5	0.016473213
22	0x3dce3adc	0.1006982
23	0x3dd407bb	0.10353037
24	0xbd4869d9	-0.04892907
25	0xbdb7405c	-0.089478225
26	0x3d09a3c1	0.033603434
27	0xbd24ea6c	-0.040262625
28	0xbe666136	-0.2249802
29	0xbc992504	-0.018694408
30	0xbe29adae	-0.1657016
31	0xbdd6eab4	-0.10493985
32	0xbe4892e4	-0.19587284
33	0xbd0f9f98	-0.03506431
34	0xbe096e47	-0.13420974
35	0xbccdb50c	-0.025110744
36	0x3ca10c16	0.019659083
37	0x3e63b6bc	0.22237676
38	0x3e3604d0	0.17775273
39	0xbe711957	-0.23544823
40	0xbd029361	-0.031878833
41	0x3dbeb9be	0.09312771
42	0x3cf1c05a	0.029510666
43	0xbda87070	-0.08224571
44	0x3dded08e	0.108796224
45	0xbdb7022c	-0.08935961
46	0xbd3e76b5	-0.046499927
47	0xbdf01900	-0.11723518
48	0xbd13a61b	-0.036047082
49	0x3e582d32	0.2111099
50	0x3e3f250c	0.18666476
51	0x3e350e4e	0.17681238
52	0x3d36daf9	0.044642422
53	0xbdbc2680	-0.09187031
54	0xbd84f91f	-0.064928286
55	0xbcd7df11	-0.026351484
56	0x3d8a77bf	0.06761121
57	0x3d4fbb5f	0.0507158
58	0x3d619437	0.05507299
59	0x3e5dd719	0.21664084
60	0xbe58765e	-0.21138903
61	0xbe05b4cc	-0.1305725
62	0x3e2ce60d	0.16884632
63	0x3e588535	0.21144564
64	0x3dc7021e	0.09717201
65	0x3e15731c	0.14594692
66	0xbd83c1b9	-0.06433434
67	0xbdd7a971	-0.10530365
68	0xbd4ad4ee	-0.04951947
69	0x3c780dbd	0.015139994
70	0xbc89f550	-0.016840607
71	0x3d0c7b4d	0.034297276
72	0xbda1f43d	-0.07907913
73	0x3dac5d77	0.084162645
74	0x3ca909b7	0.020634515
75	0x3d74b563	0.059743296
76	0x3ac025d2	0.0014659709
77	0x3c28b098	0.0102960095
78	0x3cf85020	0.030311644
79	0xbda5bacc	-0.08092269
80	0xbdccab3c	-0.09993598
81	0x3d1190d7	0.03553852
82	0x3e04bbc3	0.1296225
83	0xbc17ce13	-0.0092654405
84	0x3df0a884	0.11750892
85	0x3df1d87a	0.11808868
86	0xbcf06fdd	-0.029350216
87	0x3e5d786e	0.21627972
88	0x3de75325	0.112951554
89	0xbdb9293b	-0.09041067
90	0xbe57ed12	-0.21086529
91	0xbe2ebe80	-0.17064857
92	0x3da422b5	0.08014432
93	0xbbd8f19f	-0.0066206004
94	0x3dbc1f04	0.09185603
95	0x3df744ac	0.12073645
96	0xbd846098	-0.06463736
97	0xbdc0633f	-0.0939393
98	0xbdccb084	-0.09994605
99	0x3e1d1dd4	0.1534341
100	0xbccb1d31	-0.024794193
101	0xbe2def25	-0.16985758
102	0x3d335f11	0.043791834
103	0x3d2cec98	0.04221782
104	0xbbc682d4	-0.0060580764
105	0xbe13062d	-0.14357825
106	0xbded345a	-0.11582251
107	0xbe1a08eb	-0.15042464
108	0x3b800401	0.0039067273
109	0x3d3baae4	0.04581727
110	0x3e681e40	0.2266779
111	0xbd1a599c	-0.037683114
112	0x3e0d98a7	0.13827763
113	0x3e4bb9ad	0.19895048
114	0xbe27cb69	-0.16386189
115	0x3deb1df6	0.11480324
116	0xbd861ef9	-0.06548876
117	0xbe4e1078	-0.2012347
118	0xbdcc4099	-0.099732585
119	0xbe2a769d	-0.1664681
120	0xbd79b8fc	-0.06096743
121	0x3cc0d9d5	0.02354137
122	0x3e42b186	0.19013032
123	0x3d9317a7	0.07182246
124	0xbde12590	-0.109934926
125	0xbe8d23de	-0.27566427
126	0xbdb4eeaf	-0.08834588
127	0x3db694fc	0.08915135
128	0x3d10546c	0.03523676
129	0xbddc38f6	-0.10753052
130	0xbe0da1aa	-0.13831201
131	0xbdfc9fa9	-0.1233514
132	0xbe648782	-0.22317317
133	0xbe4af126	-0.19818553
134	0xbe2d38d1	-0.16916205
135	0xbc95551b	-0.018229058
136	0xbae7c7cf	-0.0017683449
137	0xbdc0ad2d	-0.09408031
138	0x3d49b5fa	0.049245812
139	0x3cbcc7ee	0.023044553
140	0x3d5977b2	0.053092666
141	0xbdefbcb3	-0.117059134
142	0xbde53b9a	-0.11193009
143	0xbe98a8de	-0.29816335
144	0xbdab01ec	-0.08349976
145	0xbd249b83	-0.04018737
146	0x3c9c94b0	0.019113868
147	0xbd1fb3ca	-0.03898982
148	0xbde3b26b	-0.11118015
149	0xbdef7d89	-0.11693866
150	0x3e01910e	0.1265299
151	0x3e1a98a8	0.15097296
152	0xbd8cbb89	-0.06871707
153	0x3e490c5b	0.1963362
154	0x3e1d4213	0.15357237
155	0xbbc3c535	-0.0059744366
156	0x3dbcd7be	0.09220837
157	0x3dcb7d73	0.09936037
158	0xbdc7b5fd	-0.097515084
159	0x3e65ffaf	0.22460817
160	0x3d9b36a6	0.07578783
161	0xbd6a3618	-0.057180494
162	0x3d05b0a7	0.032639172
163	0xbd4481b0	-0.047975242
164	0xbdca1114	-0.09866539
165	0xbd19f2ef	-0.037585195
166	0x3dc26a9e	0.09492992
167	0xbe64d9f9	-0.22348775
168	0x3ddcf3df	0.10788702
169	0x3e3c13ea	0.18366972
170	0x3dbc1940	0.091845036
171	0x3da126db	0.07868739
172	0x3d9bfa94	0.07616153
173	0x3dbe3795	0.09287945
174	0xbda6ee9c	-0.0815098
175	0x3e10c4e4	0.14137608
176	0xbdba4657	-0.090954475
177	0x3e326400	0.1742096
178	0x3d72625d	0.059175838
179	0x3df2ce49	0.11855752
180	0xbb173ed2	-0.0023078215
181	0xb8ddbdea	-0.000105734754
182	0x3cae07fd	0.021244043
183	0x3df88592	0.121348515
184	0x3de19c8f	0.11016189
185	0x3e14c55a	0.14528409
186	0xbc5b9f85	-0.013404732
187	0xbd5f77aa	-0.05455748
188	0x3e1c0291	0.15235354
189	0x3d4040be	0.046936743
190	0x3d6a7317	0.057238664
191	0x3e1c5423	0.1526647
192	0xbe179b64	-0.1480537
193	0xbd917a32	-0.07103385
194	0xbe2e877c	-0.1704387
195	0xbd539255	-0.051653225
196	0x3db44959	0.088030525
197	0x3e247d4d	0.16063423
198	0x3c8c51a0	0.017128766
199	0x3c03d45c	0.008046236
200	0xbd805f4c	-0.062681764
201	0x3e405473	0.18782215
202	0x3e8fff54	0.28124487
203	0x3e345b24	0.17612892
204	0xbe59cda5	-0.21269853
205	0xbc17471c	-0.009233262
206	0x3c9723d6	0.018449705
207	0xbd363fd8	-0.04449448
208	0x3d4640a2	0.048401482
209	0xbd7b63dc	-0.06137453
210	0xbd340fab	-0.043960255
211	0xbdb54270	-0.088505626
212	0xbe6596f9	-0.22420873
213	0xbe1c967b	-0.15291779
214	0xbda92c03	-0.08260348
215	0xbe7d6f48	-0.24749482
216	0xbe867418	-0.26260448
217	0xbdf29311	-0.11844457
218	0x3dc627b4	0.096755415
219	0xbebcc27e	-0.36867136
220	0xbeaa3495	-0.33243242
221	0xbc45b98e	-0.0120681655
222	0xbe061c42	-0.13096717
223	0xbe4725ec	-0.1944806
224	0x3d028831	0.031868163
225	0x3dfa7482	0.12229253
226	0xbc9f147d	-0.01941895
227	0xbe0b0a8b	-0.1357824
228	0x3da3be4e	0.07995282
229	0xbe5f6359	-0.21815242
230	0xbec54af7	-0.38533756
231	0x3e93b0d6	0.28845853
232	0x3e50fe06	0.20409402
233	0xbdc36d80	-0.0954237
234	0x3e67f010	0.2265017
235	0x3d98b4b2	0.0745634
236	0xbe003dcd	-0.12523575
237	0x3d9b884f	0.07594358
238	0xbe33a53b	-0.17543499
239	0xbd42c0ef	-0.047547277
240	0x3e53fcaa	0.20701852
241	0x3e5f4c15	0.21806367
242	0x3d8b202c	0.06793246
243	0xbd929150	-0.071566224
244	0xbca69e2f	-0.0203391
245	0x3db0e92e	0.086382255
246	0xbd6ca6d8	-0.057776302
247	0x3d4e1442	0.050312288
248	0xbdcd1b39	-0.10014958
249	0x3da90902	0.08253671
250	0xbcdc40d9	-0.02688639
251	0x3e3586ce	0.17727205
252	0xbd0f1498	-0.03493175
253	0x3d848e40	0.064724445
254	0xbd9783c2	-0.07398178
255	0xbb806d8f	-0.0039193104

block1.1.conv.bias f4 [16]
0	0xbc8d2be4	-0.017232843
1	0xbe09755d	-0.13423677
2	0x3d47c329	0.048770104
3	0x3be8f2fe	0.007109045
4	0x3ca28e1f	0.01984316
5	0x3ced3a16	0.028958362
6	0xbd28f84e	-0.041252427
7	0xbdd77e38	-0.10522121
8	0xbd7d7b71	-0.0618853
9	0x3de74732	0.11292876
10	0x3e2c375b	0.16817991
11	0xbce0146a	-0.027353484
12	0x3e080915	0.13284715
13	0xbd8adf60	-0.06780887
14	0xbc142379	-0.00904166
15	0x3d3985a4	0.045293465

block1.1.BN.weight f4 [16]
0	0x3f84f009	1.0385753
1	0x3f7f3a3d	0.9969824
2	0x3f60a93c	0.8775823
3	0x3f8e1ebd	1.110313
4	0x3f77a0a3	0.9672949
5	0x3f86f84f	1.0544528
6	0x3f7ea638	0.9947238
7	0x3f78b859	0.9715629
8	0x3f879a79	1.0594016
9	0x3f730108	0.9492345
10	0x3f86843e	1.0509107
11	0x3f7ee3c4	0.9956629
12	0x3f85ec09	1.0462657
13	0x3f694b77	0.91130775
14	0x3f8bdb06	1.0926216
15	0x3f75d07a	0.96021235

block1.1.BN.bias f4 [16]
0	0xbe6c52cf	-0.23078464
1	0x3c9244fe	0.017855164
2	0xbdc06863	-0.0939491
3	0xbb9d43f3	-0.00479936
4	0xbce8f4ed	-0.028437102
5	0xbddd1b45	-0.10796217
6	0xbe1ca805	-0.1529847
7	0xbdad9f20	-0.08477616
8	0x3ccbe3e7	0.024888946
9	0xbdd80ee5	-0.10549716
10	0xbdca47f1	-0.09877003
11	0xbcca5ae0	-0.024701536
12	0xbe31bfc2	-0.17358306
13	0xbe31b3cd	-0.17353745
14	0xbe3f311c	-0.18671077
15	0xbdfe3347	-0.12412124

block1.1.BN.running_mean f4 [16]
0	0x3e6cde01	0.23131563
1	0xbf3ce323	-0.73784083
2	0x3eebcc83	0.46054468
3	0xbe352d44	-0.17693049
4	0xbf268340	-0.6504402
5	0x3ea11ed3	0.3146883
6	0x3e603b71	0.21897675
7	0x3e962b4d	0.2932991
8	0xbef7426a	-0.48292857
9	0xbdea62d9	-0.11444635
10	0x3ee34f13	0.44396266
11	0xbed8968b	-0.42302355
12	0x3ee963d0	0.45583963
13	0xbea3b42f	-0.31973407
14	0x3f06fa8c	0.52726054
15	0xbea9fb59	-0.33199576

block1.1.BN.running_var f4 [16]
0	0x3edf3021	0.43591407
1	0x3ed3a6d9	0.41338232
2	0x3f806a81	1.0032502
3	0x3f5cbc51	0.8622485
4	0x3eedc3a2	0.46438318
5	0x3f2f3ad7	0.6844916
6	0x3eb3bb5e	0.35103887
7	0x3f1d1dee	0.61373794
8	0x3f0c1f27	0.54735035
9	0x3eff33de	0.4984426
10	0x3f2f754a	0.68538344
11	0x3efbcf77	0.4918172
12	0x3e894889	0.26813152
13	0x3fa8de62	1.3192866
14	0x3efa1b92	0.4884916
15	0x3ef48caa	0.47763568

block1.2.conv.weight f4 [8, 16, 3, 3]
0	0x3e11d5bf	0.14241694
1	0x3da5380d	0.080673315
2	0x3d9221c8	0.071353495
3	0x3e1b9c45	0.15196331
4	0x3c56f7aa	0.013120571
5	0x3e04de5a	0.12975445
6	0xbe6d26d8	-0.23159349
7	0xbdd7b04d	-0.105316736
8	0xbdca5b3f	-0.09880685
9	0x3dc99b30	0.09844053
10	0x3de4b5cc	0.111674875
11	0x3d51c6e7	0.05121508
12	0x3bf5e4b5	0.0075040706
13	0xbd44e4cb	-0.048069756
14	0xbd1fd11c	-0.03901778
15	0xbe0a84f9	-0.13527288
16	0x3c8ea365	0.017411897
17	0xbd2a1c18	-0.0415307
18	0xbdaee5b4	-0.08539906
19	0xbd805665	-0.062664784
20	0xbbad126f	-0.0052817385
21	0xbdd6db39	-0.10491032
22	0xbd5be52c	-0.053685352
23	0x3da950b9	0.0826735
24	0xbe09585e	-0.13412616
25	0xbde97d83	-0.114008926
26	0xbcaac993	-0.020848071
27	0x3c8ea0a0	0.017410576
28	0x3d00cb78	0.031444043
29	0x3df80333	0.12109985
30	0xbd9112a3	-0.07083633
31	0xbe029caf	-0.12755083
32	0x3d82716a	0.06369288
33	0xbdf65855	-0.12028567
34	0xbe9f9e8c	-0.3117565
35	0xbe733ff2	-0.23754862
36	0x3c42189e	0.0118466895
37	0x3c5600f9	0.013061755
38	0x3ce67d4b	0.028135916
39	0xbcb1d7b6	-0.021709304
40	0xbd5b0f34	-0.053481296
41	0xbd837deb	-0.06420501
42	0xbe57dd63	-0.21080546
43	0xbe8dc815	-0.27691713
44	0xbea0fa19	-0.3144081
45	0x3cae3463	0.021265214
46	0xbd2b0526	-0.041752957
47	0x3c456c17	0.012049696
48	0xbcf5d82f	-0.030010311
49	0xbd83f9d1	-0.06444133
50	0xbdce73d6	-0.10080688
51	0xbe36bd16	-0.17845568
52	0xbde2a02a	-0.11065705
53	0xbe8087b8	-0.25103545
54	0xbd2ebb68	-0.042659193
55	0x3dc4bbbf	0.09606122
56	0x3de7b6dd	0.11314175
57	0xbde6784d	-0.11253414
58	0xbd896b8e	-0.067099676
59	0x3e07268e	0.13198301
60	0xbd0fe4a3	-0.035130154
61	0xbdecfbea	-0.11571486
62	0x3e4835ce	0.19551775
63	0x3d13a734	0.03604813
64	0xbd108b8f	-0.035289343
65	0x3d302d55	0.043011982
66	0xbe00be7a	-0.12572661
67	0xbbe63779	-0.007025656
68	0xbe336eaa	-0.17522684
69	0xbdc10744	-0.09425214
70	0x3c76ac02	0.015055658
71	0xbd3e7861	-0.04650152
72	0x3ca4d5ee	0.02012154
73	0x3dbd5616	0.09244935
74	0x3dcfb216	0.10141389
75	0x3d29e0c4	0.04147412
76	0x3db6b23d	0.08920715
77	0x3ddd3c27	0.10802489
78	0xbdb1f570	-0.086893916
79	0xbc8ffe35	-0.01757727
80	0x3d5f85bc	0.0545709
81	0x3c892fe8	0.016746476
82	0xbcf77c09	-0.030210512
83	0xbd0cf003	-0.03440858
84	0x3d7b0a2f	0.06128901
85	0x3e482ab7	0.19547544
86	0x3d561361	0.052264575
87	0x3d935879	0.07194609
88	0xbd35dbf9	-0.044399235
89	0xbd037ff4	-0.032104447
90	0xbd708734	-0.05872269
91	0x3e1833a1	0.14863445
92	0xbcab3608	-0.020899788
93	0x3df384a2	0.11890532
94	0x3dbb008a	0.09130962
95	0x3da9e3c8	0.08295399
96	0xbe39e509	-0.18153776
97	0xbe21a2cb	-0.15784757
98	0xbde3b51c	-0.11118528
99	0xbd7c2442	-0.061558016
100	0xbb1260ad	-0.0022335455
101	0xba8420ad	-0.0010080539
102	0xbc846713	-0.01616243
103	0xbe1e91d2	-0.15485314
104	0xbd9f14ae	-0.07767616
105	0x3e5be4f6	0.2147406
106	0x3db10c59	0.08644933
107	0x3d259a10	0.04043013
108	0x3e6d0104	0.23144919
109	0x3e5989aa	0.21243921
110	0xbe00ce5f	-0.12578724
111	0x3da83b95	0.08214489
112	0x3c0944c1	0.008378209
113	0xbd8fd873	-0.07023706
114	0x3e1801d7	0.14844452
115	0x3d9a9f2b	0.0754989
116	0xbd1a0b6c	-0.03760855
117	0x3e6a4d6a	0.22881094
118	0x3e48733b	0.19575207
119	0x3d8a5b9c	0.06755754
120	0x3ded4625	0.11585645
121	0x3c2b98c6	0.010473436
122	0x3d1c00dd	0.03808676
123	0x3dfd8571	0.123789676
124	0xbd1a2328	-0.037631184
125	0x3d05f3eb	0.03270332
126	0xbdb9dd0f	-0.09075367
127	0xbe316214	-0.1732257
128	0xbd952c33	-0.07283821
129	0xbe3265c6	-0.17421636
130	0xbe45db33	-0.19321899
131	0xbe4bbd33	-0.19896393
132	0xbe248f15	-0.16070206
133	0xbdb009cb	-0.08595618
134	0xbc9d3322	-0.019189421
135	0xbce3c176	-0.02780221
136	0x3dcad519	0.099039264
137	0x3cdbfe20	0.026854575
138	0x3e6b41e6	0.22974357
139	0x3e56065b	0.20900862
140	0x3da7c4dd	0.081918456
141	0x3d5be88c	0.05368857
142	0xbce777e6	-0.028255414
143	0xbda87ab4	-0.08226529
144	0xbc94ebd5	-0.01817886
145	0x3d3a1874	0.045433477
146	0x3dcee9d4	0.10103193
147	0xbd7e9187	-0.062150504
148	0x3d2132e7	0.039355185
149	0x3d87f267	0.066380315
150	0xbe266b7e	-0.16251943
151	0x3c9770cb	0.018486401
152	0x3d2aa291	0.04165894
153	0xbcfd613c	-0.030930154
154	0xbd43db01	-0.04781628
155	0x3d600a62	0.0546974
156	0xbd319dad	-0.043363262
157	0xbe227bc9	-0.15867533
158	0x3d3bee20	0.04588139
159	0x3c2ef1d8	0.010677777
160	0x3d0aacb5	0.033856113
161	0xbcd19119	-0.025581883
162	0xbe0def3b	-0.1386079
163	0xbd318636	-0.043340884
164	0x3d8241dd	0.06360219
165	0xbdd17ce2	-0.10228898
166	0xbbf539c3	-0.0074836924
167	0x3d402213	0.046907496
168	0x3cd3c18b	0.025849124
169	0x3d59debf	0.053190943
170	0x3d2f5bf2	0.042812295
171	0xbbb5c5c2	-0.005547256
172	0xbd77dfa5	-0.06051602
173	0x3dd48931	0.1037773
174	0x3e59a897	0.21255718
175	0xbe03f3f5	-0.12886031
176	0x3cc93b05	0.024564276
177	0x3db72e84	0.08944419
178	0xbe3e66ea	-0.18593946
179	0xbd8fa1a0	-0.070132494
180	0xbe1815be	-0.14852044
181	0xbcd19a5c	-0.0255863
182	0x3d55e8d8	0.05222401
183	0xbc18a139	-0.009315782
184	0x3e127805	0.14303596
185	0x3dc468f7	0.09590333
186	0x3d849323	0.064733766
187	0x3ddc77d7	0.10765045
188	0x3d87d435	0.06632272
189	0x3e42104a	0.18951526
190	0x3e15e755	0.14639027
191	0x3d9b063e	0.0756955
192	0xbda756ef	-0.08170878
193	0xbe1c7319	-0.15278281
194	0xbb3bb6b9	-0.0028642847
195	0xbe05e66b	-0.13076179
196	0xbe0b6be7	-0.1361538
197	0xbe3f2686	-0.1866704
198	0x3da41376	0.080115244
199	0x3d9450ed	0.07241998
200	0x3db94980	0.09047222
201	0x3d52881a	0.051399328
202	0x3d14bfd0	0.03631574
203	0x3da0a9c9	0.07844884
204	0x3e51a017	0.20471226
205	0x3cee954f	0.02912393
206	0x3d583057	0.052780475
207	0x3d00132d	0.031268287
208	0xbdf96bc9	-0.121787615
209	0x3d0fde57	0.03512415
210	0xbe87e3d4	-0.26541007
211	0xbe4adc0a	-0.198105
212	0xbe59a44a	-0.21254078
213	0xbba08b27	-0.0048994008
214	0xbe4afc02	-0.19822696
215	0xbe070aa9	-0.1318766
216	0x3d62563a	0.055258013
217	0x3e38b2c6	0.18036947
218	0x3d31e3ea	0.043430246
219	0x3da525de	0.08063863
220	0x3e77c1bd	0.24194999
221	0x3d32d879	0.043663476
222	0x3d9c697d	0.07637308
223	0x3e14b011	0.14520289
224	0x3dd6864c	0.10474834
225	0xbd692cf4	-0.056927636
226	0x3dab4f10	0.08364689
227	0xbde3844d	-0.11109219
228	0x3e0e5683	0.13900189
229	0x3d657ad1	0.05602533
230	0xbdcf8da1	-0.101344354
231	0xbe0a603b	-0.13513272
232	0xbcde39e5	-0.027127216
233	0xbd9b7f9a	-0.075926974
234	0x3caaf522	0.020868842
235	0x3e3545f1	0.17702462
236	0x3e823a68	0.25435185
237	0xbd93a58c	-0.0720931
238	0xbd8aab87	-0.067709975
239	0xbe19e7db	-0.15029852
240	0xbd8edcbf	-0.06975698
241	0xbe83c0a9	-0.25732926
242	0xbe5b67ee	-0.21426365
243	0xbdcfe3e3	-0.10150888
244	0xbd30d2ee	-0.04316991
245	0x3dc04bef	0.09389483
246	0xbe6c5349	-0.23078646
247	0xbddb96b5	-0.107221045
248	0xbdb23472	-0.087014094
249	0x3e2c3759	0.16817988
250	0x3e419d30	0.18907619
251	0x3da900ca	0.082521036
252	0xbdee09c3	-0.11622956
253	0xbdd9b2e8	-0.10629827
254	0x3d003e6a	0.031309523
255	0xbc572f78	-0.013133876

block1.2.conv.bias f4 [8]
0	0x3d8553d6	0.06510131
1	0x3d2a8945	0.041634817
2	0x3d643c1f	0.0557214
3	0x3d0a6868	0.033790976
4	0x3bdaf7ef	0.006682388
5	0xbcf7cea0	-0.030249894
6	0xbcfc3fb7	-0.0307921
7	0x3dde31b1	0.10849322

block1.2.BN.weight f4 [8]
0	0x3f8987fe	1.0744627
1	0x3f7a1227	0.9768395
2	0x3f7b6d72	0.98213875
3	0x3f72992b	0.94764966
4	0x3f71912e	0.9436215
5	0x3f801a97	1.0008115
6	0x3f775f67	0.9662995
7	0x3f7590d6	0.9592413

block1.2.BN.bias f4 [8]
0	0xbe4af88a	-0.19821373
1	0xbe2e1a65	-0.17002256
2	0xbdab2914	-0.083574444
3	0xbe6a18ac	-0.22860974
4	0xbdec5f32	-0.115415946
5	0xbe122c1b	-0.14274637
6	0xbe1661db	-0.14685766
7	0xbe6ef24f	-0.23334621

block1.2.BN.running_mean f4 [8]
0	0xbf10492b	-0.56361645
1	0xbc24aef8	-0.010051481
2	0xbe2c4d30	-0.1682632
3	0x3f98edc8	1.1947565
4	0xc007c2fc	-2.121276
5	0xc000b5a5	-2.0110867
6	0xbfa5ee25	-1.2963301
7	0xbf134e8a	-0.57541716

block1.2.BN.running_var f4 [8]
0	0x400a2307	2.158388
1	0x3f434fb7	0.7629351
2	0x3fc83165	1.5640074
3	0x3fe08749	1.7541286
4	0x403a0c7f	2.9070127
5	0x4063a50f	3.5569494
6	0x40050708	2.0785542
7	0x3f597204	0.849396

block1.3.conv.weight f4 [4, 8, 3, 3]
0	0xbe049c07	-0.12950145
1	0xbe019315	-0.12653764
2	0xbd351a5d	-0.044214595
3	0x3c150287	0.009094841
4	0x3cb8980c	0.02253344
5	0x3df92c0b	0.12166604
6	0x3e5b494b	0.21414678
7	0x3eb0f196	0.34559315
8	0x3ea152d0	0.31508493
9	0x3c64160f	0.013921275
10	0xbd17ddc2	-0.03707672
11	0xbc92c730	-0.017917246
12	0x3e6cb6b6	0.23116574
13	0xbccc2023	-0.024917668
14	0xbdc348ec	-0.09535393
15	0xbcca9f1d	-0.024734074
16	0x3de75e92	0.11297335
17	0x3d5d8c81	0.054089073
18	0x3e1b10a5	0.15143068
19	0xbcb536f6	-0.022120934
20	0x3d9cbe73	0.07653513
21	0x3b5e6438	0.0033934247
22	0x3d6a5bf3	0.057216596
23	0x3dab1bc8	0.08354908
24	0x3e516891	0.20450045
25	0x3e54bbf0	0.20774817
26	0x3c8c37b8	0.017116413
27	0xbe021e34	-0.12706834
28	0xbd7262ad	-0.059176136
29	0xbdb9257c	-0.09040353
30	0x3d8f65ae	0.07001816
31	0x3d187a4f	0.037226018
32	0x3d165c4c	0.036709115
33	0x3aaeedeb	0.0013346052
34	0xbdb797fd	-0.08964536
35	0xbd0933e2	-0.033496745
36	0xbdcbfa92	-0.09959902
37	0xbe2c61fd	-0.16834255
38	0xbdce74a4	-0.10080841
39	0x3d4d1202	0.050066
40	0x3df2f677	0.11863416
41	0x3def534a	0.11685808
42	0x3cbd4670	0.023104876
43	0x3e01e4f6	0.12684998
44	0x3c92ef0f	0.017936258
45	0xbe3c6628	-0.18398345
46	0xbdca9100	-0.09890938
47	0x3d26965c	0.040670738
48	0x3dd1fb82	0.102530494
49	0xbd3e2d0a	-0.04642967
50	0xbc9da601	-0.019244196
51	0x3e3463c5	0.17616184
52	0xbe011fd2	-0.12609795
53	0xbe30f958	-0.17282617
54	0xbdb8ddee	-0.09026705
55	0xbe11f243	-0.14252572
56	0xbbf2a360	-0.0074047297
57	0xbe6671bc	-0.22504324
58	0x3d073894	0.03301294
59	0x3ca161c4	0.019699939
60	0xbd38ea96	-0.045145594
61	0x3df29683	0.11845114
62	0x3ddb8eef	0.10720622
63	0x3e67c081	0.22632028
64	0x3d065416	0.032795034
65	0xbd8db026	-0.06918363
66	0xbda43314	-0.08017555
67	0x3df30c93	0.11867633
68	0x3e1a13f4	0.15046674
69	0xbdf81d01	-0.12114907
70	0x3d927c13	0.071525715
71	0x3e3d236d	0.18470545
72	0xbe8bc930	-0.2730193
73	0xbe638502	-0.22218707
74	0xbdd53767	-0.10410958
75	0x3df1b77c	0.11802575
76	0x3e19e844	0.15030009
77	0xbb474677	-0.003040699
78	0x3d640d72	0.055676885
79	0x3db4ca7e	0.08827685
80	0x3db94e9d	0.090481974
81	0xbe60a48c	-0.2193777
82	0xbd4867d4	-0.048927143
83	0x3d10171a	0.03517828
84	0x3c549d15	0.012976904
85	0x3e18b712	0.14913586
86	0x3d8d7138	0.069063604
87	0xbdfddc85	-0.123955764
88	0x3e1b1c67	0.15147553
89	0x3cf178a2	0.029476468
90	0xbde3aabb	-0.11116549
91	0xbe403073	-0.18768482
92	0xbe0dddb5	-0.13854106
93	0xbdc507f9	-0.09620661
94	0x3d41a067	0.047272112
95	0x3c1f7abf	0.009733855
96	0xbce2e633	-0.027697658
97	0xbdc48af2	-0.09596814
98	0x3e238116	0.15967211
99	0xbe63eaee	-0.22257587
100	0x3ddffc98	0.1093685
101	0x3d9c388d	0.07627974
102	0xbe01747a	-0.12642089
103	0xbd474151	-0.048646275
104	0x3e881af9	0.26583079
105	0xbe3041bb	-0.17212574
106	0x3cd5b443	0.026086932
107	0x3d80949d	0.06278346
108	0x3d8c3631	0.06846274
109	0x3e3ba384	0.18324095
110	0x3ddf7410	0.10910809
111	0xbca09cce	-0.01960602
112	0xbdf79462	-0.12088849
113	0x3c0cc860	0.008592695
114	0x3c0670a8	0.00820557
115	0xbb42127c	-0.0029613068
116	0xbdcd34d1	-0.100198396
117	0xbd90c2c5	-0.07068399
118	0x3e7c8eca	0.24663845
119	0x3e9427a2	0.28936487
120	0x3df7950d	0.12088976
121	0x3d00784a	0.031364717
122	0x3e160fa8	0.1465441
123	0xbd1baaa6	-0.03800454
124	0xbdaade90	-0.08343232
125	0x3d053535	0.032521445
126	0x3d35a700	0.044348717
127	0x3e117eb4	0.1420849
128	0x3d84e378	0.06488699
129	0xbd3ce24f	-0.046114262
130	0x3d6df2c9	0.058092866
131	0xbd92eab2	-0.07173671
132	0xbde64f3d	-0.11245582
133	0xbd9529df	-0.07283377
134	0xbe518c70	-0.20463729
135	0x3d50dc22	0.050991185
136	0x3d505c16	0.05086907
137	0xbd9b4554	-0.07581583
138	0xbcdd7e0a	-0.02703764
139	0xbd3a29d0	-0.04545003
140	0x3d13dd51	0.036099736
141	0xbb7e4c1a	-0.0038802684
142	0xbe3c115e	-0.18366
143	0xbe2dfda5	-0.16991289
144	0x3dc2e5bb	0.09516474
145	0xbdd37844	-0.10325673
146	0xbe3cbef4	-0.18432218
147	0xbd0784a7	-0.03308549
148	0xbbf75a93	-0.007548639
149	0xbe2890aa	-0.16461435
150	0x3bc54924	0.006020682
151	0xbd6132e6	-0.05498018
152	0xbe19b9cb	-0.1501228
153	0x3e410d75	0.1885279
154	0x3d6b9629	0.05751625
155	0xbdff751a	-0.12473507
156	0x3cf7435c	0.030183487
157	0x3da39b69	0.079886265
158	0xbd35dce9	-0.04440013
159	0xbb806e50	-0.0039194003
160	0xbdca5b55	-0.098807015
161	0xbe2118a6	-0.15732059
162	0x3e4fdcb7	0.2029904
163	0x3dd7093f	0.104998104
164	0x3e7b28b6	0.24527249
165	0x3e5f558f	0.21809982
166	0x3d5402b9	0.05176041
167	0xbd87330a	-0.06601532
168	0x3e2f6639	0.17128839
169	0xbcf3a326	-0.029740881
170	0x3cf53f86	0.029937517
171	0x3d16cebf	0.036818262
172	0x3de2b192	0.11069025
173	0x3e019f19	0.12658347
174	0x3da911f1	0.08255375
175	0x3e3f98cc	0.18710631
176	0x3e332617	0.17494999
177	0xbcc17f38	-0.023620233
178	0x3d1eab7e	0.038737766
179	0xbd0e4b34	-0.034739688
180	0xbd629e43	-0.05532671
181	0x3d944ab5	0.07240812
182	0x3cd1d84e	0.025615837
183	0x3e4613cf	0.19343494
184	0xbc6ada57	-0.014334283
185	0x3e1a4aa5	0.15067537
186	0x3dc5a818	0.09651202
187	0x3a5fff6b	0.0008544835
188	0x3d0a86cb	0.033819955
189	0xbdfe1a6d	-0.12407384
190	0xbc5ac5ed	-0.013352853
191	0x3e126745	0.14297207
192	0xbe27c23b	-0.16382687
193	0xbe0671db	-0.1312937
194	0xbda3b6d0	-0.07993853
195	0x3d385387	0.045001533
196	0xbd7c1335	-0.061541755
197	0x3dcda7bd	0.10041759
198	0xbd5fafab	-0.05461089
199	0xbe2c3376	-0.16816506
200	0x3d633919	0.055474374
201	0x3e1b706c	0.15179604
202	0x3e46ec48	0.19426072
203	0x3e4f5816	0.20248446
204	0x3d8e14a5	0.069375314
205	0x3dbcb33b	0.09213873
206	0x3d517bf0	0.051143587
207	0x3daf70d9	0.08566446
208	0xbd76c53f	-0.060246702
209	0x3d17c916	0.037057005
210	0xbe592088	-0.21203816
211	0xbd84f12d	-0.06491313
212	0xbda49235	-0.08035699
213	0xbc8b3738	-0.016994104
214	0x3e6e6196	0.23279414
215	0x3ddc92bb	0.10770174
216	0xbd054d9f	-0.03254473
217	0xbc4d76e2	-0.012540551
218	0x3e26fd0c	0.16307467
219	0x3de19759	0.110151954
220	0xbd90281f	-0.070389025
221	0x3e0e7ca4	0.13914734
222	0x3e295126	0.16534862
223	0x3d284784	0.041083828
224	0x3c2e4223	0.010635885
225	0xbe03a5bc	-0.12856191
226	0x3b9309e1	0.0044872616
227	0xbd9befcc	-0.07614097
228	0xbe7e5648	-0.24837601
229	0xbe2c2d49	-0.1681415
230	0x3e74198d	0.23837872
231	0xbe90526c	-0.28187883
232	0xbdfe64a4	-0.124215394
233	0x3de6cef3	0.11269941
234	0xbe47eef2	-0.19524744
235	0x3cdb1400	0.026742935
236	0x3d13518a	0.035966434
237	0xbe1d4e43	-0.15361886
238	0xbd2ea304	-0.042635933
239	0xbe4c5740	-0.19955158
240	0xbdc6dca4	-0.097100526
241	0xbd10e4b2	-0.03537435
242	0xbe273369	-0.16328205
243	0x3d7804e0	0.060551524
244	0x3dcef242	0.10104801
245	0x3dda1581	0.10648633
246	0x3e2d9ffb	0.16955559
247	0xbd1af5f5	-0.03783222
248	0xbd68253a	-0.056676127
249	0xbdedf219	-0.11618442
250	0xbd69dbe6	-0.057094477
251	0xbdca62d9	-0.09882135
252	0x3dbd90fd	0.0925617
253	0x3da8327b	0.082127534
254	0x3d81500f	0.06314098
255	0xbdd2205b	-0.102600776

block1.3.conv.bias f4 [4]
0	0x3e3e188c	0.18564051
1	0xbe248df3	-0.16069774
2	0x3d856c67	0.06514817
3	0xbe7de688	-0.24794972

block1.3.BN.weight f4 [4]
0	0x3f88672f	1.0656489
1	0x3f816c13	1.0111107
2	0x3f5fadeb	0.8737475
3	0x3f82504b	1.0180753

block1.3.BN.bias f4 [4]
0	0xbe0ea181	-0.13928796
1	0x3da9eae4	0.08296755
2	0xbe3cfbdd	-0.18455453
3	0x3d97887a	0.07399078

block1.3.BN.running_mean f4 [4]
0	0x3f1e3833	0.61804503
1	0xbe47fc24	-0.19529778
2	0x3f197c07	0.59954876
3	0xbf0213c3	-0.50811404

block1.3.BN.running_var f4 [4]
0	0x3eea1a39	0.4572313
1	0x3ed9d419	0.4254463
2	0x3ea8ffd6	0.33007687
3	0x3ec09911	0.3761678

block2.0.conv.weight f4 [8, 4, 3, 3]
0	0x3d9a201b	0.07525655
1	0x3e048001	0.12939455
2	0xbd8bea1a	-0.06831761
3	0xbc2474b7	-0.010037593
4	0x3d52f997	0.05150756
5	0x3d0a67e7	0.033790495
6	0x3e6bac1f	0.23014878
7	0x3e68f0e8	0.22748148
8	0x3e28c714	0.16482192
9	0xbd73100f	-0.059341487
10	0xbd63636d	-0.05551474
11	0xbe2bdcc2	-0.16783431
12	0x3d599577	0.053121056
13	0x3e6b1f64	0.22961193
14	0xbd9282a9	-0.07153828
15	0xbd628506	-0.055302642
16	0x3dd1193e	0.10209893
17	0xbdc93420	-0.09824395
18	0x3e705c6b	0.23472755
19	0x3d460460	0.048344016
20	0x3e22ebfc	0.15910333
21	0xbe1da7ba	-0.15396014
22	0x3ca82db8	0.020529613
23	0x3d9d9585	0.07694534
24	0x3dfc7b75	0.12328235
25	0xbddac087	-0.10681253
26	0x3e301f38	0.17199409
27	0xbe405957	-0.1878408
28	0xbe2deb83	-0.16984372
29	0x3de82739	0.11335606
30	0x3d9c66a3	0.07636764
31	0x3dc28625	0.09498242
32	0x3dc3366e	0.09531866
33	0x3e549ae5	0.20762213
34	0x3e1054ed	0.14094897
35	0xbdd764b1	-0.10517252
36	0xbe4d9e31	-0.20079876
37	0xbebda1dc	-0.3703755
38	0xbe473e43	-0.19457345
39	0xbddc850a	-0.10767563
40	0xbe14c5ac	-0.14528531
41	0x3caab943	0.020840293
42	0xbe13fab3	-0.14451103
43	0xbe472fe2	-0.1945186
44	0xbe82e29c	-0.25563514
45	0x3df1f57a	0.11814399
46	0xbde35044	-0.11099294
47	0x3e0bd560	0.13655615
48	0x3df7e588	0.121043265
49	0xbe1d9b6c	-0.1539132
50	0x3a67b217	0.0008838488
51	0x3e395b02	0.18101123
52	0x3df9fe2c	0.122066826
53	0x3e084d9c	0.13310856
54	0x3e571602	0.21004489
55	0xbe2574e0	-0.16157866
56	0xbda45bd0	-0.08025324
57	0xbd8232dc	-0.06357357
58	0xbeacf1b9	-0.3377817
59	0xbd710b7f	-0.058848854
60	0xbcd68017	-0.026184125
61	0x3c5d4a8b	0.013506542
62	0x3dd757ef	0.10514819
63	0xbe59ac7d	-0.21257205
64	0x3d3a0225	0.0454122
65	0x3da07a9d	0.078358866
66	0xbd31006e	-0.0432133
67	0x3e140a0f	0.14456962
68	0x3d4d0964	0.050057784
69	0x3de0bef4	0.109739214
70	0xbd04c540	-0.032414675
71	0xbd6d7439	-0.057972167
72	0xbdb1b90a	-0.086778715
73	0x3dd0e95c	0.1020076
74	0xbccb48f4	-0.02481506
75	0x3d252d15	0.040326197
76	0xbe0ea9da	-0.1393198
77	0xbc70c5e8	-0.014695622
78	0x3ddbe05a	0.10736151
79	0x3eabe012	0.3356939
80	0x3e9dcff3	0.30822715
81	0xbde2a7c2	-0.110671535
82	0xbde8dd2d	-0.11370311
83	0x3c19cf0c	0.009387743
84	0xbe1fa5a7	-0.15590535
85	0x3dca033c	0.09863898
86	0x3de54d5a	0.11196394
87	0x3e4c46cc	0.19948882
88	0x3c2903a5	0.01031581
89	0x3e08f656	0.1337522
90	0xbd3c9a82	-0.046045788
91	0x3db054f9	0.08609957
92	0x3e360c45	0.17778118
93	0xbe238325	-0.15967996
94	0xbde860ff	-0.113466255
95	0x3db51ec7	0.08843761
96	0x3d3c7688	0.046011478
97	0xbd31cd6f	-0.043408807
98	0x3ddbea4c	0.10738048
99	0x3e25e330	0.16199946
100	0x3e166409	0.14686598
101	0x3e17fce0	0.14842558
102	0xbea5f90c	-0.3241657
103	0xbeb2130a	-0.3478015
104	0xbdcc0fc1	-0.09963942
105	0xbe840e0e	-0.25791973
106	0xbe2d4875	-0.16922171
107	0x3d958458	0.07300633
108	0xbe90dc01	-0.2829285
109	0xbdfda64b	-0.123852335
110	0xbe1d7ec7	-0.15380393
111	0x3e08849c	0.13331836
112	0x3e5ee0ae	0.21765396
113	0x3e057a4b	0.13034932
114	0x3ca16e86	0.019706022
115	0x3da30ccd	0.07961426
116	0xbc50d1eb	-0.012745361
117	0xbe8b0845	-0.27154747
118	0xbec2aa96	-0.38020772
119	0xbeab3970	-0.3344226
120	0xbe0ff7a4	-0.14059311
121	0xbd90db60	-0.070730925
122	0xbdd824aa	-0.10553868
123	0xbd8d0f99	-0.06887741
124	0x3e272b92	0.16325215
125	0xbdbdfe73	-0.09277048
126	0xbe1dbe92	-0.15404728
127	0xbdafec5d	-0.085900046
128	0x3c3f41d7	0.011673412
129	0xbde249f0	-0.11049259
130	0x3d18a36a	0.03726522
131	0x3c246e02	0.0100359935
132	0xbd1ac148	-0.037781984
133	0xbe787727	-0.24264203
134	0xbe2be59a	-0.16786805
135	0xbe411c37	-0.1885842
136	0xbdaa3673	-0.083111666
137	0xbe2636d2	-0.1623185
138	0x3daa4536	0.08313982
139	0x3e1b01d5	0.15137418
140	0xbda7e291	-0.08197511
141	0xbd82ddf3	-0.0638999
142	0x3a3f8044	0.0007305185
143	0x3e6bcc62	0.23027185
144	0x3e0a7b5d	0.13523622
145	0xbd908cc8	-0.07058102
146	0x3df784d8	0.12085885
147	0xbdb5d355	-0.08878199
148	0x3e268b4c	0.16264075
149	0x3d953d03	0.07287028
150	0xbc2a05f6	-0.010377398
151	0x3e5a1db3	0.21300392
152	0xbc7ad23a	-0.015308911
153	0x3e04cf3f	0.12969683
154	0xbe3cf3f9	-0.18452443
155	0x3e18a80b	0.14907853
156	0xbdaf0eca	-0.08547743
157	0xbe48576f	-0.19564603
158	0xbd0d4ad7	-0.0344952
159	0xbdc43397	-0.095801525
160	0x3d5d2103	0.05398656
161	0x3e057fe0	0.13037062
162	0xbe4ff830	-0.2030952
163	0x3d67c59a	0.056584932
164	0x3e0fd632	0.14046553
165	0xbe92f934	-0.28705752
166	0xbc6f7fd6	-0.014617881
167	0xbcc42b02	-0.023946289
168	0xbe7206a6	-0.23635349
169	0xbdfcd8a0	-0.123460054
170	0x3a376629	0.0006996119
171	0xbd960274	-0.07324687
172	0x3e56f545	0.20992
173	0x3c8ef8dd	0.017452652
174	0x3e0949dd	0.13407083
175	0x3df56705	0.1198254
176	0x3e105eb0	0.1409862
177	0x3e838344	0.25686085
178	0x3edde028	0.4333508
179	0x3ea6601c	0.324952
180	0xbecf3238	-0.40468
181	0xbea0149c	-0.31265724
182	0x3dad795c	0.08470413
183	0xbdb07fea	-0.08618148
184	0xbdb31007	-0.08743291
185	0x3e00b1ec	0.12567872
186	0xbcc552c9	-0.024087327
187	0xbbea187d	-0.0071440325
188	0x3dfd988a	0.1238261
189	0xbe907c31	-0.2821975
190	0xbe6f8141	-0.2338915
191	0xbb7c69f7	-0.0038515308
192	0xbc64f04d	-0.013973308
193	0xbe1e9308	-0.15485775
194	0xbdd9f89b	-0.10643121
195	0x3c94c46b	0.018160066
196	0xbc08cb78	-0.008349292
197	0x3dd40810	0.103531
198	0xbd8ea360	-0.06964755
199	0xbc48dc9c	-0.012259629
200	0xbdd1240d	-0.10211954
201	0xbe152bc7	-0.14567481
202	0xbd882d34	-0.06649247
203	0xbe74729e	-0.23871848
204	0xbe74ffe1	-0.23925735
205	0x3c948201	0.018128397
206	0xbcc011df	-0.023446022
207	0xbe37abb7	-0.17936598
208	0xbd311d21	-0.04324067
209	0xbdd84a2a	-0.10561021
210	0xbdc914ca	-0.09818418
211	0xbe23cb3a	-0.15995494
212	0x3d3aab06	0.045573257
213	0x3e337b6d	0.17527552
214	0x3e17e8f8	0.14834964
215	0xbc506209	-0.012718686
216	0x3db1f272	0.08688821
217	0x3ca00e6c	0.019538127
218	0x3d803133	0.06259384
219	0xbde041e6	-0.10950069
220	0x3c4c648f	0.012475147
221	0xbaf6a848	-0.0018818462
222	0xbe0a26b1	-0.13491322
223	0xbe23654f	-0.15956615
224	0x3d3ad9f2	0.045618005
225	0xbeb9e24f	-0.36305472
226	0xbe1d3b4e	-0.15354654
227	0x3e240a38	0.16019523
228	0xbd98a2e7	-0.07452946
229	0x3e41b3d6	0.18916258
230	0x3e482b35	0.19547732
231	0xbe91be26	-0.28465384
232	0xbe9ca8ef	-0.30597636
233	0x3df5b373	0.11997118
234	0x3e486417	0.19569431
235	0x3db56c0f	0.08858501
236	0x3d385b75	0.045009095
237	0xbd49c444	-0.04925944
238	0xbd0705f0	-0.032964647
239	0xbe259059	-0.16168346
240	0xbd9a1b23	-0.07524707
241	0x3df28e4b	0.118435465
242	0x3e4fd125	0.20294626
243	0xbe976d94	-0.2957579
244	0xbcc43d0d	-0.023954893
245	0x3cff7cfe	0.03118753
246	0xbe28051c	-0.16408199
247	0xbcf8248d	-0.030290866
248	0x3e4f88e3	0.20267062
249	0x3c46bc21	0.012129814
250	0xbe1b9a2f	-0.15195535
251	0xbe0d490c	-0.13797396
252	0xbe3eb0cc	-0.1862213
253	0xbe597202	-0.21234897
254	0xbe4e966e	-0.20174572
255	0xbde70bf6	-0.11281578

block2.0.conv.bias f4 [8]
0	0x3d12143e	0.035663836
1	0x3c95e961	0.01829976
2	0x3e443e15	0.19164307
3	0x3d267c2d	0.040645767
4	0x3b2acd7c	0.002606242
5	0x3e685dd1	0.22692038
6	0xbdb3c164	-0.08777121
7	0x3d932e1e	0.071865305

block2.0.BN.weight f4 [8]
0	0x3f57c1f8	0.8428035
1	0x3f8a35d2	1.0797675
2	0x3f769a0d	0.9632881
3	0x3f79c3f7	0.97564644
4	0x3f856341	1.0420915
5	0x3f8f90b1	1.1216031
6	0x3f71b677	0.94419044
7	0x3f89c842	1.0764239

block2.0.BN.bias f4 [8]
0	0xbe83a327	-0.25710413
1	0x3d8fbb8e	0.07018195
2	0xbd3413f7	-0.043964352
3	0x3d19eb4c	0.037577912
4	0xbc3d4585	-0.011552219
5	0xbd34e20c	-0.044160888
6	0x3def19b5	0.11674825
7	0x3d8f0e37	0.06985133

block2.0.BN.running_mean f4 [8]
0	0x3f0502e6	0.5195755
1	0xbebd0d2b	-0.3692411
2	0x3e6e011b	0.23242609
3	0xbf33d9eb	-0.7025439
4	0x3f19bd95	0.60054904
5	0xbf0f80b8	-0.56055784
6	0xbf01d46c	-0.50714755
7	0x3eea9d5b	0.45823178

block2.0.BN.running_var f4 [8]
0	0x3ee70f74	0.45128977
1	0x3f7d19d2	0.98867524
2	0x3eebd9b9	0.46064547
3	0x3f16fb83	0.58977526
4	0x3f11cf9a	0.569574
5	0x3f152885	0.5826495
6	0x3e9d6673	0.30742225
7	0x3ecbe591	0.39823583

block2.1.conv.weight f4 [16, 8, 3, 3]
0	0x3e2414c8	0.16023552
1	0x3d0ab2e2	0.033862002
2	0xbde69baf	-0.11260163
3	0x3df6e7c4	0.120559245
4	0x3d96f850	0.073715806
5	0x3d638b81	0.055552963
6	0xbd4a581a	-0.049400426
7	0xbdbbb492	-0.091653004
8	0xbe44b6f5	-0.19210418
9	0xba8e4e97	-0.0010857162
10	0xbd7fef3b	-0.062484007
11	0xbc11335c	-0.008862343
12	0xbd9999a9	-0.075000115
13	0xbd36eae9	-0.04465762
14	0x3d94be92	0.07262911
15	0xbd1b27fa	-0.03787992
16	0x3c789100	0.015171289
17	0x3d570381	0.052493576
18	0x3e821e9a	0.25413972
19	0x3dbb99e2	0.0916021
20	0xbbe3f6bf	-0.0069569047
21	0xba8e539b	-0.0010858657
22	0xbd360839	-0.044441435
23	0xbe51d943	-0.20493035
24	0xbe13f863	-0.14450221
25	0xbe1feb98	-0.15617216
26	0xbd784306	-0.060610794
27	0x3bb3d793	0.005488345
28	0x3e4b97e2	0.19882157
29	0x3cf69232	0.030099008
30	0x3b983a2f	0.004645608
31	0x3dd7da0b	0.10539635
32	0xbd8af669	-0.0678528
33	0x3d0c37d1	0.03423292
34	0xbe7a916e	-0.2446954
35	0xbe99007a	-0.29883176
36	0xbe7ed528	-0.24886
37	0xbc3187ed	-0.01083563
38	0x3c8582a3	0.016297644
39	0x3b915bed	0.0044360072
40	0xbd9e416d	-0.07727323
41	0x3cf9aefe	0.03047895
42	0x3e51d15f	0.20490025
43	0x3e63f232	0.22260359
44	0xbc685f96	-0.014182946
45	0xbe4fd159	-0.20294704
46	0x3dcd81e5	0.10034541
47	0x3dc489ce	0.09596597
48	0x3dc3ec78	0.09566587
49	0xbdae0bf0	-0.08498371
50	0xbe84852c	-0.25882852
51	0x3d82fed7	0.06396263
52	0xbe197c18	-0.14988744
53	0xbdd00046	-0.10156302
54	0xbe0f090d	-0.13968296
55	0xbdf12d99	-0.11776275
56	0xbd664820	-0.056221128
57	0xbcf2c647	-0.029635562
58	0xbdc119fd	-0.09428785
59	0xbe2f12eb	-0.1709706
60	0x3e1d9556	0.15388998
61	0x3e36409c	0.17798084
62	0x3e44cb05	0.19218071
63	0xbd1f7c37	-0.03893682
64	0x3d9b9dbc	0.07598445
65	0x3dcc7184	0.09982589
66	0x3b3562cf	0.0027677303
67	0xbd8532be	-0.06503819
68	0x3d874ee2	0.066068426
69	0x3c6ffb68	0.014647342
70	0x3d26dd34	0.0407383
71	0x3d44eeb7	0.04807922
72	0xbdb7ce6c	-0.08974919
73	0x3d6ef495	0.05833872
74	0x3cfd1d5a	0.030897785
75	0xbdbe43f5	-0.092903055
76	0xbcbe12d4	-0.023202337
77	0x3dba6630	0.09101522
78	0xbe8cdeb6	-0.27513665
79	0xbe663c26	-0.22483882
80	0xbe0d485e	-0.13797137
81	0x3d68f5ed	0.056875158
82	0x3d82f106	0.06393628
83	0xbda967ce	-0.08271752
84	0xbdf490af	-0.11941659
85	0x3afd9101	0.0019345583
86	0xbe4e9cb1	-0.2017696
87	0x3e7b5157	0.24542747
88	0xbc9170da	-0.017754007
89	0x3e1385ac	0.1440646
90	0x3e019768	0.12655413
91	0x3e249277	0.16071497
92	0x3cb7718b	0.022393009
93	0xbdcff11b	-0.10153409
94	0x3dc6dff8	0.097106874
95	0xbd5e7050	-0.05430633
96	0xbdf8f235	-0.12155572
97	0xbcb7091a	-0.022343207
98	0xbe40f0a8	-0.18841803
99	0xbe4116c4	-0.1885634
100	0xbdcffdad	-0.10155807
101	0xbc5371c7	-0.012905545
102	0xbc7af0b2	-0.015316175
103	0xbe3e6641	-0.18593694
104	0xbe0a1e17	-0.13488041
105	0xbdbfd2f8	-0.09366411
106	0xbc84c851	-0.0162088
107	0xbd8533a1	-0.06503988
108	0xbe35152a	-0.17683855
109	0xbe3a1c1d	-0.18174787
110	0xbe6fe3fa	-0.2342681
111	0x3cc77638	0.024348363
112	0x3daf5436	0.08560984
113	0x3d144399	0.03619728
114	0xbe533da4	-0.20628983
115	0x3cccf444	0.025018819
116	0x3dd1f7fc	0.102523774
117	0xbe25b430	-0.16182017
118	0xbe535486	-0.20637712
119	0xbe5776fc	-0.21041483
120	0xbcf5269c	-0.029925637
121	0xbda6c3ae	-0.08142792
122	0xbdb17ec6	-0.08666758
123	0xbab0d486	-0.0013491071
124	0xbdc393b2	-0.09549655
125	0xbc21ebbc	-0.009882864
126	0xbe4d4bc1	-0.20048429
127	0xbe51bfad	-0.20483275
128	0xbdba3b93	-0.09093394
129	0x3dcd3262	0.100193754
130	0x3c369ca2	0.011145743
131	0x3d8e1108	0.06936842
132	0xbcea33c8	-0.028589144
133	0xbdc34d08	-0.09536177
134	0xbde30923	-0.11085727
135	0xbe3aef3f	-0.18255328
136	0xbd98cce3	-0.07460954
137	0x3c8b88a2	0.017032925
138	0xbe16138e	-0.14655897
139	0xbd8db88e	-0.06919967
140	0xbd8d381e	-0.06895469
141	0xbb99b429	-0.004690666
142	0xbe114f99	-0.1419052
143	0xbde1d716	-0.110273525
144	0xbb3d935b	-0.0028926942
145	0x3c22ad99	0.009929084
146	0x3cc978fe	0.024593826
147	0x3d0d15a0	0.03444445
148	0x3dd0e7f0	0.102004886
149	0x3c9cd563	0.01914472
150	0xbc3175c4	-0.0108313
151	0x3e1f1d29	0.15538467
152	0x3e0af147	0.13568603
153	0xbe13ce27	-0.1443411
154	0xbcf1cc37	-0.029516323
155	0xbc688028	-0.014190711
156	0x3daa4c98	0.0831539
157	0x3cd5f66e	0.026118483
158	0x3d0828e7	0.033242133
159	0xbe5ee6dd	-0.21767755
160	0xbe3ff882	-0.18747142
161	0xbde45dd0	-0.11150706
162	0xbe3949f6	-0.1809462
163	0xbe3fa288	-0.18714345
164	0xbe39a2a6	-0.18128452
165	0x3ca3a9d9	0.01997845
166	0x3d02b495	0.031910498
167	0x3dd2fde2	0.103023306
168	0x3db52891	0.08845628
169	0x3db439c8	0.088000834
170	0x3ddaf039	0.1069035
171	0xbe2f3f9d	-0.1711411
172	0xbe288af0	-0.1645925
173	0xbda7f67d	-0.08201311
174	0x3d08c3da	0.033389904
175	0x3dfb7f6b	0.122801624
176	0xbc927ddf	-0.017882286
177	0x3e44ebcc	0.19230574
178	0x3dfdaa11	0.12385953
179	0x3dcb850b	0.09937485
180	0x3e16d5c7	0.14729987
181	0x3de8de00	0.11370468
182	0x3e5a1535	0.21297152
183	0x3d57c641	0.052679304
184	0x3e8b74f9	0.2723768
185	0x3e3db3c3	0.18525605
186	0x3e64dec2	0.223506
187	0x3e8758c0	0.26434898
188	0x3e7f37f3	0.24923687
189	0xbe0b3982	-0.13596156
190	0xbe67ffd8	-0.2265619
191	0xbe29c046	-0.16577253
192	0x3d967da2	0.07348181
193	0xbcbd4593	-0.023104465
194	0x3cef841e	0.029237803
195	0x3da215cf	0.07914316
196	0x3dbac83e	0.091202244
197	0x3e2775ea	0.16353574
198	0xbd880fc8	-0.06643635
199	0xbdba4a49	-0.090962
200	0xbe08cf4f	-0.13360332
201	0xbdcc4b61	-0.09975315
202	0x3dc38c65	0.095482625
203	0x3c091cd1	0.008368687
204	0xbbf26d96	-0.0073983176
205	0xbc05e2f1	-0.008171783
206	0xbc5bd844	-0.013418261
207	0x3dea5a5e	0.114430174
208	0x3dfe885a	0.12428351
209	0x3b4d2d63	0.003130757
210	0xbdedbcb6	-0.116082594
211	0xbe1e87c5	-0.1548148
212	0xbdd68743	-0.10475018
213	0xbd07b444	-0.0331309
214	0xbcb2349d	-0.021753604
215	0xbe269801	-0.16268922
216	0xbd645ae9	-0.05575076
217	0xbe6f449b	-0.23366015
218	0xbe6888d7	-0.2270845
219	0x3d6157fb	0.055015545
220	0xbe352e37	-0.17693411
221	0xbe3a9ab8	-0.18223083
222	0xbdd12aa7	-0.102132134
223	0x3d730c90	0.059338152
224	0x3c133584	0.008984927
225	0xbdd76503	-0.10517313
226	0xbe417b80	-0.18894768
227	0xbdf0498d	-0.11732779
228	0x3d800540	0.06251001
229	0x3deca738	0.11555332
230	0x3df4a977	0.11946385
231	0xbcff3ed2	-0.031157885
232	0xbde04aa9	-0.1095174
233	0xbd0b3619	-0.03398714
234	0xbd0f19cf	-0.034936722
235	0xbe0446b3	-0.12917595
236	0xbe80bc7a	-0.25143796
237	0x3e1c67e5	0.15274008
238	0x3da3f5a5	0.08005837
239	0xbd0ca507	-0.03433707
240	0xbe06d28d	-0.13166256
241	0xbe1c49ee	-0.15262577
242	0x3dad7c65	0.08470992
243	0x3c3c2a54	0.011484701
244	0x3e281418	0.16413915
245	0x3d3769af	0.044778522
246	0xb9e17c38	-0.00043007894
247	0xbe0fb3a8	-0.14033377
248	0xbd37742b	-0.04478852
249	0x3e449c17	0.19200169
250	0x3e2fe70c	0.17177981
251	0x3e7c27ec	0.24624604
252	0x3d9ae47c	0.07563111
253	0xbba09895	-0.0049010017
254	0xbd5cdc02	-0.053920753
255	0xbdc1e896	-0.0946819

block2.1.conv.bias f4 [16]
0	0xbd18cb03	-0.037302982
1	0xbd467fd5	-0.048461754
2	0xbd715877	-0.058922257
3	0x3d6ec484	0.05829288
4	0x3d2e3fbf	0.04254126
5	0xbd3ac1ff	-0.045595165
6	0xbb52c004	-0.0032157907
7	0xbd8ebdd6	-0.06969802
8	0xbd43ae37	-0.047773566
9	0xbd81a895	-0.063309826
10	0x3d9e7a10	0.07738125
11	0xbdacb30f	-0.0843259
12	0xbdbd6ec7	-0.09249645
13	0x3e03c429	0.12867798
14	0xbd956add	-0.07295773
15	0x3d913c30	0.07091558

block2.1.BN.weight f4 [16]
0	0x3f8dd9b2	1.108206
1	0x3f84a3a6	1.0362442
2	0x3f74d874	0.9564278
3	0x3f50f28c	0.816201
4	0x3f6fa583	0.93611926
5	0x3f713530	0.9422178
6	0x3f8ad7dc	1.0847125
7	0x3f8ebf0e	1.1152055
8	0x3f6c8ede	0.924055
9	0x3f7dd05d	0.9914606
10	0x3f62c8b2	0.88587487
11	0x3f7d1112	0.9885417
12	0x3f785d19	0.97017056
13	0x3f759a70	0.9593878
14	0x3f7b15a1	0.9807988
15	0x3f8655d8	1.0494947

block2.1.BN.bias f4 [16]
0	0xbc9f77e5	-0.01946635
1	0xbd8716c7	-0.06596141
2	0xbe59c718	-0.21267354
3	0xbeba974d	-0.36443558
4	0xbde12fbc	-0.10995433
5	0xbe41cfcd	-0.18926926
6	0xbe10b354	-0.14130908
7	0xbb9b21e6	-0.0047342656
8	0xbe362766	-0.17788467
9	0xbde32d3c	-0.11092612
10	0xbdb70334	-0.08936158
11	0xbd0abcea	-0.03387157
12	0x3de0b923	0.10972812
13	0xbe034038	-0.12817466
14	0xbd7aa54d	-0.0611928
15	0xbcaad847	-0.020855082

block2.1.BN.running_mean f4 [16]
0	0xbe88e899	-0.26739958
1	0xbfc81ff4	-1.5634751
2	0x3e1122d0	0.14173436
3	0x3eb9a243	0.36256608
4	0xbf40c3d8	-0.75298834
5	0xbf9db7df	-1.2321738
6	0xbf46b193	-0.77614707
7	0x3ef51efc	0.47875202
8	0x3f20cd96	0.628137
9	0xbf63a37c	-0.8892133
10	0xbf44aa5c	-0.7682245
11	0x3ef4bdba	0.47801
12	0xbf198e14	-0.5998242
13	0x3f26fa9f	0.6522617
14	0xbfd51bfe	-1.6649168
15	0xbfb31fac	-1.399404

block2.1.BN.running_var f4 [16]
0	0x3f22be3c	0.63571525
1	0x3f0d9a98	0.55314016
2	0x3f833233	1.0249695
3	0x3f50ba5f	0.8153438
4	0x3f70139c	0.9377992
5	0x3f424ce2	0.75898564
6	0x3f3c9055	0.73657733
7	0x3f704ca1	0.93866926
8	0x3f718358	0.9434104
9	0x3f83f712	1.0309775
10	0x3f39d702	0.725937
11	0x3f586835	0.8453401
12	0x3f0de56f	0.5542821
13	0x3f030ec3	0.511944
14	0x3f4baf5a	0.7956444
15	0x3f56530d	0.83720475
