result/model/0518 1536.pt (torch, 79197 bytes, 98 tensors)

input_conv.conv.weight f4 [4, 1, 3, 3]
0	0xbe750abb	-0.23929875
1	0xbcf7be68	-0.03024216
2	0xbe8f59f6	-0.27998322
3	0xbe8acc14	-0.27108824
4	0x3e4fcae6	0.20292243
5	0x3e302855	0.17202885
6	0xbe34849a	-0.17628708
7	0x3ebb8c28	0.36630368
8	0x3e87d97c	0.26533115
9	0x394d10a3	0.00019556521
10	0x3ec20a85	0.3789865
11	0x3f0348d4	0.51283
12	0xbd0d107b	-0.034439545
13	0xbe72456a	-0.23659292
14	0x3e3ab596	0.18233332
15	0xbe53c53e	-0.2068071
16	0x3e0d660e	0.13808462
17	0xbe1a7416	-0.15083346
18	0x3e54fee7	0.20800363
19	0x3d9a1712	0.075239316
20	0xbe5defd4	-0.21673518
21	0x3ecfd5d7	0.40592834
22	0xbe50d0f5	-0.20392211
23	0xbe7f12fb	-0.24909584
24	0x3d1aa883	0.03775836
25	0xbdec56e9	-0.11540014
26	0xbd06f1e2	-0.03294552
27	0x3e80f0ba	0.2518366
28	0xbee9b084	-0.45642483
29	0xbe7aa7af	-0.24478029
30	0xbe673b38	-0.22581184
31	0xbea897c0	-0.32928276
32	0x3e22997b	0.1587886
33	0x3db59ce3	0.088678144
34	0xbe235e04	-0.15953833
35	0x3dd99e10	0.10625851

input_conv.conv.bias f4 [4]
0	0x3e02863d	0.1274652
1	0xbd67a70e	-0.0565558
2	0x3ecdc06d	0.40185872
3	0x3af7f54f	0.0018917712

input_conv.BN.weight f4 [4]
0	0x3f5e84d3	0.86921424
1	0x3f972baa	1.18102
2	0x3f627c2f	0.8847074
3	0x3f728fbd	0.9475058

input_conv.BN.bias f4 [4]
0	0x3ec01108	0.37512994
1	0xbdc563ff	-0.09638213
2	0x3e8653f9	0.2623594
3	0xbca4c769	-0.020114617

input_conv.BN.running_mean f4 [4]
0	0x3e02428f	0.12720703
1	0x3d3fae40	0.046797037
2	0x3ec5ce63	0.38634023
3	0xbe100406	-0.14064035

input_conv.BN.running_var f4 [4]
0	0x3b83e1b5	0.004024709
1	0x3c886fbe	0.016654845
2	0x3b49b2ee	0.0030776816
3	0x3cdea906	0.027180206

block1.0.conv.weight f4 [8, 4, 3, 3]
0	0xbe63b239	-0.22235955
1	0xbe06a416	-0.13148531
2	0xbe129e83	-0.1431828
3	0x3e04c24e	0.12964746
4	0xbbadded3	-0.0053061037
5	0x3df0c6a7	0.1175664
6	0x3d3ad5d1	0.045614067
7	0x3cb15318	0.021646068
8	0xbe410c02	-0.18852237
9	0xbc15a5be	-0.009133754
10	0xbe2c55b3	-0.16829567
11	0x3aded73d	0.0017001402
12	0xbe080c71	-0.13285996
13	0xbe47452a	-0.19459978
14	0x3b359cea	0.0027711936
15	0x3b8566b1	0.0040710797
16	0xbe82655a	-0.2546795
17	0xbea4b0be	-0.32166094
18	0x3e74466b	0.23854987
19	0xbe38f752	-0.18063095
20	0xbea3e5a3	-0.32011136
21	0x3cdbe740	0.026843667
22	0x3e658320	0.22413301
23	0xbdca7045	-0.09884695
24	0x3d9f2945	0.077715434
25	0xbd041192	-0.03224332
26	0x3e0cf9e0	0.13767195
27	0xbc76d7b2	-0.015066074
28	0x3d735e3e	0.05941605
29	0xbe82c4b4	-0.25540698
30	0x3d0a26bb	0.033728343
31	0x3dad8103	0.08471873
32	0xbe574e85	-0.21026047
33	0xbd936a5b	-0.0719802
34	0xbd5123b7	-0.05105945
35	0xbdd47536	-0.10373919
36	0xbd7c4af0	-0.061594903
37	0xbe56fbe9	-0.20994534
38	0xbd173ca8	-0.03692308
39	0xbd1fb267	-0.038988497
40	0x3be9b24a	0.0071318494
41	0x3e08fa65	0.13376768
42	0x3cdb6419	0.026781129
43	0xbd2590f5	-0.040421445
44	0x3d119556	0.03554281
45	0x3c5cab25	0.013468538
46	0x3e4a94a6	0.19783267
47	0x3dc50dc9	0.0962177
48	0xbda79993	-0.08183589
49	0x3ca69a92	0.020337377
50	0x3ea64370	0.32473326
51	0xbe715fcf	-0.23571704
52	0xbde05340	-0.10953379
53	0x3dacdb17	0.084402256
54	0xbd666592	-0.05624921
55	0x3ca9badb	0.020718982
56	0x3e25fd03	0.16209798
57	0x3d8e5c73	0.06951227
58	0x3dc0d345	0.094152965
59	0xbe70b22e	-0.2350547
60	0xbca6bb49	-0.020352976
61	0xbd1063d8	-0.03525147
62	0xbd975001	-0.073883064
63	0x3d853b0f	0.06505405
64	0xbcc3e932	-0.023914907
65	0xbe5719ed	-0.21005984
66	0xbda0b8f5	-0.07847778
67	0x3dfcbfb6	0.123412535
68	0xbdd17955	-0.102282204
69	0x3e8749d4	0.26423514
70	0x3e9ced6b	0.30649886
71	0x3d82ad91	0.063807614
72	0x3d7a23cc	0.061069295
73	0x3dc5b75f	0.09654116
74	0xbe1ea98c	-0.15494365
75	0x3e2b52bc	0.1673078
76	0x3bdf8234	0.0068209413
77	0x3df81736	0.12113802
78	0x3d9f7743	0.07786419
79	0x3c1effc7	0.009704537
80	0xbdfc022c	-0.12305102
81	0xbc3910d1	-0.011295513
82	0xbe4c7e1a	-0.19969979
83	0xbdce7e88	-0.10082728
84	0x3e7a9fb2	0.24474981
85	0x3e6b0289	0.22950186
86	0x3cb6abae	0.02229866
87	0xbd950b2e	-0.07277523
88	0xbe153f23	-0.14574866
89	0xbe9994b0	-0.29996252
90	0xbefd84b1	-0.49515298
91	0xbea97cd8	-0.3310306
92	0x3cd1d8d4	0.025616087
93	0xbc9388c2	-0.018009547
94	0xbdaa542f	-0.08316838
95	0xbba9a8bd	-0.005177586
96	0xbde7a8c0	-0.113114834
97	0xbd9b0883	-0.07569983
98	0x3d088632	0.033331104
99	0xbe1f3e93	-0.15551214
100	0xbe361aea	-0.17783704
101	0xbe4f7fb7	-0.20263563
102	0xbd290195	-0.041261274
103	0x3db4440c	0.088020414
104	0x3d03c1ac	0.03216712
105	0xbd3c6e76	-0.04600378
106	0xbdb92660	-0.090405226
107	0xbc00b724	-0.007856164
108	0xbe68e9bc	-0.22745413
109	0xbe9e3fd6	-0.30908078
110	0xbe0f23c7	-0.13978492
111	0xbe83591f	-0.25653931
112	0xbdc0cae2	-0.09413697
113	0xbdad037a	-0.08447929
114	0xbe7814d9	-0.24226703
115	0xbde0adfb	-0.10970684
116	0xbe7a55da	-0.24446812
117	0x3d798541	0.060918096
118	0x3e260a04	0.16214758
119	0x3c56802d	0.013092083
120	0xbe34eb25	-0.17667826
121	0xbdfbaa2d	-0.12288318
122	0xbe7a52f9	-0.24445714
123	0xbd6526db	-0.05594526
124	0xbe01897e	-0.12650105
125	0x3c930220	0.01794535
126	0xbc3839dc	-0.0112442635
127	0x3d5a323c	0.053270563
128	0xbdf658ae	-0.12028633
129	0xbd8482c7	-0.06470256
130	0xbe6ef48b	-0.23335473
131	0x3d4df7c1	0.050285105
132	0xbe0efa57	-0.13962685
133	0xbd898c7e	-0.0671625
134	0x3de3a068	0.111145794
135	0x3d01e198	0.031709284
136	0xbd91cceb	-0.07119163
137	0x3dd1a8ff	0.102373116
138	0xbd5ca223	-0.053865563
139	0xbd8e8ccc	-0.069604486
140	0xbe4350d9	-0.1907381
141	0xbe06dd4f	-0.1317036
142	0x3dc4b146	0.09604125
143	0xbe1e29b8	-0.15445602
144	0x3e1c4171	0.15259339
145	0xbd8b03ca	-0.06787832
146	0x3df1c993	0.11806025
147	0xbbab0333	-0.0052188872
148	0x3d868626	0.065685555
149	0xbd9db14b	-0.076998316
150	0x3e417a4b	0.18894307
151	0x3db74d92	0.08950342
152	0xbc376e6d	-0.011195761
153	0x3d7542ab	0.059878033
154	0xbe25ce96	-0.16192088
155	0x3e6e8910	0.23294473
156	0xbe24ccb4	-0.16093713
157	0x3b8403fb	0.004028795
158	0xbd5b5ca8	-0.05355516
159	0xbe89d633	-0.26921234
160	0xbe1f1cb9	-0.155383
161	0x3e06cd57	0.13164268
162	0xbd16edbd	-0.03684782
163	0xbe38d9dd	-0.18051858
164	0xbe255f7b	-0.16149704
165	0x3c2f9d90	0.010718718
166	0xbda84fd8	-0.08218354
167	0xbd8dfe77	-0.06933301
168	0xbe60afc0	-0.21942043
169	0xbcb55113	-0.022133386
170	0xbd331d5e	-0.04372918
171	0xbe4fe1b3	-0.20300941
172	0xbe1ed41a	-0.15510598
173	0xbeaa1ba1	-0.33224204
174	0xbe110ef2	-0.14165857
175	0xbe41419a	-0.18872681
176	0xbe832e32	-0.25621182
177	0x3d11c74c	0.035590455
178	0xbdb05ccb	-0.08611449
179	0xbb91dc83	-0.004451336
180	0xbdd37b4f	-0.103262536
181	0xbe521175	-0.20514472
182	0x3c9da9b8	0.019245967
183	0x3e2acebf	0.1668043
184	0x3df7ef32	0.1210617
185	0xbdddf3cf	-0.108375184
186	0x3d454b67	0.048167612
187	0xbe34669d	-0.17617269
188	0xbe480ce6	-0.1953617
189	0xbe230f98	-0.15923917
190	0x3e346717	0.1761745
191	0x3e51b18f	0.2047789
192	0x3d58971d	0.052878488
193	0x3dad625c	0.08466026
194	0x3e4196b7	0.1890515
195	0xb99f1958	-0.00030345726
196	0xbd8b3c36	-0.06798594
197	0x3df162ec	0.11786446
198	0xbdad8e21	-0.084743746
199	0xbe5311dc	-0.20612282
200	0xbe2a7f38	-0.16650093
201	0xbdcf517c	-0.10122964
202	0xbe101f19	-0.14074363
203	0x3c3bf575	0.011472096
204	0x3de18853	0.1101233
205	0x3e468029	0.19384827
206	0x3e1ec74a	0.1550571
207	0x3e2e5cec	0.17027634
208	0xbe0088c3	-0.1255217
209	0x3d22760b	0.039663356
210	0x3e4ac3c7	0.19801246
211	0xbcd3533e	-0.025796529
212	0xbb40bf6b	-0.002941097
213	0xbde60429	-0.11231262
214	0x3dcf4136	0.1011986
215	0x3c9b55f3	0.018961882
216	0xbd27817b	-0.040894967
217	0xbe5feef8	-0.21868503
218	0xbe2cad9a	-0.16863099
219	0xbd789157	-0.060685482
220	0xbda02b87	-0.07820802
221	0xbe9fe1c7	-0.31226942
222	0xbd6da2dc	-0.058016643
223	0x3dce05bd	0.10059688
224	0x3de487c9	0.111587115
225	0x3e7ca4de	0.24672267
226	0x3e70e6dd	0.23525567
227	0xbe073a42	-0.13205817
228	0x3d7436ce	0.05962258
229	0x3e0fb267	0.14032899
230	0x3dbe8d17	0.093042545
231	0x3c5a6587	0.01332987
232	0x3ca54524	0.02017457
233	0xbe8944c6	-0.26810282
234	0xbe7c8451	-0.2465985
235	0x3dd74e5d	0.105129935
236	0x3e09024b	0.13379781
237	0x3e10fc00	0.1415863
238	0x3e5d35c7	0.21602546
239	0xbce8e422	-0.028429095
240	0xbe16fb8b	-0.14744394
241	0x3db21ffa	0.08697505
242	0xbc8e9590	-0.017405301
243	0x3c99e025	0.018783638
244	0xbd052776	-0.032508336
245	0x3db7be29	0.08971817
246	0x3e7ba44b	0.24574392
247	0xbe1c4126	-0.15259227
248	0xbdb2b2be	-0.087254986
249	0xbe0bbc12	-0.13645962
250	0x3cd3669e	0.025805768
251	0xbd892227	-0.06695967
252	0x3be9241b	0.0071149
253	0x3dd17384	0.10227111
254	0x3e62558a	0.22102943
255	0x3e31150f	0.1729319

block1.0.conv.bias f4 [8]
0	0xbdd1aca4	-0.10238007
1	0x3e3156ff	0.17318343
2	0xbe1a7922	-0.15085271
3	0xbc274519	-0.010209345
4	0x3df0d1a1	0.117587335
5	0xbe1376de	-0.14400813
6	0x3deeda73	0.1166276
7	0x3e294672	0.16530779

block1.0.BN.weight f4 [8]
0	0x3f779ae5	0.96720725
1	0x3f826531	1.0187131
2	0x3f875cf5	1.0575243
3	0x3f7a0f91	0.9768
4	0x3f7e732a	0.99394476
5	0x3f863f23	1.0488018
6	0x3f828e80	1.0199738
7	0x3f83290e	1.0246904

block1.0.BN.bias f4 [8]
0	0xbd134231	-0.035951797
1	0xbd84e34a	-0.064886644
2	0x3d688690	0.056768954
3	0x3d004c77	0.031322923
4	0x3d928e9d	0.071561076
5	0xbd27a392	-0.040927477
6	0xbd922544	-0.07136014
7	0xbd286178	-0.04110858

block1.0.BN.running_mean f4 [8]
0	0xbf9b645c	-1.2140002
1	0x3eb00fbd	0.34387007
2	0xbf8f33fd	-1.118774
3	0xc0091b40	-2.1422882
4	0xbf687c57	-0.9081473
5	0xbe168ea1	-0.14702846
6	0xbdd68d0e	-0.10476123
7	0xbd28b9ef	-0.041192945

block1.0.BN.running_var f4 [8]
0	0x3f8001d8	1.0000563
1	0x3e8e66f2	0.27812916
2	0x3ee0f5cf	0.43937537
3	0x3f8c4388	1.0958109
4	0x3ea7f145	0.32801262
5	0x3ead57ce	0.33856052
6	0x3f148e81	0.58029944
7	0x3e63f431	0.2226112

block1.1.conv.weight f4 [16, 8, 3, 3]
0	0x3daa7b02	0.08324243
1	0xbc9f5544	-0.019449838
2	0xbdbbe9d7	-0.09175461
3	0xbdaafa19	-0.083484836
4	0xbd7b1d17	-0.06130704
5	0xbe34cc35	-0.17656024
6	0xbcb653e8	-0.022256806
7	0xbcdf3e43	-0.027251368
8	0x3cb3f7ec	0.021968804
9	0x3e889b7d	0.26681128
10	0xbbfe2226	-0.0077555357
11	0x3e301ad7	0.17197739
12	0xbd02ca13	-0.031930994
13	0x3d7c65c7	0.0616205
14	0xbd4b53fb	-0.049640637
15	0xbe5545e4	-0.20827442
16	0x3d758628	0.059942394
17	0xbca8e514	-0.020617045
18	0xbbba93f5	-0.0056939074
19	0xbd317e9c	-0.043333635
20	0x3d7a7e8c	0.06115584
21	0x3dfa9314	0.12235084
22	0xbd8e1ecf	-0.0693947
23	0x3dd87ad6	0.10570304
24	0x3e54fd18	0.20799673
25	0x3daff5ec	0.08591828
26	0xbd009f20	-0.031401753
27	0x3d81a680	0.063305855
28	0x3dc3dd74	0.09563723
29	0xbc3650e5	-0.011127685
30	0xbe73428b	-0.23755853
31	0xbdb31905	-0.087450065
32	0x3d8f7457	0.07004612
33	0xbe0fbbe4	-0.14036518
34	0x3d92b56f	0.07163512
35	0x3d9ea518	0.07746333
36	0x3df45dd7	0.11931961
37	0x3d1e7208	0.038682967
38	0xbe8f0ae6	-0.27938002
39	0x3de89d51	0.11358131
40	0x3d82e227	0.063907914
41	0xbd972239	-0.07379574
42	0xbc70708d	-0.014675272
43	0xbb996478	-0.0046811663
44	0xbe0edfe6	-0.13952598
45	0x3e356cf5	0.17717345
46	0x3e8de49e	0.27713484
47	0x3d927d01	0.07152749
48	0x3e74a37c	0.2389049
49	0x3d8de3c7	0.06928211
50	0x3d377c77	0.044796433
51	0x3e21845e	0.1577315
52	0x3dcd7a9d	0.10033152
53	0x3c259d70	0.010108337
54	0xbe3863cf	-0.18006824
55	0xbb7d591a	-0.0038657845
56	0x3dd84132	0.1055931
57	0xbdb6063f	-0.0888791
58	0x3cec9608	0.028880134
59	0x3d096663	0.03354491
60	0xbe338dde	-0.17534587
61	0x3c92ce5e	0.01792067
62	0x3d37190d	0.044701625
63	0xbca8b234	-0.020592786
64	0xbdb182f6	-0.08667557
65	0x3d2c6fed	0.04209893
66	0x3d722b3d	0.059123266
67	0xbd92d3aa	-0.07169278
68	0x3dad0de0	0.08449912
69	0x3e926ddb	0.28599438
70	0xbd14c4c5	-0.036320467
71	0x3dced35f	0.100989096
72	0xbe302767	-0.17202531
73	0xbb52e606	-0.0032180562
74	0x3e5bd800	0.21469116
75	0xbdb2153a	-0.08695455
76	0x3cf2beeb	0.029632052
77	0x3e82a343	0.25515184
78	0xbde70477	-0.112801485
79	0x3cc84d5f	0.024450956
80	0x3e889e69	0.26683357
81	0x3d09d41d	0.033649553
82	0xbcbeafb9	-0.02327715
83	0x3bfc57b8	0.0077008866
84	0xbe1c378c	-0.15255564
85	0xbe180e64	-0.1484924
86	0xbc18b382	-0.009320142
87	0xbdc0a313	-0.09406104
88	0xbe63ba5f	-0.22239064
89	0xbdf92520	-0.12165284
90	0x3d93c286	0.07214837
91	0x3ddc1cc6	0.107476756
92	0xbd55e544	-0.052220598
93	0x3e2c9d4b	0.16856878
94	0xbcbd69ef	-0.023121802
95	0xbe2a1797	-0.16610561
96	0xbd9bf9ff	-0.07616042
97	0xbd026328	-0.031832844
98	0xbe8e2b09	-0.27767208
99	0xbca67ece	-0.020324137
100	0x3e74c174	0.23901922
101	0x3da6f559	0.08152265
102	0xbcbe0be5	-0.023199031
103	0x3decd1a1	0.11563421
104	0x3d2243d5	0.03961547
105	0xbcf46d5a	-0.0298373
106	0x3dda31a4	0.106539994
107	0x3dbec7f4	0.09315482
108	0xbdefc39a	-0.1170723
109	0x3d983ff8	0.07434076
110	0x3b379c6d	0.002801682
111	0x3dd10fe7	0.10208111
112	0xbdb65656	-0.08903186
113	0xbd87b5c3	-0.06626465
114	0xbdb3d5cd	-0.08781014
115	0xbccea6bc	-0.02522599
116	0xbd779119	-0.06044111
117	0xbdd55264	-0.104161054
118	0x3e2dd2e7	0.16974984
119	0x3bbbf55a	0.0057360353
120	0xbdb8d5ad	-0.090251304
121	0x3d985013	0.07437148
122	0x3c8dce3e	0.017310258
123	0x3d216eae	0.039412193
124	0x3e6f6920	0.23379946
125	0x3e51d022	0.20489553
126	0x3e32c201	0.17456819
127	0x3deede35	0.116634764
128	0x3dde78b4	0.10862866
129	0xbbaf2bc3	-0.005345793
130	0xbe398c64	-0.18119961
131	0xbe95eb99	-0.2928131
132	0xbe1f7d8b	-0.15575235
133	0xbddef0ee	-0.108857974
134	0xbc35e1eb	-0.011101226
135	0x3e540b8d	0.20707531
136	0xbc5c2b6a	-0.013438085
137	0xbdf02bb2	-0.11727084
138	0x3d90d0eb	0.07071098
139	0x3d8d3834	0.068954855
140	0xbd9df258	-0.07712239
141	0xbe14b045	-0.14520366
142	0xbdfe5ab9	-0.12419648
143	0x3d5adc73	0.053432893
144	0x3e4d8990	0.20072007
145	0x3d848ec1	0.06472541
146	0x3d89706d	0.06710897
147	0xbe16dc32	-0.14732435
148	0x3bfed074	0.0077763144
149	0x3cf1848e	0.029482152
150	0xbdb426fe	-0.087965
151	0x3e137b9e	0.14402625
152	0x3d1ff640	0.0390532
153	0xbe87e4e1	-0.26541808
154	0x3d11a163	0.0355543
155	0xbd5ed120	-0.054398656
156	0xbda84f98	-0.08218306
157	0x3d1df385	0.038562316
158	0x3e5de82d	0.216706
159	0xbd59c76f	-0.05316871
160	0xbc59a37e	-0.0132836085
161	0x3e26516d	0.16241999
162	0x3dcdf1da	0.10055895
163	0x3e4b6dcd	0.19866104
164	0x3dbd1ef3	0.09234419
165	0xbcb95d77	-0.022627575
166	0xbe21104d	-0.15728875
167	0xbdedcc99	-0.116112895
168	0x3e0903e6	0.13380393
169	0x3d84bbb0	0.06481111
170	0xbd46679b	-0.04843865
171	0xbd9d547b	-0.07682129
172	0xbda7ae0d	-0.081874944
173	0xbd3cd450	-0.046100914
174	0xbe13908a	-0.14410606
175	0xbd4260b0	-0.04745549
176	0x3e3a3321	0.18183567
177	0xbdddafa5	-0.10824517
178	0xbdb28ea9	-0.087186165
179	0xbd3fa658	-0.046789497
180	0x3e463a29	0.19358124
181	0x3e2fa67d	0.17153354
182	0x3e1ddcb0	0.15416217
183	0xbda67c05	-0.081291236
184	0x3dea1d26	0.11431341
185	0xbd281d3b	-0.0410435
186	0xbd7792af	-0.060442623
187	0xbdf3f35e	-0.11911653
188	0xbe7e0f07	-0.2481042
189	0x3de0e482	0.109810844
190	0xbc2dfd75	-0.010619511
191	0xbccecee7	-0.025245143
192	0x3d860a34	0.06544915
193	0xbaabdbbf	-0.0013111754
194	0x3e52ee70	0.20598769
195	0xbc08b108	-0.008342989
196	0xbdacf492	-0.084450856
197	0x3e08a1d0	0.13342977
198	0xbe64e00e	-0.22351095
199	0xbe823cdc	-0.25437057
200	0xbdb3a10c	-0.08770952
201	0x3ccf0154	0.025269188
202	0x3d83e7fa	0.064407304
203	0x3dca5762	0.09879948
204	0xbd48cce2	-0.049023516
205	0xbe08a0c1	-0.13342573
206	0xbe742224	-0.23841149
207	0xbc91a747	-0.01777996
208	0xbda22c30	-0.07918584
209	0xbcea044e	-0.028566506
210	0xbe1e4ea7	-0.15459691
211	0x3d8c48a6	0.06849794
212	0xbb0f5f15	-0.0021876742
213	0xbdeb15f8	-0.114787996
214	0xbc269e12	-0.010169523
215	0xbdfa6565	-0.12226371
216	0xbd1c45da	-0.038152553
217	0xbe0009d2	-0.12503746
218	0xbde6c8e9	-0.11268789
219	0xbcd7e31f	-0.026353417
220	0xbc588fb7	-0.013217858
221	0xbe3d4b73	-0.18485813
222	0xbe235897	-0.15951763
223	0xbe380e30	-0.17974162
224	0xbe46792f	-0.19382165
225	0x3dbeb097	0.093110256
226	0x3de15aea	0.110036686
227	0xbe175516	-0.14778551
228	0xbd9c8420	-0.07642388
229	0x3e08dfd1	0.13366629
230	0xbd52a0f7	-0.05142304
231	0xbba64545	-0.0050741755
232	0xbcda16af	-0.026622145
233	0x3e27791e	0.16354796
234	0xbe08fd79	-0.13377942
235	0xbe36b8b4	-0.17843896
236	0x3e18a65e	0.14907214
237	0xbdf7b232	-0.12094535
238	0xbde4722a	-0.111545876
239	0x3e25bc42	0.16185096
240	0xbdac9784	-0.08427337
241	0xbda85022	-0.08218409
242	0xbdf352a9	-0.118810005
243	0xbd031838	-0.03200552
244	0x3d2705b9	0.040776942
245	0xbd99a907	-0.075029425
246	0xbc24382a	-0.010023156
247	0x3e31279b	0.17300265
248	0xbe02b810	-0.12765527
249	0xbbf164d4	-0.007366756
250	0x3ca57343	0.020196563
251	0xbe8f6834	-0.28009188
252	0x3e9296f9	0.28630808
253	0x3dd0eb3b	0.10201117
254	0xbdb548ad	-0.088517524
255	0x3c84567a	0.016154516

block1.1.conv.bias f4 [16]
0	0x3e0232dc	0.12714714
1	0x3e13a3dc	0.14417976
2	0x3dfc3693	0.12315097
3	0xbd9c3b7e	-0.07628535
4	0xbd819df0	-0.06328952
5	0x3c51024d	0.012756896
6	0x3d719081	0.0589757
7	0xbdcfc5f4	-0.101451784
8	0x3e184931	0.1487167
9	0x3d9b50b9	0.07583756
10	0xbd9335f4	-0.07188025
11	0xbd1066e8	-0.03525439
12	0x3d2194a6	0.039448403
13	0x3d934f3d	0.07192848
14	0x3d0fd0c3	0.0351112
15	0x3c625dfe	0.013816355

block1.1.BN.weight f4 [16]
0	0x3f8305e9	1.0236179
1	0x3f78e443	0.972233
2	0x3f87b3e6	1.0601776
3	0x3f7d7d93	0.99019736
4	0x3f6b0155	0.9179891
5	0x3f8e3f96	1.1113155
6	0x3f8157ae	1.0104883
7	0x3f5b1454	0.85577893
8	0x3f8520c9	1.040063
9	0x3f700e11	0.93771464
10	0x3f88cf3a	1.068824
11	0x3f6a7b85	0.91594726
12	0x3f7a873a	0.9786259
13	0x3f83385d	1.0251576
14	0x3f8b58a3	1.0886425
15	0x3f79877f	0.97472376

block1.1.BN.bias f4 [16]
0	0xbe605654	-0.21907932
1	0xbe213580	-0.15743065
2	0xbe118e8e	-0.14214537
3	0xbc9b5b5f	-0.018964468
4	0xbe050361	-0.1298957
5	0xbc3cfc56	-0.011534771
6	0xbe0b0aec	-0.13578385
7	0xbe24fa6b	-0.16111152
8	0xbe822b94	-0.25423872
9	0x3ba8f7a4	0.005156474
10	0xbc2a0123	-0.010376248
11	0xbe80c9b4	-0.25153887
12	0xbe39e9bf	-0.18155573
13	0xbe49cab5	-0.19706233
14	0x3d9734af	0.073830955
15	0xbe382cfa	-0.17985907

block1.1.BN.running_mean f4 [16]
0	0x3f111079	0.5666576
1	0x3e08caf6	0.13358673
2	0xbdbdcb79	-0.09267325
3	0xbf9d114e	-1.2270906
4	0xbf5570c1	-0.83375174
5	0x3ec0d8b7	0.3766534
6	0xbdade8e5	-0.08491687
7	0x3f2f5b4d	0.6849869
8	0xbf3bd212	-0.73367417
9	0xbf5beb20	-0.8590565
10	0xbf000dee	-0.50021255
11	0xbe684d29	-0.22685684
12	0x3e6adaab	0.22934978
13	0x3f18d014	0.596925
14	0xbf5e540a	-0.86846983
15	0xbed3ad01	-0.4134293

block1.1.BN.running_var f4 [16]
0	0x3f85d492	1.0455496
1	0x3f1bed72	0.6090919
2	0x3eb2365c	0.34807098
3	0x3f3cc82e	0.7374295
4	0x3f138312	0.5762187
5	0x3f2b1ff9	0.6684566
6	0x3f78debe	0.9721488
7	0x3f698c21	0.91229445
8	0x3f130d42	0.57442105
9	0x3fc7c0bf	1.5605696
10	0x3f060682	0.5235368
11	0x3e8657ce	0.26238865
12	0x3f8d8939	1.1057502
13	0x3f4b0c27	0.7931542
14	0x3fae88b4	1.3635468
15	0x3f050bcc	0.51971126

block1.2.conv.weight f4 [8, 16, 3, 3]
0	0x3d1e41f4	0.038637117
1	0x3e19e25f	0.1502776
2	0x3e5b24b2	0.21400717
3	0x3df8e8ca	0.12153776
4	0xbd9c8f09	-0.07644469
5	0x3bc51796	0.0060147746
6	0xbd14fee3	-0.03637589
7	0xbe12209e	-0.14270255
8	0xbe04ee98	-0.12981641
9	0x3d809425	0.06278256
10	0xbe46d493	-0.19417028
11	0xbe22160b	-0.15828721
12	0x3d441176	0.047868215
13	0xbb985d41	-0.0046497886
14	0x3ac8e2d3	0.0015326388
15	0x3d98e65e	0.07465814
16	0x3e6c3840	0.23068333
17	0x3e81f984	0.25385678
18	0x3d5f64ab	0.054539364
19	0xbc1fbc70	-0.009749517
20	0x3d1c6338	0.03818056
21	0xbd4193b0	-0.047259986
22	0x3e1105e1	0.14162399
23	0x3dad8cd5	0.08474127
24	0xbe3cfd03	-0.18455891
25	0x3df27400	0.118385315
26	0x3dafd876	0.085862085
27	0x3e27abf6	0.16374192
28	0x3e0857a3	0.13314681
29	0xbe0dbecb	-0.13842313
30	0x3e0ab2b6	0.13544735
31	0x3bea8c8b	0.0071578673
32	0x3cdb3e6a	0.02676316
33	0xbd5af5c9	-0.053457055
34	0xbe6231b1	-0.22089268
35	0x3d983a43	0.074329875
36	0xbda2c261	-0.07947231
37	0xbdfdf3c6	-0.12400012
38	0xbd4c254a	-0.04984025
39	0xbd2381e3	-0.03991879
40	0x3cce6441	0.02519429
41	0x3d2e5b6f	0.042567667
42	0xbbc4e07b	-0.0060082055
43	0xbd2728a5	-0.040810246
44	0x3dde76f7	0.108625345
45	0xbdc08365	-0.094000615
46	0xbe0d6992	-0.13809803
47	0xbda73563	-0.081644796
48	0xbe1ba1d1	-0.15198447
49	0x3b8948c7	0.004189584
50	0x3d6443f3	0.055728864
51	0xbe241286	-0.16022691
52	0x3e2d479d	0.1692185
53	0x3e834657	0.25639603
54	0x3ca641fb	0.020295134
55	0x3d96da08	0.07365805
56	0x3dd90fa1	0.10598684
57	0x3d7f543c	0.06233619
58	0x3d827869	0.06370623
59	0x3dcf1574	0.10111514
60	0x3e81093b	0.25202355
61	0x3d43716c	0.04771559
62	0xbd3cea0b	-0.04612164
63	0xbd6b2734	-0.057410434
64	0xbe0d3432	-0.13789442
65	0xbd7bab01	-0.06144238
66	0xbe145b5a	-0.14487973
67	0xbe1c7d45	-0.15282162
68	0x3c65039b	0.01397791
69	0xbd97f8af	-0.074204795
70	0xbddf53f6	-0.10904686
71	0xbd6ed111	-0.05830485
72	0x3dc1db4a	0.09465654
73	0x3d29adaf	0.041425403
74	0x3e0a65fb	0.13515465
75	0xbde7ed6d	-0.11324582
76	0xbd979daa	-0.07403119
77	0xbd35a6dd	-0.044348586
78	0x3cab5a71	0.02091715
79	0xbc95560f	-0.018229512
80	0xbdfe6bb6	-0.12422888
81	0x3d8f103f	0.069855206
82	0xbd2be209	-0.04196361
83	0xbd62e3f3	-0.05539317
84	0xbbaef2b3	-0.0053389906
85	0x3e3d49b1	0.18485142
86	0x3d9996a6	0.07499437
87	0x3c1452a9	0.009052911
88	0x3e3674fa	0.1781806
89	0x3e23902b	0.15972964
90	0xbe233987	-0.15939914
91	0x3b16e6e0	0.0023025796
92	0xbe1e87d9	-0.1548151
93	0xbc1bfed1	-0.009521202
94	0x3d3dacde	0.046307437
95	0x3c62f126	0.01385144
96	0x3d23fefc	0.040038094
97	0x3db2ac3f	0.087242596
98	0x3cb4c8af	0.02206835
99	0x3ca503e5	0.020143459
100	0xbd9a96d3	-0.07548299
101	0xbdc36f3f	-0.09542703
102	0xbd8ea30d	-0.06964693
103	0x3d80d27b	0.06290146
104	0x3e7a37b5	0.24435313
105	0x3e1db723	0.15401892
106	0x3c407559	0.011746728
107	0x3db05bc6	0.086112544
108	0x3d9add2e	0.07561718
109	0x3df6c159	0.12048597
110	0x3d9ddbd8	0.077079475
111	0x3e5c48c8	0.21512139
112	0x3e23d594	0.15999442
113	0x3de8714c	0.11349735
114	0x3dc8373a	0.09776159
115	0x3e2f30ab	0.17108409
116	0x3e4f73fe	0.20259091
117	0xbe3e99b8	-0.18613327
118	0xbe617f6f	-0.22021268
119	0xbe360e6a	-0.17778936
120	0x3d9611a9	0.07327587
121	0x3de5ce82	0.11221029
122	0x3dc09d5b	0.09405013
123	0xbe4f017d	-0.20215411
124	0xbd103293	-0.03520448
125	0xbdf96d57	-0.12179058
126	0xbde56b27	-0.11202078
127	0xbdc99954	-0.09843698
128	0x3d4a5168	0.04939404
129	0xbd97279d	-0.073806025
130	0xbe54df57	-0.20788322
131	0xbe07c5a1	-0.13258983
132	0xbdbf5fa0	-0.09344411
133	0xbd1f3973	-0.038873147
134	0x3d8f7187	0.070040755
135	0xbdc9fabb	-0.09862276
136	0xbe18c6a8	-0.14919531
137	0x3d159a24	0.036523953
138	0x3cb70ddf	0.022345481
139	0xbd79e333	-0.06100769
140	0xbd96bcfe	-0.07360266
141	0x3c30b91b	0.01078632
142	0xbde8a91b	-0.11360379
143	0x3e2da141	0.16956045
144	0x3d3fa091	0.046783987
145	0x3e0e6cec	0.13908738
146	0x3b75e093	0.003751789
147	0x3dd85972	0.10563935
148	0xbcc5fd23	-0.024168557
149	0x3d7bb49b	0.061451536
150	0x3df4b22b	0.11948045
151	0xbd10de74	-0.035368398
152	0x3e0e3d79	0.13890637
153	0xbe810060	-0.251956
154	0xbe479306	-0.19489679
155	0xbdfac44b	-0.12244471
156	0xbcaed15b	-0.021340063
157	0xba31c3da	-0.00067811983
158	0xbd16ed03	-0.036847126
159	0x3d82f723	0.06394794
160	0x3e5010fc	0.20318979
161	0x3e2f159f	0.17098092
162	0xbd78999f	-0.06069338
163	0xbc2db83e	-0.010603009
164	0xbebb93b7	-0.36636135
165	0xbdaa6d5b	-0.08321639
166	0xbd1ada3e	-0.03780579
167	0x3d8d5e4b	0.069027506
168	0xbc2a4918	-0.0103934035
169	0xbd476b30	-0.048686206
170	0xbe5fd72f	-0.2185943
171	0xbd8245b3	-0.0636095
172	0xbe175db7	-0.14781843
173	0x3d80ebb9	0.062949605
174	0x3c3c86d2	0.011506753
175	0x3bd725ad	0.0065657706
176	0x3c879e75	0.01655505
177	0x3dc23cf6	0.094842836
178	0x3e715d6a	0.23570791
179	0x3e07c08a	0.13257042
180	0x3dbea22d	0.09308276
181	0x3e32e08b	0.17468469
182	0x3be6e829	0.0070467186
183	0x3d300cda	0.042981006
184	0xbe1c1b95	-0.15244897
185	0xbdad58ea	-0.08464225
186	0xbd85f55f	-0.065409414
187	0xbe2d0c92	-0.16899326
188	0xbddc290f	-0.10750019
189	0x3e0506b6	0.12990841
190	0x3d2bb5bf	0.041921373
191	0x3d961582	0.07328321
192	0x3e14e1bc	0.14539236
193	0x3daeaaab	0.08528646
194	0xbe2bcbb8	-0.16776931
195	0x3db0cb4e	0.08632527
196	0x3e3de212	0.1854327
197	0xbc8b2bac	-0.016988598
198	0xbde9bf27	-0.114134125
199	0xbe6ec489	-0.2331716
200	0xbdef407e	-0.11682223
201	0xbdd5457a	-0.10413642
202	0xbccadc47	-0.02476324
203	0x3a7f6fa4	0.0009744114
204	0x3e144ab2	0.14481619
205	0x3d052f24	0.03251566
206	0x3b2b819d	0.0026169785
207	0x3e02349d	0.12715383
208	0x3db2ea46	0.0873609
209	0x3bca9ccf	0.006183244
210	0xbb423d40	-0.0029638559
211	0xbd14bc6d	-0.03631251
212	0xbd2ace5e	-0.041700713
213	0xbdc6adfc	-0.09701154
214	0x3d6007fc	0.054695114
215	0x3d0bdade	0.034144275
216	0x3da5024b	0.08057078
217	0x3e30c323	0.17261939
218	0x3c07944f	0.008275106
219	0x3db680ca	0.08911283
220	0x3e49f909	0.19723906
221	0x3df0f19b	0.117648326
222	0x3d7657e8	0.060142428
223	0xbcbcc20c	-0.023041748
224	0xbd2416a0	-0.04006064
225	0xbd9f513d	-0.07779167
226	0x3bb24e8c	0.0054414924
227	0xbe166112	-0.14685467
228	0x3dbcf61e	0.09226631
229	0xbce5192f	-0.02796611
230	0xbd73f860	-0.05956304
231	0x3d6b7c4b	0.057491582
232	0x3e11568d	0.14193173
233	0x3d7b37e0	0.061332583
234	0xbe882c32	-0.26596218
235	0xbeb054ef	-0.344398
236	0xbe672e32	-0.22576216
237	0x3dc83522	0.09775759
238	0x3d2907fa	0.041267373
239	0x3c2b5bae	0.01045887
240	0x3dfd7a02	0.12376787
241	0x3dc7fd1e	0.09765075
242	0xbd649ce6	-0.055813693
243	0x3e14575d	0.14486451
244	0x3d99eda4	0.075160295
245	0xbd6f1462	-0.058369048
246	0x3c2733f0	0.010205254
247	0x3ce8444e	0.028352883
248	0xbb2d432a	-0.0026437738
249	0x3e18dfb3	0.14929084
250	0x3e3df55a	0.18550625
251	0x3dfc6bcd	0.12325249
252	0xbe14a126	-0.14514598
253	0xbc4fd7c9	-0.0126857245
254	0xbe2d5775	-0.16927893
255	0xbd7f12d1	-0.062273804

block1.2.conv.bias f4 [8]
0	0x3da3c9fc	0.0799751
1	0xbda5fe5e	-0.08105157
2	0x3c2d1b65	0.010565613
3	0x3d3bb8de	0.0458306
4	0x3bfdb85e	0.0077429255
5	0xbd8a7e9c	-0.0676243
6	0x3daafd35	0.08349077
7	0x3d898074	0.067139536

block1.2.BN.weight f4 [8]
0	0x3f7b3236	0.9812349
1	0x3f6be6c2	0.92148983
2	0x3f8684dc	1.0509295
3	0x3f84d523	1.0377544
4	0x3f8ed9cc	1.1160216
5	0x3f769f9c	0.96337295
6	0x3f8238c7	1.0173577
7	0x3f80145d	1.0006214

block1.2.BN.bias f4 [8]
0	0xbe0c9e18	-0.13732183
1	0xbca48d84	-0.020087011
2	0xbe65627a	-0.22400847
3	0x3c0837bc	0.008314069
4	0x3d92b03c	0.0716252
5	0x3d481019	0.048843477
6	0xbc575567	-0.01314292
7	0xbe113790	-0.14181352

block1.2.BN.running_mean f4 [8]
0	0x3e854835	0.26031652
1	0x3eb40d75	0.35166517
2	0x3f026584	0.5093615
3	0xbfbffe2b	-1.4999441
4	0x3e7598a6	0.23984012
5	0xbf254991	-0.6456538
6	0x3d683f1b	0.056700807
7	0x3e844d4f	0.25840232

block1.2.BN.running_var f4 [8]
0	0x3f58e1bc	0.84719443
1	0x3f5d68f7	0.8648829
2	0x3f2b76ba	0.6697804
3	0x3fa73975	1.306441
4	0x3f9e0a33	1.2346863
5	0x400b49b7	2.1763742
6	0x3fc88512	1.566561
7	0x3fbb2262	1.4619868

block1.3.conv.weight f4 [4, 8, 3, 3]
0	0x3d7b3699	0.061331365
1	0x3da885dc	0.08228657
2	0x3e4e38d4	0.20138866
3	0x3e3a02de	0.18165156
4	0xbd2206c8	-0.03955725
5	0x3d7194e3	0.05897988
6	0x3e5cd0bb	0.21564
7	0x3e28108d	0.16412564
8	0xbccb3fd3	-0.024810707
9	0xbd82cd31	-0.063867934
10	0x3d89b416	0.06723802
11	0xbe1910d0	-0.1494782
12	0x3d818fd2	0.0632626
13	0xbd55c777	-0.052192178
14	0xbe033184	-0.12811857
15	0x3c94c913	0.018162286
16	0x3d95c9fb	0.07313915
17	0x3d67dc4b	0.056606572
18	0xbe0c5bd0	-0.13706899
19	0x3dfe22ec	0.124090046
20	0x3eaa28a8	0.33234143
21	0xbe77b244	-0.24189097
22	0xbd9ce1dd	-0.076602675
23	0x3b27fd53	0.002563317
24	0x3ca7f557	0.02050273
25	0x3e005582	0.12532619
26	0x3da54859	0.0807044
27	0xbd48b1b7	-0.048997607
28	0x3b8c0199	0.0042726514
29	0x3d935b4c	0.07195148
30	0xbdb9685d	-0.09053109
31	0x3e1c6935	0.15274508
32	0xbe29eeb8	-0.1659497
33	0x3b6d894d	0.0036245168
34	0x3dc03a56	0.09386127
35	0xbca4a3cc	-0.020097636
36	0xbbec0027	-0.0072021666
37	0xbddb3774	-0.10703936
38	0x3c2139a1	0.0098404
39	0xbe546a73	-0.20743732
40	0xbe018854	-0.12649661
41	0xbdae443e	-0.0850911
42	0x3b4e1ee6	0.0031451522
43	0x3d85e0cf	0.065370195
44	0x3dc1ee25	0.094692506
45	0x3e845dbd	0.25852767
46	0x3d215084	0.039383426
47	0xbce0cb86	-0.027440798
48	0xbd901951	-0.07036079
49	0x3c11f264	0.008907888
50	0x3b2f2de6	0.0026730238
51	0x3c06c933	0.008226681
52	0xbe02a4b0	-0.12758136
53	0x3df40645	0.11915258
54	0x3e0c39c2	0.13693908
55	0xbd69ea81	-0.057108406
56	0xbe036010	-0.12829614
57	0x3db68ea0	0.08913922
58	0xbe0123a6	-0.12611255
59	0xbe4ac53e	-0.19801804
60	0x3d61f75c	0.05516754
61	0x3e600c9c	0.2187981
62	0x3e03984b	0.12851064
63	0x3e3b3d86	0.18285188
64	0x3d0869c9	0.03330401
65	0xbc103e97	-0.008803985
66	0x3d82c469	0.063851185
67	0x3ddf124a	0.1089216
68	0xbdd08a27	-0.101826005
69	0x3e8e9e50	0.27855158
70	0xbda187af	-0.07887208
71	0xbbe6f659	-0.00704841
72	0xbd0c4173	-0.034242105
73	0xbe4c6b05	-0.199627
74	0xbdf3ca48	-0.119038165
75	0xbc22aadc	-0.009928431
76	0xbc8a8111	-0.016907247
77	0xbdafbbd3	-0.085807465
78	0xbd7f1b72	-0.062282033
79	0x3cb0db96	0.021589082
80	0xbe5ee3b2	-0.21766546
81	0xbd7b09d3	-0.061288666
82	0xbe83b644	-0.25724995
83	0xbc26d3b9	-0.010182315
84	0xbd4ed919	-0.05050001
85	0xbe41f6f5	-0.18941863
86	0xbd4744c1	-0.048649553
87	0x3d2049a0	0.039132714
88	0xbd9f0637	-0.07764857
89	0x3dbce30d	0.09222994
90	0x3e3c7f7b	0.18408005
91	0x3e75daab	0.24009196
92	0x3b3735af	0.0027955582
93	0x3d897273	0.067112826
94	0x3e02fd68	0.1279198
95	0xbe11224e	-0.14173242
96	0x3d8e71d8	0.06955308
97	0x3d5f130d	0.054461528
98	0xbd251c02	-0.040309913
99	0xbd9536e9	-0.07285864
100	0xbeb291b4	-0.34876788
101	0xbd4efe20	-0.05053532
102	0xbbb5c630	-0.0055473074
103	0xbe1f118c	-0.15534037
104	0x3e0d60f6	0.13806519
105	0xbe2f0e08	-0.17095196
106	0xbe4ebb90	-0.20188737
107	0x3d687137	0.056748595
108	0xbd12add7	-0.035810318
109	0x3e16b954	0.14719135
110	0x3d8f1ba6	0.069876954
111	0x3da05d9a	0.07830353
112	0xbd0d941e	-0.034565084
113	0xbdac6277	-0.08417218
114	0xbde7a2a1	-0.11310316
115	0xbdc9ce96	-0.09853856
116	0xbe8bbd81	-0.27293018
117	0xbe20cdf6	-0.15703568
118	0xbcc427f9	-0.023944842
119	0xbd5d68bf	-0.05405497
120	0xbe257f02	-0.16161731
121	0xbd6d9c95	-0.058010656
122	0x3d0f7d25	0.035031457
123	0x3c0965fe	0.008386133
124	0x3d2fe0f0	0.042939126
125	0x3e763116	0.24042162
126	0xbc46237b	-0.01209342
127	0xbd15824b	-0.03650121
128	0x3e410e12	0.18853024
129	0xbd3da54b	-0.046300214
130	0xbdb25736	-0.087080404
131	0x3e201b2d	0.15635367
132	0xbc129dac	-0.008948725
133	0xbdf228d0	-0.118241906
134	0xbddc59f2	-0.10759343
135	0xbe511b49	-0.20420565
136	0xbe576943	-0.21036248
137	0x3c75ab0a	0.014994392
138	0x3c44a991	0.012003318
139	0xbdb22a36	-0.08699457
140	0xbcb42a1c	-0.021992736
141	0xbd18f1fe	-0.037340157
142	0x3da87f48	0.08227402
143	0x3de90ebf	0.11379766
144	0xbddcc31a	-0.107794
145	0xbc416a0c	-0.011805069
146	0x3d989f3c	0.074522465
147	0x3e15e800	0.14639282
148	0x3dc464fe	0.09589575
149	0x3dd7a0ca	0.10528715
150	0x3e458ed2	0.19292763
151	0x3e09c9c3	0.13455872
152	0x3cc84d1d	0.024450833
153	0x3d374286	0.044741176
154	0x3e1c460d	0.15261097
155	0x3e41d55d	0.18929048
156	0x3da24ee7	0.07925206
157	0x3d60b124	0.054856434
158	0xbd9586f4	-0.07301131
159	0xbe614472	-0.21998766
160	0xbe3dbca8	-0.18528998
161	0x3da976dd	0.082746245
162	0x3dd5017e	0.10400675
163	0xbd4cea63	-0.050028216
164	0x3daf5c5d	0.08562539
165	0xbd9acbb6	-0.07558386
166	0x3c9d02d9	0.019166397
167	0xbe8d231d	-0.27565852
168	0x3d2758f1	0.040856306
169	0xbc09a762	-0.008401724
170	0xbd4357e1	-0.04769123
171	0x3e1f1d58	0.15538538
172	0x3d928ab0	0.07155359
173	0x3e7fc6e2	0.24978212
174	0xbb0abc76	-0.002116946
175	0x3e0d7286	0.13813218
176	0x3d88c039	0.066772886
177	0xbdd21d43	-0.102594875
178	0x3ad03325	0.0015884383
179	0xbe4aa76d	-0.1979043
180	0x3dcf9724	0.1013625
181	0xbd17dfea	-0.037078775
182	0x3d814c5f	0.06313395
183	0xbe1563a1	-0.14588787
184	0xbdd15e08	-0.10223013
185	0xbe2f73c8	-0.17134011
186	0x3e8f228e	0.2795605
187	0x3ea34a57	0.31892654
188	0x3e320dd0	0.17388082
189	0x3e0cdaa9	0.13755287
190	0x3da48d35	0.080347456
191	0x3d15f9e9	0.036615286
192	0x3b5188da	0.003197244
193	0x3b4a1f15	0.003084128
194	0x3e251a09	0.16123213
195	0x3d7c5ba9	0.06161085
196	0x3db87cef	0.09008204
197	0x3df16763	0.117872976
198	0x3e369ea7	0.17833959
199	0xbc459725	-0.012059961
200	0x3d091b06	0.033473037
201	0x3dc4855e	0.0959575
202	0x3e09092f	0.1338241
203	0x3e56565f	0.20931385
204	0xbc3b0df9	-0.011416906
205	0xbd02cb2e	-0.03193205
206	0xbc9d9539	-0.019236194
207	0xbe29bf8f	-0.1657698
208	0xbd83283a	-0.06404157
209	0x3e2b4c5f	0.16728352
210	0x3bf67c7d	0.0075221644
211	0x3c2fb6c3	0.010724726
212	0xbd502ba7	-0.05082288
213	0xbe366bd1	-0.17814566
214	0xbddae0c2	-0.106874004
215	0x3d973adf	0.07384276
216	0xbd989054	-0.074494034
217	0xbd827275	-0.06369487
218	0xbce0ac71	-0.027425976
219	0xbd2c9b40	-0.042140245
220	0xbe2c0a68	-0.16800845
221	0xbd4520cf	-0.04812699
222	0x3e08147d	0.13289066
223	0x3e072699	0.13198318
224	0xbd478ecd	-0.04872017
225	0x3e196264	0.1497894
226	0x3da016f8	0.07816881
227	0x3e45ae11	0.19304682
228	0x3d86b5d4	0.0657765
229	0x3d269e03	0.040678035
230	0x3d2df960	0.04247415
231	0x3db40ea8	0.08791858
232	0x3e1829c5	0.14859684
233	0x3d989d0f	0.074518315
234	0xbdda2af3	-0.10652723
235	0x3dd1d79d	0.10246203
236	0x3e2c9633	0.16854171
237	0xbdba3995	-0.09093014
238	0x3e1fad20	0.15593386
239	0xbd9a9ec7	-0.075498156
240	0xbd9de817	-0.07710283
241	0x3c0beb88	0.008540042
242	0xbb344ee3	-0.002751284
243	0xbe440398	-0.19141996
244	0xbdd8b63b	-0.10581633
245	0xbd5fd734	-0.054648593
246	0xbd6e0b4f	-0.058116253
247	0xbebd15f5	-0.36930814
248	0x3c1a9909	0.0094359005
249	0xbc9a504e	-0.01883712
250	0xbdd4707c	-0.10373017
251	0xbdbfbc7e	-0.09362124
252	0xbcf4f106	-0.029900085
253	0xbccc6caa	-0.024954159
254	0xbe04647b	-0.12928955
255	0xbd082548	-0.03323868

block1.3.conv.bias f4 [4]
0	0x3cdd91ce	0.027047064
1	0x3d15b8cf	0.0365532
2	0xbdf8ec6e	-0.121544704
3	0x3d8cb699	0.06870765

block1.3.BN.weight f4 [4]
0	0x3f868035	1.0507876
1	0x3f7fe30d	0.99955827
2	0x3f849740	1.0358658
3	0x3f7186f1	0.9434653

block1.3.BN.bias f4 [4]
0	0xbdbd021d	-0.09228919
1	0xbc90da04	-0.017682083
2	0xbdb3033c	-0.08740851
3	0xbd8640cd	-0.065553285

block1.3.BN.running_mean f4 [4]
0	0x3ed10432	0.40823513
1	0xbf5f8515	-0.8731244
2	0x3f55553e	0.83333194
3	0xbd809840	-0.062790394

block1.3.BN.running_var f4 [4]
0	0x3f0fda59	0.5619255
1	0x3f53716a	0.8259493
2	0x3f5ec8b6	0.8702501
3	0x3fb46918	1.4094572

block2.0.conv.weight f4 [8, 4, 3, 3]
0	0xbdddb6b5	-0.10825864
1	0xbae0a71a	-0.0017139644
2	0xbe8f7554	-0.28019202
3	0x3d205b33	0.039149474
4	0xbb6eef57	-0.0036458576
5	0x3e24d14e	0.16095468
6	0x3dda9f3d	0.106749035
7	0xbe0a3528	-0.1349684
8	0x3d9defd8	0.07711762
9	0x3bd8c862	0.0066156844
10	0x3e082452	0.13295105
11	0x3c12da61	0.008963198
12	0x3d80b029	0.062836
13	0xbe169bff	-0.14707945
14	0xbcbb5b84	-0.022870786
15	0x3decd9e2	0.11564995
16	0x3d47412b	0.048646133
17	0x3e02b155	0.1276296
18	0xbd945255	-0.07242266
19	0xbbf137c8	-0.007361386
20	0xbe234d27	-0.159474
21	0x3e2e75f3	0.17037182
22	0xbdd7078d	-0.10499487
23	0x3d157bb4	0.036494926
24	0x3e03828b	0.12842767
25	0x3d117a32	0.035516925
26	0x3dff6625	0.124706544
27	0xbe0f12bf	-0.13971995
28	0xbe61f070	-0.22064376
29	0xbe04bce7	-0.12962686
30	0x3e45b7bf	0.19308375
31	0x3d63dea6	0.055632256
32	0x3e0a0927	0.13480054
33	0x3e5e6404	0.2171784
34	0xbdad978c	-0.08476171
35	0x3e867f99	0.26269224
36	0x3d97b1e0	0.07406974
37	0xbe590f8a	-0.21197334
38	0xbd815ac5	-0.06316141
39	0x3d40a533	0.047032546
40	0xbd1b404f	-0.037903126
41	0xbd2312b9	-0.039812777
42	0x3de1085d	0.10987923
43	0xbd1933b3	-0.03740282
44	0xbe66d24d	-0.22541161
45	0x3dcfa7d5	0.10139433
46	0xbdc9763f	-0.09837007
47	0xbd49b88e	-0.04924827
48	0x3e38c82a	0.18045107
49	0xbe5c0759	-0.21487178
50	0xbe2715f5	-0.1631697
51	0x3dd1c2b7	0.10242217
52	0xbe2ace43	-0.16680245
53	0xbe216913	-0.15762739
54	0x3e639680	0.2222538
55	0xbe02de06	-0.12780008
56	0xbe665797	-0.2249435
57	0x3d542980	0.05179739
58	0x3e2ce3f8	0.16883838
59	0xbe8d8581	-0.27640918
60	0x3e04cac0	0.12967968
61	0x3c1044c1	0.008805455
62	0xbe9d41c7	-0.30714247
63	0x3e2193e3	0.1577907
64	0xbda410bd	-0.08011005
65	0xbd242a1b	-0.040079217
66	0x3e3050b8	0.17218292
67	0xbcd384cd	-0.02582016
68	0xbe2f68f7	-0.17129885
69	0xbe0e8ff2	-0.13922098
70	0x3d9cfc5a	0.0766532
71	0xbd0dc174	-0.03460832
72	0x3e0d2374	0.13783056
73	0xbc960b9a	-0.018316079
74	0x3e926eba	0.28600103
75	0x3bc3c6e2	0.0059746364
76	0xbe5f45d7	-0.21803986
77	0x3dbd101d	0.09231589
78	0xbd8e9474	-0.06961909
79	0xbddc8178	-0.10766882
80	0xbd57f2a1	-0.052721623
81	0xbd4bff8d	-0.04980426
82	0xbdf42dae	-0.11922775
83	0x3b654365	0.0034982797
84	0x3da47f1f	0.08032059
85	0x3deaa862	0.11457898
86	0xbe74ca43	-0.23905282
87	0x3d942520	0.072336435
88	0x3d87bbd4	0.06627622
89	0x3ddcb7ce	0.107772455
90	0x3e5c2c94	0.2150138
91	0x3eaada87	0.33369848
92	0x3e42abaf	0.19010805
93	0xbdc320d6	-0.09527747
94	0xbe1733ae	-0.14765808
95	0xbdbbf7c1	-0.09178115
96	0xbcec771a	-0.028865386
97	0xbd311058	-0.043228477
98	0xbd859580	-0.065226555
99	0xbe008214	-0.12549621
100	0xbbe0ddb2	-0.0068623656
101	0x3aa45919	0.001253876
102	0xbd5a758a	-0.05333475
103	0x3d521388	0.051288158
104	0xbe2b5840	-0.16732883
105	0xbdb22eca	-0.087003306
106	0xbe05bb9e	-0.13059852
107	0x3ca61397	0.020273013
108	0x3e2e7873	0.17038135
109	0x3debc4e2	0.11512162
110	0xbe832667	-0.25615236
111	0x3d04c106	0.032410644
112	0x3b039bd2	0.002008189
113	0xbdcd2c60	-0.100182295
114	0x3d2a459c	0.04157029
115	0x3e4f5eec	0.20251054
116	0xbddbf369	-0.10739786
117	0xbea93cd0	-0.3305421
118	0xbdf5c1bf	-0.11999845
119	0xbc59d4dc	-0.013295379
120	0xbddcef86	-0.10787873
121	0x3e4495f3	0.19197826
122	0xbd0646e5	-0.032782454
123	0x3e66dbc6	0.22544774
124	0x3e94ae25	0.29039112
125	0x3d43650f	0.0477038
126	0x3a44f835	0.00075137924
127	0xbceea4cf	-0.029131321
128	0x3d888ce1	0.066674955
129	0xbd91dd81	-0.07122327
130	0xbe111aea	-0.14170423
131	0x3dd60f44	0.104521304
132	0xbd522e9b	-0.051313978
133	0x3de49851	0.111618645
134	0xbcad3437	-0.021143062
135	0xbe5ac1df	-0.21363018
136	0xbce18376	-0.027528506
137	0xbcc567e3	-0.024097389
138	0xbd694d4e	-0.05695849
139	0xbc0985e5	-0.008393739
140	0x3dce0e5d	0.10061333
141	0xbc822f51	-0.015891703
142	0xbd5781b5	-0.052613933
143	0xbe255726	-0.16146526
144	0xbe3efada	-0.1865038
145	0x3d37eabc	0.044901595
146	0xbdfe45a1	-0.124156244
147	0xbe951920	-0.2912073
148	0xbe6959fc	-0.22788233
149	0xbde02ae3	-0.1094568
150	0xbec160e5	-0.37769237
151	0xbe3d7eb8	-0.1850537
152	0xbd24309b	-0.040085416
153	0xbb8737f4	-0.004126543
154	0xbe32e348	-0.17469513
155	0xbcea8286	-0.028626692
156	0xbe37d86b	-0.1795365
157	0x3d047b11	0.032343928
158	0x3e88a60d	0.26689187
159	0xbc404923	-0.011736187
160	0x3da80ca6	0.082055375
161	0x3dad3029	0.084564514
162	0x3de6715f	0.112520926
163	0xbe0fc5c0	-0.1404028
164	0xbdc9c5e7	-0.098522
165	0xbd897877	-0.0671243
166	0xbc94ced4	-0.01816503
167	0x3d11417f	0.035462853
168	0x3d00e4e6	0.031468295
169	0xbd36fca2	-0.044674523
170	0xbdb0f200	-0.08639908
171	0xbd453220	-0.048143506
172	0x3dc235d9	0.09482927
173	0x3e84bfb6	0.25927514
174	0xbe5552c9	-0.20832361
175	0x3e1a812d	0.15088339
176	0x3e7de887	0.24795733
177	0x3cea002c	0.028564535
178	0x39725f5c	0.00023114443
179	0x3d84b78e	0.06480323
180	0x3e8bc260	0.27296734
181	0x3decf6a7	0.11570483
182	0xbd735b25	-0.059413094
183	0x3eb26d94	0.34849226
184	0x3d9f46f0	0.07777202
185	0x3dbbb816	0.09165971
186	0x3d8db08d	0.0691844
187	0x3cbea112	0.023270164
188	0x3dcabc28	0.09899169
189	0x3bde2f34	0.0067805294
190	0x3ea91024	0.33020127
191	0x3e4ab4db	0.19795553
192	0xbc8e28c0	-0.017353415
193	0x3d9a8c87	0.07546335
194	0x3d7ff5e1	0.062490348
195	0x3d1bab6d	0.03800528
196	0xbcaf5a96	-0.0214055
197	0x3e4b4777	0.1985148
198	0xbb470167	-0.0030365826
199	0xbd74c331	-0.05975646
200	0xbd93627a	-0.07196517
201	0xbe1858cf	-0.14877628
202	0xbe40ce08	-0.18828595
203	0xbe25bcf7	-0.16185366
204	0x3e07d8bc	0.13266271
205	0x3db8ca7b	0.09022995
206	0x3e234356	0.15943655
207	0x3cbb3629	0.022852974
208	0x3cd1e065	0.025619695
209	0xbe9511d4	-0.29115164
210	0xbd0f858a	-0.035039462
211	0x3e5ba18c	0.21448344
212	0xbdfac089	-0.122437544
213	0xbb90c30b	-0.004417782
214	0x3c3aeee2	0.011409493
215	0x3da5ef0f	0.081022374
216	0xbb6ddb65	-0.00362941
217	0xbd644815	-0.055732805
218	0xbde38a1c	-0.11110327
219	0xbe629da4	-0.22130448
220	0xbe067267	-0.13129579
221	0xbe2af079	-0.16693296
222	0xbdcd36e2	-0.10020234
223	0x3dc0c6e3	0.09412935
224	0xbd5d2cae	-0.053997688
225	0x3e79b77f	0.24386404
226	0xbdb70d15	-0.08938042
227	0xbd38532e	-0.0450012
228	0x3d974f49	0.07388169
229	0x3a53c91c	0.0008078979
230	0xbe4b35da	-0.19844761
231	0x3c776f42	0.0151022095
232	0xbdd1edda	-0.10250445
233	0x3e64fea2	0.2236276
234	0xbcbde4b7	-0.023180349
235	0x3c50f87f	0.012754559
236	0x3e734afa	0.2375907
237	0xbe0427d6	-0.12905821
238	0xbe8cfb46	-0.27535456
239	0xbea65c6e	-0.32492393
240	0x3de5311c	0.111910075
241	0xbdc0c4e9	-0.09412558
242	0xbc9b1550	-0.018931061
243	0xbd029b27	-0.031886246
244	0xbe72a553	-0.23695879
245	0xbe16bf43	-0.14721398
246	0x3dde4588	0.10853106
247	0xbe6bc2c5	-0.23023517
248	0x3dc83bed	0.09777055
249	0x3e0edb1b	0.1395077
250	0xbd270716	-0.040778242
251	0x3db52bdf	0.08846258
252	0xbcdbbbe9	-0.026823001
253	0xbe288bf6	-0.16459641
254	0x3e55d6a3	0.20882659
255	0xbd94f278	-0.0727281

block2.0.conv.bias f4 [8]
0	0xbc2c2e32	-0.010509061
1	0xbca8ae2b	-0.020590862
2	0xbd22c6d4	-0.0397404
3	0xbe542c61	-0.20720054
4	0x3dd14078	0.102173746
5	0x3d87aaaa	0.066243485
6	0xbccfedd1	-0.025381954
7	0x3d60402d	0.054748703

block2.0.BN.weight f4 [8]
0	0x3f791e69	0.9731203
1	0x3f7b2b01	0.98112494
2	0x3f87ac8a	1.059953
3	0x3f8090f2	1.0044234
4	0x3f87b224	1.0601239
5	0x3f74069c	0.95322585
6	0x3f81afc8	1.0131769
7	0x3f85de78	1.0458517

block2.0.BN.bias f4 [8]
0	0xbde56f27	-0.11202841
1	0x3e36ba96	0.17844614
2	0xbdca2809	-0.09870917
3	0xbd813a9d	-0.06310008
4	0x3c35726d	0.0110746445
5	0xbdfa570e	-0.122236356
6	0xbda37b96	-0.079825565
7	0xbe0afc2d	-0.1357276

block2.0.BN.running_mean f4 [8]
0	0x3e453a0d	0.19260426
1	0xbeeb97ea	-0.4601434
2	0xbd91f878	-0.0712747
3	0xbe87610a	-0.26441222
4	0xbe8e0320	-0.2773676
5	0x3f18b7df	0.59655565
6	0xbefa19bb	-0.48847756
7	0xbe8d6272	-0.2761417

block2.0.BN.running_var f4 [8]
0	0x3e300cfb	0.17192452
1	0x3ea66a81	0.3250313
2	0x3e90fda3	0.2831851
3	0x3ebaf256	0.36513013
4	0x3f6847ce	0.90734565
5	0x3f166f47	0.58763546
6	0x3f182458	0.59430456
7	0x3ea3c0b7	0.31982967

block2.1.conv.weight f4 [16, 8, 3, 3]
0	0x3d28964e	0.041158967
1	0xbde3b0e9	-0.11117727
2	0xbe556c2f	-0.2084205
3	0xb7f9e4b3	-2.978961e-05
4	0x3db8ef8b	0.09030064
5	0x3d9255e1	0.07145286
6	0x3d9bd417	0.07608812
7	0xbcc6450e	-0.02420285
8	0x3cdd8e0c	0.027045272
9	0xbc9c6eec	-0.01909586
10	0x3e10750c	0.1410715
11	0x3e339bc5	0.1753989
12	0x3dc69fc6	0.09698443
13	0x3b1e3f00	0.0024146438
14	0x3e0ec2fb	0.13941567
15	0xbe4c3c3d	-0.19944854
16	0xbd1b17de	-0.03786456
17	0x3da3b60e	0.079937086
18	0xbd27c1d8	-0.04095635
19	0xbe420961	-0.1894889
20	0xbe674f06	-0.22588739
21	0xbe3c0e67	-0.18364869
22	0xbe0cce9a	-0.13750687
23	0xbe26ce0a	-0.16289535
24	0x3d1adf87	0.03781083
25	0xbc7c99bc	-0.0154175125
26	0x3d727946	0.059197687
27	0x3ce41f9a	0.0278471
28	0x3e3756f0	0.17904258
29	0x3e128c65	0.14311369
30	0xbcf1b4d3	-0.029505169
31	0xbdf9c7b0	-0.121962905
32	0x3cce1cda	0.025160242
33	0xbe2334c1	-0.15938093
34	0xbddcf339	-0.107885785
35	0xbe31a771	-0.1734903
36	0xbdf39e6a	-0.118954495
37	0x3d2822d4	0.04104884
38	0x3e0e89d8	0.1391977
39	0xbdd974a2	-0.10617949
40	0xbc8c0da1	-0.017096343
41	0xbdc666ba	-0.09687562
42	0xbcccc79b	-0.024997523
43	0xbdd7f6ca	-0.10545118
44	0x3d3130d2	0.04325945
45	0x3db1c1d2	0.086795464
46	0xbd3a2d97	-0.045453634
47	0xbe60e779	-0.219633
48	0x3e4f20a6	0.20227298
49	0xbce1718e	-0.027519967
50	0xbd45c412	-0.04828269
51	0xbd4e2cbb	-0.050335627
52	0xbd63f930	-0.055657566
53	0xbd0815a4	-0.033223763
54	0x3e28d821	0.16488697
55	0x3cac8539	0.02105962
56	0x3e26c369	0.1628548
57	0xbd97c5aa	-0.07410748
58	0x3d0274fb	0.031849843
59	0x3e5b7db4	0.2143467
60	0xbe90b590	-0.2826352
61	0xbe9c5694	-0.30534804
62	0x3cb9932d	0.022653187
63	0x38303f4c	4.202062e-05
64	0xbdaeb035	-0.085297026
65	0x3d8d1618	0.0688898
66	0xbe00f941	-0.12595083
67	0xbc262836	-0.010141423
68	0x3d03b293	0.032152724
69	0xbe0b698f	-0.13614486
70	0xbe27640a	-0.16346756
71	0x3de6ad9f	0.11263584
72	0x3e17f361	0.14838935
73	0x3d91b98b	0.07115468
74	0xbdab7f1d	-0.08373854
75	0x3e330330	0.17481685
76	0xbb9d2faa	-0.0047969418
77	0x3dbc9097	0.09207266
78	0x3d0ac70d	0.033881236
79	0xbd7968b1	-0.060890857
80	0xbc916fbe	-0.017753478
81	0x3d235b24	0.03988184
82	0x3cf61c7d	0.030042881
83	0x3de409ed	0.11134706
84	0x3e024531	0.12721707
85	0xbd5a11cd	-0.053239632
86	0x3c4bd7f5	0.012441625
87	0x3e06dc05	0.13169868
88	0xbde0638a	-0.109564856
89	0xbd13850f	-0.036015566
90	0x3cb48446	0.02203573
91	0xbe0433b8	-0.12910354
92	0xbe39af6a	-0.18133321
93	0xbdb61a27	-0.08891707
94	0xbe866c56	-0.2625453
95	0xbe164bd3	-0.14677362
96	0x3db88c1a	0.09011097
97	0xbd86670f	-0.065626256
98	0xbe1a3162	-0.150579
99	0xbe1009c8	-0.14066231
100	0x3c241ef0	0.010017142
101	0x3e8603a2	0.26174647
102	0xbd9ef706	-0.0776196
103	0x3d0a06ca	0.03369788
104	0x3e6fb45f	0.2340865
105	0xbe35deb8	-0.17760742
106	0xbcb7f922	-0.022457663
107	0xbd84422f	-0.06457936
108	0xbdb316f7	-0.087446146
109	0xbe294a57	-0.16532265
110	0xbe377e46	-0.17919263
111	0xbe31aec7	-0.17351829
112	0xbdf6d42b	-0.120521866
113	0xbd9da5cd	-0.076976396
114	0xbe5c91d2	-0.21540001
115	0xbe9183e7	-0.28420946
116	0xbe44a686	-0.19204149
117	0x3e1493f3	0.14509563
118	0x3d9559c7	0.07292514
119	0x3d999f47	0.07501083
120	0x3d938b29	0.07204277
121	0xbc978895	-0.018497745
122	0x3dc8b7ab	0.09800657
123	0x3df9a654	0.12189928
124	0x3d71a9ba	0.058999754
125	0x3e308e03	0.17241673
126	0x3e2ae8bc	0.16690344
127	0x3e5f9a3f	0.21836184
128	0x3e877a0c	0.26460302
129	0x3e159b8e	0.1461012
130	0xbd17a94f	-0.0370267
131	0x3dc2a3de	0.095039114
132	0x3d276db0	0.04087609
133	0x3decd31b	0.11563703
134	0x3e623fb5	0.22094615
135	0xbbff793a	-0.0077964338
136	0xbc9c4b37	-0.019078834
137	0x3d14251a	0.036168195
138	0x3e693997	0.22775875
139	0x3e92a76b	0.28643355
140	0x3e1891f1	0.14899422
141	0xbd15ab0e	-0.036540084
142	0x3d2eb491	0.04265267
143	0x384f52e2	4.9429837e-05
144	0xbe44e70a	-0.1922876
145	0x3dec0b8b	0.11525639
146	0xbdce12ad	-0.10062156
147	0xbe709473	-0.23494129
148	0x3d99c30d	0.07507906
149	0xbd89d1b7	-0.06729453
150	0xbe688f24	-0.22710854
151	0xbe6cca25	-0.23123987
152	0xbde3110e	-0.11087237
153	0x3d32063d	0.04346298
154	0x3e22b7fe	0.158905
155	0xbe959805	-0.29217544
156	0x3d18aceb	0.037274282
157	0x3d8aa9c2	0.0677066
158	0xbe50709a	-0.20355454
159	0x3cdcd914	0.02695898
160	0x3d72bfe1	0.05926502
161	0xbe676dfe	-0.22600552
162	0x3ca083ec	0.019594155
163	0xbd87482e	-0.06605564
164	0x3e18cbac	0.14921445
165	0x3dd93762	0.106062666
166	0x3d2c92fd	0.042132366
167	0xbd8157c4	-0.06315568
168	0x3e160051	0.14648558
169	0x3e1e63b9	0.15467729
170	0x3cddbd64	0.027067848
171	0xbb9b5981	-0.0047408943
172	0xbe24a139	-0.16077127
173	0xbe010c4c	-0.12602347
174	0x3ce6b0aa	0.028160412
175	0xbda343c2	-0.07971908
176	0xbcd8752e	-0.026423063
177	0x3df54c63	0.1197746
178	0x3d189e42	0.0372603
179	0x3e0fb0c7	0.14032279
180	0xbe1d0f8c	-0.15337962
181	0xbda6df66	-0.081480786
182	0x3d72fc7f	0.05932283
183	0xbda351a6	-0.079745576
184	0x3cddf1d1	0.027092846
185	0x3db7b525	0.089700975
186	0xbd9707af	-0.073745124
187	0xbd05e9ae	-0.032693557
188	0x3d6105dd	0.054937232
189	0xbe07be6e	-0.13256237
190	0xbe78221b	-0.2423176
191	0xbe4472fa	-0.19184485
192	0xbc550b88	-0.013003238
193	0xbe273b57	-0.1633123
194	0x3dd51f29	0.10406334
195	0x3d96df3b	0.073667966
196	0x3cdac6d6	0.02670614
197	0x3e1c902d	0.15289374
198	0xbeb180f6	-0.34668702
199	0xbdeab26f	-0.11459815
200	0x3df0d501	0.11759377
201	0xbe1725d6	-0.14760527
202	0xbdebd948	-0.115160525
203	0xbdc83f4b	-0.09777697
204	0xbd4e33a8	-0.050342232
205	0xbd6fb37d	-0.058520783
206	0xbdab706e	-0.08371054
207	0xbeab11b7	-0.33411953
208	0xbdd6ec50	-0.10494292
209	0x3d2fd207	0.042924907
210	0xbdd94265	-0.10608367
211	0xbe3fddb0	-0.18736911
212	0x3dfa4367	0.12219887
213	0xbdbbca43	-0.09169438
214	0xbe61b59c	-0.22041935
215	0x3cd3650a	0.025805015
216	0xbe0cb668	-0.13741457
217	0x3ba61bb7	0.005069222
218	0x3e0baf16	0.13641009
219	0xbc5e27df	-0.013559311
220	0x3e0e1934	0.13876802
221	0x3dfde1e7	0.12396603
222	0xbe8806de	-0.2656774
223	0xbe30438c	-0.17213267
224	0xbdf6ddeb	-0.12054046
225	0xbe210eec	-0.15728348
226	0xbd7417cc	-0.059593007
227	0x3e0101d9	0.12598361
228	0x3d7d304b	0.061813634
229	0xbcd1e8a3	-0.025623625
230	0x3e3b09ed	0.18265505
231	0xbdd615d8	-0.10453385
232	0xbd8d1281	-0.06888295
233	0x3e208d2d	0.15678854
234	0x3e853724	0.2601863
235	0x3daae429	0.08344299
236	0x3eb0ad36	0.3450715
237	0xbd044f0d	-0.03230195
238	0xbd365577	-0.0445151
239	0x3d2ca981	0.04215384
240	0xbdb68278	-0.08911604
241	0xbdf6550c	-0.1202794
242	0xbe19a485	-0.15004165
243	0x3d98ffbc	0.074706525
244	0x3d88c96e	0.06679045
245	0x3de1110f	0.10989582
246	0x3c54bf5d	0.012985078
247	0x3bea986f	0.007159285
248	0xbd9471f9	-0.07248301
249	0xbd6d899c	-0.057992563
250	0x3ccec1b0	0.025238842
251	0xbe9ae87c	-0.30255497
252	0xbd703d13	-0.058651995
253	0x3d528f20	0.051406026
254	0x3db16db9	0.08663506
255	0x3d26dd01	0.04073811

block2.1.conv.bias f4 [16]
0	0xbde7242a	-0.112861946
1	0xbdba2bfc	-0.090904206
2	0xbdfb98fa	-0.12285037
3	0x3cdc8e1a	0.026923228
4	0xbc897269	-0.016778188
5	0x3d41d6b4	0.047323897
6	0x3ce3bfe9	0.02780147
7	0xbd2a6402	-0.04159928
8	0xbd83699f	-0.0641663
9	0x3dcae903	0.09907725
10	0x3cd03a9d	0.025418574
11	0x3ced1aba	0.028943408
12	0x3da32de5	0.07967738
13	0x3d31bd50	0.043393433
14	0x3da7933c	0.081823796
15	0xbddbfba2	-0.107413545

block2.1.BN.weight f4 [16]
0	0x3f60ebb2	0.8785964
1	0x3f666ecc	0.9001281
2	0x3f86ef35	1.054175
3	0x3f721651	0.945653
4	0x3f8513ab	1.0396627
5	0x3f5aa24b	0.8540389
6	0x3f8930c4	1.0718007
7	0x3f7cb290	0.98709965
8	0x3f750acf	0.9571962
9	0x3f71dc56	0.9447683
10	0x3f89746a	1.0738652
11	0x3f935a1b	1.1511873
12	0x3f855d33	1.0419067
13	0x3f655222	0.8957845
14	0x3f7811c6	0.9690212
15	0x3f8e5158	1.1118574

block2.1.BN.bias f4 [16]
0	0xbdf02728	-0.117262185
1	0xbe43272b	-0.1905791
2	0xbd382bde	-0.04496371
3	0xbd4fdb91	-0.050746504
4	0xbe2dfa8b	-0.16990106
5	0xbeb1032a	-0.34572726
6	0x3d3bb620	0.045827985
7	0xbe92c4c6	-0.2866575
8	0xbe8f9999	-0.28046873
9	0x3da0e235	0.078556456
10	0xbe200d9d	-0.15630193
11	0xbe31e6d7	-0.17373215
12	0xbe3541ec	-0.17700928
13	0xbed14a66	-0.40877074
14	0xbc82df25	-0.015975544
15	0x3abfdfce	0.0014638843

block2.1.BN.running_mean f4 [16]
0	0xbf00862c	-0.5020473
1	0x3e03ac8a	0.12858787
2	0xbf8bd553	-1.0924476
3	0x3e121128	0.14264357
4	0xbea736c6	-0.32658976
5	0x3eab419e	0.334485
6	0xbfc93188	-1.5718241
7	0x3eb829a7	0.35969278
8	0xbed79583	-0.42106256
9	0x3f047f39	0.51756626
10	0xbf457c15	-0.7714246
11	0x3d6acbdc	0.05732332
12	0x3ec7140f	0.3888249
13	0x3f03baa8	0.5145669
14	0x3c3a24c3	0.011361304
15	0x3c0cd230	0.0085950345

block2.1.BN.running_var f4 [16]
0	0x3f0bf65a	0.5467278
1	0x3f6319cf	0.88711256
2	0x3f0fbbd3	0.5614597
3	0x3f24d348	0.6438489
4	0x3f111780	0.56676483
5	0x3f3751b3	0.7160904
6	0x3f4d0d56	0.80098474
7	0x3efbdb1b	0.49190602
8	0x3ee4da91	0.44698003
9	0x3ee192f7	0.44057438
10	0x3f30c2f0	0.6904745
11	0x3efad944	0.48993886
12	0x3ee0d93c	0.43915737
13	0x3f56bcf3	0.83882064
14	0x3f288bee	0.65838516
15	0x3f17fe82	0.59372723
