model/result/0404 1118.pt (torch, 79133 bytes, 98 tensors)

input_conv.conv.weight f4 [4, 1, 3, 3]
0	0xbe251765	-0.16122206
1	0xbe2897ec	-0.16464204
2	0xbe84728e	-0.25868648
3	0xbe4115fd	-0.18856044
4	0xbe89daab	-0.26924643
5	0xbec07392	-0.37588173
6	0xbe557b00	-0.20847702
7	0xbe325065	-0.1741348
8	0xbeb0fc14	-0.3456732
9	0x3e0a85a9	0.1352755
10	0xbeb99efe	-0.36254114
11	0xbe28262e	-0.16420814
12	0xbd855388	-0.06510073
13	0xbd59aafc	-0.05314158
14	0xbdfd5567	-0.12369805
15	0xbe4cd9dc	-0.20004982
16	0xbed01079	-0.40637568
17	0xbe4ff1eb	-0.20307128
18	0x3d753fa5	0.05987515
19	0xbe4b6e82	-0.19866374
20	0xbe3dada2	-0.18523267
21	0xbe2ab252	-0.16669586
22	0xbe447521	-0.19185306
23	0xbf1d6e55	-0.6149648
24	0x3e85b4b1	0.2611442
25	0x3e7f249c	0.24916309
26	0x3de80a1c	0.11330053
27	0xbde810e8	-0.113313496
28	0xbe80934a	-0.25112373
29	0xbd9efb80	-0.077628136
30	0x3e81f16b	0.253795
31	0x3ec85a40	0.39131355
32	0x3c516ae0	0.012781829
33	0xbe24b1a2	-0.16083387
34	0x3ecc90cf	0.3995423
35	0x3ebcede9	0.3690026

input_conv.conv.bias f4 [4]
0	0x3efa4015	0.48877016
1	0x3ebb9139	0.36634234
2	0x3d852934	0.065019995
3	0xbec4bf60	-0.38427258

input_conv.BN.weight f4 [4]
0	0x3f7fb8e6	0.9989151
1	0x3f5ba298	0.85794973
2	0x3f5653ac	0.83721423
3	0x3f927a05	1.1443487

input_conv.BN.bias f4 [4]
0	0xbe8a5fdb	-0.27026257
1	0x3c8ed997	0.01743774
2	0x3be81f1c	0.0070837867
3	0x3ec071c0	0.37586784

input_conv.BN.running_mean f4 [4]
0	0x3ef6a009	0.48168972
1	0x3ebb3ab7	0.36568233
2	0x3d480e3a	0.048841693
3	0xbec8f8e1	-0.3925238

input_conv.BN.running_var f4 [4]
0	0x408787de	4.2353354
1	0x3ff7c231	1.9356138
2	0x3f088b5d	0.5333765
3	0x3f33a36d	0.7017124

block1.0.conv.weight f4 [8, 4, 3, 3]
0	0xbdc659e9	-0.09685118
1	0x3de6e571	0.11274231
2	0x3df09245	0.11746649
3	0xbe5c72d7	-0.21528183
4	0xbe0db26b	-0.13837592
5	0x3e0ad55b	0.13557951
6	0xbe678b26	-0.22611675
7	0xbef28125	-0.47364154
8	0xbebe2919	-0.3714073
9	0x3dba2146	0.09088378
10	0x3e052efe	0.13006207
11	0x3ced606f	0.028976647
12	0xbe65ab30	-0.22428584
13	0x3d28d496	0.041218363
14	0x3d8c33f0	0.06845844
15	0xbcdebb5f	-0.027188955
16	0xbeebb2b1	-0.46034768
17	0xbe93aa19	-0.28840712
18	0x3d7b4a6b	0.061350267
19	0x3ea8ffcf	0.33007666
20	0xbd238524	-0.039921895
21	0xbda5ce7f	-0.08096027
22	0x3c9f75a1	0.01946527
23	0x3e121f75	0.14269812
24	0xbdff828a	-0.1247607
25	0xbc9a7f80	-0.018859625
26	0xbe98f63d	-0.29875365
27	0x3d0b5dce	0.034025006
28	0x3db3d0a0	0.087800264
29	0xbe38fcec	-0.18065232
30	0xbe2b3716	-0.16720232
31	0xbdf9b0cb	-0.12191924
32	0xbe062250	-0.13099027
33	0x3e2e0bde	0.16996714
34	0x3e8d5a6c	0.2760805
35	0x3d7a4206	0.06109812
36	0xbe059952	-0.13046768
37	0x3e403e72	0.18773821
38	0x3e17ba08	0.14817059
39	0xbcdbcfd8	-0.026832506
40	0x3e98a479	0.29812983
41	0xbe8e5025	-0.2779552
42	0x3b388d9f	0.0028160585
43	0x3e859e92	0.26097542
44	0xbe2337fd	-0.15939327
45	0xbe337859	-0.17526378
46	0x3edf6201	0.4362946
47	0x3e05b83d	0.13058563
48	0xbe6462cb	-0.22303312
49	0x3e40e531	0.1883743
50	0xbdf41994	-0.11918941
51	0xbe6f6c59	-0.23381175
52	0x3e0a1afe	0.13486859
53	0x3dbeeaea	0.0932215
54	0xbb9558ca	-0.0045577036
55	0x3e22a225	0.15882166
56	0x3e2b7d67	0.16747056
57	0x3dbdd859	0.09269781
58	0x3eaadb9d	0.33370677
59	0x3d4d68fc	0.05014895
60	0xbd91bdc0	-0.0711627
61	0x3e32751d	0.17427488
62	0x3de9ccec	0.11416039
63	0xbe86671b	-0.26250538
64	0xbce688b6	-0.02814136
65	0x3e74e6ac	0.2391612
66	0x3de7f0ea	0.113252476
67	0x3e919f9c	0.28442085
68	0x3e073eea	0.13207594
69	0xbe0a143e	-0.13484284
70	0xbdb8e21d	-0.09027503
71	0xbd141b85	-0.036159057
72	0xbe1ff11e	-0.15619323
73	0xbec27db7	-0.37986538
74	0x3beb2163	0.007175611
75	0x3dc34c23	0.09536006
76	0xbe0cc1ed	-0.13745852
77	0x3e4ddf98	0.20104825
78	0xbd811ac8	-0.06303936
79	0x3e099eaf	0.13439439
80	0xbd3cad10	-0.046063483
81	0x3dfcd9a5	0.123462
82	0x3db7bdcd	0.089717485
83	0x3e04e85e	0.12979266
84	0x3d95dc66	0.07317428
85	0xbd0408f1	-0.03223509
86	0x3e9eb525	0.30997577
87	0x3d9f3b40	0.07774973
88	0xbdd6632e	-0.10468136
89	0x3d74825b	0.05969463
90	0xbe3f96d3	-0.18709879
91	0xbe147a62	-0.1449981
92	0xbe22952c	-0.15877217
93	0x3c74e3fa	0.014946932
94	0x3e2afa60	0.16697073
95	0x3e90a28b	0.2824901
96	0x3e22758b	0.15865152
97	0xbe3de97e	-0.18546101
98	0x3d93f6bf	0.072247975
99	0x3e49d943	0.19711785
100	0x3ebf395c	0.3734845
101	0x3dff6b82	0.12471677
102	0xbc67766b	-0.014127354
103	0xbd303383	-0.043017875
104	0xbe91848b	-0.28421435
105	0xbc90621d	-0.017624909
106	0xbe086ca7	-0.13322698
107	0xbd591e0c	-0.05300717
108	0x3e44a951	0.19205214
109	0xbe0d5b3d	-0.13804336
110	0xbc60ea83	-0.013727787
111	0xbdcae116	-0.09906213
112	0x3d8aa434	0.067696005
113	0xbda0a5e1	-0.07844139
114	0xbe3679e5	-0.17819937
115	0x3d950f2f	0.07278287
116	0x3e1e28a3	0.15445189
117	0x3ded6d2a	0.11593087
118	0x3d8b7414	0.068092495
119	0xbe852674	-0.260059
120	0x3dcef823	0.10105922
121	0xbe3ffbe2	-0.1874843
122	0xbe3f555d	-0.18684907
123	0xbe274228	-0.1633383
124	0x3c3e4feb	0.011615734
125	0x3e0a9a83	0.13535504
126	0x3cfb7d4d	0.030699397
127	0xbe8a11c3	-0.26966676
128	0xbe3729a9	-0.17886986
129	0xbcd31ab7	-0.025769575
130	0x3d98c34a	0.074591234
131	0xbeb99061	-0.36242965
132	0xbec442f4	-0.3833233
133	0xbe8bd158	-0.27308154
134	0xbc4c7235	-0.012478401
135	0xbe4ba0a8	-0.19885504
136	0x3d28bcec	0.041195795
137	0x3e842a93	0.25813732
138	0x3e37f5e3	0.17964892
139	0xbdf20024	-0.11816433
140	0x3da0c8fa	0.07850833
141	0xbe1d30f5	-0.15350707
142	0xbe198f40	-0.14996052
143	0xbe8eae00	-0.27867126
144	0xbd11b335	-0.035571296
145	0xbd21204c	-0.03933744
146	0x3d9b941c	0.07596609
147	0x3dadebe3	0.084922574
148	0xbe8f1915	-0.27948824
149	0xbde837c8	-0.113387644
150	0xbdf39a11	-0.1189462
151	0xbe5adb99	-0.21372832
152	0x3e37ca8f	0.17948364
153	0xbe4ce490	-0.20009065
154	0x3e1837a6	0.14864978
155	0x3e4b28c4	0.1983977
156	0xbe5bfa0f	-0.21482109
157	0xbe43b626	-0.19112453
158	0x3e3005bc	0.17189687
159	0xbda9d7f7	-0.08293145
160	0x3e29932b	0.16560046
161	0x3d09de12	0.03365905
162	0xbd952934	-0.072832495
163	0x3e352fce	0.17694017
164	0xbe0c41dd	-0.13697
165	0xbd9f8634	-0.07789269
166	0xbd16b873	-0.036797
167	0x3d61738c	0.055041835
168	0xbe8594ab	-0.26089987
169	0xbe3b9861	-0.18319847
170	0xbc46f1bd	-0.012142596
171	0xba11a71b	-0.00055562117
172	0xbea2ec85	-0.31821075
173	0xbe66d551	-0.22542311
174	0xbe5c5f06	-0.21520624
175	0x3e0e6fc8	0.13909829
176	0x3e3251e7	0.17414056
177	0xbdb8a35e	-0.09015535
178	0x3e97abe1	0.2962332
179	0x3dea460b	0.11439141
180	0x3ddd07cf	0.10792505
181	0xbd7e749b	-0.062122922
182	0xbe118d1d	-0.14213987
183	0x3d660fcb	0.056167405
184	0x3be83584	0.0070864577
185	0x3d371cb0	0.044705093
186	0x3e8b3754	0.2719065
187	0x3d88f573	0.06687441
188	0x3e05a2f0	0.13050437
189	0xbd9c32ea	-0.076268986
190	0xbd8825b1	-0.06647814
191	0xbde57a15	-0.11204926
192	0x3ccbe3d5	0.024888912
193	0x3cfb1c5a	0.030653168
194	0xbea6dcc8	-0.32590318
195	0x3cc59e70	0.0241234
196	0xbd871f22	-0.06597735
197	0xbe4ae006	-0.1981202
198	0xbd155be9	-0.036464605
199	0xbea688af	-0.32526156
200	0xbe572d22	-0.2101331
201	0x3e8b3283	0.27186975
202	0x3d7bf6b2	0.061514564
203	0x3d10d873	0.035362672
204	0x3d8f2912	0.069902554
205	0xbd388204	-0.045045868
206	0xbd070bc6	-0.032970212
207	0xbd3fbb71	-0.046809617
208	0x3df5c158	0.11999768
209	0x3d4810e2	0.048844226
210	0xbe8fac2c	-0.28061044
211	0xbd3ca61a	-0.046056844
212	0x3d01ffc5	0.03173806
213	0xbe896227	-0.26832697
214	0x3e8950ac	0.2681936
215	0x3e98e2e0	0.29860592
216	0xbe03f1bf	-0.12885188
217	0x3efa05db	0.48832592
218	0x3eff0aa0	0.49812794
219	0x3e04bed1	0.12963416
220	0x3e825fb5	0.25463644
221	0x3ec4660d	0.3835911
222	0x3df96f0c	0.12179384
223	0x3e543ee1	0.20727111
224	0x3d97af57	0.0740649
225	0x3d194a28	0.037424237
226	0x3e91b117	0.2845542
227	0x3e74a14e	0.23889658
228	0x3e5c49a1	0.21512462
229	0x3c9fe599	0.01951866
230	0x3e23e65f	0.16005848
231	0xbd46a5a1	-0.0484978
232	0x3d2932da	0.04130826
233	0xbe3f235a	-0.1866583
234	0xbe842522	-0.2580958
235	0x3d4ebb57	0.05047163
236	0xbdeffbb8	-0.117179334
237	0x3bddc9bd	0.006768434
238	0x3e273187	0.16327487
239	0xbd6d0394	-0.05786474
240	0x3e558cd6	0.20854506
241	0x3de63a65	0.112416066
242	0xbdf1ac59	-0.11800451
243	0x3e76d539	0.24104775
244	0x3e2b499f	0.16727303
245	0xbafacd93	-0.0019134752
246	0xbdc238f1	-0.09483517
247	0xbde41ddf	-0.1113851
248	0xbd66013c	-0.05615352
249	0x3e15040c	0.14552325
250	0xbc767261	-0.0150419185
251	0x3e5d6e9f	0.2162423
252	0x3de98848	0.11402947
253	0xbe369750	-0.17831159
254	0x3e74898c	0.23880595
255	0x3e2cf67c	0.16890901

block1.0.conv.bias f4 [8]
0	0x3d88da12	0.066822186
1	0x3e1cf4cd	0.15327759
2	0xbe0cbb31	-0.13743283
3	0x3d0b20d5	0.033966858
4	0xbe084ae7	-0.13309823
5	0xbe516b31	-0.20451047
6	0x3d43e94f	0.047829922
7	0x3e8c18a9	0.27362564

block1.0.BN.weight f4 [8]
0	0x3f6fa01c	0.9360368
1	0x3f6726a3	0.9029333
2	0x3f87c9e1	1.0608484
3	0x3f6e52f3	0.9309532
4	0x3f76d996	0.9642576
5	0x3f86ba0a	1.0525525
6	0x3f914037	1.1347722
7	0x3f8c4548	1.0958643

block1.0.BN.bias f4 [8]
0	0x3db535b0	0.08848131
1	0xbe3a3490	-0.18184114
2	0xbc7d854c	-0.015473675
3	0xbe19fde2	-0.15038255
4	0xbd86224a	-0.06549509
5	0x3de47708	0.11155516
6	0xbdee26cb	-0.11628493
7	0xbde90a71	-0.11378945

block1.0.BN.running_mean f4 [8]
0	0xbf07fc5e	-0.53119457
1	0x3f6e9120	0.93190193
2	0x3e45e35c	0.19325012
3	0xbf6f8aa5	-0.9357093
4	0xbf1c2188	-0.60988665
5	0xbeb3e535	-0.3513581
6	0x3fa2fe0c	1.2733779
7	0x3efc7976	0.49311417

block1.0.BN.running_var f4 [8]
0	0x3ebadb2f	0.3649535
1	0x3e1deb2b	0.1542174
2	0x3e3f3c3b	0.1867532
3	0x3e3edab7	0.1863812
4	0x3e169773	0.14706211
5	0x3e790e45	0.2432185
6	0x3e988305	0.2978746
7	0x3de7969e	0.11308025

block1.1.conv.weight f4 [16, 8, 3, 3]
0	0xbe24f5a9	-0.16109337
1	0x3db5e023	0.08880641
2	0xbe3ff0ec	-0.18744248
3	0xbdbd3e64	-0.09240416
4	0x3e0ca71c	0.13735622
5	0x3d259c61	0.040432338
6	0xbe407fec	-0.18798798
7	0xbdb5272a	-0.088453606
8	0xbb099029	-0.0020990467
9	0x3cb03eee	0.021514382
10	0xbca6122e	-0.02027234
11	0x3ddc2387	0.10748964
12	0xbaac40ce	-0.0013141872
13	0x3ca1aaac	0.019734703
14	0x3dd46eb5	0.10372678
15	0xbead2270	-0.33815336
16	0x3df6f21e	0.12057899
17	0x3e392dd8	0.18083894
18	0xbd9b0cc5	-0.07570795
19	0x3d938a43	0.07204106
20	0xbc1f89bd	-0.009737429
21	0xbd9e6830	-0.07734716
22	0x3de4c8ad	0.11171088
23	0x3d73a502	0.059483536
24	0x3ab08659	0.0013467773
25	0xbd2a287e	-0.041542523
26	0xbccead5e	-0.025229152
27	0x3e6e39a0	0.2326417
28	0xbe13cde7	-0.14434014
29	0x3e0d3583	0.13789944
30	0x3edbb0b0	0.4290824
31	0x3e0a2547	0.13490783
32	0x3debac86	0.115075156
33	0x3da470e5	0.080293454
34	0xbea5d6ac	-0.32390344
35	0xbda1d3b5	-0.07901708
36	0xbe3d3b54	-0.18479663
37	0xbdc7eabb	-0.09761568
38	0xbd5c57ef	-0.053794798
39	0xbeaf52cd	-0.3424286
40	0x3e3bfa21	0.18357135
41	0x3e088169	0.13330616
42	0xbe74ed33	-0.2391861
43	0x3dc877ac	0.097884506
44	0x3eb02cda	0.3440922
45	0x3b96409a	0.004585338
46	0xbdcc56ec	-0.099775165
47	0xbdfa9a89	-0.122365065
48	0xbe3a7d04	-0.18211752
49	0x3c3bb445	0.011456554
50	0xbdc632bc	-0.096776456
51	0x3e1dc5d4	0.15407497
52	0x3e6f872d	0.23391409
53	0x3dfe5a09	0.124195166
54	0x3d5a1143	0.05323912
55	0x3df24f06	0.11831479
56	0x3ea913ea	0.33023006
57	0xbeddb739	-0.4330385
58	0xbdc52be6	-0.096275136
59	0x3d1965c0	0.037450552
60	0xbec93549	-0.39298466
61	0xbe6945a5	-0.22780474
62	0x3ddf1374	0.10892382
63	0x3d8246bc	0.06361148
64	0x3e890bd0	0.26766825
65	0x3e2a5705	0.16634758
66	0xbd2f8601	-0.042852405
67	0xbbdf80fa	-0.006820795
68	0x3d8f1a99	0.06987495
69	0x3cd74ced	0.026281798
70	0xbe3aafce	-0.18231127
71	0xbc5baf67	-0.013408518
72	0x3e0c06d5	0.13674481
73	0x3e7a93b1	0.24470402
74	0x3db9f148	0.09079224
75	0x3c75bc70	0.01499854
76	0x3cefdb1c	0.029279284
77	0xbdd9909d	-0.10623286
78	0x3dab7464	0.08371809
79	0x3d1a5490	0.0376783
80	0x3db25258	0.08707112
81	0x3dce413e	0.10071038
82	0x3d97679b	0.07392808
83	0xbe296d0e	-0.16545507
84	0xbe01631b	-0.12635462
85	0xbe97f4b5	-0.29678884
86	0xbc3fcd21	-0.011706621
87	0xbc062132	-0.008186625
88	0xbcb8d8c3	-0.022564298
89	0x3e8ebd0f	0.27878615
90	0xbe1acf6a	-0.15118185
91	0x3d2de9cd	0.042459298
92	0xbd96e6f0	-0.073682666
93	0xbeb61fcb	-0.3557113
94	0x3e3bbee5	0.18334539
95	0xbe0f258d	-0.13979168
96	0xbe857c14	-0.26071227
97	0x3d9b7711	0.075910695
98	0xbde9a3c2	-0.114081874
99	0x3de217e5	0.11039714
100	0xbdb71446	-0.08939414
101	0xbdfb1a04	-0.122608215
102	0x3e7fb154	0.24969989
103	0x3d95b7c1	0.07310439
104	0x3e29b8f1	0.16574456
105	0xbe522605	-0.20522316
106	0xbe9640d7	-0.29346344
107	0x3e3447d5	0.17605527
108	0x3d5bc86f	0.053657945
109	0xbea371e3	-0.31922826
110	0xbe08211a	-0.13293877
111	0xbe96451b	-0.29349598
112	0xbda1cd8e	-0.079005346
113	0x3e3dc992	0.18533924
114	0x3e0fe2a3	0.14051299
115	0xbcc7c19f	-0.024384318
116	0xbd02dbc2	-0.03194786
117	0xbd71f8c9	-0.05907515
118	0xbdc5c36e	-0.09656416
119	0xbd4e1456	-0.050312363
120	0x3e23c28b	0.15992181
121	0x3d4b6bd3	0.049663376
122	0x3e0b0cd0	0.13579106
123	0x3dd4bafe	0.103872284
124	0x3e2ca1f7	0.1685866
125	0xbdf41e04	-0.119197875
126	0x3e3347fa	0.17507926
127	0x3e0a0704	0.13479239
128	0xbe474ee0	-0.19463682
129	0x3e0f4ec6	0.13994893
130	0x3dbe173a	0.09281774
131	0x3da50334	0.080572516
132	0x3e7fe3bb	0.24989216
133	0xbd798ee9	-0.060927305
134	0xbc880777	-0.016605122
135	0xbecb9a54	-0.3976618
136	0x3e04770d	0.1293604
137	0x3e66f885	0.2255574
138	0xbe80a504	-0.25125897
139	0xbe13b67d	-0.14425083
140	0x3d73fdf1	0.05956835
141	0xbe391274	-0.18073446
142	0xbdb59bb5	-0.088675894
143	0xbee7cc3b	-0.45273003
144	0x3ddf785d	0.10911629
145	0xbd1a2a9e	-0.0376383
146	0x3c527750	0.012845829
147	0xbe23500e	-0.15948507
148	0xbe8537e7	-0.26019213
149	0x3d490fa3	0.049087178
150	0x3db40363	0.087897085
151	0xbe820241	-0.25392345
152	0xbea95894	-0.33075392
153	0xbc31ec06	-0.010859495
154	0xbe0a56e5	-0.1350971
155	0x3e57cf08	0.2107507
156	0x3d5c926b	0.053850573
157	0x3d391656	0.045187317
158	0x3cd49f20	0.025954783
159	0xbe01b1e9	-0.12665524
160	0xbe06f180	-0.13178062
161	0x3da5b32f	0.08090817
162	0xbed8d830	-0.42352438
163	0x3de825cb	0.113353334
164	0xbd5f24b3	-0.05447836
165	0xbe84a38e	-0.25906032
166	0xbd0b8095	-0.034058172
167	0x3e2cc789	0.16872992
168	0x3d41088f	0.047127303
169	0x3e91a008	0.28442407
170	0x3d507c55	0.050899822
171	0xbe0dae62	-0.13836053
172	0xbdee95c4	-0.11649659
173	0x3d0c54a2	0.0342604
174	0x3de70fa9	0.11282284
175	0x3e0ca160	0.13733435
176	0x3e07d5e1	0.13265182
177	0x3dff0974	0.12452975
178	0xbcdcf53a	-0.026972402
179	0x3bf7e327	0.0075649205
180	0x3d0f5d87	0.035001304
181	0x3e058fcd	0.13043137
182	0x3d9dd3c1	0.077064045
183	0xbcc6a97e	-0.024250742
184	0xbd0e7d37	-0.034787383
185	0xbd83fc7d	-0.06444643
186	0xbe933a9c	-0.28755653
187	0xbe8fe28a	-0.28102523
188	0xbe014d6a	-0.12627187
189	0x3ed5c8f8	0.4175489
190	0x3e487963	0.19577555
191	0xbda653fe	-0.08121489
192	0xbd43eca0	-0.047833085
193	0xbd8a5b97	-0.067557506
194	0xbe4c6dff	-0.19963835
195	0xbe0d01e4	-0.13770252
196	0xbe0304d1	-0.12794806
197	0xbeaf38cf	-0.3422303
198	0x3c3ff780	0.011716723
199	0x3d53c995	0.051705915
200	0x3e2dd33a	0.16975108
201	0xbda0afd3	-0.07846036
202	0xbd4eb514	-0.05046566
203	0x3e165685	0.14681442
204	0xbeaf1b2c	-0.34200418
205	0x3d0176f6	0.03160759
206	0x3db4a7af	0.088210456
207	0xbe667730	-0.22506404
208	0xbe5a5287	-0.21320544
209	0xbe1237e7	-0.14279138
210	0xbb740aaa	-0.0037237802
211	0x3e413c5c	0.18870682
212	0xbcef0690	-0.029177934
213	0x3e2ace1d	0.16680188
214	0x3c6ccfe0	0.014453858
215	0xbd882299	-0.06647224
216	0x3e9ca6ba	0.30595952
217	0x3e3fb9fa	0.18723288
218	0x3da01f6f	0.078184955
219	0xbd9bd97e	-0.07609843
220	0x3bfadbd5	0.0076556006
221	0xbde708a1	-0.11280943
222	0xbe745711	-0.23861338
223	0xbdabdd43	-0.08391812
224	0xbe7b4f83	-0.2454205
225	0xbeba927d	-0.36439887
226	0xbe1af15c	-0.15131134
227	0xbe062f1b	-0.13103907
228	0x3e0e5e3a	0.13903132
229	0x3e3bfc39	0.18357934
230	0xbd517ce2	-0.05114449
231	0x3e4b847e	0.1987476
232	0x3d8e6a05	0.06953815
233	0xbdbd96ad	-0.09257255
234	0xbc912241	-0.017716529
235	0xbe7b4d61	-0.24541236
236	0xbe9250c0	-0.28577232
237	0xbe587dc5	-0.21141727
238	0xbe3332e4	-0.17499882
239	0xbd6858de	-0.056725375
240	0x3e2c3ffb	0.16821282
241	0x3d8f9dfa	0.070125535
242	0x3e3fbe58	0.18724954
243	0xbe0b9514	-0.13631088
244	0xbdd0aacf	-0.10188829
245	0xbd56cf98	-0.05244407
246	0xbdff6307	-0.1247006
247	0xbd0a826f	-0.033815797
248	0xbe406f7f	-0.18792532
249	0x3c9be4ed	0.019030059
250	0x3b634424	0.0034678066
251	0xbdf1fa61	-0.11815334
252	0x3ea1b884	0.31586087
253	0x3e3772d9	0.17914905
254	0x3d834d13	0.06411185
255	0xbd650c5c	-0.05591999

block1.1.conv.bias f4 [16]
0	0xbc546818	-0.012964271
1	0x3e5999fa	0.21250144
2	0xbd584b83	-0.05280639
3	0x3e1efefb	0.15526955
4	0x3dda8f5c	0.10671875
5	0xbc935fe0	-0.017990053
6	0x3e639c72	0.22227648
7	0xbcec1080	-0.028816462
8	0xbe60837b	-0.21925156
9	0x3da5c9c5	0.08095125
10	0xbd560256	-0.05224832
11	0xbea434f7	-0.3207166
12	0xbe16f92d	-0.1474349
13	0x3e2fc2d1	0.1716416
14	0x3dbf4c8e	0.093407735
15	0x3cea3850	0.028591305

block1.1.BN.weight f4 [16]
0	0x3f34ec53	0.706731
1	0x3f83a4c7	1.0284661
2	0x3f8f969b	1.1217836
3	0x3f70da0e	0.94082725
4	0x3f84c1c9	1.0371639
5	0x3f68e1d9	0.90969616
6	0x3f8b37c9	1.0876399
7	0x3f89dcf9	1.077056
8	0x3f6f86ca	0.93565047
9	0x3f61e5e7	0.8824143
10	0x3f7e4ad9	0.9933296
11	0x3f8e441f	1.1114539
12	0x3f6d691b	0.92738503
13	0x3f899d52	1.0751135
14	0x3f8a9df3	1.0829452
15	0x3f91717c	1.1362758

block1.1.BN.bias f4 [16]
0	0xbe893a0d	-0.26802102
1	0x3dbc179f	0.09184193
2	0xbd25b11b	-0.040452104
3	0xbdcc7114	-0.099825054
4	0xbcac3917	-0.021023316
5	0xbe2d77b4	-0.16940194
6	0xbe923196	-0.28553456
7	0x3d33dea9	0.043913517
8	0xbe340dd8	-0.17583406
9	0xbe24bc9e	-0.16087577
10	0xbea5bbb2	-0.32369763
11	0xbea5e176	-0.32398576
12	0xbe5a38ee	-0.2131078
13	0xbdcf1722	-0.10111834
14	0xbe3d3eab	-0.18480937
15	0xbe71640d	-0.23573323

block1.1.BN.running_mean f4 [16]
0	0xbdfaeb07	-0.12251859
1	0x3c9f4daa	0.019446213
2	0xbf3508b4	-0.70716405
3	0xbe99fd98	-0.3007629
4	0xbf24ce79	-0.6437755
5	0xbf1c5896	-0.6107267
6	0xbf408f81	-0.7521897
7	0xbf4298d1	-0.7601443
8	0xbe8056c7	-0.25066206
9	0x3e865036	0.2623307
10	0xbf717b6a	-0.9432894
11	0xbf095d15	-0.53657657
12	0x3e06ea5d	0.1317534
13	0xbf657354	-0.896291
14	0xbe2a4fcf	-0.16632007
15	0x3c475ad5	0.012167652

block1.1.BN.running_var f4 [16]
0	0x3f4b6e1a	0.79464877
1	0x3f89b079	1.075698
2	0x3f9ec380	1.2403412
3	0x3fa67e2e	1.3007257
4	0x3fc4f5a7	1.5387467
5	0x3f62c250	0.8857775
6	0x3f970030	1.1796932
7	0x3f985efc	1.1903987
8	0x3f35d1aa	0.71023047
9	0x3f12e158	0.573751
10	0x3ff6b8aa	1.9275105
11	0x3f1e5962	0.6185514
12	0x3f97ed65	1.1869322
13	0x3f9310cc	1.1489501
14	0x3f9ca98b	1.223924
15	0x3fb9f789	1.4528667

block1.2.conv.weight f4 [8, 16, 3, 3]
0	0x3e5ff97b	0.21872513
1	0xbddf2697	-0.10896032
2	0xbe0d9f14	-0.13830215
3	0xbda2de25	-0.07952527
4	0x3ded7f5a	0.11596556
5	0xbe0845ae	-0.1330783
6	0xbe1ebbba	-0.155013
7	0x3e66d567	0.22542344
8	0x3debea8b	0.11519345
9	0x3dd39135	0.103304304
10	0xbe53c947	-0.2068225
11	0xbd307b35	-0.04308625
12	0xbe139725	-0.14413126
13	0xbd60e943	-0.054909956
14	0x3c25aad0	0.010111526
15	0xbe0b73a0	-0.13618326
16	0x3ddf459f	0.10901951
17	0x3d9d8f16	0.07693307
18	0xbe4e70d7	-0.20160232
19	0xbdbd8723	-0.09254291
20	0xbcd8eebe	-0.026481029
21	0x3d4f791c	0.05065261
22	0x3d12b492	0.035816737
23	0x3e46a2da	0.1939806
24	0xbd603128	-0.05473438
25	0x3e08d2b8	0.13361633
26	0xbe45f762	-0.1933265
27	0x3d8ebcb9	0.0696959
28	0x3e0d8cd6	0.13823256
29	0x3df54904	0.11976817
30	0xbb8ca3ae	-0.004291973
31	0xbe0eecf3	-0.13957576
32	0xbd58c6be	-0.05292391
33	0xbd005a0e	-0.031335883
34	0xbda70773	-0.08155718
35	0x3d653352	0.055957146
36	0x3dfc02e2	0.12305237
37	0xbc68eed0	-0.014217094
38	0xbe08f474	-0.13374501
39	0xbe11fb23	-0.14255957
40	0xbe0f2313	-0.13978224
41	0xbd83c6a7	-0.06434374
42	0xbdbe42f7	-0.09290116
43	0xbdba1c0d	-0.090873815
44	0x3e25e661	0.16201164
45	0x3e4725d4	0.19448024
46	0xbd12e097	-0.035858717
47	0xbe61a09a	-0.22033921
48	0x3e15c71e	0.14626738
49	0xbc6943c3	-0.014237347
50	0xbc4e0c7a	-0.012576217
51	0x3e6fc37e	0.23414418
52	0xbd91bd60	-0.071161985
53	0xbda235b4	-0.07920399
54	0x3e8306be	0.2559108
55	0x3e5ac863	0.21365504
56	0x3e621992	0.22080067
57	0x3d02df04	0.031950966
58	0x3d0bde8b	0.03414778
59	0x3dbc26af	0.09187066
60	0x3e93eb47	0.2889044
61	0x3e65fe8a	0.2246038
62	0xbd610d4e	-0.05494433
63	0xb7fba711	-2.9999328e-05
64	0x3d12ef55	0.035872776
65	0x3b0f558a	0.0021871054
66	0x3e124852	0.142854
67	0xbe93cb48	-0.2886603
68	0xbdfc1c82	-0.12310125
69	0x3e84dae8	0.25948262
70	0x3d82ae1a	0.063808635
71	0xbd3e2a5e	-0.046427123
72	0xbd827bab	-0.06371244
73	0xbd2a4db7	-0.04157802
74	0xbd97bc73	-0.07408991
75	0xbd3238ed	-0.04351132
76	0xbde37d84	-0.111079246
77	0x3c935c26	0.017988276
78	0xbd409d91	-0.047025267
79	0xbe44754e	-0.19185373
80	0xbe9702cf	-0.2949433
81	0xbe2b35de	-0.16719767
82	0xbe67a695	-0.2262214
83	0xbda1d913	-0.07902732
84	0xbce3edf3	-0.027823424
85	0xbdcc3852	-0.0997168
86	0xbdecc420	-0.115608454
87	0x3e0313e1	0.12800552
88	0x3d5ffa18	0.054681867
89	0xbe24f14d	-0.16107674
90	0xbdc0b569	-0.09409601
91	0x3ddf6da7	0.109095864
92	0x3e0d9cab	0.13829295
93	0x3e02dd6e	0.12779781
94	0x3e645733	0.22298889
95	0x3dc6b92d	0.09703288
96	0xbd09a4c4	-0.0336044
97	0xbe32014b	-0.17383306
98	0xbdfaeabb	-0.122518025
99	0xbce0ab2f	-0.027425377
100	0x3ed0a08d	0.4074749
101	0x3e40dbc6	0.18833837
102	0x3dba6d67	0.09102898
103	0x3e09ec40	0.13469028
104	0xbc72c4d5	-0.014817436
105	0xbedb6e09	-0.42857388
106	0xbe445f90	-0.19177079
107	0x3d132d0f	0.035931643
108	0x3cf62c23	0.030050343
109	0x3e8dee2f	0.27720782
110	0x3e8731b4	0.26405108
111	0xbe2d6ab8	-0.16935241
112	0xbdd60f87	-0.1045218
113	0x3dfbb9bf	0.12291288
114	0x3d6c3a89	0.05767301
115	0xbe57d984	-0.2107907
116	0xbcaf436e	-0.021394458
117	0x3dc10b5f	0.09425997
118	0xbd65b898	-0.056084245
119	0xbde15bf9	-0.110038705
120	0xbe9ba8a4	-0.304021
121	0x3d702bbe	0.058635466
122	0xbd321c6d	-0.04348414
123	0xbeb0e264	-0.34547722
124	0xbe1a1796	-0.1504806
125	0x3c1fc418	0.009751342
126	0xbe5c9ce2	-0.21544221
127	0xbe5d8c3f	-0.21635531
128	0x3c0e4249	0.008682796
129	0xbe8a022d	-0.26954785
130	0xbe4bf2b7	-0.19916807
131	0xbd1a4230	-0.037660778
132	0x3e40e634	0.18837816
133	0xbdcc35f1	-0.09971226
134	0x3c8872af	0.016656248
135	0x3d765707	0.06014159
136	0x3e71efef	0.23626684
137	0x3e057fb6	0.13036999
138	0x3e2ff1d6	0.17182097
139	0x3e1e1ff0	0.1544187
140	0x3e8be36b	0.27321944
141	0xbe791b49	-0.24326815
142	0xbd1ade6b	-0.03780977
143	0x3e0a2072	0.1348894
144	0xbcb2f1d8	-0.021843836
145	0x3e449f8d	0.19201489
146	0x3cb6df0f	0.02232316
147	0x3c92904c	0.017891072
148	0x3ca9fe06	0.02075101
149	0x3b8ef173	0.004362279
150	0x3d8812ee	0.066442356
151	0xbcd9ab93	-0.02657107
152	0xbd83e307	-0.064397864
153	0x3d210b34	0.039317325
154	0xbde1168f	-0.10990631
155	0xbea84cd4	-0.32871115
156	0xbd8991d7	-0.0671727
157	0x3dee9de1	0.11651207
158	0xbd885aa3	-0.066579126
159	0xbcd0bb75	-0.025480011
160	0x3dcaa7d5	0.09895293
161	0x3dcc07f8	0.099624574
162	0xbd0b8909	-0.034066234
163	0x3df50732	0.11964263
164	0x3dbe9380	0.09305477
165	0x3de1bd1b	0.11022397
166	0x3df854c1	0.121255405
167	0xbda531db	-0.0806615
168	0x3ce47d74	0.027891852
169	0x3debf63b	0.11521574
170	0xbd23d87f	-0.04000139
171	0xbdd0355e	-0.10166429
172	0xbe271f5f	-0.16320561
173	0x3c9f42c1	0.01944101
174	0x3db8f4c2	0.09031059
175	0x3dcbc495	0.099496044
176	0x3d8a2fc4	0.06747392
177	0x3e3a97bf	0.18221949
178	0x3eacf943	0.33783922
179	0x3e7b9bee	0.24571201
180	0x3ded0cb1	0.11574686
181	0x3d7d05ed	0.06177323
182	0xbe7fd994	-0.24985343
183	0x3daedde4	0.08538416
184	0x3dc64530	0.09681165
185	0xbe24dc15	-0.1609958
186	0x3e8b7e29	0.2724469
187	0x3e17a993	0.14810781
188	0x3d772608	0.060339004
189	0x3e083742	0.13302329
190	0x3db1d747	0.08683639
191	0xbea59c3e	-0.32345766
192	0x3d1dfd9c	0.03857194
193	0x3e4dd3dd	0.2010035
194	0x3d5fab62	0.054606803
195	0xbe836b89	-0.2566798
196	0x3d73ac90	0.05949074
197	0xbe7108cb	-0.2353851
198	0xbda0909b	-0.07840081
199	0xbe405207	-0.18781291
200	0xbe248504	-0.16066366
201	0xbd31b4d0	-0.043385327
202	0x3e00cc0c	0.12577838
203	0x3e2ea91d	0.17056699
204	0x3dbb0b57	0.09133022
205	0x3de0323e	0.10947083
206	0x3e78b771	0.24288727
207	0xbde9e9f5	-0.11421577
208	0x3dff2ebf	0.12460088
209	0x3e6d555b	0.23177092
210	0xbd9d2d8c	-0.07674703
211	0x3dee72bf	0.1164298
212	0x3e217527	0.15767346
213	0xbe293adc	-0.1652636
214	0xbd25ec86	-0.04050877
215	0x3d2956dd	0.041342605
216	0x3dad1d40	0.084528446
217	0xbdb2cee4	-0.087308675
218	0xbda8c321	-0.08240343
219	0xbd8e8e52	-0.06960739
220	0xbd8cd48f	-0.0687648
221	0xbd4850f6	-0.048905335
222	0x3de6b6de	0.11265348
223	0x3e1a3670	0.15059829
224	0x3dcfa5cb	0.101390444
225	0xbdf5d033	-0.120026015
226	0xbd8330a8	-0.06405765
227	0xbca4e2e4	-0.020127721
228	0x3d1564c3	0.036473047
229	0xbe0a36cb	-0.13497464
230	0xbe172d3c	-0.1476335
231	0xbe788653	-0.2426999
232	0xbe15d7c4	-0.1463309
233	0xbece7b39	-0.40328386
234	0x3e57b01c	0.21063274
235	0x3e5dc1b3	0.21655922
236	0xbdf47189	-0.119357176
237	0xbd28d175	-0.04121538
238	0xbd1f1d1d	-0.038846124
239	0xbebbbc8f	-0.36667296
240	0xbd82f8f2	-0.06395139
241	0xbdcf12ae	-0.10110985
242	0xbe9dcc90	-0.3082013
243	0xbe874fd9	-0.26428106
244	0xbe9a1f5f	-0.3010206
245	0x3e808ef6	0.2510907
246	0x3e1fe30e	0.15613958
247	0x3e1c2e6c	0.15252084
248	0x3e17a1ce	0.14807817
249	0xbde9c094	-0.114136845
250	0x3dc1f7f9	0.09471125
251	0x3e01265b	0.12612288
252	0xbdeef3c8	-0.11667591
253	0xbe1b21cd	-0.15149613
254	0xbda82ab1	-0.08211268
255	0xbec1964d	-0.37809983

block1.2.conv.bias f4 [8]
0	0x3cd2d607	0.025736822
1	0x3d2c671f	0.04209053
2	0xbb1b3f3e	-0.0023688818
3	0xbd98bec0	-0.07458258
4	0xbe37b859	-0.17941417
5	0xbc8da121	-0.017288746
6	0x3c7e0cf8	0.015506022
7	0x3d2fb361	0.04289568

block1.2.BN.weight f4 [8]
0	0x3f84eca9	1.0384723
1	0x3f80aba8	1.0052385
2	0x3f99104b	1.1958097
3	0x3f4ceacc	0.8004577
4	0x3f834519	1.0255462
5	0x3f7a45b2	0.97762597
6	0x3f8d8785	1.1056982
7	0x3f7c8579	0.98641163

block1.2.BN.bias f4 [8]
0	0xbe083ca5	-0.13304384
1	0xbca18e64	-0.019721217
2	0x3e4ad4a6	0.19807681
3	0xbea6f477	-0.32608387
4	0xbd243e4f	-0.040098485
5	0xbdf4b656	-0.1194884
6	0x3d03e6b3	0.032202434
7	0xbe0a1e45	-0.1348811

block1.2.BN.running_mean f4 [8]
0	0xbeb12030	-0.3459487
1	0xbdfea87c	-0.124344796
2	0xbe9a2623	-0.3010722
3	0xbe7176b7	-0.23580442
4	0xbf863ecc	-1.0487914
5	0xbfb58cc9	-1.4183589
6	0xbf79e423	-0.97613734
7	0xbfef4bca	-1.8695004

block1.2.BN.running_var f4 [8]
0	0x40027199	2.0381835
1	0x4029c4c2	2.6526341
2	0x40158c1d	2.3366768
3	0x3fd22f33	1.6420654
4	0x3fcbaf82	1.5912936
5	0x40230086	2.546907
6	0x4021a3a0	2.5256119
7	0x40167354	2.350789

block1.3.conv.weight f4 [4, 8, 3, 3]
0	0xbeb88859	-0.36041525
1	0x3c966056	0.018356483
2	0x3d4f3ed7	0.050597038
3	0xbc8ad539	-0.016947376
4	0xbe98220e	-0.29713482
5	0x3dacb94f	0.08433782
6	0x3eabab2b	0.33529028
7	0x3bbb25b0	0.00571128
8	0xbdae2806	-0.085037276
9	0x3e6ce788	0.23135197
10	0x3d89bd88	0.06725603
11	0x3d429788	0.047507793
12	0x3ce805e1	0.028323116
13	0x3dcab2d1	0.09897388
14	0x3cb70416	0.022340816
15	0x3d03236d	0.032016207
16	0x3d821fe3	0.06353738
17	0xbdee7857	-0.11644047
18	0xbe874a2e	-0.26423782
19	0xbe597af1	-0.21238305
20	0x3e11d1cc	0.14240187
21	0x3d3a7391	0.04552037
22	0xbde707f3	-0.11280813
23	0x3eadae20	0.3392191
24	0xbd5a2841	-0.053261045
25	0x3e6dec06	0.23234567
26	0x3e3ce139	0.1844529
27	0xbe8ac191	-0.27100804
28	0xbe2ecb70	-0.17069793
29	0x3dc14f7a	0.09438987
30	0xbe9e5463	-0.30923757
31	0x3d56a09d	0.052399267
32	0xbd1ea1e8	-0.038728625
33	0xbdefb9db	-0.11705371
34	0xbd9b9049	-0.075958796
35	0xbda94258	-0.08264607
36	0xbe028c38	-0.12748802
37	0x3d036771	0.03208107
38	0x3e4b3c4d	0.19847222
39	0xbee7f09d	-0.4530076
40	0x3ca568bf	0.020191548
41	0x3e141b8e	0.14463636
42	0xbd48023b	-0.048830252
43	0xbdba3956	-0.09092967
44	0x3e8ce36f	0.27517268
45	0x3e47fd46	0.1953021
46	0xbc702a93	-0.014658588
47	0x3caf51c6	0.021401297
48	0x3dfcd383	0.1234503
49	0xbdbf0542	-0.09327175
50	0xbdd1a9fa	-0.102374986
51	0x3dc35380	0.09537411
52	0xbd9f9f3b	-0.07794043
53	0xbe2c3019	-0.16815223
54	0x3de2b50d	0.11069689
55	0x3da29888	0.07939249
56	0xbc9565c7	-0.018237008
57	0xbbee3595	-0.007269571
58	0xbd760520	-0.06006348
59	0xbe85c528	-0.2612698
60	0x3e0da0c4	0.13830858
61	0xbe9f1a3a	-0.31074697
62	0xbe4de565	-0.20107038
63	0x3db865e3	0.09003808
64	0x3e3df565	0.18550642
65	0x3c795dff	0.015220164
66	0xbe1cb093	-0.15301733
67	0x3e2198de	0.1578097
68	0xbe18bb40	-0.1491518
69	0x3dd21a88	0.10258967
70	0x3daa9e43	0.08330967
71	0xbd99bf7b	-0.07507225
72	0xbd958cf2	-0.07302274
73	0xbe607f8f	-0.2192366
74	0xbdb5da12	-0.08879484
75	0x3c0f94da	0.008763516
76	0xbd4513ee	-0.04811471
77	0xbec0e06a	-0.37671214
78	0xbaa48ba0	-0.0012553819
79	0x3e35bba4	0.1774736
80	0x3d17db83	0.037074577
81	0xbd984e2f	-0.07436787
82	0xbe185fe3	-0.14880328
83	0x3e2785cd	0.16359635
84	0xbdbf899d	-0.093524195
85	0x3d06aafd	0.03287791
86	0x3de91c2c	0.113823265
87	0xbe5a2edf	-0.21306942
88	0xbe359918	-0.17734182
89	0x3bd8b0ab	0.0066128573
90	0xbe1c6ccf	-0.15275882
91	0xbe0730f0	-0.13202262
92	0xbdad7b50	-0.084707856
93	0xbe20d49d	-0.15706106
94	0xbd1429d1	-0.03617269
95	0xbe4b47f9	-0.19851674
96	0x3d4f27e5	0.050575156
97	0x3e95177e	0.29119486
98	0x3dad6167	0.08465844
99	0xbd94e5c3	-0.07270386
100	0xbe5fb734	-0.2184723
101	0xbe13983c	-0.14413542
102	0xbb7b3d17	-0.0038335973
103	0xbe1fe691	-0.15615298
104	0xbcbf4afd	-0.023351187
105	0xbdf2761b	-0.11838933
106	0x3e077eec	0.1323201
107	0x3e522cd5	0.20524915
108	0x3e61eb20	0.2206235
109	0x3dce8d97	0.100856
110	0x3d20bf24	0.039244786
111	0xbc5ca055	-0.0134659605
112	0xbde33c9c	-0.11095545
113	0x3d356e02	0.044294365
114	0x3cd2bd8b	0.025725147
115	0xbe7f0a0d	-0.24906178
116	0xbde61328	-0.112341225
117	0xbe0d9a90	-0.13828492
118	0xbd281645	-0.041036863
119	0x3e203951	0.15646864
120	0xbe4a7c7f	-0.19774054
121	0xbe7c639a	-0.2464737
122	0xbea0651d	-0.31327143
123	0xbd0b4e1d	-0.03401004
124	0x3d986d77	0.07442754
125	0x3dae8fac	0.08523497
126	0xbe22359a	-0.1584076
127	0x3e5b2529	0.21400894
128	0xbe75d332	-0.24006346
129	0xbe641473	-0.22273426
130	0x3e0e4fd7	0.13897644
131	0xbdc9522d	-0.09830127
132	0xbe871243	-0.2638112
133	0x3cf2c4e4	0.0296349
134	0xbd85f655	-0.06541125
135	0x3ec20aa4	0.37898743
136	0xbe2dfb5a	-0.16990414
137	0xbe8d657c	-0.2761649
138	0x3eb4b1c3	0.3529187
139	0x3dac2465	0.08405379
140	0x3d469cfe	0.048489563
141	0x3dd54a20	0.10414529
142	0x3c403331	0.011730955
143	0xbdf9ec8a	-0.12203319
144	0x3b7454a1	0.0037281888
145	0x3e1fda4d	0.15610619
146	0x3dda5753	0.10661187
147	0xbe6448e4	-0.2229343
148	0xbe119214	-0.1421588
149	0x3de658f6	0.11247437
150	0x3dfd8297	0.12378424
151	0xbdd573ae	-0.10422455
152	0x3e5dac0e	0.21647665
153	0xbcdf8a15	-0.027287522
154	0x3e09d3bb	0.13459675
155	0x3ebb8bf8	0.36630225
156	0xbd830e75	-0.06399242
157	0x3e073b59	0.13206233
158	0x3e5a4e59	0.2131895
159	0xbe376328	-0.17908919
160	0x3dabcfcd	0.08389244
161	0x3eaea83d	0.3411273
162	0xbe54f05b	-0.20794813
163	0xbda79ec6	-0.081845805
164	0xbcae00f6	-0.021240693
165	0x3e3f701a	0.18695107
166	0xbdb8f631	-0.09031332
167	0x3e857e7d	0.26073065
168	0x3e7ac8ce	0.24490663
169	0xbdd00a65	-0.101582326
170	0x3e51451f	0.20436524
171	0x3dfb2ca1	0.12264372
172	0x3e731cf0	0.23741508
173	0xbcb665ef	-0.022265403
174	0x3dc529a6	0.096270844
175	0xbe447ab3	-0.19187431
176	0x3c9c43ae	0.019075241
177	0xbe16f057	-0.1474012
178	0xbe0b4b64	-0.13602978
179	0x3ca35473	0.01993773
180	0x3c477597	0.012174032
181	0x3de761a0	0.11297917
182	0x3d550d35	0.05201455
183	0xbe276f5b	-0.16351072
184	0x3e03932e	0.12849113
185	0x3ded2c3e	0.11580704
186	0x3e3edf4e	0.18639871
187	0xbc02d92f	-0.007986351
188	0x3e8105f6	0.2519986
189	0xbe29726a	-0.16547552
190	0x3e718617	0.23586307
191	0x3e51f4de	0.20503566
192	0xbe18d4b6	-0.14924893
193	0x3d97b9af	0.07408463
194	0x3df5d0b8	0.120027006
195	0xbdeb62fa	-0.11493488
196	0xbd9d6d87	-0.07686906
197	0xbe87621d	-0.26442042
198	0x3e23caaf	0.15995286
199	0x3d98d672	0.07462777
200	0x3d814777	0.06312459
201	0x3db9719f	0.09054875
202	0xbe003f87	-0.12524234
203	0xbebebc66	-0.37253112
204	0x3e86728d	0.2625927
205	0x3e1dea43	0.15421395
206	0x3d4b4f7e	0.049636357
207	0xbdc1796d	-0.09446988
208	0x3cbdc172	0.023163531
209	0x3e4417e7	0.19149743
210	0x3e7a39ff	0.24436186
211	0x3e045c9f	0.12925957
212	0x3ea60e63	0.3243285
213	0x3dd78480	0.10523319
214	0xbd9a9b3f	-0.07549142
215	0xbd9ef30f	-0.077612035
216	0xbc4b9824	-0.01242641
217	0x3e7410a5	0.23834474
218	0x3eade029	0.33960083
219	0xbe1b1254	-0.1514371
220	0x3d6cb899	0.057793234
221	0xbda50744	-0.080580264
222	0xbd355140	-0.04426694
223	0xbe2886e1	-0.16457702
224	0xbdf0c3e0	-0.1175611
225	0xbe2ba689	-0.16762747
226	0xbe07943f	-0.13240145
227	0xbdc03d3a	-0.09386678
228	0x3d5120db	0.051056724
229	0x3dd1cf2c	0.10244593
230	0x3db63c6e	0.08898245
231	0x3d4f58b4	0.050621703
232	0x3eb612a4	0.35561097
233	0x3e5110f3	0.20416622
234	0x3d40c406	0.047061943
235	0xbe83deb3	-0.25755844
236	0xbe3133aa	-0.17304865
237	0x3c1ec45a	0.009690369
238	0xbd105516	-0.035237394
239	0xbe9eb849	-0.30999973
240	0x3dcb16e8	0.099164784
241	0x3e5b980b	0.21444719
242	0x3c8aac21	0.01692778
243	0xbb8af94b	-0.004241144
244	0x3e59f9a1	0.21286632
245	0xbd236c13	-0.03989799
246	0xbe17f33f	-0.14838885
247	0xbc3f10a2	-0.01166168
248	0xbc8349df	-0.016026435
249	0x3db50982	0.08839704
250	0x3e34de60	0.17662954
251	0x3e0009fe	0.12503812
252	0xbbf3a24c	-0.007435119
253	0x3e3fb72e	0.18722221
254	0x3e087ff2	0.13330057
255	0x3e3d20cb	0.18469541

block1.3.conv.bias f4 [4]
0	0x3cef3d09	0.029203909
1	0x3e564deb	0.20928161
2	0xbdf1b657	-0.11802357
3	0x3d2fe045	0.04293849

block1.3.BN.weight f4 [4]
0	0x3f90eb2f	1.1321772
1	0x3f8b3904	1.0876775
2	0x3f861084	1.047379
3	0x3f4cfbe5	0.8007186

block1.3.BN.bias f4 [4]
0	0x3e8bc53a	0.2729891
1	0x3d3b3958	0.045708984
2	0xbd84dc05	-0.06487278
3	0x3e30c821	0.17263843

block1.3.BN.running_mean f4 [4]
0	0xbd623fcf	-0.055236634
1	0xbf45ccef	-0.7726583
2	0x3f8ad73b	1.0846933
3	0x3ba371fd	0.0049879537

block1.3.BN.running_var f4 [4]
0	0x3f67e91b	0.90590066
1	0x3f3960dc	0.7241342
2	0x3f4ecfc4	0.80785775
3	0x3f6e7edd	0.9316233

block2.0.conv.weight f4 [8, 4, 3, 3]
0	0xbe0851c1	-0.13312437
1	0x3c5176ec	0.012784701
2	0x3e92df9e	0.2868623
3	0xbe1028c3	-0.1407805
4	0xbda16d2b	-0.0788215
5	0x3d55e39a	0.05221901
6	0xbf07834d	-0.52934724
7	0xbe94377e	-0.28948587
8	0xbe7f5c6a	-0.24937597
9	0xbe9b0cb2	-0.30283123
10	0xbda3ec74	-0.08004084
11	0x3c6f9bda	0.01462456
12	0xbd1d4e35	-0.038404662
13	0xbe3877e8	-0.1801449
14	0x3d683892	0.056694575
15	0x3e087128	0.13324416
16	0xbbb7e736	-0.0056122793
17	0xbd0b8497	-0.034061994
18	0xbd116b83	-0.03550292
19	0x3db114ae	0.086465225
20	0xbe10ea3d	-0.14151855
21	0x3d636ebc	0.055525526
22	0x3ecedf05	0.40404525
23	0x3d89625c	0.06708214
24	0xbe076e91	-0.13225771
25	0xbdc0ddf2	-0.09417333
26	0xbe45187b	-0.1924762
27	0xbe8d8b3a	-0.27645284
28	0xbea097c4	-0.31365788
29	0xbe667f6a	-0.22509542
30	0xbdaab6ff	-0.08335685
31	0x3df1cdd0	0.11806834
32	0x3dcca298	0.0999195
33	0x3e7e166f	0.24813245
34	0x3e0dfbd8	0.13865602
35	0xbd306cd8	-0.04307255
36	0xbe04cc76	-0.1296862
37	0xbe43b980	-0.19113731
38	0xbe1bbae4	-0.15208012
39	0x3c09f323	0.008419785
40	0x3e67fb13	0.22654371
41	0x3d63267d	0.055456627
42	0x3e56978a	0.20956245
43	0xbcc4d4e4	-0.024027295
44	0xbd5acd38	-0.053418368
45	0xbe941abd	-0.2892665
46	0xbda01974	-0.07817355
47	0x3d329e4e	0.043608002
48	0x3d8d03b4	0.06885472
49	0xbd699f9f	-0.057036992
50	0x3cb6290e	0.022236373
51	0xbe83e07f	-0.25757214
52	0x3d84f777	0.06492513
53	0x3eaf5d09	0.34250668
54	0x3e877c7c	0.26462162
55	0x3e691e0d	0.2276537
56	0x3e8d9b77	0.27657673
57	0xbda2da8c	-0.07951841
58	0xbccaca2b	-0.024754604
59	0x3de73e88	0.11291224
60	0x3da3b6dc	0.07993862
61	0xbe38328b	-0.1798803
62	0xbe502c5e	-0.20329425
63	0x3d862d5b	0.065516196
64	0x3e587aae	0.21140549
65	0x3e105336	0.14094242
66	0x3d9a2e54	0.07528368
67	0x3e75003f	0.23925875
68	0x3e949242	0.29017836
69	0x3cb9060b	0.02258589
70	0x3e4c81ca	0.19971386
71	0x3de5e596	0.11225431
72	0xbe0f8868	-0.14016879
73	0x3d237f6d	0.039916445
74	0xbddd7cd8	-0.10814828
75	0x3c2323d9	0.009957277
76	0xbddda1e7	-0.10821896
77	0xbd475703	-0.048666965
78	0x3da23e95	0.07922093
79	0x3d1c7c13	0.038204264
80	0xbe99d931	-0.30048516
81	0xbdfc08cf	-0.123063676
82	0x3eb5dd3a	0.35520345
83	0xbcc7d6e3	-0.024394458
84	0xbd17fa29	-0.037103806
85	0x3eabe83e	0.33575624
86	0x3dfc50ec	0.12320122
87	0xbe7d5baf	-0.24742006
88	0x3e3fec79	0.18742551
89	0x3ebdfda0	0.37107563
90	0xbe2acb6e	-0.16679165
91	0x3d9a7d34	0.07543412
92	0x3e22051f	0.15822266
93	0xbd7aec7c	-0.061260685
94	0xbe1eb5a3	-0.15498976
95	0x3e84f664	0.2596923
96	0xbe926adb	-0.2859715
97	0xbdc0971c	-0.09403822
98	0x3db4c4fd	0.08826635
99	0x3d43bcee	0.0477876
100	0xbc9eb58f	-0.019373683
101	0x3c02ab50	0.007975414
102	0xbe874694	-0.26421034
103	0x3e7b0989	0.24515356
104	0x3e2d6abd	0.16935249
105	0xbef06565	-0.46952358
106	0x3bc13e84	0.005897345
107	0xbd535215	-0.05159195
108	0x3c9a8ac2	0.018864993
109	0xbddaa454	-0.10675874
110	0xbe9af681	-0.30266193
111	0xbd8b7fe5	-0.06811503
112	0x3d2ab7f6	0.041679345
113	0xbe44a25d	-0.19202562
114	0x3e9e4a8d	0.30916253
115	0x3ea82e55	0.3284785
116	0x3e88ac0a	0.26693755
117	0x3d4104ed	0.04712384
118	0xbe177ccc	-0.147937
119	0xbe5e9277	-0.2173556
120	0xbd881a3a	-0.06645627
121	0xbe93e0f6	-0.2888257
122	0x3e09f7d6	0.13473448
123	0xbc80da27	-0.015729023
124	0x3de3b2ac	0.11118063
125	0xbd22c5bb	-0.03973935
126	0x3d8cc896	0.06874196
127	0x3d8d5f07	0.06902891
128	0x3d3b17ca	0.045676984
129	0x3d9056fd	0.07047842
130	0x3d295ccd	0.041348267
131	0xbb1ebd2c	-0.0024221642
132	0x3d9fe4bd	0.078073
133	0x3d8d96a4	0.06913498
134	0x3ecc26fd	0.39873496
135	0xbe7aa9ac	-0.24478787
136	0xbe06563d	-0.13118835
137	0x3e720246	0.2363368
138	0xbd50f50e	-0.051014952
139	0xbe18c5df	-0.14919232
140	0xbd2eedd6	-0.042707287
141	0xbdf5c6be	-0.12000798
142	0x3ddd03dd	0.107917525
143	0xbe595a09	-0.21225752
144	0x3d0c991a	0.034325697
145	0xbf08bb43	-0.5341074
146	0xbd020c6f	-0.03175014
147	0xbde69cb8	-0.112603605
148	0xbe0ddd37	-0.13853918
149	0xbdb9d589	-0.09073932
150	0x3c589266	0.013218498
151	0xbc222cf9	-0.009898418
152	0xbe623ef9	-0.22094335
153	0xbf015823	-0.5052511
154	0xbf04a45a	-0.5181328
155	0xbeb7e1fd	-0.35914603
156	0x3df829fe	0.121173844
157	0x3c46fea0	0.012145668
158	0x3e278be1	0.16361953
159	0xbddc74ad	-0.10764442
160	0xbe241cc9	-0.16026606
161	0x3e9d2a80	0.30696487
162	0xbcb2e297	-0.021836562
163	0x3d7f5bc6	0.06234338
164	0x3e12a22d	0.14319678
165	0xbe0ec5fe	-0.13942716
166	0xbe2c7531	-0.1684158
167	0x3e3a86f4	0.18215543
168	0xbe96bab1	-0.2943931
169	0xbe32355d	-0.17403169
170	0x3ded4b9e	0.115866885
171	0x3e583ed0	0.21117711
172	0xb72ea97f	-1.0410672e-05
173	0x3ddf27eb	0.108962856
174	0x3de6de66	0.11272888
175	0xbcdba561	-0.026812257
176	0x3c54dca5	0.012992059
177	0xbd9d896e	-0.07692228
178	0xbe667566	-0.22505721
179	0xbe4ade9d	-0.19811483
180	0xbf099b5b	-0.5375268
181	0xbe063398	-0.13105619
182	0x3e204074	0.15649587
183	0x3c9d4d72	0.019201968
184	0x3e1f5b79	0.15562238
185	0xbd9801cd	-0.074222185
186	0xbe89f7a8	-0.2694676
187	0x3e607f58	0.21923578
188	0xba794957	-0.00095095247
189	0xbd297693	-0.041372847
190	0xbdb8aa41	-0.09016848
191	0x3d5c714c	0.053818986
192	0xbe60039e	-0.2187638
193	0xbcf06b10	-0.029347926
194	0x3dfe5b10	0.124197125
195	0x3db15d2b	0.086603485
196	0x3e8684f6	0.26273316
197	0x3dc005a3	0.09376075
198	0x3d2bd44d	0.041950513
199	0x3d29f864	0.04149665
200	0xbf150c88	-0.58222246
201	0xbe02b2f8	-0.12763584
202	0x3d8f29f4	0.06990424
203	0xbdc790bb	-0.09744402
204	0x3e87d203	0.26527414
205	0xbe8febe3	-0.28109655
206	0xbe380059	-0.17968883
207	0x3cfc1841	0.030773284
208	0xbcf4f50c	-0.029902004
209	0xbddae811	-0.106887944
210	0x3d1193f2	0.035541482
211	0xbdbc4eac	-0.09194693
212	0xbe3ad512	-0.18245342
213	0x3d4de17c	0.050263867
214	0x3e3e7a51	0.18601348
215	0xbd5842d5	-0.05279811
216	0x3e03f96e	0.12888119
217	0x3ed0b2c6	0.40761393
218	0x3e3a19df	0.18173932
219	0xbe52c86f	-0.20584272
220	0x3e01898f	0.1265013
221	0xbe868818	-0.26275706
222	0x3d77e4de	0.060521
223	0xbcd91e99	-0.026503848
224	0x3ccaafba	0.024741996
225	0x3e8a316d	0.26990834
226	0x3e5bb6d1	0.21456458
227	0xbde9ab0b	-0.11409577
228	0x3d74eec8	0.059798032
229	0xbe429c48	-0.19004929
230	0xbe50ae24	-0.2037893
231	0xbddef7cd	-0.10887108
232	0x3da69914	0.08134666
233	0x3c3bb0df	0.011455744
234	0x3e8c2738	0.27373672
235	0xbdc0d415	-0.094154514
236	0xbe8012af	-0.25014254
237	0x3bfbf329	0.007688899
238	0xbe4b8c58	-0.19877756
239	0xbe016e92	-0.12639835
240	0x3dcb02a3	0.09912612
241	0x3de37d93	0.11107936
242	0xbcfaef9a	-0.030631829
243	0x3c9b9b12	0.018994842
244	0xbe37e903	-0.1795998
245	0xbdc50ba9	-0.096213646
246	0x3e0220e1	0.12707855
247	0x3e0d12b3	0.13776664
248	0x3ea82238	0.32838607
249	0xbd60249d	-0.054722417
250	0xbd90cbb1	-0.07070101
251	0xbe815948	-0.2526343
252	0x3e029817	0.1275333
253	0xbe491eae	-0.1964061
254	0xbe80fa14	-0.25190794
255	0x3e0e3663	0.13887934

block2.0.conv.bias f4 [8]
0	0xbe112d2f	-0.14177392
1	0xbd67fb4d	-0.056636143
2	0xbe0809c3	-0.13284974
3	0xbdbad136	-0.09121935
4	0xbdc4e6aa	-0.09614308
5	0xbcc994eb	-0.024607142
6	0x3d86f7d5	0.06590239
7	0x3d01b3ad	0.031665493

block2.0.BN.weight f4 [8]
0	0x3f84b4f9	1.0367728
1	0x3f66beba	0.90134776
2	0x3f8080e9	1.003934
3	0x3f82d955	1.0222574
4	0x3f823061	1.0171014
5	0x3f8bc520	1.0919533
6	0x3f8827c5	1.0637137
7	0x3f871011	1.0551778

block2.0.BN.bias f4 [8]
0	0x3dfa0c5b	0.12209388
1	0x3d178fd8	0.037002414
2	0xbe77e9ba	-0.24210253
3	0xbe5e3254	-0.21698886
4	0xbce25ce2	-0.02763218
5	0x3a531fdb	0.0008053758
6	0xbe14d7d3	-0.14535455
7	0xbe649a9c	-0.22324604

block2.0.BN.running_mean f4 [8]
0	0xbf78fe68	-0.97263193
1	0x3f0a8744	0.5411265
2	0xbe759b89	-0.23985113
3	0xbda4f447	-0.08054405
4	0xbfa17ef7	-1.2616872
5	0xbf117972	-0.56825936
6	0x3e6d07ef	0.23147558
7	0xbeead68d	-0.45866814

block2.0.BN.running_var f4 [8]
0	0x3f672727	0.90294117
1	0x3f4617ea	0.7738024
2	0x3f0d4012	0.5517589
3	0x3f0953d8	0.5364356
4	0x3f967cac	1.1756797
5	0x3f1fa253	0.6235706
6	0x3ed48515	0.41507784
7	0x3f18c478	0.5967479

block2.1.conv.weight f4 [16, 8, 3, 3]
0	0x3df6d9f5	0.12053291
1	0x38fbaf96	0.00012001318
2	0x3e0dd49d	0.13850637
3	0xbcd493e6	-0.02594943
4	0xbd6fa2e1	-0.058504943
5	0x3cb7634b	0.022386214
6	0xbe37e3bc	-0.17957968
7	0xbe9151d2	-0.28382736
8	0xbe06f2dc	-0.13178581
9	0xbe05fce9	-0.13084759
10	0xbe32f5bf	-0.17476557
11	0xbe2f05bc	-0.17092031
12	0xbe3d399e	-0.1847901
13	0xbdcbf1fd	-0.09958265
14	0x3af4f7db	0.0018689589
15	0xbe5fd300	-0.21857834
16	0xbe84260c	-0.25810277
17	0xbe272a29	-0.16324677
18	0x3b1de50a	0.0024092817
19	0x3c53202d	0.012886089
20	0xbdf26962	-0.118365064
21	0x3dc980dd	0.09839032
22	0x3d8fe08c	0.07025251
23	0xbe1af141	-0.15131094
24	0x3e5d05ea	0.21584287
25	0x3e8c4acd	0.27400818
26	0xbe60e1f1	-0.2196119
27	0xbd9119cb	-0.07084998
28	0x3daea7cf	0.08528101
29	0xbdcb4b64	-0.09926489
30	0xbe563e9c	-0.20922321
31	0x3d4739ba	0.048639037
32	0xbd81e147	-0.06341796
33	0x3dbf74ec	0.09348473
34	0xbc8b3ce9	-0.016996818
35	0x3df7d66a	0.12101443
36	0x3d53a741	0.051673178
37	0x3dafccf8	0.085840166
38	0x3af5a7b2	0.0018741994
39	0xbe8d29ac	-0.27570856
40	0xbe568f61	-0.20953132
41	0x3d2de3ef	0.042453703
42	0xbea6594f	-0.32490012
43	0xbda013b8	-0.07816261
44	0x3da53620	0.08066964
45	0xbe3ad98f	-0.18247055
46	0xbe1090a8	-0.14117682
47	0x3d88dd2f	0.066828124
48	0xbd8178f8	-0.06321901
49	0xbe272e10	-0.16326165
50	0xbd0d673f	-0.03452229
51	0xbead6f85	-0.33874145
52	0xbe10cfa9	-0.14141716
53	0xbe4fde62	-0.20299676
54	0x3e88da46	0.2672903
55	0x3ec70f1d	0.38878718
56	0xbdc7abfe	-0.09749602
57	0x3e795cdd	0.24351831
58	0x3e13888b	0.14407556
59	0xbe127345	-0.14301784
60	0x3e2c56eb	0.16830032
61	0xbb5f2dbe	-0.0034054364
62	0x3d949293	0.07254519
63	0x3dc035a6	0.093852326
64	0xbe1cbd63	-0.1530662
65	0xbe0c01cf	-0.13672565
66	0x3ca9dc87	0.020735038
67	0xbd95e46e	-0.0731896
68	0xbeb14611	-0.3462377
69	0x3e02205f	0.12707661
70	0x3d4a65cf	0.0494135
71	0xbea27174	-0.31727183
72	0x3e532bee	0.20622227
73	0xbe062266	-0.1309906
74	0xbe0265bc	-0.12734121
75	0x3dd0b33b	0.101904355
76	0x3d08af03	0.03337003
77	0xbe383dda	-0.17992344
78	0xbde920b4	-0.11383191
79	0x3d391b3d	0.045191992
80	0xbe85f1d2	-0.26161057
81	0xbd37ca48	-0.044870645
82	0x3d3649e4	0.04450406
83	0x3e10ecd8	0.14152849
84	0x3df0aef5	0.117521204
85	0xbb6dc0a8	-0.0036278162
86	0xbd09173c	-0.033469424
87	0x3e0e14f2	0.13875178
88	0xbc9f303a	-0.019432176
89	0x3d79b801	0.060966495
90	0xbe87c979	-0.265209
91	0x3e07118a	0.13190284
92	0x3d7b4c18	0.061351866
93	0xbe393524	-0.18086678
94	0x3d2efa50	0.042719185
95	0x3e074022	0.13208058
96	0x3c7d4192	0.015457528
97	0x3eb9bf4a	0.36278754
98	0x3ed53d74	0.41648448
99	0x3d26a11c	0.04068099
100	0x3e4c6ad3	0.19962625
101	0x3e7e85b5	0.24855693
102	0x3e243872	0.16037157
103	0x3d9709be	0.07374905
104	0x3d05c521	0.0326587
105	0x3e3a6952	0.18204239
106	0x3d2657be	0.04061102
107	0xbc14ac8b	-0.009074341
108	0xbe216965	-0.15762861
109	0xbe96b780	-0.29436874
110	0xbeb3f756	-0.3514964
111	0xbe246805	-0.16055305
112	0xbd32af3e	-0.043624155
113	0x3d27ec82	0.040997036
114	0x3e13a810	0.1441958
115	0x3c074fde	0.008258788
116	0x3c9dfabb	0.019284597
117	0xbe983807	-0.29730245
118	0xbe279bd2	-0.16368034
119	0xbdfbb144	-0.1228967
120	0x3c5ab360	0.01334843
121	0x3bd71d71	0.006564789
122	0xbdde2e3e	-0.10848664
123	0xbac28ebe	-0.0014843566
124	0x3d567c93	0.052364897
125	0x3df28151	0.118410714
126	0x3ded4f77	0.11587422
127	0x3ea8bad7	0.32955047
128	0x3e1cade2	0.15300706
129	0x3e6e0060	0.2324233
130	0x3e5ff920	0.21872377
131	0x3d85052c	0.06495127
132	0xbe92f350	-0.28701258
133	0xbe432502	-0.19057086
134	0xbdb7a445	-0.08966879
135	0x3d6116c5	0.054953355
136	0xbe9d0988	-0.30671334
137	0xbe4780b7	-0.19482695
138	0x3ee7afdf	0.45251366
139	0x3d7c3a09	0.061578784
140	0x3dc08e11	0.09402097
141	0x3dfe7d28	0.124262154
142	0xbe3ea9aa	-0.18619409
143	0x3db1b8a4	0.086777955
144	0xbe4102d3	-0.18848734
145	0xbdcbbe77	-0.09948438
146	0xbca007a2	-0.01953489
147	0xbc5649d7	-0.013079128
148	0xbe3a224e	-0.18177149
149	0xbe599393	-0.21247701
150	0x3d508c44	0.050915018
151	0xbd818e72	-0.063259974
152	0x3d2d5eb0	0.04232663
153	0xbd00e89a	-0.031471826
154	0xbc3f453f	-0.011674224
155	0xbdda836d	-0.10669599
156	0xbdb8209a	-0.08990593
157	0x3d700271	0.05859608
158	0x3d7748a2	0.060372002
159	0x3e61b68f	0.22042297
160	0xbdc9491f	-0.098284
161	0xbc37afd2	-0.011211352
162	0x3e263363	0.1623054
163	0x3e53fd5f	0.20702122
164	0xbd69d456	-0.057087265
165	0x3e9a2687	0.3010752
166	0x3e859fa6	0.26098365
167	0xbd253da5	-0.040341992
168	0xbc9c63c5	-0.019090543
169	0x3e841f36	0.25805062
170	0xbe69a7d2	-0.22817925
171	0x3db32edc	0.08749172
172	0x3d9e75e4	0.077373296
173	0x3ccb7b0e	0.02483895
174	0x3dc860d3	0.09784093
175	0xbb9e7205	-0.0048353695
176	0x3e832f19	0.2562187
177	0x3da1c95e	0.07899736
178	0xbe9f7526	-0.31144065
179	0xbe6c5e44	-0.23082834
180	0x3ea72f01	0.3265305
181	0x3e81f7e5	0.2538444
182	0x3ecc0176	0.39844865
183	0xbe2eead5	-0.17081769
184	0xbdbd0db0	-0.09231126
185	0x3dbbe2a8	0.091740906
186	0xbe935b18	-0.28780437
187	0xbe5e7033	-0.21722488
188	0xbe5cece3	-0.2157474
189	0x3e2ad191	0.16681506
190	0x3e9a6792	0.30157143
191	0x3e61f5da	0.22066441
192	0x3de1955f	0.110148184
193	0x3dd6bde1	0.10485435
194	0x3bc5b874	0.0060339514
195	0xbdefa748	-0.11701828
196	0xbcfcdcd2	-0.030867014
197	0xbd8b7674	-0.068097025
198	0x3e926fea	0.2860101
199	0x3da5de27	0.08099013
200	0xbe8753a1	-0.2643099
201	0xbe65f25e	-0.22455737
202	0x3e43ac59	0.19108714
203	0x3e27080f	0.16311668
204	0x3e4785c1	0.19484617
205	0x3e5f40e2	0.21802095
206	0xbb1225ec	-0.0022300435
207	0x3e644c01	0.22294618
208	0xbdefd3c8	-0.11710316
209	0x3d28074e	0.04102259
210	0x3dcc7a89	0.09984309
211	0xbe6368cd	-0.22207947
212	0xbc1022a3	-0.008797321
213	0x3e8457b7	0.2584817
214	0xbe7c5271	-0.24640824
215	0x3dbe3446	0.09287314
216	0x3d90eb06	0.07076077
217	0x3e6800fb	0.22656624
218	0x3e6db0a1	0.2321191
219	0xbd94e89f	-0.072709315
220	0x3df12bf7	0.11775964
221	0x3e4793e1	0.19490005
222	0xbe200ad4	-0.1562913
223	0x3e1fc123	0.1560102
224	0x3e9ccea6	0.3062641
225	0x3dbbde97	0.09173315
226	0xbd97846e	-0.07398306
227	0xbe10b063	-0.14129786
228	0x3e4eae77	0.2018374
229	0xbca16065	-0.019699285
230	0xbe2bf2fa	-0.16791907
231	0x3c8db0c2	0.017296199
232	0xbc5416b2	-0.012944864
233	0xbd2bdfe9	-0.041961584
234	0x3c7ce783	0.015436056
235	0x3db3536c	0.08756146
236	0xbcc6ecb1	-0.024282785
237	0x3e104e13	0.14092283
238	0x3daee932	0.08540572
239	0x3dd95900	0.106126785
240	0xbdf31254	-0.1186873
241	0xbc487eb5	-0.012237241
242	0xbda42ba0	-0.08016133
243	0x3e486ca5	0.19572695
244	0x3e3c5da0	0.1839509
245	0x3d49d97e	0.049279682
246	0x3e2f40a1	0.17114498
247	0x3d313ec9	0.043272767
248	0x3e14edd6	0.14543852
249	0xbeaa8417	-0.33303902
250	0xbe40eba8	-0.18839896
251	0xbd939b1d	-0.0720732
252	0xbe10bf61	-0.14135505
253	0xbae9181f	-0.0017783678
254	0xbccf14e1	-0.02527851
255	0xbc8f24db	-0.017473629

block2.1.conv.bias f4 [16]
0	0xbd734826	-0.059394978
1	0xbbde1da6	-0.0067784367
2	0x3b87a044	0.004138978
3	0x3ce08741	0.027408244
4	0x3da7e941	0.081987865
5	0xbd85bf97	-0.065306835
6	0x3e1b2a7a	0.15152922
7	0xbd61299d	-0.054971326
8	0x3e4f756d	0.20259638
9	0x3e12f530	0.14351344
10	0xbd8c07f7	-0.06837457
11	0xbd41fcaa	-0.0473601
12	0x3e024198	0.12720335
13	0xbd8431dd	-0.06454823
14	0x3dcaed2a	0.09908517
15	0xbdefea35	-0.11714593

block2.1.BN.weight f4 [16]
0	0x3f8e4230	1.1113949
1	0x3f607090	0.87671757
2	0x3f74f801	0.95690924
3	0x3f897cad	1.0741173
4	0x3f80a7d0	1.0051212
5	0x3f7961d2	0.97414887
6	0x3f6727ca	0.9029509
7	0x3f77b49d	0.9675997
8	0x3f972387	1.1807717
9	0x3f688684	0.90830255
10	0x3f8c806a	1.0976689
11	0x3f610b7a	0.87908137
12	0x3f8fed59	1.1244308
13	0x3f7adb71	0.9799109
14	0x3f8639b1	1.0486356
15	0x3f70cb58	0.9406028

block2.1.BN.bias f4 [16]
0	0xbe3dbac1	-0.18528272
1	0xbec1c2f4	-0.3784405
2	0xbde93436	-0.113869116
3	0xbdf9cfd1	-0.12197841
4	0xbe121392	-0.14265278
5	0xbe0daf8f	-0.13836502
6	0xbe927008	-0.28601098
7	0xbe7839b6	-0.24240765
8	0x3d55ae59	0.052168224
9	0xbe8d015e	-0.27540106
10	0xbe6bc8f8	-0.23025882
11	0xbe62a9f2	-0.22135141
12	0xbd30994f	-0.043114956
13	0xbe980477	-0.29690906
14	0xbebef0f4	-0.37293208
15	0xbe097450	-0.13423276

block2.1.BN.running_mean f4 [16]
0	0xbfaa0c64	-1.3285031
1	0x3ddcb861	0.10777355
2	0x3eec97c0	0.46209526
3	0x3f60709a	0.87671816
4	0xbf9dcb65	-1.2327696
5	0xbe840edd	-0.2579259
6	0x3e31211b	0.17297785
7	0xbf864366	-1.0489318
8	0xbf85183b	-1.039802
9	0x3f1146cc	0.5674865
10	0xbe7153d7	-0.23567139
11	0x3f13e9da	0.57778704
12	0xbf2daa7d	-0.6783827
13	0xbec5f2b5	-0.38661733
14	0xbdf85092	-0.121247426
15	0x3f5a194c	0.8519485

block2.1.BN.running_var f4 [16]
0	0x3fa11e3c	1.2587352
1	0x3fb47e5d	1.4101063
2	0x3f757a7f	0.9589004
3	0x3f5dda94	0.8666165
4	0x3f47b87b	0.7801587
5	0x3f89fd7c	1.0780482
6	0x3f7f9f7b	0.9985272
7	0x3f1cb164	0.61208177
8	0x3f70583f	0.9388465
9	0x3f65ce25	0.89767677
10	0x3f754db2	0.9582168
11	0x3f8dea8f	1.1087207
12	0x403ecebe	2.9813685
13	0x3f866584	1.049973
14	0x3f3eed65	0.74580985
15	0x3f4b4270	0.7939825
