model/result/0404 1152.pt (torch, 79133 bytes, 98 tensors)

input_conv.conv.weight f4 [4, 1, 3, 3]
0.42057598 0.13141406 -0.08995097 0.060810126 -0.28267694 -0.28675452 0.19612603 -0.26944292
-0.19913235 0.25619072 -0.31932166 0.3546179 -0.21546459 0.05254211 0.43586847 -0.24671902
-0.038848437 -0.13331889 -0.24356712 -0.048184562 0.07289667 -0.11688246 0.29661798 0.14425482
0.04290996 -0.1277498 0.5625283 0.38959575 0.4616761 0.04008861 -0.25683945 -0.30181703
0.13795903 -0.0379092 -0.011182022 0.039633635
00000000: bc55 d73e 6891 063e 3738 b8bd 0a14 793d
00000010: 08bb 90be 7dd1 92be 43d5 483e 6cf4 89be
00000020: 5ae9 4bbe 6e2b 833e 217e a3be 7a90 b53e
00000030: c0a2 5cbe 6536 573d 272a df3e e9a3 7cbe
00000040: 8a1f 1fbd bf84 08be a969 79be 2d5d 45bd
00000050: d94a 953d 1260 efbd 50de 973e 89b7 133e
00000060: 5bc2 2f3d d8d0 02be db01 103f 1879 c73e
00000070: cf60 ec3e f433 243d 7680 83be c387 9abe
00000080: 2245 0d3e ad46 1bbd cd34 37bc e156 223d

input_conv.conv.bias f4 [4]
-0.6560313 -0.3585293 0.080222666 0.44713098
00000000: abf1 27bf 2791 b7be c84b a43d 5aee e43e

input_conv.BN.weight f4 [4]
1.0743272 1.0389911 0.92480475 0.9724864
00000000: 8e83 893f a9fd 843f 01c0 6c3f def4 783f

input_conv.BN.bias f4 [4]
-0.18921807 0.26554093 0.019901013 -0.25237793
00000000: 62c2 41be fbf4 873e 7307 a33c ae37 81be

input_conv.BN.running_mean f4 [4]
-0.6507345 -0.3493395 0.0817552 0.46256465
00000000: 8996 26bf a0dc b2be 456f a73d 46d5 ec3e

input_conv.BN.running_var f4 [4]
0.2065621 0.075936586 0.3836907 0.22506455
00000000: 0485 533e a484 9b3d 1c73 c43e 5277 663e

block1.0.conv.weight f4 [8, 4, 3, 3]
0.19442421 0.07141489 -0.22537743 -0.06955299 0.032883696 0.10946903 0.19221582 0.3922598
0.22698459 -0.24904086 0.30330762 0.32451838 0.234193 0.100484945 -0.15695676 -0.029172434
0.09463444 0.15307985 -0.14396682 -0.16531432 -0.017235616 -0.15853903 0.065365136 -0.07586202
-0.09715761 0.0033386103 0.01752988 -0.10978102 0.13130617 0.29239044 0.3453523 0.18624434
0.13856852 -0.067923605 0.18931097 0.05299945 -0.17699023 -0.037406705 -0.20038493 0.12537009
-0.08668297 0.045838915 -0.07727665 0.059403304 0.3376162 0.07064867 0.16318594 0.16779302
-0.04151264 -0.2014581 -0.08228738 0.006478585 -0.2738984 -0.14538792 -0.058845155 0.13747188
0.19521296 0.09587125 0.0376163 0.16031155 0.06850755 0.15395656 -0.07803433 -0.24743652
0.14258397 0.4309217 -0.14033015 0.18348284 0.23435636 -0.22885643 -0.10855762 0.09062023
-0.04551407 -0.24341466 -0.37359458 -0.28406012 -0.119673364 -0.19504547 -0.23930083 -0.04874768
0.08819557 -0.13771549 0.0039301715 -0.1070087 -0.088271685 0.09405614 0.026764128 0.10373745
-0.2476255 -0.32297668 -0.27863914 0.09846019 0.11992744 0.035119906 0.16281833 0.25016907
0.23928806 0.0003416975 -0.27793077 0.024917724 0.10670327 0.20704933 -0.19932596 -0.2065279
0.23205501 -0.032400098 -0.08102589 -0.0717865 -0.03922986 -0.18451522 -0.2049584 -0.19244836
-0.09502316 -0.16497007 0.07854709 -0.13266286 0.00064965803 0.30832937 0.13957357 0.3143348
0.112056285 -0.10591735 -0.24833061 0.02496404 -0.0714389 0.14902274 0.07880346 -0.135685
-0.08965972 0.20330058 -0.030953502 -0.17308477 0.16857809 0.15059537 0.039761912 -0.011078379
0.04464225 -0.027528144 0.004237774 -0.23276676 -0.40391567 0.09341947 -0.13152206 -0.11306474
-0.07216925 0.23157705 -0.09666293 -0.1424611 -0.120502226 0.029819794 -0.022899443 0.1585902
0.13060416 0.18473305 -0.2832769 0.039521307 0.2560472 -0.19475447 0.14369856 0.3080629
0.16902146 0.021386983 -0.017020073 -0.058526833 0.29730147 0.060846575 -0.08888074 0.009862927
-0.13127422 0.011923912 -0.17897917 0.12617187 -0.24886276 -0.113630265 -0.042302083 -0.29724383
-0.11216362 -0.039734185 -0.017379094 -0.2078947 -0.2534615 0.06484195 0.12866518 0.28014576
0.07349897 -0.17130937 0.2002726 -0.14445166 0.0030526246 0.3020582 -0.10139619 -0.099953555
-0.06705737 -0.14815432 0.11763854 -0.21948987 0.15232515 0.20919132 0.06774062 -0.14906852
-0.2100854 -0.26890835 -0.06662876 0.19342257 -0.23083794 0.14326407 0.3402947 0.09019236
0.17527154 0.017133106 0.082693875 -0.15487629 0.022169437 -0.016757365 -0.21839988 0.06843201
-0.66196066 0.11720394 0.13960686 0.01427453 0.29387787 0.09788378 0.05967961 0.019420885
-0.19722296 0.2911188 -0.10167573 -0.2788149 -0.07316041 -0.14328425 -0.11783294 -0.092358105
0.1463322 0.14700398 0.02255407 -0.0067049563 -0.18602878 -0.027331853 0.09354251 0.09531652
0.06687429 0.26419252 0.1827534 0.17971005 -0.10978952 0.039758768 -0.015391479 0.24239329
0.014339213 -0.21900825 0.1875482 0.25858453 0.1327138 0.14191154 -0.38275883 0.155447
00000000: 2417 473e f841 923d 57c9 66be cc71 8ebd
00000010: 0eb1 063d 4c31 e03d 39d4 443e 47d6 c83e
00000020: a66e 683e 9104 7fbe 234b 9b3e 4627 a63e
00000030: 4ad0 6f3e 0dcb cd3d 46b9 20be 07fb eebc
00000040: b4cf c13d f7c0 1c3e 0a6c 13be 2848 29be
00000050: b531 8dbc 0e58 22be 28de 853d 8c5d 9bbd
00000060: 92fa c6bd 96cc 5a3b d39a 8f3c dfd4 e0bd
00000070: 2075 063e 33b4 953e 04d2 b03e d6b6 3e3e
00000080: e8e4 0d3e 881b 8bbd bcda 413e f415 593d
00000090: ed3c 35be c637 19bd b531 4dbe 0461 003e
000000a0: d786 b1bd 96c1 3b3d 3843 9ebd e150 733d
000000b0: 08dc ac3e 40b0 903d 371a 273e efd1 2b3e
000000c0: 2809 2abd 084b 4ebe 4986 a8bd 4f4a d43b
000000d0: 693c 8cbe 92e0 14be 9e07 71bd 6ec5 0c3e
000000e0: e8e5 473e 2558 c43d 8d13 1a3d b628 243e
000000f0: b04d 8c3d caa6 1d3e 76d0 9fbd 0060 7dbe
00000100: 8801 123e c5a1 dc3e b5b2 0fbe ede2 3b3e
00000110: 1dfb 6f3e 5759 6abe 7553 debd 1997 b93d
00000120: f66c 3abd b141 79be ca47 bfbe 5470 91be
00000130: 4f17 f5bd 00ba 47be 470b 75be a6ab 47bd
00000140: e19f b43d 4a05 0dbe abc8 803b 6127 dbbd
00000150: c9c7 b4bd 81a0 c03d 7240 db3c 4d74 d43d
00000160: 8a91 7dbe 335d a5be caa9 8ebe 7fa5 c93d
00000170: 859c f53d e4d9 0f3d d9b9 263e 2916 803e
00000180: ee07 753e dd25 b339 f14c 8ebe 4120 cc3c
00000190: 3e87 da3d bd04 543e 1b1c 4cbe 0d7c 53be
000001a0: d49f 6d3e f7b5 04bd e7f0 a5bd cd04 93bd
000001b0: 7daf 20bd 8ff1 3cbe 9de0 51be 2f11 45be
000001c0: 819b c2bd eaed 28be 4cdd a03d c6d8 07be
000001d0: d04d 2a3a 59dd 9d3e 60ec 0e3e 7ef0 a03e
000001e0: c47d e53d 32eb d8bd 614a 7ebe 6381 cc3c
000001f0: 8f4e 92bd 6b99 183e b563 a13d 02f1 0abe
00000200: 849f b7bd 072e 503e 3392 fdbc 223d 31be
00000210: bc9f 2c3e ac35 1a3e 63dd 223d 1782 35bc
00000220: cbda 363d b482 e1bc 06dd 8a3b 695a 6ebe
00000230: 09ce cebe b552 bf3d b8ad 06be 7d8e e7bd
00000240: 79cd 93bd 8922 6d3e 37f7 c5bd 53e1 11be
00000250: dfc9 f6bd a448 f43c 9d97 bbbc 7865 223e
00000260: 19bd 053e a92a 3d3e ab09 91be 18e1 213d
00000270: 9e18 833e b76d 47be b725 133e 6cba 9d3e
00000280: f613 2d3e c133 af3c ae6d 8bbc d5b9 6fbd
00000290: e637 983e 423a 793d 1b07 b6bd 1d98 213c
000002a0: c06c 06be 835c 433c 5146 37be 3333 013e
000002b0: e1d5 7ebe fcb6 e8bd f344 2dbd 5830 98be
000002c0: 0ab6 e5bd 50c0 22bd 9a5e 8ebc 59e2 54be
000002d0: b5c5 81be dbcb 843d cec0 033e 446f 8f3e
000002e0: a186 963d b96b 2fbe 4314 4d3e 23eb 13be
000002f0: 8b0e 483b 5fa7 9a3e cea8 cfbd 73b4 ccbd
00000300: 6055 89bd c4b5 17be 7aec f03d f4c1 60be
00000310: 20fb 1b3e 4036 563e 98bb 8a3d 6ba5 18be
00000320: a120 57be 5bae 89be a974 88bd 9110 463e
00000330: c860 6cbe d1b3 123e 1b3b ae3e c6b6 b83d
00000340: 627a 333e ba5a 8c3c 685b a93d e497 1ebe
00000350: ae9c b53c be46 89bc 38a4 5fbe 1526 8c3d
00000360: 4176 29bf 9f08 f03d 1af5 0e3e b8df 693c
00000370: 2977 963e 4b77 c83d 9b72 743d 8c18 9f3c
00000380: d1f4 49be 860d 953e 5d3b d0bd d4c0 8ebe
00000390: 20d5 95bd 1bb9 12be 6552 f1bd 3f26 bdbd
000003a0: 1cd8 153e 3688 163e 50c3 b83c 40b5 dbbb
000003b0: 547e 3ebe 0de7 dfbc 3793 bf3d 4f35 c33d
000003c0: 63f5 883d 3e44 873e b523 3b3e e905 383e
000003d0: 54d9 e0bd 17da 223d 8b2c 7cbc f235 783e
000003e0: 05ef 6a3c b343 60be a30c 403e 3165 843e
000003f0: 20e6 073e 4251 113e f7f8 c3be 802d 1f3e

block1.0.conv.bias f4 [8]
0.104042225 -0.13716081 0.15240014 0.04667612 0.1318139 -0.25148708 -0.1608124 0.047708087
00000000: 1714 d53d e273 0cbe c80e 1c3e 762f 3f3d
00000010: 39fa 063e eac2 80be 01ac 24be 8e69 433d

block1.0.BN.weight f4 [8]
0.9032285 1.0779365 0.9771498 0.878028 0.96255374 1.0206255 0.98226553 1.2224083
00000000: fc39 673f d3f9 893f 7d26 7a3f 71c6 603f
00000010: ec69 763f dba3 823f c175 7b3f e077 9c3f

block1.0.BN.bias f4 [8]
-0.051614314 0.11281839 0.10549195 -0.014150872 -0.071506254 -0.18774265 -0.3164563 0.15178202
00000000: 8869 53bd 540d e73d 2a0c d83d 0fd9 67bc
00000010: df71 92bd 9c3f 40be 8f06 a2be bf6c 1b3e

block1.0.BN.running_mean f4 [8]
1.3703027 0.07904284 -0.86438143 -0.06438249 0.30908763 -0.10256793 0.05879493 -0.1701066
00000000: 1466 af3f 36e1 a13d 1a48 5dbf f8da 83bd
00000010: bc40 9e3e 230f d2bd f4d2 703d 6d30 2ebe

block1.0.BN.running_var f4 [8]
0.83008724 0.41190755 0.347673 0.31228665 0.43451816 0.27731284 0.65031475 0.8863936
00000000: 9980 543f 8ce5 d23e 3202 b23e 09e4 9f3e
00000010: 2a79 de3e f3fb 8d3e 077b 263f b1ea 623f

block1.1.conv.weight f4 [16, 8, 3, 3]
-0.020406246 0.043505765 0.14114268 -0.024942689 0.014800656 0.03098772 0.058109768 0.15252577
-0.0006454389 0.22771312 0.17539673 0.0020196207 0.035823785 0.070814654 0.033959202 -0.24438158
-0.11874655 0.112058505 0.06672175 -0.033997092 -0.14492382 -0.051792357 -0.16015147 0.042398803
-0.22415274 0.24153389 0.38558355 0.028069539 -0.2643079 -0.1194705 -0.03230748 -0.1899104
-0.019152496 -0.12802508 -0.0035722307 -0.04781744 0.021581518 -0.050968226 0.16673161 -0.06277446
-0.25934285 -0.20936914 0.06486393 0.045143973 -0.08829535 0.090491794 0.1153045 0.30618924
0.05967964 0.09635116 0.34536356 0.17710838 0.20088378 0.20480058 -0.17819653 -0.016487647
0.118336804 -0.3384596 -0.2867406 0.018002786 -0.21038514 -0.14117137 0.12934908 0.21100093
0.17813781 0.04957978 0.06769799 0.29732564 -0.06379778 -0.016745165 0.14803714 0.11134333
-0.066000454 0.039748088 -0.018789893 -0.14283402 0.084150046 -0.13930583 0.16271079 0.008069165
-0.034681126 -0.38379952 -0.22643499 0.08854989 -0.23700514 -0.085496835 0.17177182 -0.121511854
0.050786834 0.19540657 -0.29215652 -0.051370032 -0.021599289 0.08574377 0.032119308 0.044670757
-0.12486548 0.12375521 0.06745969 -0.21847959 -0.1975835 0.11008424 -0.15224388 -0.018409222
0.006167618 0.18099496 0.22533417 0.3335321 0.104961224 0.040542185 0.082195304 0.15356675
0.10630555 0.17273897 -0.024281034 0.12813331 -0.056138936 0.10373103 -0.007972086 -0.15713787
-0.17324458 -0.18594171 0.049938634 -0.23408818 -0.0049775997 -0.14391863 -0.029087154 -0.3267601
-0.16746797 -0.30997542 -0.25391302 0.10297414 -0.14245623 -0.021186812 0.25130656 -0.2525975
-0.1259282 -0.04564027 -0.25090855 -0.06492458 0.05077613 -0.17401542 -0.08939124 0.121592745
-0.12975313 -0.10807928 -0.316688 0.024662059 -0.032749686 -0.27242243 -0.031628747 -0.09697136
0.07506918 -0.24905182 -0.2787339 -0.0071429503 0.0012890788 0.043870244 0.06593161 0.11872723
0.10120381 -0.2710612 -0.27809668 0.20929646 0.23682272 -0.06079451 -0.28511557 2.9103632e-05
-0.24073057 -0.29469293 0.030921822 -0.2956824 -0.065713674 0.16090338 -0.15255688 -0.121538304
-0.07512797 0.29722026 0.1763115 -0.03980437 0.10771744 -0.18875729 -0.310962 -0.018314945
0.053047374 -0.12946314 0.037278257 0.038521364 0.13423273 -0.1204853 -0.1367525 -0.39402518
-0.1232752 -0.2588068 -0.0998567 0.100956775 0.06988558 0.1129667 -0.0972231 -0.19319855
0.17467797 -0.25867876 -0.04978101 -0.06332645 -0.1333734 0.022603665 0.13405056 -0.16449143
0.13691717 0.008512246 -0.18417938 0.0048414744 -0.08154104 0.15227668 0.07067042 -0.15690923
-0.275296 0.15125646 -0.006025661 0.028399033 -0.037359323 0.09895434 0.062181734 -0.123515554
-0.3236072 -0.18674979 -0.17655735 -0.19093414 -0.0012178515 0.027714731 0.059153084 0.008117047
0.06366948 -0.5064165 0.16661182 -0.1373758 0.039932586 -0.056347594 0.023003025 0.027832827
0.062066503 0.1216877 -0.14550544 0.0040399656 0.1415311 -0.21446317 -0.06185994 0.06141684
-0.117288984 0.13553004 0.08503263 -0.08388345 -0.3747168 0.009812352 -0.2925169 -0.054614082
00000000: 002b a7bc 1a33 323d b587 103e 9c54 ccbc
00000010: 737e 723c f5d9 fd3c 8204 6e3d b72f 1c3e
00000020: ac32 29ba a12d 693e 339b 333e 9d5b 043b
00000030: f6bb 123d 4607 913d ce18 0b3d 2a3f 7abe
00000040: 6431 f3bd ee7e e53d 6aa5 883d 8940 0bbd
00000050: e966 14be 3924 54bd bffe 23be 5eaa 2d3d
00000060: 4c88 65be a954 773e 356b c53e 17f2 e53c
00000070: 5d53 87be f3ac f4bd d954 04bd df77 42be
00000080: b2e5 9cbc 0219 03be 161c 6abb 38dc 43bd
00000090: b9cb b03c 0fc4 50bd b1bb 2a3e e58f 80bd
000000a0: 96c8 84be dd64 56be 61d7 843d e3e8 383d
000000b0: 31d4 b4bd c353 b93d c424 ec3d d6c4 9c3e
000000c0: a372 743d c253 c53d 7ed3 b03e e65b 353e
000000d0: 7ab4 4d3e 3eb7 513e 2779 36be 1a11 87bc
000000e0: 915a f23d 944a adbe aacf 92be 947a 933c
000000f0: 346f 57be 3a8f 10be 1674 043e a110 583e
00000100: c269 363e 2b14 4b3d 3ea5 8a3d 113b 983e
00000110: 69a8 82bd 282d 89bc 0c97 173e f907 e43d
00000120: 3f2b 87bd e4ce 223d 43ed 99bc 1543 12be
00000130: dc56 ac3d 30a6 0ebe a89d 263e 8834 043c
00000140: cc0d 0ebd 5f81 c4be 93de 67be a559 b53d
00000150: 7ab1 72be f718 afbd f4e4 2f3e 35db f8bd
00000160: db05 503d a918 483e 8a95 95be 6269 52bd
00000170: fef0 b0bc 6e9a af3d 898f 033d aff8 363d
00000180: 79b9 ffbd 5f73 fd3d 4e28 8a3d 1db9 5fbe
00000190: 5453 4abe d973 e13d d2e5 1bbe f0ce 96bc
000001a0: bb19 ca3b be56 393e 00be 663e b8c4 aa3e
000001b0: e9f5 d63d 900f 263d 0356 a83d 9a40 1d3e
000001c0: b9b6 d93d 7ce2 303e 05e9 c6bc 6135 033e
000001d0: f1f1 65bd ef70 d43d 5a9d 02bc c0e8 20be
000001e0: 0767 31be 8167 3ebe 748c 4c3d d0b4 6fbe
000001f0: 221b a3bb 685f 13be 2f48 eebc 1a4d a7be
00000200: b97c 2bbe 19b5 9ebe e300 82be 1be4 d23d
00000210: 0ce0 11be f78f adbc 41ab 803e 7654 81be
00000220: 52f3 00be 4bf1 3abd 1677 80be 2ef7 84bd
00000230: a2fa 4f3d 1931 32be c112 b7bd 9e05 f93d
00000240: 01de 04be ab58 ddbd ee24 a2be 1608 ca3c
00000250: 8924 06bd f47a 8bbe 258d 01bd ec98 c6bd
00000260: dfbd 993d 7107 7fbe 36b6 8ebe 690f eabb
00000270: 4ff6 a83a 49b1 333d 2707 873d 4327 f33d
00000280: f143 cf3d 89c8 8abe b062 8ebe d051 563e
00000290: a881 723e aa03 79bd abfa 91be 9323 f437
000002a0: 1382 76be fee1 96be c34f fd3c af63 97be
000002b0: e494 86bd dbc3 243e df37 1cbe 13e9 f8bd
000002c0: b1dc 99bd 412d 983e 008b 343e e809 23bd
000002d0: f69a dc3d 9749 41be 6936 9fbe 3909 96bc
000002e0: 3448 593d fc91 04be 16b1 183d 94c8 1d3d
000002f0: 4e74 093e ffc0 f6bd d908 0cbe abbd c9be
00000300: b577 fcbd 5382 84be ab81 ccbd 6dc2 ce3d
00000310: 2c20 8f3d 165b e73d e81c c7bd d7d5 45be
00000320: c8de 323e 8b71 84be 2ce7 4bbd 4cb1 81bd
00000330: 0993 08be 522b b93c 8d44 093e 7170 28be
00000340: 0434 0c3e f376 0b3c 8599 3cbe 3ba5 9e3b
00000350: fdfe a6bd 6bee 1b3e a7bb 903d d0ac 20be
00000360: 99f3 8cbe f9e2 1a3e e872 c5bb 17a5 e83c
00000370: 1706 19bd 93a8 ca3d 46b2 7e3d b9f5 fcbd
00000380: d8af a5be 563b 3fbe 73cb 34be 3d84 43be
00000390: 51a0 9fba 010a e33c 814a 723d 5dfd 043c
000003a0: 2565 823d 83a4 01bf 4a9c 2a3e 3eac 0cbe
000003b0: 5a90 233d bccc 66bd d770 bc3c ab01 e43c
000003c0: 7239 7e3d 6737 f93d 61ff 14be b061 843b
000003d0: 87ed 103e 3c9c 5bbe d960 7dbd 3990 7b3d
000003e0: 3535 f0bd 63c8 0a3e 9625 ae3d 16cb abbd
000003f0: e1da bfbe fdc3 203c c6c4 95be 04b3 5fbd

block1.1.conv.bias f4 [16]
0.2810175 0.115389206 -0.01587561 0.083048575 -0.05026014 0.019721296 0.08926486 -0.08136283
0.071327865 0.14753693 -0.13817066 0.018532641 0.1976549 -0.12155261 -0.11054355 0.010868471
00000000: 87e1 8f3e 2d51 ec3d 910d 82bc 5f15 aa3d
00000010: 94dd 4dbd 8e8e a13c 7fd0 b63d 8ea1 a6bd
00000020: 5814 923d ec13 173e 9c7c 0dbe c4d1 973c
00000030: 0c66 4a3e 93f0 f8bd a864 e2bd ac11 323c

block1.1.BN.weight f4 [16]
0.9128951 1.1061549 1.0970244 1.1862181 0.94707966 1.0559154 1.2478877 1.0324224
0.9777546 1.0871496 1.2233688 0.9417851 0.8988436 1.1632024 0.9077895 0.9359815
00000000: 7eb3 693f 7c96 8d3f 4c6b 8c3f ffd5 973f
00000010: d073 723f 3c28 873f c9ba 9f3f 6b26 843f
00000020: 204e 7a3f b827 8b3f 5997 9c3f d418 713f
00000030: 9d1a 663f d1e3 943f e564 683f 7c9c 6f3f

block1.1.BN.bias f4 [16]
-0.31341958 0.06020592 0.0020145653 -0.10186215 -0.09409431 -0.07625452 0.0776018 -0.025372347
0.05048727 0.011102399 -0.07127513 -0.009904548 -0.27745694 0.020555386 -0.02062982 -0.02276505
00000000: 8878 a0be 7c9a 763d cc06 043b 1a9d d0bd
00000010: 85b4 c0bd 542b 9cbd b1ed 9e3d abd9 cfbc
00000020: bdcb 4e3d d6e6 353c b2f8 91bd af46 22bc
00000030: d60e 8ebe c563 a83c deff a8bc c57d babc

block1.1.BN.running_mean f4 [16]
0.9432572 -0.78980154 -1.4173919 -1.1055145 0.29488832 -1.3539532 -1.9657029 -1.08855
-0.3748367 -0.6129141 -1.1915011 -1.5002795 0.0014422915 -0.34968227 -1.2800415 0.41865543
00000000: 4e79 713f 6f30 4abf 196d b5bf 8081 8dbf
00000010: 9afb 963e 574e adbf 279c fbbf 9b55 8bbf
00000020: 99ea bfbe f0e7 1cbf 1c83 98bf 2909 c0bf
00000030: 460b bd3a 8e09 b3be 66d8 a3bf 015a d63e

block1.1.BN.running_var f4 [16]
1.7089987 1.1473757 1.4515343 1.9214915 1.0683686 1.4998891 4.917208 1.706784
0.90731084 1.357631 1.6337337 2.025194 0.8049231 1.7496613 1.165944 1.416089
00000000: 78c0 da3f 35dd 923f e0cb b93f 6ff3 f53f
00000010: 4dc0 883f 5efc bf3f c559 9d40 e677 da3f
00000020: 8645 683f dac6 ad3f 301e d13f c79c 0140
00000030: 710f 4e3f e7f4 df3f a73d 953f 6842 b53f

block1.2.conv.weight f4 [8, 16, 3, 3]
0.08614053 -0.06146149 -0.008243944 0.1361217 0.28085905 0.18033358 -0.048180457 0.1872145
0.07158388 -0.22570996 -0.3044032 0.069348514 -0.16858317 0.017061923 0.0974113 -0.19054939
-0.23613757 -0.09040585 -0.10693075 -0.16745389 -0.08597799 0.10929195 -0.025265843 0.09035381
-0.1304707 -0.2365813 -0.360734 -0.046672218 0.18707179 0.017741952 0.06417155 0.42097718
0.14917485 -0.12632462 -0.12470204 -0.1809553 -0.060605273 0.05652207 0.24341719 0.026586466
-0.08474236 0.019392896 0.048992902 -0.008015377 0.11052014 -0.079062946 0.043210577 0.11282513
0.032659896 -0.12071711 0.09453576 -0.34263784 -0.26684007 -0.21488462 0.02208125 -0.12893082
0.073228344 0.1348878 -0.015682241 -0.008419351 -0.07570299 -0.085229 -0.05062878 -0.26024118
-0.31367382 -0.0743509 -0.15554821 -0.055205148 -0.025177253 -0.0018569027 -0.30395368 -0.05796342
0.21886635 0.08559918 0.19324806 0.05535843 0.03719144 -0.017149922 -0.101012565 0.009072061
0.18630943 -0.11200804 -0.06650737 -0.09274424 -0.17208318 -0.08725008 0.08468345 -0.17075312
-0.15913215 0.17715222 -0.22846998 -0.074990995 0.14481567 -0.09636121 -0.07746008 -0.18836145
0.14866164 0.17534737 0.06619953 -0.19494711 -0.1605414 -0.17522985 0.032164995 -0.25594553
-0.25031 0.2487822 -0.1740889 -0.26505798 0.08029524 0.18586703 0.15277657 0.07069778
0.16193575 0.09248659 0.21189381 0.18023011 0.13406992 -0.24299036 -0.16747716 -0.2026377
0.052540243 0.034722332 0.021826597 -0.1931505 0.11937364 0.12134818 0.029849421 0.0147931315
-0.03914423 -0.12537242 -0.23206368 0.009855522 -0.07687187 -0.26365644 -0.41890097 -0.23571086
-0.08003502 -0.07854395 -0.14688031 0.0049230894 0.045864202 -0.12428605 -0.05356833 -0.009436674
0.10613232 0.12158875 -0.033132676 -0.14198424 -0.05387013 0.11853537 -0.043779276 -0.034240924
-0.278262 -0.079443686 -0.14857405 -0.16217493 -0.039013136 -0.061669923 0.1423861 -0.18816876
-0.10456787 -0.014875696 0.09341762 0.09179993 -0.15322219 -0.073346496 0.010048616 0.03248851
-0.0013854677 -0.2981001 -0.34706903 -0.056476656 0.072681144 0.11526353 0.08369485 0.15061276
-0.012050633 0.120821595 -0.26392365 -0.28369498 -0.16951288 -0.26945063 -0.33361116 0.061502814
0.2041824 -0.098330826 -0.31856063 0.12619436 0.22380726 -0.17844523 0.045950726 -0.20337826
-0.083194345 -0.13385695 -0.12755698 -0.020191666 -0.068484105 0.11552657 0.14120959 0.14074112
-0.031720307 0.19092287 0.15808016 0.16853614 -0.04427315 -0.07854764 0.038357098 -0.24791777
-0.1765982 0.085047 -0.039982766 0.04026659 -0.11183586 0.20640261 0.13125752 -0.1426578
0.10181285 0.19751118 -0.19032206 -0.08272795 0.1632065 -0.014924796 -0.4692017 0.08822283
-0.017062455 -0.36076486 -0.11943845 0.24782655 -0.18316612 -0.1872925 -0.031598557 -0.06703956
0.08249359 0.16839679 0.080544606 0.17037435 0.06964199 0.15687825 0.11304039 -0.087226
0.22415017 -0.023978261 0.033971783 0.016942555 -0.14448418 0.073911436 0.084798776 -0.039640494
-0.03523312 0.13730164 -0.2050271 0.17995508 0.12522481 0.11584642 0.16577928 0.0065389466
00000000: 726a b03d 0bbf 7bbd 9b11 07bc 7d63 0b3e
00000010: c2cc 8f3e 5ea9 383e df58 45bd 28b5 3f3e
00000020: 929a 923d 8320 67be bcda 9bbe 9806 8e3d
00000030: 11a1 2cbe 72c5 8b3c 937f c73d 611f 43be
00000040: 0cce 71be b426 b9bd 82fe dabd 0879 2bbe
00000050: 3a15 b0bd 75d4 df3d 50fa cebc 6b0b b93d
00000060: 1c9a 05be 5e42 72be 20b2 b8be 5e2b 3fbd
00000070: bf8f 3f3e 9257 913c 606c 833d 528a d73e
00000080: 4bc1 183e 3e5b 01be c863 ffbd 594c 39be
00000090: 3c3d 78bd b083 673d 5b42 793e dccb d93c
000000a0: 678d adbd dadd 9e3c c8ac 483d ee52 03bc
000000b0: 6258 e23d c1eb a1bd 93fd 303d dd10 e73d
000000c0: 62c6 053d 883a f7bd f79b c13d 3a6e afbe
000000d0: 439f 88be b70a 5cbe bde3 b43c 7106 04be
000000e0: bef8 953d 0720 0a3e 0b78 80bc 51f1 09bc
000000f0: 2b0a 9bbd 8b8c aebd 2060 4fbd 553e 85be
00000100: db99 a0be 4945 98bd 0848 1fbe cb1e 62bd
00000110: 8740 cebc 5163 f3ba d19f 9bbe 0d6b 6dbd
00000120: 801e 603e 9f4e af3d d2e2 453e 85bf 623d
00000130: 0d56 183d fe7d 8cbc addf cebd fba2 143c
00000140: e6c7 3e3e 7964 e5bd 0435 88bd b1f0 bdbd
00000150: 9336 30be 2cb0 b2bd 846e ad3d e8d9 2ebe
00000160: 8af3 22be 6467 353e 09f4 69be e194 99bd
00000170: 8f4a 143e 0759 c5bd 64a3 9ebd d3e1 40be
00000180: c23a 183e 438e 333e 9f93 873d 37a0 47be
00000190: f764 24be 746f 33be 71bf 033d 4b0b 83be
000001a0: a228 80be c3c0 7e3e 5c44 32be aeb5 87be
000001b0: d571 a43d ed53 3e3e 7671 1c3e ffc9 903d
000001c0: 7cd2 253e 9c69 bd3d b1fa 583e 3e8e 383e
000001d0: a049 093e 77d2 78be 227f 2bbe 4280 4fbe
000001e0: 7034 573d 0139 0e3d b1cd b23c 3fc9 45be
000001f0: 2b7a f43d 6585 f83d c686 f43c e45e 723c
00000200: b355 20bd a161 00be 1aa2 6dbe 0e79 213c
00000210: 006f 9dbd fafd 86be 307a d6be 305e 71be
00000220: 67e9 a3bd a7db a0bd cb67 16be de51 a13b
00000230: 1adc 3b3d af89 febd 776a 5bbd 489c 1abc
00000240: e75b d93d 8603 f93d 21b6 07bd 5164 11be
00000250: eda6 5cbd acc2 f23d e651 33bd 3640 0cbd
00000260: 5b78 8ebe 5fb3 a2bd cc23 18be 2f11 26be
00000270: 3dcc 1fbd 9a99 7cbd a9cd 113e 50af 40be
00000280: ae27 d6bd 31b9 73bc bd51 bf3d 9a01 bc3d
00000290: 47e6 1cbe b036 96bd f3a2 243c ac12 053d
000002a0: 9598 b5ba 94a0 98be 08b3 b1be 1154 67bd
000002b0: dad9 943d 490f ec3d 3568 ab3d 3b3a 1a3e
000002c0: 0570 45bc 5071 f73d 0021 87be 7840 91be
000002d0: c994 2dbe 6ff5 89be 15cf aabe 60ea 7b3d
000002e0: 3115 513e ac61 c9bd 611a a3be 1839 013e
000002f0: bb2d 653e 59ba 36be d436 3c3d 6442 50be
00000300: cc61 aabd cc11 09be 4c9e 02be fe68 a5bc
00000310: 6541 8cbd 3299 ec3d 3f99 103e 711e 103e
00000320: 27ed 01bd 4981 433e c4df 213e bd94 2c3e
00000330: c357 35bd 96dd a0bd 551c 1d3d 28de 7dbe
00000340: 29d6 34be 1f2d ae3d f8c4 23bd 94ee 243d
00000350: 330a e5bd 355b 533e 5f68 063e e314 12be
00000360: 4183 d03d 5f40 4a3e c9e3 42be 456d a9bd
00000370: 9b1f 273e 2287 74bc 353b f0be 2cae b43d
00000380: 90c6 8bbc 2cb6 b8be 259c f4bd 3ec6 7d3e
00000390: e68f 3bbe 9bc9 3fbe 7d6d 01bd 094c 89bd
000003a0: 66f2 a83d 3570 2c3e 92f4 a43d 9d76 2e3e
000003b0: 76a0 8e3d b1a4 203e b881 e73d 8ca3 b2bd
000003c0: 9f87 653e 0f6e c4bc ff25 0b3d 1dcb 8a3c
000003d0: a9f3 13be e15e 973d fbaa ad3d 125e 22bd
000003e0: 9b50 10bd cd98 0c3e a0f2 51be 2546 383e
000003f0: ef3a 003e e340 ed3d 0bc2 293e a944 d63b

block1.2.conv.bias f4 [8]
0.08608306 0.024155986 -0.13395326 -0.068266034 0.061581116 -0.13852409 -0.114496276 0.10701576
00000000: 514c b03d c6e2 c53c 0b2b 09be 10cf 8bbd
00000010: 7b3c 7c3d 42d9 0dbe 067d eabd 142b db3d

block1.2.BN.weight f4 [8]
0.9693253 1.1321888 1.0014684 0.9850167 1.0927286 1.0169882 1.0469097 0.91122043
00000000: b425 783f 90eb 903f 1e30 803f 0e2a 7c3f
00000010: 88de 8b3f ab2c 823f 2301 863f be45 693f

block1.2.BN.bias f4 [8]
-0.12132017 0.13595466 -0.13379434 0.08091432 -0.052538987 -0.16915718 -0.14811909 -0.042653244
00000000: b676 f8bd b337 0b3e 6201 09be 68b6 a53d
00000010: 1f33 57bd 8a37 2dbe 88ac 17be 2bb5 2ebd

block1.2.BN.running_mean f4 [8]
-2.0174758 -0.96442264 0.44432244 -2.7368877 -0.87654865 -1.7537491 -0.33590925 0.71453387
00000000: 531e 01c0 67e4 76bf 3b7e e33e 2b29 2fc0
00000010: 7e65 60bf da7a e0bf 4cfc abbe b1eb 363f

block1.2.BN.running_var f4 [8]
2.2625668 1.0265635 1.9766027 2.314904 2.3510783 1.6453617 1.3588576 1.2311703
00000000: e5cd 1040 6f66 833f 5101 fd3f 6327 1440
00000010: 1178 1640 369b d23f 0cef ad3f fd96 9d3f

block1.3.conv.weight f4 [4, 8, 3, 3]
-0.3516515 -0.21004996 -0.067940794 -0.38107356 -0.009332511 -0.17120053 -0.014502793 0.07602053
-0.074689254 0.20917538 0.0772858 -0.08496879 -0.1375404 -0.023246257 -0.019051824 0.13346812
0.047069646 0.42691132 0.22382611 -0.05796461 0.06316905 -0.06514997 -0.12845378 -0.09695959
-0.003851636 0.021167286 0.077251285 0.12026012 0.12367262 0.13691236 -0.13560371 0.02191972
0.058803163 5.514736e-05 0.113439314 -0.008435642 0.20131198 -0.12665385 -0.0678387 -0.14514112
-0.10109757 -0.013011852 -0.057489235 0.09611691 0.2407345 0.11212542 0.17338413 0.27678624
0.2799459 0.23561437 0.17765701 0.06918181 -0.11260185 0.14399426 0.104769714 0.20193516
0.11417076 -0.03736972 0.34871066 0.16380146 -0.13890746 0.09709909 0.26185063 -0.006190993
0.010048756 0.119474635 -0.028876798 -0.08012327 0.024874201 -0.06013188 -0.011878327 0.27416793
-0.38371116 -0.1288798 -0.20376095 -0.2547583 -0.03064468 -0.0025449793 0.028582528 -0.008737878
0.08932903 -0.2638563 -0.30803916 -0.22742818 -0.24341041 -0.23087075 -0.00898728 -0.017983159
0.06054571 0.18770824 -0.051948953 -0.028612785 0.15242538 0.16343926 0.13508253 0.15310068
0.114544034 -0.05134781 0.039788764 -0.19188364 -0.18988892 -0.090889 -0.031130154 -0.06856333
-0.15452322 -0.21178813 -0.025570372 -0.07535644 -0.39649755 -0.17933731 0.027277268 0.13112582
0.14118837 -0.09444764 -0.250723 -0.08514863 -0.2011652 0.09349614 -0.08152857 -0.0835794
0.11313908 -0.12913275 0.079659864 -0.14874548 -0.21102013 -0.11370679 0.22266439 0.17355867
0.16128843 0.06700581 0.15702218 0.13251026 0.08190686 -0.013845352 -0.0501389 0.19904353
0.1755592 0.0004378925 0.05637385 0.2697673 0.035353124 -0.06979706 0.048365526 0.09466402
0.08818545 -0.045141175 0.07853683 -0.018443946 -0.09256646 -0.055563994 0.09072485 -0.06962106
-0.12952358 0.0072675836 0.0017894427 -0.17389211 0.29437396 0.056650892 -0.18752688 0.24317229
0.12662686 -0.17952932 -0.18072322 -0.0035159888 -0.0238436 -0.11610961 -0.24410644 -0.17576964
-0.24152084 -0.422176 -0.5860166 0.2948204 0.23835503 0.047696028 0.11313297 0.17087582
0.12985139 -0.03020056 0.09787525 0.0105245365 0.18317442 0.09460417 -0.0064491085 0.1822153
0.11502459 -0.16171318 -0.06723574 0.09682389 -0.13499929 0.03323407 0.07216321 0.09127623
-0.17751658 0.11285008 0.18058732 -0.12133756 0.07403381 0.2152319 -0.07697708 0.2146261
0.18077938 0.028571054 0.15915066 0.17815368 0.06763033 0.15701221 0.24122608 0.25611854
0.15879963 0.01575849 -0.10751138 -0.06279632 -0.16589954 0.11855891 0.13330588 0.0017197465
0.13097139 0.05348315 -0.20942305 0.0070136553 0.047137905 0.0053505823 0.08433278 0.15936683
0.29019997 0.06495947 0.030289685 -0.0003749544 -0.010412646 -0.1307501 -0.04469208 0.3731455
0.06352536 -0.112644516 -0.03316322 -0.23697557 -0.010412242 0.20420207 0.0055750418 -0.08091276
0.084382646 0.21880516 0.1379104 0.016030014 0.036996245 -0.087723576 0.122629665 0.16260846
0.22420824 -0.29241514 -0.19118693 -0.22483552 -0.048043184 -0.39378914 -0.35971192 -0.043822832
00000000: aa0b b4be 5617 57be 8b24 8bbd 131c c3be
00000010: 63e7 18bc 314f 2fbe 1f9d 6dbc a7b0 9b3d
00000020: aef6 98bd 1232 563e 0448 9e3d 1e04 aebd
00000030: 64d7 0cbe ef6e bebc 9212 9cbc deab 083e
00000040: 1acc 403d 1f94 da3e ac32 653e 4d6c 6dbd
00000050: c65e 813d 596d 85bd 6389 03be c092 c6bd
00000060: bb6b 7cbb 0467 ad3c ec35 9e3d f04a f63d
00000070: 1248 fd3d c132 0c3e b3db 0abe fc90 b33c
00000080: 96db 703d 074e 6738 df52 e83d a635 0abc
00000090: ba24 4e3e 8cb1 01be 04ef 8abd e09f 14be
000000a0: 3e0c cfbd aa2f 55bc d579 6bbd f1d8 c43d
000000b0: 1b83 763e 03a2 e53d 9c8b 313e edb6 8d3e
000000c0: 1255 8f3e e544 713e b8eb 353e 31af 8d3d
000000d0: cc9b e6bd 3b73 133e 8191 d63d 17c8 4e3e
000000e0: 5cd2 e93d fe10 19bd 348a b23e 92bb 273e
000000f0: c23d 0ebe e3db c63d 4911 863e d0dd cabb
00000100: 8aa3 243c 1eaf f43d 098f ecbc ab17 a4bd
00000110: fbc4 cb3c d94c 76bd 509d 42bc bd5f 8c3e
00000120: ca75 c4be 11f9 03be b6a6 50be ae6f 82be
00000130: 8d0a fbbc abc9 26bb e825 ea3c 5129 0fbc
00000140: 23f2 b63d 2c18 87be 4fb7 9dbe efe2 68be
00000150: 9440 79be 6269 6cbe 623f 13bc 6b51 93bc
00000160: c7fe 773d 9736 403e 6dc8 54bd 5c65 eabc
00000170: 6615 1c3e 9f5c 273e 1353 0a3e 6dc6 1c3e
00000180: 1096 ea3d 1552 52bd 8bf9 223d 257d 44be
00000190: 3e72 42be 0324 babd aa04 ffbc ee6a 8cbd
000001a0: 563b 1ebe fdde 58be f578 d1bc 7a54 9abd
000001b0: ba01 cbbe 33a4 37be 9474 df3c d945 063e
000001c0: af93 103e c46d c1bd c45e 80be 6862 aebd
000001d0: 40fe 4dbe e77a bf3d 73f8 a6bd ad2b abbd
000001e0: 76b5 e73d 603b 04be b624 a33d bc50 18be
000001f0: a915 58be 1bdf e8bd 2202 643e 5db9 313e
00000200: cb28 253e 583a 893d 6cca 203e c5b0 073e
00000210: c9be a73d 9ed7 62bc 725e 4dbd 11d2 4b3e
00000220: cac5 333e f094 e539 44e8 663d f11e 8a3e
00000230: 70ce 103d c3f1 8ebd ee1a 463d 36df c13d
00000240: 939a b43d f4e5 38bd ebd7 a03d c217 97bc
00000250: 7c93 bdbd 1297 63bd f3cd b93d 7c95 8ebd
00000260: d4a1 04be e924 ee3b bc8b ea3a c610 32be
00000270: 2fb8 963e c40a 683d 0c07 40be 2802 793e
00000280: 79aa 013e 89d6 37be 820f 39be 816c 66bb
00000290: a753 c3bc e0ca edbd 0af7 79be f5fc 33be
000002a0: 3d51 77be 7427 d8be 2f05 16bf b3f2 963e
000002b0: 5713 743e e95c 433d 42b2 e73d 12fa 2e3e
000002c0: c3f7 043e 2a67 f7bc d272 c83d 1b6f 2c3c
000002d0: 1392 3b3e d5bf c13d 0b53 d3bb a696 3a3e
000002e0: 0392 eb3d 2498 25be e4b2 89bd 9b4b c63d
000002f0: 413d 0abe 7320 083d 4eca 933d 08ef ba3d
00000300: e8c6 35be f11d e73d e2eb 383e d47f f8bd
00000310: 0a9f 973d c065 5c3e 29a6 9dbd f2c6 5b3e
00000320: 3b1e 393e d80d ea3c 64f8 223e eb6d 363e
00000330: c581 8a3d cfc7 203e f803 773e f821 833e
00000340: 5f9c 223e f317 813c ed2e dcbd 5b9b 80bd
00000350: 92e1 29be 04cf f23d 5681 083e 1e69 e13a
00000360: 5d1d 063e 2611 5b3d ff72 56be ced2 e53b
00000370: ad13 413d f053 af3b aab6 ac3d 0f31 233e
00000380: 1795 943e 7809 853d 1322 f83c 8795 c4b9
00000390: ce99 2abc 5be3 05be 0b0f 37bd ed0c bf3e
000003a0: 9519 823d 2bb2 e6bd 28d6 07bd b9a9 72be
000003b0: 1c98 2abc 591a 513e d7ae b63b 97b5 a5bd
000003c0: cfd0 ac3d 760e 603e 6238 0d3e 6051 833c
000003d0: 6089 173d 6ba8 b3bd 4325 fb3d d582 263e
000003e0: d896 653e 70b7 95be 82c6 43be 483b 66be
000003f0: eec8 44bd bb9e c9be 292c b8be 927f 33bd

block1.3.conv.bias f4 [4]
0.17228782 -0.2626449 0.082172625 0.057840973
00000000: 386c 303e 6479 86be 1f4a a83d a8ea 6c3d

block1.3.BN.weight f4 [4]
0.9276363 1.0570928 0.9488533 1.0814031
00000000: 9379 6d3f d14e 873f 0de8 723f 6b6b 8a3f

block1.3.BN.bias f4 [4]
-0.054913383 -0.05204077 -0.06912557 -0.07638017
00000000: dbec 60bd b428 55bd b591 8dbd 356d 9cbd

block1.3.BN.running_mean f4 [4]
1.1445802 -1.2660805 0.7504178 -0.39816424
00000000: 9b81 923f ed0e a2bf 621b 403f 2fdc cbbe

block1.3.BN.running_var f4 [4]
1.1414611 3.6844208 2.1022868 0.7404876
00000000: 661b 923f 8dcd 6b40 de8b 0640 9890 3d3f

block2.0.conv.weight f4 [8, 4, 3, 3]
0.043267086 0.23768504 0.27278265 -0.09180348 -0.20577496 -0.20642371 -0.18642406 -0.24679299
-0.057395365 -0.067360446 -0.042782154 -0.019315863 -0.09335878 -0.006905013 -0.05096509 -0.0023732614
0.033646815 -0.14704594 -0.10531627 -0.07943024 -0.079096876 -0.023759045 -0.040763903 -0.03809455
-0.056514468 0.08886681 -0.016051944 -0.041715853 -0.49904937 -0.16875182 -0.31629008 -0.36725137
-0.07029454 -0.62998843 -0.17151842 -0.08835684 -0.007508917 -0.22778961 -0.24406178 -0.21229304
0.020924632 -0.1309681 0.055182148 -0.063100465 0.039480437 -0.4734263 -0.4765164 -0.4242777
-0.011380726 -0.14129627 -0.031832498 0.05191667 -0.087562926 -0.18292841 -0.13772646 -0.15336116
-0.02681666 -0.088447094 0.12112995 0.1152251 0.07738895 0.09955016 -0.14213823 0.17917547
-0.020731421 0.09400543 0.25239223 0.24525943 0.1642186 -0.21624795 -0.11692639 0.15527314
-0.20598185 0.1729474 0.14818521 -0.12364853 -0.08690519 -0.016198236 -0.25925505 -0.2588162
0.081079885 -0.050376177 0.038817614 -0.09391145 -0.034457877 0.19339767 0.12101273 0.15298986
0.17665729 0.05147579 0.18165396 0.32480216 0.115921065 0.13587388 -0.08222178 -0.07556646
0.17927071 0.46915767 0.35037982 -0.005006149 -0.009086681 -0.22214842 -0.04250629 0.17445493
0.19149163 -0.068228655 -0.002773345 -0.036692116 -0.08505845 -0.13833034 0.038914666 -0.39619356
0.0019123759 0.076508276 -0.20657776 0.0720799 0.10130652 0.119195834 0.049441375 0.1774247
-0.16398683 -0.13925812 -0.07014415 -0.30700833 -0.38967517 -0.21180068 0.14908446 0.06700381
0.21810246 -0.12574688 -0.21954553 -0.04005836 0.083077565 0.08788432 -0.07440245 -0.261372
0.20448557 0.102835275 0.15102626 -0.05731148 -0.091366254 -0.30256402 0.076589614 -0.31765446
-0.19767454 0.11063443 -0.017473336 0.276624 0.19730599 0.009874001 -0.17813833 -0.19226226
-0.119400516 -0.1831001 0.07597254 0.20369707 0.1677055 -0.027752785 -0.004724185 0.047642853
0.1635113 0.053299952 0.1698135 -0.21087924 -0.24743366 0.30650824 -0.11764208 -0.1287686
0.18845023 0.21691701 0.07851663 0.019935703 0.24349324 -0.019274164 0.00039850033 0.17003459
0.08656504 -0.20480458 -0.13924855 -0.402267 -0.17300704 0.28589493 0.3135224 -0.17345828
0.11936566 -0.17367452 0.054143827 -0.07331081 -0.09396241 -0.15454459 0.02050892 0.028465923
0.03408478 0.13311806 0.04814025 -0.042828426 -0.021810105 0.23036459 -0.12522316 0.06617466
0.11643513 -0.23465191 -0.050152414 -0.22347501 0.11304996 0.05971584 -0.29356614 -0.23883651
-0.24930094 -0.15575765 0.26563963 0.29488263 -0.13241896 -0.17528233 -0.15903142 0.12513736
-0.05281473 -0.13141958 0.022940658 0.10935693 0.05025511 -0.06248342 0.108957715 0.03621377
0.14400582 -0.042480767 -0.1264978 -0.13713679 -0.0891221 -0.36606702 -0.27881005 0.3761654
0.04046331 -0.3512426 -0.26768515 -0.1422487 0.10044592 -0.32366052 -0.005493425 0.12979631
-0.030701822 -0.04924897 0.2176647 0.009748178 -0.12506267 0.24666263 -0.0031335847 -0.18036805
-0.20284139 0.13254134 0.28696924 0.22231004 -0.23889264 0.3381818 0.30206937 -0.21497166
00000000: d438 313d b563 733e 2baa 8b3e 7703 bcbd
00000010: acb6 52be bd60 53be f3e5 3ebe 4db7 7cbe
00000020: 6717 6bbd 46f4 89bd 573c 2fbd 4d3c 9ebc
00000030: e332 bfbd 7343 e2bb c5c0 50bd b888 1bbb
00000040: 3ed1 093d 3693 16be 0eb0 d7bd 52ac a2bd
00000050: 8bfd a1bd 54a2 c2bc 0df8 26bd 0809 1cbd
00000060: b77b 67bd cdff b53d 5e7f 83bc 3ede 2abd
00000070: 6683 ffbe 47cd 2cbe c6f0 a1be 5f08 bcbe
00000080: 95f6 8fbd ec46 21bf 86a2 2fbe 6ef4 b4bd
00000090: 5c0d f6bb ae41 69be 55eb 79be 5963 59be
000000a0: 226a ab3c 801c 06be ad06 623d d13a 81bd
000000b0: 3db6 213d ef64 f2be f5f9 f3be ed3a d9be
000000c0: 3976 3abc f8af 10be cb62 02bd 93a6 543d
000000d0: 3154 b3bd 9651 3bbe 2a08 0dbe b50a 1dbe
000000e0: 9dae dbbc c023 b5bd fb12 f83d 23fb eb3d
000000f0: 197e 9e3d f4e0 cb3d af8c 11be c679 373e
00000100: f1d4 a9bc eb85 c03d 8e39 813e 4a25 7b3e
00000110: ec28 283e 1a70 5dbe 1a77 efbd ecff 1e3e
00000120: e8ec 52be 2019 313e ddbd 173e 713b fdbd
00000130: 59fb b1bd 2ab2 84bc 14bd 84be 8f83 84be
00000140: 360d a63d 4057 4ebd 38ff 1e3d a554 c0bd
00000150: b423 0dbd 0a0a 463e 86d5 f73d 60a9 1c3e
00000160: a6e5 343e 47d8 523d 7f03 3a3e 784c a63e
00000170: 0668 ed3d 8622 0b3e e563 a8bd 97c2 9abd
00000180: be92 373e 6f35 f03e fc64 b33e 9f0a a4bb
00000190: 4de0 14bc e07a 63be 131b 2ebd 50a4 323e
000001a0: 6216 443e 77bb 8bbd 02c1 35bb 794a 16bd
000001b0: 2033 aebd 78a6 0dbe fc64 1f3d e2d9 cabe
000001c0: b0a8 fa3a 5fb0 9c3d 1f89 53be a09e 933d
000001d0: cb79 cf3d f21c f43d 0a83 4a3d d2ae 353e
000001e0: 2aec 27be ae99 0ebe bca7 8fbd 3230 9dbe
000001f0: 8183 c7be 47e2 58be 99a9 183e 4b39 893d
00000200: 4056 5f3e cac3 00be 8bd0 60be 3c14 24bd
00000210: 9224 aa3d b2fc b33d 5060 98bd 8dd2 85be
00000220: aa64 513e 4d9b d23d a1a6 1a3e 71bf 6abd
00000230: 3b1e bbbd ace9 9abe 04db 9c3d 9ba3 a2be
00000240: 326b 4abe 4e94 e23d 3e24 8fbc a9a1 8d3e
00000250: 950a 4a3e 90c6 213c e569 36be 66e0 44be
00000260: 4288 f4bd 987e 3bbe 7e97 9b3d f795 503e
00000270: feba 2b3e cf59 e3bc 56cd 9abb 2725 433d
00000280: 826f 273e 0d51 5a3d 97e3 2d3e baf0 57be
00000290: 405f 7dbe a6ee 9c3e 55ee f0bd eadb 03be
000002a0: 19f9 403e 7e1f 5e3e 54cd a03d 3350 a33c
000002b0: 4b56 793e dae4 9dbc cfed d039 8c1d 2e3e
000002c0: 0349 b13d 4bb8 51be 2c97 0ebe f1f5 cdbe
000002d0: c228 31be d260 923e 0286 a03e 0c9f 31be
000002e0: fc75 f43d bcd7 31be ebc5 5d3d fa23 96bd
000002f0: 5d6f c0bd f040 1ebe 5302 a83c 5e31 e93c
00000300: 7b9c 0b3d 1a50 083e b62e 453d dc6c 2fbd
00000310: 1bab b2bc b2e4 6b3e 803a 00be 9586 873d
00000320: 8b75 ee3d 9748 70be 9e6c 4dbd a2d6 64be
00000330: bd86 e73d 9998 743d 4d4e 96be 8f91 74be
00000340: bf48 7fbe ef7e 1fbe eb01 883e dbfa 963e
00000350: d698 07be 367d 33be 22d9 22be 0224 003e
00000360: 4254 58bd db92 06be 0cee bb3c 87f6 df3d
00000370: 4dd8 4d3d 9dee 7fbd 3925 df3d e454 143d
00000380: 4376 133e 5000 2ebd a488 01be 966d 0cbe
00000390: a685 b6bd 236d bbbe 31c0 8ebe c098 c03e
000003a0: dbbc 253d 12d6 b3be 070e 89be a5a9 11be
000003b0: 97b6 cd3d d5b6 a5be 3002 b4bb 53e9 043e
000003c0: 6382 fbbc 4ab9 49bd 7fe3 5e3e d2b6 1f3c
000003d0: 6e10 00be 2195 7c3e d45c 4dbb 67b2 38be
000003e0: a7b5 4fbe ebb8 073e a2ed 923e 3ea5 633e
000003f0: 46a0 74be 2a26 ad3e d6a8 9a3e 8821 5cbe

block2.0.conv.bias f4 [8]
0.096504726 0.09438197 -0.20432751 -0.1040905 -0.17969128 0.009309631 0.10665862 0.047812413
00000000: 45a4 c53d 564b c13d 3b3b 51be 662d d5bd
00000010: fe00 38be 6c87 183c d66f da3d f3d6 433d

block2.0.BN.weight f4 [8]
1.0106258 1.0807304 0.99137115 1.0400578 0.997576 1.039533 0.8691405 1.0321928
00000000: 305c 813f 6055 8a3f 80ca 7d3f 9d20 853f
00000010: 2461 7f3f 6b0f 853f fe7f 5e3f e51e 843f

block2.0.BN.bias f4 [8]
0.06500591 0.08416995 -0.23230219 -0.14939888 -0.13026755 -0.070903406 -0.13625427 0.074575506
00000000: d221 853d 4b61 ac3d a0e0 6dbe 05fc 18be
00000010: db64 05be ce35 91bd 3d86 0bbe 0bbb 983d

block2.0.BN.running_mean f4 [8]
-1.1289821 -0.6317129 0.3159838 -0.759158 0.0024979266 -0.16609503 -0.20540756 -0.516285
00000000: 7c82 90bf f0b7 21bf a1c8 a13e 2e58 42bf
00000010: 41b4 233b d114 2abe 5c56 52be 412b 04bf

block2.0.BN.running_var f4 [8]
1.0903184 0.8914893 0.41585657 0.3759923 0.30847198 0.41029146 0.4871649 0.36727366
00000000: 8e8f 8b3f a538 643f 27eb d43e 1082 c03e
00000010: 0af0 9d3e b911 d23e ae6d f93e 4b0b bc3e

block2.1.conv.weight f4 [16, 8, 3, 3]
0.1006739 0.16672216 0.26385477 0.03191773 0.27140442 0.32518992 0.018453183 -0.021626672
-0.03603523 0.23153453 0.4569709 0.3209769 -0.018760368 -0.07307906 0.044769827 0.04409777
-0.14624868 -0.01355825 -0.35119736 -0.34386617 -0.24323562 -0.08771229 0.018563224 0.14095144
-0.021565355 -0.051453266 -0.064701036 0.050401844 0.021780461 -0.075571455 0.080635116 0.086584985
0.15430105 -0.12505451 -0.018827526 0.076157115 -0.29676306 -0.21426727 -0.16326562 -0.028079132
0.13394976 -0.13072492 0.14138927 0.1347301 0.08120527 0.025285268 -0.041081484 -0.1964603
0.15442242 0.13129847 0.0845571 0.19043818 0.0406572 -0.19412103 0.19749518 0.14497356
0.05434954 0.115481876 0.0058115716 -0.020624839 0.09482179 -0.047211945 -0.0169034 0.20363829
-0.017881094 -0.113216385 -0.14266405 -0.21282297 -0.41167724 0.20175466 0.032485865 0.05521864
0.2441368 0.0828402 -0.14654922 0.21991335 -0.0870181 -0.14454688 0.17090145 -0.004340225
-0.09120372 -0.015213354 -0.15152979 -0.26002878 -0.02819587 -0.12808694 0.0830448 0.22090986
-0.10788767 -0.11927977 -0.22013082 0.02155786 0.1407128 -0.32224956 0.010462219 0.11454148
-0.28052256 -0.09015835 0.08336719 0.07813929 0.10040432 0.28990772 0.12618852 -0.2229984
-0.086030684 0.13820091 -0.20993294 0.103639945 0.05318821 -0.07463766 0.2748227 -0.1323445
-0.073554926 0.1647373 0.18763824 -0.022448683 0.25118813 -0.08376435 0.3367694 0.006530287
-0.117010556 -0.16582637 0.23680142 -0.023880735 -0.19703273 -0.076161824 0.19835299 0.1550192
-0.01813607 -0.12745436 -0.0546402 -0.26713952 0.114044406 0.33983985 0.27417833 -0.13885991
-0.03859458 0.04367752 -0.09947088 -0.17505291 0.08074382 0.17458656 0.09448583 0.1912696
-0.12166934 -0.032745205 0.17388819 -0.22353557 -0.13178366 0.039349638 -0.21396756 0.007113727
-0.022263134 -0.11570661 -0.023511633 -0.031531624 0.07969784 0.027239945 0.031495865 -0.13946395
0.0625051 0.09876049 -0.2672774 -0.19708817 -0.3803084 0.058101606 0.09625531 0.0861315
-0.078900255 0.123363815 0.25643617 0.11510761 0.061260514 -0.09078986 -0.06343456 0.066802375
-0.316228 0.5601885 0.40882435 -0.06219176 0.14538623 0.04925542 -0.3768477 0.2827291
0.18492866 -0.1197198 -0.004302983 0.15157041 -0.119690225 -0.48525006 -0.31195718 -0.24520463
0.08584517 0.20563006 0.032367654 -0.11629064 -0.22905631 -0.0074673933 -0.014160658 0.044938333
-0.13759671 0.090615675 -0.098305464 -0.006245922 0.14285439 0.042533256 0.051469404 0.12629901
-0.02889404 -0.14941616 -0.12922476 0.07325267 0.0021856262 0.094020374 0.17069736 -0.020496935
0.28036067 0.14811905 0.16451667 -0.010280359 -0.19991866 -0.17591196 0.04487206 -0.15676251
-0.37248802 0.17699096 0.08525556 0.07030445 -0.21198426 0.05168035 -0.030376876 0.024102833
0.09642926 0.09767869 0.06893814 0.10560925 -0.07349909 -0.13574736 -0.042896673 -0.34899762
0.048547164 0.07981326 0.054590914 0.13542822 0.13189903 -0.0146485 -0.03314523 -0.0675577
0.1785051 -0.11488719 -0.3428948 0.071048826 -0.17315273 0.14963381 -0.039401133 -0.39152232
00000000: 1e2e ce3d 37b9 2a3e f917 873e 2abc 023d
00000010: 85f5 8a3e 4b7f a63e 212b 973c 6b2a b1bc
00000020: ad99 13bd 6317 6d3e 17f8 e93e 1657 a43e
00000030: 58af 99bc 79aa 95bd 9160 373d dd9f 343d
00000040: 37c2 15be 6c23 5ebc 24d0 b3be 3a0f b0be
00000050: c212 79be 80a2 b3bd e711 983c 9355 103e
00000060: d4a9 b0bc a9c0 52bd fa81 84bd 2a72 4e3d
00000070: f06c b23c 35c5 9abd 0624 a53d 7853 b13d
00000080: 1801 1e3e 4a0e 00be 2f3c 9abc 43f8 9b3d
00000090: 54f1 97be e168 5bbe 1a2f 27be 3506 e6bc
000000a0: 202a 093e c1dc 05be 59c8 103e b0f6 093e
000000b0: f34e a63d 0d23 cf3c 0f45 28bd e42c 49be
000000c0: e920 1e3e 1b73 063e 462c ad3d 3a02 433e
000000d0: 2a88 263d aac7 46be 2d3c 4a3e f373 143e
000000e0: a09d 5e3d c381 ec3d ff6e be3b 6cf5 a8bc
000000f0: ed31 c23d 5061 41bd 0079 8abc 8e86 503e
00000100: 5f7b 92bc fedd e7bd 8616 12be 44ee 59be
00000110: 5cc7 d2be c698 4e3e e60f 053d f12c 623d
00000120: fffe 793e 1fa8 a93d 0011 16be f730 613e
00000130: 8c36 b2bd 1904 14be ca00 2f3e 7238 8ebb
00000140: 04c9 babd 6e41 79bc a02a 1bbe 7e22 85be
00000150: 06fb e6bc 3929 03be 6413 aa3d 3236 623e
00000160: 36f4 dcbd f448 f4bd f969 61be 1c9a b03c
00000170: 0417 103e e5fd a4be ba69 2b3c b994 ea3d
00000180: a7a0 8fbe f1a4 b8bd 6bbc aa3d 7e07 a03d
00000190: c8a0 cd3d c96e 943e 9037 013e b159 64be
000001a0: db30 b0bd 8a84 0d3e a9f8 56be 2e41 d43d
000001b0: e1db 593d a1db 98bd 90b5 8c3e 5185 07be
000001c0: f7a3 96bd e5b0 283e 3d24 403e 4de6 b7bc
000001d0: bb9b 803e a58c abbd 0a6d ac3e 05fc d53b
000001e0: 3ba3 efbd 63ce 29be 127c 723e 88a1 c3bc
000001f0: f3c2 49be bbfa 9bbd 0c1d 4b3e 5abd 1e3e
00000200: 1892 94bc 6583 02be 67ce 5fbd 83c6 88be
00000210: 1d90 e93d 7dff ad3e 1a61 8c3e 4b31 0ebe
00000220: 5a15 1ebd 33e7 323d 64b7 cbbd 1241 33be
00000230: 045d a53d d2c6 323e c981 c13d 2edc 433e
00000240: c62d f9bd d61f 06bd bf0f 323e 82e6 64be
00000250: 4cf2 06be 162d 213d 501a 5bbe 441a e93b
00000260: 2d61 b6bc 96f7 ecbd 789b c0bc 4e27 01bd
00000270: 9f38 a33d 4e26 df3c cf01 013d a3cf 0ebe
00000280: ad02 803d f142 ca3d 95d8 88be 7bd1 49be
00000290: c8b7 c2be f3fb 6d3d 8121 c53d b665 b03d
000002a0: 7596 a1bd 2ba6 fc3d 9a4b 833e 8abd eb3d
000002b0: 4eec 7a3d 09f0 b9bd fbe9 81bd afcf 883d
000002c0: a3e8 a1be 8368 0f3f 6d51 d13e c9bc 7ebd
000002d0: 21e0 143e 0dc0 493d 2ff2 c0be dec1 903e
000002e0: f05d 3d3e a82f f5bd 0a00 8dbb 4635 1b3e
000002f0: 2620 f5bd b272 f8be dab8 9fbe ec16 7bbe
00000300: 98cf af3d b090 523e f293 043d c929 eebd
00000310: bd8d 6abe 09b1 f4bb 1b02 68bc 4211 383d
00000320: 27e6 0cbe b694 b93d 6054 c9bd 97aa ccbb
00000330: 6c48 123e 5a37 2e3d 95d1 523d 8754 013e
00000340: 32b3 ecbc 8d00 19be 7f53 04be 7f05 963d
00000350: b93c 0f3b c18d c03d 4acb 2e3e 30e9 a7bc
00000360: 6f8b 8f3e 85ac 173e 0f77 283e f36e 28bc
00000370: 7ab7 4cbe 4422 34be c4cb 373d 5a86 20be
00000380: c0b6 bebe 1e3d 353e 789a ae3d c8fb 8f3d
00000390: 6712 59be c6ae 533d edd8 f8bc 4e73 c53c
000003a0: b47c c53d c40b c83d 712f 8d3d aa49 d83d
000003b0: b186 96bd 5b01 0bbe 6cb4 2fbd d1af b2be
000003c0: 64d9 463d 2275 a33d b99a 5f3d b2ad 0a3e
000003d0: 8a10 073e 4300 70bc 4bc3 07bd b15b 8abd
000003e0: 0aca 363e fa49 ebbd e88f afbe 0c82 913d
000003f0: f34e 31be 9b39 193e 1563 21bd 9d75 c8be

block2.1.conv.bias f4 [16]
-0.034802433 0.03306909 -0.02427525 -0.027732369 -0.15429302 -0.031126872 0.04685572 0.06256755
-0.052961353 -0.10410693 -0.1082804 -0.04947219 -0.007635961 -0.12010582 -0.005867569 -0.05003698
00000000: ff8c 0ebd 7473 073d e4dc c6bc fe2e e3bc
00000010: fdfe 1dbe c8fd febc c9eb 3f3d 6a23 803d
00000020: 01ee 58bd 0436 d5bd 1dc2 ddbd 5aa3 4abd
00000030: 1537 fabb 0afa f5bd bc44 c0bb 94f3 4cbd

block2.1.BN.weight f4 [16]
0.9936254 1.0397308 1.0223818 1.0102913 1.0308193 1.015702 0.90902525 1.0897256
1.1840413 0.96009666 0.929629 1.0117779 0.99537736 0.8524988 0.8314911 1.0019422
00000000: 3c5e 7e3f e615 853f 68dd 823f 3a51 813f
00000010: e3f1 833f 8602 823f e1b5 683f 217c 8b3f
00000020: aa8e 973f e5c8 753f 2bfc 6d3f f081 813f
00000030: 0dd1 7e3f 5d3d 5a3f 9adc 543f a43f 803f

block2.1.BN.bias f4 [16]
-0.11987951 -0.40331092 -0.06770924 -0.20170744 -0.118960306 -0.013492216 -0.4969673 -0.20506077
0.06730938 -0.12464351 -0.16286735 -0.34624255 -0.13256037 -0.34049174 -0.14711796 -0.39970726
00000000: 6383 f5bd c57e cebe 24ab 8abd 658c 4ebe
00000010: 76a1 f3bd 750e 5dbc 7f72 febe 73fb 51be
00000020: 80d9 893d 1945 ffbd b3c6 26be b446 b1be
00000030: e8bd 07be ef54 aebe 17a6 16be 6ea6 ccbe

block2.1.BN.running_mean f4 [16]
0.5901545 0.20793143 -0.3690988 -0.019823868 -1.6893389 0.48422536 0.62991655 0.60305214
-1.2797582 -0.112316824 0.0062593366 -0.74670327 -0.2258114 0.056959104 -0.42235208 -0.38285765
00000000: 5e14 173f faeb 543e 85fa bcbe aa65 a2bc
00000010: 423c d8bf 63ec f73e 3642 213f a061 1a3f
00000020: 1ecf a3bf 5d06 e6bd 1f1b cd3b f227 3fbf
00000030: 1b3b 67be f34d 693d 883e d8be eb05 c4be

block2.1.BN.running_var f4 [16]
0.8340741 0.6261831 0.8069758 0.94675565 1.0507197 1.3112369 0.57170403 0.88380873
1.366403 0.5065518 0.87398475 0.6681254 0.9895463 0.8720123 1.083534 1.1360824
00000000: e185 553f 894d 203f f795 4e3f 945e 723f
00000010: fc7d 863f 9cd6 a73f 325b 123f 4a41 623f
00000020: 4be6 ae3f 61ad 013f 77bd 5f3f 440a 2b3f
00000030: e852 7d3f 333c 5f3f 3eb1 8a3f 266b 913f
