model/result/0404 1101.pt (torch, 79133 bytes, 98 tensors)

input_conv.conv.weight f4 [4, 1, 3, 3]
00000000: 82eb fcbd fd40 c13e 825b a1be ce90 7ebe
00000010: db07 9f3e 02a4 853e 0ebf 2b3e 8a7b 7ebe
00000020: 8b41 99be f6b4 ab3e 04d4 7a3e f06e 9e3e
00000030: d5e3 45be d635 43be 854b 933d fb65 b3be
00000040: 5b38 96be 73ad b73d ac9c 5bbe 0a28 3c3e
00000050: 6dae 303f 6e0e cd3d 10f1 a5bd 1c79 c93d
00000060: 827e dabc 10c9 343c ee21 2cbe 485d 54be
00000070: 758e 40bd 8f8a 3cbe 196d a5bd 37bb b5be
00000080: b741 0c3d f6aa 893e 4c48 ae3e d662 913e
-0.12349607 0.37744895 -0.31515127 -0.24859926 0.3106068 0.2610169 0.167721 -0.24851814
-0.29932818 0.335365 0.2449494 0.30944014 -0.19325192 -0.19063506 0.071921386 -0.35038742
-0.2933987 0.0896863 -0.21446484 0.18374649 0.6901615 0.10012518 -0.0810262 0.09837553
-0.026671652 0.011034265 -0.16809818 -0.20738709 -0.047010858 -0.18412231 -0.08077449 -0.35494396
0.034242358 0.26888245 0.34039533 0.28395718

input_conv.conv.bias f4 [4]
00000000: 242a 813e f443 65be ab8f c7be c8bf d4bd
0.25227463 -0.22389203 -0.38976797 -0.10388142

input_conv.BN.weight f4 [4]
00000000: 6329 603f 4e89 683f 5b36 a13f 4e34 653f
0.8756315 0.9083451 1.2594713 0.89532936

input_conv.BN.bias f4 [4]
00000000: 8621 5e3e b10d 7d3d 944c 963d 8394 c73e
0.21692476 0.061780635 0.07338825 0.38980493

input_conv.BN.running_mean f4 [4]
00000000: 59ca 823e bd24 54be 37e2 c1be b28d f1bd
0.25545004 -0.2071714 -0.378679 -0.11794604

input_conv.BN.running_var f4 [4]
00000000: 8b63 123d c7d2 c93d 4277 bd3e 2a99 7b3d
0.035739463 0.09854656 0.3700505 0.061425366

block1.0.conv.weight f4 [8, 4, 3, 3]
00000000: ba4b d4be ecb6 05bf d94b 16bf a578 403e
00000010: 88c8 ff3d 4705 573e 2d97 adbc 2b6e 323d
00000020: 248d 433d 39f0 01be c0da b63b 8df5 d53d
00000030: 95d9 683d 88f8 c1bd 30b9 4abe 50d0 aa3c
00000040: 0925 a03d a11e fa3d 0f72 a6be 077a 55be
00000050: 89e0 f8bd 182c 9e3b 8e95 3f3e 7a05 4f3c
00000060: 0b0b 85bd 46c2 6d3e 5536 973c 6121 52be
00000070: 40ad 053e 79a6 a93d 9901 223e 167c 19bd
00000080: a504 5fbd 46d3 68bd 2db1 16be 7e47 cfbc
00000090: 97f7 c53d d308 00bd c621 95bc 0ab2 96bd
000000a0: b52d c63c 76ff 4dbe e468 1abe 0b66 66bd
000000b0: d630 073e 4092 1a3e 87dd c03d e3be 8ebe
000000c0: 0400 203d 0d52 d8bd 38c2 cebd 3fc6 0abe
000000d0: c2c3 873e 1986 8b3e 59ce 733e 4d9a c23d
000000e0: e2e1 87be a586 973e 35ea c63e 036b 593d
000000f0: 9bab 803c a2f7 d5bc 4cb9 08bb 5e2e 6bbe
00000100: 99bd cdba 89d1 32be 83a4 87bd 4591 01be
00000110: bfd4 993e 1a36 15be ab0e 33be c3ef 193e
00000120: d062 ccbb 5f95 a6bc 5be6 d13c d83e 623c
00000130: 7f54 3f3e 5d1a 103e b965 b1bd 488b 833d
00000140: 99db f83d 4f51 9ebc e442 4b3e c485 5abe
00000150: 8fed 353e c359 8a3e 6633 d93d 04e7 d43c
00000160: 4441 423e be50 a43d 525c f9bd 7d07 1ebe
00000170: 8c09 acbe e629 153d d5bd 403e 03d6 eabd
00000180: c106 09be caae 1abc a5c1 42be ac16 a5be
00000190: 39eb 77be 2884 bdbc 8460 d8bd f31f 1e3e
000001a0: 3955 7a3e 6b02 2abe 1c8d a5be 45ab ddbb
000001b0: 4e8b 0d3e f1a1 18be a931 623e 12bf f7bc
000001c0: 76d2 83bd 19a2 30bd 9715 f33c ad73 d4bd
000001d0: 3681 ef3d 31dc f53d a630 82bd b200 9f3c
000001e0: 9bec 013e 7a44 b2be db09 86bc b3df edba
000001f0: b76b 96bc 9b57 82be ba12 283e fd82 c4bd
00000200: 2ffd 193e e95a f93d f544 073a 4e14 89be
00000210: ae4c efbb 61ed 97bd 3f51 c4bd 4f6c 80be
00000220: 7f03 0dbe 7701 a7be 7b9e 66be 0699 19bb
00000230: 5f5e 383d 3c55 4f3e acdb b63e 1328 8b3e
00000240: 7c60 1e3d 22a8 00be 24dc 65be b187 923e
00000250: ee58 503c 4743 58bc c54a 913d 5bcf 42be
00000260: bd16 acbd 422f 683c 531e 8bbd dc7d 613c
00000270: c361 813e f65b 89bd a3c4 e43d d6e9 2bbe
00000280: 2784 86bd eb86 83bd 2fcb 05bd c5ce 9bbe
00000290: d989 f1be c0a4 a13d 573b 4cbe 288d d6be
000002a0: 2cff 623e ea80 b13d 86bb 153d bfb3 9bbe
000002b0: 110b debe 19bf 41bd 7e27 05be 1a0b 70be
000002c0: 0bef 5abe a9d0 b03d 70a1 aebc fffa feba
000002d0: b550 353e 3eb0 79be ef79 60bd 2d68 87be
000002e0: 7a2b b0bb 37a1 2cbe b353 123e ed58 483e
000002f0: 65e2 b7bd 5a74 5e3e 4f26 473e c62b 5e3e
00000300: 2c90 203e be3c d23c e1c4 f8bd a59f 15be
00000310: 109b 69be 3dc1 5b3e 26a9 a93d eba7 933e
00000320: 07dc 313d e59d c0be 38ec 9b3d 64bd 12bd
00000330: 0acf 71be a67d c2bd f876 d4bd 5074 66be
00000340: 7f17 63be 3752 2c3e e633 93bd 1f08 d53d
00000350: 96bf 023e 8598 f6bc 755e 73be 9f78 f3bd
00000360: 71d3 01be 266d 5d3d 7761 703d de7c a23d
00000370: 76c0 813e 4cf0 543e fa3e 043e ff61 d2bd
00000380: d155 3e3e 65be 503b be59 26be df64 82bd
00000390: da11 39bd d433 07bd 0a40 2f3e 5944 a13d
000003a0: f688 893c b5ad 0d3d 4bee 693e 74c8 0c3e
000003b0: acd4 183e 5652 903e 7695 9fbd 59ce 42be
000003c0: 22c5 993e 1e6b 2b3d 5f51 cbbe 40ee b93d
000003d0: fd88 6e3d d50c 9bbd cb43 8c3e a9ae adbd
000003e0: 71ae 58be c595 3bbd dfaf 6dbe 5d3a 34be
000003f0: 18f3 803b 22fa d7bd 7e2c 11be 97c9 36be
-0.41464025 -0.5223224 -0.58709484 0.18796022 0.1248942 0.20998107 -0.02119025 0.043562096
0.047742024 -0.12689294 0.0055802763 0.10447226 0.056848127 -0.09471232 -0.19797206 0.020851284
0.07819564 0.12212873 -0.32508895 -0.20847331 -0.12152202 0.0048270337 0.18709394 0.012635583
-0.06496247 0.2321864 0.018458525 -0.20520546 0.13054371 0.08283705 0.15820922 -0.037471853
-0.05444779 -0.05684211 -0.14716025 -0.025302645 0.09666365 -0.031258415 -0.018204581 -0.07358177
0.024191717 -0.20116982 -0.15079075 -0.05624966 0.13202223 0.15094852 0.09417253 -0.2788001
0.039062515 -0.10562525 -0.10095638 -0.13552187 0.2651654 0.27250746 0.23809184 0.09502087
-0.26539522 0.29594913 0.3885056 0.05308057 0.015706828 -0.026119057 -0.0020862399 -0.22966906
-0.0015696763 -0.17462744 -0.06623175 -0.12653072 0.30045125 -0.1457142 -0.17486064 0.15032868
-0.0062373653 -0.020334898 0.025622537 0.013808928 0.18684576 0.14072557 -0.0866198 0.0642305
0.1215126 -0.01932588 0.19849735 -0.2134009 0.17766403 0.27021608 0.106055066 0.025989063
0.1897021 0.08023213 -0.12175812 -0.15432544 -0.33601034 0.03641691 0.18822415 -0.11466601
-0.13381483 -0.009441087 -0.19019182 -0.3224386 -0.24210824 -0.023134306 -0.10565284 0.15441875
0.24446572 -0.16602485 -0.3233422 -0.0067648017 0.13822672 -0.14905526 0.22089256 -0.030242477
-0.064366266 -0.04312334 0.02967338 -0.10373626 0.11694567 0.12004889 -0.06356935 0.019409511
0.12687914 -0.34817868 -0.016362121 -0.0018148333 -0.01836191 -0.25457463 0.16413394 -0.095952965
0.15037988 0.12175543 0.00051601167 -0.26773304 -0.007302842 -0.07418323 -0.09585809 -0.25082633
-0.13770865 -0.32618305 -0.22521393 -0.0023437156 0.045011874 0.20247358 0.3571447 0.27179012
0.038666233 -0.12564138 -0.22447258 0.2861915 0.012716515 -0.013199634 0.07094339 -0.19024412
-0.084027745 0.014171423 -0.06792893 0.013762917 0.252699 -0.06706993 0.11170318 -0.1678842
-0.06568175 -0.06422218 -0.032664474 -0.3043119 -0.47175482 0.07892752 -0.19944511 -0.4190457
0.22167653 0.086671665 0.03655579 -0.30410573 -0.43367818 -0.047301386 -0.13003346 -0.23441735
-0.2138025 0.08633549 -0.021317214 -0.0019453465 0.17706569 -0.24383637 -0.054803785 -0.26446667
-0.0053762766 -0.16858374 0.14289741 0.19565172 -0.08978728 0.21724072 0.19448207 0.21696386
0.15679997 0.02566373 -0.12146927 -0.14611681 -0.22813058 0.21460433 0.08284216 0.2883905
0.043422725 -0.37620464 0.076134145 -0.03582515 -0.23614135 -0.09496622 -0.10374254 -0.22505307
-0.22176932 0.16828237 -0.07187633 0.104019396 0.12768397 -0.030102024 -0.23766501 -0.11888241
-0.12678315 0.05405917 0.0586867 0.07933973 0.2534215 0.20794791 0.12914649 -0.102725975
0.18587424 0.0031851765 -0.16245171 -0.06366896 -0.04518304 -0.03300841 0.17114273 0.078743644
0.01678894 0.034589488 0.22844808 0.13748342 0.14924878 0.28187817 -0.07792179 -0.19024028
0.30033213 0.0418502 -0.3971052 0.09078646 0.05823611 -0.07570807 0.27395472 -0.084805794
-0.21160294 -0.04579713 -0.23211621 -0.17600389 0.003935229 -0.10545756 -0.14177129 -0.17850338

block1.0.conv.bias f4 [8]
00000000: d02a 9cbd 156b 3c3e 691c 903e e446 bebe
00000010: fce2 a7bd bcfc d93c dcf8 aabd fead 213e
-0.07625353 0.18400224 0.28146675 -0.3716346 -0.08197591 0.026609771 -0.083482474 0.15789029

block1.0.BN.weight f4 [8]
00000000: e30a 633f ed44 883f 972f 833f 8d3b 8c3f
00000010: 6c49 7e3f 5039 783f 0618 8b3f c0d6 743f
0.88688487 1.0646034 1.0248898 1.0955673 0.9933078 0.9696245 1.0866706 0.9564018

block1.0.BN.bias f4 [8]
00000000: 0973 d83d 324c 113c c539 75bc fffe c93d
00000010: a1a1 d63d db97 47bb af9b a53c f7bd 83be
0.10568816 0.008868264 -0.014967387 0.0986309 0.10480047 -0.0030455503 0.020215837 -0.2573087

block1.0.BN.running_mean f4 [8]
00000000: 28d1 92bf 570f a33e 17f3 8bbd 943f 2dbf
00000010: 22bb 02c0 77b3 09bf 83b0 0f3f b7c9 983d
-1.147008 0.3184764 -0.06833475 -0.6767514 -2.0426717 -0.53789467 0.5612871 0.07460349

block1.0.BN.running_var f4 [8]
00000000: 83c5 1e3f 83bf 5d3f 8a2e 963f 6756 913f
00000010: 423c 1b40 2ca2 2b3f c730 343f b8c9 463f
0.6202013 0.8662035 1.1732953 1.1354493 2.4255528 0.6704433 0.7038693 0.7765155

block1.1.conv.weight f4 [16, 8, 3, 3]
00000000: 2982 86be d67a 22be 4c3c 9fbd f7c5 45be
00000010: 7d95 76bd da5d a13c 04d5 293d 557e 213e
00000020: 7f77 153e d895 03be 5dfd e93d 3e64 a23c
00000030: ba1d 57bc 8f1f 0b3e 47bd 8c3e 0f0c cabd
00000040: 9c95 f6bd dd1f 013d 6988 5a3e 33de d23d
00000050: 6ece 863d 93fc 0d3e 3b44 e6bc 9dd3 4c3e
00000060: 2479 1b3e 4ba6 70be fd5e a03c 5722 a1bb
00000070: 7d1c db3b d932 2e3d 982e 453d eef0 37bd
00000080: da42 3f3a 0d50 ae3e 62f1 9f3d feb1 f8bd
00000090: 1064 8dbd 0142 2a3e ab7e eebd d142 46bd
000000a0: b74a 053e 46e9 0bbe bdf5 88ba fafb d23d
000000b0: 2c39 7bbc ff56 223d 64e0 013e f43e 553e
000000c0: 5c74 04be 0008 833d 6c22 663d 67d0 83bd
000000d0: 42e5 60ba 5103 203c d361 903d 1620 ce3c
000000e0: 8f0f 33be c4f0 a1be ae61 67be 989a 86be
000000f0: b2dc 123e 697d 673e fc25 f93c 607b a8bd
00000100: f838 f6ba 5574 22be 63e0 c9be 7131 aebe
00000110: a769 01bf 20fb a7be 64ba 8bbe 422a 83be
00000120: 371b 60be d7b5 51be b69d b2be 2fdd 13be
00000130: 926c 7bbc 244d 443d 828c 7bbe 0511 193d
00000140: 4954 1cbd 81f9 9a3e b8fc 453e 7803 1ebc
00000150: abda 12bd bf72 853d 9470 7fbd 04c6 07be
00000160: 6673 323e 671a 703e 93b8 7f3d 225d d73d
00000170: 67ef 913d 4a1a 46bd 1d0b 083d 2fba ddbd
00000180: b4bd 56bc 92d9 d93c 0a9a 9b3e 348e 81be
00000190: 418b 993d 5397 8e3e 06ab b1bc a0c3 cdbd
000001a0: 2cb3 1c3b 4426 4fbc 6682 07be 0f07 96bd
000001b0: 4f16 43be d1a8 c7bd 6842 443d 16a5 b7bd
000001c0: 0ff0 f139 7404 9bbd 5b1b 3d3e d2b8 973e
000001d0: d1e6 78bd 2142 e4bd 9342 d03c 6db4 46bd
000001e0: de3b 98bc 2de9 93bc ebdb 70bd 1fa7 acbd
000001f0: ce55 3ebc 6e0b 50bd 9511 173e e90c 673c
00000200: 8598 7f3e e294 96bd 942f 1bbe b7ad 1bbe
00000210: e22d 56be 1933 67be b967 b1be e26a c33d
00000220: 42c5 e4bd 9e89 973d b3a6 963e 57ed febd
00000230: c6e3 b73d c411 aa3d acc3 93be fc02 15be
00000240: 878d dbbd a234 bf3d bd57 383d 6b9a 77be
00000250: d0b8 66be 8d8b 19be 1d29 f6bc fbfe 803c
00000260: 992e 32be bffb 44bd f276 913d cb2e 273e
00000270: a480 473d c383 f43c 0eba 193e fe31 13be
00000280: fce1 82bc dfea 1b3d 9767 f73c 66d6 403e
00000290: 0533 823d 5369 e9bd bade 1abe edc2 14be
000002a0: c674 3ebe 79a6 a8be 8797 27be f656 343e
000002b0: 4b51 e5bb 7ad2 bd3e f187 7fbe e2d7 34be
000002c0: e98d c4bc 3ccb 3c3b cc33 27bd 64a5 c6bc
000002d0: d821 da3d 20a8 2e3e 1436 933e 77fc b3bc
000002e0: 0378 6a3d 8dd0 ee3d a265 513a 9f84 a53d
000002f0: dbc1 413e 5b85 12bd 8e72 edbd 59f1 dcbe
00000300: 788c 573e a84d be3d a250 103d 7b5b 643e
00000310: 2916 563e 7603 033d 597a 88bc dc64 9e3e
00000320: 5a7d 293d 658a 0b3e f693 8d3e fe37 1fbd
00000330: 877c aa3b 691f e2bd fb85 f4bb 7fdb 51bd
00000340: 6c5d dc3d 8837 303d 6571 e2bd 353f 3d3e
00000350: d8b0 ce3b 5e32 403e 383f 953e 8547 d23e
00000360: 6074 293e 25a3 183e 008b 273d 9d87 093d
00000370: 04b2 e8bd cc22 79be a99e 46be 2372 2f3e
00000380: fe2b b83d 56c9 0d3d ef16 f8bd 25e9 0abe
00000390: c082 973e ba97 8fbd 68f8 fabd 4167 d83d
000003a0: e49c a63d 33fc eebd aa21 cbbd 5cb1 eabd
000003b0: e9a5 e8bc 180e 51be 3b26 02be 3f77 adbd
000003c0: d4fd 11bf a340 fabd 82fe e23d 136a a63c
000003d0: a995 ae3d c1c6 563e 4d44 a3be 5748 8abe
000003e0: 304f dd3c 3f7b 093e 25d4 133e c655 953e
000003f0: 1b82 e03b 72e5 8b3d e370 b63e 56d3 86bd
-0.2627118 -0.1586717 -0.077751726 -0.19313799 -0.060201157 0.019698072 0.041462913 0.15770848
0.14596365 -0.1285013 0.11425278 0.01982319 -0.013129646 0.13586257 0.27488157 -0.09865581
-0.120402545 0.031524528 0.21341099 0.102962874 0.06582342 0.1386588 -0.028108707 0.20002599
0.1518293 -0.23500936 0.019576544 -0.0049174237 0.0066867457 0.04252896 0.04814014 -0.044907503
0.00072960334 0.3404545 0.07809712 -0.12143324 -0.06903851 0.16626741 -0.11645254 -0.048403565
0.13016783 -0.13663206 -0.0010449212 0.10301967 -0.015333455 0.039633747 0.12683254 0.20824796
-0.12935013 0.0639801 0.05618517 -0.06436234 -0.0008579084 0.009766416 0.070499085 0.025161784
-0.17486404 -0.31629002 -0.22595856 -0.2628982 0.14342001 0.22606434 0.03041362 -0.08226657
-0.0018785289 -0.1586469 -0.39429006 -0.34022096 -0.5055184 -0.3280878 -0.27290642 -0.25618178
-0.21885382 -0.20479523 -0.3488595 -0.14439844 -0.015345709 0.04792513 -0.24565318 0.037369747
-0.038166318 0.3026848 0.19334686 -0.009644382 -0.03585307 0.06516027 -0.062363222 -0.1325913
0.17426834 0.23447572 0.062431883 0.105158105 0.071257405 -0.048364915 0.033213723 -0.10826527
-0.013106752 0.026593003 0.3039096 -0.25303805 0.07497264 0.27849826 -0.021687996 -0.10047078
0.0023910506 -0.012643401 -0.13233337 -0.07325565 -0.19051479 -0.09748996 0.047914892 -0.089670345
0.0004614596 -0.07569209 0.18467467 0.29633194 -0.060767 -0.111454256 0.02542237 -0.04851191
-0.018583234 -0.018055523 -0.05880348 -0.08430313 -0.011617137 -0.05079215 0.14752801 0.014102199
0.24960525 -0.07352616 -0.15154868 -0.15202986 -0.2091594 -0.22578086 -0.34649447 0.09541871
-0.111704364 0.07399295 0.29424056 -0.12447613 0.08978991 0.0830417 -0.28860223 -0.1455192
-0.107203536 0.09336211 0.04500555 -0.2418 -0.22531438 -0.1499464 -0.030048901 0.015746584
-0.17400588 -0.048091646 0.07102765 0.16326444 0.048706666 0.029847985 0.1501238 -0.1437454
-0.015976898 0.038065787 0.030200763 0.18831787 0.063573875 -0.11397042 -0.15124026 -0.14527483
-0.18599233 -0.3293951 -0.16366397 0.17611298 -0.0069982163 0.37074643 -0.24954201 -0.17660478
-0.02399345 0.002880766 -0.04082088 -0.024248786 0.106509864 0.17056322 0.28752196 -0.02197097
0.05724336 0.11660872 0.0007987862 0.08081936 0.18921606 -0.03577171 -0.11594115 -0.43152884
0.21049678 0.092921555 0.035233147 0.22300522 0.20906891 0.031985722 -0.016659902 0.30936325
0.04137931 0.13627012 0.27651948 -0.038871758 0.005202833 -0.11041147 -0.007462261 -0.05123472
0.10760006 0.04302171 -0.110567845 0.18481143 0.0063077025 0.18769214 0.29149795 0.4107019
0.165483 0.14905985 0.040904045 0.033576597 -0.11362079 -0.2432968 -0.19396462 0.17133383
0.08992766 0.034615837 -0.12113749 -0.135655 0.29591942 -0.070113614 -0.12254411 0.10566569
0.08135393 -0.11669197 -0.0991853 -0.1145961 -0.028399425 -0.20415533 -0.12709896 -0.0847001
-0.57027936 -0.1221936 0.110837 0.020314252 0.08524639 0.20974256 -0.31888047 -0.27008316
0.027015299 0.13425921 0.14436395 0.29167002 0.0068514473 0.068308726 0.35633 -0.06583278

block1.1.conv.bias f4 [16]
00000000: a62b 9f3c 8ac7 b3bc c624 0c3e f133 9fbc
00000010: d86d f73d acdb 103e 6fc3 abbd 6315 63be
00000020: 9d0b 93be 46d1 c8b8 315e 863d c10e 063e
00000030: 5e98 293d 20d1 233e 3f68 563e d9b8 17be
0.019429993 -0.021945734 0.13685903 -0.019433947 0.12081498 0.14146298 -0.083868854 -0.22176127
-0.28719798 -9.5757234e-05 0.06560934 0.13091566 0.041405074 0.15997744 0.20938204 -0.14816608

block1.1.BN.weight f4 [16]
00000000: 18dc 813f 786a 7b3f 87be 763f 465d 853f
00000010: d44b 843f 625a 6a3f e80f 7b3f dd83 833f
00000020: ef64 763f 6f59 673f 42ad 923f b8fc 743f
00000030: 88b3 663f c22c 5d3f c182 893f 3114 903f
1.0145292 0.98209333 0.9638447 1.041909 1.0335641 0.91544163 0.98071146 1.0274616
0.9624776 0.9037084 1.1459124 0.9569812 0.9011769 0.8639642 1.0743028 1.1256162

block1.1.BN.bias f4 [16]
00000000: 8f24 31be 9d3b 68be 7c12 d9be fcba 7cbe
00000010: ee24 123e d01e ecbd 93c1 6d3d a260 a0bc
00000020: 665e 87be 6083 0cbe e2bd 6ebe 0bf2 0f3e
00000030: cb2e e7be c047 d33c 4553 73be 177e d3bd
-0.17299102 -0.2267899 -0.42396915 -0.24680704 0.142719 -0.115293145 0.058045935 -0.019577328
-0.26439208 -0.1372199 -0.23314622 0.14057176 -0.45152888 0.025791049 -0.23762234 -0.10326784

block1.1.BN.running_mean f4 [16]
00000000: a922 c4be b78c 08bf aa4d 393f 602a 2b3e
00000010: d38f 9ebf bdf3 25bf d493 7fbe c6bc d1bf
00000020: bfd0 1abe 84ee c9bf c3ac 87bf 6764 033d
00000030: bb54 8d3f 0285 b03d 873a f93e 1594 39be
-0.38307694 -0.53339714 0.7238413 0.16715384 -1.2387642 -0.6482504 -0.24958736 -1.6385734
-0.15118693 -1.5775914 -1.0599598 0.032078173 1.1041483 0.08619119 0.48677465 -0.18122895

block1.1.BN.running_var f4 [16]
00000000: 0e33 0640 c89f ff3e 8cc2 7b3f 8355 373f
00000010: 0f96 723f 2435 9b3f a973 4b3f 277a c93f
00000020: 3a8b 893f 5068 d33f b088 393f d744 423f
00000030: 7d67 703f f231 253f 5cb9 423f 91de 413f
2.0968661 0.4992659 0.9834373 0.71614856 0.9476022 1.2125592 0.7947336 1.5740403
1.0745614 1.6516209 0.72474194 0.7588629 0.9390791 0.64529335 0.76064086 0.75730234

block1.2.conv.weight f4 [8, 16, 3, 3]
00000000: 50a6 ba3c f5a5 a9bd fd61 30be 148c 943d
00000010: 0606 6e3d 2d63 17be 0246 923e a2d9 0f3e
00000020: 51a2 283c 2cf5 b83d 7311 10be 98dd 663d
00000030: d310 d5bc b174 72be 3ba5 cabc 3aeb b2bc
00000040: c675 c6bd ed73 d53d ecc9 1abe 0ab6 0abe
00000050: 924d 82bd a134 8cbe 8cb1 4abd 5586 e83d
00000060: e610 77be b823 5c3d ab45 c63c 73e3 86be
00000070: 736b 46bb a7c8 0b3d 71ef 31be b118 19be
00000080: baf2 3abe 3996 65bd eb68 f8bd 1a11 1fbe
00000090: 0245 5b3d 1120 353e d1fa 2a3e e25b 63be
000000a0: 955d 5fbe 6119 7abe ea10 3c3e bab3 c83d
000000b0: 1a8c 243e 3db2 c93d 83a6 9c3c 4a36 c43d
000000c0: 5cc9 f8bd e334 71be cb4e 90bd 3457 c5bd
000000d0: 9263 1e3e 7b21 3a3e 0e4d 7a3d 2279 653e
000000e0: 4ada 6f3e 9002 b1be 86f6 92be 9ed8 b3be
000000f0: 02fe 3bbd 686c 1c3e c394 283e dc46 8b3d
00000100: b20f 70bb 569a 8c3d b08a 063e 9bc0 61bd
00000110: c28d 38be 365a 943e 8adb 1e3e eb87 c4bd
00000120: d274 ed3c 21e4 afbd 6a30 32bb a78b b03c
00000130: 9f92 3bbc a5ab 873d cec5 5a3c b802 af3d
00000140: dd6d 4d3e 48d2 283d fa34 383d 16a8 033e
00000150: bc24 d4bd 6e62 843d 2131 a43d abf3 25be
00000160: 0ec2 973d d074 a83e 5c06 cdbb 7631 333d
00000170: 790b adbd 82c6 493b 5715 333d ff59 893d
00000180: 2150 6ebe 9513 55be bba8 d8bc 6adf 223e
00000190: 09c3 483e c033 12bd cc16 143e 3d97 b03d
000001a0: b093 d7bd 0d9a e73d e396 af3c d2f9 e63d
000001b0: 967f 1c3d a59f e5bc fb6e 86be 99bd 463b
000001c0: 768d d43d 0c8e 94bd c70e 6ebe 1a68 85be
000001d0: b1b3 34be cf15 cbbc ec4c 293e 5182 54bd
000001e0: d068 edbd 9eb2 3e3e 8d75 a33e 8876 8ebe
000001f0: e105 033d 86f6 8ebc 96a6 81be dc4b 02be
00000200: 7dcd e4bd 93e0 5ebe 3080 88be a6be 8abe
00000210: cb97 28bd 317f 9abd 8240 5cbd 9c17 8ebe
00000220: fde3 2fbe 4495 063e 6168 89bd f14f 91bd
00000230: a361 913e a413 643d a5ee b5bd 5bc6 9d3e
00000240: 0a2d cdbd 3201 c0bd 4f33 acbc 852f 02bc
00000250: 410d f73d 34b4 8b3d 1a30 df3c 68e3 7f3e
00000260: e1df 1f3e 0afd 573d a706 233e 6613 6a3e
00000270: edae b3bd faa7 f23c 77d8 0f3e a641 d9bd
00000280: 3fb4 04be 42c7 5dbe 1f92 363c 34fa 0e3e
00000290: 3a90 383e 03e4 04be fc82 60bd 36f6 733d
000002a0: 6cf2 7dbb 7d74 e83c 78e7 713e 1f61 853e
000002b0: 442b 3c3e 2c25 d5bc 366a 843d ee79 1abd
000002c0: 23e3 a3be fcc9 593e db1d 833d 10bc e4bc
000002d0: 0300 a4bd 72fb 2cbd 5292 24be ef78 763d
000002e0: a00a a23d 5570 dabd c082 7fbd 93a7 0c3e
000002f0: e4f6 fc3d 16de 84be 6b03 3cbd 7583 803d
00000300: af04 8ebe cc84 b9be 4dce 44be cde6 e33d
00000310: f808 203e c34d 413d 0eda 98be a019 4bbe
00000320: aa27 f43c f6c5 df3c 3632 483e b54b 853e
00000330: 3d36 0739 e44c 953d d3a8 63bc 53e3 643d
00000340: 6aaf 56be 1a98 d6bd 594e 8e3d 8711 183e
00000350: 481c 76bd 1ff0 943e dcac 593e eb98 23bd
00000360: 8d3f fbbb 7fe4 24be 8c23 a9be e2f7 963d
00000370: cd70 e6bd 6a63 53be 2153 a43e 07e4 27be
00000380: 9481 83be 94b3 d23c 0332 dd3d 5ff7 6abd
00000390: 40b0 d93d e98b aabd d8e5 e73c 2971 6b3c
000003a0: 122b a7bd 1750 11bd 156c 263d 7343 3fbd
000003b0: 24bd 113e 6b55 d5bd bdd5 a0bd ee8c c33d
000003c0: 7e5c 413d 2413 aa3a 34a3 ce3c d997 223d
000003d0: af04 b73d 5c00 193c a957 36be a70a 4bbc
000003e0: 5a04 f1bd 5a1e 9dbd 4f4b 553e e402 553d
000003f0: aeb3 2c3d 535b fe3d 3c3a e63b 24cf 813d
0.022784382 -0.08283607 -0.1722488 0.0725328 0.058111213 -0.14783926 0.28569037 0.14047864
0.0102926055 0.09031138 -0.14069156 0.056363672 -0.026008999 -0.23677327 -0.024736991 -0.02184068
-0.09690432 0.10422502 -0.1511609 -0.13546005 -0.063624516 -0.27383903 -0.04948573 0.11353747
-0.2412754 0.053745 0.024203142 -0.26345405 -0.0030276447 0.034126904 -0.17376496 -0.14950825
-0.18256655 -0.056051467 -0.121293865 -0.15533867 0.053532608 0.17688014 0.16697241 -0.2220302
-0.21813042 -0.24423744 0.18365827 0.09799905 0.1606907 0.098484494 0.019122368 0.09580667
-0.12147781 -0.23555331 -0.070462786 -0.09635773 0.1546767 0.18176834 0.06110864 0.2240949
0.23423114 -0.34572268 -0.28703707 -0.35126203 -0.045896538 0.15275729 0.16462998 0.06800625
-0.003663045 0.06865375 0.13138843 -0.055115324 -0.18022826 0.28975075 0.15513435 -0.09596237
0.028986368 -0.08588434 -0.0027189502 0.021550966 -0.011448531 0.066245355 0.013352824 0.085454404
0.20061441 0.041216165 0.044972397 0.12857088 -0.10358569 0.064640865 0.08017183 -0.16206233
0.0741006 0.3290162 -0.0062568616 0.04374834 -0.08449454 0.0030788486 0.043721523 0.067066185
-0.23272754 -0.20808251 -0.026447644 0.15905538 0.1960565 -0.035693884 0.14461821 0.086225964
-0.10526216 0.1130868 0.021434253 0.11278118 0.038207613 -0.028030226 -0.26256546 0.0030325411
0.10378544 -0.07253656 -0.23247825 -0.26055986 -0.17646672 -0.024790673 0.1653325 -0.051882092
-0.11592257 0.18622825 0.31925622 -0.27824807 0.03198803 -0.017451536 -0.25322407 -0.1272425
-0.11172006 -0.21765356 -0.266603 -0.27098578 -0.041160386 -0.07543791 -0.053772457 -0.27752388
-0.17176814 0.13142878 -0.06709362 -0.07095326 0.28394803 0.055682793 -0.088834085 0.30815396
-0.10018356 -0.09375228 -0.02102056 -0.0079459 0.12063075 0.068214804 0.027244616 0.24989092
0.15612747 0.05273155 0.15920506 0.22858962 -0.08773599 0.029621113 0.14047419 -0.106082246
-0.12959383 -0.21658042 0.011143236 0.13962632 0.18023768 -0.12977605 -0.054812416 0.059560977
-0.003874923 0.028375858 0.23623455 0.2605066 0.1837588 -0.026018701 0.06465571 -0.037713937
-0.3200923 0.21268457 0.06402179 -0.027921706 -0.08007815 -0.042231984 -0.16071442 0.060173925
0.07912183 -0.10665957 -0.062380552 0.137358 0.12351778 -0.25950688 -0.045901697 0.062750734
-0.27737948 -0.36234128 -0.19219323 0.11128006 0.15628421 0.0471933 -0.29853863 -0.19833994
0.02980407 0.027316075 0.19550404 0.26034322 0.00012894809 0.07290056 -0.013895231 0.055880856
-0.20965353 -0.1047823 0.069485374 0.14850436 -0.060085565 0.29089448 0.21257347 -0.039940756
-0.007667488 -0.1610279 -0.33034933 0.07371499 -0.11251984 -0.20643392 0.32094672 -0.1639558
-0.25684798 0.025720395 0.108005546 -0.057364818 0.1062932 -0.08327467 0.02830784 0.014370241
-0.08162512 -0.03547677 0.04063042 -0.046695184 0.14232308 -0.10416683 -0.07853267 0.095483646
0.047207348 0.0012975675 0.025224306 0.039695594 0.0893644 0.009338465 -0.17806877 -0.012392676
-0.11768408 -0.07671805 0.20829509 0.05200471 0.042163543 0.124197625 0.007025985 0.06338337

block1.2.conv.bias f4 [8]
00000000: 780a 17be 7f45 03be 0bdb e73d f1bb 0bbd
00000010: ff21 2cbe 2f0b b4bd ef35 5f3e d4ce 6fbd
-0.14750087 -0.1281948 0.11321076 -0.03411478 -0.16809843 -0.087911956 0.21797918 -0.058546856

block1.2.BN.weight f4 [8]
00000000: 2a5f 9b3f 96dd 773f 6921 793f 13ec 8b3f
00000010: 6e10 893f 85c0 6e3f b6fe 633f 5afe 7d3f
1.2138417 0.9682249 0.97316605 1.0931419 1.0708139 0.9326251 0.89060533 0.99216235

block1.2.BN.bias f4 [8]
00000000: 258e 523e 18a3 4ebe fb29 31bd 2a05 4dbd
00000010: 0c8d 3ebe ad38 ea3c 0ab3 4fbe e7c6 a0be
0.20562036 -0.20179403 -0.043252926 -0.050053753 -0.18608493 0.028591478 -0.20283142 -0.3140175

block1.2.BN.running_mean f4 [8]
00000000: aa79 f9be d7fc 89be 7172 883e 56f8 82bf
00000010: 6e65 06c0 72ee e1bf 383c 273e 79db 09bf
-0.48725635 -0.26950714 0.26649812 -1.0232036 -2.0999408 -1.7650893 0.16331565 -0.53850514

block1.2.BN.running_var f4 [8]
00000000: cad9 0e40 327f 853f d71c da3f d891 fe3f
00000010: 0d64 f73f 1afd f03f 2d41 8d3f c4b8 1040
2.2320428 1.0429442 1.7040051 1.9888258 1.9327408 1.882724 1.1035515 2.2612772

block1.3.conv.weight f4 [4, 8, 3, 3]
00000000: 2c76 cebb 9f95 24be 4f53 9abe 7718 e9bd
00000010: ddf7 513e 5e29 17bd 2062 943e 4890 673e
00000020: 74ac 763d 9a70 433d 7938 823d 1790 013d
00000030: 2011 3cb9 7ca5 6b3e 3ac7 383e 5851 063e
00000040: 6a7f 523e e20f 8f3e 9b7d 983d 38b5 d73d
00000050: 3b6d 403b 0ff9 013e 60ec 85be 8d8b f4bd
00000060: 3c3a 573d b1c0 66be 1cc6 bbbd 5686 94be
00000070: 29fa 59be 5de0 e83c 74c6 4cbb 9a19 07be
00000080: 31d0 643d 3332 043e 6a1d b13b 12b4 8abd
00000090: 819b 953e 095e 663e 68e2 ac3d 2761 303e
000000a0: a5af 9ebd 5d8f d9bd 4b0b 063e e751 b0bd
000000b0: 5b74 dbbe 3ee3 96bd ee8e 503e 2fb3 713e
000000c0: 2aa7 113e 790d 4a3d 4fec f73d 6258 58bd
000000d0: 6a0c 6cbc ec52 b0bd 743e 953c e464 e2bd
000000e0: daf4 d93d a18a 5c3d 49cb b13a 3fcd 8dbc
000000f0: 6593 7ebd b770 96bc d10f a43e 49b3 1d3d
00000100: d934 ecbd bb44 2e3e efda 953c f85c 6dbd
00000110: bcc6 f03d 01b9 04be e651 b9bd 773e 07be
00000120: 2d8b 043e 5504 5cbe b9ef 10be 033a f33d
00000130: 2a6c d3be a488 c7be ddc0 f33d ee6c 6fbe
00000140: c803 d53d 3164 143e 42dd a1b9 b38d b23d
00000150: f08e 1dbe e91f 75bc ce85 26be cec1 473e
00000160: aee7 24be 6937 efbd d052 b3bd a9fc 8abe
00000170: 423d 5ebe 6ec7 cbbd 7c34 52be d43c f9bc
00000180: 9d13 2dbc 9f71 5a3d e15f 333e fa2c 443e
00000190: a783 433e 12ac b13d 7879 853d 98bd 21be
000001a0: ec82 cebd 769f 4a3e 05ae 873c ac2f 38bb
000001b0: 7d0b c1bd 362b d53d 1c47 1c3e 32b7 033e
000001c0: 9143 7c3d f952 ee3d 2055 133e f30b 733e
000001d0: 62f4 1b3e 988a 78be d088 a0be 7ce0 33be
000001e0: 2b32 073e 0331 743c e64d 04be 3bd0 a8be
000001f0: 220e 97be 835f 9a3c aed8 4f3e 160d 3c3e
00000200: 0863 0cbd ac34 eb3d c031 933e 4aea 173e
00000210: 445d 263e bd4e ef3d 8b25 e7bb 6f55 68bd
00000220: dc85 8ebd bd70 773d 1359 113e 649f 793d
00000230: 1bbf 453a b476 babc d529 443c 1c4f 21be
00000240: 0842 7e3e baf7 233e c54d ae3d 541a 9d3e
00000250: bf54 b3bd ee16 8d3d a518 6a3e 7c94 41be
00000260: 1caf 90bc 0a51 44bd c7cc 50be 3fff cdbd
00000270: a69a 9d3d 768c 0a3e fffe 723e 08ef 143a
00000280: 148a 1fbe 5d0f 2dbd bfc1 f5bd 6989 3abe
00000290: da6d e33d 9f80 a53c b309 7fbe 5929 4dbd
000002a0: dead 323d 7f78 983d e159 273e 3935 2ebe
000002b0: f061 e23d f7cc e3bd ad57 d1bd 660c 9d3e
000002c0: fc39 083d ac5f e4be b28d d4bd df3e 4bbe
000002d0: c2a7 073c 8a8f 023e 0555 0dbe 8362 923d
000002e0: e5a6 5e3e bba4 c93d 1a99 57be 766b a7be
000002f0: a12f 81be 9e20 b93b 702a 483c cc1b 473e
00000300: 7141 f3bc a508 b5bc 8fbc 543d 6e12 2ebd
00000310: f175 253e a681 1e3e 5076 51be de1c 1cbe
00000320: 78a4 c8bd a62f 183e 58b4 053e d20b b8bc
00000330: 09dd 23be 91b7 5f3d b676 633d 8f30 d43c
00000340: 8948 43bd 6598 c73d 17bc b23e 8a0c 0d3e
00000350: 2287 513e a8f5 873e 0403 103d b352 273e
00000360: 9d3c 2fbe 5aea e4bd 8e39 3bbe 6ed7 57be
00000370: 13f8 a8bd e170 423d 5581 8ebe dcab 4b3d
00000380: cffb 0b3e 3092 a6bd 9bb1 38be 0ffa 3e3e
00000390: 1448 cebd 5fd4 3ebc 764b f73c 9942 ebbc
000003a0: 3cc3 33bd a094 52be 49f7 4cbe f3f0 ccbb
000003b0: 055c 7dbc 7e3c 07be 8dd7 063d 87f4 3cbe
000003c0: 2804 973e 3416 8d3e 6913 943d 0a00 5ebd
000003d0: 8e5d a1be 7a5f e0be 7436 b9bd cc79 5cbd
000003e0: 68bc ac3d ee5f 163e 6067 133e c65c 983e
000003f0: 7982 a53d 5921 e53d 7fa4 393e 0f7b 88bd
-0.0063007083 -0.16072701 -0.30141684 -0.113816194 0.20504709 -0.036904685 0.28981113 0.22613633
0.060223058 0.047714807 0.063584276 0.031631555 -0.00017935457 0.23012346 0.18044749 0.13116968
0.20556417 0.27941805 0.07445832 0.105326116 0.0029361981 0.12692665 -0.26156902 -0.1194068
0.05254577 -0.22534443 -0.09168646 -0.2900874 -0.21286835 0.028427297 -0.0031246217 -0.1319336
0.05586261 0.12909774 0.0054051178 -0.06772627 0.29220203 0.22496809 0.08441621 0.1722456
-0.07748345 -0.106230475 0.13090245 -0.08609372 -0.4286221 -0.07367562 0.20367023 0.2360351
0.14223924 0.049329255 0.12105619 -0.052818663 -0.014407257 -0.08609566 0.018218257 -0.110543996
0.10642405 0.053843144 0.0013564612 -0.017309783 -0.062152285 -0.018364294 0.32043317 0.038501058
-0.115335174 0.17018406 0.018292872 -0.05794999 0.117566556 -0.12961198 -0.09048824 -0.13207422
0.12943716 -0.21486028 -0.14153947 0.11876299 -0.4129346 -0.38971436 0.1190202 -0.23381397
0.10401112 0.14491345 -0.00030873163 0.08718433 -0.15386558 -0.014961221 -0.1626198 0.19507524
-0.16104004 -0.116804905 -0.087560296 -0.2714589 -0.21703056 -0.099501476 -0.20527834 -0.030424513
-0.010563758 0.053331014 0.17517044 0.19157782 0.1909319 0.08675398 0.06517309 -0.1579498
-0.10083565 0.19787392 0.016562471 -0.0028104587 -0.09426019 0.104086325 0.15261501 0.12862852
0.061587874 0.116369195 0.14387941 0.23735027 0.15229943 -0.2427162 -0.3135438 -0.17566103
0.13202731 0.014904263 -0.12920341 -0.32971367 -0.2950297 0.018844372 0.202975 0.18364367
-0.03427413 0.11484656 0.28748894 0.14835468 0.16246516 0.1168494 -0.007054036 -0.0567221
-0.069591254 0.06041025 0.14194135 0.060943022 0.00075434305 -0.02276168 0.011972864 -0.15752834
0.24829876 0.16012469 0.08510927 0.3068415 -0.087563984 0.06889139 0.22860964 -0.18904299
-0.017661624 -0.047928847 -0.20390616 -0.1005845 0.076955125 0.13530144 0.23730086 0.00056813704
-0.15580016 -0.04225098 -0.11999845 -0.1821648 0.11104937 0.020202933 -0.24906044 -0.05008826
0.043622844 0.07444858 0.1634288 -0.1701249 0.11053836 -0.11123078 -0.10221801 0.30673522
0.033258423 -0.44604242 -0.10378589 -0.19848202 0.008279743 0.12750068 -0.13801964 0.07147696
0.21743353 0.09845873 -0.21054497 -0.32699174 -0.2523165 0.00564964 0.012217149 0.19444197
-0.02969429 -0.022098849 0.051937636 -0.042498045 0.16158272 0.15479144 -0.20455289 -0.15245387
-0.09796995 0.14861926 0.13057077 -0.022466574 -0.16002287 0.054618422 0.055533133 0.02590206
-0.047676597 0.09745864 0.34909126 0.13774315 0.20461705 0.26554608 0.035159126 0.16340141
-0.17112966 -0.111775115 -0.18283674 -0.21078274 -0.082504414 0.04747093 -0.27833048 0.049724445
0.13670276 -0.08133352 -0.18036501 0.18650077 -0.100723416 -0.011647313 0.03018735 -0.02871828
-0.043887362 -0.20564508 -0.20016207 -0.0062543093 -0.015463834 -0.1320667 0.03292041 -0.18452655
0.29495358 0.27556002 0.07230265 -0.054199256 -0.3151669 -0.43822843 -0.09043589 -0.053827092
0.08434373 0.14685032 0.14394903 0.2975828 0.08081526 0.11188001 0.18129157 -0.066640966

block1.3.conv.bias f4 [4]
00000000: a31c 123d e271 bfbc 1254 d53d 310a aabc
0.03567184 -0.023369733 0.10416426 -0.020756813

block1.3.BN.weight f4 [4]
00000000: 303f 843f f6b7 853f 9303 843f 0165 783f
1.0331783 1.0446765 1.0313591 0.9702912

block1.3.BN.bias f4 [4]
00000000: af28 aebd f821 a3bd a9f4 6bbc d137 89bd
-0.085038535 -0.079654634 -0.014401593 -0.06700099

block1.3.BN.running_mean f4 [4]
00000000: 22a2 c53e 1c36 0abf 8f83 083f d432 72bf
0.3860026 -0.53988814 0.5332574 -0.9460881

block1.3.BN.running_var f4 [4]
00000000: d637 493f f933 bc3f d133 593f e6d9 8e3f
0.78600824 1.4703361 0.8484469 1.1160247

block2.0.conv.weight f4 [8, 4, 3, 3]
00000000: 4741 90be e78b 86be 108b 79be 197a 40be
00000010: b60d 58be 8a2d 25be b1b8 453d 2169 03be
00000020: 3a9a 03be df64 353e 4474 f03d 0db8 46bd
00000030: 9ca0 0c3d 28b7 5f3b d6d4 10bd 3b6b c23d
00000040: 133d 9d3e ab33 793e 4d66 43be a353 83be
00000050: 222f 87be 17cb 7b3e 2cee 053e 0e13 08be
00000060: 8bfb 463e 5f1e 3e3c bc9d 2abd 978e 96bd
00000070: 62cd d8bd 4fd1 013d 8b0f 15bd 7611 2a3e
00000080: 6c46 b3bd 5a12 1f3e 1173 bc3e 3bab c03e
00000090: 751c fabe 5dcc 84be 2a37 c93e 6d64 39be
000000a0: 673e be3a fa88 a2bb 7408 0a3e cb13 0ebe
000000b0: d019 1b3e 2b69 73be 549e 183e 303a 753d
000000c0: 2bfe 83bd 4cf7 d93c 2b1a 263e d576 32be
000000d0: db15 eebd 20bf e83c 3151 56bd 90a1 b8be
000000e0: ea5f ad3c b3f9 89bd abba a0bd ac58 8e3c
000000f0: 1d6c debd 711f a3bd 8f75 b4be 698d e03d
00000100: 3a22 523e 04c5 b03c 5557 723d af81 19be
00000110: 2a1f d13d 5d7d a93c 1fff 7d3e 4659 613e
00000120: eb62 653d eda1 ee3d a3fe a03e 886b 493c
00000130: 78a8 d5bd 1d95 4c3e f77b 093e 76e1 383e
00000140: 401a 013e cb52 f13c 4649 c93c 788a 18be
00000150: ff68 85be c09a 82be 9b8a 42be 6ac9 c7be
00000160: 3e6c 39bd c3d4 9e3d 1c27 93be f07c a8be
00000170: da2e 023c 2f82 10be 53c2 b6bc 7a2c 01bd
00000180: e318 2f3d 0acc 64be dbeb 89be d761 ac3d
00000190: df84 c43b 2a6c 4b3e 3373 85bd de85 a4bd
000001a0: 80a1 1d3c d2ec 553e 13a2 773e c0c9 d5bd
000001b0: a73f 89be eb1e fb3d edc9 ee3d 9409 e6bd
000001c0: 23ac 6cbe d765 4c3e 8c9a 40be fcb1 49bd
000001d0: 1e48 8a3e d298 553e 34f0 963d 8320 dfbd
000001e0: 46ec 263e 4625 56bc b0d5 d0be 82e2 a13e
000001f0: a2cc fcbd e627 a5bd 77f7 27be f47b 82bd
00000200: ceb8 243e e131 6d3d b47d 25be caf0 983d
00000210: e139 fbbd 42dc a43d f17f 8bbe d798 6bbe
00000220: 5b14 833d 93e7 e93d 0ed0 353e 5a23 603e
00000230: 4cf6 63bd 20f5 bc3d 910d dbbd 29b1 a7bc
00000240: e180 5f3d ca53 5f3e 0ce9 a13e 7e72 e03d
00000250: e9de 37bd c858 763c 870b 653e 1bb5 923d
00000260: 754c 2cbe a7e2 ca3e 5800 863d 6020 533e
00000270: ba2f 74bd 1dee ad3d 7512 ccbc 155d 90bd
00000280: eb97 023c ce2f 5d3e 9934 49bd eeb4 e33d
00000290: 96e8 1d3e a877 21bd 66ea 053e 023e 34be
000002a0: 519d e43d 3d72 033e 06a4 45be 9463 bb3d
000002b0: 9eca d83e e642 a13e 8349 2abe 895b 27be
000002c0: 9a78 833d 0d7e 123e 5739 1b3e e2ba f93d
000002d0: 7c27 92bc 1e32 f53d 7a06 573d 62b8 7f3e
000002e0: a382 963e 3c5f 063e 63a4 52bd adc5 d8bd
000002f0: b052 2abe aaf2 df3d d037 483e 7d36 7a3d
00000300: 6306 dfbe c884 06be 1133 fc3d 3c26 0ebe
00000310: 4ef2 76bd 0d14 abbc 0dc0 013b efab a03e
00000320: a7a9 573d 1074 84be 2e5e f9bb 96c7 a6bd
00000330: f938 18bc 69ea 523e bbdd 023e 336a e23c
00000340: e25d 18bc 7dc3 8d3e bd62 82bd 4588 69be
00000350: f56b e8bd f147 133e 1bbd 933e 5ced 7b3e
00000360: d6da 0dbe b0b5 40be 7700 663e c0a0 35be
00000370: 6847 32bd e468 b73d cb38 533e 2477 0f3e
00000380: 17b2 fa3d cc79 953e 6e3c 093e cd74 b7bd
00000390: 8613 b63d d1a4 db3d a265 e33c 0a45 ab3e
000003a0: ce30 08be f757 253d e466 a1bc 7008 363e
000003b0: 8c76 883c f91b 853e 4b1d fc3c 7069 683e
000003c0: 918d 053e 7d46 6e3e 6d0d 903e 8e1e 75be
000003d0: afa7 e43c 75d7 26be ac75 7a3d 0e64 303c
000003e0: d4ac 18bd 8d74 9b3b ebcd cebd 7f4e c2be
000003f0: d735 943c d3b5 623e 661b 273e 8241 b33d
-0.28174803 -0.26278612 -0.24369454 -0.18796577 -0.2109898 -0.16130653 0.04827184 -0.12833072
-0.12851802 0.1771426 0.11740926 -0.04851537 0.034332857 0.003413627 -0.035359226 0.09493109
0.30710658 0.24336116 -0.19081993 -0.25649747 -0.26403147 0.24589191 0.13079137 -0.13288519
0.19431894 0.011603921 -0.041654333 -0.073514156 -0.10586049 0.031693753 -0.036391776 0.16608223
-0.08753666 0.15534344 0.3680654 0.37630638 -0.48849836 -0.25937167 0.392999 -0.18104716
0.0014514447 -0.0049601765 0.13479787 -0.13874738 0.15146565 -0.23770587 0.14904147 0.059869945
-0.06444963 0.026607178 0.1622092 -0.17428143 -0.11625262 0.028411448 -0.052323524 -0.36060762
0.0211639 -0.067370795 -0.07848104 0.017376266 -0.10860465 -0.07964981 -0.3524594 0.10964472
0.20520869 0.02157832 0.059165318 -0.14990877 0.10211022 0.02068966 0.24804352 0.22006711
0.05600254 0.11651979 0.31444272 0.012293704 -0.104325235 0.19978757 0.13426195 0.18054757
0.1260767 0.029458424 0.024571072 -0.14896572 -0.26056668 -0.2550869 -0.18998186 -0.39020854
-0.045269243 0.07755425 -0.28740776 -0.3290782 0.007945741 -0.14112161 -0.022309458 -0.031536557
0.042748343 -0.2234346 -0.26937756 0.08417099 0.005997285 0.1986548 -0.06516113 -0.08033346
0.009621024 0.20891121 0.2418292 -0.104388714 -0.26806375 0.122617565 0.11659608 -0.11232296
-0.2311254 0.19960724 -0.18808955 -0.049242005 0.27008146 0.20859078 0.07370034 -0.10894873
0.16301069 -0.01307041 -0.4078803 0.31618124 -0.12343718 -0.08064251 -0.16402994 -0.063712984
0.16086122 0.057908896 -0.16161233 0.07467802 -0.12266899 0.08049823 -0.2724605 -0.23007523
0.06400367 0.114211224 0.17755148 0.21888486 -0.05565481 0.092264414 -0.10695947 -0.020470219
0.054566268 0.21809307 0.31623113 0.10959338 -0.044890318 0.015035816 0.22367679 0.071634494
-0.16826041 0.39626047 0.06543034 0.20617819 -0.059615828 0.08492682 -0.024911145 -0.07049004
0.00797079 0.21600267 -0.049122427 0.11118494 0.15420756 -0.039420754 0.13077697 -0.17601779
0.11162818 0.12836547 -0.19300851 0.091498524 0.42342085 0.31496352 -0.16629605 -0.16343512
0.06419487 0.14305897 0.15158592 0.12193848 -0.017841093 0.1197245 0.05249641 0.2497268
0.29396543 0.13122267 -0.051426303 -0.10584579 -0.16633105 0.10934956 0.19552541 0.06108712
-0.4355956 -0.1313659 0.12314428 -0.13881773 -0.060289674 -0.020883584 0.001979831 0.31381175
0.052652027 -0.258698 -0.007610104 -0.08143537 -0.009290927 0.20597233 0.12779896 0.02763853
-0.009299727 0.27688208 -0.06366489 -0.22805889 -0.11348716 0.14382912 0.28855214 0.24602264
-0.1385301 -0.18819308 0.22461115 -0.17737103 -0.04352513 0.08955553 0.20627134 0.14010292
0.12240999 0.29194486 0.13401958 -0.08957825 0.088904426 0.107247956 0.027758423 0.3345111
-0.13299868 0.040367093 -0.019702382 0.17776656 0.01665809 0.25997904 0.030775687 0.22696471
0.13042285 0.23269077 0.28135243 -0.23937437 0.027911989 -0.16293128 0.061147377 0.010766042
-0.037274197 0.0047441185 -0.100978695 -0.37950513 0.01809208 0.22139673 0.16319045 0.08752729

block2.0.conv.bias f4 [8]
00000000: 5e4f 5e3e a146 59be 163a b03e ab9c 3c3d
00000010: b1f1 5cbd 0c8d 6a3e c83e 023c 8336 063d
0.21709964 -0.21218349 0.34419316 0.046047848 -0.053941432 0.22905368 0.0079495385 0.03276683

block2.0.BN.weight f4 [8]
00000000: 7808 863f 4e04 7b3f f212 813f 7cb5 993f
00000010: 0e7b 743f 49f0 5f3f bae0 7b3f 21a4 843f
1.0471334 0.98053443 1.0083907 1.200851 0.95500267 0.8747602 0.9838978 1.0362588

block2.0.BN.bias f4 [8]
00000000: 2b06 d23d b951 013e 6fef 3ebd 0055 10be
00000010: 4fb8 11be 4957 3b3e dc72 69be 514e be3b
0.10255083 0.12628831 -0.04661506 -0.14094925 -0.14230464 0.18295015 -0.22797722 0.005807676

block2.0.BN.running_mean f4 [8]
00000000: 3b99 1d3d df23 0ebf 1914 ab3c 8a49 85bd
00000010: 73fd 4f3f f990 153f fbc1 153f af96 b63e
0.03847621 -0.55523485 0.020883607 -0.06508167 0.8124611 0.58424336 0.58499116 0.35661837

block2.0.BN.running_var f4 [8]
00000000: 43e1 ba3f 9037 1b3f 6bae 703f 0463 d53e
00000010: 986a 6a3f 6b6c 083f 5688 4d3f 2fc2 133f
1.4599994 0.60631657 0.9401614 0.41677105 0.915689 0.5329043 0.8028616 0.57718176

block2.1.conv.weight f4 [16, 8, 3, 3]
00000000: 2beb 1d3e 8735 673d b305 f13d a42b 2dbe
00000010: 32be 29be a7bc 5fbe 80df 4fbd d134 e6bd
00000020: 7b9b 68bd edb4 643b d8d4 6d3b 8868 d73d
00000030: f69c cc3d 82f9 1cbe c550 20bd 59dd 6a3e
00000040: 3151 183d ee8f 293e 4a8b 6dbe ef17 91be
00000050: 1874 a1be 3a22 a63c f1d0 1fbd 9a0a d1bd
00000060: 5d49 18bd 4e9c 0a3e 4e12 423e 910e 773e
00000070: 2144 063e 7714 ea3c f73b 483d bbd7 ec3d
00000080: 3a67 833d cd90 c03e 1f70 9b3e 04f8 a43e
00000090: 8da4 88be 8f45 05be 2701 b73c 90e4 c43c
000000a0: fddd 283d 1299 8dbd 3c1f 09be a5e2 3b3d
000000b0: 7f57 473e 666f b4be 259f d73c 0740 903d
000000c0: 4037 41be 9c5a 953d 5eca 79bd 8871 973d
000000d0: bc90 4b3e df18 013e 1f81 b5bc 14e3 f1bd
000000e0: 61f2 413e 4597 f23c a8a1 05be 3e4c 0c3e
000000f0: db0a 1f3d e1b5 dd3d a553 373e 89d5 5e3d
00000100: 6b87 cbbe 8e92 23be 34ed 86be 839f 37be
00000110: 19a4 fbbd 823a 1e3d 58bf 8cbb f0b3 0a3c
00000120: 9e94 933e 9f0b 4b3d 48fd a5bd 49ba d3bc
00000130: 9de4 1abe c331 0fbe a077 8ebd 6ce5 a43c
00000140: bea0 723d 7e88 943e 0744 d63c aa20 613d
00000150: 615e 163e 789d a13d b6bf 7cbd 4dbf 8dbe
00000160: d22a 02bd 6849 b0bd e21f 5dbe 44d1 15be
00000170: b3b8 16be 008b 65be cbd3 3dbe b1f5 6ebe
00000180: 0e7f 2fbe e9d7 23be f572 8dbc b81d 883e
00000190: 7f70 0a3e 3451 1e3e 0dbe 283e 16f8 da3d
000001a0: a349 2d3e eb37 a7bc b4fd 95bc 8eae 8bbe
000001b0: c8bb 1bbe 4e58 74be 0e5d 74bd 6136 453e
000001c0: a06e 51bd 7139 5bbe d421 053e 292e 3ebd
000001d0: fc32 97be 4519 8b3c 05a8 a33d 53bb 3cbe
000001e0: df56 1b3d 462d 9f3d b356 aabe 3bb8 673d
000001f0: 72cd 8c3d 0c8e cabe 49c4 43be 457a 9abb
00000200: 2218 423c 79c7 a5bd 3c67 febd cd94 c3bd
00000210: 0e41 49bb 7629 16be fd16 97be 5617 99bc
00000220: aeb7 ebbc 4c7b fb3d b8fc 6cbe 5f7d 3fbe
00000230: 20d6 d83c 14ef 273d 7521 a1bd 9936 d93d
00000240: 7720 c5bd ff97 803d 661a 17be 2cb1 5d3d
00000250: 7c22 253e c75e d93d b3b8 203e 0fb7 873d
00000260: 509b 65bd 97f2 babe ecb4 b1be d231 07be
00000270: 2e24 aebc 6298 e3bd a1ad 32be 9a66 9ebd
00000280: f8ad b53b 89f6 203e 7f30 62bd 849e cdbd
00000290: 60ab 953d a41e a43d f23c 7abc cbfc 003e
000002a0: fba5 283e a383 99bd 1ef5 a0bd 63fb 103d
000002b0: 6551 a53d 667e 0cbe 3157 643c 73ee b1bc
000002c0: a091 543d 4154 3abe 8e0f 8c39 6d36 6c3e
000002d0: e7a0 e9be b396 87be a922 d7bd aaec 8bbd
000002e0: 8476 06be 9a02 9cbe 91ea 2d3c 7b01 dc3d
000002f0: 0b7b 16bd 52fc c0bd b1b0 dcbd 4fd9 663d
00000300: f0fe fd3d 98a9 e1bd eb64 89be bd5a 503e
00000310: bc5b eb3d bd51 3b3e afcb 9ebe 1d8b 68be
00000320: ec62 c3be 5dc2 01bd fb35 5bbe c58b 06be
00000330: 1497 e13d e0d7 533c f91d 7c3d d902 ec3d
00000340: 3de6 5e3e b4bf 033e d73d ac3e cff7 243e
00000350: 5299 53bb 14bd 353e 755f 5a3d 224a c63c
00000360: 8bc9 12bd fe61 d7bb d94f 0d3a 0bca 34bc
00000370: 1007 27be ec10 88bd 7550 d1be 7bd9 aebe
00000380: ccc9 cebe 16d4 a53d 31fa e63d e291 04bd
00000390: 38ca 02be aac0 2e3d 730f c73b 6528 47be
000003a0: 3dd6 8bbe 486c 58be c608 58bb 6e5e 8aba
000003b0: 14e9 79bc d37c bc3b 74b3 c13d 7ad9 7b3b
000003c0: 41bc 19be 6e29 07be 1c64 4dbd 879e 0c3e
000003d0: e127 9a3e a639 793e befa 31bd 57c8 863e
000003e0: 50cd c43c 9d63 5cbe f957 aabb 9af8 af3d
000003f0: d3e1 0abe 3278 f8bd 7a95 9dbd 10e0 693d
0.1542174 0.056447532 0.11768665 -0.16911179 -0.1657646 -0.21849309 -0.050750256 -0.11240543
-0.056788903 0.003489788 0.0036290195 0.10517985 0.099908754 -0.15329555 -0.039139528 0.22936
0.037186805 0.16558811 -0.23197666 -0.28338572 -0.31533885 0.020279992 -0.03901762 -0.102071
-0.03717934 0.13536188 0.18952295 0.2412665 0.13111927 0.028574212 0.048885312 0.11564585
0.06416173 0.37610474 0.3035898 0.3222047 -0.26688042 -0.13014816 0.022339417 0.024034768
0.04122733 -0.069139615 -0.13390821 0.045870442 0.19466971 -0.3524124 0.026321003 0.07043462
-0.18868732 0.07292673 -0.060984008 0.07394701 0.1987943 0.12607144 -0.022156296 -0.1181089
0.18940116 0.029613147 -0.13049948 0.13700959 0.038828712 0.10825706 0.17903002 0.05440286
-0.39751753 -0.15973875 -0.26352847 -0.17931943 -0.122871585 0.038630016 -0.004295271 0.008465752
0.28824323 0.04957163 -0.0810495 -0.025845664 -0.15126272 -0.13983826 -0.069564104 0.020128928
0.059235327 0.29010385 0.026155485 0.05496279 0.1468444 0.07891363 -0.061706267 -0.27685013
-0.031779118 -0.08607751 -0.21594194 -0.1463061 -0.14718895 -0.22416306 -0.18537824 -0.23335911
-0.17138311 -0.16000332 -0.01726673 0.26585174 0.13519476 0.15460664 0.16478749 0.1069185
0.16922621 -0.020412406 -0.018309452 -0.27281612 -0.15208352 -0.2386181 -0.059659056 0.19259025
-0.05113089 -0.21408631 0.13001186 -0.04643074 -0.29531085 0.016979823 0.079910316 -0.18430834
0.037924644 0.07772307 -0.3326927 0.05657218 0.06875123 -0.39561498 -0.19117846 -0.0047142827
0.011846574 -0.08094687 -0.12422034 -0.09549866 -0.0030708942 -0.14664254 -0.29509726 -0.018687885
-0.028774109 0.122793764 -0.2314328 -0.18700169 0.02646929 0.040999487 -0.078677095 0.10606117
-0.09625333 0.06278991 -0.14756164 0.054124042 0.16126436 0.106137805 0.15695457 0.066267125
-0.05605632 -0.36513206 -0.34708345 -0.13202599 -0.021257486 -0.11113049 -0.17449047 -0.077344134
0.0055444203 0.15719046 -0.05522203 -0.1004 0.07308078 0.08013657 -0.01527332 0.12596433
0.16469567 -0.07495811 -0.078592524 0.03539599 0.080721654 -0.13720092 0.013936804 -0.021720147
0.05189669 -0.18196203 0.0002671447 0.23067637 -0.4563057 -0.26482162 -0.10504658 -0.068322495
-0.13131148 -0.30470735 0.010615007 0.1074247 -0.036738437 -0.09423126 -0.10775889 0.056359585
0.12402141 -0.110186756 -0.26834807 0.20347114 0.11492106 0.182929 -0.31014773 -0.22709318
-0.3816141 -0.0316795 -0.2140731 -0.13139255 0.11015144 0.012929887 0.06155202 0.11523981
0.21767516 0.12866098 0.3364093 0.16110156 -0.003228743 0.17747909 0.05331369 0.024205271
-0.035836738 -0.006572961 0.00053906214 -0.011034499 -0.16311288 -0.066438526 -0.40881696 -0.341503
-0.40388334 0.08097093 0.11278189 -0.032365687 -0.12772453 0.042664208 0.0060748397 -0.19449003
-0.27311888 -0.21135056 -0.0032964214 -0.0010556707 -0.015253324 0.005752185 0.09458056 0.0038429187
-0.1501322 -0.13199398 -0.0501443 0.13732348 0.3010855 0.24338397 -0.043452017 0.26324722
0.024023682 -0.21522374 -0.0051984754 0.08592339 -0.13562708 -0.121323004 -0.07694526 0.05709845

block2.1.conv.bias f4 [16]
00000000: 5cb8 a3bd 8bc9 4abe 10f2 1c3e 12e3 04be
00000010: e971 32bd 9395 3c3d 0e25 69be c9bf 863d
00000020: db73 093e 8353 cd3d 20ad 633b 4298 023d
00000030: b31d bfbd ecd8 70bd 5056 4c3e fac7 313a
-0.07994148 -0.19803445 0.15326715 -0.12977245 -0.043565664 0.046041083 -0.22768041 0.06579549
0.13423102 0.10025694 0.0034740642 0.031883486 -0.093318366 -0.058800623 0.199548 0.0006781813

block2.1.BN.weight f4 [16]
00000000: 2879 793f 0148 863f 437b 833f aa5a 873f
00000010: fd05 8d3f 45ee 8f3f 4647 763f 386e 783f
00000020: 27b8 7f3f ab68 823f f126 7b3f d4fc 803f
00000030: 0614 483f 538b 953f 7a2f 853f 12b2 8a3f
0.97450495 1.0490724 1.0271991 1.0574543 1.1017452 1.1244589 0.96202505 0.9704318
0.9989037 1.0188192 0.98106295 1.0077157 0.78155553 1.1683143 1.0405114 1.0835593

block2.1.BN.bias f4 [16]
00000000: 7ab1 34be a034 1fbe 815d 89bc a82f 20be
00000010: f4b3 f0bd a4b4 f5bd 8572 b5bd 656c ccbe
00000020: 11b2 bfbe e354 7fbd 8ef4 2bbe add0 1cbe
00000030: 92db aebe dbf1 123e ccae bebd 3c3a dabd
-0.17645827 -0.15547419 -0.016768219 -0.1564318 -0.11753073 -0.11997345 -0.088597335 -0.39926448
-0.3744054 -0.062336814 -0.16792509 -0.15313978 -0.34151894 0.14350073 -0.093106836 -0.106556386

block2.1.BN.running_mean f4 [16]
00000000: 641c 11be cbb9 9fbf c3f0 8ebe 1ddb e9bf
00000010: 0197 eabf a37f 96bf 9520 653e 04bb 863f
00000020: 859c 203f 1d6e 24bf 0993 07bf 8799 7f3e
00000030: 6c5e c53f 4d93 8bbf 3d1c f8be c558 5dbf
-0.14170986 -1.2478575 -0.27918062 -1.8269993 -1.8327333 -1.1757702 0.2237571 1.0525823
0.6273883 -0.6423052 -0.5295873 0.2496091 1.541944 -1.0904328 -0.48459044 -0.86463577

block2.1.BN.running_var f4 [16]
00000000: 3632 d23f c345 b03f e84b bb3f 76e6 df3f
00000010: 3a63 5d40 3bc0 f83f 513e 8d3f f63a c43f
00000020: 132d d43f b5ed d03f 5d77 803f 3137 c43f
00000030: 33de e63f 5967 f53f 0eba 9f3f 181f aa3f
1.6421573 1.377129 1.463254 1.7492206 3.4591813 1.9433664 1.1034642 1.5330493
1.6576256 1.6322542 1.0036427 1.5329343 1.803656 1.9172164 1.2478654 1.3290739
