model/result/0509 1137.pt (torch, 79133 bytes, 98 tensors)

input_conv.conv.weight f4 [4, 1, 3, 3]
000000 5d c3 81 be b8 e1 78 be e1 ac 3e be 51 7c aa 3e
       -0.25344363 -0.24304855 -0.18620636 0.3329797
000010 2f 22 8e 3e d2 59 cd 3d b1 80 9c bb 2a 1d 26 3e
       0.27760455 0.100268975 -0.0047760834 0.16222063
000020 50 14 3c 3e 34 c7 c8 be 1b 67 d3 be 61 b9 d5 be
       0.18367124 -0.3921448 -0.412896 -0.41742995
000030 96 dc 88 3e 34 76 28 bc ac 7d 5e 3d ac fd 19 be
       0.26730794 -0.010282088 0.05431907 -0.15038174
000040 00 2f 6f bc fd c5 49 be d0 cb dc 3e 0f b0 18 3f
       -0.014598608 -0.19704433 0.43124247 0.59643644
000050 d8 d6 64 be 23 12 da bb 46 15 d4 3d 0f b9 ef 3d
       -0.22347581 -0.006654994 0.1035562 0.11705219
000060 d9 d2 20 be 57 fd af bd 0a 30 04 3e e5 c0 51 bd
       -0.15705432 -0.085932426 0.1290895 -0.05120935
000070 5e 13 80 3c 5e 88 5b be 7a b9 c9 3e 5f ef 79 be
       0.015634235 -0.21438739 0.3939932 -0.24407719
000080 aa c3 05 be 2c 68 cf 3e 9a 3b ea 3d cb b2 94 bd
       -0.13062921 0.40509164 0.11437149 -0.072606646

input_conv.conv.bias f4 [4]
000000 a3 f9 5b be b4 82 85 be cb 49 14 be a2 44 5b be
       -0.21481948 -0.2607628 -0.14481275 -0.214129

input_conv.BN.weight f4 [4]
000000 87 39 77 3f 7c b5 81 3f b5 c3 90 3f 97 b2 54 3f
       0.96572155 1.013351 1.1309725 0.83085006

input_conv.BN.bias f4 [4]
000000 45 30 44 be 5b d7 a8 bd 78 c4 52 3d cf 2a 06 3f
       -0.19159038 -0.08244201 0.0514569 0.5240907

input_conv.BN.running_mean f4 [4]
000000 d1 27 65 be ec cf 91 be d0 e7 02 be 8a 04 60 be
       -0.2237847 -0.28478944 -0.12783742 -0.21876732

input_conv.BN.running_var f4 [4]
000000 6b 94 35 3e 49 39 b1 3f f0 00 42 3f 68 cb ea 3d
       0.17732398 1.3845607 0.7578268 0.11464578

block1.0.conv.weight f4 [8, 4, 3, 3]
000000 cb 20 d3 3d e9 c8 5c 3e 72 65 ee bc d3 1e ca 3c
       0.10308989 0.21561016 -0.029101107 0.024672901
000010 1c 4c eb 3d 19 7e 9a 3e 08 32 63 bc 74 01 0f be
       0.11489126 0.3017433 -0.013866909 -0.13965398
000020 ea f9 89 bb fd b3 27 be a9 a6 44 3e 20 df 2f bc
       -0.0042107003 -0.16377254 0.19204201 -0.0107343495
000030 aa fc 4b 3d 8d 32 56 3e 6c 4f bf ba 76 a5 3b bd
       0.049801506 0.20917721 -0.0014595813 -0.045812093
000040 e1 dd 13 3e e9 6b 79 bd 7e fd 62 3e 2d ca bf 3d
       0.14440109 -0.060893927 0.22167012 0.09364734
000050 0f e1 f0 3d be 42 5d be 3f 2c c5 bd 4e c0 97 bc
       0.117616765 -0.21607491 -0.0962758 -0.018524315
000060 dc 5e 44 be 43 34 82 3d 8c ab 98 3e 62 a8 de bd
       -0.19176811 0.063576244 0.2981838 -0.1087196
000070 94 8e 26 3d 1d de 3c 3e 16 9d 74 be 64 fc 0d be
       0.040663317 0.18444104 -0.23888049 -0.1386581
000080 30 ec 15 3e 57 4d cd bd ff e8 a0 be 3f 1a 0e be
       0.1464088 -0.10024517 -0.31427762 -0.138772
000090 07 e8 df 3c c9 ac c1 3c 44 f5 d1 ba 45 a6 d5 3d
       0.027332319 0.02364196 -0.001601853 0.10432104
0000a0 25 32 ec bd ed cc 5c 3e 31 a1 41 bc 3a 89 8d bd
       -0.11533002 0.21562548 -0.011818216 -0.069109395
0000b0 de 7a ae bd 3d d4 86 bb e9 96 34 3e de a7 22 3c
       -0.08519529 -0.0041146562 0.17635693 0.009927718
0000c0 0e 12 64 3d 62 e6 54 be f0 e9 78 bd 44 30 16 3d
       0.05568128 -0.20791009 -0.060769975 0.036667123
0000d0 37 66 8f 3c aa 9a a3 be f3 e9 9a 3e f4 c2 a2 3d
       0.017504795 -0.31953937 0.30256614 0.079473406
0000e0 8a e7 05 be ea 71 1a 3e f9 0a 89 be ed bf 9c be
       -0.13076606 0.15082517 -0.26766184 -0.30615178
0000f0 5f 5f 46 3e 6b 47 cb be 44 44 b7 bc dd d6 91 3d
       0.19372319 -0.39702925 -0.022371419 0.0712106
000100 91 2d c4 3d 93 43 c6 be a7 6d 31 bd 71 72 55 bb
       0.095790036 -0.3872343 -0.043317463 -0.0032569433
000110 dc c7 c1 bd 1c 54 0a 3e 82 1a 5b bd 5a 97 d1 be
       -0.09461948 0.13508648 -0.053492077 -0.40935785
000120 75 1b 88 bc 98 bf 01 3e 01 30 a5 bc d5 36 37 bd
       -0.016614655 0.12670743 -0.020164492 -0.044730026
000130 64 2c 22 be 23 89 8f be 25 2c 16 3d 3b 27 1d be
       -0.15837246 -0.28034315 0.036663193 -0.15346996
000140 92 76 91 bc a7 e8 87 3d 6e 5d 2e 3d 58 37 00 be
       -0.017756734 0.06636172 0.04256957 -0.12521112
000150 19 98 b7 bc fe 54 f0 3d b6 c6 96 3c 3f f3 f0 bd
       -0.022411393 0.11734961 0.0184053 -0.117651455
000160 0d 63 a9 3d a5 99 e7 bd 45 5f b3 bd 49 3e ef 3e
       0.082708456 -0.11308602 -0.087584056 0.46727207
000170 03 70 0e 3f e4 31 40 bc e0 65 40 bd 11 fe 29 3e
       0.55639666 -0.011730645 -0.046972156 0.16600825
000180 37 ee 5c 3d 06 49 a8 bd c0 42 99 bd 96 58 39 be
       0.053938117 -0.08217053 -0.07483435 -0.18100199
000190 cb e3 0b bd 5f 3d 36 3e c4 4b 07 3e a0 6a b9 3d
       -0.034152787 0.17796849 0.13212496 0.0905354
0001a0 a0 89 3c 3d 56 d8 06 bd f2 d7 71 3e 86 e1 de bd
       0.046029687 -0.032921158 0.23617533 -0.10882859
0001b0 d7 93 f5 3d 42 55 a9 3d f1 bb 92 3d 03 9f c5 3e
       0.11991089 0.08268215 0.07164753 0.3859788
0001c0 3a 7d 4e bb a7 2e 06 be bd b3 03 3f ee 3c 1b 3e
       -0.0031507746 -0.13103734 0.51446134 0.15159962
0001d0 05 79 9c 3c 4e d4 dc 3d 81 53 62 bd bd 05 7c 3e
       0.019100675 0.107826814 -0.055255417 0.24611564
0001e0 ff 31 fa 3d 55 ca 7c 3c 75 ec 7a 3e fb bd 89 3d
       0.12216567 0.015429099 0.24504264 0.06725689
0001f0 c2 2e 52 3d 95 82 70 3e 2f cf e3 3d 6d 9b bf 3d
       0.051314123 0.23487313 0.111235015 0.09355817
000200 ac 57 d0 bd 93 da 2c 3e 91 cc cc bd f6 26 24 be
       -0.10172972 0.16880254 -0.099999554 -0.16030487
000210 ae 30 0f 3e 45 97 04 3e 78 28 6c be 76 2d fb bc
       0.13983414 0.1294833 -0.23062313 -0.030661326
000220 4e 48 7e be c9 0f 0e 3e 73 9b a5 bd 4c 83 5f bc
       -0.2483227 0.13873209 -0.0808629 -0.013642143
000230 46 7c ae bd 1f c2 ac 3e e1 e2 9a 3e 73 64 74 bd
       -0.08519797 0.33741853 0.3025122 -0.05966611
000240 96 08 17 bc 10 7d 55 bd 0d 25 bd bc d4 1f 97 3e
       -0.009218356 -0.052121222 -0.023088956 0.2951647
000250 93 04 ad 3d b0 57 e1 bc 80 f7 5b 3e 7a 9d 5f 3d
       0.08448138 -0.027507633 0.21481133 0.05459354
000260 28 c8 c2 bd 40 eb 14 3d bb 01 01 3e 8f ed 51 3e
       -0.09510833 0.036357164 0.12598316 0.20500778
000270 60 23 ef 3d 69 12 75 3e 27 da 14 be e0 79 ab 3e
       0.11676669 0.23932804 -0.14536344 0.3349142
000280 fe ce d8 3e df c6 00 bc 53 94 1d 3e 58 d9 40 3e
       0.42345423 -0.007859915 0.15388612 0.1883291
000290 47 af b3 3c f0 36 7b bc ad 26 c8 3d 14 03 63 3e
       0.021934165 -0.015332922 0.09773002 0.22169143
0002a0 3f b5 ed be bc 3b b3 be 55 1b 32 be 9d 56 32 3e
       -0.46427342 -0.3500651 -0.17393239 0.17415853
0002b0 cb e1 2d 3e 1b 3d 16 3d 9b bf 99 bd 24 0a 29 bd
       0.16980664 0.03667937 -0.07507249 -0.041269436
0002c0 bd ed 5a be e7 cf bb ba 00 d2 7f bd 13 8e f1 3c
       -0.21379752 -0.0014328928 -0.06245613 0.029486692
0002d0 ed 40 e5 be 4f 7d bb bd bf 2e 10 bd d3 59 c2 bd
       -0.44776097 -0.0915476 -0.03520083 -0.09489789
0002e0 57 2e c5 3d b4 d5 00 be 20 d2 0a 3e fa 0e b6 3d
       0.09627979 -0.12581521 0.13556719 0.08889575
0002f0 d0 9c 73 3d a9 7c 26 be 74 a0 b5 bd 9a e2 53 bd
       0.05947572 -0.16258492 -0.08868495 -0.051729776
000300 86 71 b9 bd c1 f5 80 be 41 ff 6b be a4 4f 75 bd
       -0.09054856 -0.25187495 -0.2304659 -0.059890404
000310 b3 50 c6 be 38 4c c9 be 2f 44 04 be 5d bf 38 3e
       -0.38733444 -0.39315963 -0.12916635 0.1804175
000320 80 4e 9a 3d 10 04 e4 3c b9 68 74 3e 31 90 b4 bd
       0.07534504 0.027833968 0.23868074 -0.08816565
000330 3e 78 3e be 5d 6b b2 3c 1f ca e4 ba 88 fa 95 be
       -0.18600556 0.02177971 -0.0017455256 -0.29292703
000340 ae a7 9a 3d b0 b6 18 bd 6c 5a 21 be 58 0f 7d 3d
       0.075515136 -0.0372836 -0.1575715 0.06178221
000350 f5 a2 99 3d 8e 36 34 be 7c 12 b8 3d 43 18 2a 3e
       0.07501785 -0.17598936 0.089879006 0.16610818
000360 6b e9 b6 3d 97 41 89 3c ed 6c b5 bd 9c 04 d7 3d
       0.0893124 0.016754908 -0.088586666 0.10498926
000370 7c b4 b8 ba 5f 96 15 3e f0 f6 21 3e 0c e2 bc 3e
       -0.0014091874 0.14608143 0.15816855 0.3689121
000380 c5 9e 2d 3e 5c 9f 23 3e 8e a9 7e 3e 57 b2 6d 3e
       0.16955097 0.1597876 0.24869367 0.23212563
000390 bd 1d c9 bd bd d6 76 bc f9 0c 0b bb be cb 8b be
       -0.09820125 -0.015065846 -0.002121745 -0.2730388
0003a0 89 70 34 be c0 9d 83 bd a3 08 c2 bd 30 18 f4 bc
       -0.17621054 -0.06426573 -0.094743036 -0.02979669
0003b0 9a cd 8e bd f9 c6 fa be 4b 57 a8 be 12 f6 f4 be
       -0.06972809 -0.4897993 -0.328791 -0.47843987
0003c0 d9 40 f5 bb 89 65 e4 bd 15 e0 cf 3d 71 84 8b 3d
       -0.007484537 -0.11152179 0.10150162 0.068123706
0003d0 e9 8c 9a bd af 36 99 bc 79 54 0e be 2c 1f a6 bd
       -0.07546408 -0.018702833 -0.13899411 -0.08111414
0003e0 ea e9 b1 3d 0f a9 69 3d 9e d6 76 ba b3 4f 89 bb
       0.08687194 0.057045992 -0.0009416136 -0.004190409
0003f0 cd 54 bb bd 15 a8 75 be db ba 02 be 54 27 09 3e
       -0.09147034 -0.239899 -0.12766592 0.13393909

block1.0.conv.bias f4 [8]
000000 af 3a f9 3d c0 8d 0e 3d 15 20 96 3e f3 69 41 bc
       0.12169396 0.034803152 0.29321352 -0.011805045
000010 1e c5 26 be e6 09 16 bd 1d 2b ff 3d 92 25 64 bd
       -0.16286132 -0.036630534 0.12459395 -0.055699892

block1.0.BN.weight f4 [8]
000000 58 06 79 3f 2b b5 71 3f 24 e3 83 3f ef 7e 77 3f
       0.97275305 0.94417065 1.0303693 0.9667806
000010 38 80 83 3f 86 cc 93 3f 6c 10 6d 3f b0 d4 81 3f
       1.0273504 1.1546791 0.9260318 1.0143032

block1.0.BN.bias f4 [8]
000000 ba 8c 9b 3d fe 81 3e bd 72 62 b1 bd 74 16 06 3c
       0.07595201 -0.04651069 -0.08661355 0.008184064
000010 86 8d 3a be 16 f0 d6 3d a2 28 14 be 88 75 bf bd
       -0.1821805 0.104950115 -0.14468625 -0.09348589

block1.0.BN.running_mean f4 [8]
000000 89 df e1 3d 8b b2 59 bf ba a8 66 3f 1b 41 8d 3f
       0.11028964 -0.8503806 0.90101206 1.1035494
000010 4c c0 d0 3e 74 86 81 bf 76 6d 08 bf 36 d1 bc be
       0.4077171 -1.0119157 -0.53292024 -0.36878365

block1.0.BN.running_var f4 [8]
000000 02 31 e7 3e 4a 6a 38 3f 4e 15 46 3f 79 ea 52 3f
       0.45154577 0.72037184 0.7737626 0.82389027
000010 5d e2 ab 3e 86 44 09 3f 82 71 86 3f c6 3e a9 3e
       0.3357114 0.53620183 1.050339 0.33055705

block1.1.conv.weight f4 [16, 8, 3, 3]
000000 9d 3b 54 bd 17 ba 18 bd 06 cf 03 be de 5d c5 3a
       -0.051814664 -0.037286844 -0.12871942 0.0015057882
000010 f1 10 8b 3d 58 13 76 bd 38 6f c0 bd f0 1c 86 3e
       0.06790341 -0.06007704 -0.09396213 0.26193953
000020 4f 33 3a 3e da 13 a0 3e 45 e2 48 3e 2f 41 be 3d
       0.18183635 0.31265146 0.19617565 0.092897765
000030 c9 df c5 bd 58 25 1c be 54 b5 4c bc 5c f9 a8 bd
       -0.09661824 -0.1524862 -0.012494404 -0.082506865
000040 0b cd f0 bd 23 d8 8f 3d a5 f3 8c be 74 2c 87 be
       -0.11757859 0.07023647 -0.27529636 -0.26401103
000050 d0 2d ed 3b 9d c9 1e 3e 52 9c af 3c 60 b8 70 3d
       0.0072381273 0.15506597 0.021436844 0.058769584
000060 46 90 c3 bd 64 8c 32 3e 18 d5 28 3e 76 3c 66 be
       -0.09549002 0.17436367 0.16487539 -0.22484002
000070 c0 23 b2 be e6 c1 17 be 49 34 26 be bd 2c 32 3d
       -0.347929 -0.1482006 -0.16230883 0.043499697
000080 4a 27 f3 3d f1 5d 8b be 3e 6f 7b 3c 3b a0 3b 3e
       0.11872728 -0.2722011 0.015346346 0.18322842
000090 6b 9d 4e 3d 0d 83 1e be e3 d0 d4 bd 20 26 0c 3e
       0.050443094 -0.1547968 -0.103914045 0.13686419
0000a0 85 b6 0e 3d cd 8d 02 3e b9 e3 a8 bd d0 e8 0a 3c
       0.034842033 0.12749405 -0.0824656 0.008478358
0000b0 8a da 06 3e 27 c8 61 be 70 ca 27 be e2 d1 66 be
       0.13169304 -0.22049008 -0.16385818 -0.22541001
0000c0 62 5d 37 be 39 6b ff bd 14 61 84 bd ce a8 2c 3e
       -0.17906716 -0.12471623 -0.06463829 0.16861269
0000d0 a2 99 6b 3d f2 c5 b1 3d 25 42 bd 3e f3 c3 d0 3e
       0.057519563 0.08680333 0.36964527 0.40774497
0000e0 37 32 f7 3d d7 09 e8 3a 75 bb c3 bd 06 72 8a bd
       0.120701246 0.0017703128 -0.09557239 -0.067600295
0000f0 d9 34 c4 bc b8 ff 6c bc 4c ea 0c 3d 4e 16 d0 3d
       -0.023950981 -0.014465265 0.03440313 0.10160504
000100 6e 75 70 3c 66 88 b9 3d 59 5d 8e bd 05 ca 3a be
       0.014676435 0.09059219 -0.069513984 -0.18241127
000110 51 e0 09 be cf 53 32 3e 9b e6 f9 bc dd 59 80 3c
       -0.13464476 0.17414783 -0.03050547 0.01566785
000120 0f c2 0e 3e 64 43 fc 3d 56 30 ef bd ed c1 91 bd
       0.13941215 0.12317541 -0.11679141 -0.071170665
000130 d9 79 ce be 97 13 ea be 74 85 5b 3e a2 4d d6 3d
       -0.40327337 -0.4571807 0.21437627 0.10464026
000140 cd 00 c1 3d dc bd 4f be 5f 97 61 be 8d 26 e9 bd
       0.09423981 -0.2028727 -0.220304 -0.11384306
000150 16 3b bf bd 82 44 ec 3c c5 4a ee bd e4 38 63 be
       -0.093374416 0.02884126 -0.11635355 -0.22189671
000160 b6 64 0a be 0c 2f 80 bd 09 d3 66 3e 11 33 65 bd
       -0.1351498 -0.062589735 0.22541441 -0.055956904
000170 f3 64 e6 be 5f a6 7c 3e 89 c8 1f 3d 20 0a 3c bd
       -0.44998893 0.2467284 0.039009605 -0.045908093
000180 52 a3 35 3d a3 83 0f be 56 2a 8a 3c 15 06 59 bc
       0.044345208 -0.14015059 0.01686589 -0.013246079
000190 2c 40 ab bd cd 8a 1b be 8f 6b 05 be 84 60 db 3c
       -0.08361849 -0.15189667 -0.13029312 0.02677942
0001a0 70 c1 30 be c1 c6 b2 bd 76 2e 75 be dd cd b7 3c
       -0.1726129 -0.087293155 -0.23943505 0.02243703
0001b0 ae 16 fb bb c0 45 ae 3d e2 14 d9 bc c3 0b 15 ba
       -0.0076626157 0.085093975 -0.026499216 -0.00056856516
0001c0 97 3a 83 be 8b 9d 88 be 74 85 87 3d 83 0a 8d bd
       -0.25630638 -0.26682696 0.06617251 -0.068867706
0001d0 4f f6 87 bd 07 ea 40 be ce 7a 34 bd 86 52 79 be
       -0.066387765 -0.18839274 -0.04406243 -0.24347886
0001e0 d4 8f 2c 3e 82 c4 0b 3e 53 e9 25 bd 55 9e 23 3c
       0.16851741 0.1364918 -0.04050572 0.00998648
0001f0 95 b1 6d 3c e0 af 9d 3c a1 b3 27 be c2 fa 9e bd
       0.014507671 0.019248903 -0.16377117 -0.07762672
000200 89 b5 39 be 12 af 04 3e f9 2e 2d 3c 1e 71 fd 3d
       -0.18135656 0.12957409 0.010570281 0.12375091
000210 7b 04 4b be d4 30 3d be 0d 27 69 be 60 a2 c8 bc
       -0.19825928 -0.18475658 -0.22768803 -0.024491489
000220 76 d3 5d 3e 2c 7b 6e bd ea b9 35 be cd e7 0e be
       0.21662697 -0.058222935 -0.17746702 -0.13955612
000230 12 7c 35 bd c8 14 6f bb 2c a1 04 3b 86 3a 14 be
       -0.044307776 -0.0036480892 0.0020237667 -0.1447545
000240 97 da 52 be ac 2d 49 bd 1a a7 bf bd 3f e2 9d bb
       -0.20591198 -0.04911582 -0.09358044 -0.0048182304
000250 fa bf 4b be 9e da db be 36 49 88 3c b2 3a d3 bd
       -0.19897452 -0.4294023 0.016636472 -0.103139296
000260 05 52 5e be 15 e8 33 be 7e dd 86 be 26 34 a3 3c
       -0.21710975 -0.17569001 -0.2634086 0.019922327
000270 95 2b 93 bc 61 3a de bb 3d 0e f8 3c a0 43 0d be
       -0.017965117 -0.0067818617 0.030280227 -0.13795328
000280 c2 e1 55 3d 05 7d 01 3d 63 60 34 be 6c 5c 99 3c
       0.052217253 0.03161337 -0.17614894 0.018720828
000290 f9 e5 53 3d 25 ac 10 3d 49 dc 03 3e 99 32 6a 3e
       0.05173299 0.03532042 0.12877001 0.22870864
0002a0 1b 08 24 be c7 34 72 bd 60 c3 72 bc cf 76 43 be
       -0.16018717 -0.059132364 -0.014817089 -0.1908829
0002b0 10 21 0a be 36 b8 86 be f7 dc 9e be 89 84 1f be
       -0.13489175 -0.26312417 -0.31027958 -0.15577902
0002c0 6e 5e 8d be b7 56 7e be 31 3f 13 be 67 fa 44 be
       -0.27611107 -0.24837767 -0.14379574 -0.19236146
0002d0 5f 55 45 bd e7 51 b4 bd 92 af 43 3e 50 d0 62 3d
       -0.04817712 -0.08804684 0.19109944 0.055374444
0002e0 68 8f 75 3d 5b cd 44 3e 6c 64 98 3d 62 58 32 3e
       0.059951216 0.19218962 0.07441029 0.17416528
0002f0 e8 5d d2 3d 3f 48 55 3e e4 04 78 3e 3a e3 40 3e
       0.102718174 0.20828341 0.24220616 0.1883668
000300 df 6d 90 bc a7 90 b6 3c 00 a9 89 3b e7 76 c1 bc
       -0.017630516 0.022285772 0.0042010546 -0.023616267
000310 a7 1c 13 bd 58 e1 c1 bd 7a d9 d2 3d 16 98 1c 3d
       -0.035915997 -0.09466809 0.102953866 0.038230978
000320 69 62 2d be d9 38 d9 3d cd b2 af bd 49 9e 9b 3d
       -0.16932072 0.10606546 -0.085790254 0.0759855
000330 07 d3 73 3d a5 8f a4 3c cb 35 42 3e 54 be 11 3d
       0.059527423 0.020088026 0.18965833 0.0355819
000340 f6 52 04 3e f2 6c 2b 3e 64 6e bf be 0c 9d 1d be
       0.12922272 0.16740778 -0.3738891 -0.1539194
000350 c7 11 3e be c1 67 45 be 63 56 ef bd 33 74 77 be
       -0.18561469 -0.1927786 -0.11686399 -0.2416542
000360 29 73 e1 bc 68 7b d0 3d ec 5a bb 3d 92 ac ae bc
       -0.027520733 0.10179788 0.09148201 -0.021322522
000370 4b 5f fb bd 92 f5 f4 3c 10 99 b9 bc 02 57 40 be
       -0.12274035 0.029902253 -0.022655994 -0.18783191
000380 25 bd 38 be d5 9e ac be 94 85 ea bd d6 71 3c bd
       -0.18040903 -0.3371493 -0.11451259 -0.046007
000390 c0 45 d8 bd 4c a0 b7 bd 69 43 52 3c 65 59 97 3d
       -0.10560179 -0.08966121 0.012833455 0.073900975
0003a0 d8 b8 dd 3d 65 e8 70 3d d4 48 80 3e fc 70 ac 3e
       0.10826272 0.05881538 0.25055563 0.3367995
0003b0 3d 09 74 3e 4c 7d aa 3d b5 f1 4b bd b9 f7 7d 3d
       0.23831649 0.0832468 -0.049791057 0.062003825
0003c0 c6 f2 fe bd 07 f5 1e be 31 e8 2c be ad e3 5b be
       -0.12448649 -0.15523158 -0.16885449 -0.2147357
0003d0 6b d3 0d bd ff 55 4d 3d cf 67 aa be 7d 53 1c be
       -0.034625452 0.05013084 -0.33282325 -0.15266223
0003e0 d0 6f 96 bd 68 17 3d be 92 e9 56 be 29 69 89 be
       -0.07345545 -0.1846596 -0.20987538 -0.26838043
0003f0 8c e8 08 bb 30 47 b5 bd 60 44 13 3c ec f9 34 be
       -0.0020890562 -0.088514686 0.00898847 -0.17673463

block1.1.conv.bias f4 [16]
000000 1c 41 c0 3c c0 33 5a 3d ca 04 63 be d8 bd b3 bd
       0.023468547 0.05327201 -0.22169796 -0.08776444
000010 d1 d6 90 bd b2 67 79 3d 92 4e 2e bd 24 9c 7e bb
       -0.07072223 0.060889907 -0.0425554 -0.0038850391
000020 15 3f e3 bd 59 af 47 3d b3 43 28 3d a3 db fa 3c
       -0.11096016 0.04875121 0.041080188 0.03062231
000030 a7 18 6c 3d e0 13 51 be b7 c5 44 3e e3 7c 04 be
       0.057640698 -0.20417738 0.19216047 -0.12938266

block1.1.BN.weight f4 [16]
000000 11 14 9a 3f ed 71 92 3f 69 9a 97 3f 58 e2 83 3f
       1.2037374 1.1441017 1.1843997 1.030345
000010 9b e1 80 3f 6f 51 7a 3f 80 a2 80 3f 66 71 78 3f
       1.0068849 0.9778051 1.0049591 0.9704803
000020 fd 56 5e 3f 5c c2 42 3f e1 b9 86 3f ef b9 86 3f
       0.86851484 0.7607782 1.0525476 1.0525492
000030 99 95 74 3f 26 5f 83 3f cb bc 5d 3f 56 9f 62 3f
       0.9554077 1.0263412 0.866162 0.8852438

block1.1.BN.bias f4 [16]
000000 15 35 0f be b9 72 db bd e7 0c 92 3d 80 7a db 3d
       -0.13985093 -0.10715241 0.07131367 0.107167244
000010 9f ce 04 be 57 88 30 be 1a 99 94 be 54 20 93 be
       -0.12969445 -0.1723951 -0.29023057 -0.28735602
000020 44 d4 86 bd ef a9 7f be 19 a0 3d be 76 a4 26 bd
       -0.06583455 -0.24967168 -0.18518104 -0.040684186
000030 b7 df 84 bd a8 3d 8f be 32 63 20 be 37 91 ea be
       -0.06487983 -0.27976727 -0.1566284 -0.45813915

block1.1.BN.running_mean f4 [16]
000000 a1 b7 91 be c8 4a ae bf 5f 42 9c bf ca 92 86 bf
       -0.2846041 -1.3616571 -1.2207755 -1.0513546
000010 6b 73 e1 bf ff 87 22 bf d8 74 05 bf 09 21 f1 be
       -1.7613348 -0.63488764 -0.52131414 -0.47095516
000020 77 f4 8e be 71 c6 06 3f 99 c3 e5 3d 6f f1 fa 3e
       -0.27920887 0.5264655 0.11218948 0.49012324
000030 2f 0d 80 bf ec 75 8a be f4 7e 9d bd 50 55 ce 3e
       -1.0004023 -0.27043092 -0.0769023 0.40299463

block1.1.BN.running_var f4 [16]
000000 77 00 81 3f c6 97 23 3f 63 ed 34 40 5c 3c 8a 3f
       1.0078267 0.6390346 2.826989 1.079967
000010 16 88 9a 3f 00 ff a1 3f 24 a0 9b 3f fc b9 34 3f
       1.207278 1.2655945 1.2158246 0.7059629
000020 7f c9 98 3f 1a db fa 3f cf c0 19 3f 42 f1 80 3f
       1.1936492 1.9598114 0.6005983 1.0073626
000030 0f 11 f9 3e c4 a8 8b 3f a6 b4 a6 3f 39 b9 3b 3f
       0.48645827 1.0910878 1.302388 0.733295

block1.2.conv.weight f4 [8, 16, 3, 3]
000000 f6 7c fd bd 8f 99 b4 bd fe 88 8e 3d 9a 43 87 bd
       -0.1237735 -0.088183515 0.06959723 -0.06604691
000010 24 59 1d 3e c8 01 a1 3e 55 a9 c4 be b3 ea e6 bb
       0.15366036 0.3144667 -0.3841044 -0.0070470213
000020 58 a4 d0 bd 77 40 69 bc 15 f8 ce bd b9 8a 83 3d
       -0.10187596 -0.014236561 -0.10105912 0.064229436
000030 55 b1 5a 3e af 76 79 3c 14 72 5a bd 3d 3f ac 3d
       0.2135671 0.01522605 -0.05333145 0.08410499
000040 71 dd db bc 43 2d 98 be 60 80 66 be 9e 9d 7b be
       -0.02683899 -0.29722032 -0.22509909 -0.24571845
000050 79 8c ea bc 7b cf f2 3d 03 70 35 3e 6b c1 68 3e
       -0.028631436 0.1185598 0.1771851 0.22730033
000060 c8 9a 95 be 49 5f 67 be 8c 86 80 3d a7 bc 55 be
       -0.2921965 -0.22594942 0.06275663 -0.20872746
000070 dc e8 81 be 85 c4 6c be 87 a2 e6 3c 96 c0 59 bd
       -0.2537297 -0.23121841 0.028153671 -0.05316218
000080 a4 dc 39 be a7 2f 72 3e e4 05 03 3d 39 15 05 3e
       -0.18150574 0.2365099 0.03198804 0.12996377
000090 1d 16 8f 3d 10 c6 a5 3d d7 9f 0d 3e d6 bf 51 3e
       0.0698664 0.08094418 0.13830505 0.20483336
0000a0 0d bc 8c 3d b1 9c 0d 3d 8e ab 42 3e 28 d4 a9 bc
       0.06871805 0.03457326 0.19010755 -0.020731047
0000b0 da ed bf 3d 26 ab 63 3d 6d 3a 45 be b3 b6 8a be
       0.093715385 0.05558314 -0.19260569 -0.27092513
0000c0 ac cc c5 3d f6 51 98 bd e4 8d 80 be 13 a7 25 3e
       0.09658179 -0.07437508 -0.25108254 0.16177015
0000d0 db 1e 23 3e 67 84 8f bd ab 09 31 3d 26 3c bd 3d
       0.15929739 -0.070076756 0.04322211 0.09239988
0000e0 44 8b 62 bc 43 16 5f bd 90 ba c0 3c 27 6b d5 bd
       -0.013827149 -0.05446459 0.02352646 -0.10420828
0000f0 78 29 f0 3d bf 3e 99 3e 8c 8d 83 3e ba 0a 07 3e
       0.117266595 0.29930684 0.2569393 0.13187686
000100 51 a8 8f 3d 2d 27 5a 3e c9 8d 09 3e f6 ac 06 3e
       0.07014526 0.21304007 0.13432993 0.13151917
000110 67 4c 7d 3d bd 45 a0 be a3 4b e4 bd 8f d3 db b7
       0.06184044 -0.31303206 -0.11147239 -2.6205349e-05
000120 96 02 a9 bb e5 61 9f 3d b2 52 a4 3c 90 ab 37 3e
       -0.005157779 0.07782344 0.020058963 0.1793654
000130 38 c9 96 3e f5 7c 7f 3d 34 3d c8 bd 76 3c 7d 3c
       0.29450393 0.062375028 -0.097772986 0.01545631
000140 2a 6a 9e bd 75 21 af 3a 25 67 ba 3d e2 48 b8 bd
       -0.07735093 0.0013361411 0.091017045 -0.08998276
000150 65 de dc 3d 26 bb 09 3d 83 67 69 bc 32 c9 b5 bd
       0.10784606 0.033625744 -0.0142458705 -0.088762656
000160 3e 2f 78 3c 80 38 f2 bc be 92 34 be fc 85 10 bc
       0.015147982 -0.029567957 -0.17634103 -0.008821007
000170 4c f3 0a 3d c3 ee cb bb 5e 34 0c 3e f1 62 a0 3d
       0.033923432 -0.006223531 0.13691851 0.078313716
000180 68 89 61 3e 4f 71 8f 3e 69 5c 22 3e e4 20 1a be
       0.22025073 0.28016135 0.15855564 -0.1505161
000190 51 d5 b0 3c 1c b9 1d 3e 9c fb 58 bd 63 29 d9 3d
       0.021586092 0.15402645 -0.05297433 0.10603597
0001a0 e5 82 43 3e 18 e9 24 be c1 dc a2 3c dd 82 e3 3c
       0.19092901 -0.16104543 0.019880654 0.027772361
0001b0 6a 35 50 bd 26 da 92 bd 3d ad b2 bc d1 dd 66 3e
       -0.05083219 -0.07170515 -0.021811122 0.22545554
0001c0 39 b7 07 3e 98 b1 3b 3e 1a a7 4b be fa 51 33 be
       0.13253488 0.18329465 -0.19887963 -0.1751174
0001d0 da 8e ea 3d 16 70 1d bd 41 7f 2a bd 72 b8 b1 3e
       0.11453028 -0.03843697 -0.041625265 0.34711033
0001e0 ac 9a 61 3d 3b 5b 9b 3d 1a 6d 26 3e 65 ca 0c be
       0.055079147 0.0758576 0.16252556 -0.13749082
0001f0 ce b5 07 be cb 0c 49 bd ea 01 30 3e fe 82 0d 3e
       -0.13252947 -0.049084466 0.1718823 0.13819501
000200 74 35 77 bd 26 1d 19 3e 1d 1f 77 3e f3 44 00 bd
       -0.06035371 0.14952525 0.24132963 -0.031315755
000210 68 07 ef bd 53 18 9a bb ba 30 f0 bd ea b4 57 be
       -0.116713345 -0.0047026067 -0.11728044 -0.21065107
000220 35 25 46 be 68 c1 06 be 38 f9 30 bd 47 0f c0 3c
       -0.19350131 -0.13159716 -0.043206424 0.023444785
000230 a1 8d cf 3d 89 bb 29 3d e7 18 73 3e 3c f6 2c 3e
       0.101344354 0.041438613 0.23739968 0.16890806
000240 11 4b 00 bf 36 25 a9 be f9 b2 d5 bd 9b 31 2a be
       -0.5011454 -0.33036202 -0.10434527 -0.16620485
000250 64 d9 34 be 0f 04 67 3d 44 a8 2f be 24 87 12 be
       -0.17661053 0.056400355 -0.17154032 -0.14309365
000260 56 21 93 bd 8c b5 0f 3e d5 10 21 3e 77 ae 83 3e
       -0.07184093 0.14034098 0.15729077 0.25719044
000270 9b 4a 22 be 6f c3 8d be d9 9d e5 bc 81 89 08 be
       -0.15848772 -0.27688166 -0.02802937 -0.13333704
000280 a1 08 9b be 2b 81 15 bd 23 87 eb 3c 02 83 1b 3d
       -0.3028002 -0.036500137 0.028750962 0.037966736
000290 9e 1c 53 bd f4 0e 81 3e 99 0a 08 3e aa 4d 16 3d
       -0.051540963 0.2520672 0.13285293 0.03669516
0002a0 ea e8 11 3e a3 eb a0 3d 0c 5d 90 3a ce ca 0c 3e
       0.14249006 0.07857444 0.0011014058 0.13749239
0002b0 cb 8a 65 bd 23 df 0b bb 59 7c 98 3c 23 88 83 bd
       -0.056040566 -0.0021342717 0.018613981 -0.064224504
0002c0 ad 94 46 bc ef 35 2f 3e d2 34 fc 3d 69 09 08 3d
       -0.012120408 0.17110418 0.12314762 0.0332121
0002d0 b4 6b 14 be 54 89 35 be 4c 7b 96 be fc 11 82 3c
       -0.1449421 -0.17728168 -0.29390943 0.015877716
0002e0 fb 37 a5 3d 82 54 e5 3d 47 49 2b bd 05 e7 1a bd
       0.08067318 0.11197759 -0.04181793 -0.037817974
0002f0 77 96 16 bd db de 08 3e e1 1c bb b9 ed 29 6f bd
       -0.03676459 0.13366263 -0.00035688936 -0.058389593
000300 ef 02 d5 be 92 4c 99 be c5 bf 41 be b8 ac 22 be
       -0.416038 -0.2994123 -0.1892081 -0.158862
000310 34 5d dd bd 96 14 a6 3d 5c 40 81 ba 1f d0 dc 3c
       -0.10808793 0.08109395 -0.00098611 0.026954709
000320 28 f1 0c 3e d6 09 e2 bd 45 09 ac 3d f6 0a 7d 3d
       0.13763869 -0.11037032 0.084002055 0.06177803
000330 35 dd 14 3e 7c 6c ae 3d 39 e7 07 3d f0 aa 0a 3e
       0.14537509 0.085167855 0.033179495 0.1354177
000340 3d 8e b6 bc f6 d4 6c 3d 4a 45 68 bd b3 40 9b be
       -0.022284621 0.057820283 -0.056706704 -0.303228
000350 10 71 23 be 2a e6 1b be d0 84 54 be 68 37 e9 bd
       -0.15961099 -0.1522452 -0.20753789 -0.11387521
000360 6b 10 2f bd a7 06 82 3d 68 44 26 3e ca 99 1b bd
       -0.042740267 0.06348925 0.16237032 -0.03798846
000370 73 fa 89 3d 44 63 a0 3d b9 a0 03 3e bf b1 97 3d
       0.067372225 0.078314334 0.1285428 0.07406949
000380 3d ed d5 3d f8 a1 4b be e7 91 9e bb 5d 78 2b 3d
       0.1044564 -0.19886005 -0.0048391703 0.041862834
000390 e6 a3 c8 bd 39 0e 93 3c 46 e3 1f bd 23 b6 9f 3d
       -0.09796886 0.017951118 -0.039035104 0.07798412
0003a0 9a 6b f3 3d 6f de 0a 3c 6c b1 aa bb 59 8d 04 bc
       0.11885758 0.008475884 -0.0052091386 -0.0080903405
0003b0 df 07 4b bd 0f 9c 96 bc 4b a4 3c 3d f3 be 2d 3c
       -0.049568053 -0.018384961 0.04605512 0.010604608
0003c0 4f 18 89 3c eb 36 5c 3e 4f 28 32 3e 40 c5 6b bd
       0.016735224 0.21505325 0.17398189 -0.05756116
0003d0 5a 78 38 be 0b 79 10 be a8 cd a5 3d 9c d0 54 3c
       -0.1801466 -0.14108674 0.080958664 0.0129891895
0003e0 69 c7 7b 3c e0 63 86 bd e8 3f 0a 3e ea 29 38 3e
       0.015367367 -0.065620184 0.13500941 0.17984739
0003f0 ee 25 e4 be 3d d0 5c be e5 b7 32 bd b5 c9 01 3e
       -0.44560188 -0.21563812 -0.043632407 0.12674601

block1.2.conv.bias f4 [8]
000000 eb 2e 38 3d 0d 60 40 bd a6 18 dc bd ba 2a 7c ba
       0.04496662 -0.0469666 -0.10746889 -0.0009619404
000010 d7 41 a7 3c 83 a0 3d bd 09 82 f4 bc 1e 14 cb 3d
       0.020417137 -0.046295654 -0.029847162 0.099159464

block1.2.BN.weight f4 [8]
000000 ce 5a 7d 3f 2a 4b 83 3f 95 9f 81 3f 75 1e 86 3f
       0.9896668 1.0257313 1.0126826 1.0478045
000010 d8 30 70 3f e3 35 82 3f 09 f5 6f 3f 93 ca 8b 3f
       0.9382453 1.0172695 0.9373327 1.0921196

block1.2.BN.bias f4 [8]
000000 18 f0 d8 bd 14 59 13 bd 24 83 19 be d3 52 4f be
       -0.10592669 -0.035973623 -0.14991432 -0.20246439
000010 61 7e 1c be 9d 3d 6a be b7 f0 26 be 81 d1 84 bd
       -0.15282585 -0.22875066 -0.16302763 -0.06485272

block1.2.BN.running_mean f4 [8]
000000 08 42 fa 3e 45 c5 89 bf 17 a3 0b 3f 4f 44 1b bd
       0.48878503 -1.0763327 0.5454573 -0.03790694
000010 56 28 e6 3e b1 cd b3 bf 98 ae 95 3f 3a 44 b0 bf
       0.4495265 -1.4047147 1.1693907 -1.3770821

block1.2.BN.running_var f4 [8]
000000 ec 95 f1 3f 65 4a 9e 3f b3 be 23 40 a8 a3 0b 40
       1.8873878 1.2366453 2.5585144 2.1818638
000010 e9 3e f5 3f 79 7b 67 3f a5 6e 02 40 7b 61 fb 3f
       1.9159824 0.9042278 2.0380032 1.9639124

block1.3.conv.weight f4 [4, 8, 3, 3]
000000 73 c9 c0 bd 90 1c b5 bc 99 44 9a bd d5 fb 17 3d
       -0.094134234 -0.022108346 -0.07532615 0.0371054
000010 2d c0 2e 3e 86 1d 7f bd 44 16 50 bd 41 36 07 3e
       0.17065497 -0.062284015 -0.050802484 0.1320429
000020 64 7f d6 bd db 36 4e 3d 86 84 1b 3e 4b 1e 37 bd
       -0.104735166 0.050345283 0.15187272 -0.044706624
000030 81 0d 4e be a9 a1 69 3d a4 d2 30 3e 4d 31 8b be
       -0.20122339 0.057038937 0.17267853 -0.2718605
000040 b8 f1 ad bd 37 25 58 be 21 10 37 be 96 8f e3 3d
       -0.0849337 -0.21107946 -0.17877246 0.11111371
000050 cd b9 44 3e 84 df 7f bd c4 19 cc 3d 94 e0 7b 3d
       0.19211502 -0.06246902 0.09965852 0.06149347
000060 7b c9 fe bd d9 7a ea bd 3a 14 50 bc c6 37 ae 3e
       -0.12440773 -0.114492126 -0.012700135 0.34026927
000070 81 89 ad 3e 1f 5b 9f 3e be 1a 52 3e 9e 94 ba 3e
       0.3389397 0.31124207 0.20518014 0.3644151
000080 3e 90 92 3e 80 a6 dd 3b 6a e5 1d 3e 51 ca 0d 3e
       0.28625673 0.006764233 0.15419546 0.13846709
000090 52 b0 3d be d9 62 40 be d9 12 74 3d 33 95 de 3b
       -0.18524292 -0.18787707 0.059588287 0.0067926883
0000a0 57 48 5f 3c 0b 2a 12 3e c2 ef 2b be 90 cb 90 3d
       0.013628087 0.1427385 -0.16790679 0.070700765
0000b0 eb 7a 41 3d 1f 6c 0f 3c 30 90 8c bc d8 7c 4f 3e
       0.047236364 0.008753805 -0.017158598 0.20262468
0000c0 28 29 6c bc 3b c6 a9 bd b8 e4 9c 3d 19 35 0a bd
       -0.014414109 -0.082897626 0.07660812 -0.033742044
0000d0 76 7d b0 3d bc 49 0e 3d 8f 5b 71 3e fe 82 0e 3e
       0.0861768 0.034738287 0.23570083 0.13917157
0000e0 31 02 8e bc 6b a1 23 3d e3 1d 36 bd 24 3f 1b bd
       -0.01733503 0.039948862 -0.044462096 -0.037902012
0000f0 1e 03 a4 3c b2 46 5a be 9e 3c f0 bd 31 17 e7 3d
       0.020021018 -0.2131603 -0.11730312 0.1128372
000100 16 5b e7 3c 72 3c 0e be 7c 16 7e 3d d9 c5 e6 b9
       0.028241675 -0.13890246 0.06203316 -0.00044016427
000110 64 7a ac bd ef bf 07 3e 25 0b 16 3e 1f e2 2d 3e
       -0.08421782 0.1325681 0.14652689 0.1698079
000120 a0 c9 10 be 99 83 f0 bd 34 94 b0 3d 3d 78 93 be
       -0.14139414 -0.1174385 0.086220175 -0.28802672
000130 05 e7 f4 bd e8 71 23 3e fc 01 df bd de d1 ac 3d
       -0.11958126 0.1596142 -0.1088905 0.084384665
000140 4a 73 fa 3d cf 00 b7 3d be e4 3e 3e 50 fd 08 3e
       0.12229021 0.08935701 0.18641946 0.13377881
000150 b3 b1 7d be c3 31 ba bd 21 c7 6a be ab 97 41 3e
       -0.24774818 -0.090915225 -0.22927524 0.18905513
000160 3d 5e 2b 3d 83 04 07 be c7 3e 5f be 3e 0d 1e bd
       0.04183792 -0.13185315 -0.21801291 -0.038586847
000170 07 25 79 be 95 cc c0 bc 62 14 99 3b 80 b3 07 be
       -0.24330531 -0.023535052 0.0046716193 -0.13252068
000180 c3 b7 6e be 7b 04 0b bd 3f 05 26 be fd 18 7a 3d
       -0.23312287 -0.03393982 -0.16212939 0.061058987
000190 57 cd 13 bd 31 51 17 bd 9d 53 64 3c c5 dc 3b 3d
       -0.0360845 -0.036942665 0.013935951 0.04586484
0001a0 f1 2a 95 3d 72 aa 16 be bc b8 00 bd 95 e0 57 be
       0.07283581 -0.14713457 -0.031426176 -0.21081765
0001b0 05 c8 94 be e2 c7 ad be 47 86 3d be 0c 5a 35 be
       -0.29058853 -0.3394156 -0.18508254 -0.17710131
0001c0 58 41 8d be cc f5 41 be bf 87 a2 be 75 43 80 be
       -0.27588916 -0.1894142 -0.3174419 -0.25051466
0001d0 7e 21 91 bc 72 fc 10 be bb 7e 2e bd 38 5f c6 bc
       -0.017716166 -0.141588 -0.04260133 -0.024215326
0001e0 25 ad 80 bd 70 bf f7 3d 2a 3d bc 3e d7 35 90 3c
       -0.06283025 0.12097061 0.36765414 0.017603798
0001f0 05 ec 3c 3c bc 58 64 3d d7 c0 52 be 4f f2 f5 bd
       0.011530881 0.055748686 -0.20581375 -0.12009107
000200 a2 64 7f bd 42 31 31 be 97 c2 f8 3d 65 a8 75 3c
       -0.06235183 -0.17303947 0.1214649 0.014993762
000210 91 14 43 be de 59 d6 bd 34 83 3d 3e ae 8d a0 bd
       -0.19050814 -0.104663596 0.18507081 -0.07839523
000220 39 05 63 be 45 f3 2b 3d 6d a8 94 3d 6b 9c 4a 3e
       -0.22169961 0.041980047 0.07258687 0.19786231
000230 6e 20 d2 3b 05 00 fc bd 43 34 da 3d 57 ca 61 3c
       0.0064125573 -0.12304691 0.106544994 0.013781152
000240 6c 33 9c 3c 18 41 a0 3d 74 2e 29 3e 44 b7 df bd
       0.019067489 0.07824916 0.16521627 -0.10923627
000250 08 a3 06 3e f2 16 36 3d d5 48 29 3e 69 e4 a2 3e
       0.13148129 0.044455476 0.1653169 0.31814888
000260 c2 33 81 3d 82 2b ce bc af 5e 8e 3d 92 16 f9 3d
       0.063087 -0.02516723 0.06951653 0.12162508
000270 f7 74 b6 bd 17 55 9c bd 71 2f 15 be 48 d4 8e 3e
       -0.08909028 -0.07633417 -0.14568879 0.27896333
000280 3f d1 98 3e 58 36 ce 3e 4a 91 b3 be a2 1f 6a be
       0.29847142 0.40275836 -0.35071784 -0.2286363
000290 76 64 ff b9 1c 64 ac bc 03 be 0c be 91 63 90 bd
       -0.0004871224 -0.02104383 -0.13744359 -0.07050241
0002a0 9b 83 a4 3c 02 ac df bc 16 d9 2e 3e 60 41 3a 3e
       0.020082286 -0.0273037 0.17074999 0.18189001
0002b0 01 25 7a 3e eb e0 f7 bc cd 83 8d bd 31 75 42 3c
       0.24428178 -0.030258616 -0.06909905 0.011868761
0002c0 63 0e 1c be 1c 7b 7d 3d 07 77 69 3e 36 7f 1e 3c
       -0.15239863 0.061884984 0.22799312 0.009673884
0002d0 70 20 c8 3c e9 09 48 bd 15 ef 32 3d d7 80 bc bd
       0.02442953 -0.048837576 0.043685038 -0.09204262
0002e0 4e 58 bc bd a7 6d 8f bd 64 a7 70 bd f8 9b 27 be
       -0.0919653 -0.070033364 -0.058753386 -0.16368091
0002f0 ca 3f ac bd 9b b7 31 be 44 47 c0 3c 43 ea b3 3c
       -0.08410604 -0.17355196 0.023471482 0.02196229
000300 08 17 ac 3b eb 1c 20 3d d8 ea 11 3e e6 ba ac bd
       0.005251769 0.03909008 0.14249742 -0.084340855
000310 45 63 a3 3d fd 7a a9 3d d1 87 23 be 51 17 c3 bd
       0.079779185 0.08275411 -0.15969779 -0.095259316
000320 39 70 30 3e 58 b2 e7 bd a4 0b 52 3d 6f 33 42 3e
       0.1723031 -0.11313313 0.051280633 0.18964933
000330 cf 06 c4 3d 2d d4 01 3e 80 e1 82 3e ac 2c bf be
       0.09571611 0.12678595 0.25562668 -0.3733877
000340 b8 5c 83 be ae 7b 51 be 11 e3 59 bc 2e 8c ad bd
       -0.25656676 -0.20457336 -0.013298766 -0.08474003
000350 47 14 f9 3d 65 fc e4 bd b1 1b bf bd ac 17 c8 3d
       0.12162071 -0.11180953 -0.093314536 0.0977014
000360 8d 08 c2 bd 1b 78 13 3c 4a a4 e3 3d d5 92 94 be
       -0.09474287 0.009000803 0.1111532 -0.29018274
000370 36 a7 9f be 09 ae b5 bd bd c0 85 bd 37 4e bb 3d
       -0.3118226 -0.08871085 -0.065309025 0.09145778
000380 07 ec df 3d 3b c4 62 bd e8 5a 11 3d 3b f6 e2 3d
       0.109336905 -0.05536292 0.035487086 0.11082121
000390 f3 4f b7 3c 3d 01 35 3e 4d 40 d9 3d f9 f2 a1 bc
       0.02237699 0.17676254 0.106079675 -0.019769179
0003a0 92 b1 e4 3c 58 f5 fb bc 6f 12 2f bd a0 05 81 bb
       0.027916703 -0.030756637 -0.04274219 -0.003937438
0003b0 f3 fe 1f be de c3 62 3e 72 85 c0 3c c1 a9 60 be
       -0.15624599 0.2214503 0.023501132 -0.21939756
0003c0 44 57 76 bd 2f ae 3d 3c cb 2f 6e be 78 16 de 3d
       -0.060141817 0.011577173 -0.23260419 0.10844129
0003d0 9a 97 ad bd cf a8 22 3e bb 4e 84 bd b8 e6 a1 ba
       -0.08476181 0.15884708 -0.06460329 -0.0012352085
0003e0 1f 7e e4 3b 19 28 0b bd d3 f1 5f 3e 17 89 56 3e
       0.0069730426 -0.033973787 0.21869592 0.20950733
0003f0 30 bf 4a bd 2a 3a c3 bc e3 ff e5 3d 56 7d 04 be
       -0.049498737 -0.023831446 0.11230447 -0.12938437

block1.3.conv.bias f4 [4]
000000 6e 07 75 bc 11 b2 7b 3c c4 d1 26 be 37 8a 86 bc
       -0.014955385 0.015362279 -0.16290957 -0.016423328

block1.3.BN.weight f4 [4]
000000 b6 54 4c 3f 51 d3 90 3f 23 dc 82 3f 03 ad 88 3f
       0.7981676 1.1314489 1.022343 1.0677799

block1.3.BN.bias f4 [4]
000000 c1 d2 d4 be 72 57 9d 3c 78 36 00 be 99 54 09 be
       -0.41567042 0.019206736 -0.12520778 -0.13411178

block1.3.BN.running_mean f4 [4]
000000 f1 79 27 3f 8d f5 8e bf e2 fa 28 3d 14 35 e1 be
       0.6542044 -1.1168686 0.041254885 -0.43985808

block1.3.BN.running_var f4 [4]
000000 bc 7b c7 3f 71 bd ed 3f 80 b3 bf 3f 1d f3 71 3f
       1.5584636 1.8573438 1.4976654 0.94511586

block2.0.conv.weight f4 [8, 4, 3, 3]
000000 fe cf 7d 3d 59 33 9e 3d b3 36 9b be 11 2c 57 3e
       0.061965935 0.077246375 -0.3031517 0.21012904
000010 29 fc 0e 3c e0 9c 07 be d4 2b de bd df 5b 3a be
       0.008727112 -0.13243437 -0.10848203 -0.18199109
000020 ba 54 47 3b a3 83 da be 1a 43 17 bd e0 92 41 be
       0.0030415491 -0.42678556 -0.036929227 -0.18903685
000030 79 9f 81 be e5 a0 44 be ee 83 4b 3e 6f 49 b2 be
       -0.2531698 -0.19202001 0.19874546 -0.3482165
000040 d8 dc 4e be 6c 35 3a be 95 6e 20 be f5 87 91 3d
       -0.20201433 -0.18184441 -0.15667184 0.0710601
000050 24 14 c9 bd 5a 8e 82 3d 13 48 74 3e 7c 58 1b be
       -0.09818295 0.06374808 0.23855619 -0.15170473
000060 59 f4 1e 3d 22 e9 04 3d cf 46 77 3e d0 fa 17 be
       0.038807247 0.032448895 0.24148105 -0.14841771
000070 f7 fb 6a 3d 02 f2 3c 3e 96 11 1e 3e f4 8e 36 bd
       0.0573692 0.18451694 0.15436396 -0.044569924
000080 23 dd 42 3e 3c 36 ff bb b0 7a f3 bd 70 c3 6f 3e
       0.1902967 -0.0077884477 -0.11888635 0.23414397
000090 10 58 eb bd c3 d5 9d bd 3b 66 5f be b9 45 28 be
       -0.11491406 -0.077067874 -0.21816342 -0.16432847
0000a0 0e e8 24 bd 41 3b 88 be 95 79 43 be c4 9a 92 bd
       -0.040260367 -0.26607707 -0.19089349 -0.071584255
0000b0 13 29 8a bd 24 51 97 3e 0a 50 56 3e 9f 6a 85 3e
       -0.067461155 0.29554093 0.2092897 0.26057908
0000c0 24 9a 56 3e e9 ac ec 3d 12 c6 95 3c 7c de 77 3e
       0.20957237 0.115564175 0.018282924 0.24205965
0000d0 88 1b 02 bc ea 1d c7 bb 4b 4d 1f 3e c3 5b 89 bd
       -0.007941134 -0.006076564 0.15556829 -0.06706955
0000e0 84 ef cf 3d fb 93 fa 3d 41 15 8e 3e 70 a0 ef bc
       0.10153106 0.12235256 0.2775059 -0.029251307
0000f0 15 f2 a0 3e e9 98 68 3e 66 a3 00 be bf 5b 81 3e
       0.31434694 0.2271458 -0.12562332 0.2526531
000100 5f 64 21 3d 96 bb 31 3d 02 59 30 3e 1e 20 18 be
       0.039402362 0.043391787 0.17221454 -0.14856002
000110 9a 75 33 bd 19 47 4c bd 5d da 0c be 14 bc bb 3d
       -0.043813325 -0.04987249 -0.13755174 0.091667324
000120 e6 62 67 3e b9 ed 9f 3b 36 86 e9 3b 18 d0 9a bc
       0.2259632 0.0048806337 0.007126595 -0.018898055
000130 c4 c7 d1 bd 88 17 08 3e 0e 78 a9 bd 6f ec 77 be
       -0.102431804 0.13290226 -0.08274852 -0.24211286
000140 93 c4 37 3c 5d be 14 be e1 b1 45 3e 06 6a 58 3e
       0.011216301 -0.14525743 0.19306137 0.21134195
000150 c8 8a 40 3d 53 26 6c 3e 66 cf b4 3d 7b f2 f3 bd
       0.047007352 0.23061495 0.088286206 -0.11911484
000160 9e 2d 4e be ec 69 70 bd 46 82 93 3e 5f 6e 94 3e
       -0.20134589 -0.058694765 0.28810328 0.28990456
000170 2f bd 3c 3e d9 b2 77 3e 92 64 55 39 ef 9f 94 3e
       0.18431543 0.24189319 0.00020350728 0.2902827
000180 02 7a 3f 3e 77 bd 9d bd e9 01 88 bd 22 fc 0f 3b
       0.18698886 -0.07702153 -0.06640989 0.0021970351
000190 d6 84 83 bd ac 7f e6 3d bb da 2c be fd d5 87 3d
       -0.06421821 0.1125482 -0.16880314 0.06632612
0001a0 03 70 82 3e 19 b8 85 bd 9a 4c 15 be d1 11 c3 3d
       0.25476083 -0.065292545 -0.14580002 0.095248826
0001b0 f3 85 97 3d ba 8e 04 3e a8 44 19 3e f1 19 d0 3d
       0.07398596 0.12945071 0.14967597 0.10161198
0001c0 6c 24 42 3e 04 15 62 bb cd b4 ab 39 ec b1 15 3d
       0.18959206 -0.003449739 0.0003275037 0.036546633
0001d0 68 78 00 bc 1f c7 91 3d 0d 47 4a 3e e6 02 67 3e
       -0.007841207 0.071180575 0.19753666 0.225597
0001e0 b1 b7 c1 3c 01 7e 31 3e 86 13 1d 3b 2e 26 67 3e
       0.023647161 0.17333223 0.0023967936 0.22573158
0001f0 e8 2e 01 bd f3 3c a5 3e aa 50 0f 3d b7 fc 2f 3e
       -0.031538874 0.32273063 0.034989037 0.17186247
000200 27 5e 91 3c 17 e7 99 be 92 fb b3 bd 97 81 ac bd
       0.01774509 -0.3005912 -0.087882176 -0.08423155
000210 9b 36 40 bd e1 28 8a 3e 19 6e 38 3e 2c de 39 3d
       -0.046927076 0.26984313 0.18010749 0.045377895
000220 fb 69 9a bc 18 a9 c2 bd db 18 b4 be 7e 79 2a be
       -0.018849364 -0.09504908 -0.35175213 -0.16647908
000230 83 9b ac be 1f 31 72 3e a2 68 98 3e 11 4a cb 3d
       -0.33712396 0.2365155 0.29767329 0.099262364
000240 42 db 02 be 7d 03 a0 be 7c 30 86 be 26 ab de 3d
       -0.12778953 -0.3125266 -0.26208866 0.10872488
000250 c9 a5 45 3d 6e 6d 1d be fd 8f 69 3e e5 68 14 3d
       0.04825381 -0.15373775 0.22808833 0.036232848
000260 e9 74 1c 3e 7b 93 81 bd 89 31 ca 3c 21 87 ab bd
       0.15278973 -0.06326958 0.024681823 -0.08375383
000270 b8 ae bb bd e7 ca a1 3d f0 81 80 be f0 a0 ad 3e
       -0.09164184 0.07900029 -0.25099134 0.33911848
000280 2e d9 8e 3e 8e 0d a3 3e 7f 26 79 3e eb d2 ed 3d
       0.2790007 0.3184628 0.24331091 0.11612495
000290 53 03 67 3e 6a 9f 0d bd a1 e5 32 be 5b 82 68 be
       0.22559862 -0.034575857 -0.17470409 -0.22705977
0002a0 7e 2d 20 be c6 5e 1f be f5 0a 46 be a1 9c 54 be
       -0.15642354 -0.15563497 -0.19340117 -0.20762874
0002b0 69 4f 15 3d 9b af 62 bd c2 48 86 3d 58 4c 45 3e
       0.036452685 -0.05534325 0.06556846 0.19267404
0002c0 cb 0f ca bd 36 bd 75 bc 69 d7 7c bd da e8 08 3e
       -0.098662935 -0.014998725 -0.06172887 0.13370076
0002d0 5e a0 28 be 6c 30 0a be 1c 13 30 3e 20 68 88 be
       -0.16467425 -0.13495034 0.1719479 -0.2664194
0002e0 0e 7e fa bd 43 88 09 3e 0f ec 3e be 75 5e 26 be
       -0.12231074 0.13430886 -0.18644737 -0.1624697
0002f0 b1 fd 1e be b8 49 18 3e 52 cf 86 3e a8 7c 17 be
       -0.15526463 0.14871871 0.26330048 -0.14793646
000300 e8 51 37 3e e1 a4 2f 3d 37 65 58 be 80 35 06 be
       0.17902339 0.04288185 -0.2113236 -0.13106346
000310 9e 58 a9 3d e4 60 6a be 4e ac 81 3e 18 6b e2 bd
       0.082688555 -0.22888523 0.2532677 -0.11055583
000320 78 c9 f8 3d 42 ba bd 3d aa 71 3f 3d 28 e0 8c be
       0.12147802 0.092640415 0.046739258 -0.27514768
000330 15 fc 16 3d 82 ac aa bd 23 7d be be 95 86 10 be
       0.036861498 -0.083336845 -0.37204847 -0.14113839
000340 52 f9 0e be 73 dc fe bc 11 b0 fa 3d 3f c1 39 be
       -0.13962296 -0.031110978 0.12240613 -0.18140124
000350 3d c3 b8 be 02 64 e7 3c 0b ab 24 be 73 a2 84 3d
       -0.36086455 0.02824593 -0.16080873 0.06476297
000360 8f 40 08 3e 51 6f 7a 3d d8 a7 f4 3d fc 6a 6f 3d
       0.13305877 0.061141316 0.11946076 0.058451638
000370 5a 52 b0 3d fd fd d2 3d e6 0d 0f 3e 1a c1 80 3e
       0.08609457 0.10302351 0.13970146 0.25147325
000380 69 f5 15 be 67 d0 3a 3d c1 39 1c be 33 97 98 3d
       -0.14644398 0.045608904 -0.15256406 0.07450714
000390 9b 07 f5 3b e0 24 20 3e 9f 24 8f 3e cd e4 35 3d
       0.0074777133 0.15639067 0.27957627 0.044407655
0003a0 9d 52 71 3e 72 ad 03 bd 44 d3 47 b9 70 39 cd 3d
       0.2356667 -0.032147832 -0.00019056821 0.10020721
0003b0 c3 df 10 bd f8 96 0e be 1c 9e 38 3d fd 8a bd bd
       -0.035369646 -0.13924778 0.04507266 -0.092550255
0003c0 93 31 d7 be 45 26 3f 3d a5 81 f4 bd ce 7f ae 3e
       -0.4203001 0.046667356 -0.1193879 0.34081882
0003d0 80 3c ea 3d d4 81 02 3e 13 07 6d bd 3e 50 6c 3c
       0.11437321 0.12744838 -0.057868075 0.014423428
0003e0 f2 36 73 3e 9d 48 df 3d ad 20 74 3e 18 24 dd 3e
       0.23751429 0.10902522 0.2384059 0.431916
0003f0 02 e8 0d 3e 47 e3 2a bd 5e 74 65 3c a9 bb 9b 3c
       0.13858035 -0.041720655 0.014004795 0.019010382

block2.0.conv.bias f4 [8]
000000 28 c8 11 bd 2e f1 83 be 4a 13 0a 3e 6e 43 03 bd
       -0.035591274 -0.25769943 0.1348392 -0.032046728
000010 d0 18 02 3d 11 0d 4a 3c 08 9f 2f be bf f9 3d 3e
       0.031761944 0.012332217 -0.1715051 0.18552302

block2.0.BN.weight f4 [8]
000000 71 82 83 3f 3d 5c 82 3f 0c 1b 51 3f b5 21 66 3f
       1.0274183 1.0184399 0.81681895 0.8989518
000010 1d ea 8e 3f eb f5 a1 3f 73 75 6e 3f 9e 89 80 3f
       1.1165196 1.2653173 0.93147963 1.0041997

block2.0.BN.bias f4 [8]
000000 75 fb 22 bd 49 7f ef bc f6 69 0f be 80 ec ea 3d
       -0.03979059 -0.029235499 -0.14005265 0.1147089
000010 a2 c5 fc bd eb 34 f3 3d 4f 14 ad be da c1 c6 bd
       -0.12342383 0.11875328 -0.33804557 -0.09704943

block2.0.BN.running_mean f4 [8]
000000 d0 c7 13 bf 7b e8 ea 3e d6 96 2e 3f 78 81 07 3f
       -0.57726765 0.45880494 0.6819891 0.5293193
000010 5a c1 f7 3d 4c 6c ea be 36 99 0f 3f f7 2e 70 3f
       0.12097426 -0.4578575 0.56093156 0.9382166

block2.0.BN.running_var f4 [8]
000000 00 8c e2 3e dc c4 3f 3f 56 40 0c 3f a0 62 ec 3e
       0.44247437 0.7490976 0.5478567 0.46168995
000010 11 2b c2 3e 6d 6c 05 3f 96 db 0e 3f f2 f7 09 3f
       0.37923482 0.5211857 0.5580381 0.5389396

block2.1.conv.weight f4 [16, 8, 3, 3]
000000 a9 5e 61 3e 00 d0 a0 3c 1d 6b 06 be bf 76 98 be
       0.22008766 0.019630432 -0.13126798 -0.29778096
000010 80 d9 18 bd 36 c1 26 be 3a 35 78 bd f1 60 f2 3d
       -0.0373168 -0.16284642 -0.060597636 0.11834896
000020 3b 41 7d 3d 61 9e cb 3d 2b 2c cb bd 44 c0 11 bd
       0.061829787 0.09942318 -0.09920534 -0.03558375
000030 ea e3 48 bd e6 8e dc bd 00 c9 58 bd 9f e7 b2 3d
       -0.04904548 -0.10769443 -0.052926064 0.087355845
000040 d7 47 19 3e fc 1d 85 3e b2 bc ac 3d 63 89 52 3e
       0.14968811 0.2599944 0.08434428 0.20560221
000050 8e ad 7e 3e c6 a2 af 3c 21 ae 41 3c a0 4a 4f 3e
       0.24870893 0.021439921 0.011821301 0.20243311
000060 dd 47 9b be ad 91 ea bd 83 b0 00 be fc cc f5 3c
       -0.30328265 -0.11453567 -0.12567334 0.03000497
000070 43 df 36 bd c3 7b 30 be 71 3d db bd a4 29 93 3b
       -0.044646513 -0.17234711 -0.107050784 0.004491048
000080 13 42 e6 3c b6 4c cf 3d a5 35 30 3e 2e 6e 97 3d
       0.028107679 0.10122053 0.17207964 0.07394062
000090 11 03 88 3d 9e 25 be 3b c1 95 15 3e 7d fc cb 3d
       0.0664121 0.005802824 0.14607908 0.09960268
0000a0 47 d2 b0 3c bd 9e 70 3d d4 f5 d0 bc 5c 50 d7 bd
       0.021584643 0.058745135 -0.025507845 -0.10513374
0000b0 6c fc 11 3d 91 40 38 3e 35 10 f6 3d d4 f7 5b 3c
       0.03564112 0.1799338 0.1201481 0.013425786
0000c0 d9 14 c7 3d 57 79 5e be 67 87 26 be 4e 43 18 3c
       0.09720773 -0.21725975 -0.1626259 0.00929339
0000d0 78 5c 3c be 84 fb b1 be 3b 83 d9 3c 97 69 44 3e
       -0.18394649 -0.34762204 0.026551833 0.19180904
0000e0 3d 56 bc bd 51 de f4 3c a6 69 82 3d 50 ed 89 bc
       -0.09196136 0.029891165 0.06367807 -0.016836792
0000f0 7a ba b5 bd e6 ca d5 3c ec 9c 39 3d 4f 8b 49 39
       -0.08873458 0.026097726 0.045315668 0.0001922075
000100 71 f6 02 3d 76 7a d1 bc d3 e1 65 be f0 fc e5 be
       0.031973306 -0.02557109 -0.22449426 -0.44919538
000110 89 e7 43 be 35 3e a4 3e 0b 08 bc 3d 04 49 35 3e
       -0.19131292 0.3207871 0.091812216 0.17703635
000120 10 28 2d be c1 db 61 3d da aa 1d be 6a 4f aa 3b
       -0.16909814 0.055141214 -0.15397206 0.005197455
000130 52 94 2c 3e ca e0 37 bd 11 fc 99 3b a9 8a ef 3d
       0.16853455 -0.04489211 0.004699238 0.11696369
000140 50 43 0a bb 9a 33 e3 bd 68 db e0 bd 01 66 61 be
       -0.002109725 -0.110938266 -0.109793484 -0.22011568
000150 bf 7a 16 3e e8 e7 7b be 76 79 9d be ef 16 44 3e
       0.14695261 -0.24600184 -0.3075673 0.19149373
000160 7d 62 3a 3d 09 22 1f 3e 93 ef 3a bd 29 9d 08 3d
       0.045504082 0.15540327 -0.045638632 0.033353005
000170 98 89 57 3e 8f b3 53 be a7 61 24 be 41 90 2f be
       0.21048582 -0.20673965 -0.16052876 -0.17144872
000180 62 20 55 be cb 52 ce bd a2 38 87 be c9 2d 9b be
       -0.20813134 -0.10074385 -0.26410395 -0.3030837
000190 49 7e 33 be 85 e2 35 bc 95 04 2e be 79 c4 e8 bd
       -0.17528643 -0.01110137 -0.16993935 -0.11365599
0001a0 ee b0 d9 bd 38 40 c1 bd df ea e1 3d 08 21 14 3e
       -0.1062945 -0.09436077 0.11031126 0.14465725
0001b0 ce a6 48 be 84 8e 59 be 2b 3c 0b 3e 7b 24 d4 bd
       -0.19594881 -0.21245772 0.13597171 -0.103585206
0001c0 15 f2 0f be cf 58 d2 3d 65 45 8e be bc 2d 35 be
       -0.1405719 0.10270845 -0.2778732 -0.17693228
0001d0 b0 5f 32 3e 48 c7 30 be 78 c9 16 be 02 28 b6 3d
       0.17419314 -0.1726352 -0.14725292 0.0889435
0001e0 e5 8f 3e bd c6 02 01 be 77 30 ee 3d 93 7c 03 3e
       -0.046523947 -0.12598714 0.11630338 0.1284049
0001f0 03 3b 20 bd 9b b3 18 3e e1 be 5a 3d f4 0a a5 3d
       -0.039118778 0.14912264 0.053404693 0.0805873
000200 bc 1a 3f bd 21 31 be bc 76 88 87 3d 8c ed 52 be
       -0.046656355 -0.023216786 0.06617825 -0.2059843
000210 29 cb 51 be 93 fd 47 be a3 80 a1 bd 57 45 da 3d
       -0.20487656 -0.19530325 -0.07885864 0.10657757
000220 d4 d1 2a be 48 f6 e2 3c 16 73 12 3e e4 1c 05 3e
       -0.16681606 0.027705327 0.14301714 0.12999302
000230 c6 2d 69 3e b7 65 52 3e fc 21 d9 3d 09 13 6e 3e
       0.22771367 0.20546614 0.10602185 0.23249449
000240 1c ae 1c 3e c4 18 38 3d 82 b6 a8 bd 82 2b 39 3d
       0.15300792 0.044945493 -0.082379356 0.045207508
000250 a7 b7 66 bd 74 50 2f be 17 86 9c bc 58 05 89 be
       -0.05632749 -0.17120534 -0.019106908 -0.2676189
000260 1b 99 28 be 7b 1c 6d 3e d8 d8 ba bd 4c 4b a5 be
       -0.16464655 0.23155396 -0.09123391 -0.3228401
000270 57 b1 f7 3d 5d 1e 56 3e 19 95 ce bd b2 5a d3 bc
       0.12094372 0.2091002 -0.10087032 -0.025800083
000280 95 f8 1c 3d a6 13 78 be 22 03 2b 3e 21 40 93 bc
       0.038323004 -0.24226245 0.16700414 -0.017974915
000290 5b b0 18 be d9 8a 82 3c 75 91 8b 3d 88 d9 39 be
       -0.14911024 0.015935348 0.06814853 -0.18149388
0002a0 e6 8e 01 3a 00 d0 8d bd 3a 90 8e bd 41 9c ba bc
       0.0004942253 -0.069244385 -0.06961103 -0.022779586
0002b0 f0 29 09 3c 03 36 e5 3c a8 d2 f5 3b 45 92 89 3d
       0.008371815 0.027979856 0.007501919 0.06717352
0002c0 c3 6d 04 bd 87 e4 82 3d f5 4b ba 3d 1c 37 be bd
       -0.03233124 0.063912444 0.09096519 -0.09287855
0002d0 dd 60 bd 3e f8 7f 1f 3e 3f 57 28 3e 9b ac 05 3e
       0.36987963 0.1557616 0.16439532 0.13054125
0002e0 33 ba 21 3e 2d bd 88 bb c4 14 a8 3e 9c fb 33 3e
       0.15793686 -0.004172942 0.32828343 0.1757645
0002f0 c6 28 14 3e 76 4e 2f bd 41 4b 2c 3e a3 18 6b 3e
       0.14468679 -0.042799436 0.16825582 0.22958617
000300 fd 3f fd 3d 3c 3f 63 3c 16 97 6f 3e ae 9e c6 be
       0.123657204 0.013870057 0.23397478 -0.38792938
000310 f7 7b 56 be 1a 81 60 be 38 c4 35 be 61 cc d5 bd
       -0.20945726 -0.21924248 -0.17750633 -0.10439373
000320 53 ff 96 3d ed 3d c3 bd ba bf a7 3d fb d1 85 3d
       0.07372918 -0.09533296 0.08190866 0.06534191
000330 b2 74 08 3e 56 60 1d 3e 89 27 77 3d be fc ab 3d
       0.13325766 0.1536878 0.060340438 0.08397816
000340 6b fb 78 be 11 2d 87 be 90 21 07 be 56 15 c2 bd
       -0.24314658 -0.2640157 -0.13196397 -0.09476726
000350 ad c6 f2 bd 85 cb 39 3e 64 93 28 3d 1a f2 87 ba
       -0.11854301 0.18144043 0.041156188 -0.0010371835
000360 4d a2 0f be 21 6c 49 be e3 eb 72 be eb 66 dd bd
       -0.14026757 -0.19670154 -0.23722796 -0.10810646
000370 9b 50 05 bc 2e 18 79 3d 38 61 7f be 89 61 35 be
       -0.008136894 0.060814075 -0.2493943 -0.17712988
000380 2c 7b 96 be f0 8d 3d 3d d2 e5 2a 3e 8e 49 1b 3e
       -0.29390848 0.04627794 0.16689232 0.15164778
000390 94 73 4c 3e 73 74 5a 3e 58 a5 0a 3e 17 5e 92 3d
       0.19965965 0.21333484 0.13539636 0.071468525
0003a0 67 84 a7 3d e3 78 db 3d c9 f2 14 bd 62 d4 fc 3c
       0.081795506 0.10716417 -0.03636435 0.03086299
0003b0 11 de 0f bb 2e f8 20 bd 3b 59 fa 3d cb 13 14 3e
       -0.002195243 -0.039299183 0.122240506 0.14460675
0003c0 ca 3f 75 bd e6 16 6b bd 55 38 35 3e bf b3 00 3e
       -0.059875287 -0.057394885 0.1769727 0.12568568
0003d0 47 3a 9b bd f9 bc 61 bd b1 9c c3 bd eb 20 bd bd
       -0.07579475 -0.05511186 -0.09551371 -0.09234794
0003e0 3d c1 1e be d4 d8 74 3e 88 12 77 3d 68 9e 82 3d
       -0.15503402 0.23910838 0.060320407 0.0637787
0003f0 9d d4 df 3d 50 42 8a 3e f8 c6 1a 3e 92 c5 3b 3e
       0.10929225 0.27003717 0.15114963 0.18337086

block2.1.conv.bias f4 [16]
000000 6c cb e0 3c cb 3b 09 be 11 25 06 3d 1c 56 a3 bd
       0.02744075 -0.13401715 0.032750193 -0.079754084
000010 a2 df d5 bd a5 bc c7 3c bc 3c cb bd ce ca 68 bd
       -0.10443045 0.024381945 -0.099236935 -0.056834035
000020 98 ad 6b bd 2a 4e 18 3d 65 04 6f bd 82 85 c4 3d
       -0.0575386 0.037183918 -0.0583538 0.09595777
000030 55 ae ad bd d8 82 24 be 33 09 d7 3b 1c e1 a2 3d
       -0.08480517 -0.16065538 0.006562376 0.079530925

block2.1.BN.weight f4 [16]
000000 f6 99 63 3f b4 9c 80 3f 81 0f 92 3f 40 ba 41 3f
       0.889068 1.0047822 1.1410981 0.7567482
000010 8d 61 7d 3f 0a 0e 8f 3f 13 8e 7a 3f 39 d4 7f 3f
       0.98976976 1.1176159 0.9787304 0.999332
000020 a6 c9 8d 3f a9 9b 81 3f 18 e2 68 3f 45 62 94 3f
       1.1077163 1.0125629 0.9096999 1.159249
000030 0a 28 4e 3f ce eb 8c 3f b3 31 82 3f b8 c2 63 3f
       0.80529845 1.1009462 1.0171417 0.8896899
