model/result/0509 1119.pt (torch, 79133 bytes, 98 tensors)

input_conv.conv.weight f4 [4, 1, 3, 3]
000000 3b 03 70 3e 92 20 88 3d fa b1 cc be ef 14 0b 3e
       0.23438732 0.06646837 -0.39979535 0.13582204
000010 d2 70 73 be d7 14 9e be 03 15 c0 3e d5 3d e0 bc
       -0.23773506 -0.30875275 0.3751603 -0.027373234
000020 94 4f b2 3a b1 47 87 be 25 fb b5 be 68 59 b0 bd
       0.0013604038 -0.26421884 -0.3554317 -0.08610803
000030 37 d1 41 3e 8c 4c 1c 3e 67 e8 9d bd 49 df c1 3e
       0.18927465 0.15263575 -0.07710343 0.37865666
000040 8d 90 83 3e 94 34 45 3e 40 73 30 3e af ce 33 3f
       0.2569622 0.19258338 0.17231464 0.7023725
000050 bb 2c a7 3e 47 49 2a be e9 77 99 bd e3 b1 17 bc
       0.32651314 -0.16629516 -0.07493574 -0.00925872
000060 48 56 20 3e c0 60 87 bd 0b 13 07 bd 06 ff 1f be
       0.15657914 -0.066102505 -0.032977145 -0.15624627
000070 4b 33 ba be 22 e9 de be b4 87 7c 3e 3e ff 0e 3e
       -0.36367258 -0.4353724 0.24661142 0.13964555
000080 9f e7 11 be 30 b2 55 be 66 af 17 be eb 68 e1 3c
       -0.14248513 -0.20868754 -0.14813003 0.02751585

input_conv.conv.bias f4 [4]
000000 bf d4 1b bf 16 51 20 be a8 15 b0 be c0 1c be 3b
       -0.608715 -0.15655932 -0.34391522 0.005801767

input_conv.BN.weight f4 [4]
000000 ef e1 54 3f e4 d1 60 3f da be 87 3f ea e7 8a 3f
       0.8315725 0.8782027 1.0605118 1.0852025

input_conv.BN.bias f4 [4]
000000 18 e9 c4 3e e6 0d c2 3e e1 e9 83 bd fb 97 bd bc
       0.38459086 0.3790123 -0.06441093 -0.023143759

input_conv.BN.running_mean f4 [4]
000000 13 85 1e bf 1f 7c 30 be 42 a7 a5 be 6f be 0a bc
       -0.61921805 -0.17234848 -0.3235417 -0.0084682545

input_conv.BN.running_var f4 [4]
000000 ac 91 fe 3d d2 31 5f 3e 8a c3 6a 3f 19 8b 70 3f
       0.124301285 0.21796349 0.9170462 0.93962246

block1.0.conv.weight f4 [8, 4, 3, 3]
000000 ed c2 d8 be d6 ef 89 3d 29 aa 93 bc 63 3c 32 bd
       -0.42336217 0.06735198 -0.018025475 -0.04351462
000010 81 c9 76 3e 37 82 3c 3d 48 25 5f bd ca 39 a4 be
       0.24100305 0.04602262 -0.054478914 -0.3207534
000020 e5 f1 28 bd 54 59 42 3e 2a 94 ee 3d c2 de e9 3d
       -0.041246314 0.18979388 0.11649354 0.11419441
000030 90 f7 8b bc 8b dc 5f bd 8c ce d3 bd a1 56 ca bd
       -0.01708582 -0.054653686 -0.1034213 -0.098798044
000040 33 eb 62 bd 04 38 9b 3e e3 55 a1 3e c1 48 58 bd
       -0.055400085 0.30316174 0.3151084 -0.05280376
000050 01 8b cc bd e9 d0 35 3e b3 19 2b be f5 e9 b1 be
       -0.099874504 0.17755474 -0.16709022 -0.34748808
000060 fb 36 26 3d d1 0b 7c bd cb 6f 1b bb bc 89 a5 be
       0.040579777 -0.061534707 -0.0023717757 -0.32331645
000070 77 da 99 be 11 b4 ba bd f4 7c 32 be 01 b3 d2 be
       -0.30049488 -0.09116376 -0.17430478 -0.41152194
000080 ac 6d e1 bd 27 09 d8 bd b7 dc 2e be b2 c8 09 3e
       -0.110072464 -0.10548621 -0.17076384 0.13455465
000090 7d 53 67 be ed e7 ab 3d ff 5c dd bb da cb d5 be
       -0.22590442 0.08393846 -0.0067554708 -0.4175709
0000a0 32 c7 8d be 30 7c 54 3e 8b 24 a4 be c0 50 f8 3c
       -0.27691036 0.20750499 -0.3205913 0.030311942
0000b0 db ed ff 3d 12 a6 37 be 8c 01 04 bd be 52 6d be
       0.12496539 -0.17934445 -0.032228038 -0.23176095
0000c0 6b cc e0 bd 1d ce 38 3e d2 d9 00 3e d9 00 82 3d
       -0.1097649 0.18047376 0.12583092 0.06347818
0000d0 a2 94 61 3e b5 8d e1 3d eb 31 72 be c8 8b 0c 3e
       0.22029355 0.110133566 -0.23651855 0.13725197
0000e0 bf eb c6 3c 4b bf da bd 6e 0d 60 3e 2d 9e cb 3e
       0.024282334 -0.106810175 0.21880123 0.39769116
0000f0 5a ed 48 be b4 bf 52 bc cf dd 11 3d 4d 32 0a 3d
       -0.19621792 -0.012863088 0.035611924 0.033739377
000100 d6 9d 76 3c e1 22 38 bd 60 39 f6 bc 35 75 db bd
       0.015052279 -0.044955138 -0.030056655 -0.10715715
000110 3d bb 91 3d 43 11 0b be 66 58 27 3d 81 24 2b bd
       0.07115791 -0.13580804 0.040855788 -0.04178286
000120 13 c9 df bd ca 05 12 bd 60 c5 06 be 14 35 b0 3d
       -0.10927024 -0.035650052 -0.1316123 0.08603874
000130 9a 85 1d be 95 73 a6 bd ac 1e b0 3d fe b8 d9 bc
       -0.15382996 -0.08127514 0.085996 -0.026577469
000140 75 bf 03 3e ee e6 14 3e 0c d5 35 be 47 51 58 be
       0.12866004 0.14541218 -0.17757052 -0.21124755
000150 51 3a a4 3d 70 ad 0b 3d 16 72 10 bd 9a 46 9d 3c
       0.080189355 0.03410095 -0.03526505 0.019198705
000160 62 22 75 be f7 2b cb be f8 ee 43 be ba 1b e0 3d
       -0.23938897 -0.3968198 -0.19134128 0.109427884
000170 e3 2f 86 3e 21 7d 0d bd 6d de 33 3d f7 cf ea 3b
       0.2620841 -0.03454316 0.043913294 0.0071659046
000180 c1 76 1b be a8 6c 87 bd 8c 3d 56 be e1 17 25 be
       -0.1518202 -0.066125214 -0.20921916 -0.1612239
000190 17 1c 65 be e9 46 bf be 5d 2f 6e be 5d 64 79 be
       -0.22373997 -0.37358788 -0.23260255 -0.24354692
0001a0 40 70 18 3d 68 39 08 be f3 2d 43 3e 2f 88 9d 3e
       0.037216425 -0.13303149 0.19060497 0.30767962
0001b0 83 77 44 be b5 8b 3b be db 2a 91 3e 61 e7 95 3d
       -0.19186215 -0.18315013 0.2835301 0.07319523
0001c0 f3 9a d3 3d 6f b6 57 3e 6d 92 3c be 6a f9 c5 3d
       0.103322886 0.21065687 -0.18415232 0.096667126
0001d0 80 ad 94 3d 88 7c 95 3d de 62 8b 3e 18 39 11 be
       0.07259655 0.07299143 0.27223867 -0.14181936
0001e0 0c 5e b8 bd d5 a5 31 3d 69 24 80 be 2a a5 cc 38
       -0.09002313 0.04337104 -0.2502778 9.758242e-05
0001f0 c2 bd 40 3e 57 81 15 3d c8 76 54 3e cc a7 4f bd
       0.18822387 0.0365003 0.20748436 -0.050697133
000200 cd a3 60 3c bc c2 2d be 86 ec 05 be 0f a6 f0 be
       0.013710928 -0.16968817 -0.13078508 -0.47001693
000210 c6 9a 5c 3e c6 7a b1 3d df a2 bf be 52 2c d0 3d
       0.21543416 0.08665995 -0.37428948 0.101647034
000220 a3 3a 16 be c8 aa 8a bd d1 84 7a bd 64 49 3d be
       -0.14670806 -0.06770855 -0.06116182 -0.18485028
000230 08 56 40 bc c0 97 a3 bd 5b 3f 83 be 6a ae 2e bd
       -0.011739261 -0.079879284 -0.25634274 -0.042646803
000240 34 91 dc bc eb 0b 8f bd dd 37 c0 3d 56 7f 16 3d
       -0.026924707 -0.06984695 0.09385655 0.03674253
000250 56 b8 fa bd 7c 7a 01 3d 89 63 11 3e f0 73 1c 3e
       -0.122421905 0.03161095 0.14198126 0.15278602
000260 f1 10 73 be 31 07 bd 3e 04 0d bf bd 08 f9 6d be
       -0.23736931 0.3691955 -0.093286544 -0.23239529
000270 9f 65 10 3e 26 77 26 be 76 34 a0 be 7d f5 75 3d
       0.14101265 -0.16256389 -0.31290025 0.06004857
000280 29 a9 f5 bd 15 59 6b bd ac 6f 2c 3e ed 79 c7 3d
       -0.11995155 -0.057458002 0.16839474 0.09740052
000290 ba 5d f2 bd 57 d5 8a 3d ee d2 25 3e a4 be 3e be
       -0.11834283 0.067789726 0.16193745 -0.18627411
0002a0 a9 43 6a 3e 9e 2f 15 bd ca c3 4c be b9 41 b0 3e
       0.22877373 -0.036422364 -0.19996563 0.34425142
0002b0 5c 09 67 3e 55 8b 14 3e 74 3a e2 bd 42 1b 10 be
       0.22562164 0.14506276 -0.11046305 -0.14072898
0002c0 a9 5c a8 3d 1c c9 7d 3d 2e b8 88 3c 7e 0a 97 3e
       0.082207985 0.06195937 0.016689386 0.29500192
0002d0 a2 9e 0b be ea 74 68 be 35 38 c5 3c b5 30 0f 3d
       -0.13634732 -0.22700849 0.024074653 0.03495856
0002e0 28 ec 7f 3d 83 bd 60 3d b6 31 12 3e ba b0 ac bd
       0.062481076 0.054868232 0.14276776 -0.084321454
0002f0 cb 69 c5 3d db 66 d0 3d 8c 86 55 3e fb 2e 94 3e
       0.09639319 0.10175868 0.20852107 0.28942093
000300 df fc 05 3d 15 f4 48 be 26 79 64 be 9f 14 bf bd
       0.03271186 -0.1962436 -0.2231184 -0.09330105
000310 e2 85 ca bd 22 fd d6 3d e4 74 8b be 7f c8 3e 3e
       -0.09888817 0.104975 -0.27237618 0.1863117
000320 39 dc 97 3e 8a 46 6a 3d 06 e6 e4 3e 27 0b b2 3e
       0.29660204 0.057196178 0.44706744 0.34774134
000330 e6 bd 4f 3e ef 05 39 bd 9f 7c 40 bd 79 41 1b be
       0.20287284 -0.045171674 -0.046993848 -0.15161695
000340 9c 5d 05 be c2 b8 13 be 20 03 05 3e 40 41 40 3e
       -0.1302399 -0.14425948 0.12989473 0.18774891
000350 0f 06 a3 3e c1 85 93 3e 94 bb a3 3e f6 81 6e 3e
       0.3184056 0.28812984 0.31979048 0.23291764
000360 a8 d1 8a 3e 80 a8 b5 bd fe 27 47 3e 57 e7 e6 3d
       0.2711308 -0.088700294 0.1944885 0.11274593
000370 db 9b ea bc 4c 89 b9 bd 0b 89 48 be 57 f2 80 be
       -0.02863877 -0.090593904 -0.19583528 -0.2518489
000380 aa 00 dc bd db 1c 6d be 1e c1 5a bb ff 9c 99 3e
       -0.10742314 -0.23155539 -0.0033379267 0.3000259
000390 b4 fe 2b 3d dc b5 82 be df 42 4a 3d 5d 34 88 bd
       0.04199095 -0.25529373 0.04938018 -0.066506125
0003a0 0a 24 9b be f7 58 f6 bd dc b9 30 3c 69 37 f8 3d
       -0.30300933 -0.120286874 0.0107865 0.12119944
0003b0 d5 35 5f 3e e3 7c c2 3d 73 ba 2f 3e 8a 77 77 3e
       0.21797879 0.094964765 0.17160968 0.24166694
0003c0 ac 63 d5 bd 78 64 d0 bd 7e b7 7d 3d ed cf 6e 3d
       -0.104194015 -0.10175413 0.06194257 0.058303762
0003d0 db 95 17 bd 53 66 26 be 74 2d e8 3d d4 cd 5f 3e
       -0.037008148 -0.16249971 0.113367945 0.21855861
0003e0 02 0a 0d 3d 49 f8 9f 3e 9f 96 bd 3e 88 57 cb bd
       0.034433372 0.31244114 0.37028977 -0.09928805
0003f0 ea 21 38 bd e1 e0 fe 3d 0d 2c a7 3e 69 45 1d be
       -0.044954218 0.12445236 0.32650796 -0.15358509

block1.0.conv.bias f4 [8]
000000 1f 21 de bd 25 23 3f be 91 80 1e 3e b0 fe d2 3c
       -0.10846161 -0.1866575 0.15478732 0.02575621
000010 4b 38 d5 bb 7d 7c 90 3e 56 da d6 3d 65 c4 d9 bd
       -0.006506955 0.28219977 0.10490863 -0.106331624

block1.0.BN.weight f4 [8]
000000 64 6e 84 3f fc b2 7f 3f 85 08 70 3f 4e 8e 7a 3f
       1.0346189 0.99882483 0.93763 0.9787339
000010 7f 1d 88 3f fa bb 86 3f f1 c9 8a 3f 02 6e 70 3f
       1.0634001 1.0526116 1.0842878 0.9391786

block1.0.BN.bias f4 [8]
000000 b0 13 8d bd 76 c1 5d be ad 73 89 bd 60 d3 ff 3d
       -0.06888521 -0.2165583 -0.067115165 0.124914885
000010 fe 3c 1b be 28 e3 06 be c2 61 18 be 0c 64 77 be
       -0.15159985 -0.1317259 -0.14881042 -0.24159259

block1.0.BN.running_mean f4 [8]
000000 c6 1a 8b bf d3 99 2f bf 17 74 7f bf 90 b3 cd be
       -1.0867546 -0.6859409 -0.99786514 -0.40176058
000010 01 69 68 3e 83 72 ba 3f 35 fa ac 3e be c4 cd 3d
       0.22696306 1.4566196 0.33784643 0.10047291

block1.0.BN.running_var f4 [8]
000000 bb 6b 5b 3f a6 47 30 3f 55 15 cd 3e 19 66 f0 3e
       0.8571126 0.68859327 0.40055338 0.46952894
000010 af 60 0a 3f 43 df 70 3f 14 a5 06 3f 6b 33 9c 3e
       0.5405378 0.9409067 0.5259564 0.3050798

block1.1.conv.weight f4 [16, 8, 3, 3]
000000 e2 45 20 bd 3c 71 04 3d 79 a7 84 3e cb e0 18 bd
       -0.039129145 0.03233455 0.25909021 -0.037323754
000010 70 78 05 be c4 ce 5d 3e c7 68 80 be 13 48 0d be
       -0.13034225 0.21660906 -0.2507994 -0.13797025
000020 bc b6 6d 3e 5e 3f 9b bd f7 1f 55 3e 37 44 26 3e
       0.23214239 -0.07580446 0.20812975 0.1623696
000030 60 7f aa 3d 9c 78 81 3e c1 d5 00 3d 4a 98 27 3e
       0.08325076 0.2528733 0.03145385 0.16366687
000040 46 8c 50 3e 08 a9 48 bc 21 b9 b2 3c 9d 86 1f 3e
       0.2036601 -0.012247331 0.021816792 0.15578695
000050 a4 f3 34 bb 41 7e 8f be 1c 60 4d bd c9 81 9c bd
       -0.0027611041 -0.28026012 -0.050140485 -0.07641942
000060 41 3e 52 be 70 29 59 be 98 ba b3 be 8c 05 9a bd
       -0.2053156 -0.21207213 -0.35103297 -0.07520589
000070 77 8f a9 3d 9c 13 8e 3d 10 54 96 3e c4 3c 81 3d
       0.08279317 0.06937334 0.2936101 0.06310418
000080 f4 92 f6 3a 7f e0 2d 3e 78 c9 f7 3d af 84 03 3e
       0.0018812106 0.1698017 0.12098974 0.12843584
000090 0d 64 52 3e 21 89 2a 3e 13 28 eb 3d 50 b5 7f 3e
       0.20545979 0.16653873 0.11482253 0.24971509
0000a0 5c ea bb 3e 01 ad fe 3d 91 5c 04 3e 03 83 14 3c
       0.3670224 0.124353416 0.12925936 0.009064439
0000b0 75 5b 55 3e b0 52 e1 bc 5f 3b 60 bb ce 01 6c be
       0.2083567 -0.027505249 -0.0034215075 -0.23047563
0000c0 b9 dd a7 3d 73 60 fe 3d 2c 76 4c bd 80 0c 8c 3e
       0.08196587 0.1242074 -0.049917385 0.27353287
0000d0 5b ab 57 3e e8 c6 e8 3d 54 58 d8 be f4 f4 fb bd
       0.2106146 0.11366063 -0.4225489 -0.123025805
0000e0 f4 68 18 3d 91 46 25 be 64 04 95 bc 5c de 47 be
       0.037209466 -0.161402 -0.01819057 -0.19518417
0000f0 12 fd 06 3d 3e ff c5 3a ff f7 c5 bd 15 db 41 bd
       0.03295619 0.0015105975 -0.09666442 -0.047328074
000100 99 19 52 3c 9e 50 53 bd f9 2c 4b 3e 81 72 99 bd
       0.012823486 -0.051590554 0.19841374 -0.07492543
000110 15 75 fc bd 3a 7d 95 3e f9 0b 6d bd e9 13 71 be
       -0.12327019 0.29197103 -0.057872746 -0.23542751
000120 6d fb d0 bc 3e 01 87 3d db ba 83 3e e3 92 76 3e
       -0.025510514 0.06592034 0.25728497 0.2407947
000130 08 ac 11 bc 9b 27 ee 3d 99 69 5f 3e 24 e8 8a 3d
       -0.008891113 0.11628648 0.21817626 0.067825586
000140 7d 28 df bc ab f8 cb bc f2 ba 08 be 3b 8d 9a be
       -0.027240986 -0.024898848 -0.13352564 -0.30185875
000150 78 dc 16 be 2f fa bf bd da e2 d4 be f0 47 5b 3e
       -0.1473254 -0.093738906 -0.41579324 0.2141416
000160 74 86 2b be c1 50 83 bd cb 02 b8 3d 3f 52 0f 3d
       -0.16750509 -0.06411887 0.08984908 0.034990545
000170 d5 e2 ed 3d fb d6 0a be b5 1b 85 3d c5 32 c8 bd
       0.116155304 -0.13558571 0.06499425 -0.097753085
000180 6d 5f b3 3d 08 13 03 3e b0 69 38 3e db 70 ed be
       0.087584354 0.12800229 0.18009067 -0.46375164
000190 0b f2 f0 bd 28 9e 45 be 0a 33 0c bd 25 9f 84 3d
       -0.11764916 -0.19298613 -0.034228362 0.06475667
0001a0 6d 6b ee 3d 3f ce 39 3e 61 fa c0 3d 5e e0 ff 3d
       0.116415836 0.18145083 0.09422756 0.124939665
0001b0 22 e9 d7 bd 89 0b 87 bc 19 b8 ac be 41 51 39 3e
       -0.105425134 -0.016484993 -0.33734205 0.18097402
0001c0 82 16 31 3e 4f d5 95 3d 3d 32 c0 bd 76 cb 6c bd
       0.17293742 0.07316076 -0.09384582 -0.057811223
0001d0 1b 62 e7 3c 32 1e 11 bc 94 ba f2 3d f8 bd f6 bd
       0.028245023 -0.008857297 0.11851993 -0.120479524
0001e0 4d e0 ad bc 12 51 54 be 1d c9 b3 be 33 62 93 3d
       -0.021225119 -0.20734051 -0.35114375 0.071964644
0001f0 e2 ae fe bc 98 32 ee bd 91 e7 01 3e 00 4f a1 3d
       -0.03108925 -0.11630744 0.12685992 0.07876396
000200 12 cf dc 3d 22 f9 00 bd df 38 3c be 98 ac fa bd
       0.10781683 -0.03148759 -0.1838107 -0.12239951
000210 6f 28 95 be 36 f6 e2 bb 72 bc 36 bd 3e 02 36 3d
       -0.2913241 -0.0069263233 -0.04461331 0.044435732
000220 f2 a5 3a 3e d1 ef 02 3e c4 68 dd bd f5 2b a5 3d
       0.18227366 0.12786795 -0.10810998 0.08065025
000230 07 c0 79 bc 6f b2 8f bd 9f 9c cd bd 6e 82 1f be
       -0.015243537 -0.070164554 -0.10039639 -0.15577099
000240 7e 80 49 3e 4d 23 37 3e 5f fa cb 3d f6 28 9b 3c
       0.19677922 0.1788456 0.09959864 0.01894043
000250 56 fb 55 be b0 d4 a6 be 3a 16 17 be 07 9a 99 bd
       -0.20896658 -0.32584143 -0.14754573 -0.075000815
000260 89 3f 65 bd bd 10 7e 3e 04 bb 92 3d c1 77 37 3e
       -0.055968795 0.24811073 0.07164577 0.17916776
000270 de 6f 0c be fc 1d 88 bd 00 93 c0 3d 0c 1c e0 bd
       -0.13714549 -0.06646344 0.09403038 -0.109428495
000280 0a f7 af 3b 87 07 35 3d 41 27 8e bd e2 75 22 3e
       0.0053700255 0.04419663 -0.06941081 0.15865281
000290 e3 e4 8b bd cb 75 05 3e 39 50 ab bc cd 86 1e be
       -0.06830766 0.13033216 -0.020912277 -0.1548111
0002a0 fb 24 7b 3d 70 ef cf 3d b2 e4 e6 bd dc 5e 23 3e
       0.061314564 0.10153091 -0.11274089 0.15954155
0002b0 18 ff 21 be dc c1 92 be 8a 43 34 3e c4 e4 99 bd
       -0.15819967 -0.28663528 0.17603889 -0.07514337
0002c0 ac 4b 54 bd 88 8c 8b 3d fa e5 90 bd c9 d4 0d bd
       -0.05182998 0.068139136 -0.070751145 -0.034626756
0002d0 94 82 ca 3c 94 23 cb 3c 15 aa 96 bd 77 fb 2b bd
       0.024720468 0.024797238 -0.07356659 -0.041987862
0002e0 be 20 00 3e ed 84 80 bd 6d ba 1a bd 8b 9e 46 3d
       0.1251249 -0.062753536 -0.037775446 0.048491042
0002f0 ff d6 64 be ae 0f 13 3e e5 26 c1 3d 01 54 ab bd
       -0.2234764 0.1436145 0.09431247 -0.08365632
000300 b3 3a bb 3c 43 91 f1 3c ed 23 bd be 28 7f 06 bf
       0.022855138 0.029488211 -0.36941472 -0.52537775
000310 8e c0 a5 bd f1 39 2c 3e b4 c5 67 be 92 a9 e4 3c
       -0.080933675 0.16818978 -0.22634012 0.027912889
000320 d0 4e d4 bd 40 39 a0 be 90 7f 82 be c7 84 a8 be
       -0.10366595 -0.31293678 -0.25487947 -0.329138
000330 3a ee 9a 3d a4 8d db 3d 45 94 60 3e 68 9e c1 be
       0.07564969 0.10720375 0.2193156 -0.37816167
000340 f6 f4 f5 bd 35 21 df bc a0 7d 0d bd 55 e2 24 be
       -0.12009613 -0.027237514 -0.034543633 -0.16101964
000350 b7 d2 29 3d 5f fc 9f be 96 65 a7 be ba 5a 80 be
       0.04146072 -0.3124723 -0.3269469 -0.2506922
000360 c8 25 59 3e d2 68 7d 3e 5a a3 96 3e 01 3c 3e 3e
       0.21205819 0.24747017 0.29421502 0.18577577
000370 18 0a d4 3d 08 31 21 3e bd 36 a4 3d 1e 2c a0 bd
       0.10353488 0.1574136 0.08018253 -0.07820915
000380 00 f2 b0 3d 27 b7 2e 3e 9a 7d 80 bd 4f 7e bf 3d
       0.08639908 0.17062055 -0.062739566 0.09350263
000390 8a 69 c2 bd 02 d4 bb bd 4b 37 f6 3c ed c5 5c 3d
       -0.09492786 -0.09171297 0.030055663 0.053899694
0003a0 49 fd f1 bb 2f 74 55 3e b9 fb 18 3e c5 19 01 3e
       -0.0073849303 0.20845102 0.14939775 0.12607487
0003b0 62 4d 57 bb 2b 04 1f 3e 9b 9a 58 3c 19 77 0e be
       -0.003285252 0.15528934 0.013220455 -0.1391262
0003c0 70 fc 33 3e fc b0 29 3e 0d c5 15 3e d3 ed 99 3e
       0.17576766 0.1657142 0.1462595 0.30064258
0003d0 f7 df e1 bd b5 95 6a 3d be f8 e1 3d 8b cf 80 be
       -0.11029046 0.057271678 0.11033772 -0.25158343
0003e0 26 ba 12 bd 1f f5 96 3e fe 5d d0 be c1 8a 90 be
       -0.035822056 0.29483888 -0.4069671 -0.2823086
0003f0 4a e7 1d be a9 50 89 3d 48 96 5c be f9 38 7b be
       -0.15420261 0.06704838 -0.21541703 -0.24533452

block1.1.conv.bias f4 [16]
000000 9b db df 3d aa f8 18 be 66 fb cb bd bf 4c 66 3d
       0.10930558 -0.14938608 -0.0996006 0.056225535
000010 a3 d1 81 3d b3 7d 17 3e a2 2a 8a bd 06 a3 e6 bd
       0.06338813 0.14794044 -0.06746413 -0.11261563
000020 22 dd 42 3e 39 f7 8f 3e ac 91 62 bd c2 8f b6 3c
       0.19029668 0.28118303 -0.055314705 0.022285346
000030 ba 23 20 3c 7a 50 f1 3d 3b 0b 1f be 24 53 6a bc
       0.009774143 0.11782928 -0.15531628 -0.014302049

block1.1.BN.weight f4 [16]
000000 de b4 81 3f db 8a 81 3f 1b 15 75 3f 51 84 5b 3f
       1.0133321 1.01205 0.9573533 0.85748774
000010 ab 74 8b 3f 1f ed 8a 3f 0d fc 88 3f 28 da 4b 3f
       1.0894979 1.0853614 1.070192 0.79629755
000020 0b ca 8e 3f 7a 81 82 3f d4 25 82 3f 6f 17 89 3f
       1.1155409 1.0195763 1.0167794 1.0710276
000030 00 88 8a 3f 70 3d 81 3f d7 0e 8c 3f 4d 6c 65 3f
       1.0822754 1.0096874 1.0942029 0.8961838

block1.1.BN.bias f4 [16]
000000 e8 8e 87 be c4 8d 89 be 7f 0d 8d be 92 b1 01 be
       -0.26476216 -0.2686597 -0.2754936 -0.12665394
000010 d3 82 94 bd 37 d0 49 be 94 ed 13 be 34 a4 ca bd
       -0.07251515 -0.19708334 -0.14446098 -0.098946005
000020 64 8b 3e be e2 8f 8a be 94 33 28 be bd 1e 49 be
       -0.18607861 -0.270629 -0.16425925 -0.19640632
000030 61 46 f3 bd 2f 85 e3 3c dc 5a fd bc 91 01 a2 be
       -0.11878658 0.027773468 -0.030927114 -0.3164182

block1.1.BN.running_mean f4 [16]
000000 b4 5b 5d 3f f6 a8 d6 be 69 6b 8c bf 53 e9 d0 3e
       0.8646805 -0.41925782 -1.0970279 0.40803012
000010 ce dc 89 3e 7d da 35 bd bc 1e 95 bf 74 98 bd 3e
       0.26926273 -0.04439782 -1.1650004 0.37030375
000020 f4 91 8b bf 44 23 15 3f b8 7b 89 3b 0d 43 4a bf
       -1.0903916 0.58256936 0.0041956566 -0.7900856
000030 c5 74 03 bf 9a e6 3e bf 54 1f 5d bf 82 4a 80 3f
       -0.5135005 -0.7457062 -0.8637593 1.0022738

block1.1.BN.running_var f4 [16]
000000 a4 84 82 3f 32 d1 80 3f 32 ed 56 3f 17 07 c4 3f
       1.0196729 1.0063841 0.8395568 1.5314664
000010 f0 18 da 3f de 88 3e 3f 51 c7 f0 3f ab fb aa 3f
       1.703886 0.7442759 1.8810827 1.3358053
000020 0b 3d a6 3f 10 c6 c2 3f b3 c4 15 3f 3e 16 45 3f
       1.2987379 1.5216694 0.58503264 0.76987064
000030 84 65 79 3f 40 44 47 3f f6 6f b3 3f a4 55 72 3f
       0.97420526 0.77838516 1.4018543 0.9466193

block1.2.conv.weight f4 [8, 16, 3, 3]
000000 c7 b3 7f be a4 13 c6 be 6a 2c 07 be 56 af ae be
       -0.24970923 -0.3868686 -0.13200536 -0.34118146
000010 df 08 c3 be f1 be 3b be 1f c6 14 be 25 e6 85 bd
       -0.38092706 -0.18334557 -0.14528702 -0.06538037
000020 69 f8 5b 3d 34 ed a4 bd da ee c6 3d e3 38 19 3e
       0.0537037 -0.080530554 0.09713526 0.14963107
000030 c9 e8 cd bd 1f 7c df bc d9 b1 bb 3c b4 f4 32 bd
       -0.10054166 -0.027280865 0.022911953 -0.0436904
000040 cf 75 f2 3c 92 83 1d bd e0 b1 a9 bd 44 0b 3e be
       0.029597191 -0.038455553 -0.0828588 -0.18558985
000050 db 45 f6 3c 80 a4 0f be 54 7c de bd b8 04 00 3e
       0.030062607 -0.14027596 -0.108635575 0.125018
000060 10 c1 d1 3d 5c 36 e0 bd 64 2d 6b bc bc 92 87 be
       0.10241902 -0.10947868 -0.014354084 -0.26479137
000070 cc d8 27 bb 01 97 a1 3d 92 54 0b be 47 ec c4 3d
       -0.0025611399 0.0789013 -0.1360648 0.09615379
000080 87 33 6b 3d f3 5d 5c bd 99 02 56 bd b0 2d b9 bd
       0.057422187 -0.053800534 -0.05224857 -0.09041917
000090 73 aa 9c be 17 c1 88 3b cb 78 76 bc 62 50 ae be
       -0.30598792 0.0041734087 -0.015043448 -0.34045702
0000a0 84 0c ac bd 90 67 34 be 6a 63 86 be b2 9d 11 be
       -0.08400825 -0.17617631 -0.26247722 -0.14220312
0000b0 68 7c 85 bd 58 0c dd 3c 22 41 aa 3d af fd de 3c
       -0.06517869 0.026983425 0.08313204 0.027220575
0000c0 43 3b 57 3e 5a a1 f0 3d 7d 71 fe bd c9 79 2f bc
       0.210187 0.11749525 -0.1242399 -0.010710188
0000d0 8f a2 bf 3d c4 c3 92 3d 1b df 84 3e 35 33 b7 3e
       0.093571775 0.071662456 0.25951466 0.35781255
0000e0 dd 8f 0e 3e 49 f8 f2 3d 2b 38 80 3d 50 2c b9 bd
       0.13922067 0.11863763 0.06260713 -0.09041655
0000f0 11 49 c5 3d a2 52 9a 3d b1 42 72 3e 79 50 ca bd
       0.09633077 0.07535292 0.23658253 -0.0987863
000100 7d 5b ce bd e7 e1 05 be 94 f1 91 bc b8 4a 29 be
       -0.10076044 -0.13074456 -0.017815389 -0.16532409
000110 ac 7d ac be c9 7c 9f bd e6 c4 88 bd 5d 53 3b be
       -0.3368963 -0.07787473 -0.066781804 -0.1829352
000120 03 a7 fe bd ed d8 2f be 40 44 33 be 42 11 6c bc
       -0.12434199 -0.17172594 -0.17506504 -0.014408411
000130 c1 38 19 3e 86 4b b8 3d be 83 7d 3d d3 2a 30 3e
       0.14963056 0.0899878 0.061893217 0.17203836
000140 f8 20 77 3e c3 d4 ab be 01 25 80 be 4a 34 13 bd
       0.2413367 -0.33560762 -0.25028232 -0.03593854
000150 a4 4b 87 bd b5 69 6a be 20 43 83 bd 60 3c 91 3d
       -0.06606224 -0.22891887 -0.064092875 0.07091594
000160 1f 88 8c be a1 72 87 be ae 1f 59 bd 1c fb 28 3e
       -0.27447602 -0.26454642 -0.053008728 0.1650204
000170 5d cd 1d 3e 0e 53 81 3e fe 23 94 3e 2c fc 6e 3e
       0.15410371 0.25258678 0.2893371 0.23338383
000180 a4 04 6d 3e 51 6d 85 3e ce ba 8e 3e 39 9c 0a be
       0.23146302 0.26059964 0.27876896 -0.13536157
000190 46 a4 a1 3c 76 49 85 3d 36 36 1e be e0 0e 98 3c
       0.019731652 0.06508152 -0.15450367 0.01856178
0001a0 b4 c9 3b 3e d4 38 34 be e2 d8 f5 3c 69 8d 10 3e
       0.18338662 -0.17599803 0.030010644 0.14116444
0001b0 1b 75 62 bb 91 0c a3 3d 49 b9 ad bd 89 28 69 3c
       -0.0034554664 0.07961381 -0.08482606 0.014230856
0001c0 3a 38 c2 bc 22 b2 6d be 6e a9 80 bd 44 00 ab 3c
       -0.023708452 -0.23212484 -0.06282316 0.02087415
0001d0 ed da fe 3d 57 f0 1a 3d 86 c8 6c bd 92 2f c1 bd
       0.124441005 0.037826862 -0.05780842 -0.094329014
0001e0 c2 65 8a bd 93 cb 52 be ed fa 57 be 18 9e ff 3c
       -0.0675769 -0.2058547 -0.21091814 0.031203315
0001f0 cd a3 83 3d 73 87 49 3d cd 5a e5 bd da 5a b2 3d
       0.06427727 0.04920144 -0.111989595 0.08708735
000200 50 d0 ca bc 54 16 d0 3c 1a a9 50 be c9 5a 80 be
       -0.024757534 0.025401272 -0.20377007 -0.25069264
000210 4d 6b 23 3e d7 1e 0f 3d 26 fb 44 be f2 1a 41 3e
       0.15958901 0.03494152 -0.1923643 0.18857935
000220 47 c9 a5 3d 86 4c 2b 3e 33 ab 6a 3e 2a 58 47 bd
       0.08095031 0.1672841 0.2291687 -0.048668064
000230 19 98 e7 3d 9b f6 cb 3e db 26 0a be a2 c4 63 be
       0.11308307 0.39836583 -0.13491385 -0.22242978
000240 a1 b3 cf 3d 32 79 09 bd ea 2e 15 3e c3 96 4b 3c
       0.10141683 -0.033562846 0.14568678 0.012426081
000250 d7 37 18 be 5f ba 77 bc 1a a3 69 3d 84 a5 5e 3c
       -0.14865051 -0.015120118 0.05704031 0.013589267
000260 ca e6 19 bc 03 c5 80 bc a8 fd e2 3d b0 65 05 3e
       -0.009393403 -0.015718943 0.11083537 0.13027072
000270 24 92 b6 bd ff e8 21 bd 2a 36 85 be 6c 4e b7 be
       -0.08914593 -0.039528843 -0.26017886 -0.3580202
000280 18 b9 4b be fe 69 a0 be 77 94 8c 3e 36 e1 d4 3e
       -0.19894826 -0.31330866 0.2745702 0.41578072
000290 97 99 9a 3e c2 6f c6 bd 4f 17 31 be 6f 8d 2f be
       0.30195305 -0.09689285 -0.17294048 -0.17143796
0002a0 30 1c 2c 3e d8 a2 20 3e fc 25 6c 3b ce cc bc bd
       0.16807628 0.1568712 0.0036033383 -0.09218751
0002b0 ac a0 88 3b 44 f7 1d be 2d 3f 53 be 94 2a 45 bd
       0.004169544 -0.15426356 -0.20629568 -0.04813631
0002c0 1d da a2 be 95 e2 6c 3d 32 aa 85 bc 8d 99 4c 3c
       -0.31807032 0.057833273 -0.016316507 0.012487781
0002d0 b6 30 88 3d 4b b6 fb bd 26 e8 f3 bd a1 75 14 3e
       0.06649916 -0.12290629 -0.11909513 0.14497997
0002e0 91 9e 13 be a3 52 95 bd 37 85 41 bc 17 21 37 be
       -0.14415957 -0.07291152 -0.011811546 -0.17883717
0002f0 bb 32 3b be 1f c6 83 be cb 7a 9e bd ea 3a 82 3e
       -0.18281071 -0.25737092 -0.07738265 0.25435573
000300 8e c2 b9 3d df 7c 67 bd de fa 93 3e 5a 92 4c be
       0.090703115 -0.05651557 0.28902334 -0.19977704
000310 df c2 0d be c4 74 ac 3d 07 e3 8b bd 1f 46 f6 3d
       -0.13843869 0.08420709 -0.068304114 0.12025093
000320 84 81 6e 3e 0f ad 43 bd 2b a9 96 3d f8 bc 6a 3e
       0.23291594 -0.047772463 0.07356485 0.22923648
000330 2a 71 97 3d ed 2c 77 3e 49 68 67 3e 9f ac 31 be
       0.07394631 0.24138232 0.22598375 -0.17351006
000340 4d c8 11 3e c8 e0 02 3e 7f e1 fa 3d 40 58 e7 3d
       0.14236565 0.1278106 0.12250041 0.11296129
000350 59 14 88 ba ce 9a 7f 3d 1a 04 fa 3d a0 39 5e bc
       -0.0010382041 0.062403493 0.122078136 -0.013563544
000360 79 16 5d 3d 57 3d 78 3e a8 f9 2f bd 6f 2a 52 3d
       0.05397651 0.2424215 -0.0429627 0.05131
000370 85 b9 bc bc a4 bf 78 be 27 08 1d be 40 ed d4 b9
       -0.023037681 -0.24291855 -0.15335141 -0.00040612556
000380 be 34 61 be f7 d0 a0 be fe 06 21 bd 11 92 36 3e
       -0.21992776 -0.31409428 -0.03931331 0.17829157
000390 86 0a b5 bd 6a 9e 41 bd 5c 39 c3 bd 6e 19 bf bd
       -0.08839898 -0.047270216 -0.09532425 -0.09331022
0003a0 8a f1 0a bd e2 19 c4 bc 9b 43 5f 3e 1a 1c 26 be
       -0.033921756 -0.023938123 0.21803133 -0.16221657
0003b0 aa fd 9d bc 2e 6a 28 bb b7 7d a7 be ba fb 42 be
       -0.019285996 -0.0025698054 -0.327131 -0.19041339
0003c0 b5 3b 24 bc 0c 6b 6a 3d 95 05 ef 3c 9f 69 54 be
       -0.010024001 0.057230994 0.029177466 -0.20743416
0003d0 97 6e 91 bd 13 cd 90 bd 19 55 6c 3b 34 e6 1a 3e
       -0.071011715 -0.07070365 0.0036061464 0.15126878
0003e0 a2 60 03 3e 9c ed 05 be d1 3b 92 bd af 4f 84 bd
       0.12829831 -0.13078922 -0.07140315 -0.06460511
0003f0 47 52 48 be 75 ba 02 bd 3d 81 26 bd 5b 37 08 3d
       -0.19562636 -0.0319161 -0.040650595 0.033255916

block1.2.conv.bias f4 [8]
000000 69 4d 91 3c 8a e0 71 bd b4 06 f2 bd 54 74 0e be
       0.017737107 -0.059052028 -0.11817685 -0.13911563
000010 52 96 b6 3d f6 e4 6b bd 3e 8a ab 3c e6 61 db 3b
       0.0891539 -0.0575914 0.020939942 0.00669502

block1.2.BN.weight f4 [8]
000000 86 84 86 3f 3c 91 80 3f 58 a5 80 3f ef c8 80 3f
       1.0509193 1.0044322 1.0050459 1.006132
000010 ec a0 83 3f 0f 64 84 3f 71 bb 76 3f 8e 17 79 3f
       1.0283484 1.0343035 0.9637976 0.97301567

block1.2.BN.bias f4 [8]
000000 f8 c2 0c 3e c6 05 ce bd 1b 0a 5a be ab de 92 bd
       0.1374625 -0.10059695 -0.21292917 -0.07171377
000010 f9 fb 74 bc 0a 45 5c be cf e8 0e be a3 0e 1e be
       -0.014952653 -0.21510711 -0.13955997 -0.15435271

block1.2.BN.running_mean f4 [8]
000000 e7 16 81 bf 64 47 b1 bf 05 e7 6c 3c 33 78 cb bf
       -1.0085114 -1.3849912 0.014459376 -1.5896057
000010 16 15 07 c0 bb d5 55 3f f6 b1 a0 bf cc 5c 99 3f
       -2.110662 0.8352925 -1.2554309 1.1981444

block1.2.BN.running_var f4 [8]
000000 5c 73 1f 40 c0 ee 2a 40 16 9f b7 3f 4c 7c 15 40
       2.491416 2.6708221 1.4345424 2.3357115
000010 55 3b 4c 40 b3 f8 e6 3f cd 92 01 40 05 f6 da 3f
       3.1911213 1.8044647 2.024585 1.7106329

block1.3.conv.weight f4 [4, 8, 3, 3]
000000 13 be a6 bd 45 7b 6b be ab b3 de bd b5 7e 0f 3e
       -0.081417225 -0.22996242 -0.10874113 0.14013179
000010 c0 93 21 3d 16 54 e2 bc 9c 6e a3 3e ad 6d 6f bb
       0.039447546 -0.027627986 0.31920326 -0.0036533878
000020 b3 d2 22 3d cb 01 5c bd 06 05 95 3e fa 5d ae 3d
       0.03975172 -0.053712647 0.29105395 0.08514018
000030 e6 6d 26 3d 9b 08 0a 3e 78 f0 5b be 4b b0 94 3e
       0.04063215 0.13479845 -0.2147845 0.2904075
000040 01 2c 50 3e 2b 8d fa bc 8e 13 00 bd 5c 11 f6 bb
       0.20329286 -0.030584892 -0.03126865 -0.0075093936
000050 41 43 63 be f9 59 8d 3d 09 90 ba 3c 1f b8 17 3e
       -0.22193624 0.069019265 0.02277376 0.1481633
000060 28 a3 7a bd 89 65 a0 bd bd 47 e8 bd c7 66 13 bd
       -0.061190754 -0.07831866 -0.11341808 -0.035986688
000070 00 02 b1 bd 3b 7d 02 be 17 7c 81 3e 8a 07 cb 3d
       -0.086429596 -0.12743084 0.25289986 0.09913547
000080 6f a1 f8 3d 92 b9 e2 bc c6 85 45 bd f1 9f 08 be
       0.12140166 -0.027676377 -0.04822328 -0.13342263
000090 6a bc 6a bb 5a cd 88 3e d6 57 32 3e 25 a9 75 bc
       -0.003581787 0.2671917 0.17416319 -0.0149939405
0000a0 5b e5 02 3e c0 f1 50 3e fb b5 28 bd f1 4d 24 3e
       0.12782805 0.2040472 -0.041189175 0.16045357
0000b0 04 31 42 3e da 8a 6f 3e ec b5 33 bd fe 00 c4 be
       0.1896401 0.23392811 -0.043874666 -0.38282007
0000c0 87 4f e9 3b 41 d4 80 be c2 d5 64 be 3d 90 52 be
       0.007120076 -0.25161937 -0.22347167 -0.20562835
0000d0 55 34 db bd 6d 92 e0 3d e3 c2 8f 3e 71 6e 0e 3e
       -0.10703341 0.109654285 0.28078374 0.13909318
0000e0 0b c3 83 3e 0a 36 04 be d0 24 e4 3d e4 4c 5a 3d
       0.25734743 -0.1291124 0.11139834 0.053295985
0000f0 da 84 ac be 5a 2e 69 be 70 d9 76 be df 93 fc bd
       -0.33695108 -0.22771588 -0.24106383 -0.12332892
000100 81 9b ff bb 06 68 e4 3d 80 e4 09 3e 37 c7 c7 bd
       -0.00780052 0.111526534 0.13466072 -0.09754794
000110 13 14 89 be 41 c9 ed bd 60 3c 6a be de 05 1a 3c
       -0.26773128 -0.11610652 -0.22874594 0.009400813
000120 4e 33 6b 3e 4c a4 ce 3d 86 43 6a 3e 4a b0 8c bd
       0.2296879 0.10089931 0.2287732 -0.06869562
000130 55 d8 13 3b 09 32 d3 3d 66 82 24 3d c9 39 c8 3d
       0.0022559364 0.10312278 0.04016342 0.09776647
000140 93 16 df 3c 83 a8 a5 be 89 14 9b bd e7 05 67 3e
       0.027232444 -0.32355127 -0.07572276 0.22560845
000150 16 be 87 3c 69 a9 23 bd bb c1 87 3e 32 31 a9 3d
       0.016570132 -0.039956484 0.26514992 0.082613364
000160 63 bc 0f be 1d bc be 3e 23 d3 64 3e 5c 1f 92 3e
       -0.14036708 0.37252894 0.22346167 0.2853955
000170 d9 23 b7 bd 8f b0 e6 3d 6e 9a a4 3e 33 fe 1b be
       -0.08942384 0.11264145 0.3214907 -0.15233688
000180 d0 c5 f0 3d 5e 0d af bc 06 b9 84 be e0 34 99 3d
       0.1175648 -0.021368679 -0.25922412 0.07480788
000190 98 db 74 3e 9e 36 9e 3d d1 f5 1a 3d 73 f6 03 3e
       0.23911893 0.07725261 0.037832085 0.12886982
0001a0 16 0e a8 3d 76 f3 36 be 9d 35 52 be 10 49 9b be
       0.08205812 -0.1786631 -0.20528264 -0.3032918
0001b0 f6 e3 fa 3d 50 69 d0 3d 47 87 a8 3e 1a 79 23 bd
       0.12250511 0.10176337 0.32915708 -0.039910413
0001c0 77 ed f9 3c 58 16 1b 3d a5 5c 4e be 22 ad 51 bd
       0.03050874 0.037863106 -0.20152529 -0.051190503
0001d0 51 9f 7b bc 09 57 29 3d 78 62 af 3b d6 17 3d bd
       -0.015357808 0.04134277 0.0053523146 -0.04616531
0001e0 ab b2 b8 bd a2 0e 5e be 1d 57 ee bc db 41 a8 3b
       -0.09018453 -0.2168527 -0.029094273 0.0051348037
0001f0 65 d4 00 3e 39 3c 82 3d e4 68 3a 3d 6e 33 2f 3d
       0.12581022 0.06359143 0.045510188 0.042773657
000200 07 be b6 3d c6 2a 0b 3e 95 40 cc bd 96 e6 d5 3c
       0.089229636 0.13590536 -0.099732555 0.026110929
000210 20 fc 22 3e 9a dc f6 bd 63 10 58 be 9c ed 6c 3e
       0.1591649 -0.12053795 -0.21100001 0.23137516
000220 09 3a ff bd 31 05 89 3d 68 86 5a 3e 29 d9 81 be
       -0.12462241 0.06690443 0.21340334 -0.25360993
000230 e7 75 8b be ea 6c 2b 3c 50 6b e7 bd 20 a6 06 3d
       -0.2723839 0.010462979 -0.11299765 0.032873273
000240 a4 bf a2 3c de 82 ef bd 70 bc da bd 6e 84 97 3d
       0.019866772 -0.11694883 -0.10680473 0.07398306
000250 31 73 93 be db 12 16 be cb 4c d2 3e b3 30 05 3e
       -0.28798822 -0.1465563 0.41074213 0.13006859
000260 2b 28 36 be 54 32 15 be cb ba 52 bc 5d f4 3a be
       -0.1778876 -0.1456998 -0.012861918 -0.1825728
000270 84 4e 70 3c e3 17 03 3e 6d 76 29 3d 0c 44 0f be
       0.014667157 0.12802081 0.041372705 -0.13990802
000280 d9 d2 32 bc 6e 54 09 3d 13 c1 db 3d 46 f6 ec bc
       -0.010914528 0.033527784 0.10730185 -0.028926026
000290 92 1b 59 3e aa 8f f7 3d 10 11 0a 3e 34 15 a7 3e
       0.21201923 0.120879486 0.13483071 0.32633364
0002a0 6b c3 48 be 13 86 72 bd 39 dd e4 3d c9 df 97 3d
       -0.19605796 -0.059209894 0.111750074 0.074157305
0002b0 51 80 6f 3c be 0f 9e bc c3 fd 18 3e a2 85 eb bd
       0.014617995 -0.019294616 0.14940552 -0.11500098
0002c0 6d 54 25 bd d5 fa 0b 3d c9 99 55 be b2 ca e0 be
       -0.040363718 0.03417476 -0.20859446 -0.43904644
0002d0 cc 67 39 3d 93 19 83 3e 4c 89 64 3e 48 39 03 3d
       0.045265004 0.2560545 0.22318 0.03203705
0002e0 fa e9 62 3e d5 e4 94 3e 56 b3 c3 bd 4d 47 1b be
       0.22159567 0.29080835 -0.0955569 -0.15163918
0002f0 83 1f c9 3c 9b b4 9b 3d e5 b1 99 3e dd de 05 3d
       0.024551159 0.07602807 0.30018535 0.032683242
000300 44 19 88 3c 4e c0 14 be a8 14 4e be 50 bd 17 be
       0.01661361 -0.14526483 -0.20125067 -0.1481831
000310 65 64 ee bd 3a 01 07 3e 7e 7b 45 3d 7c c2 81 bd
       -0.116402425 0.13184062 0.048213474 -0.06335923
000320 3e 19 80 bd 27 1d 2f be ae c7 83 3d be 77 6c bd
       -0.062548146 -0.17100964 0.0643457 -0.057731383
000330 e6 99 5e bd 20 38 86 3e 6e 0b 31 3e 19 de 4f bd
       -0.054345988 0.26214695 0.17289516 -0.05074892
000340 43 a3 96 3c 59 59 1f 3d 8a f4 9a be ba 84 4e be
       0.018388396 0.038903568 -0.30264693 -0.20167819
000350 74 25 0e bd ea 6d 2b bd 6e ac 72 be 77 6e ce 3c
       -0.034703687 -0.04185287 -0.23698589 0.025199158
000360 27 6e 77 be 45 8a 32 be 62 5e 84 be 42 2e 3e 3e
       -0.24163114 -0.17435558 -0.25853258 0.18572333
000370 f8 c2 17 3e e6 b1 3a 3e 7c f4 0d 3e 0b 7b fb 3c
       0.14820468 0.18231925 0.13862795 0.03069832
000380 6a f1 5e 3d d3 61 16 3e 1b 5a bf bd e5 4c 16 3d
       0.05442945 0.14685754 -0.09343358 0.036694426
000390 27 a0 d9 bc e7 cb 37 be 00 71 be 3d a2 37 7c bd
       -0.026565624 -0.17948876 0.09298897 -0.061576493
0003a0 bb cd 85 be 7d be d6 bd 64 ce cd bd 00 55 a6 be
       -0.26133522 -0.104855515 -0.100491315 -0.32486725
0003b0 22 98 89 bd dd 38 2a be 2b b7 81 be 28 33 9b bd
       -0.0671847 -0.16623254 -0.2533506 -0.07578117
0003c0 21 11 58 be ff 27 5e 3d a2 54 b0 bc 77 58 93 3e
       -0.21100284 0.054237362 -0.021524731 0.2877843
0003d0 93 57 37 3e c6 14 00 3e 06 05 78 be ae 2b 91 be
       0.179045 0.12507924 -0.24220666 -0.28353637
0003e0 76 30 a8 be 60 79 cb 3d 69 73 f2 3d 4f 04 cf bb
       -0.32849473 0.0993526 0.11838419 -0.0063176523
0003f0 cd e6 fe 3d fc b5 5f 3d e1 2d 19 3e f8 ca 21 bd
       0.124463655 0.054616913 0.14958908 -0.039500207

block1.3.conv.bias f4 [4]
000000 72 07 4f bd f1 7f 7b 3d 6b 3a bc bb 98 3b 00 3e
       -0.05054421 0.06140131 -0.0057442687 0.12522733

block1.3.BN.weight f4 [4]
000000 03 ce 84 3f d9 34 66 3f 6f cc 93 3f 62 17 7d 3f
       1.037537 0.8992439 1.1546763 0.98863804

block1.3.BN.bias f4 [4]
000000 9d 89 14 be c0 06 2a bd 63 01 f9 3c 81 9f 75 bd
       -0.1450562 -0.041510344 0.030396169 -0.059966568

block1.3.BN.running_mean f4 [4]
000000 84 5f 21 3e 9f 4a 33 3f 8d 3d 6a 3a 11 60 d8 3e
       0.15759093 0.7003574 0.00089355634 0.42260793

block1.3.BN.running_var f4 [4]
000000 4b 39 4b 3f 05 2e 68 3f 7e 61 68 3f b4 42 03 40
       0.793843 0.9069522 0.9077376 2.0509462

block2.0.conv.weight f4 [8, 4, 3, 3]
000000 9c 8a 95 3c 3a 5a 2d be e2 d1 ca 3c af 37 c0 3d
       0.01825457 -0.1692895 0.024758283 0.09385621
000010 79 6a 35 3d ed 1f d7 3d 84 94 92 3d e3 a6 00 bd
       0.044290993 0.10504136 0.07157233 -0.031409156
000020 0d c9 8b 3e 82 ff 56 be 3e 6b cf bd 08 b4 0f be
       0.27301827 -0.20995906 -0.10127877 -0.1403352
000030 82 5f 17 be 60 41 20 bc 59 37 e4 bd f8 9f 71 3e
       -0.14782527 -0.009781212 -0.11143369 0.2359618
000040 65 b9 fd 3d 6b 1a 72 3e 44 e6 1a 3e a5 c3 ba 3e
       0.12388877 0.2364289 0.15126902 0.3647739
000050 d5 53 3a be e2 aa a4 be 43 30 ae 3d c8 9f 48 3e
       -0.18196042 -0.32161623 0.08505299 0.19592202
000060 dc 14 8b be a0 14 8f bc f4 d4 1b 3e c5 66 8a 3e
       -0.27164352 -0.01746589 0.15217954 0.27031532
000070 75 69 54 3e f9 ff 78 bd 50 60 c8 3d 0b 7a 37 3e
       0.20743354 -0.06079099 0.09783995 0.1791765
000080 8b 8e 52 3e 73 70 99 be da 7e 9b be f6 4d f6 bc
       0.20562188 -0.29968604 -0.30370218 -0.030066472
000090 fe f8 48 be 65 22 77 be 73 d1 13 be 7a d9 7d 3b
       -0.19626233 -0.24134214 -0.14435367 0.0038734362
0000a0 2e dc 5f bd a9 b7 cf 3c e6 16 f7 3d 62 89 2b 3d
       -0.05465334 0.02535613 0.120649144 0.041879065
0000b0 14 37 8b bd f9 80 b0 bd e9 0d 32 3e 6e bf 38 3e
       -0.06797615 -0.086183496 0.17388119 0.18041775
0000c0 1e cd 0e 3e ec fe 16 3e cb 7f 2d 3d fa 09 25 3e
       0.13945433 0.14745682 0.0423582 0.16117087
0000d0 7f 11 e8 bd d8 75 5c bd 0f 53 18 3e c6 1b aa 3e
       -0.11331462 -0.053823322 0.14875434 0.33224314
0000e0 0c f3 0b 3e c6 49 2e be 9e 65 0f 3e 1a bb 82 bd
       0.13666934 -0.1702033 0.14003608 -0.06383343
0000f0 f5 d6 69 be e4 bf 19 bb 85 de 8f 3d ba c0 11 3d
       -0.22835906 -0.0023460323 0.07024864 0.03558419
000100 c5 0a 9b 3d 9b 49 7b bd 1a ac 35 3e d7 1f f2 3e
       0.075704135 -0.061349493 0.17741433 0.47289917
000110 a6 a2 e6 3e bb 72 3b be c6 b2 78 3e 44 62 bf bd
       0.45045966 -0.18305485 0.24286947 -0.093449146
000120 fb 2c 82 3e 2f 37 02 3f c5 0e 41 3e 06 14 f2 bd
       0.25424942 0.50865453 0.1885329 -0.118202254
000130 92 68 c4 bd 69 59 2c be 1d c9 fb bc ac 37 cf 3d
       -0.09590258 -0.16830982 -0.030735547 0.101180404
000140 36 f3 86 be 56 8f 6d 3e e8 4c 1c 3c 61 bb 2f 3d
       -0.2635743 0.2319921 0.00953982 0.042903308
000150 2d 84 bb bd 70 10 82 be b7 3c 34 be 4d 55 6f be
       -0.0915607 -0.25403166 -0.17601286 -0.23372383
000160 9f 6a 2f be 3a 21 79 be a5 f5 66 3d bb fc e5 3c
       -0.17130516 -0.24329081 0.05638661 0.028074613
000170 29 55 46 bd ed 40 3e 3d 9a c8 83 3e 23 9f 83 bc
       -0.04842106 0.046448637 0.25738984 -0.016067093
000180 ea 10 5a be 0b 15 4c bc 4d 2f 78 be 9a 75 9f bd
       -0.21295515 -0.012456189 -0.24236794 -0.077861026
000190 22 ab 13 3e 5b 79 8e 3d c3 ba 5e 3d 01 94 8f 3e
       0.1442075 0.069567405 0.05437733 0.28042606
0001a0 32 82 a3 bb b6 c3 5e 3d 1f b6 e1 3d 72 9f 94 3d
       -0.0049898857 0.054385863 0.11021065 0.07256974
0001b0 62 82 c2 bd f4 f2 87 3c a6 cc 64 3d 62 cb 40 3d
       -0.09497525 0.016595341 0.05585923 0.04706896
0001c0 5c 74 04 3d 25 d4 30 bd 3d dd 35 3c 1a a8 cc bd
       0.03233753 -0.043171067 0.011100111 -0.09993
0001d0 88 e5 97 3e 44 2d 88 3e b2 d9 86 3e 50 7d 53 3e
       0.29667306 0.26597035 0.26337963 0.20653272
0001e0 99 8c 8e 3e 90 fd f9 bc ab b7 85 bb 48 4f 56 3e
       0.27841642 -0.030516416 -0.004080733 0.20928681
0001f0 e5 74 54 3c 7d bc 0a be 9f 66 8e be 55 a8 20 be
       0.012967323 -0.13548465 -0.2781267 -0.15689214
000200 48 93 92 be e9 02 0d bd 47 f6 a7 bd 11 c5 ad be
       -0.28627992 -0.034426603 -0.082012706 -0.33939412
000210 55 c6 62 bd 6d 19 16 be 70 19 1c be 53 4a 4a 3d
       -0.055364925 -0.14658137 -0.15244079 0.049387287
000220 ed 22 b9 3d d7 13 06 be 3d 0e 82 be 0c 17 04 bc
       0.09039865 -0.13093506 -0.25401488 -0.008062135
000230 13 65 82 3e 06 62 ba bd 9c c8 f2 bd d6 3c ae bd
       0.25467739 -0.09100728 -0.118546695 -0.08507697
000240 14 97 59 3e 26 11 05 3e 35 66 b8 bd ed e7 52 3d
       0.21249038 0.12994823 -0.090038694 0.051490713
000250 6f 02 fe 3c 0b d9 04 be 93 ea e6 3d 92 0f b1 bd
       0.03100702 -0.1297342 0.1127521 -0.08645548
000260 7f d6 5f be f1 54 03 3e ad de 4e bd 9a 1b 2d be
       -0.21859168 0.12825371 -0.05050533 -0.1690506
000270 c3 4e 94 bd d4 25 09 3e 19 2c b8 3c d0 3f 46 be
       -0.07241585 0.13393337 0.022481965 -0.1936028
000280 54 60 38 be 50 f3 01 3d 5c fc 32 be 3c 3e 65 be
       -0.18005496 0.03172618 -0.1747908 -0.22387022
000290 04 0c d1 3d 08 bb 99 be 57 d0 be be b3 58 41 3e
       0.1020737 -0.30025506 -0.37268326 0.18881492
0002a0 1c 0a 0a be 66 18 9f be 4d 95 59 3d 4e 43 e0 be
       -0.13480419 -0.31073302 0.0531209 -0.4380135
0002b0 db ab 89 be 1d 0e fa 3d 0c 20 b0 be 67 2f 86 ba
       -0.26888928 0.12209723 -0.3439945 -0.0010237516
0002c0 29 b7 38 3d cd 66 2c be a0 9b 1c be bd 01 b3 bc
       0.04509655 -0.1683609 -0.15293741 -0.021851415
0002d0 d0 5e a4 bd f3 7a 1a 3e df db 4c bd 24 fa 74 3e
       -0.080258965 0.15085964 -0.050014373 0.23923546
0002e0 cf d5 a0 3e b3 83 83 3e 75 56 99 bd 00 95 97 bd
       0.31413123 0.25686416 -0.074871935 -0.07401466
0002f0 8a 80 dd 3d 2b e5 97 3d 32 b8 54 3d 8e 83 65 3c
       0.108155325 0.07416757 0.051933475 0.014008416
000300 42 81 01 be aa 06 fa bd eb bb 7b be 15 24 36 bc
       -0.12646964 -0.12208302 -0.24583404 -0.011117001
000310 df c9 07 3e 22 02 cd 3d 20 eb e1 3d 8d 59 12 bc
       0.13260601 0.100101724 0.11031175 -0.008932483
000320 26 66 8c 3e ff 7b 4c be b2 6a bf be 78 20 73 3d
       0.27421683 -0.19969176 -0.3738609 0.059357136
000330 bf 40 41 be f3 9d a8 be 21 1e 23 3e 1f 3f 9b 3c
       -0.18872355 -0.32933006 0.15929462 0.018950997
000340 a7 22 ce 3c f2 3c 95 be 89 64 4d 3e 57 93 e5 3d
       0.025163008 -0.2914806 0.20057882 0.112097435
000350 7a b3 fa bb 12 00 4e 3e 2e 1c 68 bd 67 37 8c bc
       -0.00765079 0.20117214 -0.0566675 -0.017116262
000360 b4 87 73 3d 5c 11 bb 3e 02 ce 80 bd 8a d2 21 be
       0.05945559 0.36536682 -0.06289293 -0.1580297
000370 be 5b 66 3d 67 1e a3 be b7 cd 70 3d 29 c6 9d bc
       0.056239836 -0.31859133 0.058789935 -0.01925953
000380 8c 70 c1 bd 5d ab e4 3d fb b5 95 3c bb f0 dc bc
       -0.09445295 0.111654975 0.018275252 -0.026970258
000390 89 fd 2c 3e 00 fc 39 3d 94 90 db bd 78 20 80 bd
       0.16893591 0.04540634 -0.107209355 -0.06256193
0003a0 b5 64 4a 3e 71 2a 0d 3d 30 6d 9c 3d 43 2b 28 3e
       0.19764979 0.034464303 0.07638013 0.16422753
0003b0 68 d3 11 3e 2a e9 4e be 5e 71 dd bb 33 bf 8f be
       0.14240801 -0.20206133 -0.006757899 -0.2807556
0003c0 3a b9 16 3e 58 99 05 3e e2 8e 5c be db 9f 84 be
       0.14719096 0.13046777 -0.2153888 -0.2590321
0003d0 a2 19 c2 bd 0d 4d 29 bb bf c8 a2 3e 65 96 9e 3e
       -0.09477545 -0.002583328 0.31793782 0.30974117
0003e0 7b b4 2b be fa 15 74 3e 89 91 02 3e bb 89 0d 3e
       -0.16768067 0.23836508 0.1275083 0.13822071
0003f0 64 36 5b be cb ba bf bd e2 0e 26 3e 9f a9 b7 be
       -0.21407467 -0.093618 0.16216615 -0.35871598

block2.0.conv.bias f4 [8]
000000 fe 09 3a 3d 75 ce 21 be 46 3c 51 3d 5a a5 95 3d
       0.045419686 -0.15801413 0.05108287 0.07306929
000010 c4 7a 22 3e e4 0d 53 3e 4b 1e 02 3e a7 7a ce 3d
       0.15867144 0.20610768 0.12706868 0.10081988

block2.0.BN.weight f4 [8]
000000 3b a2 80 3f 3e 58 83 3f f6 ac 8d 3f a6 df 6a 3f
       1.0049509 1.0261304 1.1068408 0.9174751
000010 f7 e4 6f 3f ce b4 82 3f 28 74 66 3f 6b 1e 7a 3f
       0.9370875 1.0211427 0.9002099 0.97702664

block2.0.BN.bias f4 [8]
000000 58 d6 29 be 32 9c 84 be 55 eb 34 3b ff b9 1d be
       -0.16585672 -0.25900418 0.002760609 -0.15402983
000010 2a ef 89 bd 36 1c 99 bc 92 90 c9 be 2d 1b d4 be
       -0.0673507 -0.01869021 -0.3936811 -0.41426983

block2.0.BN.running_mean f4 [8]
000000 49 9f 96 3e d2 4d bd 3e a8 07 16 3d 48 9d 93 be
       0.294184 0.36973435 0.036628395 -0.28830934
000010 f9 4c 4e bf 2d bd 69 3e 34 04 bb 3e fb 50 a2 3e
       -0.805862 0.22826071 0.36526644 0.31702408

block2.0.BN.running_var f4 [8]
000000 1b 40 1d 3f b8 c6 86 3f f6 30 0d 3f 7b dc 64 3f
       0.6142594 1.0529394 0.55152833 0.89398926
000010 f6 2f fd 3f fb 8c da 3e b6 6b cf 3e 1f da da 3e
       1.9780262 0.42685685 0.40511864 0.42744538

block2.1.conv.weight f4 [16, 8, 3, 3]
000000 ed 2f fb 3d a7 2a 25 be 0d ea 6f be 19 63 30 3d
       0.122650005 -0.16129552 -0.23429127 0.043063257
000010 21 9b d4 be 62 f2 28 be af 56 1f 3e 1c 1c 76 3e
       -0.41524604 -0.16498712 0.15560411 0.2403416
000020 48 2b 11 3e 8f fa ad bc 05 c0 47 be d6 14 24 3e
       0.14176667 -0.02123764 -0.19506843 0.16023573
000030 03 91 d8 bd 82 fe 06 be a6 03 10 bd b9 51 dc 3c
       -0.10574534 -0.13183025 -0.03515973 0.026894437
000040 b1 2f 13 be 0d de 51 bd be b6 a4 be 41 73 12 3e
       -0.14373662 -0.051237155 -0.3217067 0.14301778
000050 ff 65 cd 3d af b9 bd be 3b fa 69 be 6a 13 b4 be
       0.1002922 -0.37055728 -0.22849362 -0.35171062
000060 1e 48 e5 bd 9b ab 25 3e 39 cf 9f bd ff c9 0a 3e
       -0.11195396 0.16178744 -0.078031965 0.13553618
000070 81 de d3 bb 25 a6 2e 3e d3 8d fb 3d ed 95 8b 3e
       -0.0064657335 0.17055567 0.1228291 0.27262822
000080 5a 6d 8a 3e 19 dd 94 3d b6 81 11 bc 5c 23 1f 3e
       0.27036554 0.072687335 -0.008881023 0.15540832
000090 a4 6c ac 3d c5 9f 06 be cd 68 49 be 34 ac 7d 3e
       0.08419159 -0.13146885 -0.19668885 0.24772722
0000a0 a5 a0 cc 3d cb 8f db 3d 6b 3a b7 3d 85 84 dc bd
       0.09991578 0.10720786 0.08946689 -0.107674636
0000b0 45 80 7f bd 41 e3 96 3d 57 4c 34 3e 8a 59 63 bc
       -0.062378187 0.07367564 0.17607246 -0.013876328
0000c0 a1 41 73 bd 6b ba bb bd 3c 03 8f be f0 11 a4 3d
       -0.05938876 -0.09166416 -0.27932155 0.08011234
0000d0 c9 69 39 be 38 60 ac bd cc 18 73 3d 4c de 5d 3e
       -0.1810676 -0.0841679 0.05934982 0.21666831
0000e0 34 a1 a4 bc e4 e1 09 be a5 84 3d 3c 85 bc 82 3d
       -0.020096399 -0.13465077 0.011567269 0.063836135
0000f0 29 4e eb bd a7 22 bf 3c 60 65 2c bc f9 96 25 3e
       -0.11489517 0.023331953 -0.010522217 0.16170873
000100 f6 93 bc 3b 4f 0a 20 be a6 5b fa 3c 48 a1 75 be
       0.005754943 -0.15628932 0.03056128 -0.23987305
000110 dc f1 8d be a4 fe 05 3e e7 6a 15 be 04 75 a8 be
       -0.27723587 0.13085419 -0.14591561 -0.32901776
000120 33 d8 78 bd bb b8 31 3d 58 c2 54 3e fc 57 b3 bd
       -0.06075306 0.043389063 0.20777261 -0.08757016
000130 01 13 8f 3d b1 c1 da 3d fc 01 7e 3c 87 c5 4a 3e
       0.069860466 0.10681475 0.015503403 0.19801913
000140 af da ae 3d 18 ab 00 be 00 69 3c 3c c0 05 8c 3e
       0.08537804 -0.12565267 0.011499643 0.27348137
000150 67 56 11 bd 93 6a 56 3e cb 32 5d 3e ea f4 ea bd
       -0.03548279 0.20939092 0.21601407 -0.11472495
000160 9b f1 a9 3d 05 d7 25 3e 48 7a 1d 3c 0d f7 92 bc
       0.08298036 0.16195305 0.009611674 -0.017940069
000170 b6 53 34 3e 43 f1 60 3c 07 52 58 3d 85 8d 92 3d
       0.17610058 0.013729396 0.052812602 0.07155899
000180 f7 70 82 be ae 47 d4 bd a8 f1 f6 3d ba 3c 2f be
       -0.2547681 -0.10365234 0.12057811 -0.17113009
000190 57 18 29 be 78 df b2 3d d4 27 9d bd 0e ec 2a bd
       -0.16513191 0.087340295 -0.07673612 -0.041729026
0001a0 4b 01 d2 3d 73 51 1b be ac fd 30 3d ca a3 24 3e
       0.10254153 -0.15167789 0.04321067 0.16078106
0001b0 d2 f5 35 3e 49 90 76 bd 77 11 43 3d 7c dd 9b 3d
       0.17769554 -0.060196195 0.047624078 0.07610604
0001c0 8e 73 89 bd 1f 4e 1f 3d d3 63 27 be 4e 99 15 3e
       -0.067114934 0.03889286 -0.16346674 0.14609262
0001d0 f4 9c 66 3b f1 03 88 be 3e 19 40 be 1c ef 7c 3d
       0.0035188766 -0.26565507 -0.18759629 0.06175147
0001e0 c3 e7 22 bb 05 cc 3f be ea 87 98 be e6 e1 76 3c
       -0.002485738 -0.18730171 -0.29791194 0.015068507
0001f0 20 25 86 3d 52 b2 ad be 4f bd 7e be ee 11 c0 3c
       0.0655005 -0.3392511 -0.24876903 0.02344605
000200 fe 8e 5a 3d d5 5e 6b be eb 56 83 be 79 db 1e 3e
       0.053359024 -0.22985394 -0.2565225 0.1551341
000210 84 eb 93 be e6 f1 d7 bd f2 b9 25 3e 94 6f dd be
       -0.28890622 -0.10544185 0.16184214 -0.4324919
000220 2f da 2c bd 55 84 4a 3e 09 4d 47 be c8 d2 59 be
       -0.042200264 0.19777043 -0.1946298 -0.21271813
000230 16 44 54 3e ee 62 2a be d0 cc 8a be 43 40 1b 3e
       0.20729098 -0.16639301 -0.27109385 0.15161233
000240 f9 39 9a 3d dc df 8e 3e 4a 65 9a 3e d1 25 43 bd
       0.07530589 0.27905166 0.30155402 -0.047643486
000250 e5 62 94 3e 6f 5f 72 ba 6f f3 7e bd 31 5c 0d 3e
       0.289817 -0.0009245788 -0.062243875 0.138047
000260 34 fe 9b 3e c8 16 a0 3c 2a 05 8b 3e da 4b 84 3c
       0.3046738 0.019542113 0.27152377 0.01614945
000270 ff 54 27 be ba 1e 84 bd 76 9e 8d 3d b4 67 2c be
       -0.16341017 -0.06451173 0.0691499 -0.16836435
000280 2c f4 8e bd 38 9b 9b 3d 60 02 c3 3e 20 c3 18 3e
       -0.06980166 0.07597965 0.3808775 0.14918184
000290 cc 1e 6b 3e 0d 27 58 3e 0d f4 55 3e 57 89 bb 3d
       0.22960967 0.21108647 0.20893879 0.09157055
0002a0 10 2f 09 3e 0e 38 0c 3e 61 01 e3 3d 82 6d 6c 3d
       0.13396859 0.13693258 0.110842474 0.057721622
0002b0 de 7d a4 3d cb 97 6b 3d 74 0a dc 3c e1 0c 77 bb
       0.0803182 0.057517808 0.026860453 -0.0037696885
0002c0 86 c1 1a 3e bb 37 9c bc 66 bf 25 3c c1 b1 78 3e
       0.15112886 -0.019069543 0.010116434 0.24286558
0002d0 2d 5b ac bc 32 c3 4a be 09 af 64 be 1f ea 22 be
       -0.02103957 -0.19801024 -0.22332396 -0.15909623
0002e0 e1 9a a1 be f9 35 4e bc 76 37 2f bc 63 cc 08 be
       -0.31563476 -0.01258611 -0.010694375 -0.13359217
0002f0 3f 53 06 3e 6c 8c 57 3e 42 27 ef bc 9c cb fe 3d
       0.13117693 0.2104966 -0.029193524 0.12441179
000300 d5 8f 7a 3e e6 1f 89 3d 7c db 5f 3b 4f 73 c8 3c
       0.2446893 0.06695537 0.0034157922 0.024469046
000310 49 cc 10 3e da e3 26 3e b6 a5 30 3e c9 47 c3 bd
       0.14140429 0.16297856 0.17250714 -0.09535176
000320 1f 1f 69 3e f0 1f 09 3e ed 24 86 be 1f 66 37 be
       0.22765778 0.1339109 -0.26200047 -0.1791005
000330 2e 41 21 3e 1e 58 b6 3d 5b f9 b7 bd 9d 52 68 3c
       0.1574752 0.08903526 -0.08983108 0.014179853
000340 74 71 b0 3c 64 bc 00 be 76 68 84 bd 7f fe aa 3d
       0.021538474 -0.12571865 -0.06465237 0.083493225
000350 c1 6e ec bd c2 fd 5d 3d f5 66 16 3e df 6e 26 be
       -0.11544562 0.05419708 0.14687712 -0.16253231
000360 9e 71 ae 3e 86 9b fa 3e f9 a9 e4 bd 8f 91 c9 3d
       0.34071058 0.4894678 -0.11165232 0.09842216
000370 64 55 ef 3e e0 7c 40 3e 8c 1a 07 bd 11 6b 8b 3e
       0.46744835 0.18797636 -0.0329843 0.27230123
000380 21 f5 0c 3e 5c ba 17 bd ed fa c7 3d ea 50 0f bd
       0.13765384 -0.03704296 0.09764657 -0.034989275
000390 0c 49 24 be c1 4a 3b 3d 75 35 3c 3d 2d 09 01 be
       -0.1604349 0.045725588 0.045949418 -0.12601157
0003a0 45 7a 31 3d a9 43 b0 3d c6 68 ff bc 46 13 c8 3c
       0.043329496 0.08606655 -0.03117789 0.024423253
0003b0 c3 98 c9 3d be 5f 90 bd 0d 54 f1 bd 24 08 d5 bc
       0.0984359 -0.070495114 -0.117836095 -0.026004858
0003c0 da 07 e9 be f7 03 21 bb ea 59 12 3e 82 f0 80 bd
       -0.45513803 -0.0024569014 0.14292112 -0.06295873
0003d0 98 d6 f8 bd bb a0 76 3d 87 00 29 be 4f 27 07 be
       -0.121503055 0.06021188 -0.16504107 -0.13198589
0003e0 93 b8 49 bc 73 fe 0a 3e d1 a1 21 3e 0c 7e 6f 3e
       -0.012312072 0.13573627 0.15784384 0.23387927
0003f0 6f 45 80 bd c9 f5 ad bb 75 cc 37 3e b0 5b 93 3d
       -0.062632434 -0.005308841 0.17949088 0.071952224

block2.1.conv.bias f4 [16]
000000 bd 3d 50 3d 64 71 24 be 8f 6d e5 bd 07 7e 2d bc
       0.05084013 -0.1605888 -0.11202537 -0.010589129
000010 71 9d e5 3a 98 c7 ca bd 0c 30 c6 3c 3e bf 49 bd
       0.0017518235 -0.09901351 0.024192832 -0.04925465
000020 ee 4a 45 be 8f 4e 7c bc 2b 21 2a 3e 26 c5 3d 3d
       -0.19266865 -0.015399589 0.16614215 0.046330594
000030 fe 1c 3f bd 38 f9 a1 3d cf 03 be bd 4b ec 53 3e
       -0.04665851 0.07908863 -0.0927807 0.20695607

block2.1.BN.weight f4 [16]
000000 cf c9 80 3f 61 71 98 3f 75 aa 09 3f 99 53 87 3f
       1.0061587 1.19096 0.5377572 1.0572387
000010 24 b9 85 3f 59 2e 7e 3f 5f b9 4b 3f df bc 68 3f
       1.0447125 0.9928947 0.7957973 0.90913194
000020 6c 61 8f 3f 4e 72 49 3f ba 11 5e 3f 3f ff 84 3f
       1.1201606 0.7869004 0.867458 1.0390395
000030 ae 4e 8d 3f f7 4b 6e 3f f4 fc 77 3f ab 0c 8f 3f
       1.1039636 0.93084663 0.9687035 1.1175741
