model/result/0509 1044.pt (torch, 79133 bytes, 98 tensors)

input_conv.conv.weight f4 [4, 1, 3, 3]
-0.13903826 0.20107172 -0.22447294 -0.20786025 0.3328057 0.1926434 -0.27449778 -0.24148658
0.2696994 -0.112642296 0.21710908 0.4765535 -0.14384903 -0.25043076 0.042959996 0.31668043
0.3385642 -0.23444782 0.31818587 0.18757205 -0.12664549 -0.11948749 -0.24454592 -0.19958983
0.07014899 -0.28579894 -0.37648433 -0.20847276 0.03400145 0.33122176 0.09922502 -0.28321832
-0.16458313 -0.23878668 -0.2739199 0.23597327
00000000: 0c60 0ebe bfe5 4d3e 3cdc 65be 51d9 54be
00000010: 8265 aa3e 5044 453e f98a 8cbe 4248 77be
00000020: 0a16 8a3e 01b1 e6bd d851 5e3e d2fe f33e
00000030: 294d 13be 7638 80be d2f6 2f3d f023 a23e
00000040: 4958 ad3e 1713 70be 42e9 a23e e312 403e
00000050: 5baf 01be dbb5 f4bd 3f6a 7abe 4761 4cbe
00000060: 46aa 8f3d 3d54 92be 8ec2 c0be e279 55be
00000070: 1b45 0b3d e695 a93e 7d36 cb3d fe01 91be
00000080: 7b88 28be 7f84 74be 3b3f 8cbe faa2 713e

input_conv.conv.bias f4 [4]
0.10927235 -0.03919906 0.2365408 0.30145615
00000000: 2fca df3d 328f 20bd c037 723e 7658 9a3e

input_conv.BN.weight f4 [4]
0.8411657 1.1621934 1.0855997 0.85144085
00000000: a356 573f c1c2 943f eef4 8a3f 07f8 593f

input_conv.BN.bias f4 [4]
0.16649552 -0.038758107 -0.03771639 -0.03423848
00000000: cd7d 2a3e d2c0 1ebd 807c 1abd a63d 0cbd

input_conv.BN.running_mean f4 [4]
0.11014919 -0.03466342 0.2436224 0.30446306
00000000: e695 e13d 3bfb 0dbd 2778 793e 95e2 9b3e

input_conv.BN.running_var f4 [4]
0.04954478 0.36463246 0.6267513 0.22414094
00000000: 78ef 4a3d 1bb1 ba3e c672 203f 3485 653e

block1.0.conv.weight f4 [8, 4, 3, 3]
-0.06260628 0.08189817 0.06836306 -0.14055942 -0.04286449 -0.21427825 -0.08945543 -0.052983936
0.029890448 -0.30662146 0.07018268 0.21110946 -0.27739707 0.1345047 0.28770268 -0.13035423
-0.07273854 0.16283412 0.06786459 0.07747417 0.203544 0.025233094 -0.07503051 -0.14380005
-0.09297012 -0.011275596 -0.28502792 0.044228446 0.300773 -0.115325846 -0.13275892 -0.058396827
-0.26308528 -0.013536874 -0.13278624 -0.30219436 -0.065618224 -0.090817116 -0.40144658 0.20646308
0.14636083 -0.023319978 0.068201385 -0.19555302 -0.27608278 -0.055113308 0.18021564 0.1739585
-0.012682371 -0.10379514 0.20945926 -0.13040209 -0.2397254 -0.1753644 0.008008621 -0.28686097
-0.08385457 -0.15332441 -0.41555065 -0.008378134 -0.29729494 -0.11773867 0.0020165658 -0.019788798
-0.15466104 -0.29458082 0.13738102 0.050654944 -0.06432122 0.12799533 -0.0786093 0.007166224
-0.12836105 0.16422415 -0.079526484 -0.34524795 -0.15120344 -0.18279956 -0.07019741 -0.047644548
-0.14862041 0.055242006 0.033178456 0.14672643 -0.18031086 0.039811715 -0.062197145 0.29240814
-0.06634796 0.1142116 0.19541381 0.29314882 0.17965704 -0.2815701 -0.28050503 -0.17087422
0.15965927 0.27263072 0.1584309 0.1505954 0.25793996 0.14636107 -0.22375748 -0.10955573
-0.13428336 0.06554856 -0.18140683 -0.09606891 -0.14859857 -0.15641159 0.22747736 -0.3592805
-0.07108015 -0.14617348 -0.24751437 0.22754659 -0.083324365 0.014155105 0.19622976 -0.21299365
0.14284988 0.1709816 -0.063783 0.06466105 -0.029216265 -0.034991328 -0.33203363 -0.21883109
-0.25490344 -0.021571288 0.13590889 0.08492038 -0.085124366 0.09937392 0.05464235 -0.1665881
-0.17085303 -0.23814657 -0.09917381 -0.2395929 -0.17767112 -0.17167656 -0.33258787 0.0914891
0.08547133 -0.015283758 -0.048231587 0.0045732027 -0.26996762 -0.009387798 0.24771017 0.07368571
-0.20902433 0.35960415 -0.03411137 -0.26479718 0.09982281 -0.09596035 -0.13810658 0.07560206
0.024896948 -0.2115842 -0.09169919 0.26908967 0.20911057 0.035568893 0.084033936 -0.031156007
0.017820092 -0.074713595 -0.026431464 0.12629563 0.12666123 -0.1469813 -0.24176721 -0.08721308
-0.1362759 0.0652668 -0.25475425 -0.10712656 -0.04090022 -0.13399796 -0.42537653 0.10397214
0.15310733 -0.05482032 0.13832463 0.09066028 -0.1295837 -0.18216717 -0.028594682 0.05460498
0.1225466 0.19139133 -0.13281764 0.22113633 0.24093091 0.12402555 0.19148181 0.063755274
0.21611755 0.18882261 0.030757584 0.22144343 -0.23892492 0.2566635 0.22898842 0.122298956
0.1392809 0.1613837 0.097624876 -0.014234365 0.0033774958 -0.092018306 -0.16260262 -0.026472507
0.056161396 0.15519969 0.095815375 -0.033565253 -0.027892815 0.053524002 -0.05580221 0.021828268
0.10964816 0.24301894 0.2571755 0.06674337 0.19414353 -0.025172058 -0.0010301832 -0.059094034
-0.35097456 -0.08516626 -0.14488786 -0.03699592 -0.12597325 0.2998214 -0.117336385 -0.24827883
0.17641015 0.19423892 -0.03671927 -0.2264462 0.06513547 -0.14146218 -0.08591557 0.17230433
0.064995825 0.1265017 0.15607962 0.003291378 -0.14385258 -0.04534905 0.016130328 -0.17943998
00000000: b937 80bd 3aba a73d ef01 8c3d cfee 0fbe
00000010: ad92 2fbd c26b 5bbe 6934 b7bd af05 59bd
00000020: d0dc f43c 7dfd 9cbe f0bb 8f3d 142d 583e
00000030: fd06 8ebe 9abb 093e c44d 933e 947b 05be
00000040: f2f7 94bd fdbd 263e 97fc 8a3d c7aa 9e3d
00000050: d76d 503e a2b5 ce3c 99a9 99bd 5240 13be
00000060: 1e67 bebd 47bd 38bc 2eef 91be e328 353d
00000070: ebfe 993e f52f ecbd f4f1 07be 8331 6fbd
00000080: 1db3 86be c4c9 5dbc 1ef9 07be 38b9 9abe
00000090: d962 86bd 53fe b9bd 688a cdbe 0f6b 533e
000000a0: 9ddf 153e 8a09 bfbc 2bad 8b3d 0d3f 48be
000000b0: b95a 8dbe 7ebe 61bd 738a 383e 2d22 323e
000000c0: b8c9 4fbc 8c92 d4bd 7d7c 563e 2088 05be
000000d0: 937a 75be ba92 33be 9736 033c 71df 92be
000000e0: f2bb abbd 1301 1dbe 0ec3 d4be 7144 09bc
000000f0: 0b37 98be f920 f1bd 5c28 043b 1e1c a2bc
00000100: 775f 1ebe 4cd3 96be 9cad 0c3e 8f7b 4f3d
00000110: d8ba 83bd 3511 033e eafd a0bd a5d2 ea3b
00000120: 1471 03be 602a 283e c8de a2bd 57c4 b0be
00000130: 13d5 1abe cf2f 3bbe a9c3 8fbd ee26 43bd
00000140: f32f 18be 7145 623d 22e6 073d 743f 163e
00000150: 69a3 38be 9c11 233d 6fc2 7ebd 85b6 953e
00000160: 70e1 87bd c5e7 e93d 8f1a 483e 9a17 963e
00000170: 04f8 373e f529 90be 5b9e 8fbe a7f9 2ebe
00000180: b87d 233e 4196 8b3e b63b 223e ae35 1a3e
00000190: b510 843e addf 153e ae20 65be c15e e0bd
000001a0: 9481 09be 533e 863d b6c2 39be c7bf c4bd
000001b0: 392a 18be 5c2a 20be d3ef 683e 9df3 b7be
000001c0: 7892 91bd 80ae 15be 6874 7dbe f901 693e
000001d0: f7a5 aabd d0ea 673c 74f0 483e 021b 5abe
000001e0: 3d47 123e cd15 2f3e a9a0 82bd 036d 843d
000001f0: f356 efbc 1153 0fbd 5000 aabe 4215 60be
00000200: b482 82be 45b6 b0bc b32b 0b3e bcea ad3d
00000210: af55 aebd 8e84 cb3d a8d0 5f3d 1296 2abe
00000220: 19f4 2ebe b2dc 73be a31b cbbd d757 75be
00000230: 6bef 35be fbcb 2fbe f548 aabe a35e bb3d
00000240: 980b af3d ba68 7abc 7c8e 45bd ceda 953b
00000250: 3239 8abe 47cf 19bc bca7 7d3e 89e8 963d
00000260: 790a 56be 091e b83e 5db8 0bbd 7f93 87be
00000270: e76f cc3d dc86 c4bd d06b 0dbe 41d5 9a3d
00000280: aff4 cb3c 87a9 58be c9cc bbbd 1fc6 893e
00000290: 1521 563e b0b0 113d fc19 ac3d e23a ffbc
000002a0: 71fb 913c 7103 99bd cc86 d8bc a453 013e
000002b0: 7bb3 013e 4482 16be d391 77be c59c b2bd
000002c0: e98b 0bbe 9aaa 853d 266f 82be 2b65 dbbd
000002d0: fd86 27bd c336 09be f4ca d9be 58ef d43d
000002e0: 2bc8 1c3e 468b 60bd f9a4 0d3e 19ac b93d
000002f0: 97b1 04be 088a 3abe 653f eabc 79a9 5f3d
00000300: b6f9 fa3d 17fc 433e 5901 08be 9071 623e
00000310: 98b6 763e 1c01 fe3d cf13 443e 2092 823d
00000320: eb4d 5d3e b75a 413e 54f7 fb3c 11c2 623e
00000330: bca8 74be 6669 833e f17b 6a3e e077 fa3d
00000340: a79f 0e3e c541 253e 8def c73d 4137 69bc
00000350: fa58 5d3b 1874 bcbd 4d81 26be dfdc d8bc
00000360: 7e09 663d abec 1e3e da3a c43d b87b 09bd
00000370: 797f e4bc fc3b 5b3d dc90 64bd 32d1 b23c
00000380: 378f e03d f5d9 783e 82ac 833e bfb0 883d
00000390: 90cd 463e a235 cebc 3607 87ba 960c 72bd
000003a0: f0b2 b3be a66b aebd 7c5d 14be 0989 17bd
000003b0: 22ff 00be 3182 993e 0f4e f0bd ce3c 7ebe
000003c0: dda4 343e 91e6 463e f266 16bd 83e1 67be
000003d0: bf65 853d 76db 10be 81f4 afbd 8c70 303e
000003e0: 881c 853d a989 013e 56d3 1f3e 29b4 573b
000003f0: 174e 13be edbf 39bd c023 843c 1dbf 37be

block1.0.conv.bias f4 [8]
-0.051323526 -0.22092535 0.037540782 -0.08003707 0.0213165 -0.011417382 0.0032492569 -0.036340073
00000000: 9e38 52bd 413a 62be 5dc4 193d 7aea a3bd
00000010: f19f ae3c f90f 3bbc 7cf1 543b 54d9 14bd

block1.0.BN.weight f4 [8]
1.0025737 0.9108209 0.82537305 0.86322266 0.9742848 1.1301574 1.0048002 1.2301073
00000000: 5654 803f 8f2b 693f a64b 533f 29fc 5c3f
00000010: bb6a 793f ffa8 903f 4b9d 803f 2874 9d3f

block1.0.BN.bias f4 [8]
-0.08693531 -0.124858685 -0.2167054 -0.09973727 0.075706065 -0.06620958 0.022707378 0.23761407
00000000: 240b b2bd e9b5 ffbd 05e8 5dbe 0e43 ccbd
00000010: c80b 9b3d e398 87bd d304 ba3c 1a51 733e

block1.0.BN.running_mean f4 [8]
-0.69812006 -1.4675435 -0.23100834 -1.2950758 -0.25787964 0.7821528 0.4602378 -0.62354714
00000000: ffb7 32bf 77d8 bbbf 738d 6cbe 0bc5 a5bf
00000010: cd08 84be 2a3b 483f 4aa4 eb3e c9a0 1fbf

block1.0.BN.running_var f4 [8]
0.29225504 0.65270966 0.37425187 0.9958825 0.34217137 0.42159072 0.2480271 0.6890042
00000000: 74a2 953e fb17 273f f19d bf3e 28f2 7e3f
00000010: 1631 af3e bdda d73e d1fa 7d3e 9462 303f

block1.1.conv.weight f4 [16, 8, 3, 3]
-0.11909872 0.04446871 0.2262995 0.035977438 0.052176427 0.0183129 -0.08998886 0.13960038
0.054747295 0.02888269 0.08565374 0.02381412 -0.031827737 -0.040274527 0.12031366 0.07894803
0.16555162 -0.009162633 0.14872739 0.23577076 0.39151043 -0.17956856 -0.1259625 -0.020777699
-0.1566644 -0.13997109 -0.17090622 -0.36692494 -0.28997415 -0.19398099 -0.18647149 -0.08229562
-0.03392312 -0.11659953 -0.12367511 -0.1716439 -0.16261515 0.063643895 0.048055284 -0.05346602
0.08128743 -0.082379274 -0.07931397 0.09927882 -0.16411233 -0.329392 0.060890224 0.068246245
-0.028269628 0.059034716 0.08370291 0.06373776 -0.11588322 -0.032597456 -0.2081367 -0.10897405
-0.11577865 -0.3594817 -0.055786423 0.2234042 -0.15937708 -0.04977759 -0.050171085 -0.09461443
-0.011688899 0.041015964 -0.17854145 -0.19440846 0.15346849 -0.15209134 -0.011766828 0.14090186
-0.0628387 0.21083744 0.18309022 -0.080618836 0.13828032 0.019705633 -0.099867485 0.050489247
0.12618703 0.12869318 0.01257272 -0.061643302 0.016365515 -0.018378535 -0.07975708 0.26572266
0.0133774 0.22053346 0.17274332 0.025891613 -0.006666916 -0.20314984 -0.2701584 -0.039242472
-0.25349423 -0.20038441 0.04386767 0.0031871519 0.09653493 -0.11060249 -0.0062740594 -0.2604293
-0.02887479 -0.25952992 -0.30494437 0.06612798 -0.09771262 0.12417031 0.034502573 -0.12761226
0.029462215 -0.058767166 -0.008403906 0.25376475 0.01905434 -0.019313425 0.11097424 0.025245545
0.21246925 -0.06671549 -0.038298156 0.110924624 -0.0007280639 -0.33181295 -0.3843546 -0.035269264
-0.034353055 -0.4499436 -0.1143086 0.00862307 -0.012772673 0.070804305 0.24442737 0.27764782
0.036339574 0.04031302 0.3263105 0.06075764 0.04863668 0.13742903 -0.21377236 -0.07167725
0.08295809 0.26666987 -0.01162429 -0.07135509 -0.026469119 -0.01311889 0.024947638 0.113314666
0.1567816 0.28367707 0.052829184 -0.11972007 0.011231311 0.1490527 -0.12249208 0.09972439
-0.04889172 -0.18464658 0.19850771 0.025573649 0.10002784 0.040871385 0.11308598 0.035846684
-0.10559526 0.08390348 -0.0118681565 -0.09673322 -0.010856899 0.14937247 -0.05409041 0.10789036
0.16648129 -0.15097357 0.08165525 0.13908717 -0.112262376 -0.06840893 -0.1364892 -0.080608465
-0.20584308 -0.1824568 0.18889607 -0.038580384 -0.121303946 0.015328611 -0.06630511 0.11477247
-0.20146403 -0.25009894 -0.023119107 0.3145017 0.054549813 0.28552097 0.1172921 -0.05967104
-0.02257654 0.038974956 -0.10895196 -0.15956418 -0.18933049 -0.18779431 -0.2870614 -0.11145264
-0.09167555 -0.06993989 -0.051601432 0.19915326 0.29643798 -0.077753894 -0.08144053 0.0834403
-0.020368831 -0.24104011 0.1555546 0.14129065 -0.049008615 -0.04223215 0.00021797582 -0.08682472
0.05627917 -0.005940882 -0.081820935 0.079433 0.15099338 0.2287768 0.31904614 -0.021803185
-0.024700075 0.027521152 -0.039116867 -0.26965895 -0.23083507 0.16765828 -0.002641916 0.116945975
-0.14920175 0.053362664 -0.02333306 -0.09379288 0.038538884 0.06715937 -0.019832402 0.06596195
-0.1782823 0.2953432 0.1880252 0.07933264 0.3744375 0.092873335 -0.15603612 0.1732114
00000000: 08ea f3bd d224 363d 0ebb 673e 145d 133d
00000010: f3b6 553d ef04 963c 144c b8bd 67f3 0e3e
00000020: b33e 603d 649b ec3c 3a6b af3d d415 c33c
00000030: cd5d 02bd e7f6 24bd 0267 f63d 81af a13d
00000040: 5d86 293e de1e 16bc fe4b 183e e46d 713e
00000050: 0e74 c83e d2e0 37be 50fc 00be fe35 aabc
00000060: a26c 20be 9554 0fbe 0a02 2fbe 96dd bbbe
00000070: 7e77 94be f4a2 46be 62f2 3ebe 9b8a a8bd
00000080: f8f2 0abd bccb eebd 6049 fdbd 6bc3 2fbe
00000090: 9684 26be bb57 823d 9ed5 443d 2fff 5abd
000000a0: 067a a63d 77b6 a8bd 5d6f a2bd b252 cb3d
000000b0: 100d 28be 11a6 a8be 0768 793d b0c4 8b3d
000000c0: b595 e7bc 63ce 713d 6e6c ab3d f188 823d
000000d0: 2f54 edbd e984 05bd c921 55be c92d dfbd
000000e0: 5b1d edbd fc0d b8be 4e80 64bd 12c4 643e
000000f0: bf33 23be 96e3 4bbd 3280 4dbd 36c5 c1bd
00000100: cc82 3fbc 5b00 283d 92d3 36be 0313 47be
00000110: d826 1d3e d5bd 1bbe a7c9 40bc 9448 103e
00000120: 94b1 80bd c5e5 573e 017c 3b3e 7d1b a5bd
00000130: 5b99 0d3e b56d a13c 5387 ccbd d0cd 4e3d
00000140: 2c37 013e 25c8 033e cffd 4d3c b07d 7cbd
00000150: f910 863c 958e 96bc ae57 a3bd cd0c 883e
00000160: e22c 5b3c 86d3 613e a0e3 303e a61a d43c
00000170: 2576 dabb 8306 50be 3452 8abe b7bc 20bd
00000180: ffc9 81be 9231 4dbe 96ae 333d 89df 503b
00000190: 1bb4 c53d 8f83 e2bd a096 cdbb fd56 85be
000001a0: d38a ecbc 1be1 84be ab21 9cbe 1b6e 873d
000001b0: 8e1d c8bd 014d fe3d 9252 0d3d caac 02be
000001c0: be5a f13c d7b5 70bd 89b0 09bc 74ed 813e
000001d0: d917 9c3c 3037 9ebc 7646 e33d bfcf ce3c
000001e0: 8a91 593e 21a2 88bd 87de 1cbd 732c e33d
000001f0: 8bdb 3eba 63e3 a9be 20ca c4be 8176 10bd
00000200: cab5 0cbd 025f e6be a11a eabd c747 0d3c
00000210: 7944 51bc d901 913d 2b4b 7a3e db27 8e3e
00000220: ced8 143d 441f 253d 2b12 a73e 01dd 783d
00000230: 4137 473d 32ba 0c3e 24e7 5abe 86cb 92bd
00000240: eee5 a93d f488 883e ce73 3ebc 9e22 92bd
00000250: c4d5 d8bc 9df0 56bc fd5e cc3c 8511 e83d
00000260: 5b8b 203e 1f3e 913e 6a63 583d cc2f f5bd
00000270: 8803 383c 45a1 183e 21dd fabd 4d3c cc3d
00000280: af42 48bd fe13 3dbe 9b45 4b3e d47f d13c
00000290: 65db cc3d c168 273d 9f99 e73d f9d3 123d
000002a0: 5442 d8bd 96d5 ab3d a872 42bc 111c c6bd
000002b0: 23e1 31bc 19f5 183e e88d 5dbd 9ff5 dc3d
000002c0: 127a 2a3e d198 1abe de3a a73d de6c 0e3e
000002d0: d1e9 e5bd fb19 8cbd d3c3 0bbe 0d16 a5bd
000002e0: 87c8 52be f5d5 3abe f96d 413e 7706 1ebd
000002f0: 346e f8bd db24 7b3c f9ca 87bd d40d eb3d
00000300: 964c 4ebe f80c 80be 4864 bdbc 5e06 a13e
00000310: a06f 5f3d ce2f 923e d736 f03d 9f69 74bd
00000320: 70f2 b8bc 34a4 1f3d 3522 dfbd cb64 23be
00000330: dadf 41be 274d 40be b6f9 92be 4841 e4bd
00000340: 64c0 bbbd a53c 8fbd 065c 53bd d5ee 4b3e
00000350: b8c6 973e 6f3d 9fbd 4bca a6bd bfe2 aa3d
00000360: 89dc a6bc 38d3 76be b449 1f3e 7fae 103e
00000370: 42bd 48bd 9efb 2cbd 7090 6439 29d1 b1bd
00000380: fd84 663d bbab c2bb bc91 a7bd c5ad a23d
00000390: 029e 1a3e 7744 6a3e 045a a33e 989c b2bc
000003a0: d057 cabc 0a74 e13c 0239 20bd bd10 8abe
000003b0: 0760 6cbe 9dae 2b3e ff23 2dbb 5f81 ef3d
000003c0: 58c8 18be cf92 5a3d f924 bfbc 7b16 c0bd
000003d0: f3da 1d3d da8a 893d 9077 a2bc 0f17 873d
000003e0: a38f 36be 3937 973e ae89 403e 2779 a23d
000003f0: 46b6 bf3e 6034 be3d efc7 1fbe 545e 313e

block1.1.conv.bias f4 [16]
-0.0019971775 0.22985168 0.11958834 -0.05593568 0.05660108 0.01766224 -0.12901367 -0.0046932464
0.06598467 -0.189648 -0.10321195 0.02509528 0.24012831 -0.10951788 0.095432036 0.026474493
00000000: 14e3 02bb 3d5e 6b3e bbea f43d d01c 65bd
00000010: 89d6 673d 67b0 903c 291c 04be cec9 99bb
00000020: f822 873d 1633 42be c960 d3bd 9e94 cd3c
00000030: 32e4 753e e94a e0bd df71 c33d 09e1 d83c

block1.1.BN.weight f4 [16]
0.9854169 1.035939 0.869925 0.9868426 1.0228032 0.90942824 1.030868 1.0753013
1.1360905 0.91942006 0.9359417 1.0345694 1.0300422 1.0739485 1.1244092 1.0310959
00000000: 4844 7c3f a699 843f 68b3 5e3f b7a1 7c3f
00000010: 37eb 823f 4ad0 683f 7cf3 833f 79a3 893f
00000020: 6a6b 913f 1d5f 6b3f e099 6f3f c56c 843f
00000030: 6cd8 833f 2577 893f a4ec 8f3f f3fa 833f

block1.1.BN.bias f4 [16]
-0.13077986 -0.00218006 -0.5422689 -0.01458847 -0.113708 -0.071242414 -0.16681579 -0.14485279
0.021296348 -0.19005229 -0.18957491 -0.13735978 0.034729417 0.09077748 -0.23890352 -0.13867964
00000000: 28eb 05be 56df 0ebb 22d2 0abf 7a04 6fbc
00000010: bddf e8bd 8be7 91bd c2d1 2abe 4a54 14be
00000020: ae75 ae3c 119d 42be ed1f 42be 0ba8 0cbe
00000030: 6f40 0e3d 8be9 b93d 20a3 74be 0902 0ebe

block1.1.BN.running_mean f4 [16]
-0.94700533 0.30907544 0.06182661 -0.036543846 -0.70061237 -2.231484 -0.8787874 0.52307796
-0.6734975 0.34451804 0.34559315 -0.38221207 0.08109359 -1.7728251 1.0739901 -1.8725678
00000000: f16e 72bf 233f 9e3e e63d 7d3d 00af 15bd
00000010: 555b 33bf a2d0 0ec0 36f8 60bf 70e8 053f
00000020: 556a 2cbf ab64 b03e 96f1 b03e 4db1 c3be
00000030: 6514 a63d efeb e2bf 8278 893f 4db0 efbf

block1.1.BN.running_var f4 [16]
0.78324133 0.8842243 0.52430636 0.564641 1.1376143 1.4611621 0.78051156 0.97540617
0.99757475 1.2598034 0.79392093 0.64714813 0.9812969 1.220246 0.8470965 1.7717086
00000000: 8182 483f 865c 623f f138 063f 508c 103f
00000010: 589d 913f 5c07 bb3f 9bcf 473f 38b4 793f
00000020: 0f61 7f3f 3d41 a13f 673e 4b3f 80ab 253f
00000030: 4636 7b3f 0531 9c3f 51db 583f 59c7 e23f

block1.2.conv.weight f4 [8, 16, 3, 3]
0.23522669 0.062324643 0.18969652 0.038194463 0.05980913 0.12988338 -0.09276744 -0.16164759
-0.39252132 0.11668458 0.114791945 -0.13484417 -0.0058219847 -0.031211877 -0.2302427 -0.15349092
-0.17640676 -0.22469996 0.122231506 -0.052507594 -0.09230171 0.21240267 0.14826182 0.2130998
0.057877444 0.017471056 0.056919515 -0.17457241 -0.15501826 -0.23287047 0.044458997 -0.0082666585
0.0057617435 0.106406465 -0.0705789 -0.0029306158 -0.012357432 0.04473845 0.18695751 -0.25306344
-0.1511153 0.100627884 -0.17997675 0.08248013 0.1378056 -0.011279059 0.1274206 0.055365756
0.065395184 -0.0027414358 -0.11031467 0.13407761 0.06926917 -0.17155418 0.10743667 0.042580556
-0.13436037 -0.046818733 0.23841737 0.1389625 -0.15611428 0.13936302 -0.08452771 0.039960217
0.09105027 0.10677299 0.03902843 -0.06836868 0.0026202048 0.09771208 0.109584786 0.12807177
-0.13744922 0.17601752 0.050828166 -0.10579033 0.13933922 0.028679632 -0.1378236 0.08897526
-0.102816395 0.07473952 0.06838467 -0.0034838477 0.085108526 0.13222262 -0.116697654 0.15623
0.15086305 -0.023853546 0.13973103 0.19416498 0.01511341 -0.15583085 -0.18133813 -0.202288
0.12915479 0.18195604 0.15836623 -0.1645168 -0.10023707 0.07236111 -0.13804151 0.052497085
0.18036307 0.008375128 0.0951347 0.21911712 -0.13841306 -0.15050778 -0.052354936 0.076014675
0.099085025 0.019856883 -0.07114459 0.043739602 0.09537286 0.26014736 0.2528891 0.29867852
0.116737515 -0.070076875 0.070711255 -0.06249411 -0.1853741 -0.036909647 -0.090290226 -0.091672644
0.13094129 -0.24624573 -0.19416645 -0.2157563 -0.3827399 -0.2666226 -0.013572456 0.19382241
0.26202443 0.16248745 -0.0757636 0.12089077 -0.14986591 -0.31777853 -0.05482373 -0.3208605
0.09370173 0.105560325 0.037099738 -0.28191996 -0.03311276 -0.07346638 -0.12248362 0.18007861
0.21380708 -0.0015509552 -0.043589845 -0.02384254 -0.01991394 0.08347117 0.24032503 -0.01954287
0.05823656 -0.009434001 -0.03404746 -0.060096215 -0.23082258 0.056770243 -0.10655991 -0.37337673
0.045858774 0.028072407 0.0043746084 -0.10767001 -0.08599568 0.07663222 -0.24500266 -0.19353575
0.0664326 -0.19691761 -0.21879725 0.16184399 0.032492734 0.21648826 -0.05872212 0.09252902
0.099137165 0.14020924 0.20773618 0.2702509 0.057472605 -0.29760805 -0.19572769 -0.1623721
-0.17744994 -0.1582123 -0.21641229 0.12127138 0.064146064 0.100786574 -0.13901019 0.04837832
-0.063203216 0.023427509 -0.1125867 -0.13632926 0.20545107 0.28390872 0.25293684 -0.05605429
-0.047286402 -0.068162374 0.08806046 0.051315974 -0.08430643 -0.1768987 -0.3178823 0.1735065
0.1665552 0.06345271 0.027801653 -0.10994147 0.07854335 -0.18540649 -0.17598076 0.089349575
0.04360383 -0.07623965 0.029317807 -0.26384017 -0.13318303 0.001972735 -0.11106651 -0.16335459
0.15171526 0.13345008 0.16998139 0.017690225 -0.020591972 -0.043415315 -0.080782786 0.025061721
-0.10246333 -0.17762423 -0.09296775 0.22439791 0.24696542 0.12527327 0.01595809 -0.020487297
0.024480013 0.014429074 -0.0681615 0.09664183 -0.32767704 -0.5723058 -0.04723731 -0.081521705
00000000: 44df 703e 2048 7f3d ce3f 423e cc71 1c3d
00000010: 6bfa 743d 2600 053e dbfc bdbd f286 25be
00000020: 8ef8 c8be 53f8 ee3d 0a18 eb3d 9714 0abe
00000030: 59c6 bebb 0db0 ffbc bec4 6bbe b92c 1dbe
00000040: f9a3 34be bf17 66be 8354 fa3d 3412 57bd
00000050: ae08 bdbd 1680 593e f2d1 173e d536 5a3e
00000060: e610 6d3d 761f 8f3c 7024 693d 1cc3 32be
00000070: 1bbd 1ebe 9975 6ebe a31a 363d e170 07bc
00000080: 02cd bc3b a2eb d93d ac8b 90bd 930f 40bb
00000090: d476 4abc aa3f 373d ca71 3f3e 8891 81be
000000a0: f8bd 1abe fe15 ce3d d34b 38be 58eb a83d
000000b0: e91c 0d3e cdcb 38bc 8c7a 023e 34c7 623d
000000c0: e9ed 853d a9a9 33bb a8ec e1bd a44b 093e
000000d0: ffdc 8d3d e6ab 2fbe c207 dc3d f368 2e3d
000000e0: c495 09be 00c5 3fbd af23 743e 304c 0e3e
000000f0: 6cdc 1fbe 2eb5 0e3e dd1c adbd 53ad 233d
00000100: 9078 ba3d ccab da3d 46dc 1f3d e104 8cbd
00000110: beb7 2b3b 451d c83d fd6d e03d 3f25 033e
00000120: 7dbf 0cbe f03d 343e 3231 503d 9aa8 d8bd
00000130: f1ae 0e3e 8cf1 ea3c a121 0dbe a938 b63d
00000140: 6791 d2bd 0911 993d 430d 8c3d 4451 64bb
00000150: 614d ae3d 5e65 073e 2eff eebd c2fa 1f3e
00000160: d87b 1a3e 8368 c3bc a715 0f3e 2fd3 463e
00000170: 3c9e 773c 1f92 1fbe b4b0 39be 9624 4fbe
00000180: 2741 043e af52 3a3e c22a 223e 1877 28be
00000190: 1849 cdbd 1032 943d c15a 0dbe 2f07 573d
000001a0: 19b1 383e d537 093c fbd5 c23d 3d60 603e
000001b0: 27bc 0dbe b61e 1abe 2172 56bd 95ad 9b3d
000001c0: 17ed ca3d e7aa a23c 41b4 91bd 4c28 333d
000001d0: d952 c33d 0932 853e ae7a 813e 64ec 983e
000001e0: 1414 ef3d 7784 8fbd 10d1 903d d3f9 7fbd
000001f0: b5d2 3dbe 922e 17bd 15ea b8bd debe bbbd
00000200: 7915 063e d727 7cbe 92d3 46be 38ef 5cbe
00000210: 7cf6 c3be c282 88be 025f 5ebc 6279 463e
00000220: 1128 863e 1c63 263e f229 9bbd 9495 f73d
00000230: 7376 19be deb3 a2be d98e 60bd d447 a4be
00000240: b1e6 bf3d 0330 d83d e5f5 173d d057 90be
00000250: 3fa1 07bd 8b75 96bd b1d8 fabd 8766 383e
00000260: 3ef0 5a3e 6c49 cbba 448b 32bd 6e51 c3bc
00000270: 8f22 a3bc eff2 aa3d c417 763e 5e18 a0bc
00000280: 7689 6e3d 1191 1abc 5975 0bbd 7327 76bd
00000290: c15c 6cbe ea87 683d 153c dabd 3c2b bfbe
000002a0: 69d6 3b3d 1bf8 e53c e058 8f3b 1882 dcbd
000002b0: 811e b0bd 5af1 9c3d fae1 7abe 3c2e 46be
000002c0: d10d 883d c5a4 49be 630c 60be 6eba 253e
000002d0: 1a17 053d 19af 5d3e 9b86 70bd db7f bd3d
000002e0: 6d08 cb3d 0393 0f3e cbb8 543e 535e 8a3e
000002f0: 6568 6b3d 1560 98be d76c 48be df44 26be
00000300: 70b5 35be 6802 22be 2f9b 5dbe 215d f83d
00000310: 035f 833d 3169 ce3d b058 0ebe 5828 463d
00000320: b070 81bd 0ceb bf3c db93 e6bd e699 0bbe
00000330: c461 523e 7c5c 913e f080 813e 2f99 65bd
00000340: 63af 41bd b798 8bbd 0b59 b43d b330 523d
00000350: d9a8 acbd ef24 35be 78c1 a2be b0ab 313e
00000360: 728d 2a3e 7ff3 813d 4bc0 e33c fe28 e1bd
00000370: 56db a03d 33db 3dbe 4d34 34be e9fc b63d
00000380: ee99 323d 8923 9cbd e62b f03c 0f16 87be
00000390: 2261 08be 0049 013b d776 e3bd 6d46 27be
000003a0: 3f5b 1b3e 23a7 083e 9a0f 2e3e 17eb 903c
000003b0: 7fb0 a8bc 42d4 31bd 7271 a5bd 3d4e cd3c
000003c0: 4bd8 d1bd 20e3 35be e065 bebd 91c8 653e
000003d0: 81e4 7c3e a347 003e 8aba 823c fad4 a7bc
000003e0: 4f8a c83c ec67 6c3c 4298 8bbd 27ec c53d
000003f0: 49c5 a7be a282 12bf e97b 41bd daf4 a6bd

block1.2.conv.bias f4 [8]
-0.012077159 -0.0074411356 0.0176399 -0.06502282 -0.16675796 0.15780868 -0.04842253 -0.17853378
00000000: 47df 45bc c5d4 f3bb 8d81 903c af2a 85bd
00000010: 99c2 2abe 9998 213e b456 46bd 8fd1 36be

block1.2.BN.weight f4 [8]
0.99217033 0.8614627 0.9635713 0.8779017 1.1540275 0.98928434 1.045921 1.0215571
00000000: e0fe 7d3f d288 5c3f 9cac 763f 2abe 603f
00000010: 2cb7 933f bd41 7d3f bde0 853f 62c2 823f

block1.2.BN.bias f4 [8]
0.11867173 -0.0069620647 -0.08307364 -0.017310126 0.080149606 -0.11282852 0.3875815 -0.2194997
00000000: 2a0a f33d 0822 e4bb 8322 aabd f7cd 8dbc
00000010: 7a25 a43d a412 e7bd 1571 c63e 88c4 60be

block1.2.BN.running_mean f4 [8]
-0.017252186 -0.40855992 -2.1273665 -0.4177466 -0.9635074 -0.18142383 -1.601197 -0.59971446
00000000: 7554 8dbc c42e d1be c626 08c0 e2e2 d5be
00000010: 6ca8 76bf 2bc7 39be 06f4 ccbf e386 19bf

block1.2.BN.running_var f4 [8]
1.6935287 1.6442101 0.99980307 1.1491281 2.8648386 1.6976972 2.6234493 1.3479102
00000000: 8cc5 d83f 7a75 d23f 18f3 7f3f a116 933f
00000010: 8459 3740 244e d93f 98e6 2740 5288 ac3f

block1.3.conv.weight f4 [4, 8, 3, 3]
0.037881196 -0.10210058 -0.09036424 -0.034989804 -0.13673788 -0.2133386 0.081458166 0.1371739
0.0815494 -0.1264922 -0.2471066 -0.011421897 0.028308855 0.18631355 -0.0024669124 0.018707499
-0.06603013 0.15651238 0.1579342 -0.030002782 -0.16134863 0.12679912 -0.025675528 0.17615741
-0.10152786 -0.1535656 0.034634132 -0.19842705 0.06865224 -0.22288221 -0.080594756 0.20539224
0.16505146 -0.25639108 -0.005612534 0.17171913 -0.19528241 0.1635162 0.058154654 -0.15189928
-0.08803569 -0.032951485 -0.11029123 0.021222109 0.28214428 -0.28007814 0.11680288 -0.10039672
-0.2628311 0.1630242 -0.013171008 -0.043807466 0.15362474 -0.01484493 0.17577538 -0.19461347
-0.3482401 0.26399255 -0.03386367 0.029036134 0.0785327 -0.21570298 -0.23478508 -0.033903014
-0.014826567 -0.36311683 0.09450565 -0.009124536 -0.17873076 -0.099332765 -0.03284866 -0.010304981
0.23799494 0.035911307 -0.12430128 0.020592535 -0.3596248 -0.37187582 0.16306908 0.133192
0.04350077 -0.06471483 0.03641486 0.14113778 -0.0031446994 0.05470813 0.09228817 -0.26355967
0.0023660543 -0.10178172 -0.0006926817 0.18554936 0.054819938 -0.18100727 -0.07437274 -0.14365333
0.2537373 0.1707781 -0.115439296 0.054619823 -0.12104654 -0.20252931 0.010431365 -0.0056908745
0.0864834 -0.047731683 0.12985831 0.16617154 -0.2138454 -0.07289772 -0.19858949 -0.11606203
-0.13764356 -0.10423912 -0.13086748 0.16330189 0.17889132 0.24167804 -0.018050898 0.049930964
0.06963388 0.093520105 0.106623106 0.20000286 0.15059128 0.036300275 0.20586558 -0.05726935
-0.22832257 0.124511726 -0.03674343 -0.1292265 0.25081044 -0.10072715 0.19644052 -0.008870963
-0.19715829 -0.11064051 0.087670326 -0.037532806 -0.094761185 0.117879525 -0.17906465 -0.047519747
0.019522658 0.0067682066 -0.108872734 0.14962044 -0.054910537 -0.15128696 0.20330517 0.038646247
-0.20246884 0.18873999 -0.11027725 0.014277909 -0.059757803 0.01903562 0.044031244 -0.038632676
0.2252626 -0.21592425 -0.26827312 -0.06949665 0.25010452 -0.11374096 0.0019159055 0.031087799
0.11356587 0.062226057 -0.05477822 0.043428633 0.18698053 0.020207793 0.09527547 0.09453142
-0.036996927 0.0064741876 -0.0033249822 -0.005891472 0.31330326 -0.010947738 -0.07142818 -0.118466936
-0.13264343 -0.18774807 -0.38585857 -0.005343226 -0.25704587 0.13212602 0.2425011 -0.026201652
0.15334497 -0.03353523 -0.18270163 0.20644408 -0.052465077 0.009077252 -0.022492906 0.111307
0.25371963 -0.035325054 0.08499657 0.061183695 -0.18152004 -0.056533694 0.16013762 0.116207175
0.107298926 0.22472584 0.33688807 0.14469436 -0.20740494 0.19215202 -0.12494813 0.053216085
0.110347494 -0.03613645 0.054154947 -0.17498353 -0.14964491 -0.072173715 -0.07366523 -0.1385267
-0.19756529 0.34541386 0.2930598 0.09528503 0.10096488 -0.13367769 0.057900175 -0.19061293
-0.065361165 -0.1983934 -0.30495843 0.17699243 -0.030058987 -0.023006432 -0.039371897 -0.23152505
0.21149378 0.20267513 0.29575893 -0.17692882 0.08697355 0.048201423 -0.10052476 -0.0060354187
-0.03326946 0.17932571 -0.08062066 -0.18594424 0.13075404 0.27930963 -0.11104633 0.09632097
00000000: 5029 1b3d 1c1a d1bd e310 b9bd 7851 0fbd
00000010: 0405 0cbe 6f75 5abe 8ad3 a63d 5177 0c3e
00000020: 5f03 a73d 2c87 01be 8309 7dbe e922 3bbc
00000030: f9e7 e73c fbc8 3e3e ecab 21bb 7840 993c
00000040: ce3a 87bd c844 203e 81b9 213e 65c8 f5bc
00000050: 9338 25be a1d7 013e 7c55 d2bc 9c62 343e
00000060: d7ed cfbd 4d40 1dbe 85dc 0d3d 7630 4bbe
00000070: 8c99 8c3d 3c3b 64be dd0e a5bd 5852 523e
00000080: 4003 293e b145 83be 59e9 b7bb 24d7 2f3e
00000090: 1df8 47be ca70 273e 9333 6e3d 7c8b 1bbe
000000a0: 0e4c b4bd 23f8 06bd 5ee0 e1bd fdd9 ad3c
000000b0: 3775 903e 6766 8fbe 5936 ef3d cc9c cdbd
000000c0: cc91 86be d1ef 263e 36cb 57bc 756f 33bd
000000d0: ce4f 1d3e 2638 73bc 76fe 333e c148 47be
000000e0: 874c b2be 082a 873e a2b4 0abd 30dd ed3c
000000f0: c1d5 a03d 3ee1 5cbe 806b 70be e3dd 0abd
00000100: 21eb 72bc 73ea b9be 2e8c c13d 147f 15bc
00000110: 3205 37be fa6e cbbd 518c 06bd 39d6 28bc
00000120: f2b4 733e bc17 133d ab91 febd adb1 a83c
00000130: be20 b8be 8266 bebe 95fb 263e 7c63 083e
00000140: dd2d 323d 3589 84bd c027 153d 6c86 103e
00000150: 4d17 4ebb a215 603d 9401 bd3d 4bf1 86be
00000160: ce0f 1b3b ef72 d0bd 1595 35ba a700 3e3e
00000170: df8a 603d f859 39be bc50 98bd dc19 13be
00000180: dbe9 813e 74e0 2e3e 706b ecbd 09b9 5f3d
00000190: 40e7 f7bd d863 4fbe 51e8 2a3c 847a babb
000001a0: 351e b13d 4c82 43bd 94f9 043e df28 2a3e
000001b0: 4afa 5abe 664b 95bd 0b5b 4bbe eeb1 edbd
000001c0: 6ff2 0cbe 527b d5bd 2002 06be 9c38 273e
000001d0: 492f 373e 737a 773e 7adf 93bc 6984 4c3d
000001e0: 359c 8e3d 7887 bf3d 375d da3d 8dcd 4c3e
000001f0: 9a34 1a3e 99af 143d 6dce 523e 4493 6abd
00000200: 64cd 69be 0100 ff3d 4780 16bd f453 04be
00000210: 3a6a 803e 094a cebd b427 493e 8457 11bc
00000220: dde3 49be 7e97 e2bd 808c b33d 00bc 19bd
00000230: 2712 c2bd d26a f13d b95c 37be 11a4 42bd
00000240: fbed 9f3c d5c7 dd3b abf8 debd 1a36 193e
00000250: dfe9 60bd f8ea 1abe 3b2f 503e 874b 1e3d
00000260: fe53 4fbe 0e45 413e 0ad9 e1bd e4ed 693c
00000270: 99c4 74bd 97f0 9b3c 1b5a 343d 4c3d 1ebd
00000280: 3dab 663e 3f1b 5dbe 185b 89be 4254 8ebd
00000290: b30d 803e 05f1 e8bd 1f1f fb3a d7ab fe3c
000002a0: 3995 e83d c0e0 7e3d 205f 60bd 39e2 313d
000002b0: d377 3f3e d08a a53c c91f c33d b099 c13d
000002c0: 178a 17bd 6c25 d43b f2e7 59bb 400d c1bb
000002d0: 4969 a03e 245e 33bc f048 92bd cb9e f2bd
000002e0: aed3 07be 0841 40be 418f c5be 3a16 afbb
000002f0: 849b 83be 0b4c 073e 3552 783e d9a4 d6bc
00000300: 7706 1d3e 3d5c 09bd 2316 3bbe 1466 533e
00000310: 9fe5 56bd c1b8 143c 0b43 b8bc edf4 e33d
00000320: 8ae7 813e 01b1 10bd af12 ae3d c19b 7a3d
00000330: 64e0 39be e08f 67bd 1efb 233e 07fe ed3d
00000340: 8abf db3d 881e 663e 987c ac3e c22a 143e
00000350: f661 54be 80c3 443e cee4 ffbd 1cf9 593d
00000360: defd e13d d003 14bd 94d1 5d3d e22e 33be
00000370: 843c 19be d0cf 93bd ccdd 96bd f1d9 0dbe
00000380: 8e4e 4abe 16da b03e ef0b 963e cc24 c33d
00000390: adc6 ce3d cee2 08be bc28 6d3d 0930 43be
000003a0: 13dc 85bd a427 4bbe 8323 9cbe 813d 353e
000003b0: 443e f6bc fc77 bcbc 6d44 21bd e714 6dbe
000003c0: d391 583e 128a 4f3e b76d 973e d42c 35be
000003d0: 301f b23d db6e 453d eddf cdbd c3c4 c5bb
000003e0: 8f45 08bd 29a1 373e 721c a5bd 2b68 3ebe
000003f0: 63e4 053e ac01 8f3e 426c e3bd ee43 c53d

block1.3.conv.bias f4 [4]
-0.116276994 0.016339628 -0.015385001 0.022848343
00000000: a222 eebd afda 853c 5f11 7cbc 732c bb3c

block1.3.BN.weight f4 [4]
1.0128795 0.97912127 1.0670592 0.9428368
00000000: 09a6 813f b1a7 7a3f 6595 883f c15d 713f

block1.3.BN.bias f4 [4]
-0.02927941 0.28822497 -0.10623315 0.09036656
00000000: 60db efbc 3992 933e c490 d9bd 1a12 b93d

block1.3.BN.running_mean f4 [4]
-0.8140695 -0.108036675 0.23138233 -0.27255768
00000000: dc66 50bf 5542 ddbd 7def 6c3e ae8c 8bbe

block1.3.BN.running_var f4 [4]
0.9791068 0.8719567 0.7761324 0.62386495
00000000: bea6 7a3f 8e38 5f3f 9db0 463f 9db5 1f3f

block2.0.conv.weight f4 [8, 4, 3, 3]
0.047499135 0.07550923 -0.036546145 -0.10423407 -0.080484875 0.0024177756 -0.01700816 -0.05931329
-0.15199432 0.21334873 0.0040074205 -0.11979576 -0.23576431 0.004526782 -0.50991964 0.07043694
0.26614335 0.059141893 -0.079640836 -0.06596485 -0.07810338 0.097840324 -0.20309293 -0.19259979
0.14904313 -0.049928363 -0.32781 0.20493785 0.2655173 -0.092646785 -0.08114343 0.037082117
-0.23138924 -0.16498072 0.08505739 -0.13184921 0.31947348 -0.09742434 -0.28484017 0.06663997
-0.14176936 -0.08978776 -0.086801045 0.108413026 -0.026574992 -0.038310193 -0.1653985 -0.0154041955
-0.025002507 -0.10086857 0.22085741 0.19628067 -0.1523021 0.2639071 -0.2868428 0.022744508
-0.07725625 -0.07272169 -0.19596863 -0.1716719 -0.19591632 0.25079456 0.27922335 0.19198778
-0.072882295 0.2096672 -0.14893973 -0.018309046 -0.09484535 0.14094839 -0.0771247 -0.20240939
0.068672135 0.2738822 0.06844976 -0.11863863 0.022038188 -0.055336215 -0.039991114 0.122014575
0.15601662 -0.16890799 0.15513851 -0.15711345 0.14670913 0.22730346 -0.18297876 -0.013671353
-0.018016407 -0.03740132 -0.191971 -0.08660326 0.12459528 0.23130108 0.21901567 0.21530749
0.1695974 -0.14235501 -0.4052532 0.28220657 0.027729921 -0.0015180166 0.19687112 0.057768065
-0.062278558 -0.16343491 -0.13794678 0.06508819 0.043644175 0.025493378 0.036973123 0.28047207
0.17735353 -0.010577672 -0.05226364 0.12863705 -0.26071063 0.018680643 0.31267112 0.23403752
0.05148536 0.12483349 -0.019617911 -0.018613124 -0.14405437 -0.15175876 -0.27618366 0.10868929
0.010491934 -0.23986085 0.21614027 0.04151136 -0.43380553 0.01959209 0.0063235825 0.0713692
-0.045698326 -0.05283416 0.038739078 0.023766693 0.006676575 -0.31982973 -0.09683256 -0.0783299
0.07666938 0.02171385 -0.28499925 -0.16015954 -0.102540664 -0.53403 0.13982254 0.22633097
-0.1479812 -0.30281305 0.040079348 -0.098765165 -0.05114079 0.004055209 -0.0076026814 0.21152546
0.17186633 0.05301487 -0.012604524 0.13595799 -0.2529446 -0.026492266 -0.017666504 -0.06432799
-0.14382705 0.24634491 0.0049788067 0.015212618 0.18687451 0.17558359 -0.086006716 -0.08183893
0.035062 -0.14812426 -0.1374541 -0.13604066 -0.2070692 -0.1933788 0.12485082 0.031311143
0.20242643 -0.0041838824 -0.09559061 0.04942253 0.15439193 0.10232215 -0.15461886 -0.33659092
0.08620027 -0.14850862 0.08272623 -0.030190416 0.055983398 0.29786038 -0.12637462 -0.17217736
0.09917284 -0.1839822 0.029744484 -0.036945596 0.079585664 0.14726008 -0.089971624 -0.018760381
-0.22201411 -0.3420801 0.1831899 -0.12289 -0.025169853 0.30187616 -0.04606124 -0.20822537
0.02201995 -0.0072714286 0.03300574 -0.14953485 0.044712164 0.25386238 -0.11677153 0.09358318
0.25653 -0.055864096 -0.16133684 0.2932504 -0.02925479 0.011440497 -0.0011488223 0.13546082
-0.06293282 0.044636175 0.25678205 -0.09668627 -0.21926323 0.040015284 -0.32769513 -0.209865
-0.12893945 -0.11188208 0.02211419 -0.1907092 -0.22301511 0.21013324 -0.31507617 -0.24273346
0.18784013 -0.3508964 -0.12421047 0.12578945 0.20731683 -0.08419397 -0.2278509 0.3666919
00000000: 748e 423d 95a4 9a3d 69b1 15bd ac78 d5bd
00000010: 41d5 a4bd 8b73 1e3b b254 8bbc 7ef2 72bd
00000020: 66a4 1bbe 1778 5a3e ae50 833b 7b57 f5bd
00000030: 336c 71be 6655 943b 188a 02bf 3e41 903d
00000040: f143 883e c53e 723d bc1a a3bd 9418 87bd
00000050: aaf4 9fbd 8260 c83d 98f7 4fbe e138 45be
00000060: c39e 183e af81 4cbd b6d6 a7be 3adb 513e
00000070: e2f1 873e 99bd bdbd 872e a6bd 6be3 173d
00000080: 4df1 6cbe b5f0 28be 9232 ae3d 7b03 07be
00000090: 0792 a33e 6a86 c7bd 92d6 91be 897a 883d
000000a0: fd2b 11be a5e2 b7bd bfc4 b1bd a607 de3d
000000b0: ccb3 d9bc 26eb 1cbd 395e 29be e161 7cbc
000000c0: 0fd2 ccbc 2e94 cebd 7228 623e cdfd 483e
000000d0: 15f5 1bbe d51e 873e 0fdd 92be b152 ba3c
000000e0: 8638 9ebd 1cef 94bd 00ac 48be c2ca 2fbe
000000f0: 4a9e 48be 2568 803e 5df6 8e3e 7298 443e
00000100: 5043 95bd 00b3 563e a883 18be dafc 95bc
00000110: 473e c2bd c654 103e 8ef3 9dbd 6844 4fbe
00000120: faa3 8c3d 4a3a 8c3e 632f 8c3d cff8 f2bd
00000130: 6e89 b43c 3aa8 62bd b9cd 23bd c7e2 f93d
00000140: d2c2 1f3e 37f6 2cbe a1dc 1e3e 59e2 20be
00000150: eb3a 163e 3dc2 683e c95e 3bbe d0fd 5fbc
00000160: 2597 93bc 2032 19bd 0c94 44be 0d5d b1bd
00000170: cf2b ff3d 31da 6c3e a545 603e 9179 5c3e
00000180: f1aa 2d3e 83c5 11be 597d cfbe 617d 903e
00000190: dc29 e33c 2ff8 c6ba 9598 493e 359e 6c3d
000001a0: cd17 7fbd 7b5b 27be ec41 0dbe f54c 853d
000001b0: 3cc4 323d 7dd7 d03c 2171 173d 099a 8f3e
000001c0: 2a9c 353e f94d 2dbc 6612 56bd 6eb9 033e
000001d0: dd7b 85be 2608 993c 6e16 a03e 88a7 6f3e
000001e0: 50e2 523d b3a8 ff3d beb5 a0bc 8d7a 98bc
000001f0: fd82 13be a666 1bbe f267 8dbe 7e98 de3d
00000200: 5ce6 2b3c 159e 75be e053 5d3e d107 2a3d
00000210: c21b debe 977f a03c 0e36 cf3b 042a 923d
00000220: 2b2e 3bbd a268 58bd deac 1e3d 5eb2 c23c
00000230: 2cc7 da3b b9c0 a3be 2650 c6bd 6d6b a0bd
00000240: d604 9d3d 3ee1 b13c 6ceb 91be dd00 24be
00000250: d700 d2bd 31b6 08bf a42d 0f3e 4ec3 673e
00000260: 6288 17be 500a 9bbe 3e2a 243d 6445 cabd
00000270: 0179 51bd 8fe1 843b ea1f f9bb 219a 583e
00000280: bafd 2f3e 1f26 593d 3583 4ebc 9238 0b3e
00000290: f481 81be 4f06 d9bc 58b9 90bc 65be 83bd
000002a0: 6647 13be d741 7c3e 4225 a33b 583e 793c
000002b0: 085c 3f3e 2fcc 333e 4a24 b0bd 2b9b a7bd
000002c0: 2c9d 0f3d e3ad 17be c5c0 0cbe 3e4e 0bbe
000002d0: f309 54be 1805 46be c9b1 ff3d 1d40 003d
000002e0: e048 4f3e f318 89bb 02c5 c3bd 476f 4a3d
000002f0: eb18 1e3e 468e d13d 6854 1ebe a555 acbe
00000300: c489 b03d a512 18be 5f6c a93d e451 f7bc
00000310: d94e 653d 2881 983e 5968 01be 434f 30be
00000320: 211b cb3d d465 3cbe b4aa f33c 4454 17bd
00000330: cffd a23d 59cb 163e 0b43 b8bd 5faf 99bc
00000340: ab57 63be 1f25 afbe 2296 3b3e c1ad fbbd
00000350: 0231 cebc 838f 9a3e b6aa 3cbd 0839 55be
00000360: 2f63 b43c 2a45 eebb 0731 073d aa1f 19be
00000370: 1a24 373d 40fa 813e e925 efbd 8aa8 bf3d
00000380: e657 833e c0d1 64bd 7c35 25be eb24 963e
00000390: bea7 efbc ec70 3b3c 1494 96ba 3eb6 0a3e
000003a0: ece2 80bd 6cd4 363d f078 833e 7303 c6bd
000003b0: 8a86 60be 11e7 233d a8c7 a7be dae6 56be
000003c0: b408 04be 6f22 e5bd d128 b53c 4649 43be
000003d0: 135e 64be 2b2d 573e aa51 a1be 1f8f 78be
000003e0: 2a59 403e b1a8 b3be 0f62 febd f3ce 003e
000003f0: dd4a 543e e36d acbd bf51 69be 0abf bb3e

block2.0.conv.bias f4 [8]
0.017343555 0.053495698 0.3402812 0.021301508 -0.20904249 0.13779855 -0.01133443 -0.014227172
00000000: 1214 8e3c 4e1e 5b3d 5639 ae3e 8080 ae3c
00000010: 3c0f 56be 101b 0d3e 0cb4 39bc 1619 69bc

block2.0.BN.weight f4 [8]
1.0912954 1.0850725 1.0334324 0.8979442 0.90801996 1.0236197 0.9062954 1.0960829
00000000: 91af 8b3f a8e3 8a3f 8347 843f acdf 653f
00000010: ff73 683f f805 833f fa02 683f 724c 8c3f

block2.0.BN.bias f4 [8]
0.07653806 -0.14813383 -0.2040694 -0.13391525 -0.1484589 -0.1805793 -0.053122975 0.108282894
00000000: fdbf 9c3d 65b0 17be 92f7 50be 1421 09be
00000010: 9c05 18be c8e9 38be 7a97 59bd 6cc3 dd3d

block2.0.BN.running_mean f4 [8]
-0.552051 -0.10788801 0.63288134 0.037196647 -0.61751485 -0.15633349 -0.37375712 -0.29899195
00000000: 3753 0dbf 64f4 dcbd 8304 223f 835b 183d
00000010: 7415 1ebf e315 20be 185d bfbe 7915 99be

block2.0.BN.running_var f4 [8]
0.54023755 0.2874594 0.27005744 0.4246139 0.33339712 0.3418117 0.5556896 0.4707243
00000000: 024d 0a3f e12d 933e f844 8a3e fe66 d93e
00000010: 07b3 aa3e f101 af3e ac41 0e3f c702 f13e

block2.1.conv.weight f4 [16, 8, 3, 3]
0.19411156 0.13893226 0.0012744599 0.15891877 0.10837819 -0.1778439 0.13001108 -0.11083351
-0.3191698 0.11914357 0.0018994325 0.0888764 0.20157646 -0.14999008 -0.14255713 0.22858581
0.14216824 -0.09007031 0.020346837 -0.120336995 -0.035584066 -0.08106953 -0.1670501 0.09763154
-0.061620224 -0.21697453 -0.050757937 0.14416799 0.0619906 -0.19388086 0.20365535 0.2221883
-0.14259917 0.18154165 0.058489274 -0.12787499 0.11769429 -0.083209015 -0.083710685 0.15323377
0.21337277 -0.17210409 0.08636357 0.16429274 -0.028737223 0.09705393 0.03302383 -0.045595136
-0.056798227 0.06766208 -0.1372472 0.0158926 0.1358852 -0.070229925 0.044153556 -0.071195036
0.073763326 -0.03436827 -0.1680164 -0.04528871 -0.106525205 -0.36413816 -0.007219776 0.0995419
0.29269886 0.07731584 -0.12941949 0.17612179 -0.29884443 -0.0666742 0.16689517 -0.2528489
0.053007927 0.23290849 0.3142844 -0.26973143 0.08083115 0.21827741 -0.088861786 -0.020155419
0.018161958 0.071163386 0.09242889 0.11034999 0.16302644 0.14268349 0.037891474 0.30287653
-0.008429056 -0.02811586 -0.04304831 -0.02185821 0.008010039 -0.012755407 0.050940957 0.20508453
-0.26808146 0.05998192 0.38679084 -0.20341569 0.055334743 0.08183342 -0.1171454 -0.08541424
-0.016150625 -0.15320176 0.07429141 -0.086744234 0.15413912 0.12784225 0.025795327 -0.00097144843
-0.01571098 0.09007669 -0.16206564 0.10154314 -0.03038121 -0.25132847 -0.067141354 0.060727146
-0.2790593 -0.04086497 0.09013905 0.08292492 0.1544708 -0.2284553 0.29635105 -0.11749124
0.02950521 0.07116458 -0.19439214 0.10283165 0.01237709 -0.035738014 0.25547922 0.005910748
0.021475628 0.02539364 0.070761144 0.07562556 0.28365466 -0.024494212 -0.007872228 0.12947246
-0.24421495 -0.094715014 0.1534875 -0.19920462 -0.08635353 -0.04542415 -0.052602742 0.078590564
-0.19636263 0.12735602 0.24564056 -0.054182176 0.061151255 0.0015960233 -0.11616856 0.26377335
0.015276335 -0.1356422 -0.17828555 -0.44674 -0.012860523 0.16249694 0.039624024 0.11784943
0.16029397 0.09430216 0.22274192 0.06080826 -0.07136055 0.040680356 -0.0447813 -0.026158063
-0.059623547 0.032415103 0.07019511 -0.0024967052 -0.0943478 0.17771433 0.13323037 -0.29154304
-0.11365548 0.11953268 -0.054006264 -0.088044696 0.02707962 0.1413553 0.024631875 -0.09304748
0.068498336 -0.16418555 -0.30968985 0.05350713 -0.047665786 -0.39982387 -0.073262885 -0.034408562
-0.23559901 0.0055100964 0.10290858 -0.09578279 0.06006574 0.21242753 0.2697946 0.23361626
0.097493544 -0.19980627 0.09466667 0.040037565 -0.14313301 -0.03203153 0.16324173 0.09651849
-0.24200106 0.038084816 0.016854515 -0.094271086 0.2024766 -0.005186652 0.14899974 0.055187523
-0.017545417 -0.04182994 0.081759654 -0.1304039 -0.06369832 0.1495009 -0.07725242 -0.17621258
0.07176558 0.079804 -0.12556782 0.23951782 0.0011474909 -0.028359257 -0.048449323 -0.15244383
0.33224842 0.029055735 -0.08599673 -0.3622268 -0.010976383 -0.25340864 -0.30616236 -0.04539264
-0.02014772 -0.17077027 0.13747254 0.22601564 0.025073024 -0.066121705 -0.08674869 -0.100037016
00000000: 2ec5 463e 4244 0e3e c70b a73a 9abb 223e
00000010: 62f5 dd3d b61c 36be a021 053e aefc e2bd
00000020: 396a a3be 8b01 f43d 61f6 f83a d404 b63d
00000030: 0f6a 4e3e 0097 19be 7ffa 11be 6612 6a3e
00000040: 8d94 113e c876 b8bd 69ae a63c 3e73 f6bd
00000050: 99c0 11bd c807 a6bd 2e0f 2bbe 0bf3 c73d
00000060: 7d65 7cbd 922e 5ebe 8ee7 4fbd c6a0 133e
00000070: dbe9 7d3d b488 46be 078b 503e 5485 633e
00000080: 8405 12be 0ee6 393e 7392 6f3d a9f1 02be
00000090: b409 f13d 7d69 aabd 8270 abbd 50e9 1c3e
000000a0: 647e 5a3e 0e3c 30be 62df b03d 5b3c 283e
000000b0: 536a ebbc 36c4 c63d ff43 073d f7c1 3abd
000000c0: 42a5 68bd 6b92 8a3d 888a 0cbe 3331 823c
000000d0: 7d25 0b3e b5d4 8fbd 5cda 343d b4ce 91bd
000000e0: 3a11 973d bec5 0cbd 7e0c 2cbe a880 39bd
000000f0: e329 dabd 5170 babe df93 ecbb a0dc cb3d
00000100: a0dc 953e c457 9e3d 8b86 04be 4559 343e
00000110: 2302 99be 7c8c 88bd 91e6 2a3e 6975 81be
00000120: d71e 593d 907f 6e3e e3e9 a03e 3d1a 8abe
00000130: cd8a a53d 1d84 5f3e 2bfd b5bd fa1c a5bc
00000140: 63c8 943c 1cbe 913d 5c4b bd3d 2dff e13d
00000150: 67f0 263e 9f1b 123e 1734 1b3d a212 9b3e
00000160: 061a 0abc 3b53 e6bc 6d53 30bd fd0f b3bc
00000170: 8a3c 033c 0efc 50bc 77a7 503d ae01 523e
00000180: f941 89be 9aaf 753d 7309 c63e 344c 50be
00000190: afa6 623d 4898 a73d ede9 efbd a9ed aebd
000001a0: 514e 84bc ece0 1cbe 1826 983d f6a6 b1bd
000001b0: a5d6 1d3e 14e9 023e b950 d33c cda8 7eba
000001c0: 50b4 80bc 217a b83d 89f4 25be daf5 cf3d
000001d0: 04e2 f8bc 20ae 80be 6881 89bd 07bd 783d
000001e0: dce0 8ebe 0762 27bd d29a b83d 8ad4 a93d
000001f0: 982d 1e3e 30f0 69be 53bb 973e 3f9f f0bd
00000200: e9b4 f13c bcbe 913d bc0e 47be 6699 d23d
00000210: 47c9 4a3c 0662 12bd 2cce 823e f3ae c13b
00000220: a8ed af3c 5306 d03c 38eb 903d 93e1 9a3d
00000230: 2f3b 913e 16a8 c8bc 84fa 00bc 6e94 043e
00000240: 7c13 7abe f2f9 c1bd d42b 1d3e 4cfc 4bbe
00000250: 1fda b0bd ac0e 3abd f975 57bd 17f4 a03d
00000260: 4913 49be 9e69 023e 3389 7b3e 21ee 5dbd
00000270: bd79 7a3d a831 d13a c8e9 edbd 4d0d 873e
00000280: 9849 7a3c cae5 0abe 7d90 36be 1bbb e4be
00000290: f1b4 52bc 9965 263e cd4c 223d 0b5b f13d
000002a0: 1a24 243e 7e21 c13d 7516 643e 1512 793d
000002b0: 7b25 92bd 72a0 263d 996c 37bd 6f49 d6bc
000002c0: d237 74bd b3c5 043d 74c2 8f3d c39f 23bb
000002d0: 6b39 c1bd bffa 353e 8b6d 083e 2145 95be
000002e0: 34c4 e8bd 8dcd f43d ac35 5dbd c750 b4bd
000002f0: 14d6 dd3c 72bf 103e c9c8 c93c ad8f bebd
00000300: db48 8c3d 4220 28be ab8f 9ebe 4b2a 5b3d
00000310: 333d 43bd b7b5 ccbe da0a 96bd feef 0cbd
00000320: de40 71be 0a8e b43b bcc1 d23d c429 c4bd
00000330: 7e07 763d 9a86 593e 8522 8a3e 1a39 6f3e
00000340: b2aa c73d 049a 4cbe 99e0 c13d 6efe 233d
00000350: 7691 12be 7e33 03bd d728 273e 7cab c53d
00000360: 20cf 77be d3fe 1b3d 7b12 8a3c 3311 c1bd
00000370: 0756 4f3e caf4 a9bb 6393 183e 500c 623d
00000380: 68bb 8fbc df55 2bbd 9b71 a73d 9a88 05be
00000390: 4474 82bd c416 193e 8436 9ebd 1271 34be
000003a0: d5f9 923d 4870 a33d da94 00be 2944 753e
000003b0: 6867 963a ac51 e8bc cc72 46bd 3c1a 1cbe
000003c0: 771c aa3e 4b06 ee3c 0e1f b0bd cb75 b9be
000003d0: 4ad6 33bc c7be 81be 50c1 9cbe a2ed 39bd
000003e0: d50c a5bc 67de 2ebe 9ac5 0c3e a570 673e
000003f0: f165 cd3c d16a 87bd 4ca9 b1bd 35e0 ccbd

block2.1.conv.bias f4 [16]
0.1735219 -0.046829265 -0.05127018 -0.17189619 0.031754818 0.07428886 -0.02947278 0.12556659
0.13197048 0.07762137 -0.1717075 0.083348766 0.12909046 0.06244241 0.046412878 0.028430134
00000000: baaf 313e 0bd0 3fbd ae00 52bd 8e05 30be
00000010: 5711 023d c224 983d e670 f1bc 8794 003e
00000020: 4523 073e f4f7 9e3d 17d4 2fbe c2b2 aa3d
00000030: 4a30 043e 9dc3 7f3d 6e1b 3e3d 50e6 e83c

block2.1.BN.weight f4 [16]
1.0037135 0.87888026 0.89442044 1.0360751 0.9815284 0.8794724 1.091887 1.0986974
1.0263966 0.8969245 0.99755985 0.8897128 1.2285252 1.0619138 1.0020838 1.0066711
00000000: af79 803f 4cfe 603f bdf8 643f 1c9e 843f
00000010: 7245 7b3f 1a25 613f f4c2 8b3f 1ea2 8c3f
00000020: f760 833f d89c 653f 1560 7f3f 38c4 633f
00000030: 5040 9d3f cbec 873f 4844 803f 99da 803f

block2.1.BN.bias f4 [16]
-0.09281331 -0.35201636 -0.11548926 -0.09246053 -0.38943863 -0.110823914 -0.107121594 0.024032334
-0.24083416 -0.1082486 -0.037647434 -0.2823059 0.056020416 -0.12673111 -0.27391425 -0.3649944
00000000: e814 bebd 7d3b b4be a285 ecbd f25b bdbd
00000010: 8064 c7be a6f7 e2bd 9162 dbbd 75df c43c
00000020: 3b9d 76be 71b1 ddbd 3234 1abd 668a 90be
00000030: aa75 653d cdc5 01be 7d3e 8cbe 8ce0 babe

block2.1.BN.running_mean f4 [16]
0.17770559 0.75021034 -0.2040156 -0.46109343 -0.45005143 0.37888294 -1.2364568 -1.0506483
-0.13806283 -0.5049221 -0.98903817 0.49069604 -0.20168088 -0.46247134 -0.11774534 0.36720622
00000000: 74f8 353e c90d 403f 77e9 50be 7014 ecbe
00000010: 246d e6be f2fc c13e 3744 9ebf a57b 86bf
00000020: 5860 0dbe 9342 01bf 9b31 7dbf 833c fb3e
00000030: 6f85 4ebe 0bc9 ecbe 7824 f1bd 7402 bc3e

block2.1.BN.running_var f4 [16]
0.9448078 0.59923947 0.81852156 0.753177 0.6415269 0.5118123 0.90373355 1.2200793
0.60938656 0.5656773 1.0281367 0.9755428 0.5882954 0.7466061 0.8705286 0.9042268
00000000: edde 713f c267 193f a18a 513f 35d0 403f
00000010: 1b3b 243f 2206 033f 155b 673f 8f2b 9c3f
00000020: c200 1c3f 3ad0 103f fc99 833f 2cbd 793f
00000030: 879a 163f 9421 3f3f f6da 5e3f 687b 673f
