model/result/0509 1102.pt (torch, 79133 bytes, 98 tensors)

input_conv.conv.weight f4 [4, 1, 3, 3]
000000 32 fe 5a 3d f6 8b 1f be 40 6e ff 3b 36 3e bd bd
       0.053465076 -0.15580735 0.0077951252 -0.092403814
000010 88 f4 a9 bd 04 0d 77 bd ca d6 ca be 67 b5 ca be
       -0.08298594 -0.060315147 -0.39616996 -0.39591524
000020 3c fd a7 be 9e cb 1c bd 5b 30 42 be b2 e8 8a be
       -0.3281039 -0.038280122 -0.18963759 -0.27130657
000030 c0 a0 b9 bd 78 01 ed bd d9 b0 1c be 6d 27 e7 3e
       -0.09063864 -0.11572546 -0.15301837 0.45147267
000040 37 18 17 3e 57 e1 8f be 85 8c fe 3d 3f af 07 3e
       0.14755331 -0.28101608 0.12429146 0.13250445
000050 4d e2 4e 3e 90 59 67 bd 2e 0e 5b be 9e 8b 78 be
       0.20203514 -0.056481898 -0.21392128 -0.2427201
000060 bf 29 94 3e 30 e4 f3 3e fa 80 78 3e 10 5a 1e be
       0.289381 0.4763503 0.2426795 -0.15464044
000070 dd d7 50 be 5f 40 f8 3e 8c 5a 09 be 14 0b 23 3e
       -0.20394845 0.4848661 -0.13413447 0.15922195
000080 7a 7a 6d be 11 d5 2f 3e d8 cb 7c be 86 05 6a be
       -0.23191252 0.17171122 -0.24687135 -0.2285367

input_conv.conv.bias f4 [4]
000000 a3 2d 13 be 92 a0 f7 be e6 65 da bc d3 7a eb 3d
       -0.14372878 -0.48364693 -0.026659917 0.11498036

input_conv.BN.weight f4 [4]
000000 32 73 71 3f 62 ec 63 3f 4e 96 99 3f c2 74 69 3f
       0.943164 0.89032567 1.1998994 0.91193783

input_conv.BN.bias f4 [4]
000000 df bb 84 be 3d e0 69 bd 42 43 9e be 07 d3 f0 bd
       -0.25924584 -0.057098616 -0.3091069 -0.11759

input_conv.BN.running_mean f4 [4]
000000 20 e3 0c be 1a 6f fc be 7e 94 f2 bc 92 e3 f1 3d
       -0.13758516 -0.49303514 -0.029611822 0.11810984

input_conv.BN.running_var f4 [4]
000000 64 e9 e5 3f 0b bf 9e 3e 7f e3 46 3f 06 97 20 3e
       1.796185 0.3100513 0.7769088 0.15682611

block1.0.conv.weight f4 [8, 4, 3, 3]
000000 54 03 43 3e 2f e3 0c 3e 55 9f f8 bd 21 06 12 3e
       0.19044238 0.13758539 -0.12139765 0.1426015
000010 60 22 1c 3e 04 21 9c bd f0 9c 4c 3c fa 90 30 bd
       0.15247488 -0.07623485 0.012488589 -0.04310701
000020 c3 92 7c 3c 98 f4 d4 bd 5e 14 20 be c8 07 de bd
       0.01541585 -0.10398215 -0.1563277 -0.10841328
000030 6a a3 3c 3e 73 38 42 3d 81 d9 c1 3d 62 a0 9e 3c
       0.18421713 0.047417115 0.09465314 0.019363586
000040 a8 9c 96 bd 7a 3f 9c bd 94 c6 89 bd c3 74 2c be
       -0.073540986 -0.07629295 -0.06727329 -0.16841416
000050 ae 65 f6 3d 2a 35 99 be 3e 23 83 be 3e f2 a1 bd
       0.120311126 -0.29923373 -0.25612825 -0.07907532
000060 0a b4 e3 bd c5 15 f4 bd e4 1c a3 3e e9 2f 52 be
       -0.11118324 -0.11918215 0.3185798 -0.20526089
000070 aa cf c8 3d 96 97 00 3c 10 ad ec 3b 0c 11 2c 3e
       0.09805234 0.007848641 0.007222779 0.16803378
000080 8b 33 10 be 50 ac fb bd b5 46 58 be 08 98 99 be
       -0.14082162 -0.122887254 -0.21120723 -0.29998803
000090 6c 58 12 3e 90 e4 49 bd 84 83 01 3d bb bb 83 3d
       0.14291543 -0.04929024 0.031619564 0.06432291
0000a0 63 28 56 3e b2 3f 53 bd 7f bf 1f 3c 6a 05 17 be
       0.20913844 -0.051574416 0.009750246 -0.14748159
0000b0 2a 4e c3 be d3 2c 7a bd 77 8f 93 be b8 51 f3 3d
       -0.38145572 -0.061077904 -0.28820392 0.11880821
0000c0 20 0c 87 3d 39 bf d6 bd eb af a6 bd 73 05 ec bd
       0.065941095 -0.104856916 -0.081390224 -0.11524477
0000d0 57 59 c6 bd 79 c3 a6 be 53 d6 83 bd 5f 50 9e bd
       -0.09685009 -0.3257101 -0.064373635 -0.07730173
0000e0 48 e5 26 3e b1 18 51 be 9e 49 d4 3d 21 7f 0f 3e
       0.16298401 -0.20419575 0.10365604 0.1401334
0000f0 23 44 12 be cd 5f 9a bd b7 c2 03 3e 3c f2 a6 3d
       -0.14283805 -0.07537804 0.12867247 0.08151671
000100 99 ab b7 bc 40 2c 35 3e cd ac 62 3e 81 84 87 3e
       -0.022420691 0.17692661 0.22136231 0.2646828
000110 1b ec cb 3d eb b8 24 3d 47 d2 92 3e bc 3f 17 be
       0.09957143 0.040215414 0.28676054 -0.14770406
000120 f0 5f 07 3f 5b 27 5f 3e c7 05 8f 3e c6 3c 26 3e
       0.52880764 0.21792357 0.27934095 0.1623412
000130 c5 91 a1 3d e3 76 34 3e a4 08 48 3e 5f ba ec bc
       0.078891315 0.17623477 0.19534546 -0.028897462
000140 8e 27 ea bd d4 28 69 3e 04 ca 6b bd 8c 9f 54 be
       -0.11433326 0.22769481 -0.057565704 -0.20763987
000150 2f 10 31 3e 5b b9 a2 3e 76 04 87 3e 24 e1 54 3e
       0.1729133 0.3178204 0.2637059 0.2078901
000160 a2 4b 0c 3d 59 0d 2c be 76 88 ea 3c 16 c0 d9 3c
       0.034251817 -0.16801967 0.028629523 0.026580852
000170 fa e1 7d bd 2a 92 97 bd 0f f6 89 3d ce 96 f8 3d
       -0.061983086 -0.074009255 0.06736385 0.12138139
000180 31 d4 93 bd 14 fd 8c bd 42 fd 87 3d 97 2e 3b 3d
       -0.07218207 -0.06884208 0.06640102 0.04569873
000190 c3 0a 74 bc 53 50 7d 3d 9f ed 11 be 46 48 08 be
       -0.014895144 0.06184418 -0.14250802 -0.1330882
0001a0 2d cc 7e bd 9c ca 00 3e 2a fd 7a bd b5 df 7a be
       -0.062206436 0.1257729 -0.061276592 -0.244994
0001b0 ab d7 0d be 88 70 c6 bd dd 55 c7 3c f9 93 bb bd
       -0.13851802 -0.096894324 0.024332935 -0.09159083
0001c0 48 de 9f bd e8 2d cd bc a2 43 92 be 63 af 2d 3c
       -0.07806069 -0.025046304 -0.28567225 0.0106008975
0001d0 5d 52 d9 bb 0f 73 f8 bc de fb 07 be 05 06 e7 3c
       -0.006632133 -0.030328302 -0.13279673 0.028201113
0001e0 af ec 5d 3e 3d 93 bb 3e fb 77 81 3e 6f 37 f4 3d
       0.21672319 0.3663577 0.2528685 0.119246356
0001f0 33 bf 9e 3d bc 79 05 bd 07 50 94 3d 54 27 4a 3d
       0.07751312 -0.032586798 0.072418265 0.049353912
000200 b0 ab 5b bd 54 f5 8b 3e 84 5b 4e 3c bb 54 84 be
       -0.05363053 0.27335608 0.012595061 -0.25845894
000210 d1 c8 90 3e 45 8f ff bc 9f f5 99 be 58 9b 35 bc
       0.2827821 -0.031196246 -0.30070207 -0.0110844
000220 61 b9 da bc 06 93 80 bd ef 06 03 be 58 b2 52 bd
       -0.026699724 -0.062780425 -0.12795614 -0.051439613
000230 8c ff cf 3d 70 97 de bd 49 60 1c 3d b1 0c b6 bd
       0.101561636 -0.10868728 0.038177762 -0.088891394
000240 5d be fc 3d 0b dc bb 3d 53 64 61 3e 8b b2 3a 3e
       0.123409964 0.09172829 0.22010927 0.18232171
000250 a6 60 da 3d f8 03 59 bb 9e 7b 36 bd 9a ee 6c 3e
       0.106629655 -0.0033113938 -0.044551484 0.23137894
000260 18 dd d8 3d b6 de a6 bd 8b c1 df 3d 0e 82 62 3c
       0.10589045 -0.081479475 0.10925587 0.013824953
000270 85 c7 a7 3c 02 f2 6f bd 6e 59 22 bc 4c 33 ce 3d
       0.02048088 -0.058580406 -0.009909017 0.10068378
000280 bf 61 03 3e 77 22 a9 bd c1 f2 13 3e 79 a2 fd 3d
       0.12830256 -0.08258527 0.14448072 0.12384505
000290 64 d3 73 be 5f dc 59 be db 69 6c bd 98 2d 8b be
       -0.23811108 -0.21275471 -0.05771814 -0.27183223
0002a0 5f 5f 90 3e 54 2a a1 3e ea e1 46 3e ce 81 c7 3d
       0.28197762 0.31477606 0.19422117 0.09741555
0002b0 eb a0 1c be 84 e4 f1 bc b3 d2 41 3d ea 83 f0 bc
       -0.1529576 -0.02952791 0.04732008 -0.029359777
0002c0 c1 f3 cc bd f0 f2 32 bd 7e 0d a0 bd c4 3d 85 bd
       -0.1000743 -0.043688715 -0.078150734 -0.065059215
0002d0 f2 c5 3d 3d 41 dd 86 be 4a b9 80 be 62 ee 9c 3d
       0.046331353 -0.26340678 -0.25141364 0.076626554
0002e0 6b c7 ea 3d 25 fa d9 bb b8 6d 45 3d f1 7a 20 be
       0.11463817 -0.006652134 0.04820034 -0.15671898
0002f0 1d 4a cb 3d 5f 43 83 3d 34 56 20 be e5 42 c9 3d
       0.09926245 0.064093344 -0.15657884 0.09827212
000300 73 b8 0d be ce 65 91 be cd 29 af 3c ab 44 ad 3d
       -0.13839893 -0.28397983 0.021382237 0.08460363
000310 8d 77 3a 3e 2d 2d 40 be 89 b9 4e be 9f 29 5c be
       0.18209668 -0.18767233 -0.20187964 -0.21500252
000320 41 1a 27 be 50 10 e7 3d 31 93 d3 bd 41 03 fe bc
       -0.16318609 0.11282408 -0.10330809 -0.031007411
000330 3e 08 51 bd 8b 6f 31 be 74 5a d5 be 04 7a 0b bc
       -0.05103325 -0.17327707 -0.41670573 -0.0085129775
000340 63 22 03 be 53 8f a7 bd b4 d5 93 3e 6e 10 20 3e
       -0.12806086 -0.08181634 0.2887398 0.15631267
000350 1a 42 b7 bd 0d e1 80 bd 96 59 08 3e 1e 04 a9 3d
       -0.08948155 -0.06292925 0.13315424 0.082527384
000360 76 4e e4 bd 9c 3e 11 be 29 11 3b be f3 af f6 bc
       -0.11147778 -0.1418404 -0.18268265 -0.030113196
000370 a5 96 54 3e c6 34 94 bd 0a 7a 5d 3e a9 06 57 3e
       0.20760591 -0.07236628 0.21628585 0.20998634
000380 c4 ea b4 3d d2 ba ba 3d 8f 00 eb 3a 03 ca 14 3e
       0.088338405 0.091176644 0.0017929244 0.14530186
000390 82 3e 51 be a9 58 40 be 44 e4 0f 3e f8 f1 5c bd
       -0.20434001 -0.18783821 0.1405192 -0.053941697
0003a0 5c 01 df bc 89 01 e7 3d 6c 3f 63 3e 97 d3 0f 3e
       -0.027222328 0.1127959 0.22192162 0.14045559
0003b0 f5 f1 5e 3e b7 22 92 3d 58 10 1a be db ce 4c 3e
       0.21771987 0.071355276 -0.15045297 0.20000784
0003c0 dd 83 93 be 41 ba ee bd ae fd b7 3d 56 0c 2f 3d
       -0.2881154 -0.11656619 0.089839324 0.042736374
0003d0 f7 b7 db 3c db d6 1e 3e d7 71 63 3e 9d 23 fb bd
       0.02682112 0.15511648 0.22211395 -0.12262652
0003e0 10 0f d1 bc ab 18 36 3b 62 cb 30 3e 97 33 44 3e
       -0.025519878 0.00277857 0.17265084 0.19160305
0003f0 f2 13 8d bc b8 ca 94 3c db 7e 37 bd 4d 20 d2 bd
       -0.017221425 0.01816307 -0.044798713 -0.10260067

block1.0.conv.bias f4 [8]
000000 52 27 c7 3d 98 98 2b bd eb 34 18 3d 65 5d 0e 3e
       0.09724297 -0.04189357 0.03715984 0.13902815
000010 36 8a 58 bd 08 41 8b 3e c9 39 0d be 92 c8 9c bb
       -0.052866183 0.27198052 -0.13791575 -0.004784652

block1.0.BN.weight f4 [8]
000000 a7 29 86 3f 21 43 62 3f 47 75 76 3f f6 7b 93 3f
       1.0481461 0.8838368 0.962727 1.1522205
000010 e3 f8 77 3f 3b 11 6a 3f 50 e2 8c 3f a5 9d 6d 3f
       0.96864146 0.9143254 1.1006565 0.9281867

block1.0.BN.bias f4 [8]
000000 c3 aa 87 3d ed 2f 20 3e 8f 84 1c be 84 29 f0 bb
       0.06624367 0.15643282 -0.15284942 -0.007329168
000010 4b 92 fc bc 48 10 03 be 0a aa 04 3d dc 69 64 bd
       -0.030831477 -0.1279918 0.032388724 -0.055765018

block1.0.BN.running_mean f4 [8]
000000 55 40 dd be aa b0 49 bd 46 2d 1a 3f 1d da 42 3e
       -0.43213144 -0.049240746 0.6022533 0.19028516
000010 63 61 7c 3e 83 d0 b7 be b2 d9 be 3e 0c 45 05 bf
       0.24646525 -0.3590127 0.37275463 -0.5205848

block1.0.BN.running_var f4 [8]
000000 2f b6 90 3e da bc 06 3e dc 99 8c 3e f9 5e 21 3e
       0.28263995 0.13157979 0.27461135 0.15758885
000010 3e 68 b6 3d 2e 88 59 3f 98 da 16 3e 9f 33 29 3f
       0.08906601 0.8497342 0.14731824 0.6609439

block1.1.conv.weight f4 [16, 8, 3, 3]
000000 9e 96 38 3e 2a 6a 33 3d 8c 7d 7b 3c 8d ec fe 3d
       0.18026206 0.043802418 0.015349757 0.12447462
000010 8d ac da bc 13 75 c1 bd 60 6b 88 3e 82 26 50 bc
       -0.026693607 -0.09446158 0.2664442 -0.0127044935
000020 81 e3 80 3d 30 9b 17 3e 79 e2 36 bd ec 81 9a be
       0.06293393 0.14805293 -0.044649575 -0.30177248
000030 cc b7 ea 3d 31 41 26 bd a9 85 d0 be 02 3e ff 3d
       0.11460838 -0.040589515 -0.40726975 0.12462999
000040 c9 63 f9 bd fa 8c 93 be 54 91 49 3d af 9b 8d 3b
       -0.12177236 -0.28818494 0.04921086 0.0043215374
000050 b8 7a c4 bc 0c 8a 00 be 29 05 96 3d 6b 17 cd bd
       -0.023984298 -0.1255266 0.07325203 -0.10014232
000060 79 e0 ac bc 6f 0e 07 3e 85 82 05 ba 81 79 73 3e
       -0.02110313 0.131891 -0.0005092996 0.23776819
000070 b0 9e 96 bc 21 66 0d 3e 05 ac 10 bd 94 66 3e be
       -0.018386215 0.1380849 -0.0353203 -0.18593818
000080 fe 15 d8 3d 3d 47 89 bc 7e cc 24 be 4e 70 26 3e
       0.1055107 -0.016757602 -0.16093633 0.16253778
000090 5a bb dc bc 2c 92 08 be 84 9e 34 be 4c 32 5b be
       -0.026944805 -0.1333701 -0.17638594 -0.21405905
0000a0 b7 92 56 be e7 f5 17 be a7 ef 93 bb bc 0e 63 3d
       -0.20954405 -0.14839898 -0.004514653 0.055433974
0000b0 4a fb ab 3e 11 8a d3 3d 95 04 8a 3e 47 5a 02 3e
       0.33590156 0.103290685 0.2695662 0.1272975
0000c0 c4 66 aa 3d b7 0b c3 3b 7e 63 9e 3d ee c2 fc bc
       0.08320382 0.0059523243 0.077338204 -0.030854668
0000d0 ec 20 22 3e 9f 27 04 bd 3f da ae 3c bc 19 dd bd
       0.15832871 -0.032264348 0.021344302 -0.10795924
0000e0 11 6c eb bd 7a 93 31 3d bb 4d f8 bd ac 7b cf bd
       -0.114952214 0.043353535 -0.12124201 -0.101310104
0000f0 67 0a 0e be 2d 94 21 be f8 df 73 bc 7d b0 0d bd
       -0.13871156 -0.15779181 -0.014884941 -0.03459214
000100 5e 14 03 be f3 3a 99 be 5c 86 7e ba 82 11 66 be
       -0.12800738 -0.29927787 -0.0009709352 -0.22467616
000110 16 20 b4 be 17 cb 00 3e 2d e6 af bd 14 1b 49 be
       -0.3518073 0.12577473 -0.085888244 -0.19639236
000120 d5 e7 fa bd 49 87 8a 3e d6 5f 48 3e 52 91 8d be
       -0.1225125 0.2705634 0.19567809 -0.27649933
000130 16 53 61 3d a4 22 eb bd ea a0 d3 bd 90 32 0e bc
       0.055010878 -0.114812165 -0.10333426 -0.008679047
000140 24 f0 96 be a7 20 31 be f6 42 75 bd 74 f5 cc 3d
       -0.29480088 -0.17297612 -0.059878312 0.10007754
000150 fd 3e f4 bd 83 15 31 3e 67 88 1a 3e a5 dd a0 bd
       -0.119260766 0.17293362 0.15091096 -0.07854775
000160 f4 55 2d 3e 71 bc 76 3d 72 5e b5 3e 33 52 d0 3e
       0.1692732 0.060238305 0.3542362 0.40687713
000170 74 b5 4c 3e b5 23 3f 3e 41 1f 87 3e 76 3d 58 3e
       0.19991094 0.18665965 0.26391032 0.21117195
000180 41 dc 98 bd 85 b5 3f bc d5 e3 4a be d0 e9 f0 3d
       -0.07463885 -0.0117009925 -0.19813474 0.11763346
000190 62 ab ac 3d bf 0e 2f 3e 3f 96 a9 3d 5d 6a 1a 3d
       0.08431126 0.17095469 0.0828061 0.037699092
0001a0 ea 61 ca bb 5e c9 d2 3d 99 a6 5c be 7f fe 0d bc
       -0.006176223 0.10292314 -0.21547927 -0.008666634
0001b0 fa f8 56 3e 8b e8 a6 3d 0d 3b 9b bd c3 c1 58 3e
       0.20993415 0.08149823 -0.075796224 0.21167664
0001c0 53 50 e1 3d 22 60 03 be b2 b9 27 3e 9c dc 85 bd
       0.11001649 -0.1282964 0.16379431 -0.065362185
0001d0 43 e5 75 be fc eb 50 bd 80 fb 93 bd 5f 22 74 bd
       -0.24013238 -0.051006302 -0.07225704 -0.05960309
0001e0 2c 9b 17 be 02 21 5c bd da 30 6a be f2 f6 a9 bd
       -0.14805287 -0.053742416 -0.22870198 -0.08299054
0001f0 57 a3 40 3d 58 46 3c 3e 21 46 e7 bb 3e c6 15 3d
       0.047030773 0.18386209 -0.0070579206 0.03656601
000200 26 02 c9 3d 8a 33 2e be 50 58 02 be af a0 7e bd
       0.09814863 -0.17011848 -0.12729001 -0.06216496
000210 d9 75 72 bd 40 7f 25 3e 65 0b 31 3e c7 94 a3 3d
       -0.05919442 0.16161823 0.17289503 0.079873614
000220 74 a3 7f 3d d6 9c f9 3d bb 3f 59 bd 8d a0 05 be
       0.06241174 0.12188117 -0.053039294 -0.13049527
000230 29 a0 08 3d 4d ba e2 bd 85 87 b8 bc 1f 06 8d be
       0.033355866 -0.1107069 -0.022525558 -0.27543733
000240 49 7e e1 3c 7d a5 60 3e c3 c5 4d 3e 08 2b e5 bd
       0.027526038 0.21938129 0.20094971 -0.11189848
000250 fb ce 6c be ed b6 8a be de 3e 15 3d 34 fc 2b bd
       -0.23125832 -0.27092686 0.036436908 -0.041988567
000260 aa 32 32 be 59 bd 48 3e d6 e2 00 3e 2d 33 e3 bb
       -0.1740214 0.1960348 0.12586531 -0.006933591
000270 00 b6 64 3e e3 cd 64 3d 4c 4d f7 bd db 3c bf 3d
       0.22335052 0.05586041 -0.1207529 0.09337779
000280 53 cb 6d 3e 4b 31 66 be 03 b8 d7 bb db 9c 63 3d
       0.23222093 -0.22479741 -0.006583215 0.05556951
000290 e5 7a a4 bd 0c 56 95 bd e3 22 5a 3e 0c b9 b6 3d
       -0.08031253 -0.07291803 0.2130237 0.08922014
0002a0 3a 32 13 be 2f 5c 38 3d b1 3b e2 3d 6d 09 36 3e
       -0.14374629 0.045009788 0.110465415 0.17777033
0002b0 f0 5e 99 3e e7 b0 2a 3e 04 74 41 bb 6d b2 7d bc
       0.29955244 0.16669045 -0.0029518614 -0.015484435
0002c0 48 69 b0 bd 11 05 0a 3e e4 ab c1 3d 0f 64 32 be
       -0.08613831 0.13478495 0.09456614 -0.17420982
0002d0 83 8d 98 bc 3c 88 c3 3e 3e 3c 5b 3e 2b 3c 10 be
       -0.018622166 0.38189876 0.214097 -0.14085452
0002e0 1b 50 76 bd 25 9d e6 bd d6 a5 60 be 07 f4 b2 bd
       -0.06013499 -0.11260442 -0.21938261 -0.08737951
0002f0 f7 7a cb bd 95 b3 2b bd 0f ef 2e 3e b0 75 2e 3e
       -0.09935563 -0.04191931 0.17083381 0.17037082
000300 7c 80 0f be 89 45 d3 3a 90 4e b3 bd f9 07 fe 3d
       -0.14013857 0.0016118746 -0.08755219 0.124038644
000310 9c 71 b1 3d 40 69 96 3d aa e9 07 3e 5d dc 1a 3d
       0.086642474 0.073442936 0.1327273 0.03780781
000320 40 4a 92 3d 70 b1 39 3e fa 6c 4a be 6a 43 4c be
       0.07143068 0.18134093 -0.19768134 -0.19947591
000330 4f 14 64 3e b0 66 4d 3d 8f a6 e3 3b e9 7c ca 3d
       0.22273372 0.05014676 0.0069473456 0.09887106
000340 8f 1a 84 bc 3a 03 7f 3e f4 5d 24 3e 9d ab 1b bd
       -0.016125945 0.24903575 0.16051465 -0.03800546
000350 bd 40 42 3e 9d ec e8 3c ae 58 1b 3e 9c e4 3e 3e
       0.18970008 0.028433139 0.15170547 0.18641895
000360 a3 50 35 3d 8a a7 21 be f5 3f bf 3d 2b 4e 88 3a
       0.044266354 -0.15786567 0.09338371 0.0010399272
000370 75 fb 1a bd 76 0a 3c 3d ee fc 9d 3d 6d f4 86 3e
       -0.037837464 0.045908414 0.07714258 0.26358357
000380 a8 9d fd 3d 83 6b ea 3d 40 62 63 bd b8 75 1e be
       0.12383586 0.114462875 -0.05551362 -0.15474594
000390 12 73 4f bd 18 74 1e 3e 47 b3 b7 be 8d ee 7f 3d
       -0.05064685 0.15473974 -0.35878965 0.06248336
0003a0 26 f8 78 3e 4c 23 69 3c 20 95 0b 3d d5 14 93 3e
       0.24313411 0.014229607 0.034077764 0.2872683
0003b0 4b e8 a5 3e ab c0 6b be 1f 0a eb 3d 5b 89 1a 3d
       0.32403788 -0.23022716 0.1147654 0.03772865
0003c0 e3 47 1c bc 7b a5 f9 3d 90 1a f6 3c 62 fd 73 bc
       -0.0095386235 0.12189766 0.030041963 -0.014891954
0003d0 7d e9 88 3d 99 f5 0a 3e 7d 26 a7 bd 8f 8b fe bd
       0.06685159 0.1357025 -0.08161638 -0.124289624
0003e0 d3 db 32 3d 2a ab 37 be cc a1 92 bd 6f 24 68 3e
       0.043666672 -0.17936388 -0.071597666 0.22670148
0003f0 32 d6 87 be 19 76 eb bc d4 12 cc 3c af d2 eb 3a
       -0.26530606 -0.028742837 0.024911322 0.0017991866

block1.1.conv.bias f4 [16]
000000 4b 43 c4 3d dc b1 2b 3d 10 ed 3e be f1 7d a2 3d
       0.095831476 0.041917667 -0.1864512 0.07934178
000010 74 2c 20 3d 9d 64 78 3d 0c d6 53 bd dd a5 56 3d
       0.039104894 0.060642827 -0.051717803 0.052404273
000020 30 97 07 3d 9c fa 24 3d 39 ed e5 bc f7 37 e8 3c
       0.033103168 0.040278062 -0.028067218 0.028346999
000030 c7 25 66 3d 03 a8 76 3e fe aa 4d 3b ea c2 de bd
       0.05618837 0.24087529 0.0031382437 -0.10877021

block1.1.BN.weight f4 [16]
000000 20 a4 69 3f 18 b4 92 3f 3c bb 89 3f 06 e5 76 3f
       0.9126606 1.146121 1.0760264 0.9644321
000010 87 19 66 3f d5 74 63 3f 66 ae 63 3f a7 5d 85 3f
       0.898827 0.88850147 0.88937986 1.0419205
000020 ed fd 87 3f a3 7b 7e 3f ea 8c 7e 3f 7f 3d 88 3f
       1.0624367 0.99407405 0.9943377 1.0643767
000030 6c 3f 83 3f cb a9 6a 3f 0d 2a 96 3f 8a b5 72 3f
       1.025373 0.91665334 1.1731583 0.94808257

block1.1.BN.bias f4 [16]
000000 3b d2 9a 3d 3f 03 48 be ed ef a2 3d 80 20 60 be
       0.075596295 -0.19532488 0.079559185 -0.21887398
000010 94 c6 99 be 03 80 87 be f9 d0 53 be df 6b d4 bd
       -0.30034316 -0.26464853 -0.20685185 -0.10372137
000020 5e 52 c9 bd 5a 5c 93 be 31 20 25 bd 88 a1 ae bd
       -0.098301634 -0.28781396 -0.040313903 -0.085269034
000030 e2 3a b3 bd e3 4f b3 be 71 3a 1f bc a3 41 be bd
       -0.087514654 -0.35021886 -0.009718523 -0.09289863

block1.1.BN.running_mean f4 [16]
000000 71 de 2a bf ea 5a e8 3e e5 ab 36 3f 2a 18 02 3f
       -0.6674567 0.45381862 0.7135604 0.5081812
000010 d5 40 41 bf 75 2f 6d bf 29 e0 38 bf d6 25 02 3f
       -0.7548955 -0.9265054 -0.7221704 0.50838983
000020 69 9f 39 be 24 ab 4d 3e 07 22 25 3e 74 f7 0f bf
       -0.18127216 0.20084816 0.16126262 -0.5623696
000030 0f 22 8b bf 93 29 22 40 14 55 af bf bc a7 80 bf
       -1.0869769 2.5337875 -1.3697839 -1.0051188

block1.1.BN.running_var f4 [16]
000000 a7 78 e7 3f 33 8e 56 3f a9 69 95 3f df e3 1e 3f
       1.8083695 0.8381073 1.167287 0.62066454
000010 48 37 69 3f 34 e5 0a 3f e5 0a b4 3f 60 96 2a 3f
       0.9109998 0.54255986 1.4065825 0.66635704
000020 af cc 65 3f b3 64 ac 3f 8d f1 51 3f 5f 9d 07 40
       0.8976545 1.3468231 0.820092 2.1189802
000030 9e f8 23 40 46 05 11 40 14 99 75 3f 81 62 26 40
       2.5620494 2.2659469 0.95936704 2.5997622

block1.2.conv.weight f4 [8, 16, 3, 3]
000000 df 9c 06 3e 70 58 e9 bd 33 74 b4 3d 3c 18 40 3d
       0.13145779 -0.11393821 0.08811226 0.04689811
000010 77 2a 76 3c 1d f1 49 3e d1 11 f5 3b dc ab 05 be
       0.015024773 0.19720884 0.0074789305 -0.1305384
000020 bd 2a 88 bc cc 74 4d be 31 27 08 bd af 49 11 3e
       -0.016621942 -0.20064086 -0.0332405 0.14188264
000030 dd 66 1d be a9 db 1f bd 61 a5 a5 3d d3 ef 53 be
       -0.1537127 -0.039027844 0.08088184 -0.20696954
000040 a1 bc b9 3c e3 52 be bd 81 cd 10 3e 63 93 c2 bd
       0.022672953 -0.09293153 0.14140894 -0.09500768
000050 40 76 1e bd ce 88 f2 3d 13 a4 8c bb 2a f7 0a be
       -0.03868699 0.118425 -0.00429202 -0.13570848
000060 18 ff e2 3d 04 7d 22 bd f6 10 5b be 33 45 1e 3e
       0.110838115 -0.039670005 -0.21393189 0.15456085
000070 6f aa 4b be 81 73 e0 be 68 02 07 3e 4b c3 99 bd
       -0.19889234 -0.43838122 0.13184512 -0.07507952
000080 0a 0f 3a be 4b 1f 0a 3e d4 10 ef 3d 5f 84 11 3e
       -0.181698 0.134885 0.116731316 0.14210652
000090 0c 6b 56 bc 2a 7d 65 bc bd c1 62 bc bc 34 e2 3d
       -0.013087045 -0.014006892 -0.013840136 0.110452145
0000a0 b9 5f ad 3d 02 7b ae 3d 59 83 f9 bd 49 e4 05 be
       0.08465523 0.08519556 -0.12183256 -0.13075365
0000b0 30 b3 93 3d 4d 07 8f be 20 36 b4 bd 85 38 ed bd
       0.07211912 -0.27935258 -0.08799386 -0.11583046
0000c0 94 99 46 bd 9e 1b 04 3b d2 3d 3e be f2 f3 e4 bc
       -0.048486307 0.0020158063 -0.1857827 -0.027948353
0000d0 29 f9 09 bc 1e 4a ab bd 91 0d e7 bb e6 20 02 3e
       -0.008421221 -0.08363746 -0.007051178 0.12707862
0000e0 f0 0d bb 3d ed a1 61 bd f8 d1 db bc af 25 e7 bd
       0.09133518 -0.055086065 -0.02683352 -0.112864845
0000f0 4f 19 b4 bc 4c 18 16 be c5 1d 6f be 3b e2 2e 3d
       -0.021984724 -0.14657706 -0.233512 0.04269622
000100 3e 38 8b bd 44 05 54 3e 82 34 ae 3d 47 db 23 bd
       -0.06797837 0.20705134 0.08506109 -0.04000404
000110 46 df 25 3e c4 a4 8c 3e 07 97 ff 3c 66 6f 8b 3e
       0.16198453 0.27469456 0.031199945 0.27233428
000120 0b f6 75 3e 15 49 4c 3c 83 59 96 be 29 76 ab bd
       0.24019639 0.012468596 -0.29365167 -0.08372147
000130 94 b2 15 bb 0d 74 01 be 67 57 4f be 62 37 82 3d
       -0.0022842037 -0.12641926 -0.20248185 0.0635822
000140 23 e8 e1 bd 19 97 53 3b a6 75 05 bd 23 55 fc bd
       -0.11030605 0.0032286106 -0.0325829 -0.12320926
000150 a3 a0 26 3d d8 0f 23 bc f8 80 89 be 4a 3a 38 3d
       0.04068054 -0.009952508 -0.26856208 0.044977464
000160 f7 8b aa bd 55 87 20 be 55 3a cb bd 0f 6c 51 3e
       -0.083274774 -0.15676625 -0.09923235 0.20451377
000170 7e 11 0e 3d 57 bf 68 bb 7d 9d d5 3d 5e 35 e6 bd
       0.03468465 -0.0035514438 0.10430429 -0.11240648
000180 58 1b 56 bc 99 63 e6 3d 90 0e 22 be 1f 28 c1 bd
       -0.013068043 0.112494655 -0.15825868 -0.094314806
000190 bf 57 5d be 38 a7 97 3d c6 66 c7 bd 28 b4 83 be
       -0.21615504 0.07404941 -0.09736399 -0.25723386
0001a0 e5 6c 3d be 17 57 d6 bc 89 04 e6 bd 5a 27 6e bd
       -0.18498571 -0.026164575 -0.11231334 -0.058142997
0001b0 5d b7 81 3d d2 bb 4f 3c 80 ba cc 3d 1c 6c 2b be
       0.06333802 0.012679057 0.099965096 -0.16740459
0001c0 75 87 56 be e0 89 6e bc 26 fe 21 be cd 09 c8 bc
       -0.2095011 -0.014559239 -0.15819606 -0.024418736
0001d0 2a f5 2c be 1e c8 34 bd 2f 2c dc bc b4 b1 14 3d
       -0.16890398 -0.04413616 -0.026876537 0.036302283
0001e0 8a b9 dc 3d 0e fb e8 3d 40 20 94 3d 65 a9 65 3d
       0.10777576 0.1137601 0.07232714 0.05606975
0001f0 3f 61 d8 3d 24 95 a9 3d fa 18 a7 bd f3 9d df 3c
       0.10565423 0.082803994 -0.08159061 0.027296996
000200 74 55 b2 be 81 1e 98 3e c3 d2 b7 3e 22 3f 05 3e
       -0.3483082 0.29710773 0.35902986 0.13012365
000210 9d f2 17 3e 2a 26 33 3e f5 0a fe 3b 6f 04 a1 bd
       0.14838643 0.17495027 0.007752771 -0.07862174
000220 24 bb 93 3d 1e ce f0 bd c5 fe b3 bd 25 c4 46 be
       0.072134286 -0.11758064 -0.08788828 -0.1941076
000230 1b 97 a2 be 03 9c e5 3d 33 62 fc 3d 34 1c 51 3d
       -0.3175591 0.112113975 0.123234175 0.051052287
000240 d9 c1 71 be 36 9b 26 be 36 b9 a2 bd 29 b2 06 be
       -0.23609103 -0.16270146 -0.079454824 -0.131539
000250 f7 c7 8c bd 18 ff 85 bd a0 87 38 3c e5 83 39 bb
       -0.06874078 -0.06542796 0.011262804 -0.0028307375
000260 0d d7 3c bd ea ba 94 be d2 cd 86 be 22 f1 0c be
       -0.046103526 -0.29048854 -0.26328903 -0.1376386
000270 6e 2c 17 be 8b 3b 01 be a6 4c 7a 3d c7 cf dd bd
       -0.14763042 -0.1262037 0.061108254 -0.10830646
000280 bb 48 80 be e1 ed ec bd c5 35 fc bd df a7 29 3d
       -0.2505549 -0.11568809 -0.12314943 0.04141986
000290 cf 7e 8b 3d 5a 47 37 be ba 96 1e be ca 19 cb bc
       0.06811296 -0.17898312 -0.15487185 -0.02479257
0002a0 35 a8 0d bd a7 32 18 be ea 83 03 be 36 70 03 bd
       -0.034584243 -0.14863072 -0.1284329 -0.032089435
0002b0 88 44 04 3e dd 73 67 3e f1 ca b5 3d 84 d0 92 3d
       0.12916768 0.22602792 0.088765986 0.071686774
0002c0 f7 d6 9d 3e 2d e5 9e bc c4 3c 21 ba 63 11 21 3e
       0.30828068 -0.019396389 -0.00061507174 0.15729289
0002d0 1d 6f 38 be cd a3 a4 3d ee a0 3f 3e 4e f5 ca bd
       -0.18011136 0.08039055 0.18713734 -0.099100694
0002e0 5d a6 6e bd ee 6d a3 bd 6a e6 d5 bc e2 0a 3e bd
       -0.058264125 -0.07979952 -0.026110847 -0.046397097
0002f0 cd 1b 5f bd be ff 13 3d 14 88 71 b9 0f ee 1a be
       -0.054469872 0.036132567 -0.00023034244 -0.15129875
000300 12 55 87 bd 56 c6 df bd ea e8 03 bd d6 d1 8d be
       -0.06608023 -0.109265015 -0.032204546 -0.27699155
000310 0c da 1f be a2 03 3a be e7 08 1a be de 74 8a 3b
       -0.15610522 -0.18165448 -0.15042458 0.0042253574
000320 f3 c4 03 be 9e eb dc bc 74 22 9e 3d 8c a6 44 3d
       -0.12868099 -0.02696782 0.07721415 0.048010394
000330 df b1 59 bd cb 7f 29 bc 79 f6 5a bd 27 5b 88 3e
       -0.053148147 -0.01034541 -0.05345771 0.26632044
000340 c9 08 2f 3e f9 1c 09 3e 57 8c 68 bd 94 90 a0 3c
       0.17093195 0.13389958 -0.056774464 0.01960019
000350 08 27 21 3e e8 a6 c5 bd da 2e 38 3d 6f 70 42 3e
       0.15737545 -0.096509755 0.044966556 0.18988203
000360 43 f5 6f 3d fe ac fa 3c fe ff 6e 3d d2 d7 fc 3d
       0.05858351 0.030600067 0.058349602 0.12345852
000370 00 e5 96 bd 3f d4 2d be e3 76 29 3e 8b e9 a9 bc
       -0.07367897 -0.16975497 0.16549258 -0.020741245
000380 49 c6 e9 bd 55 52 9f bc bf 96 d7 bd 83 d1 70 bd
       -0.11414773 -0.019448439 -0.105267994 -0.058793556
000390 b7 9d 8d bd 93 0d 78 3d 50 42 75 3d 96 1d 97 bd
       -0.06914847 0.06055982 0.059877694 -0.0737869
0003a0 5e 94 d7 bc 21 b1 e2 3d 57 0e 88 be 54 1a 1a be
       -0.026315864 0.11068941 -0.2657344 -0.15049106
0003b0 83 68 74 be a0 70 d0 3d fa 4a 0c 3e e2 5b a7 3d
       -0.23867993 0.101777315 0.13700476 0.08171822
0003c0 1d 94 b9 3d 61 42 8f 3d 98 46 94 bd e3 e0 10 3d
       0.090614535 0.06995083 -0.07240027 0.03537072
0003d0 42 be 3f be 17 f4 d8 bd f3 1c 97 bd d5 c3 22 be
       -0.18724921 -0.105934314 -0.073785685 -0.15895016
0003e0 b3 70 09 bd bf ef 9b be d4 0e 88 be b0 83 02 bd
       -0.033554744 -0.3045635 -0.26573813 -0.03186387
0003f0 4e 1f e8 bd 24 43 08 bd 28 fb cd bd 7d 41 08 3d
       -0.11334096 -0.033267155 -0.1005767 0.03326558

block1.2.conv.bias f4 [8]
000000 40 2f a7 bb 08 cf 30 3d 03 96 12 be 0e fd e5 bd
       -0.005102068 0.04316619 -0.14315037 -0.11229907
000010 2c bb a7 bd 2f 13 ac bd 2c 8d 8d bd 10 bd 2d 3d
       -0.08189997 -0.084020965 -0.06911692 0.042416632

block1.2.BN.weight f4 [8]
000000 59 f8 73 3f c2 5a 81 3f 1e 06 88 3f ad 4e 6d 3f
       0.95300823 1.0105822 1.0626867 0.92698175
000010 f5 07 82 3f 57 20 76 3f 28 e6 8f 3f 96 ca 70 3f
       1.0158678 0.96143097 1.1242113 0.9405912

block1.2.BN.bias f4 [8]
000000 78 25 4c 3d 52 31 e5 bd 17 9e 10 bc d9 09 f2 bd
       0.04984042 -0.11191048 -0.008826754 -0.118182845
000010 6f 23 56 be f9 e3 ec bd 1c 8f 9a 3c f0 e9 10 bd
       -0.20911954 -0.1156692 0.018867068 -0.03537935

block1.2.BN.running_mean f4 [8]
000000 7d 38 2b bf f4 4e 3e bf 07 48 fb be 41 63 4c bf
       -0.6688307 -0.7433922 -0.4907839 -0.7983895
000010 3b 50 d2 bf 1e ae e9 3e 12 28 dc be e0 8f e6 3f
       -1.6430734 0.45640653 -0.4299932 1.8012657

block1.2.BN.running_var f4 [8]
000000 1f 63 ec 3f 59 36 f5 3f e3 76 fb 3f b7 e3 61 40
       1.8467749 1.915721 1.9645656 3.5295236
000010 83 8d ef 3f 09 bf a0 40 ab 42 a5 3f c9 d7 8d 40
       1.8715061 5.0233197 1.291097 4.432591

block1.3.conv.weight f4 [4, 8, 3, 3]
000000 58 cb 2e 3e aa 11 0e 3e 20 82 02 be 12 0a cf 3d
       0.17069757 0.13873926 -0.12744951 0.10109343
000010 b6 08 3b be 94 58 3b be 0a b9 90 3e bd db bf 3d
       -0.18265042 -0.18295509 0.28266174 0.093680836
000020 31 94 19 be 67 aa 97 bd d0 58 c1 bd 99 88 37 3d
       -0.14997937 -0.074055485 -0.09440768 0.044808004
000030 ae 22 de bd 7b 06 42 be ce 5c cf bc 75 7d b7 3c
       -0.108464584 -0.18947785 -0.025312807 0.02239869
000040 b8 b3 dc 3c b5 19 f2 3d 04 07 66 3e 69 5e fc 3d
       0.026941165 0.118213095 0.22463614 0.12322695
000050 6c 52 b9 3e 5e e0 5e bc 27 a3 a3 3c 35 13 81 3e
       0.36195695 -0.013603298 0.019975258 0.25209966
000060 96 a9 80 be ee 4a da bd c4 6c aa 3c 6b 28 4d bd
       -0.25129384 -0.10658823 0.020803817 -0.050087374
000070 e5 8a 6b bc 31 28 8c 3d 6c 12 25 be 95 bf a0 bd
       -0.014376377 0.068436034 -0.16120309 -0.078490414
000080 71 bc f1 bd ff 5e 83 be 28 76 8f 3d 6a 6f ff 3d
       -0.118035205 -0.25658414 0.070049584 0.124724224
000090 78 e8 e0 3c 89 05 10 3e a7 25 8e 3d ac c0 6e bd
       0.0274546 0.14064611 0.06940775 -0.058289215
0000a0 d0 d0 43 3e f7 25 35 be b9 a1 65 3d 3d 57 80 3e
       0.19122624 -0.17690264 0.056062434 0.25066558
0000b0 b5 96 2f bd 95 e5 96 3c 80 f3 d7 3d 09 54 f6 bd
       -0.042868335 0.01842002 0.10544491 -0.12027747
0000c0 09 38 71 be 54 af 05 be 0f 43 84 be 22 6b 2d be
       -0.23556532 -0.13055164 -0.25832412 -0.16935399
0000d0 17 4f 05 be 9c ab c1 bc c9 f7 2a 3d f2 a7 31 bd
       -0.13018452 -0.0236414 0.041740213 -0.043373056
0000e0 80 96 9b bc cd 02 57 3e 42 d9 00 3e 00 e7 5c 3e
       -0.018992662 0.20997162 0.12582877 0.21572495
0000f0 7b ef a8 bd 6a 2b 6c be bb 27 80 be 76 f2 06 be
       -0.08248802 -0.23063436 -0.25030312 -0.13178429
000100 ab 97 bf bd 87 19 88 be 02 b0 5a 3d 25 59 25 3e
       -0.093551 -0.26581976 0.05339051 0.16147287
000110 d0 8e 68 bd 14 96 cf bc bc 37 79 3d 12 5b 14 be
       -0.05677682 -0.025340118 0.060844168 -0.14487866
000120 31 9e 97 be ff d3 39 3e c9 a7 e8 bd a6 b5 4a be
       -0.29612878 0.18147276 -0.113601275 -0.19795856
000130 b6 72 3d 3e 04 97 5b 3a 68 bc cc bd 68 42 01 bb
       0.1850079 0.000837669 -0.09996873 -0.001972342
000140 fe 51 fd bc 2c 5e 4f be e2 be 09 be c6 b7 9a bd
       -0.030922886 -0.20250767 -0.13451722 -0.07554583
000150 b0 4c d0 bd 7e d3 25 be 1c 87 9b bd 28 25 78 be
       -0.10170877 -0.16193959 -0.075941294 -0.24232924
000160 d2 ff 6b be 75 5b de bd 30 7f 79 3c 90 c0 69 3d
       -0.23046806 -0.10857288 0.015228078 0.057068408
000170 56 31 f3 bc c9 c6 26 3e 30 4e 2d 3d 6e 18 bf bc
       -0.029686611 0.16286768 0.042310894 -0.023327079
000180 cf 30 63 3d 26 df 6a bd 04 c9 b3 3b 2c 3e d0 bd
       0.05546647 -0.057341717 0.0054866094 -0.10168108
000190 bb 3b a0 bd c9 e2 8d bd 41 e5 7d 3e 69 f8 10 3e
       -0.07823893 -0.069280215 0.24794485 0.14157261
0001a0 b7 7a fe 3d 8b 95 2f bd b3 8d a7 3d d3 e9 d0 bd
       0.1242575 -0.042867225 0.08181324 -0.102008484
0001b0 f1 d7 e2 3b 36 b2 46 be 33 f3 c0 be 14 cf bd bd
       0.006922715 -0.1940392 -0.37685546 -0.09268013
0001c0 26 cf 79 bd f7 0b 81 bd 18 b1 65 3e 12 9e b9 bd
       -0.060988568 -0.0630111 0.22430837 -0.09063353
0001d0 2d e8 d5 bd 1b bf 49 be d4 9a 73 bd ea 64 3b 3b
       -0.10444675 -0.19701807 -0.059473827 0.0028594085
0001e0 77 21 15 be 2d b4 7d 3d 0b 0e 4d bc 12 03 f0 3c
       -0.14563547 0.061939407 -0.012515555 0.029298339
0001f0 27 f6 1d 3e 30 e0 db 3d 25 51 39 be 6b e5 5a be
       0.15425931 0.1073612 -0.1809736 -0.21376579
000200 db cb d8 bc b6 06 0b bc 6d 53 49 bd b8 9c 85 3e
       -0.026464393 -0.008485487 -0.049151827 0.2609613
000210 5c c6 99 be 7c 11 0d be 1f bb 1c 3e 00 56 40 be
       -0.3003415 -0.13776201 0.15305756 -0.18782806
000220 89 77 62 be e9 a7 8d bd dd 73 65 be 2b 01 28 be
       -0.22115912 -0.06916792 -0.2240748 -0.16406696
000230 ed 17 7e be ed 5d 32 bd 3f bf 8e be 86 f5 85 be
       -0.24813814 -0.043546606 -0.27880284 -0.26163882
000240 79 bf 45 be b7 9f 02 3e 04 cb 64 3e 1f 37 58 be
       -0.19311322 0.12756239 0.2234307 -0.21114777
000250 ad af d7 3d 2f f2 20 3e f1 0c 5a bd 9a 03 9e bd
       0.10531554 0.15717386 -0.053234998 -0.07715531
000260 aa f7 0d bd de 29 4f 3e 74 6f 3e 3e 2b 6d 8c 3c
       -0.03466002 0.20230815 0.18597203 0.0171419
000270 ed 9c 3f 3e d5 4c b8 3d 5a 40 84 3d 7b f6 3f 3e
       0.18712206 0.089990295 0.064575866 0.18746369
000280 fa c1 fd 3c a8 05 16 bd e5 e9 25 be 37 7f d6 3d
       0.030976284 -0.036626488 -0.16202505 0.10473483
000290 43 6d 8c 3d 1e 94 e7 bd 2f ee 4c 3e fa 06 26 3c
       0.068567775 -0.11307548 0.20012735 0.010133499
0002a0 8a 34 a0 bd b5 e8 b5 bc ad 2a 11 3c c6 e8 c7 3d
       -0.07822521 -0.02220569 0.008860272 0.09761195
0002b0 c0 05 d8 bc 6c e4 23 be a8 35 d4 3d 50 d1 75 3d
       -0.02636993 -0.16005105 0.103617966 0.06001407
0002c0 2d ad a9 bd aa 7c b8 3d 7e 3b 30 3e 90 65 f4 3c
       -0.08284984 0.09008153 0.17210194 0.029833585
0002d0 e7 db 29 3e 8d ef c9 3d 35 90 ad 3d de 1e 89 bd
       0.16587792 0.09860144 0.08474771 -0.066953406
0002e0 52 18 e1 bd 64 79 08 be c3 59 3a be 37 f8 29 be
       -0.10990967 -0.13327557 -0.18198304 -0.16598593
0002f0 6a 22 97 be eb 8f cc bd a6 c2 4b be 80 3a 64 bc
       -0.29518443 -0.09988388 -0.19898471 -0.013929963
000300 76 83 39 bd a0 96 19 3d 82 8d 77 3d 9b 32 54 3d
       -0.045291387 0.037497163 0.060437687 0.051806074
000310 e7 39 ef 3d eb 2b b7 3d 5a a4 1e bd 94 bf 0c 3d
       0.11680966 0.089439236 -0.038730957 0.03436239
000320 45 80 ae 3e 91 84 f9 bd 3a 5b 97 3d 24 8e 48 3e
       0.34082237 -0.12183488 0.07390447 0.19585472
000330 5e ca 82 bc 00 98 23 3e fc d1 37 3e 66 25 6e 3e
       -0.015965637 0.15975952 0.17951196 0.23256454
000340 3a 6b 33 3e fe 38 0d 3e eb eb 74 3e 07 b2 c1 3d
       0.17521372 0.13791272 0.2391812 0.09457784
000350 39 df 2e bd f5 ce 81 3e 39 6a 1f 3e 9d 01 f7 bc
       -0.04269335 0.25353208 0.15567864 -0.030152136
000360 c5 94 19 bd dc 88 d9 bb 38 a9 e9 bd cf f9 1f 3d
       -0.037495393 -0.0066386294 -0.11409229 0.039056595
000370 79 c1 c0 3d 63 d9 40 3e bd 7f 68 bd a3 a7 6f bc
       0.09411902 0.18832926 -0.056762446 -0.01462737
000380 5d 31 e1 bb a9 de 84 3d d5 7a 51 3e 0f b0 86 3e
       -0.0068723396 0.064877816 0.20457013 0.26306197
000390 52 b6 db bd 6a fa d5 bc 9b be 64 3e 88 ed 79 bd
       -0.10728134 -0.026120383 0.22338335 -0.061017543
0003a0 b9 b2 01 3e d4 1e 8c 3e 8f 4c 1f be 34 e0 54 3c
       0.12665834 0.2736727 -0.15556549 0.012992907
0003b0 74 37 97 bd 8f 71 82 3c 60 a2 23 3e b1 54 78 bd
       -0.07383624 0.01592329 0.1597991 -0.060627643
0003c0 b0 3e c8 3d 5b 04 39 3e 40 62 dc 3c 33 f7 4e 3d
       0.09777582 0.18068068 0.026902318 0.050528716
0003d0 1f 7f 82 be a5 d6 c6 be 5f fb f6 3c 45 8c 36 3e
       -0.2548761 -0.38835636 0.03014916 0.17826946
0003e0 5f 52 cb bd b1 7f a2 3d 47 14 c9 3d 80 d6 02 3d
       -0.099278204 0.079345115 0.09818321 0.031942844
0003f0 a4 9f f4 bc c2 6a 2b 3e a3 77 e2 bd 5d 09 d0 3b
       -0.029861279 0.16739944 -0.11057975 0.0063487724

block1.3.conv.bias f4 [4]
000000 c5 f4 e3 bd a0 59 f3 bc 2b be 36 3e ab 95 83 bc
       -0.111306705 -0.029705822 0.17845981 -0.016062578

block1.3.BN.weight f4 [4]
000000 15 5e 99 3f 6c 05 5b 3f 79 16 54 3f 65 e5 8b 3f
       1.1981837 0.8555515 0.8284679 1.0929381

block1.3.BN.bias f4 [4]
000000 02 da 40 3e cc f7 cb bd 78 d9 8c be 29 eb a0 bd
       0.18833163 -0.09959373 -0.27509665 -0.07857353

block1.3.BN.running_mean f4 [4]
000000 16 76 c0 be f4 9b b7 bf 66 97 93 3f dc c4 7e bd
       -0.37590092 -1.4344468 1.1530578 -0.06219946

block1.3.BN.running_var f4 [4]
000000 e9 82 56 3f 99 b5 f4 3f 41 5d cc 3f 68 70 84 3f
       0.83793503 1.9117919 1.5965959 1.0346804

block2.0.conv.weight f4 [8, 4, 3, 3]
000000 07 de 89 3e aa d0 06 be 2a 71 07 3e f6 a6 a3 3e
       0.26927206 -0.13165537 0.13226762 0.3196332
000010 b8 71 9c 3e 87 ec f8 3c f4 8b 49 be 08 57 14 be
       0.3055551 0.030386223 -0.19682294 -0.14486325
000020 ce db 45 3e 06 01 8d 3c 9a d6 23 be 3c 09 05 be
       0.1932213 0.017212402 -0.15999833 -0.12991804
000030 9a c2 87 3e 85 7d 67 3e fd 36 f3 3d a3 ae be bd
       0.26515657 0.22606476 0.118757226 -0.09310653
000040 80 ea ae bd 14 6c a4 bd a8 ef 1f be cd c0 21 be
       -0.08540821 -0.08028427 -0.15618765 -0.15796204
000050 8c ad 6c bd 97 4c 04 be 3a 80 64 bd d6 ae 14 bd
       -0.057782695 -0.12919842 -0.05578635 -0.03629955
000060 46 c2 23 bd 9a c2 28 3e b7 8e 96 bd 7f 40 87 bd
       -0.039980195 0.16480485 -0.073514394 -0.066040985
000070 2d de 25 3b bb d5 92 be 01 76 b3 bd 30 f5 59 3c
       0.002530943 -0.28678688 -0.08762742 0.013303086
000080 73 5a e1 bd ab aa e4 3d 59 3d 3e 3e e8 cb 1f 3e
       -0.1100358 0.11165365 0.1857809 0.15605128
000090 08 bf 32 3e eb b4 f9 bc e2 1c b7 3b 33 61 ac 3c
       0.17455685 -0.030481776 0.00558816 0.021042442
0000a0 d7 7e 7b 3e 3b 65 2d 3d a8 f8 61 3e 46 c8 6d bc
       0.24560104 0.04233287 0.22067511 -0.014513081
0000b0 73 a3 5a be 34 15 d2 3d 60 2c cf bd aa 44 11 bd
       -0.21351413 0.102579504 -0.10115886 -0.035465874
0000c0 b3 eb 9b 3e d0 b5 2d 3e 3c 1a 81 bd 57 17 a7 3e
       0.30453262 0.16963887 -0.06303832 0.32634994
0000d0 dc b7 02 3d cc 83 32 3e 2c 32 ac 3d d4 3e 91 bd
       0.031913623 0.17433089 0.08408007 -0.07092062
0000e0 fe ec 62 bd 3b 5f 5d 3e a5 a8 d6 3c 43 e3 d9 bd
       -0.055401795 0.21618359 0.026203463 -0.1063905
0000f0 fd 57 a0 3d e0 3e 1b bb 0a 6e 82 3d 82 e2 b1 3c
       0.078292824 -0.00236886 0.063686445 0.021714453
000100 09 b3 3b 3e 84 41 b7 3e 44 4d 79 be 2c b0 45 be
       0.18330015 0.35792172 -0.24345881 -0.19305485
000110 63 10 27 3e df 41 59 3d c3 ce 7a 3e 0d e0 73 3e
       0.16314845 0.053041335 0.24492936 0.23815937
000120 b6 f6 82 bd cd ca 3c 3e 60 8e 3b 3e 69 bb d7 bd
       -0.063947126 0.18436737 0.1831603 -0.105337925
000130 6a 32 1c be 20 04 ce bd e4 4c 38 bd 9b 30 58 bd
       -0.15253606 -0.100593805 -0.044995204 -0.05278073
000140 9b f1 6a be 1b 81 47 bd 26 fc 67 bd 23 c7 74 be
       -0.22943728 -0.04870711 -0.056636952 -0.2390409
000150 28 dd be 3d 78 fd 04 be 4e 2b c3 bc c8 1b 8f 3e
       0.09319526 -0.12987316 -0.02382436 0.27950883
000160 05 73 d0 3d 47 50 c2 3d cc 2c 56 3d e2 a1 76 be
       0.10178188 0.09487968 0.052288815 -0.24085191
000170 a9 35 77 be aa e0 dd bd 83 9e 8c bd 90 eb 58 3d
       -0.24141563 -0.10833867 -0.06866171 0.052959025
000180 a3 a4 77 3e 91 88 7e 3e b4 c1 c7 3d a2 90 f3 bd
       0.24183898 0.24856783 0.09753743 -0.11892821
000190 15 80 54 bd 4c 4d c9 bd cc 33 2c 3e 7a 15 82 3e
       -0.05187996 -0.09829196 0.16816634 0.2540701
0001a0 7a 21 86 bd c1 0d fe bc f5 20 ce bc 58 65 95 be
       -0.06549354 -0.031012418 -0.0251622 -0.29178882
0001b0 75 1b 69 bd 31 4c 36 3e a6 0d 8d 3e d1 2b f2 bc
       -0.05691095 0.17802502 0.27549475 -0.029561909
0001c0 ed 5a 74 be d6 7b 58 bb b0 e5 ca bc 31 cd ff bd
       -0.2386281 -0.0033032796 -0.024767727 -0.12490309
0001d0 31 b5 d3 be 6d b5 10 3d 4d 2a be bd 9c 3b 50 3e
       -0.41349176 0.03532927 -0.09285412 0.20335239
0001e0 65 6e e2 bc 8e 6d f3 bd 74 6b d4 bd 71 9d b5 bd
       -0.02764053 -0.1188613 -0.103720576 -0.0886792
0001f0 bb 3f 6b be ff f9 00 be 46 65 37 be 6a 4f 49 bc
       -0.2297353 -0.12595366 -0.17909727 -0.012287
000200 44 f6 5f bc 2e 9f 97 bd 94 f5 9e 3d 06 59 27 3e
       -0.013669554 -0.07403408 0.07761684 0.16342553
000210 9a 9d 02 be 30 0d 18 3e 84 d0 ef 3d 65 f9 89 bd
       -0.12755433 0.1484878 0.11709693 -0.06737021
000220 3f 69 70 3e e6 64 0b 3e 55 80 e4 be 0c 43 69 be
       0.23477648 0.13612708 -0.4462916 -0.22779483
000230 7a c8 2c be 04 72 1e 3d db 31 53 3e 90 4a 81 3e
       -0.1687335 0.038682953 0.20624487 0.252522
000240 78 99 a7 3e 4a 3c ec bd 95 3f 3f bd cb f6 be 3e
       0.32734275 -0.11534937 -0.046691496 0.37297663
000250 b9 75 88 bd 15 03 02 3e 19 da e8 bc 2c 67 44 be
       -0.06663079 0.12696488 -0.02842431 -0.19179982
000260 27 71 8c be 8e 25 83 bd f3 06 cd 3d ab 47 54 bd
       -0.27430078 -0.06403647 0.10011091 -0.05182616
000270 ae 3c d8 3d eb 58 4e 3e 80 fa ce bd be b4 e3 bb
       0.10558449 0.20151107 -0.10106373 -0.0069490364
000280 a8 e3 2b 3e 26 66 17 be 4b 85 7c be 11 e2 01 3e
       0.16786063 -0.1478506 -0.24660222 0.12683894
000290 d8 fd 20 be f5 66 09 be 47 d6 7b bc c4 2e 02 be
       -0.15721834 -0.13418181 -0.015370912 -0.12713152
0002a0 4f 5c bc 3d ef aa a4 3e b3 6b d6 bd 69 67 c0 bc
       0.09197294 0.32161662 -0.10469761 -0.02348681
0002b0 87 83 87 be 55 eb c7 bd 1c c9 8e bd f6 31 8b bb
       -0.26467535 -0.09761683 -0.06971952 -0.004247899
0002c0 40 fc 26 3d 93 52 41 3d f1 8a 88 3d cc c0 54 3e
       0.040767908 0.04719789 0.06667126 0.20776671
0002d0 b4 ca 60 be 59 a2 2d 3c e7 34 1a be b1 c7 36 be
       -0.21952325 0.010597789 -0.15059243 -0.17849614
0002e0 c2 dd 3e be 54 7a 4e be f7 47 a5 3e 6f 75 8a 3d
       -0.18639281 -0.20163852 0.32281467 0.0676068
0002f0 7c 98 e3 3c aa b7 51 bd 2b b0 25 be 75 8c 01 bd
       0.027782671 -0.051200546 -0.16180484 -0.03162809
000300 11 e9 d2 bd a5 bb 89 3d 2d 77 89 3d 5f 9f 4a bc
       -0.1029836 0.067252435 0.06712184 -0.012367099
000310 34 e0 1d bd 60 08 0d 3e 21 cf 0b be 26 af 23 be
       -0.038543895 0.13772726 -0.13653232 -0.15984783
000320 03 17 3e be f6 87 93 bd db 3b ad bd 11 97 7b bd
       -0.18563466 -0.07203667 -0.08458682 -0.061423365
000330 25 5c ae 3d e5 fd e9 3c 87 4a 3a bd 8c 5e b9 bd
       0.08513669 0.02856345 -0.04548123 -0.090512365
000340 bd 85 79 bd de 5e e2 be e9 3f ee bd 84 0b 24 be
       -0.06091856 -0.44213003 -0.11633284 -0.16020018
000350 a4 a4 8d be 95 c9 78 bd 64 38 2a 3d 3c 6b 81 be
       -0.27664673 -0.06073912 0.041557685 -0.25277126
000360 d5 1f c9 3d dd 1d 56 3d 35 c4 82 3d 71 84 13 bd
       0.098205246 0.052274574 0.0638508 -0.036014978
000370 d5 f6 1e 3d c0 e0 9e bd 0a e5 97 bd 9b 05 36 3e
       0.038809616 -0.077577114 -0.074167326 0.17775576
000380 5b 9b 87 bc 3f 5c ae 3e 71 48 c8 3d 3d 36 1f 3e
       -0.016553571 0.34054753 0.09779442 0.15548034
000390 e9 2f cf 3e 15 3e 81 3d bb b0 92 3d 2c 65 0e 3e
       0.4046624 0.06310669 0.07162615 0.13905782
0003a0 97 db f4 bd 82 d4 df 3d 40 94 72 3e 86 bb 1d 3e
       -0.11955946 0.109292045 0.23689365 0.15403566
0003b0 94 77 82 3e df 7e 6c 3e 32 e0 6b 3e be 1d 9d 3e
       0.25481856 0.23095272 0.23034742 0.30686754
0003c0 10 3c 18 3d 2f 5e 17 3d dc 56 10 be 7a 7d 27 bd
       0.037166655 0.036955055 -0.14095634 -0.04089115
0003d0 9c 6c 5f bd 73 5f 2c 3e 14 45 d7 3d 19 aa 59 3e
       -0.054546937 0.16833286 0.105112225 0.21256293
0003e0 07 04 d8 bc 8d 59 0f 3e e7 79 18 3e 0b 3b 17 3b
       -0.026369108 0.13999005 0.14890252 0.0023075964
0003f0 f3 30 10 be f2 af 19 be 14 3c cc bd d9 01 3a bd
       -0.14081173 -0.15008524 -0.099723965 -0.04541192

block2.0.conv.bias f4 [8]
000000 f6 98 56 be 4a 04 61 be ba 6e 4f 3e 15 e0 54 be
       -0.20956787 -0.21974292 0.20257083 -0.20788606
000010 4a f5 6c 3d f4 f4 1d bd 15 b1 08 be e3 ba 0f 3e
       0.057851113 -0.038563684 -0.13348801 0.14036135

block2.0.BN.weight f4 [8]
000000 58 65 8e 3f 20 fe 7e 3f 3c a7 7d 3f c1 a5 83 3f
       1.1124678 0.99606514 0.99083304 1.0284959
000010 e8 5c 8e 3f 6f 1b 71 3f 89 52 59 3f f5 e3 76 3f
       1.1122103 0.94182485 0.84891564 0.96441585

block2.0.BN.bias f4 [8]
000000 b8 a1 da bd e3 2d 5f be ff 29 0c be b3 77 23 bd
       -0.10675377 -0.21794848 -0.13687895 -0.039909076
000010 56 f5 1b bc b1 65 c0 bd 85 3b da be 7c 47 92 bd
       -0.009518942 -0.09394396 -0.42623535 -0.07142541

block2.0.BN.running_mean f4 [8]
000000 85 71 05 3e ab 9d 1c 3f 3a b3 e6 bd 96 83 16 bf
       0.13031586 0.6117808 -0.112646535 -0.58794534
000010 41 62 a1 3d ae 1a 85 bf 2a 39 4f 3f 2b 54 6d 3e
       0.078800686 -1.0398767 0.809466 0.23176639

block2.0.BN.running_var f4 [8]
000000 8e 9b ef 3e 49 00 03 3f 49 36 92 3e 08 2f c7 3e
       0.46798366 0.5117231 0.2855704 0.3890307
000010 f1 99 a5 3e 08 65 5f 3f 59 2b fa 3e e0 f5 18 3f
       0.3234401 0.87263536 0.48861197 0.59750175

block2.1.conv.weight f4 [16, 8, 3, 3]
000000 7a f1 08 be 81 ac 05 3d be 3b a1 bc 63 5f a3 3d
       -0.13373366 0.032635216 -0.019681808 0.07977178
000010 0f 6b 94 3c dd 76 94 3c 7a 5d 25 bd d2 6a 88 bd
       0.018117456 0.018123085 -0.04037235 -0.06660999
000020 da 64 7b be 20 9b 80 3e a1 28 7d 3e 62 9b 11 3e
       -0.2455019 0.2511835 0.2472253 0.1421943
000030 54 a2 b3 3b 47 01 7d 3d a6 ba 72 3e 80 25 10 3e
       0.0054819975 0.061768796 0.23704013 0.14076805
000040 1a 9a 21 3d 2f 72 16 3d 04 b0 eb bc 1c c5 00 3e
       0.039453603 0.036729988 -0.028770454 0.12575191
000050 22 bd 0d 3c 97 35 a2 3c 0b e6 73 3c a0 1a 19 3e
       0.00865105 0.019800944 0.0148863895 0.14951563
000060 0d 0b e5 38 fb 76 59 3e 20 9f 30 3e 59 14 92 3e
       0.00010921629 0.21236794 0.17248201 0.2853115
000070 de 79 48 3e 80 10 7c bd 05 2b 46 3d 1b 52 d5 3c
       0.19577739 -0.061539173 0.04838087 0.026040128
000080 6e d6 f2 3d a5 94 b7 3c 67 6f d8 bb e2 d1 1f bd
       0.118573055 0.022409746 -0.006605077 -0.03901852
000090 5d 94 54 be c7 e4 0c bd 2e 23 ad bd e5 8e 92 bc
       -0.20759721 -0.034397867 -0.084539756 -0.017890403
0000a0 cf 94 cf bd 38 d4 9e 3d a9 cc b0 3d 7e 23 d5 bc
       -0.10135805 0.07755321 0.08632786 -0.0260179
0000b0 f3 fc 41 3e 7a fb d2 bd e0 37 4c be 77 a6 af be
       0.18944149 -0.103018716 -0.1994319 -0.3430669
0000c0 52 47 05 be 47 80 28 be e4 1f 68 bb 12 d0 e7 3d
       -0.13015488 -0.16455184 -0.00354194 0.11318983
0000d0 bd c6 a8 3e 6d 0e af 3e b2 a2 2b 3e f2 a1 6b 3e
       0.32964125 0.34190693 0.16761282 0.23010996
0000e0 4c bb 1a bb e2 41 46 3e 87 12 eb 3d 11 61 e4 3d
       -0.0023610173 0.1936107 0.11478143 0.111513264
0000f0 84 9d 40 3e 7b e4 3b 3e b9 90 c0 3d 5a 6f 9a 3d
       0.18810087 0.18348877 0.09402604 0.0754077
000100 90 b6 db 3d 86 cb 53 3e dc bb 61 3e 22 78 f8 3d
       0.107281804 0.20683107 0.22044319 0.121322885
000110 72 5d 72 3c ab a5 0d 3e 2a fc 4f 3d be a0 e2 3d
       0.014792787 0.13832729 0.05077759 0.110658154
000120 af 43 24 3d 72 35 c2 3d 35 06 94 3e 37 b0 07 3c
       0.04010361 0.0948285 0.28910986 0.008281759
000130 01 02 08 bd a5 6b 48 3d 85 36 73 bc ed 78 70 bb
       -0.033205036 0.048930783 -0.014844541 -0.003669317
000140 8a 6f a9 bd 7f d1 d4 3c 42 24 62 bc 2c 44 c7 3d
       -0.082732275 0.025978802 -0.01380259 0.097298
000150 ce 53 2a be 65 b5 ac bd b2 d4 04 3e ef d7 05 3d
       -0.16633531 -0.08433036 0.12971762 0.032676633
000160 cd f8 c9 bd 5c ea 75 3e a9 ba 75 3d 6d 57 f8 3d
       -0.09861908 0.24015182 0.059992466 0.1212605
000170 5e 1a d3 bd 22 92 85 3e c8 90 78 3e 70 df a1 3d
       -0.103077635 0.26088053 0.2427398 0.079039454
000180 1c ef 8a 3e d5 5a 06 3e e9 12 bc 3c 8a 28 7f bc
       0.2713555 0.13120587 0.022958236 -0.01557363
000190 b0 e1 3a bb aa cc 76 bd d4 ed a0 3d 00 3f aa bd
       -0.0028515868 -0.060253777 0.07857862 -0.083127975
0001a0 85 52 2a be 8a ea 40 3e af b6 e4 3d 6c e4 e5 bc
       -0.16633041 0.1883947 0.11167657 -0.028063022
0001b0 af 34 15 be 6f 9d f7 bd d0 ae 62 3d e5 ca c2 bc
       -0.14570878 -0.12090575 0.055342495 -0.023778388
0001c0 b4 75 3c 3e a7 88 ca bd 63 18 be 3d f1 cd f8 3d
       0.18404275 -0.098893456 0.09281995 0.12148655
0001d0 bc 89 44 bd 82 7e 87 3e 95 f0 6f 3e 13 0f 7d 3e
       -0.047982916 0.26463705 0.23431619 0.24712782
0001e0 11 56 09 3e 92 c2 00 3e d2 66 33 3e 70 9c 0f 3e
       0.13411738 0.12574223 0.17519692 0.1402452
0001f0 17 80 56 3d de 47 b1 3d 07 d8 81 be 1e 78 8d be
       0.05236825 0.08656286 -0.25360128 -0.27630705
000200 e9 29 a2 be 0e e3 0b 3e 53 2b 57 bc dd b7 01 bc
       -0.316726 0.13660833 -0.013132888 -0.007917372
000210 ce 1b e1 3d 97 91 42 3e 2a 9f 04 3d 3e 68 76 be
       0.109916314 0.1900085 0.032378353 -0.24063203
000220 2f 90 9c be 04 30 b7 bd 31 41 cc bc d2 66 d7 bd
       -0.30578753 -0.08944705 -0.02493343 -0.10517658
000230 35 cf 54 bd 19 04 56 be 41 db 01 be 22 f1 0b 3d
       -0.05195542 -0.209 -0.12681295 0.03416551
000240 97 1c f1 3e 13 8b a6 3e a0 79 ea 3e 65 3e 6a bd
       0.47092125 0.3252798 0.45795918 -0.05718841
000250 c9 bb 8c bc 5c a7 44 bd 71 b8 bf bd 90 54 f9 bd
       -0.017179387 -0.04801117 -0.09361351 -0.12174332
000260 e2 1c f8 3b 15 5a 14 3e 5c bb ab 3d e2 1d b1 3c
       0.0075718025 0.14487489 0.08385345 0.021620695
000270 59 15 44 be 64 d0 31 be 84 8f 34 be 47 cb 98 3c
       -0.19148768 -0.17364651 -0.17632872 0.018651618
000280 ea e1 0f bd 58 56 16 3d b1 3e 35 bd 27 ac ae 3d
       -0.035127558 0.036703438 -0.04424924 0.08528929
000290 c2 32 7c bd cb 33 95 bd e2 71 c4 3d 9e 77 1b 3e
       -0.061571844 -0.07285269 0.09592034 0.15182349
0002a0 fa b2 45 bd 2e e3 08 bc f2 78 11 3e c1 a5 26 3e
       -0.04826639 -0.008354945 0.14206293 0.16274168
0002b0 f4 4f 91 3d 5d d0 8f 3d 73 c7 5f 3d 5d 11 34 be
       0.07095328 0.07022164 0.05463357 -0.17584749
0002c0 e6 bd 61 be b3 02 17 be 28 e1 28 be 5d a4 90 be
       -0.22045097 -0.14747123 -0.1649214 -0.282504
0002d0 a0 1a 67 3e 07 d8 a3 3d 0d 62 d0 3e 76 2f 5d 3d
       0.2256875 0.08000188 0.40699807 0.05400034
0002e0 f4 dc 0e be 37 51 d5 3c 75 7e c8 bd e5 7f a2 bb
       -0.13951474 0.026039703 -0.09789745 -0.004959094
0002f0 95 b9 3d 3d 73 ad 53 be f4 7c a4 3d 67 31 a6 3d
       0.046319563 -0.20671634 0.080316454 0.081148915
000300 26 3d cc 3d 26 c2 a8 bc 93 9f 1b 3e 72 71 9b bd
       0.09972601 -0.02060039 0.15197591 -0.07589997
000310 8b b7 57 3b db 54 94 3d 9b 5f 5d be 6c c6 84 be
       0.0032915797 0.072427474 -0.21618502 -0.25932634
000320 9e 6c 9c bd ff ae 9b 3c 11 21 1a 3d 63 99 af 3d
       -0.076379046 0.019004343 0.03762919 0.08574178
000330 8f 49 0e be a4 cf eb 3c dd 16 ed bd 8d fc f8 3c
       -0.13895248 0.028785534 -0.115766264 0.030393863
000340 f3 c0 9e bd ed fc b4 bc 03 ad f3 bd 5b 4a 07 3e
       -0.07751646 -0.02209326 -0.11898234 0.13211958
000350 30 10 5d 3d 58 aa 53 3d 10 8f 69 3d 8a 66 94 3d
       0.053970516 0.051676124 0.0570212 0.0724612
000360 74 59 cd bc d8 f3 11 3d 50 56 d4 bc 7f fb 2b 3d
       -0.025067069 0.03563294 -0.025920063 0.041987892
000370 61 56 3d bd 50 2a 1d 3d 5a c5 e5 3d 00 cd 03 3e
       -0.046224955 0.03837043 0.112192824 0.1287117
000380 da 8a 41 be 3c 96 a2 3e f0 55 04 3e 2f 64 d1 bc
       -0.18900624 0.31755245 0.12923408 -0.025560467
000390 3a 42 a6 3e f7 a8 59 3b 9a e5 8b 3d b3 48 6c 3e
       0.32472402 0.0033212283 0.068309024 0.23074608
0003a0 f6 92 60 be 4e 37 58 be 21 10 94 bd 46 e4 28 bd
       -0.21931061 -0.21114847 -0.07229639 -0.041233324
0003b0 72 f4 24 be e5 09 10 3d 58 42 4c 3e 76 69 05 3e
       -0.16108873 0.035165686 0.19947183 0.13028511
0003c0 28 5f 81 3e 10 b8 a6 3e 64 e1 17 3e 54 04 62 3e
       0.2526791 0.32562304 0.14832073 0.22071964
0003d0 84 9f a7 3d 92 4c 3c bd a3 54 27 3e f5 13 19 bc
       0.08184722 -0.04597146 0.1634088 -0.009343137
0003e0 da 22 1c bc f5 91 fd ba f2 af 71 3d 7a b2 a1 bc
       -0.009529794 -0.0019345867 0.059005685 -0.019738425
0003f0 59 67 45 bc 22 d0 31 bc 6a 7c d3 3d c9 43 39 3d
       -0.012048566 -0.010852845 0.103264645 0.04523066

block2.1.conv.bias f4 [16]
000000 33 8b d1 bd 36 07 06 3d 9e d9 78 bd 11 8b e8 3d
       -0.10231628 0.03272172 -0.06075441 0.1135465
000010 96 50 06 3e 60 fb 0d 3d 24 26 56 bd 3b a8 52 bd
       0.13116679 0.034663558 -0.052282467 -0.05142997
000020 d0 8c 8f 3c 3a 72 4e 3d f6 03 94 3c 95 82 b1 3d
       0.0175232 0.050401904 0.018068295 0.08667485
000030 aa a2 c1 3d b5 a5 0b 3e 1d 2a 0d be 79 a4 44 bd
       0.09454854 0.13637431 -0.13785596 -0.048008416
