model/result/0513 1513.pt (torch, 79133 bytes, 98 tensors)

input_conv.conv.weight f4 [4, 1, 3, 3]
00000000: 6c4a adbd 1d69 7ebe dc7d 5e3e 4bc6 4b3e
00000010: 4f75 b1be d5a2 e3bd 2b26 6a3e 4995 0cbe
00000020: 6c2b 453e b4c7 a83e d8e1 96be 228e 9bbd
00000030: 7af7 b5bb 2463 cbbe ead8 80be ab8b 2f3e
00000040: dd76 85bc afbb 753d bc33 07be d1ad dd3d
00000050: 6cb1 a2be fa6e 763d a0ef 653b 4263 c0bd
00000060: aeb6 f53e 56e5 ce3e a680 09be b6f1 fcbc
00000070: ff40 55bd dd0f bb3e 2c6d ee3d 5067 ca3e
00000080: fecc a43e 2a58 9dbe 4d42 a8be 886e 51bd
-0.084614605 -0.24844785 0.21727699 0.19899862 -0.34659812 -0.11115042 0.22866122 -0.13728823
0.19254845 0.3296486 -0.2946918 -0.07595469 -0.005553183 -0.39724076 -0.25165492 0.17143123
-0.01629203 0.059993442 -0.13203329 0.108241685 -0.31775987 0.06016443 0.0035085455 -0.09393932
0.47990936 0.40409344 -0.13427982 -0.030876976 -0.05206394 0.3653554 0.11641917 0.39531946
0.32187647 -0.30731326 -0.32863083 -0.0511308

input_conv.conv.bias f4 [4]
00000000: a5f3 bbbd 93aa 753e 4688 dabc 7cfb f33e
-0.09177331 0.2399085 -0.026676308 0.47652805

input_conv.BN.weight f4 [4]
00000000: 56fb 533f 1851 4b3f c05b 853f 0cce 943f
0.82805383 0.79420614 1.0418625 1.162538

input_conv.BN.bias f4 [4]
00000000: 4501 3c3e 294c b1be f101 233d f171 093e
0.1835986 -0.34628418 0.039796773 0.13422371

input_conv.BN.running_mean f4 [4]
00000000: ff7f c1bd ebcc 713e 9467 1ebd 4c8d f83e
-0.094482414 0.23613326 -0.038673 0.485453

input_conv.BN.running_var f4 [4]
00000000: 52df 563d 6aaa 943e d07d 613e 77f3 843e
0.05245907 0.29036266 0.2202065 0.25967

block1.0.conv.weight f4 [8, 4, 3, 3]
00000000: 3f19 34be 6e4b 75bd 1cea 78be ff34 2fbe
00000010: 664c cebd 7ac9 963d e9c5 59bd 92ce 823e
00000020: f64b 8a3d cbd7 c73c e81d 8b3e 040e 553e
00000030: ffd7 9d3d 3db2 7c3e dc2f 7fbc 007e 8bbc
00000040: fc4a 823d ad2c f83d 08ff 153e f5bf 453e
00000050: 289c 31be 1b06 453e f7af e33d d6bf a5bc
00000060: ab12 96bc bd82 b33d eaf9 32be 77cc e63d
00000070: 6a73 05be c628 7abe 8104 163c f306 413e
00000080: 8259 5c3e d62c 96be 34c9 aebe 5925 45bd
00000090: 8b2e 573e 3b89 93bd f541 043e 6014 37bc
000000a0: f716 143e ef23 fabd bc33 cdbd 3663 a13d
000000b0: 65d7 fe3c eff1 553e bbf9 62be bd2b a1be
000000c0: c005 f33d 3d73 a7bd 4a2b 4cbd 3416 fbbb
000000d0: 1538 fc3d be0b 8bbd a38a ebbd a2cf 18be
000000e0: a815 ad3d c1b2 263d fe32 07be 12f6 26bb
000000f0: 814f d7be bdd8 64be 94d4 28be b9b2 383d
00000100: ee45 be3c 0b08 923d c322 59be edab 3a3e
00000110: e188 b13e a5a7 41be 5143 363d 9bf5 803e
00000120: 5192 e73d 8784 193e c8b1 883e 87bf 05bd
00000130: 9682 4c3e bb8d d5bc caaf 7fba 1c35 4f3e
00000140: 0eb8 d73d 983a 88bc c35c 2fbd f669 a23d
00000150: 4b6b 67bd 658b 9dbe c5b5 89be f356 c03d
00000160: 2360 4bbe 36ed acbd 2654 e73d a1bb 313e
00000170: b171 da3e b3fb 18be 526b abbd ccb5 3d3d
00000180: 18ad 233d f443 163e 00c9 7f3e d6f4 0d3e
00000190: 1523 1e3e efbc da3d 8dbe 8d3d 463e 0f3e
000001a0: 3e4b f63d d533 05be 90ea 13bd a347 48be
000001b0: 5097 0fbe a1b7 a1be 68c7 afbe 4ce7 bb3d
000001c0: 9471 10be 78cd 2f3e d46b f8bc bc6f e6bd
000001d0: d824 dabd 79bd 04be 7f99 5e3c 714d 623d
000001e0: fc34 92bd 9fa7 963d 8957 de3d 7294 4bbd
000001f0: 7058 ef3d c316 7e3e acc0 9ebe 2e0c 30be
00000200: 11c5 3a3e c4ed 1d3e 21c8 723e 376c 433d
00000210: 9897 dd3c b726 1ebd d518 09bd e4f6 11be
00000220: 76b8 afbd 4faf e63d ccb0 983e 8071 6c3e
00000230: 6ddc 583e b5c2 a73d f303 a23d f0a8 48be
00000240: f270 a0be 5e4a 47be 30bb da3d 0ff2 4fbe
00000250: 6ea5 3e3e 9e87 e1bc 06b2 49be 183e c23d
00000260: 0930 d7bd fb92 083e 29af fb3c 90f2 12be
00000270: 82cf b0bd 9edb edbd 23d2 63be 536f bbbe
00000280: f7ff c3be 8c8d 46be e2d7 803d 897f 293e
00000290: d2dc 563e fede 2a3e 2499 22bb 459b 4e3d
000002a0: ee24 733e 6384 543d 7698 a2be 0419 7b3e
000002b0: 78bf b1bd e556 18be a817 8cbd 7e84 95bd
000002c0: 5560 1ebe 9901 873e 6bc6 64be c0f8 903d
000002d0: a591 023e 97fa b23e 0f2a 4abd a762 1e3e
000002e0: 6e8c c13d 7674 b6bc 70ed c6bd 01b6 7ebd
000002f0: 7841 8fbe ff51 5a3e 45d2 0a3d 95f3 aa3d
00000300: a941 573d c235 acbd 1311 bdbd ea46 3ebd
00000310: 8190 4bbe 4df0 62bb 4f9c e13d 4ef9 9abe
00000320: aa0d 39bd b6b6 e63d db11 e5bd 8265 083e
00000330: d38f 213e 54ad 433d b7b4 0cbd deb8 83be
00000340: 1d5d dcbc 8f8a d13c 02a3 b3be a3e1 71be
00000350: ba82 533e bc7c 3b3c cb5b 863e 7910 a33c
00000360: e704 16bc c753 7fbe ca94 0fbe 063c df3b
00000370: ebac cb3b cb61 d43d 9686 a1bd fbc2 91bd
00000380: 9689 583e 2fc2 80bd a56b 3ebe 0b56 abbd
00000390: 15ad 2fbd e763 a53d 7e00 8dbc 1454 3ebe
000003a0: de7b 5cbd f930 93bd de35 b13d a23d fb3d
000003b0: d542 d73d dfdc 0d3d 9bdc 8bbd 8c5e acbb
000003c0: 835e ccbe d768 3ebe 6c8f 26be 0763 7e3e
000003d0: c7db 86bd 267f 14be abd9 843e 1f9e 2fbe
000003e0: c46e 3dbd 8e76 043f 21e7 fcbc 7210 b5bd
000003f0: 370e bb3d ba5f 583d 2c0e 853e f516 73bd
-0.17587756 -0.05988639 -0.24308056 -0.1711006 -0.100731656 0.07362647 -0.053167257 0.25548226
0.0675277 0.02439489 0.27171254 0.20806128 0.077072136 0.24677368 -0.015575375 -0.017027855
0.063619584 0.12117896 0.14648068 0.19311507 -0.17344725 0.1924061 0.11117547 -0.020233076
-0.018319448 0.08765171 -0.17478147 0.11269467 -0.13032308 -0.24429616 0.009156347 0.18850307
0.2151852 -0.29331082 -0.3413788 -0.04813132 0.21013848 -0.07203909 0.12915786 -0.011174291
0.14461885 -0.12213885 -0.10019633 0.07880251 0.031108567 0.20893072 -0.22165577 -0.31478682
0.11866331 -0.08176277 -0.04984597 -0.007662559 0.12315384 -0.06789349 -0.11501052 -0.14922956
0.08451396 0.040697817 -0.13203046 -0.002547626 -0.42052844 -0.22348304 -0.16487342 0.04509232
0.023226704 0.0713044 -0.21204667 0.18229647 0.34674743 -0.18911608 0.04449779 0.25187382
0.113072045 0.14991961 0.26698136 -0.032653358 0.1997169 -0.026068559 -0.00097536726 0.20235103
0.105331525 -0.016629502 -0.042813074 0.07930367 -0.056498807 -0.30770412 -0.26896492 0.09391584
-0.19860892 -0.08443682 0.11295347 0.17356731 0.42664865 -0.14939766 -0.08370079 0.046315953
0.039959997 0.1467436 0.24979019 0.13862929 0.1544307 0.106805675 0.0692111 0.13988599
0.1202607 -0.13008054 -0.036112368 -0.19558577 -0.14022565 -0.3158541 -0.34331822 0.09174976
-0.14105827 0.17168224 -0.030324854 -0.112517804 -0.10651559 -0.12962903 0.013586401 0.055249635
-0.07139012 0.0735619 0.1085654 -0.049702115 0.1168679 0.2481337 -0.31006372 -0.17192146
0.18239237 0.15422732 0.23709156 0.047710624 0.027049825 -0.03861114 -0.033470947 -0.14254338
-0.08580105 0.11263906 0.29822385 0.23090172 0.21177836 0.08191434 0.079109095 -0.19595695
-0.3133617 -0.19461963 0.106802344 -0.20307182 0.18617794 -0.027530488 -0.19696817 0.094845
-0.10507209 0.13337319 0.030723171 -0.14350343 -0.08633329 -0.11614154 -0.2224813 -0.3660837
-0.38281223 -0.19389933 0.062911764 0.16552557 0.20982674 0.16686627 -0.0024810517 0.050441045
0.23744556 0.051884066 -0.31756943 0.24521261 -0.08679098 -0.14876898 -0.068404496 -0.073006615
-0.15466435 0.26368406 -0.22341315 0.07078695 0.12750871 0.3495681 -0.049356516 0.1546732
0.09450613 -0.02227233 -0.09713256 -0.06218529 -0.27979636 0.21320342 0.033891935 0.08347241
0.052552853 -0.08408691 -0.09231772 -0.046454348 -0.19879343 -0.0034628094 0.110161416 -0.3026833
-0.045179047 0.11265318 -0.11185046 0.13319972 0.15777521 0.04777272 -0.03435203 -0.2572698
-0.026899869 0.025578765 -0.35085303 -0.2362123 0.20655337 0.011443313 0.26241907 0.019905316
-0.009156442 -0.24934302 -0.14021602 0.0068125753 0.006215682 0.10370215 -0.07886998 -0.07117268
0.21146235 -0.062870376 -0.1859575 -0.08366021 -0.042889673 0.080756955 -0.017212149 -0.18586761
-0.053829066 -0.07187075 0.086528525 0.12267615 0.10510794 0.034634467 -0.068291865 -0.0052602943
-0.39915857 -0.1859468 -0.16265649 0.24842463 -0.06584888 -0.14501628 0.25947317 -0.17150162
-0.046248212 0.517434 -0.03087193 -0.08841027 0.09133571 0.052825667 0.25987375 -0.059348065

block1.0.conv.bias f4 [8]
00000000: e752 8f3d a648 09be 5ac6 e6bd 1e4a b33e
00000010: d593 2c3e 96b2 dcbd 7385 44be 755d 42be
0.06998234 -0.1340662 -0.11268301 0.35017484 0.16853268 -0.1077625 -0.19191532 -0.18980964

block1.0.BN.weight f4 [8]
00000000: 154b 703f 2b0f 873f fa33 793f abad 853f
00000010: ee03 723f 644c 6b3f e21a 833f b3d8 8d3f
0.93864566 1.0551504 0.97344935 1.0443624 0.94537246 0.9191344 1.0242579 1.1081756

block1.0.BN.bias f4 [8]
00000000: 42cd 01be 38cd d2bd d99d 16be f518 babe
00000010: 03f3 5cbd 2e14 89bd 56a2 cbbd 407c da3d
-0.12675956 -0.102930486 -0.14708652 -0.36347166 -0.05394269 -0.06693302 -0.099430725 0.1066823

block1.0.BN.running_mean f4 [8]
00000000: 45b6 46be 906b 5ebe 8a4b ae3f e9c3 933e
00000010: 6741 b7be a213 35be 16aa cdbe 645c 1f3e
-0.19405468 -0.2172072 1.3616803 0.28860405 -0.35792086 -0.1768327 -0.40168828 0.15562588

block1.0.BN.running_var f4 [8]
00000000: 895e c83e d390 233f d54b 873f 35f7 293f
00000010: 7a24 403f bdd8 033f fbc5 ee3e 6b5f f63e
0.39134625 0.6389286 1.0570017 0.66392833 0.7505566 0.5150259 0.46635422 0.48119673

block1.1.conv.weight f4 [16, 8, 3, 3]
00000000: 2aba 95be 4b36 d8bd 613d a2be 008c 75be
00000010: a2f5 3e3b 4bf1 98be 0146 ba3c 50c1 5a3e
00000020: 8660 fabc 3999 343e e868 803b e1c4 b0be
00000030: 7bac aa3c 9059 18be 33d0 ad3c 5759 84bd
00000040: d3de 803d 0c50 a0bc 3513 483e 7556 c1bc
00000050: 311a 3abe 0cc7 083e bb95 52be 60b8 9fbe
00000060: 35b6 6f3e 1122 f13d 40c7 e33c 0dd4 313e
00000070: 8daf 2d3e cd78 7dbd 5510 8e3e 52c9 393c
00000080: 8ed1 0bbd 65a7 723e d689 0d3c e62b 0dbe
00000090: e99f 50bc b2b8 0f3e ba0a 583e 22bd 8b3e
000000a0: 9e7f 9e3e 54e6 4c3d 6056 f63d eb9b 803e
000000b0: 8590 843c 2143 043e 3c38 ba3c 9ab7 123d
000000c0: 0ad9 eebd f748 5ebe c0b8 3dbe 1f70 10be
000000d0: a796 87be 9cb3 5fbe bcf2 483c cff6 65bd
000000e0: 2a36 1d3e 1818 3dbc f2a1 f3ba 90f5 063d
000000f0: 3433 8bbb 9f52 833e b54a 833e 1a00 e53d
00000100: 21a0 41bd 73c0 c6bd 8932 153d bef7 a63d
00000110: 529b e43d f3a8 4bbd 3d5c 86bc cfd0 953d
00000120: 910b 32be 8c4d 8b3e cb75 7ebe b12c febc
00000130: de78 ff3d 3f38 dfbd f11e 693e 6179 b63d
00000140: 1074 afbe dff1 2a3e faca e83d c951 65be
00000150: a292 6b3d 32b5 d2bd 78bd 12be 19bc 6bbd
00000160: b2ef 1abe eec9 aabd 0cc7 80bd 1ebf 5abe
00000170: e289 90be 4c44 7e3d 8c7a c13d 36f6 e4bc
00000180: eb54 493e f032 55bd 54e1 65bd af99 df3d
00000190: 0aaf ba3d c91a 8b3d 7e43 503e 3b06 ef3d
000001a0: 4557 853e 96b1 dfbd f325 9bbd 5bc5 323e
000001b0: bf0f 503e 5de7 013e 0d34 acbc 28d9 3a3e
000001c0: 7ec3 2e3e 0219 09bc c4ce 0f3c fb70 803e
000001d0: ccb9 d4bd 5920 b53d bee8 8b3e 5ef3 bbbe
000001e0: 4589 09bc 3f30 de3d 0a84 06be d338 0b3a
000001f0: 3a84 603e 597a f93d 139b 6e3d 6074 e5bc
00000200: 79d2 8bba 73c3 4dbd 5f34 ac3d edee ab3c
00000210: 4a84 84bd 5129 4c3e c913 8f3b 90d9 1c3e
00000220: b4f4 29be db6b 9fbe 101e 673e 59ee 52be
00000230: 72ad 4fbe a114 9b3e edaf cb3d 6444 9dbd
00000240: 579b 003e 62e8 20b9 c98e 02be 971d c2bd
00000250: 9ce5 a03d 10ba 9e3c fdaa 1abe d134 61bd
00000260: 88e8 b93d 495f 8fbe 7ad6 c6be 6e93 87be
00000270: d58e fb3c 4fc6 20be 03a4 29bd 7076 6ebe
00000280: 3fa1 1bbe be99 b8bd ef88 43be 14d5 3cbe
00000290: 73f7 dfbd 7be6 0a3e 4aeb 853c 4af1 83bd
000002a0: 449b 433e 2317 503d 9eb6 003e 940e fbbd
000002b0: 1416 d5bd 35b6 a7be ea8e 3bbe 5daf 843b
000002c0: b4f4 b7bd 5e18 3bbe b372 53be 3751 0cbf
000002d0: 8d1c 3f3e 4b2a a5bd e84e 2dbd a830 863d
000002e0: c903 0dbd 9bd2 55be 338d 6d3d 21cc 573e
000002f0: a2e6 903d 023f aebc 11f3 123e 4611 aebc
00000300: 8cd6 c5bd cc99 f1bd cfce 3fbe 89c0 22be
00000310: d56c 12be 168a 88bd 47fa 2abd a36e adbe
00000320: 2121 703e ac83 083d f981 5bbd 1e2a a73d
00000330: 63fb ebbd 7177 81bd 4c53 e4bd 2765 bd3b
00000340: 038f 6cbe 99f7 53be 9b0a 0f3d 025a d83d
00000350: eb5d c03d 83aa f03d e949 6a3e 51ea 213e
00000360: 396c 2abe cb80 95bd 34f3 813d bb1d ffbd
00000370: 65a1 fcbd 06a9 15be 297f 843d 0e6b 853d
00000380: 3775 62bd 7473 453d de79 fb3a 17df 61be
00000390: 7cb9 cebc fec0 313e bbb9 a2bc 6561 0ebe
000003a0: 5008 8dbb ea3d 3f3b f3b7 47be 1aa0 0e3c
000003b0: d249 81bd 7dfe a8bd 4cd3 a33c 554d 063e
000003c0: 4bea dabe 3e12 32be 5224 d83d 2d9b 393e
000003d0: 20bf 4d3e b58f 923e b53c 1a3e e19a c63d
000003e0: 2f94 dd3b 5b8f 5b3e 434b f23d 7598 45bc
000003f0: 6260 4dbe e71d 08be 34e7 21bc 1f7b 3e3d
-0.29243594 -0.105572306 -0.31687453 -0.23979187 0.0029138108 -0.29871592 0.022738459 0.21362805
-0.030563604 0.17636575 0.003918756 -0.34525207 0.020834198 -0.14877915 0.021217441 -0.06462353
0.062925 -0.01956942 0.19538577 -0.023600796 -0.18174054 0.1335718 -0.2056493 -0.31195354
0.2340935 0.11774076 0.02780497 0.17366047 0.16961499 -0.061882783 0.27746835 0.011339502
-0.034135394 0.23696668 0.00863882 -0.13786277 -0.012733438 0.140353 0.21097842 0.27292734
0.3095674 0.050024346 0.120281935 0.25118956 0.016182194 0.12916233 0.022731893 0.035819627
-0.11662491 -0.21707521 -0.18527508 -0.14105271 -0.26482126 -0.2184586 0.012264904 -0.05614358
0.15352693 -0.011541389 -0.0018587692 0.03294903 -0.0042480472 0.25648972 0.25642934 0.1118166
-0.04727185 -0.097046755 0.036425147 0.08152722 0.111624375 -0.04972167 -0.016401405 0.07315218
-0.17387225 0.272076 -0.24849622 -0.03102717 0.124742255 -0.108994 0.2276571 0.0890987
-0.34268236 0.16693829 0.1136684 -0.2239448 0.057512887 -0.102884665 -0.14330089 -0.05755243
-0.15130499 -0.08339296 -0.06287965 -0.21361968 -0.28230196 0.06207685 0.09447202 -0.027949434
0.196613 -0.05205053 -0.056123093 0.10917985 0.09115417 0.06792218 0.20338246 0.1167111
0.26043144 -0.10922544 -0.075755976 0.17458098 0.20318507 0.12685914 -0.021020913 0.18246901
0.17066762 -0.008367779 0.008777324 0.25086197 -0.103870004 0.088440605 0.27326006 -0.36709112
-0.008394544 0.10849046 -0.13136306 0.00053108967 0.2192544 0.12181539 0.05825336 -0.028009593
-0.0010667584 -0.050235223 0.084084265 0.020987952 -0.06470545 0.19937636 0.0043663722 0.15317369
-0.16597253 -0.31136975 0.22570062 -0.20598735 -0.20281008 0.30289176 0.099456646 -0.0767906
0.12559257 -0.00015345358 -0.1274978 -0.094783 0.078562945 0.01937583 -0.1510429 -0.05498201
0.09077555 -0.28002384 -0.38835508 -0.26479667 0.030707756 -0.15700649 -0.04141618 -0.23287368
-0.15198229 -0.09013699 -0.19095205 -0.18440658 -0.10935869 0.13564484 0.016347546 -0.064425066
0.19102198 0.050803315 0.12569663 -0.1225864 -0.10404602 -0.327562 -0.18316236 0.0040492252
-0.0898222 -0.18271014 -0.20649223 -0.54811424 0.18663235 -0.08064707 -0.04231158 0.06552249
-0.034427438 -0.20881121 0.057995986 0.21073963 0.0707524 -0.021270279 0.14350535 -0.021248471
-0.09660062 -0.117969126 -0.18731235 -0.15893759 -0.14299329 -0.06666963 -0.04174259 -0.33873472
0.23450138 0.033328697 -0.05359075 0.0816233 -0.115225576 -0.0632161 -0.111487 0.0057798806
-0.2310143 -0.2069992 0.034922224 0.10564043 0.093929134 0.117512725 0.22879757 0.15812041
-0.16642846 -0.07299956 0.063452154 -0.124568425 -0.12335471 -0.14615259 0.064695664 0.0651456
-0.055287566 0.048205808 0.00191861 -0.22057758 -0.02523493 0.17358777 -0.019863954 -0.1390434
-0.0043039694 0.002918119 -0.19503765 0.008705163 -0.06312908 -0.08251665 0.019998215 0.13115437
-0.42756876 -0.17389771 0.105538025 0.18125601 0.2009244 0.28625265 0.1506222 0.096975096
0.0067620496 0.21441405 0.11830761 -0.012060274 -0.20056298 -0.13292657 -0.009881783 0.046504136

block1.1.conv.bias f4 [16]
00000000: 3b03 1cbd 1fe3 c4bd a4fc 0ebe 45d1 a13c
00000010: 4b90 2bbe bb4f 903d eb23 63be dbda b83d
00000020: 8cfc 65be 64af 3fbd c27a f5bc 7b99 b13e
00000030: affc 403e 2abb 28be bf97 023d a240 4d3d
-0.03808902 -0.096136324 -0.13963562 0.019753108 -0.16754262 0.070464574 -0.2218167 0.09026118
-0.2245962 -0.046798125 -0.029965762 0.3468741 0.18846391 -0.16477647 0.031882998 0.050110467

block1.1.BN.weight f4 [16]
00000000: 5d9b 6b3f b4db 7b3f bf81 943f 46e3 7e3f
00000010: 2daa 843f fcee 4d3f b409 853f 004d 693f
00000020: 20c8 953f 2fb4 863f 4cfa 923f 3751 703f
00000030: d815 963f dcce 5c3f e2ea 843f c54b 513f
0.9203394 0.98382115 1.1602095 0.9956554 1.0364434 0.80442786 1.0393586 0.9113312
1.1701698 1.0523738 1.1482635 0.93873924 1.1725416 0.8625314 1.038418 0.8175624

block1.1.BN.bias f4 [16]
00000000: 9fd2 d7bd be46 a2be 4949 aebd 8711 1cbc
00000010: 3702 46bd a4a5 cdbe 9114 42be 6ed0 4ebe
00000020: 0d81 d53d 8f32 06be c204 323d 7544 23be
00000030: fdef 04be 42f3 a1be 017f 20be 7295 8fbe
-0.1053822 -0.31694597 -0.08510072 -0.009525663 -0.048341956 -0.40165436 -0.18953158 -0.20196697
0.10425005 -0.13105224 0.04346157 -0.15944083 -0.12982173 -0.31630903 -0.15673448 -0.28043705

block1.1.BN.running_mean f4 [16]
00000000: 2ef1 7c3e 78ee 483e 884f 9dbf 06e7 5fbf
00000010: d973 01bf 0ace 3fbe e2d1 7abe 75f4 033f
00000020: c888 c0bf 6973 60bf 5605 91bf a0f7 193f
00000030: df3b e83c 5e73 9a3f 649b 4bbf e5ed 5b3e
0.24701378 0.19622219 -1.2289896 -0.8746189 -0.50567394 -0.18730941 -0.24494126 0.51544887
-1.5041742 -0.876761 -1.1329753 0.6014347 0.028348861 1.2066457 -0.7953398 0.21477468

block1.1.BN.running_var f4 [16]
00000000: c135 2440 54c8 643f 5fdf 0d40 4894 743f
00000010: 820b 8a3f dc39 5f3f 91da 743f 2903 cd3e
00000020: cccf 7740 9663 9a3f f2e5 a63f 5c5c 0c3f
00000030: 1abd 153f f021 e03f 4075 1d3f 393c 583f
2.5657809 0.89368176 2.2167585 0.9553876 1.0784762 0.8719766 0.95646006 0.40041474
3.872058 1.2061641 1.3038924 0.5482843 0.5849167 1.7510357 0.61507034 0.8446689

block1.2.conv.weight f4 [8, 16, 3, 3]
00000000: 4416 3d3d e027 273e e35d db3d d01e 823e
00000010: 65fa 953e 42ee 89bd 45dd ce3d 5311 1a3e
00000020: fa68 96bd 78d5 46be 2242 15be 82cd 483d
00000030: b421 d33d 17e6 eb3d 9449 ae3d 020f f4bc
00000040: be03 bd3d cb4c d4bd 2e1e acbe 6e1c 4dbc
00000050: f77a 5f3e 2617 84be 0760 033e fcb7 133e
00000060: a173 15be 568e b33c bce0 0fbd 77bc 723d
00000070: 4fcf 8d3d 4c44 d9bb 37a9 f7bd d431 53bd
00000080: 2dbb f63d 623c e73d 342f b93d c21a f43d
00000090: c04b 9d3c 88ad 6fbb 7b44 33bd a2aa 873d
000000a0: addb 783c d761 153e cd45 8b3d aa61 6dbe
000000b0: 5a76 a0bd baa6 07be b37b bf39 b02d 20bc
000000c0: adf5 133d 2095 873d c0ab 383e d17a 99be
000000d0: 962e e9bd b35c c4bd d2f7 c33e 2ccd 133d
000000e0: 0023 ddbb c48b c53e f494 e53d 6448 4dbe
000000f0: 7967 8d3d f7a1 1f3e 7480 e1bd af84 313d
00000100: 4179 d93c 4913 85bd 8de3 163e 6e7e 2c3e
00000110: 1a42 263e 7e4a 513d 4e89 07be 452c e8bd
00000120: 27c3 63bd 0fb7 6b3e 3a9d 4c3e 2df3 4dbd
00000130: 6cdb 9f3e cf51 093e e843 0cbe f754 813e
00000140: ccd0 823e 7bad 643e 64a3 043e ba38 ca3d
00000150: 1017 403b 7874 febb 07d1 983c efa6 f73d
00000160: 13a3 9c3e cc50 e93e e3f9 5dbe 374b 26be
00000170: d309 383e 08d4 68be cef7 86be 966c c1bd
00000180: ed74 64be f237 61bd 41b6 6fbe b5af 0cbe
00000190: 7169 cfbd 594d d9bd b936 2e3e bb5f 373d
000001a0: eeb2 b13d 1dc7 65bd 2e55 df3d b488 a5bb
000001b0: 9065 1cbd 0361 033e 5845 493c 9517 803a
000001c0: 9092 cabb 5643 14be 563f 2d3e 129e 333d
000001d0: a365 bc3d a814 e2bd 6fcd 1f3e 58ee d8bd
000001e0: 3dbf aebc e5ca 833d 5980 c2bd a93d 5a3d
000001f0: d58a 0e3e 96d0 b63c a98b 3b3e bf0f 53be
00000200: fc37 923d 7f58 41bc 2a01 8fbe 95a8 a0bd
00000210: a994 2dbe 9054 04be 83d5 793d 78d0 953c
00000220: 95d4 e33c eafb efbb 670d fc3c b4d9 353d
00000230: e451 943d 4e7c 2d3d 53de 093d 5b04 393e
00000240: b416 103d ddeb ca3d 69a7 153e 5402 f2bd
00000250: 76bc 8abd b7cf b93d 35b6 db3c 88ca 5ebd
00000260: c8a0 bcbd 6d8b 9c3c 4514 dabd cf66 0b3e
00000270: 6966 e7bd b586 0e3e db17 1c3e 5e40 65be
00000280: b479 e8bd c49d 64be 7273 22be 3913 853d
00000290: 0f94 b03e fd13 b0be 78f7 9b3c 874b a0bd
000002a0: 7e1d 78be 6642 22be 1eae b5bd a1b9 91bd
000002b0: 35bf 343d facc 54bc 9123 263e de14 733e
000002c0: 5f11 473d dee5 923d 1639 a53e 9c30 733d
000002d0: 0676 c53d 8973 c6bc 11d3 293e 0570 353e
000002e0: fd1b cebd c635 08be 3752 94bd 927b 20be
000002f0: b7af 20be 3f33 7b3c 0e9a 69bb 9e3e dcbc
00000300: 2597 43bc 790e ed3d e806 c03d 8552 98be
00000310: 15a5 5cbe c847 40bd cfe3 51bd 93c5 b93b
00000320: f082 0e3d 4cde 73bd 6c9c 803c 7fcf ce3d
00000330: ecbf a63c 1391 fabd 13bf 713d 08b0 6abe
00000340: 78d4 81be 4669 21be 8300 29bd 8056 80bd
00000350: ef03 473e 2edd 27bd 2a9c c13d 8f5f 493e
00000360: f3cc 173c 0030 f83a 63c0 3bbe aee8 733d
00000370: 4f29 31be ce70 5dbe b329 913e 9906 41be
00000380: 9588 87be 4db7 0b3e 6b8e 763d 0f45 1bbe
00000390: 26cb ca3d a98a 293e 074b 18be d9ec cb3d
000003a0: 4448 783d 7b9d fcbd 4957 4d3e 7141 873e
000003b0: 3a13 1ebe dbb3 90bd 393b 293e 6693 65bd
000003c0: e902 8fbe 0181 6bbd 042b 6d3d 4fcf 4dbe
000003d0: 3142 603d 3f7e 5f3d b4b2 3bbe 8101 5e3c
000003e0: 0f85 bcbd 67bd a8bd b0a9 d6bc 00e0 1e3e
000003f0: 32c8 e73d c328 e23c 1083 87be 0978 873e
0.046163812 0.16323805 0.10711267 0.25414133 0.29292598 -0.06734897 0.101007976 0.15045671
-0.073442414 -0.1941737 -0.14576009 0.049024113 0.10309163 0.115184955 0.08510128 -0.029792313
0.092292294 -0.103662096 -0.33616775 -0.012518985 0.21824251 -0.2579891 0.128296 0.14425653
-0.1459489 0.021918457 -0.035126433 0.059261765 0.069243066 -0.006630456 -0.12092822 -0.05156119
0.1204742 0.11290814 0.090422064 0.11919166 0.01920116 -0.0036571939 -0.04376648 0.066243425
0.015189094 0.14588104 0.06800423 -0.23181787 -0.07835074 -0.13247195 0.00036522522 -0.009776518
0.036122967 0.0662024 0.18034267 -0.29976514 -0.11385839 -0.095879935 0.3827501 0.03608434
-0.006748557 0.38583195 0.11210051 -0.20047146 0.069045015 0.15589128 -0.110108286 0.043339428
0.026547076 -0.06497819 0.14735241 0.16845104 0.16236153 0.051096432 -0.13235971 -0.11336569
-0.055606034 0.2301905 0.19981852 -0.05028074 0.31222093 0.13410114 -0.13697779 0.25260136
0.25549924 0.22331803 0.12952954 0.09874101 0.0029310621 -0.007765349 0.01865436 0.12092387
0.30593166 0.45569456 -0.21677355 -0.1623963 0.17972498 -0.22737134 -0.26360935 -0.09444539
-0.22310229 -0.054984994 -0.23409368 -0.13738902 -0.10127533 -0.10610456 0.17013063 0.04476903
0.08676706 -0.056098092 0.109049186 -0.0050516967 -0.038182795 0.12829976 0.012284599 0.0009772653
-0.0061820224 -0.14478812 0.16918692 0.04385192 0.09199073 -0.11039096 0.1560571 -0.105923355
-0.021331424 0.064351834 -0.094971366 0.05328146 0.13920148 0.022316258 0.18314995 -0.20611475
0.071395844 -0.011800884 -0.27930576 -0.078446545 -0.1695124 -0.12922883 0.060994636 0.018287882
0.027811328 -0.0073237317 0.03076811 0.04439707 0.07242182 0.042354874 0.03365929 0.18068068
0.0351779 0.099082686 0.14614643 -0.1181685 -0.06774227 0.090728216 0.026820282 -0.054392368
-0.09210354 0.019109452 -0.10648397 0.13613437 -0.1129883 0.13918574 0.15243475 -0.22387835
-0.11351338 -0.22325808 -0.15864351 0.06497807 0.3448796 -0.3439025 0.0190389 -0.07826906
-0.2423 -0.15845641 -0.08871101 -0.07115484 0.04412766 -0.012988323 0.16224505 0.23738429
0.04860055 0.0717275 0.32270116 0.05937253 0.09641652 -0.024225013 0.16584422 0.17718513
-0.10063932 -0.13301763 -0.07242244 -0.15672138 -0.1569203 0.015332042 -0.0035644802 -0.026885327
-0.011937891 0.11575026 0.09376317 -0.29750457 -0.21547349 -0.046943456 -0.051242646 0.0056693046
0.03479284 -0.05953817 0.015699588 0.100981705 0.020355187 -0.12234702 0.059020113 -0.22918713
-0.25357413 -0.15762815 -0.041260254 -0.062664986 0.19435094 -0.040982418 0.09453614 0.19665359
0.009265172 0.0018935204 -0.18335108 0.059548073 -0.17300914 -0.21625063 0.28352126 -0.18850173
-0.2647139 0.13644142 0.060194414 -0.15163063 0.09902029 0.16556801 -0.1487237 0.099572845
0.060615793 -0.123347245 0.20052828 0.26417115 -0.15437022 -0.07065555 0.16526498 -0.056048773
-0.27931908 -0.057496075 0.05790235 -0.20098613 0.054750625 0.054563757 -0.18329889 0.013550163
-0.092050664 -0.08239251 -0.02620396 0.15515137 0.11317481 0.027607327 -0.2646718 0.26458767

block1.2.conv.bias f4 [8]
00000000: dd37 8a3d 7785 913c bc93 5fbd 8fbb 9cbd
00000010: 9f4a 073d d2c1 8bbd 8d02 0ebe daea b23d
0.06748936 0.017763836 -0.05458425 -0.076529615 0.03303015 -0.06824078 -0.1386816 0.08736201

block1.2.BN.weight f4 [8]
00000000: b4b7 6d3f acf4 703f 89e6 783f ffc3 923f
00000010: 6d4b 913f 0901 773f 8cf4 7c3f 796a 693f
0.92858434 0.9412334 0.9722677 1.1466063 1.1351143 0.96485955 0.9881065 0.9117809

block1.2.BN.bias f4 [8]
00000000: 18ae 43be 909a 8cbe 3ae3 1bbe 8be3 1fbe
00000010: b4c0 b63d 627f 933c c4b4 ffbd f823 8bbe
-0.1910938 -0.27461672 -0.15223399 -0.15614145 0.08923474 0.018005077 -0.1248565 -0.2717588

block1.2.BN.running_mean f4 [8]
00000000: 15e0 883f 66b5 343d b9d2 2bbe e910 3a3f
00000010: 3328 b1bf 7832 67bf 77ff b2bf 9b2d 0a40
1.0693384 0.044118308 -0.16779603 0.7268205 -1.3840393 -0.90311384 -1.3984212 2.1590335

block1.2.BN.running_var f4 [8]
00000000: 090e fb3f 4ec7 e43f 0b19 6740 5b70 0140
00000010: 6f64 e33f 54c3 3140 6f89 cc3f 1c09 1340
1.9613658 1.7873323 3.6109035 2.0224826 1.7765025 2.777547 1.5979441 2.297431

block1.3.conv.weight f4 [4, 8, 3, 3]
00000000: 6c57 4ebe 75c2 c43d 3f85 57bc 08f2 adbd
00000010: c728 1b3e fc01 8bbc e107 aebe 91e3 bebd
00000020: 471f 59bc 4e8d e1bc 9201 abbd 099a 82bd
00000030: c6c4 463d f519 79be 65a0 69be 243e 64be
00000040: 1d88 a2be 96f2 bcbe 6005 47be 40f6 9bbe
00000050: bfc0 74bd f33e 02be 7309 1dbe b494 003c
00000060: 51f6 ff3d 6934 2ebe 3cee 7ebd a9dd 53be
00000070: ff26 153c cb6d 0cbe 21e7 50bd 2a78 d13d
00000080: 5a91 333d 7f6c 87be bb96 283d 730f b7bd
00000090: bc3a 9cbd 5d1c 7ebe 1efe 363d 0684 debd
000000a0: fe50 62be 615d cb3d 05f8 c83d c37a 763b
000000b0: 991c 483e e119 083e 3a2c 2bbe 713b eebd
000000c0: aeb4 bd3d 70a7 80be 1c55 853d 64c2 c3bd
000000d0: f222 36be f1e5 313d f8c7 96bd 0c32 813e
000000e0: f5bc 463e dc81 fabd 990f 353d 2506 063e
000000f0: cde7 27be b9b3 6dbd 0095 09bd 8b36 9fbc
00000100: fcba 32be 8947 46be 5cff 4a3d 6e35 803d
00000110: e5b9 fdbd 8e9a 6fbe 04d2 feba a365 1c3d
00000120: d95f 98be 8177 773c 371a 3e3d 7f22 093e
00000130: ca27 9b3d 842f c63c bf59 e23d 1653 493e
00000140: 4ff3 cb3d 5b7a 1f3e a913 febd 6e14 74be
00000150: f89a b53b a691 df3d 3f3d b63d b21f 87bc
00000160: 8b3a 303e 8c55 a23e 6d96 48be 3e68 68be
00000170: 6353 cabd f213 2ebe 521c 6b3b 6a38 bcbd
00000180: eff7 a8bd c8dd 93bd da66 223e 6694 f1bd
00000190: af07 923d 2562 983e f369 7bbe ad1e 8fbc
000001a0: da71 083e 100d 95bb b665 843e 1dc0 7e3e
000001b0: 66c6 a5bd e016 dfbe c58a 40be 2028 5c3e
000001c0: 137e ecbd 3609 283d 0286 d33b 3b7c 163e
000001d0: f34f 573e a839 623c 3351 b4be 5011 7abe
000001e0: 2272 b63d ebe2 6f3c ae02 e5bd aa05 ac3d
000001f0: f23a 7abd 01a9 2a3e 5a7f b8bc 1fe3 79bd
00000200: e3b2 6b3d 764e 953d 7c93 d13d c92b ad3d
00000210: 6d3c 343e d7f0 2d3e 98a3 dd3c 0177 31be
00000220: 7856 a0bd 0061 a1bd 61c4 483d 9153 9f3d
00000230: 9c69 183d 2672 d7bd 6d1c 833e 837e 933e
00000240: 4285 3abc 4c90 66bd 06ba 3fbd 8250 b13d
00000250: 0338 9bbd 60cd 823d d2c7 23be 530b 3cbd
00000260: 26d7 d1bd 0007 50be fc26 01bd 0954 023e
00000270: 1b98 77bc 5047 51bd 8462 833d caa2 bcbc
00000280: ba02 e2bd 1e4c 153d 3c81 44be 2e61 6cbe
00000290: e66e cabe e98f 13be 60ed fdbd 26ac a5ba
000002a0: 719b 413e 29dd d53c c164 21bc 27f9 4e3e
000002b0: 217e 5abd 4053 373d a0b1 ee3d 5ca3 c0bd
000002c0: 2eef 693d 7205 04be 15ce 73be 3123 70be
000002d0: 8b6a 743e cd61 2c3e 5c33 533e 548f 6d3e
000002e0: 7747 0f3d def1 3a3e 1e27 53be fb0f 6fbe
000002f0: c8e0 fabd 0208 573e b184 933e e50a 5d3e
00000300: 3c31 1e3e dc87 6f3d fd0c 3e3e 97f9 593d
00000310: 2a35 c2bb 113f 53bd 7584 7b3e 6d20 5d3e
00000320: 9546 113e c3c6 ddbc f4c9 09be 1e1c 2d3d
00000330: 4cfc 53bc bad8 8dbd 3cf9 273e 2056 1ebe
00000340: dfdc 9cbd 928d b9bd a1da 5d3c 0280 8cbd
00000350: 55bf e9bd 660c c1bd ffa1 bc3d 3811 bebd
00000360: 9091 253d 1f36 f93d 9cb9 053e 6c68 10bc
00000370: d426 3abe d315 113d 7dea 44bd 63ba 8fbe
00000380: 25bd 9abe 52d0 ee3c fcb1 00be 53a3 96ba
00000390: 503b 6d3e 9546 e6bc 422d 35bd b687 683e
000003a0: 55b8 56be 7f00 1dbe 8641 163e b229 ff3d
000003b0: d0d0 073e ce66 c7bc 0407 653d 2f7e ad3d
000003c0: f098 87bc 7fe9 61be 7d15 753c ddaa a0bd
000003d0: 991e 51bd d3a8 913e 114c c0bd 0193 07be
000003e0: fc56 023e f159 1bbe 5b4c a9be bdf6 c43a
000003f0: 070b c13d 60ca 9bbe ec27 a3bd 1d0f 5d3d
-0.20150536 0.09607402 -0.013154327 -0.084934294 0.15152274 -0.01696872 -0.33990386 -0.093207486
-0.013252086 -0.0275332 -0.08349909 -0.06377036 0.0485275 -0.24326308 -0.22815092 -0.2228933
-0.3174447 -0.36903828 -0.19435644 -0.3046131 -0.05975413 -0.12719326 -0.15335636 0.007847954
0.12498153 -0.1701218 -0.062238917 -0.20690025 0.009103536 -0.13713758 -0.05100167 0.102279976
0.04383979 -0.26449963 0.041159373 -0.089384936 -0.0762839 -0.24815507 0.04467594 -0.10865025
-0.22101209 0.0992992 0.09812931 0.0037609793 0.19542159 0.13291122 -0.1671609 -0.11632431
0.092629775 -0.25127745 0.06510374 -0.095585614 -0.17786768 0.04343218 -0.0736236 0.25233495
0.19408019 -0.122318 0.04420433 0.13088281 -0.16397019 -0.058032725 -0.033589363 -0.019435188
-0.17454141 -0.19363226 0.049559936 0.06260191 -0.12388972 -0.23398802 -0.0019441252 0.038182866
-0.29760626 0.015104176 0.04641172 0.13392065 0.075759485 0.02419258 0.11052274 0.19660601
0.09958517 0.15574019 -0.124060936 -0.23835918 0.0055421554 0.10916452 0.088984005 -0.016494606
0.17209832 0.31705892 -0.19588633 -0.22696015 -0.09879186 -0.16999796 0.0035875035 -0.09190448
-0.082504146 -0.07220036 0.15859547 -0.11795883 0.07130372 0.29762378 -0.24552135 -0.017470682
0.13324681 -0.0045486763 0.2585885 0.24877973 -0.08094482 -0.4357214 -0.18802936 0.21499681
-0.11547484 0.04102441 0.006455184 0.14695828 0.21026592 0.013807692 -0.352182 -0.24420667
0.08908488 0.014641504 -0.11182152 0.08399518 -0.06109137 0.16666032 -0.022521663 -0.061007615
0.057543647 0.07290356 0.102332085 0.08455617 0.17601176 0.16986404 0.027055547 -0.17330553
-0.078289926 -0.078798294 0.049015407 0.07779611 0.037210092 -0.10519819 0.25607625 0.28807458
-0.01138431 -0.056289956 -0.046808265 0.08657934 -0.07579043 0.063868284 -0.15994194 -0.045909237
-0.102461144 -0.2031517 -0.03153132 0.1272737 -0.015111948 -0.0510934 0.06415275 -0.023026843
-0.11035676 0.036449544 -0.19189924 -0.23083946 -0.39537734 -0.14410366 -0.12398791 -0.0012639805
0.18906952 0.026106434 -0.009850682 0.20212232 -0.053342942 0.044757128 0.11654973 -0.09406158
0.057112865 -0.12892702 -0.23809083 -0.23450924 0.23868768 0.16834183 0.20625061 0.23199207
0.034980264 0.18256328 -0.20620391 -0.2334594 -0.12249905 0.20999148 0.28812173 0.21586187
0.15448469 0.058479175 0.18559642 0.053216543 -0.005926748 -0.051573817 0.24562247 0.215944
0.14187081 -0.027072316 -0.13455945 0.042263143 -0.01293857 -0.06926103 0.16403669 -0.15462542
-0.07659315 -0.090602055 0.013540895 -0.06860353 -0.11413447 -0.09426193 0.09210586 -0.09280628
0.040422022 0.12168526 0.13059086 -0.008813959 -0.18178874 0.035421204 -0.048075188 -0.2807189
-0.3022243 0.02915207 -0.12567896 -0.0011492766 0.23167157 -0.028109828 -0.044232614 0.2270802
-0.20968755 -0.1533222 0.14673433 0.124591246 0.1326325 -0.024341013 0.055914894 0.08471333
-0.016552418 -0.22061728 0.0149587365 -0.078450896 -0.05105457 0.28449115 -0.093895085 -0.13239671
0.12728494 -0.15171029 -0.33066067 0.0015027147 0.094259314 -0.30427837 -0.07966599 0.05396949

block1.3.conv.bias f4 [4]
00000000: 7e6c c0bb 25b3 013d 72f2 7cbd 1971 003d
-0.0058723083 0.031664986 -0.06175465 0.03135786

block1.3.BN.weight f4 [4]
00000000: 6df0 873f 40e0 713f 93f3 763f 88e4 893f
1.0620247 0.94482803 0.96465415 1.0772867

block1.3.BN.bias f4 [4]
00000000: 5ed5 393e 704f e8bd 565f 903d 0c9a acbd
0.181478 -0.113432765 0.07049434 -0.084278196

block1.3.BN.running_mean f4 [4]
00000000: c018 a0bf d808 803e 7284 5a3d 8dc9 57be
-1.2507553 0.25006747 0.053348966 -0.2107298

block1.3.BN.running_var f4 [4]
00000000: 69c0 4a40 6e29 d43f c634 cd3f c6d1 9e3f
3.1679938 1.6575143 1.603173 1.2407768

block2.0.conv.weight f4 [8, 4, 3, 3]
00000000: 5d03 83be 3816 94be 9498 0cbf f4a3 ee3c
00000010: f8ac d03d cdc1 d1bd 6662 c13e 0bc7 603e
00000020: e17d 393c d7ab e63d b214 8c3d a767 afbc
00000030: 9f1e 2a3e 585b 583a 4453 a4bd 0640 893e
00000040: 4f00 e73b 9fea 793e e038 323d 980c 4fbb
00000050: b19a cbbe 96ee 583e 6051 c2bd 572e 97bd
00000060: 04b9 9b3e 8716 b9bd 0de8 49be a880 e73c
00000070: 76ce 05be d160 413e 8552 563e 62d3 633d
00000080: 3843 813e 6c72 46be c09e db3b 513e 5b3e
00000090: 2380 6f3e 8803 83be 00b2 713e f937 253e
000000a0: cf31 52be a9d2 eb3d 30b9 893e 5ddc 9bbe
000000b0: 9fcc 353c 5a59 f8bb 25a6 71be cefa 0cbe
000000c0: a103 84bc 9838 91be aa14 2e3e 404b 1abe
000000d0: bd0d 99bd 13cc 4dbe a215 023e 7db0 8bbe
000000e0: 3176 85be d81b df3d 77c6 99bc f259 8c3c
000000f0: 3557 683c 4f64 d63d 3c07 813d d642 63be
00000100: 1a74 dfbd f3b7 293d 4dec 343e fa39 51be
00000110: 33db ba3c 7919 a73e b59e 043d b016 903e
00000120: 8ba0 1a3c 3ddb 03bd 138a 813e b21d 8a3d
00000130: 02c7 1d3e 2c3d 0e3e e3ab b9bd 641b c73d
00000140: 39e5 4d3e 0bd5 0bbe 9e5d 75be 3c80 81be
00000150: 72a8 393e ddbc 23bd a625 d8bd d7a2 703e
00000160: 8fa1 99bc c640 a9be e799 8bbe c48b 80bd
00000170: 73c7 7b3c 2af5 31be 6d40 8b3c 62e7 cbbd
00000180: 3d73 c73d 816a c33d 712f 0d3e bd3b f0bd
00000190: 6dd1 a43d fe4b 94be 7fce 60be fc91 133e
000001a0: ff68 4abe 8837 f7bc bf11 813d 2c05 6e3d
000001b0: aa66 033e f023 3fbe a786 a3be 8fea 533d
000001c0: 759c 563e 2349 02be a54a 3c3e 5876 883d
000001d0: 0c2a e5bd 57ed d6bc 81be 46be f47a 48bd
000001e0: cff2 33be 2f1b 13bd 7998 4b3e 737c fb3c
000001f0: 25aa 9dbd d343 433e 4acc b5be 513d debe
00000200: d7a2 af3d ed83 a6be 24c3 d7bd 7a36 98be
00000210: f0da 16bd faf8 e73d fd15 333e 04a1 e33d
00000220: c889 92be 5db7 493e 23d0 87ba bad2 12be
00000230: 1f16 983d df57 613e e6b2 eb3c e175 0a3e
00000240: be26 65be 0b8b efbd 1057 5abe 87b6 b53d
00000250: d989 bf3d 4991 713b 6641 a5bd 0cec 69be
00000260: aa9e d53d f3c9 16be 07d0 2ebd 4046 f0bc
00000270: 8681 67bd 52fa 2ebe 65b9 7fbe 7189 423e
00000280: 3d53 933e 1009 833c ebca 83be 7003 aabe
00000290: e623 46be 8378 323e f7be 1a3c 0edd dc3d
000002a0: 0569 0d3e f23d 243b a716 6e3d 4b8c 133e
000002b0: 8dec 59bd b1f2 7abc f4b0 b2bc 615d b93d
000002c0: 3782 8b3d 2dad d83e 4fbc 883e b377 9abc
000002d0: 90a1 2dbe fa72 113e 7672 933d 9824 18be
000002e0: 0013 92bc c894 6c3c 76e5 d6be 5b56 5cbe
000002f0: d232 05bd e251 2bbd ea4c 37be 9319 10be
00000300: 6bc4 773d f240 b33d 4f2d 063e 6dae 42be
00000310: d70c ebbe de7a bfbe f2fd bbbe 80a1 3abb
00000320: ae4e febd c570 be3b 2c98 87bd da23 65bd
00000330: a819 18be ea21 86bd e7f7 ffbb ab83 223e
00000340: e044 ac3d 153f a8bd 2704 b5bd a1d3 97bd
00000350: 2fa7 c2bd 2a21 033d 3b13 743e 1d79 dc3d
00000360: 7028 17be e05a 583e 31c6 41bd 3932 a5be
00000370: 8201 ef3d b920 223d feff fbbd 155d 0c3d
00000380: d3ac 7c3d c25f 0a3e fee8 a2bd c4c4 0e3d
00000390: a5fd 023c f120 90bc f8d4 603c 1335 883c
000003a0: f590 bebd 0c71 8abe 2c5f 813c 61c9 03be
000003b0: 73f2 75be 1140 843e 4dac af3c feb3 1f3e
000003c0: 79bd d13d ff14 91bd 7024 06be 4d4c 8dbe
000003d0: f918 2fbe 3bc3 a9be c2a1 2d3e 3607 b9bc
000003e0: 097d 3d3d b0d4 fa3e 7e15 8a3e 183d a03e
000003f0: e555 a93d 108f 913e b572 9c3d 2687 8a3e
-0.25588503 -0.28923202 -0.54920316 0.029130913 0.10189241 -0.10242043 0.37770385 0.21950929
0.011321516 0.112632446 0.06839885 -0.02141173 0.16613244 0.00082533574 -0.08023694 0.26806659
0.0070495973 0.24405907 0.04351127 -0.00315932 -0.39766458 0.21184763 -0.09488177 -0.073818855
0.30414593 -0.090375 -0.19717427 0.02825959 -0.1306704 0.18884589 0.20929916 0.055621512
0.25246596 -0.19379586 0.006702274 0.2141049 0.23388724 -0.25588632 0.23603058 0.16134633
-0.20526813 0.115147896 0.268991 -0.3044156 0.011096149 -0.007579011 -0.23598535 -0.1376755
-0.016115012 -0.2836349 0.1700007 -0.15067768 -0.074733235 -0.2009738 0.12703565 -0.27283087
-0.26066735 0.10893983 -0.018771393 0.017132733 0.014180948 0.10468351 0.06300208 -0.22193465
-0.109108165 0.041435193 0.17668267 -0.20432273 0.0228096 0.32636622 0.032377917 0.2814231
0.0094376905 -0.032191504 0.25300655 0.06743945 0.15407947 0.13890523 -0.09065988 0.09722021
0.20106973 -0.13655488 -0.23961493 -0.25293148 0.18130663 -0.039975036 -0.10554056 0.23499618
-0.018753795 -0.3305723 -0.27265856 -0.06276658 0.015367377 -0.17378679 0.016998494 -0.09956242
0.09738777 0.095417984 0.13787629 -0.11730144 0.08047757 -0.28964227 -0.21953772 0.14411157
-0.19766615 -0.030177847 0.06302213 0.0581104 0.12832132 -0.18666053 -0.3193867 0.051737364
0.20958121 -0.12723212 0.1838785 0.06663197 -0.111896604 -0.02623622 -0.19408609 -0.048945382
-0.17573093 -0.035914596 0.19882382 0.03069899 -0.07698468 0.19068842 -0.35507423 -0.43406156
0.08575981 -0.32522526 -0.10535267 -0.29729062 -0.03682989 0.113267854 0.17488857 0.11114696
-0.28620744 0.19698854 -0.0010361712 -0.14338198 0.07426094 0.22006176 0.028771829 0.1352153
-0.2237806 -0.11696442 -0.21322274 0.08872705 0.09352464 0.0036860278 -0.080691144 -0.22843951
0.104306534 -0.14725475 -0.04267886 -0.029330373 -0.056520008 -0.17087677 -0.24973066 0.18997742
0.28774443 0.015995532 -0.25740752 -0.33205748 -0.19349632 0.17428784 0.009444944 0.1078435
0.13809593 0.0025061336 0.05812707 0.14408986 -0.053204108 -0.015316651 -0.021812893 0.09051014
0.06811946 0.42319623 0.26706168 -0.018855905 -0.16956162 0.14204016 0.07199566 -0.1485771
-0.017831326 0.014439769 -0.4197194 -0.21517317 -0.03251917 -0.041826136 -0.17900434 -0.14072256
0.060490053 0.08752622 0.13103221 -0.1901185 -0.45908234 -0.37398428 -0.36717182 -0.002847761
-0.12417351 0.005811783 -0.06620821 -0.055942394 -0.14853537 -0.06549437 -0.0078115347 0.1587054
0.08411574 -0.08215157 -0.088386826 -0.07413412 -0.09504544 0.03201405 0.23835461 0.10765288
-0.1476152 0.21128416 -0.04730815 -0.3226488 0.116702095 0.039581988 -0.12304686 0.034268457
0.061688256 0.13513091 -0.07954596 0.03485562 0.007995044 -0.017593833 0.013722651 0.01662687
-0.09304992 -0.27039373 0.015792452 -0.12869789 -0.24018268 0.2583013 0.021444464 0.15596005
0.10241217 -0.07084083 -0.13099837 -0.27597275 -0.1709937 -0.33156762 0.16956237 -0.022586446
0.04626182 0.48990393 0.26969522 0.3129661 0.08268336 0.2842946 0.07639066 0.27056235

block2.0.conv.bias f4 [8]
00000000: 830f 4bbe 2a1c eebd be07 0bbd fde2 bdbd
00000010: 8de8 7dbe a8da 163e 9597 75bd f147 c4bd
-0.19830136 -0.116264656 -0.03394293 -0.0927181 -0.24795742 0.14731848 -0.059959013 -0.09584034

block2.0.BN.weight f4 [8]
00000000: a3ac 583f b393 8c3f 91c4 8b3f 5c63 713f
00000010: bfa2 8d3f 8f21 953f 83c7 6a3f 8380 7d3f
0.8463842 1.0982574 1.0919362 0.94292235 1.1065291 1.1650866 0.9171068 0.9902422

block2.0.BN.bias f4 [8]
00000000: f0fc 5abe 084a 82bd 7d7c 02be 6211 ad3d
00000010: fd43 6cbe 22db b6bc 3391 7dbe 2874 d73c
-0.2138555 -0.063617766 -0.12742801 0.08450581 -0.2307281 -0.022321288 -0.2476242 0.026300505

block2.0.BN.running_mean f4 [8]
00000000: a7d2 3cbe 89ec 1bbe e1cc f7bc 74db 02bf
00000010: 522f ecbe 5a9f 35bf fda1 87bd c9b5 fa3d
-0.18439732 -0.1522695 -0.030249061 -0.5111611 -0.46129853 -0.70946276 -0.06622694 0.12241704

block2.0.BN.running_var f4 [8]
00000000: 2197 ef3e 63a3 b83e 4e9e 103f b283 913e
00000010: 8a98 543e 8866 c43e 2ed2 4c3e f35c 963e
0.4679499 0.36062154 0.56491554 0.28420788 0.20761314 0.38359475 0.20002052 0.2936779

block2.1.conv.weight f4 [16, 8, 3, 3]
00000000: 040d e7ba 12da 2bbe ab95 8abe 92e5 483c
00000010: dfd1 16be b706 39be b4aa 5a3e d40e 743d
00000020: 68cb 4e3d 836b 4c3d 2732 2ebd 1c70 953d
00000030: 8000 1bbd 7a6f 053e 5369 cf3e 84ff 8bbe
00000040: f52c 76be ef78 be3d f6a7 1e3e e809 3c3d
00000050: c437 473e d268 173e 7182 523d a9e8 803e
00000060: b5df 5bbd a27d a33d 02dc 823e d314 23be
00000070: fb8d de3c aa85 4fbd d3d1 02bc 7e89 41bd
00000080: d289 44be e04b 21be abfe ab3d dc5f 83bd
00000090: 8ef5 623e fd0c a03e 40b9 b53d d92d 7dbd
000000a0: 81f3 0c3e b9db dd3c 784f cc3d c513 e13b
000000b0: 6a06 d9bc 564a 63bd c1ed d33d 6bb7 923e
000000c0: 9b4d 873d d497 b33d 4952 d0bd dcb0 663e
000000d0: 0131 973e 4606 cabd 5789 c1bc 37a6 e7bd
000000e0: 8312 72ba 394f 9c3d 2633 be3d 493e 8b3c
000000f0: bc49 07bc 3066 36be 7e54 0f3d cb50 36bd
00000100: 71d5 8dbe 5288 bcbe 4aea a43e 8b4e 303e
00000110: 7353 8f3d b265 e83d 0a8d b33d 242a b6bd
00000120: f16f 573d 9f3d 823d 4059 6cbe e9b0 edbd
00000130: 860d cbbc 0ab5 c1bd 81c9 c9bc 0da1 6a3d
00000140: 22e3 b3bd 39fa ab3e ff9d da3d a851 973e
00000150: f6aa a53e 8666 d8bd f07a a7bd 43d8 023f
00000160: 5545 153e 3743 c43c fa8a 403e a927 453e
00000170: ff82 29bd 4755 d03d 9ad7 4c3e adc9 e5bc
00000180: 0846 2f3c 0758 a43d abde c9bd 561d 183e
00000190: 3b57 03be 59fd 2b3e e0e0 83bb 5fb7 9e3d
000001a0: 3637 193e 81b9 943d 3c1a 003e e4d3 f13d
000001b0: c964 b03d f9a0 ee3d 6cbf d33d 5ca4 713d
000001c0: b55f 1cbd 5295 ea3c df54 6c3e 3370 ea3d
000001d0: 1cda 5a3d 3874 3cbd f3fd d0bd dbf0 1b3d
000001e0: 9ed0 bcbd 950c 82bb 7ff3 6dbe 89c4 30be
000001f0: fd73 393d a958 9fbd e02d 733e 565c 3a3e
00000200: 24ed c43d 925a 113e 50fb 713d 28c4 2cbe
00000210: 8938 e33e 061f a43d 7e3f f3bc de9c 0d3c
00000220: ca20 bcbd 280c 0ebe fd2d 6cbd fbcf 033c
00000230: c6fc 2cbe 7cc6 5c3d 430e 613e 75be 683d
00000240: db02 40be 927e 8fbc c48c 3abe 0868 d7bc
00000250: f981 1cbe fcdb 4b3d 0940 66be ce84 ea3d
00000260: bcef cf3c 6763 793b fb66 763e 1979 4f3d
00000270: e540 4bbc a335 8d3d 91b9 e8bd 63a1 9fbd
00000280: 71bc e83d 9429 9bbe 29ec 0ebe 294a 7d3e
00000290: bf50 f33d bc52 85bd 539f 213e b5ec 17be
000002a0: 6531 60be a156 f03d 6116 a0be 2879 303e
000002b0: c261 f33d ac7e 323e 9da3 81be cbc0 dcbd
000002c0: ec36 24be a64b 1bbe df4f 853c 31ea f5bc
000002d0: 7514 b6bc 1608 8e3b 5759 ea3c d145 2b3e
000002e0: 3cb4 4d3e 5e0e 1b3e ddfd 823e 3523 2c3d
000002f0: 6243 9abd b487 213d 593c 00be d614 41be
00000300: 8b9b 17bc 5b7f 843d 15cf 36be 9d27 2cbe
00000310: f9db 93be 3de9 dbbd 4c9c a1be 84f2 84be
00000320: 297a 4ebe 4a14 343e 8c3b 87bc cc7d 14be
00000330: f645 cb3e af0a 363e 5de5 e5bd 3201 f1bd
00000340: e3aa 02be 5446 83be 4623 443d a811 0fbd
00000350: 2845 31be 1844 073d 3c80 c03b 34ad 48be
00000360: 8ac4 243e 5b82 083e 4e3d 8cbd 8059 143e
00000370: 1131 0cbe 1bad 9cbe c442 b33c 96dd eabd
00000380: adfb eabe 2524 343d 26e1 af3d 6839 c33d
00000390: c2f1 4dbd 689b 1ebd 4300 1d3d 2c78 65be
000003a0: 8d2a 99bd cb1a 1f3d 8755 463e a47c 613d
000003b0: ba00 f13d 47b4 f2bd 410a ebbd 52bc 96bd
000003c0: c209 96be 2f80 cdbe f9c0 51be 2efe 25be
000003d0: 8daa 6ebd 11ba c33d 02f9 e0bb 91c0 18be
000003e0: a58a 8d3c 3afa 863c 6a3f 023e dd79 873e
000003f0: fc98 1d3e f21d 043e a2c0 163e 4435 64be
-0.001762778 -0.16782406 -0.27067313 0.012261765 -0.14728497 -0.18068968 0.2135418 0.059584454
0.050486952 0.04990722 -0.042528298 0.07296774 -0.037842274 0.13030806 0.40510044 -0.2734338
-0.24040587 0.0930041 0.1549376 0.045907885 0.19454867 0.1478608 0.05139393 0.25177506
-0.05368014 0.07982947 0.25558478 -0.15925913 0.027167311 -0.05066458 -0.007984596 -0.047250263
-0.191932 -0.157516 0.083981834 -0.06414768 0.22163984 0.3125991 0.08873224 -0.0618113
0.13764764 0.027082311 0.09976095 0.006868812 -0.026492316 -0.055490814 0.10348082 0.28655562
0.06606599 0.08769193 -0.10171945 0.22528404 0.29529575 -0.09864478 -0.023625059 -0.11311
-0.0009234326 0.07632298 0.092870995 0.016997473 -0.008257326 -0.17812419 0.034992687 -0.044510644
-0.27701905 -0.36822754 0.32209998 0.17217462 0.069983386 0.11347522 0.087671354 -0.088947564
0.05259699 0.063594095 -0.23080921 -0.116060086 -0.024786722 -0.094583586 -0.024632217 0.057282496
-0.087835565 0.33589342 0.106746666 0.29554486 0.32356995 -0.1056643 -0.08177745 0.5111124
0.1457723 0.023957832 0.18803015 0.1925341 -0.041384693 0.10172515 0.2000412 -0.028050268
0.010697849 0.080246024 -0.09856924 0.14854941 -0.12826245 0.16795863 -0.00402461 0.07749819
0.14962468 0.072619446 0.12510008 0.11807993 0.08612973 0.11651797 0.10339245 0.058994636
-0.03817721 0.028635655 0.23079251 0.114471816 0.05343066 -0.046009272 -0.10204687 0.038071495
-0.09219478 -0.003968785 -0.23237418 -0.17262472 0.04527663 -0.077805825 0.23747969 0.18199286
0.096155435 0.14194706 0.05907756 -0.16871703 0.4437907 0.0801373 -0.029693361 0.008643357
-0.091859415 -0.13871825 -0.057661045 0.008045192 -0.168933 0.053900227 0.21978097 0.05682226
-0.1875109 -0.017516408 -0.1821776 -0.026294723 -0.15283956 0.04977034 -0.22485365 0.11451112
0.025382869 0.0038053633 0.24062721 0.050652597 -0.012405609 0.06894996 -0.11363519 -0.07794454
0.11364067 -0.3030516 -0.13957275 0.24735321 0.118806355 -0.06509921 0.15783434 -0.1483639
-0.21893843 0.11735273 -0.31267074 0.17233717 0.1188388 0.17431134 -0.2532014 -0.1077896
-0.16036576 -0.15165576 0.016273437 -0.030018898 -0.022226552 0.00433446 0.028607054 0.16725852
0.20088285 0.151422 0.25584307 0.042025764 -0.075323835 0.039436057 -0.12523021 -0.18855605
-0.009253393 0.06469604 -0.17852433 -0.16811986 -0.28878763 -0.10737846 -0.31564558 -0.25966275
-0.20163788 0.17585865 -0.016507886 -0.14501113 0.39701813 0.17777513 -0.11225388 -0.11767806
-0.127605 -0.25639594 0.047885202 -0.034928948 -0.17311537 0.033023924 0.0058746617 -0.19597322
0.16090599 0.13330977 -0.068476304 0.14487267 -0.13690592 -0.3060082 0.021882422 -0.114680454
-0.45895138 0.043979783 0.085878655 0.09532434 -0.050279386 -0.038722426 0.038330328 -0.22409123
-0.07478819 0.03884391 0.19368564 0.055050507 0.11767717 -0.118507914 -0.11476565 -0.07360138
-0.2930432 -0.4013686 -0.2048377 -0.16210243 -0.05826812 0.09556974 -0.0068656215 -0.14917208
0.017278025 0.01647674 0.12719503 0.26460162 0.1539039 0.12902048 0.14721921 -0.22285944

block2.1.conv.bias f4 [16]
00000000: c6ba f63c b284 ac3d 7b47 4e3d b9ee bebc
00000010: 15b1 c33c 14b6 923d e704 e73c 1fd1 dbbd
00000020: 4f97 3d3d 2d46 05be 20a1 d53d ba2b fd3d
00000030: 241e d6bc b8eb 4ebd 4a3b 883d c7d2 56bd
0.030118357 0.08423747 0.050361138 -0.023307191 0.02388815 0.07163635 0.02820058 -0.10733246
0.046286877 -0.13015051 0.10431123 0.12361856 -0.026137419 -0.050517768 0.066519335 -0.052447107

block2.1.BN.weight f4 [16]
00000000: dcc0 4b3f 93cd 763f d85e 673f 2d16 853f
00000010: 5031 803f a6e1 643f a16e 8a3f 96a1 6f3f
00000020: bec0 663f 1545 5d3f 10f0 723f edc7 8a3f
00000030: 350f 5e3f 5b42 833f 9cc4 883f dade 8e3f
0.79591155 0.9640743 0.90379095 1.0397393 1.0015049 0.8940681 1.0815011 0.93605936
0.9013785 0.86433536 0.94897556 1.0842263 0.86741954 1.0254625 1.0685 1.1161759

block2.1.BN.bias f4 [16]
00000000: 9c95 9fbe d266 9bbe c900 46be 6db8 bdbd
00000010: 0346 2bbe aa46 803b e07a 8a3c 2948 2abe
00000020: 323a 2ebe 383a 06bf 3b8a 75be 3005 8dbe
00000030: 2cbc c6be 7071 45be 1c8f 1bbe d6f5 96bd
-0.3116883 -0.30351883 -0.19336237 -0.09263692 -0.16725926 0.003914674 0.016904294 -0.1662909
-0.17014387 -0.52432585 -0.23978512 -0.2754302 -0.3881544 -0.19281554 -0.1519131 -0.07371108

block2.1.BN.running_mean f4 [16]
00000000: 86fd 1e3f 4519 8e3f 3313 41bf 61ee b43e
00000010: 7d73 023f a326 083e 5e29 81bf 286f 6dbf
00000020: 66bc bb3d 91cb 16bf e1e3 9f3e db04 6fbe
00000030: a036 21bf 017a 67bf ba2d b7be da7a 713d
0.62105596 1.1101462 -0.7541992 0.3533812 0.5095747 0.13295989 -1.0090749 -0.92747736
0.091667935 -0.5890437 0.31228545 -0.23341696 -0.62973976 -0.9042054 -0.35777074 0.05895505

block2.1.BN.running_var f4 [16]
00000000: e557 303f fef9 613f a549 043f 2f6b d13f
00000010: 6433 7d3f c5e9 7c3f 497b 533f eb00 403f
00000020: f096 713f b717 603f 519e 683f 2a3c 943f
00000030: 0130 0e3f 0fa4 373f 3a23 223f 48b1 273f
0.68884116 0.8827208 0.5167487 1.6360835 0.9890654 0.98794204 0.82609993 0.750014
0.9437094 0.87536186 0.9086657 1.1580861 0.55542 0.7173471 0.63335 0.65504885
