model/result/0513 1530.pt (torch, 79133 bytes, 98 tensors)

input_conv.conv.weight f4 [4, 1, 3, 3]
-0.13592105 -0.24787343 -0.02807508 0.119706675 0.4169076 0.3953467 0.007124107 -0.013465974
-0.08408189 0.2719781 0.11993901 0.43948165 -0.025630187 -0.2014855 0.26221195 -0.29372087
-0.22745657 -0.013190198 0.045788698 0.39151222 -0.22221358 -0.10488855 0.32485357 -0.09705819
-0.059924252 0.31443027 -0.2090604 0.2542011 -0.02933868 0.22650948 -0.25426576 -0.08385286
-0.29430613 0.27436826 0.12981415 -0.40163544
00000000: e32e 0bbe 88d2 7dbe b6fd e5bc c628 f53d
00000010: ea74 d53e e26a ca3e 5771 e93b 63a0 5cbc
00000020: 2033 acbd b740 8b3e 95a2 f53d bd03 e13e
00000030: 66f6 d1bc 3752 4ebe a540 863e 9562 96be
00000040: 60ea 68be b31b 58bc ee8c 3b3d 4a74 c83e
00000050: f58b 63be cfcf d6bd 3553 a63e 72c6 c6bd
00000060: 2273 75bd 01fd a03e ee13 56be a626 823e
00000070: ac57 f0bc 1af2 673e 1f2f 82be 0cbb abbd
00000080: 4baf 96be ff79 8c3e 00ee 043e 29a3 cdbe

input_conv.conv.bias f4 [4]
0.26293337 -0.38157445 -0.21725264 -0.39034706
00000000: 349f 863e ba5d c3be 7a77 5ebe 92db c7be

input_conv.BN.weight f4 [4]
1.0817115 0.8352443 1.0749439 0.8469464
00000000: 8675 8a3f 92d2 553f c397 893f 7bd1 583f

input_conv.BN.bias f4 [4]
-0.282375 -0.100691415 -0.16531572 0.53131324
00000000: 7593 90be 4d37 cebd 8648 29be 2504 083f

input_conv.BN.running_mean f4 [4]
0.24108571 -0.38155806 -0.22914773 -0.38204676
00000000: 2cdf 763e 945b c3be b4a5 6abe a29b c3be

input_conv.BN.running_var f4 [4]
0.2025469 0.20318787 0.19165467 0.083870575
00000000: 7468 4f3e 7b10 503e 1f41 443e 56c4 ab3d

block1.0.conv.weight f4 [8, 4, 3, 3]
-0.18957828 0.21812057 0.29746172 -0.22381425 0.16144633 0.07107429 -0.23041637 -0.060604442
-0.12187483 0.066997625 0.03293746 0.046840463 0.07920726 0.035382528 0.1485574 -0.2334902
0.12396074 0.07811524 -0.26173797 0.16835563 0.19428165 -0.10541766 0.18155093 0.29034832
-0.2489749 0.06996107 0.11988801 0.012473716 -0.04372655 0.26271328 -0.15356389 -0.0069893096
-0.070414715 -0.19593391 0.144147 0.17508142 -0.15605709 -0.09482022 0.121351846 -0.1515288
-0.058643073 -0.09329355 -0.12194525 -0.07095329 0.33283758 0.04626146 -0.009100472 0.056188643
-0.24117823 -0.04736639 -0.26029932 -0.13986444 0.30999228 0.17438084 -0.16613133 -0.08951769
0.08355103 -0.09458314 -0.08580097 0.13012291 -0.11440869 -0.045738526 0.2258022 -0.15264224
0.17629537 -0.25550696 -0.04590104 -0.06576639 -0.35740247 0.14392927 -0.15633388 -0.44210288
0.15681615 0.37607744 0.12872398 0.22473936 0.17873633 -0.1164883 0.27778792 0.42540303
-0.032615643 -0.05796563 -0.08604547 -0.09638041 -0.12129914 -0.22640881 -0.092270195 0.20331214
-0.05302189 0.104520574 -0.2306196 -0.078096226 0.15392074 -0.12564667 0.024822738 -0.08729012
0.08291622 0.040227234 -0.06390809 -0.21226329 -0.021706233 0.30377507 -0.19041596 -0.11456164
-0.15767613 -0.036326952 0.020066377 0.12050387 -0.099682696 -0.0797841 -0.163817 -0.08683357
-0.14327945 -0.10634583 0.09939863 0.18509173 0.328723 -0.11362955 0.100082256 0.18795326
0.1386691 0.07724334 0.026023313 -0.115074955 -0.033957887 -0.10181116 0.08840501 0.34178987
0.32262054 0.14353299 -0.14393502 -0.027330382 0.36749518 -0.06436833 0.4296918 0.03410249
0.08631952 0.00847683 0.23188208 -0.071084976 0.2198784 -0.21781008 -0.050565455 -0.096672565
0.23445846 0.041484576 0.10411733 -0.37108508 -0.18301126 -0.24375966 -0.08172599 0.24429215
0.1940879 0.019585911 -0.40268925 -0.12576795 -0.055867806 -0.015879804 0.09585497 -0.16509241
-0.17633773 -0.067996986 0.0207904 -0.33613643 -0.09021723 0.01085439 -0.16147842 -0.16504472
0.19450833 0.051445775 0.05506206 -0.05185971 -0.26628545 -0.12856989 0.09889945 -0.06735524
0.1310753 -0.021883335 -0.14270099 -0.11296912 -0.024335818 -0.11678852 -0.05132138 -0.050381057
-0.14306329 0.19958934 0.10597726 -0.2387071 0.23303637 0.14093821 0.22534278 0.08877695
-0.062171478 0.01735454 0.29617408 -0.032655567 0.06581136 0.3802207 -0.05017476 -0.12797847
0.10606124 0.04320224 -0.32984504 0.16328914 0.1507366 -0.31627727 -0.2642885 -0.1227333
-0.090016365 0.14150195 0.0021917908 0.1407348 0.06901501 0.16177422 0.17423053 -0.038374506
0.13735035 -0.1781226 -0.39506948 -0.24555583 -0.09751152 -0.022500474 -0.08707267 0.1548237
0.037369873 -0.04025812 -0.16863738 -0.32062975 -0.19184643 0.15827219 -0.05472111 -0.12467285
-0.036774863 -0.14510126 -0.016658202 0.10552584 -0.05856861 0.20399445 0.18697022 0.096340224
0.19980888 -0.108317934 -0.09140518 -0.1654582 -0.124348626 0.320941 -0.25685486 -0.31824973
-0.18239942 0.030253747 0.08083382 0.046911627 -0.14374429 -0.4164383 -0.12645869 -0.1861878
00000000: cf20 42be 005b 5f3e e74c 983e 902f 65be
00000010: 3052 253e 668f 913d 45f2 6bbe 5d3c 78bd
00000020: 8399 f9bd 0d36 893d 6ee9 063d c9db 3f3d
00000030: 6a37 a23d 45ed 103d 6e1f 183e 0e18 6fbe
00000040: 21df fd3d e2fa 9f3d 8502 86be 6b65 2c3e
00000050: c5f1 463e 37e5 d7bd 7de8 393e 89a8 943e
00000060: 47f3 7ebe c047 8f3d d887 f53d 8f5e 4c3c
00000070: 9c1a 33bd 5b82 863e da3f 1dbe 9406 e5bb
00000080: 9735 90bd e6a2 48be 459b 133e 8b48 333e
00000090: 6ecd 1fbe 1a31 c2bd 5187 f83d 5e2a 1bbe
000000a0: b833 70bd b010 bfbd 6ebe f9bd f54f 91bd
000000b0: b069 aa3e a87c 3d3d 251a 15bc 1026 663d
000000c0: 6df7 76be 4203 42bd f445 85be a038 0fbe
000000d0: 4fb7 9e3e e490 323e 551e 2abe 0d55 b7bd
000000e0: cd1c ab3d ceb4 c1bd 6bb8 afbd f13e 053e
000000f0: 1a4f eabd 5258 3bbd b138 673e 3f4e 1cbe
00000100: c686 343e cfd1 82be bb02 3cbd 87b0 86bd
00000110: 75fd b6be 3262 133e fd15 20be 4f5b e2be
00000120: 6a94 203e 398d c03e 38d0 033e 1322 663e
00000130: a806 373e 6b91 eebd 383a 8e3e 6dce d93e
00000140: fb97 05bd 5e6d 6dbd 9b38 b0bd 1863 c5bd
00000150: af6b f8bd b6d7 67be 28f8 bcbd 0f31 503e
00000160: 7b2d 59bd e20e d63d 8b27 6cbe eaf0 9fbd
00000170: 669d 1d3e 85a9 00be 0e59 cb3c 2ac5 b2bd
00000180: fbcf a93d 50c5 243d 3fe2 82bd 8c5b 59be
00000190: 45d1 b1bc 6888 9b3e 67fc 42be 4b9f eabd
000001a0: da75 21be 92cb 14bd 3e62 a43c bcca f63d
000001b0: 7126 ccbd d965 a3bd a5bf 27be ccd5 b1bd
000001c0: d9b7 12be d8cb d9bd 8291 cb3d b088 3d3e
000001d0: 624e a83e 9cb6 e8bd edf7 cc3d d276 403e
000001e0: 46ff 0d3e c231 9e3d d82e d53c 6bac ebbd
000001f0: 6d17 0bbd 5f82 d0bd b00d b53d 15ff ae3e
00000200: 852e a53e 50fa 123e b463 13be f7e3 dfbc
00000210: 5428 bc3e 8bd3 83bd 9000 dc3e 0daf 0b3d
00000220: 4ac8 b03d 67e2 0a3c 7f72 6d3e 0095 91bd
00000230: ce27 613e 9b09 5fbe b91d 4fbd 44fc c5bd
00000240: e115 703e bbeb 293d 773b d53d ddfe bdbe
00000250: 4e67 3bbe 229c 79be f55f a7bd b927 7a3e
00000260: fabe 463e a272 a03c 492d cebe 50c9 00be
00000270: a4d5 64bd 5d16 82bc 9c4f c43d fc0d 29be
00000280: e191 34be 0142 8bbd a150 aa3c 131a acbe
00000290: d0c3 b8bd 9dd6 313c 995a 25be 7c01 29be
000002a0: 312d 473e ceb8 523d c188 613d d96a 54bd
000002b0: 9156 88be d3a7 03be cb8b ca3d 8bf1 89bd
000002c0: 9a38 063e ae44 b3bc 3520 12be 5b5c e7bd
000002d0: e95b c7bc d22e efbd 5e36 52bd 5e5c 4ebd
000002e0: 2f7f 12be 2661 4c3e 9b0a d93d a26f 74be
000002f0: 16a1 6e3e 1b52 103e 42c0 663e b1d0 b53d
00000300: 85a7 7ebd 1c2b 8e3c 21a4 973e d8c1 05bd
00000310: 1bc8 863d 4aac c23e 0d84 4dbd ca0c 03be
00000320: a336 d93d d5f4 303d 73e1 a8be 4535 273e
00000330: b25a 1a3e 18ef a1be d350 87be 995b fbbd
00000340: 805a b8bd e3e5 103e 26a4 0f3b c91c 103e
00000350: be57 8d3d 24a8 253e 7d69 323e 962e 1dbd
00000360: 92a5 0c3e c565 36be 8c46 cabe fd72 7bbe
00000370: 1fb4 c7bd ea52 b8bc 2853 b2bd 1b8a 1e3e
00000380: 2711 193d b3e5 24bd 47af 2cbe 9529 a4be
00000390: 6473 44be 1b12 223e 3e23 60bd 7b54 ffbd
000003a0: 3da1 16bd 6d95 14be c876 88bc ee1d d83d
000003b0: a4e5 6fbd ece3 503e 1f75 3f3e 064e c53d
000003c0: b39a 4c3e cbd5 ddbd a432 bbbd e06d 29be
000003d0: 7eaa febd 6152 a43e 7b82 83be a1f1 a2be
000003e0: eac6 3abe b5d6 f73c 348c a53d 6826 403d
000003f0: b431 13be 6737 d5be 637e 01be 04a8 3ebe

block1.0.conv.bias f4 [8]
0.14407955 0.083831094 -0.02462991 -0.12967901 0.21456523 0.11676917 0.12146246 -0.09696511
00000000: 9789 133e a3af ab3d aac4 c9bc 93ca 04be
00000010: fdb6 5b3e ad24 ef3d 4fc1 f83d a595 c6bd

block1.0.BN.weight f4 [8]
0.9390215 1.0324484 1.0979896 0.8908602 1.0410925 1.0269008 1.1191272 1.018493
00000000: b763 703f 4527 843f ec8a 8c3f 6a0f 643f
00000010: 8542 853f 7c71 833f 8f3f 8f3f fb5d 823f

block1.0.BN.bias f4 [8]
-0.15546864 0.084625304 -0.17919634 -0.20464665 0.007943872 -0.019851152 0.18335259 -0.07169971
00000000: 2c33 1fbe 0850 ad3d 3f7f 37be e48e 51be
00000010: 0427 023c e29e a2bc c8c0 3b3e 4cd7 92bd

block1.0.BN.running_mean f4 [8]
0.69231987 -1.3513241 -0.033155266 0.8654949 -1.0629913 0.6833777 -0.89676976 -0.8368407
00000000: e03b 313f 30f8 acbf d1cd 07bd 1391 5d3f
00000010: 1910 88bf d7f1 2e3f b492 65bf 313b 56bf

block1.0.BN.running_var f4 [8]
0.58470464 0.59281236 0.87471944 0.7664996 0.5629765 0.31017944 0.37066394 0.8126355
00000000: 34af 153f 8dc2 173f 9ded 5f3f 5139 443f
00000010: 3a1f 103f d7cf 9e3e aac7 bd3e e108 503f

block1.1.conv.weight f4 [16, 8, 3, 3]
-0.19716442 -0.16642165 -0.051287573 -0.058133867 -0.09209513 -0.02708921 -0.013863493 -0.05593996
-0.14121555 -0.3386347 -0.09219797 -0.06977886 -0.06311745 0.09589453 0.09049392 -0.12977003
0.15719847 0.17543852 -0.10168013 -0.23338155 0.015643021 0.1990325 0.004453335 -0.09867481
0.250721 0.11251285 0.24988681 0.09280723 -0.07749495 0.036399554 0.025678791 0.022070406
-0.057590965 0.35888326 0.48535496 0.2875186 0.18279774 -0.12628105 0.06696076 0.13377075
-0.00981359 0.112670735 -0.07462144 0.086714424 0.05504001 0.061696384 0.078384764 -0.1141468
0.28648138 0.11119756 0.027773147 -0.06304938 -0.1980186 -0.19216068 -0.075126186 -0.22905041
-0.357376 -0.08605584 4.6377005e-05 0.002290563 -0.15544273 0.10519288 0.17358798 -0.21724513
-0.20408028 -0.1847307 0.21291243 0.07324457 -0.03177734 0.0604127 0.14238617 0.061222162
0.1719182 0.14551206 0.24626529 -0.004499933 0.069343135 0.30346072 -0.16581883 0.040865947
0.042902224 -0.049178697 -0.017676055 -0.10897431 -0.14058124 0.06069317 -0.0031578883 -0.16376412
-0.10131528 -0.036049128 0.047904562 0.09661769 0.0077829836 0.19312856 0.021643294 -0.08128407
0.3948047 0.21880153 0.25260365 -0.20410381 0.050564904 0.05809431 -0.20996097 -0.04295941
-0.04119877 -0.122104004 0.08690255 0.13057664 0.089284316 0.20841375 0.17390972 -0.107093185
-0.062373206 0.14005809 -0.024744175 0.26139843 0.48318946 -0.23170544 -0.15324777 0.27503031
0.06853675 -0.016112065 0.21073346 -0.027931709 0.096593365 -0.05064226 -0.089241095 0.42155665
0.09063952 -0.26655212 0.11133557 0.16831021 -0.1086435 0.15108036 0.31724828 -0.12907104
-0.062204193 -0.085737176 -0.06973322 0.051130712 0.00042300738 0.20361024 0.012436589 -0.011218209
-0.12308398 -0.14470229 -0.15821496 -0.15986666 0.12902953 0.16848557 -0.0712417 -0.06989691
0.002045554 0.008347377 0.26577577 -0.043438643 0.14628184 0.072473325 -0.13355619 0.02251703
-0.075507835 0.15272696 0.26211703 -0.23286872 -0.35806993 0.17533003 -0.26629105 -0.21064909
0.24615154 -0.27457592 -0.11943787 0.070694245 0.11511915 -0.090817325 -0.13228914 0.0072554643
-0.044859573 0.09941208 0.16277978 0.13288586 0.15283519 0.13648237 0.32231346 -0.21311595
-0.13068981 -0.17084315 0.07934118 -0.07219717 -0.083947904 0.16358534 -0.11205134 -0.07205727
0.07396381 -0.04527237 -0.23065884 -0.09455289 -0.047505174 -0.071170315 0.08169291 0.07460682
-0.19171926 -0.08404156 0.011325693 0.08659311 0.010275789 0.020579815 0.2896626 -0.099467084
0.37643752 0.20479602 0.121512 0.098372534 -0.13511105 -0.1718317 0.046258792 0.1928913
0.20744629 -0.0026010321 -0.1525809 0.028192578 0.11536354 -0.056320187 -0.22078983 -0.13626084
-0.2067289 0.2278588 -0.11188918 -0.1706524 -0.06767936 -0.0073010162 -0.36960486 -0.17964625
-0.3422227 0.13695894 0.17114651 0.100224525 0.2103845 -0.2691958 -0.0026626782 -0.1482873
0.09488244 0.055487383 -0.05758507 0.24206123 0.20152546 0.20718652 0.019665731 -0.09893838
-0.18088125 -0.09439576 -0.055851944 -0.14732057 0.008761839 0.027405404 -0.14537182 -0.40677357
00000000: 78e5 49be 706a 2abe eb12 52bd c71d 6ebd
00000010: 5f9c bcbd 31ea ddbc b423 63bc 4d21 65bd
00000020: cf9a 10be 8761 adbe 4ad2 bcbd 38e8 8ebd
00000030: b943 81bd 5a64 c43d e054 b93d 6fe2 04be
00000040: a3f8 203e 28a6 333e ac3d d0bd 93fb 6ebe
00000050: cb25 803c 2dcf 4b3e 48ed 913b 0516 cabd
00000060: 815e 803e 236d e63d 54e2 7f3e b811 be3d
00000070: acb5 9ebd b317 153d 545c d23c ffcc b43c
00000080: 81e4 6bbd 8cbf b73e 7280 f83e a335 933e
00000090: 552f 3b3e d24f 01be b922 893d 33fb 083e
000000a0: 2ec9 20bc eabf e63d 20d3 98bd 5597 b13d
000000b0: a271 613d 59b5 7c3d 3188 a03d ccc5 e9bd
000000c0: b0ad 923e 8cbb e33d 8384 e33c 0920 81bd
000000d0: 63c5 4abe c5c5 44be c2db 99bd 318c 6abe
000000e0: fdf9 b6be 0b3e b0bd ee84 4238 451d 163b
000000f0: 612c 1fbe 5d6f d73d 0cc1 313e 8275 5ebe
00000100: 6cfa 50be 0b2a 3dbe b705 5a3e 4001 963d
00000110: f528 02bd 4f73 773d aecd 113e 17c4 7a3d
00000120: 530b 303e 1d01 153e f82c 7c3e 2d74 93bb
00000130: c603 8e3d 345f 9b3e 69cc 29be 0d63 273d
00000140: 3eba 2f3d 9a6f 49bd 60cd 90bc ec2d dfbd
00000150: 87f4 0fbe 6799 783d 93f4 4ebb c8b1 27be
00000160: 637e cfbd 40a8 13bd 9337 443d 7fdf c53d
00000170: 6608 ff3b 7ec3 453e 474d b13c 4378 a6bd
00000180: d723 ca3e 820d 603e 4455 813e 9700 51be
00000190: 251d 4f3d 4df4 6d3d 0200 57be 35f6 2fbd
000001a0: 0bc0 28bd aa11 fabd f7f9 b13d e2b5 053e
000001b0: b2da b63d 6a6a 553e 6415 323e ac53 dbbd
000001c0: 0c7b 7fbd 636b 0f3e 4cb4 cabc 04d6 853e
000001d0: 9c64 f73e 3144 6dbe fcec 1cbe c6d0 8c3e
000001e0: ff5c 8c3d 73fd 83bc 83ca 573e 0ad1 e4bc
000001f0: bed2 c53d 426e 4fbd 09c4 b6bd 46d6 d73e
00000200: 36a1 b93d 8579 88be e703 e43d 8359 2c3e
00000210: 7c80 debd cfb4 1a3e 5e6e a23e 332b 04be
00000220: d3c9 7ebd f996 afbd 4ad0 8ebd 706e 513d
00000230: 17c7 dd39 347f 503e d6c2 4b3c 94cc 37bc
00000240: 7413 fcbd d62c 14be 1a03 22be 16b4 23be
00000250: 5120 043e 7b87 2c3e 2be7 91bd 1c26 8fbd
00000260: b40e 063b 70c3 083c c313 883e b8ec 31bd
00000270: e8ca 153e e56c 943d f4c2 08be a275 b83c
00000280: daa3 9abd 7564 1c3e 3434 863e 2375 6ebe
00000290: f154 b7be b789 333e 4d57 88be 65b4 57be
000002a0: 260f 7c3e 3795 8cbe d89b f4bd 25c8 903d
000002b0: 97c3 eb3d 6ffe b9bd ce76 07be 3fbf ed3b
000002c0: acbe 37bd 9098 cb3d beaf 263e 3b13 083e
000002d0: d480 1c3e 09c2 0b3e 4506 a53e 113b 5abe
000002e0: 8dd3 05be 82f1 2ebe a17d a23d 1cdc 93bd
000002f0: e1ec abbd ea82 273e 2c7b e5bd c392 93bd
00000300: 577a 973d 856f 39bd d531 6cbe f2a4 c1bd
00000310: c994 42bd bec1 91bd 9d4e a73d 76cb 983d
00000320: 0e52 44be fb1d acbd 668f 393c ba57 b13d
00000330: c85b 283c 0097 a83c a84e 943e 66b5 cbbd
00000340: 6bbc c03e 0cb6 513e 49db f83d 8a77 c93d
00000350: 8d5a 0abe a6f4 2fbe dc79 3d3d 4c85 453e
00000360: cd6c 543e 1476 2abb 2b3e 1cbe 1ff4 e63c
00000370: b843 ec3d ffaf 66bd bb16 62be f687 0bbe
00000380: beb0 53be d153 693e 2826 e5bd 81bf 2ebe
00000390: 7a9b 8abd 5d3d efbb d93c bdbe 30f5 37be
000003a0: d037 afbe f73e 0c3e 0841 2f3e 8442 cd3d
000003b0: 096f 573e 08d4 89be 5480 2ebb a0d8 17be
000003c0: ba51 c23d bd46 633d 53de 6bbd e6de 773e
000003d0: b15c 4e3e b428 543e 071a a13c 35a0 cabd
000003e0: ef38 39be 9052 c1bd 02c5 64bd 34db 16be
000003f0: d18d 0f3c 4c81 e03c 5adc 14be a044 d0be

block1.1.conv.bias f4 [16]
0.08036479 0.2200394 -0.06954302 -0.10816765 -0.068905346 0.19837008 0.048639636 0.091735445
0.13493438 0.04415882 0.14097671 -0.023778686 0.008228024 0.022546165 0.0790239 -0.06486152
00000000: 4c96 a43d 0252 613e 926c 8ebd 0087 ddbd
00000010: 3f1e 8dbd 8721 4b3e 5b3a 473d cbdf bb3d
00000020: 3d2c 0a3e e1df 343d 335c 103e 85cb c2bc
00000030: d5ce 063c bcb2 b83c 48d7 a13d 1ed6 84bd

block1.1.BN.weight f4 [16]
1.0015311 0.9636832 1.0629748 1.0970579 0.97556585 1.0204407 1.0545168 0.9723535
0.918396 0.99715686 0.9378277 1.0956337 0.90369856 1.125431 0.96018386 0.9659497
00000000: 2c32 803f f1b3 763f 8f0f 883f 656c 8c3f
00000010: afbe 793f cd9d 823f 68fa 863f 29ec 783f
00000020: 001c 6b3f ac45 7f3f 7a15 703f ba3d 8c3f
00000030: ca58 673f 1f0e 903f 9cce 753f 7b48 773f

block1.1.BN.bias f4 [16]
-0.012251805 -0.5252859 -0.25222543 -0.12553881 -0.1839926 -0.11048446 -0.3207468 -0.32701477
-0.29954973 -0.17278412 -0.4269409 -0.055906486 -0.3688285 -0.200828 -0.1626262 -0.23697591
00000000: cbbb 48bc 2379 06bf b123 81be 3f8d 00be
00000010: 8e68 3cbe ad45 e2bd ed38 a4be 7b6e a7be
00000020: 955e 99be 52ee 30be ff97 dabe 33fe 64bd
00000030: 17d7 bcbe dba5 4dbe 7c87 26be d0a9 72be

block1.1.BN.running_mean f4 [16]
0.03377767 1.4112154 0.0015880823 -0.7348519 -0.9026465 0.0061153113 -1.5720365 -0.9325853
-0.2021312 -1.4901565 -0.116330035 -0.4639644 0.5674032 0.58769 0.2951483 0.8466483
00000000: 745a 0a3d b5a2 b43f 3327 d03a 411f 3cbf
00000010: d713 67bf f362 c83b 7e38 c9bf e9bd 6ebf
00000020: 7bfb 4ebe 73bd bebf 713e eebd be8c edbe
00000030: 5641 113f da72 163f ae1d 973e f1bd 583f

block1.1.BN.running_var f4 [16]
0.8106299 0.6535938 0.8169924 0.72906333 1.2833815 0.7799878 0.608145 1.0645483
0.8066641 1.1012839 1.0145977 0.86310977 0.75744456 0.71064246 1.4598662 1.3957331
00000000: 7185 4f3f ec51 273f 6a26 513f e5a3 3a3f
00000010: d845 a43f 48ad 473f 64af 1b3f 1e43 883f
00000020: 8a81 4e3f dff6 8c3f 56de 813f c3f4 5c3f
00000030: e3e7 413f aaec 353f e5dc ba3f 62a7 b23f

block1.2.conv.weight f4 [8, 16, 3, 3]
0.03487489 -0.08143814 0.04110519 0.086149745 0.021088963 0.019127 -0.025047744 0.06347327
0.17247264 -0.13469417 -0.020330433 -0.08173997 0.03278162 0.1349873 0.084493764 0.1207293
0.34092677 0.3295174 -0.0063633965 0.08648614 0.053460795 -0.041123193 0.15151487 0.1259084
-0.115386404 0.0641732 0.16135773 -0.017061649 -0.04800995 0.03596718 -0.04882803 0.015241677
0.101506494 0.0021642742 0.02191647 -0.011339573 -0.21284235 -0.3604192 -0.02141966 -0.060118403
-0.038633827 0.04467704 -0.078397386 0.052578304 0.186214 0.06442761 -0.045779794 0.13704991
0.010038729 0.09658739 0.22111489 0.008074434 0.18616053 0.14049679 0.08945205 0.2160749
0.21112381 0.092588015 -0.06470683 -0.09035047 -0.07325784 -0.12116907 -0.2047038 -0.10085812
-0.056797646 -0.053723622 -0.0101786135 -0.11081264 -0.009041977 0.0607669 -0.26463658 -0.17878546
-0.06455344 -0.037714917 -0.16080108 -0.07540678 0.059845738 -0.04398772 -0.042874955 0.26700768
0.09397624 -0.042400382 -0.008642548 -0.068101525 0.038304057 -0.0033609914 0.036580987 0.0013637154
0.08740767 0.25503123 -0.18523125 -0.18184282 -0.21185541 -0.067230925 -0.10249853 -0.078471705
0.01282492 -0.06567323 -0.18154365 -0.15459912 -0.29399854 0.008288933 -0.10600819 -0.120037355
0.14483589 -0.07351651 0.06936623 0.2850234 -0.03000202 0.038710453 0.12643164 0.0012375467
0.14050773 0.12662344 0.1193084 0.17965208 0.38841718 -0.14807163 0.0051008654 0.25900075
-0.31338346 0.110487 0.1452168 0.087480456 0.38131243 0.25690636 0.1396636 0.25626037
0.19939497 0.04531406 0.03244888 -0.12629876 0.18625419 0.10287496 0.23742902 -0.14194764
-0.49002522 -0.41598672 -0.17772233 -0.22841977 -0.016387437 -0.046823297 0.03887093 0.31409886
0.11450988 0.12706459 0.24574548 -0.14100836 -0.22372834 -0.096099555 0.040474802 -0.023749292
-0.022024816 0.09342494 0.07772422 -0.0105010355 0.05528483 -0.07416025 -0.102996476 -0.2216184
-0.23105176 -0.20894945 -0.13257712 -0.1762657 -0.09627073 0.20750183 0.17939436 0.0918441
-0.24909808 -0.2827087 -0.26058674 -0.22299984 -0.31701428 -0.3123401 0.16456741 0.059457365
0.008309118 0.088774726 0.074329846 0.010706606 0.16019535 -0.029272037 -0.17640653 0.14485128
-0.044564165 0.03595901 -0.16954364 -0.20219365 -0.13597016 -0.43038976 -0.17600942 -0.18914829
0.09443297 0.22284429 0.25248766 0.083610885 0.23845597 0.16029525 -0.4029389 -0.21181956
0.04882045 -0.1267834 0.04056839 0.099919155 0.099463224 0.14291272 0.34275675 0.18964414
-0.07072276 0.13633397 0.11758774 -0.076608814 -0.11992946 -0.08994475 0.010189527 -0.09081833
-0.047888342 0.13040234 -0.028661488 -0.13445757 -0.023815254 -0.060546167 0.12120303 0.053933993
0.19817674 0.2103086 0.23448868 0.13312203 0.06628056 0.025835466 -0.038126554 -0.13689604
-0.1165571 -0.043931402 0.20318681 0.008479424 0.07418643 0.12773189 -0.04623198 -0.10928309
-0.047488824 0.14588338 0.014210235 -0.10313713 -0.13294433 -0.4008858 0.007903726 -0.043738015
0.05377136 0.23950528 0.09373769 0.18210413 0.21799512 0.096430205 0.048225403 0.13115498
00000000: f9d8 0e3d 0ac9 a6bd ea5d 283d 476f b03d
00000010: c3c2 ac3c 3ab0 9c3c ed30 cdbc 46fe 813d
00000020: ab9c 303e 45ed 09be 028c a6bc 4967 a7bd
00000030: 0546 063d 1c3a 0a3e 110b ad3d ec40 f73d
00000040: f48d ae3e 81b6 a83e 0a84 d0bb a51f b13d
00000050: b5f9 5a3d cb70 28bd b726 1b3e 22ee 003e
00000060: b54f ecbd 3d6d 833d f63a 253e dfc4 8bbc
00000070: 15a6 44bd 5252 133d e6ff 47bd 3ab8 793c
00000080: a3e2 cf3d 7fd6 0d3b 2b8a b33c 9ec9 39bc
00000090: 58f3 59be de88 b8be 4878 afbc b73e 76bd
000000a0: 813e 1ebd 46ff 363d cf8e a0bd 595c 573d
000000b0: e2ae 3e3e 9ff2 833d 9883 3bbd d056 0c3e
000000c0: 7b79 243c 9ccf c53d f16b 623e a14a 043c
000000d0: dea0 3e3e 64de 0f3e a332 b73d bd42 5d3e
000000e0: d730 583e c99e bd3d 0485 84bd ab09 b9bd
000000f0: 3508 96bd 7d27 f8bd df9d 51be b48e cebd
00000100: a6a4 68bd 4d0d 5cbd 33c4 26bc bdf1 e2bd
00000110: cd24 14bc b7e6 783d 727e 87be 8913 37be
00000120: 9834 84bd f57a 1abd 0aa9 24be df6e 9abd
00000130: ce20 753d 782c 34bd a69d 2fbd 3bb5 883e
00000140: 9d76 c03d 06ac 2dbd 7999 0dbc d078 8bbd
00000150: b7e4 1c3d 1444 5cbb f2d5 153d b2be b23a
00000160: cb02 b33d 7493 823e 43ad 3dbe 0135 3abe
00000170: a0f0 58be 5eb0 89bd c0ea d1bd c6b5 a0bd
00000180: 9d1f 523c b07f 86bd 94e6 39be 3b4f 1ebe
00000190: fa86 96be 4ece 073c d21a d9bd 25d6 f5bd
000001a0: dc4f 143e d38f 96bd e20f 8e3d 96ee 913e
000001b0: ccc6 f5bc da8e 1e3d 4c77 013e 2d35 a23a
000001c0: 42e1 0f3e 93a9 013e f657 f43d b7f6 373e
000001d0: 9ede c63e 17a0 17be 2925 a73b bf9b 843e
000001e0: cc73 a0be 0247 e23d b6b3 143e f428 b33d
000001f0: 623b c33e 3b89 833e fa03 0f3e 8f34 833e
00000200: 322e 4c3e 3c9b 393d 1ee9 043d 7654 01be
00000210: 6bb9 3e3e 1bb0 d23d 9820 733e b95a 11be
00000220: 96e4 fabe 36fc d4be d8fc 35be dfe6 69be
00000230: f23e 86bc c9c9 3fbd 2037 1f3d 91d1 a03e
00000240: 2884 ea3d 381d 023e b4a4 7b3e 7f64 10be
00000250: 0b19 65be d8cf c4bd e8c8 253d e08d c2bc
00000260: 636d b4bc 9355 bf3d e02d 9f3d 890c 2cbc
00000270: 5972 623d 54e1 97bd d1ef d2bd efef 62be
00000280: d598 6cbe d8f6 55be 4cc2 07be ff7e 34be
00000290: 9729 c5bd 5c7b 543e 28b3 373e c218 bc3d
000002a0: 9113 7fbe 32bf 90be a06b 85be 125a 64be
000002b0: b24f a2be 0beb 9fbe 5c84 283e 9189 733d
000002c0: f822 083c 86cf b53d 3f3a 983d c36a 2f3c
000002d0: 400a 243e e9cb efbc eaa3 34be e553 143e
000002e0: ea88 36bd c149 133d d99c 2dbe da0b 4fbe
000002f0: c33b 0bbe 0c5c dcbe d03b 34be 17b0 41be
00000300: 1366 c13d 4b31 643e 1046 813e 2f3c ab3d
00000310: cd2d 743e 7024 243e 024e cebe 3ae7 58be
00000320: f4f7 473d 82d3 01be 0a2b 263d 6aa2 cc3d
00000330: 60b3 cb3d b657 123e d07d af3e 1332 423e
00000340: 18d7 90bd 229b 0b3e d7d1 f03d 15e5 9cbd
00000350: 949d f5bd f434 b8bd f9f1 263c f6fe b9bd
00000360: 9126 44bd 3188 053e 7fcb eabc 3faf 09be
00000370: 3518 c3bc 42ff 77bd 4b39 f83d e4e9 5c3d
00000380: d8ee 4a3e 235b 573e cd1d 703e 2451 083e
00000390: 1abe 873d e6a4 d33c 972a 1cbd 7a2e 0cbe
000003a0: 7db5 eebd 6af1 33bd 3410 503e 48ed 0a3c
000003b0: 0eef 973d 26cc 023e bf5d 3dbd d0cf dfbd
000003c0: a483 42bd 7462 153e 0cd2 683c 8f39 d3bd
000003d0: 8f22 08be e740 cdbe a17e 013c a226 33bd
000003e0: 5c3f 5c3d df40 753e 8cf9 bf3d 8179 3a3e
000003f0: 1d3a 5f3e 337d c53d 0088 453d 7e4d 063e

block1.2.conv.bias f4 [8]
-0.010506486 0.047913276 -0.115414605 -0.13918681 0.082755506 -0.03802947 0.10486658 -0.1032602
00000000: 6523 2cbc b640 443d 7e5e ecbd fd86 0ebe
00000010: b87b a93d cac4 1bbd 4ac4 d63d 157a d3bd

block1.2.BN.weight f4 [8]
0.9569518 0.9887071 1.1241733 1.0161908 1.1137745 0.968807 0.9710808 1.0542234
00000000: cbfa 743f e91b 7d3f e9e4 8f3f 8a12 823f
00000010: 2a90 8e3f bc03 783f c098 783f cbf0 863f

block1.2.BN.bias f4 [8]
-0.31846434 -0.12269918 -0.030573444 0.01817711 0.1295197 -0.0921342 0.08550764 0.06590688
00000000: c20d a3be b549 fbbd 2975 fabc 2ae8 943c
00000010: d0a0 043e dbb0 bcbd a11e af3d 30fa 863d

block1.2.BN.running_mean f4 [8]
0.44535568 -0.022254966 -0.98129934 -1.303538 -0.68553567 -0.8899135 0.42218372 -0.80858374
00000000: a905 e43e 0c50 b6bc 6f36 7bbf 55da a6bf
00000010: 447f 2fbf 5fd1 63bf 7728 d83e 58ff 4ebf

block1.2.BN.running_var f4 [8]
2.3373976 1.9365245 1.9774052 2.954963 2.1271396 1.9257096 1.718764 2.9978335
00000000: ec97 1540 09e0 f73f 9d1b fd3f 1d1e 3d40
00000010: 0e23 0840 a77d f63f 7500 dc3f 81dc 3f40

block1.3.conv.weight f4 [4, 8, 3, 3]
0.09585494 -0.22376184 -0.1402653 -0.2840675 -0.16539364 -0.3112948 -0.28597558 -0.075492
-0.152388 -0.307598 -0.25719798 -0.21524009 0.023473356 0.03326465 0.02164962 0.18021958
0.005562749 0.08880028 0.22679532 0.3074911 0.15999307 -0.36933303 -0.25045863 -0.21688141
-0.39444476 -0.21623233 -0.32775834 0.12359562 -0.026460787 -0.047669638 0.06506184 -0.055514462
-0.017712276 0.001223231 -0.06586009 -0.017263848 0.10053453 0.12225658 -0.05230379 0.10974107
0.044292424 -0.16649036 0.064979464 0.03195124 0.021384308 -0.2919302 -0.14171794 -0.1888472
0.14141999 0.083096944 0.11995995 0.08845038 0.038343333 0.07426486 -0.1930002 -0.10527805
-0.13970482 -0.0069927205 0.13722926 0.030627066 0.016274972 0.1486751 0.2639956 0.1898288
-0.11088995 -0.06935898 0.09064675 -0.06725941 0.07544979 0.09903633 -0.07178995 0.19475336
-0.03450587 -0.07831027 0.06650958 0.037660122 0.068691224 0.1407498 -0.21561462 0.012909105
0.13212349 0.15548506 0.1391551 0.2050148 -4.324712e-05 0.061557643 -0.046258166 0.1591446
0.18709917 0.26259533 0.022835214 0.07701882 -0.45225644 -0.08080349 0.26545918 -0.03120318
-0.02394315 0.03565063 0.21036427 -0.019506374 0.32115024 0.46199638 -0.13168657 0.0036442413
-0.11295053 0.20302716 0.14020747 -0.10382906 0.23744072 -0.056250576 -0.13472284 0.010178413
-0.01747523 0.012593572 0.20656814 0.13179098 -0.1809469 0.046459913 0.121585764 0.08774316
0.05515427 0.07958129 0.071006395 0.33824524 0.052615598 0.21913166 -0.47522327 -0.17354
-0.025252275 0.039921906 -0.078488596 0.114263624 0.16243602 -0.021033032 0.12589021 -0.31735468
-0.21296285 -0.068207 0.15066355 -0.0097572645 -0.17249453 0.43604207 0.3385317 0.31042302
-0.1537573 -0.07735247 -0.30176428 -0.19559331 -0.09461968 -0.26276144 -0.050770354 0.040527772
-0.06366736 -0.336507 -0.20508817 -0.22884372 0.063376226 0.048529238 -0.01214719 0.16259673
0.23724687 -0.030352682 -0.027340924 -0.06802806 0.1033708 0.106711596 -0.1909638 0.03760763
0.069654904 -0.2805551 -0.10344981 0.024026103 0.22346814 -0.15869163 -0.11094699 0.10322118
0.028756278 -0.09982768 -0.12134564 -0.034075424 0.10972094 -0.18873589 0.24946596 0.13195634
0.032452732 0.2112217 -0.20247906 -0.3001075 -0.15842716 0.3334922 0.22976075 0.28976732
0.0033195566 -0.1265638 -0.07871229 0.0033272004 0.0715369 0.07872651 0.049059793 -0.22155316
-0.111039855 -0.07621481 -0.15408188 0.16591312 -0.030631186 -0.22706081 0.06102658 -0.103252165
0.11327816 0.087144226 0.16699985 0.07546289 -0.21057518 -0.008700257 -0.06765253 -0.18217655
-0.07148416 -0.15126593 -0.27191207 -0.011424934 0.12126307 0.03853464 0.19001985 0.25596187
0.07076207 -0.15479256 -0.060571212 -0.09168665 -0.1785793 -0.12523653 -0.1868275 -0.04487584
-0.1560847 -0.09375398 -0.09016712 0.08590499 0.028716834 -0.1332143 0.14718585 -0.010793078
-0.029474866 0.027501756 -0.087059 -0.08488379 0.024690766 -0.3768538 0.17642017 -0.1096158
-0.19565041 -0.008634494 -0.18899953 -0.3672814 0.37693194 0.17497367 -0.04844335 0.15945292
00000000: 984f c43d d321 65be b5a1 0fbe 4c71 91be
00000010: f35c 29be 0862 9fbe 646b 92be 8d9b 9abd
00000020: 9a0b 1cbe 7c7d 9dbe 74af 83be e667 5cbe
00000030: 324b c03c 8340 083d 8b5a b13c 7b8b 383e
00000040: b947 b63b ecdc b53d 083d 683e 796f 9d3e
00000050: 39d5 233e 3819 bdbe 1d3c 80be 2916 5ebe
00000060: aaf4 c9be 026c 5dbe f1cf a7be b31f fd3d
00000070: 4bc4 d8bc 3d41 43bd 243f 853d 2263 63bd
00000080: 5619 91bc d254 a03a a8e1 86bd ea6c 8dbc
00000090: 0ce5 cd3d a861 fa3d 803c 56bd edbf e03d
000000a0: f96b 353d 737c 2abe f413 853d 4edf 023d
000000b0: 252e af3c e077 95be 821e 11be 2961 41be
000000c0: 67d0 103e bb2e aa3d 90ad f53d 7925 b53d
000000d0: e60d 1d3d 2d18 983d d8a1 45be 059c d7bd
000000e0: c80e 0fbe 3123 e5bb d485 0c3e 9de5 fa3c
000000f0: 1753 853c 493e 183e 6e2a 873e 7b62 423e
00000100: 451a e3bd 150c 8ebd 01a5 b93d 4dbf 89bd
00000110: 6b85 9a3d 8fd3 ca3d 9c06 93bd 6d6d 473e
00000120: 0756 0dbd 2361 a0bd 2d36 883d 8041 1a3d
00000130: fcad 8c3d b720 103e 14ca 5cbe b680 533c
00000140: 614b 073e 7a37 1f3e ad7e 0e3e 66ef 513e
00000150: 3e64 35b8 de23 7c3d 3479 3dbd cdf6 223e
00000160: ed96 3f3e e572 863e ea10 bb3c 0bbc 9d3d
00000170: 288e e7be 4d7c a5bd 44ea 873e d09d ffbc
00000180: 6d24 c4bc 6506 123d bb69 573e d5cb 9fbc
00000190: ce6d a43e ca8a ec3e d8d8 06be 39d4 6e3b
000001a0: 9c52 e7bd 5ae6 4f3e 8c92 0f3e 55a4 d4bd
000001b0: a923 733e 0167 66bd c9f4 09be 5cc3 263c
000001c0: 3728 8fbc 4555 4e3c 9986 533e 37f4 063e
000001d0: 254a 39be c04c 3e3d f501 f93d b0b2 b33d
000001e0: 72e9 613d 84fb a23d cd6b 913d 7b2e ad3e
000001f0: 7483 573d 0d64 603e 7750 f3be 78b4 31be
00000200: dcdd cebc 2785 233d a1be a0bd 0c03 ea3d
00000210: a155 263e 774d acbc 5de9 003e 507c a2be
00000220: ef12 5abe 1db0 8bbd 8c47 1a3e efdc 1fbc
00000230: 68a2 30be e840 df3e 0754 ad3e c4ef 9e3e
00000240: 8e72 1dbe f96a 9ebd d980 9abe 9d49 48be
00000250: f6c7 c1bd ab88 86be 93f4 4fbd 7300 263d
00000260: 0864 82bd a54a acbe a202 52be 0256 6abe
00000270: 65cb 813d 98c6 463d 0205 47bc c27f 263e
00000280: d8f0 723e 30a6 f8bc 13fa dfbc 4c52 8bbd
00000290: 12b4 d33d 9c8b da3d 048c 43be 750a 1a3d
000002a0: 3ba7 8e3d eba4 8fbe 7edd d3bd 64d2 c43c
000002b0: d5d4 643e 0f80 22be 2d38 e3bd a065 d33d
000002c0: 4992 eb3c 7472 ccbd 1084 f8bd ac92 0bbd
000002d0: 5fb5 e03d fb43 41be 0174 7f3e 901f 073e
000002e0: 28ed 043d 804a 583e ac56 4fbe b1a7 99be
000002f0: bb3a 22be 7dbf aa3e 6746 6b3e 625c 943e
00000300: eb8c 593b f199 01be e933 a1bd 290d 5a3b
00000310: f081 923d 5d3b a13d ecf2 483d d5de 62be
00000320: dd68 e3bd 8316 9cbd a4c7 1dbe 21e5 293e
00000330: 41ee fabc a182 68be 02f7 793d df75 d3bd
00000340: 61fe e73d ac78 b23d 0202 2b3e 4a8c 9a3d
00000350: 05a1 57be 868b 0ebc 698d 8abd 7d8c 3abe
00000360: 4a66 92bd 75e5 1abe 0f38 8bbe a52f 3bbc
00000370: c658 f83d 80d6 1d3d 9094 423e 6f0d 833e
00000380: b4eb 903d f181 1ebe 8519 78bd 36c6 bbbd
00000390: 7edd 36be 013e 00be b54f 3fbe bbcf 37bd
000003a0: abd4 1fbe 1602 c0bd 8aa9 b8bd f5ee af3d
000003b0: 913f eb3c 5469 08be e3b7 163e 73d5 30bc
000003c0: 4675 f1bc 5d4b e13c fd4b b2bd 8dd7 adbd
000003d0: 4a44 ca3c fbf2 c0be 7da7 343e 407e e0bd
000003e0: 9558 48be b177 0dbc 1889 41be 4f0c bcbe
000003f0: 39fd c03e 4c2c 333e 896c 46bd a047 233e

block1.3.conv.bias f4 [4]
0.008763411 -0.10630607 -0.19348365 -0.06663619
00000000: 6994 0f3c ffb6 d9bd 9420 46be 8e78 88bd

block1.3.BN.weight f4 [4]
1.0347806 0.9311097 0.99772584 0.96552384
00000000: b173 843f 355d 6e3f f66a 7f3f 922c 773f

block1.3.BN.bias f4 [4]
0.0051594684 -0.090679035 0.49831796 0.12478814
00000000: c210 a93b eeb5 b9bd 8823 ff3e ed90 ff3d

block1.3.BN.running_mean f4 [4]
-0.5067277 0.97149587 -0.7485358 -0.81633055
00000000: e8b8 01bf f4b3 783f 0ba0 3fbf 0afb 50bf

block1.3.BN.running_var f4 [4]
1.1878644 0.84896433 1.1295602 0.9794404
00000000: f10b 983f ba55 593f 6e95 903f 9bbc 7a3f

block2.0.conv.weight f4 [8, 4, 3, 3]
-0.11127167 -0.15040776 -0.114023834 0.037350085 0.16261041 0.08691079 0.086495996 -0.17948359
-0.095517926 -0.14955729 0.095633514 -0.027580291 -0.16143462 0.13630824 0.017795272 -0.51256174
-0.12703381 0.21994796 0.39669704 -0.09578899 0.056859624 0.022377193 -0.16329858 0.10647198
0.17402638 -0.30704093 0.05154508 -0.15878725 -0.20598306 -0.0013392698 0.22036718 -0.089772694
0.14767757 0.017610379 0.31054392 0.2641908 -0.21359478 0.1185259 -0.11503644 -0.1649153
0.28351474 0.2813759 0.011096546 0.20400892 -0.13285716 -0.13034548 -0.11406136 -0.032821298
0.15135993 0.044708703 0.07980733 -0.23894647 0.04524036 0.10377505 -0.38064924 -0.261283
-0.47962764 -0.20312572 -0.2714588 -0.36100516 0.033032417 0.046507563 -0.10863814 -0.05708086
0.08396246 -0.31180322 0.0792263 0.08503325 -0.18208773 0.30371293 0.009763764 -0.12260849
-0.2534871 -0.15258731 -0.16379713 -0.117489554 -0.025009414 0.19668394 0.38516676 0.34073085
0.30512357 -0.1362842 -0.04038981 -0.11121962 0.11995339 -0.033050984 -0.040847413 0.1708473
-0.12822326 -0.19694021 -0.16892543 -0.24545424 0.02714617 -0.21913898 0.05290272 0.21828786
0.078142144 0.19393396 0.18093422 -0.21771124 0.120647654 0.02094233 0.20976032 0.23648553
0.13877375 -0.17477927 -0.073573515 -0.12363523 0.23517637 -0.03174201 0.23808104 -0.15548828
0.13789125 -0.036986858 0.25934517 0.40927193 0.51446104 -0.13915141 -0.13930738 -0.22785382
0.054914586 0.19438541 0.065811574 0.18507837 0.077979885 0.20463637 0.11835455 0.08565266
0.0046153595 -0.27475142 -0.023281304 -0.07694855 0.09720683 -0.117340796 -0.15698102 -0.04663565
-0.15793426 0.106179684 -0.06154864 -0.09472636 -0.113544166 0.09921682 0.041497707 0.13660446
-0.29896444 -0.033910885 0.11085026 0.20591368 0.017090758 -0.1884463 0.069905914 0.033532675
0.036728356 0.005580051 -0.1669707 -0.46346974 0.20253259 -0.11214739 -0.012258011 -0.066089675
0.101501174 0.11708303 0.17715701 -0.24352112 -0.2174134 0.19201685 -0.114044674 -0.08428689
0.20460838 0.09597174 0.11630264 -0.08650163 0.33597252 0.41044012 0.021086302 0.101538725
0.34778947 -0.052610595 0.037949633 0.015767414 -0.27414358 0.014298663 -0.22399034 0.018163018
0.01389873 0.12605411 0.2278991 0.08999987 0.0110495975 -0.24642521 0.033836868 -0.09429001
-0.16601522 0.047473807 0.001894766 -0.1894875 -0.06335568 -0.07385337 0.008574018 -0.21545646
0.28300595 0.47012222 0.001085439 0.2216733 0.10475393 -0.16805534 0.05388388 -0.24117672
0.23345764 0.103114575 -0.19742116 -0.06967252 -0.06026297 -0.12045147 0.26291034 0.15942274
0.19240567 0.037408628 -0.072630435 0.1104161 0.053159114 0.31046432 -0.060909346 -0.14225076
-0.3578122 0.04447632 -0.04112636 -0.32495475 0.0070717274 -0.20144144 -0.11041639 0.34312958
0.20976833 -0.0071107615 -0.102098644 -0.19895777 -0.23707265 0.10646731 0.12543051 0.19049685
-0.1114952 -0.4166746 -0.3229892 -0.1137348 -0.18214867 0.07392122 0.042010695 0.13651457
0.042813398 0.17609733 0.13612306 0.10195535 -0.27838454 -0.06132572 0.027111286 -0.077221625
00000000: 67e2 e3bd 7e04 1abe 5485 e9bd 67fc 183d
00000010: 5883 263e 49fe b13d d024 b13d 8cca 37be
00000020: e79e c3bd 8c25 19be 81db c33d 10f0 e1bc
00000030: 1e4f 25be 6394 0b3e 64c7 913c 3f37 03bf
00000040: 2715 02be 0a3a 613e e01b cb3e 052d c4bd
00000050: a3e5 683d 6050 b73c be37 27be fb0d da3d
00000060: f933 323e 7834 9dbe ef20 533d 2099 22be
00000070: 39ed 52be 708a afba efa7 613e bfda b7bd
00000080: ca38 173e a443 903c 9dff 9e3e 0444 873e
00000090: 97b8 5abe b5bd f23d 3a98 ebbd 8edf 28be
000000a0: d828 913e 8110 903e 4ace 353c b7e7 503e
000000b0: b50b 08be 4979 05be 0199 e9bd a06f 06bd
000000c0: 19fe 1a3e 7920 373d 0772 a33d 62ae 74be
000000d0: f54d 393d 0388 d43d 75e4 c2be e3c6 85be
000000e0: c191 f5be 3000 50be a6fc 8abe abd5 b8be
000000f0: 004d 073d b77e 3e3d ac7d debd 9fcd 69bd
00000100: 83f4 ab3d aca4 9fbe 6641 a23d ea25 ae3d
00000110: 3575 3abe 4380 9b3e 32f8 1f3c 291a fbbd
00000120: 10c9 81be d93f 1cbe 6fba 27be 5d9e f0bd
00000130: 8be0 ccbc 8467 493e 9434 c53e 4674 ae3e
00000140: 2839 9c3e 168e 0bbe c96f 25bd 1dc7 e3bd
00000150: 1faa f53d 7860 07bd 9e4f 27bd 98f2 2e3e
00000160: f54c 03be b2aa 49be cafa 2cbe 5b58 7bbe
00000170: a561 de3c f865 60be 86b0 583d da86 5f3e
00000180: fd08 a03d a096 463e d246 393e b2ef 5ebe
00000190: 1e16 f73d 408f ab3c 69cb 563e 4329 723e
000001a0: b51a 0e3e 56f9 32be b6ad 96bd 7834 fdbd
000001b0: 13d2 703e e903 02bd 84cb 733e 5238 1fbe
000001c0: 5d33 0d3e 887f 17bd e4c8 843e 178c d13e
000001d0: b8b3 033f b57d 0ebe 98a6 0ebe 8352 69be
000001e0: 1eee 603d f80c 473e 38c8 863d 2f85 3d3e
000001f0: ebb3 9f3d 328c 513e df63 f23d a96a af3d
00000200: 713c 973b 38ac 8cbe 6fb8 bebc 3497 9dbd
00000210: 6014 c73d 5f50 f0bd a2bf 20be 0605 3fbd
00000220: 85b9 21be bc74 d93d 6d1a 7cbd e5ff c1bd
00000230: d889 e8bd 3032 cb3d 80f9 293d 0ae2 0b3e
00000240: de11 99be 24e6 0abd 7605 e33d 09db 523e
00000250: eb01 8c3c 11f8 40be d52a 8f3d 8f59 093d
00000260: 7970 163d dcd8 b63b 5efa 2abe e84b edbe
00000270: b464 4f3e 88ad e5bd d3d5 48bc 065a 87bd
00000280: d9df cf3d 3ac9 ef3d a668 353e 9a5d 79be
00000290: 9ea1 5ebe 11a0 443e 4190 e9bd 9b9e acbd
000002a0: dc84 513e d58c c43d 1430 ee3d c427 b1bd
000002b0: 9704 ac3e 3525 d23e 2ebd ac3c 89f3 cf3d
000002c0: 7611 b23e 357e 57bd 1371 1b3d aa2a 813c
000002d0: 8c5c 8cbe f044 6a3c b95d 65be 9cca 943c
000002e0: 80b7 633c 5414 013e 625e 693e da51 b83d
000002f0: 5f09 353c e456 7cbe 8798 0a3d 1f1b c1bd
00000300: e5ff 29be e573 423d cc59 f83a 0309 42be
00000310: 9fc0 81bd 7040 97bd 0a7a 0c3c 9ea0 5cbe
00000320: 28e6 903e dcb3 f03e 4a45 8e3a 53fe 623e
00000330: 3a89 d63d b316 2cbe 58b5 5c3d 08f7 76be
00000340: 850f 6f3e bc2d d33d c628 4abe 77b0 8ebd
00000350: 4ed6 76bd 43af f6bd 2f9c 863e b73f 233e
00000360: fe05 453e ca39 193d 44bf 94bd d621 e23d
00000370: 5fbd 593d 2ef5 9e3e 147c 79bd 2faa 11be
00000380: 2933 b7be cd2c 363d 1d74 28bd 7860 a6be
00000390: f3b9 e73b aa46 4ebe fd21 e2bd aeae af3e
000003a0: 82cd 563e 6401 e9bb 1819 d1bd 96bb 4bbe
000003b0: 2cc3 72be 880b da3d db70 003e 9b11 433e
000003c0: 9857 e4bd 6056 d5be d75e a5be caed e8bd
000003d0: 2e85 3abe 0264 973d 6813 2c3d 7aca 0b3e
000003e0: 1a5d 2f3d dc52 343e d863 0b3e f7cd d03d
000003f0: 6b88 8ebe ae30 7bbd 7d18 de3c 5f26 9ebd

block2.0.conv.bias f4 [8]
-0.10049063 -0.17401946 0.048771035 -0.17522958 -0.030103056 -0.15798657 -0.1754683 -0.020221377
00000000: 08ce cdbd 2832 32be 23c4 473d 626f 33be
00000010: af9a f6bc 3bc7 21be f6ad 33be 4da7 a5bc

block2.0.BN.weight f4 [8]
1.0088284 0.9004877 0.90105075 1.0267793 0.99073255 1.037705 1.0640229 1.0861793
00000000: 4a21 813f 5d86 663f 43ab 663f 816d 833f
00000010: a6a0 7d3f 84d3 843f e731 883f ec07 8b3f

block2.0.BN.bias f4 [8]
-0.0069011888 -0.122672535 0.09624738 -0.13210139 0.21412589 -0.13999546 -0.21699227 -0.018552432
00000000: 5e23 e2bb bd3b fbbd 591d c53d 9645 07be
00000010: d143 5b3e f85a 0fbe 3933 5ebe 45fb 97bc

block2.0.BN.running_mean f4 [8]
0.025184317 -1.5100281 0.2768045 0.15871246 0.37413478 0.17661248 -0.6641349 0.0060899155
00000000: 574f ce3c 9a48 c1bf 52b9 8d3e 8585 223e
00000010: 988e bf3e e7d9 343e bf04 2abf ea8d c73b

block2.0.BN.running_var f4 [8]
0.30693135 0.6212452 0.6315178 0.47650638 0.6222257 0.47185677 0.49577913 0.6201721
00000000: 1b26 9d3e ed09 1f3f 27ab 213f a5f8 f33e
00000010: 2f4a 1f3f 3697 f13e c3d6 fd3e 99c3 1e3f

block2.1.conv.weight f4 [16, 8, 3, 3]
0.1625837 0.080545105 0.05001477 0.100248314 0.2566299 -0.006914122 -0.033348396 -0.11499635
-0.36883524 -0.07368448 -0.068555586 -0.11883713 0.33786076 0.13395204 -0.026927847 0.30814946
0.20792931 -0.13253364 0.13502274 -0.04151543 -0.11807966 0.032019015 0.121195875 0.08842106
-0.014045991 -0.0777229 -0.16101511 -0.108427815 -0.24814484 -0.067063406 0.13540334 0.24287185
0.001025673 -0.049704496 -0.27482575 -0.23983265 0.026238084 0.028472887 -0.5018742 -0.039114814
-0.016107889 -0.21036918 -0.09454322 0.07472574 -0.037252925 -0.06325681 0.12379206 0.054737385
-0.036129482 0.06876247 -0.0175033 -0.14991523 -0.01126998 -0.12852253 -0.029272232 -0.011775276
0.048344113 -0.024995942 -0.3925582 -0.17361464 -0.054182004 -0.15612012 -0.35947672 0.050584037
0.057637837 0.32825908 -0.088150375 -0.11852908 -0.0033401093 -0.0736024 -0.109176725 -0.023818301
-0.037056684 -0.037363898 -0.15786184 0.04130106 -0.00086188625 -0.08150383 0.1803666 0.19336888
0.30346462 0.03319791 0.26245826 0.2935523 -0.11422237 0.22791234 0.11423796 -0.2003368
-0.1960831 0.016247129 -0.11210129 -0.29249358 -0.26834345 0.028294805 -0.1734197 -0.07874835
-0.00701538 0.06046784 0.072888866 0.16997042 0.0998071 -0.046385214 -0.18620254 -0.29153052
-0.09729839 0.0159546 0.027148467 0.15320447 -0.21833122 -0.064846806 -0.03199715 -0.09314567
-0.040897094 -0.03445498 0.15531422 0.08222675 -0.12812394 -0.1933274 -0.13962036 -0.18719177
-0.3005091 -0.21196473 -0.25775158 0.36754453 0.31212074 0.09465592 0.03694289 0.2933364
0.100882225 -0.016030949 -0.14687489 -0.1537837 0.171424 0.15824568 0.31083897 -0.03911407
-0.0061506266 -0.16250333 -0.34504727 -0.21699245 -0.10679318 0.07390499 0.16517429 0.057581577
0.13573852 0.062288698 -0.34773305 0.2951443 0.18815234 0.017905591 -0.06684186 -0.013428603
-0.12911388 0.0848568 -0.1099312 -0.1479108 -0.11631858 -0.22213657 -0.2108725 -0.019528324
-0.01876829 -0.1178753 0.14109276 0.17256038 -0.2940653 -0.37544918 -0.1670479 -0.2314991
0.022712465 0.07696605 0.112228654 0.22981182 0.009026816 -0.0049121073 -0.08203904 -0.1740798
-0.23085119 -0.2161342 -0.03288843 -0.18002602 0.17592408 0.20047477 -0.17616135 0.11996423
0.16839848 -0.20029947 -0.08786246 0.06681007 -0.17481467 0.16464323 0.3642736 -0.014800448
0.04128819 0.16732967 -0.08867217 -0.038627878 0.054823097 0.0029245797 0.062373485 0.054917123
-0.17511992 0.21020705 0.286391 -0.10738877 0.060617104 0.24904178 0.025204455 0.006356491
0.009283454 -0.066070035 0.058420267 0.0056040026 0.06798286 -0.13447364 -0.043838926 0.20660913
-0.01387573 0.15047787 0.049248766 0.06870208 0.24197643 0.14195748 0.08678068 0.17737092
0.16370937 0.024727132 0.19774027 0.14411816 -0.1356145 -0.106573954 -0.05075224 -0.12936658
-0.11451247 0.06563522 0.03856041 -0.0810779 0.05097967 0.10576479 0.1162613 0.24128771
0.25646326 0.20219974 0.16354464 0.10430989 0.3130621 0.28980646 0.17176616 0.1354205
0.20912693 0.34189624 0.14078082 0.3982842 -0.056948952 -0.15785842 0.1288965 -0.024538025
00000000: 577c 263e d5f4 a43d 4adc 4c3d fd4e cd3d
00000010: ff64 833e dc8f e2bb 5498 08bd 3583 ebbd
00000020: f9d7 bcbe e3e7 96bd df66 8cbd e260 f3bd
00000030: 16fc ac3e b92a 093e ca97 dcbc c4c5 9d3e
00000040: 6ceb 543e e6b6 07be 6743 0a3e 150c 2abd
00000050: c0d3 f1bd 5f26 033d 8b35 f83d 1a16 b53d
00000060: 2821 66bc 2f2d 9fbd 25e1 24be 670f debd
00000070: ae19 7ebe 8a58 89bd 2ca7 0a3e 66b3 783e
00000080: e06f 863a f196 4bbd f6b5 8cbe b196 75be
00000090: 40f1 d63c f93f e93c d47a 00bf db36 20bd
000000a0: b1f4 83bc 056b 57be e09f c1bd cf09 993d
000000b0: 8696 18bd c98c 81bd b186 fd3d 4f34 603d
000000c0: 82fc 13bd 56d3 8c3d 1563 8fbc 6183 19be
000000d0: b9a5 38bc 699b 03be 52cc efbc 16ed 40bc
000000e0: 7a04 463d 4ac4 ccbc 63fd c8be 09c8 31be
000000f0: f3ed 5dbd f4dd 1fbe 550d b8be 3531 4f3d
00000100: a715 6c3d 9311 a83e 2f88 b4bd 60bf f2bd
00000110: bce5 5abb dbbc 96bd 0c98 dfbd 991e c3bc
00000120: c0c8 17bd e30a 19bd 89a6 21be 4d2b 293d
00000130: 35f0 61ba 7beb a6bd 06b2 383e 7e02 463e
00000140: b75f 9b3e 88fa 073d ee60 863e 7d4c 963e
00000150: 6bed e9bd da61 693e 97f5 e93d 1725 4dbe
00000160: 02ca 48be b318 853c 5c95 e5bd b8c1 95be
00000170: 5064 89be 82ca e73c ef94 31be d146 a1bd
00000180: 46e1 e5bb 20ad 773d c246 953d ba0c 2e3e
00000190: aa67 cc3d 6cfe 3dbd e1ab 3ebe 7d43 95be
000001a0: 6144 c7bd 39b3 823c 7666 de3c a2e1 1c3e
000001b0: 3892 5fbe 67ce 84bd 720f 03bd 28c3 bebd
000001c0: b683 27bd aa20 0dbd b10a 1f3e 8066 a83d
000001d0: ec32 03be 9ef7 45be a4f8 0ebe 33af 3fbe
000001e0: 54dc 99be 480d 59be 04f8 83be cc2e bc3e
000001f0: 4ace 9f3e f7da c13d 6e51 173d 3030 963e
00000200: 579b ce3d 5653 83bc 5f66 16be 7979 1dbe
00000210: c689 2f3e 280b 223e 4926 9f3e 1336 20bd
00000220: 328b c9bb 4667 26be 09aa b0be 4533 5ebe
00000230: 62b6 dabd 805b 973d 7323 293e a9da 6b3d
00000240: 0aff 0a3e 6f22 7f3d 110a b2be 271d 973e
00000250: 02ab 403e bfae 923c 63e4 88bd a503 5cbc
00000260: 6e36 04be 67c9 ad3d 9c23 e1bd ee75 17be
00000270: 7038 eebd c577 63be f6ee 57be ddf9 9fbc
00000280: f5bf 99bc 9b68 f1bd 9f7a 103e abb3 303e
00000290: ba8f 96be e03a c0be 9b0e 2bbe 1a0e 6dbe
000002a0: 7e0f ba3c 60a0 9d3d 23d8 e53d ca53 6b3e
000002b0: 36e5 133c bef5 a0bb 1604 a8bd fa41 32be
000002c0: 4164 6cbe 4952 5dbe 05b6 06bd be58 38be
000002d0: 7125 343e 4249 4d3e a463 34be ceaf f53d
000002e0: a770 2c3e 4e1b 4dbe 3cf1 b3bd b8d3 883d
000002f0: 9e02 33be 3c98 283e 1282 ba3e 947d 72bc
00000300: ce1d 293d 7858 2b3e c199 b5bd 4438 1ebd
00000310: 2f8e 603d 4eaa 3f3b 577b 7f3d c7f0 603d
00000320: a352 33be 8440 573e d7a1 923e a5ee dbbd
00000330: a449 783d cf04 7f3e 9379 ce3c 1c4a d03b
00000340: a119 183c ba4f 87bd 174a 6f3d c8a1 b73b
00000350: 993a 8b3d 75b3 09be 7290 33bd 5891 533e
00000360: 0857 63bc df16 1a3e 13b9 493d adb3 8c3d
00000370: abc8 773e 4d5d 113e 12ba b13d b9a0 353e
00000380: 6ea3 273e 8e90 ca3c 6d7c 4a3e b693 133e
00000390: 87de 0abe 7243 dabd 95e1 4fbd ac78 04be
000003a0: 8485 eabd c26b 863d 85f1 1d3d 2c0c a6bd
000003b0: 0fd0 503d 369b d83d 681a ee3d 2014 773e
000003c0: 274f 833e 730d 4f3e 3f78 273e 6ca0 d53d
000003d0: ad49 a03e 8361 943e 78e3 2f3e acab 0a3e
000003e0: 5f25 563e 060d af3e d928 103e e8eb cb3e
000003f0: 4e43 69bd a3a5 21be 72fd 033e f803 c9bc

block2.1.conv.bias f4 [16]
-0.0057744905 0.06866001 0.05186419 -0.009101188 0.028204761 -0.09687347 -0.005463324 0.0132640535
0.005199495 -0.08350851 0.18971615 -0.07279025 0.040286865 -0.16935168 -0.0667898 0.04608896
00000000: f037 bdbb 9f9d 8c3d 8b6f 543d 261d 15bc
00000010: ac0d e73c 9965 c6bd af05 b3bb 7951 593c
00000020: 8660 aa3b 8206 abbd f344 423e 0e13 95bd
00000030: d703 253d 876a 2dbe 17c9 88bd c7c7 3c3d

block2.1.BN.weight f4 [16]
1.0422487 1.1130391 1.0311803 0.8607817 1.0623571 1.114134 0.94392157 0.928658
0.95135486 1.0844853 1.0414914 0.8346854 0.9443288 0.95952576 1.1946614 0.95602876
00000000: 6868 853f 1178 8e3f b7fd 833f 315c 5c3f
00000010: 51fb 873f f19b 8e3f d8a4 713f 88bc 6d3f
00000020: fe8b 733f 6ad0 8a3f 974f 853f f1ad 553f
00000030: 88bf 713f 7ba3 753f aaea 983f 4dbe 743f

block2.1.BN.bias f4 [16]
-0.09343635 -0.110905476 -0.23832007 -0.38681525 -0.28155124 -0.069002666 -0.20209336 -0.10002361
-0.045317788 -0.099142395 0.08794962 -0.14968121 -0.17081104 -0.21750276 0.02242873 -0.020609101
00000000: 8f5b bfbd 6922 e3bd 2d0a 74be a60c c6be
00000010: 7c27 90be 4551 8dbd 90f1 4ebe 2ed9 ccbd
00000020: 259f 39bd 2b0b cbbd ee1e b43d 0846 19be
00000030: 17e9 2ebe 0bb9 5ebe 75bc b73c 6bd4 a8bc

block2.1.BN.running_mean f4 [16]
-0.7745254 -0.38161325 -0.08184682 1.8372372 0.21913964 -0.594735 -0.25878146 -0.22322978
-1.0328883 0.3000113 -0.84218997 -0.055164922 -0.72529626 0.20206767 -0.8909372 -0.77677304
00000000: 4c47 46bf d062 c3be 4e9f a7bd 972a eb3f
00000010: 2466 603e 8e40 18bf 017f 84be 5996 64be
00000020: af35 84bf 159b 993e c399 57bf 9df4 61bd
00000030: 04ad 39bf d4ea 4e3e 7614 64bf 99da 46bf

block2.1.BN.running_var f4 [16]
1.1353797 1.8448908 1.3260654 2.142634 1.056189 2.586509 1.5334871 1.7038938
0.9351027 1.2613765 1.2125484 1.0385556 1.6098832 1.5706003 1.4544727 1.6247375
00000000: 1f54 913f 6225 ec3f 83bc a93f ea20 0940
00000010: 3331 873f 5d89 2540 4e49 c43f 3119 da3f
00000020: e462 6f3f c974 a13f c934 9b3f 64ef 843f
00000030: a710 ce3f 6e09 c93f 292c ba3f 66f7 cf3f
