model/result/0514 1121.pt (torch, 79197 bytes, 98 tensors)

input_conv.conv.weight f4 [4, 1, 3, 3]
0	0x3ec00717	0.3750541
1	0x3d5f17f1	0.05446619
2	0xbe07a0fd	-0.13245006
3	0x3df31738	0.11869663
4	0x3ea65448	0.32486176
5	0x3eb51115	0.35364595
6	0xbe821f41	-0.2541447
7	0xbe8a5f51	-0.27025846
8	0xbe672c9a	-0.22575608
9	0x3bd15643	0.006388457
10	0x3e4539aa	0.19260278
11	0x3e20c41a	0.15699807
12	0xbe0a24ad	-0.13490553
13	0xbe707de4	-0.23485523
14	0xbddeba53	-0.10875382
15	0x3e6ca145	0.23108394
16	0x3f12fc00	0.5741577
17	0x3ecc85d4	0.39945853
18	0x3e550150	0.20801282
19	0x3da4b9b2	0.08043231
20	0xbe436f21	-0.19085361
21	0x3e2d59e3	0.1692882
22	0x3d3d801e	0.04626476
23	0xbe47b1d4	-0.1950143
24	0x3ee574f5	0.44815794
25	0xbdd4d293	-0.10391726
26	0xbdd650c0	-0.104646206
27	0x3e6d0158	0.23145044
28	0x3d82660b	0.063671194
29	0xbd5843a0	-0.052798867
30	0xbe54b615	-0.20772584
31	0xbe824d09	-0.25449398
32	0xbd8047b5	-0.06263677
33	0xbe88a629	-0.2668927
34	0xbef45ea8	-0.47728467
35	0xbf0857f2	-0.53259194

input_conv.conv.bias f4 [4]
0	0xbde674af	-0.112527244
1	0xbd61c9b2	-0.055123992
2	0x3d9bc9ec	0.07606873
3	0xbe83c289	-0.25734356

input_conv.BN.weight f4 [4]
0	0x3f8f2023	1.1181682
1	0x3f85d5f6	1.0455921
2	0x3f595c7c	0.84906745
3	0x3f7a383f	0.97742075

input_conv.BN.bias f4 [4]
0	0x3e86fe71	0.26365998
1	0xbe02db00	-0.12778854
2	0x3e9b69a7	0.30354044
3	0xbe439ecf	-0.1910355

input_conv.BN.running_mean f4 [4]
0	0xbdf24025	-0.11828641
1	0xbdccdd1f	-0.10003113
2	0x3d7982b7	0.060915675
3	0xbe418b0c	-0.18900698

input_conv.BN.running_var f4 [4]
0	0x3e3071ad	0.17230864
1	0x3f874899	1.056903
2	0x3e43f75d	0.1913733
3	0x4014be77	2.324125

block1.0.conv.weight f4 [8, 4, 3, 3]
0	0x3bb10482	0.0054021487
1	0x3e5bf254	0.2147916
2	0x3de06d5b	0.10958358
3	0x3c92f5e8	0.017939523
4	0x3e4217de	0.18954417
5	0x3dcf6345	0.10126356
6	0xbed9210c	-0.42408025
7	0xbe307d38	-0.17235267
8	0xbeb8251e	-0.35965818
9	0x3e897242	0.26844984
10	0x3ed47a9c	0.41499794
11	0x3c04581d	0.0080776485
12	0xbca64574	-0.02029679
13	0xbd8b25f3	-0.067943476
14	0x3d62f0f6	0.05540558
15	0xbe9addc3	-0.30247316
16	0x3d0a5bd0	0.033778965
17	0x3dfa0de7	0.12209683
18	0xbd013786	-0.031547092
19	0x3c3a660b	0.011376868
20	0xbd56a1c7	-0.052400377
21	0xbe4e209d	-0.20129628
22	0x3d3c128f	0.045916136
23	0x3d82834e	0.06372701
24	0xbdfeef69	-0.124480076
25	0xbe8ed440	-0.2789631
26	0x3e1a3934	0.15060884
27	0xbe0b0934	-0.1357773
28	0xbe2870de	-0.16449305
29	0x3df66d59	0.12032575
30	0x3e44eb08	0.19230282
31	0x3e027890	0.12741303
32	0x3da89e8e	0.08233367
33	0xbc87e708	-0.016589656
34	0x3c12e3df	0.0089654615
35	0xbe9c7c51	-0.30563596
36	0xbe1cb49b	-0.1530327
37	0xbeb284d5	-0.34866968
38	0xbe64d7fd	-0.22348018
39	0xbeafccb3	-0.3433586
40	0xbe8873a8	-0.2665074
41	0xbd891fb8	-0.06695503
42	0xbddcac29	-0.107750244
43	0x3e20add1	0.15691306
44	0x3d898f2b	0.0671676
45	0xbd029ec0	-0.031889677
46	0x3e396dbb	0.18108265
47	0x3e6d0aef	0.23148702
48	0xbd31126a	-0.04323045
49	0x3e5bfa86	0.21482286
50	0x3bbcae43	0.0057580783
51	0x3eeb0118	0.45899272
52	0x3ea9ade6	0.33140486
53	0x3d4a257e	0.04935216
54	0xbcd9f571	-0.026606293
55	0xbe540a99	-0.20707168
56	0x3d922ddc	0.07137653
57	0x3db2e54d	0.08735142
58	0x3d152757	0.03641447
59	0x3d8e0037	0.06933635
60	0x3e06fa6c	0.13181466
61	0x3e6aefd8	0.22943056
62	0x3e146bf6	0.14494309
63	0xbe2c693f	-0.16837023
64	0xbe45682a	-0.19278017
65	0xbe230b6a	-0.15922323
66	0xbdd4ed81	-0.10396863
67	0xbe345cc2	-0.1761351
68	0xbd38e20b	-0.045137446
69	0xbce958c1	-0.028484704
70	0x3d4cce6a	0.05000154
71	0x3e7a4a12	0.24442318
72	0x3c6d3eb0	0.014480278
73	0xbe0fb073	-0.14032154
74	0xbeb39a77	-0.35078785
75	0x3de57889	0.11204631
76	0xbdd024c5	-0.10163263
77	0x3d89e575	0.067332186
78	0x3ee698f9	0.45038584
79	0x3ebb9c46	0.36642665
80	0x3e7884da	0.24269429
81	0x3e421c37	0.18956076
82	0xbdc3c8b9	-0.09559769
83	0xbe99fb7c	-0.3007468
84	0x3ee59371	0.4483905
85	0x3d02fa2d	0.031976867
86	0xbd1aba3c	-0.037775263
87	0x3d0047f1	0.03131861
88	0xbe094231	-0.13404156
89	0xbdf64873	-0.12025537
90	0x3e78beda	0.24291554
91	0x3e0acc31	0.13554455
92	0x3d9e20c5	0.07721094
93	0x3de50034	0.11181679
94	0x3d66a30c	0.056307837
95	0x3dec93fa	0.11551662
96	0xbd9b4ca9	-0.07582981
97	0xbe26427b	-0.16236298
98	0xbb14a8e3	-0.0022683672
99	0xbdc8ccf3	-0.09804716
100	0xbe3dac41	-0.18522741
101	0xbb76dff7	-0.0037670115
102	0x3da14f05	0.078764
103	0x3e01359d	0.12618108
104	0x3dfa2691	0.12214387
105	0x3db29cba	0.087212995
106	0xbe77235e	-0.24134585
107	0xbc94b3bb	-0.018152108
108	0x3e677e35	0.22606738
109	0xbd836a49	-0.06416757
110	0x3d9ef949	0.07762391
111	0xbe51589d	-0.2044396
112	0x3d07c512	0.033146925
113	0xbdff569c	-0.12467691
114	0x3eaf25a4	0.34208405
115	0x3e3556e0	0.17708921
116	0xbe8f77c9	-0.28021076
117	0x3e8289de	0.2549581
118	0x3e9d024d	0.30665818
119	0x3e1c88be	0.15286538
120	0x3e8e8a14	0.2783972
121	0xbdd6d4b0	-0.10489786
122	0xbe242e81	-0.16033365
123	0x3e8f2b7e	0.2796287
124	0x3dcbdffd	0.09954832
125	0xbd635472	-0.055500455
126	0xbeaf9bf1	-0.3429866
127	0xbce2accc	-0.027670287
128	0x3d8eaacd	0.069661714
129	0xbe31cd5e	-0.17363498
130	0xbd1d409c	-0.038391694
131	0xbd8fc6f6	-0.07020371
132	0x3d120ae7	0.03565493
133	0x3de3252a	0.11091073
134	0xbe69e4a3	-0.22841124
135	0xbe0e91ba	-0.13922778
136	0xbdf66cbd	-0.12032459
137	0xbe0f2231	-0.13977887
138	0xbe3bcae9	-0.18339123
139	0x3d7db7fa	0.06194303
140	0x3dd287c2	0.102798
141	0xbda643e8	-0.08118421
142	0x3e61386d	0.21994181
143	0x3e3ba342	0.18323997
144	0xbe6c43b2	-0.23072699
145	0xbddb90d8	-0.10720986
146	0xbd8d8bf3	-0.06911459
147	0x3df0ca4d	0.11757336
148	0x3ca7b928	0.020474032
149	0x3e84449a	0.2583359
150	0xbe4d7821	-0.20065357
151	0xbcf3b001	-0.029747011
152	0x3e07619b	0.13220827
153	0xbdc19102	-0.09451486
154	0x3de37741	0.1110673
155	0xbcc0e96e	-0.023548808
156	0xbd9d0860	-0.07667613
157	0x3e68193a	0.22665873
158	0x3e9e8882	0.30963522
159	0x3d28a063	0.04116858
160	0x3e672f5b	0.22576658
161	0x3e06afb1	0.13152958
162	0xbeb863f5	-0.3601376
163	0xbeba6f57	-0.3641307
164	0xbe7ee9ac	-0.24893826
165	0xbe6da825	-0.23208673
166	0xbda78007	-0.08178716
167	0xbd4ed75a	-0.050498344
168	0xbe8282ee	-0.25490516
169	0x3d983357	0.07431667
170	0x3d68d49f	0.056843396
171	0x3e0a3765	0.13497694
172	0xbdaf7810	-0.08567822
173	0xbba03c38	-0.004889991
174	0x3dc92c26	0.09822874
175	0x3c12a3f8	0.008950226
176	0xbab7b5b5	-0.0014015945
177	0xbe30bab6	-0.17258725
178	0xbe9b6998	-0.30354
179	0xbe9f2c0d	-0.31088296
180	0x3e2407dc	0.16018623
181	0x3e7b740e	0.2455599
182	0xbdd01204	-0.10159686
183	0xbea60b5f	-0.3243055
184	0x3e0b13c1	0.13581754
185	0x3d9b1737	0.07572787
186	0xbe7cc507	-0.24684535
187	0xbdad27e5	-0.08454875
188	0x3e4d688e	0.20059416
189	0x3c168699	0.009187364
190	0x3e89910b	0.26868472
191	0x3daaee14	0.08346191
192	0xbe7568c9	-0.23965754
193	0xbdd8a4dd	-0.1057832
194	0xbded4736	-0.11585848
195	0xbec6bca7	-0.38815805
196	0x3c88d4bc	0.016703002
197	0x3e0c3c88	0.13694966
198	0x3e145b65	0.14487989
199	0x3e983c81	0.2973366
200	0x3e213206	0.15741739
201	0xbe38a62f	-0.18032144
202	0xbe6e699f	-0.23282479
203	0xbdcdb2a5	-0.10043839
204	0xbe42d80d	-0.1902773
205	0x3cdb2904	0.026752956
206	0xbe1463f4	-0.14491254
207	0x3de74889	0.11293132
208	0xbe756cb8	-0.23967254
209	0xbe8c835c	-0.2744397
210	0x3e5d0404	0.21583563
211	0xbdec282f	-0.11531102
212	0x3b0bf6ae	0.002135675
213	0x3e7501a6	0.2392641
214	0x3e33ca19	0.17557563
215	0xbdae72ee	-0.08518015
216	0x3e84052a	0.2578519
217	0x3e2a6b5f	0.16642521
218	0x3d932cd4	0.07186285
219	0x3ebb585f	0.3659086
220	0xbcc86980	-0.024464369
221	0xbe88bb20	-0.26705265
222	0xbd997a4f	-0.07494032
223	0x3e0a28f3	0.13492183
224	0x3d1fa1e2	0.038972743
225	0x3d114c41	0.035473112
226	0xbe8307df	-0.25591943
227	0xbedc1197	-0.4298217
228	0x3bcc35f9	0.00623202
229	0xbe33ffb5	-0.17578013
230	0x3e322fef	0.17401098
231	0x3b6341ac	0.0034676595
232	0x3e070471	0.13185288
233	0x3cf805bf	0.030276177
234	0x3e7b1291	0.24518801
235	0xbe15acd8	-0.14616716
236	0xbe9d90ff	-0.30774686
237	0x3d1c7625	0.03819861
238	0xbe1e4629	-0.15456451
239	0xbd996344	-0.074896365
240	0x3d27b86f	0.040947374
241	0xbd1354f9	-0.035969708
242	0xbe8bdc81	-0.2731667
243	0x3dc66536	0.09687273
244	0x3e3c094e	0.18362924
245	0x3efa8d98	0.48936152
246	0xbda5fe34	-0.08105126
247	0x3e02bf05	0.1276818
248	0x3db66642	0.08906223
249	0xbcc65dc1	-0.024214627
250	0xbd828490	-0.063729405
251	0x3d921bbf	0.071341984
252	0xbe384b09	-0.17997374
253	0xbe24cde6	-0.16094169
254	0xbf222dd5	-0.63351184
255	0x3e4c0d83	0.1992703

block1.0.conv.bias f4 [8]
0	0x3ecaaa62	0.39583117
1	0x3c8f56a8	0.017497376
2	0x3d2a7d1e	0.041623227
3	0x3b9a5b90	0.004710622
4	0xbd5a2f02	-0.053267486
5	0xbe3fc825	-0.18728693
6	0xbddc8719	-0.10767955
7	0xbe7bc8c2	-0.24588302

block1.0.BN.weight f4 [8]
0	0x3f634d26	0.88789594
1	0x3f8ce269	1.1006595
2	0x3f683e97	0.90720505
3	0x3f7451b8	0.9543719
4	0x3f8a62f4	1.0811448
5	0x3f8881db	1.0664629
6	0x3f7f976e	0.9984044
7	0x3f869bf4	1.0516343

block1.0.BN.bias f4 [8]
0	0xb944e3eb	-0.00018776923
1	0x3d1811c3	0.037126314
2	0xbe3e57e9	-0.18588223
3	0xbd348486	-0.044071697
4	0x3e9c7a20	0.30561924
5	0x3f086b5b	0.5328881
6	0x3db736ae	0.08945976
7	0x3e169845	0.14706524

block1.0.BN.running_mean f4 [8]
0	0x3da6436d	0.08118329
1	0xbe975c2e	-0.29562515
2	0x3f64b5c1	0.89339834
3	0x3de1e287	0.11029535
4	0xbf806d26	-1.003331
5	0xbedeb5d4	-0.434981
6	0x3cee1dee	0.029067006
7	0xc012bd04	-2.2927866

block1.0.BN.running_var f4 [8]
0	0x3f007ed6	0.50193536
1	0x3f41ee7d	0.7575453
2	0x3f9fa3cf	1.2471865
3	0x3ec5c395	0.3862578
4	0x3f3f4179	0.7470928
5	0x3f0d1357	0.55107635
6	0x3f1af58c	0.60530925
7	0x4004c7a6	2.0746856

block1.1.conv.weight f4 [16, 8, 3, 3]
0	0xbe951d37	-0.29123852
1	0x3c8c3b39	0.017118083
2	0x3dabb59c	0.083842486
3	0x3ca79585	0.020457039
4	0xbd67192b	-0.056420486
5	0xbc93bec7	-0.018035306
6	0x3e1e7e1f	0.15477799
7	0x3b27b74d	0.0025591434
8	0xbdc3961d	-0.09550116
9	0x3e867c39	0.2626665
10	0x3df5bde3	0.11999109
11	0x3df416d0	0.11918414
12	0x3dd34219	0.103153415
13	0x3d11856f	0.035527643
14	0x3bf36d46	0.007428798
15	0xbdee46bf	-0.116345875
16	0xbe2e16fb	-0.17000954
17	0x3cae60ea	0.021286447
18	0x3e2be509	0.16786589
19	0x3dee4f89	0.11636264
20	0xbd8b5686	-0.068036124
21	0x3e99086d	0.2988924
22	0x3dccf0a9	0.1000684
23	0xbd1c3be9	-0.038143072
24	0xbd87db31	-0.06633604
25	0x3d87d320	0.06632066
26	0xbd9e1322	-0.07718493
27	0xbc27755a	-0.01022085
28	0x3e262079	0.16223325
29	0x3e6f8d30	0.23393703
30	0xbd02b364	-0.03190936
31	0x3d68a279	0.05679557
32	0xbe143aed	-0.14475603
33	0x3d322f6b	0.043502253
34	0x3d4a4b96	0.04938849
35	0xbc8b5e4e	-0.017012741
36	0xbdd636dd	-0.10459683
37	0xbeebb79f	-0.4603853
38	0xbf11cbb8	-0.56951475
39	0xbd8b8868	-0.06813127
40	0xbddb830c	-0.107183546
41	0xbc844607	-0.016146673
42	0xbe31bb27	-0.17356549
43	0xbe14f47c	-0.14546388
44	0x3e31bdfe	0.17357633
45	0xbf52c6fa	-0.82334864
46	0xbcc3f78d	-0.023921752
47	0xbd69db55	-0.057093937
48	0xbeb9d010	-0.36291552
49	0xbdee0cc6	-0.1162353
50	0xbd91287e	-0.070878014
51	0xbeae4b8d	-0.34042016
52	0xbe51b86b	-0.20480506
53	0x3c90ac5c	0.017660312
54	0x3c81e12b	0.015854439
55	0xbdc55482	-0.09635259
56	0xbe03674b	-0.12832372
57	0x3e9f60cb	0.31128535
58	0x3e4f9b26	0.20274028
59	0x3e030f33	0.12798767
60	0xbb93f9d1	-0.0045158644
61	0x3d59e4a8	0.05319658
62	0x3e0d30a3	0.13788085
63	0x3e29e688	0.16591847
64	0x3e4712ba	0.19440737
65	0x3de75d5d	0.112971045
66	0x3e079149	0.13239016
67	0x3d2d0b35	0.042247016
68	0x3df7dc03	0.12102511
69	0xbd7b2685	-0.061316032
70	0xbb227763	-0.0024790398
71	0xbda4bf37	-0.08044284
72	0xbe3940a4	-0.18091065
73	0x3cb5ef54	0.022208847
74	0xbdf6efdf	-0.120574705
75	0x3e40079e	0.18752906
76	0x3cfbf773	0.030757641
77	0x3d62be82	0.055357464
78	0xbb4437e4	-0.002994054
79	0x3e0a12ca	0.1348373
80	0x3e4ba195	0.19885857
81	0xbebc1037	-0.3673112
82	0xbe733cc0	-0.23753643
83	0xbebc7503	-0.36808023
84	0xbde2ae61	-0.110684164
85	0xbccbd0f6	-0.024879914
86	0xbe7695c4	-0.24080569
87	0xbe76980c	-0.24081439
88	0xbe2116e1	-0.15731384
89	0xbeb4f223	-0.35340986
90	0x3dd2b586	0.10288529
91	0x3df30860	0.11866832
92	0x3e478dfb	0.19487755
93	0x3a58ec24	0.0008274934
94	0x3db115c6	0.08646731
95	0xbe17e7df	-0.14834546
96	0x3d0fdc10	0.035121977
97	0x3d994078	0.074829996
98	0xbe2d9bb9	-0.16953935
99	0x3e48c339	0.19605722
100	0x3e586d8b	0.21135537
101	0x3e2e8a30	0.17044902
102	0x3e02e222	0.12781575
103	0x3da83368	0.0821293
104	0x3de2859b	0.110606395
105	0xbce24e15	-0.027625123
106	0x3d9f5d05	0.07781414
107	0x3d21f9ea	0.039544977
108	0xbee32a76	-0.44368333
109	0xbe429f9f	-0.19006203
110	0xbddce852	-0.10786499
111	0xbe084f0a	-0.13311401
112	0xbd9a6b88	-0.07540041
113	0xbe397bae	-0.18113586
114	0x3e94a67c	0.29033267
115	0x3e22de3a	0.15905085
116	0x3dfcc7ff	0.12342834
117	0xbcfed35b	-0.031106642
118	0x3b23e464	0.0025007958
119	0x3e5af274	0.21381551
120	0x3e8d7ff4	0.27636683
121	0x3dc6edd7	0.09713333
122	0xbdbbdce0	-0.09172988
123	0x3e86e478	0.26346183
124	0xbe25b444	-0.16182047
125	0xbcdeac5b	-0.027181795
126	0xbe84dcf0	-0.25949812
127	0x3da8eb13	0.08247962
128	0x3e0f9f50	0.14025617
129	0xbea35032	-0.31897122
130	0xbe7d03b6	-0.24708447
131	0x3d88395e	0.06651567
132	0xbd80cd39	-0.06289143
133	0xbd200c1e	-0.039074056
134	0x3e8669b6	0.26252526
135	0xbc8b8e85	-0.017035732
136	0x3dd08bd3	0.10182919
137	0x3e77c55f	0.24196385
138	0xbec57adc	-0.38570297
139	0xbe5d8af6	-0.2163504
140	0xbe51ea41	-0.20499517
141	0xbde02b48	-0.10945755
142	0xbdcea30b	-0.10089692
143	0x3d2cf661	0.042227153
144	0x3dbf6144	0.09344724
145	0x3d18725c	0.037218437
146	0xbbf59ca0	-0.007495478
147	0x3a67db89	0.0008844664
148	0x3d808ce4	0.06276873
149	0x3e559446	0.20857343
150	0xbe42e605	-0.19033058
151	0xbde50e87	-0.111844115
152	0x3de7c931	0.11317671
153	0x3e352a54	0.17691928
154	0x3d896f2e	0.06710659
155	0xbe31eeee	-0.173763
156	0x3e7df97b	0.248022
157	0xbd438fa0	-0.047744393
158	0xbdcf66c8	-0.10127026
159	0x3e4ac6ef	0.1980245
160	0xbdc29e63	-0.09502866
161	0xbea427d7	-0.32061645
162	0x3d1f03f6	0.038822137
163	0x3e088756	0.13332877
164	0x3ccaf9f5	0.024777392
165	0x3c8b0002	0.016967777
166	0xbcc3b391	-0.023889335
167	0x3dc97974	0.098376185
168	0x3da9fea2	0.083005205
169	0xbcd13651	-0.025538595
170	0xbd792790	-0.060828745
171	0xbd8a4fdb	-0.067535125
172	0x3e073874	0.13205129
173	0x3d736dd3	0.05943091
174	0x3e41323e	0.18866822
175	0x3d5c01eb	0.053712767
176	0xbe017ce0	-0.12645292
177	0x3ec9884f	0.39361808
178	0xbc8ef407	-0.017450346
179	0xbe1f9226	-0.15583095
180	0x3e883523	0.2660304
181	0xbd98d2e3	-0.074620984
182	0xbe5dfd74	-0.21678716
183	0x3e6e03bb	0.2324361
184	0xbddc9370	-0.10770309
185	0xbd927095	-0.071503796
186	0xbdfe06ca	-0.12403639
187	0xbee976b3	-0.45598373
188	0xbef1dd3f	-0.4723911
189	0x3db4765f	0.0881164
190	0x3dd64f06	0.10464291
191	0xbb10c2ab	-0.0022088687
192	0xbddba06a	-0.10723956
193	0xbe528617	-0.20558964
194	0x3df93008	0.12167364
195	0xbe8c9fac	-0.2746557
196	0xbe8cd6df	-0.27507684
197	0x3e82413f	0.25440404
198	0xbd63efd1	-0.05564863
199	0xbe9f422d	-0.31105176
200	0x3ba7afd3	0.0051173954
201	0xbea43f94	-0.32079756
202	0xbed09fbb	-0.40746865
203	0xbe012ee0	-0.12615538
204	0x3d19149e	0.037373178
205	0x3e3b7246	0.1830531
206	0x3e0daedf	0.1383624
207	0x3e821ebd	0.25414076
208	0x3d70bff3	0.058776807
209	0x3dce8653	0.10084214
210	0x3cd4d4ac	0.025980316
211	0xbd06c9af	-0.032907184
212	0xbd804052	-0.06262268
213	0x3d524340	0.051333666
214	0xbe45370e	-0.19259283
215	0xbdca10b6	-0.098664686
216	0xbe650aaf	-0.22367357
217	0xbe28d149	-0.16486086
218	0x3e31df88	0.17370427
219	0x3d049bdd	0.032375205
220	0xbe0bf260	-0.13666677
221	0xbe3b2977	-0.18277536
222	0x3e26046d	0.16212626
223	0x3e5f9a6d	0.21836253
224	0x3d9dc794	0.07704082
225	0x3d95a64d	0.0730711
226	0x3d9d1b59	0.07671232
227	0x3d82134f	0.06351339
228	0x3e2f6d0d	0.17131443
229	0x3eac234b	0.33620676
230	0x3eda76af	0.42668673
231	0xbe8b38b7	-0.27191707
232	0xbe8dd233	-0.27699432
233	0xbce953b3	-0.028482294
234	0x3c3a39b8	0.0113663
235	0xbd0e9d76	-0.034818135
236	0xbd9ea3db	-0.07746097
237	0xbb244f58	-0.0025071707
238	0x3e2dced1	0.16973425
239	0x3e3c7257	0.18402992
240	0xbde76f84	-0.11300567
241	0xbda88d4d	-0.08230076
242	0x3d3244c7	0.043522622
243	0xbd850724	-0.064955026
244	0xbd0d365e	-0.034475677
245	0xbe98a9bf	-0.29817006
246	0xbe341c74	-0.17588979
247	0xbd9c218a	-0.076235846
248	0xbe59c13a	-0.21265116
249	0x3d391b5a	0.0451921
250	0xbe009088	-0.12555134
251	0xbd81d3aa	-0.063392
252	0x3bde489a	0.006783557
253	0x3e114186	0.14185151
254	0x3ea5bfe6	0.3237297
255	0x3d5900d6	0.052979313

block1.1.conv.bias f4 [16]
0	0xbcdbbd27	-0.026823593
1	0x3e14c458	0.14528024
2	0x3e4d35a5	0.20039995
3	0x3d58c3aa	0.052920975
4	0xbeb756b3	-0.35808334
5	0x3d9282bc	0.07153842
6	0x3df09a05	0.11748127
7	0xbe3b49b3	-0.18289833
8	0xbc73e9e2	-0.014887305
9	0xbe37d9d0	-0.17954183
10	0x3defcedd	0.11709378
11	0xbdaaff09	-0.08349425
12	0x3d8c7cd6	0.06859748
13	0xbbe17dda	-0.0068814578
14	0xbe0ea7c2	-0.13931182
15	0x3d82001c	0.06347677

block1.1.BN.weight f4 [16]
0	0x3f6ff39a	0.9373108
1	0x3f7e5786	0.993523
2	0x3f634ee4	0.8879225
3	0x3f5d7304	0.86503625
4	0x3f90b581	1.1305391
5	0x3f865b18	1.049655
6	0x3f6cf941	0.9256783
7	0x3f64e448	0.8941083
8	0x3f8684ac	1.0509238
9	0x3f95a8ce	1.169214
10	0x3f7151b6	0.94265306
11	0x3f89e152	1.0771887
12	0x3f95f72d	1.1716057
13	0x3f86614d	1.0498444
14	0x3f80b21d	1.0054356
15	0x3f768f2c	0.9631221

block1.1.BN.bias f4 [16]
0	0xbe0b09e9	-0.13577999
1	0xbe1dc4be	-0.15407082
2	0xbdac2b47	-0.08406692
3	0xbf05530e	-0.52079856
4	0xbe098fba	-0.13433734
5	0xbdc3999b	-0.09550782
6	0xbe6aff44	-0.22948939
7	0xbdeb4f68	-0.11489755
8	0x3e7489e6	0.23880729
9	0x3e145e71	0.14489152
10	0xbea78e79	-0.32725886
11	0xbe8f0b48	-0.27938294
12	0xbda24373	-0.07923021
13	0xbea420d6	-0.32056302
14	0xbe9c42b1	-0.30519632
15	0xbe9ddcb0	-0.30832434

block1.1.BN.running_mean f4 [16]
0	0xbfa904bd	-1.3204571
1	0xbef5e2c0	-0.4802456
2	0xbf1511f8	-0.58230543
3	0x3ef7feb5	0.48436514
4	0xbfbc2067	-1.4697388
5	0x3e93fb99	0.2890289
6	0x3fabb143	1.3413471
7	0x3d0fba13	0.035089564
8	0x3f17c7c6	0.59289205
9	0xc0168305	-2.3517468
10	0xbfcffe21	-1.6249429
11	0x3d69e771	0.057105485
12	0xbf45b21c	-0.772249
13	0x3f21e8ee	0.6324605
14	0x3e95365e	0.2914304
15	0xbf6bd486	-0.9212116

block1.1.BN.running_var f4 [16]
0	0x403fae32	2.995007
1	0x4010cd90	2.2625465
2	0x3ffdeb4d	1.9837433
3	0x3f9d67da	1.2297318
4	0x3fd14faf	1.6352443
5	0x3f75306b	0.95777005
6	0x3f99d38b	1.2017683
7	0x3fa49c8f	1.2860278
8	0x400f04d1	2.234669
9	0x40021955	2.0327961
10	0x3fd197c1	1.6374437
11	0x3f60afa0	0.8776798
12	0x4014b39e	2.323463
13	0x3fbb6ab2	1.4641936
14	0x3fe898fc	1.8171687
15	0x3f9a92dc	1.2076068

block1.2.conv.weight f4 [8, 16, 3, 3]
0	0x3d901ce0	0.070367575
1	0x3d51d104	0.051224723
2	0xbe253b0a	-0.16135803
3	0x3e44127d	0.19147678
4	0x3e321304	0.17390066
5	0xbcbe7ac0	-0.023251891
6	0xbd9dec72	-0.07711114
7	0xbca7cf1b	-0.020484498
8	0xbe60384e	-0.21896479
9	0xbe472da7	-0.19451009
10	0xbdaf803f	-0.08569383
11	0x3cdda9c9	0.027058499
12	0x3e17df7a	0.14831343
13	0x3e489fa8	0.19592154
14	0x3e98b9d0	0.29829264
15	0xbe0ba7d2	-0.13638237
16	0xbec2ccf5	-0.38046995
17	0xbec2926f	-0.38002345
18	0x3c87687d	0.016529316
19	0xbe042cc9	-0.12907709
20	0xbec41136	-0.3829438
21	0xbde128be	-0.10994099
22	0x3ceac4cb	0.028658291
23	0xbe4920a5	-0.19641359
24	0xbdb1d109	-0.086824484
25	0xbd02cb12	-0.031931944
26	0x3d04d791	0.032432143
27	0xbd7aa45c	-0.0611919
28	0x3cd78498	0.026308343
29	0xbd113ae1	-0.035456542
30	0xbd9db618	-0.07700747
31	0x3d09e5c2	0.03366638
32	0x3e7040db	0.2346224
33	0x3de5482f	0.111954086
34	0x3e30408f	0.17212127
35	0x3e1eb241	0.15497686
36	0xbebe55f6	-0.37174958
37	0xbea30dea	-0.31846553
38	0x3e0840d1	0.13305975
39	0xbd5dc652	-0.05414421
40	0xbe51357d	-0.2043056
41	0x3b8dcd64	0.004327463
42	0xbe1b7628	-0.15181792
43	0xbe9f0017	-0.31054756
44	0xbdda0b6f	-0.10646712
45	0xbae3bc75	-0.001737489
46	0xbeaff3ac	-0.34365594
47	0xbe86ca3d	-0.2632617
48	0x3d668ccc	0.056286618
49	0x3d351cc8	0.0442169
50	0x3cd8d75b	0.026469877
51	0xbd9728bc	-0.07380816
52	0xbe49ee9c	-0.19719929
53	0xbd2f7798	-0.042838663
54	0xbe44dd43	-0.1922503
55	0xbe2af230	-0.1669395
56	0xbe2aaa8a	-0.16666618
57	0x3bef5501	0.0073038344
58	0x3dd6b007	0.10482793
59	0x3e08c661	0.13356926
60	0xbe87bf1f	-0.26513
61	0xbdce9d6c	-0.100886196
62	0xbdfe48a2	-0.12416197
63	0x3e93650a	0.28788024
64	0x3c66de49	0.014091083
65	0x3d99b177	0.07504552
66	0x3e912ebd	0.2835597
67	0x3dab964f	0.083782785
68	0x3e3e709b	0.18597643
69	0x3e262f01	0.16228868
70	0xbe030f09	-0.12798704
71	0xbdadecab	-0.084924065
72	0xbdc48fe3	-0.09597757
73	0x3d88623c	0.06659362
74	0x3e13c673	0.14431171
75	0xbdb6900a	-0.08914192
76	0x3db0165a	0.08598013
77	0x3ddf17fa	0.10893245
78	0x3e1ea4cd	0.15492554
79	0x3e53159e	0.20613715
80	0x3e522da8	0.20525229
81	0x3e1520b2	0.14563254
82	0x3e2cd78d	0.16879101
83	0x3e5db78a	0.21652046
84	0x3d9256fd	0.07145498
85	0x3d297874	0.04137464
86	0xbda2e343	-0.07953503
87	0x3e2a9b1f	0.16660737
88	0x3ec2ee0c	0.3807224
89	0x3e8b82ac	0.27248132
90	0x3c6f4e79	0.014606112
91	0x3e0d1863	0.13778834
92	0x3e099aba	0.1343793
93	0xbe595770	-0.21224761
94	0x3cd98e14	0.026557006
95	0x3d22773a	0.039664485
96	0xbd7f81fe	-0.06237983
97	0xbd213519	-0.03935728
98	0xbd94313b	-0.072359525
99	0xbc996abb	-0.01872765
100	0x3ca92da8	0.020651653
101	0x3d7fe7d6	0.062476955
102	0x3d701819	0.05861673
103	0xbe8ab5e4	-0.27091897
104	0xbedd599a	-0.43232423
105	0x3e82c5af	0.25541446
106	0x3d80bf4c	0.06286487
107	0x3e456902	0.19278339
108	0x3e8ab01c	0.27087486
109	0x3e4ee81d	0.20205732
110	0x3d460592	0.048345156
111	0x3d3d8674	0.046270803
112	0xbd514519	-0.051091287
113	0xbea07b6c	-0.31344163
114	0x3de11f93	0.109923504
115	0x3e1f4169	0.15552296
116	0xbb31e613	-0.0027145192
117	0x3d8df4b3	0.06931438
118	0xbc573ecd	-0.0131375315
119	0x3e2a846d	0.16652079
120	0xbe810954	-0.2520243
121	0xbe1742c8	-0.14771569
122	0xbd062798	-0.032752603
123	0x3dd9b5d8	0.10630387
124	0x3e676826	0.22598323
125	0x3e0abb59	0.1354803
126	0x3ec17212	0.3778234
127	0x3e59bb11	0.21262766
128	0xbc7e4148	-0.015518494
129	0x3dd8e6d9	0.10590906
130	0xbc7d2e4e	-0.015452934
131	0x3c7b6e4d	0.015346122
132	0xbe08454f	-0.13307689
133	0xbeb519cf	-0.35371253
134	0xbe5878c1	-0.21139814
135	0xbd385ab3	-0.045008373
136	0x3c185fe1	0.009300203
137	0x3dad6731	0.08466948
138	0xbe3378c0	-0.17526531
139	0xbb908999	-0.004410934
140	0x3d7853b2	0.060626693
141	0xbec9597d	-0.39326087
142	0xbe1e29a6	-0.15445575
143	0xbe60c9b7	-0.21951948
144	0xbd186168	-0.03720227
145	0x3d68ff6f	0.056884225
146	0xbdfacc00	-0.12245941
147	0xbdcebdf9	-0.10094828
148	0xbbb31f4b	-0.005466377
149	0xbe54d848	-0.2078563
150	0xbe3131cb	-0.17304151
151	0x3cf1f08a	0.029533643
152	0xbb482025	-0.0030536738
153	0x3e35d627	0.17757474
154	0x3c978e51	0.018500479
155	0x3de2e97b	0.11079689
156	0xbe5a88e6	-0.21341285
157	0xbe8b95e5	-0.27262798
158	0xbe21de9b	-0.15807573
159	0x3d91f521	0.07126833
160	0x3dabf559	0.08396406
161	0x3e5655c1	0.2093115
162	0x3e33271f	0.17495392
163	0x3e5786a7	0.2104746
164	0xbdc8a958	-0.09797925
165	0xbcaf347e	-0.021387335
166	0x3e2f184e	0.17099115
167	0xbd744132	-0.059632488
168	0x3e4e6e07	0.2015916
169	0x3df2d747	0.11857467
170	0xbd3025ec	-0.043004915
171	0x3daac08a	0.08337505
172	0x3db8c442	0.09021808
173	0xbcf32b4d	-0.029683733
174	0xbe6e5d71	-0.23277833
175	0xbe80998e	-0.25117153
176	0xbe2a474d	-0.16628762
177	0x3d178d01	0.036999706
178	0x3de5f652	0.112286225
179	0x3e07ca26	0.13260707
180	0x3d87e5ff	0.06635665
181	0xbac528e0	-0.0015042089
182	0xbe02f822	-0.12789968
183	0xbe6668e2	-0.22500947
184	0x3d59f6d9	0.053213928
185	0xbd2d2476	-0.0422711
186	0x3da74cfe	0.08168982
187	0x3e6856a3	0.226893
188	0xbdcf9578	-0.10135931
189	0xbc87c109	-0.016571539
190	0xbc24ed5d	-0.010066357
191	0x3d44d5f3	0.0480556
192	0x3e376811	0.17910792
193	0x3e67e720	0.22646761
194	0x3e45e83c	0.19326872
195	0xbde1987a	-0.11015411
196	0xbe0b0160	-0.13574743
197	0x3df9061d	0.12159369
198	0x3e27c404	0.16383368
199	0xbd650339	-0.055911276
200	0x3e87216b	0.26392683
201	0xbbeb0218	-0.0071718805
202	0xbe658cae	-0.22416946
203	0x3e9f1a3a	0.31074697
204	0x3db76f56	0.089567825
205	0x3d3af015	0.045639116
206	0x3e26fa9a	0.16306534
207	0x3bb8e407	0.0056424174
208	0xbd6af0c7	-0.05735853
209	0x3d9e882f	0.07740819
210	0xbcdd2dc9	-0.026999371
211	0xbe0fcf0d	-0.14043827
212	0x3d2f7f8e	0.042846255
213	0x3e09edfb	0.13469689
214	0x3c14695f	0.009058326
215	0x3d75404a	0.059875764
216	0x3cb9a49f	0.022661505
217	0x3e4113a1	0.18855144
218	0x3dd50709	0.104017325
219	0x3dc86d1a	0.097864345
220	0xbdc2beb9	-0.09509034
221	0xbe10e64b	-0.1415035
222	0x3b63c23c	0.0034753224
223	0xbe447392	-0.19184712
224	0xbe59a5a9	-0.212546
225	0xbf1df568	-0.61702585
226	0x3d7c5529	0.061604653
227	0x3d5f057e	0.054448597
228	0xbe810c7d	-0.2520484
229	0x3e45539c	0.19270176
230	0x3e374a69	0.17899479
231	0x3d404f5f	0.046950694
232	0x3dccdde3	0.10003259
233	0xbc9a3cda	-0.018827844
234	0xbd7e2daf	-0.062055286
235	0x3e38ea29	0.18058075
236	0x3de3b6d8	0.11118859
237	0xbe11dade	-0.14243647
238	0x3dbc5f5f	0.09197878
239	0x3ea33364	0.31875145
240	0x3e852180	0.2600212
241	0x3d8e21db	0.06940051
242	0x3ea8856a	0.32914287
243	0xbe2ffdff	-0.17186736
244	0x3dc6156a	0.09672053
245	0x3ddd7966	0.108141705
246	0xbd0a8999	-0.03382263
247	0x3e47d435	0.19514544
248	0x3e3a91be	0.18219659
249	0x3dfd2681	0.1236086
250	0x3d1bbb62	0.0380205
251	0x3e1ace28	0.15117705
252	0x3ea255bd	0.31706038
253	0x3c9d858d	0.019228721
254	0x3dcf2dee	0.10116182
255	0x3e8bda54	0.2731501

block1.2.conv.bias f4 [8]
0	0xbd7e64e9	-0.062107954
1	0xbd7fa8af	-0.06241673
2	0x3d68e1ae	0.05685585
3	0xbc22abff	-0.009928702
4	0x3d1363a3	0.035983693
5	0x3bfbd262	0.0076849917
6	0xbd836017	-0.06414812
7	0xbd69b724	-0.057059422

block1.2.BN.weight f4 [8]
0	0x3f7131b7	0.94216484
1	0x3f664987	0.89955944
2	0x3f8b3704	1.0876164
3	0x3f77509f	0.96607393
4	0x3f8e2d99	1.1107665
5	0x3f8f0efa	1.1176445
6	0x3f5f8db4	0.87325597
7	0x3f8fd15a	1.1235764

block1.2.BN.bias f4 [8]
0	0xbdd8a991	-0.10579217
1	0xbc85b5b2	-0.01632199
2	0xbd9e8a2e	-0.077411994
3	0xbdbe74ba	-0.092996076
4	0x3c9242e1	0.017854156
5	0x3daa2970	0.08308685
6	0xbeb0cf8c	-0.34533346
7	0x3abc35d1	0.00143593

block1.2.BN.running_mean f4 [8]
0	0x3d9e865e	0.07740472
1	0x3eb86a9c	0.36018836
2	0xbf8b449a	-1.088031
3	0x3e43b836	0.1911324
4	0xbf544a93	-0.8292629
5	0xbfd6016f	-1.6719187
6	0x3d4dde82	0.050261028
7	0xbf8f64ef	-1.1202677

block1.2.BN.running_var f4 [8]
0	0x400b4b9c	2.1764898
1	0x3fa7f00a	1.3120129
2	0x4046bc43	3.1052406
3	0x3f9e15ae	1.2350366
4	0x40793c41	3.8943026
5	0x405b836e	3.4298968
6	0x400eda8a	2.2320886
7	0x402cf911	2.7027018

block1.3.conv.weight f4 [4, 8, 3, 3]
0	0x3d1d45d7	0.038396683
1	0xbd98250d	-0.07428942
2	0xbc84fc81	-0.016233684
3	0xbd2c1c19	-0.042018984
4	0x3e2402c0	0.16016674
5	0x3e0bb815	0.1364444
6	0xbea2b52b	-0.31778845
7	0xbdfdd7fc	-0.123947114
8	0xbe382cfb	-0.17985909
9	0xbd380d88	-0.04493478
10	0x3e0febf4	0.14054853
11	0x3e87a55a	0.2649334
12	0xbe8d9fa1	-0.2766085
13	0x3e0ca9cd	0.13736649
14	0x3dbf8ea6	0.0935338
15	0x3da8ed86	0.08248429
16	0x3e432a26	0.19059047
17	0x3dfef9e1	0.12450004
18	0x3e710573	0.23537235
19	0x3e17d4e2	0.14827302
20	0xbe47c103	-0.19507222
21	0x3e0b3923	0.13596015
22	0x3e0b18b4	0.13583642
23	0xbe81d425	-0.25357166
24	0x3e5dc4d7	0.2165712
25	0x3c028efb	0.0079686595
26	0x3e42a813	0.19009428
27	0x3c286025	0.010276829
28	0xbe10e42c	-0.1414954
29	0xbea1deec	-0.31615388
30	0x3d4a7c2a	0.04943482
31	0x3e5058ab	0.20346324
32	0x3d577841	0.052604917
33	0x3e5a19b4	0.21298867
34	0x3e11701c	0.14202923
35	0xbd72d575	-0.0592856
36	0x3e412775	0.18862708
37	0xbd5b2e5d	-0.053511012
38	0xbd468f1c	-0.048476323
39	0xbdcd3add	-0.10020993
40	0xbd8b15c3	-0.0679126
41	0xbe98061d	-0.29692164
42	0xbddaf5b1	-0.10691393
43	0xba19bc03	-0.0005864503
44	0x3d0a8091	0.033814017
45	0xbea84140	-0.32862282
46	0xbea73ad8	-0.32662082
47	0xbeb413f4	-0.35171473
48	0xbd986ce9	-0.07442648
49	0x3e74d150	0.23907971
50	0xbd35dcba	-0.044399954
51	0xbea51be8	-0.32247853
52	0x3e4577c0	0.19283962
53	0x3e6bc365	0.23023756
54	0xbd474ffa	-0.048660256
55	0xbce2beb2	-0.027678821
56	0x3e1a6010	0.15075707
57	0x3e000f4d	0.12505837
58	0x3e205216	0.15656313
59	0xbdfb827e	-0.12280749
60	0x3e138ae5	0.14408453
61	0xbd10ca07	-0.03534892
62	0xbd482a75	-0.048868615
63	0xbd3fce6d	-0.046827722
64	0xbe0710c3	-0.13189988
65	0x3e622492	0.22084263
66	0x3e04db99	0.12974395
67	0x3d28e100	0.0412302
68	0x3e83af7b	0.25719818
69	0xbe14e809	-0.1454164
70	0xbc4b2fdb	-0.012401546
71	0x3e39b8a6	0.18136844
72	0xbd05d43d	-0.03267311
73	0xbe43716f	-0.1908624
74	0x3dbbeb05	0.09175686
75	0xbd300fc6	-0.042983793
76	0xbd668e2e	-0.056287937
77	0x3ddf0d18	0.10891169
78	0xbedcc789	-0.43120983
79	0xbde58236	-0.112064764
80	0xbeccbbce	-0.39987034
81	0x3e89c73c	0.26909816
82	0xbd904f0c	-0.07046327
83	0xbe32c145	-0.17456539
84	0x3dfefddb	0.12450763
85	0xbe85a50d	-0.26102486
86	0xbe7786f9	-0.24172582
87	0x3d16b46b	0.036793154
88	0x3a2269c6	0.0006195571
89	0xbd1bd0f3	-0.038041066
90	0xbe49e14e	-0.19714853
91	0x3de28555	0.11060587
92	0x3d32861f	0.04358494
93	0xbe250714	-0.16115981
94	0xbda04c5e	-0.07827066
95	0x3e53b2a4	0.20673615
96	0xbe445413	-0.19172697
97	0xbd80167d	-0.06254289
98	0x3da9e95e	0.082964644
99	0xbc1b0e05	-0.009463792
100	0x3e5225ad	0.20522185
101	0x3e1234d4	0.14277965
102	0xbc024b88	-0.007952578
103	0xbc47a68d	-0.012185705
104	0xbd5f3c30	-0.05450076
105	0x3daf307f	0.08554172
106	0x3d84d475	0.064858355
107	0xbcef517e	-0.029213663
108	0xbe435d46	-0.1907855
109	0xbcd665d9	-0.026171612
110	0x3e75b427	0.23994504
111	0xbe1e594b	-0.1546375
112	0xbd951e2c	-0.072811455
113	0x3d8ebf75	0.06970111
114	0xbeae88a4	-0.34088624
115	0xbeb2875f	-0.34868905
116	0xbe48c941	-0.19608022
117	0x3e4c2ebc	0.19939703
118	0x3df89055	0.12136904
119	0xbdd7229b	-0.10504647
120	0xbe4e4a35	-0.20145495
121	0xbe526e41	-0.20549871
122	0xbeadd9ab	-0.3395513
123	0x3e174471	0.14772202
124	0x3d948e3c	0.072536916
125	0xbbd1ad39	-0.0063988236
126	0x3e3fd717	0.18734394
127	0x3d52e2e8	0.051485926
128	0x3d45cdc6	0.048291944
129	0xbe1bbaa2	-0.15207914
130	0x3d1af0e1	0.037827376
131	0xbd9551d2	-0.072909966
132	0xbe9af574	-0.3026539
133	0xbebd4959	-0.36970022
134	0xbedc6558	-0.4304607
135	0x3e351731	0.17684628
136	0x3e112636	0.14174733
137	0x3e39d6e5	0.18148382
138	0x3e150667	0.14553224
139	0x3a905f31	0.0011014697
140	0xbdaa6884	-0.08320716
141	0x3e22c5bd	0.15895744
142	0xbf0cb7e6	-0.54968107
143	0xbe30b131	-0.17255093
144	0xbe1a21f5	-0.15052016
145	0xbde57cd3	-0.11205449
146	0xbe815d69	-0.2526658
147	0xbd08b285	-0.033373374
148	0x3e046a89	0.12931265
149	0x3dba382c	0.09092745
150	0x3d6200d4	0.05517657
151	0xbdcbf320	-0.09958482
152	0xbe83f56b	-0.25773177
153	0x3d8f3303	0.069921516
154	0x3cf6f4f0	0.030146092
155	0xbc2cffa2	-0.0105589945
156	0x3de280dd	0.11059735
157	0xbe000abf	-0.125041
158	0xbdb4f8df	-0.08836531
159	0x3b9f93f3	0.004869932
160	0x3beef9e4	0.007292973
161	0xbe068c03	-0.13139348
162	0x3d31ae5e	0.04337918
163	0x3e56aeeb	0.20965163
164	0x3eae770d	0.34075204
165	0x3de312b0	0.11087549
166	0x3d30ab22	0.043131955
167	0x3e8de724	0.2771541
168	0xbdae3db6	-0.08507864
169	0xbebdbdff	-0.37059018
170	0xbe156b9a	-0.14591828
171	0x3bb01adf	0.005374297
172	0x3d9a5425	0.075355805
173	0xbe44e384	-0.19227415
174	0x3ea4f477	0.32217762
175	0x3e232d5e	0.15935275
176	0xbd7780ba	-0.060425498
177	0x3d60ec3f	0.0549128
178	0x3e83f97f	0.25776288
179	0x3e543032	0.2072151
180	0xbeeb1e17	-0.45921394
181	0xbd381fbd	-0.044952143
182	0x3d85ca20	0.06532693
183	0xbe88b4ca	-0.2670043
184	0xbe4154c4	-0.18879992
185	0x3e25fad1	0.1620896
186	0xbe9a9733	-0.3019348
187	0xbea08ecf	-0.31358954
188	0xbe8c22ab	-0.273702
189	0x3e5a6e3e	0.21331117
190	0xbd530b59	-0.051524494
191	0x3bf75cc6	0.0075489013
192	0xbe5c0443	-0.21486
193	0xbe9743fe	-0.2954406
194	0xbdceee0f	-0.10104
195	0x3e3c838b	0.18409555
196	0x3d5da369	0.05411092
197	0x3ea8c12a	0.32959872
198	0xbdeeb312	-0.11655249
199	0x3d356634	0.04428692
200	0x3e817f3c	0.25292385
201	0x3e696a11	0.22794367
202	0x3e0ad0f1	0.13556267
203	0x3e0989a5	0.13431413
204	0x3e3879cf	0.18015216
205	0xbe235116	-0.159489
206	0xbcf6411e	-0.030060347
207	0xbe17b729	-0.14815964
208	0xbe663e92	-0.22484806
209	0xbdbf8b51	-0.09352744
210	0x3d4a1e81	0.049345497
211	0xbd1c8268	-0.038210303
212	0x3d178512	0.03699214
213	0xbdf36857	-0.118851356
214	0xbcc0600a	-0.023483295
215	0xbe9dc1c5	-0.30811897
216	0x3e0d8b31	0.13822629
217	0x3da67271	0.08127297
218	0xbe2b499f	-0.16727303
219	0x3e22cd73	0.15898685
220	0xbdac7ea5	-0.08422593
221	0x3b3dddc6	0.0028971299
222	0x3e8dce9c	0.27696693
223	0xbdfbfd24	-0.12304142
224	0xbe30ed30	-0.1727798
225	0x3b5acf95	0.0033387889
226	0xbd9d035d	-0.07666657
227	0x3bf20657	0.0073860097
228	0xbddee2f6	-0.10883133
229	0xbe6aa925	-0.22916086
230	0x3dfefc60	0.124504805
231	0x3dc72c75	0.097252764
232	0xbeaf1ff0	-0.34204054
233	0xbe75cbdf	-0.24003552
234	0xbd9b7920	-0.07591462
235	0xbe1fa1ca	-0.15589061
236	0xbe29cff8	-0.1658324
237	0xbe19744d	-0.14985771
238	0xbe135c72	-0.14390734
239	0x3d7bd185	0.06147911
240	0x3da58015	0.0808107
241	0xbdceb795	-0.10093609
242	0xbe8b9c6d	-0.2726778
243	0xbf040acf	-0.5157899
244	0xbe88ccf9	-0.26718882
245	0x3d6b2a2a	0.057413258
246	0xbdd09006	-0.1018372
247	0x3cef0fe9	0.029182391
248	0x3e8ecb70	0.27889585
249	0xbe3702f3	-0.17872219
250	0x3dfc6d9a	0.12325592
251	0x3e2bf94b	0.16794316
252	0xbe0a0d42	-0.1348162
253	0xbe537382	-0.20649531
254	0xbddf65b7	-0.109080724
255	0xbd609632	-0.054830737

block1.3.conv.bias f4 [4]
0	0x3e305830	0.17221141
1	0x3e49c2ee	0.19703266
2	0xbd6ab1a4	-0.057298318
3	0x3e07a8b5	0.1324795

block1.3.BN.weight f4 [4]
0	0x3f84c698	1.0373106
1	0x3f8a567d	1.0807644
2	0x3f824280	1.0176544
3	0x3f6c92c6	0.9241146

block1.3.BN.bias f4 [4]
0	0x3cb073fe	0.021539684
1	0x3b6cc14a	0.0036125951
2	0x3e3ceae9	0.18448986
3	0x3dbe3d18	0.092889965

block1.3.BN.running_mean f4 [4]
0	0x3e5d1234	0.21588975
1	0xbf791877	-0.97302955
2	0xbf4f50f3	-0.80982894
3	0xbf63dc5e	-0.8900813

block1.3.BN.running_var f4 [4]
0	0x3f9f9363	1.2466854
1	0x3f8a9310	1.082613
2	0x3fdc5d29	1.721593
3	0x3f976bb2	1.1829741

block2.0.conv.weight f4 [8, 4, 3, 3]
0	0xbea3e8c9	-0.32013538
1	0xbe8aafc5	-0.27087227
2	0xbe6e77ba	-0.2328786
3	0xbe409acb	-0.18809049
4	0x3c540d00	0.012942553
5	0xbe2048fc	-0.15652841
6	0x3ea63f94	0.3247038
7	0x3e6c4587	0.23073398
8	0xbd9db409	-0.077003546
9	0xbf072595	-0.5279172
10	0xbc6e9b15	-0.014563342
11	0xbe0a0444	-0.1347819
12	0xbcb599c7	-0.022168053
13	0x3d97d814	0.074142605
14	0x3cc6766a	0.024226386
15	0x3c994941	0.018711688
16	0x3d826853	0.063675545
17	0x3e798256	0.24366125
18	0xbe26199f	-0.16220711
19	0x3dc32e1c	0.09530279
20	0x3e64d083	0.22345166
21	0xbc8590fd	-0.016304487
22	0xbe25f036	-0.16204914
23	0x3e5e09f5	0.21683486
24	0xbd837622	-0.064190164
25	0x3e0818c3	0.13290696
26	0x3d6f18ec	0.058373377
27	0x3ddca78b	0.10774144
28	0x3cd44845	0.025913367
29	0xbebe9eb6	-0.37230462
30	0x3e51f58f	0.2050383
31	0x3de1969d	0.11015055
32	0xbe3a200f	-0.18176292
33	0x3cddcc64	0.027075
34	0xbe016293	-0.1263526
35	0xbe95b9d7	-0.29243347
36	0xbe8b8424	-0.27249253
37	0x3ceb66b0	0.028735489
38	0x3cb1b3b0	0.021692127
39	0xbe324d3a	-0.17412272
40	0x3e2c352a	0.16817155
41	0x3e711a7d	0.2354526
42	0x3e1311b0	0.14362216
43	0x3e5c8b21	0.21537448
44	0x3e244129	0.16040482
45	0x3e114899	0.1418785
46	0xbedc1779	-0.42986658
47	0xbea62434	-0.32449496
48	0x3d7f8066	0.06237831
49	0x3d435f76	0.04769846
50	0x3d27a27b	0.040926438
51	0x3de95b9b	0.113944255
52	0x3e464516	0.19362292
53	0x3e0f2e8e	0.13982603
54	0xbd6219ba	-0.055200316
55	0xbdd12345	-0.10211805
56	0xbe208bcb	-0.15678327
57	0xbd6c613f	-0.05770993
58	0xbe5c8ae2	-0.21537355
59	0xbdd9a2cb	-0.106267534
60	0x3eaf2137	0.34205028
61	0x3e8e7534	0.27823794
62	0x3e1278e1	0.14303924
63	0xbe7e0891	-0.24807955
64	0xbdccdb1a	-0.10002728
65	0x3e67e4e2	0.22645906
66	0xbdec8d41	-0.115503795
67	0x3b661520	0.0035107806
68	0xbdc7e986	-0.09761338
69	0x3df5ede9	0.120082684
70	0xba509e1b	-0.000795813
71	0xbd83f5c4	-0.064433604
72	0xbe3f9ef4	-0.1871298
73	0xbdf11103	-0.11770823
74	0xbe01ddbf	-0.12682246
75	0xbdb99427	-0.09061461
76	0x3bd43998	0.0064765923
77	0xbe64a9c0	-0.2233038
78	0xbea7fa0e	-0.32807964
79	0xbc588e2c	-0.01321749
80	0x3e7da4cd	0.24769898
81	0xbe691d26	-0.22765025
82	0x3e024213	0.12720518
83	0x3df36a10	0.11885464
84	0xbeca7670	-0.39543486
85	0xbcd26f49	-0.02568783
86	0xbe80f138	-0.25184035
87	0x3dda7ecc	0.10668716
88	0x3dce2493	0.1006557
89	0x3e81c6d4	0.25347006
90	0xbd393d71	-0.04522461
91	0x3cf941e3	0.030426925
92	0x3e840d14	0.25791228
93	0xbe142ab2	-0.14469412
94	0xbea3f8b3	-0.3202568
95	0xbe606f96	-0.21917567
96	0xbe55ed0e	-0.2089121
97	0xbd90b8bb	-0.070664845
98	0x3ce3731b	0.027764848
99	0xbcb50a62	-0.022099677
100	0xbe3654b7	-0.17805754
101	0xbf044e12	-0.51681626
102	0xbe09f0d2	-0.13470772
103	0xbd01f0c0	-0.031723738
104	0xbb01e344	-0.0019819299
105	0x3dc3a236	0.09552424
106	0x3e09dec8	0.1346389
107	0x3e9c2b42	0.30501753
108	0x3df4de0f	0.11956417
109	0xbc00d46c	-0.007863145
110	0x3e1c0a9d	0.15238424
111	0xbe9db40c	-0.30801427
112	0xbe878215	-0.26466432
113	0xbc7a090e	-0.015260948
114	0x3de4a7a0	0.111647844
115	0x3e814a9b	0.25252232
116	0x3d977b9d	0.07396624
117	0x3e80b29b	0.25136265
118	0x3e633f93	0.2219222
119	0x3d09e85d	0.033668865
120	0x3cd7cb72	0.026342127
121	0x3e4c91c8	0.19977486
122	0xbdc50f3f	-0.096220486
123	0xbe43f5ec	-0.1913678
124	0x39955508	0.00028482848
125	0xbbaf05cd	-0.0053412677
126	0xbec8a0f7	-0.39185306
127	0xbeb5e274	-0.35524333
128	0xbe7da486	-0.24769792
129	0x3e338fe9	0.17535366
130	0x3d8d877e	0.06910609
131	0x3ebeee95	0.372914
132	0xbd9e781f	-0.07737755
133	0x3dc913db	0.0981824
134	0xbe5be6c3	-0.21474747
135	0x3afc2bce	0.0019239129
136	0xbe3ed964	-0.18637615
137	0x3d1d1480	0.03834963
138	0x3e4f40e6	0.202396
139	0xbe36c916	-0.17850146
140	0x3b9d49e0	0.0048000664
141	0xbe7a4a7d	-0.24442478
142	0x3cfe0a2d	0.031010712
143	0xbdce2bd3	-0.100669526
144	0x3e51ef0e	0.20501348
145	0x3e42db23	0.19028907
146	0xbc564edf	-0.013080328
147	0xbd0ae263	-0.033907305
148	0xbdcbe159	-0.09955091
149	0xbcea1028	-0.028572157
150	0x3e399a88	0.18125355
151	0xbe78b325	-0.24287088
152	0xbe0a2ddf	-0.13494061
153	0x3e8c041c	0.27346885
154	0x3e1ab301	0.15107347
155	0x3e7afca1	0.24510433
156	0x3d4327c8	0.04764536
157	0x3e68cefd	0.2273521
158	0x3e5ebd80	0.21751976
159	0x3e82e207	0.2556307
160	0x3e9562f7	0.29177067
161	0x3daa4c9c	0.08315393
162	0x3e97b60f	0.29631087
163	0x3dd093ea	0.10184462
164	0xbe81ddbb	-0.2536448
165	0x3e34f4c3	0.17671494
166	0x3da231c9	0.07919652
167	0xbe1f42c4	-0.15552813
168	0x3e865ef4	0.26244318
169	0x3e657abd	0.22410102
170	0x3d87c70f	0.06629764
171	0x3e27e807	0.16397105
172	0xbe478e98	-0.19487989
173	0xbe50d802	-0.203949
174	0xbd0f95af	-0.03505486
175	0xbb87f1ba	-0.004148689
176	0x3dca3242	0.09872867
177	0x3e21227e	0.15735814
178	0xbe30a936	-0.17252049
179	0xbec38d16	-0.38193578
180	0x3e4861b0	0.19568515
181	0x3de47f62	0.11157109
182	0x3e99ad07	0.30014822
183	0x3d4d9982	0.050195225
184	0xbeccba25	-0.39985767
185	0xbee6b7f6	-0.45062226
186	0xbd12ccfd	-0.035840023
187	0xbe913ed9	-0.2836826
188	0x3d1cfbd0	0.038326085
189	0xbe6ac819	-0.22927894
190	0xbebae879	-0.36505488
191	0x3c241636	0.010015061
192	0x3cae815e	0.021301921
193	0xbe18c8c7	-0.1492034
194	0xbe2255b2	-0.15853003
195	0x3e31334f	0.17304729
196	0xbd9798a1	-0.074021585
197	0xbeadf859	-0.33978537
198	0xbd393a98	-0.045221895
199	0xbdea3b4d	-0.11437092
200	0xbebfe586	-0.374798
201	0xbdc79f42	-0.09747173
202	0x3d0fea31	0.03513545
203	0x3cfbdf0a	0.030746002
204	0xbe29f392	-0.16596821
205	0xbd344382	-0.044009693
206	0x3e46d029	0.19415344
207	0xbdf2e79b	-0.118605815
208	0x3d9363f3	0.07196798
209	0x3e21be46	0.1579524
210	0x3dd38120	0.10327363
211	0x3e827f01	0.2548752
212	0x3d38be6c	0.045103475
213	0xbe96154b	-0.2931312
214	0x3e1ef8af	0.15524553
215	0x3d27672a	0.04086987
216	0x3e55a721	0.20864536
217	0x3e3c7f8a	0.18408027
218	0x3d539453	0.051655125
219	0x3e541feb	0.207153
220	0x3e04a43e	0.12953278
221	0x3d9821ed	0.07428346
222	0xbe0ee4d2	-0.13954476
223	0x3e299d65	0.16563947
224	0x3bdc29a5	0.0067188316
225	0xbe7f2113	-0.2491496
226	0xbe8bbb06	-0.27291125
227	0xbdd4e62c	-0.10395464
228	0x3e50efd2	0.20403984
229	0x3db8b6b7	0.09019225
230	0x3e3a7f43	0.18212609
231	0x3dd4f7a3	0.103987955
232	0x3e59236d	0.2120492
233	0x3ccddead	0.025130594
234	0xbc9819ea	-0.018567044
235	0x3dfa65bd	0.12226436
236	0x3e217659	0.15767802
237	0xbc58af00	-0.013225317
238	0xbd4006bd	-0.046881426
239	0x3eb90f87	0.3614466
240	0xbe83eba6	-0.25765723
241	0xbece9586	-0.40348452
242	0xbe0bf111	-0.13666178
243	0x3e7b6edd	0.2455401
244	0x3cfe8ec3	0.031073933
245	0xbc4b94ee	-0.012425644
246	0xbe2aeaa7	-0.16691075
247	0x3e1575f3	0.14595775
248	0x3e4237f0	0.18966651
249	0x3e34d451	0.17659117
250	0xbd40a93f	-0.047036406
251	0x3e9eb6e2	0.30998904
252	0x3e2b4468	0.16725314
253	0xbe165954	-0.14682513
254	0x3daa05d3	0.08301892
255	0x3ea549c7	0.3228285

block2.0.conv.bias f4 [8]
0	0x3cbbfead	0.022948587
1	0xbd374a44	-0.04474856
2	0xbd72ff75	-0.059325654
3	0x3cc19685	0.023631344
4	0xbdb70ca9	-0.089379616
5	0x3cd0b69e	0.025477704
6	0xbdf90ca8	-0.12160617
7	0xbe0d3ad6	-0.13791975

block2.0.BN.weight f4 [8]
0	0x3f8ba20a	1.0908825
1	0x3f863649	1.0485317
2	0x3f943223	1.15778
3	0x3f8c58dd	1.0964619
4	0x3f5d9967	0.865622
5	0x3f6d3c34	0.9266999
6	0x3f62200c	0.8833015
7	0x3f847678	1.0348654

block2.0.BN.bias f4 [8]
0	0xbdeafe9a	-0.11474343
1	0xbe1fc275	-0.15601523
2	0xbd93c88d	-0.072159864
3	0x3e07f88e	0.1327841
4	0xbe8c534c	-0.274073
5	0x3e47b569	0.19502796
6	0x3dcb638e	0.09931098
7	0xbe882ce6	-0.26596755

block2.0.BN.running_mean f4 [8]
0	0xbec13bba	-0.3774088
1	0x3da70032	0.08154334
2	0xbf6d67df	-0.9273662
3	0xbe5eff97	-0.21777187
4	0x3f4a3eef	0.7900228
5	0xbf2fc724	-0.6866324
6	0x3f04b98d	0.5184563
7	0xbee30af3	-0.4434429

block2.0.BN.running_var f4 [8]
0	0x3f10ac47	0.56512874
1	0x3f5f733a	0.87285197
2	0x3f8692f5	1.0513598
3	0x3ecd40ea	0.40088588
4	0x3f9971e5	1.1987883
5	0x3f6a9ec9	0.91648537
6	0x3f0bf2d0	0.5466738
7	0x3ef0a40e	0.47000164

block2.1.conv.weight f4 [16, 8, 3, 3]
0	0x3e72819c	0.23682255
1	0x3ca0ee36	0.019644838
2	0xbe1cf578	-0.15328014
3	0x3e26f941	0.1630602
4	0x3de5e190	0.11224663
5	0xbd631358	-0.05543837
6	0xbe2716ae	-0.16317245
7	0x3e67e066	0.22644195
8	0x3e7bc029	0.24585022
9	0x3deffe4a	0.11718424
10	0xbca07494	-0.019586839
11	0xbe128386	-0.14307985
12	0x3e30e454	0.172746
13	0xbbe8d488	-0.007105414
14	0x3e107594	0.14107352
15	0xbd0a62ab	-0.033785503
16	0xbd9bcc2a	-0.076073006
17	0x3ccb3bdc	0.024808817
18	0x3dcdc8eb	0.10048088
19	0xbda1732f	-0.07883298
20	0xbe8385ab	-0.25687918
21	0x3ea282b8	0.31740355
22	0x3eb1d86e	0.34735435
23	0x3eef0c0a	0.46688873
24	0xbe03471b	-0.12820093
25	0xbd9e1c2f	-0.07720219
26	0xbd0510ac	-0.032486603
27	0x3e9a65a6	0.30155677
28	0xbda9bad2	-0.08287586
29	0xbe84fd55	-0.25974527
30	0xbd296390	-0.041354716
31	0x3d8a688c	0.06758222
32	0x3dfea6a9	0.12434132
33	0x3e31638b	0.17323129
34	0x3e1edb71	0.15513398
35	0x3e851eab	0.2599996
36	0xbbd416bf	-0.006472438
37	0x3dbdfaae	0.09276329
38	0x3de1b5f4	0.11021033
39	0x3dd4da9e	0.103932604
40	0x3dc87c04	0.09789279
41	0xbb1d5b6a	-0.0024010786
42	0xbd8736c3	-0.06602242
43	0xbe4192e0	-0.18903685
44	0xbd986060	-0.07440257
45	0x3d08ee9e	0.033430688
46	0x3dc1c4f3	0.09461393
47	0x3de1c90f	0.11024677
48	0x3db53619	0.08848209
49	0x3d062a1a	0.032754995
50	0x3d3ed094	0.046585634
51	0xbe57d5a3	-0.2107759
52	0xbe2add6e	-0.16686031
53	0x3d5d8b10	0.0540877
54	0xbdad648a	-0.08466442
55	0x3d9b4210	0.0758096
56	0x3cfafda7	0.030638529
57	0xbdbfdb75	-0.0936803
58	0xbe8da56c	-0.2766527
59	0xbe862204	-0.26197827
60	0x3e8d4134	0.2758881
61	0x3eab5e61	0.33470443
62	0x3d59e993	0.05320127
63	0x3df22c2d	0.11824832
64	0x3e62d681	0.22152139
65	0x3d79909d	0.06092893
66	0xbe487e47	-0.19579421
67	0x3e1461f5	0.14490493
68	0xbe924544	-0.2856847
69	0xbe7c1e98	-0.24621046
70	0x3e74c50b	0.23903291
71	0x3ddfb490	0.109231114
72	0x3d985c70	0.07439506
73	0xbdb7ff1b	-0.089842044
74	0xbc168228	-0.009186305
75	0x3d139786	0.036033176
76	0xbcb75635	-0.022379974
77	0x3e1de339	0.1541871
78	0xbdb21cb8	-0.08696884
79	0x3c9957f1	0.018718692
80	0x3db9085e	0.09034799
81	0xbda31be6	-0.079643056
82	0xbea70037	-0.3261735
83	0x3d826d5e	0.063685164
84	0xbe1a4f50	-0.15069318
85	0xbe512f17	-0.2042812
86	0xbe9ae957	-0.3025615
87	0x3e82582f	0.25457904
88	0x3e1c3df6	0.15258011
89	0x3da5770e	0.080793485
90	0x3ddd7c01	0.108146675
91	0x3dab9035	0.08377115
92	0x3daeaf04	0.08529475
93	0x3cc67854	0.024227299
94	0x3dbbdf12	0.09173407
95	0xbc65e4e5	-0.0140316235
96	0x3b9a3b91	0.004706808
97	0xbe22212e	-0.1583297
98	0xbdea48d4	-0.11439672
99	0x3cec185f	0.028820215
100	0x3e33ed07	0.17570888
101	0x3e826a9f	0.2547197
102	0x3b237464	0.00249412
103	0x3e4f7008	0.2025758
104	0x3daea0b5	0.08526746
105	0x3e944284	0.28956997
106	0x3e117cd8	0.1420778
107	0xbe0ebc67	-0.13939057
108	0x3e4aee59	0.19817485
109	0x3e9224d4	0.28543723
110	0x3e8634a8	0.2621205
111	0xbd7f8a79	-0.062387917
112	0xbe76a677	-0.24086939
113	0x3c471637	0.0121512925
114	0x3dce8207	0.100833945
115	0x3c96313e	0.018334027
116	0x3d9a3bee	0.07530962
117	0xbdaa074d	-0.08302174
118	0x3e3845eb	0.17995422
119	0x3d4a31b6	0.049363814
120	0xbd65efa0	-0.056136727
121	0x3b42b5d1	0.0029710422
122	0x3e1410e6	0.14459571
123	0x3d86615b	0.06561538
124	0x3d22ab1b	0.03971396
125	0x3e866ab8	0.26253295
126	0xbe543a4d	-0.20725365
127	0xbe294bef	-0.16532873
128	0xbede26c5	-0.43388954
129	0x3e867231	0.26258996
130	0x3e89f1c4	0.26942265
131	0x3db23633	0.08701744
132	0x3d4ae997	0.049539175
133	0x3e0bd389	0.13654913
134	0x3c396ff6	0.0113181975
135	0xbdd7b9fa	-0.10533519
136	0x3e9b7368	0.30361485
137	0x3e1ace5c	0.15117782
138	0xbd5a07fa	-0.053230263
139	0xbe278b8c	-0.16361827
140	0x3e44fbff	0.19236754
141	0xbdb18253	-0.086674355
142	0xbe82f60c	-0.25578344
143	0x3e6ef34d	0.23335
144	0x3e79e824	0.24404961
145	0x3e070dca	0.13188854
146	0xbd8460cc	-0.06463775
147	0x3ed0c63b	0.40776238
148	0x3e83ac8c	0.2571758
149	0x3d443f0e	0.047911696
150	0x3e3f7b84	0.18699461
151	0x3ca67dab	0.020323595
152	0xbec83750	-0.391047
153	0xbe1b748d	-0.1518118
154	0x3da3880b	0.079849325
155	0xbddc28d4	-0.10749975
156	0x3df9e8f1	0.12202633
157	0x3ddc49e5	0.10756282
158	0xbe3ce4a1	-0.1844659
159	0x3e25960d	0.16170521
160	0x3dcd8a98	0.100362
161	0xbe65336d	-0.22382899
162	0x3e0b6b4e	0.13615152
163	0xbe089465	-0.13337858
164	0xbd890d9e	-0.066920504
165	0x3b12b689	0.0022386631
166	0xbc91478f	-0.017734317
167	0xbe500a06	-0.20316324
168	0x3d9bd3b1	0.07608736
169	0xbe356d3b	-0.1771745
170	0xbd6e2e30	-0.058149517
171	0x3e46877e	0.19387624
172	0x3e98d611	0.2985082
173	0x3e63cb27	0.22245465
174	0x3e1d523a	0.15363398
175	0x3b234881	0.0024915042
176	0xbead9361	-0.33901504
177	0x3d45d5d9	0.048299644
178	0x3d1f36c5	0.03887059
179	0xbdf5a768	-0.11994821
180	0x3d08abdc	0.033367023
181	0x3d8443cc	0.06458244
182	0x3d91372a	0.070906
183	0xbdd42605	-0.10358814
184	0xbe6f59b4	-0.23374063
185	0x3d1113de	0.035419337
186	0xbdb3cadc	-0.08778927
187	0x3d70cb7f	0.05878782
188	0x3e66d018	0.22540319
189	0x3e4568b4	0.19278222
190	0x3de17842	0.110092655
191	0x3e586a10	0.2113421
192	0xbe4397fa	-0.19100943
193	0xbe96fad9	-0.29488257
194	0x3e31f525	0.17378671
195	0xbe9dcbca	-0.3081954
196	0xbe939235	-0.28822485
197	0x3b85401f	0.0040664817
198	0xbdaea596	-0.08527677
199	0xbddf4e8d	-0.10903654
200	0x3e111902	0.14169696
201	0xbeb5d656	-0.35515088
202	0xbec141df	-0.37745568
203	0xbdccb7a2	-0.09995963
204	0xbda7a9f8	-0.08186716
205	0xbc0b1013	-0.008487719
206	0x3cc3830d	0.0238662
207	0xbcd4409c	-0.025909714
208	0x3d32be08	0.04363826
209	0x3de4f888	0.11180216
210	0xbdf5c6ba	-0.12000795
211	0xbe46100c	-0.19342059
212	0x3dce7876	0.1008157
213	0x3dde3d51	0.10851539
214	0x3e498d36	0.19682774
215	0x3d2bfe27	0.041990425
216	0x3e2a008b	0.1660177
217	0x3d83adf4	0.06429663
218	0x3d1e170b	0.038596194
219	0xbd2b5e33	-0.041837882
220	0x3ba573a3	0.0050491854
221	0xbe5b6946	-0.21426877
222	0x3e4951db	0.19660132
223	0xbd33e70b	-0.04392151
224	0x3b9e835f	0.004837438
225	0xbeab4464	-0.33450615
226	0x39a3ccbc	0.00031242322
227	0x3ddbc913	0.10731711
228	0x3e054aa1	0.1301675
229	0x3e2a3f90	0.1662581
230	0x3e091991	0.13388659
231	0x3e83fb8a	0.25777847
232	0x3ec4fe3c	0.38475215
233	0x3ec16f94	0.3778044
234	0x3e734029	0.23754944
235	0x3d953e8e	0.07287322
236	0x3e1d5961	0.15366127
237	0x3e4a3792	0.19747761
238	0x3e23209a	0.15930405
239	0x3e2f6a19	0.17130317
240	0xbda1825f	-0.078861944
241	0xbea234c6	-0.31680888
242	0xbe2a947c	-0.16658205
243	0x3e06a301	0.13148119
244	0x3ea69f0d	0.3254322
245	0x3d506b2c	0.050883457
246	0x3e9360b8	0.28784728
247	0x3dd95ee9	0.10613806
248	0xbddd9fbc	-0.108214825
249	0x3d3ac0d9	0.04559407
250	0x3d1ef5a5	0.038808484
251	0xbd93432d	-0.07190547
252	0xbe0cd197	-0.13751827
253	0xbe6f4b68	-0.23368609
254	0x3cbd8e1a	0.023139048
255	0xbe8c490d	-0.27399483

block2.1.conv.bias f4 [16]
0	0xbc9da722	-0.019244734
1	0x3df8a787	0.12141328
2	0x3d0edc13	0.034877848
3	0xbd947d11	-0.07250417
4	0xbd240df0	-0.040052354
5	0x3e66dca6	0.22545108
6	0xbde52094	-0.111878544
7	0xbdf9d441	-0.12198687
8	0x3e8efc1a	0.27926713
9	0xbd7773b0	-0.060413063
10	0xbdb1cf9c	-0.086821765
11	0xbe02affa	-0.12762442
12	0x3bf022a1	0.007328347
13	0xbbc1c533	-0.0059134006
14	0x3d0724ee	0.032994203
15	0xbd074bc9	-0.03303126

block2.1.BN.weight f4 [16]
0	0x3f84abc6	1.0364921
1	0x3f884a6a	1.0647709
2	0x3f8ab1fe	1.0835569
3	0x3f839cd3	1.0282234
4	0x3f81c47c	1.0138087
5	0x3f6b4541	0.9190255
6	0x3f6d0e70	0.92600155
7	0x3f80e2fe	1.0069273
8	0x3f858e14	1.0433984
9	0x3f5ecd49	0.8703199
10	0x3f829243	1.0200886
11	0x3f4cb904	0.7996981
12	0x3f83e89f	1.0305365
13	0x3f7e9eba	0.9946095
14	0x3f8a9bca	1.0828793
15	0x3f8d161c	1.1022372

block2.1.BN.bias f4 [16]
0	0xbe80a715	-0.25127473
1	0xbefda420	-0.4953928
2	0xbe1bbb69	-0.1520821
3	0xbe26acb1	-0.16276814
4	0xbb4471c3	-0.0029975034
5	0xbe4448ef	-0.19168447
6	0xbe9070c0	-0.2821102
7	0xbe6f5780	-0.23373222
8	0xbe5b0959	-0.21390285
9	0xbe947747	-0.2899725
10	0xbe81f069	-0.2537873
11	0xbdfe3e7e	-0.12414263
12	0x3d8c572d	0.06852565
13	0xbeb00b09	-0.3438342
14	0xbe33816b	-0.17529838
15	0xbe6a7907	-0.22897731

block2.1.BN.running_mean f4 [16]
0	0x3f773f81	0.96581274
1	0x3f83e274	1.0303483
2	0xbdf2540e	-0.118324384
3	0x3e9f9400	0.31167603
4	0xbf1b9bd7	-0.6078467
5	0xbc602356	-0.0136803
6	0xbe07b2e1	-0.1325183
7	0x3dc5b1cb	0.09653052
8	0xbee0a6a7	-0.43877146
9	0xbd60b64e	-0.05486136
10	0x3eb06ff7	0.34460422
11	0xbee91b2a	-0.45528537
12	0xbdc3ded0	-0.095639825
13	0x3f226a62	0.6344358
14	0xbe3468e2	-0.17618135
15	0xbeb87328	-0.36025357

block2.1.BN.running_var f4 [16]
0	0x3f909939	1.129676
1	0x3f2f32a4	0.68436646
2	0x3fa7b1f7	1.3101186
3	0x40014339	2.019728
4	0x3fd01059	1.6254989
5	0x3f5e1aa8	0.86759424
6	0x400dc37c	2.2150564
7	0x3fa5ebcd	1.2962586
8	0x3fd1b41b	1.6383089
9	0x3fa37a25	1.277165
10	0x3ffe054e	1.9845369
11	0x3fbdfcef	1.4842814
12	0x3f9abca4	1.2088819
13	0x3f8b59d7	1.0886792
14	0x3f463aea	0.77433646
15	0x3febfc03	1.8436283
